code/modeling/ckpt/AutoencoderConfig([2, 1, 1], flip=False, rotate=False)/autoencoder_30000.pth (torch, 358424 bytes, 73 tensors)

0.features.0.0.weight f4 [16, 8, 3, 3]
00000000: 4181 0abc ab57 da3c ace6 babc f1d9 7fbd
00000010: e83d 35bd ed57 f7bc b471 92bb a961 f13d
00000020: 59a6 353c 8b6e 6abc 7720 18ba 592d 9cbc
00000030: a596 37bc 7139 1cbd 920f 67bd 875b 01bd
00000040: 9b1a c33c 839c 1ebd ae93 413c 85a2 1ebd
00000050: 6af4 3b3c bdf0 abbd 11b2 9d3c 85c3 36bc
00000060: a320 b3bb b266 cbbd 564e 34bd 6e4b a8bc
00000070: 9948 133d 8dbc a6bd d0cc edbc bcb1 5c3e
00000080: 3751 463b 3298 adbb 4fee 403e b0a1 54bd
00000090: 6ff0 3cbd 52c7 133c 918d 1dbd 7ad2 96bc
000000a0: ae78 0f3e 2b81 d93c a57c d3bc ae4f fa3d
000000b0: 6b88 4dbb 6605 0c3d 98bd 9abd 4c3c c1bd
000000c0: f46d 673d b01c 863d a033 2abd c11d a6bc
000000d0: c294 fcbc b642 81bd 3811 dcbd 1572 34bd
000000e0: 38c6 d53a 7193 bdbd 27f2 543d 7eb5 173c
000000f0: e626 10be 9a53 ccbc 02dc 0dbc 6385 5c3d
00000100: 7c6b bb3c ebef 8e3c d612 be3d c186 c73d
00000110: f0f9 35bc 2272 1ebd 6e23 843d 8c12 46bc
00000120: 3b7d 363c dace aebd bb23 da3c 93c3 a43b
00000130: 4eda 853a 23cc 42bd 2f03 90bd 1643 1d3d
00000140: f7fb b43c f667 923b 3bd9 78be 7ca3 703c
00000150: bdf7 32be abed 19bf 816e d0bd 79aa f7bc
00000160: 4030 47be 4d34 a23b 7fcd d1bc b1df 56bd
00000170: c032 07bc 10b3 d5ba da87 efbd 4b8c 913b
00000180: 2cc1 d8bc e77e 1e3d dcc8 c1bc 5e85 353d
00000190: af43 25bc 34eb 403c 1d8b 07bd 80d4 c43c
000001a0: 5aba 9d3d f76b 0a3d 8db4 483d 9ed6 043d
000001b0: edee 55bb c830 4abd 45f5 66bd ebe4 7abc
000001c0: 63e1 153d 3daa 83bd 319b 263c 2293 30bd
000001d0: d04b e7bc a5f8 703c 47c9 b53d d195 d0bc
000001e0: 210f b53c 2c6d 593c a6bc 193c ecfb 1b3d
000001f0: b69f 843b 23a5 63bc 0c69 51bd 7aec 30bc
00000200: e05c 3cbc 7bb0 233d a121 663b 254f 9a3c
00000210: ce62 753c 830e 403c edbf cbbc 05ec b73c
00000220: 82c3 863d 2192 f63c b086 febc 1cc4 9f3d
00000230: b0e4 75bd fc39 61bc 4b90 2f3d eacf 82bb
00000240: 31d8 03bc 75d4 4fbc 02d3 833c 896b c63b
00000250: 2e86 a23c 80d9 06bd 203c a73a f2c8 d3bb
00000260: 661d 833c 070d 533c 49e8 7abd c69b a53c
00000270: 43b7 a6bc 943e b93e 53de 13bd e6d1 683c
00000280: 6a26 4bbd f642 af3c 57c7 d03b c838 743c
00000290: e4ae 46bb d4d2 583c 6257 ce3e 23c4 223c
000002a0: 821e e8bb 4654 813c 0db9 383c 96a7 eaba
000002b0: c1ac 1dbc 1cce 9f3a 38c1 7dbc 92e9 d53c
000002c0: 2f00 84bc 0885 6abc 8cb4 0b3c 0824 32bc
000002d0: 15ef 8bbb 2668 0939 1bf7 ddbb 72be d2ba
000002e0: 9c14 8f3c c19c e5bc 4144 c4bb 7274 903b
000002f0: aa56 103c 96a8 a2ba 73a2 b13c 1a14 74bb
00000300: 96df 84bb 0f3c fe3c ab69 96bc 852c b8bb
00000310: 4a25 113c 1b43 1e3c df50 e33b 4f48 273c
00000320: 6a88 bfbb 61a5 7abb 40e5 023c 5cd8 44bb
00000330: 192a 7e3a dff2 37ba c7f2 19bb 3381 71bc
00000340: f159 8f3b 700c 03bb 0a54 2cbc d9ed 293c
00000350: 2c29 45bc 98f5 b13a ad39 93bc 603f 283b
00000360: b67c d5bc a120 b0bc 9814 d2bc 6e4c 663d
00000370: 4a91 533e 9983 01bd b37e 4abb 8985 663e
00000380: 6a3e cebc ebb8 e8bb f2d2 183d f74c e2ba
00000390: 575f 3bbb 84c1 ed3d 7636 e13c 561e 02bb
000003a0: bc86 103e 2d83 64bc 1cf2 9cbb 8a5e c83c
000003b0: 6360 e83b 1f11 0dbc ea3f 743d 1366 e83c
000003c0: c7ff 0b3b 122e 4a3d ed21 48bb d800 b5bc
000003d0: 561e 43bd d423 3d3b 7d59 433c 5c93 eabc
000003e0: ae89 223d f302 b93d 5f2d 913c 8ddb 843d
000003f0: 42af a4bb 664d 17bd fc14 0cbd 9e9b 4fbd
-0.008453668 0.026653131 -0.022815071 -0.062463704 -0.04424849 -0.030193293 -0.004469121 0.11786205
0.011087024 -0.014308582 -0.00058031775 -0.019064592 -0.01120535 -0.038140718 -0.056411333 -0.031581428
0.023816397 -0.03872348 0.011814995 -0.03872921 0.011471847 -0.083955266 0.019249948 -0.011155014
-0.005466537 -0.09931697 -0.04402002 -0.02054378 0.035957906 -0.08141432 -0.029028326 0.21552175
0.003026081 -0.005297684 0.18840908 -0.05191201 -0.046127733 0.00901969 -0.038465086 -0.01841091
0.1401088 0.02655085 -0.025816271 0.12222229 -0.003136183 0.034184836 -0.075556934 -0.09435329
0.056501344 0.065484405 -0.04155314 -0.02027786 -0.030832652 -0.06311552 -0.10745472 -0.04405411
0.0016309684 -0.09256638 0.051988747 0.00925958 -0.14077339 -0.024942208 -0.008658411 0.053838145
0.022878401 0.017448386 0.092809364 0.09742499 -0.011106953 -0.038683064 0.0645207 -0.012089383
0.011138256 -0.085355476 0.026628366 0.005028197 0.0010212155 -0.04755796 -0.07031857 0.038394056
0.022092802 0.0044679595 -0.24301617 0.014687415 -0.17477317 -0.6012828 -0.10177327 -0.030232655
-0.19452 0.0049500824 -0.025610683 -0.052459422 -0.008251846 -0.0016303975 -0.116958335 0.004441773
-0.026459299 0.038695242 -0.023655348 0.044316642 -0.010086938 0.011774827 -0.033091653 0.02402711
0.07701559 0.03379437 0.04900031 0.032431237 -0.0032643632 -0.049362928 -0.05638625 -0.015313367
0.0365919 -0.06428955 0.010168836 -0.043109067 -0.028234392 0.014707719 0.08876281 -0.025462063
0.02210194 0.0132706575 0.009383356 0.03808205 0.0040473593 -0.013894352 -0.05112557 -0.010798568
-0.0114967525 0.039963227 0.003511526 0.018836567 0.01497717 0.01172221 -0.02487179 0.02245141
0.06580259 0.030098977 -0.031070083 0.07801077 -0.060032547 -0.013746735 0.042862218 -0.0039920704
-0.0080471495 -0.012684931 0.016091827 0.0060552997 0.019839372 -0.032922268 0.0012759008 -0.0064631635
0.01600523 0.012881524 -0.06125668 0.02021588 -0.020351058 0.36180556 -0.036100697 0.0142102
-0.04959718 0.021394234 0.0063714194 0.014906116 -0.0030316645 0.013233859 0.40301043 0.009934458
-0.007083715 0.015787255 0.011274588 -0.0017902728 -0.009623707 0.0012192163 -0.0154879615 0.026112352
-0.016113369 -0.014313944 0.008526932 -0.010872848 -0.004270444 0.00013104136 -0.006773842 -0.0016078486
0.017465882 -0.028028848 -0.005989582 0.0044084126 0.008809725 -0.0012409862 0.021683907 -0.0037243427
-0.004054974 0.031034498 -0.018360933 -0.0056205415 0.008858988 0.009659554 0.006937131 0.010210111
-0.0058451192 -0.0038245546 0.007989228 -0.0030036187 0.0009695604 -0.00070170866 -0.0023490654 -0.014740276
0.0043747355 -0.0019996427 -0.010518083 0.010371649 -0.012033742 0.0013577221 -0.017971838 0.002567254
-0.026060443 -0.021499934 -0.025644585 0.056225233 0.20660892 -0.031619642 -0.0030898273 0.22511877
-0.025176246 -0.007102122 0.037310548 -0.0017265369 -0.0028590763 0.11609176 0.02749179 -0.0019854507
0.14113897 -0.01394729 -0.004789604 0.024459142 0.0070915683 -0.008610039 0.059631266 0.028368985
0.0021362172 0.049360342 -0.00305378 -0.022095129 -0.047636352 0.0028860467 0.011923191 -0.02863472
0.039682083 0.09033766 0.01772183 0.064871885 -0.005025775 -0.036939047 -0.0341997 -0.050685517

0.features.0.1.weight f4 [16]
00000000: 525a 8d3e b4d0 643f 3b5a 963f 06b8 da3e
00000010: ba14 1a3f 58e3 2b3f db1d 053f c294 123f
00000020: d684 e13e ef0a 103f f345 783f ba9e 323f
00000030: 42e1 513f e8a5 243f 0432 0a3f 7dd6 0f3f
0.2760797 0.89380956 1.1746286 0.42718524 0.60187876 0.67143774 0.5199868 0.57258236
0.44046658 0.56266683 0.96981734 0.6977345 0.8198434 0.6431565 0.5398257 0.5618666

0.features.0.1.bias f4 [16]
00000000: 2c96 303f 0204 9fbe 69b8 1fbf eca0 a03f
00000010: 3219 983d ab0a 5b3e 000b 8f3c 90b4 013f
00000020: e858 803e eb52 a23e e5c4 8bbf 2a1d 8e3f
00000030: f4f5 483f 18e1 df3d 1662 f13e ed95 083e
0.68979144 -0.31057745 -0.6239076 1.254911 0.074266806 0.21390788 0.0174613 0.5066614
0.2506783 0.31703886 -1.0919462 1.110265 0.78500295 0.10931605 0.47145146 0.13338442

0.features.0.1.running_mean f4 [16]
00000000: 8c35 20ba 9b5f 6bb9 200e 84b9 e7d7 9d39
00000010: 1358 853a e4ee 76ba 17db a6b9 65c7 45b8
00000020: c827 43b9 1a7c 2037 a5f6 e136 03f2 2339
00000030: 3640 a039 a01c f539 15a5 6338 2575 9239
-0.0006111495 -0.00022446962 -0.00025187526 0.00030106233 0.0010173343 -0.0009419753 -0.00031825222 -4.715416e-05
-0.00018611469 9.565638e-06 6.7342357e-06 0.00015635048 0.0003056542 0.0004675137 5.4274762e-05 0.0002793457

0.features.0.1.running_var f4 [16]
00000000: 9fc9 1e3e 97a6 c83f 3249 893e 21e3 173f
00000010: d854 8b3f 3de5 ac3f d74b 003f ceba a93e
00000020: 4636 353f 7a05 493f f842 a43d 6c1b 123f
00000030: 1a72 2d3f 6f8a 123f e435 143f 29ad a03e
0.155066 1.5675839 0.26813656 0.59330946 1.0885267 1.3507458 0.5011572 0.33150333
0.7078594 0.7852398 0.08020586 0.5707309 0.6775223 0.5724248 0.5789473 0.3138211

0.features.1.0.block.0.0.weight f4 [16, 16, 3, 3]
00000000: 9e3e 503d 4345 d73d a19b 28be c56a 6b3e
00000010: 2d62 9d3e 8cad 293d cc84 483d 24ae 3ebe
00000020: da55 dabd 8e44 ec3d cea0 053d 86db 7c3d
00000030: 2266 8fbc 4e8d 5e3d 6517 293e 53c7 933d
00000040: 79ca abbd 846e 123e 4238 8abc 9e00 5f3d
00000050: 985d 09bb ebc8 4a3d d32c 103d 2a60 15bd
00000060: 0332 3ebd 34cf ba3b 12d4 d33c 726d b9bd
00000070: cd8d d7bd ad62 873c 9603 94bd 327d 3a3d
00000080: 782e 873d 1f1e 273d 23ec eebd 0592 0abe
00000090: ee8f ebbd 087e cd3c 59f1 bbbb a65a d23d
000000a0: a2ea 3b3c bf3c e33d d3a5 433d ccac 533d
000000b0: 8bff 9b3c c024 03be 0a7c ba3d ae41 a8bd
000000c0: 8fcc 413c a84c 353d e7f8 3f3d abca ddbd
000000d0: 16b2 23bc 17ea a0bd 46f7 db3d 01cb 84bd
000000e0: 90a1 0b39 f256 0d3d 8450 cdbd 9a51 4f3d
000000f0: 5d12 38bd ce9d 203e 2d21 7b3d e1b7 06bd
00000100: 7835 a03d 20f5 e1bc 9c7e c7bc 9d17 84bd
00000110: 280a 8fbc 2760 803d 94e6 c63b 0bcf 893d
00000120: f579 99bc 6436 c9bc 9ab5 36bd 779f 943e
00000130: bc68 903e ca3f 73bc 2ddd ec3b 9846 ea3d
00000140: ab8d 343d 72c7 17be 0d78 193e 1081 8ebe
00000150: 4d11 a73d a372 813e 59c4 7ebd 383b 27bb
00000160: 4ec3 1b3e e1ff 923d 1554 2cbd f584 28bd
00000170: 9768 0c3e a988 febb 052e 793d 13b5 173c
00000180: f47a 2ebd 78c1 733c 1d11 d6bd cac3 903d
00000190: 8298 66bd 9a54 3ebb a60a acbd 1278 aabd
000001a0: f9d8 003d 427c f23c df9e 8cbc d256 9fbc
000001b0: 4257 213d 12b0 b3bd c588 8e3d c4a1 16be
000001c0: ea03 fe3c 50e1 523d 822d c93b af3a 60bd
000001d0: 03e4 62bd 738c 553c 16c3 ba3d e6e4 143e
000001e0: 41e8 ffbc 5ec2 993e 1538 353e bdf3 0c3d
000001f0: 6cac 4a3e 7eb6 2b3c 3fd3 113d d8fe 29be
00000200: a550 5abd a057 923d c34f 85be 38fa 13be
00000210: d247 b8bd 30cf 3cbe e815 443c 6bb5 c0bd
00000220: 6062 8d3d 826e bcbd 8853 50bd b3c6 3b3e
00000230: c8a7 483e 8bbc 1fbe aa90 e83d 20d4 7cbd
00000240: 0f64 2dbd 15fc 30bd 9536 313e 0581 f33d
00000250: c2c2 a9bd a5bf a8bd 0738 463e 00dd 7e3e
00000260: 5ca8 24be f726 5d3d d1d0 803d 330f e93c
00000270: a07e db3d 48bd bd3d c50c 55bd 691c 593d
00000280: 20da 8a3d 49af 9e3d e9b2 223c 22ce 3d3e
00000290: 67b4 afbb a3e2 fd3d bf12 2e3e 9d73 adbb
000002a0: 89fd 11bd 3929 3c3e 90df 82bc 1b5a 71bd
000002b0: 2e33 57be 39ed 013a 5acd 86bd 8e45 0dbe
000002c0: 9dd8 1cbe 8050 133e bc3c a4bc 3dff 83bc
000002d0: 613d 8dbd 7adf ae3c fac9 763d 70e0 753b
000002e0: 2984 40be 0ed5 33be df95 493e 559e a4bc
000002f0: 1bc9 44bc c5bd 7bbd f499 99bd fcb9 09bc
00000300: 9518 b6bd 9741 703d a8a0 38bd 43b4 a8bc
00000310: c0f1 1c3d f85f 113e d044 08be 9b2d 0c3e
00000320: f66e a8bd b7cb 9ebc 4f39 2d3e 0df7 b93c
00000330: b773 813d b7b3 9bbd 6606 183c 46f4 07be
00000340: 5940 04be 6986 92bd 4e40 97bd 4faa 3dbe
00000350: 9002 143d cbae 3dbd 6af1 acbc d97b 443c
00000360: 2d4a fcbb 67a2 6a3c f71b 33bd ffe3 65bd
00000370: 2267 4b3d 2273 8abd cbf4 54bd 3561 a7bd
00000380: cd73 5dbc b99a 0dbe 07ea 5c3c db55 863b
00000390: 0b29 6fbe 0e26 5fbe be99 843d b144 26be
000003a0: c910 3e3d 7036 2f3d cd12 a7bd 6111 643d
000003b0: 55aa 003c f212 05be bdaf 0ebe a175 3b3d
000003c0: 6e17 20bd f479 183d 7f6e c53d 69cf aabd
000003d0: 0832 0fbe ddcc 32bd 04a7 15bc c606 41be
000003e0: 567f 003e f4ad 023c 4b93 6ebd 51b8 b0b9
000003f0: c7c2 5e3d 14d2 c5bd c52f 163d aa94 233d
0.050840966 0.105112575 -0.16465618 0.22989948 0.30738965 0.041425273 0.04895477 -0.18621117
-0.10660906 0.11536513 0.03262406 0.06173279 -0.017504755 0.054333977 0.1651283 0.072157525
-0.08388228 0.14299971 -0.016872529 0.054443948 -0.0020960327 0.049508017 0.035198998 -0.036468662
-0.046434414 0.00570097 0.025857959 -0.09054078 -0.10525093 0.016526544 -0.072272465 0.04552955
0.0660066 0.04080021 -0.11666133 -0.13532265 -0.11502062 0.02508451 -0.005735558 0.10271196
0.011469515 0.11095571 0.047765564 0.051678464 0.01904275 -0.12806988 0.0910569 -0.082156524
0.011828556 0.04426256 0.04686823 -0.108296715 -0.009991189 -0.07857149 0.10740523 -0.064840324
0.0001331626 0.034506746 -0.10025123 0.05061493 -0.044939388 0.15685198 0.061310936 -0.032890204
0.07822698 -0.027582705 -0.024352364 -0.064498164 -0.017460898 0.062683396 0.0060699675 0.067289434
-0.018734911 -0.024562068 -0.044606782 0.29027912 0.28204906 -0.0148467515 0.0072285146 0.11439246
0.044080418 -0.14822176 0.14987202 -0.27832842 0.08157597 0.25282773 -0.06219897 -0.0025517475
0.15211222 0.07177711 -0.042072374 -0.041142423 0.13711773 -0.007767756 0.060834903 0.00925948
-0.042597726 0.0148776695 -0.10452483 0.07068594 -0.056297787 -0.0029042126 -0.084004685 -0.08323683
0.03145692 0.029600266 -0.0171656 -0.019450579 0.039389856 -0.08773817 0.069596805 -0.14710146
0.031007726 0.051484406 0.006139458 -0.054743465 -0.05539323 0.013033974 0.09119241 0.14540443
-0.031238677 0.30031103 0.17697175 0.034412134 0.19792336 0.010480521 0.03560185 -0.16601121
-0.053299565 0.071456194 -0.26037416 -0.1445092 -0.08998074 -0.18438411 0.0119681135 -0.09409603
0.06903529 -0.09200765 -0.05086091 0.18337516 0.19595253 -0.15599267 0.113557175 -0.061725736
-0.04233175 -0.043209154 0.17305978 0.11889843 -0.082891 -0.08239678 0.1935731 0.24888992
-0.16079849 0.053992238 0.062898286 0.02844963 0.10717511 0.09264618 -0.05201413 0.05300561
0.06779885 0.07748277 0.009930351 0.18535665 -0.005362082 0.12396743 0.16999339 -0.005293323
-0.03564218 0.183751 -0.015975744 -0.058923822 -0.21015617 0.00049563084 -0.065821365 -0.13796064
-0.15317006 0.14386177 -0.020048492 -0.016112918 -0.06896473 0.021346796 0.060251214 0.0037517808
-0.18800415 -0.17561743 0.19686078 -0.02009503 -0.012010838 -0.061460275 -0.07500067 -0.008406159
-0.088914074 0.0586563 -0.04507509 -0.020593768 0.03831649 0.14196765 -0.133075 0.13689272
-0.08224289 -0.019384248 0.16916393 0.02270081 0.06320899 -0.07602637 0.009278869 -0.13276777
-0.12915172 -0.07154543 -0.07385312 -0.18521999 0.036135256 -0.046309274 -0.021111209 0.011992418
-0.007699272 0.014320946 -0.04372784 -0.056125637 0.049658902 -0.06760241 -0.051991265 -0.08172838
-0.013516379 -0.13828553 0.013483531 0.0040995902 -0.233555 -0.2179186 0.064746365 -0.16237141
0.046402726 0.042776525 -0.08157883 0.055680636 0.00785311 -0.12995508 -0.13934226 0.045766477
-0.039084844 0.03722568 0.09640216 -0.083403416 -0.13983929 -0.043652404 -0.009134058 -0.1885024
0.12548575 0.007976044 -0.05824594 -0.00033706662 0.054384973 -0.0965921 0.03666665 0.0399367

0.features.1.0.block.0.1.weight f4 [16]
00000000: ae2b 183f 8734 243f b0ad 003f 01d4 053f
00000010: 9710 203f ad41 233f cb5e 3d3f 9acb ff3e
00000020: 9017 7a3e a69b 1940 7514 163f c4e2 ec3e
00000030: d993 1b3f d873 2e3f 8ed7 0e3f 737a 193f
0.5944165 0.6414265 0.50265026 0.5227662 0.62525314 0.6377209 0.7397277 0.49960023
0.24423051 2.400125 0.58624965 0.46266758 0.6077247 0.68145514 0.5579766 0.5995247

0.features.1.0.block.0.1.bias f4 [16]
00000000: bb66 883e 5d48 e2bc 0511 bd3d ea30 933e
00000010: a985 813f bc4f 933f ceb0 0a3e 5e27 773e
00000020: 5d02 8a3e 0ccd 0bc0 b39a de3f 7603 a13e
00000030: 8ae3 293e 9f3c 703e 8abd ad3d a7e8 00be
0.26640877 -0.027622396 0.09231762 0.28748256 1.0118915 1.1508708 0.13544008 0.24136111
0.26954928 -2.18439 1.739096 0.31447953 0.16590706 0.23460625 0.08483417 -0.1258875

0.features.1.0.block.0.1.running_mean f4 [16]
00000000: 4735 a8be a0eb 99bf fae2 d13e 5666 b8bc
00000010: c2d1 293d 772d 353f 5309 d6bc a427 073e
00000020: 11ac d9be c1f1 1fbd 0cbf 1a3d 00fd 7a3f
00000030: 9275 e4be aa0b 49bf a007 7e3f 017f 26be
-0.32853147 -1.2025032 0.40993482 -0.022509735 0.041459806 0.707725 -0.026127493 0.13198715
-0.4251409 -0.039048914 0.037779853 0.980423 -0.4462095 -0.7853342 0.99230385 -0.16259386

0.features.1.0.block.0.1.running_var f4 [16]
00000000: 2418 543f 86c8 603f a9c5 e93e c1be 0640
00000010: 3b25 223f bce2 9d3e 9531 963e 7b97 9b3f
00000020: 29c4 b83d f251 ba3c 7ee1 683e f792 6b3f
00000030: a0dd 1d3f 86d9 bc3f fd38 cf3f deb2 0c3f
0.82849336 0.87805974 0.45658615 2.1053927 0.6333806 0.30837047 0.29334703 1.2155603
0.090217896 0.022744153 0.22742268 0.92021126 0.616663 1.4753883 1.6189266 0.5496043

0.features.1.1.block.0.0.weight f4 [16, 16, 3, 3]
00000000: fc7a 77bd ae6f 093e d099 6fbe 9c1c ba3d
00000010: 1183 ebbe 9dac 013e 2b8b 3bbe 6094 c33d
00000020: 5a11 78be 06e8 87bc 886d c83c 81a6 5c3d
00000030: 31dd ba3d 74fa e6bd b834 0b3e 8192 9ebc
00000040: 31be 46be 4e84 863d a052 8abd e5c9 0b3e
00000050: 6023 c73d 3d86 413d df4b 383d a61d 74bd
00000060: 3abc 5f3d eb54 093d 6d65 df3b f124 11bd
00000070: ac8a 41be 0799 173d 6764 553d 379f 3b3c
00000080: 8b4d 113c 7251 543d e16b 8cbd 45e3 213d
00000090: 1794 c1bc a7b4 90bd db02 353e 3fa5 093e
000000a0: 2927 413d 4320 8fbb d68a 913d 5ddf d53c
000000b0: 69f8 4c3e 72c4 2abe 1975 c9bd 5854 08be
000000c0: b343 a5bd 2a49 903d 6435 1abd b67d 6cbe
000000d0: 06cf 363d 67f4 15be 6743 bcbd 9a25 81bc
000000e0: 8256 09bd 5c00 1d3b 46cc 1fbd c10d c23b
000000f0: 4a23 c6bd 9495 403d 3a78 91bd 8015 c83b
00000100: 56e4 c63d a80d 9cbd d471 c5bd c4a3 4bbd
00000110: ff48 f63c e1cb 46be 6725 c0bd 9e12 153d
00000120: 7108 8dbe afc1 9bbd 2444 de3d c910 9abd
00000130: 7ce9 cebb 9d0f cd3c 2b50 13bd 1072 ec3d
00000140: acd6 9bbd 6b01 413d 78e3 353c 1199 043c
00000150: 2bbc 77bd de83 82bb 32dc 86bd 304d 35b9
00000160: ee96 50bd 2179 87bc 0adc 493d 6938 f73d
00000170: 6bae 233e 5fef 4bbd a467 083d d6d8 0dbe
00000180: bb38 af3b 5550 a83d 7a31 b63d 2af9 0d3e
00000190: d0be ccbc 348e 10be cd1a 30bd b797 4cbe
000001a0: edaf 403e 1454 743e 6205 363d 1336 f5bd
000001b0: 690f 083c fefb 9fbc e8c6 a7bc 0e82 41bd
000001c0: c00a 883d d475 06bd ee0e aebd 85f4 dcbc
000001d0: 1567 0a3c f84a 703b b9cd 9f3b 0501 60bc
000001e0: b51a 883d 3fb9 7c3c 3b37 013d 47a0 8bbd
000001f0: 983d 72bd 7376 40bc b267 f43d 3354 84bc
00000200: 4ed1 303d 82b7 fdbd 3709 0dbc da64 563c
00000210: 190a ff3d 6873 6abe 367c f03d d9f8 abbc
00000220: 5a9e 54be 6276 cebd cd73 4abd d6cc 983e
00000230: 59fb b6bd 2f86 103e fe89 c23c 9d90 5fbd
00000240: 0ab1 47be 7482 283e ebcc 14bd f18f a1be
00000250: 98d9 0c3e 717a a8bd 8156 853d b921 013e
00000260: 312e 8bba a58b 3a3a 095a 6cbd a6b2 5bbc
00000270: fefb 773d 87e1 f73c 774a 12bd 1212 ddbd
00000280: 45f7 19bd 9355 e5bd a7a9 b0bc c937 203e
00000290: fc28 6dbd 2964 b93d 683e f83d 259c e43b
000002a0: 3229 4cbd 8547 473e 73d6 c0bd 84d7 7ebc
000002b0: 37a5 5f3d b56c 1dbe 1959 743e 646c 21be
000002c0: 43ce a43d af68 183d 213b 0e3d 698a 99bd
000002d0: fcb8 00bd 3247 293d 25ed e43d 8112 853d
000002e0: 7203 2dbc 353f cebc 2f99 32bd 3bf4 ba3d
000002f0: 4464 363e 80a9 afbd b829 28bd f211 1bbd
00000300: 604a 03bd 3289 fe3b 51d8 cc3d ad0c 9e3c
00000310: e342 283d c03b 6bbe 33ba 88bd e86d 593b
00000320: 52af 30be 8890 debd 5e33 683c e59e eabb
00000330: a739 c6bd 951c 76bb 85b0 a03c ddb4 b3bc
00000340: 68c6 b1bb 60d5 66bd 1eab f8bd 1acc 7ebd
00000350: e26e d43d f12e e9bd e4d5 5f3d c79e 083e
00000360: a03d 9fbe 21d3 a73c 3bf3 e3bd 7298 2fbe
00000370: 59ee 863d 6f2f 07be cb16 a3be f317 253c
00000380: 4fd7 cabd 3e14 e43d 3044 663d a4a5 d73d
00000390: 8adc 5b3d 4f54 d73d 99da 7ebd 46e8 0dbd
000003a0: f136 153d cc4e e03d f6bd 9b3d e9aa bf3d
000003b0: 7eaa 02bc 8289 913d 9b5f 623e 04d4 53bb
000003c0: 2859 3e3d ec66 f73d 15ff abbd 74ce 89bd
000003d0: 4514 bebd 548c 47bc 1092 d2bc 7edc a3be
000003e0: 66b4 8bbd 9368 a43b 7870 0cbe 8ed8 d53d
000003f0: b829 503d 54dc e6bc eb65 d03b 7ee1 17bd
-0.06042002 0.13421509 -0.23398519 0.09087488 -0.45998433 0.12663503 -0.18314807 0.09549785
-0.24225369 -0.01659013 0.024466291 0.053869728 0.0912422 -0.11278239 0.1359433 -0.019356968
-0.1940849 0.06568204 -0.06754041 0.13651235 0.09723544 0.04724716 0.04499423 -0.059598587
0.054622866 0.03352825 0.006817511 -0.03543562 -0.18900555 0.037011173 0.052097704 0.011451534
0.008868585 0.051835485 -0.06856514 0.03952338 -0.023630185 -0.07065707 0.1767687 0.13441943
0.047156487 -0.0043678596 0.07106559 0.026107484 0.20016636 -0.166765 -0.09836788 -0.13313425
-0.08069553 0.07045205 -0.037648574 -0.2309483 0.044631027 -0.14644013 -0.091925435 -0.015765
-0.033529766 0.0023956513 -0.03901317 0.0059220497 -0.096746996 0.04701765 -0.071030095 0.0061060786
0.097115204 -0.07619792 -0.096408516 -0.049716726 0.030064104 -0.19413711 -0.09382134 0.036394708
-0.27545503 -0.076053016 0.108528405 -0.07522733 -0.0063144546 0.025031859 -0.035965126 0.11545193
-0.07609305 0.047120493 0.011101596 0.0080931345 -0.060482185 -0.003983005 -0.06584968 -0.0001729026
-0.050925188 -0.016537251 0.04928211 0.12071306 0.15984504 -0.04978883 0.033301964 -0.13852248
0.005347339 0.08218447 0.08896156 0.1386458 -0.02499333 -0.14116746 -0.04299431 -0.1997975
0.1881711 0.23860198 0.044438727 -0.119732045 0.008304455 -0.019529339 -0.020480588 -0.04724317
0.066426754 -0.032827213 -0.08498941 -0.026972065 0.008447428 0.0036665779 0.004876819 -0.013672118
0.06645719 0.0154250255 0.031546813 -0.0681768 -0.05914077 -0.0117469905 0.11933841 -0.01615343
0.04316836 -0.12388517 -0.008608154 0.013085568 0.12453098 -0.22895586 0.11742441 -0.020992683
-0.20763531 -0.100811735 -0.049426842 0.29843777 -0.089346595 0.14113687 0.02374744 -0.054581273
-0.19501129 0.16456014 -0.036328238 -0.3155513 0.1375488 -0.08226479 0.0651064 0.1261052
-0.0010618625 0.00071161456 -0.05770305 -0.013409292 0.060543053 0.030258907 -0.035715546 -0.10794462
-0.03758933 -0.111979626 -0.021565272 0.1564628 -0.057900414 0.09052307 0.12121278 0.0069766217
-0.049843974 0.19460876 -0.09415903 -0.015554313 0.05460092 -0.153735 0.23862113 -0.15764004
0.08047154 0.03720921 0.03472436 -0.07497103 -0.031426415 0.041327663 0.11178044 0.0649767
-0.010559903 -0.025176624 -0.04360312 0.091286145 0.17811686 -0.085772514 -0.04105541 -0.03785891
-0.03205335 0.00776782 0.100021966 0.019293154 0.041079413 -0.22972012 -0.0667614 0.0033177081
-0.1725438 -0.10867411 0.014172403 -0.007160055 -0.09678965 -0.0037553657 0.019615421 -0.021936828
-0.005425263 -0.056355834 -0.12142013 -0.062206365 0.10372712 -0.113859065 0.05464734 0.13341819
-0.31101704 0.020486416 -0.11130377 -0.17147997 0.0658843 -0.13201688 -0.31853327 0.010076511
-0.09904348 0.111366734 0.056217372 0.1052964 0.05367712 0.105141275 -0.06222019 -0.03464534
0.03642935 0.10952529 0.076045915 0.093587704 -0.007975219 0.07106306 0.22106783 -0.0032322416
0.046471745 0.12080178 -0.083982624 -0.06728831 -0.0928121 -0.012179453 -0.025704414 -0.3200416
-0.06821518 0.005017349 -0.13714778 0.10441695 0.050821036 -0.028181233 0.006359806 -0.03708028

0.features.1.1.block.0.1.weight f4 [16]
00000000: eb35 f43e c7eb 173f 7cd9 013f 7296 983f
00000010: 9b6e e23e 03d9 b63e 32cf bb3e c302 213f
00000020: 707f d13f a7b9 0c3f e441 e23e 58c4 d83e
00000030: 2e02 d73e 9982 e53e 9543 d63e ec37 373f
0.47697386 0.5934414 0.5072248 1.1920912 0.4422501 0.35712442 0.36681515 0.6289484
1.6367016 0.54970783 0.44190896 0.42337298 0.4199385 0.448262 0.41848436 0.71569705

0.features.1.1.block.0.1.bias f4 [16]
00000000: a609 b93d 727f 093e eccc 19be ae60 49bf
00000010: af69 c5bc 23ff c4bd 1508 e1be ee55 92bd
00000020: bff5 32bf 9cbf b83f 8a8e 4c3e 6198 d0bd
00000030: 20cb 28be 6dd7 003e d9d9 353d 74e2 aa3c
0.090350434 0.13427523 -0.15019578 -0.78663146 -0.024098245 -0.09618976 -0.4395148 -0.07145296
-0.6990623 1.4433475 0.1997625 -0.10185314 -0.16483736 0.12582178 0.04439721 0.020859934

0.features.1.1.block.0.1.running_mean f4 [16]
00000000: 8e48 74bf 23a9 2dbf 88e1 3dbf 3684 9bbe
00000010: 0770 04bf bb35 27c0 69ed d3be 0bbe 2cbf
00000020: dc63 cdbe 7017 e2be f4cc 7dbf ffc5 fdbf
00000030: d824 d9bf 770d 463e 5ef5 16bf aea2 233c
-0.9542321 -0.6783621 -0.7417226 -0.30374306 -0.5173344 -2.6126544 -0.41392067 -0.6747748
-0.4011525 -0.44158506 -0.9914086 -1.9826049 -1.6964369 0.19341074 -0.5896815 0.009987516

0.features.1.1.block.0.1.running_var f4 [16]
00000000: 50b2 6d3f 92c8 7b3f a521 663f 2138 163f
00000010: a5ed c83e ee38 e73f b80e 993e 0c7e 2041
00000020: 041a 483f 7e9d 0f3e 7912 4f3f 61fe 5a40
00000030: 3bde af3f b15d 783f 9ec1 1940 76c9 f940
0.9285021 0.9835292 0.8989509 0.58679396 0.39243808 1.8064249 0.29894042 10.030773
0.78164697 0.14024922 0.8088756 3.421776 1.3739694 0.9701796 2.4024425 7.8058424

0.features.2.0.block.0.0.weight f4 [64, 16, 3, 3]
00000000: 173a 173c ee47 89bc 95a0 59bc 99b6 a23d
00000010: e1bb a3bb 42a3 803d 8d5b 54bd 7ca1 18bd
00000020: 0e52 6b3d 7a27 bbbc 876d 52bb 41ca 883d
00000030: fe93 463b 8a4b 4b3b 8541 063c be87 16bd
00000040: 9a82 293d d4d7 933d b872 f3bc 230f 3f3c
00000050: b2af 213c e1e8 90bc e185 01bc a9d9 d33c
00000060: cceb 0abd 0463 57bc 791d 2d3d 61e9 b63d
00000070: 46e2 bb3d c4d6 c5bb eacd 1a3e fed5 d5bc
00000080: 971c 3d3d fe32 88bd 68ba d33d 38c3 f5bc
00000090: 4f2d f83a ce51 ddbc 24d9 163d 3066 71bd
000000a0: 177f 38bd 007d 893c 23a5 8fbc 53fc 5bbd
000000b0: 5079 a93d 4e38 38bb 76d0 29bd e190 9abd
000000c0: dd79 e43b da33 afbd 005c 69bd c751 8c3d
000000d0: e257 2cbd d70c c5bd 822a bdbd d242 c1ba
000000e0: 3135 a33c 49cd 1abd ee50 90bd ceed 40bd
000000f0: dd46 a3bc ef9c a2bc 38e8 34bd 465a fdbc
00000100: 81f9 71bd c3d1 28bc adae 413d 0c2e 813b
00000110: 1893 26bd 2bfa 983c cf50 863b ede4 073d
00000120: 12dd c73e 606c 823e b90c c83e f939 123e
00000130: 45bc d9bb 6cc0 563d 8b91 933e ea45 b73c
00000140: 719f 863c b3e9 db3b e90e 6c3d 1efc 6c3d
00000150: 6925 1a3c 1bb9 913d cbf1 0fbc 00f2 063d
00000160: 2db6 87bb 7dec f5bc 8cee 83bc af51 7bbd
00000170: db2b 85bd 8611 86bc b715 17bd afb7 3b3d
00000180: 860c 74bd 421e 333d 9d3f e6bc 7aeb a73b
00000190: 9df7 03bd 8f7a 81bc 82de 1bbd f927 2f3d
000001a0: 77b9 173c f2da 00bd c0c3 1fbc 2ce7 bd3b
000001b0: 58ce 80bc 68d4 19bc cc87 09bd 2763 c43b
000001c0: 4815 d1bc 40dd e73c a31b fabc cf14 3e3d
000001d0: 4904 9dbc 79a0 e23c 5b3f 3cbd e62e d3bd
000001e0: bd02 ccbc 30ee 28bd f576 bebc 27b9 94bc
000001f0: b6f5 a93d 8b4e 76bd 3dbd 45bd 6cd6 8fbc
00000200: 2476 98bd 55e0 813c cae6 83bc 722a aabc
00000210: 2c46 8b3d c341 50bd 8f05 4f3c 3d85 9dbc
00000220: faf8 783d 02a0 cf3d c863 a33c a33f dfbd
00000230: 3be8 fa3b a207 a5bb 6f8a 073d 7f07 0fbd
00000240: 4a55 7e3d 2d0d 873d 4292 a73d 4439 f5bc
00000250: 9c0b 403d 28bb 38bd b399 cd3b 0e19 04bc
00000260: 33ed 293d 3b23 e7bc 4918 81bc a3bb abbc
00000270: 1026 01bd 17e4 c53c 23b6 0a3d fa2b 433d
00000280: 5105 d33d 30a7 7b3d f83e eabc 75cf cebb
00000290: d847 86bd d3df a9ba d2b9 023c 215a 1dbd
000002a0: 383b 12bd 79a0 22bd 0bda 973a b09a 063d
000002b0: 7237 fa3c 163b ad3c a77d b4bd f4eb 993d
000002c0: 87d1 7abc 842c b5bc 9a4d 4bb9 2abd 0fbd
000002d0: d882 39bd 335b 1abb fd59 393e 84b0 a9bb
000002e0: 5e17 4dbd b5cf 59bd b2b5 843d b3ae 753d
000002f0: 4aa7 e83c fa14 843d 58e2 ec3d 9ed5 1ebe
00000300: a861 6e3c d744 04bc 938b b8bd 0839 33bd
00000310: be00 93bd ef53 0ebc 3fbc 9e3d 8dea 3a3d
00000320: b5d7 503d 392d a93d ddcc 7a3d dc47 84bc
00000330: eea6 183d 4c6d 073d f396 ff3c 3648 70bb
00000340: 885e ff3c d2e2 33bc 003c 3ebb 643c 1a3d
00000350: f509 93bd d1b8 24bd aedc 0e3c d16c 973c
00000360: 1f96 373e f442 663d 792f 163b 3ea4 1d3e
00000370: 223a 8e3d 3e7e b73d 143c ad3d 4a26 943d
00000380: 923c 273d f50c 653d 1415 a2bd aa79 00bd
00000390: 14d3 80bc e824 333e b479 44bc a350 923d
000003a0: 3811 7abd 9863 c93c 9dc6 b2bd 08e3 1ebd
000003b0: 1ff8 02bd 3a75 88bd 25e1 ffbb 9371 783d
000003c0: 5711 f03a 1e22 4abd e8a1 94bd 58f8 5dbb
000003d0: 565c 0bbe a6d2 6bbc 72ff 95bd a0e8 af3d
000003e0: 4a86 39bc decf 99bd ec5e 93bc 23b2 92bd
000003f0: 518d d6bc 9ede bfbc fbf6 673d 825f b2bc
0.009230158 -0.016757932 -0.013282915 0.07944984 -0.004996762 0.06281139 -0.051845122 -0.03726338
0.0574513 -0.022845972 -0.003210874 0.06679202 0.0030300613 0.0031020367 0.008194332 -0.036750548
0.041384317 0.072189 -0.029717788 0.011661324 0.009868549 -0.01768917 -0.007905454 0.025860624
-0.03391628 -0.013146166 0.042264435 0.08931232 0.091740176 -0.006037565 0.15117612 -0.026103016
0.046169844 -0.06650351 0.103382885 -0.030000314 0.0018934401 -0.027016547 0.036828175 -0.058935344
-0.045043077 0.016783237 -0.017534798 -0.053707432 0.08275092 -0.0028109732 -0.04145857 -0.07547165
0.006972535 -0.08554812 -0.056972504 0.06851535 -0.042076 -0.0962159 -0.09236623 -0.0014744645
0.019922825 -0.03779343 -0.07046686 -0.04710179 -0.019931251 -0.019850222 -0.044166774 -0.030926835
-0.059075836 -0.010303917 0.047285724 0.003942257 -0.040667623 0.018673977 0.0040989886 0.033177305
0.3903585 0.2547331 0.39072207 0.14279927 -0.006644758 0.0524296 0.28821978 0.022372205
0.01643345 0.0067112087 0.057631407 0.057857625 0.009408333 0.07115384 -0.008785675 0.032945633
-0.00414159 -0.030019993 -0.016104959 -0.061357196 -0.065025054 -0.016365778 -0.036885943 0.04582947
-0.059582256 0.043730028 -0.028106505 0.0051245065 -0.032218564 -0.01580551 -0.038053997 0.04276273
0.009260527 -0.031458803 -0.00975126 0.00579538 -0.015723392 -0.0093890205 -0.03357677 0.005993265
-0.025522843 0.028303742 -0.030530756 0.046406563 -0.019167082 0.02766441 -0.045958858 -0.103116795
-0.02490365 -0.04124278 -0.023250083 -0.018154694 0.08298819 -0.0601335 -0.048276175 -0.017558299
-0.074444085 0.01585404 -0.01610126 -0.020772193 0.068004936 -0.050843965 0.012635603 -0.019228572
0.060784318 0.10137941 0.01994504 -0.109008096 0.0076570786 -0.0050363103 0.033091005 -0.03491926
0.062093057 0.0659431 0.08182193 -0.029934533 0.04688607 -0.04510036 0.006274426 -0.008062614
0.041485976 -0.028215041 -0.01575865 -0.020963496 -0.03153044 0.024156613 0.033865105 0.04764936
0.103037484 0.06143874 -0.028594479 -0.006311352 -0.06556672 -0.0012960382 0.007978873 -0.03841603
-0.035701007 -0.03970382 0.0011585368 0.032862365 0.030544017 0.021146338 -0.08813029 0.075157076
-0.015308744 -0.022115953 -0.00019388497 -0.03509251 -0.045290798 -0.0023552894 0.18100734 -0.005178513
-0.050071113 -0.0531766 0.06479968 0.05998106 0.028400082 0.064493135 0.11566609 -0.15511176
0.01454965 -0.008073053 -0.09010997 -0.04375556 -0.07177876 -0.0086870035 0.07750749 0.04563384
0.050986964 0.08260579 0.06123053 -0.016147546 0.03726857 0.033063218 0.031199908 -0.0036664135
0.031173006 -0.010979371 -0.0029027462 0.03765525 -0.071796335 -0.040215317 0.008719606 0.018484505
0.1792836 0.056216195 0.002291648 0.15394685 0.06944682 0.08959626 0.084587246 0.072338656
0.04082925 0.05592056 -0.079141766 -0.031366028 -0.01572565 0.17494547 -0.011991907 0.071442865
-0.061051577 0.024583623 -0.08729289 -0.038790733 -0.031974908 -0.06662984 -0.0078088217 0.060655188
0.0018315715 -0.049348943 -0.07257444 -0.0033869948 -0.13609442 -0.014393484 -0.07324113 0.085892916
-0.011323521 -0.07510351 -0.017989598 -0.07162883 -0.026190432 -0.023421582 0.056632023 -0.021774057

0.features.2.0.block.0.1.weight f4 [64]
00000000: 807e 9b3f 37dd 2e3f 6cc6 293f b06d 363f
00000010: cc22 263f c9c6 443f 0153 3c3f 9e25 473f
00000020: 457c 3c3f 4fca 283f b469 343f a1c0 6a3f
00000030: 956a 3f3f e3df 473f 2576 393f 5beb 3a3f
00000040: aaaf 3c3f a6a3 213f de0e 3e3f 95be 453f
00000050: 91b2 2b3f 7787 493f 3835 393f f802 273f
00000060: 82a1 313f d746 943f 1dc7 323f 2f45 343f
00000070: 84c9 293f d720 383f 0882 433f 6341 3b3f
00000080: f664 473f bc1d 263f 43e2 3a3f 8bd0 483f
00000090: 2480 323f 30b6 3b3f 740f 3d3f 71a2 173f
000000a0: cedd 373f 33cf 3c3f 53b9 483f 1e56 443f
000000b0: 3230 1a3f 539f 323f 1742 433f daec 263f
000000c0: 13d4 2e3f d2ab 573f fc60 333f b008 133f
000000d0: bf97 423f e231 123f def5 413f ddff 1a3f
000000e0: 75dd 313f 5baf 203f 25d4 3b3f 0eeb 3b3f
000000f0: b67f b43f 564b 263f c607 783f 428e 3d3f
1.214798 0.683063 0.6631839 0.7126112 0.64896846 0.7686582 0.73564154 0.77791774
0.7362712 0.659337 0.7047379 0.9170018 0.74772006 0.78076 0.724459 0.73015374
0.7370554 0.6314033 0.74241436 0.7724393 0.67069346 0.7872233 0.7234683 0.65238905
0.69387066 1.1584119 0.6983507 0.70418066 0.66323113 0.7192511 0.76370287 0.7314665
0.7788843 0.6488912 0.730015 0.7844321 0.6972678 0.7332487 0.73851705 0.5923224
0.7182282 0.7375366 0.7840778 0.76693904 0.6022979 0.6977436 0.7627272 0.65205157
0.6829235 0.8424655 0.7006986 0.5743513 0.76012796 0.57107365 0.7576579 0.60546666
0.6947854 0.6276757 0.7337058 0.7340554 1.4101474 0.64958704 0.9688686 0.74045193

0.features.2.0.block.0.1.bias f4 [64]
00000000: e90f 03bf 1f92 c53d 84a2 ed3d ef1e a23e
00000010: e59c 093e 2904 133e c0cf e43d 8047 8e3c
00000020: b923 fb3d 4eda 0c3e 779c fe3d 3bf3 983c
00000030: 285b 003e 0b04 133e 521f 873d f90c 943e
00000040: bd90 c03d 4bf9 d83d 5ee5 8c3e e8cb de3d
00000050: ef16 0a3d 798a f93d 938b 6a3c be3a 5d3d
00000060: c458 743e 4445 c4be 8a15 443c c94d 493e
00000070: b4fd 5e3f d064 783e 5689 f13c 9ed4 6b3e
00000080: a722 9d3e 4cac 3b3d 74cb 063e fb84 863e
00000090: 9e65 d73d 50de d53d 2dd7 613d 7fe0 133d
000000a0: 48f3 b83d 961d e53d cfbb 3d3e cf46 533e
000000b0: e554 203d 9bc4 843d 72bf a23d 74fd 603e
000000c0: 749b 463e 12d7 913d 6417 0b3e ff27 493e
000000d0: a6f8 c93d e9cb af3d 4661 233d f64e 263d
000000e0: e661 ad3d d6f2 ee3d 35c3 803c acef d23d
000000f0: f616 00bf e573 d03d 441d 17bd 7374 0f3e
-0.5119615 0.09647011 0.11603263 0.31664225 0.13438757 0.14357056 0.11172438 0.017368078
0.12262673 0.13755152 0.12432187 0.018670669 0.12534773 0.14357011 0.06597771 0.28916147
0.09402607 0.10594424 0.27518743 0.10878736 0.033713277 0.12184615 0.014315504 0.0540111
0.23861986 -0.38334095 0.011968026 0.19658579 0.8710587 0.24257207 0.029484432 0.23030326
0.306905 0.045818612 0.13163549 0.2627333 0.10517429 0.10442793 0.05513685 0.036102768
0.09030777 0.11187284 0.18528675 0.2063248 0.03914346 0.06482812 0.079466715 0.21971685
0.19395238 0.071210995 0.13583142 0.19644164 0.09861879 0.08583815 0.03988769 0.040602647
0.08465938 0.11667411 0.015718082 0.1029962 -0.50035036 0.10178355 -0.036893144 0.14009266

0.features.2.0.block.0.1.running_mean f4 [64]
00000000: 6405 313f a193 d93d 8ec0 46bf 4cfb e33d
00000010: 055f 28bf 850f 513f 4609 a93e 5069 9dbf
00000020: ee9d 233f dcc4 843d d008 3ebe b567 373f
00000030: 9f7f 273f a808 fa3d 5477 56be a8f6 523d
00000040: 9805 87bf cd49 45bf 8724 1a3e 745f 833f
00000050: e73f 8ebe eec2 70be d220 87bf 79fe 0abf
00000060: c1d2 9b3e 48cb 663f e53b 4cbf 411e 073f
00000070: 33d9 15bf 5566 bf3f 7963 69bf cf88 f83e
00000080: e107 353f b06c 2dbe 2665 d63e c227 dc3e
00000090: 7c01 c4be 7b4a 153c 02e9 86bf a16b 5d3f
000000a0: a125 133e a5e4 5b3f d08d d33f c02f 773e
000000b0: bfb8 6bbd 2d01 64bf adcc b5bf b63b 48bf
000000c0: b411 683f 3b34 a13f e518 f4be a6f1 6dbf
000000d0: d4c8 953f 1ab1 dcbe 356a 69bf 791e 9a3e
000000e0: 8d13 64bf 9858 5ebe b241 02bf 0f36 09bf
000000f0: ff9e cc3e 4a86 0cbf 0e7c 123f 73b7 ee3f
0.6914885 0.10623861 -0.77637565 0.111319155 -0.6576999 0.81664306 0.33014888 -1.2297764
0.63912857 0.064828604 -0.18558049 0.7164262 0.6542911 0.12208682 -0.20943958 0.05150476
-1.0548582 -0.77065736 0.15052997 1.0263505 -0.2778313 -0.2351186 -1.0556891 -0.54294544
0.3043423 0.9015393 -0.7977889 0.5278054 -0.58534545 1.4953104 -0.9116741 0.48541877
0.7071515 -0.16935992 0.41874045 0.42999083 -0.38282382 0.009111996 -1.0539858 0.86492354
0.14369823 0.8589576 1.6527653 0.24139309 -0.057549234 -0.89064294 -1.4203087 -0.7821611
0.9065201 1.2594064 -0.47675243 -0.9294685 1.1701913 -0.43103868 -0.91177684 0.30101374
-0.8909233 -0.21713483 -0.50881493 -0.5359811 0.39965054 -0.5489241 0.5722054 1.8649734

0.features.2.0.block.0.1.running_var f4 [64]
00000000: 1375 3840 45da 2640 8ad2 b93f fa3c 1440
00000010: 02dd a13f eeee 6f40 84ac 8740 98fa 0e40
00000020: ea5c 6e40 65ac eb3f 4d8f f63f c36b 1b40
00000030: d281 4340 ac89 8040 4065 2840 b2b7 0c40
00000040: 0bd4 2a40 b0b5 1540 b498 3740 0c18 b340
00000050: ae7b c03f a3c5 e23f 4ebb 5e40 b6e8 fa3f
00000060: fc64 2a40 37b5 0840 5c59 1940 6782 be3f
00000070: 4077 623f 8b21 1240 7682 1240 c957 6c40
00000080: 3975 4b40 b963 0540 87fa 5240 1d0c 6240
00000090: 7f85 123f 429d 0b40 149d f23f 52a0 8e3f
000000a0: dd73 2c40 5823 5540 c29d 8f40 fd21 3b40
000000b0: 5c3e 1340 0db0 b33f 8a1a 0440 40f1 f03f
000000c0: 8eed 5040 da5c 3040 bf67 b33f a36d b23f
000000d0: 5417 7240 eaeb b93f 02da 7f40 1a6b a73f
000000e0: 1fb8 0140 74de b33f 8ec2 1e40 5737 6740
000000f0: b640 8a3f 7c02 0740 87e6 0f40 60e9 b240
2.8821456 2.607072 1.4517376 2.3162217 1.2645571 3.748958 4.239809 2.234045
3.724421 1.8411986 1.9262482 2.4284523 3.0547986 4.0168056 2.6311798 2.1987119
2.669192 2.3392143 2.8686953 5.5966854 1.5037744 1.7716564 3.4801822 1.9602268
2.6624136 2.1360605 2.396079 1.4883546 0.8846321 2.2832973 2.2892127 3.692858
3.1790297 2.0842116 3.296541 3.5319893 0.5723495 2.1814733 1.8954186 1.1142676
2.6945717 3.3302822 4.4880075 2.9239495 2.300681 1.4038101 2.0641198 1.8823624
3.2644992 2.7556672 1.4016036 1.3939708 3.7826738 1.452512 3.9976811 1.307956
2.0268629 1.4052262 2.4806247 3.6127527 1.0800998 2.1095266 2.2484453 5.590988

0.features.2.0.block.1.0.weight f4 [32, 64, 1, 1]
00000000: 2843 b2be c862 803e 1ea5 863e f75d 433e
00000010: cba9 3fbd 65f9 773e bdd0 cfbe 9e87 b03d
00000020: 8a48 953e 075c d1bd 69c1 883c 7e30 e93a
00000030: cb9e 13be 294f c2be 6ae5 2b3d 33dc c33d
00000040: f520 983e f0b6 6abe c994 f93d 8311 dbbd
00000050: c187 8fbd e40e b13d 6d9b ddbd c4d8 193e
00000060: f171 8f3e 7fa3 9bbd 91f6 39be 915a cd3d
00000070: 0689 863d 9351 ca3d 9916 163e ed40 c13e
00000080: ae0c b1bd 6e39 043e 9938 4a3e 859b 60be
00000090: 4d3b 0cbd 4eba 2fbe 3f8f f1be 562f a03c
000000a0: 564b 80be 1584 883e e727 01bf 9d46 79bd
000000b0: 2db8 7a3d 4f36 63bb 2426 51be e03e 5f3e
000000c0: 2ec3 78be 0d0f 23bd 479f f9bd eb21 afbe
000000d0: 2e57 6f3e eefc 8ebe 49fd 933d 2cfc a6bd
000000e0: ac64 d73e 758a 6e3c 1403 513e 6a3a b9bd
000000f0: 346f 94be fd2a 053e 3b81 a13d 0298 ebbd
00000100: c9d5 9bbe ef4a 123e b4c8 453b 0524 533d
00000110: 01d9 883e 5382 abbe 0d9a 7ebe d0e6 00be
00000120: 7e29 953e f027 533e 59ec c7bd 0346 9cbc
00000130: c9be 0cbe d1f6 533c ac97 9e3d 1607 4e3e
00000140: dc7c 063d afd5 bc3d 7037 863e 4824 b63e
00000150: b505 4abd 3c95 96bd 828a 0cbe cd22 50be
00000160: 8e27 15bd b200 cabe d5ce 4ebd 3932 aa3d
00000170: dcf7 2fbe 15c1 acbe 976a 923c 5efa 923e
00000180: 60ad 86be 82ba d3bd 50ff 573d 7fe5 d13e
00000190: fdf9 223e 6d11 ef3d ed10 cfbc 42b0 0ebe
000001a0: b0a8 ad3e 0ea3 47bc 4efd e1bd 3683 3e3d
000001b0: 62b8 41bd 4e63 66bb d670 6a3e 1339 88be
000001c0: 8bf7 81be dfa1 42be 96d6 87be e9a9 c03e
000001d0: 3182 81be a622 853e 73a9 6a3e 9437 d73d
000001e0: c2f7 cebc e81f e2be 2ea4 8abd f224 49bd
000001f0: c1b1 1dbe e18b 80be c58f 0ebf 5f13 863d
00000200: 7fb5 c0bd eb58 d7be 4e27 83be 4029 1fbd
00000210: 5b55 373e 979c 12be 7901 efbd 4910 3abd
00000220: 47ba 6d3e 7543 db3c dc02 90bd 201f 063b
00000230: fb45 96be 5768 15be ada6 943e ec44 b13e
00000240: 0d1a 1ebe b1fb 9fbc cabf 98be aa21 c43e
00000250: 6848 de3d dfee aebd 580a 80be 0590 6cbd
00000260: 007d 05be 99a3 bfbe 10fb 3a3c e730 54be
00000270: b42b b73d 8d4c 903c 46be bdbe 089f 483e
00000280: cec0 613d ef0f 54be 94f0 993e 3eab 7a3d
00000290: a792 69bc 5a47 40bd cd2e abbd 3645 93bd
000002a0: c71a b7be 8486 e7bc 2430 d93d 6c61 063e
000002b0: 5818 ed3e 4868 303e a0e6 1c3e 28dc 2b3e
000002c0: e2e7 ff3d 6e46 ed3d f262 0f3e 0245 f83d
000002d0: c878 6ebe 184c e9bc 32aa 3d3e a3cf 5f3e
000002e0: 1cf8 f8bd b9fc a43e ed9e 50bd aa0f a7bc
000002f0: d75d a7be aa83 243e e3c9 063e afca 23bd
00000300: 3dbb 5c3d 7171 2a3a 3604 933d edb2 243d
00000310: af21 2cbe d4a5 f4bd 87d8 4a3e 11ff 5bbe
00000320: 31ca ea3d babe 45bc 5bef 973d a7a1 b9bc
00000330: 3593 2cbd 4b53 c73d 837c 04be a638 00be
00000340: c872 273e 0833 45be df0c c3bb 5db7 9b3e
00000350: 49c3 09be 61a1 f33e 6ec2 b7bc 8d96 a0be
00000360: a5c4 db3c 15f3 6bbe a1a2 a33e 41b5 19be
00000370: 9026 973c c281 673d 768d fe3d 9a5b 8e3d
00000380: 5038 1b3c b7b8 bf3d 6f26 1dbe bd46 8d3b
00000390: be6f 8c3c 9bc0 8b3b c516 ac3c f98a 3ebe
000003a0: c438 efbd c261 4dbe 3e6d 14be db4e 283e
000003b0: 27d1 a3bd 576d a13e af98 e53d d660 073e
000003c0: fddc 903c ac22 34be e327 4dbe 793f f8bb
000003d0: 7578 cc3d 7604 ebbe a94f b3bd 9473 dc3d
000003e0: 5cb9 4bbe 2c92 9e3e 9ab9 06be 2f4d 14be
000003f0: 4f1f 833e 793c 07be cc9e 83bd 5f97 cd3e
-0.3481686 0.25075364 0.2629785 0.19078813 -0.046792787 0.2421623 -0.40588942 0.08619617
0.29156905 -0.10222631 0.016693788 0.0017790941 -0.14416043 -0.3795102 0.041966833 0.09563484
0.29712644 -0.22921348 0.12186582 -0.106966995 -0.07008315 0.08645418 -0.10820661 0.15024096
0.28016618 -0.07599544 -0.18160464 0.1002704 0.06569104 0.0987884 0.14657058 0.37744847
-0.086449966 0.12912533 0.19748153 -0.21934326 -0.03423624 -0.17160913 -0.471796 0.019553822
-0.25057477 0.2666327 -0.5045151 -0.060858358 0.0612108 -0.0034669822 -0.20424706 0.21801329
-0.24293205 -0.039809275 -0.12188583 -0.34205565 0.233731 -0.27927345 0.07226045 -0.08153567
0.42068994 0.014559378 0.2041133 -0.09044345 -0.2899109 0.1300468 0.07885977 -0.115036026
-0.30436543 0.14286397 0.0030179443 0.051548023 0.2672806 -0.33497867 -0.24863453 -0.12588048
0.2913322 0.20620704 -0.097618766 -0.019076353 -0.13744654 0.012937264 0.07743773 0.2011989
0.03283392 0.092204444 0.2621417 0.35574555 -0.04932185 -0.07352683 -0.13724712 -0.20325775
-0.036414675 -0.39453655 -0.05049022 0.083103605 -0.17184395 -0.3374106 0.017873092 0.2870664
-0.2630415 -0.10338308 0.05273372 0.40995404 0.15915675 0.116732456 -0.025276626 -0.13934425
0.3391776 -0.012184871 -0.11034642 0.04651185 -0.04729498 -0.0035154405 0.22894606 -0.26606044
-0.25384173 -0.19007061 -0.26530904 0.3762963 -0.2529464 0.26002997 0.22916202 0.105086476
-0.025264625 -0.44164968 -0.06769596 -0.0491075 -0.15399839 -0.2510672 -0.55688125 0.065466635
-0.09409618 -0.42060027 -0.25615925 -0.0388577 0.17903654 -0.14317547 -0.11670203 -0.045425687
0.2321559 0.026765564 -0.070317954 0.002046533 -0.29350266 -0.14590584 0.29033414 0.34622896
-0.15439625 -0.019529196 -0.29833823 0.38306934 0.10853654 -0.08541655 -0.25007892 -0.057754535
-0.13035965 -0.37429503 0.011412397 -0.2072178 0.089438826 0.017614627 -0.3705923 0.19591916
0.055115514 -0.20709203 0.3006636 0.061198466 -0.014256156 -0.046943046 -0.08358536 -0.07190935
-0.35762617 -0.028262384 0.10604885 0.13123101 0.46307635 0.1722728 0.15322351 0.16783202
0.124954 0.11585699 0.14002588 0.12122537 -0.23288262 -0.028478667 0.18521956 0.21856551
-0.12156698 0.32224062 -0.050932813 -0.020393211 -0.32688782 0.16065851 0.13162951 -0.039988216
0.0538895 0.00065018894 0.071785375 0.0402097 -0.16809724 -0.11945692 0.19809161 -0.21484019
0.11464346 -0.012069399 0.074187 -0.02266009 -0.042132575 0.09732684 -0.12938122 -0.1252161
0.1635238 -0.19257748 -0.005952462 0.30413333 -0.13453402 0.4758406 -0.022431578 -0.3136486
0.026827166 -0.23041947 0.31960014 -0.15010549 0.018451005 0.05652023 0.12429325 0.06951065
0.009473875 0.093614034 -0.15346693 0.004311411 0.017143127 0.0042649037 0.021006951 -0.18607701
-0.11680749 -0.20056823 -0.14494798 0.16436331 -0.07998877 0.31528732 0.11210763 0.13220534
0.0176835 -0.17591351 -0.20034747 -0.007575926 0.09983913 -0.4590184 -0.08755428 0.10764232
-0.19894928 0.30970895 -0.13156739 -0.14482568 0.25609824 -0.13206662 -0.064267725 0.4015455

0.features.2.0.block.1.1.weight f4 [32]
00000000: efa8 733f a100 7f3f b297 653f dc5b 3c3f
00000010: e67f 573f e2c6 413f 40ec 473f 8f61 383f
00000020: 71a3 6f3f 97f4 653f 5ee9 473f 7a8b 5a3f
00000030: 4b69 4a3f bc6d 4b3f 3217 513f ad54 3c3f
00000040: a1e7 473f 171a 6a3f cf06 463f 177c 663f
00000050: 2e38 933f 35cc 523f 9c77 6c3f faa7 4c3f
00000060: a836 463f a627 913f 28e5 5b3f e387 a33f
00000070: 1c27 4a3f 5e7c 3e3f 6968 483f 5696 4e3f
0.9517965 0.99610335 0.89684594 0.73577666 0.8417953 0.75694096 0.78094864 0.7202386
0.93608767 0.8982634 0.78090465 0.85369074 0.79066914 0.79464316 0.8167602 0.73566705
0.7808781 0.9144606 0.7735414 0.90033096 1.150152 0.82342845 0.9237001 0.7994381
0.7742715 1.1340225 0.8589654 1.2775844 0.78965926 0.7440852 0.7828432 0.80698144

0.features.2.0.block.1.1.bias f4 [32]
00000000: c6d2 693c 521e ee3d 32e7 f33d 15a5 ad3c
00000010: 055d 18bd 2305 243e 58b9 97bd bc44 be3d
00000020: ef4b 8ebc eeae 07bd 6295 5abd 00c1 983c
00000030: 0797 1cbd 5f69 323c 4248 5bbd 1aa3 063e
00000040: 7aa4 563c 7a8d 5c3d 0cfd b8bd 57fa b1bd
00000050: 4252 7f3b 11f8 94bd 8c4d b13d bbd8 6ebd
00000060: 13e1 abbb 3c26 8dbd 72c9 00be 2ba8 87bc
00000070: ba42 8c3c a79c 073e 5989 32bd 7614 f1bd
0.014271444 0.11626877 0.119093314 0.021196881 -0.037198085 0.16017585 -0.074083984 0.09290454
-0.017370192 -0.03312581 -0.05336512 0.018646717 -0.03822997 0.01088938 -0.053535707 0.13148156
0.013100738 0.05384586 -0.0903264 -0.08690327 0.0038958942 -0.072738774 0.08657369 -0.05831216
-0.005245337 -0.06892058 -0.12576845 -0.01655968 0.017121661 0.13243352 -0.043588016 -0.11771481

0.features.2.0.block.1.1.running_mean f4 [32]
00000000: dbdc 72bc 835c 84be 41ba 553d 847a 9c3d
00000010: bf6d 1e3e d0f3 91bd ec56 e93d 8195 883e
00000020: c89c 933e eafb e9bd 840c 953d ae00 043d
00000030: fcaf 00be cb99 c23d d30c 7fbe b225 ab3d
00000040: 3e73 0d3e 2288 7dbe 497b b03d f326 f83d
00000050: 3bf7 f33d 5a2e 3e3e 5c8b 83be b496 0c3e
00000060: 0af6 053e e112 513e 4074 48bd 5bcb d93e
00000070: 005b 473d 81d2 c4be 00fa 2f3e 6541 403e
-0.014823164 -0.2585183 0.05217958 0.076405555 0.15471552 -0.07126582 0.11393532 0.26676562
0.28830552 -0.11425002 0.07277778 0.03222721 -0.12567133 0.0950199 -0.24907236 0.08356799
0.13813493 -0.24758962 0.08617265 0.12116804 0.1191239 0.18572369 -0.2569226 0.13729364
0.13082138 0.20417358 -0.04893899 0.4253796 0.04867077 -0.38441852 0.17185211 0.18774946

0.features.2.0.block.1.1.running_var f4 [32]
00000000: 48b9 823e 0a8e a33f 2e69 c53e e53c 583f
00000010: e340 0c3f 9187 c63f 11db 2c40 3c4a 2340
00000020: e288 503f 014b 453f 4bbd e83f 9b2c 093f
00000030: 3780 793e a711 9b40 71cd 363f c258 3840
00000040: b51b d13e 1af6 b73e 3cb0 a03e fdcd b63e
00000050: c713 bb3f 2f9e e23e 9da5 2a3f 8618 473f
00000060: 7e47 ae3f 24a1 363f 2d48 fc3f 8b2b 873f
00000070: 14d4 103f 84e5 b93f fbe3 8740 10e9 483f
0.25531983 1.2777722 0.38556808 0.8446792 0.5478651 1.5510122 2.7008708 2.551406
0.81458867 0.7706757 1.8182768 0.5358369 0.24365316 4.845905 0.7140723 2.8804173
0.4084145 0.35929948 0.31384456 0.35704032 1.461541 0.4426131 0.66658956 0.77771795
1.3615568 0.7133963 1.9709526 1.0560163 0.56573606 1.4523168 4.2465796 0.78480625
