code/modeling/ckpt/AutoencoderConfig([2, 1, 1], flip=False, rotate=False)/autoencoder_40000.pth (torch, 358424 bytes, 73 tensors)

0.features.0.0.weight f4 [16, 8, 3, 3]
-0.009734496 0.02725797 -0.017659685 -0.059928525 -0.051916376 -0.022145862 0.0038008953 0.117220044
0.001986387 -0.01550531 -0.003024612 -0.014735582 -0.016384296 -0.04265427 -0.05278778 -0.02913146
0.02417668 -0.03739194 0.011064336 -0.03389542 0.007989793 -0.08476885 0.014115929 -0.011512242
-0.0043798415 -0.09748772 -0.0465661 -0.018711772 0.036196113 -0.06889926 -0.029825684 0.20877047
-0.0027298061 -0.010558313 0.19183606 -0.05524545 -0.052640297 0.0028947026 -0.042848557 -0.021688921
0.14343975 0.026126107 -0.027113367 0.11848968 -0.011587574 0.04088042 -0.07656296 -0.09188857
0.06553829 0.06113988 -0.044134848 -0.014760756 -0.02931219 -0.061757747 -0.10545278 -0.04514344
0.0013741099 -0.10336993 0.05110611 0.0083374735 -0.13537776 -0.025482701 -0.007519828 0.054569285
0.02260705 0.029246768 0.09324613 0.095604 -0.013804069 -0.03515044 0.061684173 -0.012314171
0.01274196 -0.09415178 0.03370099 0.006622228 -0.0014201241 -0.04731328 -0.07029062 0.038585797
0.018065246 0.010014347 -0.23941383 0.01926305 -0.16960911 -0.5870572 -0.11306843 -0.022136478
-0.19347116 0.012237905 -0.018211246 -0.057318863 -0.006571103 -0.00043696916 -0.13289008 -0.000694196
-0.02058921 0.027903907 -0.022104423 0.043164354 -0.014775861 0.0196363 -0.03054891 0.021789126
0.080958955 0.03695684 0.044036705 0.029060539 -0.00935522 -0.05272066 -0.05249897 -0.012928748
0.034837916 -0.054942332 0.007603377 -0.044843975 -0.018558603 0.01942135 0.08741972 -0.026687594
0.021859046 0.011701179 0.007258662 0.03139281 -0.0047492934 -0.012532068 -0.053072143 -0.0073508
-0.01229758 0.037541736 0.00786734 0.019963106 0.0164754 0.004299395 -0.016732007 0.022774747
0.06903178 0.027502952 -0.031047756 0.07149724 -0.057450704 -0.0091159055 0.025417928 -0.0051587503
-0.0012781667 -0.018074006 0.016910361 0.00083478005 0.024905756 -0.0332808 0.00021669376 -0.0049497173
0.014501451 0.016716862 -0.061253056 0.021945586 -0.022930063 0.35681713 -0.03459566 0.016110823
-0.048675753 0.02319339 0.007969962 0.013650965 -2.6838641e-05 0.014973714 0.40592837 0.011836069
-0.0050678463 0.013880618 0.012513907 -0.0026053307 -0.009993868 0.00247551 -0.014218594 0.022925014
-0.015129518 -0.014102274 0.006647969 -0.011719806 -0.0033579504 -0.0013986527 -0.0063762013 -0.0029058005
0.017192632 -0.026651114 -0.002359815 0.004574082 0.009912226 -0.0016295149 0.02193145 -0.0037364247
-0.0035420354 0.031266417 -0.017735671 -0.0067387857 0.006988715 0.010270641 0.005086562 0.011399299
-0.0046877875 -0.00484669 0.0071062953 -0.0035856725 0.0012431146 -3.998076e-05 -0.0009573752 -0.013980202
0.0035241253 -0.002671098 -0.010625889 0.010963436 -0.0130084045 0.0020954164 -0.018562771 0.0011748547
-0.029469216 -0.021499777 -0.023479387 0.056380644 0.20159762 -0.02957845 -0.008871804 0.21856773
-0.023030452 -0.0063382066 0.0363878 0.002242734 -0.00087211706 0.1194163 0.027583383 -0.0037361546
0.14096814 -0.013400646 -0.0033149354 0.022771344 0.008309946 -0.008088306 0.06383258 0.031805918
0.0031192303 0.052967668 -0.006596111 -0.025465373 -0.049161874 0.0048266947 0.020038158 -0.035473093
0.046465427 0.09195168 0.016853092 0.068698525 -0.008834189 -0.04223034 -0.025540933 -0.05318434
00000000: 6f7d 1fbc 1b4c df3c 0bab 90bc 9d77 75bd
00000010: 44a6 54bd 3d6b b5bc 7118 793b 1011 f03d
00000020: 0b2e 023b fc09 7ebc 9238 46bb 836d 71bc
00000030: 5c38 86bc 3eb6 2ebd 0038 58bd 19a5 eebc
00000040: 2c0e c63c 4a28 19bd 3047 353c edd5 0abd
00000050: 9fe7 023c 4a9b adbd 7f46 673c d89d 3cbc
00000060: c684 8fbb a4a7 c7bd 18bc 3ebd 6e49 99bc
00000070: 6042 143d 0e1b 8dbd fe54 f4bc edc7 553e
00000080: 8ce6 32bb c6fc 2cbc ac70 443e 0e49 62bd
00000090: 5a9d 57bd 0db5 3d3b f881 2fbd f7ac b1bc
000000a0: dfe1 123e 6b06 d63c da1c debc b8aa f23d
000000b0: cfd9 3dbc 3a72 273d 0bcd 9cbd 1330 bcbd
000000c0: f038 863d d06d 7a3d bec6 34bd 19d7 71bc
000000d0: 1e20 f0bc b1f5 7cbd a1f7 d7bd 54e8 38bd
000000e0: 7a1b b43a 9db3 d3bd a454 513d e699 083c
000000f0: 78a0 0abe 19c1 d0bc e468 f6bb 0b84 5f3d
00000100: 6c32 b93c eb96 ef3c d4f7 be3d 08cc c33d
00000110: 762a 62bc e8f9 0fbd 8ba8 7c3d 60c1 49bc
00000120: a7c3 503c a6d2 c0bd 0d0a 0a3d 46ff d83b
00000130: 7523 baba 92cb 41bd 87f4 8fbd 240c 1e3d
00000140: 91fd 933c 3713 243c e628 75be 8bcd 9d3c
00000150: 03ae 2dbe 6149 16bf 6c90 e7bd 8f57 b5bc
00000160: 4e1d 46be 7e81 483c c02f 95bc 2fc7 6abd
00000170: 6852 d7bb 0219 e5b9 5614 08be b4fa 35ba
00000180: b4aa a8bc bc96 e43c 5614 b5bc 1bcd 303d
00000190: 7416 72bc 4edc a03c b541 fabc 1c7f b23c
000001a0: cfcd a53d 0e60 173d d55f 343d 5e10 ee3c
000001b0: a346 19bc 9ef1 57bd 2909 57bd 19d3 53bc
000001c0: 34b2 0e3d 360b 61bd c025 f93b 51ae 37bd
000001d0: 3608 98bc 8619 9f3c 1c09 b33d f19f dabc
000001e0: be11 b33c 4db6 3f3c 12da ed3b bf95 003d
000001f0: f69f 9bbb 4e53 4dbc 2d62 59bd fbde f0bb
00000200: ca7b 49bc 5dc5 193d 04e6 003c ab89 a33c
00000210: 6bf7 863c f0e1 8c3b 9011 89bc 1b92 ba3c
00000220: 8960 8d3d df4d e13c dd57 febc 256d 923d
00000230: 6e51 6bbd e15a 15bc 4239 d03c bc0a a9bb
00000240: 2888 a7ba f00f 94bc 9987 8a3c 24d5 5a3a
00000250: 2807 cc3c 7351 08bd 4a38 6339 3d31 a2bb
00000260: 7e97 6d3c cdf1 883c 7ce4 7abd 3bc7 b33c
00000270: d4d7 bbbc bcb0 b63e 2eb4 0dbd d8fa 833c
00000280: 3a60 47bd 1000 be3c 7294 023c 4ca8 5f3c
00000290: 8b23 e1b7 4f54 753c d8d5 cf3e 12ec 413c
000002a0: 2d10 a6bb 886b 633c 2107 4d3c 32be 2abb
000002b0: 52bd 23bc 2a3c 223b 1bf5 68bc 3dcd bb3c
000002c0: cce1 77bc 390d 67bc 35d7 d93b 6e04 40bc
000002d0: 0f11 5cbb ff52 b7ba 74ef d0bb 3e6f 3ebb
000002e0: 90d7 8c3c 7053 dabc 20a7 1abb 2ee2 953b
000002f0: e466 223c 7295 d5ba 96a9 b33c cede 74bb
00000300: 7e21 68bb 3711 003d 664a 91bc 08d1 dcbb
00000310: 9701 e53b 3146 283c 2dad a63b 20c4 3a3c
00000320: 039c 99bb fcd0 9ebb eddb e83b 9afd 6abb
00000330: 01f0 a23a 04b1 27b8 5df8 7aba 380d 65bc
00000340: 03f5 663b 970d 2fbb 3518 2ebc fc9f 333c
00000350: 3421 55bc 4153 093b f410 98bc 95fd 993a
00000360: 6d69 f1bc 4d20 b0bc d857 c0bc 64ef 663d
00000370: 9b6f 4e3e 814e f2bc 0b5b 11bc 38d0 5f3e
00000380: 5caa bcbc bbb0 cfbb 600b 153d d5fa 123b
00000390: c99e 64ba 8890 f43d 8cf6 e13c 46da 74bb
000003a0: f459 103e 628e 5bbc 633f 59bb f88a ba3c
000003b0: 7126 083c d084 04bc a8ba 823d ec46 023d
000003c0: 006c 4c3b a0f4 583d 3124 d8bb c29c d0bc
000003d0: f65d 49bd 4029 9e3b 1027 a43c 3c4c 11bd
000003e0: 8852 3e3d 2a51 bc3d 7f0f 8a3c d0b1 8c3d
000003f0: 46bd 10bc b9f9 2cbd 383b d1bc d3d7 59bd

0.features.0.1.weight f4 [16]
0.26014164 0.87768835 1.183944 0.40890148 0.5919772 0.66166484 0.51291406 0.55522364
0.43039373 0.5618424 0.9507697 0.6851622 0.82337034 0.62963796 0.5216354 0.5432768
00000000: 4931 853e 2fb0 603f 7a8b 973f 895b d13e
00000010: d18b 173f de62 293f 564e 033f 2323 0e3f
00000020: 915c dc3e e7d4 0f3f a565 733f ca66 2f3f
00000030: 66c8 523f f42f 213f e689 053f 3014 0b3f

0.features.0.1.bias f4 [16]
0.7082686 -0.32740432 -0.63458943 1.2900971 0.07189348 0.20634523 0.01981984 0.5124849
0.24701062 0.30961913 -1.1061454 1.1242002 0.8051787 0.12122408 0.46455842 0.13658185
00000000: 1751 353f 8aa1 a7be 7474 22bf e721 a53f
00000010: e43c 933d 2a4c 533e 385d a23c 3632 033f
00000020: 5af0 7c3e 6686 9e3e 2c96 8dbf cbe5 8f3f
00000030: 3120 4e3f 5544 f83d 9ada ed3e 1ddc 0b3e

0.features.0.1.running_mean f4 [16]
-0.0006277457 -0.00013127683 -0.00025085526 0.00040243252 0.000987606 -0.0009732299 -0.00033312873 1.8914894e-05
-0.00024772744 -1.674514e-05 1.28963975e-05 0.00010805804 0.0003193494 0.0004370984 3.9224393e-05 0.00019421578
00000000: 4d8f 24ba 5ba7 09b9 3985 83b9 94fd d239
00000010: 8f72 813a 5a20 7fba c8a7 aeb9 6dab 9e37
00000020: 6ae1 81b9 ea77 8cb7 9b5d 5837 389d e238
00000030: 5a6e a739 5b2a e539 df84 2438 67a6 4b39

0.features.0.1.running_var f4 [16]
0.15066095 1.4925629 0.27763578 0.5934849 1.0763216 1.3226256 0.508804 0.31812736
0.6851614 0.8221668 0.07701551 0.5853998 0.70106 0.5608175 0.57975733 0.3126202
00000000: dd46 1a3e 4d0c bf3f 4726 8e3e a0ee 173f
00000010: e8c4 893f cc4b a93f fb40 023f 97e1 a23e
00000020: bd66 2f3f 8679 523f 4fba 9d3d c3dc 153f
00000030: ab78 333f bc91 0f3f fa6a 143f c10f a03e

0.features.1.0.block.0.0.weight f4 [16, 16, 3, 3]
0.03552993 0.10373015 -0.18253525 0.23234344 0.31439438 0.038153935 0.04930272 -0.18789762
-0.114757486 0.11397298 0.035633847 0.07815048 -0.013339969 0.05658153 0.14907685 0.069413945
-0.08728951 0.117030166 -0.020143513 0.039170384 -0.0006673082 0.04470377 0.026872566 -0.027744604
-0.04627838 0.009787756 0.01578531 -0.08087505 -0.11723818 0.019452052 -0.062446516 0.040115327
0.07152546 0.031212166 -0.12829791 -0.12678713 -0.13508198 0.016645309 -0.0020739425 0.109692626
0.016793672 0.11516543 0.057531934 0.0632215 0.024313312 -0.1181144 0.077899165 -0.10028662
0.012137541 0.054933865 0.04465633 -0.09718771 -0.0071709016 -0.07594399 0.10294587 -0.043629833
0.0116169015 0.039579984 -0.08891432 0.04150171 -0.028678698 0.16464733 0.052032664 -0.033493407
0.071720175 -0.038550984 -0.010327503 -0.06021706 -0.006165221 0.053732675 -0.009328731 0.070215
-0.034766678 -0.059180077 -0.058658823 0.31204963 0.27898392 -0.004280877 0.011045933 0.08850448
0.04674902 -0.12281097 0.1421912 -0.26977402 0.07417217 0.251974 -0.057603452 0.004674297
0.15595043 0.094377495 -0.02681672 -0.043780874 0.13926522 -0.011512502 0.06696874 0.012590213
-0.0354777 0.0014994172 -0.09416812 0.07615469 -0.048567228 -0.023309512 -0.08615543 -0.08210701
0.03386847 0.03259967 -0.0034860824 -0.0136773735 0.040331252 -0.08983219 0.06674398 -0.14228025
0.029722653 0.05037043 0.0053002597 -0.0650363 -0.057165325 0.016383965 0.09264923 0.14992656
-0.0344325 0.29070368 0.17987704 0.036390178 0.18443829 0.022682756 0.041746885 -0.1640675
-0.06383384 0.09790142 -0.24857925 -0.14382468 -0.08294153 -0.18712132 0.0113638425 -0.07905868
0.07051217 -0.09799924 -0.05153109 0.18944043 0.18059169 -0.15625148 0.1304434 -0.07066888
-0.052924976 -0.029515957 0.17013738 0.11931443 -0.085302696 -0.07174232 0.20648944 0.24151167
-0.17994447 0.058646545 0.066647634 0.027161993 0.12057566 0.099334985 -0.046264216 0.056874394
0.07700567 0.06891272 0.0066190637 0.18127887 -0.009040407 0.12152181 0.1580884 -0.022727348
-0.029801425 0.17088474 -0.009985997 -0.07230553 -0.21561995 0.01342542 -0.08381506 -0.13082264
-0.14176537 0.11885642 -0.0231075 -0.02828684 -0.063390665 0.02546755 0.08008233 0.002367855
-0.18007532 -0.16103691 0.19703455 0.0033294945 -0.018659612 -0.044769567 -0.06851721 -0.0014674902
-0.09205658 0.05316742 -0.0452073 -0.017961688 0.04053541 0.13934302 -0.13954984 0.1302751
-0.07700777 -0.023498042 0.1607214 0.029281985 0.061131403 -0.07303198 0.01182077 -0.12741506
-0.12030771 -0.06250167 -0.09442498 -0.18481891 0.039464105 -0.063493095 -0.02865386 0.0052430495
-0.003758345 0.024730125 -0.064598456 -0.054513387 0.04284169 -0.070012756 -0.055437155 -0.09708178
0.009074508 -0.14438091 0.0035125422 -0.012154297 -0.23522778 -0.22178511 0.06132032 -0.16659681
0.040512763 0.03162371 -0.07741701 0.06587176 0.012464819 -0.1067028 -0.14098255 0.04629763
-0.037573956 0.020137426 0.08265649 -0.07176746 -0.14325638 -0.045277454 -0.003739979 -0.18285497
0.12522657 0.011336191 -0.073946334 0.0005789044 0.053326838 -0.100608185 0.027265972 0.043912686
00000000: d587 113d 7970 d43d 85ea 3abe 70eb 6d3e
00000010: 4df8 a03e 4d47 1c3d a6f1 493d 3c68 40be
00000020: f905 ebbd aa6a e93d ccf4 113d 5c0d a03d
00000030: e38f 5abc 09c2 673d 9aa7 183e e628 8e3d
00000040: d8c4 b2bd 83ad ef3d 0204 a5bc 2071 203d
00000050: 4cee 2eba 4d1b 373d db23 dc3c a748 e3bc
00000060: 668e 3dbd d35c 203c 3250 813c d1a1 a5bd
00000070: 921a f0bd e959 9f3c ebc7 7fbd f84f 243d
00000080: f17b 923d a8b0 ff3c 8760 03be 7cd4 01be
00000090: ee52 0abe be5b 883c fbea 07bb 87a6 e03d
000000a0: e292 893c dadb eb3d 9ba6 6b3d 467a 813d
000000b0: b62c c73c f6e5 f1bd 9989 9f3d 1263 cdbd
000000c0: 89dc 463c 5502 613d 8ee9 363d 5a0a c7bd
000000d0: e2f9 eabb 8688 9bbd 49d5 d23d 32b5 32bd
000000e0: d154 3e3c 9f1e 223d b618 b6bd b2fd 293d
000000f0: 97ef eabc 4f99 283e 3420 553d 6230 09bd
00000100: 07e2 923d a3e7 1dbd b034 29bc 2aa6 76bd
00000110: 9f05 cabb cb16 5c3d 89d7 18bc e2cc 8f3d
00000120: 8167 0ebd cf66 72bd 3c44 70bd f8c4 9f3e
00000130: fbd6 8e3e 9946 8cbb 00fa 343c d641 b53d
00000140: e77b 3f3d 5184 fbbd 929a 113e d21f 8abe
00000150: 94e7 973d bc02 813e 99f1 6bbd d82a 993b
00000160: 78b1 1f3e fd48 c13d bdae dbbc 9353 33bd
00000170: 8b9b 0e3e ef9e 3cbc e826 893d 2e47 4e3c
00000180: 1151 11bd 1888 c43a 37db c0bd fdf6 9b3d
00000190: 6eee 46bd 97f3 bebc 4272 b0bd b827 a8bd
000001a0: aab9 0a3d 3b87 053d c276 64bb 1017 60bc
000001b0: 6232 253d f0f9 b7bd 11b1 883d eab1 11be
000001c0: ec7c f33c 3951 4e3d cdad ad3b c031 85bd
000001d0: 3026 6abd aa37 863c e1be bd3d 5986 193e
000001e0: 1809 0dbd 1dd7 943e b031 383e de0d 153d
000001f0: 64dd 3c3e 30d1 b93c c8fe 2a3d 5001 28be
00000200: 51bb 82bd 8a80 c83d 8f8b 7ebe c746 13be
00000210: 40dd a9bd bb9c 3fbe 692f 3a3c 84e9 a1bd
00000220: af68 903d d3b3 c8bd 4412 53bd acfc 413e
00000230: 07ed 383e 6300 20be f492 053e d9ba 90bd
00000240: dcc7 58bd 73cb f1bc 7e38 2e3e 205b f43d
00000250: 2eb3 aebd a3ed 92bd f871 533e d64e 773e
00000260: 5d43 38be 5c37 703d 8e7e 883d d482 de3c
00000270: 5ff0 f63d 2470 cb3d 8c7f 3dbd 20f5 683d
00000280: 26b5 9d3d 1d22 8d3d bbe4 d83b 2ba1 393e
00000290: 371e 14bc 6de0 f83d ede1 213e b42e babc
000002a0: 1e22 f4bc 69fc 2e3e 4f9c 23bc ec14 94bd
000002b0: 7acb 5cbe 4bf6 5b3c 3ba7 abbd 5ff6 05be
000002c0: f12a 11be ff6a f33d f14b bdbc ceb9 e7bc
000002d0: f7d2 81bd 53a1 d03c 3402 a43d 042e 1b3b
000002e0: aa65 38be dce6 24be 6dc3 493e a633 5a3b
000002f0: 0bdc 98bc 4b60 37bd c052 8cbd cd58 c0ba
00000300: 2988 bcbd 15c6 593d 4a2b 39bd 6424 93bc
00000310: 7508 263d f0af 0e3e 27e6 0ebe d666 053e
00000320: 40b6 9dbd f77e c0bc 2794 243e c6e0 ef3c
00000330: ec64 7a3d ca91 95bd e7ab 413c 1879 02be
00000340: e363 f6bd e000 80bd e261 c1bd 2b41 3dbe
00000350: 1da5 213d ab08 82bd 80bb eabc e3cd ab3b
00000360: 914e 76bb d596 ca3c 324c 84bd 6e49 5fbd
00000370: c57a 2f3d d962 8fbd 1212 63bd d0d2 c6bd
00000380: 3fad 143c 97d8 13be ae32 663b d122 47bc
00000390: 8ddf 70be a31b 63be 042b 7b3d 5b98 2abe
000003a0: b6f0 253d dd87 013d cf8c 9ebd c6e7 863d
000003b0: 3d39 4c3c ff86 dabd bb5d 10be 95a2 3d3d
000003c0: 26e7 19bd 3ef7 a43c ce47 a93d d1fa 92bd
000003d0: cdb1 12be da74 39bd 6f1a 75bb 553e 3bbe
000003e0: 653b 003e 6ebb 393c 2d71 97bd 9ec1 173a
000003f0: 3e6d 5a3d aa0b cebd e35c df3c cadd 333d

0.features.1.0.block.0.1.weight f4 [16]
0.57633567 0.6261743 0.49233004 0.51228434 0.6170507 0.6268918 0.72813857 0.49294722
0.24374533 2.4256015 0.58145547 0.45641685 0.6093536 0.67375565 0.5502452 0.5892945
00000000: bc8a 133f f54c 203f af12 fc3e 1125 033f
00000010: 09f7 1d3f fb7b 203f 4a67 3a3f 9463 fc3e
00000020: 6098 793e 0e3d 1b40 44da 143f 78af e93e
00000030: 99fe 1b3f 407b 2c3f dfdc 0c3f 01dc 163f

0.features.1.0.block.0.1.bias f4 [16]
0.2949647 -0.020112338 0.09726994 0.29766443 1.0519962 1.1850075 0.15110019 0.24955975
0.2772085 -2.1923392 1.801015 0.3266912 0.1704874 0.2453745 0.07834498 -0.124592744
00000000: 9d05 973e a1c2 a4bc 7635 c73d 7967 983e
00000010: d0a7 863f 53ae 973f 02ba 1a3e 978c 7f3e
00000020: 46ee 8d3e 494f 0cc0 a987 e63f 1244 a73e
00000030: 4094 2e3e 7443 7b3e 5573 a03d 7b2a ffbd

0.features.1.0.block.0.1.running_mean f4 [16]
-0.3387711 -1.267949 0.4578127 0.0030950168 0.06009326 0.72340065 0.040249094 0.20171289
-0.45368123 -0.06504273 0.008998827 1.0587502 -0.45960248 -0.83588856 1.0103191 -0.12923117
00000000: 6873 adbe 274c a2bf 6d66 ea3e c4d5 4a3b
00000010: 5a24 763d c930 393f 3cdc 243d d38d 4e3e
00000020: e848 e8be 1f35 85bd d16f 133c 2085 873f
00000030: 0451 ebbe cbfc 55bf 2352 813f 2d55 04be

0.features.1.0.block.0.1.running_var f4 [16]
0.7582164 0.80798465 0.41162243 2.0946467 0.59366864 0.29009643 0.2691497 1.215254
0.08795102 0.019331448 0.21282908 0.87945867 0.60637635 1.3821676 1.4934144 0.5088385
00000000: 781a 423f 15d8 4e3f 2dc0 d23e b10e 0640
00000010: abfa 173f 8587 943e fdcd 893e 718d 9b3f
00000020: aa1f b43d fc5c 9e3c deef 593e 3424 613f
00000030: 7b3b 1b3f deea b03f 3428 bf3f 3d43 023f

0.features.1.1.block.0.0.weight f4 [16, 16, 3, 3]
-0.04945823 0.16554715 -0.20728527 0.13459912 -0.4651047 0.1280037 -0.17451593 0.09673902
-0.2523603 -0.014420539 0.026211884 0.06722931 0.100374416 -0.10945083 0.13433695 -0.0038562636
-0.18846303 0.0692873 -0.049060635 0.1314808 0.11024466 0.054559752 0.051200047 -0.080175385
0.051027432 0.007863016 0.01460302 -0.026368504 -0.18524894 0.038277935 0.052321237 0.013643931
-0.0056225527 0.017341932 -0.061112322 0.037437752 -0.018906256 -0.058017593 0.2033535 0.12830572
0.049933344 -0.0021717905 0.08334576 0.043443017 0.19685842 -0.14479661 -0.09136351 -0.1522127
-0.07990917 0.071877755 -0.05262363 -0.25792378 0.028941724 -0.14000498 -0.11570935 -0.00808994
-0.05154947 0.0015870256 -0.033669546 -0.009495363 -0.08316776 0.0588484 -0.07007291 -0.0076315897
0.09991777 -0.08505898 -0.09616129 -0.0459117 0.048501164 -0.20144151 -0.100833006 0.04488395
-0.26516378 -0.11087708 0.07886931 -0.04112039 0.014456807 0.036978457 -0.03887918 0.08312951
-0.047206413 0.042727888 0.0075359847 0.017589664 -0.064287245 -0.014412764 -0.07118858 -0.0067915344
-0.04644274 -0.012246365 0.04191064 0.12286921 0.16417521 -0.04656999 0.040378626 -0.1522122
0.0257424 0.090411894 0.059749696 0.12319576 -0.021926893 -0.13280441 -0.045554575 -0.18256272
0.19354889 0.2290775 0.06443822 -0.1096272 0.0090827 -0.037133366 -0.003492949 -0.04725377
0.05549328 -0.038598724 -0.08206964 -0.036088124 0.004272416 0.0148110455 0.004196552 -0.001009041
0.056825668 0.013416615 0.039016288 -0.07033321 -0.04516 -0.010496827 0.11579714 -0.025276015
0.025314335 -0.10516467 -0.014417793 0.019498114 0.11946797 -0.23261356 0.10568111 0.0076333396
-0.21579221 -0.10951188 -0.041738782 0.2828456 -0.09227573 0.13223901 0.033829436 -0.06558774
-0.19753286 0.16915421 -0.019038474 -0.326148 0.13414143 -0.039691582 0.08438756 0.1157027
-0.0021371813 0.024966097 -0.05434175 -0.004352173 0.06530225 0.026700659 -0.034222938 -0.10268058
-0.023236457 -0.10057835 -0.007066328 0.153485 -0.05872035 0.105238765 0.1272739 -0.0021184047
-0.04371953 0.1864707 -0.10523939 -0.027163258 0.04761977 -0.14205362 0.22879668 -0.15395181
0.07918748 0.032076377 0.03761253 -0.08559712 -0.036340144 0.04382868 0.115352854 0.06293366
-0.0062242155 -0.015834138 -0.04184991 0.1054713 0.18264897 -0.086703226 -0.040496323 -0.035117786
-0.04316573 0.008234432 0.08151785 0.013038845 0.03698791 -0.22277576 -0.051232155 -0.0051415623
-0.1688244 -0.095891796 0.022903118 -0.013558431 -0.10158505 0.012320063 0.012779414 -0.018050171
0.0019420171 -0.05030494 -0.13232908 -0.058586493 0.09713292 -0.11567256 0.051929116 0.13470641
-0.3366164 0.028541466 -0.12144261 -0.16094112 0.05657094 -0.15264668 -0.31858757 -0.0093523655
-0.091672204 0.11223679 0.06648171 0.107799344 0.05995479 0.109804176 -0.06778409 -0.035655543
0.03944872 0.107507706 0.05895441 0.09814437 0.0063129985 0.0759105 0.21510378 0.002365328
0.050640214 0.11721841 -0.091433994 -0.06465489 -0.08371576 -0.0047646347 -0.021224009 -0.31595412
-0.07062419 0.009326556 -0.14445657 0.10746133 0.049534146 -0.03327078 0.020649994 -0.03431112
00000000: b794 4abd 3185 293e 9742 54be 5ad4 093e
00000010: 3422 eebe 6713 033e 4eb4 32be 1b1f c63d
00000020: 5f35 81be 2044 6cbc 4eba d63c 85af 893d
00000030: 1a91 cd3d c227 e0bd a08f 093e 5eb9 7cbb
00000040: 74fc 40be 80e6 8d3d cef3 48bd e7a2 063e
00000050: f4c7 e13d 0c7a 5f3d 24b7 513d fe32 a4bd
00000060: 2402 513d e1d3 003c 8141 6f3c c302 d8bc
00000070: e6b1 3dbe 53c9 1c3d cb4e 563d cb8a 5f3c
00000080: 643d b8bb ab10 8e3c ea50 7abd 5458 193d
00000090: 4be1 9abc dba3 6dbd e63b 503e 9362 033e
000000a0: e886 4c3d 9954 0ebb 2fb1 aa3d 4ef1 313d
000000b0: 4195 493e 9045 14be cb1c bbbd a5dd 1bbe
000000c0: 6ba7 a3bd a534 933d e08b 57bd 960e 84be
000000d0: 3217 ed3c 775d 0fbe 06f9 ecbd ab8b 04bc
000000e0: 8925 53bd be03 d03a 14e9 09bd 7092 1bbc
000000f0: dc53 aabd 050b 713d 6382 8fbd 6a12 fabb
00000100: b0a1 cc3d 6733 aebd 36f0 c4bd e80d 3cbd
00000110: 28a9 463d af46 4ebe 8981 cebd 3cd8 373d
00000120: 8cc3 87be 8613 e3bd 3c86 a13d db6d 28bd
00000130: 3edc 6c3c b976 173d c63f 1fbd ce3f aa3d
00000140: 835b 41bd 7003 2f3d 6cf0 f63b 3318 903c
00000150: 08a9 83bd 8423 6cbc 51cb 91bd 858b debb
00000160: be3a 3ebd faa4 48bc 7eaa 2b3d daa2 fb3d
00000170: 8c1d 283e 2dc0 3ebd 0f64 253d 84dd 1bbe
00000180: bae1 d23c df29 b93d 19bc 743d 0f4e fc3d
00000190: 07a0 b3bc e1fd 07be 6f97 3abd b9f1 3abe
000001a0: ae31 463e 4b93 6a3e 2ff8 833d 3a84 e0bd
000001b0: 9bcf 143c 2819 18bd f6e9 64bb 2b8d 41bd
000001c0: ec4c 633d b219 1ebd 2114 a8bd 24d1 13bd
000001d0: 9fff 8b3b 07aa 723c 3b83 893b cc41 84ba
000001e0: 08c2 683d 5dd1 5b3c 8bcf 1f3d dc0a 90bd
000001f0: b1f9 38bd e2fa 2bbc 0d27 ed3d a50f cfbc
00000200: 0260 cf3c 9360 d7bd 9b38 6cbc 82ba 9f3c
00000210: a0ab f43d 4032 6ebe 566f d83d 1821 fa3b
00000220: a2f8 5cbe c447 e0bd 49f6 2abd 23d1 903e
00000230: 0ffb bcbd aa69 073e bc90 0a3d dd52 86bd
00000240: 0e46 4abe c336 2d3e 93f6 9bbc dffc a6be
00000250: 5f5c 093e a493 22bd 63d3 ac3d 8af5 ec3d
00000260: f40f 0cbb b385 cc3c 7495 5ebd ac9c 8ebb
00000270: 30bd 853d 57bb da3c 5a2d 0cbd 324a d2bd
00000280: 625a bebc 06fc cdbd a88c e7bb 2c2b 1d3e
00000290: c084 70bd 6c87 d73d 1754 023e efd4 0abb
000002a0: 4013 33bd 2df2 3e3e c087 d7bd 7b85 debc
000002b0: f30c 433d 8176 11be ad49 6a3e 8ba5 1dbe
000002c0: 0c2d a23d 8562 033d 990f 1a3d 8b4d afbd
000002d0: 67d9 14bd b485 333d 1e3e ec3d 5de3 803d
000002e0: 81f4 cbbb 98b6 81bc d06a 2bbd 5601 d83d
000002f0: 5508 3b3e 7691 b1bd 79df 25bd abd7 0fbd
00000300: 8cce 30bd b6e9 063c d5f2 a63d e1a0 553c
00000310: a280 173d 541f 64be cfd8 51bd 8d7a a8bb
00000320: 4ee0 2cbe eb62 c4bd 529f bb3c 2e24 5ebc
00000330: d30b d0bd 17da 493c bf60 513c f4dd 93bc
00000340: 488b fe3a 8e0c 4ebd 4681 07be 64f8 6fbd
00000350: a0ed c63d bce5 ecbd a0b3 543d 7af0 093e
00000360: fc58 acbe cbcf e93c e7b6 f8bd c0cd 24be
00000370: eeb6 673d 694f 1cbe e91d a3be aa3a 19bc
00000380: a3be bbbd 67dc e53d 9027 883d e7c5 dc3d
00000390: 2793 753d 03e1 e03d 63d2 8abd 8c0b 12bd
000003a0: fb94 213d 002d dc3d 2e7a 713d eaff c83d
000003b0: 45dd ce3b f776 9b3d 2a44 5c3e 9e03 1b3b
000003c0: 1d6c 4f3d 3510 f03d bf41 bbbd c869 84bd
000003d0: 2b73 abbd a720 9cbb f9dd adbc bdc4 a1be
000003e0: 6aa3 90bd 69ce 183c 6cec 13be b014 dc3d
000003f0: 51e4 4a3d f146 08bd 2d2a a93c d189 0cbd

0.features.1.1.block.0.1.weight f4 [16]
0.4667683 0.57820165 0.5194717 1.197161 0.43516997 0.3421885 0.36274105 0.6251204
1.6427623 0.530353 0.4394554 0.40856093 0.42020795 0.43059042 0.407255 0.708086
00000000: 41fc ee3e 0605 143f 19fc 043f 923c 993f
00000010: 99ce de3e 5533 af3e 32b9 b93e e407 203f
00000020: 0946 d23f 37c5 073f 4c00 e13e e62e d13e
00000030: 7f25 d73e 5976 dc3e ba83 d03e 2045 353f

0.features.1.1.block.0.1.bias f4 [16]
0.093429595 0.14679927 -0.15681003 -0.7969094 -0.023597296 -0.09359999 -0.45057586 -0.07080645
-0.70262563 1.4757892 0.22026493 -0.11536587 -0.18126115 0.12796986 0.059012488 0.027899085
00000000: 0458 bf3d 8c52 163e cf92 20be 4102 4cbf
00000010: 1e4f c1bc 5ab1 bfbd e1b1 e6be f902 91bd
00000020: 46df 33bf a9e6 bc3f 218d 613e f144 ecbd
00000030: 869c 39be 880a 033e 14b7 713d 9f8c e43c

0.features.1.1.block.0.1.running_mean f4 [16]
-0.8933411 -0.6135882 -0.6443265 -0.23741482 -0.50593567 -2.6305244 -0.34008902 -0.5888054
-0.40062386 -0.43296534 -0.9748179 -1.890483 -1.6807548 0.26589006 -0.48609743 0.044455282
00000000: 01b2 64bf 1e14 1dbf 95f2 24bf df1c 73be
00000010: 0085 01bf 835a 28c0 2620 aebe f3bb 16bf
00000020: 921e cdbe a2ad ddbe aa8d 79bf 59fb f1bf
00000030: f922 d7bf be22 883e c3e1 f8be be16 363d

0.features.1.1.block.0.1.running_var f4 [16]
0.8702199 0.84324306 0.8480742 0.59840965 0.348595 1.670865 0.27702406 9.650805
0.7767115 0.12946735 0.80227786 2.860783 1.256317 0.83852625 2.21574 7.454974
00000000: bbc6 5e3f c7de 573f 641b 593f 6031 193f
00000010: 0b7b b23e e8de d53f 19d6 8d3e b369 1a41
00000020: 91d6 463f 1793 043e 1562 4d3f 1217 3740
00000030: ffce a03f a8a9 563f afce 0d40 268f ee40

0.features.2.0.block.0.0.weight f4 [64, 16, 3, 3]
0.021563388 -0.024706345 -0.00535363 0.07873049 -0.012668197 0.07661388 -0.04150171 -0.030082978
0.054837007 -0.023388987 0.00017833868 0.066238254 0.0012238921 -0.0051888456 0.0048131957 -0.05076387
0.037692275 0.0781168 -0.039575826 0.0073156487 -0.0018011165 -0.01800841 -0.008534418 0.023772983
-0.028982367 -0.005331476 0.04082241 0.08807716 0.09672678 -0.0086538065 0.14573132 -0.019428834
0.04499086 -0.061610658 0.1043334 -0.03395903 -0.0016858155 -0.024610221 0.03219671 -0.05337127
-0.045625843 0.020376658 -0.02174851 -0.057720907 0.08613057 0.009755095 -0.040184554 -0.068307474
0.012283045 -0.090928204 -0.058193676 0.06843577 -0.04169387 -0.0981887 -0.09055338 -0.005535157
0.020812124 -0.033317365 -0.07377852 -0.04758273 -0.015969044 -0.023253568 -0.036661223 -0.02842231
-0.0568926 -0.007881364 0.049461093 0.00027371765 -0.04529072 0.01924023 0.0022579483 0.027476411
0.3739689 0.2605489 0.4064747 0.13827835 -0.0020864897 0.05527667 0.26633415 0.029277809
0.01643871 0.01454242 0.055046294 0.06372212 -0.0003663558 0.073574714 -0.023460248 0.04220053
5.8571713e-05 -0.019232718 -0.01461652 -0.058293916 -0.064436644 -0.010382289 -0.03598415 0.043901153
-0.05897447 0.042626 -0.019622352 0.0068982947 -0.033119384 -0.011726016 -0.039849967 0.047482003
0.008392053 -0.032095496 -0.009475894 0.0046021855 -0.013308513 -0.010543638 -0.035894085 0.009566453
-0.030566012 0.032050956 -0.028692177 0.047215044 -0.016661447 0.037036207 -0.048804827 -0.09964088
-0.02334979 -0.043154992 -0.027079217 -0.011668631 0.08713336 -0.066552736 -0.047101546 -0.017616548
-0.07458146 0.01575675 -0.014335379 -0.028005928 0.068942 -0.05917904 0.010939447 -0.021531016
0.057006888 0.09174598 0.019747885 -0.104740985 0.01450314 -0.015234309 0.023014795 -0.027503336
0.054049656 0.071303084 0.08106484 -0.021669596 0.046792295 -0.04939511 0.0029227263 -0.008205536
0.04378644 -0.03448475 -0.016019063 -0.01897962 -0.031691685 0.020939386 0.043131 0.043736927
0.103004396 0.06689745 -0.03313773 -0.012316448 -0.06737182 -0.0053929556 0.0013966149 -0.03770915
-0.036342256 -0.04317059 -2.8261204e-05 0.03132871 0.030345445 0.020426055 -0.084116824 0.07305932
-0.02298482 -0.019904807 -0.0049986006 -0.031602237 -0.04170926 -0.00347837 0.18696672 0.00089338387
-0.04180245 -0.048559915 0.061717775 0.06281495 0.023163991 0.07229988 0.12039454 -0.15339331
0.00056908024 -0.024015611 -0.09731806 -0.04708992 -0.06447214 -0.008063044 0.076233506 0.04684308
0.054667026 0.073122606 0.058414172 -0.011827814 0.033532407 0.03428192 0.03155574 -0.0031205853
0.022763697 -0.016828673 -0.008669717 0.031725623 -0.07661144 -0.04180259 0.013465607 0.014501238
0.17955211 0.062113807 0.00014162743 0.15447348 0.0673928 0.09232657 0.08098103 0.072269894
0.038199134 0.057314325 -0.07745927 -0.015793359 -0.018238295 0.17631502 -0.014662099 0.06658993
-0.060226806 0.026409708 -0.0834304 -0.03159886 -0.03353029 -0.07063173 -0.013325811 0.060491513
-0.0017514192 -0.047839794 -0.0803745 -0.005853341 -0.1354322 -0.015156115 -0.06326721 0.09501212
-0.014505615 -0.060778864 -0.02327144 -0.06356606 -0.02576273 -0.01765221 0.056046456 -0.01849719
00000000: b4a5 b03c f664 cabc 816d afbb 733d a13d
00000010: 458e 4fbc bde7 9c3d b2fd 29bd 9470 f6bc
00000020: c59c 603d 439a bfbc 6d00 3b39 eca7 873d
00000030: 016b a03a 3107 aabb 03b8 9d3b c7ed 4fbd
00000040: 3763 1a3d b3fb 9f3d 431a 22bd 1cb8 ef3b
00000050: 7113 ecba 6086 93bc f2d3 0bbc 8fbf c23c
00000060: 6e6c edbc aab3 aebb 6635 273d cc61 b43d
00000070: b118 c63d b2c8 0dbc 973a 153e 3829 9fbc
00000080: 5648 383d 755b 7cbd c0ac d53d a018 0bbd
00000090: 95f6 dcba 609b c9bc b3e0 033d d59b 5abd
000000a0: 2ae2 3abd f3ec a63c ee29 b2bc c26c 6cbd
000000b0: 3965 b03d d5d3 1f3c 8f98 24bd cae4 8bbd
000000c0: d33e 493c 9138 babd 7e5c 6ebd 0e28 8c3d
000000d0: 31c7 2abd 2817 c9bd 0d74 b9bd 4360 b5bb
000000e0: 307e aa3c ca77 08bd 3119 97bd 1ce6 42bd
000000f0: 83d1 82bc 447e bebc 142a 16bd e7d5 e8bc
00000100: 3708 69bd d620 01bc b797 4a3d c381 8f39
00000110: c382 39bd b09d 9d3c 16fa 133b 3616 e13c
00000120: da78 bf3e aa66 853e 741d d03e d798 0d3e
00000130: 7dbd 08bb ca69 623d f35c 883e 04d8 ef3c
00000140: 79aa 863c 5543 6e3c 3978 613d be80 823d
00000150: 7113 c0b9 57ae 963d b52f c0bc 77da 2c3d
00000160: e6aa 7538 ef8d 9dbc 217a 6fbc 9ac5 6ebd
00000170: 5cf7 83bd 7a1a 2abc 1e64 13bd b2d1 333d
00000180: 378f 71bd 9a98 2e3d 0ebf a0bc 170b e23b
00000190: 31a8 07bd 7a1e 40bc b839 23bd 7d7c 423d
000001a0: d27e 093c 9176 03bd c840 1bbc eecd 963b
000001b0: f30b 5abc 39bf 2cbc ad05 13bd 9dbc 1c3c
000001c0: 9365 fabc dd47 033d db0b ebbc 9064 413d
000001d0: 967d 88bc 47b3 173d 92e7 47bd 8510 ccbd
000001e0: 0f48 bfbc 4ac3 30bd 3cd5 ddbc c92d 3fbc
000001f0: fa72 b23d cd4c 88bd 8ded 40bd 9450 90bc
00000200: 2abe 98bd 4d14 813c f0de 6abc b06c e5bc
00000210: 7731 8d3d b965 72bd 5e3b 333c d061 b0bc
00000220: 0e80 693d 51e5 bb3d 51c6 a13c 7182 d6bd
00000230: 949e 6d3c 5399 79bc 8689 bc3c ad4e e1bc
00000240: 2c63 5d3d 5a07 923d 5305 a63d 7084 b1bc
00000250: 47a9 3f3d 8752 4abd 368b 3f3b 8370 06bc
00000260: 6959 333d e23f 0dbd 693a 83bc 267b 9bbc
00000270: 24cf 01bd 1389 ab3c 22aa 303d 7e25 333d
00000280: f8f3 d23d 8801 893d 6ebb 07bd edca 49bc
00000290: 3dfa 89bd 64b7 b0bb 9f0e b73a e974 1abd
000002a0: 9edb 14bd a5d3 30bd 7912 edb7 8952 003d
000002b0: 0397 f83c 8b54 a73c 7145 acbd 20a0 953d
000002c0: a94a bcbc 680f a3bc 4dcb a3bb 5971 01bd
000002d0: 54d7 2abd 5df5 63bb 3474 3f3e fa31 6a3a
000002e0: 0c39 2bbd c3e6 46bd c7cb 7c3d 20a5 803d
000002f0: 69c2 bd3c f611 943d 6a91 f63d 2313 1dbe
00000300: 542e 153a 63bc c4bc b14e c7bd 5ce1 40bd
00000310: f809 84bd dc1a 04bc 5020 9c3d 88de 3f3d
00000320: 88ea 5f3d 4ec1 953d b343 6f3d 73c9 41bc
00000330: 4759 093d 336b 0c3d 9740 013d bc82 4cbb
00000340: ef7a ba3c 49dc 89bc 6e0b 0ebc baf2 013d
00000350: 75e6 9cbd 3139 2bbd d99e 5c3c 9a96 6d3c
00000360: 82dc 373e 0c6b 7e3d d381 1439 4c2e 1e3e
00000370: 3c05 8a3d b615 bd3d 62d9 a53d 3d02 943d
00000380: b276 1c3d 6dc2 6a3d f7a2 9ebd 1361 81bc
00000390: 7a68 95bc ed8b 343e 4d39 70bc 4d60 883d
000003a0: 62b0 76bd 2c59 d83c 8fdd aabd ce6d 01bd
000003b0: 0f57 09bd 5ea7 90bd 8154 5abc f3c5 773d
000003c0: e08f e5ba a9f3 43bd 639b a4bd 62cd bfbb
000003d0: bdae 0abe 5b51 78bc 3d92 81bd b795 c23d
000003e0: f6a8 6dbc 42f3 78bd bfa3 bebc ec2e 82bd
000003f0: 5c0c d3bc 5e9b 90bc f890 653d 6b87 97bc

0.features.2.0.block.0.1.weight f4 [64]
1.214577 0.68020815 0.6592218 0.7098053 0.64720625 0.76615816 0.7307794 0.77119684
0.7291695 0.6536237 0.69974256 0.9129007 0.74319464 0.7746397 0.7200957 0.72396326
0.7326911 0.625647 0.7365898 0.7673902 0.6659429 0.77826476 0.71996087 0.64703697
0.687007 1.1595004 0.69350886 0.69879854 0.658182 0.7134387 0.75485164 0.72639984
0.7741707 0.6416802 0.7214254 0.7775704 0.6884821 0.7280352 0.7323787 0.5853804
0.71327084 0.73254997 0.7766559 0.7590961 0.5924502 0.6922838 0.7564444 0.6468662
0.67851716 0.8386807 0.6960976 0.5704491 0.7520841 0.56771386 0.7534068 0.6061005
0.68935716 0.6228721 0.72612363 0.729473 1.4125755 0.6450052 0.9622749 0.73420894
00000000: 4277 9b3f 1f22 2e3f c3c2 283f cdb5 353f
00000010: 4faf 253f f122 443f 5c14 3b3f 286d 453f
00000020: daaa 3a3f e253 273f 5422 333f dcb3 693f
00000030: 0142 3e3f ca4e 463f 3158 383f a855 393f
00000040: a591 3b3f 672a 203f 2691 3c3f af73 443f
00000050: 3c7b 2a3f 5c3c 473f 5b4f 383f 37a4 253f
00000060: b1df 2f3f 826a 943f cc89 313f 76e4 323f
00000070: 9e7e 283f eba3 363f f53d 413f 57f5 393f
00000080: 0d30 463f 2745 243f 56af 383f db0e 473f
00000090: 5d40 303f 8460 3a3f 2c7d 3b3f 7ddb 153f
000000a0: eb98 363f 6588 3b3f ecd2 463f 1f54 423f
000000b0: d1aa 173f 8339 313f 57a6 413f 0699 253f
000000c0: 4db3 2d3f c7b3 563f 7433 323f f408 123f
000000d0: 9588 403f b255 113f 45df 403f 6729 1b3f
000000e0: b679 303f 8c74 1f3f 3de3 393f bebe 3a3f
000000f0: 46cf b43f 101f 253f a657 763f 1ef5 3b3f

0.features.2.0.block.0.1.bias f4 [64]
-0.5213681 0.09741467 0.11286268 0.31416965 0.14072299 0.14043209 0.109656274 0.017608408
0.12294776 0.13729484 0.12551095 0.020795042 0.12481219 0.14497821 0.06403784 0.28953573
0.094374545 0.103338994 0.27382082 0.110151716 0.032813992 0.12354962 0.01373956 0.053471338
0.23847595 -0.39142746 0.012014182 0.19980387 0.88104576 0.24174558 0.02559211 0.22979815
0.30640897 0.047751833 0.1295138 0.26257756 0.104498774 0.09995911 0.053038657 0.035392378
0.09020639 0.11124523 0.18531986 0.20676756 0.039082557 0.065132275 0.084722176 0.22210743
0.19436681 0.06870523 0.13721368 0.19985981 0.10162621 0.08479601 0.03905069 0.038791064
0.080877624 0.114986755 0.015449512 0.104618855 -0.5058106 0.101339005 -0.039375104 0.13778314
00000000: 6178 05bf 5881 c73d 8c24 e73d d8da a03e
00000010: b019 103e 6ecd 0f3e 7893 e03d 823f 903c
00000020: 09cc fb3d 0597 0c3e f185 003e 5d5a aa3c
00000030: 899d ff3d 2b75 143e 4526 833d 073e 943e
00000040: 7147 c13d 65a3 d33d 3e32 8c3e 3997 e13d
00000050: f767 063d 9507 fd3d e41b 613c c304 5b3d
00000060: 0a33 743e 2e69 c8be 22d7 443c 6399 4c3e
00000070: 378c 613f 278c 773e 8ba6 d13c 3550 6b3e
00000080: a3e1 9c3e 6d97 433d 449f 043e 9170 863e
00000090: 7403 d63d 5db7 cc3d 103f 593d 99f7 103d
000000a0: 21be b83d 8ad4 e33d 7dc4 3d3e e0ba 533e
000000b0: 0815 203d 1264 853d d282 ad3d 2170 633e
000000c0: 1808 473e 54b5 8c3d be81 0c3e 0da8 4c3e
000000d0: 6721 d03d 88a9 ad3d 9ef3 1f3d 61e3 1e3d
000000e0: 2ba3 a53d 2d7e eb3d f31f 7d3c 6942 d63d
000000f0: ce7c 01bf d38a cf3d ca47 21bd 0617 0d3e

0.features.2.0.block.0.1.running_mean f4 [64]
0.77190757 0.12391614 -0.8602831 0.12037852 -0.6608305 0.80754364 0.43385145 -1.302339
0.6583255 0.021773227 -0.19968869 0.6844502 0.6295439 0.07985643 -0.2501257 0.060064513
-1.0661058 -0.84182626 0.23876654 1.1770434 -0.35920745 -0.223148 -1.0843157 -0.5189032
0.38325232 0.8752713 -0.77413815 0.4377006 -0.5303401 1.5691075 -0.92704153 0.46715927
0.78079784 -0.1758453 0.44338822 0.4299597 -0.35821092 0.017853264 -1.1076922 0.8874079
0.15203245 0.84228075 1.6391993 0.13962847 -0.023144994 -0.96813023 -1.3347604 -0.8552812
0.843846 1.2639086 -0.45117274 -0.99742955 1.2231022 -0.48266262 -0.92313576 0.31407845
-0.932218 -0.23714769 -0.55049324 -0.5918155 0.39222774 -0.59699607 0.59228337 1.9777523
00000000: bc9b 453f bfc7 fd3d 833b 5cbf 0389 f63d
00000010: 302c 29bf 2ebb 4e3f c721 de3e 0bb3 a6bf
00000020: 0588 283f c45d b23c 317b 4cbe 2138 2f3f
00000030: ca29 213f c58b a33d 7a10 80be 3506 763d
00000040: 2876 88bf ed81 57bf 377f 743e 5ca9 963f
00000050: 0aea b7be e980 64be dbca 8abf d7d6 04bf
00000060: a639 c43e c811 603f eb2d 46bf 4b1a e03e
00000070: 5ec4 07bf 84d8 c83f 9852 6dbf 802f ef3e
00000080: 5ee2 473f ca10 34be c803 e33e ae23 dc3e
00000090: 6c67 b7be 0241 923c dcc8 8dbf 2a2d 633f
000000a0: 65ae 1b3e b69f 573f 48d1 d13f c4fa 0e3e
000000b0: 929a bdbc 62d7 77bf 6ed9 aabf b5f3 5abf
000000c0: 4b06 583f c2c7 a13f 1d00 e7be 8b57 7fbf
000000d0: 9d8e 9c3f 8e1f f7be a052 6cbf e4ce a03e
000000e0: d7a5 6ebf d8d6 72be 20ed 0cbf 3881 17bf
000000f0: 13d2 c83e bcd4 18bf e29f 173f fd26 fd3f

0.features.2.0.block.0.1.running_var f4 [64]
2.8276067 2.5702229 1.5088422 2.4076517 1.2200642 3.585145 4.609263 2.394787
3.8859203 2.0072057 1.9523801 2.4118578 2.9399238 3.9596565 2.8100796 2.3803818
2.7601745 2.4948912 3.1575778 5.803175 1.4943188 1.9329318 3.6456535 2.061457
2.869554 2.2087119 2.3576498 1.4752167 0.86606485 2.4092739 2.3179076 3.3319383
3.4296567 2.1065886 3.4110181 3.848239 0.5685128 2.3167627 1.9375923 1.2121012
2.7231817 3.5298982 4.7515497 2.9339545 2.3679664 1.4623644 1.7562646 1.9724102
3.2469585 2.8716626 1.4668996 1.5136471 4.013547 1.5640601 4.0319495 1.3394521
2.0990283 1.5669215 2.6241884 3.9758985 1.0933408 2.2040734 2.3082612 5.8684764
00000000: 82f7 3440 887e 2440 be21 c13f f716 1a40
00000010: 102b 9c3f 0473 6540 157f 9340 3144 1940
00000020: ebb2 7840 0f76 0040 97e7 f93f e15b 1a40
00000030: b627 3c40 036b 7d40 58d8 3340 2d58 1840
00000040: b3a6 3040 4cac 1f40 c115 4a40 9cb3 b940
00000050: d745 bf3f 4f6a f73f 6352 6940 e9ee 0340
00000060: c6a6 3740 895b 0d40 bce3 1640 e7d3 bc3f
00000070: 6db6 5d3f 8b31 1a40 9958 1440 7a3e 5540
00000080: 7f7f 5b40 59d2 0640 1f4e 5a40 8c49 7640
00000090: 0e8a 113f d745 1440 0603 f83f 2226 9b3f
000000a0: 9c48 2e40 dae9 6140 b20c 9840 e9c5 3b40
000000b0: c38c 1740 c22e bb3f 47cd e03f f077 fc3f
000000c0: 2bce 4f40 52c9 3740 5ec3 bb3f 30bf c13f
000000d0: fa6e 8040 1f33 c83f bb05 8140 2b73 ab3f
000000e0: 7b56 0640 e290 c83f b4f2 2740 1f75 7e40
000000f0: 97f2 8b3f 8a0f 0d40 8dba 1340 8fca bb40

0.features.2.0.block.1.0.weight f4 [32, 64, 1, 1]
-0.3483059 0.25299475 0.26408783 0.18947813 -0.045556538 0.24161693 -0.40433437 0.08374882
0.29079142 -0.10296779 0.017814515 0.0023355403 -0.14195798 -0.37771308 0.0445779 0.094080076
0.2956408 -0.22618078 0.12126043 -0.10700297 -0.0714245 0.085911795 -0.106248476 0.14888138
0.27730554 -0.07549613 -0.18002401 0.09963548 0.06637226 0.098585956 0.1437699 0.37479073
-0.08626617 0.12662044 0.19495562 -0.21886149 -0.025439613 -0.17027034 -0.46705893 0.019219154
-0.24837409 0.26487654 -0.5024403 -0.061688434 0.06336665 -0.0027803346 -0.20423782 0.21769036
-0.24200548 -0.036846388 -0.11899613 -0.34226945 0.23286578 -0.2760711 0.07164536 -0.08778768
0.4188911 0.015299515 0.2049432 -0.08721724 -0.29183617 0.13153562 0.07791525 -0.11331524
-0.3050175 0.14027253 0.005010817 0.050520778 0.26676416 -0.33443245 -0.24645862 -0.12548293
0.28934786 0.20508538 -0.096198566 -0.016443696 -0.13639128 0.012820869 0.07561417 0.20115782
0.032554545 0.091548294 0.26037475 0.35301942 -0.051835623 -0.072987735 -0.13765574 -0.20320801
-0.037435062 -0.39247987 -0.050709352 0.08431912 -0.17230354 -0.33508232 0.017295294 0.28560808
-0.2626 -0.1035852 0.052844126 0.40723613 0.16343743 0.11556486 -0.024411047 -0.13900484
0.33683577 -0.01125223 -0.108612634 0.047444798 -0.045242254 -0.0045687226 0.22790128 -0.2646509
-0.25185052 -0.1857347 -0.26309273 0.3744997 -0.25214744 0.25618547 0.22734322 0.11389042
-0.023803368 -0.43986356 -0.067456864 -0.049264543 -0.15364431 -0.2508866 -0.5555851 0.06472299
-0.096933246 -0.41872084 -0.25047 -0.040533375 0.17735869 -0.14266497 -0.115517534 -0.04477992
0.23081705 0.027128812 -0.07118512 0.005577928 -0.29252288 -0.1444542 0.28741884 0.34463853
-0.1548453 -0.01980535 -0.29668307 0.38110945 0.10671449 -0.08455298 -0.24874052 -0.057155292
-0.12942801 -0.37726292 0.012958884 -0.2056362 0.08738761 0.017662823 -0.36826238 0.19476157
0.055010736 -0.20823404 0.29942816 0.05991437 -0.014821227 -0.048332132 -0.08226007 -0.07323771
-0.35679346 -0.027709652 0.105596885 0.13053665 0.46023816 0.17230648 0.15414008 0.16843514
0.12463447 0.114306614 0.13972847 0.122071676 -0.2317439 -0.027551064 0.18361834 0.22720645
-0.12066427 0.3194637 -0.049774252 -0.020512152 -0.32879263 0.15881294 0.12926823 -0.03975558
0.049749844 -0.00010315312 0.060763568 0.04250885 -0.17260276 -0.11860359 0.20358352 -0.20793949
0.10779419 -0.0033008927 0.07714753 -0.033616867 -0.04803949 0.09978717 -0.12476867 -0.11416714
0.16568024 -0.18842672 -0.005028186 0.2948946 -0.13995522 0.47284672 -0.02267939 -0.3189854
0.037513852 -0.23350553 0.3209791 -0.1537607 0.014888745 0.05625461 0.12366477 0.06326777
0.010298395 0.08863507 -0.1490843 -0.0019269983 0.015066245 0.0024737273 0.017777512 -0.18844636
-0.11512274 -0.20022345 -0.14787364 0.15474106 -0.070528954 0.31418595 0.11705304 0.13275538
0.016310897 -0.17460427 -0.1931512 -0.009698294 0.09736711 -0.4673229 -0.08286446 0.09926283
-0.20345049 0.3054743 -0.1379708 -0.13950288 0.25402322 -0.13243496 -0.076436184 0.39250475
00000000: 2755 b2be 8788 813e 8536 873e 8e06 423e
00000010: 7e99 3abd 6e6a 773e ea04 cfbe 8084 ab3d
00000020: 9de2 943e c7e0 d2bd bfef 913c dd0f 193b
00000030: 6f5d 11be 9c63 c1be 5197 363d 0ead c03d
00000040: 3b5e 973e ef9b 67be 6357 f83d 6024 dbbd
00000050: 0247 92bd 86f2 af3d cd98 d9bd 5c74 183e
00000060: fefa 8d3e b79d 9abd 3758 38be b00d cc3d
00000070: 2eee 873d 6fe7 c93d 6b38 133e 92e4 bf3e
00000080: 51ac b0bd caa8 013e 72a2 473e 3a1d 60be
00000090: bc66 d0bc 595b 2ebe 5922 efbe 7d71 9d3c
000000a0: c755 7ebe e69d 873e ed9f 00bf 03ad 7cbd
000000b0: 60c6 813d 4636 36bb b823 51be 39ea 5e3e
000000c0: 49d0 77be 3dec 16bd 3eb4 f3bd f13d afbe
000000d0: 5e74 6e3e 3159 8dbe cdba 923d 07ca b3bd
000000e0: e578 d63e d1aa 7a3c a1dc 513e f49e b2bd
000000f0: 8d6b 95be 46b1 063e 0892 9f3d d211 e8bd
00000100: 412b 9cbe 9aa3 0f3e c831 a43b e0ee 4e3d
00000110: 5095 883e bb3a abbe a65f 7cbe 997e 00be
00000120: 6725 943e e701 523e c103 c5bd eeb4 86bc
00000130: 28aa 0bbe 9f0e 523c 9adb 9a3d 51fc 4d3e
00000140: ea57 053d ac7d bb3d d74f 853e f6be b43e
00000150: 9751 54bd 987a 95bd a0f5 0cbe c315 50be
00000160: 8255 19bd 1ff3 c8be 9cb4 4fbd 81af ac3d
00000170: 5770 30be e98f abbe dcae 8d3c 393b 923e
00000180: 8273 86be 7a24 d4bd 1573 583d 4181 d03e
00000190: 245c 273e 45ad ec3d adf9 c7bc 4957 0ebe
000001a0: bd75 ac3e 465b 38bc 4d70 debd 7a55 423d
000001b0: f14f 39bd 39b5 95bb f45e 693e 5380 87be
000001c0: 8df2 80be 3d31 3ebe 17b4 86be 6dbe bf3e
000001d0: 7819 81be be2a 833e a9cc 683e 613f e93d
000001e0: 48ff c2bc cc35 e1be d326 8abd 9ec9 49bd
000001f0: ef54 1dbe 3574 80be d33a 0ebf 7d8d 843d
00000200: f084 c6bd 9462 d6be 9b3d 80be 5306 26bd
00000210: 849d 353e c416 12be 7594 ecbd 266b 37bd
00000220: 4e5b 6c3e 3e3d de3c 81c9 91bd 0dc7 b63b
00000230: 8fc5 95be cdeb 13be 9028 933e 7674 b03e
00000240: c48f 1ebe d43e a2bc d8e6 97be c720 c33e
00000250: 208d da3d 1d2a adbd d6b5 7ebe ab1b 6abd
00000260: c788 04be 9b28 c1be 8051 543c 4c92 52be
00000270: 46f8 b23d a0b1 903c e38c bcbe 946f 473e
00000280: f052 613d 4e3b 55be a64e 993e c568 753d
00000290: bbd4 72bc eaf7 45bd f877 a8bd a7fd 95bd
000002a0: a2ad b6be 5aff e2bc 2e43 d83d 66ab 053e
000002b0: 56a4 eb3e 1c71 303e e6d6 1d3e 437a 2c3e
000002c0: 5b40 ff3d 9619 ea3d fb14 0f3e b700 fa3d
000002d0: 464e 6dbe c5b2 e1bc 7206 3c3e cfa8 683e
000002e0: d41e f7bd bf90 a33e 16e0 4bbd 1a09 a8bc
000002f0: 8257 a8be dc9f 223e e45e 043e bfd6 22bd
00000300: 7ec6 4b3d e953 d8b8 38e3 783d c31d 2e3d
00000310: c7be 30be 70e6 f2bd 3378 503e 17ee 54be
00000320: 33c3 dc3d ca53 58bb 86ff 9d3d d7b1 09bd
00000330: 0ec5 44bd 375d cc3d b786 ffbd 76d0 e9bd
00000340: 15a8 293e eff2 40be 7bc3 a4bb 6dfc 963e
00000350: 6c50 0fbe f718 f23e 21ca b9bc 0e52 a3be
00000360: 20a8 193d 131c 6fbe 5f57 a43e 7273 1dbe
00000370: ecef 733c 3c6b 663d f443 fd3d 8892 813d
00000380: 99ba 283c 4e86 b53d 8ea9 18be 5593 fcba
00000390: 69d8 763c 421e 223b 25a2 913c 15f8 40be
000003a0: 79c5 ebbd 6007 4dbe 306c 17be 7174 1e3e
000003b0: 7c71 90bd fbdc a03e 81b9 ef3d 07f1 073e
000003c0: 6e9e 853c 76cb 32be 6ec9 45be 98e5 1ebc
000003d0: 6868 c73d f244 efbe d8b4 a9bd 504a cb3d
000003e0: 5355 50be 2167 9c3e 3848 0dbe d8d9 0ebe
000003f0: 550f 823e 089d 07be 938a 9cbd 62f6 c83e

0.features.2.0.block.1.1.weight f4 [32]
0.9535416 0.99467045 0.8946975 0.73108566 0.8375765 0.7516801 0.7761837 0.7139043
0.93797725 0.89407516 0.7734934 0.8551943 0.7873296 0.7892291 0.8151583 0.73030615
0.7746692 0.9126848 0.76870424 0.90739006 1.1508042 0.8188292 0.92892843 0.79416806
0.7698206 1.140057 0.85780126 1.2929693 0.7894074 0.7404101 0.77763736 0.80123645
00000000: 4d1b 743f b9a2 7e3f e50a 653f 6e28 3b3f
00000010: 6a6b 563f 1b6e 403f fab3 463f 6fc2 363f
00000020: 471f 703f 1ce2 643f aa03 463f 03ee 5a3f
00000030: 6f8e 493f eb0a 4a3f 37ae 503f 58f5 3a3f
00000040: b850 463f b6a5 693f cdc9 443f b74a 683f
00000050: 8d4d 933f ca9e 513f 41ce 6d3f 994e 4b3f
00000060: f612 453f 63ed 913f dd98 5b3f 0580 a53f
00000070: 9a16 4a3f 848b 3d3f 3e13 473f d51d 4d3f

0.features.2.0.block.1.1.bias f4 [32]
0.0097910045 0.11566679 0.1154229 0.026814392 -0.03856567 0.16006899 -0.07445505 0.09271683
-0.013060033 -0.033237975 -0.05042545 0.020211833 -0.04068003 0.011579649 -0.048687387 0.13308036
0.01312923 0.049627673 -0.090845436 -0.0868331 0.0043689325 -0.072860435 0.08416213 -0.056106247
-0.0064750947 -0.06568874 -0.12346397 -0.017073648 0.016763085 0.12997048 -0.043312408 -0.11736554
00000000: 736a 203c b6e2 ec3d d762 ec3d dba9 db3c
00000010: 09f7 1dbd 20e9 233e e47b 98bd 52e2 bd3d
00000020: c0f9 55bc 8b24 08bd eb8a 4ebd 4993 a53c
00000030: 1aa0 26bd 91b8 3d3c 6d6c 47bd 3846 083e
00000040: fb1b 573c 6346 4b3d 2c0d babd 8dd5 b1bd
00000050: 4329 8f3b da37 95bd 325d ac3d aacf 65bd
00000060: 082d d4bb d187 86bd aeda fcbd 09de 8bbc
00000070: bd52 893c fb16 053e 5a68 31bd 585d f0bd

0.features.2.0.block.1.1.running_mean f4 [32]
-0.012987352 -0.25061375 0.05282807 0.065015696 0.15015627 -0.081415094 0.09734808 0.27063853
0.28816852 -0.10190374 0.07548438 0.030643335 -0.123475395 0.08712837 -0.25312343 0.08969293
0.12955451 -0.25393188 0.07834499 0.12951316 0.117875494 0.18674687 -0.26192334 0.136073
0.1340742 0.1952924 -0.03937782 0.42143798 0.043298632 -0.3786764 0.17453599 0.1866236
00000000: e7c8 54bc 7250 80be 3f62 583d f326 853d
00000010: 91c2 193e f5bc a6bd 6e5e c73d 2291 8a3e
00000020: d38a 933e e8b2 d0bd 8e97 9a3d bb07 fb3c
00000030: abe0 fcbd 5c70 b23d 6599 81be edb0 b73d
00000040: f0a9 043e 5c03 82be 5773 a03d 199f 043e
00000050: b568 f13d 923a 3f3e d11a 86be b856 0b3e
00000060: bf4a 093e bbfa 473e a34a 21bd b8c6 d73e
00000070: e859 313d e0e1 c1be 90b9 323e 421a 3f3e

0.features.2.0.block.1.1.running_var f4 [32]
0.25383195 1.2468877 0.3762592 0.80616266 0.54419196 1.6299527 2.6801577 2.6841724
0.81522155 0.7653996 1.8223792 0.49943033 0.24839157 4.7504444 0.66771096 2.8572004
0.41928664 0.36265045 0.31079203 0.28823283 1.4870305 0.4451633 0.6083976 0.78431493
1.340993 0.6453993 1.9413161 1.0423179 0.56968987 1.4672055 4.2485514 0.7904657
00000000: 43f6 813e 049a 9f3f 0ca5 c03e ad60 4e3f
00000010: 2a50 0b3f 4aa2 d03f b487 2b40 7bc9 2b40
00000020: 5cb2 503f 3af1 433f b943 e93f 55b5 ff3e
00000030: 5c5a 7e3e a403 9840 1bef 2a3f 5fdc 3640
00000040: bdac d63e 52ad b93e 2220 9f3e 4193 933e
00000050: 0457 be3f 72ec e33e f2bf 1b3f ddc8 483f
00000060: a9a5 ab3f e338 253f 0c7d f83f ac6a 853f
00000070: 32d7 113f 64cd bb3f 22f4 8740 f65b 4a3f
