code/modeling/ckpt/AutoencoderConfig([1, 2, 1], flip=False, rotate=False)/autoencoder_20000.pth (torch, 517442 bytes, 78 tensors)

0.features.0.0.weight f4 [16, 8, 3, 3]
0.07478213 0.00017755588 0.03150953 0.004320266 -0.13191143 -0.05705016 0.0071646064 -0.030854667
0.02496492 0.0104346 0.07248701 0.012910466 0.037819292 0.14357074 0.043139137 0.074008584
0.00868302 0.0474147 0.027041093 0.025920488 0.023566032 0.026312627 -0.013975272 -0.0021451963
0.04753387 -0.06572481 0.040271908 0.022701593 -0.020271985 0.0020170328 -0.046702802 -0.24009567
-0.027333006 0.05841372 -0.09151867 0.024106639 0.013026459 0.020929025 0.079962775 -0.0956233
-0.096504904 0.07435617 -0.005479068 -0.00645395 0.12169928 0.055813536 0.015381314 0.0001775937
-0.013194311 -0.09980487 -0.0051082894 0.044803947 0.012322204 0.010535912 1.6914812e-05 -0.04380423
0.021700824 0.013284389 -0.14420177 -0.0065952456 0.040101267 -0.041928906 0.020422993 -0.015172204
-0.04353127 0.012028551 -0.049396444 -0.14697523 -0.0026205 -0.017418109 -0.016153555 -0.016812293
0.04047153 -0.023123538 0.03117078 0.04231809 -0.12501334 0.056694046 0.021149423 0.04210543
-0.033625197 0.04463537 0.074804835 0.07032533 -0.00038697294 -0.077376895 0.1307727 0.11935773
0.16744371 0.13997939 0.0329434 0.060665123 -0.00038223184 0.061096463 0.0092538735 0.108024485
0.047230076 0.051548522 0.03851296 0.014135137 -0.07449398 -0.0014942392 -0.008080961 0.013206585
0.0453937 -0.07023117 -0.036067836 0.06699271 0.023902379 -0.07228304 -0.10335826 0.030807426
0.00026066665 -0.081800014 0.008646784 -0.052626148 -0.08278233 -0.016877854 0.052797347 0.054424483
-0.012788485 0.06949668 0.07496962 -0.03699372 0.031172475 0.065993614 0.052776914 0.010814446
-0.00091930624 0.014991762 0.015575436 -0.017831985 0.029265601 -0.013759578 0.030141082 -0.081303164
-0.009859149 -0.03499865 -0.08102854 0.015505328 -0.063010305 -0.08743348 -0.0337865 0.009500987
0.011479583 0.020678172 -0.02777869 -0.028577887 -0.006014514 0.052524354 0.05803289 -0.014616054
-0.0009385923 0.030293876 -0.109881066 0.0005301392 -0.07942851 -0.27229548 -0.089122534 0.016192757
-0.2112301 0.034337927 -0.05181381 0.058635104 -0.02680843 0.027204568 -0.22859786 0.024397125
-0.016485045 -0.020305675 -0.021052705 -0.052571617 0.0368404 -0.046556387 0.05361326 -0.05066808
0.05924906 -0.04002201 -0.08041924 -0.010977791 -0.024438702 0.0033363595 -0.038299404 0.051383287
0.09504652 0.07836381 -0.011959961 0.08670882 0.004760395 0.011868479 -0.060041893 -0.007216165
-0.027712077 -0.029322466 -0.016523628 -0.0025075765 0.010481169 -0.034052197 -0.020194365 0.007660394
-0.019267868 -0.082419865 0.075117946 0.068202816 -0.03186399 0.06928747 -0.018441034 -0.004567166
0.017731877 -0.038999688 0.036340408 0.10862689 0.026071977 0.04027969 0.17382428 -0.04463997
-0.033067226 0.02229373 -0.014401433 -0.024416197 0.16410574 -0.04415709 -0.015282444 -0.011839
-0.021030055 0.0014646571 -0.00517794 0.025230058 0.010633907 -0.045600034 0.013526978 0.013211402
0.031052645 0.03961977 -0.0020120419 0.05985653 0.0042276797 -0.004730707 -0.4986967 0.024245396
0.045296956 -0.031340726 0.007024265 0.0027358423 0.03149193 0.02176842 -0.046213336 -0.012756236
0.021050517 0.023693133 0.0039599603 0.03170768 0.02120998 -0.025185075 -0.005556709 -0.02333298
00000000: 6027 993d 4b2e 3a39 2310 013d 0591 8d3b
00000010: ca13 07be 6ead 69bd 13c5 ea3b edc2 fcbc
00000020: 3b83 cc3c e2f5 2a3c 1274 943d 6b86 533c
00000030: 67e8 1a3d 3504 133e aab2 303d d091 973d
00000040: 3a43 0e3c eb35 423d 4885 dd3c 3457 d43c
00000050: 8d0d c13c 948d d73c 8af8 64bc 6c96 0cbb
00000060: e0b2 423d bb9a 86bd 28f4 243d b1f8 b93c
00000070: 6f11 a6bc 3230 043b 704b 3fbd a4db 75be
00000080: 78e9 dfbc 3a43 6f3d 246e bbbd 497b c53c
00000090: ee6c 553c 5973 ab3c 86c3 a33d 26d6 c3bd
000000a0: 5da4 c5bd 0c48 983d c189 b3bb a87b d3bb
000000b0: 793d f93d bc9c 643d e801 7c3c 7238 3a39
000000c0: f42c 58bc 7f66 ccbd 7063 a7bb 5884 373d
000000d0: 12e3 493c d19e 2c3c 48e4 8d37 106c 33bd
000000e0: edc5 b13c c4a6 593c a1a9 13be ee1c d8bb
000000f0: 3a41 243d a5bd 2bbd 1f4e a73c d694 78bc
00000100: d84d 32bd 6613 453c ed53 4abd ad80 16be
00000110: b2bc 2bbb 6cb0 8ebc 7654 84bc efb9 89bc
00000120: 7ac5 253d 936d bdbc dd59 ff3c bc55 2d3d
00000130: 7f03 00be 0438 683d 8e41 ad3c be76 2c3d
00000140: 93ba 09bd 94d3 363d 4733 993d ba06 903d
00000150: a1e2 cab9 c777 9ebd 47e9 053e d371 f43d
00000160: 5d76 2b3e c256 0f3e a9ef 063d fe7b 783d
00000170: 4a66 c8b9 4940 7a3d 8f9d 173c f13b dd3d
00000180: 5374 413d 8b24 533d c4bf 1d3d 1097 673c
00000190: 4d90 98bd 59da c3ba 0266 04bc 6f60 583c
000001a0: bfee 393d 5cd5 8fbd debb 13bd 7933 893d
000001b0: ecce c33c 2109 94bd 7fad d3bd db5f fc3c
000001c0: 16aa 8839 c486 a7bd 3eab 0d3c 848e 57bd
000001d0: c889 a9bd 6d43 8abc 0842 583d 35ec 5e3d
000001e0: cb86 51bc 4654 8e3d ac89 993d ba86 17bd
000001f0: 6b5d ff3c a927 873d 9b2c 583d 132f 313c
00000200: 99fd 70ba 02a0 753c 1d30 7f3c 6214 92bc
00000210: 6abe ef3c da6f 61bc 6eea f63c 4682 a6bd
00000220: 4588 21bc bf5a 0fbd 4bf2 a5bd 0f0a 7e3c
00000230: 8c0b 81bd 5310 b3bd b763 0abd 07aa 1b3c
00000240: dc14 3c3c 4565 a93c 2390 e3bc 2c1c eabc
00000250: 6615 c5bb c723 573d e5b3 6d3d 2c78 6fbc
00000260: dd0b 76ba dd2a f83c 5309 e1bd 0af9 0a3a
00000270: 6aab a2bd 506a 8bbe e085 b6bd aca6 843c
00000280: b44c 58be eda5 0c3d b83a 54bd 5d2b 703d
00000290: 5a9d dbbc 1ddc de3c 8f15 6abe 7bdc c73c
000002a0: a50b 87bc 1658 a6bc b976 acbc 5655 57bd
000002b0: f6e5 163d e9b1 3ebd 9499 5b3d 5589 4fbd
000002c0: 24af 723d 1fee 23bd d8b2 a4bd 31dc 33bc
000002d0: ac33 c8bc d3a6 5a3b d6df 1cbd 4877 523d
000002e0: c0a7 c23d 357d a03d b6f3 43bc 6594 b13d
000002f0: 16fd 9b3b 0274 423c 7dee 75bd 9475 ecbb
00000300: 7004 e3bc ab35 f0bc 8f5c 87bc 2756 24bb
00000310: 36b9 2b3c 517a 0bbd a76e a5bc 0b04 fb3b
00000320: a6d7 9dbc bfcb a8bd 70d7 993d ebad 8b3d
00000330: d183 02bd 97e6 8d3d a711 97bc 2aa8 95bb
00000340: 7142 913c 23be 1fbd aed9 143d c677 de3d
00000350: e694 d53c 51fc 243d fefe 313e 67d8 36bd
00000360: 8071 07bd 57a1 b63c fdf3 6bbc 7a04 c8bc
00000370: 560b 283e 11de 34bd 3763 7abc 5df8 41bc
00000380: 3947 acbc bdf9 bf3a b5ab a9bb 44af ce3c
00000390: d739 2e3c 1ac7 3abd 42a0 5d3c a374 583c
000003a0: 1e62 fe3c 5748 223d 76dc 03bb 1f2c 753d
000003b0: 5988 8a3b 0c04 9bbb 2d55 ffbe 489e c63c
000003c0: 4d89 393d 225f 00bd ce2b e63b d14b 333b
000003d0: affd 003d af53 b23c 324a 3dbd 88ff 50bc
000003e0: 2272 ac3c 1a18 c23c 8ec2 813b eadf 013d
000003f0: 8dc0 ad3c ee50 cebc 0e15 b6bb ce24 bfbc

0.features.0.1.weight f4 [16]
0.660951 0.64535075 0.56728536 0.45293206 0.5781721 0.5501685 0.695864 0.74208635
0.7383376 0.65152603 0.33810025 0.5735483 0.7368955 0.4849147 0.8980379 0.68992376
00000000: 1634 293f b535 253f 9d39 113f b6e6 e73e
00000010: 1603 143f d8d7 0c3f 2524 323f 5ff9 3d3f
00000020: b103 3d3f 69ca 263f 7a1b ad3e 10d4 123f
00000030: 2fa5 3c3f bd46 f83e d0e5 653f d89e 303f

0.features.0.1.bias f4 [16]
0.7876799 0.7725295 0.37703338 0.9903733 1.4237059 0.589076 0.037590597 1.0727074
0.15339164 0.8699978 0.32153007 0.09382482 -0.11430882 0.5866345 -0.086846 0.3639517
00000000: 64a5 493f 7ec4 453f 850a c13e 1b89 7d3f
00000010: ff3b b63f afcd 163f 99f8 193d 7a4e 893f
00000020: b312 1d3e 2db8 5e3f 979f a43e 3a27 c03d
00000030: be1a eabd ae2d 163f 51dc b1bd e157 ba3e

0.features.0.1.running_mean f4 [16]
0.00062233896 -0.000865162 -7.8260724e-05 0.00025018502 0.00015274332 -3.1968037e-05 0.0010336952 -0.0007304125
-0.0010314512 -5.1027837e-06 9.759852e-05 0.0013030933 0.0005347149 0.0015542995 -0.00043842374 0.0012791476
00000000: 7624 233a 0acc 62ba e81f a4b8 442b 8339
00000010: b929 2039 6b15 06b8 0e7d 873a 2779 3fba
00000020: c231 87ba 9438 abb6 cead cc38 8ecc aa3a
00000030: 1c2c 0c3a a3b9 cb3a 3ddc e5b9 12a9 a73a

0.features.0.1.running_var f4 [16]
0.5236148 0.6643972 0.61045194 0.18193126 0.48410115 0.69433004 0.86417395 1.0475793
0.8473399 0.5021251 0.3901846 0.70697415 0.5325801 0.83637685 0.29557896 0.8002166
00000000: 9f0b 063f ef15 2a3f 9446 1c3f 304c 3a3e
00000010: 1bdc f73e 9dbf 313f 813a 5d3f 1417 863f
00000020: 45eb 583f 458b 003f 47c6 c73e 42fc 343f
00000030: 2b57 083f cb1c 563f 2056 973e ffda 4c3f

0.features.1.0.block.0.0.weight f4 [16, 16, 3, 3]
-0.07255278 0.20463647 0.058467675 0.048268814 0.3724162 0.1948219 -0.21970691 -0.122379005
-0.075696915 0.097493835 0.051737763 0.06266764 -0.008141249 0.10568448 -0.09608406 0.14681624
0.15375741 -0.077740334 -0.21278524 -0.17562293 -0.10917197 -0.06250657 -0.26536235 -0.10572069
0.01209808 -0.067829266 -0.022130307 0.04585962 0.10083593 0.012097001 -0.10158213 -0.07599732
0.043870654 -0.024244286 -0.0015023926 -0.041820034 0.0401404 -0.21820547 -0.069378495 0.056779567
0.11588209 -0.026540278 0.011377358 0.05962935 -0.09220662 0.056049664 -0.02398583 0.1094216
-0.020437581 -0.074728504 -0.05726039 0.05192469 -0.031720493 0.014455502 -0.0877334 0.09149296
-0.089603394 -0.027410638 -0.124489896 -0.10580914 -0.06336347 -0.14175615 0.020987866 0.015858762
0.0055177785 -0.06885259 -0.029413141 0.20000468 0.0075375433 -0.060003456 -0.048076835 0.02869909
0.060401376 -0.077924915 -0.0037590778 0.077504404 0.009909737 -0.11313228 0.0645996 0.025754737
0.042222463 0.00745441 -0.15311167 0.07563074 0.007879078 0.07990387 0.09707067 -0.07522242
0.022619002 0.07366197 0.085534774 -0.031926174 0.02017929 0.054651994 0.07468275 0.16806196
0.013782677 0.1475375 -0.056276396 0.022002315 -0.0050093643 0.056478042 -0.20679694 -0.10512724
-0.10053878 -0.0911918 -0.013961508 -0.04870258 -0.031075545 -0.14136915 -0.0013188273 -0.20541209
-0.05516664 -0.1061613 0.06060918 0.0038447438 -0.07533552 -0.06550528 -0.06818487 -0.108745344
-0.06277063 0.024828695 0.10672072 0.103078075 0.0012752095 -0.11861439 -0.0011802587 0.02973407
0.050610125 -0.018670006 0.18130347 0.019300586 0.008842297 0.014321779 0.004768175 -0.116968244
0.0089590885 0.11394941 0.02836775 0.21363775 0.15114266 -0.057536263 -0.08896981 0.0018231393
-0.036295973 0.031636067 0.046467435 -0.12446596 0.15953211 0.07872063 -0.041824218 -0.21003807
0.18214232 0.16643368 -0.16237193 -0.015049831 0.11001814 0.049846925 -0.10824497 -0.0075984662
0.04837505 -0.06934047 -0.0590252 -0.11656383 -0.28123704 -0.08136953 -0.010104052 -0.29913884
-0.21226887 -0.1874452 -0.2553543 0.08576758 -0.118885 0.07721124 0.036812734 0.15243201
-0.026426915 0.10016668 -0.046022136 0.04190313 -0.045439992 0.12425076 0.006788678 0.045571093
-0.09407026 0.12193081 -0.0012391713 0.11994067 -0.031760953 0.010020771 -0.10524676 -0.041645378
-0.13643906 -0.07662955 -0.06865374 -0.14559464 -0.14339085 -0.044217058 -0.19982429 0.014414852
0.031887926 -0.17368685 -0.08684092 -0.049666513 -0.14859988 -0.14755909 -0.17792629 -0.0437965
-0.032450367 -0.001945234 0.068710975 0.041494932 -0.0036968943 -0.13071613 0.052869882 -0.08647569
-0.036211234 0.06626422 -0.088102356 -0.08061981 0.10384137 -0.15403089 -0.073896326 0.10930949
-0.013764755 -0.13353579 0.04126629 -0.057218153 -0.051354922 -0.06494168 -0.09095549 0.08668277
0.011894378 0.12876076 -0.24876715 -0.084383234 0.048378006 -0.03191409 0.045159657 -0.17146258
-0.26560417 -0.115822606 -0.077038765 0.10501501 0.09822715 0.076370366 0.0047106305 -0.014298958
-0.16711617 0.0032408768 -0.20345764 -0.11348024 -0.20820205 -0.10601192 -0.17642784 0.018363241
00000000: 8d96 94bd 398c 513e cd7b 6f3d 85b5 453d
00000010: 56ad be3e 647f 473e d9fa 60be d8a1 fabd
00000020: fc06 9bbd d9aa c73d faea 533d e457 803d
00000030: e062 05bc 1b71 d83d b8c7 c4bd ff56 163e
00000040: 9572 1d3e 5336 9fbd 60e4 59be 7fd6 33be
00000050: 8e95 dfbd 7203 80bd 93dd 87be 1784 d8bd
00000060: 0637 463c 12ea 8abd 9e4a b5bc 4cd7 3b3d
00000070: 1183 ce3d 8032 463c 4b0a d0bd 7ca4 9bbd
00000080: b7b1 333d f49b c6bc eeeb c4ba 7c4b 2bbd
00000090: 436a 243d 4171 5fbe 5016 8ebd b191 683d
000000a0: 9753 ed3d ff6a d9bc 1968 3a3c e83d 743d
000000b0: d3d6 bcbd 5594 653d ee7d c4bc 6f18 e03d
000000c0: b76c a7bc 420b 99bd df89 6abd fcae 543d
000000d0: 59ed 01bd c5d6 6c3c 92ad b3bd a960 bb3d
000000e0: fc81 b7bd 468c e0bc 8ff4 febd 76b2 d8bd
000000f0: b5c4 81bd 8628 11be bfee ab3c 3cea 813c
00000100: 7bce b43b 9602 8dbd d4f3 f0bc 07ce 4c3e
00000110: 7ffd f63b 2fc6 75bd 37ec 44bd 5b1a eb3c
00000120: 6f67 773d 1997 9fbd dc5a 76bb a1ba 9e3d
00000130: 735c 223c e6b1 e7bd cc4c 843d 99fb d23c
00000140: 76f1 2c3d 2044 f43b 4ec9 1cbe 4ae4 9a3d
00000150: 4017 013c a4a4 a33d fdcc c63d 360e 9abd
00000160: 7c4b b93c 16dc 963d db2c af3d 05c5 02bd
00000170: 0a4f a53c c5da 5f3d 45f3 983d 6f18 2c3e
00000180: bdd0 613c 1214 173e 1482 66bd 333e b43c
00000190: 9825 a4bb 8555 673d 94c2 53be f34c d7bd
000001a0: 47e7 cdbd c4c2 babd cfbe 64bc 5b7c 47bd
000001b0: 2492 febc 13c3 10be 80dc acba 8c57 52be
000001c0: 6af6 61bd 186b d9bd 5541 783d 19f8 7b3b
000001d0: 8249 9abd a227 86bd 82a4 8bbd e1b5 debd
000001e0: e38d 80bd 8c65 cb3c 6590 da3d 991a d33d
000001f0: ee24 a73a 1aec f2bd e9b2 9aba dd94 f33c
00000200: 904c 4f3d d7f1 98bc 9ea7 393e 431c 9e3c
00000210: 48df 103c e5a5 6a3c 5a3e 9c3b 0c8d efbd
00000220: 24c9 123c 4f5e e93d 7c63 e83c dbc3 5a3e
00000230: 24c5 1a3e 25ab 6bbd ce35 b6bd 67f6 ee3a
00000240: 16ab 14bd d294 013d a354 3e3d 02e8 febd
00000250: 635c 233e 4838 a13d df4f 2bbd 3814 57be
00000260: 8483 3a3e 976d 2a3e d444 26be 9193 76bc
00000270: 3151 e13d 4a2c 4c3d 8aaf ddbd 8efc f8bb
00000280: eb24 463d 6002 8ebd 68c4 71bd 04b9 eebd
00000290: 4dfe 8fbe 11a5 a6bd 778b 25bc ba28 99be
000002a0: 035d 59be a2f1 3fbe ccbd 82be eaa6 af3d
000002b0: fb79 f3bd ed20 9e3d f3c8 163d 2317 1c3e
000002c0: 427d d8bc 3024 cd3d b581 3cbd 9ea2 2b3d
000002d0: 491f 3abd 2f77 fe3d 8f73 de3b c1a8 3a3d
000002e0: e9a7 c0bd dcb6 f93d b06b a2ba 74a3 f53d
000002f0: c617 02bd 292e 243c 9d8b d7bd 5894 2abd
00000300: aeb6 0bbe f4ef 9cbd 559a 8cbd c316 15be
00000310: 0dd5 12be f21c 35bd bd9e 4cbe 452c 6c3c
00000320: ea9c 023d f7da 31be a7d9 b1bd 1d6f 4bbd
00000330: 912a 18be bb19 17be 4f32 36be f563 33bd
00000340: adea 04bd 39f7 feba 57b8 8c3d 97f6 293d
00000350: 9847 72bb 73da 05be 178e 583d 2b1a b1bd
00000360: 3b52 14bd 89b5 873d 026f b4bd 001c a5bd
00000370: c9aa d43d 46ba 1dbe f556 97bd a7dd df3d
00000380: 9185 61bc 9bbd 08be d706 293d 955d 6abd
00000390: 8a59 52bd 2500 85bd df46 babd bc86 b13d
000003a0: a3e0 423c dcd9 033e d1bc 7ebe 1ed1 acbd
000003b0: 0428 463d 59b8 02bd 55f9 383d e393 2fbe
000003c0: 45fd 87be 6734 edbd 80c6 9dbd 1c12 d73d
000003d0: 512b c93d 1168 9c3d a25b 9a3b 2d46 6abc
000003e0: 8020 2bbe e464 543b 3357 50be 5468 e8bd
000003f0: eb32 55be c71c d9bd 80a9 34be 826e 963c

0.features.1.0.block.0.1.weight f4 [16]
0.66488326 0.6269822 0.6965248 0.62232196 0.65459144 0.33833915 0.8156384 0.5229532
0.55139357 0.53564894 0.6922561 0.585824 0.63983667 0.91534007 0.69710267 0.5378243
00000000: ca35 2a3f e881 203f 734f 323f 7e50 1f3f
00000010: 4e93 273f ca3a ad3e aecd 503f 43e0 053f
00000020: 2128 0d3f 4a20 093f b237 313f 90f8 153f
00000030: 56cc 233f ba53 6a3f 5275 323f daae 093f

0.features.1.0.block.0.1.bias f4 [16]
0.21095607 0.3971039 0.12423174 0.12332653 0.32590538 0.06711065 -0.12651785 0.11925246
0.03077606 0.31407115 0.07618257 0.15863387 -0.116678365 -0.068618245 0.36650437 -0.006172843
00000000: de04 583e 3451 cb3e 366d fe3d 9f92 fc3d
00000010: 12dd a63e 4f71 893d e58d 01be a23a f43d
00000020: 131e fc3c efcd a03e 9b05 9c3d eb70 223e
00000030: 11f5 eebd b987 8cbd 76a6 bb3e 8f45 cabb

0.features.1.0.block.0.1.running_mean f4 [16]
0.1673357 -0.7470138 0.27999088 -1.4359024 -0.7585948 -0.47837374 -0.38892686 -0.25211388
-0.9329214 0.0016827685 -0.4503177 1.261216 -0.75979835 -1.8674318 -0.4212939 -0.5782047
00000000: 0d5a 2b3e 4c3c 3fbf f75a 8f3e a6cb b7bf
00000010: 4533 42bf 67ed f4be 6c21 c7be 1215 81be
00000020: f0d3 6ebf 5790 dc3a 0b90 e6be 876f a13f
00000030: 2582 42bf 0108 efbf d6b3 d7be 3905 14bf

0.features.1.0.block.0.1.running_var f4 [16]
1.6087135 1.8938249 0.658316 1.6053559 2.5709934 0.29748398 1.4253324 1.3528528
1.2452879 1.1217915 2.9705653 1.6890085 0.42232528 0.6305287 0.4976224 0.6136965
00000000: 53ea cd3f db68 f23f 6687 283f 4d7c cd3f
00000010: 288b 2440 d24f 983e 4b71 b63f 482a ad3f
00000020: 9865 9f3f dd96 8f3f be1d 3e40 6e31 d83f
00000030: 053b d83e 546a 213f 5dc8 fe3e 371b 1d3f

0.features.2.0.block.0.0.weight f4 [64, 16, 3, 3]
0.029207695 0.03269306 0.015152096 0.04892281 -0.00949701 0.017888067 0.11557514 0.096146494
-0.0058407625 -0.038247876 -0.009423568 -0.05083758 -0.08048926 -0.0743565 0.0008395043 -0.03341725
0.107089564 -0.016543768 -0.0065937936 0.011211015 0.0073303115 -0.005315805 0.015119794 0.03169663
0.038933218 -0.012320482 0.07726217 0.025023192 0.037569173 0.018746287 -0.016878167 0.045411848
-0.0024664795 0.06914653 0.19633524 0.07443497 0.020502066 0.016942192 -0.008790599 -0.051360305
0.021078229 0.010205141 -0.0006920187 -0.071932696 -0.019363092 0.009901633 -0.010014769 -0.029171515
-0.008031253 0.041776665 0.031895567 0.028486868 -0.10088907 0.028793545 0.013381647 0.037693325
0.08168992 0.11706947 0.026043678 0.10618918 0.12408364 0.07831847 0.0074600917 -0.026264917
-0.03696058 -0.02123873 -0.089549586 -0.112285696 -0.08419593 -0.112764046 -0.20201308 -0.102496885
0.007825498 -0.039601482 -0.013676754 0.06131149 -0.04608023 -0.06218883 -0.044470135 -0.080031425
0.032548256 0.018894913 0.01479804 -0.0137220835 0.018746022 0.0097226165 -0.0054465365 0.0624907
-0.05498439 -0.037708364 0.1367069 0.06975625 0.11070568 -0.0079395855 -0.04420528 -0.068744026
-0.08300701 -0.046746615 0.02817882 -0.07636248 -0.028886031 0.10682122 -0.07137047 0.06880539
0.00886892 0.022235705 0.08314039 0.115984455 -0.03722745 -0.022114726 0.03716146 0.0669169
0.16231026 0.041147534 0.06441396 0.083269514 0.15263723 -0.00014847422 -0.010797503 -0.0772759
-0.017542975 -0.051685818 -0.007056848 -0.040786393 0.00297643 -0.04653933 0.0044859014 -0.023401454
0.028924126 0.039695367 0.15929294 0.052038506 0.06907063 0.07314402 0.035213042 0.013310964
0.066519946 0.04602599 0.009849981 0.049859133 -0.000508993 0.03791183 -0.005325367 0.0009565609
0.0051041003 0.09850827 0.10164681 0.050924826 0.037931606 0.10104008 0.0591996 0.098020524
0.09155281 -0.025070446 -0.073870264 -0.12275782 -0.03593456 0.076320544 0.029401883 -0.016308475
0.05215341 0.016680613 -0.12958838 0.06164272 -0.09196649 -0.034448802 0.060358185 -0.04728739
-0.015216882 -0.06063215 -0.07597231 -0.08635424 0.10037245 -0.0637906 -0.039459385 -0.07567302
0.0645335 -0.01197398 -0.061468642 0.11212347 -0.054411497 0.0025273575 -0.066325694 -0.027564596
-0.08543458 -0.023987314 0.038655035 -0.043777924 -0.019288516 0.03734713 0.015533425 -0.0598742
-0.05241343 -0.06116429 -0.060913287 0.022410216 -0.06731786 -0.11920834 0.030187357 -0.08517219
-0.069854505 -0.013334292 -0.060507424 -0.08936175 -0.04412402 -0.058106337 0.026587073 0.06365035
-0.117726386 0.068949565 0.012849312 -0.03824538 0.057214774 0.004227242 0.027335165 0.045135885
-0.035575744 0.0033557613 0.044389058 -0.03819841 0.1541329 0.036387466 -0.072039686 -0.016017087
-0.031819485 -0.0019775128 0.111109994 0.21192408 -0.054360267 -0.015834948 0.15148848 0.0119077545
0.11773844 -0.060823254 0.002122107 0.035456065 -0.05310359 -0.053470347 0.004759794 -0.012211744
0.021177256 0.032590177 0.028258992 -0.024938302 -0.047438998 -0.011354481 -0.0104421675 0.016488478
-0.07628475 0.039569516 -0.056881845 -0.030124908 0.009763497 0.04199863 -0.045194604 -0.007446236
00000000: fa44 ef3c 28e9 053d 7f40 783c 4963 483d
00000010: 5999 1bbc ff89 923c a9b2 ec3d 74e8 c43d
00000020: de63 bfbb cea9 1cbd 4f65 1abc 113b 50bd
00000030: 8ed7 a4bd 3848 98bd 2e12 5c3a 87e0 08bd
00000040: c651 db3d cc86 87bc c010 d8bb 68ae 373c
00000050: 1c33 f03b 3430 aebb 03b9 773c 53d4 013d
00000060: 7078 1f3d d9db 49bc a13b 9e3d 70fd cc3c
00000070: 22e2 193d d091 993c 1544 8abc c601 3a3d
00000080: a9a4 21bb b29c 8d3d 1b0c 493e 5d71 983d
00000090: f3f3 a73c 5aca 8a3c 7206 10bc 2f5f 52bd
000000a0: 40ac ac3c 7733 273c 9768 35ba 7351 93bd
000000b0: 599f 9ebc 753a 223c fc14 24bc 1af9 eebc
000000c0: 8495 03bc 021e 2b3d eda4 023d 4b5d e93c
000000d0: ee9e cebd 71e0 eb3c b23e 5b3c 5164 1a3d
000000e0: 0b4d a73d 1ec2 ef3d 8d59 d53c b679 d93d
000000f0: 901f fe3d 6f65 a03d c973 f43b 8629 d7bc
00000100: fa63 17bd d8fc adbc c665 b7bd 0bf6 e5bd
00000110: ea6e acbd d6f0 e6bd 84dc 4ebe e3e9 d1bd
00000120: 8436 003c 2a35 22bd 7714 60bc c221 7b3d
00000130: a0be 3cbd b7b9 7ebd 5126 36bd 84e7 a3bd
00000140: 5251 053d 81c9 9a3c 7a73 723c 97d2 60bc
00000150: 4291 993c 9c4b 1f3c dc78 b2bb 40f6 7f3d
00000160: 5037 61bd 1674 1abd e5fc 0b3e 5ddc 8e3d
00000170: a9b9 e23d 0915 02bc 9810 35bd abc9 8cbd
00000180: 94ff a9bd 6179 3fbd 45d7 e63c ef63 9cbd
00000190: 66a2 ecbc 15c5 da3d ae2a 92bd d7e9 8c3d
000001a0: f24e 113c a727 b63c 8245 aa3d 4289 ed3d
000001b0: d07b 18bd f129 b5bc 9d36 183d ba0b 893d
000001c0: a934 263e 518a 283d 77eb 833d 3589 aa3d
000001d0: ef4c 1c3e bfaf 1bb9 03e8 30bc d442 9ebd
000001e0: 49b6 8fbc 82b4 53bd 223d e7bb a20f 27bd
000001f0: 3610 433b 06a0 3ebd 78fe 923b 68b4 bfbc
00000200: 4af2 ec3c 9c97 223d b01d 233e 5426 553d
00000210: e774 8d3d 88cc 953d 8d3b 103d 3b16 5a3c
00000220: 9c3b 883d c085 3c3d d161 213c 1739 4c3d
00000230: f16d 05ba 6f49 1b3d 6b80 aebb b7c1 7a3a
00000240: 4c40 a73b b4be c93d 342c d03d 8d96 503d
00000250: 2c5e 1b3d 1aee ce3d 487b 723d fcbe c83d
00000260: 0a80 bb3d 8960 cdbc 4b49 97bd 7468 fbbd
00000270: 1e30 13bd f24d 9c3d 38dc f03c 5a99 85bc
00000280: d09e 553d c8a5 883c d1b2 04be 147d 7c3d
00000290: ed58 bcbd 301a 0dbd 253a 773d 6cb0 41bd
000002a0: 3b50 79bc 6b59 78bd 5f97 9bbd 7eda b0bd
000002b0: 1290 cd3d a5a4 82bd 2aa0 21bd 75fa 9abd
000002c0: 242a 843d 832e 44bc 8bc6 7bbd fda0 e53d
000002d0: 97de 5ebd 06a2 253b c4d5 87bd 26cf e1bc
000002e0: 53f8 aebd 0b81 c4bc be54 1e3d 7b50 33bd
000002f0: f302 9ebc 4ef9 183d e87f 7e3c a63e 75bd
00000300: 77af 56bd 6887 7abd 3680 79bd a195 b73c
00000310: f2dd 89bd 8123 f4bd 7a4b f73c c26e aebd
00000320: e10f 8fbd 1378 5abc a2d6 77bd 4b03 b7bd
00000330: 63bb 34bd e900 6ebd 22cd d93c 1d5b 823d
00000340: 881a f1bd 6e35 8d3d ec85 523c 30a7 1cbd
00000350: 0a5a 6a3d ad84 8a3b ffed df3c 68e0 383d
00000360: dfb7 11bd 55ec 5b3b 4dd1 353d f075 1cbd
00000370: 04d5 1d3e 060b 153d 8b89 93bd 4436 83bc
00000380: 2655 02bd 2999 01bb a38d e33d a002 593e
00000390: dfa8 5ebd 4bb8 81bc cc1f 1b3e be18 433c
000003a0: da20 f13d ce21 79bd 0c13 0b3b 613a 113d
000003b0: 2683 59bd b903 5bbd 0cf8 9b3b c413 48bc
000003c0: ed7b ad3c 477d 053d 677f e73c 694b ccbc
000003d0: 654f 42bd 2508 3abc a015 2bbc d812 873c
000003e0: 2e3b 9cbd a513 223d f0fc 68bd 83c8 f6bc
000003f0: 13f7 1f3c c106 2c3d fa1d 39bd 8eff f3bb

0.features.2.0.block.0.1.weight f4 [64]
0.5753104 0.81867814 0.6519367 0.80255085 0.7932908 0.7781257 0.69889367 0.58842224
0.44732767 0.7516003 0.6836483 0.8336124 0.55186594 0.6881613 0.74606705 0.7953407
0.4297595 0.77953273 0.67776275 0.8645124 0.75192624 0.867684 0.63460696 0.80204725
0.7683243 0.8217626 0.765755 0.5331306 0.6725352 0.773811 0.7589505 0.61545384
0.7126522 0.7644477 0.7494294 0.81892395 1.4941669 0.8066256 0.73398894 0.74953043
0.7811431 0.7364215 0.8471879 0.74139225 0.6756952 0.7934971 0.7478191 0.75680995
0.84945923 0.7757842 0.7300146 0.7948287 0.76278496 0.7412976 0.5984046 0.7559412
0.76654273 0.77236205 0.739806 0.8156891 0.66476274 0.71714044 0.8111228 0.8171622
00000000: 8b47 133f e494 513f 53e5 263f f973 4d3f
00000010: 1b15 4b3f 3f33 473f b2ea 323f d7a2 163f
00000020: 2208 e53e e168 403f 9303 2f3f 9f67 553f
00000030: 1647 0d3f 572b 303f 40fe 3e3f 739b 4b3f
00000040: 7009 dc3e 758f 473f dc81 2d3f af50 5d3f
00000050: 3d7e 403f 8a20 5e3f 9a75 223f f852 4d3f
00000060: e7b0 443f 095f 523f 8508 443f 3f7b 083f
00000070: 442b 2c3f 7a18 463f 944a 423f 628e 1d3f
00000080: 6070 363f d8b2 433f 9bda 3f3f 00a5 513f
00000090: dc40 bf3f 047f 4e3f b3e6 3b3f 3ae1 3f3f
000000a0: fff8 473f 1f86 3c3f 4ee1 583f e2cb 3d3f
000000b0: 5cfa 2c3f a022 4b3f 1371 3f3f 4cbe 413f
000000c0: 2976 593f cb99 463f 3de2 3a3f e579 4b3f
000000d0: e045 433f aec5 3d3f 0b31 193f 5d85 413f
000000e0: 253c 443f 85b9 453f ed63 3d3f 00d1 503f
000000f0: e42d 2a3f 8496 373f bea5 4f3f 8b31 513f

0.features.2.0.block.0.1.bias f4 [64]
0.08790159 0.200794 0.0658591 0.12595725 -0.21816555 0.683303 0.1504016 0.1910419
0.22699942 0.0063421624 0.097922534 0.1013901 -0.11788882 0.17321609 0.11982174 0.08915795
0.07640151 0.2718452 0.103528716 0.2452387 0.10709286 -0.101355195 0.08564513 0.18961379
0.64483243 0.21104594 0.14161119 0.16906479 0.031186664 0.31500593 0.116927296 -0.09498922
0.15112245 0.12594841 0.06330965 0.16233721 -1.4594923 0.09971965 0.1837133 -0.016476655
0.091332525 0.25571328 -0.060017493 0.120075546 0.09942129 0.07212555 0.20530014 0.016053772
0.31836075 0.08085905 0.18675232 0.44173574 0.21193303 0.18318717 0.34458935 0.025763042
0.19118433 0.17305245 0.06501012 0.016169786 0.22781467 0.6016802 0.22678725 0.27942806
00000000: c005 b43d f19c 4d3e 23e1 863d f0fa 003e
00000010: ca66 5fbe f2ec 2e3f e102 1a3e 7da0 433e
00000020: 8972 683e ead1 cf3b 9c8b c83d 9da5 cf3d
00000030: b26f f1bd 8f5f 313e 1a65 f53d 7198 b63d
00000040: 6578 9c3d 4b2f 8b3e dd06 d43d db1f 7b3e
00000050: 8053 db3d 5093 cfbd b766 af3d 1e2a 423e
00000060: bd13 253f 6d1c 583e 8602 113e 521f 2d3e
00000070: 2d7b ff3c 7548 a13e 9477 ef3d b589 c2bd
00000080: d8bf 1a3e 9ff8 003e 7da8 813d ba3b 263e
00000090: a5d0 babf d139 cc3d 571f 3c3e 0dfa 86bc
000000a0: 8c0c bb3d daec 823e e7d4 75bd 2bea f53d
000000b0: 649d cb3d 8fb6 933d 333a 523e 3383 833c
000000c0: 2e00 a33e 6e99 a53d 003c 3f3e 302b e23e
000000d0: f904 593e 6b95 3b3e 046e b03e 040d d33c
000000e0: d3c5 433e a934 313e 0724 853d 8076 843c
000000f0: 4048 693e b707 1a3f eb3a 683e 3211 8f3e

0.features.2.0.block.0.1.running_mean f4 [64]
0.04915588 -0.08337901 -0.25258347 1.2748055 -1.1332409 0.5399528 -0.23102777 -0.09345779
-0.39468494 -0.26484108 0.5249574 -0.9515504 -0.43905127 0.073546 -0.13079368 -0.11663146
0.10154364 0.7987557 -0.40630925 0.47006792 -0.34200445 -0.91936404 -0.35635597 -0.053174604
0.4327797 0.1861247 -0.21020459 -0.5974169 0.5425188 0.23943113 -0.06712973 -0.0408229
-0.21386883 -0.47794542 -0.104198664 0.5271912 0.61269546 0.55723065 -0.5120144 -0.38075683
0.4737869 -0.29797018 -0.75961477 -0.13789079 -0.06776814 -0.22246635 -0.07670264 -0.82746327
0.09317905 0.02945901 0.33478186 0.22546525 -0.2596307 -0.031881686 0.026723044 0.44159463
0.08941603 0.03600376 -0.49520114 -0.59578687 -0.6463701 0.8149301 0.24541198 0.8676982
00000000: ad57 493d 9dc2 aabd 9f52 81be d42c a33f
00000010: 0a0e 91bf 593a 0a3f 8b92 6cbe cc66 bfbd
00000020: 2514 cabe 4099 87be 9c63 063f cf98 73bf
00000030: 54cb e0be 499f 963d c7ee 05be 7adc eebd
00000040: 1df6 cf3d 417b 4c3f c407 d0be beac f03e
00000050: 351b afbe 715b 6bbf 4a74 b6be 9dcd 59bd
00000060: 4d95 dd3e 7997 3e3e df3f 57be 50f0 18bf
00000070: 83e2 0a3f 6f2d 753e 507b 89bd ea35 27bd
00000080: 6e00 5bbe 43b5 f4be 1c66 d5bd 01f6 063f
00000090: 9cd9 1c3f aba6 0e3f 6013 03bf 8ff2 c2be
000000a0: 3294 f23e 8c8f 98be 1d76 42bf 3e33 0dbe
000000b0: 06ca 8abd 38ce 63be 4616 9dbd a2d4 53bf
000000c0: a8d4 be3d 0654 f13c 8768 ab3e 5de0 663e
000000d0: 51ee 84be 5f96 02bd 49ea da3c b118 e23e
000000e0: c01f b73d ae78 133d 018b fdbe 7d85 18bf
000000f0: 8378 25bf 429f 503f 474d 7b3e 7821 5e3f

0.features.2.0.block.0.1.running_var f4 [64]
0.7648079 1.5379772 0.6907595 4.047013 1.6208041 1.3305109 1.198175 1.6344274
0.38470107 1.4882036 1.552441 1.769734 0.5859044 1.8640106 1.040421 1.3196589
0.25827476 1.4896839 1.0805227 1.6129612 1.5283444 2.8070588 1.0892473 1.1579391
1.1436037 1.2072574 2.2796748 0.54306847 1.2146258 1.0951805 1.8612816 1.7366793
2.1818476 1.1530197 1.436938 2.347247 0.065371424 1.8769704 1.0541409 0.8676458
1.533333 0.6563099 2.4069211 1.4142132 0.9862117 1.3118982 1.2195958 1.6045903
2.0594492 1.8899794 1.1970102 0.55810225 0.5952471 1.2392852 0.7054761 2.1555917
1.7257974 1.3552991 1.3851665 2.18423 1.2705866 1.0985819 2.7050366 1.9823396
00000000: 73ca 433f 70dc c43f 9dd5 303f 2181 8140
00000010: 8276 cf3f 2e4e aa3f cc5d 993f eb34 d13f
00000020: 8af7 c43e 757d be3f 63b6 c63f a586 e23f
00000030: d5fd 153f e697 ee3f 842c 853f 95ea a83f
00000040: 973c 843e f6ad be3f 914e 8a3f 8375 ce3f
00000050: caa0 c33f daa6 3340 756c 8b3f 5937 943f
00000060: 9b61 923f 6987 9a3f 31e6 1140 8906 0b3f
00000070: dc78 9b3f e02e 8c3f 7a3e ee3f 824b de3f
00000080: 64a3 0b40 2696 933f 96ed b73f 4b39 1640
00000090: 74e1 853d 9140 f03f 17ee 863f 091e 5e3f
000000a0: 4144 c43f ed03 283f ff0a 1a40 f004 b53f
000000b0: 5f78 7c3f 48ec a73f b71b 9c3f 3763 cd3f
000000c0: 04ce 0340 d8ea f13f a137 993f cadf 0e3f
000000d0: 1d62 183f e6a0 9e3f 159a 343f 37f5 0940
000000e0: eee6 dc3f 717a ad3f 234d b13f 6dca 0b40
000000f0: 95a2 a23f 559e 8c3f 521f 2d40 4ebd fd3f

0.features.2.0.block.1.0.weight f4 [32, 64, 1, 1]
0.003855832 0.1800734 0.2545047 -0.13711092 0.07273512 0.2182681 -0.22466142 0.15862983
-0.2526669 0.17357555 -0.2179724 0.18636934 -0.051025666 0.15120247 0.10336755 -0.33080146
0.18360333 -0.14928795 -0.23452407 0.34573317 -0.09442171 -0.22257486 0.10177939 0.073774904
0.07724603 -0.36101785 -0.041428506 0.1964815 -0.25500354 -0.06250626 -0.052368645 -0.089726835
0.08694784 0.15026574 -0.13127938 -0.18543206 0.27423307 0.26918942 -0.114862256 -0.07824095
0.06677245 -0.17175183 0.1945135 -0.09780685 0.05458365 0.0006832278 -0.1114413 -0.08534723
0.22216646 -0.043689393 0.29122922 0.47625798 0.09847043 0.020965794 -0.015288737 -0.6196527
-0.03314976 -0.15557761 0.16044949 0.2697557 0.04575839 0.29974496 0.5351901 -0.4401141
0.111974105 0.15628916 0.056997005 -0.22383343 0.11882318 -0.008769406 0.19065069 -0.08669166
0.12913357 0.04543554 -0.15046482 0.22351778 0.12565166 0.111907706 0.11552043 0.1965013
0.35627306 -0.23657592 -0.122261174 0.14381333 0.13249099 -0.04929518 -0.36000317 0.06737352
0.16973963 0.031289726 0.12413004 0.015274746 -0.116609894 0.28100365 0.048423853 -0.14789265
0.26669165 -0.09136567 -0.06230947 0.28118554 0.53874516 0.073767364 0.33343068 0.009051585
-0.22965857 -0.15460637 -0.02241668 0.067085005 0.0873505 0.019320838 0.038945764 0.261558
-0.038938157 -0.048767306 0.17603354 0.1087497 -0.16913769 -0.18806557 0.26831838 -0.17028807
-0.119754255 -0.22851036 0.09326326 -0.028878842 -0.0993895 -0.44176963 -0.39417604 0.01136164
0.34176448 0.09325963 -0.0100406315 -0.027780572 0.15423755 0.49964595 -0.034760017 0.047263082
0.1865831 0.3624186 -0.21577756 0.14603443 0.17399421 -0.015880534 -0.50062716 0.24739425
0.099562384 -0.3931129 -0.21321394 -0.16693355 -0.06913833 0.067473695 0.030358715 -0.14223044
-0.17930228 -0.16306058 -0.27998427 0.29633576 0.05944599 -0.068656415 0.26803988 -0.13517258
-0.25965416 -0.08215872 -0.04713735 -0.047615908 0.19309077 -0.06258412 -0.1506834 -0.03341848
0.0073229875 -0.2170867 0.11845488 0.48547345 -0.24627425 0.07033287 0.14476079 0.40054122
-0.17047176 0.294209 0.08163852 -0.11663563 -0.25212872 0.19478376 0.10745487 -0.08224465
0.12884729 0.21332265 -0.17087907 -0.051212225 0.035198115 -0.209991 0.03322727 0.07158932
0.1856479 0.2322185 0.07377285 -0.34807876 0.06302682 0.46432668 -0.09900615 0.1566613
0.08144287 0.027528157 0.1402225 0.4383739 -0.013231618 -0.018306658 0.11665666 0.3935904
0.036781996 -0.24705191 -0.35642746 -0.23379447 -0.16546836 0.048633926 -0.17417367 0.2854744
-0.17551702 -0.14713828 0.24585442 0.10771212 0.058332827 0.14575852 -0.39908147 0.16772169
-0.32012242 -0.12813713 -0.28976297 0.3237389 -0.06904346 -0.14566578 -0.54985595 0.29230633
0.38447735 -0.07674114 -0.1579949 0.50023484 0.2652086 0.02430219 -0.19644812 0.1756433
0.018161673 -0.5451316 0.035850704 0.035592742 -0.2436916 0.3096544 0.014587163 -0.13013792
0.04768708 0.30514923 -0.36743045 -0.14605002 -0.11654391 0.04919433 -0.11987894 0.19986162
00000000: 20b2 7c3b 2965 383e 714e 823e ce66 0cbe
00000010: 27f6 943d ac81 5f3e a50d 66be dc6f 223e
00000020: 8e5d 81be cabd 313e 2834 5fbe 9bd7 3e3e
00000030: 4a00 51bd d2d4 1a3e 5eb2 d33d cf5e a9be
00000040: 8302 3c3e f1de 18be 1427 70be f003 b13e
00000050: 2b60 c1bd aaea 63be b671 d03d 4c17 973d
00000060: 2b33 9e3d 55d7 b8be f0b0 29bd 7232 493e
00000070: d38f 82be 4803 80bd 8180 56bd b4c2 b7bd
00000080: b611 b23d 43df 193e 1a6e 06be e7e1 3dbe
00000090: 4768 8c3e 32d3 893e e73c ebbd cb3c a0bd
000000a0: ffbf 883d b6df 2fbe 8c2e 473e f54e c8bd
000000b0: 1b93 5f3d a41a 333a 563b e4bd 87ca aebd
000000c0: 9b7f 633e a6f3 32bd ff1b 953e 16d8 f33e
000000d0: ddaa c93d 75c0 ab3c 9c7d 7abc 8fa1 1ebf
000000e0: 0bc8 07bd bd4f 1fbe df4c 243e 6b1d 8a3e
000000f0: 266d 3b3d 2c78 993e 3802 093f a356 e1be
00000100: ae52 e53d 440a 203e b175 693d 9734 65be
00000110: 9159 f33d 8ead 0fbc ef39 433e 668b b1bd
00000120: 973b 043e 9e1a 3a3d 7313 1abe d8e1 643e
00000130: d4aa 003e de2f e53d fa95 ec3d a337 493e
00000140: 6c69 b63e f540 72be 1164 fabd cd43 133e
00000150: b8ab 073e bee9 49bd 5652 b8be 21fb 893d
00000160: 3ad0 2d3e a829 003d e437 fe3d ee42 7a3c
00000170: 2bd1 eebd b6df 8f3e 1758 463d 2c71 17be
00000180: cf8b 883e ed1d bbbd 3738 7fbd 8df7 8f3e
00000190: 34eb 093f 5813 973d 6db7 aa3e 194d 143c
000001a0: 9e2b 6bbe 2251 1ebe 2fa3 b7bc dd63 893d
000001b0: d2e4 b23d bc46 9e3c 9885 1f3d eeea 853e
000001c0: 9e7d 1fbd 3ac0 47bd 2342 343e 2ab8 de3d
000001d0: 6e32 2dbe 4394 40be 0761 893e ff5f 2ebe
000001e0: b841 f5bd 9ffe 69be cf00 bf3d 5293 ecbc
000001f0: b98c cbbd a12f e2be 71d1 c9be 2c26 3a3c
00000200: c1fb ae3e e8fe be3d 7681 24bc 1594 e3bc
00000210: 73f0 1d3e 98d1 ff3e 8560 0ebd ef96 413d
00000220: a40f 3f3e ee8e b93e cbf4 5cbe 0d8a 153e
00000230: 8a2b 323e e517 82bc 1a29 00bf eb54 7d3e
00000240: 5de7 cb3d 1846 c9be c154 5abe a1f0 2abe
00000250: 6698 8dbd a62f 8a3d d7b2 f83c dba4 11be
00000260: 049b 37be 5af9 26be 195a 8fbe 52b9 973e
00000270: a37d 733d bc9b 8cbd 863c 893e ae6a 0abe
00000280: 64f1 84be d542 a8bd 1813 41bd e608 43bd
00000290: 96b9 453e 1a2c 80bd c04c 1abe d1e1 08bd
000002a0: acf5 ef3b fa4b 5ebe 7998 f23d fa8f f83e
000002b0: 512f 7cbe ae0a 903d 2c3c 143e bd13 cd3e
000002c0: 2690 2ebe 90a2 963e 1932 a73d a9de eebd
000002d0: 0417 81be 6575 473e 4d11 dc3d e26f a8bd
000002e0: 8bf0 033e 4171 5a3e ecfa 2ebe e9c3 51bd
000002f0: e62b 103d e107 57be 5119 083d 6c9d 923d
00000300: 7c1a 3e3e b0ca 6d3e 3816 973d 6137 b2be
00000310: 3514 813d 3abc ed3e bdc3 cabd d26b 203e
00000320: 85cb a63d bb82 e13c 7d96 0f3e 8b72 e03e
00000330: 6ec9 58bc d8f7 95bc b0e9 ee3d ae84 c93e
00000340: b8a8 163d 2dfb 7cbe a97d b6be d167 6fbe
00000350: 8a70 29be 5e34 473d 955a 32be b329 923e
00000360: bcba 33be 6bab 16be 43c1 7b3e 2c98 dc3d
00000370: 67ee 6e3d b941 153e 6854 ccbe 3cbf 2b3e
00000380: 16e7 a3be 6136 03be d05b 94be 1bc1 a53e
00000390: a866 8dbd 6929 15be 5cc3 0cbf 2da9 953e
000003a0: 37da c43e 752a 9dbd 6ac9 21be 640f 003f
000003b0: 6cc9 873e 6315 c73c b229 49be d6db 333e
000003c0: cac7 943c bf8d 0bbf 30d8 123d b2c9 113d
000003d0: 4a8a 79be 068b 9e3e fffe 6e3c e042 05be
000003e0: 8753 433d 853c 9c3e d81f bcbe 238e 15be
000003f0: 93ae eebd fe7f 493d 1783 f5bd 86a8 4c3e

0.features.2.0.block.1.1.weight f4 [32]
0.79230225 0.7197528 0.7944941 0.82892656 0.760716 0.7674654 0.73140043 0.7161229
0.824464 0.7951706 0.757997 0.8379486 0.8335937 0.7766281 0.7863453 0.7113924
0.7990116 0.7407456 0.75292593 0.78427786 0.77120847 0.7997074 0.77354866 0.8287042
0.78425294 0.79507613 0.83279544 0.8201232 0.79768175 0.84653914 0.76036155 0.85950655
00000000: 52d4 4a3f b841 383f f763 4b3f 8834 543f
00000010: 49be 423f 9d78 443f 0f3d 3b3f d553 373f
00000020: 1310 533f 4d90 4b3f 170c 423f cd83 563f
00000030: 6666 553f 19d1 463f ed4d 493f d01d 363f
00000040: 068c 4c3f 81a1 3d3f c1bf 403f 6fc6 483f
00000050: eb6d 453f a0b9 4c3f 4907 463f f525 543f
00000060: cdc4 483f 1c8a 4b3f 1532 553f 98f3 513f
00000070: df34 4c3f cab6 583f 0ea7 423f 9f08 5c3f

0.features.2.0.block.1.1.bias f4 [32]
0.6443859 -0.8083177 0.96197057 -1.0752336 -2.359107 -0.24789104 -1.2582155 -0.5520478
1.7581223 -0.049083564 -1.0544645 -0.30522984 -0.3749675 -0.027939577 -0.8353821 -1.2333095
-1.7162308 -0.81252956 -0.44273397 0.39661038 -0.75616896 -0.4352688 -0.6240535 0.1228334
-0.38318524 0.18895687 -1.1029285 0.18955812 0.09743163 -1.0994983 -0.23177968 1.0857264
00000000: 79f6 243f e9ed 4ebf b443 763f 41a1 89bf
00000010: 9cfb 16c0 26d7 7dbe 350d a1bf 0153 0dbf
00000020: 270a e13f d90b 49bd b1f8 86bf 1647 9cbe
00000030: bdfb bfbe 8ae1 e4bc 9adb 55bf 16dd 9dbf
00000040: 73ad dbbf f001 50bf 07ae e2be 8410 cb3e
00000050: 4a94 41bf 8ddb debe f8c1 1fbf 1490 fb3d
00000060: db30 c4be e97d 413e c32c 8dbf 861b 423e
00000070: 3c8a c73d 5cbc 8cbf a757 6dbe 15f9 8a3f

0.features.2.0.block.1.1.running_mean f4 [32]
0.4440919 0.12762289 -0.04403607 0.17847086 0.011127255 0.051359996 0.29019657 -0.0071216566
-0.1662783 0.3618446 -0.09710145 -0.10595389 -0.19719839 0.105027266 -0.17012306 0.25696406
0.13271108 0.008719014 0.22490697 0.08346716 0.1878923 -0.056293957 -0.17109223 -0.084888086
0.027085615 0.07141308 0.4659733 -0.031384684 -0.13418874 -0.3255092 -0.05938284 0.08755638
00000000: 0360 e33e 93af 023e 2b5f 34bd 11c1 363e
00000010: 174f 363c dc5e 523d a594 943e c95c e9bb
00000020: dc44 2abe b243 b93e 20dd c6bd 5afe d8bd
00000030: 60ee 49be 8918 d73d bd34 2ebe cb90 833e
00000040: 6ae5 073e 32da 0e3c 034e 663e d5f0 aa3d
00000050: d766 403e 7e94 66bd cd32 2fbe ced9 adbd
00000060: a7e2 dd3c 0541 923d 0d94 ee3e 3a8d 00bd
00000070: c668 09be 24a9 a6be 6c3b 73bd c250 b33d

0.features.2.0.block.1.1.running_var f4 [32]
0.668351 0.44251484 0.3631366 0.62903684 2.0575142 0.14067799 2.2940097 0.3587657
1.1055171 0.20447472 0.24876909 0.27242154 0.15765709 0.6675754 0.13972364 0.1960462
2.7721672 0.27385062 1.0225391 0.52689797 0.116577335 0.78027564 0.08982416 0.39905432
0.12379897 0.12011061 0.7163877 0.7473359 0.16360734 0.7307983 0.15548874 1.5372863
00000000: 0d19 2b3f 4e91 e23e 0aed b93e 8f08 213f
00000010: 50ae 0340 e40d 103e 0ed1 1240 23b0 b73e
00000020: 9681 8d3f d261 513e 53bd 7e3e d67a 8b3e
00000030: dc70 213e 39e6 2a3f b713 0f3e 56c0 483e
00000040: 306b 3140 2636 8c3e 90e2 823f c9e2 063f
00000050: 19c0 ee3d 25c0 473f bbf5 b73d d950 cc3e
00000060: 508a fd3d 8dfc f53d 2f65 373f 6851 3f3f
00000070: af88 273e 9915 3b3f 7138 1f3e ccc5 c43f

0.features.2.1.block.0.0.weight f4 [128, 32, 3, 3]
0.03227702 0.090371065 0.022711912 0.05894804 0.0029446683 0.058304995 -0.011144407 -0.0054394836
-0.050550003 -0.024035258 0.10805602 0.10150117 -0.020834953 0.065877184 0.036530066 0.057033073
-0.042292263 0.05351305 0.073737286 0.014936262 -0.032135427 0.060729276 -0.030880919 -0.043263745
-0.016452204 0.061377436 0.014535443 -0.05265615 -0.032534495 0.020946365 -0.042433955 -0.079771355
-0.07783613 -0.04636171 0.07947194 0.010334733 -0.11333968 -0.12230613 -0.026861168 -0.02357131
-0.021139063 -0.050502036 -0.04422233 -0.035748802 0.0046924227 -0.028960126 -0.010213729 0.0007764973
0.081499085 0.056453563 -0.013871727 0.02022515 0.06006115 0.053461913 0.0062827524 -0.02357378
0.046311963 -0.040261474 -0.09531323 -0.0026974874 -0.097705245 -0.042390168 -0.029346336 0.010889162
-0.07575296 -0.03269555 -0.015134405 -0.06747535 -0.0011229983 0.0436126 0.035479847 -0.005871923
0.008183856 0.07338874 0.030497443 -0.001969029 -0.039968908 -0.02024874 -0.04202877 -0.0846268
0.042956162 -0.062021773 -0.07073693 -0.005555953 -0.03999519 -0.097593896 0.010663406 -0.027398333
-0.08001328 -0.055779718 -0.029280126 -0.018954273 0.0004787221 -0.04131545 -0.08248464 -0.05218853
-0.075055666 -0.029962081 -0.006193735 0.05830962 -0.003616504 0.04711472 -0.033536494 0.059062347
0.0074654617 0.024761658 0.109787695 0.025643328 -0.058953878 0.07292093 0.008134824 -0.021044483
-0.049384385 0.008653977 0.020080395 -0.022176113 -0.05294103 0.10903318 0.039867684 0.03582957
-0.011566043 0.08133424 0.045013167 0.030551272 0.011929344 0.02285935 0.038009007 -0.021090198
0.013087284 -0.041076597 -0.026624793 0.05766264 -0.019761778 -0.023115544 -0.026597794 -0.033400364
0.036133893 0.006565411 -0.038873434 0.0029420792 -0.06397338 -5.327235e-05 -0.08566486 -0.016694633
0.029522594 0.013100117 -0.009976987 0.020490052 -0.035174526 -0.064341135 0.012799382 -0.03565344
-0.03379215 -0.033103593 0.0027887796 -0.01317816 -0.11295751 -0.10448139 -0.02495501 -0.020482156
-0.010377566 0.03419405 -0.0848911 -0.006617908 0.016676117 -0.081879675 -0.03621137 -0.05794153
-0.06662148 -0.029275276 -0.055386174 0.012062945 0.041811667 -0.066856325 -0.040220518 -0.029630499
-0.0061577675 -0.013425178 0.062634036 -0.02090415 0.022905422 0.038001787 0.02445996 0.04595174
0.09062119 0.11690063 0.026333828 0.1289649 -0.015264128 0.014424671 0.0013844997 0.016674297
0.08218585 0.00084721536 -0.010121689 0.01783175 0.042612486 0.023813121 -0.03552819 0.0338443
-0.048088536 0.034369476 -0.028581975 0.0034970648 0.0032083474 0.01893122 0.012948925 0.06614619
-0.0016379544 0.06900105 0.013110225 -0.03871951 0.059291817 0.012368445 0.06908091 0.06960374
0.00854894 -0.033334054 -0.07545373 -0.040825665 -0.09480401 -0.09683544 0.027263844 -0.042496428
-0.0135543905 -0.08487993 -0.030252224 -0.020068573 0.07202786 0.025956826 -0.045360513 -0.012215776
-0.06285183 -0.03776951 -0.015783679 0.047924515 0.05648604 0.036946505 0.04250214 -0.037546918
0.015999014 -0.02072693 -0.00019925741 0.07298491 -0.04523432 -0.0049729133 -0.041520037 0.020641344
0.07224626 0.017222716 -0.009805859 -0.015838217 0.07383995 -0.030576421 0.0015131816 -0.013591955
00000000: e934 043d 7714 b93d 550e ba3c 8073 713d
00000010: 56fb 403b 38d1 6e3d 0897 36bc b23d b2bb
00000020: 850d 4fbd 97e5 c4bc 7a4c dd3d d8df cf3d
00000030: 10ae aabc 9eea 863d 8da0 153d 839b 693d
00000040: a73a 2dbd 8030 5b3d 9303 973d 39b7 743c
00000050: 70a0 03bd 43bf 783d fbf9 fcbc 5335 31bd
00000060: c6c6 86bc e866 7b3d 1126 6e3c faad 57bd
00000070: e442 05bd b697 ab3c 3acf 2dbd 2a5f a3bd
00000080: 8d68 9fbd c7e5 3dbd 2fc2 a23d 0353 293c
00000090: a21e e8bd a37b fabd f40b dcbc 9f18 c1bc
000000a0: d42b adbc 39db 4ebd 7922 35bd 566d 12bd
000000b0: e5c2 993b c93d edbc 7c57 27bc da8d 4b3a
000000c0: fee8 a63d da3b 673d 3d46 63bc 37af a53c
000000d0: ae02 763d e1fa 5a3d 8cdf cd3b cd1d c1bc
000000e0: 9db1 3d3d 37e9 24bd 9533 c3bd 54c8 30bb
000000f0: b019 c8bd 50a1 2dbd ba67 f0bc 7568 323c
00000100: 5e24 9bbd c5eb 05bd 4cf6 77bc 8430 8abd
00000110: 9231 93ba 20a3 323d 5153 113d 4369 c0bb
00000120: 9415 063c d64c 963d c6d5 f93c d30a 01bb
00000130: 70b6 23bd b0e0 a5bc 5c26 2cbd d150 adbd
00000140: cdf2 2f3d 8b0a 7ebd 86de 90bd b60e b6bb
00000150: ffd1 23bd 4fdf c7bd 91b5 2e3c 7872 e0bc
00000160: 01de a3bd 4679 64bd e0dc efbc fe45 9bbc
00000170: fefc fa39 643a 29bd b5ed a8bd a4c3 55bd
00000180: c9b6 99bd 0a73 f5bc d1f4 cabb 11d6 6e3d
00000190: de02 6dbb 5dfb 403d 905d 09bd 5ceb 713d
000001a0: d5a0 f43b f6d8 ca3c 5fd8 e03d f511 d23c
000001b0: 9f79 71bd 9257 953d ed47 053c 7b65 acbc
000001c0: 4847 4abd 69c9 0d3c a47f a43c aeaa b5bc
000001d0: b2d8 58bd ca4c df3d 4c4c 233d 07c2 123d
000001e0: 807f 3dbc 9192 a63d ba5f 383d a946 fa3c
000001f0: 4c73 433c 8843 bb3c 55af 1b3d 5ac5 acbc
00000200: 0c6c 563c ef3f 28bd 3d1c dabc a92f 6c3d
00000210: 74e3 a1bc cf5c bdbc 9ee3 d9bc d2ce 08bd
00000220: 2201 143d a922 d73b c039 1fbd e6cf 403b
00000230: 7a04 83bd c070 5fb8 0f71 afbd 2fc3 88bc
00000240: 5ed9 f13c e0a1 563c 8476 23bc c1da a73c
00000250: 2a13 10bd 49c5 83bd 80b4 513c 5709 12bd
00000260: a369 0abd a297 07bd f5c3 363b 36e9 57bc
00000270: 4456 e7bd 57fa d5bd 736e ccbc 32ca a7bc
00000280: ab06 2abc 0f0f 0c3d 63db adbd 09db d8bb
00000290: 5a9c 883c 88b0 a7bd 6052 14bd 1954 6dbd
000002a0: d870 88bd b4d2 efbc 9ddc 62bd a9a3 453c
000002b0: b642 2b3d f8eb 88bd 45be 24bd a9bb f2bc
000002c0: 19c7 c9bb 47f5 5bbc 4646 803d 2e3f abbc
000002d0: 27a4 bb3c c3a7 1b3d 4160 c83c e437 3c3d
000002e0: 9a97 b93d 9969 ef3d 0aba d73c 600f 043e
000002f0: 6516 7abc 7555 6c3c 1a78 b53a 8998 883c
00000300: 0e51 a83d a917 5e3a 71d5 25bc e413 923c
00000310: 6e8a 2e3d bc13 c33c 0286 11bd 52a0 0a3d
00000320: 7cf8 44bd 02c7 0c3d bf24 eabc 032f 653b
00000330: 2343 523b a515 9b3c ba27 543c a777 873d
00000340: a1b0 d6ba 6c50 8d3d 45cc 563c 5998 1ebd
00000350: fadb 723d 05a5 4a3c 4b7a 8d3d 688c 8e3d
00000360: da10 0c3c 4a89 08bd 7c87 9abd d038 27bd
00000370: 9b28 c2bd a951 c6bd 6d58 df3c bc10 2ebd
00000380: 3c13 5ebc 87d5 adbd 83d3 f7bc d966 a4bc
00000390: 5883 933d 69a3 d43c f2cb 39bd ae24 48bc
000003a0: 76b8 80bd 34b4 1abd c64c 81bc 7f4c 443d
000003b0: e85d 673d 3855 173d b916 2e3d ccca 19bd
000003c0: 5d10 833c 86cb a9bc c1ef 50b9 1d79 953d
000003d0: 9f47 39bd d2f3 a2bb ea10 2abd 0918 a93c
000003e0: d9f5 933d a716 8d3c c1a8 20bc 26bf 81bc
000003f0: 6639 973d 677b fabc f355 c63a cbb0 5ebc

0.features.2.1.block.0.1.weight f4 [128]
0.709517 0.81946427 0.7488319 0.7703337 0.8330192 0.8178812 0.823785 0.6670196
0.719432 0.8416683 0.77672184 1.0094099 1.0343187 0.7480813 0.8611225 0.64231604
1.0530473 0.8645132 0.84873426 0.8047574 0.8157769 0.8468373 0.73963445 1.2340883
0.84962016 0.7010143 1.0908408 0.99678355 0.99612474 0.79280096 1.1800691 0.48723513
0.7011603 0.5854311 0.7885562 0.67209977 0.73417175 0.70886195 0.81880075 0.78187275
0.7213149 0.5571058 0.7902973 1.1551285 0.77253467 0.74897236 0.7998394 0.8308895
0.8045947 0.913757 1.162396 0.83176965 0.83652014 0.75010175 1.726068 0.8275977
0.72990996 0.7740872 0.7587579 0.8296479 1.2633669 0.82990336 0.76422465 0.80432457
0.7512573 0.6925805 0.94636416 0.7503807 0.8438479 0.9848322 0.825527 0.7378995
0.8557759 0.8282251 0.7354073 0.8638766 0.7855681 0.7954365 0.9815896 0.7771218
0.65989995 0.78297305 0.73126215 0.6638204 0.8924345 0.8117983 0.80181795 0.7622209
0.72848606 0.7675227 0.5330452 0.7737498 0.79322594 0.76574403 0.8267005 0.75181615
0.71630055 0.6827699 0.9014977 0.81499296 0.7238721 0.8331606 0.8100267 0.80221885
0.71328104 0.77738875 0.75353855 0.7750854 1.3480759 0.90973324 0.79588443 0.69972247
0.79795957 0.76167965 0.9690767 0.77542293 0.6962949 0.7996048 0.78893566 0.78107536
0.76699775 0.8115257 0.9875676 0.7897664 0.8484274 0.81991696 0.82080936 0.8032222
00000000: e8a2 353f 69c8 513f 73b3 3f3f 9734 453f
00000010: bf40 553f aa60 513f 93e3 523f ccc1 2a3f
00000020: b22c 383f 9377 573f 3ed7 463f 5834 813f
00000030: 8e64 843f 4282 3f3f 8672 5c3f d36e 243f
00000040: 41ca 863f bd50 5d3f a646 593f 9504 4e3f
00000050: c1d6 503f 54ca 583f af58 3d3f 9bf6 9d3f
00000060: b580 593f ac75 333f aca0 8b3f 352d 7f3f
00000070: 0802 7f3f 01f5 4a3f 810c 973f e276 f93e
00000080: 3e7f 333f d0de 153f d2de 493f bb0e 2c3f
00000090: aef2 3b3f fa77 353f ed9c 513f d028 483f
000000a0: 18a8 383f 7c9e 0e3f ed50 4a3f 40db 933f
000000b0: d5c4 453f a7bc 3f3f 46c2 4c3f 2db5 543f
000000c0: ebf9 4d3f fbeb 693f 64c9 943f dbee 543f
000000d0: 2f26 563f ab06 403f ccef dc3f 71dd 533f
000000e0: 61db 3a3f 942a 463f f53d 423f ce63 543f
000000f0: 02b6 a13f 8c74 543f 3aa4 433f 37e8 4d3f
00000100: 6652 403f f54c 313f ec44 723f f318 403f
00000110: 6a06 583f f71d 7c3f bd55 533f fbe6 3c3f
00000120: 2114 5b3f 8f06 543f a743 3c3f 0427 5d3f
00000130: fe1a 493f baa1 4b3f 7549 7b3f 74f1 463f
00000140: 34ef 283f ec70 483f ff33 3b3f 22f0 293f
00000150: 9676 643f 03d2 4f3f f143 4d3f e920 433f
00000160: 107e 3a3f 5e7c 443f a675 083f 7814 463f
00000170: db10 4b3f cd07 443f a5a2 533f 0677 403f
00000180: 795f 373f 02ca 2e3f 8ec8 663f 61a3 503f
00000190: af4f 393f 034a 553f e95d 4f3f 375e 4d3f
000001a0: 9699 363f f302 473f e7e7 403f ff6b 463f
000001b0: c08d ac3f 47e4 683f 15bf 4b3f 0321 333f
000001c0: 1447 4c3f 70fd 423f 6915 783f 1e82 463f
000001d0: 6240 323f e6b2 4c3f b0f7 493f 8ef4 473f
000001e0: f759 443f 26c0 4f3f 3bd1 7c3f 212e 4a3f
000001f0: 8a32 593f 14e6 513f 9020 523f f89f 4d3f

0.features.2.1.block.0.1.bias f4 [128]
-0.092657946 0.043070894 -0.04180321 0.06560398 -0.021274786 0.022345852 0.019946327 0.10800913
-0.0059293266 0.114096135 0.025140481 -0.42763105 -0.36200035 -0.13912436 0.02090024 -0.03858375
-0.55289644 0.032680593 -0.14754964 -0.016256997 0.13860016 0.5070872 0.0449724 -0.66691434
0.0051191114 0.043869473 -0.41540137 -0.23166813 0.16512464 0.13375686 -0.5772281 0.08573895
0.045314476 -0.074044 0.056071877 0.053114083 0.05788607 -0.07991437 0.010516267 0.031409845
0.026505772 0.05132151 -0.096970655 -0.52421355 0.025515081 0.1172697 0.024881715 0.016713414
-0.020521255 -0.10466006 -0.6061536 -0.007231608 0.0046580415 -0.0403422 -0.98740155 0.037447453
0.040485978 0.051229548 0.11114522 0.02983489 -0.41364905 0.022918556 -0.047199152 -0.19355434
-0.06069769 0.04544587 -0.035351068 -0.27326247 -0.13302943 -0.18512 0.013234869 0.15137023
-0.4732905 0.119655944 -0.09684101 -0.0047311457 -0.061772864 0.07206288 -0.49145445 -0.0151540665
-0.028384041 0.054605342 -0.055425424 -0.12816137 0.24411932 0.046840217 -0.026105788 -0.025800088
0.022855826 0.021107951 0.046573274 0.08822633 0.060552943 -0.004115948 0.030461518 -0.068038404
0.14330998 0.0192383 0.09082173 0.046894666 -0.010938232 0.04802543 -0.04421435 0.027974838
0.06032841 0.14838806 0.13257654 -0.026393378 -0.64199334 0.012118501 -0.095493115 0.049107343
0.078584716 0.03136067 -0.07475474 -0.008850592 0.065701835 0.06651921 -0.04470416 -0.07064392
0.0781718 0.13600078 0.3761042 0.064592265 -0.029346615 -0.01698217 0.014961354 -0.030368766
00000000: 73c3 bdbd 1b6b 303d d839 2bbd 615b 863d
00000010: 7648 aebc a60e b73c 7b66 a33c e433 dd3d
00000020: cc4a c2bb 3cab e93d 69f3 cd3c 75f2 dabe
00000030: 1c58 b9be 9e76 0ebe fb36 ab3c ff09 1ebd
00000040: 9f8a 0dbf 16dc 053d 4117 17be 652d 85bc
00000050: 33ed 0d3e 77d0 013f fb34 383d e6ba 2abf
00000060: 38be a73b 7ab0 333d 7daf d4be 693a 6dbe
00000070: 6f16 293e 8ff7 083e 39c5 13bf e797 af3d
00000080: ac9b 393d 61a4 97bd a0ab 653d 278e 593d
00000090: f219 6d3d 25aa a3bd 6c4c 2c3c 9ca7 003d
000000a0: a222 d93c 8136 523d 8d98 c6bd dc32 06bf
000000b0: 0105 d13c 192b f03d bdd4 cb3c 92ea 883c
000000c0: 311c a8bc 0358 d6bd e22c 1bbf 20f7 ecbb
000000d0: 7ca2 983b dd3d 25bd 59c6 7cbf 8062 193d
000000e0: a0d4 253d 13d6 513d 1ba0 e33d 4d68 f43c
000000f0: cfc9 d3be b2bf bb3c e653 41bd 1c33 46be
00000100: 249e 78bd 7325 3a3d 48cc 10bd 0fe9 8bbe
00000110: de38 08be 1990 3dbe 10d7 583c cc00 1b3e
00000120: 2253 f2be 2d0e f53d 9454 c6bd ba07 9bbb
00000130: 8b05 7dbd b495 933d eb9f fbbe c348 78bc
00000140: a685 e8bc daa9 5f3d c505 63bd bc3c 03be
00000150: 6afa 793e 87db 3f3d cedb d5bc b55a d3bc
00000160: 243c bb3c 95ea ac3c 9ec3 3e3d 02b0 b43d
00000170: 5d06 783d 13df 86bb 6f8a f93c b857 8bbd
00000180: dabf 123e a499 9d3c be00 ba3d 9f14 403d
00000190: 4536 33bc 50b6 443d 1b1a 35bd 7d2b e53c
000001a0: ec1a 773d 0af3 173e 25c2 073e ed36 d8bc
000001b0: ad59 24bf ad8c 463c e591 c3bd c824 493d
000001c0: 06f1 a03d 0c74 003d 0319 99bd 1302 11bc
000001d0: af8e 863d 393b 883d b61b 37bd c2ad 90bd
000001e0: 8918 a03d ca43 0b3e bb90 c03e f348 843d
000001f0: 5068 f0bc 311e 8bbc 7820 753c ebc7 f8bc
