code/modeling/ckpt/AutoencoderConfig([2, 1, 1], flip=True, rotate=True)/autoencoder_20000.pth (torch, 358424 bytes, 73 tensors)

0.features.0.0.weight f4 [16, 8, 3, 3]
000000 6d c4 74 3d c8 47 8f bd 58 60 6c 3d d3 f7 d5 3b
       0.05975764 -0.06996113 0.057709068 0.006529787
000010 87 f9 ed bc d4 ae db bd 6b f2 10 3c 6e 52 cd bd
       -0.029049648 -0.10726705 0.008846859 -0.10025488
000020 5d cd 01 bd bd e9 67 3d c9 b7 65 bd fb d0 c2 bc
       -0.03168999 0.056619395 -0.056083474 -0.02378129
000030 4e e9 51 bd ff 9b 71 3c c4 c0 57 bd 4e 91 70 bc
       -0.051247887 0.014746665 -0.05267407 -0.014683081
000040 b4 f5 89 bd a8 f9 30 3d 12 5c 6b bb 34 e1 47 3d
       -0.06736317 0.04320684 -0.0035913032 0.048798755
000050 c7 4f 33 3d 15 37 82 3d df 39 0b 3e 56 ac ea 3d
       0.043777253 0.06358162 0.13596295 0.11458652
000060 f0 d9 81 3a 41 96 0a 3e 0a 64 cf 3d 16 e3 66 bb
       0.0009906869 0.1353388 0.10126503 -0.0035230569
000070 43 d6 94 3d d2 79 cf bc 23 91 c1 3b 90 c4 32 be
       0.0726743 -0.025326643 0.005907194 -0.17457795
000080 b3 54 de bd bd 1c 89 3b d9 79 ec bd b1 45 5f bd
       -0.10855999 0.004184334 -0.11546678 -0.054509822
000090 19 ed a0 3d 88 44 8c 3d fb bc ad 3d 63 06 10 bd
       0.07857723 0.06849009 0.08483311 -0.03516234
0000a0 c8 c7 96 bc b0 d9 bb 3b 82 c9 13 3e 78 b0 0f 3d
       -0.01840581 0.0057327375 0.14432338 0.035080403
0000b0 42 63 01 3e 5e bf 4e bc b5 24 66 bd c3 b7 2e 3d
       0.1263552 -0.012618868 -0.05618735 0.042655718
0000c0 c1 28 73 bd 2d da 2f be ca fd 09 be e3 1c d2 3b
       -0.059365038 -0.17173071 -0.13475719 0.006412135
0000d0 01 b2 fa bd d3 70 f5 bc 3c de f5 bc 96 5e 0c bd
       -0.12240983 -0.029961025 -0.030013196 -0.03426989
0000e0 f7 41 d8 bc b9 d5 a3 bc 31 4c fa bd da 65 84 bd
       -0.026398642 -0.019999372 -0.122215636 -0.06464739
0000f0 08 12 ad bc ec 7c 0f be e4 29 9d bd 34 c1 a0 3c
       -0.021126762 -0.14012498 -0.07674006 0.019623376
000100 98 1d 70 bd 9c 13 aa 3d ec a3 12 3d 41 d9 0c bd
       -0.058621973 0.083045214 0.03580086 -0.034386877
000110 49 0e 3c 3c 3a 8e 7f 3d 43 a8 2d bd da 8b cb 3c
       0.011478015 0.062391497 -0.042396795 0.02484696
000120 72 97 bd 3d 3f 02 24 bd 7a 83 4e bd ce 54 c0 3d
       0.092574015 -0.040041205 -0.050418355 0.09391175
000130 7d dc e1 bb 3a a0 03 bd da a3 a6 3c ed f3 67 3d
       -0.0068927393 -0.032135226 0.020341802 0.05662911
000140 b5 a6 68 bd ff 82 9e 3b f6 b0 86 bd 98 de 06 3d
       -0.05679961 0.0048373933 -0.06576721 0.032927126
000150 d5 8d 3b bd 04 7a 02 be 9c 62 90 3b 78 f1 c7 3b
       -0.04578956 -0.12741858 0.0044062864 0.0061017834
000160 03 c1 cb bd 14 7a 47 bc 67 18 d2 bc 9c df 1c bd
       -0.099489234 -0.012175102 -0.025646402 -0.038299188
000170 59 45 7c 3c e8 e6 95 3d 18 67 db bd d8 3e 9d bd
       0.015397393 0.073194325 -0.10713023 -0.07678002
000180 f0 46 50 3c 2a 66 80 3d 76 ab 53 3d 43 fd a3 3c
       0.012712225 0.06269486 0.05167719 0.020018226
000190 e6 cf d0 38 a3 3d 85 bc 7c ec 07 3d 42 cf 2b be
       9.956937e-05 -0.016264742 0.033184513 -0.16778281
0001a0 b7 8e db bd fd ec 18 3d 0a 8a e3 bd d6 7a 42 bd
       -0.1072058 0.037335385 -0.11110313 -0.047480427
0001b0 43 04 3f 3d c1 7c 24 3d 81 7e e5 3c 9a b5 4a bd
       0.046634924 0.040158037 0.028014423 -0.049489595
0001c0 12 d9 84 be 67 ed 3c be e2 86 ae 3d 62 6d ce bd
       -0.25946862 -0.18449937 0.085218206 -0.10079457
0001d0 11 57 03 3c 48 b7 f5 3c 50 f0 99 bd 36 61 0b 3c
       0.008016364 0.029994622 -0.07516539 0.008507064
0001e0 30 45 46 bd 42 30 21 be 16 ea 9a bd 88 ef 88 3d
       -0.048405826 -0.15741065 -0.075641796 0.06686312
0001f0 ca 1b 45 bc e1 41 3d bc 9e 0a d7 bb 9b dc 15 bc
       -0.012030551 -0.011551351 -0.006562545 -0.009146835
000200 d0 01 04 3d 3d 68 7f bc 37 1c 20 be db 8b bf bd
       0.03222829 -0.015588817 -0.15635763 -0.09352847
000210 13 19 05 3d f4 a6 37 bd 94 ed a7 3c d7 a9 c0 3d
       0.032494616 -0.044836953 0.020499028 0.094073944
000220 f3 92 19 bd fc 46 1b 3d 3a a1 4b bd 3d 34 70 bd
       -0.037493657 0.037909493 -0.049714305 -0.05864357
000230 77 75 e2 bb e9 94 1a bd 60 9b 17 3c 19 dd 8f bd
       -0.0069109756 -0.037739668 0.009253353 -0.07024593
000240 83 03 82 bd 7b f4 29 3d 61 14 fa 3b da f4 75 3d
       -0.06348326 0.04149292 0.007631824 0.06004796
000250 98 db eb 3d c1 91 33 3d 16 ae bf ba 15 68 2e 3d
       0.115164936 0.043840174 -0.0014624025 0.04257973
000260 60 d8 f0 3c 27 8e 3e bd 4c db de 3b 85 ec 91 3d
       0.02940005 -0.046522286 0.0068010446 0.07125191
000270 19 e3 bc 3c 6c 33 ba 3d d8 24 3a bd c6 2c 35 bc
       0.023057507 0.09091839 -0.045445293 -0.011058038
000280 c0 ad 3d 3d cb f8 17 bd 4f 09 4c bd 20 32 31 be
       0.04630828 -0.0371025 -0.049813565 -0.17304277
000290 97 2e 50 3b 37 19 52 bd a8 54 56 be 9a 3e fd bd
       0.003176605 -0.051293578 -0.20930731 -0.12365456
0002a0 df e1 b0 bc 61 ff 6c bd 62 26 d7 bc 45 c6 57 bd
       -0.021592079 -0.057860736 -0.02626342 -0.05267932
0002b0 7a 8c 6d 3d b9 18 69 bc 85 8f d7 3d e4 f1 da 3d
       0.057995297 -0.014227086 0.10525421 0.10690668
0002c0 da ed 1c 3e b5 02 f3 3b c8 94 01 3e 47 86 5b 3d
       0.15325108 0.007416094 0.12654412 0.053594854
0002d0 c1 bd 8d bd a4 45 c7 bd fc 3d 4c bc cc e3 5f bd
       -0.06920958 -0.0973008 -0.01246595 -0.054660603
0002e0 93 ed 36 bd 1c 87 0b bd ad 8f c1 bd f8 0d 47 bd
       -0.044660162 -0.034064397 -0.09451232 -0.048597306
0002f0 93 fd 25 bd 2b 06 45 3d aa 6e e8 3d ae 80 00 3b
       -0.04052503 0.048101585 0.113492325 0.001960795
000300 c9 32 0b 3e 27 dd 28 3e 27 bd 9f 3d 86 b7 20 bd
       0.13593592 0.16490613 0.0779975 -0.03923752
000310 9e c2 8c 3d 13 ff 85 3c b8 17 36 3d 47 ff 6f 3d
       0.06873058 0.01635698 0.044456214 0.05859306
000320 d0 29 96 3c 4a f5 d6 3d ec a3 20 3e 55 8f a2 3d
       0.018330485 0.10496004 0.15687531 0.07937495
000330 48 d6 c5 bb 57 f3 b4 3d 3c af 5d 3c f9 07 13 bd
       -0.006037507 0.08835476 0.013530549 -0.035896275
000340 aa 00 98 3d 27 e6 29 bc 06 63 53 3d 2c 4b 94 bc
       0.07422002 -0.010369814 0.051608108 -0.018102251
000350 cf ae fb 3c a8 5c f7 bc 8d b0 86 3d 18 90 a2 bc
       0.030723004 -0.03019555 0.06576643 -0.0198441
000360 ba 8a 18 3d 4e 3f cb 3d 63 a2 9b bd b7 7b 1e 3e
       0.037241675 0.09924184 -0.07599332 0.15476881
000370 45 9d 02 3e 63 77 d2 3a e9 b8 b6 3d 9f a7 9f 3d
       0.12755306 0.0016057309 0.089219876 0.07795643
000380 00 22 22 3c 8b ce 54 3d 03 98 7a 3d e1 e1 f5 3c
       0.009895802 0.051954787 0.061180126 0.030014934
000390 6c e6 e1 3d 7e 16 83 3d 86 f1 8d 3d f5 ad 19 3d
       0.110302776 0.064007744 0.069308326 0.037519414
0003a0 35 07 7c 3d c7 61 08 3d ec 56 78 bd e1 fb 37 bd
       0.06153031 0.033296373 -0.06062977 -0.044917945
0003b0 f4 79 f4 3b 6d cb ab bd 2c fc 82 bd f9 0e 8a 3b
       0.007460827 -0.0838841 -0.06395754 0.0042132107
0003c0 87 2b 5c 3d 24 11 e9 bc d5 18 80 3d 22 29 1d bd
       0.05375245 -0.028450556 0.06254736 -0.038369305
0003d0 d8 14 50 bd 03 1d ff bc 15 21 0d be f8 73 eb bd
       -0.05080113 -0.031141764 -0.13782151 -0.11496729
0003e0 86 94 47 bd 25 44 5f bd 86 98 0d bd 02 c7 c8 3c
       -0.048725627 -0.054508347 -0.034569286 0.024508957
0003f0 0b 1b 4b 3c 2c 5d 51 3d 9d 37 21 3d 2a 50 ed bc
       0.012396584 0.051114246 0.039359678 -0.02896889

0.features.0.1.weight f4 [16]
000000 81 32 2d 3f 36 79 26 3f 32 33 3b 3f fe aa 22 3f
       0.6765519 0.65028703 0.7312499 0.63542163
000010 5e 7e 49 3f 5c aa 54 3f ea f7 89 3e cc 11 0e 3f
       0.78708446 0.8307245 0.26946956 0.55495906
000020 90 81 45 3f 10 80 05 3f e9 1d 54 3f ac 5e 5c 3f
       0.7715082 0.5214853 0.8285814 0.8608196
000030 aa b1 3d 3f 9f fe 0d 3f 2b e0 3c 3f 5f 24 71 3e
       0.7409922 0.55466646 0.73779553 0.2354903

0.features.0.1.bias f4 [16]
000000 db 34 30 bd 9e 4f f9 bd 22 9f dc 3e a5 5e 53 3f
       -0.043019157 -0.12173389 0.4309016 0.8256629
000010 e2 53 23 3f 52 08 f3 3e 92 b0 98 3e aa c2 69 3f
       0.6379987 0.47467285 0.29822212 0.9131266
000020 20 cc 60 be 1a 16 5b 3f a4 b8 30 bd 87 17 03 3d
       -0.21952868 0.855806 -0.043144837 0.03200486
000030 75 89 b6 3e 0e a3 9a 3f 26 96 16 3e 40 8d 84 3e
       0.35651746 1.208101 0.14705715 0.25889015

0.features.0.1.running_mean f4 [16]
000000 75 1e ff bc f1 71 2b bd db 57 44 3d 2d 84 16 bd
       -0.031142453 -0.04185671 0.047935348 -0.036747146
000010 0b cd 55 bd fd 2f 92 3c 38 d5 a8 3b b9 a6 d4 bc
       -0.052197497 0.017845148 0.005152371 -0.025958406
000020 9b 52 10 3d 41 c3 19 bd b6 68 85 bc 8b ea 84 3d
       0.03523503 -0.037539724 -0.016285282 0.06490048
000030 87 54 36 3d e6 7b fb bc db d5 9a 3d b0 b5 89 3b
       0.044514205 -0.030698728 0.07560321 0.004202567

0.features.0.1.running_var f4 [16]
000000 3d d1 37 3f 8b db 80 3f 43 8a a5 3f f8 75 11 3f
       0.7180365 1.0066999 1.2932819 0.5682063
000010 7a c6 50 3f e3 47 9c 3e 72 df 8c 3d d6 75 8e 3e
       0.8155285 0.30523595 0.06878556 0.27824277
000020 47 3c fc 3e f7 8a ff 3e 9e 47 97 3e 62 b2 9b 3f
       0.49264738 0.4991071 0.29546827 1.2163813
000030 af 34 88 3f 5d 6f c2 3e bb 0a f9 3f 4c 1f 33 3d
       1.0641078 0.37975588 1.94564 0.04373102

0.features.1.0.block.0.0.weight f4 [16, 16, 3, 3]
000000 3e 9f f4 bd f0 7e 7e 3e 14 04 10 be 67 a5 70 3e
       -0.119444355 0.2485311 -0.14064056 0.23500596
000010 9e 2c 95 bc 81 82 1c 3e bf 50 2e be ec f8 cb 3c
       -0.018209752 0.15284158 -0.1702299 0.024898969
000020 c5 1d 2e be bf dd 8a bd 98 fb 8b 3e 78 63 82 bc
       -0.17003544 -0.06780576 0.27340388 -0.015916571
000030 29 65 0c 3e 67 8e 07 3f 5d 67 fd 3d 2d f2 5c 3d
       0.13710465 0.52951664 0.123732306 0.053941894
000040 6d ec aa 3e 7a 42 8c bc 99 56 93 3d 00 96 e6 bd
       0.33383504 -0.017121542 0.071942516 -0.11259079
000050 54 5a b5 3d 84 5a ff 39 f2 f6 0a be 57 13 81 be
       0.08855119 0.0004870483 -0.13570765 -0.25210068
000060 cb b4 88 3c 66 b7 8e be ad f1 81 3d 1e 58 df bc
       0.016687771 -0.27874297 0.06344924 -0.027263697
000070 f7 d2 82 3d 39 4f d6 bc f5 b4 97 bc e1 fb ca bd
       0.063878946 -0.026160823 -0.018518904 -0.09911323
000080 16 73 c9 3d c3 15 81 3d d5 46 a2 3d 21 c3 8b 3d
       0.09836404 0.06302979 0.079236664 0.06824327
000090 ac d5 d8 bd 2c 62 42 3e 63 95 01 be 6a 95 d4 bb
       -0.1058763 0.18982762 -0.12654643 -0.006487538
0000a0 bd a7 d2 3d 3e 50 6f 3c a8 76 2f bd e9 f3 ab 3d
       0.102859 0.014606534 -0.04283777 0.083961315
0000b0 26 a7 e5 3b 47 cf 00 3b 28 1c 7b b9 64 e6 c5 3c
       0.007008451 0.0019654797 -0.00023947714 0.02415771
0000c0 47 cf 99 3d 25 aa 0b 3e fc 6d 5a 3d 04 52 df 3b
       0.07510238 0.13639124 0.053327546 0.006815197
0000d0 1d 55 03 3d ea f0 51 3d 14 66 06 3e 51 df 7b 3d
       0.032063592 0.051255144 0.13124877 0.061492268
0000e0 e3 f5 9a 3c 8d 15 26 3c 18 39 4c 3e 07 6d 99 3c
       0.018916076 0.010136974 0.19943655 0.018728746
0000f0 2a c9 de 3c bf f0 28 be 6f 37 de 3d 21 52 91 3d
       0.027195532 -0.16498087 0.10850417 0.07095743
000100 3f cc 3c 3e b1 98 54 bd c9 23 4f bd 50 90 63 bc
       0.18437289 -0.05190343 -0.050571237 -0.013889387
000110 81 69 0a 3e 15 26 3e 3b 9f 92 53 3c aa 4f a6 bc
       0.13516809 0.0029014398 0.012913375 -0.020301659
000120 93 8b f1 bd 06 63 e0 3d 7e 78 fb bc 2f de 9b 3c
       -0.117942 0.10956387 -0.030697104 0.019026844
000130 62 36 09 3d 94 4c ec 3d 68 79 59 bc 94 5e 30 3d
       0.03349913 0.115380436 -0.013273574 0.043058947
000140 45 67 f7 bd 5d 22 78 bd b6 ce 95 3c 28 3f 70 3d
       -0.12080244 -0.060579646 0.018287044 0.05865398
000150 b7 ac 1a 3c f0 20 14 3e 3d ed b9 3a 82 81 c0 bd
       0.0094405925 0.1446569 0.0014185082 -0.09399702
000160 76 ef ba bd 1d ff 3a be 98 af bb bb e5 e2 f3 3c
       -0.09127705 -0.1826138 -0.0057277195 0.029771278
000170 e6 ab 99 bd cc bb c8 3c ba 16 c6 bd ff 35 3b 3e
       -0.0750349 0.024503611 -0.096723035 0.18282317
000180 09 ab 28 bc 58 ca f3 3c 06 b6 53 bd 2e 9c 2c bd
       -0.010294684 0.029759571 -0.051687263 -0.042141132
000190 5a 11 4b bd 44 6a 22 bd ae c0 36 3d 3a b6 e3 bd
       -0.049577095 -0.039652124 0.044617347 -0.11118741
0001a0 f6 ca e9 bc 6c 5f 3d bd 7e 30 35 be 80 3d 11 bc
       -0.028539162 -0.04623358 -0.1769428 -0.00886476
0001b0 c4 67 c5 bc ca d9 59 be 24 c1 4c 3d 5d 6b c7 bd
       -0.02409733 -0.21274486 0.04998888 -0.09737275
0001c0 e4 a9 1c bd cb 90 84 3d f7 98 dc 3c d9 e1 16 3e
       -0.038247958 0.064729296 0.026928408 0.14734592
0001d0 3d 3b e3 3c 20 24 93 bc dd 83 68 bc 22 a9 36 3d
       0.027738208 -0.017961562 -0.014191595 0.04459489
0001e0 6c 4a 08 bd da c8 72 be 05 4f 31 bd 17 9f 85 3d
       -0.0332741 -0.23709431 -0.04328825 0.065244846
0001f0 85 f5 0d 3e 59 d9 39 be 89 8f 48 3c 23 e4 33 be
       0.1386319 -0.18149318 0.012241253 -0.17567496
000200 89 89 e8 bc 26 53 05 bd 7f d7 4d bc ea 1f 70 bd
       -0.028385894 -0.03255 -0.012563585 -0.058624186
000210 a4 fa 63 bd 2b fe 05 bc 38 74 a0 3c bc e2 11 be
       -0.05565895 -0.008178274 0.019586667 -0.14246649
000220 74 9c 47 be a3 f3 8b 3d 75 f7 66 be 2c 7f 1a be
       -0.19493276 0.068335794 -0.22555335 -0.15087575
000230 eb 62 aa 3a 4f 21 73 3c e5 84 01 bd 18 4f 56 bd
       0.001299945 0.014839484 -0.03162088 -0.052321523
000240 51 41 3c bd ae 13 a2 3d b2 8b 18 bd eb eb d5 bd
       -0.045960728 0.0791391 -0.0372426 -0.104453884
000250 a9 99 df 3d 5a 04 09 be 09 87 aa 3d 0a 06 07 be
       0.1091798 -0.13380566 0.08326537 -0.13185897
000260 d7 10 01 bd 4c f1 c6 bd 8c 1f ca 3d c7 3e 2b be
       -0.0315102 -0.097139925 0.09869298 -0.16723166
000270 b7 27 b5 3d 8b 37 fe 3d 3b 66 d8 bc eb ca a3 3c
       0.08845466 0.12412938 -0.026415935 0.01999422
000280 b1 62 c1 3d 82 23 b3 be 99 d2 c0 bd c3 37 2b be
       0.09442652 -0.34988028 -0.09415168 -0.1672049
000290 69 ea dc 3b 4a fb cb 3d 87 43 74 3d a5 d5 be 3e
       0.006741811 0.09960039 0.05963471 0.37272373
0002a0 1c d4 e2 bd 05 8e 46 bc 2a e7 50 3e 7a e3 80 bc
       -0.11075613 -0.012118821 0.20400682 -0.01573347
0002b0 49 11 90 3d 86 8b ac 3d 56 b5 16 bd b9 c3 16 bd
       0.07034547 0.084250495 -0.03679403 -0.03680775
0002c0 58 61 48 3d 39 4a 8c bc 74 44 38 bc 50 22 21 3e
       0.04892096 -0.017125236 -0.011246789 0.15735745
0002d0 bc d4 67 3d 4f 39 ba bd f9 e5 09 3e 1d fb 9d 3d
       0.056599364 -0.09092962 0.13466634 0.07713912
0002e0 eb ae 19 be 2c f9 16 bd 01 d2 e4 bc ee d7 91 3b
       -0.15008132 -0.036858723 -0.027932169 0.0044507897
0002f0 8c 5f 59 3d e7 2c 3d bd 0b 3e e1 bd c9 8a 1c be
       0.053069636 -0.0461854 -0.10998162 -0.15287317
000300 23 e0 82 bd 72 95 f1 bc 14 13 b6 bc 56 b6 ab bd
       -0.06390407 -0.029490206 -0.022225894 -0.08384387
000310 d3 40 e1 bc e1 3c 42 bd 8f d0 3d 3c 02 d2 76 be
       -0.02749673 -0.04742134 0.011585369 -0.24103549
000320 74 6f cf bd 85 3c b9 bd 60 95 1a bf 26 0b f3 bd
       -0.1012868 -0.09044746 -0.6038418 -0.11867361
000330 cc 38 8b bc 07 78 a9 be 13 2c 9e be 0a ab 93 3b
       -0.016994856 -0.33099386 -0.30893 0.0045064734
000340 0f ef a2 bd 45 ff 82 bd ab c4 66 bd 25 1e f8 bd
       -0.07955753 -0.06396345 -0.0563399 -0.121151246
000350 ce 6d 6d be db b2 1d 3d e8 5a 0d be 9e 04 c2 bd
       -0.23186418 0.038500648 -0.13804209 -0.09473537
000360 5b c6 f6 bd 64 2f 89 bd 4c c3 75 be 0b 64 d4 bd
       -0.12049552 -0.06698492 -0.24000281 -0.10370644
000370 86 8d 90 3c 40 a4 5d be cd 1b 43 be 4b a3 c0 bd
       0.017645609 -0.21644688 -0.19053574 -0.09406146
000380 23 2c 05 be 2d fb d3 3c 3c 65 17 3e 19 54 8f 3d
       -0.13005118 0.025876606 0.14784712 0.06998462
000390 c5 c5 39 bd 34 f1 4c be 4e 7b 17 bd 0a bf c4 3d
       -0.045354623 -0.20013887 -0.036982827 0.0960675
0003a0 c5 d8 64 3a 4b 21 17 3d 56 e7 f3 bc 69 26 eb 3d
       0.0008729811 0.036896985 -0.029773396 0.114819355
0003b0 db 87 59 bd e2 84 a5 3c 22 93 c2 3c 49 59 e2 3c
       -0.053108077 0.020204965 0.023751799 0.027630465
0003c0 99 b9 99 bd cb d1 14 bd 5d 7c 32 be 5e 6e 41 be
       -0.07506103 -0.036332887 -0.17430253 -0.18889758
0003d0 a9 c3 c9 bc c0 46 51 be c6 54 44 3e 5d 77 fd 3d
       -0.02462943 -0.20437145 0.19172964 0.12376282
0003e0 b6 58 64 3e 19 2f b9 bd d8 d0 d7 3d fd 78 20 3d
       0.22299466 -0.09042186 0.10537881 0.039177883
0003f0 12 ce f7 3b bb 26 34 3d cd 5a 9d bd 8a 35 ea bd
       0.0075624073 0.04398225 -0.076833345 -0.11435993

0.features.1.0.block.0.1.weight f4 [16]
000000 be ed 1c 3f e2 49 a4 3f 51 4c 15 3f fb 7a 02 3f
       0.61300266 1.2835047 0.58319575 0.50968903
000010 bf bc 10 3f af a1 0a 3f ca d5 26 3f ad ca 27 3f
       0.56538004 0.5415296 0.65169966 0.65543634
000020 80 c6 1a 3f de cd fa 3e af 2f 1a 3f 26 b1 33 3f
       0.60459137 0.4898519 0.6022901 0.7019218
000030 09 c8 37 3f 8a 84 1d 3f ee e8 32 3f 8f 05 2c 3f
       0.71789604 0.61530364 0.6988667 0.6719598

0.features.1.0.block.0.1.bias f4 [16]
000000 d6 e8 ad 3d 9a eb 89 bf b6 fb 8f 3e 62 4d 6a 3f
       0.084916756 -1.0775025 0.28121728 0.91524327
000010 ed 84 f0 3d 31 03 14 3e b7 a6 97 3e 71 10 92 3e
       0.117441036 0.14454342 0.2961938 0.2852817
000020 a5 e7 08 be 27 e1 b8 3e 38 15 09 3e 8e aa f1 3d
       -0.13369615 0.36109278 0.13387 0.11800109
000030 d4 1d d8 3d 09 88 2f 3e e5 b9 4e 3e 55 26 1f be
       0.10552564 0.17141737 0.201881 -0.15541966

0.features.1.0.block.0.1.running_mean f4 [16]
000000 40 11 48 be 2f a4 a5 bf 33 75 50 bd 5c 2c e9 3e
       -0.1953783 -1.294073 -0.05089302 0.45541656
000010 24 d9 f8 bd 8a 23 33 bf 3f 32 8c be 40 fc b8 3e
       -0.12150791 -0.69976103 -0.27382085 0.3612995
000020 5e 12 1a c0 68 25 cb 3e 6c cc 00 3f 41 e5 27 bf
       -2.407371 0.39676976 0.50311923 -0.6558419
000030 80 01 3a bf 93 80 66 3e 0d b8 51 3e f6 64 b8 be
       -0.7265854 0.22509985 0.20480366 -0.36014527

0.features.1.0.block.0.1.running_var f4 [16]
000000 ce 38 68 3f 1a d8 9e 3d 79 bb 83 3f c3 df 4c 3f
       0.9071168 0.07756062 1.0291587 0.80028933
000010 78 d8 ed 3f 63 7f cf 3e 2a dc 4f 3f a0 7b 92 3f
       1.8581686 0.40526876 0.8119532 1.1443977
000020 08 07 17 40 5d 26 3a 3f 1d 52 84 3f 7d 6d 74 3f
       2.3598042 0.7271479 1.0337559 0.95479566
000030 5b 3d c5 3f 9c 77 18 40 5a 61 bc 3f 98 29 0f 3f
       1.5409349 2.3823004 1.4717209 0.5592284

0.features.1.1.block.0.0.weight f4 [16, 16, 3, 3]
000000 cf 81 bf 3c 82 d0 5f bd 15 40 bf 3d 59 b6 5f bd
       0.023377327 -0.054642208 0.093383946 -0.05461726
000010 89 f0 60 be c8 6e 85 bd e7 43 b1 bd f4 b5 13 be
       -0.21966757 -0.065152705 -0.086555295 -0.14424878
000020 28 66 ad bd c1 11 4f 3e 4a 46 1f 3e 96 ba 1f 3e
       -0.084667504 0.20221616 0.15554157 0.1559852
000030 ea 5e 8e 3d 33 e1 ad 3d f6 05 3a 3e 06 16 62 3e
       0.06951697 0.08490219 0.18166336 0.22078714
000040 9a a2 32 3d 92 e6 0f 3e c8 7b 25 3b 41 7e 11 bd
       0.0436121 0.140528 0.0025250781 -0.035520796
000050 48 fd 1c b8 d3 82 0d be 65 f8 fb bb 71 b1 6a 3d
       -3.7429185e-05 -0.13819437 -0.007689523 0.057298128
000060 9c d8 02 3e 88 7e 78 bd 7b 53 32 3e 00 01 6a 3d
       0.12777942 -0.060667545 0.17414658 0.05712986
000070 4a 12 73 3d 4b 9c 4b bd 94 43 80 bd dc b0 fb bd
       0.059343614 -0.0497096 -0.062628895 -0.122895926
000080 a8 f1 79 3d 8d 45 15 be 27 05 60 3c fb 7f 22 be
       0.061021477 -0.14577313 0.013673103 -0.15869133
000090 e4 e4 e2 bd 83 9c 27 bd 00 80 24 bd f0 64 56 3d
       -0.11078814 -0.040920746 -0.040161133 0.052342355
0000a0 8d b2 a8 bd 1f 78 0a 3e 1c 97 f0 bd b6 35 c3 bd
       -0.08237181 0.13522385 -0.11747572 -0.09531729
0000b0 ea 77 ba bc 30 46 b3 bd 95 49 9b 3d 58 45 08 bc
       -0.022762258 -0.087536216 0.07582394 -0.008317314
0000c0 3b 2e 8c bd 6e 49 38 bc 30 23 72 bd 0a a0 bd 3d
       -0.06844755 -0.011247976 -0.05911559 0.09259041
0000d0 9c 35 7e bd de 11 de bc 73 2a 81 bd 96 8f 74 3d
       -0.062062845 -0.02710813 -0.06306925 0.059707247
0000e0 66 66 4f bc 85 04 10 3e 2f 8f 8b bc 2b e5 fe bd
       -0.012658691 0.14064224 -0.017036049 -0.12446054
0000f0 e2 4f 0a be 2d 5b f9 3c d3 c5 78 3d b5 e3 65 3d
       -0.13507035 0.030438984 0.060735535 0.05612536
000100 27 81 e4 3c a5 73 76 bd 29 ae d4 3c 6e a8 ad bc
       0.027893616 -0.06016888 0.025961952 -0.021198478
000110 ef f9 59 3d eb 23 a9 3d 17 e8 c0 3c 1b 55 35 bd
       0.05321687 0.08258804 0.023548169 -0.044270616
000120 c2 73 8b 3d 28 52 07 bd f6 6d 39 3c 1c 6e 70 bc
       0.068091884 -0.033037335 0.011317721 -0.01467469
000130 db d7 bb 3d a3 19 b1 3b a9 90 81 3d e9 d9 58 bd
       0.091720305 0.0054046675 0.0632642 -0.05294219
000140 2f 24 fe 3d de f6 c7 39 9e b8 b8 3d d9 ab 3f bd
       0.12409245 0.00038140168 0.09019588 -0.046794746
000150 ad 26 00 3d f0 28 58 bd 5f c4 9d be ff e8 b8 bd
       0.031286884 -0.052773416 -0.30813882 -0.090288155
000160 5d 3c 17 3e 11 57 16 be 63 b6 6f bb 03 45 e2 bd
       0.1476912 -0.1468165 -0.0036577217 -0.11048319
000170 47 da 5e bc 13 a1 d3 3c 99 eb 48 be 48 93 96 bd
       -0.013601846 0.025833642 -0.19621123 -0.073523104
000180 99 e6 d6 bd 78 ca 4f bc ce a1 b9 bd 1c 49 59 3d
       -0.10493202 -0.01268255 -0.09064065 0.05304824
000190 bb 30 65 3d 0f ca a4 bc 1c 21 84 bd 39 d3 91 3d
       0.055954676 -0.02011588 -0.064516276 0.07120366
0001a0 21 ef 46 bd 98 a2 c9 bd c5 a8 13 bd c6 e9 60 bd
       -0.048567895 -0.098454654 -0.036049623 -0.054910444
0001b0 cf ff 8b bd 44 2d fb 3b e3 e6 f6 bd df d8 36 be
       -0.06835901 0.007665308 -0.12055757 -0.17856167
0001c0 ba df d0 bd 36 fa e5 bd 13 b0 1c be 29 74 94 bd
       -0.101989225 -0.112293646 -0.15301542 -0.07248718
0001d0 23 dd 95 bd fa 26 1e 3d fc 8c fc 3a 5f 61 b2 bd
       -0.07317569 0.03861139 0.0019268091 -0.08709978
0001e0 96 60 93 bd 86 4b 99 3c 77 d2 97 bd 72 e1 2a be
       -0.07196157 0.01871277 -0.0741319 -0.16687563
0001f0 b4 6c 38 3d b0 2d 5a 3c 19 49 3d bd 3d 97 49 be
       0.045025542 0.013316557 -0.04621229 -0.19686599
000200 40 77 16 bd 29 92 e5 3d 02 53 da bc 4b e7 27 bd
       -0.03673482 0.112095185 -0.02665091 -0.040992063
000210 c3 eb c8 bd aa 26 c3 bb 3f b5 36 3d 6d 36 e5 bd
       -0.09810593 -0.005955537 0.044606443 -0.111920215
000220 86 de 6d bd 13 fc 26 bd 8e 4d 39 3e 44 15 82 be
       -0.058073543 -0.04076774 0.18095991 -0.2540685
000230 58 66 b5 3d 44 30 11 bd c5 41 3c be d4 26 88 ba
       0.08857411 -0.03544642 -0.18384464 -0.0010387548
000240 f5 6b 0c be 79 74 9c bd 4f 9b 6d be da 6f 48 be
       -0.13713057 -0.07639403 -0.23203777 -0.19573918
000250 3f 82 08 3d 42 32 04 bd b7 d5 35 be 6f da e6 bd
       0.033327337 -0.032274492 -0.17757307 -0.11272132
000260 3a 52 62 be 55 d2 a8 3e 71 25 c4 3e 67 72 06 3f
       -0.2210168 0.3297297 0.38309816 0.52518314
000270 09 25 8d 3e 2e bd 95 3d a9 71 5c 3e 67 b3 e5 3e
       0.27567318 0.07311474 0.21527733 0.44863436
000280 b3 91 b1 3e ff 6e eb 3e b0 8a eb 3b 02 56 0d 3c
       0.34681472 0.4598312 0.0071881637 0.008626463
000290 90 00 61 3d 18 a5 66 3e 25 11 7a bd a5 4f 08 bc
       0.054932177 0.22523916 -0.061051507 -0.00831977
0002a0 dc 66 9b 3c 7d 0a 88 bc 9f 06 67 3d 9b ff a7 bd
       0.018969946 -0.016606564 0.0564028 -0.0820305
0002b0 f7 bb 1c bc 86 c3 b1 3d 06 f5 88 3c 95 88 1d 3c
       -0.009566299 0.08679871 0.016718399 0.009615083
0002c0 cb d9 04 be 53 d1 64 3d 91 6d 08 be 82 68 05 3e
       -0.12973706 0.05586369 -0.13323046 0.13028148
0002d0 05 65 af 3d 96 a4 10 bd 83 c9 d8 bd 80 4c 94 bc
       0.0856419 -0.03531321 -0.1058531 -0.018102884
0002e0 97 59 5f be fd bd e1 bd 8e 6f c3 3c d8 cb 91 bd
       -0.2181152 -0.110225655 0.023856904 -0.07118958
0002f0 e3 2b f8 bd 21 8e da bd 9b 88 70 bd 0c 3b 92 bd
       -0.12117746 -0.1067164 -0.058724027 -0.071401685
000300 6c 99 cb bb 03 c2 99 bd b1 40 9c bc 1b 5a 0f 3a
       -0.0062133577 -0.07507708 -0.019073816 0.0005468444
000310 7d 0d db 3b 34 2b 2c bd b6 96 53 3d a7 79 81 bc
       0.0066849575 -0.04203339 0.0516574 -0.015805079
000320 41 7a 07 3d 66 ca 81 bd 3b 5e b4 bd 91 41 b1 b9
       0.033075575 -0.063374326 -0.088070355 -0.00033808922
000330 e8 6f f7 3a 2f 36 30 bd e2 d8 85 bd 28 de b3 3c
       0.0018877955 -0.043020424 -0.06535508 0.021956518
000340 2c cd d3 bd e0 d3 0b bd 9d f6 aa bd e7 57 8d 3c
       -0.10341868 -0.034137607 -0.08347819 0.01725383
000350 af e1 5a 3c 5e 24 2b 3c 9f 92 95 3b 93 b3 e8 bd
       0.013359471 0.010445682 0.0045645977 -0.11362376
000360 62 d4 8f 3d 9b e0 ab bd fc 97 02 3e 03 c8 b6 3c
       0.07022931 -0.083924495 0.1275329 0.02231217
000370 31 76 70 3d c4 ba 2e 3e e4 8f d5 3c 85 01 14 3b
       0.058706466 0.17063433 0.026069589 0.0022583914
000380 a5 d0 2e 3e 18 ac 5a bd 0c 85 a5 39 5d 48 04 3e
       0.17071779 -0.053386778 0.0003157038 0.1291823
000390 17 d0 19 be bf b2 e4 3d 37 29 9b bd 50 8e f6 3b
       -0.15020786 0.111669056 -0.075762205 0.007524289
0003a0 10 ca cc bd 76 57 83 3d cb 02 1b 3d f7 f8 9a 3d
       -0.09999478 0.06413166 0.03784446 0.075670175
0003b0 3b 92 a5 3d 48 ea 54 3d cd 73 5f 3d 56 c1 a8 3c
       0.08084532 0.05198124 0.054553796 0.020600002
0003c0 e6 85 5b 3d 20 55 db b9 3b fc 06 3d 44 3b 4f bd
       0.053594492 -0.00041834358 0.03295539 -0.05059363
0003d0 a7 a2 4c bd 12 48 db 3c d8 3a 1a 3e 1d 1d 2a 3e
       -0.049959805 0.026767764 0.1506151 0.16612668
0003e0 95 f0 ed 3d 32 b8 45 3d 6b 19 a7 3c 03 90 00 3e
       0.11618153 0.048271365 0.020397862 0.12554936
0003f0 93 1b 65 bb 19 07 43 be 64 3c c2 bd fb e3 64 be
       -0.0034959062 -0.19045676 -0.09484175 -0.22352593

0.features.1.1.block.0.1.weight f4 [16]
000000 8d eb e4 3e f7 f6 08 40 e9 d8 e0 3e 05 36 e7 3e
       0.4471096 2.1400735 0.4391549 0.451584
000010 55 91 ca 3e 25 30 02 3f f1 34 48 3f cd 51 2d 3f
       0.39564005 0.5085471 0.7820578 0.67702943
000020 d0 8c 36 3f da 58 2e 3f 38 06 1b 3f 5a cc 3f 3f
       0.7130861 0.68104327 0.60556364 0.7492119
000030 d4 09 ff 3e bf 3f 11 3f a3 eb 4e 3f 40 d7 b8 3e
       0.49812186 0.56737894 0.80828303 0.36101723

0.features.1.1.block.0.1.bias f4 [16]
000000 0a ba 77 bd ca c7 9a bf 0f c4 1e bd 6c 4b 18 be
       -0.060480155 -1.2092221 -0.038761195 -0.14872521
000010 53 16 05 be 7e 8b be 3a f6 40 85 3d 9f 87 b1 bc
       -0.12996797 0.0014537422 0.06506531 -0.021671114
000020 eb d4 69 3b 79 bf 00 3e 0b 58 3f bd 6d 5b 3c be
       0.0035679888 0.12573041 -0.046714824 -0.18394251
000030 65 0e c9 be 01 d3 fb bc 0a 5d 9a 3d 58 53 3b be
       -0.39268795 -0.030740263 0.07537277 -0.18293512

0.features.1.1.block.0.1.running_mean f4 [16]
000000 5d 7c 10 c0 3c 71 a6 bf 75 c6 31 c0 5a c9 cc bf
       -2.2575905 -1.3003306 -2.7777379 -1.5998948
000010 dc 64 22 c0 34 28 53 bf 10 8f ac 3e 17 d6 1c 3e
       -2.537406 -0.8248322 0.33702898 0.15316044
000020 c6 8e a2 bf 57 85 d1 bf 26 5f 11 3e 2d bf 56 bf
       -1.2699821 -1.6368817 0.14196452 -0.8388546
000030 c5 86 21 c0 e1 3c 1a bd 34 db 8d bf 22 c5 8e bf
       -2.5238507 -0.037655715 -1.108252 -1.115391

0.features.1.1.block.0.1.running_var f4 [16]
000000 78 e5 81 3f fd 36 a3 3e 59 ae 0b 40 a0 b3 4e 40
       1.0148153 0.3187789 2.1825163 3.2297134
000010 e2 b6 1a 41 6d 81 00 40 89 34 60 41 68 a5 f4 40
       9.669649 2.0078995 14.012826 7.645191
000020 5b 23 2d 40 c5 03 07 41 8a 02 6b 41 4d e5 c1 40
       2.705283 8.43842 14.68812 6.059241
000030 71 22 a2 3f 06 9a 17 41 df 32 95 40 ba 7b 7f 3f
       1.2666761 9.475103 4.66246 0.99798167

0.features.2.0.block.0.0.weight f4 [64, 16, 3, 3]
000000 d3 e3 0a bd b8 3e bb bc 9e 0e a0 ba 03 32 24 3d
       -0.033908676 -0.022857055 -0.0012211388 0.040086757
000010 07 88 53 3d 14 1c 1b 3e 9f ec cd bc 19 9a 53 3c
       0.051643398 0.1514743 -0.025137244 0.012915158
000020 f9 42 23 3d 30 94 b8 3d a7 bc 67 3d 9b b3 de 3c
       0.039858792 0.090126395 0.056576397 0.027185252
000030 5f c1 fb 3d 42 66 97 bc 4f 50 fc bc f8 bc 95 3d
       0.12292742 -0.018481378 -0.030800013 0.073114336
000040 8f 79 4f bd 2e 24 ca 3c 34 34 07 3d b1 ba 8d 3b
       -0.050653037 0.024675455 0.03300877 0.004325234
000050 9f 2a 7f 3d e1 1e 93 3c 8f a6 17 bd c4 4e 16 be
       0.062296506 0.01795906 -0.037024077 -0.14678484
000060 ea a5 14 bd fe 06 6b bd 30 04 15 be a9 db a9 bc
       -0.03629104 -0.057379715 -0.14552379 -0.020734625
000070 98 fe 3c 3c c6 a3 95 bd 37 80 0d 3d 82 67 ff 3b
       0.011535309 -0.07306628 0.034546103 0.0077943215
000080 c2 d3 d5 b9 cd 8b 56 bd b5 8b 8b bd 76 a7 8d bd
       -0.00040784298 -0.05237942 -0.068137564 -0.06916706
000090 0c 97 34 3d b5 4a 98 3d 4a 73 d2 3c d9 ec 28 3c
       0.044089362 0.07436124 0.02568974 0.010310375
0000a0 ac b6 a1 3d 1b 0b 56 bc b9 f2 89 b9 8e 09 60 3d
       0.0789617 -0.013064171 -0.0002631152 0.054696612
0000b0 31 c9 8d bd eb 94 00 3d 6b e5 ff bb c9 42 30 bd
       -0.0692314 0.03139202 -0.007809331 -0.04303244
0000c0 1d cc 18 bc ab f2 46 bc be b6 37 3e 19 a0 4d 3c
       -0.009326008 -0.0121428175 0.17940804 0.012550377
0000d0 64 a5 eb 3c 12 bd 7f 3c 9b 75 b6 3d 5b 11 68 3d
       0.028765388 0.015609043 0.0890915 0.056657176
0000e0 ed 24 c6 bc 10 8e ea bc 7c 4e 4d 3d f6 c5 a6 3c
       -0.02418753 -0.028632194 0.050123677 0.020358067
0000f0 b9 b2 b7 bc f0 b9 da 3d 2c 9d 1f bd b1 09 15 3d
       -0.022424089 0.10679996 -0.03896825 0.036386196
000100 d8 0e 13 bd da ec 03 3c 88 0f 9a bd ff 98 c8 bd
       -0.035902828 0.008052075 -0.075224936 -0.09794807
000110 f7 92 b0 bd 51 3c ef bc 63 c6 30 bd 71 eb 67 bd
       -0.08621781 -0.029203566 -0.043157946 -0.05662102
000120 76 96 62 3c 79 19 a0 bc ed 35 15 bd 91 e3 03 bb
       0.013829818 -0.019543396 -0.03642838 -0.0020124654
000130 bd 06 55 3d ff 11 e9 3d fc c7 4e bc 3e 4e 05 3e
       0.05200838 0.113803856 -0.012620922 0.13018128
000140 b5 1d d1 3d 38 51 aa bd 4a 93 1d bd e2 97 81 3c
       0.10210744 -0.083162725 -0.038470544 0.015819494
000150 d7 7b b7 3a a7 a7 dc bd a7 35 52 bd c6 3b a2 bb
       0.0013998699 -0.10774165 -0.051320698 -0.004950973
000160 71 a8 68 3d ed 0f b9 3c 93 16 eb bc 9b 1e 41 3c
       0.056801263 0.022590602 -0.028697288 0.011787082
000170 b3 63 2a 3d 8f d2 44 3d 47 ae 82 3d 95 61 7a bc
       0.041598987 0.048052367 0.06380897 -0.015282054
000180 e0 c0 b5 3c 9e b4 74 3d e0 fa 69 3d 90 00 d8 bc
       0.022186697 0.059742562 0.05712402 -0.026367456
000190 c7 00 c8 bd fc 53 bb 3c 61 5b 78 bd ad 1b bc bd
       -0.09765773 0.022867195 -0.06063402 -0.09184966
0001a0 57 4a d3 bc d7 ce 25 3d 33 e1 31 bd fe 22 7c 3b
       -0.025792284 0.04048046 -0.043427657 0.0038473005
0001b0 bd 19 1a 3d 97 34 36 bd c1 2a 5f bd 9b dc 08 be
       0.037622202 -0.044483747 -0.054484133 -0.13365404
0001c0 6c 66 01 be 09 c2 4b bd 7e 36 bb 3c f3 32 3e bd
       -0.12636727 -0.049745593 0.022853132 -0.046435308
0001d0 12 9a 96 bd c6 57 86 bd b0 ff cc bb 7a 26 7d 3d
       -0.07353605 -0.0655971 -0.0062560663 0.061804272
0001e0 87 be bd bc f0 80 9e bd 88 08 4f bd 1d fe cf bc
       -0.02316214 -0.077394366 -0.050545245 -0.025389725
0001f0 53 03 aa bd 57 db aa 3d 7f 82 50 3c 45 db 0e bd
       -0.08301415 0.08342617 0.012726425 -0.03487708
000200 18 a6 ea 3d 90 14 35 bd ef 13 d3 bd ad 77 24 bb
       0.11457461 -0.044209063 -0.103065364 -0.0025095746
000210 25 f5 5f 3d 63 96 56 bd 56 48 24 3d cf 85 97 ba
       0.054677147 -0.052389514 0.040108047 -0.0011560264
000220 7a ad d2 3c 55 4c d6 3c c3 84 ec 3b 18 f3 3d 3e
       0.025717486 0.026159445 0.007217975 0.18549764
000230 68 70 a2 3d 67 20 80 3b 89 1d be 3d e9 b1 b1 3d
       0.07931596 0.0039101127 0.09282977 0.08676512
000240 ee dc 64 bd d0 76 97 bd 33 0a ba 3c 89 c4 8f bd
       -0.055874757 -0.073957086 0.022709941 -0.07019908
000250 b0 fe 98 bd ff de 24 bd c3 ba 13 bc 65 56 dd bb
       -0.07470453 -0.04025173 -0.009016695 -0.006754684
000260 73 fb 83 3d 86 e6 ed bd 75 44 76 3c 39 06 31 bd
       0.064444445 -0.116162345 0.01503097 -0.043218825
000270 96 9d 14 3d 69 a7 06 bd f9 72 af bd 1c af 47 3d
       0.0362831 -0.0328745 -0.08566851 0.04875098
000280 3b e2 b8 3b 56 dd 05 3e a7 82 bb bc 15 a1 17 3d
       0.005642203 0.13072714 -0.022889448 0.037018854
000290 45 5b 94 bc 10 81 aa bc 32 b0 3f 3c bd 33 8f 3d
       -0.018109927 -0.020813495 0.011699723 0.0699229
0002a0 f6 10 39 3b 5f 78 ae 3d b3 51 1a 3d 1c 2c 93 3c
       0.002823887 0.08519053 0.03767557 0.017965369
0002b0 65 bb 02 3d f5 73 a2 bd 34 85 f3 bc a3 62 eb ba
       0.031916995 -0.07932273 -0.029726602 -0.0017958473
0002c0 54 93 18 be a3 06 69 bd f8 db 27 bc 0c 99 b0 3d
       -0.14899951 -0.056891095 -0.010245316 0.086229414
0002d0 bb fb bf bc b0 1c 67 bd 8b a1 14 3d ee f1 dc bc
       -0.023435464 -0.056423843 0.036286872 -0.02697083
0002e0 32 02 1d be c6 ad a5 39 ed af e5 bc d7 98 d4 bb
       -0.15332869 0.00031600724 -0.02803799 -0.0064879465
0002f0 63 fe 0d bd 27 c4 91 3d 92 e1 80 bd 94 d5 29 3d
       -0.03466643 0.07117491 -0.06293024 0.04146345
000300 dc 7b 53 3c 9f 9b d3 3b 9c cb 97 3d 22 c6 19 3d
       0.012907948 0.0064577605 0.07411882 0.03754247
000310 3c 3c ee 3c 4b b6 9f 3d 78 95 c6 3d e3 03 0a be
       0.029081456 0.077984415 0.09696478 -0.13478045
000320 35 5b 26 3e 94 85 2a 3d 25 b4 a2 3c 26 52 38 3d
       0.1624573 0.041631296 0.01986129 0.045000218
000330 4b 89 56 3c ed 08 17 be 9a c2 09 bd 2d 91 5a bb
       0.013094257 -0.14749499 -0.033632852 -0.0033350692
000340 b9 63 b5 3c d6 46 cc bd 86 0d 29 3d 33 ce b5 bc
       0.022142278 -0.099744484 0.041272663 -0.02219305
000350 63 d4 2a 3d aa cf 4e bc 36 0e ca bc 52 e2 fd 3d
       0.041706454 -0.012622753 -0.02466498 0.12396683
000360 50 8b f0 3c c8 f4 09 3a da e6 f0 3a 72 62 61 bc
       0.029363304 0.00052626105 0.0018379346 -0.013756381
000370 8b f8 1e 3d 2f 5c 6c 3d e2 73 2e 3c 4d 7b 79 bc
       0.038811248 0.0577051 0.010647746 -0.015227151
000380 99 c7 12 bd 18 14 23 bd 99 b1 70 3d 48 a3 22 bd
       -0.035834882 -0.039814085 0.05876312 -0.0397065
000390 96 fd 7b 3c 47 db 16 bc 02 2e d8 bd 3e 43 e1 3b
       0.015380284 -0.009207553 -0.1055565 0.006874471
0003a0 41 cc 82 bc 55 12 48 bd 56 d0 e8 bb 4d 05 3e bd
       -0.015966536 -0.048845608 -0.0071049137 -0.046391774
0003b0 8a 12 a2 bd 9b f8 77 bd 47 1f 49 3c 61 ea c9 3b
       -0.07913692 -0.060539823 0.0122755235 0.0061619733
0003c0 6c 6a 8b bc 8f 48 21 3d 37 0b 08 be 57 b8 7b bb
       -0.01701852 0.039375838 -0.13285528 -0.0038409436
0003d0 9f 51 e8 3c 95 ca 09 3d e8 5c 2b 3b 04 5b 27 bc
       0.028359232 0.033640463 0.0026147906 -0.010214571
0003e0 57 53 17 3e f4 04 7f bc d6 3a 14 3e f9 6a f8 3d
       0.14777885 -0.015565146 0.14475569 0.121297784
0003f0 a5 22 d5 3c 26 8f 7a bc c7 f0 22 3d 13 80 0f ba
       0.026017496 -0.015292918 0.039780404 -0.00054741016

0.features.2.0.block.0.1.weight f4 [64]
000000 c3 f9 1c 3f 59 f9 4e 3f 97 0b 36 3f af 8d 45 3f
       0.61318606 0.80849224 0.71111435 0.77169317
000010 91 89 27 3f 4f e3 47 3f b8 1a 2c 3f e9 84 61 3f
       0.65444285 0.7808122 0.6722827 0.8809343
000020 8f 25 2e 3f fa b2 3d 3f 2d 32 1d 3f 1a b8 0c 3f
       0.6802606 0.7410122 0.6140469 0.54968417
000030 ca c6 47 3f 02 9f 36 3f 8c f2 40 3f df fe 3a 3f
       0.78037703 0.71336377 0.753701 0.7304515
000040 5f c5 47 3f 01 1a 2d 3f b9 68 86 3f ec d1 3b 3f
       0.7803554 0.67617804 1.0500709 0.7336719
000050 10 ce 2c 3f 0e 9a 1f 3f d2 ca 46 3f 29 7c 25 3f
       0.67501926 0.62344444 0.7765323 0.6464258
000060 cb 26 25 3f bf 55 4d 3f a6 49 33 3f 90 db 47 3f
       0.6451232 0.80208963 0.70034254 0.780694
000070 35 32 51 3f 4a ff 47 3f d5 9b 33 3f 7e 01 39 3f
       0.81717235 0.78123915 0.70159656 0.722679
000080 86 01 32 3f 35 fa 0a 3f f5 80 16 3f 7b 86 48 3f
       0.69533575 0.54288036 0.5879052 0.783302
000090 0c 99 45 3f 0d 09 29 3f f9 11 4e 3f 96 11 4c 3f
       0.77186656 0.66029435 0.80496174 0.79714334
0000a0 0c 9d 17 3f b2 2c 26 3f 4c 52 37 3f 82 d7 47 3f
       0.5922401 0.6491195 0.7160995 0.78063214
0000b0 89 fc 2e 3f bd d4 39 3f 91 07 3d 3f 33 51 4f 3f
       0.6835409 0.7259024 0.7383967 0.80983275
0000c0 98 21 26 3f 15 eb 47 3f 0e a2 44 3f 17 0f 3a 3f
       0.6489501 0.7809308 0.76809776 0.72679275
0000d0 53 39 4f 3f fd cd 42 3f db bd 3c 3f 47 c6 53 3f
       0.80946845 0.76095563 0.73727196 0.8272442
0000e0 1b 7f 13 3f c2 2f 5d 3f 41 3d 4c 3f fc a1 33 3f
       0.5761582 0.86401 0.79780966 0.70169044
0000f0 df 4a b4 3f 15 e1 0a 3f 12 ab c7 3f 25 bd 30 3f
       1.4085349 0.542497 1.5599082 0.6903861

0.features.2.0.block.0.1.bias f4 [64]
000000 46 b7 75 bd 88 70 7b 3d 81 ee fa bd a7 64 e2 3d
       -0.059989236 0.061386615 -0.12252522 0.11054354
000010 cf f7 0c 3d f6 ad 1c 3e a8 be 38 3e 05 3c 10 bc
       0.034416016 0.15300736 0.1804148 -0.008803372
000020 13 60 0c 3d c2 93 14 3e 74 c1 eb bd ae 5d 92 3d
       0.03427131 0.1450949 -0.11511508 0.07146774
000030 a6 fa 3d 3d 31 94 44 3e af 22 8f 3e e3 dd 32 3e
       0.046381615 0.19197156 0.2795615 0.17467456
000040 90 35 b5 3e 37 c5 ac bd 73 7c de bd 99 c1 ce 3d
       0.35392427 -0.08436053 -0.108635806 0.100955196
000050 88 62 37 3e 2e 88 ad bd df 5c f1 3d 11 d9 3d 3e
       0.1790868 -0.0847324 0.11785292 0.18539836
000060 77 5b c9 3c 03 2e ea 3d ec ef a5 bd 0a 8e 2f 3e
       0.024579747 0.11434557 -0.08102402 0.17144027
000070 61 4b 48 bd f2 6b fe 3d 18 e3 1b 3d e6 b7 d5 3d
       -0.048900012 0.12422933 0.03805837 0.104354665
000080 11 69 d9 3d 1d 3e 87 be c0 09 43 3d a2 f2 09 3e
       0.10615743 -0.26414576 0.04761672 0.13471463
000090 3b c8 39 3d f9 86 c7 3d f3 ec 7e 3c 88 d9 f5 3c
       0.04535697 0.09742541 0.015559423 0.030010954
0000a0 40 52 7f 3c da b5 a0 3c f0 2b 6c 3e ef 6a 00 3f
       0.015583575 0.019617964 0.23063636 0.5016317
0000b0 05 0d 04 3d c7 46 43 3d 45 6f 1b 3e d7 b5 dc 3c
       0.03223898 0.04767492 0.15179165 0.026942177
0000c0 0c da a4 3d d0 13 1c 3e a8 b5 78 3e 67 37 59 3d
       0.08049402 0.15241933 0.24288046 0.05303135
0000d0 e1 cb 55 3e da a0 70 3d 22 6b 78 3e e5 a5 5a 3e
       0.20878555 0.05874715 0.24259618 0.21352346
0000e0 75 59 cb 3e ca c4 19 3d e9 39 36 3c 0c 8c 80 3e
       0.39716688 0.03754119 0.011122205 0.25106847
0000f0 01 ed f5 be 17 bc dd 3a 16 c1 d8 be a0 24 2d 3e
       -0.48032382 0.0016917017 -0.42334813 0.16908503

0.features.2.0.block.0.1.running_mean f4 [64]
000000 6c c7 64 bf 7a 3f 9e 3e 28 22 08 bf 01 f3 ea be
       -0.89366794 0.30907804 -0.5317712 -0.45888522
000010 63 d9 3f 3f 72 ab 31 3e 1a a6 94 be f5 43 1e bf
       0.7494108 0.17350557 -0.29032975 -0.61822444
000020 d0 52 35 3f f0 56 8e 3d 86 4f 95 bf f8 5e be be
       0.70829487 0.06950176 -1.1664894 -0.3718183
000030 18 8a 15 bf a1 75 b2 be 64 0d a9 bc 26 56 ff 3f
       -0.5841384 -0.3485537 -0.020636268 1.9948165
000040 b5 70 8b 3e f9 43 6e bf e0 2c bd be 21 d1 79 bf
       0.27234426 -0.9307247 -0.369483 -0.9758473
000050 6e 84 9f 3f bd 68 50 bf 35 0b 00 bf f0 79 86 3f
       1.2462289 -0.8140982 -0.500171 1.0505962
000060 20 5c 75 bf 40 25 12 be 17 77 b1 be e3 0f d5 3f
       -0.95843697 -0.14272022 -0.3466117 1.6645473
000070 e6 4d 10 bf 25 c4 a9 3f 77 8a 0d bf 7f 17 2f bd
       -0.56368864 1.3262984 -0.55289406 -0.042747017
000080 d9 d3 20 be 96 90 17 bf 56 f4 b7 bf ab fd 6a 3f
       -0.15705813 -0.59204996 -1.437144 0.91793317
000090 df 0d 2c bf 04 c8 ad 3e 22 6e 9a bf d1 9f 1e be
       -0.67208666 0.33941662 -1.206486 -0.15490653
0000a0 62 10 fb 3d 2a ee 93 bf 88 21 c3 3c 0c 9f c9 3f
       0.12258984 -1.1557057 0.0238197 1.5751662
0000b0 be 84 32 3e 39 84 54 3f 4a 03 b8 3f 61 56 d4 3e
       0.1743345 0.83014256 1.4376004 0.41472152
0000c0 b3 0d b8 be b0 f6 05 3e 46 91 1c 3f 14 61 70 3a
       -0.35947952 0.13082385 0.6115917 0.0009169739
0000d0 4d c9 2a bd c2 4b 81 bf 0d d0 63 3e f7 8a 34 3f
       -0.04169588 -1.0101244 0.22247334 0.70524544
0000e0 04 5f 49 3f eb d3 81 bf 2c 07 85 be 90 91 b0 3f
       0.7866061 -1.0142797 -0.25982034 1.3794422
0000f0 b2 0a 99 bc 71 65 2d bf 94 68 dd 3d 81 26 c7 3f
       -0.018681858 -0.6773291 0.10810962 1.5558625

0.features.2.0.block.0.1.running_var f4 [64]
000000 04 40 1e 3f c9 d1 35 40 17 f1 a6 3f fe bb 98 40
       0.6181643 2.8409293 1.3042325 4.7729483
000010 f0 ae 7f 3f 70 d2 94 3f 7e 10 04 40 3c 31 f2 3f
       0.9987631 1.162672 2.0635066 1.8921275
000020 bd ad 26 40 69 f3 2b 40 ca 01 90 3f 08 66 14 3f
       2.6043541 2.6867316 1.1250546 0.5796819
000030 b6 6d 83 3f f0 f6 bd 3f 06 a1 d8 3f c5 dc 8a 40
       1.0267856 1.4840984 1.692414 4.3394494
000040 54 61 b5 3f f3 84 af 3f e0 57 52 3f 60 4e 7b 3f
       1.4170327 1.3712448 0.82165337 0.98166466
000050 25 b5 bf 3f 57 6e ce 3e 55 2b 80 3f ab 9f c2 3f
       1.4977156 0.40318558 1.0013224 1.5204977
000060 fc 67 94 3f 81 ef 3f 40 e4 e3 5f 40 3d f3 8d 40
       1.1594234 2.9989932 3.4982843 4.435942
000070 3a 06 80 3f 07 ec 84 40 2e 80 bc 3f c5 ad e7 3f
       1.00019 4.153812 1.4726617 1.8099905
000080 fb 23 49 40 6a 00 dd 3e cb e7 e3 3f bd 58 7e 40
       3.142821 0.43164378 1.7805113 3.9741662
000090 8b 3d 57 3f 7a 93 fc 3f 0e db a5 40 f8 0d 45 40
       0.8407828 1.9732506 5.18299 3.0789776
0000a0 cd df 27 3f 35 a6 f7 3f 1b 96 14 40 91 4a ac 3f
       0.6557587 1.9347597 2.3216617 1.3460256
0000b0 17 dc a7 3f 72 8b 57 40 77 5a 3f 40 75 2e e9 3f
       1.3114041 3.367886 2.9898965 1.8217303
0000c0 dc 59 86 3f e6 29 3b 40 47 9a dc 3f c6 6b 25 40
       1.0496173 2.9244323 1.7234582 2.584703
0000d0 5d 74 87 40 b5 69 22 40 56 ab 33 3f 86 bf 14 40
       4.2329545 2.5377018 0.7018331 2.3241897
0000e0 61 bd ee 3e bc 42 7e 40 5f 2b 47 3f 9e 18 99 3f
       0.4662886 3.9728231 0.77800554 1.1960638
0000f0 4b 41 e1 3e 3a b9 21 3f 8d dd 42 3f 19 00 42 40
       0.43995127 0.6317326 0.7611931 3.031256

0.features.2.0.block.1.0.weight f4 [32, 64, 1, 1]
000000 ed 1f 91 bd 7a f9 9c bd 07 07 95 3d 7b 63 7c ba
       -0.070861675 -0.076647714 0.07276731 -0.0009627861
000010 02 94 05 3e 40 ed ac bd 4d c4 75 be 7a 1a 33 bd
       0.13044742 -0.08443689 -0.24000664 -0.043726422
000020 8f 32 a0 3e 3b b0 1f 3e 87 4c 8a 3e 77 f5 14 bf
       0.31288573 0.1559457 0.2701151 -0.5818705
000030 6d 17 41 3b 25 11 ed 3d 8b cc 78 bd 03 f7 43 3e
       0.0029463426 0.11575536 -0.060741942 0.19137196
000040 53 57 68 be a3 5e 07 be 08 1d 5b be 43 83 57 3e
       -0.22689562 -0.13219695 -0.21397793 0.21046166
000050 97 7b 7d 3d 6e a5 b3 be 0b 89 47 3e 33 fc 8c 3c
       0.061885443 -0.3508715 0.19485871 0.017210102
000060 bd 49 21 be c0 e4 2e bb a4 fb 3f bd bb e2 30 be
       -0.15750785 -0.0026686639 -0.046870843 -0.17273991
000070 1c e3 90 3c 1e 67 e5 bd f2 66 5f 3e 6a 95 58 bd
       0.01768642 -0.11201309 0.21816614 -0.052876867
000080 f5 95 cb 3d 02 b2 b6 bd 9a 57 fe bc 83 7d 42 bd
       0.099407114 -0.08920671 -0.031047631 -0.04748298
000090 a5 ec 84 bd 48 78 05 3e 18 2c 95 3d 6f fd b8 3e
       -0.06490449 0.13034165 0.07283801 0.36130854
0000a0 fb d7 87 3d e8 75 a5 be fa 11 8e 3d c5 a2 df 3e
       0.06632992 -0.32316518 0.069370225 0.4367887
0000b0 f2 6b 88 3e e1 c2 9e 3e 7b 60 b3 be bb ba 51 3e
       0.26644856 0.31008056 -0.35034546 0.20481388
0000c0 a5 21 87 3e 54 80 d4 be fa 12 bd 3e c9 e6 13 3e
       0.26392856 -0.41504157 0.3692854 0.14443506
0000d0 6a a7 12 bd 4b 66 a0 be 2f c3 b4 bd 3d 45 1c be
       -0.03580419 -0.31328043 -0.08826291 -0.15260787
0000e0 b3 e4 62 3e 12 7f f0 be e1 72 88 bd 69 a7 91 bd
       0.22157554 -0.46971947 -0.066625364 -0.07112009
0000f0 5c 5c 56 3e 82 b1 2b bd a8 7a 12 3e 21 25 d6 3d
       0.2093367 -0.04191733 0.14304602 0.104563005
000100 2d 68 91 bd b1 f5 21 3e 94 67 9b 3e 32 37 24 3e
       -0.07099948 0.1581638 0.3035246 0.1603668
000110 33 fd 9d 3e bf a4 ad bd 9e c3 79 3e 31 f2 08 bd
       0.30857238 -0.084786884 0.24391028 -0.033434097
000120 4f 1d a7 bd 63 1a 04 3e f1 14 ba be e7 27 b5 bd
       -0.08159887 0.1290069 -0.36344102 -0.088455014
000130 23 48 1c bd 97 7d 30 3d f7 2b 13 3e 58 1d ec bd
       -0.038154732 0.04308852 0.1437224 -0.115290344
000140 09 04 50 be 98 d8 28 be 2e ea b6 bd 92 e2 71 3d
       -0.2031404 -0.16488874 -0.08931385 0.059053965
000150 1b a6 41 3e c6 c0 f9 bd 87 db e9 3d 81 68 95 be
       0.1891102 -0.12194972 0.11418825 -0.29181293
000160 65 69 17 bd e0 94 f7 3e c5 2c 28 be a3 de 74 be
       -0.036965746 0.4835577 -0.16423328 -0.23913054
000170 92 ac 81 be f5 d5 8a be 93 63 56 be a0 ed 1e 3d
       -0.25326973 -0.2711636 -0.20936422 0.038800836
000180 fd 1e 45 3e fc fc 61 be a5 65 75 3e e6 e8 34 3e
       0.19250102 -0.22069162 0.23964556 0.17666969
000190 c9 42 39 3e ea 23 93 be 19 f0 71 3e b8 b7 5d 3e
       0.18091883 -0.28738338 0.23626746 0.21652114
0001a0 cb 01 8a be 8e 6c bf be c5 4b 84 bd 15 7a 88 3e
       -0.26954493 -0.37387508 -0.064597644 0.2665564
0001b0 5e 18 c6 3e 5c 86 cc be d5 85 73 3e 19 12 e7 3d
       0.38690466 -0.39946258 0.23781522 0.11282749
0001c0 0d 5d 47 be 7c 59 ab be 69 11 80 be 2a 00 5d be
       -0.1946909 -0.3346671 -0.25013283 -0.21582094
0001d0 a3 f1 80 3e d4 a3 a9 3e eb fe 90 3e 60 11 60 be
       0.25184354 0.33132803 0.28319487 -0.21881628
0001e0 2f f4 81 3e a0 56 0b be c1 9a 5f be 4f 21 c1 3d
       0.2538161 -0.13607264 -0.21836378 0.09430181
0001f0 dd 71 cb be 1c 80 45 3e ac 7a 0e bf 62 de 57 3d
       -0.39735308 0.19287151 -0.5565593 0.052702315
000200 73 26 91 bc 58 c6 82 bc 70 56 d3 bd 82 50 1e 3d
       -0.01771853 -0.015963718 -0.10319221 0.038650997
000210 d4 4b 24 3e 0e 24 75 3d 76 25 a6 be 9e c7 a1 bc
       0.16044551 0.059848838 -0.32450455 -0.019748505
000220 fa 09 e6 bd 1e 99 82 3d 10 1e 8b 3e e5 b2 82 bd
       -0.11232372 0.06376861 0.27171373 -0.06381778
000230 bd 93 0d 3e b6 20 07 3d 12 28 c4 bd 72 96 e9 be
       0.13825889 0.03299018 -0.09577955 -0.45622593
000240 69 73 b1 3e 20 06 b8 bd 48 27 c3 be 6f 0d 6f be
       0.34658363 -0.08985543 -0.38115907 -0.23344968
000250 6c 18 d9 3c 6d 4d ed 3d ab 4d 17 be 04 cd 54 bd
       0.026500903 0.115870334 -0.14775722 -0.05195333
000260 d5 fc 98 be 96 59 dc 3d c2 f4 75 bd 6f a8 c2 bd
       -0.29880396 0.10759275 -0.060047872 -0.095047824
000270 c2 a7 9d 3e 92 0d a0 bc 59 68 82 3d c3 4d ac 39
       0.30792052 -0.01953772 0.06367559 0.00032864333
000280 39 ac 86 3b 68 0d 5d bd ac f1 79 3e c1 6a 91 3e
       0.004109886 -0.053967863 0.24408597 0.2840176
000290 3a 90 ed bd 96 0e 83 bc c5 d7 11 be 0f f4 1b 3e
       -0.11599775 -0.015998166 -0.14242466 0.1522982
0002a0 e3 9b 0e be 8f ca 69 3d 0c 3b af bd 1f 45 8e be
       -0.13926654 0.05707794 -0.08556184 -0.2778711
0002b0 99 14 ef bd 37 29 b3 3e 9a 1a c0 3d 69 b6 68 bd
       -0.116738506 0.34992382 0.09380074 -0.056814585
0002c0 8b 80 a0 3c 79 5a ea bd 15 14 71 bc 77 ca 83 3e
       0.019592544 -0.114430375 -0.014714261 0.25740406
0002d0 97 f8 84 3c cf 27 94 be 43 fc bf bc 88 56 9a be
       0.016231818 -0.28936622 -0.023435717 -0.30144143
0002e0 ee e5 86 3e ab 12 c5 be f3 4d 01 be 84 56 23 3c
       0.26347297 -0.38490805 -0.12627392 0.009969357
0002f0 db e4 ab 3c bc 63 2f 3e 73 36 1a bf 75 ac e4 3e
       0.02098315 0.1712789 -0.6023933 0.44662824
000300 3f dc 28 3e 73 2f b0 3d b7 51 ad 3e 46 67 c4 bd
       0.16490267 0.086028 0.33851406 -0.0959001
000310 25 af 1c 3e df 41 82 be 9c 85 09 3e 3f 70 4a 3b
       0.15301187 -0.2544088 0.13429874 0.0030889658
000320 b9 1a 3b be 97 8b 45 be f4 4c df 3d 51 11 84 be
       -0.18271913 -0.1929153 0.109033495 -0.2579446
000330 e5 a1 2e 3c ea a1 d2 3e cf 05 f1 3e 18 aa 41 bd
       0.010658716 0.41139156 0.47074744 -0.047281355
000340 49 3f 4f 3e 86 b0 95 3e c9 03 1c be 2e 29 f1 3d
       0.20238985 0.2923624 -0.15235819 0.117754325
000350 61 e4 e6 3d c4 22 01 3e 76 ba cb be 07 10 1f be
       0.112740286 0.12610918 -0.39790696 -0.15533458
000360 25 f9 a1 3d 40 42 69 bc 3c 1b e4 3e 5c 35 c5 be
       0.07908849 -0.014236987 0.44552028 -0.38517272
000370 8c e4 33 3d bb b2 5d be 50 9d 6d be 5e 87 60 3e
       0.04391913 -0.21650212 -0.23204541 0.21926638
000380 31 6d 01 3e 62 61 2f 3e 59 98 02 3e 1e b5 0e be
       0.1263931 0.17126992 0.12753429 -0.13936278
000390 32 d4 02 3e 84 1b d7 be 6b ef 99 3e 55 5c 8d bd
       0.12776259 -0.4201318 0.30065474 -0.069023766
0003a0 93 26 cc be b4 89 88 3c 61 9a 7e 3e 71 ae bb 3c
       -0.3987318 0.016667224 0.24863578 0.022910329
0003b0 f8 a7 7f be 8b 3e f0 be c5 4c 3f 3d 4d b0 be bd
       -0.24966419 -0.46922716 0.046704073 -0.093109705
0003c0 56 cb e5 3e d3 9d 46 ba 42 ae 32 3e f2 9b 6e 3e
       0.44881696 -0.0007576618 0.17449287 0.23301676
0003d0 e2 6b cc bd 80 b6 a8 be 9d 50 3c 3d 95 bd 8f 3d
       -0.099815145 -0.32951736 0.045975316 0.07018582
0003e0 18 0d 88 be 4e dd 3d 3e 61 97 a7 3c b4 c2 26 be
       -0.2657249 0.18541452 0.020457925 -0.16285211
0003f0 bb 86 0c bf b2 e2 68 3e c7 58 13 bf 8b c1 9f bd
       -0.5489308 0.22742727 -0.5755734 -0.07800587

0.features.2.0.block.1.1.weight f4 [32]
000000 43 aa 44 3f dd 4b 86 3f bd 89 88 3f 13 c6 58 3f
       0.768223 1.0491902 1.0667034 0.8467724
000010 5d b1 4b 3f eb 3e 40 3f ea e0 3f 3f 6b 14 40 3f
       0.7956751 0.75096005 0.74952567 0.75031155
000020 a1 06 55 3f 0b b7 48 3f 00 cf 3d 3f 3b 3d 49 3f
       0.8321324 0.784043 0.7414398 0.78609055
000030 e8 d8 6e 3f 00 b6 4d 3f c2 03 53 3f 6c 4e 5d 3f
       0.9329972 0.80355835 0.8242761 0.8644779
000040 88 89 60 3f 22 5b 4c 3f de 86 52 3f 28 58 57 3f
       0.87709856 0.7982656 0.8223704 0.8411889
000050 0a 45 47 3f a6 2a 56 3f ba 02 53 3f e3 51 97 3f
       0.7783972 0.83658826 0.82426035 1.1821865
000060 7e dd 95 3f e3 df 87 3f 96 80 54 3f 2e 93 38 3f
       1.1708219 1.06152 0.83008707 0.7209958
000070 3b 64 57 3f 5a 6a 58 3f f3 c9 59 3f cb 77 5d 3f
       0.84137315 0.8453728 0.85073775 0.86510915

0.features.2.0.block.1.1.bias f4 [32]
000000 2a ec 8e bb cc 93 db 3d 16 48 a4 3c e4 09 25 3d
       -0.004361649 0.107215494 0.020053905 0.040292636
000010 ed 3f dd 3d 1e 55 fe 3a b3 4b 5e 3c 71 6a 37 3d
       0.108032085 0.0019404029 0.013567853 0.044779245
000020 7e b8 28 3d 48 1a 7d bd ff 72 eb bc f8 a6 2e 3c
       0.04119157 -0.061792642 -0.028741358 0.010659926
000030 59 c2 1f 3d 6c f2 0f 3d 2e 0c a8 3d d8 b7 88 3d
       0.039003704 0.0351433 0.08205448 0.066756904
000040 c3 4d 80 bd f2 e1 65 bd d4 bd 89 3d f3 5e ba bb
       -0.06264832 -0.05612368 0.0672566 -0.0056875884
000050 74 73 d4 bd ed 40 87 bd 26 bc 12 3d af 8e f6 bc
       -0.103735834 -0.066041805 0.035823964 -0.030097334
000060 61 3a c7 bc 1c d4 8f bd fd d5 1a 3d 9f 5a c0 bb
       -0.02431983 -0.070228785 0.03780173 -0.005870178
000070 9c 1b 84 bd 23 05 7e 3c ab 4a 67 bd 19 4a 53 bc
       -0.064505786 0.015504154 -0.056467693 -0.012896084

0.features.2.0.block.1.1.running_mean f4 [32]
000000 0a fc 3a 3e 23 1f 1e bd 20 8a ca be 5d 40 a2 be
       0.18260208 -0.038603913 -0.39558506 -0.3168973
000010 20 7a 3e 3d 9f cd a3 3e 93 96 1c 3f ac 7d 08 be
       0.046503186 0.31992814 0.6116726 -0.1332919
000020 05 94 7e 3e 5a 21 2f be ec d2 eb 3e 0e 93 37 3d
       0.24861152 -0.17102566 0.46059358 0.044817977
000030 80 40 47 bf e4 5c d8 3d d6 0d b2 be b8 d3 44 3e
       -0.77832794 0.105645925 -0.3477618 0.1922139
000040 56 f9 a6 3d d4 44 8b be 9d fa 22 3d eb 1e d5 be
       0.08153026 -0.2720095 0.039789785 -0.4162515
000050 83 5a c3 3d 0a 16 14 3f 9f a8 50 bc 93 1f c9 3e
       0.09538748 0.5784613 -0.012735515 0.39281902
000060 36 8b 79 3e 60 64 9a 3e b6 82 f8 3d af 53 05 be
       0.24369511 0.30154705 0.12134306 -0.13020204
000070 ee 5e 11 3e 45 41 07 3e 44 5a 62 3e 55 a0 0b 3c
       0.14196369 0.13208492 0.22104746 0.008522113
