code/modeling/ckpt/AutoencoderConfig([2, 1, 1], flip=True, rotate=True)/autoencoder_800.pth (torch, 358244 bytes, 73 tensors)

0.features.0.0.weight f4 [16, 8, 3, 3]
00000000: 741c d73d 0c70 dbbd cd79 7b3d 1552 843c
00000010: aa56 1cbd 9f6f f2bd 30c9 0ebb e44c d5bd
00000020: 3f9f 8a3d aa9f 403c 3148 81bd 0609 bebc
00000030: 9347 8fbd 4da5 a03d 82d3 d3bd ce41 47bd
00000040: a434 42bd 9cbc d2bc e4e0 723b 2358 d4bc
00000050: 3202 c33d 5d04 df3d b220 f9bc c66f 98bd
00000060: 2612 a83d 5955 d93d 30b9 d73d 4ba5 aabb
00000070: 7350 263d 13d1 c4ba 6015 473d 0193 05be
00000080: be93 08be fa57 fbbd eddf bdbd 90b0 003d
00000090: c9fc 4f3d 891b bbbd 537e d1bc dfd2 cdbd
000000a0: 1943 c7bd 0ea2 a7bd 89da 933d 9a76 70bd
000000b0: 12f1 debc 7a80 943d 2b25 40bd 95af dfbc
000000c0: 31cf b53b 8d72 8ebc b0f5 bebd 3a29 8dbd
000000d0: eff2 bd3b 231f 943d 4ab0 5ebd 3b83 30bd
000000e0: 2397 86bd fb3c 893d 0c75 743d 5e23 a63d
000000f0: c33d 89bd 189e cbbd 7a30 96bd e8bf d9bc
00000100: 2041 f5bd 46df 653d b8ab 843d 8340 5ebb
00000110: b484 9b3b 75da 233d 43c7 8dbd 3194 c0bd
00000120: 5513 ae3d 41a1 b6bd d78f e3bd 18d8 913d
00000130: 6eea 11bd 037a e3bb cc76 b03b 6363 913d
00000140: 3eb1 77bd 82ad 9cbd aa29 5dbd 0581 39bd
00000150: a246 43bd 9b88 e0bd 0efe e1bc 3d79 0bbe
00000160: e2bd 13be 1910 cbbc f3ed c9bd e0e2 5e3d
00000170: 5392 93bb dab6 4e3d 607e 07be 202a 2abd
00000180: aa7f aebd be1a 48bb 0266 863d 0d44 c9bc
00000190: a7f4 53bd 7d01 10bd 40b5 0f3d 0db4 ecbd
000001a0: 0e79 0d3a 42ca 3c3d 54c8 5bbd 3529 b33b
000001b0: 4b8a 05bd de25 893d 083c 9e3d 8257 83bd
000001c0: 0e9f bdbd bfd9 73bd fd13 b23c 1a86 98bd
000001d0: a33f b4bd 9d2e 9a3c 77e9 a7bd 162f b4bb
000001e0: ece4 d5bd 8381 56bc f151 653c a826 97bb
000001f0: 2f26 3e3d 9128 e2bd 7cc5 22bc 25e1 c3bd
00000200: e087 17bd 519d 2abc 07ee f5bd 948e 34bd
00000210: 0fb2 35bd da73 13bd 061f 903d 1cc2 c13d
00000220: 665a d6bd 5e14 b1bc 587f aebc a770 0d3d
00000230: 2e3e 7f3c 0be1 43bd 1866 c03d a6f9 a2bd
00000240: 16dd b5bc ea07 d7ba 3e4b b3bd b32a a03d
00000250: a0fa e33d 33c9 30bd 1dc8 e53c b6a9 973d
00000260: d7eb 9bbd b040 8a3d b4f9 be3c 74d5 e03d
00000270: 9fb2 9e3d 277f 1e3e 9d2e 26bd a249 ce3c
00000280: 773b e93d 5738 8dbb 34c8 0abd 78a1 d2bd
00000290: a024 ea3c c3d3 03bb aed5 30be 0e01 07be
000002a0: ccff 93bb a54b b93c 24a8 043c 814e 923d
000002b0: 17cd c83d 1543 7bbb f562 a93d 20b8 47bd
000002c0: 7139 cebc 1866 463c 27b3 053e 298e 503d
000002d0: ebdf 703d bcc6 aa3d 7d35 963d 1413 9c3d
000002e0: 99da cf3c d23b 69bb 2c26 983d d669 a4bd
000002f0: ef57 7b3d fdd1 ccbd bc7f 35bd 6be0 0fbd
00000300: 36e6 433d b076 783c 8d9a 283d 678d 80bc
00000310: dde9 c43d 05c2 0a3d 96f4 f83b 5281 63bd
00000320: 9586 553c c458 9b3d 54e0 e63d fe4b 523d
00000330: dbfe afbd e7c4 163d bf0f 423d e1ab a7bd
00000340: 3a8e c53d 838f 9c3b 68aa 483d 3ed9 74bd
00000350: f679 0c3c e77e 6fbc 3951 f03d d71b e73d
00000360: 9a49 503d 44c6 f43d 7bff ccbd 9324 ff3d
00000370: a8c0 d83c 301f 87bd 5b5f f83d c864 a7bb
00000380: fa95 963d 44ad 4a3d 5965 703c 1645 a0bb
00000390: 9ae8 993d 4f6a 833c ed91 cd3d 2462 483d
000003a0: c8f1 dc3c e511 3fbc cd47 e9bd f53d 4dbd
000003b0: c575 9f3c 71a4 c1bd ea7e a5bc 04ae 313d
000003c0: 4ac8 0d3e b79b 0dbb 989d 8d3b 6c45 273d
000003d0: a9f4 e93c eb94 12bc 1c71 98bd a8d7 94bd
000003e0: fab7 62b9 32ae 2cbd 050a 98bd 903a 613d
000003f0: 9123 00be 28a3 f4bc beac dbbc 8863 c0bc
0.10503474 -0.107147306 0.061395455 0.016152421 -0.038168587 -0.11837696 -0.0021787398 -0.10415056
0.06768655 0.011756817 -0.063125975 -0.023197662 -0.069960736 0.078440286 -0.10343076 -0.04864674
-0.047413483 -0.025724702 0.0037060315 -0.025920933 0.09521903 0.10889504 -0.030411098 -0.07443194
0.082065865 0.10611982 0.105333686 -0.0052076927 0.040604066 -0.0015015922 0.04860437 -0.13044359
-0.13337609 -0.122726396 -0.09271226 0.031418383 0.050778184 -0.09136111 -0.025572931 -0.10049986
-0.09729595 -0.08185206 0.07219417 -0.058706857 -0.02721456 0.072510675 -0.046910446 -0.027305404
0.005548381 -0.017388606 -0.09324205 -0.06892629 0.005796782 0.07232501 -0.05436734 -0.0430939
-0.06571796 0.06701084 0.059681937 0.081122145 -0.06701233 -0.09942263 -0.07333465 -0.026580766
-0.11975312 0.056121133 0.06478065 -0.0033912964 0.004746044 0.04000326 -0.06922772 -0.09403265
0.08499781 -0.089174755 -0.1111142 0.07121295 -0.03562396 -0.006942035 0.0053852554 0.07099035
-0.060471766 -0.076502815 -0.053994812 -0.04528906 -0.047674783 -0.109635554 -0.027586963 -0.13620467
-0.14427903 -0.02478795 -0.09859838 0.054415584 -0.004503527 0.05046735 -0.13231802 -0.04154408
-0.08520444 -0.0030533518 0.06562425 -0.024568582 -0.05174699 -0.03515767 0.035084963 -0.115577795
0.00053967617 0.046091326 -0.053657845 0.0054675587 -0.03260259 0.06696676 0.07726294 -0.06413175
-0.09258853 -0.05953383 0.021738047 -0.07447453 -0.088012 0.018821055 -0.08198827 -0.005498777
-0.10444054 -0.013092401 0.013996587 -0.0046127625 0.046423133 -0.11042894 -0.009934779 -0.09564427
-0.036994815 -0.010413484 -0.12008291 -0.044081286 -0.044359263 -0.035999157 0.07037167 0.094608516
-0.10466461 -0.021616157 -0.021300957 0.03453126 0.01557879 -0.04782204 0.09394473 -0.07957773
-0.022200149 -0.0016405557 -0.08754586 0.07820644 0.11131787 -0.04316063 0.028049523 0.07405417
-0.07613342 0.067506194 0.023312427 0.10978213 0.07748913 0.15478192 -0.040571798 0.025181595
0.11388295 -0.0043096947 -0.033882335 -0.10284704 0.028581917 -0.0020115233 -0.17269012 -0.13183996
-0.0045165773 0.022619078 0.0080967285 0.0714388 0.09804743 -0.0038339545 0.08270828 -0.04875958
-0.025173875 0.012109302 0.13056622 0.050916824 0.058807295 0.08338687 0.07334421 0.07620826
0.02537279 -0.0035588634 0.07429156 -0.08027999 0.061363157 -0.100009896 -0.04431127 -0.03512613
0.047826968 0.015165016 0.041163016 -0.015692426 0.096149184 0.033876438 0.0075975163 -0.05554325
0.013032575 0.0758529 0.11273256 0.051342003 -0.08593532 0.036808874 0.047378298 -0.0818708
0.09646268 0.00477785 0.048990637 -0.05977749 0.008574 -0.014617658 0.11734242 0.11284607
0.050851442 0.11951879 -0.100096665 0.12458148 0.026459053 -0.065977454 0.121275626 -0.0051084496
0.073528245 0.049481645 0.014672601 -0.004891048 0.07515068 0.016041903 0.10037599 0.04892172
0.026970759 -0.011661981 -0.11390648 -0.050107915 0.019465337 -0.09455193 -0.020202119 0.043378845
0.13845935 -0.0021607706 0.004321765 0.04083769 0.028559046 -0.008946638 -0.07443449 -0.07267696
-0.00021621576 -0.042158313 -0.07423786 0.05498749 -0.12513568 -0.029862955 -0.026815768 -0.02348496

0.features.0.1.weight f4 [16]
00000000: 4ec6 833f 1d7d 853f 0918 823f 71cb 703f
00000010: 6eda 853f f637 693f 243e 733f 4e51 793f
00000020: 08ff 893f 0d77 6b3f 9f31 813f 10e7 8f3f
00000030: 1ce6 7b3f bf86 6d3f 0d84 8b3f 0269 6d3f
1.0294893 1.0428807 1.0163585 0.94060427 1.0457284 0.91101015 0.95016694 0.97389686
1.0780954 0.9197853 1.0093268 1.124239 0.98397994 0.9278373 1.0899674 0.92738354

0.features.0.1.bias f4 [16]
00000000: f923 663d 5443 0d3e f345 163e d006 4a3e
00000010: 3a24 823e 3e1a 353e 6075 053e 2859 003e
00000020: 147a 063e 6439 473e 088e 403e 3ef7 f13d
00000030: 643a 373e ab2e 353e dab3 fe3d 4bae de3d
0.05618665 0.13795215 0.14675121 0.19729161 0.25418264 0.17685792 0.13033056 0.1253401
0.13132507 0.19455487 0.1880418 0.11814736 0.17893368 0.17693584 0.12436648 0.108730875

0.features.0.1.running_mean f4 [16]
00000000: fd23 1dbd 0406 83bc 05e2 083d dd93 e2bc
00000010: 690c 22bd b433 223c 2b3f 693c 3d14 f3bc
00000020: 68d0 0d3d 980d 15bd 46dc adbc b4b6 6a3d
00000030: 7323 983c fe55 9bbc 4f3a 9e3d 8695 9a3c
-0.0383644 -0.01599408 0.033418674 -0.027658397 -0.039562616 0.009900022 0.014236252 -0.029672736
0.03462258 -0.036389917 -0.021223199 0.057303146 0.018571591 -0.018961903 0.07725965 0.018870126

0.features.0.1.running_var f4 [16]
00000000: 9369 5d3f be76 223f d3f8 6f3f b637 8d3e
00000010: b869 ee3e dad1 793e e732 c03d 1e94 ec3e
00000020: d100 053f 170e 233f 9118 a03e f85b 7c3f
00000030: 223c 033f 7827 a03e 0510 0b40 2a30 f83d
0.8648922 0.63462436 0.9373905 0.27581567 0.46565032 0.24396458 0.09384709 0.46206754
0.5195437 0.63693374 0.31268743 0.98577833 0.5126363 0.31280112 2.1728528 0.121185616

0.features.1.0.block.0.0.weight f4 [16, 16, 3, 3]
00000000: 19f2 edbc 22b7 8a3e f9cb a53d e578 7b3e
00000010: 5098 87be ea55 403e c1de e8bc 0bba 4abb
00000020: 93e1 c33c 2407 af3c e6e7 083e 09d2 253e
00000030: ed7b 033d 3c4c 8ebb f446 833c 5c84 4a3e
00000040: ee47 803c f0e1 5e3d 71ef a33d c6d0 1abe
00000050: b4d9 8a3d e5c2 763d f244 9abd 3dcb 91be
00000060: af83 93bd 89b7 a9be d443 833d c579 533c
00000070: e509 ed3d 5ce3 13be 168a 8b3c 5344 f5bd
00000080: 5463 8f3d b10e 743d 3b96 d8bd bc1d 38bd
00000090: f8af 2abe d285 463e 10a9 41be 4489 33bc
000000a0: 4792 a53d b700 9a3d e5d5 913b 2caa aa3c
000000b0: d7da 2abd fdb8 923d 11f4 613d 08c5 2abd
000000c0: a5f2 fb3c ae1b f73d 1574 833d e497 e23d
000000d0: e729 13bd da7e 9cbd d033 8c3e eab5 95bd
000000e0: 4d8c 8b3c 33b0 b6ba a1de 913d e99c f9bd
000000f0: 2dea 3d3e 90a4 94bd febe b93d 7fee 633d
00000100: 479f 7c3e 275b 97bb 1cb0 cfbd b6a6 a8bd
00000110: cfdf f03d 9dff ddbd 7938 4c3d eb83 92bc
00000120: 2647 62be 8def b93d f82f b63d f42a 2cbd
00000130: 93f2 13bd 7a49 623e 13fd 703d 50c1 b53d
00000140: 99fb bbbd 36d1 68bd a9ff 6abc 7544 bd3d
00000150: f86f 82bd b7ae 1f3d 3edf 93bc dccb 68be
00000160: f348 80bd 4327 063d c75f fdbd 5ac8 503e
00000170: 81f6 b23d 5c2f 7a3c be82 c3bd c47d 263e
00000180: 5ceb 5b3d f682 a83d 68a7 beba c456 4fbd
00000190: 7a1a 7dbc a6bb e3bd d6ea d23d beba 803c
000001a0: c9a2 983c 837f 8bbd bf61 59be 8cc7 7dbd
000001b0: 5372 d2bd 3f2b 88be 676d 643c e3e4 62bd
000001c0: ee1e af3d 96dd ffbb c299 6a3c fbf8 b73d
000001d0: 0bac 46be d44c f9bc c5e9 b9bd 0499 b53d
000001e0: a276 1cbd a24f a3be 14fa 673d b6b7 d0bb
000001f0: 33cc 033e 3fda ebbd e942 a03d 6d97 f3bd
00000200: 6c2a 36bb a1b5 293b 384e 413d 9165 91bd
00000210: ef04 31be 7244 a4bd 6494 c2bc 3638 9dbc
00000220: 3750 f03d cc2a 113d 1b19 8e3b 7d19 1a3e
00000230: 8d4b ba3c b73f e03d 1a96 42bd d173 233e
00000240: a1d4 ec3d 6654 66bd 6a0d 823c c012 4bbe
00000250: 8404 e73d c234 a5bd 3541 603d e7f9 f6bd
00000260: e423 043e 3768 fb3c 2fdd a73d aa12 febd
00000270: 9d29 3d3d 7890 653d 6009 2a3d 2dc4 ab3b
00000280: 4156 9e3d 231c c3bd 4e3e c5bd 35b7 f5bd
00000290: 0850 4ebd c197 633d ddca 96bd ddc3 1b3d
000002a0: c9de d8bd 3e51 9dbd e4ec 04be 8016 ebbd
000002b0: 462b f13d a0f1 b2bb d638 2ebe c0f2 ccbd
000002c0: d61d d2bd 9974 cdbc 47f6 d5bc 1cfd bf3d
000002d0: e748 10bc cfaa e3bd 8abe 3d3c 966d f8bb
000002e0: e6ee 16be 159b f1bd dba3 4abe 0c20 323d
000002f0: 7b34 1f3d 7f8a 0cbd 29f2 8cbd 8c0d 4a3e
00000300: dd1f 56bd e8f2 c33c d490 803d e7ea e5bb
00000310: 9f50 a4be 6be1 993d 3752 fa3b 1699 2abe
00000320: 4278 c8bd 34d5 b4bd fecd 163d e3cf 093c
00000330: 3aa8 df3c bde7 d4bd d434 97be 2ead ccbc
00000340: d407 db3d 2bbe 623d 6d2a 00be 3601 323e
00000350: daf0 41be 152d 00bc 2115 383b 974a 5bbd
00000360: 96d3 113d 50b7 093d c0ba f4bb 893c 33be
00000370: 5b8e c2bd 622d 6cbe fceb 40bd e708 8d3d
00000380: 208d c53d e9bf 24be b091 c43d 5669 c1bd
00000390: 6334 08bd b934 3fbe 4fca ce3b 1f9e 6b3e
000003a0: 81ee 153d b56c e53d e3a9 e7bc 6495 9abd
000003b0: 6d4b 51bd a41e 4e3d bc87 bcbd eda9 d6bc
000003c0: 7105 abbe 2213 14bc 1e8f 87be 90dc 8bbe
000003d0: d78b 09be 4519 4abe e29d 023e 29f7 e2bd
000003e0: 05ad af3d 0c04 80bd e7d0 41bb c311 803d
000003f0: c48f 06bd 6993 afbc faae 59bd 8f2b 05be
-0.029046105 0.27092844 0.08095545 0.24557836 -0.26483393 0.18782774 -0.02842653 -0.0030933644
0.023911273 0.02136571 0.13369712 0.16193403 0.032100607 -0.004342584 0.016025044 0.19777054
0.015659299 0.05441469 0.08004654 -0.15118703 0.06779805 0.06024446 -0.075326815 -0.2847537
-0.07202851 -0.3314784 0.064094216 0.01290745 0.11574153 -0.144422 0.017033618 -0.119759224
0.07001367 0.059584323 -0.10575529 -0.044950232 -0.16668689 0.19386986 -0.18912148 -0.01095802
0.08084541 0.075196676 0.004450547 0.020833097 -0.04171261 0.0716419 0.0551644 -0.04169181
0.03075535 0.12065826 0.06418625 0.11064127 -0.035928633 -0.076413825 0.2738328 -0.07310088
0.017034674 -0.001393801 0.07122541 -0.12188131 0.18546362 -0.0725795 0.09069632 0.05564737
0.24670134 -0.0046190205 -0.10141012 -0.082349226 0.11761438 -0.1083977 0.049858544 -0.017885169
-0.22097453 0.09078894 0.08895868 -0.04203315 -0.03612001 0.22098342 0.0588351 0.08874762
-0.09178848 -0.056840144 -0.014343181 0.09241573 -0.063690126 0.03898498 -0.018050786 -0.22734016
-0.06263914 0.032752287 -0.12371784 0.20388928 0.08738423 0.01527008 -0.095464215 0.16258913
0.053691253 0.08228104 -0.001454574 -0.050619856 -0.015448207 -0.111197755 0.10298698 0.015714046
0.01863231 -0.0681143 -0.21228693 -0.06195788 -0.10275712 -0.26595494 0.013942099 -0.055394065
0.08550821 -0.0078083975 0.014318885 0.08983036 -0.19401567 -0.030432142 -0.09077791 0.08867076
-0.038199075 -0.31896693 0.056634977 -0.0063695563 0.12870865 -0.115162365 0.07825262 -0.118941166
-0.0027796282 0.0025895613 0.047193736 -0.070994504 -0.17287038 -0.080208674 -0.023752399 -0.019191843
0.1173405 0.035441205 0.004336489 0.15048786 0.022741104 0.10949653 -0.04750643 0.15962149
0.11563993 -0.056232832 0.015875537 -0.19831371 0.11280158 -0.080667034 0.054749686 -0.12059384
0.12904316 0.030689342 0.08196484 -0.12405904 0.046182264 0.05604598 0.041512847 0.005241892
0.077312954 -0.09526851 -0.09631024 -0.119978346 -0.050369292 0.055564646 -0.07362912 0.038028587
-0.10589368 -0.07681511 -0.12980992 -0.11478901 0.11775832 -0.005460933 -0.17013869 -0.100072384
-0.10259597 -0.025080012 -0.02611841 0.09374449 -0.008806444 -0.111165635 0.011581073 -0.007581423
-0.1473957 -0.11797158 -0.19789068 0.043487594 0.03886841 -0.034311768 -0.06882126 0.1973173
-0.05227648 0.023919538 0.06277624 -0.007016528 -0.3209276 0.07513698 0.0076391953 -0.1665996
-0.09788562 -0.08829728 0.036817543 0.00841138 0.027301896 -0.10395763 -0.29532492 -0.024984922
0.106948525 0.05535714 -0.12516184 0.17383274 -0.18939534 -0.007823248 0.0028088766 -0.05353793
0.035602175 0.033622086 -0.0074685514 -0.17503561 -0.094998084 -0.23064187 -0.047100052 0.068864636
0.09646058 -0.16088833 0.095981 -0.09443919 -0.033253085 -0.18672456 0.006310738 0.23009537
0.03660441 0.11202375 -0.02827925 -0.07548025 -0.051097322 0.05032219 -0.09205577 -0.026204074
-0.3340259 -0.009037765 -0.26476377 -0.27316713 -0.13432251 -0.19736202 0.1275554 -0.11082298
0.08577923 -0.06250772 -0.0029573978 0.06253388 -0.03285195 -0.021432595 -0.053145386 -0.13004898

0.features.1.0.block.0.1.weight f4 [16]
00000000: 4734 813f 554f 833f 8ccd 773f c391 6e3f
00000010: 1130 6d3f e65b 773f 9d46 763f 5b3f 6f3f
00000020: e5dc 873f 2964 703f d111 6b3f a86b 7b3f
00000030: f79e 7f3f 11e4 763f db28 743f 468b 843f
1.0094079 1.0258585 0.96798015 0.93191165 0.9265147 0.966246 0.962015 0.9345605
1.0614287 0.9390283 0.9182406 0.98211145 0.99851936 0.9644175 0.9537484 1.0355003

0.features.1.0.block.0.1.bias f4 [16]
00000000: 516b 3cba 3601 b93d 71df 0e3e ff6a 6f3e
00000010: a8f4 2c3b 28f8 903d a115 843d db6e 053e
00000020: f08e 893d 7af7 e73d 4696 593d 55f9 c13c
00000030: 3e2d e83d 7b09 393d abd8 a63d f52c 923d
-0.0007187622 0.09033434 0.13952424 0.2338066 0.0026390944 0.07078582 0.06449438 0.1303057
0.06716716 0.11326499 0.053121828 0.023678461 0.11336754 0.045175057 0.08146795 0.07137481

0.features.1.0.block.0.1.running_mean f4 [16]
00000000: de0d 863d 0bff c4bf 4a73 87bf 5969 183f
00000010: 5c44 e8be cbc1 d5bc f934 133e c4d5 d43d
00000020: ed4a 9abf ebad c43e 9b20 c9bd 760e 18bf
00000030: 595a d5bd 91e6 47be 9af0 ba3d d782 e8bc
0.06545614 -1.5390333 -1.0582058 0.5953575 -0.45364654 -0.026093384 0.14375676 0.10392335
-1.2054116 0.3841394 -0.09820672 -0.59397066 -0.10417623 -0.19521548 0.09127922 -0.028382702

0.features.1.0.block.0.1.running_var f4 [16]
00000000: 7644 cb3f 7b82 1740 9e73 2040 5cb4 843f
00000010: 7b30 4240 d51d 133f a4a8 8b40 7305 ea3f
00000020: 6305 d73f 0ad5 eb3f 18bd 1340 e79c 8340
00000030: 6a0b 4d40 26e3 4340 64a7 a740 a7da 943f
1.5880268 2.367339 2.5070567 1.0367541 3.034209 0.57467395 4.364336 1.8282913
1.6798519 1.8424389 2.3084164 4.112903 3.2038217 3.060739 5.2391834 1.1629227

0.features.1.1.block.0.0.weight f4 [16, 16, 3, 3]
00000000: f59d 043d c57d ccbd ad20 a43d 2dd4 38bc
00000010: dbc2 16be 6937 8cbd cef0 2cbd 9af9 6bbc
00000020: 5270 643d b824 8d3d 7a2a b23c 7b44 3d3d
00000030: 82a5 09be decd 083a 63f2 bd3d 9bf9 273b
00000040: a285 a4bc 1864 f83d f6f4 9dbd 959e 71bd
00000050: 12f7 ebbd 3a66 41be 1ff4 bc3d 9e2c f83d
00000060: 5de0 983d 4ec5 3bbc af9a 5f3e c643 6d3d
00000070: 35d4 783d 2155 16be f186 8fbd 12b3 e9bb
00000080: dfd9 0a3e 9868 9fbe d9ac 2ebc cbfb 11be
00000090: 7f86 e9bd 0b0f 01be 1aa8 58bd 20f2 e83d
000000a0: 4e87 5ebd 5216 403e c56e 0ebd ec9e 743d
000000b0: c792 b53d 9b4a 88bc 1bd4 4b3d 4384 f13c
000000c0: 00cb c93a aa1d 0ebd ed94 6bbd 4e70 e93d
000000d0: 71d1 1a3c cf1b 01bd 3e65 37be 1ddc 0abd
000000e0: d3c1 59bd 63f8 0a3e fa57 30bd cc08 febd
000000f0: 3bcb 90be a05c 143d a6d7 d13d 291c 0ebc
00000100: 26fd f93b e278 24bd c5bb b63b 1c00 f7bc
00000110: c092 113d 5520 333d 4932 b0bc 282e b0bd
00000120: a4c9 1c3d c460 e0bc e667 2e3d ee34 4abd
00000130: 584c 7f3d a356 8fbd bcfc f13d b124 ddbc
00000140: 8a7a f63d 1322 9fbd 756e 08bc 3076 bc3d
00000150: 64ee be3c 5e63 2dbe cac1 40be 37b1 c8bd
00000160: 6ade 8bbd 3825 15be f9bf a3bd 3bb9 adbc
00000170: d95f b5bc eb58 5dbd 120f fdbd 28aa 0cbd
00000180: b871 d83c 57a3 12be c5bf 09bd 367c 8bbd
00000190: 6a5b b53d d59a 5abd fcdd a7bd 05bc ff3d
000001a0: dd57 dbbd 5056 2bbe faba dbbd 1929 0dbe
000001b0: 35b3 f4bc 7725 ae3d d689 fabd 6880 21be
000001c0: a368 e5bc 6de0 b0bd cb90 1cbe c25d d6bd
000001d0: 912e a7bc d1d4 dc3d 0e63 b5bd b10f a23d
000001e0: a02f a03b 0e6f d4bd 723b ccbb a98a 25bd
000001f0: 5c36 a73d a81b 043e 5a68 9dbd d562 2ebe
00000200: 4f54 0abd 5f70 203e b99b 433d 3f51 22bd
00000210: 2b98 d6bd ba26 5a3d 9293 293e 4dbe 41be
00000220: f882 643d b476 1cbe 681f 403e e8a2 d6bd
00000230: 9567 b63d 4668 07be db78 25be 5499 cf3c
00000240: 62a8 16bd d1d8 c93c 5a66 33be 8b09 10be
00000250: a704 093e 0a8d c73c ef40 64bc 0a72 93bd
00000260: e076 7bbe cd25 c63d 0370 3b3d 64d7 2b3e
00000270: 28dd 8a3e 9603 f2bd 2cbb 283d 50d4 863e
00000280: 2656 443d 8328 1b3e 340b 6ebd aeb1 033e
00000290: dd05 153e 9429 343e 2f1a 923c 15e1 853d
000002a0: ad24 4dbe 5a1e ad3d c7c3 5f3e ced5 1abe
000002b0: 0b08 a9bc b6f5 d33d 7438 2e3e 8866 243e
000002c0: 1024 a5bd fe36 c43d 796a 4bbd 7ae5 743e
000002d0: 3a8d 083e a68d 893c 618c 41be 3a53 f13c
000002e0: 5788 1abe 0807 dfbc 3360 203d fcae fcbc
000002f0: 0e49 7ebd dd68 63be a5e6 ee3b 7712 65be
00000300: 0052 b6bc 3af5 e3bd 64e1 52be 0259 00be
00000310: 454a 81bd bf1b e5bd 351a 6dbd 62b5 32be
00000320: a5c5 06be cf4e 09be 4e62 183c b26f 963d
00000330: 7237 97bd 48f6 c73d b82b dcbd c206 01be
00000340: 731c 73be 01eb 713d 5c89 1abe 483d 07bd
00000350: a142 aabc 4665 473d 0736 463d 8e7e 9abe
00000360: ae74 343e 408b 803d 68db b03d ad66 963d
00000370: 926c 643e 8bf5 353e 7bce c43c 8ec2 8dbc
00000380: 6e95 263d dc24 3e3d e7e5 7e3b 84f0 ad3d
00000390: 7949 a2bd 441e 4c3e be32 7abe 531c d7bd
000003a0: 2264 20be eb48 f73c cef8 71bd 2ca0 22be
000003b0: 121a 3f3e a02c 003e 5af8 63bd b5d2 b93c
000003c0: fafa 4dbc 8945 7cbc bcdc 7d3d 6e8f 21bc
000003d0: 4abe 57bd 1f77 573d 9007 293e 060c 293e
000003e0: 5dab 693c b12d cd3d 205a b93d a70f c93d
000003f0: 2b2f 643b 6fdb 1dbe c1b2 5dbd da28 60be
0.032377202 -0.09984926 0.08014045 -0.011281055 -0.14722769 -0.06846506 -0.042221837 -0.014402771
0.05577118 0.06891769 0.02174877 0.046207886 -0.13442042 0.0005218665 0.09274747 0.0025630954
-0.020083252 0.12128466 -0.07712738 -0.058989126 -0.11521734 -0.18886653 0.0922625 0.12117885
0.07464669 -0.011460615 0.21836351 0.057925962 0.06074925 -0.14680912 -0.0700816 -0.0071319425
0.13559674 -0.31134486 -0.010661327 -0.14256208 -0.11402606 -0.12603395 -0.05289469 0.11374307
-0.054328255 0.18758515 -0.034773607 0.059721872 0.08865886 -0.016637137 0.049762826 0.029482013
0.0015395582 -0.03469626 -0.057515074 0.113983735 0.009449349 -0.03152066 -0.17909715 -0.033901323
-0.05316336 0.13571315 -0.04305265 -0.124040216 -0.28280053 0.036221147 0.1024621 -0.008673706
0.0076290546 -0.040154345 0.005576583 -0.03015142 0.035540342 0.043732006 -0.021508353 -0.086025536
0.038278237 -0.027389891 0.042579554 -0.049366884 0.062328666 -0.069989465 0.118157834 -0.026995035
0.12035091 -0.07770171 -0.008327116 0.0920223 0.023307033 -0.16932437 -0.18823925 -0.09799426
-0.068295315 -0.14564979 -0.079956 -0.021206489 -0.02214043 -0.054039877 -0.1235639 -0.03434196
0.026421413 -0.14320122 -0.03363015 -0.06810801 0.088553265 -0.053370316 -0.08196637 0.12487034
-0.10710118 -0.16732144 -0.10729022 -0.13785209 -0.029870609 0.085032396 -0.12233321 -0.1577164
-0.028003996 -0.08636556 -0.15289609 -0.10467102 -0.020407947 0.10782779 -0.08856784 0.07913149
0.00488849 -0.103727445 -0.0062326724 -0.04041544 0.08164665 0.12901175 -0.07685919 -0.17029889
-0.03377181 0.15667866 0.04775593 -0.039628264 -0.104782425 0.05325959 0.165602 -0.1892025
0.055788964 -0.15279657 0.1876198 -0.10480291 0.089064755 -0.13223371 -0.16159384 0.025341667
-0.036781676 0.024639519 -0.17519513 -0.1406614 0.13380681 0.024359245 -0.013931497 -0.071994856
-0.24557066 0.09675179 0.04576112 0.16781384 0.27121854 -0.1181709 0.041194126 0.26333857
0.04793372 0.15152173 -0.058116153 0.12860748 0.14553018 0.17593986 0.017834751 0.065370716
-0.20033522 0.08453055 0.21852027 -0.15120623 -0.020633718 0.103496 0.17013723 0.16054738
-0.08063519 0.095808014 -0.049662087 0.23915663 0.13335124 0.016791176 -0.18901207 0.02945863
-0.15091072 -0.027225032 0.039154243 -0.030845158 -0.06208139 -0.22207971 0.0072906786 -0.22370325
-0.022255898 -0.11130758 -0.20593792 -0.12533954 -0.06312994 -0.11186933 -0.05788632 -0.17452005
-0.13161333 -0.1340897 0.009300781 0.07345523 -0.07383622 0.09763771 -0.10750526 -0.12600234
-0.23741321 0.059062008 -0.15091461 -0.033017427 -0.020783724 0.048680566 0.04839137 -0.3017468
0.17622635 0.0627656 0.086355984 0.073438026 0.22307041 0.17769448 0.024024239 -0.017304685
0.04066985 0.04642187 0.0038894357 0.0849314 -0.0792417 0.1993342 -0.24433419 -0.10503449
-0.15663198 0.030186137 -0.05907517 -0.15881413 0.18662289 0.12517023 -0.05565677 0.02268348
-0.0125720445 -0.015397438 0.061978087 -0.009860856 -0.05267171 0.052603837 0.16506791 0.16508493
0.014262048 0.100184806 0.09050393 0.098174386 0.0034818153 -0.15415739 -0.05412555 -0.21890584

0.features.1.1.block.0.1.weight f4 [16]
00000000: f973 653f 76b0 a23f 35b7 5f3f 09fd 693f
00000010: c547 5a3f a488 593f 058f 6d3f 14f9 6e3f
00000020: e944 603f 9173 6a3f de05 6a3f cfe5 713f
00000030: 7d26 7c3f 4d2f 623f 81a6 773f 9b37 6a3f
0.89630085 1.2710102 0.87388927 0.91401726 0.8526576 0.8497412 0.92796355 0.93348813
0.8760515 0.9158259 0.914152 0.94491285 0.9849623 0.88353425 0.9673844 0.914911

0.features.1.1.block.0.1.bias f4 [16]
00000000: a912 f4bc 9079 0abe f96b 9fbc 5b71 98bd
00000010: 7140 ebbc 221e 21bd c627 cf3c c1e2 873d
00000020: 9a4f 1cbd b5be a63d f2fc febc debe 0f3c
00000030: 2d04 9cbd ee2b d33c b81e 96bc a3b1 11bc
-0.029794054 -0.13522935 -0.019460665 -0.07443496 -0.028717251 -0.039335378 0.02528752 0.06635047
-0.03816185 0.08141843 -0.031126473 0.008773534 -0.07617984 0.025777783 -0.018325195 -0.00889245

0.features.1.1.block.0.1.running_mean f4 [16]
00000000: e500 bcbf c023 03bf d34d 8dbf 5239 f5be
00000010: c742 96be 69a1 4cbf caa3 f9bd 3673 d7bd
00000020: 9468 a2be ba4d 70bf ed5d e73e 2a45 373f
00000030: e9a0 00c0 529b a03e dd33 c7be 0fbf b8bd
-1.4687773 -0.51226425 -1.1039375 -0.47895294 -0.29347822 -0.7993379 -0.121894434 -0.105200216
-0.31720412 -0.938686 0.45188847 0.7158991 -2.0098212 0.313685 -0.38906756 -0.090208165

0.features.1.1.block.0.1.running_var f4 [16]
00000000: 00cb 4840 fbfc ae3f 1638 9a40 90e6 ae40
00000010: 6a98 c140 4802 4f40 a4f1 0541 2680 9640
00000020: b60a 1440 6cef 0841 cec5 1141 b9df 8040
00000030: 0484 b740 b834 9a40 cf91 ea40 9c82 3e40
3.1373901 1.3670954 4.8193464 5.465645 6.049855 3.2345142 8.371494 4.703143
2.3131537 8.558453 9.110792 4.02731 5.734865 4.8189354 7.330299 2.9767218

0.features.2.0.block.0.0.weight f4 [64, 16, 3, 3]
00000000: 1a35 efb9 17f5 003d ce97 cd3d 3a63 92bc
00000010: 75b3 2c3b 6f17 0b3e f9ef 8bbd 9689 fcbc
00000020: bf45 70bd 1b08 10bc 6035 203d 9824 74bc
00000030: 417d c23d d6c5 023d 7e89 21bd f14a 4939
00000040: e252 42bd 930f 14bd 6b94 d23c c653 ddbd
00000050: 3f0d e7bb c2d3 343c e14f d83d a8ad 31bd
00000060: e545 d3bd 0144 043d 7758 9fbd e8cb bd3c
00000070: b038 2fbc fd56 bbbd c65d 0ebc 303d e9bc
00000080: f768 b8bc 3746 85bd 2fef 85bd e27a 5dbb
00000090: abc4 8c3d 53e9 873d 26c3 2b3d f5a1 703c
000000a0: 0414 ac3c c212 9ebb 5d0a a73c a5c8 3c3d
000000b0: a1f8 d2bb 3486 a03d 6b92 33bc 3c63 a0bc
000000c0: cfa3 54bd bf80 f9ba c3cf 853c 9c67 e03c
000000d0: fbca 0cbc 77ca ff3c 7300 a83d 1f76 60bd
000000e0: 751a 793b 5517 84bd 2f05 9d3c fcf2 273d
000000f0: 50aa debd 5b4b e43d 055d b8bc cb11 cbbc
00000100: 325e a1bd 7c22 873c 6006 97bd 0e01 04bd
00000110: 751f 06bc 73b2 c7bc 9e9d dd3c ed17 4c3d
00000120: 9ba0 fd3c 13e3 3bba 8a5d 02bd 1649 da3b
00000130: bae4 d83d 71b1 e73c 7401 02be ae7a d73d
00000140: c60c 943d c8cd 9fbd 35c9 60bd 2307 3cbd
00000150: 20d9 a33d f771 b3bd ac52 bebd b835 5fbd
00000160: 0a2e dc3d 821e e63c 7b9d 253d 4ada 4fbd
00000170: 7acf 3b3d ec5f 9bbd d4f4 263d dc13 b13d
00000180: 01e6 d5bc f025 acbc b9fa 9abd 8664 a9bd
00000190: 565c 62bd 29da 043d 4539 6ebd 6f73 a33c
000001a0: f4cc 603d 998c a33d e4d7 053d beb4 8dbb
000001b0: 21f3 133d f40c d4bd 0cb9 bfbd 1fe3 b9bd
000001c0: 04b3 1b3c 99ba a3bd 3fe7 e7bc 71de 123d
000001d0: c3eb 5fbd 47d2 fbbd 6250 313d 8117 14bd
000001e0: 567f 653d e03d 933d 378f 983c a18b 04bd
000001f0: ceeb f3bc 1ba0 87bd 06d6 c73c 56f5 fdbd
00000200: 858b 9e3c 85f1 f5bc 6c19 bbbc f126 55bc
00000210: 1ca3 7bbd 5cb6 29bc 696e ac3c b2e7 dd3d
00000220: 096c 053d 0b0a 69bd b84a 1d3d 8b2d fc3d
00000230: e906 90bc 15f3 0d3d bf98 2e3d d771 333d
00000240: 295e 22bd aa9e d2bd 420f dc3c 9fa7 5dbd
00000250: 4301 20bd c6ef 803b a766 09bd 3ce1 b23c
00000260: 5701 ce3d 1be7 91bd b328 4a3d 9e95 84bc
00000270: 3a90 3bba 863a 1cbd 6f7d eabd 0c1a cd3c
00000280: 256c 46bd 0072 e23d 3754 a0ba dab9 5c3d
00000290: 5a11 e1bb 457b debd e741 72bd 7176 ba3c
000002a0: d22b e43d 7dc2 653d df57 8fbd fdd5 023c
000002b0: fded 423d eda2 6fbd e019 223b cce7 933d
000002c0: 6df5 1f3d f01e 2dbd ec77 983d 0103 b43b
000002d0: ad1a 12bc 9e3a 88bd 3724 9abd bcfc a6bc
000002e0: 618e 14be d9ab 86bd 28b3 37bd d700 113d
000002f0: ff21 adbc 5ee7 7d3d c35e afbc 040c 9a3d
00000300: b009 edbb 1022 c3bb 5d33 31bc 8b65 28bd
00000310: cef5 253d d3e9 c8bd 6140 11bd 4d85 8eba
00000320: 62e2 fd3c b4ff 6ebb 23ea 103e cb6a 553d
00000330: 8f0f b8bc 0a30 dd3b d665 763d b3ae 233d
00000340: 4b44 a1bc 1b71 e43c fa94 853c 6a55 f9bd
00000350: 838a c03d 9be9 4ebd 0268 a4bd f616 64bc
00000360: f764 843d 2795 873d 8dbd 293c ae29 67bc
00000370: 4e94 9fbb 15e6 a73c 789b 603d e310 c3bc
00000380: 8804 86bd c64b 693d b9ac cfbc 0e0a 893d
00000390: 6d63 4c3c 4d37 54bd b766 c7bc edd5 21bd
000003a0: 6505 ddbc f888 98bd 2d23 4e3d 32e5 a33b
000003b0: f821 bcbd 9e0d 68bd 7c96 56b9 b86c 21bd
000003c0: 9927 853c f496 e23c b692 0ebd 26c1 943b
000003d0: 1d85 d23b 55af 003e 77b7 b6bd c75d 27bd
000003e0: 3d26 1b3e fcd7 56bc 1e8c 213d 9480 783d
000003f0: 2999 113d 1859 903d ab5c 093e ecae 42bd
-0.00045625196 0.031483736 0.1003872 -0.01786958 0.0026352082 0.13583158 -0.068328805 -0.030827325
-0.058660265 -0.008790995 0.039113402 -0.014901303 0.094965465 0.031926952 -0.039437763 0.00019196772
-0.047442324 -0.036147665 0.025705537 -0.10806994 -0.0070511396 0.011036815 0.10562111 -0.043378502
-0.10316066 0.032291416 -0.07780545 0.02316852 -0.010694668 -0.09147451 -0.0086893495 -0.02847156
-0.022510989 -0.06507533 -0.06539761 -0.0033795168 0.06873449 0.066363 0.041934155 0.014687051
0.021005638 -0.0048240134 0.020390684 0.046089787 -0.0064383303 0.07838097 -0.010960202 -0.019578569
-0.051914033 -0.0019035562 0.01633442 0.027393155 -0.008593316 0.031224472 0.08203211 -0.05480015
0.0038010154 -0.06449763 0.01916751 0.041003212 -0.10872328 0.111471854 -0.022505293 -0.024788758
-0.078792945 0.016495936 -0.07374263 -0.03222757 -0.008186211 -0.024377083 0.027052697 0.049827505
0.030960372 -0.00071673206 -0.031827487 0.0066615446 0.10590501 0.028282853 -0.12695867 0.10521446
0.07228999 -0.078029215 -0.054879386 -0.045905244 0.08000398 -0.087619714 -0.09293112 -0.05449459
0.10750969 0.02809072 0.04043339 -0.050745286 0.045852162 -0.07586655 0.04076083 0.08646366
-0.026110651 -0.021014184 -0.07567353 -0.082711264 -0.05526384 0.032434616 -0.058160085 0.019952504
0.05488296 0.07985801 0.032676592 -0.0043245247 0.036120538 -0.10354033 -0.09361467 -0.09076523
0.00950313 -0.07994575 -0.028308509 0.035856668 -0.0546682 -0.122959666 0.04328955 -0.036155228
0.05602964 0.07189536 0.018622978 -0.032359723 -0.029775526 -0.066223346 0.024394047 -0.1240031
0.019353637 -0.030022392 -0.02283927 -0.013009773 -0.06143485 -0.010358419 0.021048741 0.10835208
0.032573733 -0.056894343 0.038401335 0.12313374 -0.01758142 0.03465565 0.04262614 0.043809738
-0.03964058 -0.10284169 0.026862744 -0.054114934 -0.039063703 0.003934833 -0.033545163 0.021835916
0.10058849 -0.07124158 0.04935522 -0.016184624 -0.00071549753 -0.03814175 -0.11449706 0.025036834
-0.04844298 0.110569 -0.0012232129 0.05388818 -0.0068685235 -0.108633555 -0.05914488 0.022761555
0.111411706 0.05609368 -0.06999182 0.007985589 0.047590245 -0.058504988 0.002473466 0.07221946
0.039052416 -0.042265832 0.07444748 0.005493522 -0.008917493 -0.06651805 -0.07526439 -0.020384185
-0.14507438 -0.06575746 -0.04484859 0.03540119 -0.021134375 0.061988227 -0.02140749 0.07521823
-0.007233821 -0.0059549883 -0.010815469 -0.041112464 0.04051762 -0.098102234 -0.035461787 -0.0010873467
0.030991737 -0.003646833 0.14151816 0.0521038 -0.022468356 0.0067501115 0.060155712 0.039961528
-0.019685885 0.027885964 0.01630639 -0.121744946 0.09401419 -0.050515752 -0.080276504 -0.01392149
0.0646457 0.066202454 0.010360134 -0.014109058 -0.004869974 0.020495454 0.054835767 -0.023811763
-0.06543833 0.05695703 -0.025350915 0.06691371 0.012474877 -0.05181055 -0.02434097 -0.039510656
-0.026980111 -0.07448 0.050326515 0.0050016874 -0.091861665 -0.05665361 -0.0002046469 -0.039410323
0.016254233 0.02765987 -0.034807883 0.0045396267 0.0064245597 0.12566884 -0.08921712 -0.040860917
0.15151305 -0.013113018 0.039440267 0.060669497 0.035546456 0.07048243 0.13414256 -0.0475301

0.features.2.0.block.0.1.weight f4 [64]
00000000: 05b0 7d3f 7920 783f b9e6 7c3f f557 743f
00000010: f2b7 6c3f f4e5 793f a6e8 6c3f 3ca6 833f
00000020: 8c16 763f 6dee 823f 4785 6e3f c9bd 653f
00000030: 4c20 7f3f 3c9d 763f f61a 793f ecef 7d3f
00000040: 6aba 803f 45f8 743f bba8 8b3f f6aa 7c3f
00000050: ed09 723f dd7f 823f 92b0 843f d25a 6c3f
00000060: 63c3 773f 6f7a 813f 321a 7e3f ff35 753f
00000070: 9e68 963f cd1f 7b3f c038 793f 90b3 743f
00000080: 3b86 723f adf4 7e3f 55d9 6f3f 224d 7a3f
00000090: fe1b 853f e1b9 6a3f d7f4 753f 3100 843f
000000a0: 8594 7e3f d97b 7a3f 53e6 703f 9c7c 863f
000000b0: 0416 753f 46ab 6c3f 2bb8 713f 6493 813f
000000c0: 3e70 7b3f 84fd 7a3f c120 863f 5f3b 743f
000000d0: 9e3a 783f dc7e 673f 4c72 6f3f 4634 793f
000000e0: 1281 693f 8192 7a3f 2183 813f 5bc4 783f
000000f0: ddf6 933f e9e8 7b3f a3d8 9f3f 4b9a 7a3f
0.9909671 0.9692455 0.98789555 0.9544671 0.9246818 0.97616506 0.92542493 1.0285106
0.96128154 1.0229012 0.93172115 0.89742714 0.99658656 0.9633367 0.97306764 0.99194217
1.0056889 0.9569133 1.0910867 0.98698366 0.94546396 1.0195271 1.0366385 0.9232608
0.9678251 1.0115489 0.9925872 0.95785517 1.1750677 0.980954 0.9735222 0.9558649
0.9473607 0.99592096 0.93691 0.97773945 1.0399168 0.9168988 0.9607672 1.0312558
0.9944537 0.97845227 0.94101447 1.0506778 0.9573672 0.9244884 0.94421643 1.0123105
0.98218143 0.98043084 1.0478746 0.95403093 0.9696444 0.9042795 0.9353378 0.9734539
0.9121257 0.978798 1.0118142 0.97174615 1.1559712 0.9840227 1.2487987 0.9789168

0.features.2.0.block.0.1.bias f4 [64]
00000000: 9fab 843d 314b 913c 3530 b6bc 324c 4d3d
00000010: 88a9 18bd ec88 743d 3eb9 bc3d 1606 553d
00000020: cb49 b13c 03a8 5e3d 6e7b ebbd 8d87 813d
00000030: 5a51 3f3d d4ca 713d 48a3 153d 6870 9e3d
00000040: 3299 ed3d f408 d33c d7b3 febc 19e7 723d
00000050: 2e05 c93d 5577 cf3b f7f3 c4bd 18f2 c13d
00000060: 1d23 683d 57bb 2b3d 8b8e 793c e881 143e
00000070: 4005 c93d b91e 833d 5a77 9b3d 3801 383d
00000080: 178a 2f3d d93b 773d ddd3 b23c fe62 353d
00000090: 11fb 493d b026 e43c 40b0 d03c ef2d a93d
000000a0: c49c 453d d0e7 423d 5f4b b23d 1a23 4f3e
000000b0: 2376 1a3d 10fb beba 4c9d 8c3d 9225 613d
000000c0: f67c ff3d d49e e23c 89a7 ca3c 9eb1 863d
000000d0: 6f2a 883d 2c1d e2bc 04f8 643d c5ca a83d
000000e0: 8014 c23d 7323 c23c 793f aabb 5309 fa3d
000000f0: e946 41bd 2704 473c f26d 20be fd8d 903d
0.064780466 0.01773605 -0.022239784 0.050121494 -0.037271053 0.05970089 0.0921502 0.052007757
0.021641633 0.054359447 -0.11498152 0.063246824 0.046708442 0.059031323 0.03653267 0.077362835
0.11601485 0.025761105 -0.031091614 0.059302423 0.09815441 0.006331364 -0.09616845 0.09470004
0.05667411 0.041926708 0.015231739 0.1450268 0.098154545 0.06402344 0.07591124 0.044923037
0.042856302 0.06035981 0.02182954 0.04428386 0.0493117 0.027850479 0.025474668 0.08260714
0.048245206 0.047584355 0.08705782 0.20228234 0.03771032 -0.0014570672 0.068659395 0.05496747
0.12475006 0.027663626 0.02473809 0.065768465 0.066487186 -0.0276018 0.05590059 0.082418
0.09476566 0.023698544 -0.005195555 0.1220881 -0.047186766 0.012146986 -0.15666941 0.07058332

0.features.2.0.block.0.1.running_mean f4 [64]
00000000: 128c b5be 2c21 31bd cd63 133e aca2 17bf
00000010: a14c 0ebf 0184 b4be 3760 a9be 1067 75be
00000020: 0ff6 eebe d3a4 acbe 53d1 b1bf 2e61 e3be
00000030: 1f64 5fbe 9322 f5be ee3d 473e 3b9a bd3f
00000040: a9dc 893e c85e 01bf d73b 523e 14c1 10bf
00000050: a595 42bf 1a76 bf3e 08f8 a9be 0605 573f
00000060: cfaa aabd 9db4 6f3f 674b 983e f1ce fd3e
00000070: cef1 763e 50dc b63e f877 9cbe 8ad9 d6be
00000080: bdc0 923d 18f4 9b3e 154a 71bf 48d6 aa3e
00000090: 3115 d0bd c801 aabe 84a7 3bbe 1139 683d
000000a0: 4822 19be f69e 9fbe 64b7 fc3d 2fe7 813e
000000b0: ed5a 8fbe 85f9 473d 9d8c 5a3f 0a27 133f
000000c0: 2049 0d3e ad89 9fbe e93b c23d 3020 0d3e
000000d0: f361 e03e 8f19 95bf 721e 83be 77f5 003e
000000e0: 8027 2e3f 3f1b 26bf 8f73 40be a8f7 583f
000000f0: f7fe 5f3e efd7 83be 51ea fd3e b6fa b03f
-0.35458428 -0.043244526 0.1439354 -0.5923259 -0.55585676 -0.3525696 -0.3308122 -0.23965096
-0.46672103 -0.337195 -1.3892006 -0.4441008 -0.21815537 -0.4787794 0.19457218 1.4812692
0.26926163 -0.5053525 0.2053064 -0.56544614 -0.7600959 0.37394792 -0.33197045 0.8399204
-0.083333604 0.9363497 0.29745027 0.49571946 0.24115679 0.3571496 -0.3056028 -0.41962844
0.07165668 0.30459666 -0.94253665 0.3336661 -0.10160292 -0.33204484 -0.18325621 0.056695048
-0.14954484 -0.31175965 0.123396665 0.25371692 -0.27999058 0.048821945 0.8537081 0.57481444
0.13797426 -0.31159726 0.09484083 0.1378181 0.4382473 -1.1648425 -0.25609165 0.12593637
0.6802902 -0.64885324 -0.18794082 0.84752893 0.21874605 -0.25750682 0.49592832 1.3826511

0.features.2.0.block.0.1.running_var f4 [64]
00000000: 6d7e b73f ec82 1e40 c34e ea3f 2153 3640
00000010: cdea d03f 798b 2b40 a459 1e40 18bc 1f40
00000020: ce09 2940 0043 0740 71b4 6240 1a0b b03f
00000030: ce24 8c3f 9eb5 3f40 5788 3140 f74a 2d40
00000040: 388f 983f 4bad 2540 83ee 4f3f 6492 2d40
00000050: d8bf 0240 9212 eb3f ecd9 a43f 5679 0140
00000060: 1448 2840 2eff 9140 69bd 0140 9710 4540
00000070: 2be0 ee3f c664 8140 284a 2f40 37dd 0240
00000080: ad70 6f40 0249 1640 b606 f53f c381 9b40
00000090: 99b0 7f3f 9018 953f 884d 1940 47ef e43f
000000a0: 9664 bd3f b455 5b40 ba46 2240 9075 e23f
000000b0: bbdd 0140 3aa0 a440 af4d 5f40 5fad 0040
000000c0: 9a9e a23f 8860 2b40 4819 5140 5c85 4a40
000000d0: 5705 5540 17a9 1c40 0dac 0f40 3cb6 d73f
000000e0: 7558 ff3f 75a7 4040 c354 2e40 4ff5 cd3f
000000f0: ea07 383f 33bb a23f d16d ab3f b36b a940
1.4335457 2.4767408 1.8305286 2.8488238 1.6321656 2.6803877 2.4742212 2.4958553
2.6412234 2.1134644 3.5422633 1.3753388 1.0948732 2.99546 2.7739465 2.7077005
1.1918707 2.588702 0.81223315 2.71206 2.0429592 1.8365042 1.2879004 2.0230308
2.6293993 4.5624 2.0271857 3.0791376 1.8662161 4.0435514 2.7389011 2.044752
3.7412522 2.348206 1.9142673 4.85959 0.9987884 1.1648121 2.3953571 1.7885522
1.4796321 3.427106 2.5355668 1.7692127 2.0291584 5.144559 3.4891164 2.0105817
1.2704651 2.6777668 3.267168 3.1643896 3.328451 2.4478204 2.2448761 1.6852489
1.994887 3.0102208 2.7239234 1.6090487 0.71887076 1.2713379 1.3392888 5.294397

0.features.2.0.block.1.0.weight f4 [32, 64, 1, 1]
00000000: 78d0 2bbe 1c59 16bd fd28 193c 1288 163d
00000010: 3aa2 3f3e 1157 c9bd 65bd 80be c4bd 57bc
00000020: 0483 033f a53b 133e 2e8d 703e 6f0f 34bf
00000030: c103 543c f6d5 e33d 7b11 e7bd 2caa 923e
00000040: d742 43be c5d9 84bd 354d d9bd f5a9 533e
00000050: 8ad4 5e3d 4cb6 dfbe e0df 723d 4923 6e3d
00000060: 9605 c7be b10b bcbd 16f3 313b 2c05 19be
00000070: ee70 c73d 2bcf 0abe 5f53 a93d 8fe7 8fbd
00000080: e230 f23d 73ee 903b ae17 b33c 3202 92bc
00000090: 3bcc 8abd 3559 ea3d 7647 503e 7a20 ec3e
000000a0: 9a66 183e a5e1 7bbe 9f2f a03d a7b3 053f
000000b0: 5843 ba3e 83e5 a83e f6b5 c7be 9782 843e
000000c0: a071 443e 5fc9 f8be 30e5 bd3e d346 403e
000000d0: f342 75bd 4a45 bdbe 45a1 03bd 49da f4bd
000000e0: 09f8 b43e ba76 f0be 1391 b6bd df92 94bd
000000f0: 2296 2d3e 86d6 abbe ba87 253d 83ce 9b3d
00000100: 9137 d1bd e3e0 493e 89ab ab3e abce 373e
00000110: 6602 a13e f0ad d0bd c2a1 a63e ea0f 99bc
00000120: d0ee c9bd 18d2 e23d 6f3b c0be 38e4 0bbd
00000130: d02c 51bc 1ab7 f33c 4e26 4a3e d61c 0bbe
00000140: 4df4 9abe a2a7 8bbe b722 e1bc 6e64 3f3d
00000150: 06bc 7b3e 04c4 d2bd 81b5 ea3d 76d8 98be
00000160: 5a0a 5dbd 5385 153f 9de6 38be 08dc 8ebe
00000170: 9ed6 afbe 0329 85be 59e2 8abe 0c81 6e3d
00000180: 6b03 3a3e 9dee a3be 5fff 9e3e 9556 573e
00000190: 72ff 463e 0cbc 8fbe 79e9 a43e b03b a23e
000001a0: ca6f 7dbe c19b ddbe 11f7 c8bd 9879 a13e
000001b0: 759a ee3e 4a28 fbbe 42d1 9e3e 0030 763e
000001c0: 94f5 36be bc71 c2be 01b5 89be 5c90 7dbe
000001d0: 67df 893e 3a42 8e3e e333 a53e c2eb 2dbe
000001e0: bca0 8c3e 05f6 2cbd ea9a 07be b0d7 8d3d
000001f0: 7472 c9be d8b3 673e 7cbc 0ebf 0ffd 833c
00000200: 06fd 553e 14a6 2dbc b9c9 09be af16 dd3d
00000210: b44a 843e 4062 8a3d 9410 d2bd 66cc 573e
00000220: dc27 84bd eb6c 223e 6ac5 4e3e 5512 c33d
00000230: 8224 293e bf18 543d 3e76 d5bd 90d9 ffbe
00000240: 7570 df3e d60f 06be ec1d d6be ada0 39be
00000250: 9b16 823d ae9d 683a 069e 83be 2db7 4a3e
00000260: 710b 82be d237 773e fc9e 99bd be22 f93a
00000270: 87ac 0b3e 0ee2 ffbc 5fa1 a53d ef67 423e
00000280: 1749 fe3d 4d7c f73b a286 033e a5ff c73e
00000290: a4a5 cebe 2ae7 553e adf2 45be 69da 463e
000002a0: 3003 01be b68c 143e caec c5bd d639 e5bd
000002b0: 43c1 83be c437 d13e 946f 4d3e b9e0 49bd
000002c0: 7a96 92bd c645 cabd 30b6 263e e9d1 b13e
000002d0: 4487 c13d 23d3 00bf 8bed afbd bce6 7bbe
000002e0: 8fa6 8a3e be00 75be 3190 06be 972e 5f3c
000002f0: 2bed eebd 59dc c53d 733f 1bbf cf88 0b3f
00000300: 8e15 d23e f03a f63d 4bf4 a53e 4472 1bbe
00000310: ca93 b73e 9e89 91be b6f7 2d3e 1dc3 1cbc
00000320: fe93 d1bd 4610 8dbe 5abb 3e3e ace3 3bbe
00000330: fc99 0b3e 1c76 123f 218e 073f 96ef b8bd
00000340: ee18 203e 2e04 b43e 2f0d 53bc 1409 303e
00000350: 0705 393e fd33 173d 3907 13bf b9ca 17be
00000360: 2e90 1a3e 4ee4 d0bc 3846 0f3f 9699 febe
00000370: 1a35 2b3d 848a 94be 4210 82be 16f4 5b3e
00000380: 5cb4 223e 88c0 8a3d 1f1a 613e b2d8 37be
00000390: 9628 743e 90fc d6be 3f3b a63e acc0 1dbe
000003a0: 0d90 0dbf 7fef 60bd 98c1 773e 98ba b23d
000003b0: 4421 bdbe 5385 04bf b83b 6fbd 7311 9cbd
000003c0: 6170 0d3f b6eb 333e 4232 973e de48 8d3e
000003d0: 2b8a febd 5be0 90be 08ce 163e 89d1 7a3d
000003e0: d710 aebe 513f 4c3e 39d9 9c3d 198d 2ebe
000003f0: e102 c1be 95d5 903e 6823 d4be 18b3 2ebe
-0.16778743 -0.036706075 0.009348151 0.03675086 0.18714228 -0.0983106 -0.25144497 -0.013167802
0.5137179 0.14378221 0.23491356 -0.7033605 0.012940348 0.11124794 -0.11282631 0.28645456
-0.19068466 -0.06486849 -0.10610429 0.20670302 0.05440191 -0.4369377 0.059295535 0.05813912
-0.3887145 -0.091819175 0.0027152947 -0.14943379 0.097383365 -0.13555591 0.08267855 -0.07026588
0.1182573 0.0044229566 0.021861877 -0.017823312 -0.06777235 0.11442796 0.2033976 0.46118528
0.1488289 -0.24597795 0.07821583 0.5222725 0.36379504 0.32987604 -0.39006013 0.25880882
0.1918397 -0.48591134 0.3708892 0.18777017 -0.0598783 -0.36966926 -0.03213622 -0.11955697
0.35345486 -0.4696558 -0.089143895 -0.07254576 0.16951802 -0.33562106 0.040412642 0.07607748
-0.102156766 0.19714694 0.33529308 0.17949931 0.31447142 -0.10189426 0.32545286 -0.018684346
-0.09860003 0.110752285 -0.37545344 -0.034153193 -0.012767032 0.029750396 0.19741175 -0.13585219
-0.30264512 -0.2727633 -0.027482374 0.046726637 0.24583444 -0.10291293 0.114604004 -0.29852647
-0.05396495 0.5840656 -0.18056722 -0.27902246 -0.34343427 -0.26007852 -0.27125815 0.058228537
0.18165366 -0.32017985 0.31054208 0.21029122 0.19433382 -0.28073156 0.32209376 0.31686163
-0.24749675 -0.43282893 -0.09812749 0.3153808 0.46602216 -0.49054176 0.31019026 0.24041748
-0.17867118 -0.37977397 -0.26895908 -0.247621 0.26928255 0.27784902 0.3226615 -0.16984466
0.2746638 -0.04222681 -0.13242689 0.06925905 -0.39345133 0.22627199 -0.55756354 0.016111879
0.20897302 -0.010598678 -0.13455857 0.10795342 0.25838244 0.06757021 -0.10257068 0.21074066
-0.06452915 0.15861861 0.20192495 0.09524981 0.16517833 0.051781412 -0.104229435 -0.49970675
0.43640485 -0.13091978 -0.41819704 -0.18127699 0.06351968 0.0008873594 -0.257065 0.19796439
-0.25399354 0.24142388 -0.07501027 0.0019007546 0.13640033 -0.031235721 0.0808742 0.1898496
0.124162845 0.0075526596 0.12844327 0.3906223 -0.4036075 0.20888963 -0.19330855 0.19419254
-0.12598872 0.14506802 -0.096643046 -0.11192672 -0.25733384 0.40862858 0.20062095 -0.049286578
-0.071576074 -0.098765895 0.16280437 0.3473046 0.09449628 -0.5032217 -0.085902296 -0.24599737
0.270802 -0.23926064 -0.13140942 0.013621948 -0.1166633 0.096611686 -0.6064369 0.5450563
0.4103207 0.1202296 0.32412943 -0.15180308 0.35854942 -0.28425306 0.16989025 -0.009568003
-0.102333054 -0.27551478 0.18626156 -0.18348569 0.13632959 0.5721147 0.52951247 -0.090300724
0.1563451 0.3515944 -0.012881561 0.17190963 0.18068324 0.036914814 -0.57432896 -0.14823426
0.15094063 -0.02549949 0.5596652 -0.49726552 0.04179869 -0.2901193 -0.2540303 0.2147983
0.15889114 0.06775004 0.2198262 -0.17953756 0.23843607 -0.41989565 0.32467076 -0.1540553
-0.5529793 -0.0549159 0.24194944 0.08726996 -0.36939442 -0.51765937 -0.05840656 -0.07620516
0.552496 0.17570385 0.2953053 0.27594656 -0.12428697 -0.2829617 0.14727032 0.061234985
-0.33997223 0.19946028 0.076586194 -0.17046012 -0.3769751 0.2828795 -0.41433263 -0.17060506

0.features.2.0.block.1.1.weight f4 [32]
00000000: e101 6c3f ef89 843f 4314 733f e8f4 823f
00000010: e20c 763f 46d9 763f ddec 6e3f 06a1 783f
00000020: e5ba 7a3f 9b73 833f 6aed 673f 972c 783f
00000030: a95f 7a3f c7d2 813f d711 7e3f e835 813f
00000040: 283a 853f 83c1 783f a524 803f 5757 813f
00000050: 8ed4 753f 3a58 7b3f 272f 833f 92a4 863f
00000060: 8480 8a3f e140 7c3f 9a18 803f 7041 7b3f
00000070: 0c03 813f 231f 773f 5ee9 7b3f bf5e 813f
0.92190367 1.0354594 0.9495279 1.023099 0.9611341 0.9642528 0.93330175 0.971207
0.9794143 1.0269655 0.9059664 0.9694304 0.97802216 1.0142449 0.9924597 1.0094576
1.0408373 0.97170275 1.0011183 1.0104779 0.9602746 0.981815 1.0248765 1.0518973
1.082047 0.985365 1.0007508 0.98146725 1.0079055 0.96531886 0.98402965 1.0107039

0.features.2.0.block.1.1.bias f4 [32]
00000000: e387 20bc af77 c0bc 85ff bdbc 6450 8ebb
00000010: 58d3 023b 38d3 d73b b544 f3bc 8ac0 3d3d
00000020: 4597 003d be4a d4bc 650f 213d fb07 f93c
00000030: 17c8 bf3b ed50 6dbc 9711 f03b 1498 5e3d
00000040: 9146 16bc fb4b 93bc 3ca6 a7ba a01d c4bb
00000050: cd83 833b 8e98 3cbd 662b 853b b61b 3339
00000060: d47e efba 6a9c 963b 367c ac3c 7278 9b3b
00000070: afcb a8bc 2d3b 053d 763d 263c 3745 d0bc
-0.009798023 -0.02349457 -0.02319313 -0.0043430794 0.0019962396 0.0065864585 -0.029695848 0.046326198
0.031394262 -0.025914546 0.039321322 0.030399313 0.00585271 -0.014484626 0.0073263156 0.05434425
-0.009172098 -0.017980566 -0.001279063 -0.005984977 0.0040135146 -0.046043925 0.0040640114 0.00017081093
-0.0018272051 0.0045962827 0.021055322 0.004744583 -0.020604936 0.032527138 0.010146489 -0.02542363

0.features.2.0.block.1.1.running_mean f4 [32]
00000000: 8893 0d3e 3c90 17be 2f16 fb3d f319 323e
00000010: 9e6b b53e 5292 c43e 7727 273f 125c abbe
00000020: 3844 c03d 9a27 df3e 9993 883e 238c 6c3d
00000030: edb5 84bf 7658 6fbc 2518 89be 892a 643e
00000040: 30f2 bfbe 02ca 1abf d2ec a63e c19f 28bf
00000050: a828 e33d 0912 903f 7895 bebc 73ff 433e
00000060: ff2b af3e 14f6 b73e ce5d ce3e 3d4d 1bbe
00000070: 8ad1 e63d f59c 843e 709a cc3e 50fe 3cbe
0.1382581 -0.14801115 0.122600906 0.17392711 0.35433668 0.38392884 0.65294594 -0.33468682
0.09388012 0.435849 0.26675108 0.057750832 -1.0368019 -0.014608493 -0.26776233 0.22281851
-0.37489462 -0.6046449 0.32602555 -0.65868765 0.11091739 1.1255504 -0.023264632 0.19140415
0.34213254 0.3592993 0.40305942 -0.15166183 0.11270435 0.25901 0.39961576 -0.18456388

0.features.2.0.block.1.1.running_var f4 [32]
00000000: eb2b 893f 691f ac3f 3c0a 1c40 50c4 6840
00000010: 8c8d 2240 e515 dc3f a825 a840 1104 7c3f
00000020: a55c 3940 5195 5540 2aba b93f 177d 3b40
00000030: a4e5 8240 8513 0d40 13e4 d03f 267b 4740
00000040: 9a3c 6f40 9f38 dd3f 30f5 3640 b645 0140
00000050: 607b 1f3f a67a 2240 f531 f43f b834 c63f
00000060: 2bfe b03f 4cfb 1840 2fab ef3f 043c 3140
00000070: 97f9 5440 7446 8c3f 6783 0e40 a9a4 f73f
1.0716528 1.3447086 2.4381247 3.636982 2.5398893 1.7194182 5.2545967 0.98443705
2.8962796 3.3372386 1.4509938 2.9295099 4.0905323 2.2043164 1.6319603 3.1168914
3.7380738 1.7282904 2.858715 2.0198798 0.6229763 2.5387359 1.9077746 1.5484838
1.3827566 2.390338 1.8724116 2.769288 3.3277338 1.0959 2.2267702 1.9347125
