code/modeling/ckpt/AutoencoderConfig([1, 2, 2], flip=True, rotate=False)/autoencoder_100.pth (torch, 708862 bytes, 97 tensors)

0.features.0.0.weight f4 [16, 8, 3, 3]
0	0xbd1df237	-0.038561072
1	0xbdb4184e	-0.08793698
2	0x3cfea7fe	0.031085964
3	0xbdc562e0	-0.096379995
4	0xbd0597d6	-0.032615505
5	0x3cd9e463	0.026598161
6	0x3d98059b	0.07422944
7	0x3da1741c	0.07883474
8	0x3c90d76b	0.017680844
9	0x3d47f225	0.04881491
10	0x3de980fa	0.114015535
11	0x3db49aec	0.088186115
12	0x3de1b50a	0.110208586
13	0xbdc9cdd0	-0.09853709
14	0xbd9d490b	-0.076799475
15	0xbc4e0485	-0.01257432
16	0x3d53cd2b	0.051709335
17	0xbbef87e0	-0.0073098987
18	0x3da6d06b	0.08145221
19	0x3cefddce	0.02928057
20	0xbc792877	-0.0152074015
21	0x3c49f85d	0.012327281
22	0xbdb83b29	-0.08995659
23	0x3d64d05c	0.05586277
24	0xbdbafcb7	-0.09130233
25	0x3da0c0fc	0.07849309
26	0xbd1e7a11	-0.03869063
27	0xbad43190	-0.0016189087
28	0x3cbce5de	0.023058828
29	0x3d17b2d2	0.03703577
30	0xbc68d854	-0.014211733
31	0x3d71026a	0.058840193
32	0x3b890ef3	0.0041826903
33	0xbd6f3e4a	-0.058409013
34	0x3d1fdab8	0.039026946
35	0x3d4540f9	0.048157666
36	0x3c946dbd	0.018118734
37	0xbd73a950	-0.05948764
38	0xbdc42006	-0.095764205
39	0x3d9a4098	0.075318515
40	0x3dc58ce5	0.09646014
41	0xbdbaa72b	-0.09113916
42	0x3d7ab9cc	0.061212346
43	0x3d32a41f	0.04361355
44	0xbc400c9e	-0.011721758
45	0xbd4b4f39	-0.0496361
46	0xbd2391c6	-0.039933942
47	0xbb83692e	-0.004010341
48	0xbdbec8fb	-0.09315678
49	0x3d2c1439	0.042011473
50	0x3d55a73e	0.052161448
51	0x3db22d44	0.0870004
52	0x3c3b7847	0.011442251
53	0x3ddbf938	0.10740894
54	0xbd6bf886	-0.057610057
55	0xbd6ad123	-0.057328355
56	0x3cd2a42d	0.02571305
57	0x3df427df	0.11921667
58	0xbb9c1cf1	-0.0047641923
59	0xbd2139be	-0.039361708
60	0x3d98cca9	0.07460911
61	0x3dd11e2a	0.102108315
62	0x3db0de6b	0.08636173
63	0x3c1b75db	0.009488548
64	0xbd56f05b	-0.052475315
65	0x3d9982f4	0.074956805
66	0x3ca8a7f8	0.020587906
67	0x3d689421	0.05678189
68	0x3bd18ca2	0.0063949386
69	0xbd575b98	-0.052577585
70	0x3d90b282	0.07065298
71	0x3dd4ddb8	0.10393852
72	0x3d8b2cbc	0.06795642
73	0x3d93eb0c	0.07222566
74	0x3db6f273	0.08932962
75	0xbdece178	-0.11566442
76	0x3dcef1e8	0.10104734
77	0xbd521a53	-0.051294636
78	0x3cb48957	0.022038145
79	0xbd31f3cf	-0.043445405
80	0x3db5b906	0.08873181
81	0x3deba7cf	0.11506616
82	0x3caec1ea	0.0213327
83	0x3ce34c08	0.027746215
84	0xbdef2303	-0.116766
85	0x3dabf22a	0.083957985
86	0xbd8268ef	-0.06367671
87	0x3d9cb034	0.076507956
88	0x3c9000b5	0.017578462
89	0x3d2f885a	0.042854644
90	0x3dca7e69	0.09887392
91	0x3cede262	0.029038612
92	0x3e06fa04	0.13181311
93	0xbb241352	-0.002503593
94	0x3e0e6c57	0.13908516
95	0xbd8f48d4	-0.06996313
96	0xbb27352e	-0.0025513875
97	0x3e016ee0	0.12639952
98	0x3dca85ac	0.09888777
99	0xbd314bed	-0.0432853
100	0x3db75f9e	0.089537844
101	0x3d225ad8	0.039637417
102	0x3d13b55d	0.036061633
103	0x3d06fb05	0.032954235
104	0x3d80a1f9	0.06280894
105	0x3c9bf6a4	0.019038506
106	0xbdfc21d9	-0.123111434
107	0xbb6c8562	-0.0036090245
108	0xbdb24b0b	-0.087057196
109	0x3d713a9a	0.058893777
110	0x3da359dd	0.079761244
111	0x3deee11c	0.1166403
112	0xbd8e3879	-0.06944365
113	0xbcd54b32	-0.026036832
114	0x3db0561a	0.086101726
115	0xbc9efd0a	-0.019407768
116	0x3d09a235	0.03360196
117	0xbcfd3958	-0.030911133
118	0xbdbba970	-0.09163177
119	0xbdd1b7c2	-0.10240127
120	0xbdb0ae84	-0.08627036
121	0xbdab25a2	-0.08356787
122	0x3d905431	0.07047308
123	0xbdc1534c	-0.09439716
124	0xbd18e01b	-0.0373231
125	0x3dbc3f3d	0.09191749
126	0x3c5d0e36	0.013492158
127	0xbcbede2a	-0.023299295
128	0x3dd48c61	0.10378338
129	0x3da39cbd	0.0798888
130	0x3c56dd55	0.013114293
131	0xbd665eb2	-0.056242652
132	0xbcd3a999	-0.025837706
133	0xbd252989	-0.040322814
134	0xbd4769ee	-0.048685007
135	0xbd461426	-0.04835906
136	0xbc3826d0	-0.011239722
137	0xbd45f475	-0.048328836
138	0x3d334075	0.043762643
139	0xbcb9f9cc	-0.02270212
140	0x3cd9e540	0.026598573
141	0x3d711b4c	0.058863923
142	0x3dcd37c5	0.10020403
143	0xbd102c0b	-0.035198253
144	0xbb0ee81f	-0.0021805835
145	0x3cb77dd5	0.022398869
146	0xbdb70105	-0.08935741
147	0xbc0f0621	-0.008729489
148	0x3db5432b	0.08850702
149	0xbdbfde26	-0.09368543
150	0x3d919e0c	0.07110223
151	0x3dd06089	0.101746626
152	0x3ddd9fcd	0.10821495
153	0xbdeabaa9	-0.11461384
154	0x3d734cf1	0.05939955
155	0x3d1ca6b8	0.038244933
156	0x3d49a0ae	0.0492255
157	0xbdddb726	-0.108259484
158	0xbcea8817	-0.028629346
159	0xbd7cb053	-0.061691593
160	0xb9366903	-0.00017395992
161	0xbdb98343	-0.09058239
162	0xbcb3b58f	-0.02193716
163	0x3c9e1d1e	0.019300994
164	0x3d93378b	0.07188328
165	0xbd7e3b31	-0.062068168
166	0x3d93439a	0.07190628
167	0x3dd023df	0.10163092
168	0x3d629cbf	0.055325266
169	0xbda10b4f	-0.07863485
170	0xbd8088f7	-0.06276124
171	0xbd7862b1	-0.060640994
172	0x3a109a76	0.00055161805
173	0x3dfa8c3f	0.12233781
174	0x3dc6bd27	0.09704047
175	0xbb3326d0	-0.0027336366
176	0x3d4c174e	0.049826913
177	0x3dcf34e4	0.1011751
178	0x3da8cc10	0.08242047
179	0x3dceb2c2	0.10092689
180	0xbc153d5a	-0.009108866
181	0xbdc8c30f	-0.098028295
182	0xbc84c4f5	-0.016207198
183	0x3ccbd2e6	0.024880838
184	0x3c08cef5	0.008350124
185	0x3d10ea42	0.035379656
186	0xbc88665e	-0.016650375
187	0x3d2379d6	0.039911114
188	0x3d6995d0	0.057027638
189	0x3d7c8e6d	0.061659265
190	0x3df2c1fe	0.11853407
191	0x3dd60864	0.10450819
192	0x3dc8ec30	0.09810674
193	0xbda507d0	-0.08058131
194	0x3e0043be	0.12525842
195	0xbba94087	-0.005165163
196	0x3c840aa2	0.016118351
197	0x3dbfeccf	0.093713395
198	0xbd5c571a	-0.053794004
199	0xbd00d3e8	-0.03145209
200	0x3dd53c02	0.10411836
201	0x3d625612	0.055257864
202	0x3da27fa3	0.07934501
203	0x3cdad3e7	0.026712371
204	0x3dc630cb	0.09677275
205	0xbd8f6e03	-0.07003405
206	0x3d5fbdb4	0.054624274
207	0x3dc702f8	0.09717363
208	0x3d409242	0.047014482
209	0xbd7c7b12	-0.061640806
210	0xbd865f46	-0.06561141
211	0x3db83ee9	0.08996374
212	0x3c15aaf4	0.009134997
213	0x3db088ae	0.086198196
214	0x3d803356	0.062597916
215	0xbc206696	-0.009790083
216	0xbd0f25ca	-0.034948148
217	0x3dd82d83	0.10555556
218	0x3e0258ef	0.12729238
219	0xbcb5f977	-0.02221368
220	0xbca8ab56	-0.020589512
221	0x3c8811f4	0.016610123
222	0x3ccb56cf	0.024821667
223	0x3deb6632	0.114941016
224	0x3d85ef48	0.0653978
225	0x3c9bead9	0.019032883
226	0x3db31311	0.08743871
227	0xbdca9be7	-0.09893017
228	0x3d2f4c91	0.04279763
229	0xbd59c214	-0.053163603
230	0x3da8d5e3	0.08243921
231	0x3b1f1967	0.0024276616
232	0xbd915d08	-0.070978224
233	0xbdec53d4	-0.115394264
234	0xbdae310d	-0.085054494
235	0xbdb4fb8a	-0.0883704
236	0xbc774df9	-0.015094274
237	0x3dbce9cb	0.0922428
238	0xbd8be564	-0.06830862
239	0x3d327319	0.043566797
240	0x3c82ee92	0.0159829
241	0x3cda5159	0.026650118
242	0xbdebde8d	-0.115170576
243	0xbd870a3a	-0.065937474
244	0x3c29acd0	0.010356143
245	0x3ceaa7e7	0.028644515
246	0x3df33042	0.11874439
247	0xbc8f46a9	-0.017489748
248	0x3b1c20cb	0.0023823257
249	0x3dcbbabf	0.09947728
250	0xbda5932b	-0.08084711
251	0xbdac7174	-0.08420077
252	0x3ca4ee85	0.020133266
253	0xbd3656d9	-0.044516418
254	0xbde33edb	-0.11095973
255	0x3dc47f52	0.09594597

0.features.0.1.weight f4 [16]
0	0x3f807f11	1.0038778
1	0x3f7bb662	0.9832517
2	0x3f80e96a	1.0071232
3	0x3f7f0e77	0.99631447
4	0x3f80d317	1.006442
5	0x3f82b31b	1.0210909
6	0x3f8165d4	1.01092
7	0x3f7999f9	0.9750057
8	0x3f808938	1.0041876
9	0x3f81189b	1.0085634
10	0x3f804f64	1.0024228
11	0x3f7eccba	0.9953114
12	0x3f8041e9	1.0020114
13	0x3f81cf88	1.0141459
14	0x3f80415c	1.0019946
15	0x3f800462	1.0001338

0.features.0.1.bias f4 [16]
0	0x3c720b77	0.014773241
1	0x3b9600d7	0.004577737
2	0x3c1feb10	0.009760633
3	0x3d239bf8	0.039943665
4	0x3ccfa567	0.025347425
5	0x3cd45ccb	0.025923153
6	0x3d210039	0.039306853
7	0x3d0c6e99	0.03428516
8	0x3d51a9c9	0.05118731
9	0x3d17f164	0.037095442
10	0x3d1a7303	0.03770734
11	0xbb896892	-0.004193374
12	0x3d429198	0.04750213
13	0x3cb2b4a6	0.021814656
14	0x3cfa1285	0.030526409
15	0xbb990ea1	-0.0046709334

0.features.0.1.running_mean f4 [16]
0	0x3a088e58	0.0005209199
1	0x38935257	7.024843e-05
2	0x3afc4113	0.0019245468
3	0x39d9823b	0.00041486495
4	0x399f74f4	0.0003041398
5	0xb9aaed47	-0.00032601712
6	0xba320186	-0.0006790388
7	0xba4c011b	-0.0007782147
8	0xba22a484	-0.00062043243
9	0xba9c9bea	-0.0011948321
10	0xba58919e	-0.0008261445
11	0x3a9e9476	0.0012098688
12	0xba1a5ac7	-0.00058881607
13	0x39af5709	0.00033443447
14	0xb996b5b0	-0.00028745597
15	0xb9be3338	-0.00036277785

0.features.0.1.running_var f4 [16]
0	0x3ec8034d	0.39065018
1	0x3e92251a	0.2854393
2	0x3fd4413a	1.6582406
3	0x3e422323	0.18958716
4	0x3f1977c4	0.5994837
5	0x3f492b04	0.7858126
6	0x3eb66fb5	0.356321
7	0x3e09f755	0.13473256
8	0x3e81b779	0.2533529
9	0x3fd30b53	1.6487831
10	0x3f5505e7	0.8321213
11	0x3f2a4d7d	0.6652449
12	0x3ea01836	0.3126847
13	0x3e502b1e	0.20328948
14	0x3e5d38ab	0.21603648
15	0x3e339fa1	0.17541362

0.features.1.0.block.0.0.weight f4 [16, 16, 3, 3]
0	0x3e2b734f	0.16743205
1	0x3b81b594	0.0039584134
2	0x3dea791d	0.11448882
3	0xbd075e97	-0.033049192
4	0x3d5a979e	0.05336725
5	0xbd07d736	-0.033164226
6	0xbd1c5248	-0.038164407
7	0xbc648d91	-0.013949768
8	0x3d40f93d	0.047112692
9	0xbd0eec30	-0.034893215
10	0x3e50f13b	0.20404522
11	0x3e1e158f	0.15437911
12	0x3d3dfc8c	0.046383426
13	0xbc598c53	-0.013278085
14	0xbd882d92	-0.06649317
15	0x3e2ff4af	0.17183183
16	0xbdb4609e	-0.08807491
17	0x3d7e5ffb	0.062103253
18	0x3e4fd942	0.20297721
19	0x3da68b78	0.0813207
20	0xbdc8e209	-0.09808738
21	0x3d3920f9	0.04519746
22	0x3da47f11	0.080320485
23	0xbd686b7b	-0.056743126
24	0xbe291b1d	-0.16514249
25	0x3d3c5ecc	0.045988843
26	0xbe2f81ff	-0.17139433
27	0xbcc4cde1	-0.024023952
28	0xbe86603f	-0.26245305
29	0x3e063248	0.13105118
30	0x3d9a2291	0.07526124
31	0x3d92ee24	0.07174328
32	0xbd7f24b8	-0.062290877
33	0xbe36d234	-0.17853624
34	0x3e2d7882	0.16940501
35	0x3c337418	0.010952972
36	0x3cf24fea	0.029579122
37	0x3e250ef5	0.16118987
38	0x3dddfcd1	0.108392365
39	0x3ce7616f	0.028244702
40	0xbd0fcc1c	-0.035106763
41	0xbe2fda53	-0.17173128
42	0x3c9e209a	0.019302655
43	0xbd1ffd0b	-0.03905968
44	0xbd745c59	-0.059658382
45	0xbc9f88d0	-0.019474417
46	0x3c20884c	0.009798121
47	0xbcb0a4a1	-0.021562876
48	0x3ccf8633	0.025332546
49	0x3e4300c8	0.19043267
50	0x3d106004	0.035247818
51	0xbe526cba	-0.20549288
52	0x3e2ab300	0.16669846
53	0xbe4e4aea	-0.20145765
54	0xbe1cf1a9	-0.15326561
55	0x3b09cb1e	0.0021025608
56	0x3e3afc0e	0.18260214
57	0xbe07d7ce	-0.13265917
58	0xbe59a9f1	-0.21256234
59	0x3dc21d49	0.09478242
60	0x3e66a2c0	0.22523022
61	0xbe0322ab	-0.12806194
62	0xbe3cdd52	-0.18443802
63	0xbd2958a4	-0.0413443
64	0x3e0ebf1b	0.13940088
65	0x3e1ed10a	0.1550943
66	0x3e815177	0.25257465
67	0x3dc099ac	0.094043106
68	0x3db9913a	0.09060903
69	0xbddd680e	-0.108108625
70	0x3d8053f6	0.06266014
71	0x3ec8b602	0.3920136
72	0x3e155b9e	0.1458573
73	0xbe70c9d3	-0.2351449
74	0xbd1b2633	-0.037878226
75	0x3d299ab5	0.041407306
76	0xbc638ade	-0.013888089
77	0x3a2bfd5d	0.00065608864
78	0xbdc00f74	-0.093779474
79	0x3de5c75d	0.11219666
80	0x39e62f1b	0.00043904115
81	0x3df06b1c	0.117391795
82	0xbb81cce3	-0.003961192
83	0xbcab6716	-0.020923179
84	0x3e129c80	0.14317513
85	0xbe6d7240	-0.23188114
86	0xbdb5ecec	-0.0888308
87	0x3e4acc14	0.19804412
88	0xbc513e5e	-0.012771217
89	0xbd7980cd	-0.06091385
90	0x3dbcb9b7	0.0921511
91	0xbdf0c158	-0.117556274
92	0x3e14fb9a	0.14549103
93	0xbd91d6dd	-0.0712106
94	0xbdd340da	-0.10315104
95	0xbb0820f5	-0.0020771597
96	0xbd0f1e0a	-0.034940757
97	0xbe176c79	-0.14787473
98	0x3e63befa	0.2224082
99	0x3e28d876	0.16488823
100	0x3db60396	0.08887403
101	0xbd27b4dc	-0.040943965
102	0xbdea9e00	-0.11455917
103	0xbe0d68e1	-0.1380954
104	0x3d01356c	0.031545088
105	0x3e25e245	0.16199596
106	0xbe05bdd6	-0.13060698
107	0x3db08449	0.086189814
108	0x3e203662	0.15645745
109	0x3e971f5e	0.2951612
110	0x3cdd32f9	0.027001845
111	0x3d4709e9	0.048593435
112	0xbe0bd9a6	-0.13657245
113	0xbd8b3e93	-0.067990445
114	0x3d5139f0	0.051080644
115	0x3d1f6fe2	0.03892506
116	0x3caa7332	0.020806883
117	0xbdb01422	-0.0859759
118	0xbccbaa54	-0.024861492
119	0xbdc251fc	-0.094882935
120	0x3c5560ea	0.013023594
121	0x3e5a0451	0.21290709
122	0x3c54f2ca	0.012997339
123	0xbdcf85b7	-0.10132926
124	0x3e35d2af	0.1775615
125	0x3d96d89f	0.07365536
126	0xbe71a648	-0.23598588
127	0x3e1686ce	0.14699861
128	0xbea059e5	-0.31318584
129	0xbde69a32	-0.11259879
130	0xbde2402f	-0.11047398
131	0xbe3038ad	-0.1720912
132	0xbe1d73cb	-0.15376203
133	0x3d52f1a8	0.051499993
134	0xbde73f50	-0.11291373
135	0x3d35be70	0.04437107
136	0x3dc71476	0.097206995
137	0x3c8f97d1	0.017528446
138	0x3d88111a	0.06643887
139	0x3d8f122c	0.06985888
140	0xbe5c619a	-0.21521607
141	0xbe4eb6e5	-0.20186956
142	0xbe09c473	-0.13453846
143	0xbb0ad7e8	-0.002118582
144	0x3d969fe2	0.07354714
145	0xbe08dec0	-0.13366222
146	0x3d18c95c	0.037301406
147	0xbe2876e4	-0.16451603
148	0xbe2629c3	-0.16226868
149	0xbde0035c	-0.10938141
150	0x3e559d86	0.20860872
151	0xbc059f52	-0.008155661
152	0xbe2bec09	-0.16789259
153	0xbe158991	-0.14603259
154	0x3d0e860c	0.034795806
155	0xbbd83bba	-0.006598917
156	0xbcff4142	-0.031159047
157	0x3d0547c6	0.03253915
158	0xbd37ba6a	-0.044855513
159	0x3e0ac058	0.13549936
160	0x3d0de519	0.034642313
161	0xbe41eb50	-0.18937421
162	0x3c5a1ee4	0.013313029
163	0x3ccf10fc	0.025276653
164	0xbd3d3679	-0.046194527
165	0xbcbb5bcb	-0.022870919
166	0x3da32d34	0.07967606
167	0xbd21de53	-0.039518666
168	0xbdea56aa	-0.11442311
169	0x3dd7a0e5	0.10528735
170	0xbe014238	-0.12622917
171	0xbd443a93	-0.047907423
172	0xbd585483	-0.05281497
173	0x3e512369	0.20423664
174	0x3cafcd91	0.021460326
175	0xbdd875ff	-0.10569381
176	0xbdd63f07	-0.1046124
177	0x3dc416b9	0.095746465
178	0xbd496238	-0.049165934
179	0x3d4dd82d	0.05025499
180	0x3e0114a6	0.12605533
181	0xbe03df0c	-0.12878054
182	0x3e1eb9d9	0.15500583
183	0xbda8a474	-0.08234492
184	0xbe986361	-0.2976332
185	0xbe110be9	-0.141647
186	0xbc85ebab	-0.016347727
187	0xbe39c517	-0.1814159
188	0x3e0d2a80	0.13785744
189	0x3d9ed6f4	0.07755843
190	0x3c540e63	0.012942883
191	0x3e29a41a	0.16566506
192	0xbe38e559	-0.18056239
193	0xbdbcb49a	-0.092141345
194	0xbb26d1cb	-0.0025454636
195	0xbe2c5738	-0.16830146
196	0x3e500a3b	0.20316403
197	0x3e6f77a9	0.2338549
198	0x3e244866	0.16043243
199	0x3cf75b61	0.03019494
200	0xbce191a6	-0.02753527
201	0x3d0d375b	0.03447662
202	0x3e0f4c1c	0.13993877
203	0xbe2e35bc	-0.17012686
204	0x3e61ce0f	0.22051261
205	0x3d68afce	0.056808285
206	0xbc728a14	-0.014803428
207	0xbe083a68	-0.1330353
208	0x3e718754	0.2358678
209	0x3d596750	0.053077042
210	0xbdbf8a89	-0.09352595
211	0xbe080a57	-0.13285194
212	0xbc8f1a99	-0.017468737
213	0x3dcc4ba5	0.099753655
214	0x3e39aa60	0.18131399
215	0x3e05e333	0.13074951
216	0xbd8faeeb	-0.07015785
217	0xba9433e4	-0.0011306969
218	0xbd510eff	-0.051039692
219	0x3ddff94b	0.10936221
220	0xbd1ac42a	-0.037784733
221	0xbdcefa77	-0.10106366
222	0x3d297372	0.041369863
223	0xbe291282	-0.16510966
224	0x3e3c45ba	0.18385974
225	0xbda88e69	-0.082302876
226	0x3db83c73	0.08995905
227	0x3e15ed12	0.14641216
228	0x3e28e7e7	0.16494714
229	0x3c9dcf7e	0.019263979
230	0x3a594dfb	0.0008289513
231	0xbe4f39ee	-0.20236942
232	0xbd7eae3c	-0.06217788
233	0x3d8b18fc	0.06791875
234	0xbe861c75	-0.26193586
235	0x3df9c6a3	0.1219609
236	0xbdcb6526	-0.09931402
237	0xbddc02f4	-0.10742751
238	0xbdc81eda	-0.097715095
239	0x3d65c3c3	0.056094896
240	0xbcd52684	-0.026019342
241	0xbd0a3b68	-0.03374806
242	0x3d9e68ee	0.077348575
243	0xbc0a8f36	-0.008456996
244	0x3dae7931	0.08519209
245	0x3d6ec01c	0.05828868
246	0xbe48737c	-0.19575304
247	0xbda05aba	-0.07829805
248	0x3d2c2aa8	0.042032868
249	0x3d9b0796	0.07569806
250	0xbd66875a	-0.056281425
251	0xbe642173	-0.22278385
252	0xbd1edf36	-0.03878709
253	0x3db5cd0e	0.08877002
254	0xbde6abdd	-0.11263249
255	0xbe03cc01	-0.1287079

0.features.1.0.block.0.1.weight f4 [16]
0	0x3f7bc5ee	0.9834889
1	0x3f7b4ded	0.9816578
2	0x3f803246	1.0015342
3	0x3f7d3d06	0.9892124
4	0x3f7d12a9	0.988566
5	0x3f7ebdb2	0.995082
6	0x3f801842	1.0007403
7	0x3f7a8eec	0.9787433
8	0x3f7e7601	0.9939881
9	0x3f76d4fd	0.96418744
10	0x3f7a999f	0.9789066
11	0x3f8111bc	1.0083537
12	0x3f7da42b	0.99078625
13	0x3f80c93f	1.0061415
14	0x3f7711ba	0.96511424
15	0x3f80f4f0	1.0074749

0.features.1.0.block.0.1.bias f4 [16]
0	0x3c314297	0.010819099
1	0x3c366e6a	0.011134723
2	0x3ce31df6	0.027724247
3	0xbb161262	-0.002289914
4	0xbc0ae56d	-0.008477551
5	0xbc2f241a	-0.01068976
6	0x3c0f9e91	0.0087658325
7	0x3c762e4d	0.015025687
8	0xbcc92da1	-0.02455789
9	0xbc59d4ee	-0.013295395
10	0x3c7265ac	0.014794748
11	0x3c2ce210	0.010551944
12	0x3d4585f5	0.048223455
13	0xbb2d6be7	-0.002646202
14	0xbc50a547	-0.012734718
15	0x3cb76ae1	0.022389831

0.features.1.0.block.0.1.running_mean f4 [16]
0	0x3e0c2793	0.13686971
1	0xbdf7a10b	-0.120912634
2	0xbc67d512	-0.014149921
3	0xbef282ae	-0.47365326
4	0xbe922edb	-0.28551373
5	0xbee06291	-0.438252
6	0x3d91688e	0.0710002
7	0x3ea1fbdd	0.3163747
8	0xbf3c2f3e	-0.73509586
9	0xbcf51354	-0.029916443
10	0x3ebd81c4	0.37013066
11	0x3dac3f93	0.08410563
12	0xbe922ba7	-0.2854893
13	0xbce9c603	-0.028536802
14	0x3e25633f	0.1615114
15	0xbc4f83b9	-0.0126656825

0.features.1.0.block.0.1.running_var f4 [16]
0	0x3f727cb3	0.94721526
1	0x3f5ff51d	0.8748339
2	0x3f7e95dc	0.9944742
3	0x3f844179	1.0332481
4	0x3f181801	0.5941163
5	0x3f6cec91	0.9254847
6	0x3f366867	0.71253055
7	0x3ffe0f77	1.984847
8	0x3f9282ca	1.1446164
9	0x3f8d0ce7	1.1019562
10	0x402076d5	2.507253
11	0x3fb3512c	1.4009147
12	0x3f932aa0	1.1497383
13	0x3f26952d	0.65071374
14	0x3fd92483	1.6964267
15	0x3f1bdf64	0.6088774

0.features.2.0.block.0.0.weight f4 [64, 16, 3, 3]
0	0x3d758832	0.05994434
1	0x3c5935e9	0.013257482
2	0x3d87959a	0.06620331
3	0xbc28bd7e	-0.010299085
4	0x3ce3cd75	0.02780793
5	0x3d59735e	0.05308854
6	0xbd31b5d5	-0.0433863
7	0x3d8270ba	0.06369157
8	0x3d4ac057	0.049499836
9	0x3d1c52c6	0.038164876
10	0xbc6b4cce	-0.014361573
11	0x3cd3c903	0.025852686
12	0x3de1741b	0.110084735
13	0xbd222f6a	-0.039596
14	0xbbcb94ef	-0.0062128226
15	0x3d613d2d	0.054989982
16	0x3d5a1520	0.053242803
17	0xbbc28103	-0.0059357896
18	0xbd302380	-0.043002605
19	0x3ccdc6f1	0.025119277
20	0xbcaa6b9b	-0.020803263
21	0x3db3934e	0.087683305
22	0xbbf0d6f5	-0.0073498436
23	0x3da1dba6	0.07903223
24	0xbcbb80db	-0.022888592
25	0x3cb17c50	0.021665722
26	0xbdca743b	-0.098854505
27	0xbd2d2e3a	-0.042280413
28	0x3a23d1c9	0.0006249217
29	0x3d90eb3f	0.0707612
30	0x3d1aa0bd	0.03775095
31	0xbbbffc93	-0.0058589666
32	0x3dfcb3be	0.123389706
33	0x3c5a634d	0.013329339
34	0xbdabaa85	-0.083821334
35	0xbdbedbd4	-0.09319273
36	0xbcc92e9f	-0.024558363
37	0x3c20729d	0.009792951
38	0xbcb97f0a	-0.022643585
39	0xbd38f843	-0.045158636
40	0xbd8aaf35	-0.06771699
41	0x3df77e0c	0.120845884
42	0xbe113673	-0.14180927
43	0xbd52e61b	-0.051488977
44	0xbd6ccc6d	-0.057812143
45	0x3cb53c4b	0.022123476
46	0xbd6ba588	-0.05753091
47	0xbc815fa2	-0.015792672
48	0xbc8629e5	-0.016377399
49	0x3d2838e9	0.0410699
50	0xbd2b2e61	-0.041792277
51	0x3c698002	0.014251711
52	0x3d0cf730	0.034415424
53	0xbcde5318	-0.027139232
54	0xbcf37064	-0.029716678
55	0x3d35d1d2	0.044389553
56	0x3a0d4402	0.0005388857
57	0x3d8111a8	0.06302196
58	0xbd859828	-0.06523162
59	0x3df368df	0.11885237
60	0xbcbeabf6	-0.023275357
61	0xbd7b8ba2	-0.06141246
62	0xbe250b03	-0.16117482
63	0xbd201e0e	-0.039091162
64	0xbb63d6ca	-0.0034765475
65	0x3d2ff06a	0.042953886
66	0x3dc474c0	0.09592581
67	0xbdc3801f	-0.095459215
68	0xbcf3a07a	-0.029739607
69	0x3d7d6361	0.061862353
70	0xbbf279ef	-0.0073997895
71	0x3dee6d00	0.11641884
72	0xbd864f07	-0.06558042
73	0xbd8382e6	-0.06421451
74	0xbd67b270	-0.056566656
75	0xbd88226e	-0.06647192
76	0x3d881954	0.06645456
77	0xbb9e338d	-0.0048279227
78	0x3d86fc61	0.06591106
79	0x3ca581bf	0.02020347
80	0xbca1f9a4	-0.019772358
81	0x3ca8e0d4	0.020615019
82	0xbde2e481	-0.1107874
83	0x3d3242d0	0.04352075
84	0xbdc9c45a	-0.09851904
85	0x3d13f599	0.036122892
86	0xbda80c05	-0.082054175
87	0xbe095739	-0.13412179
88	0xbba636a8	-0.0050724335
89	0x3db4d81f	0.08830284
90	0x3c232d61	0.00995955
91	0xbd26a229	-0.04068199
92	0xbd0b72b6	-0.034044944
93	0xbd31b4fa	-0.043385483
94	0xbd774670	-0.06036991
95	0x3d244acc	0.040110394
96	0x3d8ee073	0.06976404
97	0xbd6e91a0	-0.058244348
98	0x3c82ec56	0.015981834
99	0xbc8e5cfe	-0.017378327
100	0xbcc8d094	-0.02451352
101	0xbb88b6f8	-0.004172202
102	0xbd8d0e70	-0.06887519
103	0xbd59b085	-0.053146858
104	0x3c97b446	0.018518578
105	0xbd7ded35	-0.061993796
106	0x3d8174aa	0.0632108
107	0x3c120dba	0.0089144055
108	0xbccf5cc5	-0.02531279
109	0xbcad1119	-0.021126317
110	0xbde573e3	-0.11203744
111	0x3c1e9225	0.009678398
112	0xbd13742c	-0.035999462
113	0xbd26b150	-0.040696442
114	0xbc1afa39	-0.009459072
115	0x3e24508c	0.16046351
116	0x3daf6f98	0.08566207
117	0xbce5aeb2	-0.028037403
118	0xbdb03641	-0.08604098
119	0x3ad3f412	0.0016170761
120	0xbd518736	-0.051154338
121	0xbd16ffc6	-0.03686502
122	0xbc7ae92e	-0.015314383
123	0xbc226aaa	-0.009913126
124	0x3c3968a4	0.011316452
125	0x3cc06872	0.023487303
126	0xbd4cc09d	-0.049988378
127	0xb85e6b61	-5.302893e-05
128	0x3cf20a04	0.029545791
129	0x3df74db8	0.120753706
130	0xbdf5db51	-0.12004722
131	0x3d05af4e	0.032637887
132	0x3dac5903	0.08415415
133	0xbd470ac6	-0.04859426
134	0xbd440bcd	-0.047862817
135	0x3cc5ab47	0.024129523
136	0xbce0a374	-0.02742169
137	0x3d0f1237	0.03492948
138	0xbca10290	-0.019654542
139	0xbda9d833	-0.0829319
140	0x3cae3e1c	0.02126985
141	0xbe272702	-0.16323474
142	0x3d4e7e4f	0.050413426
143	0x3d504285	0.050844688
144	0x3d2b01bf	0.041749712
145	0x3d8bdf76	0.06829731
146	0xbde3b920	-0.11119294
147	0x3e1bc807	0.15213023
148	0xbd64eb0e	-0.055888228
149	0xbd59c445	-0.053165693
150	0x3d095c71	0.033535425
151	0x3cf10192	0.029419694
152	0xbc9f33dd	-0.01943391
153	0xbddc201a	-0.107483104
154	0x3daa993a	0.08330007
155	0x3a8f4d10	0.0010933001
156	0x3d1383e9	0.03601447
157	0x3a2546c1	0.00063047936
158	0xbda5a829	-0.08088715
159	0xbd8beb64	-0.068320066
160	0xbc337f57	-0.010955653
161	0x3dc5af4b	0.09652575
162	0xbd586e42	-0.052839525
163	0xbc7da981	-0.015482307
164	0xbb013b43	-0.001971916
165	0x3df780bf	0.12085103
166	0x3dbf321b	0.09335729
167	0x3d0070fc	0.03135775
168	0xbd9d9140	-0.0769372
169	0x3b8c8654	0.004288474
170	0x3d939201	0.072055824
171	0x3c3344e3	0.010941717
172	0x3c7fc5c9	0.0156111205
173	0xbac5f738	-0.0015103584
174	0x3cf17489	0.029474514
175	0x3d0b8892	0.03406579
176	0xbe166cab	-0.14689891
177	0xbd7d3e3c	-0.06182693
178	0x3d6df6c8	0.058096677
179	0x3c0f5f99	0.00875082
180	0x3cbc35d2	0.022974882
181	0x3da96eb2	0.082730666
182	0xbdf81e99	-0.12115211
183	0xbd386506	-0.04501822
184	0x3d65a159	0.056062076
185	0xbc99ec0c	-0.018789314
186	0x3c148e89	0.009067186
187	0xbdac06a5	-0.08399705
188	0x3d52e824	0.051490918
189	0x3c7253d8	0.014790498
190	0xbdc5e939	-0.09663624
191	0x3d6a3756	0.05718168
192	0x3cbab9bb	0.022793641
193	0x3e0e6bb9	0.1390828
194	0x3cf1cb16	0.029515784
195	0x3b5f5a70	0.0034081005
196	0xbd6591bb	-0.056047183
197	0xbca4aa7c	-0.020100825
198	0xbaed3fd7	-0.0018100691
199	0xbd19b0a2	-0.037521966
200	0xbbeba33c	-0.00719109
201	0xbd1fd491	-0.03902108
202	0xbc9ad0be	-0.018898364
203	0x3d6f624b	0.05844335
204	0xbd7ac71f	-0.061225053
205	0xbb9305a1	-0.004486755
206	0xbda08e6d	-0.078396656
207	0xbd8cf78f	-0.068831556
208	0x3c87a6bd	0.016559
209	0x3d6bfec1	0.057616
210	0xbd8a3c1b	-0.067497455
211	0xbded19a3	-0.115771554
212	0xbd29ce52	-0.041456528
213	0xbd387b70	-0.045039594
214	0xbd15fae9	-0.03661624
215	0xbd4df249	-0.05027989
216	0x3db66686	0.089062735
217	0xbb188180	-0.0023270547
218	0x3dad17e4	0.084518224
219	0x3de85dc0	0.113460064
220	0xbd5480ce	-0.05188065
221	0xbd64d075	-0.055862863
222	0x3d8b8bc7	0.0681377
223	0x3cba3e7f	0.022734879
224	0xbd53a00b	-0.0516663
225	0x3dc4a87e	0.0960245
226	0x3d929597	0.07157438
227	0xbcc0d7e2	-0.023540441
228	0x3bd1ea75	0.0064061233
229	0xbb83f9a5	-0.0040275627
230	0x3dc8bdb1	0.09801806
231	0x3c627d1f	0.0138237765
232	0xbd8f6bfd	-0.07003019
233	0xbd051b7e	-0.03249692
234	0x3e14dc15	0.1453708
235	0xbd876ccb	-0.066125475
236	0xbd78ee4a	-0.060774125
237	0xbdb688b0	-0.0891279
238	0xbd2efe69	-0.042723093
239	0xbc384a06	-0.011248117
240	0xbd9a83be	-0.07544659
241	0x3d9c4df5	0.076320566
242	0x3a178d24	0.00057812245
243	0x3d7c55e1	0.061605338
244	0x3d806424	0.062691
245	0xbca0b253	-0.019616282
246	0x3b390d90	0.0028236844
247	0x3d5c6d86	0.053815387
248	0x3c6dd2b6	0.014515569
249	0xbcdb223e	-0.026749726
250	0xbd6432b4	-0.055712417
251	0xbc2a76dd	-0.010404316
252	0x3c4b3acc	0.012404155
253	0xbda230f2	-0.07919492
254	0xbc94861a	-0.01813035
255	0xbc641587	-0.013921148

0.features.2.0.block.0.1.weight f4 [64]
0	0x3f825c44	1.0184407
1	0x3f7be897	0.9840178
2	0x3f7e5a3b	0.9935643
3	0x3f7e6383	0.9937059
4	0x3f812139	1.0088264
5	0x3f807b7e	1.0037687
6	0x3f8069d1	1.0032293
7	0x3f834d6a	1.0258
8	0x3f788781	0.9708176
9	0x3f7ee543	0.99568576
10	0x3f7a9e56	0.9789785
11	0x3f84590f	1.0339679
12	0x3f7f9bca	0.9984709
13	0x3f8014b9	1.0006324
14	0x3f82aaea	1.0208409
15	0x3f7ee2d7	0.9956488
16	0x3f7be02e	0.98388946
17	0x3f83cd95	1.0297114
18	0x3f817ac3	1.0115589
19	0x3f82af4e	1.0209749
20	0x3f80c700	1.006073
21	0x3f800947	1.0002831
22	0x3f82d716	1.0221889
23	0x3f7bf06b	0.98413724
24	0x3f7beec4	0.984112
25	0x3f7e0070	0.9921942
26	0x3f7d3eb1	0.98923784
27	0x3f81048c	1.0079513
28	0x3f818a49	1.0120326
29	0x3f79bb2c	0.97551227
30	0x3f7f840e	0.99810874
31	0x3f7f4a06	0.99722326
32	0x3f82d0dd	1.021999
33	0x3f808660	1.0041008
34	0x3f8017fd	1.0007321
35	0x3f7becea	0.9840838
36	0x3f7b7326	0.9822258
37	0x3f7dc6fd	0.9913176
38	0x3f84c5e1	1.0372888
39	0x3f851878	1.0398092
40	0x3f825f1b	1.0185274
41	0x3f7e4df8	0.9933772
42	0x3f7dde41	0.9916726
43	0x3f8165b3	1.0109161
44	0x3f806944	1.0032125
45	0x3f7fce21	0.999239
46	0x3f7bd36d	0.98369485
47	0x3f8219ec	1.0164161
48	0x3f7a5447	0.9778485
49	0x3f810fd5	1.0082957
50	0x3f806bed	1.0032936
51	0x3f7cc920	0.9874439
52	0x3f814d2f	1.010168
53	0x3f829495	1.0201594
54	0x3f7e70b2	0.9939071
55	0x3f80b929	1.0056506
56	0x3f7d0b2f	0.9884519
57	0x3f79f9bb	0.97646683
58	0x3f7fb1d4	0.9988072
59	0x3f76983f	0.9632606
60	0x3f80357e	1.0016325
61	0x3f817d46	1.0116355
62	0x3f7ebc55	0.9950612
63	0x3f797610	0.97445774

0.features.2.0.block.0.1.bias f4 [64]
0	0x3d21bfba	0.039489485
1	0xbce899d8	-0.02839367
2	0xbae48add	-0.0017436404
3	0x3ce11acd	0.0274786
4	0x3d2a9e58	0.041654915
5	0x3cd86505	0.026415357
6	0x3ca6c213	0.020356214
7	0x3d01de71	0.031706277
8	0x3c335a94	0.0109468885
9	0x3c528ec3	0.01285142
10	0x3c6cc89c	0.014452126
11	0x3c36e381	0.01116264
12	0x3c86be4e	0.016448166
13	0x3d1cdcc9	0.038296495
14	0x3d00c5b4	0.031438544
15	0x3d09b7e5	0.03362264
16	0xbbee2be5	-0.007268416
17	0xbbd72312	-0.00656546
18	0x3ccd9625	0.025096009
19	0x3d11bac8	0.03557852
20	0x3d0ac9b1	0.033883754
21	0x3ca45cbc	0.02006375
22	0x3c0e36dd	0.008680073
23	0xbc6bd73c	-0.014394578
24	0x3be17024	0.0068798233
25	0xba465e3d	-0.0007567143
26	0x3c2581f2	0.010101782
27	0x3cb5aa3d	0.022175903
28	0x3c9c6b8b	0.01909425
29	0xbc4c969d	-0.012487081
30	0x3c9b7773	0.018977856
31	0x3a65edaf	0.00087710744
32	0x3d01f1f5	0.03172489
33	0x3caafb5f	0.020871816
34	0x3ca1e112	0.019760642
35	0xbbe0c82e	-0.006859801
36	0xbc366f7a	-0.0111349765
37	0x3beb7cf0	0.0071865246
38	0x3cebdc6a	0.028791625
39	0x3ce578a0	0.02801162
40	0x3c70522f	0.014668032
41	0x3c239a44	0.00998551
42	0x3a76b9c4	0.00094118365
43	0x3d40a559	0.047032688
44	0x3b2f8a1d	0.0026785203
45	0x3c282575	0.010262837
46	0x3bd0772c	0.0063618626
47	0x3cd8b7c3	0.026454812
48	0x3c775afa	0.015097374
49	0x3d21eaf5	0.039530713
50	0x3b8e9d5d	0.0043522553
51	0xb8b8c9b7	-8.811376e-05
52	0x3ca9f2c9	0.020745652
53	0x3cff4848	0.031162396
54	0x3c8c869d	0.017154032
55	0xb9cadefb	-0.00038694576
56	0x3c48d8cb	0.012258719
57	0xbc0715b1	-0.008244918
58	0x3b20daad	0.0024544403
59	0x3bad43a2	0.0052876035
60	0x3b794edb	0.0038041386
61	0x3c8b2333	0.016984558
62	0x3cb6d2cb	0.02231731
63	0xbbfd154f	-0.0077234874

0.features.2.0.block.0.1.running_mean f4 [64]
0	0xbe831420	-0.25601292
1	0xbc85d2fe	-0.01633596
2	0xbcfd4a98	-0.030919358
3	0x3ec14283	0.37746057
4	0x3e377f80	0.17919731
5	0x3efa04d3	0.48831806
6	0x3ea8adbc	0.3294505
7	0xbeac32e3	-0.33632573
8	0x3f27770b	0.6541602
9	0x3ec19f30	0.37816763
10	0x3b09f365	0.0021049615
11	0xbec5e4ce	-0.38651127
12	0xbe056f7e	-0.13030812
13	0xbdb25a98	-0.08708686
14	0xbf13b9a0	-0.57705116
15	0xbca15f62	-0.019698802
16	0xbeddef75	-0.43346754
17	0x3c889c2e	0.016676035
18	0x3ebe19ab	0.37128958
19	0x3e43cb5d	0.19120546
20	0x3f007538	0.5017886
21	0xbd81032f	-0.06299435
22	0xbefb2cc5	-0.49057594
23	0xbe97ca60	-0.29646587
24	0xbec14d01	-0.37754062
25	0x3dbbea30	0.09175527
26	0xbe0d3f44	-0.13793665
27	0x3e3c65fa	0.18398276
28	0xbe20e4ac	-0.15712231
29	0x3d48caa1	0.049021367
30	0xbebdd1bf	-0.37074086
31	0xbef70735	-0.48247686
32	0x3d02353d	0.031789053
33	0xbef133a0	-0.471097
34	0x3f130972	0.5743629
35	0xbe83410b	-0.2563556
36	0xbe7a7e73	-0.24462299
37	0xbeeda4bf	-0.46414754
38	0xbf744b06	-0.95426977
39	0xbc6e6650	-0.01455076
40	0xbf0a869c	-0.5411165
41	0xbf1d0edf	-0.61350816
42	0xbec55e37	-0.38548443
43	0x3d8d0867	0.06886368
44	0xbe354f1e	-0.17705962
45	0xbe015692	-0.1263068
46	0xbe7089e6	-0.23490104
47	0xbea69618	-0.32536387
48	0x3edc39ce	0.4301285
49	0x3edafb2e	0.4276976
50	0xbe23c474	-0.1599291
51	0xbeec4211	-0.46144155
52	0xbf42b9a8	-0.7606454
53	0xbd37b2e7	-0.04484835
54	0x3d3c671a	0.045996763
55	0xbf4983f2	-0.7871696
56	0xbe0deb72	-0.13859347
57	0x3de0f8fe	0.109849915
58	0xbf46e110	-0.7768717
59	0x3ecb6238	0.39723372
60	0xbef58c2a	-0.479585
61	0xbe214b22	-0.15751317
62	0x3f1de347	0.6167492
63	0x3e64d447	0.22346602

0.features.2.0.block.0.1.running_var f4 [64]
0	0x3e8ed0fa	0.2789381
1	0x3ecd6987	0.40119573
2	0x3eb7efc6	0.3592512
3	0x401fe3bd	2.498275
4	0x3f3f80cb	0.748059
5	0x3ffe2dd6	1.9857738
6	0x3fcbfd2e	1.5936639
7	0x3f6be273	0.9214241
8	0x3f7c3593	0.9851925
9	0x40113421	2.2688067
10	0x3f6f575f	0.9349269
11	0x3eb873c3	0.3602582
12	0x3ec7ab00	0.3899765
13	0x3f6a4bad	0.9152172
14	0x3f46ce8d	0.7765892
15	0x3f26b386	0.6511768
16	0x3f17b914	0.5926678
17	0x3f20e0a3	0.6284277
18	0x3fbaea78	1.4602804
19	0x3f211318	0.6291976
20	0x3fbb9f06	1.4657905
21	0x3f2b8e58	0.67014074
22	0x3e82ffe9	0.2558587
23	0x3f2e30cf	0.68043226
24	0x3f91cc4e	1.1390474
25	0x3f4ff427	0.8123192
26	0x3e722097	0.23645245
27	0x3ece72c7	0.40321943
28	0x3fb39b11	1.4031698
29	0x3f1e29ea	0.61782706
30	0x3f95c145	1.1699606
31	0x3f97aa68	1.1848879
32	0x3f91a45b	1.1378282
33	0x3f7ffc62	0.9999448
34	0x3fabc570	1.3419628
35	0x3f33310d	0.6999672
36	0x3f53270f	0.82481474
37	0x3efffa0d	0.4999546
38	0x40171533	2.360669
39	0x3faf468e	1.3693407
40	0x400d1ac6	2.2047591
41	0x3fb73033	1.4311584
42	0x3f0cc65c	0.5499017
43	0x3fb55081	1.4165193
44	0x3f6b13d8	0.91827154
45	0x3f8a598e	1.080858
46	0x3e7fee0e	0.24993154
47	0x3fac5e9c	1.3466372
48	0x4000959a	2.009131
49	0x3f8b6f3d	1.0893322
50	0x3f3804dc	0.71882415
51	0x3ef4f884	0.47845852
52	0x3f2283e7	0.63482517
53	0x3fc21e02	1.5165408
54	0x3f7c9fb9	0.9868122
55	0x3fdf024f	1.742258
56	0x3e78be44	0.2429133
57	0x3f1d3bd0	0.6141939
58	0x3fab039d	1.3360478
59	0x3fed4495	1.8536555
60	0x3fca1bf2	1.5789778
61	0x3fb2ac27	1.3958787
62	0x3f62944c	0.88507533
63	0x3f068cce	0.525586

0.features.2.0.block.1.0.weight f4 [32, 64, 1, 1]
0	0xbd93bb32	-0.07213439
1	0xbd4f5dc5	-0.050626535
2	0xbe285086	-0.16436967
3	0x3ef65783	0.4811364
4	0xbc937abe	-0.018002864
5	0x3c37cb3e	0.01121789
6	0x3cf35d9e	0.029707726
7	0xbeaa1ca3	-0.33224973
8	0x3cab87c9	0.02093877
9	0x3da3b482	0.079934135
10	0xbe2b0281	-0.16700174
11	0xbd52eeff	-0.051497456
12	0xbe7a6290	-0.24451661
13	0xbe08bbfe	-0.13352963
14	0xbe367640	-0.17818546
15	0xbe70826e	-0.23487255
16	0xbe92bc4d	-0.28659287
17	0x3da673ff	0.08127593
18	0x3d125cad	0.035732914
19	0x3ea0a2d8	0.3137424
20	0x3e70208e	0.23449919
21	0xbe284ac4	-0.16434771
22	0x3e77af80	0.24188042
23	0x3f0a0a70	0.53922176
24	0x3e1d7aee	0.15378925
25	0x3eec0d28	0.46103787
26	0x3d9a788c	0.07542524
27	0xbe7a614a	-0.24451175
28	0x3dc48241	0.095951565
29	0xbef77b56	-0.48336285
30	0x3dae8893	0.08522143
31	0x3e2dec19	0.16984595
32	0xbdb344e0	-0.08753371
33	0x3ed230c3	0.41052827
34	0x3d98f361	0.07468296
35	0x3df6293e	0.12019585
36	0xbd9c3bf2	-0.07628621
37	0xbe778485	-0.24171646
38	0x3df6e4ad	0.12055335
39	0x3e3a02db	0.18165152
40	0x3e3cb21d	0.1842732
41	0x3ea2df74	0.31811106
42	0x3e4a0bff	0.19731139
43	0xbf2ed54c	-0.68294215
44	0x3e824326	0.25441855
45	0xbe61ef08	-0.2206384
46	0xbe4483eb	-0.19190948
47	0x3da5a122	0.08087374
48	0xbe223607	-0.15840922
49	0x3d8a741d	0.06760428
50	0xbd94dca6	-0.07268648
51	0x3e495084	0.1965962
52	0x3ec1361c	0.37736595
53	0xbdb79dcc	-0.08965644
54	0xbd973d6e	-0.07384764
55	0x3e2338ee	0.15939686
56	0x3d9b054e	0.07569371
57	0xbe446e70	-0.19182754
58	0xbe1e84f5	-0.15480407
59	0xbea1b428	-0.3158276
60	0xbc85a63d	-0.01631462
61	0xbee121fd	-0.43971244
62	0xbd1da439	-0.038486693
63	0xbe682ca3	-0.22673278
64	0x3ddf447a	0.10901733
65	0x3e274c22	0.16337636
66	0xbf3b51c5	-0.73171645
67	0xba6fd867	-0.0009149373
68	0x3d120cfb	0.03565691
69	0xbbc3f5f2	-0.0059802467
70	0xbe4b7f82	-0.19872859
71	0xbb748c6e	-0.0037315148
72	0xbdcdad30	-0.100427985
73	0xbd07eac2	-0.033182867
74	0xbd71c19f	-0.059022542
75	0x3f3d317e	0.73903644
76	0x3ea0ae1e	0.3138284
77	0x3e94505b	0.28967556
78	0xbe5ffa4f	-0.21872829
79	0xbeb5756a	-0.35441142
80	0x3ef06974	0.46955454
81	0x3ebe6fa6	0.37194556
82	0xbe2da81f	-0.16958664
83	0xbe37721f	-0.17914627
84	0x3e183467	0.1486374
85	0x3d7f6bce	0.06235867
86	0x3ea7cc87	0.3277323
87	0x3e4c2f4a	0.19939914
88	0xbe837707	-0.25676748
89	0xbe61095b	-0.21976225
90	0x3dce9f93	0.1008903
91	0xbe5acc14	-0.21366912
92	0xbd50a674	-0.050939992
93	0xbca57e95	-0.02020196
94	0xbdf6e3ae	-0.12055145
95	0x3eadd8fb	0.33954605
96	0x3c6d1333	0.0144699095
97	0x3dc1160d	0.09428034
98	0xbe1d35f2	-0.1535261
99	0x3df0106f	0.117218845
100	0xbe005920	-0.12533998
101	0x3cfeffa8	0.031127766
102	0x3ddb7474	0.10715571
103	0x3d86eac8	0.0658775
104	0x3c1f8395	0.009735961
105	0xbe4283f1	-0.18995644
106	0x3e59fab6	0.21287045
107	0xbe0ed802	-0.13949588
108	0x3cc2f3f9	0.023797976
109	0xbeb51b76	-0.35372514
110	0xbc22fade	-0.009947507
111	0x3ecd4a0a	0.4009555
112	0x3ebc9458	0.36831927
113	0xbe74b0a7	-0.23895513
114	0xbd648462	-0.055790313
115	0x3e313af0	0.17307639
116	0x3dcc1c4d	0.099663354
117	0x3e476bef	0.19474767
118	0xbea3b749	-0.31975773
119	0x3ed8079b	0.42193303
120	0xbeaa5c89	-0.33273724
121	0xbeb4ace9	-0.3528817
122	0xbe94624b	-0.28981242
123	0xbd4c3286	-0.04985287
124	0xbe714130	-0.23560023
125	0x3d6d7960	0.05797708
126	0xbec138b9	-0.37738588
127	0xbf38d9d0	-0.72207355
128	0x3d52acad	0.051434208
129	0xbe6a6d05	-0.2289315
130	0x3e356c04	0.17716986
131	0xbe56696b	-0.20938651
132	0x3dab8979	0.0837583
133	0xbe6a75f8	-0.22896564
134	0x3cb5ad2c	0.022177301
135	0x3ebc98ae	0.36835235
136	0x3ea55526	0.32291526
137	0x3e0576da	0.1303362
138	0x3e33fa78	0.17576015
139	0x3ee31436	0.44351357
140	0xbe6fa1e2	-0.23401597
141	0xbef92d32	-0.48667294
142	0xbed41512	-0.41422325
143	0xbefd297d	-0.49445716
144	0xbdfe625a	-0.12421103
145	0x3e0a47ba	0.13503924
146	0x3de4497b	0.11146828
147	0xbf0c5816	-0.5482191
148	0xbde881b5	-0.11352865
149	0xbd14e600	-0.036352158
150	0xbeb6eb53	-0.35726413
151	0x3e8e30a3	0.27771482
152	0xbe3916f8	-0.18075168
153	0xbec8c680	-0.39213943
154	0x3dbc235f	0.09186434
155	0xbd9e05cb	-0.07715949
156	0x3d91cef6	0.07119553
157	0xbd9d494d	-0.07679997
158	0xbded895d	-0.115984656
159	0xbb250017	-0.0025177056
160	0xbe8ae0f3	-0.27124748
161	0xbe0b60f3	-0.13611202
162	0xbe770eb5	-0.24126704
163	0x3d35b4d5	0.044361908
164	0xbe1b64ab	-0.1517512
165	0xbe7f20f4	-0.24914914
166	0x3e40fd86	0.18846712
167	0x3d36c0f1	0.044617597
168	0xbd2fb97d	-0.042901505
169	0x3e149f0c	0.14513797
170	0x3d946214	0.072452694
171	0x3eb8a1e0	0.36061
172	0xbf1107a8	-0.5665231
173	0x3eff0992	0.4981199
174	0xbefb71fa	-0.49110395
175	0x3cae772c	0.02129706
176	0x3e9dfecc	0.30858457
177	0xbdb45487	-0.08805185
178	0xbeb28240	-0.34864998
179	0x3db0e5d5	0.08637587
180	0x3d700cfc	0.058606133
181	0xbf5274b6	-0.82209337
182	0x3d36f3b3	0.044666003
183	0x3e44ea9e	0.19230124
184	0xbdbe8313	-0.09302344
185	0x3f013d85	0.50484496
186	0x3e55804a	0.2084972
187	0xbec3befd	-0.3823165
188	0xbd6eebfa	-0.058330514
189	0x3e25561d	0.16146131
190	0x3ddfb259	0.10922689
191	0xbee13cc7	-0.43991682
192	0xbe131853	-0.14364748
193	0xbf071142	-0.5276071
194	0x3d87352b	0.06601938
195	0xbe264a8d	-0.16239376
196	0xbd52b7bc	-0.051444754
197	0x3ec00977	0.3750722
198	0xbead9243	-0.3390065
199	0xbd7cf13a	-0.06175349
200	0x3e3e3cba	0.18577853
201	0x3d296bb8	0.041362494
202	0xbdbe40ce	-0.09289704
203	0x3e5db657	0.21651588
204	0x3e8792c5	0.26479164
205	0x3dddf8b3	0.10838451
206	0x3db16e90	0.08663666
207	0x3e18da74	0.14927083
208	0xbe3d3188	-0.18475926
209	0x3d39f0e8	0.04539576
210	0xbc3a0f47	-0.011356181
211	0x3d61d363	0.055133235
212	0x3dc22af4	0.09480849
213	0x3e667437	0.2250527
214	0x3d245053	0.040115666
215	0xbcb5db47	-0.022199286
216	0x3e2136d0	0.15743566
217	0xbe946917	-0.28986427
218	0x3db81276	0.08987896
219	0xbdf76b79	-0.12081046
220	0xbe06cbca	-0.13163677
221	0xbef36700	-0.4753952
222	0x3eae2ffd	0.34020987
223	0xbd3311a6	-0.043718003
224	0xbe3fd714	-0.1873439
225	0x3d57c64e	0.052679352
226	0x3c99e9fe	0.018788334
227	0x3d5f1453	0.054462742
228	0x3ec31d1c	0.38108146
229	0xbee9a91c	-0.45636833
230	0xbea13fb4	-0.31493914
231	0x3eb40408	0.35159326
232	0x3eb5e3ab	0.3552526
233	0xbe42b21c	-0.19013256
234	0xbdaa00f6	-0.083009645
235	0xbefe89ac	-0.4971441
236	0x3d8b1fd2	0.067931786
237	0xbdd26b4d	-0.10274372
238	0xbe8feef0	-0.28111982
239	0xbd8083fe	-0.062751755
240	0xbeb78a1a	-0.3584755
241	0x3e2ebabd	0.17063423
242	0x3de9c679	0.11414809
243	0xbe9e9aa6	-0.30977362
244	0xbdf0c3f4	-0.11756125
245	0x3db9714a	0.09054811
246	0x3d60b47d	0.054859627
247	0xbe69fca2	-0.22850278
248	0x3de553ef	0.1119765
249	0xbe433fbb	-0.1906728
250	0x3e5427da	0.20718327
251	0xbe292b95	-0.16520531
252	0xbe46fecc	-0.19433135
253	0xbe13d958	-0.14438379
254	0x3c22b53e	0.009930907
255	0x3e8034b3	0.25040206

0.features.2.0.block.1.1.weight f4 [32]
0	0x3f80a829	1.0051318
1	0x3f826bea	1.0189183
2	0x3f8270bf	1.0190657
3	0x3f809258	1.004466
4	0x3f799d2f	0.9750547
5	0x3f81c5b6	1.0138462
6	0x3f815f3d	1.010719
7	0x3f812956	1.009074
8	0x3f7eb7d5	0.99499255
9	0x3f7eeee0	0.99583244
10	0x3f7f7a7f	0.9979629
11	0x3f801b85	1.0008398
12	0x3f7ced89	0.9879995
13	0x3f809441	1.0045244
14	0x3f8000b6	1.0000217
15	0x3f83a2ee	1.0284097
16	0x3f7a0eec	0.9767902
17	0x3f8204de	1.0157735
18	0x3f7b6cbf	0.9821281
19	0x3f810244	1.0078816
20	0x3f84f60e	1.038759
21	0x3f808d06	1.0043037
22	0x3f816ae1	1.0110742
23	0x3f82a901	1.0207826
24	0x3f81c086	1.0136878
25	0x3f805f5c	1.0029101
26	0x3f8046ad	1.0021569
27	0x3f8159f4	1.0105577
28	0x3f7d593a	0.98964274
29	0x3f7f6dd2	0.9977695
30	0x3f7ee2e3	0.9956495
31	0x3f8382c8	1.0274286

0.features.2.0.block.1.1.bias f4 [32]
0	0xbc288e6f	-0.010287865
1	0xbd3cbd49	-0.046078954
2	0xbc6efdd2	-0.014586883
3	0xbd375981	-0.044763092
4	0x3b912227	0.00442912
5	0xbd6b33aa	-0.057422318
6	0xbbe01e5d	-0.006839557
7	0x3d7ca983	0.061685096
8	0x3d233f18	0.039855093
9	0xbd86d574	-0.06583682
10	0x3a8a3b95	0.0010546321
11	0xbd4eaaa3	-0.0504557
12	0x3c2cf374	0.010556091
13	0xbcca48a0	-0.024692833
14	0xbd11c41c	-0.035587415
15	0x3d586e62	0.052839644
16	0x3d961d31	0.073297866
17	0x3d2b60ca	0.041840352
18	0x3d31a6d1	0.04337198
19	0xbda29022	-0.079376474
20	0x3d313af5	0.043269116
21	0x3d5e9c4f	0.054348286
22	0xbd3b53c4	-0.045734182
23	0x3d258a04	0.040414825
24	0xbd94ed45	-0.07271818
25	0x3be54163	0.00699632
26	0x3d528148	0.051392823
27	0x3d43e769	0.04782811
28	0xb948cbca	-0.00019149404
29	0x3ce09485	0.02741457
30	0xbcc1abf3	-0.023641562
31	0xbd8241bc	-0.06360194

0.features.2.0.block.1.1.running_mean f4 [32]
0	0xbd1d2e58	-0.038374275
1	0xbe132e53	-0.1437314
2	0xbf223226	-0.6335777
3	0xbe8ab1fd	-0.2708892
4	0xbea57525	-0.32315937
5	0xbe43d2a4	-0.19123322
6	0xbce2c0d3	-0.027679836
7	0xbea3d9ed	-0.32002202
8	0xbe6dda7f	-0.23227881
9	0xbe2d838f	-0.16944717
10	0x3e6a6e5a	0.22893658
11	0xbf0f9f5a	-0.56102526
12	0xbeae9430	-0.34097433
13	0xbe27f959	-0.16403712
14	0x3dc2cafe	0.09511374
15	0x3ee9ae97	0.45641014
16	0xbe788277	-0.24268518
17	0xbe7304ae	-0.23732254
18	0x3eb36fbe	0.3504619
19	0xbe0a2151	-0.13489272
20	0x3ee79ff9	0.45239237
21	0xbf0341b1	-0.5127211
22	0xbcae1278	-0.021249041
23	0xbd012c1d	-0.03153621
24	0xbf2c4989	-0.67299706
25	0x3f04bba3	0.5184881
26	0xbd700abf	-0.058604
27	0xbea653e0	-0.32485867
28	0xbeb8b96d	-0.3607897
29	0x3ee1b70e	0.44084972
30	0xbe711fc4	-0.23547274
31	0xbde4fa4a	-0.11180551

0.features.2.0.block.1.1.running_var f4 [32]
0	0x3fc25bc7	1.5184258
1	0x402522e2	2.580254
2	0x3fddf509	1.7340404
3	0x3fccb60e	1.5993059
4	0x3fd01720	1.6257057
5	0x3f991def	1.196226
6	0x40101589	2.2513144
7	0x3fbdac27	1.4818162
8	0x3f899cd1	1.0750982
9	0x3fcd41db	1.6035722
10	0x40977dbe	4.7340994
11	0x400dfe76	2.218656
12	0x3f8bff4e	1.0937288
13	0x3fede113	1.8584312
14	0x3fd5607f	1.6670073
15	0x3feb7485	1.8394934
16	0x3f972e5e	1.1811025
17	0x3fc57e73	1.5429214
18	0x401c6dde	2.4442058
19	0x407e72b7	3.9757516
20	0x3f9435d4	1.1578927
21	0x3f72f486	0.94904363
22	0x3f974356	1.1817424
23	0x40284377	2.6291177
24	0x3fe5155b	1.7897142
25	0x3fd127ba	1.6340249
26	0x40138852	2.3051953
27	0x3fa3a48a	1.2784588
28	0x40169e9e	2.3534312
29	0x3fd406a9	1.6564533
30	0x400af8ef	2.1714437
31	0x4081aaba	4.0520906

0.features.2.1.block.0.0.weight f4 [128, 32, 3, 3]
0	0x3c0e7111	0.008693949
1	0xbdb0670f	-0.08613407
2	0x3c35ade8	0.011088826
3	0x3bcdee18	0.0062844865
4	0x3d3c80a6	0.046021126
5	0x3d79a74d	0.060950566
6	0xbd475808	-0.048667938
7	0xbb8a1221	-0.004213587
8	0x3d4009e4	0.046884432
9	0xbc697d2f	-0.0142510375
10	0xbd26619f	-0.040620442
11	0xbcd9c405	-0.026582727
12	0x3cd73069	0.026268201
13	0x3d53ff7e	0.05175733
14	0xbda2367c	-0.07920548
15	0xbd87f26c	-0.06638035
16	0x3cfc221d	0.030777985
17	0xbb572df2	-0.0032833782
18	0xbcff98f4	-0.031200863
19	0xbc42e0d9	-0.011894428
20	0x3cb58b3b	0.022161117
21	0x3d3ba9b2	0.04581613
22	0x3c3b5a4d	0.011435104
23	0xbd5925d6	-0.0530146
24	0x3c9805a0	0.01855737
25	0xbd339053	-0.04383881
26	0x39e1b812	0.00043052487
27	0xbb46d75e	-0.0030340771
28	0x3d5d4270	0.054018438
29	0xbc5274b6	-0.012845209
30	0xbe19c8b2	-0.15017965
31	0xbdc40993	-0.09572139
32	0x3d3a6267	0.045504
33	0xbd0c6d8b	-0.034284156
34	0xba2c52a0	-0.00065735914
35	0x3d3a0c1f	0.045421716
36	0xbd599f9d	-0.053130735
37	0xbc9f1051	-0.01941696
38	0xbd111cb2	-0.035427757
39	0xbcb3c77b	-0.021945706
40	0x3d2bcdbb	0.041944247
41	0x3d3938eb	0.045220297
42	0xbd0076f0	-0.031363428
43	0xbd94b4d1	-0.072610505
44	0x3d63da50	0.05562812
45	0x3c3e3df8	0.011611454
46	0x3d8cad22	0.0686896
47	0xbd447175	-0.047959764
48	0xbbff4f48	-0.0077914335
49	0xbb31b72b	-0.0027117233
50	0x3d22856e	0.03967803
51	0xbd54974a	-0.051902093
52	0x3d012d63	0.031537425
53	0x3c9a5f7f	0.018844364
54	0xbc7c7531	-0.0154088
55	0xbc51317b	-0.012768145
56	0x3c68f974	0.0142196305
57	0x3d3da30d	0.046298075
58	0x3df01a60	0.11723781
59	0x3ce37404	0.027765281
60	0x3cb369dc	0.021901064
61	0x3d6f1e83	0.058378708
62	0xba8b49ab	-0.0010626813
63	0xbd238d6d	-0.039929796
64	0xbd588aad	-0.052866627
65	0x3d8847e2	0.066543356
66	0x3bfb5c8f	0.007670946
67	0xbc4b197f	-0.012396215
68	0xbdc8587d	-0.09782503
69	0x3d03a4f1	0.032139722
70	0x3d185551	0.03719074
71	0x3d6dfcfa	0.058102585
72	0x3d0aeeda	0.033919193
73	0x3c8e80dd	0.017395431
74	0xbd4ff1a4	-0.050767556
75	0x3dc09b39	0.09404606
76	0x3c9551df	0.018227516
77	0x3d0652eb	0.03279392
78	0x3ddfcb9e	0.10927509
79	0x3d119bf4	0.03554912
80	0x3b8ed6f2	0.0043591196
81	0xbc4a069e	-0.012330679
82	0xbb539208	-0.0032283086
83	0xbd41f3f0	-0.047351778
84	0x3c8abbad	0.016935194
85	0xbcaad9cb	-0.020855805
86	0xbd1a3d67	-0.037656214
87	0x3d387b31	0.04503936
88	0x3db2448a	0.08704479
89	0x3c95dc71	0.018293591
90	0x3d10e195	0.03537138
91	0xbd622bf9	-0.055217717
92	0xbcd3d4c2	-0.025858287
93	0xbd5dd78e	-0.054160647
94	0xbcdd8e7d	-0.027045483
95	0xbd759653	-0.059957813
96	0x3d802cb9	0.0625853
97	0x3d8a17ff	0.06742858
98	0x3b686c2a	0.0035464861
99	0x3cbf1279	0.023324238
100	0x3ccd47cd	0.025058651
101	0xbcea5248	-0.028603688
102	0x3cb95b1b	0.02262645
103	0xbd69d00f	-0.057083186
104	0x3d1f833d	0.038943518
105	0x3ce05d74	0.027388312
106	0x3c2ea22a	0.01065878
107	0xba5d059a	-0.00084313157
108	0x3d08f336	0.03343507
109	0x3d069a89	0.03286222
110	0xbd075115	-0.03303631
111	0xbcd52bb7	-0.026021821
112	0x3b24ffdb	0.0025176916
113	0xbd21bfef	-0.039489683
114	0xb809477e	-3.2729928e-05
115	0x3ccc6e49	0.024954932
116	0x3dd95585	0.10612015
117	0xbcc67f3d	-0.024230594
118	0xbb09de99	-0.002103722
119	0x3cb52009	0.022110002
120	0x3d19a013	0.037506174
121	0xbc72f2c7	-0.01482839
122	0x3d148919	0.03626356
123	0x3c306014	0.010765094
124	0x3ca8335a	0.020532299
125	0xbda75bdc	-0.08171818
126	0x3d1fb164	0.038987532
127	0x3b897a3d	0.00419548
128	0x3c89fcf4	0.01684425
129	0x3d083f65	0.033263583
130	0x3ca837da	0.020534445
131	0xbc4580e8	-0.012054659
132	0x3d8b089a	0.0678875
133	0xbccb7f4d	-0.024840975
134	0x3c0075c0	0.007840574
135	0xbbe8bb3b	-0.0071023977
136	0x3d3e8bba	0.046519972
137	0xbd4a276c	-0.049354002
138	0x3bcd967a	0.0062740417
139	0x3caebffb	0.021331778
140	0x3cef077f	0.02917838
141	0xbc5e984f	-0.013586118
142	0x3b043753	0.0020174577
143	0xbc33cdb8	-0.01097434
144	0x3c82f44a	0.015985627
145	0x3acb74c6	0.0015522472
146	0xbcddb778	-0.027065024
147	0x3b89a331	0.004200362
148	0xbc06a66d	-0.00821839
149	0x3ca170ea	0.019707162
150	0x3bc80602	0.006104232
151	0xbbb24686	-0.005440536
152	0xbce90d60	-0.02844876
153	0xbcf2bb6c	-0.029630385
154	0xbcb37840	-0.021907926
155	0x3be030f9	0.0068417755
156	0x3cd8abcd	0.026449108
157	0x3d1efe7f	0.038816925
158	0xbd6da0eb	-0.05801479
159	0xbc8f940f	-0.017526655
160	0x3c9bda89	0.019025104
161	0x3c2a0dc3	0.010379258
162	0xbca94775	-0.020663956
163	0x3b25c4e4	0.0025294358
164	0x3cc8a571	0.024492951
165	0x3cd0c9bd	0.025486821
166	0x3d82ed79	0.063929506
167	0x3d40b88f	0.04705101
168	0x3d12c3a9	0.035831127
169	0x3ca63d4d	0.020292902
170	0xbc9b0925	-0.018925259
171	0xbc743007	-0.014904029
172	0x3d7acbf1	0.06122965
173	0xbbfd4d63	-0.0077301725
174	0x3dbb6d0e	0.0915166
175	0xbd08e56f	-0.03342193
176	0xbbda983a	-0.006670979
177	0x3cfda4f7	0.03096245
178	0x3bfac40e	0.007652766
179	0xbd9f4f20	-0.07778764
180	0xbc81ee77	-0.01586078
181	0x3d520823	0.05127729
182	0x3d07f433	0.03319187
183	0x3bef978c	0.007311767
184	0xbd80d971	-0.06291474
185	0xbdf2f573	-0.11863222
186	0xbdaddb6e	-0.084891185
187	0x3a6eef05	0.0009114596
188	0x3cbe4970	0.023228377
189	0x3c8b4a67	0.017003251
190	0xbc8330de	-0.016014513
191	0x3cf52b7a	0.029927958
192	0x3bd57db4	0.006515229
193	0xbdd43659	-0.103619285
194	0x3d90a639	0.070629545
195	0x3d8dc395	0.0692207
196	0xbc3baa42	-0.011454167
197	0x3db7ce63	0.08974912
198	0xbc1a8105	-0.009430175
199	0x3c979619	0.01850419
200	0x3bc38e74	0.0059679095
201	0x3bb17f95	0.0054168203
202	0xbc7da117	-0.015480301
203	0xbb4d5caf	-0.0031335761
204	0xbd477ea3	-0.048704755
205	0x3d1fe4bd	0.0390365
206	0x3c922ea3	0.017844504
207	0xbd847c2c	-0.064689964
208	0xbccaadf9	-0.02474116
209	0xbda46d3b	-0.080286466
210	0xbd9529a7	-0.07283335
211	0x3d51ce90	0.051222384
212	0xbcb58909	-0.02216007
213	0x3d24e3bb	0.040256243
214	0x3ca0593a	0.019573797
215	0xb9953e57	-0.0002846594
216	0xbcbee761	-0.02330369
217	0x3a6539fd	0.00087442977
218	0xbd06d798	-0.03292045
219	0x3d18a6dd	0.03726851
220	0xbbc5005c	-0.0060120057
221	0xbd4a27b7	-0.04935428
222	0x3d224c21	0.039623383
223	0xbd69cd04	-0.057080284
224	0xbd7c6e5b	-0.06162868
225	0xbd568d7f	-0.052381035
226	0x3cae18a1	0.021251978
227	0xbc83a4f0	-0.01606986
228	0x3ccc1c2e	0.02491578
229	0x3ca8c4a6	0.020601582
230	0x3ce187f5	0.02753065
231	0xbca77a22	-0.02044398
232	0xbd77c646	-0.060491823
233	0xbda3dc7b	-0.08001038
234	0xbb89448f	-0.004189081
235	0x3cc92a95	0.024556438
236	0x3adf8c1b	0.0017055304
237	0xbd59a694	-0.053137377
238	0xbd058866	-0.032600783
239	0x3c5ad7eb	0.013357143
240	0xbd2f0307	-0.042727496
241	0xbd27d72d	-0.040976692
242	0x3c0c1c81	0.008551718
243	0xbc8e4762	-0.017368022
244	0x3d08bfca	0.03338603
245	0x3c8c9ffb	0.017166128
246	0x3d151ea1	0.036406163
247	0x3c24f808	0.010068901
248	0xbbca4e6d	-0.0061739
249	0xbb8ddcb8	-0.0043292902
250	0xba3a31e1	-0.00071027695
251	0x3d180c5c	0.03712116
252	0x3d82eb16	0.06392495
253	0x3c9fdc7c	0.019514315
254	0x3d815280	0.06314564
255	0x3db643f7	0.08899682

0.features.2.1.block.0.1.weight f4 [128]
0	0x3f7fdd07	0.99946636
1	0x3f81f6a1	1.015339
2	0x3f818b71	1.0120679
3	0x3f7bc825	0.9835227
4	0x3f7e417f	0.9931869
5	0x3f80fa76	1.0076435
6	0x3f806687	1.0031289
7	0x3f7d7399	0.99004513
8	0x3f79b960	0.97548485
9	0x3f80a1f6	1.0049427
10	0x3f7e8379	0.9941936
11	0x3f7f9912	0.9984294
12	0x3f7bcabf	0.9835624
13	0x3f7bfec5	0.9843562
14	0x3f7dfb54	0.9921162
15	0x3f7e8785	0.99425536
16	0x3f805690	1.0026417
17	0x3f7c1713	0.9847271
18	0x3f811541	1.0084611
19	0x3f810742	1.008034
20	0x3f7d5bf6	0.98968446
21	0x3f820ddf	1.0160483
22	0x3f83287d	1.0246731
23	0x3f7f942f	0.99835485
24	0x3f7f2c0e	0.996766
25	0x3f855685	1.0417029
26	0x3f801031	1.0004941
27	0x3f7bab21	0.98307997
28	0x3f833744	1.0251241
29	0x3f7d029b	0.988321
30	0x3f80c618	1.0060453
31	0x3f81ac44	1.0130696
32	0x3f7e31c3	0.9929468
33	0x3f82e217	1.0225247
34	0x3f7cee7a	0.98801386
35	0x3f7cbea5	0.987284
36	0x3f812f22	1.0092509
37	0x3f80d5fc	1.0065303
38	0x3f7ec7b7	0.9952349
39	0x3f803e2f	1.0018977
40	0x3f81a860	1.0129509
41	0x3f81bdaf	1.0136012
42	0x3f80874e	1.0041292
43	0x3f7ad36b	0.9797885
44	0x3f804e55	1.0023905
45	0x3f7c8838	0.98645353
46	0x3f7a1ceb	0.97700375
47	0x3f7c8add	0.9864939
48	0x3f806a60	1.0032463
49	0x3f7d3e13	0.9892284
50	0x3f811fa9	1.0087787
51	0x3f82b990	1.0212879
52	0x3f7f1816	0.9964613
53	0x3f8004a2	1.0001414
54	0x3f821b09	1.01645
55	0x3f7cc175	0.9873269
56	0x3f835582	1.026047
57	0x3f7c9095	0.98658115
58	0x3f7e546f	0.99347585
59	0x3f8072cc	1.0035033
60	0x3f83cfc8	1.0297785
61	0x3f79fc8a	0.9765097
62	0x3f7fbcff	0.9989776
63	0x3f7d151e	0.9886035
64	0x3f800e7f	1.0004424
65	0x3f80bd83	1.0057834
66	0x3f809393	1.0045036
67	0x3f7c8b39	0.98649937
68	0x3f7eafeb	0.9948718
69	0x3f7e7b13	0.99406546
70	0x3f8034d2	1.001612
71	0x3f80f867	1.0075806
72	0x3f7ffd27	0.99995655
73	0x3f80bc60	1.0057487
74	0x3f838a3f	1.0276564
75	0x3f839b61	1.0281793
76	0x3f809644	1.0045857
77	0x3f7e61c1	0.9936791
78	0x3f81ac47	1.01307
79	0x3f826b8b	1.018907
80	0x3f7e6e12	0.99386704
81	0x3f7d3352	0.98906434
82	0x3f7d4a2e	0.98941314
83	0x3f7cf6ae	0.98813903
84	0x3f7f23b0	0.9966383
85	0x3f80b3ce	1.0054872
86	0x3f7e69b0	0.99380016
87	0x3f801816	1.000735
88	0x3f7eb16a	0.9948946
89	0x3f8317e8	1.0241671
90	0x3f7f115b	0.9963586
91	0x3f7db9a4	0.9911139
92	0x3f83aa99	1.0286437
93	0x3f806130	1.0029659
94	0x3f7cea2d	0.98794824
95	0x3f7dd672	0.9915534
96	0x3f7ec463	0.9951841
97	0x3f7c337f	0.98516077
98	0x3f814ee1	1.0102197
99	0x3f81ded7	1.014613
100	0x3f7bfa0c	0.98428416
101	0x3f801bc3	1.0008472
102	0x3f7e5328	0.99345636
103	0x3f7ff2f4	0.9998009
104	0x3f7ddb13	0.99162406
105	0x3f81238d	1.0088974
106	0x3f80669e	1.0031316
107	0x3f7ae59f	0.98006624
108	0x3f7c7f71	0.9863196
109	0x3f7b4faa	0.9816843
110	0x3f7eb94c	0.9950149
111	0x3f7e6076	0.9936594
112	0x3f80a14d	1.0049225
113	0x3f8024b7	1.0011204
114	0x3f7cc646	0.9874004
115	0x3f8341f4	1.0254502
116	0x3f80d6d7	1.0065564
117	0x3f801d2d	1.0008904
118	0x3f82d4c5	1.0221182
119	0x3f7ef690	0.99594975
120	0x3f807ec5	1.0038687
121	0x3f7cde3b	0.98776597
122	0x3f822206	1.0166633
123	0x3f7e5af3	0.9935753
124	0x3f7c3a38	0.98526335
125	0x3f830255	1.0235087
126	0x3f80ab8d	1.0052353
127	0x3f805775	1.002669
