code/modeling/ckpt/AutoencoderConfig([1, 2, 1], flip=False, rotate=True)/autoencoder_35000.pth (torch, 517442 bytes, 78 tensors)

0.features.0.0.weight f4 [16, 8, 3, 3]
000000 15 39 86 3d db df bc 3c a2 a5 60 3d 1f bd ec bc
       0.06553856 0.023055961 0.05484546 -0.028898774
000010 d6 df 85 be e4 8b cf bd c1 41 6e bd 9a 16 9b be
       -0.26147336 -0.10134104 -0.058168177 -0.3029068
000020 f7 72 cb bd c0 98 06 bd 48 62 24 3c c3 df cd bc
       -0.09934037 -0.032860518 0.010033198 -0.025131112
000030 fe 3b 12 3d b2 10 10 3e 8f e3 9a 3d 5e 74 04 3c
       0.035701744 0.14068869 0.075629346 0.008084385
000040 85 0a 02 3e 05 22 93 3c 1e 59 54 3d db 5d 38 bd
       0.12699325 0.017960558 0.0518428 -0.045011383
000050 81 c3 ef 3c 53 2a 9c bd a6 7f 8f bd 3f 92 97 bd
       0.029268028 -0.0762526 -0.07006769 -0.07400941
000060 ff 86 c0 3c 1b dd 8f be b5 fc 84 bd 47 bd 10 3d
       0.023501871 -0.28098378 -0.064935125 0.03533676
000070 dc 22 46 3d 25 99 6a 3d 1d aa d8 bc a0 93 7d bd
       0.04837309 0.057274956 -0.026448304 -0.061908364
000080 d1 a7 05 3d 9a 2f de bc b3 77 2c bd dc 29 97 3c
       0.032630745 -0.027122308 -0.04210634 0.018452577
000090 ca 79 af 3c 2c 2c 87 bd 85 8c c0 bb 43 95 ba bd
       0.021420378 -0.06600222 -0.0058761262 -0.09110501
0000a0 a8 3c 27 bd 7f c4 a5 bd 03 ac 15 bd 09 c6 a7 bd
       -0.04082933 -0.08094119 -0.036540996 -0.08192069
0000b0 19 cb 82 3c 00 8a 61 3c c0 f8 90 3a 0a 12 86 3c
       0.015965985 0.013765812 0.0011060461 0.016366024
0000c0 01 2c 21 bd 40 98 9c bb 2b dd 6d 3c 50 25 05 bd
       -0.039348606 -0.004778892 0.014518063 -0.032506287
0000d0 88 ab 86 3c 19 07 fd 3c 9c aa ab 3c bb 91 cf bb
       0.016439214 0.030887173 0.020955376 -0.006334511
0000e0 62 5f d7 3c ea 96 91 bc 43 3f db 3d 54 6d 30 3d
       0.0262906 -0.017772157 0.107054256 0.043073013
0000f0 55 85 8f 3b 10 51 8c 3d 2e d5 5e 3d 9c 03 b3 3c
       0.004379908 0.06851399 0.054402523 0.021852307
000100 23 d3 72 bc 3f 8b 45 bb 65 10 1e 3d bd ca d3 3d
       -0.014820847 -0.0030142812 0.038589854 0.10341404
000110 9c 38 52 3d 3a e8 bc bb 18 fa d4 3d 42 4a ec 3a
       0.05132352 -0.0057649883 0.10399264 0.0018027502
000120 28 b4 b7 3d a0 f2 9c bb f9 c1 34 3d cb c5 9f bd
       0.08969909 -0.0047896653 0.0441303 -0.07801398
000130 60 3a d2 bd 57 86 b3 bd 3c fc 67 3d 0a ba b2 bd
       -0.102650404 -0.08765858 0.056637034 -0.087268904
000140 97 86 11 3a 02 a0 a6 3c 60 38 17 be f0 0f 6a bb
       0.00055513665 0.02033997 -0.14767599 -0.0035715066
000150 48 0a 65 bd 3f 1d 86 be e5 38 59 be 98 ae 8d 3c
       -0.055918008 -0.26194188 -0.2121311 0.017295167
000160 71 8f 27 be 48 72 81 bc 1b d1 b7 bc b6 78 ca 3c
       -0.16363312 -0.015801564 -0.022438576 0.024715763
000170 bc 5f bb bc 77 d5 19 3d a0 2b 1b be 3e 73 46 3d
       -0.022872798 0.03755709 -0.1515336 0.048449747
000180 6b a7 29 bd bb 01 5e 3e 4c 63 38 3d 16 2e 13 bd
       -0.041419428 0.21680348 0.045016572 -0.035932623
000190 9b 4d 2c bc ad 67 83 3d a9 16 47 3d d8 90 9e bd
       -0.010516549 0.06416259 0.048605595 -0.077424705
0001a0 fa 05 ab 3c c0 2d 89 3c a3 25 02 bd 46 e5 17 3d
       0.020876873 0.016745448 -0.031774174 0.037083887
0001b0 bc 24 51 3d 96 ca ad 3b ec 34 10 3c a5 41 42 3d
       0.051060423 0.005303691 0.00880168 0.047425885
0001c0 da e3 ad 3c 4a b1 b9 3a a8 66 44 3d 88 91 a4 bb
       0.021226812 0.0014167216 0.047949463 -0.0050222315
0001d0 9c ea 42 3d 3e f9 24 bc 14 c7 09 bd 1e 3b 1c bd
       0.047587022 -0.01006919 -0.03363712 -0.038142316
0001e0 35 a9 80 bd 1a 75 3e bd 0d 61 95 bd 66 84 96 bd
       -0.06282274 -0.046498396 -0.072939016 -0.07349472
0001f0 3d fc 63 bd 9e c6 55 bd a2 44 29 bd 75 75 cd 3c
       -0.055660475 -0.05219137 -0.04132522 0.025080422
000200 60 7c 29 bd be c4 52 bd c2 4e 89 bc 12 65 09 bd
       -0.04137838 -0.05145716 -0.016761187 -0.033543654
000210 cb c9 8e bc 0d a9 6e 3c 26 e9 8f bc ae b5 a0 3d
       -0.017430207 0.014566672 -0.017567229 0.07847153
000220 c7 a3 db 3d ec e5 74 3c 49 d1 30 3d 85 0c d9 3c
       0.107245974 0.014947396 0.04316834 0.026495228
000230 e0 1f c3 3c bc 86 fe 3c 3b 4f f6 3d 84 4d ac 3b
       0.02381891 0.031070106 0.12026831 0.005258264
000240 b7 a3 7c bd dd 04 fb bb 6c 70 6c bd 52 21 9a 3c
       -0.06167957 -0.007660492 -0.0577244 0.018814716
000250 6e 52 8c bd d2 4e 9c bc 58 96 cb 3a e9 1b 9e 3d
       -0.0685166 -0.019080553 0.0015532477 0.07720167
000260 c8 69 75 3d a4 06 e2 bc 88 99 c0 bd d0 98 93 bb
       0.059915334 -0.027591057 -0.09404284 -0.0045043007
000270 a7 cd f4 bc 25 28 5a bd 28 d7 a5 3c 02 5c a0 bc
       -0.029883219 -0.05326094 0.020244196 -0.019575123
000280 71 91 ef bc 44 89 f5 bb 99 5a bf 3b 6f af 2b 3b
       -0.029244157 -0.00749317 0.0058396575 0.0026197096
000290 69 a4 c4 3b dc f7 23 3b dd d5 f9 bc d1 10 e8 bd
       0.0060010445 0.0025019562 -0.030497486 -0.113313325
0002a0 37 06 57 bd 6a 82 a5 3c 49 fb f6 bc 5d c6 02 bd
       -0.05249616 0.020203788 -0.030149119 -0.031927455
0002b0 89 bc 98 3d 17 ec 0e 3c 8a db de 3d 0a 78 45 3e
       0.07457835 0.00872328 0.108817175 0.19284073
0002c0 f0 93 be 3d b3 3c 05 3e f4 5c 82 3e 6a 5e 8f 3d
       0.093055606 0.13011436 0.25461543 0.0700043
0002d0 c8 95 c5 bb 65 8d 5e 3d d3 9b 8c 3c c7 5f 7c bd
       -0.006029818 0.054334063 0.017164147 -0.061614778
0002e0 6f c9 5b 3d b6 7e cc bd c5 70 ac 3c 08 ab 3a 3e
       0.0536589 -0.09985106 0.021049866 0.18229306
0002f0 b5 5f 63 bd d3 88 43 bd d0 a7 b5 3c 3f b7 97 bd
       -0.055511195 -0.047737908 0.022174746 -0.07407998
000300 6d fc 21 bc ab 3f cb 3d 56 dc 52 bd 40 a8 90 bd
       -0.009886843 0.09924253 -0.05147966 -0.07063341
000310 f7 0d b0 3d 81 f2 db bd 04 08 fe bc 36 37 52 3d
       0.085964136 -0.10739613 -0.031009682 0.051322185
000320 e3 22 08 bd 33 72 3f 3d 8b 37 12 3e 94 94 29 3d
       -0.033236396 0.04673977 0.14279 0.04140146
000330 d5 82 29 bd c4 25 70 3d 38 ad 54 bb 67 db 47 bc
       -0.041384537 0.058629766 -0.003245188 -0.012198306
000340 1c 3d 83 3d 02 2f 75 3b 23 da 7b 3d 1e a7 23 3e
       0.0640814 0.0037412052 0.06148733 0.15981719
000350 54 7f 15 3e 7c ea 78 bd f8 18 19 3e a9 81 da 3d
       0.14599353 -0.060770497 0.14950931 0.10669262
000360 55 4b 5c bd 31 c1 8d 3d ee 91 7c bd c2 f1 a7 3d
       -0.05378278 0.06921614 -0.061662607 0.082004085
000370 8f 94 2d 3e 18 59 f3 bc c8 98 05 bd 1a 53 12 3e
       0.16951202 -0.02970557 -0.032616407 0.14289513
000380 08 45 a9 bd 7b a8 ca 3c 55 8d b3 3d f9 b8 0f 3c
       -0.0826512 0.02473854 0.08767191 0.008772128
000390 5d bd b9 3d 0c 3e 23 3e 42 f5 36 bd 79 7a ea 3c
       0.09069321 0.15941638 -0.04466749 0.028622853
0003a0 48 82 05 3e ad 0a 5d 3d 72 69 35 3c 81 0f a7 bc
       0.1303798 0.05396526 0.011072503 -0.020393135
0003b0 78 3e 75 bc e7 06 13 bd f2 d4 d4 3b 0b 3b 62 3d
       -0.014968507 -0.035895254 0.0064951116 0.05523209
0003c0 b1 57 f5 3b ef 0f 4b 3d 68 23 32 bd 64 88 11 bd
       0.0074872603 0.049575742 -0.043490797 -0.035530463
0003d0 58 db 15 bd fe 08 66 3b ab cb 0a 3d 03 87 4d 3d
       -0.036586136 0.0035100575 0.03388564 0.050177585
0003e0 76 73 ae 3b 31 2d b9 bc 41 4a be 3d 49 8f 1b bd
       0.0053238226 -0.022604557 0.092915066 -0.037978444
0003f0 06 10 31 bd 3c 6a fc bd f9 09 1a bd df 8b a7 bd
       -0.04322817 -0.1232495 -0.037607167 -0.08180975

0.features.0.1.weight f4 [16]
000000 0c ea 1d 3f 36 85 13 3f ed 3c 39 3f 5f fd f0 3e
       0.6168525 0.5762514 0.7235859 0.47068307
000010 0f 06 16 3f 07 fa 05 3f dc db 49 3f 25 14 0b 3f
       0.58602995 0.52334636 0.78851104 0.54327613
000020 71 a6 2e 3f 95 05 2d 3f 22 6b 29 3f 1a 85 03 3f
       0.6822272 0.6758664 0.66179097 0.5137497
000030 17 07 41 3f fa cd 22 3f 7d 0d 06 3f e1 ba 60 3f
       0.75401443 0.63595545 0.5236433 0.87785155

0.features.0.1.bias f4 [16]
000000 6c 3f 07 3e c7 3b ae 3d 3c 0a 29 3e cd a9 92 3f
       0.13207787 0.085074954 0.1650781 1.1458069
000010 b6 0a 00 bb 79 87 c4 3d 4b 63 02 3e f6 12 c0 3e
       -0.0019537634 0.09596152 0.1273319 0.37514466
000020 c9 c9 37 be d0 16 f0 3e aa 0d dd 3e 58 6c fe 3e
       -0.17948069 0.46892405 0.43174487 0.49692035
000030 be d4 1d 3d 4b 64 71 3e a8 6b 4a 3f 50 6f 6c be
       0.038532965 0.23573415 0.7907052 -0.23089337

0.features.0.1.running_mean f4 [16]
000000 ff b7 51 3c 19 ec e4 3c 32 6b 8a 3d 10 0f c7 bc
       0.012800216 0.027944611 0.06758727 -0.024299175
000010 fb 92 0b bc f8 6a e3 3c 1c fa a9 3d 0f ad bd bc
       -0.00851893 0.027760968 0.08299658 -0.02315381
000020 b0 8f de 3c 8e 75 9d 3c 96 ff e3 bc 19 46 08 bd
       0.027168125 0.019221094 -0.027831834 -0.033269975
000030 07 2a 89 bd be 10 60 3d 5d 2d 1b bd 39 87 8a bc
       -0.06697469 0.054703467 -0.03788506 -0.016910182

0.features.0.1.running_var f4 [16]
000000 6b 6f 1c 3f 3d f6 db 3e f4 d0 db 3f 34 5d 75 3e
       0.6110751 0.42961302 1.7173142 0.23961335
000010 be 38 c7 3e 54 74 97 3e 09 14 2c 40 c2 64 74 3e
       0.38910478 0.2958094 2.6887228 0.23866561
000020 1f dc 0f 3f fa 3f cd 3e 36 c6 1a 3f a8 e4 bd 3e
       0.56195253 0.40087873 0.60458696 0.37088513
000030 79 aa e8 3f f8 2a a9 3f 07 0d 03 3f fc 3a 9c 3e
       1.8177024 1.3216238 0.51191753 0.30513752

0.features.1.0.block.0.0.weight f4 [16, 16, 3, 3]
000000 75 69 01 be bd 17 81 3d 32 ef 36 be 44 ec ae bd
       -0.12637885 0.06303356 -0.17864683 -0.08541158
000010 65 8b 74 bd 83 ba bc 3d b7 2e 31 be 14 80 44 bd
       -0.05970325 0.09215262 -0.17302977 -0.047973707
000020 29 49 53 be 94 3b 90 3c 7b f9 9e 3d 76 e3 1d 3c
       -0.20633377 0.017606534 0.077624284 0.00963675
000030 09 85 be 3d ad 38 44 bd 9b 0d 62 bc 12 78 0c be
       0.09302718 -0.047905613 -0.013797189 -0.13717678
000040 98 d0 74 3d 34 6c 80 bd b3 22 0c bd 00 77 8b 3b
       0.059769243 -0.06270638 -0.03421278 0.0042561293
000050 6a a5 0b bd c6 9c 75 3d b3 d0 06 be 26 1d 2c 3d
       -0.034093298 0.059963964 -0.1316555 0.042019986
000060 78 02 2d 3d bf 54 37 3c 10 47 45 3d 22 ef 2d bd
       0.042238683 0.011189639 0.048163474 -0.042464383
000070 d3 6f dd 3d 47 97 7a 3d 30 84 16 3d 4c 0c 7c 3d
       0.108123444 0.061179426 0.036747158 0.061535165
000080 0c 0b 2a 3c e7 19 04 3e 51 4d 90 3d 8f fd ce bc
       0.01037861 0.12900506 0.07045997 -0.02526739
000090 f6 8a 5f 3d 4b 58 92 3d d4 39 03 3e ad 76 49 be
       0.054575883 0.07145747 0.12815028 -0.19674177
0000a0 44 eb 53 be 25 83 3e 3d d4 dd 8c 3e 83 54 91 bc
       -0.20695215 0.046511788 0.2751299 -0.017740494
0000b0 36 b6 3c 3e de 58 dd bc 86 0f 48 bd 64 60 9c bc
       0.18428883 -0.027019914 -0.04884293 -0.019088931
0000c0 1e 04 88 bd ae b8 e1 bd 31 e8 33 bb c2 91 2d be
       -0.0664141 -0.11021553 -0.002745163 -0.16950133
0000d0 66 8a d1 bc 87 7d 10 be d5 eb c7 3d e3 c7 a3 bd
       -0.025578689 -0.14110385 0.09761778 -0.0799711
0000e0 bf ab 36 bc 44 3d c2 bd f4 4d c8 bd b8 e3 4b 3d
       -0.011149346 -0.09484342 -0.097804934 0.049777716
0000f0 9c 2b 17 be 49 43 05 be bd 16 19 bd 35 e1 c1 3c
       -0.1476273 -0.13013949 -0.0373752 0.023666957
000100 37 60 05 3e 19 1d 74 bd d1 d5 05 bc 5a 31 87 3e
       0.13024984 -0.059598062 -0.008168654 0.2640484
000110 19 bb 00 3d 5d 27 7e 3d ac ab 3c 3e 00 6a f2 3c
       0.03142843 0.06204926 0.18424863 0.02959156
000120 b8 55 23 3c e3 f9 96 bc 58 21 d2 3c 97 18 7d bd
       0.009969167 -0.018429702 0.025650665 -0.06179103
000130 72 bd 92 bc 5b de 0a 3d 56 32 8d 3d 50 0a f8 3d
       -0.0179126 0.03390346 0.068943664 0.12111342
000140 b0 8c 30 3d f0 b1 20 3c 20 da 29 3d d6 50 7f 3d
       0.04310292 0.009808049 0.041467786 0.06233295
000150 85 7e fa 3d 59 eb 00 be ad bd 1e bb cf 5b 1e bd
       0.12231163 -0.12589778 -0.0024221942 -0.038661774
000160 55 62 b4 bd 07 ef 61 be a5 25 8c 3d d8 0c 9c bc
       -0.08807818 -0.22063838 0.068431176 -0.019049093
000170 51 d9 97 3d e3 06 96 bc 3e 85 dc 3c ae 62 c6 bd
       0.07414497 -0.01831383 0.026919004 -0.096867904
000180 e3 04 fe 3c 82 fa 8f 3c d8 0f 03 3e fa c2 24 be
       0.03100819 0.017575506 0.12799013 -0.16090003
000190 b1 53 da 3c 40 be 3c bd 7e 6c 51 3e 24 25 30 3e
       0.026651235 -0.046079874 0.20451543 0.17201668
0001a0 7d fd 03 be ef f5 a9 38 28 fd 15 bd 45 07 21 bd
       -0.12889667 8.104357e-05 -0.03661838 -0.039313573
0001b0 3b 99 ca 3c 57 3f 2b 3e ba 40 ba bd 0c da 51 bd
       0.02473127 0.16723381 -0.09094377 -0.051233336
0001c0 c8 d2 99 3d 04 79 89 3d fb 64 62 3d cd d4 ac 3d
       0.075109065 0.06712535 0.055272084 0.08439026
0001d0 85 c8 1f bc d0 8a 41 bd 11 38 4d be 8c 0b 7f 3d
       -0.009752397 -0.047251523 -0.20040919 0.06226687
0001e0 f3 db 17 be 85 59 8c be 31 3f ba bd 37 dd ba bd
       -0.14829998 -0.27412048 -0.09094084 -0.09124225
0001f0 0d f1 48 be 2a e5 fa 3d bf af 10 3d 25 c9 55 bd
       -0.19623204 0.12250741 0.035323855 -0.05219378
000200 86 e6 b5 3d 35 54 cd 3d 84 a3 f9 bd 03 8a 80 3e
       0.088818595 0.10025827 -0.12189391 0.25105295
000210 5a 89 6e bc a0 4f bf 3c 62 4e 54 3e 02 3c c8 3c
       -0.014559114 0.023353398 0.20733026 0.024442676
000220 a5 c9 ee 3d 93 b3 9b bd 45 3f a2 3d d0 32 ab 3d
       0.116595544 -0.076026104 0.07922224 0.08359301
000230 4f e8 ec 3c a4 aa 9d bd 3c 3b 2b be 6d ae 94 bc
       0.028919367 -0.07698563 -0.16721815 -0.018149579
000240 43 8e 0a bc 41 31 49 bd ca a1 63 bd 81 c4 94 3d
       -0.008456769 -0.049119238 -0.055574216 0.07264043
000250 7c bc c2 3c 9b 2e 05 3e 1a 97 70 bd 4e c5 e7 3c
       0.023771517 0.1300606 -0.05873785 0.028292324
000260 c0 90 5d 3c e6 06 ac bd fc 79 20 bd 1e e9 4d bd
       0.013523281 -0.08399753 -0.039178833 -0.050271146
000270 12 1c e4 bd 36 bb a6 be 99 a1 6b be 23 99 1b be
       -0.111381665 -0.32564706 -0.23010863 -0.15195136
000280 e1 d9 1f be 07 08 6b 3d 38 a6 7b 3d 01 c9 72 bd
       -0.15610458 0.057380702 0.061437815 -0.059273724
000290 b5 33 e5 3d d2 e4 8f bc 9b d8 b7 bc 9f 4b b3 bd
       0.11191503 -0.017565165 -0.022442153 -0.08754658
0002a0 d0 84 07 3d df 1f 8c 3d 82 35 e2 3d 63 ff c9 bc
       0.033085644 0.068420164 0.11045362 -0.02465791
0002b0 b4 0a a0 bd 4d 00 2b 3e 73 61 b5 3d ed 37 08 be
       -0.078145415 0.16699333 0.088564776 -0.13302584
0002c0 2a 70 ed bc e2 b6 b0 bd ef 2f 51 3e 65 22 31 3b
       -0.028984148 -0.08628632 0.20428441 0.0027028557
0002d0 59 73 25 3d f6 98 37 3d 14 5b 73 3d ff 41 c6 bd
       0.040393207 0.04482361 0.05941303 -0.096805565
0002e0 84 ca 42 bd 4a 5a 06 bd d1 9c 62 3d a7 2b 2c bd
       -0.047556415 -0.03280095 0.055325333 -0.042033818
0002f0 f5 c2 0e 3c ba f8 db bd 74 c6 65 bd c4 5d de 3c
       0.008713474 -0.107408 -0.056097463 0.02714432
000300 07 c0 9b 3c 14 66 e5 bd a2 f5 63 be 4c d5 da bd
       0.019012464 -0.112011105 -0.2226167 -0.106852144
000310 e2 81 6e bd f2 98 95 3c 16 ee 32 3e 06 ad 7f bd
       -0.058229335 0.018261407 0.17473635 -0.062420867
000320 a3 75 b9 3d 37 3c d3 3d b7 86 00 be b3 c8 d3 bd
       0.090556405 0.103142194 -0.1255139 -0.10341015
000330 6d 7f df 3c 3f 0a 89 3d 05 15 28 bd 89 23 5d bd
       0.027282441 0.066914074 -0.04103567 -0.053988967
000340 1b 87 9c 3b 07 dc ef 3c 5a ab 81 bd 25 00 8e bc
       0.004776848 0.029279722 -0.06331511 -0.017334053
000350 42 e0 3d 3e 38 dc ad 3d f3 b9 d6 3d 0f 6d 88 bd
       0.18542579 0.08489269 0.10484686 -0.06661426
000360 0d c9 a8 bd e6 fe d8 3c a0 7d bb bd 95 a4 56 3c
       -0.082414724 0.026488733 -0.091548204 0.013100763
000370 6b 52 8d 3d 07 95 5b 3d 85 6c 25 bd 9f 98 dd 3c
       0.069004856 0.05360892 -0.040386695 0.027050314
000380 f0 26 b2 bd db 73 b6 bd ae 73 c3 3d 4f 8d f5 bd
       -0.08698833 -0.089088164 0.095435485 -0.11989843
000390 02 e7 ad 3c 33 b3 22 3d 2a 68 a8 3b e8 cf bd bd
       0.021228317 0.03972168 0.0051393704 -0.092681706
0003a0 0e 27 46 be fe 81 2e be cf 4a da 3d 5c 36 1c 3d
       -0.19350836 -0.17041776 0.106588 0.03813778
0003b0 f4 3e 83 3d f2 4f 6c 3d 35 00 5c be db f6 65 3d
       0.06408492 0.05769343 -0.21484454 0.056143623
0003c0 18 4b 8b 3e 76 b7 30 be ad 1f 1b 3e 59 0a 91 3c
       0.2720573 -0.17257485 0.15148802 0.01770513
0003d0 b3 3b 97 bd 7e 0d fe bd 9b db 20 3d 7e 87 6e 3e
       -0.073844336 -0.12404917 0.039271932 0.23293874
0003e0 70 da dd 3d dd a8 10 bd 7e 94 c3 3d 15 00 de 3d
       0.10832679 -0.03531729 0.09549807 0.108398594
0003f0 a0 79 0a be da f0 a0 bd eb a1 62 3d 5d c9 9f 3c
       -0.13522959 -0.07858439 0.0553302 0.019505197

0.features.1.0.block.0.1.weight f4 [16]
000000 03 61 1d 3f f7 3f 33 3f 9c 49 09 3f d7 53 f2 3e
       0.61476153 0.7001948 0.53627944 0.4732959
000010 61 91 19 3f a1 2f fe 3f 7a 9c 1f 3f 4c 84 12 3f
       0.59987456 1.9858285 0.6234814 0.5723312
000020 ba d0 09 3f be 46 20 3f de 48 17 3f d8 eb c9 3e
       0.53834116 0.62607944 0.5909556 0.39437747
000030 6b 3d 0d 3f 8f b4 21 3f 99 da 0c 3f f3 6b 11 3f
       0.5517184 0.63166136 0.55021054 0.5680534

0.features.1.0.block.0.1.bias f4 [16]
000000 8d 6e 8c 3e 81 6d ef 3e 7b 55 97 3e ed 71 15 be
       0.27428094 0.46763232 0.29557404 -0.1459424
000010 03 c0 c9 bd 34 f6 bb bf a2 99 bf bb 68 dc b0 3e
       -0.098510765 -1.468451 -0.005847172 0.34543157
000020 a5 93 10 3e 9d 43 c0 bb 9d 3f 9f 3d 0b d0 0a 3f
       0.14118822 -0.005867435 0.07775805 0.542237
000030 3d bc 04 be 6a 63 87 3d 57 fb 0a be e7 d3 a4 bd
       -0.12962432 0.066107586 -0.13572441 -0.0804823

0.features.1.0.block.0.1.running_mean f4 [16]
000000 af dc e4 3e 61 81 1f bd 4e 1a 65 3e e9 06 db be
       0.44699618 -0.038941745 0.22373316 -0.4277871
000010 3a df 36 bf c0 c5 32 3d d8 0d a1 bc f9 3e 77 be
       -0.71434367 0.04364562 -0.019659922 -0.24145116
000020 22 a3 b5 3d 40 e5 e0 3e c2 7e 1f 3f 3a ca 98 be
       0.08869006 0.43924904 0.6230279 -0.29841787
000030 c0 17 ca bc 8b e7 67 bf 12 bb 5d bf f3 00 79 3e
       -0.024669528 -0.9058768 -0.8661357 0.24316768

0.features.1.0.block.0.1.running_var f4 [16]
000000 b6 a2 0c 40 a5 bc 52 3f 1d ad 95 3f 8e 45 f0 3f
       2.197431 0.823191 1.1693455 1.8771226
000010 c6 c3 f8 3f c0 7d c2 3d 7e 70 b6 3f f0 d8 0d 3f
       1.9434745 0.09496641 1.425308 0.55409145
000020 9f cc dd 3f 81 07 6e 3f bd 75 97 40 42 24 50 3e
       1.732807 0.929802 4.7331223 0.20326331
000030 13 79 70 40 80 f8 c1 3f b0 db fc 3f b0 0e 62 40
       3.7573898 1.5153961 1.9754543 3.5321465

0.features.2.0.block.0.0.weight f4 [64, 16, 3, 3]
000000 74 6d 0e bb 3d 41 69 3c 0e e8 44 bc 7d 5b ad bd
       -0.002173272 0.014236745 -0.012018217 -0.08464716
000010 a1 73 ea bd 05 28 e8 3d 64 ca 98 bd cd 37 ab bd
       -0.11447836 0.11335758 -0.07460478 -0.083602525
000020 f8 6f 74 be f6 90 c7 bc c0 0a 97 3c f4 e0 6d 3d
       -0.23870838 -0.024361115 0.018437743 0.05807586
000030 7e 5a 33 3d c4 df a4 bd 62 14 65 ba 93 a0 40 3a
       0.043787472 -0.080504924 -0.0008738694 0.0007348146
000040 8b bd b7 bd 0e 02 ac 3a 7b b1 d3 3b d4 87 a2 bd
       -0.08971699 0.0013123171 0.0064603663 -0.079360634
000050 0b 6d e2 bc 33 2f 3a 3c cd ea 2b 3d 80 79 80 bc
       -0.027639886 0.011363792 0.04197197 -0.015682936
000060 89 f1 c8 bd 97 ca 71 3b f1 38 14 be 1c 57 1b bd
       -0.09811694 0.0036894435 -0.14474846 -0.03792487
000070 86 0c 78 3d 0d a3 5b bd be c2 42 3d e2 fa af 3d
       0.06055882 -0.053622294 0.047549002 0.08592774
000080 e1 09 97 3c 5a c3 14 3d 19 e5 e5 bd 4a f0 00 be
       0.018437328 0.036319114 -0.112253375 -0.12591663
000090 d1 30 ba bd 8b 50 16 bd ac d7 85 bc 3b b8 16 3e
       -0.09091342 -0.036697906 -0.016338192 0.14718716
0000a0 1c ea 4b bc 8a b9 1c 3d a3 4d b0 3d a7 69 f2 3d
       -0.012445953 0.03826288 0.08608558 0.11836558
0000b0 40 87 a6 3d 7f 94 06 3d 8a 7d 4e 3d b0 28 30 3d
       0.08131266 0.03285646 0.050412692 0.043007553
0000c0 ed 10 0d bd 6e 21 d4 3c fb d0 1d 3b cb 1a 9b 3a
       -0.03443997 0.025894847 0.002408086 0.0011833546
0000d0 0d 3c f6 3c 92 f8 43 3a 06 bc 57 3c 5a 4f 0c 3c
       0.030057931 0.00074756995 0.013167387 0.008563841
0000e0 6f dd c0 bc 28 85 74 bb ce ee 95 bc ec e1 76 bd
       -0.023543088 -0.0037310813 -0.018302348 -0.06027405
0000f0 fb f3 8f 3d 7d 9e c8 3b 7f 76 66 3d 7b a8 89 3d
       0.070289575 0.006122409 0.05626535 0.06721588
000100 eb ce c5 bd ce 1c 51 3d 62 01 80 bd ec a9 dc bc
       -0.09658607 0.05105286 -0.06250264 -0.026936494
000110 dd a5 78 bc 9a 17 6e 3c a5 65 89 bd fa 36 a4 3b
       -0.015176264 0.014531994 -0.0670884 0.0050114365
000120 75 94 a7 3d 2f 6e cc 3d 1d b7 16 3d 83 d9 ef bb
       0.08182613 0.09981953 0.036795724 -0.0073196306
000130 97 3c 02 3d e5 5f aa 3d be 6e 8e 3d 57 58 2a 3e
       0.031796064 0.08319072 0.06954716 0.16635261
000140 fd f4 c4 3c 74 b9 e5 3c e2 41 2d bd 22 6f b2 3d
       0.0240426 0.028042533 -0.04229916 0.08712603
000150 ce b3 f4 bc 5e 06 31 3d b0 f1 8f 3d 40 05 b4 3d
       -0.029870894 0.043218963 0.0702852 0.08790064
000160 61 51 36 bd 33 6b ae 3d 45 0e 58 3d a5 33 36 bc
       -0.044511203 0.085165404 0.052747983 -0.011120711
000170 38 77 ad 3c 9f 34 53 3c d8 a7 81 be 7a 15 ba bd
       0.021175012 0.012890964 -0.25323367 -0.090861276
000180 56 a3 ec bc 2e 9c 27 be 89 da 88 bc 02 fd 50 bd
       -0.028886478 -0.16368172 -0.016705768 -0.051022537
000190 71 02 d7 3c 2f 16 63 3c 8b e1 8b bd 6a 87 0c 3b
       0.026246281 0.013860269 -0.06830128 0.0021443018
0001a0 65 b0 52 bd 36 ee 3e bd 9f d1 65 3b 8c fa 86 3c
       -0.051437754 -0.046613894 0.003506757 0.016476892
0001b0 e9 a4 83 bb b6 27 0b bc 15 94 c1 3c a8 72 87 3d
       -0.0040174616 -0.008493355 0.023630181 0.06613666
0001c0 aa 88 f0 bc dc ad 46 bd da 20 b0 3d 82 f6 b9 bc
       -0.029362042 -0.04850565 0.08600016 -0.022700552
0001d0 f4 f1 8f 3d cf 60 aa 3c 92 03 8a 3d e8 70 a7 bc
       0.07028571 0.020798115 0.06738962 -0.02043958
0001e0 d9 d7 2d bd 39 87 e4 3d 39 11 bc 3d 01 98 73 3d
       -0.042442176 0.11158604 0.091829725 0.059471134
0001f0 c5 0f f9 3d 58 5c b0 bd 0b a8 32 bd 53 be 9d 3d
       0.12161211 -0.08611363 -0.04361729 0.07702317
000200 b6 da f6 bd 08 b4 bc bd 27 6c 1c be 53 f9 9d bb
       -0.120534346 -0.09214026 -0.15275632 -0.0048209815
000210 35 78 c0 3d 6e 95 33 3c ca c8 57 3c e8 55 6e bd
       0.09397928 0.01096092 0.01317043 -0.058187395
000220 97 dd b1 3d fb e6 1f bb 4c bc 28 bc 34 bc 5d 3d
       0.08684843 -0.002439915 -0.0102988 0.054134563
000230 54 5e 1e bd 24 d7 83 3d 39 48 7e 3d c7 80 97 bd
       -0.038664177 0.06437519 0.062080596 -0.07397609
000240 30 e8 c4 bc 4f de 97 3d af 97 6b bd 84 70 94 bc
       -0.024036497 0.07415449 -0.057517704 -0.018120058
000250 79 ba 85 bb 62 c3 a0 3c c1 ba 48 3d 4c f6 ae 3d
       -0.004081067 0.019624416 0.049006227 0.08543071
000260 04 d3 72 bd 8e 74 2c 3d 60 0b 60 3d 26 14 ea bc
       -0.05928327 0.042103343 0.054698348 -0.02857406
000270 f6 e8 26 bd 71 45 a5 3d e0 86 cf bd b5 2e 61 3c
       -0.040749513 0.080698855 -0.10133147 0.013744046
000280 d5 00 a8 3c 0e cc 75 bd 94 43 28 bd de d9 d4 3b
       0.02050821 -0.060009055 -0.041080073 0.0064956984
000290 c4 45 cf 3c 6f 1c c5 3b 1f fc 80 3d c8 27 84 3d
       0.025301822 0.0060153524 0.06298088 0.064529
0002a0 9a ca 9d 3c 6f aa 01 3e f0 5f ac 3a ab 27 ba 3d
       0.019261647 0.12662672 0.001315115 0.09089597
0002b0 ad 34 9b 3b 5a 3d 1c 3d 54 01 5d 3d 2f db 6a bd
       0.004736504 0.038144447 0.053956345 -0.057337936
0002c0 aa 4e b5 bc 11 2b 18 3d b3 57 eb bc 33 46 d5 3b
       -0.022132237 0.037150446 -0.028728342 0.0065086125
0002d0 b2 d1 99 3d dc b2 d9 bd 79 49 9e 3d fd 56 65 3d
       0.07510699 -0.10629818 0.077288575 0.05599116
0002e0 bc 7c 84 3d 3c 05 93 bc 6e 7c 79 bd 39 11 73 bc
       0.06469104 -0.017946832 -0.06090968 -0.014835649
0002f0 67 8f 1f bb ec 4e cb bb c2 65 60 bc 66 43 18 bd
       -0.002434695 -0.0062044766 -0.013696136 -0.03717365
000300 fe 81 f1 bc 1d 79 8e 3d 97 1f 13 bd bb df e0 3c
       -0.02948093 0.06956694 -0.0359188 0.027450433
000310 f0 d3 3a 3d e9 f4 1b be b5 42 4c bd 2b 8d 54 bd
       0.045612276 -0.15230145 -0.049868304 -0.05189244
000320 9a fc 56 bd d3 1e f3 3d 30 0b 61 3e ad 6d 2f 3c
       -0.052486993 0.11871114 0.21976924 0.010707301
000330 ed 51 fd 3c 4e 12 27 3e 59 5c 29 bc 83 e1 e2 3c
       0.030922854 0.16315576 -0.010336959 0.027695423
000340 51 c5 a9 bd 18 29 7e 3b c8 07 8c 3d a2 0b 96 bd
       -0.08289588 0.0038781818 0.06837422 -0.073264375
000350 45 8c 13 bd 6d a1 5b 3c 54 aa 95 bd 62 3b 3e 3d
       -0.036022443 0.013405186 -0.07307878 0.04644335
000360 08 2a 44 bd e2 85 69 bb 33 22 15 bd 92 3e 8a b9
       -0.047891647 -0.003563278 -0.036409568 -0.0002636803
000370 19 cd ea 3c ba 93 26 bb f7 7f 88 3d 58 e8 b9 3d
       0.028662251 -0.0025417642 0.06665032 0.09077519
000380 c6 6c c4 bc 30 d7 38 3d 35 63 d0 3c e6 73 29 bd
       -0.023977648 0.045127094 0.02543793 -0.041370295
000390 33 51 90 b9 25 89 5e 3e 2d 04 88 bc 49 45 83 bc
       -0.00027526318 0.21732004 -0.016603554 -0.016024249
0003a0 9a d1 97 bc a6 12 20 bd a8 19 db 3c ed 3c c2 bc
       -0.018532563 -0.039080285 0.026745632 -0.023710692
0003b0 15 a6 f0 3b 11 45 ef 3c e5 59 a8 bd ad 3f af bc
       0.0073440173 0.029207738 -0.08220271 -0.021392668
0003c0 6d ef c7 bd fe cc be bd 6d 8f 72 3d ef 50 22 bb
       -0.09762464 -0.09316443 0.059218813 -0.0024767478
0003d0 6b b5 05 bd ba ad 0e 3d 32 2e 50 be e5 42 d7 bb
       -0.032643717 0.034833647 -0.20330122 -0.0065692537
0003e0 60 b2 77 3d 40 0f 5e bd 88 af 78 3c 11 87 30 3d
       0.060472846 -0.054213762 0.015178569 0.04309756
0003f0 88 1f 46 3d 5f 35 ae 3c 83 85 8b 3d 0c 77 98 bc
       0.048369914 0.021265684 0.06812575 -0.018611453

0.features.2.0.block.0.1.weight f4 [64]
000000 55 02 16 3f 31 ae 23 3f 22 1b 47 3f 65 9a 3b 3f
       0.5859731 0.6393767 0.77775776 0.7328246
000010 8f 2e 47 3f aa 66 38 3f bf db 2f 3f 71 a8 28 3f
       0.7780542 0.7203165 0.6869468 0.6588202
000020 31 ca 3f 3f 6a 10 1c 3f ff bd 37 3f df c1 86 3f
       0.74917895 0.60962546 0.71774286 1.0527915
000030 b2 14 36 3f 37 ed 2c 3f 5b 17 38 3f 92 27 2a 3f
       0.7112533 0.6754946 0.7191064 0.6646663
000040 d7 63 3c 3f b6 32 42 3f 49 a0 34 3f 4c 3f 24 3f
       0.73589844 0.7585863 0.70557076 0.64159083
000050 af eb 42 3f c9 48 43 3f 75 3c 33 3f 38 76 27 3f
       0.76140875 0.76282936 0.70014125 0.6541476
000060 fb fa 47 3f 18 d3 32 3f 75 3c 2d 3f dd 80 09 3f
       0.7811734 0.69853354 0.67670375 0.53712255
000070 f2 1c 36 3f 11 0f 2d 3f 18 ed 26 3f f9 ee 3c 3f
       0.7113792 0.67601115 0.65205526 0.73802143
000080 c5 1b 32 3f 15 72 40 3f 86 da 39 3f fc a3 18 3f
       0.6957362 0.75174075 0.72599065 0.5962522
000090 7c 5e c9 3f ae 1a 14 3f 18 04 36 3f d4 27 34 3f
       1.5731959 0.5785321 0.71099997 0.7037327
0000a0 fb 95 19 3f 79 f5 26 3f fa 72 18 3f eb b7 2a 3f
       0.5999448 0.6521831 0.5955044 0.66686887
0000b0 5a b2 2a 3f a8 7d 08 3f 44 b8 44 3f 0c 85 1d 3f
       0.6667839 0.53316736 0.7684367 0.6153114
0000c0 4e 8f 24 3f b7 af 47 3f b5 0c 15 3f 52 02 32 3f
       0.64281166 0.78002495 0.58222514 0.6953479
0000d0 df bf 03 3f 30 ac 1b 3f fb 37 42 3f 39 3c 25 3f
       0.5146465 0.6080961 0.7586667 0.6454502
0000e0 65 cc 2a 3f 14 80 0b 3f a4 be 23 3f ab 85 40 3f
       0.6671813 0.54492307 0.6396277 0.7520396
0000f0 7a c0 4c 3f ff 87 14 3f 99 ad 36 3f 92 5f 2d 3f
       0.79981196 0.58020014 0.7135864 0.67723954

0.features.2.0.block.0.1.bias f4 [64]
000000 5e 88 68 3d 2a d6 13 3e a8 1e e5 3d 96 f4 2c 38
       0.056770675 0.14437166 0.11187488 4.1235784e-05
000010 8a 70 5f 3e e7 28 c3 3e 96 bb 35 3d fb fe 40 3e
       0.21820274 0.38117144 0.04436835 0.18847267
000020 a8 56 10 3f cf d9 85 3e b8 f4 6c bd 42 1e 00 bf
       0.56382227 0.26142737 -0.05785057 -0.5004617
000030 47 68 8b ba d7 be 7c 3e c2 27 b9 3d 70 66 0e 3e
       -0.0010635935 0.24682175 0.09040786 0.13906264
000040 1d 72 7d 3e e2 ac d2 3e d3 b9 12 3e 2a 7b 50 bd
       0.24750562 0.41147524 0.14328699 -0.05089871
000050 a9 ae 95 3d 28 5b 74 3e 6f 1c 53 3c f4 dc 37 3e
       0.073087044 0.23862898 0.012885197 0.1795538
000060 93 e3 4b 3d 76 c4 46 3e 98 1f 3b 3e de de a3 3e
       0.04977758 0.19410881 0.18273771 0.32005972
000070 e7 a4 59 3e d0 91 24 3e c6 c5 4c 3d d1 91 58 3e
       0.21254312 0.16071248 0.0499933 0.21149375
000080 6f 7f 3a bc b6 d2 98 3e dd 92 a0 3e a1 68 0d 3e
       -0.011382922 0.2984826 0.31362048 0.13809444
000090 0e 97 5b bf 36 0e 5b bd 34 26 d9 3e 3b ab c5 3e
       -0.85777366 -0.05348035 0.4241196 0.386072
0000a0 27 50 d3 3c 60 70 9f 3c 63 ad ab 3d 59 f8 38 3e
       0.025795056 0.019462764 0.0838268 0.18063487
0000b0 15 43 9d 3e 50 3b 2e 3e 06 e6 43 3e 5b b5 37 3e
       0.30715242 0.17014813 0.19130716 0.17940275
0000c0 7c f3 56 3e d4 fd 1d 3e 46 aa 99 be d3 ae b4 3d
       0.2099132 0.15428859 -0.3001272 0.088224076
0000d0 a7 f5 05 3e ff d6 32 3e ec bc 00 3e 50 49 ed bd
       0.1308199 0.17464827 0.12572068 -0.11586249
0000e0 40 30 d8 3e f1 a1 c8 3d 14 d9 ff 3d 42 29 24 3e
       0.42224312 0.09796513 0.12492576 0.16031364
0000f0 5d 1c 5f 3e a4 d4 be 3d 59 e3 ef bc 82 8c a9 3d
       0.21788163 0.09317902 -0.029283212 0.08278753

0.features.2.0.block.0.1.running_mean f4 [64]
000000 e1 53 09 bf 30 b7 b5 bc 24 f8 96 3e 29 9b 5b bf
       -0.53643614 -0.022182077 0.2948619 -0.8578363
000010 10 e9 91 3e 4b ff 31 3f 68 62 c9 be e1 13 c6 3d
       0.28498125 0.6953017 -0.3933289 0.0967176
000020 b8 40 d2 3e be ad 86 bc 7f b6 2b be 34 04 df bc
       0.41065 -0.016440269 -0.16768835 -0.027223684
000030 19 59 02 bf a5 c6 50 3e 32 40 86 be ce 91 19 3f
       -0.509172 0.20388277 -0.26220852 0.59988105
000040 dc 0c 99 3e 57 e1 56 3f 67 d8 07 bd b0 14 5e be
       0.29892623 0.8393759 -0.03316536 -0.21687579
000050 c7 1c 9f bc b8 9c 43 be 71 22 6f bb de 77 c6 3d
       -0.019422902 -0.19102752 -0.0036489035 0.096908316
000060 62 4b 51 bf 13 ba 15 3f 5c ee df 3e f0 b1 91 3f
       -0.8175565 0.5848705 0.4373654 1.1382427
000070 70 08 90 3e 9e fb 06 3e 15 89 1c bf 26 d4 34 3e
       0.28131437 0.13181922 -0.6114667 0.17659053
000080 4b c1 e8 bd 64 04 85 3e 79 eb f0 3e 8d d3 ed bd
       -0.11364993 0.25979912 0.4705465 -0.11612616
000090 9b e4 84 be 31 72 66 be b1 f9 b9 bc ab 40 3e 3f
       -0.25955662 -0.22504498 -0.02270207 0.74317425
0000a0 22 46 08 bf 7c 5c 7f be 41 ae 3b 3e ff 13 dc bd
       -0.53232014 -0.24937624 0.18328191 -0.107460015
0000b0 63 28 2b 3f f0 29 02 bf ba 32 ff 3e 10 f6 76 3e
       0.668585 -0.5084524 0.4984339 0.24117303
0000c0 b6 e0 96 be da 40 aa 3e 4f af 2b be f8 00 23 bf
       -0.29468316 0.33252603 -0.16766094 -0.63673353
0000d0 92 35 2d be 3e 34 61 be 06 b6 2a bf 89 40 66 3e
       -0.16914967 -0.21992585 -0.66683996 0.22485556
0000e0 36 37 a9 3d 22 e7 23 bc b6 92 93 bd e6 8e 99 be
       0.08262484 -0.010003837 -0.07205717 -0.29991835
0000f0 23 d8 11 3e b0 c2 48 be ef 9d 53 be 7e 16 29 bf
       0.14242606 -0.19605517 -0.20665716 -0.66049945

0.features.2.0.block.0.1.running_var f4 [64]
000000 fd d5 8b 3f 27 e5 2c 3f 6f 35 39 40 7b 3b 1d 40
       1.0924679 0.6753716 2.8938863 2.4567554
000010 70 4e 68 3f f3 11 a6 3f 6b 15 13 40 26 be 00 40
       0.90744686 1.2974228 2.2981822 2.0116057
000020 fb d7 98 3f be 62 bd 3e 2a 39 37 3f cc ad 0b 3e
       1.1940912 0.36989397 0.715716 0.13640517
000030 36 85 b6 3f c7 0f 16 3f ee ee d2 3f bc 2e 0d 40
       1.4259403 0.58617824 1.6479166 2.2059774
000040 f2 54 ad 3f a6 53 a8 3f 0c d4 7b 3f ad 75 1f 3f
       1.3541548 1.3150527 0.9837043 0.62288934
000050 30 b0 2c 40 b5 4f 85 3f 25 c3 70 3f 66 88 9e 3f
       2.6982536 1.041495 0.94047767 1.2385375
000060 31 51 05 40 93 5d b9 3f 1e 38 2a 3f 5f c9 57 3f
       2.0830805 1.4481682 0.6649188 0.8429164
000070 a6 f5 6a 3f 15 b3 8f 3f 0b a5 b5 3f 25 89 a0 3f
       0.9178108 1.1226526 1.4190992 1.2541853
000080 0e de 57 3f 2f c8 d3 3f 68 3e 31 3f 97 b0 3b 3f
       0.84323204 1.6545466 0.6923585 0.7331633
000090 cf 13 61 3e 5c 32 05 3f 40 c1 3c 3f 61 44 b2 3f
       0.21980213 0.5202997 0.73732376 1.3927118
0000a0 5e af 42 3f c0 66 52 3f 3b a9 cf 3e 4a 1c 0c 40
       0.7604884 0.82188034 0.405588 2.1892266
0000b0 ae c6 8f 3f 8f f2 84 3e 16 86 77 3f 88 da 6f 3f
       1.1232507 0.25966308 0.96688974 0.9369283
0000c0 1e 11 1a 3f 4a 1c 20 40 be e9 6e 3e 91 64 c4 3f
       0.6018237 2.5017266 0.23331353 1.534319
0000d0 b0 cf fe 3e 9c b1 77 3f be 40 08 40 56 85 0e 3f
       0.49767828 0.96755385 2.1289515 0.55672204
0000e0 10 8f a2 3f 00 ee 0a 3f 9c 9b 4d 3f 36 57 d7 3f
       1.2699909 0.5426941 0.80315566 1.682349
0000f0 13 cd ff 3f 79 22 da 3e 84 4b e4 3f aa 70 75 3f
       1.9984459 0.42604426 1.7835546 0.95875037

0.features.2.0.block.1.0.weight f4 [32, 64, 1, 1]
000000 68 83 98 be b1 72 da bd cf ca a4 3d a3 41 92 3e
       -0.29787755 -0.10666407 0.08046495 0.28565702
000010 13 42 60 be 37 89 83 be c5 09 4b be 76 5a 43 3e
       -0.21900205 -0.25690624 -0.19827946 0.19077477
000020 75 82 5e 3d 72 47 76 3c 8d 02 9a be c5 a9 d9 3d
       0.054323632 0.015031682 -0.3008007 0.10628084
000030 1a f8 56 bd e1 b4 5b be 51 28 a0 3d 40 da c6 be
       -0.0524827 -0.21455719 0.0782019 -0.38838387
000040 bc 02 90 3e bb 3e c6 bd a9 70 d3 be ab cf 23 3e
       0.28127086 -0.09679934 -0.4129689 0.15997188
000050 68 0a 03 3e e1 7e 20 be ca a1 b0 bd e3 ae b7 be
       0.12796938 -0.156734 -0.08624609 -0.35875615
000060 e5 c0 34 be 73 0b 69 3e 16 63 ff bd ed 47 5d bd
       -0.17651708 0.22758274 -0.12470071 -0.054023672
000070 db 6e ca bc 28 17 fb bd b3 b3 03 3e 95 2e 1c 3d
       -0.024711063 -0.12260276 0.12861519 0.03813036
000080 07 aa 18 3e db 7a 80 be 1c cc 1d 3a e2 d8 c6 3d
       0.1490861 -0.2509373 0.00060194894 0.09709336
000090 c3 42 19 3e 6a 0b 9f 3e f7 ee 67 3d 0e 3f 08 be
       0.14966874 0.31063396 0.05662438 -0.13305303
0000a0 dd ec 7d 3d cd 6a 0d 3e 0e b4 5f 3c a1 ab cc 3d
       0.06199347 0.13810273 0.013653768 0.09993673
0000b0 c4 0f 07 bf f3 3e 9c 3d bb f8 17 3e 35 87 9b bc
       -0.5275843 0.07629194 0.14840977 -0.01898537
0000c0 e4 6a d8 3c 32 8e ce 3e 11 e4 90 3e eb e4 fc 3d
       0.026418157 0.4034286 0.28299 0.1234835
0000d0 02 88 0a 3e 62 d3 c1 bc 5a 6c 65 3e 89 2d 1e 3e
       0.13528445 -0.023660365 0.22404614 0.15447058
0000e0 db b9 ee 3e d0 29 d2 3e cc 24 a4 3e ec 30 da 3c
       0.4662617 0.41047525 0.32059324 0.026634656
0000f0 ce ee b7 3e a2 02 34 3d 0e 2e 6b 3e 60 d7 f2 bb
       0.3592438 0.043947823 0.22966787 -0.0074109286
000100 61 c2 b7 3d 11 95 dc 3d 35 47 7a 3e 85 f3 8d 3e
       0.08972622 0.1077062 0.24441226 0.27724853
000110 25 86 ad bd be 20 1c 3e 8f 40 8a 3e 01 6e 95 3e
       -0.08472852 0.15246865 0.2700238 0.2918549
000120 6b 73 bd 3b c2 b1 08 be a1 e9 b3 3e 03 da 17 be
       0.005781581 -0.13349059 0.35139182 -0.14829259
000130 ae c7 e2 3d e3 f7 7f bd f2 f7 bd 3e 08 e8 f6 bd
       0.11073242 -0.062492263 0.3710323 -0.12055975
000140 22 84 9d 3e d8 90 8d 3d 56 60 28 bf 25 9d 89 3d
       0.30764872 0.069123924 -0.65771997 0.06719426
000150 db a6 11 bf 65 fc 3b be 23 65 92 3d 2d 91 c3 be
       -0.56895226 -0.18358 0.071481965 -0.38196698
000160 c6 a4 0f bd db 07 c9 3e 04 4b 3d be ca 51 c9 bc
       -0.03506925 0.39263806 -0.18485647 -0.024575133
000170 79 dd b4 be 32 72 5d be 14 f6 f3 3c 9a a5 62 be
       -0.3532522 -0.21625593 0.029780425 -0.22133484
000180 a6 90 a0 3c af 79 dd bd 32 ff 8f 3d 45 99 f7 bc
       0.019600224 -0.10814225 0.070310965 -0.030224452
000190 00 9e 59 bf 3e 2b d0 3d ab 1b 23 3c e9 38 db be
       -0.85006714 0.10164498 0.009955327 -0.42816857
0001a0 92 2b c9 3e 2b 8b 0a bd f3 26 8a be 99 56 8d bd
       0.39291054 -0.033824127 -0.2698284 -0.06901283
0001b0 a9 c9 65 3e 00 3a 95 3e ab 9e 22 3c 6b 5f e3 bd
       0.22440208 0.29145813 0.009925525 -0.11102184
0001c0 97 c5 6a 3e 05 c2 f5 bc 74 ad e9 bd ff 1b 2b be
       0.22926937 -0.029999742 -0.11410037 -0.16709898
0001d0 5b 13 fb 3d cc cf 38 3d e0 a5 ce bd b1 33 34 be
       0.12259551 0.045120046 -0.10090232 -0.17597844
0001e0 6b 3c 53 3d 70 c6 c2 3d d7 58 86 3c 63 a3 7a 3e
       0.05157129 0.09510505 0.016399784 0.2447639
0001f0 34 f9 a3 bc 97 cd 83 bc 60 79 15 be a9 09 e8 3d
       -0.02001629 -0.016089244 -0.14597082 0.113299675
000200 1a 20 96 3e 7a b0 af be e3 e2 63 be cd 91 25 3e
       0.29321367 -0.34314328 -0.22254519 0.161689
000210 6d 59 31 be d1 67 64 be 6c 7d 1d 3e 33 55 8f 3e
       -0.1731927 -0.22305228 0.15379876 0.2799469
000220 21 f4 c6 3e c2 fc 2f 3d 4f 60 39 be 1a 1c aa 3c
       0.3885813 0.042965658 -0.18103145 0.020765353
000230 e4 06 03 3e 8b d0 c8 be e9 d7 fb bb 82 04 20 3e
       0.12795597 -0.39221606 -0.0076856506 0.1562672
000240 ab 30 a4 be d0 8d 6e be 69 44 90 3e 2c 9a f7 be
       -0.3206838 -0.23296285 0.28177193 -0.4835981
000250 9a 47 92 bc 71 36 4e 3e 96 b8 a7 be ee 56 96 be
       -0.017856408 0.20137955 -0.32758015 -0.29363197
000260 f8 63 9a bb 85 64 3e be ca 75 84 3d c0 64 1e bd
       -0.0047116242 -0.18593033 0.06467779 -0.0386703
000270 b1 70 96 3e cc 73 79 3d 58 ba 67 bb 5c b0 b0 bd
       0.29382852 0.060901448 -0.0035358872 -0.08627388
000280 7c d1 4d be 42 3e 1d 3e 3e 6a 7c 3c 9e 64 8d bc
       -0.20099443 0.1535578 0.0154061895 -0.017259892
000290 c6 b1 80 3d 11 56 c9 bd e9 ef 09 be 03 b4 2a bd
       0.062839076 -0.09830869 -0.13470425 -0.04167558
0002a0 3d 7b 83 bd fb f9 ca 3d d5 a4 4f 3e 3e 05 c3 bb
       -0.0641999 0.09910961 0.20277722 -0.0059515527
0002b0 82 fe 8c bc b2 0d e1 3c e6 fc 32 bd b5 91 d5 ba
       -0.017211203 0.02747235 -0.043698214 -0.0016294034
0002c0 50 7c 17 3e 7a 71 fe 3e 43 84 a1 bc 24 a4 3d bb
       0.14793515 0.4969595 -0.019716388 -0.0028936947
0002d0 f2 31 51 3e a7 40 87 3d a2 f4 a5 be 51 f3 84 bc
       0.20429209 0.06604128 -0.32413203 -0.016229304
0002e0 4d 3b 1d 3e ee cc 22 bd 97 77 84 bd 3a e9 4d bb
       0.15354653 -0.039746217 -0.064681225 -0.0031419531
0002f0 e8 d6 60 3e d7 66 91 3d 00 04 5f be a2 6e ba 3d
       0.2195698 0.07099693 -0.2177887 0.09103133
000300 7e 4c c9 3e a8 62 87 bd 61 15 d7 3c f4 e7 b3 3d
       0.3931617 -0.06610614 0.026255311 0.08784476
000310 0b 6d 24 be c4 7b 0b 3c 61 14 3e bf d7 79 14 bd
       -0.16057222 0.008513395 -0.74249846 -0.036249008
000320 e2 c4 14 3d e6 f9 05 3d de 46 0f 3e 44 bb 4d bd
       0.036320575 0.032709025 0.13991877 -0.05022742
000330 e5 f4 e1 bd ff 39 f5 ba 01 ec ad bd 5a 53 3d 3d
       -0.11033038 -0.0018709301 -0.0849228 0.04622207
000340 d8 00 70 be 2b 60 83 3c ca 3f 98 3d 0c a3 f0 3d
       -0.23437822 0.016037067 0.07434042 0.11749849
000350 54 85 e5 bc e6 12 a3 3e 63 16 62 3e 09 59 b4 3d
       -0.028017677 0.31850356 0.22078852 0.088060446
000360 cf 31 24 3d 8a 84 eb be a3 d7 6b bd a5 f5 9f bd
       0.040086564 -0.45999557 -0.057578694 -0.07810525
000370 f1 76 6a 3e 00 4c 80 bb 59 bf 57 3d b2 f7 8a 3e
       0.22896935 -0.00391531 0.052672718 0.27142102
000380 f8 7c 5f be 71 85 21 3e b7 12 8c 3c 62 9b 7c 3e
       -0.21825016 0.1577356 0.017098768 0.24668649
000390 75 06 ec be aa 81 42 bd 91 b9 b7 3e 75 cc f9 3e
       -0.46098676 -0.04748694 0.35883763 0.487888
0003a0 80 6a 2d 3e ff 87 29 be a9 db 0f be d9 e9 7a 3c
       0.16935158 -0.16555785 -0.14048637 0.015314543
0003b0 ba 28 59 bd 27 b0 54 3e 42 ba f0 be 7d 7d c1 3d
       -0.053017356 0.20770322 -0.47017103 0.09447763
0003c0 7c 65 97 be 07 9e fd 3d 7d 3a cd bd 24 64 7b 3e
       -0.29569614 0.12383657 -0.100209214 0.2454992
0003d0 fa 61 a8 3e cb d7 8d 3d aa e3 93 be 33 da 1e be
       0.3288725 0.06925925 -0.2888463 -0.15512924
0003e0 4d 9c 20 3d ab 07 d3 3d 25 bf fc 3d c2 0b 2c be
       0.03921156 0.10304197 0.123411454 -0.1680136
0003f0 d5 a3 a2 bd ee eb a8 3d 0a eb 37 be fd 26 98 3e
       -0.07941405 0.08248125 -0.17960754 0.29717246

0.features.2.0.block.1.1.weight f4 [32]
000000 08 46 51 3f 80 30 59 3f 9f ef 31 3f 4b ae 4a 3f
       0.81747484 0.8483963 0.6950626 0.791722
000010 19 78 2a 3f a5 f5 47 3f aa 60 49 3f 55 4a 50 3f
       0.66589504 0.781092 0.7866312 0.8136342
000020 91 52 46 3f b8 73 23 3f ce 29 40 3f c8 ae 30 3f
       0.77469736 0.6384845 0.7506379 0.69016695
000030 97 4b 46 3f ea 22 4f 3f a3 57 48 3f b4 40 71 3f
       0.7745909 0.8091265 0.78258723 0.94239354
000040 44 3b 3d 3f 02 13 55 3f 38 45 41 3f 1d 5a 59 3f
       0.7391856 0.8323213 0.75496244 0.84903127
000050 82 38 5e 3f d4 af 48 3f 83 c4 42 3f ec 71 32 3f
       0.86804974 0.7839329 0.76081103 0.6970508
000060 5c f1 4e 3f 8c 15 43 3f 47 22 33 3f 63 86 3a 3f
       0.80837035 0.7620475 0.6997418 0.7286131
000070 e0 1d 58 3f 6a fc 29 3f 92 c2 4c 3f c7 f1 3d 3f
       0.84420586 0.6640078 0.7998439 0.7419705

0.features.2.0.block.1.1.bias f4 [32]
000000 26 95 75 3d 2f 03 2f bd f5 0e 1c 3e 3e c4 18 3f
       0.059956692 -0.042727645 0.1524008 0.5967444
000010 df 02 d9 bf 27 da 09 bb f7 e9 51 bf b1 a2 3e be
       -1.6954001 -0.002103457 -0.8199763 -0.1861675
000020 97 da 55 3f 1f 03 ae bf 1e 5d 21 bf 06 1c 59 3e
       0.83536667 -1.3594702 -0.6303271 0.21202096
000030 1e ca 59 bf ab e2 21 3f a0 63 8c 3e 97 5a db 3c
       -0.8507403 0.6323649 0.27419758 0.026776595
000040 9c d0 64 3e 98 65 9d bf 41 72 65 3e e1 79 62 be
       0.22345203 -1.2296629 0.22406866 -0.22116806
000050 59 0b f1 bf 07 dd 00 3f a2 92 40 be 8c 24 3c be
       -1.8831588 0.5033726 -0.18805936 -0.18373317
000060 be 15 11 3f f8 34 8e be 5e a6 4a 3f 9e cf a3 3e
       0.566738 -0.27774787 0.79160106 0.31994337
000070 88 9e 3b be 5c 53 b8 bf 25 57 22 be a6 8f 48 3e
       -0.18322194 -1.4400439 -0.15853556 0.19586048

0.features.2.0.block.1.1.running_mean f4 [32]
000000 7e 72 a1 3d 3c cd 73 be 29 15 4d 3d f4 ff 52 3e
       0.07883166 -0.2380876 0.050069008 0.20605451
000010 53 9f ed 3e 80 65 7f 3d 59 50 5e 3e 02 71 43 be
       0.46410617 0.062352657 0.21710338 -0.19086078
000020 70 7a 9a bd f1 9c ea 3b ab 0a cc 3c 67 e7 47 be
       -0.07542884 0.007159822 0.02490743 -0.19521867
000030 b1 a8 39 3d c8 a5 eb bc 42 0b 05 3e 3b e8 e3 bd
       0.045326892 -0.028765574 0.12992576 -0.11128279
000040 b8 a5 e6 bd 09 b8 11 3e 8c c7 b1 bd 2d 1a d7 3d
       -0.11262077 0.1423036 -0.08680639 0.105030395
000050 92 ed e9 bd f9 db 2a 3e bb 02 08 be d3 72 61 be
       -0.11422266 0.16685475 -0.13282292 -0.22016458
000060 b3 c2 14 be 6c 5a 14 3e bb 15 02 bd 5e ca 3b bd
       -0.14527397 0.14487618 -0.031759005 -0.04584729
000070 d7 02 fc 3d 9f 5a 74 bd 5f b5 13 be 0e f9 9f 3d
       0.12305229 -0.059656736 -0.14424656 0.07811175

0.features.2.0.block.1.1.running_var f4 [32]
000000 23 21 e0 3e 3d ca 79 3f 93 50 5e 3f ea 50 75 3e
       0.4377528 0.97574216 0.86841697 0.23956648
000010 ef 5f 08 40 85 25 9c 3e 52 46 30 3f 4b cb bf 3e
       2.1308553 0.30497375 0.688573 0.37459788
000020 a1 d1 52 3f 4f b9 79 3f 4a 08 f0 3d ab de 97 3e
       0.8235112 0.97548383 0.11720331 0.2966207
000030 f6 b5 73 3e a2 11 9c 3e 74 74 51 3f 4b dc 12 3f
       0.23799881 0.30482203 0.8181832 0.5736739
000040 c1 e5 99 3d 72 7b 31 3f ab cb 37 3e 9c 8c 0d 3f
       0.07514525 0.6932899 0.17948787 0.5529268
000050 af ce 2b 3f 21 38 14 3f d7 0f 50 3e 76 cb 75 3e
       0.6711225 0.57898146 0.20318542 0.24003395
000060 d0 f6 8f 3e 01 2a 31 3f 5e c9 ab 3f 31 62 ab 3e
       0.2811799 0.6920472 1.3420827 0.33473352
000070 30 6f d2 3e c8 ad 1d 3f 80 f3 52 3e 30 76 14 3e
       0.41100454 0.61593294 0.206007 0.1449821

0.features.2.1.block.0.0.weight f4 [128, 32, 3, 3]
000000 8e 11 d3 3c 5c 47 99 bd 49 88 05 3d 5b a3 09 bd
       0.025765207 -0.07484314 0.032600675 -0.033603054
000010 ea 62 83 3d 2d 12 18 3b 7f e6 c5 bc ac ba a1 3a
       0.06415351 0.0023204193 -0.02415776 0.0012338958
000020 82 4c 0e bd 25 0a 88 bd ad 33 64 3d 38 94 1e bd
       -0.034740932 -0.0664256 0.055713344 -0.03871557
000030 4a 6d 4c 3d e9 75 09 be d6 dd 74 3d 94 47 38 ba
       0.049908914 -0.13423885 0.05978187 -0.0007029709
000040 fc c1 cd 3c cc 24 6c bd ee f7 5b bd 54 e6 50 3d
       0.025116913 -0.05765228 -0.05370324 0.051000908
000050 3e 7c c5 bc c9 c9 2e bd d4 54 80 3d 27 f9 3f bc
       -0.024107095 -0.042672906 0.0626618 -0.011717117
000060 0c 8f e6 3d 2b 57 4e be ed bf 49 3d c4 86 a7 3d
       0.11257753 -0.2015044 0.0492553 0.081800014
000070 b3 53 3f 3d e1 74 a6 3c e1 15 88 bd c6 9a b2 3d
       0.04671068 0.020319404 -0.06644798 0.08720927
000080 ae 5d 27 3c d9 eb 61 bd 03 5a 74 3d f9 87 64 bd
       0.010215206 -0.055156562 0.059656154 -0.055793736
000090 ef 9f d1 bc 3b 87 db 3c 19 d7 09 bd 70 86 03 bd
       -0.025588958 0.026797881 -0.0336524 -0.03211063
0000a0 ec 73 d0 3d 6c 5a 86 bc 8f a7 10 3d 27 56 17 3d
       0.1017836 -0.016400538 0.035316046 0.036947396
0000b0 91 af 25 be 6d 8c af 3c d2 53 b5 bc 3a bf 38 bb
       -0.16180255 0.021429265 -0.022134695 -0.0028190152
0000c0 41 93 b6 bc 4d 6e 76 3d 1e 01 33 bd fc 34 d2 bc
       -0.022287013 0.060163785 -0.043702237 -0.02566003
0000d0 a1 fc 8d 3d 46 e7 42 3d a3 bd 18 3d 5e f0 ba b8
       0.06932951 0.04758384 0.037290227 -8.913943e-05
0000e0 f8 6f 51 bc 47 85 6b 3d 1c 4b 05 bd ea f7 db 3c
       -0.012783043 0.05750015 -0.032542333 0.026851613
0000f0 e6 64 e2 3d ce 2d 90 3d c8 a8 c1 3d d5 5f 82 ba
       0.11054401 0.070399866 0.094560206 -0.0009946773
000100 6e b4 0e bd 94 e5 25 bd 0b b5 68 bd 04 03 79 bd
       -0.03484004 -0.040502146 -0.05681328 -0.06079389
000110 2c 06 96 3c ca 96 10 3c 32 8b 6b 3d 38 36 29 bd
       0.01831349 0.008825013 0.057505794 -0.041311473
000120 56 0a 3e 3d b7 06 b7 bc 4e fc a7 ba b5 0b 9b bd
       0.046396576 -0.02234207 -0.0012816282 -0.07570592
000130 d7 2f 05 3d d6 ed 5f 3d 06 d2 88 bd e2 90 dc bb
       0.032516327 0.054670177 -0.06680684 -0.0067311386
000140 b1 65 9b bc ce 21 94 3c b3 e9 7d bd a0 9e 1e 3d
       -0.018969389 0.018082526 -0.06199045 0.038725495
000150 ef be 12 bd 9c 24 9b 3c f7 7a a1 bd fb a5 7f bb
       -0.03582662 0.018938355 -0.07884782 -0.0039008844
000160 3e 13 98 bc b2 3b ab bc 59 b1 46 3d 00 af 4f 3d
       -0.018563863 -0.020902488 0.048508976 0.050704002
000170 fd de 3d 3d dd b5 3d 3d 19 53 fd bd 5f 9f 8b 3d
       0.046355236 0.046316016 -0.12369365 0.06817507
000180 c6 b9 17 bd 8e 16 b4 3c 7e 6c 82 bb e6 0f 8a bd
       -0.0370424 0.021983411 -0.0039802184 -0.06741314
000190 5e 56 ab bd 75 54 89 3c c7 a4 9c 3d da cc 16 bd
       -0.083660826 0.016763905 0.07648616 -0.036816455
0001a0 b3 8f 8c 3c 15 b4 14 bb 0a c1 f4 bd 6f 83 bc 3d
       0.017158365 -0.0022690345 -0.11950882 0.092047565
0001b0 ad ef 4b 3d 35 ee 99 bd 91 b6 43 bc 31 9b 86 bd
       0.04978912 -0.075161375 -0.011945383 -0.06572569
0001c0 ec 87 15 3e 6a 82 66 3b 1d e7 5c 3c a6 b9 06 bd
       0.14602631 0.0035172948 0.013482836 -0.032891892
0001d0 0c 45 d2 bb 68 43 92 bc 22 bf 58 3d 83 be 84 bd
       -0.0064169224 -0.017854407 0.052916653 -0.0648165
0001e0 74 46 4a 3d f2 fa 38 be c1 21 3d bd 53 44 32 bd
       0.049383596 -0.18064478 -0.04617477 -0.04352219
0001f0 d4 7b 55 3c b2 58 ff 3c 37 ec 73 3c 94 4d 26 3d
       0.013030011 0.031170223 0.014887861 0.040601328
000200 ce 93 52 3d 79 8d f6 3b 9f 42 8c 3c 41 79 10 bd
       0.05141049 0.007524189 0.017121611 -0.035271887
000210 f3 4a 79 bc 5f 30 b0 bc 65 42 8a bd 79 53 57 bd
       -0.015215623 -0.02150744 -0.06750945 -0.05256984
000220 8f 42 42 3d 68 0e ad 3c 17 0d 2a 3c 55 d4 d6 3d
       0.047426756 0.021125033 0.010379097 0.10489718
000230 87 41 11 bd db b6 7d bd 33 0b b4 3c 2f ef 8f 3c
       -0.035462882 -0.061941963 0.021977996 0.017570106
000240 4c 72 15 3c f6 76 f1 3d 64 a2 23 bd 86 29 cc 3c
       0.009121489 0.11790268 -0.03994979 0.024922144
000250 f9 6f e4 bd 59 24 c6 3d 73 53 d8 3b 86 6d 8c bd
       -0.111541696 0.096749015 0.006601745 -0.068568274
000260 f8 0b 9f bc 75 0d 82 3c 71 f1 8d 3d ca 35 69 3c
       -0.019414887 0.015875557 0.06930817 0.014234016
000270 ad 0a 16 3d f0 dc a7 bd 93 db 79 bc c1 6b 33 3c
       0.036631275 -0.08196437 -0.0152501045 0.0109509835
000280 56 59 c5 3a 5f 9a c7 3d 14 7e c8 bd ea 47 8a bc
       0.0015056531 0.09746241 -0.097896725 -0.016879994
000290 a2 46 07 bc 45 b1 59 3d 8e 4c 29 3c 92 e6 14 be
       -0.008256586 0.053147573 0.0103331935 -0.1454108
0002a0 36 2b 19 bd dc a3 07 bd 2e 92 5b bd b5 6f a1 3d
       -0.037394725 -0.033115253 -0.053606205 0.078826346
0002b0 3c df 15 be 07 5f f8 bc 91 30 d9 bc 8b 60 9f bd
       -0.14635938 -0.03031875 -0.026512416 -0.07782086
0002c0 bc 52 7c bd 27 4f f1 bc 89 07 6a bd 51 02 1d 3d
       -0.06160234 -0.029456688 -0.057136092 0.038332287
0002d0 82 25 03 3d 72 b3 41 3d c4 d9 c5 3c dc ed de 3c
       0.032018192 0.047290273 0.02415169 0.02721303
0002e0 82 c2 80 3d 12 5c 86 3d bd 5e 6b 3b 60 ce cd 3b
       0.062870994 0.0656053 0.0035914623 0.0062807053
0002f0 ac 7e 4d 3d cf 0b 16 3d 54 38 82 bd 83 db f0 3c
       0.05016963 0.036632355 -0.063584 0.029401546
000300 1f 4f 68 bc 33 d5 1b bd 99 e3 e6 bb 9a f5 ed bc
       -0.01417902 -0.03804512 -0.0070461747 -0.029047776
000310 39 c2 aa 3d 28 4a 94 3c 12 e0 9a b9 12 56 a1 3d
       0.08337826 0.018101767 -0.00029540114 0.07877745
000320 ab 88 ae bc 61 e3 9d bd 2c dc 00 bd 64 ed 7e bd
       -0.021305403 -0.07709385 -0.031459972 -0.062238112
000330 01 ab 01 bd a1 ff 28 3c 2a f2 2f 3d 47 9d 6f bd
       -0.031657223 0.010314853 0.042955555 -0.0584996
000340 04 26 b3 bd 6b 21 e5 ba b9 0f 72 bc e9 85 0f bd
       -0.08747485 -0.0017481273 -0.014774256 -0.035039816
000350 79 02 b4 3d 80 60 85 3d e6 cf 92 bc a6 13 e9 3c
       0.08789534 0.065125465 -0.0179214 0.028451752
000360 15 83 48 bc 6a 05 e8 3a c1 1f e1 3c 0b e0 9c bc
       -0.012238284 0.0017701809 0.027480962 -0.0191498
000370 93 eb e6 3d 2f 4a 04 be f3 cc f1 bb 44 93 a9 bb
       0.11275401 -0.12918924 -0.007379168 -0.005175026
000380 ad 9e 2e 3b c8 d2 34 3b 50 dd df bd 7c 5f 83 bc
       0.002664487 0.0027591456 -0.10930884 -0.016036741
000390 db 47 06 be a3 91 92 3d 6b e5 1e bd fc ab 8a 3d
       -0.13113348 0.07156684 -0.03879301 0.06771085
0003a0 ff 1d 8a bd a3 1e f4 bc 9e f4 52 bd c4 7e 9d 3d
       -0.067440026 -0.029799765 -0.051502816 0.07690194
0003b0 f3 e4 80 3d c5 bd 89 3d 79 8d 97 3d 7c ea dd 3c
       0.062936686 0.06725649 0.07400031 0.02708935
0003c0 1b 3a 75 bd 49 af 67 3c 79 fb 96 bc ee 79 17 3d
       -0.059869867 0.014140912 -0.018430458 0.036981516
0003d0 8b 85 d3 3c 20 c4 31 3d b7 f9 54 bd 87 12 d9 bd
       0.025820514 0.04339993 -0.05199596 -0.10599237
0003e0 b4 82 c9 bc fb fa 86 3d 2a b1 28 3d ea f0 54 3d
       -0.024598457 0.065908395 0.04118458 0.051987566
0003f0 70 f9 83 bd 50 f4 17 3d 07 a7 b4 3b 7f db 42 3d
       -0.06444061 0.03709823 0.0055130753 0.04757261
