code/modeling/ckpt/AutoencoderConfig([1, 1, 2], flip=True, rotate=False)/autoencoder_15000.pth (torch, 538250 bytes, 87 tensors)

0.features.0.0.weight f4 [16, 8, 3, 3]
000000 de 75 4a ba 3e e5 1f 3d 7c 80 1e bd fb 28 0e bd
       -0.0007723252 0.03903698 -0.03869675 -0.03470705
000010 cc 47 31 ba a5 b9 f9 bb 52 0b 51 bb 0a da 61 bc
       -0.0006762713 -0.0076210075 -0.0031897617 -0.013784895
000020 91 4e 2a bc 8c 56 9f bc b9 d6 6c 3e a6 7c 0e bc
       -0.010394708 -0.019450448 0.23128785 -0.008696711
000030 06 d2 ae 3d f0 f4 20 3f eb 63 02 3e 0c c3 5b bd
       0.085361525 0.62873745 0.12733428 -0.053652808
000040 42 92 e0 3d 6c 11 8a bd c8 08 3c 3c 3a 5f 3c 3d
       0.109653965 -0.06741604 0.011476703 0.045989253
000050 76 8a 52 3c 87 64 03 3d b9 b1 0f 3e cc 16 23 3d
       0.0128503945 0.032078292 0.1403264 0.039816663
000060 2e 15 2d 3d 5f 43 3f 3d 07 bf 9d 3c b1 14 3c bd
       0.042256527 0.04669511 0.019256128 -0.04591817
000070 1b 48 d8 bd e2 c4 5e bd b4 0d 96 bc 8e 2c 3e 3d
       -0.10560628 -0.05438698 -0.018317081 0.04642921
000080 5f 28 9c bc 54 ec b8 bc 70 48 5f bc 39 1f 10 3b
       -0.01906222 -0.022573628 -0.01362811 0.0021991266
000090 bb 2c f7 3c 9c 29 1d 3c 13 4c b5 bc 54 c6 12 3d
       0.030172696 0.00959244 -0.022131002 0.03583367
0000a0 b2 d0 7c 3d 52 9c 88 3d 8a 16 b7 3b c2 7a 98 3d
       0.061722465 0.06670441 0.0055874037 0.07445289
0000b0 56 86 77 bb ec 42 c1 3c d6 b8 15 bd 2f 88 eb bb
       -0.003776928 0.023591481 -0.036553226 -0.007187865
0000c0 43 b7 63 3c ed 00 3a 3d 2e eb 2d 3d c5 9a 02 3c
       0.0138986735 0.04541104 0.042460613 0.00797147
0000d0 ba ea 88 3d 63 47 5b bc 09 13 6c bc 8f f9 75 bd
       0.066853955 -0.013383719 -0.014408835 -0.06005245
0000e0 6e 85 a8 bc ce 04 97 3b b9 d8 fa 3c 9d a5 e7 3c
       -0.020571437 0.004608727 0.03062092 0.028277213
0000f0 a3 bd a2 bc 1c ef b1 3c 82 43 4e bc a1 f2 d5 ba
       -0.019865816 0.021720462 -0.012589337 -0.0016322919
000100 6f a5 73 bc 77 4b 20 bd 3d b4 ce bd f5 42 8b bd
       -0.014870985 -0.03913447 -0.100929715 -0.067998804
000110 be 6e 41 3c 2c d7 af bb 94 e3 5d 3b f9 6c b4 3b
       0.011806188 -0.0053662267 0.003385757 0.0055061546
000120 be ba 17 3d b7 25 18 bc d0 3f af 3c 83 6d 56 bc
       0.037043326 -0.009286336 0.021392733 -0.013087633
000130 3c 50 a6 bd ac 26 3a bd 82 68 23 3d fd fa 8c 3b
       -0.08120772 -0.045447037 0.03989459 0.004302381
000140 a0 15 57 bd 05 ad ac bc b3 8d 39 bd 9c 4d e6 bd
       -0.052510858 -0.021078596 -0.04530115 -0.112452716
000150 b8 95 03 bc 9e b8 a3 bd 90 7a 04 be 9b 67 77 bd
       -0.008031301 -0.07994197 -0.12937379 -0.06040154
000160 80 2d 28 bd e6 e5 b9 bd 4d 6a 90 bb 37 b3 8b bd
       -0.041059017 -0.09077053 -0.0044072033 -0.06821292
000170 fd e1 ae bc 0c 0f bb bd 15 fe b2 3d 19 14 80 bd
       -0.021347994 -0.09133729 0.087398686 -0.06253833
000180 0d f8 ca 3c 64 be 92 bd 43 0b 00 bd 1d 4e 4c 3d
       0.024776483 -0.071652204 -0.03126074 0.049879182
000190 fd b6 1f 3c e2 96 40 3d c1 6e 53 bd 30 3a b3 bc
       0.009748218 0.047018893 -0.051619295 -0.021878332
0001a0 3d 03 14 3c 92 ac 1c bb b8 66 83 bd bf a2 2b 3d
       0.009033975 -0.002390657 -0.064160764 0.041903254
0001b0 c5 d6 87 bd 13 98 2d bd d1 68 67 bc d0 1f 7b bd
       -0.06632761 -0.042381357 -0.014124111 -0.061309636
0001c0 6e a5 4d 3d fd 59 22 3d 75 1a 98 bd f0 c0 31 3d
       0.050206594 0.0396366 -0.07426921 0.04339689
0001d0 25 9d 0b 3d 01 16 23 3b 46 b0 d7 3c 6e 34 87 3d
       0.03408541 0.0024884942 0.02632917 0.06601797
0001e0 f1 0c 48 bc dc 1b 7a 3d c6 16 e0 3d a2 65 02 bd
       -0.012210117 0.061061725 0.10941844 -0.031835206
0001f0 76 3f c4 3d c2 8b 34 3e ad 5e cc 3a c8 da a5 bb
       0.09582417 0.17631438 0.001559218 -0.005061481
000200 e0 8d 12 3d d8 40 eb 3c 09 a9 e0 3c d0 9e 08 3e
       0.035779834 0.028717443 0.027424352 0.13341832
000210 e5 95 85 bc 37 9e 42 3d 99 93 fc 3d 82 d1 fe 3c
       -0.016306827 0.047514167 0.123328395 0.03110576
000220 fb 6c b1 bd e2 b6 71 bc 0b 7d eb bc f7 6e d7 3c
       -0.086633645 -0.014753075 -0.028746149 0.02629803
000230 35 6b 54 3d 13 da a0 3c f5 b5 26 bd e1 60 ea 3c
       0.051860053 0.019635236 -0.04070087 0.028610649
000240 58 72 2d bc 6e 4d 12 3d b5 bc 8d bc 8c a9 4d bd
       -0.010586344 0.035718374 -0.017301897 -0.05021052
000250 d1 d0 51 3c 0a 64 cc bd 3c 22 45 3c be 77 48 3e
       0.012806133 -0.099800184 0.012032088 0.19576928
000260 85 2e 23 bd b4 c8 83 3c 4a 52 5a 3d 3b d8 06 3c
       -0.039839286 0.016086914 0.053301133 0.008230264
000270 1e 83 36 3d 04 05 c4 3d 1c ba 39 3d 33 de 57 ba
       0.044558637 0.09571269 0.045343503 -0.00082347094
000280 a2 3f 9c bc f1 a3 97 bc 4d 6c 2a 3c 93 9b 7c ba
       -0.019073311 -0.01851079 0.0104017975 -0.00096362195
000290 09 74 de 3b 35 81 d2 3c 38 ea c5 3c f7 c9 0a 3c
       0.006788735 0.025696376 0.024159536 0.008471004
0002a0 0f 9a f3 3b 43 c4 6e 3c ac d6 40 3d b0 55 d1 bc
       0.0074341367 0.01457316 0.047079727 -0.025553554
0002b0 a0 ac 10 bc eb 0a 0d bd 0b d2 a1 3b bb 69 0d 3c
       -0.0088302195 -0.03443424 0.004938369 0.008631165
0002c0 c2 7f fc bc 83 f9 4f bd 2b 4c 6b bd 69 92 ce bd
       -0.030822638 -0.050775062 -0.057445686 -0.10086519
0002d0 5a 2b 47 3d d7 61 65 3d 4c 48 b7 3c 3b 8e aa 3d
       0.048625328 0.05600151 0.022373341 0.083279096
0002e0 0a de d5 3d ad f0 b6 3d 24 69 26 3d fc 0b 43 bd
       0.10442741 0.08932624 0.040627614 -0.04761885
0002f0 bb 80 88 bc 52 e6 60 bd a3 28 e1 bd 52 db 98 bd
       -0.016662946 -0.05490715 -0.10994079 -0.07463707
000300 de ff 30 3c 8c f3 b0 bc 66 95 9f 3c 8e c2 bc bd
       0.010803191 -0.021600507 0.019480418 -0.09216796
000310 b7 03 59 be da 3c a7 bd ac c9 f9 bc e2 b3 a5 bd
       -0.21192823 -0.081659034 -0.030491672 -0.080909505
000320 72 e3 52 bd 47 ff a1 3c ee c7 1f bc d0 53 2a 3d
       -0.05148644 0.019775046 -0.009752257 0.041583836
000330 42 97 8a bd c8 83 44 be de 30 75 bd 67 93 76 3d
       -0.067671314 -0.19190896 -0.059861057 0.060199168
000340 8e a5 f4 3b 70 9b 0c 3d f9 d2 a5 3d 60 d6 b4 3d
       0.0074660247 0.034327924 0.080968805 0.08829951
000350 21 c4 d0 3d f6 c4 46 3d e4 72 09 be ec c4 33 3d
       0.101936586 0.04852768 -0.13422734 0.04388897
000360 5f 3c 77 ba 61 74 c4 3c 06 19 8a bc 22 ca 1c bd
       -0.0009431298 0.023981275 -0.016857635 -0.038278706
000370 2c cb 53 3d 4c c5 14 3d a6 c0 9e 3b fb 9c 40 3d
       0.05170743 0.03632097 0.004844743 0.04702471
000380 f1 cb 3b 3d e9 c5 8e ba 36 70 0f 3e bb dc 13 3c
       0.04584879 -0.0010892722 0.14007649 0.009024794
000390 0f 21 47 3d dd ba ca 3c b4 f5 db 3c 70 78 36 3c
       0.04861551 0.024747306 0.026850559 0.011137113
0003a0 f8 3c 78 bd 5b 18 a7 bc 3f 89 2f bc 69 bf a3 3c
       -0.06060502 -0.020397356 -0.010713874 0.019988732
0003b0 ca c8 a7 3b c2 7c a6 3c fe c7 85 3d ba 75 64 3d
       0.0051203715 0.020323161 0.06532286 0.055776335
0003c0 f5 31 2c 3d 6a 47 7f 3c 8b d1 3e 3d c8 e9 c3 bc
       0.04203983 0.015580991 0.046586554 -0.023915187
0003d0 27 84 c7 bc b6 ee 64 bc 43 96 9b bd 83 68 a8 bd
       -0.024355007 -0.013972929 -0.075970195 -0.08223059
0003e0 dd f8 0d be 3d 2a 07 bd 51 cf 84 bd a5 38 53 bd
       -0.13864465 -0.032999266 -0.06484855 -0.051567692
0003f0 cd 95 0b 3d f4 b8 86 3d 91 9d 9a 3d af ee aa 3c
       0.034078408 0.06578246 0.07549585 0.020865766

0.features.0.1.weight f4 [16]
000000 a1 01 3d 3f 23 23 24 3f b6 4d 09 3f 8d bb 19 3f
       0.7383061 0.64116114 0.536342 0.60051805
000010 f8 42 4e 3f a4 c7 18 3f 24 03 1f 3f fb ec 8f 3f
       0.80570936 0.5967963 0.6211417 1.1244196
000020 15 b0 28 3f 22 ca 2d 3f 2c c7 28 3f 02 47 32 3f
       0.6589368 0.67886555 0.6592891 0.696396
000030 13 b5 2d 3f f4 c4 4c 3f 7a 86 45 3f c7 e4 2c 3f
       0.6785442 0.79988027 0.7715832 0.67536587

0.features.0.1.bias f4 [16]
000000 e9 60 81 3f de f5 3f 3e f5 b1 8b 3f f7 50 0a 3f
       1.01077 0.18746135 1.0913683 0.5402979
000010 2e b4 d1 3c cd 15 24 3f 80 91 3a 3f 4c 62 aa be
       0.025598612 0.64095765 0.72878265 -0.3327812
000020 3d 50 08 3f 55 fd 9e 3e 7c 6c 20 3f 7f ae 42 3f
       0.53247434 0.31052652 0.62665534 0.7604751
000030 61 1a a5 3e 0b 14 42 3f cd e7 a9 3d 1f b6 e3 3e
       0.32246688 0.75811833 0.082961656 0.44474885

0.features.0.1.running_mean f4 [16]
000000 03 f7 4f b9 6e 86 b6 3a 37 44 df 38 66 85 1f ba
       -0.00019833077 0.0013925561 0.000106461746 -0.00060852466
000010 83 ec 88 39 b8 ec da b8 cc 4f 60 39 35 74 8a 37
       0.00026116156 -0.00010439142 0.00021392031 1.6504995e-05
000020 17 5c 94 ba 86 ed 97 39 44 b2 6a 39 0c 3c a7 b9
       -0.0011318949 0.00028977933 0.00022382388 -0.0003189746
000030 ff 98 a2 3a 9c 29 99 39 ba 82 1b 3a a8 a3 69 39
       0.0012405216 0.00029213435 0.00059322605 0.00022281578

0.features.0.1.running_var f4 [16]
000000 ae cf 82 3f d4 fa 88 3f 08 fa e0 3e 74 b9 48 3f
       1.0219629 1.0701547 0.4394076 0.7840798
000010 f6 11 9d 3f e4 15 6c 3f 3b a8 03 3f b3 b6 db 3e
       1.2271106 0.922209 0.51428574 0.42912826
000020 6c 37 df 3f e0 6f b6 3f 67 02 64 3f cf 45 86 3f
       1.7438788 1.4252892 0.89066166 1.0490054
000030 20 55 cf 3f 9f 77 bf 3e 94 28 b4 3f 0e 0b b5 3f
       1.6197853 0.3739595 1.4074883 1.4143999

0.features.1.0.block.0.0.weight f4 [16, 16, 3, 3]
000000 37 02 ee bd d7 02 1b be 2e 4d d1 bd 73 2b 20 bd
       -0.11621516 -0.15137802 -0.10219799 -0.039103936
000010 d2 90 13 be 1a 53 c5 bd 1b 4f 26 3e 51 ab 55 bd
       -0.14410713 -0.09634991 0.16241114 -0.052165333
000020 83 39 08 3e fd b3 e5 bd f6 5f 82 be ff 7a 94 3d
       0.13303189 -0.11215971 -0.25463837 0.07250022
000030 0a b3 9d 3b 75 a7 05 bd 8e 6d 19 be d9 65 d5 bd
       0.004812603 -0.032630403 -0.14983198 -0.104198165
000040 fd 58 43 3e 44 0e f1 3c 38 63 2d 3d 54 a5 77 3e
       0.19076915 0.029425748 0.04233095 0.24184161
000050 13 1f 82 3e 75 43 ef bd 21 5f c8 bd 27 3a 84 bd
       0.25414333 -0.11682788 -0.097837694 -0.06456404
000060 1d 40 c1 3d 3c 2e 88 3e 45 7f bf 3d c4 35 8b 3d
       0.09436057 0.26597774 0.093504466 0.06797364
000070 64 f2 3d 3e 63 35 5c 3d 61 56 87 3e a0 a6 2d be
       0.18549496 0.05376185 0.2643309 -0.16958094
000080 e2 6c 7e 3d ae 5e cf bd 48 dd ca 3d 6b 21 5f 3d
       0.062115557 -0.101254806 0.09905487 0.05447523
000090 2e e8 0a 3d 66 86 ee bd 66 2c 12 bd 52 f0 51 be
       0.03391283 -0.11646728 -0.035686873 -0.20501831
0000a0 96 75 08 be 79 6d 71 bd db e4 69 be 03 f7 5b be
       -0.13326105 -0.058942292 -0.22841208 -0.21480946
0000b0 34 1e d3 bd 01 5c dc 3d 0f 61 8d bd 60 2e 07 3d
       -0.10308495 0.10759736 -0.06903278 0.03300321
0000c0 5e c6 2d be 3e 99 6f 3d dc 28 b2 bd 1f 8f d9 3c
       -0.16970202 0.058495753 -0.086991996 0.026557503
0000d0 e7 97 03 3d cd 94 f4 3d 56 21 a3 3a 37 35 8e 3d
       0.032127287 0.11942444 0.0012445848 0.06943744
0000e0 e1 42 39 3e 1e 67 c1 bb 0b 04 56 bd 3c b3 1b 3e
       0.18091919 -0.005902185 -0.05224995 0.15205091
0000f0 5e 49 0a 3e 2d 54 9e bc d2 3e 21 3e af 18 b7 3d
       0.1350455 -0.019327248 0.1574662 0.08940255
000100 34 d3 e8 3d 1a b8 a5 bc a0 cb ad 3d c6 26 91 bc
       0.11368409 -0.020229388 0.08486104 -0.017718684
000110 aa 46 06 3e 8a 4c b7 bd 08 2e 92 3d 5a 37 61 bd
       0.13112894 -0.089501455 0.07137686 -0.054984428
000120 8a e8 39 3d 87 62 c1 3d e2 e7 3b 3e 29 fd 12 3d
       0.045387782 0.09442621 0.18350175 0.035885964
000130 81 66 07 3e 69 38 1b 3e 22 97 fa bc 1e 6a 60 3d
       0.13222696 0.15158238 -0.030589644 0.0547887
000140 6e 50 d3 3c 7b 68 3d bc 4f 59 bf 3d 21 5c a1 bd
       0.025795188 -0.011560555 0.09343206 -0.078789
000150 51 ae e4 3c 93 fd 78 bd cf 8d 52 3d f9 17 b9 bd
       0.027915152 -0.060788702 0.05140477 -0.090377755
000160 d6 3a 68 bd b2 0b 7c bd 9e 8c 2c be 10 4a 22 be
       -0.056696735 -0.06153459 -0.16850516 -0.15848565
000170 4f 59 05 be da 94 43 3d a1 32 2b 3d b8 e0 b5 bd
       -0.1302235 0.047749378 0.04179633 -0.08880752
000180 6d a6 04 3d 9e ca 81 3d 6b 7a 2f 3c d6 d9 0c 3c
       0.03238528 0.06337474 0.010710339 0.008596858
000190 80 f7 61 3c 8a 60 37 3d cf 7a a3 3b 3d 26 97 bd
       0.013791919 0.0447698 0.004989005 -0.0738034
0001a0 a0 42 1d 3d 89 aa d9 3d e2 f8 d1 3d bb b7 3b 3d
       0.038393617 0.1062823 0.10252549 0.045829516
0001b0 f6 2f 25 3c fe e8 b7 bb 94 48 66 bd 77 1d f6 bd
       0.010082236 -0.0056124916 -0.05622156 -0.12017339
0001c0 49 c8 8a bd 45 c8 05 bd e8 da 00 3d 0f dc ee bd
       -0.067764826 -0.032661695 0.031458765 -0.116630666
0001d0 2d 01 46 3d f5 42 64 3d 76 f8 8a bd 55 d8 d7 3d
       0.048340965 0.055727918 -0.067856714 0.10539309
0001e0 5e b8 d6 bc 3d 2e be be e2 b6 82 be f7 4d 35 bd
       -0.02621096 -0.37144652 -0.25530154 -0.044263806
0001f0 87 7c 62 be 8f c4 34 bd a0 cc ae bd a1 f6 3e 3d
       -0.22117816 -0.044132765 -0.08535123 0.046621922
000200 61 e4 8e bd 9e ae 3f 3d 77 91 26 3d 2f c4 7c bd
       -0.069771536 0.046797387 0.04066607 -0.061710533
000210 46 f6 5d 3d 3f f0 03 3e 84 d1 12 bd ec 8a e9 bc
       0.054189943 0.12884615 -0.03584434 -0.028508626
000220 6a cb 05 be 11 97 9f bd e8 8a b1 bd 7e f7 ac bd
       -0.13065878 -0.077924855 -0.086690724 -0.08445643
000230 1d de ba 3d 37 84 df bd c3 37 c9 3c 2d e1 1f be
       0.09124396 -0.1091389 0.024562722 -0.15613241
000240 c6 c0 bc bd 65 56 30 be 71 71 4c bd 3f 33 e3 3c
       -0.09216456 -0.17220457 -0.049912874 0.027734397
000250 65 e5 ee 3d 95 36 b3 3d fc b2 0c 3e 1b 14 be bd
       0.11664847 0.08750645 0.13740152 -0.092811786
000260 f5 80 68 bd ca bc ac bd a4 14 c1 3b b6 d1 53 3e
       -0.056763608 -0.08434446 0.005892353 0.20685467
000270 87 11 14 3e 72 67 59 3e bc 61 43 3c 91 07 91 3e
       0.14459811 0.21230868 0.011925157 0.28326085
000280 c4 fa 1c bd 5c 48 fd 3d 0b 7b 91 bd 86 55 86 bc
       -0.038325086 0.12367317 -0.07103547 -0.016398203
000290 e4 65 41 be 80 4b 38 be d3 d6 e5 3c 1e 38 06 be
       -0.18886524 -0.17997551 0.028056538 -0.13107345
0002a0 e0 8c cb bd 7d 23 8e be 83 7e f0 3d 20 b9 a0 bd
       -0.09938979 -0.2776145 0.1174288 -0.0784781
0002b0 77 50 84 bd c9 60 33 be f3 94 d4 bc 1d 5c d4 3d
       -0.0646066 -0.1751739 -0.02594993 0.10369132
0002c0 18 6e 18 be 7b af 1d bd 44 87 ad 3d e8 2b 77 bd
       -0.14885747 -0.03849743 0.084730655 -0.060344607
0002d0 dd 9d 22 3d 25 7b 36 bd 02 85 f2 3c fe 2b 20 bd
       0.03970133 -0.044551034 0.029604439 -0.039104454
0002e0 0f d0 74 3c 51 3a 37 3e 9b 8f ab bd 72 fe d5 3d
       0.014942183 0.1789334 -0.08377 0.10448922
0002f0 b0 84 6a bd 4e e2 d6 3d 4a cc 4b bc 60 2c c6 be
       -0.057255447 0.10492383 -0.012438843 -0.3870573
000300 f1 64 e9 3d ba 3d 1a be 5a e9 d4 bd 09 c6 12 3e
       0.11396206 -0.1506261 -0.10396071 0.14333357
000310 68 92 17 3d 9d 7d 31 3e 03 13 dc 3d 0a 93 e8 3d
       0.03700486 0.17333074 0.10745814 0.113561705
000320 c0 f3 90 bc 56 92 22 bd 5c 51 6d 3d b1 99 6d bb
       -0.017694354 -0.039690338 0.05793892 -0.0036254937
000330 5a 29 99 3c 08 dd 28 3e 8a ef 02 be 1b 33 3c bd
       0.018696476 0.16490567 -0.1278669 -0.045947175
000340 25 79 90 3c ed e7 be 3c 58 26 ae bd 73 4d 82 3d
       0.017635891 0.02330395 -0.08503407 0.063624285
000350 1e 41 fa bc e5 2b 6e 3c 25 b2 68 3c 44 66 82 3e
       -0.030548628 0.014536832 0.014202629 0.25468647
000360 ad 10 5b bd f7 b3 07 be 0c 41 39 bd 88 3f 34 be
       -0.0534827 -0.13252245 -0.04522805 -0.1760236
000370 a8 3d 4e be 20 27 1a be d1 25 3c bd 71 9c fd bd
       -0.20140707 -0.15053988 -0.045934502 -0.123833545
000380 9b ab d8 bd 22 5c 0b be bc 10 34 3e 6c 65 a3 3d
       -0.10579606 -0.13609365 0.17584509 0.07978329
000390 b7 10 97 bd 3f c4 2e bd 26 3f 40 3d 99 b1 dd 3d
       -0.07376235 -0.042667624 0.046935223 0.1082489
0003a0 39 17 99 3d 0d f2 d3 bb 40 ac a9 bc 60 49 05 be
       0.074751325 -0.0064680637 -0.020712018 -0.13016272
0003b0 47 7a bf 3c 0e 61 c5 bd 22 14 df bb c4 24 84 3d
       0.023373736 -0.09637652 -0.00680782 0.06452325
0003c0 4d ed c7 3d a8 a7 72 be d5 03 4e 3e 37 6a 2c be
       0.097620584 -0.23696768 0.2011865 -0.16837393
0003d0 f2 55 ba bd b7 c4 b9 bd e4 4e e1 3d ec 40 a4 bd
       -0.09098424 -0.090707235 0.11001375 -0.08020195
0003e0 f1 66 9c bd dc 2d ad b9 0d 28 c8 bd bc 7f c7 bd
       -0.07636822 -0.000330313 -0.09773264 -0.0974116
0003f0 13 b8 65 bd 2f 36 ba 3d e9 7a d7 3d 40 9c aa 3d
       -0.05608375 0.09092366 0.1052149 0.083305836

0.features.1.0.block.0.1.weight f4 [16]
000000 41 2d 32 3f a7 45 4f 3f 33 df 3b 3f 69 88 33 3f
       0.696003 0.80965656 0.7338745 0.7013002
000010 69 90 57 3f 88 33 37 3f fc eb 38 3f 10 f1 22 3f
       0.8420473 0.71563005 0.72235084 0.6364908
000020 85 f9 3e 3f fa 38 15 3f b5 50 2b 3f 06 ee 35 3f
       0.74599487 0.58290064 0.66920024 0.7106632
000030 cb 59 3a 3f f0 bf 38 3f e4 37 57 3f a1 be 39 3f
       0.72793263 0.72167873 0.8406966 0.725565

0.features.1.0.block.0.1.bias f4 [16]
000000 7e ea 9b 3e 3e e2 ea bb 62 f3 01 3c f7 07 5c 3c
       0.3045234 -0.0071680835 0.007931562 0.013429633
000010 dd e6 86 bd c8 c7 ae 3d 27 0c 83 3e e5 31 89 3e
       -0.065870024 0.08534199 0.2559521 0.2679588
000020 9b bd 83 3c 5a cf 9b bc 03 89 8f 3c 7c 3e 55 3d
       0.016081622 -0.019019771 0.017521387 0.052061543
000030 e5 b3 d2 3e 80 8e 8f 3e 10 a1 95 3e 22 e7 dc 3e
       0.41152874 0.28038406 0.29224443 0.4314509

0.features.1.0.block.0.1.running_mean f4 [16]
000000 82 ef 87 3d 40 8b fc be 1d 41 5e bf da f0 79 bf
       0.06637479 -0.4932499 -0.86818105 -0.97633135
000010 c0 8e da be 61 b8 0f 3c 26 43 18 3f 4b fa f9 3e
       -0.42687035 0.008771987 0.5947746 0.4882377
000020 43 69 2c bf 66 3e bd bf fe ec 72 bf fc c4 56 bf
       -0.67348117 -1.4784667 -0.9489287 -0.83894324
000030 b3 25 b3 be ba d7 f3 be 41 09 01 3f 04 b9 fa 3e
       -0.349897 -0.47625524 0.50404745 0.4896928

0.features.1.0.block.0.1.running_var f4 [16]
000000 5b d2 6e 40 47 5a e3 40 63 f0 06 40 f3 a3 10 40
       3.731589 7.10477 2.108422 2.2600067
000010 cc 14 95 3f 31 b9 6d 40 73 63 d4 3f 6a de e0 3f
       1.1646972 3.7144282 1.659285 1.7567875
000020 36 29 4d 3f 34 d2 e4 3f 2f df 34 40 50 a0 fa 3f
       0.8014101 1.7876649 2.826122 1.9580173
000030 45 42 65 3f d0 d5 43 3f 8c 0b fc 3f 4b f5 a2 3f
       0.89554244 0.76498127 1.9691024 1.2731107

0.features.2.0.block.0.0.weight f4 [64, 16, 3, 3]
000000 9c 9c 7e 3c cb 97 6c bd 84 df 91 3b 10 52 f3 bc
       0.015540268 -0.05776195 0.004451694 -0.029702216
000010 6c 62 ce 3c bb 42 3d 3d ac d2 9b 3d 86 45 d0 3c
       0.025193416 0.046206217 0.07608542 0.025423776
000020 16 cb e3 3d 45 70 1c bd c6 94 87 bd ee f6 14 bc
       0.1112272 -0.038193006 -0.06620173 -0.009092076
000030 23 e5 f4 bc c2 b4 df bd 24 f2 3a 3d 13 31 01 bd
       -0.029894417 -0.10923149 0.04564108 -0.03154094
000040 22 35 bb bd 9c fa bd bb 1b 72 11 3d 18 50 93 3e
       -0.09140994 -0.005797697 0.03550921 0.28772044
000050 30 5b 02 3e 8e 07 d5 bd da 93 5d 3d 82 c7 53 3d
       0.12730098 -0.104018316 0.05409608 0.051703937
000060 34 38 10 be 7b b1 b9 3c 00 c6 36 bc c6 7d 67 3d
       -0.1408394 0.022667637 -0.011155605 0.05651643
000070 78 97 79 3d ea d9 1e 3d 9d d5 20 3d b3 ec 29 3e
       0.060935467 0.038782038 0.039266217 0.165942
000080 47 6a 8f 3c 62 03 de bc 7d f5 b8 3d 18 9d 10 3c
       0.017506732 -0.027101222 0.09031198 0.008826517
000090 f5 0b 25 bd be 94 6a bd 67 ac 67 bb da 2f 95 bd
       -0.040294606 -0.057270758 -0.0035350563 -0.072845176
0000a0 91 ae 8e bd ca 43 1f be 19 f1 2e 3c bd bc 07 bd
       -0.0696689 -0.15553203 0.010677599 -0.03313898
0000b0 75 50 37 3d 24 6b ec bc c4 ab 27 3d 23 6e d6 bc
       0.044754464 -0.028859682 0.040935293 -0.026175564
0000c0 31 53 9a 3d 14 79 31 3d ab bb 02 3e 53 ed 1b 3d
       0.07535399 0.04332836 0.12766902 0.038068127
0000d0 e4 f5 9c bd 3f 90 4c bd 21 07 28 3d 3f 90 52 3d
       -0.076640874 -0.04994225 0.041022424 0.051407095
0000e0 05 f1 b9 3d d3 7a 3e 3d 79 11 09 bc 28 49 63 3d
       0.09079174 0.046503853 -0.008365982 0.05548969
0000f0 56 8e 88 bd b5 6f d4 bc 19 83 e8 bd 90 d5 ea 3c
       -0.066677734 -0.025932172 -0.1135313 0.028666288
000100 02 82 bc bc 85 ba 26 3c 9e 41 3a bc b1 3b e8 3c
       -0.023011211 0.010176306 -0.011368183 0.028348776
000110 a6 2e 82 bd ec 78 26 3d 8e 1d 8f 3c cb 42 df 3d
       -0.06356554 0.040642664 0.017470147 0.109014116
000120 cc bb 94 bd 98 7a 01 3d 45 b4 b2 bc c0 b7 07 3d
       -0.07262382 0.031611055 -0.021814475 0.033134222
000130 c2 9d 15 bc d9 94 d3 3b f5 27 42 bc f2 2b 82 ba
       -0.009131851 0.006456953 -0.011850347 -0.000993131
000140 f7 1b c1 3d 78 e0 9a bc b2 e1 bd bd 91 d6 76 bd
       0.09429162 -0.018905863 -0.092715636 -0.06026322
000150 19 66 4d bd 8d cf ae bd 95 2d 68 bd 84 4f 13 3c
       -0.050146196 -0.08535681 -0.056684095 0.008991126
000160 96 5d 48 bb 0e 46 79 3c 11 71 b1 bc 25 bb bf 3c
       -0.003057336 0.015214456 -0.02166036 0.023404667
000170 c8 89 54 3d 92 bb c6 3d a6 5c 65 bd 89 19 ba 3c
       0.05188921 0.09703745 -0.05599656 0.022717254
000180 d4 83 e8 3c 09 84 c8 bb bc 33 1e 3c 70 3c 47 bd
       0.028383173 -0.0061192554 0.009655889 -0.048641622
000190 d0 0b a8 3c c2 85 34 3d f2 1d 8b 3d 4f 5d 09 3e
       0.020513445 0.044072874 0.06792821 0.134145
0001a0 9e fc 12 3e 23 69 9a 3d f9 2d 9d 3d d2 6f bd 3c
       0.14354178 0.075395845 0.07674784 0.02312461
0001b0 e9 64 59 bd da a2 2d 3d e0 f1 05 bc 72 e9 95 bd
       -0.05307475 0.042391635 -0.008175343 -0.07319917
0001c0 2c 94 64 3d 57 8b 53 3d 01 dd 81 bc 76 06 d5 3d
       0.05580537 0.051646557 -0.015852453 0.10401623
0001d0 d5 ff 00 be 53 6f 48 bc 73 83 42 3d 5e 98 51 3d
       -0.12597592 -0.012233573 0.04748864 0.0511707
0001e0 c4 ab 51 bc 31 9f c1 3d cb e1 e3 bc 64 8d 22 3c
       -0.0127973 0.094541915 -0.027817627 0.009921405
0001f0 23 82 e4 3d 1b 21 95 bc 52 ad 98 bb f1 7a 1e bc
       0.11157634 -0.018204262 -0.0046593333 -0.009672866
000200 95 f9 91 bc 10 13 ea bc ee 91 13 bd 1e 20 b5 bd
       -0.017819205 -0.028573543 -0.03602784 -0.088440165
000210 26 34 6d 3c 19 ad a6 bc 49 cf 86 bd a7 f5 a5 3c
       0.014477765 -0.020346211 -0.06582505 0.020258738
000220 3e d5 9e 3c 98 68 b9 3d 4b 71 39 3b cd 23 40 bc
       0.019388791 0.09053153 0.0028296288 -0.011727286
000230 56 b3 4f bd 51 8c 34 bc 73 19 54 bd ae b5 8d 3d
       -0.050708137 -0.011019782 -0.051782083 0.06919418
000240 bd fd 0d bd 8a 88 6f bd 95 d2 ca bb 46 01 97 bc
       -0.03466581 -0.058479823 -0.006189654 -0.018433224
000250 cb e8 b2 bd 7f e6 cd bd f7 60 3e bd 93 85 25 be
       -0.08735808 -0.10053729 -0.04647919 -0.16164236
000260 7d 83 f3 bd 33 4c d4 3b a9 d2 8f 3d 3f 4b 44 3c
       -0.11890314 0.00647881 0.07022602 0.011980831
000270 53 d0 0c bd ae 89 80 3d 54 eb 89 3c 61 6b a5 39
       -0.03437836 0.0627626 0.016835846 0.00031551256
000280 e8 f6 2f 3d d6 5c be 3c 14 47 0f bd b0 fd fa 3d
       0.042960078 0.023237627 -0.034979895 0.12255418
000290 43 e5 fd bd 08 15 b2 bd 60 fa d2 bc 12 00 05 be
       -0.12397244 -0.08695418 -0.025754154 -0.12988308
0002a0 3b 61 f1 3d 50 5b be 3c b3 7a 33 3e 7d 42 67 bc
       0.11786123 0.0232369 0.17527275 -0.014114973
0002b0 89 5c ca bd f9 89 13 3d ee df ae bc 0b 13 6e 3d
       -0.09880931 0.036020253 -0.021347012 0.05812363
0002c0 35 5f 69 3d 3b 57 53 bd 99 2a 1b 3d f6 a4 3a bd
       0.056975562 -0.05159686 0.03788242 -0.045567475
0002d0 fb 24 1e 3d 40 b6 c8 3d e0 66 8a 3c 1c 12 71 3d
       0.038609486 0.098003864 0.016894758 0.05885516
0002e0 93 df 98 3d df 97 d7 bc 57 a5 d8 3d e8 c7 92 3d
       0.074645184 -0.026317535 0.10578411 0.07167035
0002f0 7e 3c b3 3d ca 16 07 bc 2e 14 ff bc 51 9c 87 3d
       0.08751772 -0.008245179 -0.031137552 0.06621612
000300 57 cf 86 3a 75 89 50 bd c2 b5 9f 3b 27 55 29 3d
       0.0010285181 -0.05091234 0.004873962 0.041340973
000310 3e 6a c9 3c 9e 1a 80 3c 46 e7 47 bd a7 78 17 3d
       0.024586793 0.015637692 -0.048804544 0.036980297
000320 aa 3c 85 3d f2 ba 8d bb 7e fe a9 bc e6 4c 79 bd
       0.065057114 -0.004325264 -0.020751234 -0.06086435
000330 b8 83 9a bd 70 7b 8e 3d 81 c2 b3 b9 88 c2 b0 3d
       -0.075446546 0.069571376 -0.00034286457 0.08630854
000340 c7 4b 29 3d b1 89 e0 3d c7 33 ca 3d 8b 4f 14 bd
       0.041332033 0.109637626 0.09873157 -0.03620867
000350 31 82 d5 3d 5e 12 fb bb fe e0 37 be f8 6f db 3d
       0.10425223 -0.0076621016 -0.17956921 0.10714716
000360 f8 05 57 3d ec c1 91 3d 5e b1 ad bc 38 a4 73 bc
       0.052495927 0.07117066 -0.02120274 -0.014870696
000370 e0 fa b1 3d ef 6d 7a 3c 17 cf 0d 3d 3b 5b 40 3d
       0.08690429 0.015284999 0.034621324 0.046962004
000380 51 e7 1e 3e 1a d5 16 3d 51 3b 08 3d 1e b9 c8 ba
       0.15517928 0.036824323 0.033259694 -0.0015313958
000390 e2 38 0b 3d 6e cc 69 3c 88 6c 58 3c 73 45 8d 3c
       0.033989795 0.014269931 0.01320947 0.01724503
0003a0 7b 7a f5 bc fe 6c 79 bd 74 40 8d 3c b0 9c 4f bc
       -0.02996563 -0.06089496 0.017242648 -0.012671635
0003b0 a4 85 fb bc d0 8b 14 bd c7 a2 95 bc 78 a9 83 bd
       -0.030703373 -0.036266148 -0.018266095 -0.06428808
0003c0 fa 8b 4c 3c 42 97 92 3c fb b4 6b 3d 9e 1a 70 bc
       0.012484545 0.017894391 0.057545643 -0.0146547835
0003d0 d5 43 53 3d ef d1 62 3c 57 17 87 bc fb ec 39 be
       0.05157836 0.013843997 -0.016490621 -0.18156807
0003e0 57 69 5f bd ef a4 9b 3c bc cd 8c ba af e2 20 bd
       -0.05454382 0.018999545 -0.0010742466 -0.039278682
0003f0 a4 bf 2a 3d 64 ba 84 bc 55 a1 8e bc 16 29 34 bd
       0.04168667 -0.01620216 -0.017410913 -0.043984495

0.features.2.0.block.0.1.weight f4 [64]
000000 7f e2 50 3f fd 08 54 3f 56 2b 61 3f 3f b3 3f 3f
       0.81595606 0.82826215 0.8795675 0.7488288
000010 6d 9c 24 3f 96 a3 5c 3f 5a 50 5c 3f 49 ef 4a 3f
       0.64301187 0.8618711 0.86060107 0.7927137
000020 b8 33 5f 3f 9d 36 59 3f b0 1e 37 3f b1 88 18 3f
       0.8718829 0.8484896 0.715312 0.59583575
000030 49 cc 37 3f 68 e0 4c 3f 53 71 4e 3f b6 99 53 3f
       0.7179609 0.80029917 0.8064167 0.8265642
000040 bf 2d 04 3f 8a da 44 3f 28 52 46 3f 8f f6 50 3f
       0.51632303 0.76895964 0.7746911 0.8162622
000050 d0 e4 50 3f bc fc 50 3f d5 16 1c 3f d2 fd 53 3f
       0.8159914 0.8163564 0.6097234 0.82809174
000060 17 be 43 3f 86 32 5b 3f b1 f0 47 3f 00 e4 62 3f
       0.7646193 0.8562397 0.7810164 0.8862915
000070 57 f1 5b 3f 65 7a 25 3f 7c 27 41 3f 30 0a 54 3f
       0.8591513 0.64639884 0.75450873 0.82828045
000080 5a 26 35 3f d3 af 62 3f 30 5d 29 3f b6 6a 2b 3f
       0.70761645 0.88549536 0.6615782 0.669597
000090 8a 1c 5e 3f 68 57 53 3f ee 56 64 3f d4 cd 27 3f
       0.867623 0.82555246 0.89195144 0.65548444
0000a0 af 21 45 3f a2 29 5a 3f 23 62 52 3f 73 03 1e 3f
       0.7700452 0.85219777 0.82180995 0.61724013
0000b0 f7 5a 27 3f 99 a0 43 3f 17 39 3d 3f 16 1a 3d 3f
       0.65373176 0.7641693 0.7391524 0.7386793
0000c0 fc c3 5a 3f 55 df 6a 3f fa bf 68 3f 43 10 50 3f
       0.854553 0.9174703 0.90917933 0.81274813
0000d0 d2 3c 4f 3f 4b b4 37 3f ae f6 34 3f 4d 5e 50 3f
       0.8095218 0.7175948 0.70688903 0.8139389
0000e0 58 8f 3e 3f 97 69 54 3f f8 2c 35 3f 1a 7d 44 3f
       0.74437475 0.8297362 0.7077174 0.7675339
0000f0 89 5a 1d 3f e5 31 52 3f 8f ec 3e 3f f0 fe 37 3f
       0.6146627 0.82107383 0.7457971 0.7187338

0.features.2.0.block.0.1.bias f4 [64]
000000 08 ef 06 3f 2b 13 fd 3d d9 b7 d2 3e 70 fa 52 3e
       0.5270848 0.123571716 0.4115589 0.20603347
000010 82 91 13 be 88 36 bb 3e 99 83 76 3e bf f9 ae bc
       -0.14410976 0.36565042 0.24073638 -0.021359323
000020 64 f4 4a 3e 93 fb c3 3e 3b ea 08 bc db e2 3f 3d
       0.1981979 0.38277873 -0.008356626 0.046847206
000030 2e ca f5 3e f2 53 08 3e 32 e7 09 3e 06 46 af 3d
       0.48005813 0.13313273 0.134671 0.08558278
000040 d3 25 b7 3d 25 3d 10 3e af 17 3d 3e bf 3a 4b 3e
       0.08942761 0.14085825 0.18466066 0.19846629
000050 db 75 8f bd fd 81 bc 3e 50 8a e4 bc c9 5e 44 3e
       -0.07004901 0.36817923 -0.027897984 0.19176783
000060 1d c4 32 3e ae cd bd 3d d9 0a 91 3d 53 7d 64 3d
       0.17457624 0.09267746 0.07082147 0.05578358
000070 3d b8 f8 3e 05 bf fa 3d 12 f8 40 3e 24 42 dc 3d
       0.48578063 0.12243465 0.18844631 0.10754803
000080 71 70 5f 3d e5 4b ab 3d 21 4b 5f 3e eb 80 83 3e
       0.05455059 0.08364085 0.21806003 0.25684294
000090 da 17 6c 3e 1e 46 0c 3e d1 69 02 3d 0d e5 c5 3e
       0.23055974 0.13698623 0.031839196 0.38651314
0000a0 e0 37 30 3e 77 46 79 3e 69 dc 77 3d d6 0e b1 3e
       0.17208815 0.24343286 0.060512934 0.3458163
0000b0 80 07 46 3e 73 aa 56 3e 65 1f 07 3f f2 a5 26 3e
       0.19338799 0.20963459 0.5278228 0.1627424
0000c0 22 77 8f 3d d4 03 b3 3e ce 2e 16 3e c1 b1 64 3e
       0.07005145 0.34963858 0.14666292 0.22333433
0000d0 85 b4 1b 3d 15 a0 68 3e 8b 80 0b 3e f6 c1 69 3e
       0.038013954 0.22717316 0.13623254 0.22827896
0000e0 3e 7c 48 3e fd 6a cd 3d 80 5c bb 3d aa c2 42 bd
       0.19578645 0.10030172 0.09148502 -0.047548927
0000f0 cf f8 08 3d 80 07 49 3e a2 e3 c3 3d 3f 98 c1 3d
       0.033440407 0.19631767 0.09564902 0.09452867

0.features.2.0.block.0.1.running_mean f4 [64]
000000 6e 24 a4 3f 5d 47 38 bf 8b 44 2c 3f dd d7 35 be
       1.2823617 -0.7198389 0.6729209 -0.17758127
000010 a8 00 90 3c 2c a6 58 3e 09 90 98 3e 1a db 56 be
       0.017578438 0.2115714 0.2979739 -0.20982018
000020 e3 33 9d bf 24 4b 16 3f 12 4d 24 be c9 82 e0 3b
       -1.228146 0.58708405 -0.16045025 0.0068515283
000030 ad ec f3 3d eb bb 4f be f3 00 fc 3e 91 1b cb be
       0.11910377 -0.20286529 0.49219474 -0.3966947
000040 5e 81 83 be 44 17 99 3d c6 03 b6 3d ee fe 9b 3f
       -0.25684637 0.07475141 0.088874385 1.2187173
000050 c1 0d 0c be c5 9c d6 3e 7a a1 91 3e 2a 30 11 3f
       -0.13677122 0.4191648 0.2844351 0.5671412
000060 4b b8 b3 bd d4 50 36 be b2 d4 cc 3c 2b 99 75 be
       -0.087753855 -0.17804271 0.025003765 -0.2398421
000070 03 1b 0b 3f 35 3f eb bd 90 49 26 3f 7f f2 0d 3f
       0.5433809 -0.11486665 0.64956 0.55448145
000080 6b 44 9d 3e b8 ca 9c be ab c9 b1 bd 2b 71 73 be
       0.3071626 -0.30623412 -0.08681043 -0.23773639
000090 92 68 89 3e 3a 2a 60 3f 8a 95 11 be 76 12 49 3f
       0.26837593 0.8756443 -0.14217201 0.78543794
0000a0 95 b5 00 be e0 85 ae 3e 81 3f 92 bd 4a d4 31 be
       -0.12569268 0.34086514 -0.07141019 -0.17366138
0000b0 32 be c6 3c a6 07 13 3c 39 e3 39 3f ae 9b 39 3e
       0.024260614 0.0089739915 0.7261234 0.18125793
0000c0 ca cd 19 be 93 0b 14 3f 76 7f 8d be fe eb ca bd
       -0.15019909 0.5783016 -0.27636307 -0.09908293
0000d0 c4 29 36 bf 30 a6 c6 be 4e a0 1e 3f 38 c8 56 3f
       -0.7115748 -0.38798666 0.61963356 0.8389926
0000e0 ad 08 bb 3e 54 3b 21 3d cc 88 c8 be 1a 36 69 3d
       0.36530057 0.03936322 -0.39166868 0.05693636
0000f0 85 c9 8a 3d 65 2d 2d 3f 1f c1 ea 3d 8a 9c f8 3e
       0.06776718 0.6764739 0.11462616 0.4855693

0.features.2.0.block.0.1.running_var f4 [64]
000000 64 57 b8 3f e5 11 9f 3f bf 4e 3c 3f 1c f6 1c 3f
       1.440167 1.2427336 0.73557657 0.61313033
000010 e2 b2 18 3e 2d 59 1e 3f 39 76 59 3f d9 11 ce 3e
       0.14911988 0.6185482 0.8494602 0.40247992
000020 25 b6 c2 3f de fb b7 3f b5 d8 9c 3f 26 a1 01 3f
       1.5211836 1.4373739 1.2253634 0.5063652
000030 da ea c4 3e f6 20 13 3f df a2 24 3f 5f eb c6 3f
       0.38460428 0.5747217 0.6431102 1.554058
000040 79 26 a2 3e ac c8 6b 3f 22 80 e1 3f 34 2e b1 3f
       0.31669977 0.92103076 1.7617228 1.3842225
000050 55 09 47 3f c5 f2 49 3f a9 68 9a 3e e9 d5 69 3f
       0.77748615 0.7888606 0.30157974 0.91342026
000060 06 bf 91 3f d1 f7 18 3f 7b d3 a6 3f 9e cc 22 3f
       1.1386421 0.5975314 1.3033289 0.6359347
000070 3f 80 c3 3f 25 b7 9f 3e 91 bb 42 3f d8 45 0f 40
       1.5273513 0.31194416 0.76067454 2.238638
000080 04 dd f7 3e df fa 6f 3f 4a e9 7b 3f 99 67 15 3f
       0.4841081 0.93742174 0.98402846 0.583612
000090 41 f1 0b 3f c4 2f 09 40 70 81 bf 3e 23 d4 2e 3f
       0.54665 2.1435404 0.3740344 0.68292445
0000a0 84 8f c0 3f 65 90 54 3f b1 a1 1b 3f 3f 09 48 3e
       1.5043797 0.8303283 0.60793597 0.19534777
0000b0 a3 66 ea 3e ce 8e f4 3e e2 33 75 3f 4e c0 26 3f
       0.4578143 0.477652 0.9578229 0.65137184
0000c0 b7 9b 8d 3f bb f6 2e 40 7c 87 f6 3e a4 01 1e 3f
       1.1063145 2.7338092 0.4815024 0.61721253
0000d0 ad 2d 10 3f cf a8 07 3f 4e 8d b6 3f c0 69 b4 3f
       0.56319696 0.52991956 1.4261873 1.4094772
0000e0 29 72 19 3f bc 42 14 3f 11 c7 e2 3e 83 13 94 3f
       0.5993982 0.5791433 0.442925 1.1568455
0000f0 b8 26 7e 3e 08 bf 93 3f ed 6d 92 3f d4 7a 07 3f
       0.24819458 1.1542673 1.1439797 0.52921796

0.features.2.0.block.1.0.weight f4 [32, 64, 1, 1]
000000 89 95 95 3e 51 f7 d6 be e5 16 13 3a b1 8d e5 3e
       0.2921565 -0.41985562 0.00056110165 0.44834664
000010 61 6a 29 bd 6d f8 ad 3e 97 df 69 be 31 f4 71 be
       -0.041361216 0.33978596 -0.22839199 -0.23628308
000020 3a fd 84 3e 53 62 82 3e ed ca 19 be 43 d9 95 bc
       0.25974447 0.2546564 -0.15018816 -0.018292075
000030 db d7 2f bd a3 3f 8a be 29 76 9d 3d ce e1 37 be
       -0.042930465 -0.27001676 0.07688553 -0.17957231
000040 89 5b ce be d0 20 9d 3e f1 15 3c 3d 44 ab 87 3e
       -0.4030421 0.30689096 0.045919362 0.26497853
000050 ae ea a3 bd 0a 6d 6f 3e a3 0a 90 3d a0 aa 60 3e
       -0.08003746 0.23381439 0.07033279 0.21940088
000060 a6 4a 37 3e e6 ab 3d 3e d4 09 89 be 37 e9 10 bd
       0.1789957 0.18522605 -0.2676531 -0.03537866
000070 94 95 d3 3e 2b 35 9d be c9 04 b4 3e 1e c9 90 be
       0.41325057 -0.30704626 0.351599 -0.2827844
000080 46 56 62 3d c1 fc 95 3e df 91 dd bd 71 9d c6 be
       0.055258058 0.29294398 -0.10818838 -0.38791993
000090 89 86 9d 3e ec f2 44 be 76 b4 8e be 73 d7 a0 3e
       0.30766705 -0.19233292 -0.27872056 0.31414375
0000a0 98 ba ab be 4c f2 48 3e 83 3f cd 3d b9 cf 69 be
       -0.33540797 0.19623679 0.100218795 -0.22833146
0000b0 a4 7b b1 3e 79 f6 cd bd ee 91 13 3f 85 4d 41 3e
       0.34664643 -0.100567766 0.57644546 0.18877228
0000c0 16 fa 2b 3e 06 06 83 3e 33 ea af bd 01 62 fc be
       0.16794619 0.25590533 -0.08589592 -0.4929352
0000d0 90 06 09 be c2 12 cb be 41 f4 1c 3d ce f6 f4 bd
       -0.1338141 -0.3966275 0.038318876 -0.11961137
0000e0 15 3f 62 be 47 0f a3 bd 51 ac b1 bd 42 86 1c 3c
       -0.22094376 -0.07961898 -0.08675445 0.009553494
0000f0 93 e6 1c be 82 69 56 3e 97 96 d6 3d 30 ce d2 bd
       -0.15322332 0.20938686 0.104779415 -0.102932334
000100 2c dc 47 3e 6a d6 2e be 15 65 c8 3e ed 19 c0 be
       0.19517583 -0.1707398 0.3913962 -0.3751978
000110 18 79 34 3e c4 ed 9a bd 37 6e 1f 3d 02 32 c6 be
       0.17624319 -0.075648814 0.03892347 -0.38710028
000120 d4 5d 8f bc d0 5a 55 3e bb 85 d7 3e 5f f7 9b be
       -0.017500795 0.20835423 0.42094216 -0.30462167
000130 05 38 79 3e 42 c1 af be 5f 95 b4 3d 05 6a cf 3d
       0.24337776 -0.34327132 0.08817553 0.101276435
000140 1e 1b 8f 3d c2 fc 84 3e ce 7a 31 be fe 90 0f 3e
       0.06987594 0.2597409 -0.17332003 0.14020154
000150 cf 84 ca bd 09 fd ad 3e 9f 8c 2c 3e ad 91 a6 3e
       -0.098886125 0.33982113 0.16850518 0.32533017
000160 88 42 bb bb d0 4f 04 bd ff 77 75 be 20 00 fd 3d
       -0.0057147183 -0.032302678 -0.23971556 0.123535395
000170 86 d3 2f bd 94 f0 a0 3d 64 29 55 3e 42 07 e3 be
       -0.042926334 0.07858387 0.2081657 -0.44341475
000180 89 17 16 be 3c 4c b6 bc 9b e7 9c 3e 06 70 ae 3d
       -0.14657415 -0.022253148 0.3064545 0.085174605
000190 c0 7d 2c 3e e6 64 f0 bd ce 53 e9 bd a8 6f 95 bb
       0.16844845 -0.11737995 -0.113929376 -0.0045604296
0001a0 d6 e2 84 3d 0a 66 ac be 4b 0f 06 bf 06 e1 a7 3d
       0.06488578 -0.336716 -0.52367085 0.08197217
0001b0 c5 7b f1 3e ee 00 ac be 4f 96 0d 3e 9a 73 7b be
       0.4716474 -0.3359446 0.1382687 -0.24555817
0001c0 0c 01 bb bd b2 7a e3 3c 27 2e 67 be 41 d1 76 be
       -0.09131059 0.027768467 -0.225762 -0.24103262
0001d0 31 a4 ab 3d 12 cd f1 be 4b f1 8c 3e 29 58 2e bd
       0.083809264 -0.4722677 0.27527842 -0.042564545
0001e0 5f 3f 50 bd a6 3c 37 3d ad 7e 1f be 8d b2 d4 bd
       -0.050841685 0.044735573 -0.15575667 -0.10385618
0001f0 88 ae 2f bd 65 b2 65 3e 76 e5 88 3d 35 89 68 3e
       -0.042891055 0.22431333 0.06684391 0.2270859
000200 ec 1a c3 bc d6 7f 5e 3e c5 9d a0 3e 2d 8a cb bd
       -0.023816548 0.21728453 0.3137037 -0.09938464
000210 9f 80 a8 3e 88 df df 3d b6 96 c1 be b7 ae 13 3e
       0.3291063 0.10931307 -0.37810296 0.14422117
000220 ad 73 ba 3e f5 b2 9c bd 7e 84 b1 3e a6 b1 e7 bd
       0.3641638 -0.07651321 0.34671396 -0.113131806
000230 71 ec 90 3e c7 8d ff 3c 44 d3 45 3e 5e 48 64 be
       0.2830539 0.031195534 0.19318873 -0.22293231
000240 09 d2 96 3e bc 63 bc bd 1b 4b ac 3d 72 ad d8 3d
       0.2945712 -0.0919871 0.08412763 0.10579957
000250 4c 2e 82 be a7 22 ff 3d eb d2 bd bd 78 0a 31 bd
       -0.25425947 0.12457781 -0.09268745 -0.043222874
000260 0c 0e fe 3d b4 35 8a be 29 a3 b9 bc d1 36 0d be
       0.12405023 -0.26994097 -0.022660809 -0.13790442
000270 09 82 e0 bc 89 54 bd bc 46 d9 39 3d e9 48 73 bd
       -0.027405756 -0.023111599 0.045373224 -0.059395704
000280 08 df 30 3d 77 3b 39 3e e3 10 b7 bd 28 f3 e3 3c
       0.04318145 0.1808909 -0.08938768 0.027825907
000290 c4 62 99 3e d5 ab d2 3d b3 d1 e6 bd 1a f1 b3 be
       0.29958165 0.102866806 -0.11270466 -0.35144883
0002a0 b4 1f 0b 3d 50 38 06 be 2f a1 2b 3e ea 47 da 3d
       0.03396578 -0.13107419 0.16760705 0.10658248
0002b0 ee e0 1e be 0c 6f e3 bd ac 38 c7 3d 0c 7e 1e 3e
       -0.15515491 -0.11105165 0.09727606 0.1547777
0002c0 ac 9d b8 bd 19 d4 01 3e 05 f8 02 3c d2 58 28 be
       -0.090144485 0.12678565 0.007993703 -0.16440132
0002d0 00 81 f7 3d 00 66 45 be ef 84 7d be 59 f5 e3 bd
       0.12085152 -0.19277191 -0.24757741 -0.11130781
0002e0 a3 7f 18 3c 7f 9b bd 3d 8b d9 eb 3e c4 fd bb 3d
       0.009307775 0.09258174 0.4606441 0.09179261
0002f0 9b 0b 91 3e 1c 93 9c bc aa c6 e5 3e 81 ac 7a 3e
       0.28329167 -0.019113116 0.4487813 0.24479868
000300 9c 59 b4 3d db 21 90 3e e4 82 82 3d 95 33 22 3e
       0.08806154 0.2815083 0.06372622 0.1583999
000310 63 91 ba 3d 15 02 8e bd 3c ab 7c 3e a3 02 17 bf
       0.091097616 -0.06933991 0.24674696 -0.589884
000320 f9 de 45 be b4 13 89 be 53 db f0 be 59 e0 9e be
       -0.19323339 -0.26772845 -0.4704233 -0.3103054
000330 c9 84 a1 be 72 74 cd bd 21 ba 93 3a f1 3f 97 be
       -0.3154662 -0.10031976 0.0011270681 -0.2954097
000340 63 d1 22 bc 83 1c 68 be 66 98 1d be b7 e3 57 3e
       -0.009937617 -0.22667126 -0.15390167 0.2108296
000350 e5 64 a6 bd 6c ab 75 bd 00 99 46 be fd 89 be 3e
       -0.08124713 -0.059977934 -0.19394302 0.37214652
000360 6c b6 a5 3d 98 25 a5 bd d7 77 8d 3d 20 88 c9 3e
       0.08091435 -0.08063811 0.06907623 0.39361668
000370 d6 e1 80 be 0f ce 74 be 6e 28 d5 3d 62 6c a9 3d
       -0.251723 -0.2390673 0.10408102 0.082726255
000380 83 4e b7 3b c8 19 a5 3e 8c cb ce 3e 3b 22 48 3d
       0.005594076 0.32246232 0.4038967 0.04886077
000390 6e b6 3c be 80 4e 00 bf 7b 59 84 3e c5 e0 7e 3e
       -0.18428966 -0.5011978 0.25849518 0.2489043
0003a0 a1 4a 08 3f 38 d7 79 3e 90 21 8a be 2c 3a 36 be
       0.53238875 0.24398506 -0.2697873 -0.17795628
0003b0 99 70 0b bd 95 cf 85 be 3a 76 9e bd 70 a6 94 be
       -0.03404293 -0.26134935 -0.07737394 -0.29033232
0003c0 e0 ef e2 3d 33 cc 2d 3e 15 af a1 3e f0 c1 18 3e
       0.11080909 0.16972427 0.3157889 0.14917731
0003d0 51 82 c3 3d d4 8c ca be db 88 b0 bd 6c ec 74 be
       0.0954634 -0.39560568 -0.08619853 -0.23918313
0003e0 32 43 46 bb 08 1f d2 3e b5 43 52 3e 76 0e d5 bc
       -0.0030252454 0.410393 0.2053364 -0.026007872
0003f0 5f ba 6a 3e 15 53 0e 3d 9b ed cf 3e 0b 5f d2 be
       0.22922657 0.034747202 0.40610966 -0.41088137

0.features.2.0.block.1.1.weight f4 [32]
000000 b9 b1 51 3f a1 8b 51 3f f8 fd 51 3f 36 61 6c 3f
       0.8191181 0.8185368 0.8202815 0.9233583
000010 58 03 56 3f 1f cc 5f 3f fb cd 62 3f 6a 1f 5b 3f
       0.8359885 0.8742084 0.8859555 0.8559481
000020 74 25 44 3f 80 2f 5e 3f 0c be 59 3f e7 42 70 3f
       0.7661965 0.8679123 0.85055614 0.93852085
000030 55 ed 67 3f 45 cf 70 3f 0b 72 65 3f a0 e1 6a 3f
       0.90596515 0.9406627 0.8962714 0.91750526
000040 6c 50 5d 3f e6 19 6d 3f 46 5b 6c 3f ba 76 58 3f
       0.8645084 0.9261764 0.9232677 0.8455616
000050 7e c9 65 3f 0f 1b 5c 3f 54 44 5d 3f 51 c0 78 3f
       0.8976058 0.8597879 0.86432385 0.9716845
000060 cc 4c 58 3f 5a 1d 53 3f a9 ba 61 3f 20 ca 50 3f
       0.8449218 0.8246666 0.88175446 0.8155842
000070 b2 92 78 3f 88 ef 6c 3f d8 57 65 3f ab e5 5f 3f
       0.9709884 0.92552996 0.89587164 0.8745982

0.features.2.0.block.1.1.bias f4 [32]
000000 07 a4 96 3c bb c7 9f 3c 90 bc 2a bd 56 46 52 3d
       0.018388761 0.019504419 -0.041683733 0.05133661
000010 34 6b 8a bc 86 23 da 3c bb 5b 0c bd 9e 97 5a 3d
       -0.016896822 0.026628267 -0.03426717 0.05336725
000020 d1 52 27 3c 7e bf 95 3d 62 4a 89 3b 26 9e 32 3d
       0.010212616 0.07311915 0.0041897753 0.043607853
000030 35 d4 5f bd 4c 18 ca 3b 59 c7 19 3d 02 32 eb bc
       -0.054645736 0.006167447 0.03754363 -0.028710369
000040 5b 10 bf bd 16 19 d0 bd 5b 5a 09 3d 42 81 b5 3d
       -0.093292914 -0.10161035 0.033533435 0.088625446
000050 87 9a a3 3d 9c 5c 8a bd 57 bf 8a 3d 01 d0 2e bd
       0.07988458 -0.06755945 0.067747764 -0.042678837
000060 80 b6 bb 3c a4 35 9a bd df 5a d9 bd e3 3d f2 3c
       0.022914171 -0.075297624 -0.106130354 0.029570526
000070 e5 15 a8 3c b1 f9 70 bc 34 f4 86 3c 9a 96 12 be
       0.020518253 -0.014707969 0.016473867 -0.14315262

0.features.2.0.block.1.1.running_mean f4 [32]
000000 0c 52 36 3f d6 ac 3c 3e 9a a6 ec 3e ad 2f 51 bd
       0.71218944 0.18425307 0.46220857 -0.051070858
000010 0a 32 41 3f a3 86 27 3e 26 16 3e 3e 83 b6 09 bf
       0.7546698 0.16359954 0.18563136 -0.53794116
000020 4f da f3 bd 2b e1 70 be 52 9c 76 3e dc 1a 09 3f
       -0.119068734 -0.23523395 0.24083069 0.5355661
000030 91 f1 b7 bc ba 1b c9 3d cb cf 47 be 16 a7 d8 be
       -0.022454055 0.098197415 -0.1951286 -0.42314976
000040 a0 8e af bb 59 37 eb ba 61 a5 73 3e 45 47 63 3e
       -0.0053575784 -0.0017945572 0.23793556 0.22195156
000050 51 13 b1 be 6d fb ce be 42 7f 33 be e4 d3 0a 3d
       -0.3458505 -0.40426198 -0.17529014 0.03389348
000060 75 c3 58 bf e7 f2 2b bf 5f 93 5b be ef 2d 77 3f
       -0.84673244 -0.67167515 -0.21442936 0.96554464
000070 ec 94 b7 be 08 93 89 be 87 f5 31 3e a8 60 da bc
       -0.35855806 -0.26869988 0.17378817 -0.026657417

0.features.2.0.block.1.1.running_var f4 [32]
000000 a3 66 87 40 5d ad 24 40 dd bd cf 3e df dc 85 3f
       4.231279 2.5730813 0.40574542 1.045803
000010 e9 47 ae 40 ad 1c 88 3e ae e6 6c 40 63 c0 f2 40
       5.446278 0.26584378 3.7015796 7.5859847
000020 12 32 54 3f c2 17 42 3f 15 01 49 40 e7 58 da 3e
       0.828889 0.758175 3.140691 0.42645952
000030 e3 7c 28 3f 47 25 a9 3e f9 91 f4 3f 57 37 e1 3e
       0.6581556 0.33036253 1.9107047 0.43987533
000040 ef a1 5e 40 78 7a c7 3e 35 c5 be 3f cc 02 44 3f
       3.4786336 0.38960624 1.4903933 0.7656677
000050 83 35 9f 3f 3f 5c 1a 3f ef 11 c2 3f 6c 3b 63 3f
       1.2438205 0.60297006 1.5161723 0.88762546
000060 e1 7f d4 40 ce f4 5c 40 c3 71 95 40 d5 e9 33 40
       6.64061 3.4524417 4.670137 2.811147
000070 3f 59 68 3f 74 3b 35 3f 98 fd 90 40 ac e6 14 3f
       0.9076118 0.70793843 4.5309563 0.5816448

0.features.3.0.block.0.0.weight f4 [128, 32, 1, 1]
000000 9b ba 36 bd ae a0 c5 3c 29 7d 04 3e 4e 9b ba 3c
       -0.044611555 0.02412447 0.1293837 0.022779133
000010 d8 45 cd 3d ef 95 81 3d 8e 8c 99 3d 0c 3f 17 3d
       0.10023087 0.06327426 0.07497512 0.03692536
000020 a9 83 04 be 1d 7d a0 3d 82 7a b8 3d f9 aa 22 be
       -0.1294085 0.078363635 0.090077415 -0.15885533
000030 bd 3a 9a be 93 8f 98 3d 19 2a 03 3e fc fe dc 3d
       -0.3012294 0.074492596 0.12809028 0.10790822
000040 b6 ab 49 be 6a 5b 84 3d eb b8 02 bd 88 89 b2 3c
       -0.19694409 0.06462748 -0.031914633 0.021794096
000050 f0 57 8f 3e 85 9c 99 be 48 5f cf 3c 07 a1 98 bd
       0.27996778 -0.30002227 0.025313988 -0.074525885
000060 13 46 01 3d 6e a4 b7 bc cf 70 ff bd 5e 1c 1f bd
       0.03156097 -0.022417273 -0.124726884 -0.038845412
000070 55 97 ce 3c 5f 1a 08 3d 1f 5b de 3c de 2d a5 be
       0.025218645 0.033228274 0.02714306 -0.32261556
000080 f5 35 83 3d 99 8e 87 3d db fe 01 bd b0 6a 78 3d
       0.06406776 0.06618995 -0.03173719 0.06064862
000090 49 26 ab bc e5 77 08 be 94 0c 22 3e eb ab 03 be
       -0.02089228 -0.13326986 0.1582511 -0.1285855
0000a0 82 0b 16 3e 04 0d 2e 3e 1d 8c 46 3e 49 ce 02 3d
       0.14652827 0.16997153 0.19389386 0.03193501
0000b0 3b 5b a8 bd 2e c5 e2 3c 93 c7 ae 3d 4c 84 a0 3d
       -0.08220526 0.027681913 0.085341595 0.078377336
0000c0 7d ec 45 be 7a ba d1 3d 45 07 a3 3d 5f 5e 20 be
       -0.19328494 0.10240646 0.07960371 -0.15661
0000d0 50 9f ef bb d7 a0 0b be 79 b3 47 3d 2e 4c 86 3c
       -0.0073126927 -0.13635574 0.048755143 0.016393747
0000e0 1c 05 1f 3e 11 4a a3 bd 03 b8 7d bd fc 7a b9 3c
       0.15529293 -0.079731114 -0.061943065 0.022641651
0000f0 97 4f c5 bc e9 c8 d9 bd 2c 39 92 3d 63 45 58 3e
       -0.024085803 -0.10634024 0.07139811 0.21120219
000100 ae 23 92 bc c2 d2 c0 3a e0 46 03 bd c7 6f c1 3d
       -0.017839279 0.0014711248 -0.032050014 0.09445148
000110 26 ff 65 bd 54 d7 27 3e 15 6c e3 bd 22 71 e2 3d
       -0.05615153 0.16390735 -0.111045994 0.110567346
000120 82 e3 44 3d 69 02 5c bc 2f b2 95 bd 05 79 ae 3d
       0.04806853 -0.013428309 -0.073093764 0.085191764
000130 cb 9c be 3d 3f 94 8b 3d 72 0b ad 3c d8 bf b7 3c
       0.0930725 0.06815385 0.021123622 0.022430345
000140 74 c8 33 3e 4c 5d 47 3e 02 bc a5 be 43 fc ae bc
       0.17556936 0.19469184 -0.3237 -0.021360522
000150 8d 1a 2b 3d f3 ff 9e bb c4 54 3d bc c5 ee fe bd
       0.041773368 -0.004852289 -0.011555854 -0.124478854
000160 b3 1f 77 3e df 97 2f be 0a 84 8c bd 49 87 90 be
       0.24133186 -0.17147778 -0.06861122 -0.28228214
000170 dc c9 12 3c 4a 1c 8e 3e cc 27 57 be d4 0a e7 bc
       0.00895926 0.27755958 -0.21011275 -0.028203405
000180 85 3a 18 3e 49 df 34 bd ef e4 9a bd 10 c9 fe bd
       0.14866073 -0.044158254 -0.07563197 -0.124406934
000190 1c c9 57 3d 06 78 a3 bc a4 18 84 3e 68 40 81 3d
       0.052682027 -0.019954693 0.2580005 0.06311113
0001a0 11 27 a1 3d 02 63 bf 3d 24 f9 a8 3d f5 bc 42 bd
       0.078687795 0.09345056 0.08250645 -0.047543485
0001b0 eb 6c c0 3d 27 fa 92 3d cb 5e 1c 3e b0 52 39 be
       0.093957745 0.07176619 0.15270536 -0.18097949
0001c0 95 cb 1c 3e 6f 4c 10 3d e4 c4 dc bb 7f f4 c7 bb
       0.15312035 0.035229143 -0.0067373384 -0.0061021443
0001d0 7f dd 80 bb 7a e8 40 3e 48 df 96 bc 5c bc cb 3d
       -0.0039326544 0.18838683 -0.018417016 0.09948036
0001e0 60 92 30 3b ff a3 8e 3b 49 42 42 3d 3f 0e 07 3d
       0.0026942715 0.004353046 0.047426496 0.03297257
0001f0 62 35 cc bd 01 bc 91 3d 6e dd 80 bd 54 ff 1a bd
       -0.099711195 0.07115937 -0.06292234 -0.037841156
000200 6e a4 2d bd 05 89 f6 3d 11 dc f8 3c 97 6c ac bc
       -0.04239314 0.12037853 0.030378373 -0.021047873
000210 c0 58 29 be 33 73 ac bd db f7 63 be 98 a4 ac bd
       -0.16537762 -0.0842041 -0.22262518 -0.08429831
000220 03 9a f5 3b 0e f5 35 bc 1f 2d 0c be ae 2e f4 bd
       0.0074951663 -0.011105789 -0.13689087 -0.11922966
000230 63 39 a5 bc c8 14 c5 3d 29 29 1f 3c b9 0c f4 bd
       -0.020168966 0.09623104 0.009714403 -0.11916489
000240 ed 94 95 3a 6f 81 67 3d 7c de 09 be 70 e2 b4 bd
       0.0011412181 0.056519922 -0.13463777 -0.08832252
000250 2f 5e 51 3d df c8 1f be 30 b2 99 3c e8 af be bd
       0.05111521 -0.1560397 0.018761724 -0.09310895
000260 c8 b3 f7 3c d6 34 4e 3d 8b 5d 2a 3e fd 6a 24 be
       0.030237094 0.050343357 0.16637246 -0.16056438
000270 3f fd 9b bd 30 01 9e 3d 85 8f b3 bd a2 0f f2 3d
       -0.07616662 0.0771507 -0.087676086 0.11819388
000280 d7 93 3a bd 46 db d6 bd ea 37 8b 3d 13 84 54 bd
       -0.045551147 -0.10491042 0.06797774 -0.05188377
000290 40 da 65 be 30 47 ba 3c 38 c9 66 3d a4 5f f4 3c
       -0.22446537 0.022739023 0.05634424 0.029830761
0002a0 92 b8 15 bd 74 a9 29 3c a3 f9 9f bd b8 bf 90 bd
       -0.036552973 0.010355342 -0.07811286 -0.070678174
0002b0 88 8f cb 3d dd f7 a7 bd e2 8e 2b be 55 85 23 3e
       0.09939486 -0.08201573 -0.16753724 0.15968831
0002c0 4b 1f a4 bd 4f c3 ab 3d 44 ac 12 be 20 89 e3 bc
       -0.08013781 0.083868615 -0.14323527 -0.027775347
0002d0 30 7f 20 be 7a 82 6f 3d ea f8 2e be 97 f6 33 be
       -0.15673518 0.05847404 -0.1708714 -0.17574535
0002e0 c5 f2 d4 3c 5b 42 83 be ce 06 82 bd bc b0 ea 3c
       0.025994668 -0.25636563 -0.06348954 0.028648727
0002f0 00 24 e4 3b 32 dc 73 be 8d ef 43 3e 55 79 dc 3c
       0.0069622993 -0.23814467 0.1913435 0.026913324
000300 4a e6 6b 3e 44 ee 32 3e 5f cb 1e 3c e6 f5 cb bb
       0.23037067 0.17473704 0.009692042 -0.0062243817
000310 37 f2 24 3e f4 34 e6 3d 31 bc 19 3e f9 f0 2c bd
       0.16108023 0.11240569 0.15013196 -0.042221997
000320 53 59 19 3e 37 8a fc 3d f9 26 8a bd ef dd c6 bd
       0.1497548 0.1233105 -0.06745715 -0.09710299
000330 87 c2 40 3e 35 28 a6 bd 90 c0 4c be 6f 47 dc bd
       0.18824206 -0.08113138 -0.19995332 -0.107558124
000340 9d ec e8 bc 94 80 b6 3d 31 59 0d be af c0 f0 bd
       -0.028433139 0.08911243 -0.13803555 -0.117555015
000350 41 77 16 be c4 b5 83 3d d8 d4 f0 bd bc 26 69 3c
       -0.1469393 0.064311534 -0.11759347 0.014230426
000360 8d a8 1b 3d 6b ff 89 bd 62 db f0 bb 30 6a f1 3c
       0.03800254 -0.0673817 -0.007350371 0.02946958
000370 6a e2 3d bd 58 cc 8a 3d 9c be dd 3d 92 c7 07 3e
       -0.046358503 0.06777257 0.108273715 0.13259724
000380 10 15 d0 bc 8d d8 1d 3d 2d e7 1c bd ee d7 fd bc
       -0.025400668 0.038536597 -0.038306404 -0.030986752
000390 1c 97 d2 bd 55 53 a0 3d 11 fd 8e bd 39 99 f3 3d
       -0.10282728 0.07828394 -0.06981862 0.11894459
0003a0 32 a6 3e be 47 aa 2f bd a1 80 ba be bf bb 0d 3d
       -0.18618086 -0.042887 -0.3642626 0.034602877
0003b0 3f 01 f0 bd f9 75 92 3d 8e d5 32 3d 3f 88 a0 bd
       -0.11718988 0.07151408 0.043660693 -0.07838487
0003c0 69 1c 61 3e 01 a2 65 3e 39 6e 02 3e c7 5a 8c 3d
       0.21983494 0.22425081 0.12737359 0.06853252
0003d0 24 3c 26 bd c0 15 39 bd 49 3e 99 bd f5 e6 05 be
       -0.0405847 -0.045186758 -0.07482583 -0.13076384
0003e0 3e ba 7a bc 5e 3d 37 3d 4b 88 e2 3d 20 40 3b be
       -0.015303193 0.04473626 0.11061152 -0.1828618
0003f0 2d 46 09 be 22 5f a4 3d 6c cd 09 be 5a 3b 37 bd
       -0.13405676 0.08025958 -0.13457268 -0.044734336
