code/modeling/ckpt/AutoencoderConfig([1, 2, 2], flip=False, rotate=False)/autoencoder_20000.pth (torch, 709098 bytes, 97 tensors)

0.features.0.0.weight f4 [16, 8, 3, 3]
000000 f3 5c 89 3d 07 48 cd bd a7 3e bf 3c 23 d9 f6 bc
       0.06707182 -0.10023504 0.023345305 -0.030132836
000010 41 21 83 be 6f 14 1b ba fc bb 45 3d 7a 97 96 bd
       -0.25611308 -0.00059158256 0.04827498 -0.073531106
000020 28 b4 f0 3c fa 3e a9 3c c6 90 7c bb 71 21 c8 3c
       0.02938278 0.020659912 -0.003853844 0.024430009
000030 b0 ae 3b bd 96 6c 09 be e5 7b 82 bd 4c 0d 12 3d
       -0.04582089 -0.13420328 -0.06371287 0.035657212
000040 98 06 1f be f1 77 5f bd 42 29 29 bd 0a c9 b7 3c
       -0.15529859 -0.054557744 -0.041299112 0.02243473
000050 e9 b2 5a bc e9 02 16 3d c0 ae 46 bd 0c 4a 8b bd
       -0.01334832 0.03662387 -0.0485065 -0.06801233
000060 70 97 87 bc ca 37 82 bd 7b 93 90 bc 8f 5f 50 3c
       -0.016551703 -0.06358297 -0.01764845 0.012718095
000070 a2 fa b0 bd b2 3d 00 bd 43 27 a5 3c 30 91 65 bd
       -0.086415544 -0.031308837 0.020160323 -0.056046665
000080 d4 f7 52 bd 5b be 8f 3c 52 0f 2f bc 2b 35 97 3c
       -0.05150588 0.017546823 -0.010684805 0.01845797
000090 9b ba 91 3b c5 9c 90 bc 74 dc 6b 3c f6 d3 8f 3c
       0.004447294 -0.017652879 0.014395822 0.017557126
0000a0 84 f4 d0 3d 71 da 87 3d 36 73 37 3d f4 f0 b3 3d
       0.10202888 0.06633461 0.044787608 0.087861925
0000b0 01 3b b0 3c f0 4b 50 bd 92 d4 6e 3c 6a 60 2a bc
       0.02151251 -0.05085367 0.014577048 -0.0103989635
0000c0 f7 42 40 3d 6e 85 07 3e a8 27 cb 3d fb 3e 56 bc
       0.046938863 0.13234493 0.09919673 -0.013076539
0000d0 07 54 59 3d 4c d2 ca bc ce 97 00 bd 70 4f 3e 3d
       0.05305865 -0.02475848 -0.031394772 0.046462476
0000e0 2e 9b 34 bd dc 0c d8 bb a9 8f df 3d 53 25 cf 3c
       -0.044093303 -0.00659333 0.10916073 0.025286352
0000f0 80 cb 8a bc 72 a2 92 3d 1a b6 03 bd d5 29 c3 bd
       -0.01694274 0.0715989 -0.032156087 -0.09529463
000100 16 0f 8a 3d f1 8b d0 bd 39 98 36 bd d2 5a e2 3d
       0.06741159 -0.10182942 -0.044578765 0.11052479
000110 e5 a6 38 3d dc 80 4c bd 77 4b 05 3d f0 26 87 bd
       0.045081038 -0.049927577 0.032542672 -0.065992236
000120 7f 49 b6 bc 84 de 28 bd 05 41 dc 3c d4 b0 69 3c
       -0.022251843 -0.041227832 0.026886472 0.0142633505
000130 31 94 ee bc a7 fc 5e bd c1 51 66 3d ae 8e 28 bd
       -0.029123398 -0.054440167 0.05623031 -0.041151695
000140 1f d0 04 3d bd 26 1c 3d 60 66 59 bd c6 db 3c 3d
       0.032425042 0.03812288 -0.053076148 0.04610803
000150 ee 1e 8b be f9 99 13 bf 95 8a 58 be 2d b7 01 bd
       -0.27172035 -0.5765682 -0.21146615 -0.03166883
000160 23 35 c0 be 7a cf 26 3d 59 05 d9 3c 91 22 d6 3c
       -0.3754054 0.04072521 0.026491808 0.02613953
000170 a0 0a ed 3c 4c ee 00 3d 1b 78 07 be 25 6b fa bb
       0.02893573 0.031477258 -0.1322941 -0.007642167
000180 18 9d 02 3a 9f 4e 66 bd c9 04 da 3b 55 cd a0 3d
       0.0004982515 -0.056227323 0.0066534025 0.07851664
000190 30 78 7e 3c a5 bb 68 bc 4c 4f 15 3b 54 48 d3 bc
       0.015531585 -0.014204894 0.002278286 -0.025791325
0001a0 17 40 24 3d ae 1c 2c bd 21 09 a2 3d 65 21 72 3d
       0.040100183 -0.04201954 0.079118975 0.05911388
0001b0 c5 88 e1 3c c8 fe 00 bc 3e b0 54 bd cc 5a 11 bd
       0.027531037 -0.007873245 -0.05192589 -0.03548698
0001c0 67 f3 3a bd 08 9b 5f 3d 4b 05 1f 3d 75 1d 42 bd
       -0.045642283 0.05459121 0.038823407 -0.047391374
0001d0 0f 55 94 bd 7c de 6b bb f3 a9 2b bd e9 0f 3f bd
       -0.07242786 -0.0035990765 -0.041910123 -0.046646032
0001e0 19 56 23 bc d2 54 99 3c d5 e2 7d 3d 1d 16 c4 bc
       -0.009969258 0.018717203 0.061983902 -0.023936326
0001f0 fb 2e 55 bd 6e f1 35 bd ed 4f a9 bd d2 46 b2 bc
       -0.052046757 -0.0444197 -0.08267198 -0.021762285
000200 56 eb 50 3c 9b 9d de 3c df 81 aa bc b4 07 92 3c
       0.012751421 0.027174762 -0.02081388 0.017825939
000210 6c 10 0b bd 79 d4 2e 3d 47 92 85 3c 20 bd 8d 3d
       -0.033951208 0.0426831 0.016305102 0.06920838
000220 66 d2 48 bd ca 57 20 3c 87 bc 2a bd 90 b9 a9 3d
       -0.049028777 0.009786556 -0.0416837 0.08287346
000230 65 70 0a 3d de 90 e6 3d cb f6 24 3d d4 84 83 3c
       0.033798594 0.112581 0.040274423 0.016054548
000240 a2 4c 48 bc e7 2e 93 3c ab 51 7f bc 14 6c a2 bd
       -0.012225302 0.0179667 -0.015583436 -0.079307705
000250 82 db 2a 3d f3 49 26 bc 34 a2 9b 3c b8 54 c4 3a
       0.041713245 -0.010149467 0.018998243 0.0014978861
000260 17 89 c2 bc df 37 89 bd ed 37 3b bd 54 a9 4e 3b
       -0.02374701 -0.0670011 -0.04570763 0.0031534033
000270 fa 32 bf 3e 05 1c 3c 3f 8d 46 87 bb 2a 4d 7b 3c
       0.3734358 0.73480254 -0.0041282834 0.015338222
000280 7a b4 18 3e 55 c1 43 bc 59 97 be 3c 51 ee e2 3c
       0.14912596 -0.011947949 0.023265528 0.027701529
000290 6f 88 17 3d 1c 0d a0 bc 79 f3 96 bb be 63 21 3b
       0.036995348 -0.019537501 -0.004606661 0.0024626101
0002a0 e4 49 37 3d 08 56 43 bc 04 9a 34 3d 12 2e 33 bb
       0.044748202 -0.011922367 0.044092193 -0.0027340692
0002b0 ae 5e 47 bc 8b f7 1b 3c 14 45 c4 bc 1f 14 38 3d
       -0.0121685695 0.009519468 -0.02395872 0.044941064
0002c0 77 e8 b2 bd 66 d5 f8 bc 73 d5 2e bc 42 7b 94 bd
       -0.087357454 -0.030375194 -0.010671007 -0.07250072
0002d0 9c 44 0b 3d 6c 01 2f 3d fc a8 2c 3d ab 4d 33 bd
       0.034000978 0.042725965 0.042153344 -0.04377524
0002e0 c0 31 d6 3d 06 ac 1f bc f1 e7 71 3d 9a 81 68 3d
       0.10458708 -0.009745603 0.059059087 0.056764223
0002f0 af 5e 3a 3d 61 54 5b bc 58 d0 79 3c 35 bc 86 bc
       0.045500454 -0.013386817 0.015247427 -0.016447166
000300 0f cd 2d 3c 78 1e 40 3d 92 5e 06 bd b1 d0 1d bc
       0.010607972 0.046904057 -0.032805033 -0.009632275
000310 fc b8 b1 bc f0 c1 02 bd a8 f8 86 3c fc 64 b8 ba
       -0.021694653 -0.031923234 0.01647599 -0.0014068182
000320 e1 e2 49 3b 55 9a f5 3c bb 28 b7 3c bf 46 60 bd
       0.0030805396 0.029980818 0.022358289 -0.05475497
000330 aa 1a 3c bd 62 8c be bb 25 b1 7e bc 98 7d 97 bc
       -0.045923866 -0.005815075 -0.015545164 -0.018492505
000340 52 da b7 bc 83 b0 4c bd 4c d7 54 bd 47 3c 55 bc
       -0.02244297 -0.049973022 -0.051963136 -0.0130148595
000350 2e ae 8d bd ba a5 3a bd 90 de c5 bc ac ea 28 3d
       -0.06917988 -0.045568205 -0.024153978 0.041239426
000360 31 bc 19 3d ff 9c ef 3c cd b3 c5 3b 86 6d b5 3d
       0.03753299 0.029249666 0.006033397 0.088587806
000370 c2 cf 89 bc ca a6 64 bc 85 af c4 bc b3 d8 2e bd
       -0.0168227 -0.013955781 -0.024009475 -0.04268713
000380 8f c5 94 bd 4e a5 67 bd ca 3f 79 bd b0 cf bc 3c
       -0.07264244 -0.05655413 -0.06085185 0.023048252
000390 72 46 78 bd 1f cf b2 bd 06 8b 10 bd 7d 3b 07 bd
       -0.060614057 -0.087309115 -0.035288833 -0.033015717
0003a0 6d f0 07 be c0 07 17 bd 90 09 12 bd b8 aa f6 3c
       -0.13275309 -0.036872625 -0.03565365 0.030110702
0003b0 c4 83 2d bc ce 76 12 bd e7 a5 21 be 0a ea d4 3c
       -0.010590497 -0.035757832 -0.15785943 0.025990505
0003c0 f3 09 92 bd 36 24 20 bd 17 27 9b bd b6 50 24 3d
       -0.07130804 -0.039097033 -0.07575815 0.040116034
0003d0 f2 3e 76 3d 96 11 d2 bd ea 79 a0 3d a5 6f 23 3e
       0.060118623 -0.102572605 0.07835753 0.15960558
0003e0 2f 43 51 bc 62 a8 36 bd 99 e9 89 bc 89 a3 45 bd
       -0.0127723655 -0.044594176 -0.01683502 -0.048251662
0003f0 ae 61 b1 bc c3 6a 73 3d 9c 80 3f bc 46 a8 ca 3d
       -0.021653023 0.059427988 -0.011688378 0.09895377

0.features.0.1.weight f4 [16]
000000 02 a7 28 3f 9d 29 4c 3f b5 b1 2a 3f fb f3 35 3f
       0.65879834 0.79750997 0.6667741 0.7107541
000010 f4 6e 23 3f 51 02 11 3f 3e 82 b6 3e 26 42 38 3f
       0.63841176 0.5664416 0.35646242 0.71975935
000020 49 86 1b 3f 0d d5 ed 3e d7 ca 0a 3f 7d 76 88 3f
       0.6075178 0.46451607 0.5421576 1.066116
000030 fb 64 10 3f 7c fc 33 3f 9c 2a 0e 3f 70 56 e4 3e
       0.56404084 0.70307136 0.55533767 0.44597197

0.features.0.1.bias f4 [16]
000000 2d 36 ac 3d 5d 2a 74 be ad 70 82 3f a6 fc 4e 3e
       0.08408771 -0.23844285 1.0190636 0.20213565
000010 6e 58 23 3f 7d af 69 3e 6a d8 97 3f 9e be 3c 3f
       0.6380681 0.2282085 1.1862919 0.7372836
000020 e7 b3 45 3f ae 0e c1 3e db d1 90 3f f4 9f fb be
       0.77227634 0.37706512 1.1314043 -0.49145472
000030 e3 10 95 3f 81 bd 8d 3e 03 c9 67 3e ab 19 fe 3e
       1.1645778 0.27683643 0.22635274 0.49628958

0.features.0.1.running_mean f4 [16]
000000 91 64 a8 b8 e0 74 d7 39 40 95 41 ba 84 1b f1 b9
       -8.029596e-05 0.00041095074 -0.00073846057 -0.00045987603
000010 ed 99 d5 39 1c ad fd b9 fc c9 bb 39 3a cf 88 38
       0.0004074121 -0.00048384897 0.0003581791 6.523584e-05
000020 b7 c3 f4 b8 20 38 d0 39 9e 36 25 ba 2b 22 3e b9
       -0.000116712814 0.00039714668 -0.0006302389 -0.0001813254
000030 05 91 88 3a 75 8b 95 38 cc d4 1b 3b ca fa 26 ba
       0.0010419196 7.1308496e-05 0.002377796 -0.0006369768

0.features.0.1.running_var f4 [16]
000000 8c 86 13 3f 61 65 c2 3f 60 ad 91 3f 58 68 5d 3f
       0.5762718 1.5187188 1.1381035 0.8648734
000010 b4 b3 3b 3f 0c fd 9a 3f 53 4d 8e 3e 81 4c 98 3e
       0.7332108 1.2108474 0.2779337 0.29745868
000020 f6 89 ec 3e bf 26 c7 3e 8c ac ff 3e b7 8a 2c 3e
       0.46199006 0.38896748 0.4993633 0.1684979
000030 97 e4 b0 3e 93 4d 5e 3f 0c 38 71 3f 6d 02 9c 3e
       0.345494 0.8683712 0.94226146 0.304706

0.features.1.0.block.0.0.weight f4 [16, 16, 3, 3]
000000 64 0b 5f be 4a bc 93 3e c8 31 97 bc fe 3f 1a 3e
       -0.21781689 0.2885459 -0.018456355 0.15063474
000010 d0 1c ca 3e 23 da fb 3d 70 91 c8 bd 8f 68 df 3d
       0.39475107 0.12297466 -0.09793365 0.10908615
000020 e7 b2 36 bd 96 65 c2 3d 61 4a f7 3c 08 74 a7 bc
       -0.04460421 0.09492032 0.030186834 -0.02044107
000030 1f b1 c3 3d 8f 8c 39 3e 0d 17 80 3d 63 e1 15 be
       0.095552675 0.18120025 0.062543966 -0.1463676
000040 ee 46 45 3e 23 78 83 3d 93 86 32 bd e5 46 36 3d
       0.19265339 0.06419399 -0.04358537 0.044501204
000050 65 56 01 3d 2c 2e a8 bd a5 66 59 bd 11 e8 67 bd
       0.031576533 -0.082119316 -0.053076405 -0.0566178
000060 51 33 f6 bb 9c df 35 3c 67 12 dd bb 97 30 01 3c
       -0.0075134416 0.011100676 -0.0067465785 0.00788512
000070 b1 81 b0 bc 38 fd 1a 3e 2d 6e ba ba 15 df 7e bd
       -0.021546217 0.15135658 -0.0014223509 -0.062224466
000080 b4 26 c7 3c 33 2e c2 3d f9 ba 51 bd b7 c9 b9 bd
       0.024310447 0.09481468 -0.0512037 -0.09071677
000090 1c 32 89 bd df 6a 3c 3a d3 af a3 bd d1 cd 93 bb
       -0.06699011 0.0007187556 -0.0799252 -0.004510619
0000a0 6f 9d 9e bd 4f 9d 54 bd 6e fa 3f bc 93 c7 8a 3d
       -0.07744872 -0.051907834 -0.011717422 0.06776347
0000b0 27 16 34 3d 39 16 db bd e8 a6 43 be 86 cf 64 3c
       0.04396644 -0.10697598 -0.19106638 0.013965493
0000c0 84 8d a7 bd da 36 28 be a7 65 9c 3c 7b 57 86 3d
       -0.08181289 -0.16427174 0.01909144 0.06559654
0000d0 78 d1 57 bd 1b 6c ba 3c 49 2d 81 bd bc 98 50 3c
       -0.05269 0.022756627 -0.063074656 0.012731727
0000e0 6b 96 35 3e 6b 64 1b 3d cb 63 85 bc 7c bc 66 bd
       0.17733161 0.037937563 -0.016282937 -0.056332096
0000f0 57 ae f0 3d f8 1a 99 bd ff c5 40 bd 5f 90 fe bc
       0.11752003 -0.07475847 -0.047063824 -0.0310747
000100 d9 a9 f0 3b 31 dc 1c be 9a 31 4c 3d ae c1 08 3e
       0.007344466 -0.15318371 0.04985199 0.13355133
000110 ea 4c df 3c a4 c7 da 3b d9 95 0a bd e8 6e 32 bd
       0.027258355 0.006676631 -0.033834312 -0.0435628
000120 fb a1 6f 3d 33 2e 90 bd 37 ca a7 3d 2f d4 00 be
       0.058504086 -0.07040062 0.08192866 -0.12580942
000130 8f 02 a1 be 85 05 de bb cb 48 1d 3e 5e 2f 1f 3a
       -0.31447265 -0.0067755603 0.153598 0.0006072427
000140 e0 f7 3c 3e ca bc 5b 3d 74 dc c7 bc 77 4d 5a 3c
       0.18453932 0.05364684 -0.024397112 0.013324133
000150 44 79 fd bd 07 b6 0b be 24 cb bb bd f8 70 6b b9
       -0.12376645 -0.13643657 -0.091696054 -0.0002245343
000160 2e 08 10 bc 1f c5 94 ba d4 61 9d 3b 2e be 13 ba
       -0.008791013 -0.001135025 0.004802922 -0.0005635944
000170 db e3 eb 3c 43 3b f7 bd 4c 59 93 bd a3 5c f1 bd
       0.028795173 -0.1207185 -0.071947664 -0.11785247
000180 87 1a a4 bd 1a 89 e1 3d 69 60 43 be 47 3b ca bc
       -0.08012872 0.11012478 -0.19079746 -0.024686469
000190 7d 95 03 bd 53 02 cc 3c 55 6a 11 3d 96 b8 f4 3d
       -0.032124985 0.024903452 0.035501797 0.119492695
0001a0 28 95 cf bc a3 5e a4 bd fb bc d0 3d 10 ff 13 3d
       -0.025339678 -0.08025863 0.10192295 0.03613192
0001b0 62 71 98 bb 2b 1e b9 bd 9f b9 f8 bd 21 6c 66 3d
       -0.004652188 -0.09038957 -0.121447794 0.056255464
0001c0 59 cd d3 bc 63 74 9a bd d8 4b ce 3c 20 be bc 3c
       -0.025854753 -0.0754173 0.02518265 0.023039877
0001d0 79 04 06 be 67 e0 bb 3c 87 bc 1f be 4f 94 3c bd
       -0.13087644 0.022934152 -0.15599261 -0.046039876
0001e0 b4 a6 1d 3d d5 db 74 bd e3 07 f5 3d 53 2d 96 3c
       0.03848906 -0.05977996 0.11964395 0.01833216
0001f0 98 b0 81 3d 77 ba 35 3e 63 46 07 bc e2 91 bf 3d
       0.06332511 0.17746912 -0.008256528 0.09353997
000200 ce 24 f3 3d f0 3e 84 3c a2 ed da bc 91 4c 7b bd
       0.11872254 0.016143292 -0.02672464 -0.061352316
000210 10 e3 ba 3c b4 2a cb bc c8 67 fc bc 35 1f 08 3d
       0.02281335 -0.024800636 -0.030811206 0.033232886
000220 cd 63 92 3d d9 a1 8b bb 1c bf bc bd f4 ac 4a be
       0.07147942 -0.004261237 -0.09216139 -0.19792539
000230 37 ec e9 3d c1 4d 3d bb 1e 58 88 3e 4c f6 86 bd
       0.114220075 -0.0028885456 0.26629728 -0.06589946
000240 58 89 9e bd 5d 61 24 be 93 7d a1 3c 6d ee b5 bd
       -0.0774104 -0.16052766 0.019713199 -0.08883367
000250 68 1f f9 3d d3 01 cf 3c 39 c8 e4 3d 2b ba 56 bd
       0.121641934 0.025269425 0.11171002 -0.052423637
000260 47 b8 2f bd 3e b1 07 3d f1 16 cb bb d5 1e ba bd
       -0.04290035 0.033128016 -0.006197803 -0.09087912
000270 2a 95 c0 bd 3f 2e a2 be d4 00 30 3c a9 c9 aa 3c
       -0.09403451 -0.31675908 0.010742385 0.020848112
000280 79 34 54 bb 1d 57 90 bd 81 de 20 3d 6e f0 14 be
       -0.003237991 -0.070478655 0.039274696 -0.14544842
000290 d0 91 12 3e 8a 2e e4 bd f6 5b 1c bd 88 97 ab be
       0.14313436 -0.11141689 -0.03817364 -0.33514047
0002a0 4f a9 15 3e f6 c7 43 be cb cd f5 3c 5e 9b 04 bd
       0.14615367 -0.19119248 0.030005356 -0.032374732
0002b0 ce 08 f7 3d b6 a1 0d bd 48 dd 34 3e 5c b1 7e bd
       0.12062226 -0.034578048 0.17662537 -0.06218086
0002c0 f3 96 90 3d 7f 6a d6 3d f2 56 52 3d 5d a9 f3 3d
       0.07060041 0.10469531 0.05135245 0.11897538
0002d0 b0 58 e0 bc 91 90 18 3d 80 04 1b 3e 77 9a c9 bc
       -0.02738604 0.037247244 0.15138435 -0.024609787
0002e0 42 0b 0c 3c 2d e6 b3 bd 80 99 e9 3d 8d b9 a2 bc
       0.008547606 -0.08784137 0.11406231 -0.019863868
0002f0 74 b4 5c bc 19 75 79 bd 05 13 1c bd 5b 70 15 be
       -0.013470758 -0.06090269 -0.038104076 -0.14593641
000300 46 68 59 bd ea df 3e be 10 d5 1e 3e d9 b4 0b be
       -0.05307796 -0.18640104 0.15510964 -0.13643207
000310 6b 60 bd bd 19 b0 b6 bd f2 da 78 bb 8c 5c a9 3d
       -0.09246906 -0.08920307 -0.0037972298 0.08269605
000320 9c 8c 8a 3d ba 44 9f bd fe ba 57 bd f9 97 cc 3d
       0.067651 -0.077767804 -0.052668564 0.09989924
000330 78 60 a1 bd 6a e4 12 be cd 66 92 bd 8e 9c f7 3c
       -0.07879728 -0.14344946 -0.07148514 0.030226018
000340 48 55 41 bc ef 03 9e bd 91 87 1b be 6b 8d 44 bd
       -0.011800118 -0.07715594 -0.15188433 -0.04798643
000350 40 73 5b bd be 4f ec 3c 93 8c 25 bc ac 4a 80 bc
       -0.053576708 0.028846618 -0.010104316 -0.015660606
000360 0e b3 0f bd 9b f6 7d 3d d4 9b d4 3c 3f 61 79 3e
       -0.03508287 0.06200276 0.02595321 0.24353503
000370 9f 2c 83 3d d9 c5 28 be ee 27 dd bc 1c 79 ff 3d
       0.06404995 -0.16481723 -0.026996579 0.12474272
000380 45 eb 99 3d e7 4f 8c 3d dc cf eb bc 1e 08 25 3d
       0.07515577 0.06851178 -0.028785639 0.040290944
000390 7e 41 9c bd d5 97 06 be ca eb fd bd 6e 15 93 be
       -0.07629679 -0.13143857 -0.12398489 -0.28727287
0003a0 08 34 32 be 7f 2f 50 bc 5e eb 96 3d 4e de 1d 3e
       -0.17402661 -0.012706636 0.073691115 0.15416834
0003b0 63 4a 93 3d 8f fb 0b be 28 97 2d bd 5a 09 8f 3d
       0.071919225 -0.1367018 -0.042380482 0.069842055
0003c0 91 47 96 3d 84 f3 8b 3d 2d 7f 94 3d 38 d8 01 3d
       0.07337869 0.06833556 0.07250819 0.031700343
0003d0 3a 37 ad 3d 73 51 ba bd 5b ed a6 3e 88 f9 12 3f
       0.08457799 -0.090975665 0.32602963 0.57412004
0003e0 35 a1 55 3e eb f9 14 3c 74 63 82 3e 6e 03 26 3d
       0.20862277 0.009092788 0.25466502 0.040530615
0003f0 a4 ff d7 3d d7 d1 5a bc 9f 2e b3 3b 07 81 e5 bc
       0.105468065 -0.013355694 0.005468204 -0.028015627

0.features.1.0.block.0.1.weight f4 [16]
000000 b4 53 25 3f 9b 0a 20 3f 68 a7 10 3f fb 15 25 3f
       0.64580846 0.6251618 0.5650544 0.64486665
000010 ee c6 18 3f 58 61 22 3f 73 ef 22 3f 2b cd 0f 3f
       0.5967854 0.63429785 0.6364662 0.56172436
000020 43 ec 0f 3f 82 4c 26 3f d0 e3 19 3f ed b8 16 3f
       0.5621988 0.6496049 0.6011324 0.58875924
000030 11 b1 22 3f af fa ba 3f cd 65 1a 3f 6d 46 2b 3f
       0.6355143 1.4607753 0.60311586 0.66904336

0.features.1.0.block.0.1.bias f4 [16]
000000 ad 22 10 3d 00 43 84 3d 19 87 d7 3c c4 08 be 3d
       0.03518932 0.06458092 0.026309537 0.09279016
000010 7e c7 ff 3c a8 ce 0c 3f 29 fe 5a 3e c5 fc 58 3e
       0.031223055 0.5500283 0.21386017 0.21190174
000020 d5 89 8f 3e bd 68 36 3e ae 12 95 3e 4d a7 9c 3e
       0.28034845 0.17813392 0.29115814 0.3059639
000030 ce b3 72 3e 61 e8 46 bf f2 60 42 3d 9a 09 8d 3e
       0.23701403 -0.7769833 0.047455736 0.27546388

0.features.1.0.block.0.1.running_mean f4 [16]
000000 b6 46 57 bf c4 f4 6c bd a8 79 05 3e 67 a3 9f bf
       -0.8409227 -0.057850614 0.1303469 -1.2471741
000010 7e 4d 55 bf 12 ed d4 3e c9 39 c4 bf 29 34 c9 3d
       -0.8332137 0.4158712 -1.5330135 0.09824402
000020 09 71 0f 3d c2 26 f2 be 69 b0 af be f6 72 03 3f
       0.035019908 -0.47295195 -0.34314278 0.5134729
000030 3c 08 95 3e fb c9 86 bf 23 63 c5 be 92 49 91 3e
       0.29107845 -1.053039 -0.38552198 0.28376442

0.features.1.0.block.0.1.running_var f4 [16]
000000 db b0 62 3f 34 80 1f 3f 7a a5 5c 40 31 3f fc 3f
       0.8855111 0.62305 3.4476 1.9706784
000010 f6 eb f9 3f 73 ce 3b 3f c0 3e 32 40 3c 66 ed 3e
       1.9525135 0.7336189 2.78508 0.4636706
000020 da ac 12 40 0d 97 01 3f 3b 9f c5 3f b7 b2 29 3f
       2.2918 0.5062111 1.5439218 0.6628832
000030 a1 6e ea 3f 96 43 36 3e fc a7 8f 3f 0b 06 a8 3f
       1.8315011 0.1779922 1.122314 1.3126844

0.features.2.0.block.0.0.weight f4 [64, 16, 3, 3]
000000 2c ac dd 3d e7 e5 a6 3d 28 e6 9e 3c 44 ff b3 3d
       0.10823855 0.08149319 0.019396856 0.087889224
000010 14 38 93 3d c4 88 ed 3d bd 27 fc 3d b9 28 c7 3d
       0.071884304 0.115983516 0.12312267 0.09724564
000020 f6 3a ab bb 9c a2 ac 3c da 5d c7 bd f2 a1 52 bd
       -0.0052255346 0.021073632 -0.09734698 -0.051423974
000030 1f 62 39 bc 18 e0 39 3c 15 01 12 bc 61 50 8e 3c
       -0.011314898 0.011344932 -0.008911391 0.017372312
000040 d1 2f 77 3d 11 ce 4f 3d 9d 0b ba bc 97 2a 98 3c
       0.060348336 0.05073363 -0.022710616 0.018574996
000050 5b f8 e3 bc 19 ce 30 3d 4e 56 e7 3c be 3d 36 3d
       -0.027828386 0.0431653 0.028239395 0.044492476
000060 10 da 9b bc 62 16 c7 bd 44 2b 1a bd 2a d5 34 3d
       -0.019024879 -0.09721066 -0.037638918 0.0441486
000070 58 88 0d 3c fa 8a 5f bd 66 e8 7c 3d f0 e7 33 bd
       0.008638464 -0.054575898 0.06174507 -0.043922365
000080 fb bc 84 3d f2 eb 2c 3c 70 30 9f 3a 03 d6 61 3d
       0.06481358 0.010554301 0.0012145173 0.055135738
000090 d2 b3 80 bc e2 60 01 bc ef 48 1e 3d ec 48 83 bc
       -0.015710745 -0.007896634 0.038643774 -0.016025983
0000a0 63 e0 9e 3d 07 c8 15 bd f7 c6 d8 3d b6 b6 a4 3d
       0.07757642 -0.036567714 0.105848245 0.08042662
0000b0 23 24 b4 3a 06 fa aa bd c7 3c 12 bd dd 38 19 bd
       0.001374368 -0.083484694 -0.035702493 -0.037407745
0000c0 17 d6 66 3c a5 76 6c bb a2 f2 d8 bd ae 74 c2 bd
       0.014089129 -0.003608146 -0.105931535 -0.09494911
0000d0 a1 ed 17 bd 12 33 82 3c 1e cc a4 bc ce 66 fc ba
       -0.037091855 0.015893493 -0.020116862 -0.0019256712
0000e0 22 08 ac 3c be 1a 3f 3b 7a 98 de bd f6 b3 16 be
       0.020999972 0.0029160227 -0.10868926 -0.14717087
0000f0 89 e7 34 bd 22 a6 1c bc 28 86 b8 bb 82 24 ae bc
       -0.04416612 -0.0095610935 -0.005631227 -0.021257643
000100 dd e8 3d 3c 39 be 83 bc 91 2c e4 3c b7 b8 25 be
       0.011591163 -0.016081916 0.027853282 -0.16183744
000110 25 fb fe bd 5b 52 a8 bc 64 25 4d 3d c7 86 b4 bd
       -0.12450246 -0.020547083 0.050084487 -0.08814769
000120 b4 f0 b4 bb c9 f0 32 bd 37 8b be 3c 10 4b f1 bd
       -0.005521858 -0.043686662 0.023259742 -0.11781895
000130 fa 89 ef bd 7c f3 5b 3d 77 f5 dd bd 1c 84 d0 bd
       -0.11696239 0.053699 -0.10837834 -0.10181448
000140 35 0d 5c bd b2 18 ce 3d 44 67 47 3d fd f6 dd 3d
       -0.053723533 0.10063304 0.048682466 0.10838125
000150 50 e4 96 bd 13 97 86 bc 6f f3 e7 b9 11 5c d5 3d
       -0.07367766 -0.01642946 -0.00044241126 0.10417951
000160 ec 21 be 3d 02 1a fb 3d 39 86 f0 bd 89 11 f9 3d
       0.09283814 0.1226082 -0.11744351 0.12161548
000170 f7 d2 8f bd 2d c5 0e 3d 96 1a 0c bd c9 ee 93 bd
       -0.0702266 0.03485601 -0.03420504 -0.07223279
000180 c6 b4 8c bc 6a 89 c6 bb 54 e2 08 bd 20 33 9f 3b
       -0.017176043 -0.0060588615 -0.03341897 0.0048583895
000190 6e 26 59 3c 7b 67 b0 3d 36 63 4e bd 35 7e 90 3d
       0.013253791 0.08613487 -0.050387584 0.07055322
0001a0 0d c2 d3 3d 0e 05 39 3b 40 70 8d bc f4 a6 d4 3d
       0.103397466 0.0028231773 -0.017265439 0.10383406
0001b0 2c 57 17 3d 0b a7 7d 3d 59 7b 98 3c 35 25 2f 3d
       0.036948368 0.061926883 0.018613504 0.042760093
0001c0 bd 45 34 3b 30 c8 f4 bc 55 2e 4e bc 53 8d 69 bd
       0.0027507388 -0.029880613 -0.012584289 -0.057019543
0001d0 55 d5 07 be 4d c7 a4 3c e7 8c 09 3b cf d0 45 3d
       -0.13264973 0.020114565 0.0020988525 0.04829484
0001e0 51 7f 62 3d 9a 41 cd 3c c4 9a 21 bc 56 c2 60 3d
       0.0552972 0.025055695 -0.009863559 0.054872833
0001f0 28 5d 24 bd 79 1f ad 3c 81 10 0a 3c e0 7c 6e bd
       -0.040127903 0.021133171 0.008426786 -0.05822456
000200 99 6d 1f 3d 92 31 62 bd f6 35 95 3d 0d df af bc
       0.03892288 -0.055223055 0.07285683 -0.021468664
000210 4b f1 ca 3d d3 b2 b4 3b 2c f8 4b 3d 4a 75 d1 3d
       0.09909304 0.0055144816 0.049797222 0.10227449
000220 dc f6 08 3d df e1 3e 3d da 4a 14 bd 75 d3 16 bd
       0.03343855 0.046602126 -0.036204197 -0.036822755
000230 66 93 46 bc 05 80 92 3d 5b 9c e0 39 df 7b b4 3d
       -0.012120103 0.07153324 0.00042841103 0.08812689
000240 6d 69 90 3c 58 1f 59 3d 43 c2 26 bd 74 d6 29 bd
       0.017628396 0.053008407 -0.040712606 -0.041464284
000250 08 8e 4b bd 19 64 1a be 88 7e 03 bd 88 0b 39 bd
       -0.049696 -0.15077247 -0.03210309 -0.045177013
000260 dd cb 2c 3d 5e 4b 9e 3d 3c 3a e6 3c be 20 b7 3d
       0.042186607 0.07729219 0.02810394 0.08941792
000270 f6 17 be 3d d7 44 58 3d ed 6f 06 bc 22 8a 2c bc
       0.09281914 0.052800026 -0.008205396 -0.01053098
000280 e0 96 cb 3c 6e ef e5 3c 4d d7 89 bd bd 5e 9a bd
       0.024852216 0.02806827 -0.067305185 -0.07537601
000290 dc 6d af bc 43 39 c0 bc ff cf eb bc bf 9a 3d 3d
       -0.02141469 -0.023464805 -0.028785704 0.046290156
0002a0 2a 47 ed bb 05 ec ab ba 4c 91 8a 3d 31 c0 3d bd
       -0.0072411494 -0.0013116604 0.067659944 -0.046325866
0002b0 77 82 0f 3c ec 44 50 bd 40 24 9c 3c a1 f9 5d bd
       0.008759133 -0.05084698 0.019060254 -0.054193143
0002c0 49 f8 f6 bc 3d 7b fe 3c 80 5c 81 3d 64 7b b7 bd
       -0.030147688 0.031064624 0.06316471 -0.08959082
0002d0 6f 63 32 3d f4 76 6c bd 3d 75 43 3d b9 27 06 bd
       0.04355186 -0.05773063 0.04771923 -0.032752726
0002e0 5b 80 b5 3d 67 ab 60 3c 5e 00 c8 bc d2 8b 97 3c
       0.088623725 0.0137127405 -0.024414238 0.018499289
0002f0 8e 2b 06 bc b9 10 df bc 9e cb 7e 3d 0c 9d d6 bc
       -0.008189095 -0.027229654 0.062205903 -0.026197933
000300 c9 35 af 3c 46 da 7b bc 9c 2f 45 3d 43 ab c1 bb
       0.021387951 -0.015371865 0.048141107 -0.0059103086
000310 80 1d bf 3c 2c ec a8 bd c8 63 b6 bd d0 26 52 bd
       0.023329496 -0.08248171 -0.089057505 -0.051306546
000320 a0 9d 84 bd b0 15 4d bd ec b2 7a bd c3 96 20 bc
       -0.06475377 -0.05006951 -0.06120579 -0.009801569
000330 e1 59 4c bd 65 94 27 be b4 b8 22 bd 32 22 82 3c
       -0.049890403 -0.16365202 -0.039726928 0.015885446
000340 fd 49 ae bd ee cb 16 bc 40 b3 b9 bd 3a b7 4a 39
       -0.08510206 -0.009203894 -0.09067392 0.00019332478
000350 46 34 0a bd 31 70 c2 3b 6c 32 35 bd 99 f9 fb bd
       -0.033741258 0.0059337844 -0.04423754 -0.12303466
000360 5e b1 8c 3b ea b0 8d ba 9a 47 10 bd f8 b5 d0 3b
       0.0042936048 -0.0010810171 -0.035224535 0.0063693486
000370 97 ca 3a bd e9 38 1c 3e ce 6a ff 3c 07 15 a9 3c
       -0.04560336 0.15256085 0.031178858 0.02063991
000380 a9 58 01 3d b0 d0 d3 3c 12 52 94 3c 0a 44 47 3b
       0.031578694 0.025856346 0.01810554 0.0030405545
000390 75 89 25 3d 6e ab 79 ba c9 5c db bd 1a ad c5 bb
       0.040414292 -0.0009524141 -0.10711057 -0.006032598
0003a0 2a 76 0b be 09 c3 3e bd d8 8c e3 3c ee da c6 3b
       -0.13619295 -0.04657272 0.02777712 0.006068579
0003b0 29 9f 3b 3d 75 44 22 bd 0f d7 d8 3d f3 49 d8 3d
       0.045806084 -0.039616067 0.10587894 0.1056098
0003c0 8c c8 b3 3c bf ee 48 3d 32 28 d3 bc b9 cf e4 3c
       0.021946214 0.04905581 -0.025776003 0.027931081
0003d0 a3 d2 89 3d 07 39 24 bd 46 8e 80 3d 20 22 0c bd
       0.06729629 -0.040093448 0.062771365 -0.03421223
0003e0 42 a8 a6 3a 29 c7 2c bd 88 54 1d b9 c0 97 ce 3c
       0.001271494 -0.04218212 -0.00015004177 0.025218844
0003f0 3a f7 14 bc 54 cc f1 ba ca 76 e4 3d 81 60 47 3c
       -0.0090921465 -0.0018447735 0.1115547 0.012169004

0.features.2.0.block.0.1.weight f4 [64]
000000 69 0d 37 3f 53 33 3f 3f 7a 89 24 3f 79 c7 3d 3f
       0.7150484 0.7468769 0.6427227 0.74132496
000010 7d 3b 4d 3f 65 25 43 3f 3e c4 2e 3f 05 d3 49 3f
       0.80168897 0.76228935 0.6826819 0.78837615
000020 aa a4 4e 3f 1c 8b 42 3f 44 48 3f 3f 55 ad 42 3f
       0.8072001 0.75993514 0.74719644 0.76045734
000030 f2 95 3d 3f 83 ac 4a 3f 2c 05 33 3f d1 2c 2a 3f
       0.74056923 0.7916948 0.69929767 0.66474634
000040 b4 58 53 3f 81 d1 48 3f ba c9 40 3f cc 7c 42 3f
       0.82557225 0.7844468 0.7530781 0.75971675
000050 e4 2c 4a 3f 53 9b 2d 3f 19 6e 15 3f 7b 41 03 3f
       0.7897475 0.6781513 0.5837112 0.5127179
000060 76 fc 47 3f d5 a3 43 3f be 64 44 3f e7 39 3d 3f
       0.781196 0.7642186 0.7671622 0.73916477
000070 17 24 31 3f 7f 0b 47 3f 1b 19 37 3f 48 13 32 3f
       0.69195694 0.77751917 0.7152268 0.6956067
000080 7e c9 ce 3f 24 2c 2a 3f fe 84 35 3f ec 63 45 3f
       1.615524 0.66473603 0.70906055 0.77105594
000090 a4 62 4c 3f 9c 01 12 3f e7 78 38 3f 94 68 50 3f
       0.79838014 0.57033706 0.7205948 0.81409574
0000a0 0c b5 2c 3f 43 98 28 3f 80 a5 34 3f 5f 34 3b 3f
       0.67463756 0.6585733 0.7056503 0.73126787
0000b0 a5 5a 3e 3f 19 e6 3a 3f f8 fc 38 3f 28 c9 1b 3f
       0.7435706 0.7300735 0.72261 0.60853815
0000c0 14 b4 3d 3f 65 3d 19 3f 07 e7 30 3f ea ff 32 3f
       0.741029 0.59859306 0.6910252 0.69921744
0000d0 60 05 43 3f 10 1f 45 3f 66 13 2a 3f 5d c1 40 3f
       0.76180077 0.7700052 0.6643585 0.7529505
0000e0 94 0b 37 3f ca 04 2e 3f f5 bb 32 3f 6b 25 44 3f
       0.7150204 0.6797606 0.6981805 0.76619595
0000f0 92 31 34 3f 8a dd 3d 3f eb 02 36 3f d9 93 4b 3f
       0.7038814 0.74166167 0.710982 0.7952247

0.features.2.0.block.0.1.bias f4 [64]
000000 5e 50 57 3d bd 3a 27 3e 4b c3 e0 3d a3 a3 15 3f
       0.05256688 0.16331 0.10974749 0.58452815
000010 99 8b 66 3e 06 64 85 3e 3c 77 d5 3d a0 ab 83 3e
       0.2251419 0.26052874 0.10423133 0.25716877
000020 37 32 52 3e a4 32 c4 3d 27 3d 03 3f 9b 43 8e bc
       0.20526968 0.095799714 0.51265186 -0.017366221
000030 78 2d d9 3b fb 75 f5 3d c2 47 d9 3d 6a ef 6f 3e
       0.0066277348 0.119853936 0.1060939 0.23431173
000040 0c 37 4a 3e 45 b0 38 3d d6 97 47 3e 2d 8c b0 3e
       0.19747561 0.04508998 0.19491515 0.34481946
000050 d3 f7 2a 3e f1 14 25 3f a9 c0 0d 3e 23 e0 5f 3e
       0.166961 0.6448508 0.13843025 0.21862845
000060 99 7f 6b 3d 18 a9 f1 3e 10 f2 7d 3e 9f fd 65 3e
       0.057494733 0.4719932 0.24799371 0.2246003
000070 51 ff c3 3d 83 c0 c1 3d 37 8b 63 3e f3 03 9a 3d
       0.09570182 0.09460547 0.22221075 0.075202845
000080 97 36 c8 bf a1 8a 70 3d c0 74 9f 3e f2 ef 8d 3d
       -1.564166 0.058725957 0.3114376 0.069305316
000090 b2 d3 78 3e dd cc ff 3d 83 ca 96 3e 17 65 73 3e
       0.24299505 0.124902464 0.2945138 0.23769031
0000a0 76 68 e6 3e ff 71 6c bc 87 37 59 3d c7 27 20 3e
       0.45001572 -0.014431476 0.05303147 0.15640174
0000b0 4e c1 aa 3e 0a f9 03 3e 32 dc 8b 3e ae fc df 3c
       0.33350605 0.1288797 0.27316433 0.027342167
0000c0 16 de 27 3e 86 04 1f 3c 00 cd 0c 3d da 43 aa 3e
       0.16393313 0.009705668 0.03437519 0.33254892
0000d0 71 02 68 3e 99 08 66 3e 80 7b 73 3e 4b 0c 9e 3d
       0.22657181 0.22464217 0.2377758 0.077171884
0000e0 22 80 88 3e 81 14 15 bf 0a 2b 53 3d 84 be cc 3c
       0.26660258 -0.5823441 0.051554717 0.024993189
0000f0 a3 30 1e 3e d8 6f af 3d 22 3c c1 3d 0a 83 a5 3d
       0.15448241 0.085662544 0.094352975 0.08081634

0.features.2.0.block.0.1.running_mean f4 [64]
000000 52 6d 2f bf 03 76 8e be 68 b8 98 be 0e 25 df 3e
       -0.68526185 -0.2782441 -0.2982819 0.43582958
000010 1b b0 66 3f 5c 50 65 3f 31 35 8f bf 53 fb 4b 3f
       0.90112466 0.89575744 -1.1188108 0.79680365
000020 6b a1 a5 3f 60 06 44 3f 1c 1a 96 3e 78 26 a7 bf
       1.2939886 0.7657223 0.29316795 -1.3058615
000030 5a 48 b5 bd 68 eb d7 bd d9 e1 00 bf fb 78 da bd
       -0.088516906 -0.10542947 -0.50344616 -0.106676064
000040 94 0a 8b 3f 4b aa b1 3e 55 e8 92 3f 04 f3 ba 3f
       1.0862603 0.34700236 1.1477152 1.4605412
000050 06 5f 00 3e 02 b4 a9 3e 62 c0 83 bf eb 39 fc 3d
       0.12536249 0.33145148 -1.0293086 0.123157345
000060 cc eb 3d bf bd c5 59 3f 26 21 7f 3f ec 05 0f bf
       -0.7418792 0.8506735 0.99659956 -0.5586841
000070 17 be 85 be af 69 d0 3f a4 a8 dc 3f a2 9e 29 3d
       -0.2612159 1.6282252 1.7238965 0.04141105
000080 44 0f 14 3f 61 f0 f1 be 20 7b 09 3f f9 f2 ec be
       0.57835793 -0.47253707 0.537035 -0.46279123
000090 97 51 8d 3f 43 12 76 bf 03 5a ce 3e 12 19 21 3f
       1.1040524 -0.96121615 0.40303048 0.6292888
0000a0 a4 1e 8a 3f 87 e1 fa be 38 0f 9b be 99 b4 88 3e
       1.0790601 -0.4900019 -0.30285048 0.26700285
0000b0 c9 c1 c4 3e 61 58 2f 3f 2c 7d 5e 3e 49 a6 00 be
       0.38429096 0.6849423 0.21727437 -0.12563433
0000c0 58 21 55 bf 06 c0 6f 3e 73 cd 1b bf 07 b8 56 3f
       -0.83254004 0.23413095 -0.60860366 0.83874553
0000d0 7d 50 a9 3d 68 9f 93 be cd 87 62 be 9b cb 45 be
       0.08267305 -0.28832555 -0.22122116 -0.1931595
0000e0 ae cc 6e 3f cd 28 2a 3e 51 9a 69 bf 22 f2 73 bf
       0.93281066 0.16617127 -0.91251093 -0.9529134
0000f0 1a 46 6c bf 3c 5d e7 be 2f 8c 6c be af 77 46 3f
       -0.92294466 -0.4518832 -0.23100351 0.7752637

0.features.2.0.block.0.1.running_var f4 [64]
000000 41 ad d7 3f 61 43 e0 3f 95 c5 8a 3f b2 22 51 3f
       1.6849748 1.7520562 1.0841547 0.81693566
000010 99 08 2f 40 78 ea 43 40 41 fd ac 3f 48 db f1 3f
       2.7348998 3.0611858 1.3514787 1.8895044
000020 a4 8f 95 40 9b 0a 10 40 77 77 b1 3f c8 3c e8 3f
       4.6737843 2.2506473 1.3864583 1.8143549
000030 a3 42 72 3f 5d 41 b0 3f 30 0b b2 3f 00 30 6c 3f
       0.9463293 1.3769947 1.3909664 0.9226074
000040 79 15 50 40 c7 87 32 40 26 d4 62 40 b7 05 e2 3f
       3.2513106 2.7895372 3.5441985 1.7657994
000050 c7 08 b6 3f 7d 8d 62 3f 8d 1b 1b 40 87 c7 0c 3f
       1.4221429 0.88497144 2.4235566 0.54991955
000060 af be 7a 40 90 64 9a 3f ae a4 84 40 40 ad d5 3f
       3.9178884 1.2061939 4.1451025 1.6693497
000070 71 05 7e 3f 2a da 65 40 3b 5b 07 40 2b 32 a7 3f
       0.9922705 3.5914407 2.1149433 1.3062185
000080 71 91 07 3e a4 21 88 3f 62 e9 98 3f fd 20 c1 3f
       0.13239075 1.0635266 1.1946223 1.5088192
000090 c1 79 33 40 b2 fc 83 3f 09 ec aa 3f 4b b5 1a 40
       2.8043063 1.0311491 1.3353282 2.4173152
0000a0 c6 0c 9f 3f ee fe 04 40 40 a7 74 3f 0b 4f 95 3f
       1.2425773 2.0780597 0.95567703 1.1664747
0000b0 c8 a3 6b 40 a5 40 3e 40 dd 33 77 3f 5a 88 18 3f
       3.6818714 2.9726956 0.9656351 0.59583056
0000c0 a1 d5 44 40 b0 68 10 40 52 1d 12 40 26 1f b9 3f
       3.0755389 2.2563896 2.2830396 1.4462631
0000d0 46 ca e8 3f 3f 63 c8 3f 7a f4 5d 3f 03 e3 1f 40
       1.8186729 1.5655288 0.86701167 2.4982307
0000e0 35 28 18 40 78 e4 8a 3d 24 a8 23 40 41 76 e5 3f
       2.377454 0.06781858 2.5571375 1.7926713
0000f0 52 0f f7 3f e6 ea 47 40 c0 00 a7 3f 19 ad 76 40
       1.930155 3.123712 1.3047104 3.854315

0.features.2.0.block.1.0.weight f4 [32, 64, 1, 1]
000000 72 ac 1d 3d 44 45 bc be 5b 23 b8 3e 01 2c 4e be
       0.038494535 -0.36771595 0.35964474 -0.20133974
000010 3f d2 29 be 23 5f dc 3d 20 8b ab 3e a5 60 c2 3e
       -0.16584109 0.107603334 0.3350458 0.3796436
000020 8e c3 8a be bc f5 74 be 47 ef 67 3e 3a 17 98 bd
       -0.2710232 -0.23921865 0.22649871 -0.07426305
000030 67 c3 35 3d 0f b4 b8 3e 39 97 a8 3e 5c c7 42 be
       0.044375803 0.36074874 0.32927874 -0.19021362
000040 36 18 ef bc d2 56 6b be 66 ea 0c bd e3 d6 0a be
       -0.02918635 -0.22982338 -0.034403227 -0.13558535
000050 da 52 f1 be 7c 53 db 3c e2 9d ed 3d d7 7a 06 be
       -0.47133523 0.026773207 0.116023794 -0.13132797
000060 8e b4 ad 3e d0 b5 44 be 34 6c 90 3e 9b 76 7f be
       0.33926815 -0.19209981 0.28207552 -0.24947588
000070 cf de e5 3d dd bd 2c 3e 6f ca 35 3e c5 c9 c1 be
       0.11224138 0.16869302 0.17753004 -0.3784925
000080 02 c9 07 bf c2 cd 2c be 04 58 06 bf ce b1 ae 3e
       -0.5304109 -0.16875365 -0.5247805 0.3412003
000090 90 08 ee bc 86 d2 cf bd 80 99 82 3e 29 2e 0e 3e
       -0.029056817 -0.10147576 0.25507736 0.13884796
0000a0 60 34 21 3d 1a eb 73 be 8a df d6 3e fe 6e dd 3d
       0.03935659 -0.23820153 0.41967422 0.10812186
0000b0 8d 49 3d 3d 14 2e 67 be 81 d7 c4 bd b4 83 7e bd
       0.04621272 -0.22576171 -0.096114166 -0.06213732
0000c0 ad 1a 03 3e 6a 4e 5c bd 14 e1 1b 3d 7a f9 70 3e
       0.12803145 -0.05378572 0.038056448 0.23532668
0000d0 05 73 af bd ec 27 51 be 0a 55 65 3e 1c 87 0d be
       -0.0856686 -0.20425385 0.22395721 -0.13821071
0000e0 ce 21 01 3b 5f 4f f5 bd f2 5a 8c 3d f8 8e 93 be
       0.0019703987 -0.119780295 0.06853284 -0.28820014
0000f0 de 4f 3d bd a8 70 41 be 9c 2d 23 bd 94 9f 8a 3e
       -0.046218745 -0.18890631 -0.03983842 0.27074873
000100 33 2a a9 3e 26 99 2c 3e 7e b7 ee 3d f4 22 40 3d
       0.33040008 0.16855296 0.11656092 0.046908334
000110 5c d1 bd be 28 9f 25 3e 5a 91 cf bd 11 36 8f be
       -0.3707379 0.16173995 -0.101351455 -0.27970937
000120 e0 e2 97 3c cf 1e d6 3c d6 f9 b4 3d 60 b2 d6 3e
       0.0185408 0.026137738 0.08836715 0.41932964
000130 f5 00 11 3e 5d 62 e6 be 42 8d 70 3c 80 dc 60 bc
       0.14160521 -0.4499692 0.014682116 -0.013724446
000140 53 b6 86 3d 59 f0 76 be 1c 9b ef 3d 5a 5b 9d be
       0.06577744 -0.24115123 0.11699507 -0.30733758
000150 95 57 8c 3c 50 70 84 3e b1 2a 87 be 1b 7d 97 be
       0.017131606 0.25866938 -0.26399758 -0.29587635
000160 26 68 60 be ab f4 1a bc 93 6c 8f be 90 72 b7 bd
       -0.2191473 -0.009457747 -0.28012523 -0.08957398
000170 b9 cd 1c 3e df 9a 8e bb 21 2a 6a be f5 5d 87 be
       0.15312852 -0.004351958 -0.22867633 -0.2643887
000180 a0 85 20 3e d2 f6 15 be 0e 61 73 3e 43 80 89 3e
       0.15675974 -0.14644936 0.23767492 0.26855668
000190 10 42 da 3b 60 59 65 3e 64 cc 4b 3e f3 de 60 3e
       0.0066607073 0.22397375 0.19902188 0.21960048
0001a0 cc 01 69 3d 6a d9 4c be 52 c3 92 bd 8a ae 83 3e
       0.05688648 -0.20004812 -0.07166161 0.257191
0001b0 17 e4 b6 3e 7a 8b ca be 98 a9 c5 bd b4 47 c9 bd
       0.35720894 -0.39559537 -0.09651488 -0.098281294
0001c0 b9 7a 05 3f f9 4c 9a 3d 66 d3 b3 bd 1e e1 f9 3d
       0.52140385 0.075342126 -0.087805554 0.12201141
0001d0 bb b8 84 be 32 3a 44 3c 6b 46 92 bd 69 6a a9 3e
       -0.25922188 0.0119767655 -0.071423374 0.33088997
0001e0 e1 8c 51 be 31 6b c9 bc 1f 73 a9 be 62 eb 9b 3e
       -0.20463897 -0.024587246 -0.33095643 0.3045302
0001f0 73 27 3c 3e d7 57 2b 3d b9 19 b0 be 27 00 3a be
       0.18374424 0.041831817 -0.34394625 -0.1816412
000200 b2 de ae be be d2 bc be d3 83 e5 bd f4 1e c5 bd
       -0.34154278 -0.36879534 -0.11206784 -0.096250445
000210 52 4f 02 3f c7 03 e9 be 4b a4 4b 3e d5 dd cc bc
       0.50902283 -0.45510694 0.19886892 -0.025008122
000220 07 df 03 3e df aa ea bd 98 31 7f be d7 bf bd bc
       0.12878047 -0.11458372 -0.24921262 -0.023162765
000230 ff f3 c1 3b 73 c1 c1 3c c8 70 bb bd 23 fd a2 be
       0.005918979 0.023651814 -0.09152371 -0.31833753
000240 78 cb 61 3d 41 ff 1f bd 52 e0 44 3e ce 83 cf be
       0.055125684 -0.03906179 0.19226196 -0.40530246
000250 73 e0 a9 bd 3c 0c 97 bd 7d 86 a9 be c7 a3 cd 3d
       -0.082947634 -0.073753804 -0.3311042 0.10041004
000260 4c ec 9d 3c 97 bb 20 3e d2 4c 10 3e 1d 7e 87 be
       0.019277714 0.1569656 0.14091805 -0.26463404
000270 b7 84 db 3e c3 a8 d6 39 a8 d4 db be 0c 94 b7 bc
       0.4287469 0.00040942998 -0.4293568 -0.022409461
000280 aa 9d fb 3d f2 40 a7 be 1b 34 22 3d a7 02 1e 3e
       0.122859314 -0.32666737 0.039600473 0.154307
000290 22 5c 8d 3d e4 86 9c 3e 72 4f 91 3e 02 50 1b be
       0.069023386 0.30571663 0.28380924 -0.1516724
0002a0 13 2e 1d 3e 21 85 69 bd de 23 74 3e 5d 4f 1a bd
       0.15349607 -0.057011727 0.23841807 -0.037673343
0002b0 75 e7 01 3e 3f e8 4e be 6b 7e 05 3e d7 b5 95 3e
       0.1268595 -0.20205782 0.13036506 0.29240295
0002c0 d6 3a 6b 3d df c5 d6 3e 18 e4 05 be 35 5b fb 3d
       0.057429157 0.4194784 -0.13075292 0.12273256
0002d0 b1 ed eb be 00 97 a6 3d ff 98 8f 3e 0a 27 99 be
       -0.46079782 0.0813427 0.28046414 -0.29912597
0002e0 3e 97 5e 3e 6b b0 f0 3d 91 00 22 3e 66 e5 a7 3e
       0.21737382 0.11752399 0.15820529 0.32792205
0002f0 70 47 87 bd bf c1 2f 3e f3 4b 2f 3e 5e 40 95 3e
       -0.066054225 0.17163752 0.17118816 0.2915067
000300 71 52 ac be c5 38 4e 3d 1a ee d4 bd d3 4e c6 3d
       -0.33656648 0.05034711 -0.10396977 0.09683003
000310 e6 2b 4f 3e f4 b1 0a 3e e6 a8 0e 3d 44 02 90 3d
       0.2023159 0.13544446 0.034829043 0.07031682
000320 3b 94 11 be c0 5a 5b 3e 6d 4f 1d 3e 93 3c 9a be
       -0.14216702 0.21421337 0.1536233 -0.3012434
000330 31 2e 0f be 5f ae f2 3c be 2a 0a 3d 3a 3c 60 3e
       -0.13982464 0.029624162 0.03373217 0.21897975
000340 08 37 5c 3e 86 e4 bb 3d ad b1 33 3e ca 10 9a 3e
       0.21505368 0.09174447 0.17548247 0.30090934
000350 e0 49 b5 3e 49 3a 05 3c 75 c1 16 3d 70 08 9d be
       0.35407925 0.008131572 0.03680559 -0.306705
000360 69 e2 f7 bb f7 fc f8 bd 3d 45 97 3e da 9f b4 be
       -0.007564832 -0.12157624 0.29545012 -0.35278207
000370 32 db 84 3e b6 a6 b2 bd 0d 46 8d 3d 97 b3 47 3e
       0.25948483 -0.08723204 0.06898127 0.19502102
000380 2b 28 c9 3e d2 56 d6 be b7 f1 74 be 51 60 c1 be
       0.39288458 -0.41863114 -0.23920332 -0.37768796
000390 f9 3d 10 3b 22 8b 0d be 75 8f 44 3e db 7a 6d be
       0.0022009595 -0.13822606 0.1919535 -0.23191397
0003a0 f1 ee 27 3e 4b 7d 81 3d ac 30 81 be 18 95 c8 3a
       0.16399743 0.06322726 -0.25232446 0.0015303222
0003b0 f5 02 b6 bd cb 4f fa be 53 4d 42 3e 08 ec d8 be
       -0.08887283 -0.48889002 0.1897481 -0.42367578
0003c0 47 9c 2e 3d c9 f7 20 3c 8a fd d5 3e 5f ea c9 3d
       0.042629506 0.009824702 0.41794997 0.09859156
0003d0 58 82 ea be 0f d5 3d 3e e1 06 75 be d5 92 3e bd
       -0.4580257 0.18538307 -0.23928405 -0.04652675
0003e0 af 1f af be 7c cb 60 3e 37 a1 17 3d 24 0d e1 3d
       -0.3420386 0.21952623 0.03701898 0.109888345
0003f0 2e 1e 18 be e2 e6 9e bd 44 d5 eb bd bd a3 ba bd
       -0.14855263 -0.07758881 -0.115152866 -0.09113262

0.features.2.0.block.1.1.weight f4 [32]
000000 c4 79 47 3f 5a ce 48 3f 76 6b 58 3f 53 44 3e 3f
       0.77920175 0.7843987 0.8453897 0.74323004
000010 f1 29 4d 3f 5e 17 52 3f fa 8a 57 3f eb 4f 54 3f
       0.8014212 0.82066905 0.84196436 0.82934445
000020 64 9e 60 3f a6 42 4a 3f fd 73 34 3f 85 3a 43 3f
       0.87741685 0.7900795 0.70489484 0.7626117
000030 2b d0 73 3f af 99 58 3f 68 5f 57 3f cb e6 39 3f
       0.95239514 0.846095 0.84129953 0.7261779
000040 59 72 2f 3f 88 c3 3b 3f 43 a6 42 3f d1 75 67 3f
       0.68533856 0.7334523 0.76034945 0.9041415
000050 27 77 47 3f 7c 19 62 3f 88 f4 58 3f eb 7a 65 3f
       0.7791619 0.88320136 0.84748125 0.8964068
000060 04 2e 4b 3f a0 91 48 3f 3b 27 5d 3f 49 f8 2f 3f
       0.7936709 0.78347206 0.86387986 0.6873823
000070 1d 8e 4a 3f 15 66 3e 3f 89 11 40 3f 76 ee 42 3f
       0.791231 0.74374515 0.75026757 0.7614511

0.features.2.0.block.1.1.bias f4 [32]
000000 1a c7 a6 be 21 71 e0 be 72 87 61 bf 9e 9a 5b 3f
       -0.32573777 -0.4383631 -0.880973 0.857828
000010 61 4f 1e 40 7a 4c 4f 3f 58 c4 da 3d 88 a8 3e 3f
       2.473595 0.8097607 0.10681981 0.7447591
000020 28 ba c7 bf 99 c7 c7 3f 3c e1 09 3f eb d4 1a 3e
       -1.5603685 1.5607787 0.53859305 0.15120284
000030 eb 7e dc bd 4a 73 df 3e 33 25 89 bf 7f 54 9f 3f
       -0.10766395 0.43642646 -1.0714477 1.2447661
000040 72 9e 87 bf f8 16 e5 bf e3 d0 cf be 49 32 2e 3f
       -1.0595229 -1.7897635 -0.40589055 0.6804548
000050 db 4a c1 be a1 7a 42 3f fe 7c cb 3f 62 d0 34 3f
       -0.37752423 0.75968367 1.589752 0.70630467
000060 19 d8 1b c0 59 cd a7 3e 6e ef 75 3f ab 47 2e be
       -2.4350646 0.32773855 0.96068466 -0.17019527
000070 35 a1 6a be d6 ce 1b bf 86 d7 52 bf 58 33 5b bd
       -0.22913058 -0.6086248 -0.8236011 -0.053515762

0.features.2.0.block.1.1.running_mean f4 [32]
000000 a5 00 b8 bd 6e bd 76 3d 10 59 5b bd e0 0f 25 bd
       -0.08984498 0.060239248 -0.053551733 -0.040298343
000010 2d 84 90 3d 5b 2b 81 3c 33 44 b0 bc 69 58 c0 3b
       0.070564605 0.015767744 -0.021516895 0.0058699143
000020 57 c6 9c 3e 14 1e 3f bd 6f 07 15 3e d6 7d 00 3e
       0.3062007 -0.046659544 0.14553617 0.12548003
000030 23 34 0b 3d 33 e5 0c 3e 62 1b 17 3d 30 48 5c bd
       0.03398527 0.13759308 0.03689135 -0.05377978
000040 70 fb 3a bd d6 57 75 3e bf 37 81 be 6b 8d 57 bd
       -0.045649946 0.23959288 -0.25237843 -0.0526251
000050 b7 82 ee 3d 29 dc 30 3d f8 2b 37 3d 63 08 ff bd
       0.11646026 0.04317871 0.044719666 -0.124527715
000060 2f b3 b7 be 86 38 a2 3e 86 e8 09 be 39 a5 0d bd
       -0.35878894 0.3168375 -0.13467607 -0.034581397
000070 6b ef 0b be 42 47 c0 bd 60 dd a5 3e 0f 29 b3 3d
       -0.1366555 -0.09388591 0.32395458 0.08748066

0.features.2.0.block.1.1.running_var f4 [32]
000000 4c b2 7d 3e f2 0f 38 3e 79 a4 8a 3e b1 c2 9e 3e
       0.24775046 0.17974833 0.27078608 0.31007913
000010 57 05 41 3e 9d f5 59 3e 1e 5d 1e 3e b4 a7 9d 3f
       0.18849693 0.212851 0.15465209 1.2316804
000020 51 42 0e 41 df be 4a 3e 5d 3c c6 3d f8 63 43 3e
       8.891191 0.19799374 0.09679482 0.19081104
000030 b7 d1 e3 3d 36 dc 7b 3e 4c c0 2f 3e 22 3f a2 3e
       0.11123984 0.24595723 0.17163199 0.31688792
000040 88 40 f0 3d f2 c7 59 3f 11 ac bb 3e 5a ac 67 3e
       0.11731058 0.8507072 0.36654714 0.2262434
000050 7a 9e bf 3e ac a3 90 3e 2d 2c f0 3e d5 c5 67 3e
       0.37425596 0.28249872 0.46908703 0.2263406
000060 42 71 d1 3f 3d c5 9e 3e 36 b1 c8 3e 8a f1 3c 3e
       1.6362689 0.31009856 0.391977 0.18451515
000070 dd 25 94 3e 44 a4 9e 3e 3c ca 3d 3f ad 9c 04 3e
       0.28935137 0.309847 0.7413671 0.12950392

0.features.2.1.block.0.0.weight f4 [128, 32, 3, 3]
000000 68 ed 0c bd 1d 14 34 39 f6 9f c7 3c d4 7c c3 3b
       -0.034406096 0.0001717363 0.024368268 0.0059658084
000010 2a 94 29 3e 66 2e d5 bc d8 a0 0a 3d e9 f0 27 3d
       0.16560426 -0.026023101 0.0338448 0.041001234
000020 2c 5e cc bd 5b e4 80 bc 35 54 af bc 16 87 80 bc
       -0.09978899 -0.015733888 -0.021402458 -0.015689414
000030 94 d9 ac bd 7b a6 cb bc 9d 26 07 3d 90 09 9e bd
       -0.08439937 -0.024859658 0.03299581 -0.07716668
000040 b0 a2 45 bd a2 7b 0c 3c 2f 1a 80 bc dc b1 d1 3c
       -0.048250854 0.008574398 -0.015637485 0.025597505
000050 b8 4b 30 3d 52 c3 33 bd 43 80 60 3c 60 64 4f bc
       0.04304096 -0.043887444 0.013702455 -0.012658209
000060 95 c4 8e bd 60 c8 bb 3d 15 3b ff 3c 3d 7d 5a bb
       -0.06971089 0.09169078 0.031156102 -0.0033338808
000070 b5 33 f6 3c 89 81 9a bc db c6 13 bd fa b9 e5 3c
       0.030053953 -0.018860595 -0.036078315 0.028042782
000080 ad b4 83 3c 51 9b eb 3c 10 b9 af bc bd 00 e7 3c
       0.016077364 0.028760584 -0.02145055 0.028198594
000090 99 e7 d2 3c c3 ac 8d bc 26 f4 52 3c 9b 78 36 3d
       0.0257452 -0.017294293 0.012875592 0.044548612
0000a0 86 3f 8b bc 02 09 2e 3d 2b 01 0e 3d ad 84 5d 3d
       -0.016998064 0.04248906 0.034669083 0.054081608
0000b0 87 19 2c bc c7 d4 d1 3c c1 c1 a2 bc 21 bf 5b 3d
       -0.010504133 0.025614155 -0.01986778 0.05364907
0000c0 f8 f2 dd bc 2e 9b 04 3c b8 37 1b 3d a7 cd d3 3c
       -0.027093396 0.008093638 0.037894934 0.025854899
0000d0 80 d6 55 bd 35 c9 5c bb 24 4b 0a 3d f4 e8 c7 3c
       -0.052206516 -0.0033689265 0.033763066 0.024403073
0000e0 12 95 8f 3c d9 a8 bc 3b bd ab 2c bd 39 b2 91 3c
       0.017527137 0.005757433 -0.04215597 0.017785178
0000f0 3e 57 5d 3d 09 41 dc bc 83 97 0d bd 1d 38 de 3c
       0.05403828 -0.02688648 -0.03456832 0.027126366
000100 e9 c7 95 3d 57 43 cd bb f1 c2 88 bc f6 b6 a5 3d
       0.073135205 -0.006264131 -0.016694518 0.08091538
000110 d7 4d d8 3c 71 a0 f2 bc 03 07 3b 3d f3 25 55 3d
       0.026404304 -0.02961752 0.045660984 0.052038144
000120 7b 13 de bb dd 69 86 3c 8c 6d 43 3c 96 ea 9e 3b
       -0.0067772246 0.016407901 0.0119279735 0.004849742
000130 3e 82 65 bd e7 b7 88 3c 01 96 d8 bc 16 1f d0 3b
       -0.05603241 0.016689254 -0.026438715 0.006351362
000140 e9 6c 2a bd 28 05 22 3c 03 54 a2 bc 49 44 35 bc
       -0.04160777 0.009888925 -0.01981545 -0.011063644
000150 fb 79 63 3c 33 c6 fe bd 00 1f 53 3c 24 58 80 bb
       0.013884063 -0.12440147 0.012885809 -0.003916757
000160 7c ba e2 3c 14 87 3b bd b1 d0 44 3c 5f 31 0d bd
       0.027676813 -0.045783117 0.0120126465 -0.034470912
000170 82 b4 8e ba 88 51 04 bc bd 8b 2a bd a3 6e 38 3d
       -0.0010887536 -0.008076079 -0.04163717 0.045027386
000180 30 bf 2c bd 23 80 36 bd ec c5 50 bd 71 68 c6 bc
       -0.042174518 -0.044555794 -0.050970003 -0.024219723
000190 f0 5b 88 3d ad ae 05 3c ca 21 d9 3c 1e 69 8c 3d
       0.06658161 0.008159322 0.02650537 0.06855987
0001a0 10 26 ea bc cd 76 01 bc 9a 84 5e 3d d9 54 1f 3c
       -0.028582603 -0.0079018595 0.054325677 0.009724819
0001b0 07 eb 55 3d 0f cf 00 bd 09 ef 90 bb 72 8e 9b 3b
       0.052226093 -0.031447466 -0.0044230265 0.0047472054
0001c0 6b 42 69 bd 8f 56 38 3d 0e c0 52 3c eb b2 d7 bb
       -0.056948107 0.045004424 0.012863172 -0.006582608
0001d0 6b 2c 58 3d f9 fa 15 bd 85 c1 0c bd ee ef c1 3b
       0.052776735 -0.0366163 -0.034364242 0.0059184944
0001e0 6b c2 54 bd 58 17 11 3c dc 83 8b bd 7e 29 04 bc
       -0.051943224 0.008855663 -0.068122596 -0.008066533
0001f0 a6 f8 83 bd d0 4b 7c bd ca eb 96 3b a8 eb c6 bb
       -0.0644391 -0.061595738 0.004605745 -0.006070573
000200 19 37 b4 bd b3 37 6c 3c d8 5e b3 bd 9b 24 27 bd
       -0.087995715 0.014417577 -0.087583244 -0.040806394
000210 e6 3c 05 bd a9 8f b1 3c c7 bf 88 bc 70 cf 12 3d
       -0.03252878 0.021674948 -0.016693009 0.03584236
000220 d5 3b 4d b9 c9 1b a8 3d 81 bb ee 3c f7 6c 89 bd
       -0.00019572613 0.082084246 0.029142143 -0.067102365
000230 b4 47 87 3d 0c d9 9c 3d c6 79 dd bc e0 15 a5 bc
       0.06605473 0.07658586 -0.027035605 -0.020152032
000240 f9 08 c0 bc 23 9d 73 bd ba db 6c 3c 85 2a e4 bc
       -0.023441778 -0.05947603 0.014456684 -0.027852306
000250 8f b7 d7 bd 86 9c f3 bb 18 ee 87 bd 0e b6 49 bd
       -0.10533058 -0.0074344305 -0.0663721 -0.049245887
000260 87 36 0a 3c 90 06 b8 bd 10 a9 de bd 01 4b 95 3d
       0.008435852 -0.08985627 -0.1087209 0.072896965
000270 1b d6 13 be 61 28 fe bd cc 55 8c 3d 30 44 5a bd
       -0.14437144 -0.124100454 0.06852302 -0.053287685
000280 7e 97 2b 3e bf 71 d3 3d c2 3a 94 bd 69 08 b6 3d
       0.16757008 0.1032443 -0.0723777 0.08888323
000290 5a 80 30 bc 75 4b 90 bc 9b 55 10 3e b0 4d 98 bd
       -0.010772789 -0.017614106 0.14095156 -0.07436693
0002a0 a8 ba 0d 3d 49 b5 b4 bc 1d 65 81 3d eb 76 14 3d
       0.034601837 -0.0220591 0.06318114 0.03624622
0002b0 e6 a1 a8 bd 18 d8 42 3b cf 72 b1 3d 8c f5 84 3b
       -0.08234005 0.0029730853 0.08664476 0.004057592
0002c0 59 65 45 bc f6 51 31 3d 91 0f e3 3b c1 c4 7b 3c
       -0.012048089 0.043291055 0.006929346 0.015366734
0002d0 e3 f1 58 bd 45 65 63 bd 99 cd 2d bd 81 a7 77 bd
       -0.052965056 -0.0555165 -0.0424324 -0.06046248
0002e0 23 84 c8 3b 50 22 a5 bd 30 59 25 bd 1c 60 21 3d
       0.0061192675 -0.08063185 -0.04036826 0.039398298
0002f0 6c a8 8f 3d 8d 3d 5d bc e6 04 fc 3c 83 d9 e2 ba
       0.07014546 -0.013503444 0.030764055 -0.0017307255
000300 9b bf 11 3d c3 42 83 3d 63 b5 cd bd 4b 52 b3 3d
       0.03558312 0.06409218 -0.100443624 0.087559305
000310 af 1f 80 bd aa d7 8e bb 34 ef 1b 3d d6 48 89 bc
       -0.06256043 -0.0043592053 0.03806992 -0.016758364
000320 cf d4 59 bd bf 13 34 bd 17 58 ed 3c 31 20 42 3d
       -0.053181466 -0.043964144 0.028972669 0.04739398
000330 b4 9b 07 3d 24 07 f5 3d 5c 53 ec bb 4e 4c ba b9
       0.033107474 0.119642526 -0.0072120856 -0.00035533536
000340 04 47 26 bd 48 a8 94 bd a0 50 35 bd c9 a8 f1 bc
       -0.04059507 -0.072586596 -0.044266343 -0.029499428
000350 d6 56 53 3c d6 86 78 3d b3 84 2d be 37 83 49 bd
       0.012899121 0.060675465 -0.16945152 -0.0491974
000360 a9 2a b8 bc 33 af 8f 3c 5b 60 24 3c 24 83 a5 bd
       -0.02248128 0.017539596 0.010032739 -0.08081654
000370 93 f8 d4 3d 6e 6a 71 bd 40 2d eb bd c0 28 87 3d
       0.10398974 -0.05893939 -0.1148324 0.06599569
000380 d6 bf 75 bd dd 71 8f 3d 8a bc d4 3b e0 15 6c 3c
       -0.059997402 0.070041396 0.006492202 0.014409512
000390 1a 43 a5 bd a6 2b 5c 3c 9a 50 aa bc 18 79 d4 3b
       -0.08069439 0.013438141 -0.020790387 0.006484162
0003a0 8e 5d 48 bd 96 9e 11 bd f5 37 7f 3d c6 79 9a 3d
       -0.048917346 -0.03555163 0.062309224 0.07542758
0003b0 0e eb aa bc 2d af 10 bd 7f 59 14 3e e9 72 00 bc
       -0.020864036 -0.03532331 0.14487265 -0.007839897
0003c0 2a 50 a1 bc a5 3b 21 3c 91 87 7d ba bc b4 c9 bc
       -0.019691546 0.0098408805 -0.0009671385 -0.024622314
0003d0 1a 91 48 bc 3c a7 06 bd 35 68 a5 3c 39 81 90 3d
       -0.012241626 -0.03287433 0.020191291 0.07055897
0003e0 37 9a 3d 3d f4 95 ad bc 46 e6 9f bb b4 ae c6 3c
       0.04628965 -0.021189667 -0.0048797457 0.024253227
0003f0 18 ca e8 3c 21 72 4a bc 64 ec cd bc 44 a5 03 bd
       0.028416678 -0.012356312 -0.025137134 -0.03214003
