code/modeling/ckpt/AutoencoderConfig([2, 1, 2], flip=True, rotate=True)/autoencoder_800.pth (torch, 549850 bytes, 92 tensors)

0.features.0.0.weight f4 [16, 8, 3, 3]
0	0xbd9c1f7f	-0.07623195
1	0xbd38c8dc	-0.04511343
2	0x3c9ed8fb	0.019390574
3	0xbd1ae60a	-0.03781704
4	0x3cb84e35	0.02249823
5	0xbc6ef895	-0.014585634
6	0x3d1ded6c	0.0385565
7	0x3d232cba	0.039837576
8	0x3cf9d406	0.030496608
9	0x3dc7e446	0.097603366
10	0xbe013858	-0.1261915
11	0x3dc6bb4c	0.09703693
12	0x3d446651	0.04794914
13	0xbd6c31c2	-0.05766464
14	0xbd0e41f2	-0.03473086
15	0xbd58de34	-0.052946284
16	0xbd43beff	-0.04778957
17	0xbd8ddce2	-0.06926896
18	0x3dc6efad	0.09713683
19	0xbc420621	-0.011842282
20	0xbd97b4a4	-0.07407501
21	0x3dcf970b	0.10136231
22	0x3e319a9d	0.17344137
23	0x3de2a7ff	0.11067199
24	0x3ceecc1e	0.029150065
25	0x3e3fc0fd	0.18725963
26	0x3b801e96	0.003909896
27	0x3db11266	0.08646087
28	0xbdcace61	-0.09902645
29	0xbd9a1bb3	-0.075248145
30	0xbd6a0cd4	-0.05714114
31	0xbd683832	-0.056694217
32	0x3cd5b3a5	0.026086638
33	0xbc14094e	-0.009035422
34	0x3c26c54a	0.010178873
35	0xbda9eda5	-0.0829728
36	0xbdcb59eb	-0.0992926
37	0xbd9c57d4	-0.076339394
38	0x3d2cde2d	0.04220407
39	0x3d240e73	0.040052842
40	0xbde631ed	-0.11239991
41	0xbd62a147	-0.055329587
42	0x3b320444	0.0027163187
43	0x3d28765f	0.041128512
44	0x3d705d98	0.058683008
45	0xbd616ff3	-0.055038404
46	0xbd6934a9	-0.056934986
47	0x3dfe81eb	0.12427124
48	0xbd8e68be	-0.06953572
49	0xbdd26d44	-0.10274747
50	0xbd9d5bb4	-0.076835066
51	0xbd3fd19a	-0.04683075
52	0x3dd03647	0.101666026
53	0xbdd5f7f3	-0.10447683
54	0xbd03ba5a	-0.03216014
55	0xbbaa6d6f	-0.005201034
56	0xbc8048b3	-0.015659666
57	0xbdb4e760	-0.08833194
58	0x3df92001	0.121643074
59	0xbdcd8bf2	-0.10036458
60	0xbd2c5327	-0.042071488
61	0x3dee8d3a	0.116480306
62	0x3dcddbce	0.1005169
63	0xbd8837c8	-0.066512644
64	0x3d8bc64f	0.06824934
65	0xbdab8e6a	-0.08376773
66	0xbdcfa8b8	-0.101396024
67	0xbd798505	-0.060917873
68	0x3dba4c78	0.090966165
69	0xbcc00256	-0.023438614
70	0xbca86192	-0.020554338
71	0x3d055ba2	0.03255809
72	0x3cd7bb68	0.02633448
73	0x3cd1584b	0.025554797
74	0xbd944ccd	-0.07241211
75	0xbdcaf6ab	-0.099103294
76	0xbdc1b2b8	-0.09457916
77	0xbdaf614d	-0.085634805
78	0xbdadb356	-0.08481471
79	0x3d928ecd	0.07156143
80	0xbdbef7b4	-0.09324589
81	0xbdf91933	-0.121630095
82	0xbdef05ef	-0.116710536
83	0xbe0d1d45	-0.13780697
84	0x3d492d5c	0.049115524
85	0xbe2a8305	-0.16651542
86	0xbc951fa5	-0.018203566
87	0xbb61afd3	-0.0034437075
88	0xbe234b72	-0.15946749
89	0xbd02663b	-0.031835776
90	0x3d8e8d7f	0.06960582
91	0xbdf241a4	-0.11828926
92	0x3d5366e2	0.05161179
93	0x3cda8252	0.02667347
94	0xbd0f6fc8	-0.035018712
95	0xbadc3bf7	-0.0016802539
96	0x3daf476a	0.08558543
97	0xbcdcbb70	-0.026944846
98	0xbd46198a	-0.0483642
99	0xbd7c1e31	-0.06155223
100	0xbd2455ea	-0.040120997
101	0x3d9476f4	0.07249251
102	0x3d59ae76	0.053144895
103	0xbdcf74e3	-0.10129716
104	0x3d8e52df	0.069494
105	0x3dce32d2	0.10068287
106	0xbce4d0c7	-0.027931584
107	0xbdca5018	-0.09878558
108	0x3dcce954	0.10005441
109	0x3d4129a6	0.04715886
110	0xbdc38309	-0.09546477
111	0x3d511939	0.051049445
112	0x3d79f792	0.061027117
113	0xbd0592ad	-0.032610584
114	0x3db6d9ee	0.089282855
115	0xbc108c79	-0.008822554
116	0x3d2d109a	0.04225216
117	0x3be40892	0.0069590295
118	0xbdb606a9	-0.08887989
119	0xbd5d6d64	-0.0540594
120	0xbd5bd0c9	-0.05366591
121	0xbdb0c04e	-0.08630429
122	0x3da9ba5e	0.082875
123	0x3d1e4b98	0.03864631
124	0x3c6ff68b	0.014646183
125	0xbd0d2b77	-0.03446528
126	0x3d7157b2	0.058921523
127	0x3d99360d	0.074810125
128	0xbc764fc2	-0.015033664
129	0x3da20116	0.079103634
130	0x3c184e84	0.009296063
131	0xbda9b06b	-0.08285602
132	0xbdb19e00	-0.08672714
133	0xbda09407	-0.07840734
134	0xbdabea97	-0.08394354
135	0x3d3b572c	0.04573743
136	0xbde89c08	-0.113578856
137	0x3d27a207	0.040926006
138	0xbc066701	-0.008203269
139	0xbd0ae501	-0.0339098
140	0x3da9ed4e	0.082972154
141	0x3dc5738e	0.09641181
142	0x3dcc4daa	0.09975751
143	0x3bbcab12	0.005757698
144	0xbd215270	-0.03938526
145	0xbbaa0ab3	-0.0051892637
146	0x3e019462	0.1265426
147	0x3d8b4002	0.06799318
148	0x3cd706d5	0.026248375
149	0xbd82198c	-0.06352529
150	0xbd92545c	-0.071449965
151	0xbcb2160a	-0.021739025
152	0x3c77c3a4	0.015122328
153	0xbd083d5a	-0.033261634
154	0x3d76b728	0.060233265
155	0xbc2c65fa	-0.01052236
156	0xbdb96acc	-0.09053573
157	0xbdc46488	-0.09589487
158	0xbd8e505d	-0.06948922
159	0xbda3876d	-0.07984815
160	0x3d14217f	0.036164757
161	0x3ddb1a52	0.106983796
162	0x3ca28bab	0.01984199
163	0x3da79e6c	0.081845134
164	0x3dd437fb	0.1036224
165	0xbd29443a	-0.04132483
166	0xbda9f85d	-0.08299325
167	0x3cb0fd50	0.021605164
168	0x3ce237a4	0.027614422
169	0xba91e3d1	-0.0011130517
170	0x3e1193a8	0.14216483
171	0xbd4883f4	-0.048953965
172	0x3e0500cc	0.12988585
173	0x3c0a6817	0.0084476685
174	0xbd85aead	-0.065274574
175	0xbd3bf508	-0.045887977
176	0xbb9ad70f	-0.004725344
177	0xbdd60f2d	-0.10452113
178	0xbca036bd	-0.019557351
179	0xbda28a03	-0.0793648
180	0x3c0c83e6	0.008576369
181	0xbc495907	-0.012289292
182	0x3c8fd808	0.017559066
183	0xbde9bf7d	-0.114134766
184	0xbd5088f3	-0.050911855
185	0xbd949be2	-0.07256295
186	0x3b126632	0.0022338745
187	0xbe19481a	-0.14968911
188	0x3d089b39	0.033351157
189	0xbd3b927c	-0.045793995
190	0xbdac8c04	-0.08425143
191	0x3dd54d02	0.10415079
192	0xbd1a41b1	-0.037660304
193	0xbe51fa7c	-0.20505708
194	0xbd924579	-0.07142157
195	0x3d6d82ef	0.057986196
196	0x3d28cdd0	0.041211903
197	0x3d4716b7	0.048605647
198	0x3d74475a	0.05963836
199	0x3c046e30	0.008082911
200	0xbd0dec18	-0.034648985
201	0xbd568c49	-0.05237988
202	0xbe1bd034	-0.15216142
203	0x3d0bedb0	0.034162223
204	0x3c5d9559	0.013524377
205	0xbda3938f	-0.07987129
206	0x3d49c595	0.049260695
207	0xbd2d6a56	-0.042337738
208	0xbdc64f92	-0.096831456
209	0xbd68bbbd	-0.056819666
210	0x3d8c8837	0.068619184
211	0xbe23ae0b	-0.15984361
212	0xbd8b8199	-0.06811828
213	0xbc5b59e6	-0.013388133
214	0x3da4cf35	0.08047334
215	0x3e1220d7	0.1427034
216	0xbd5a9c65	-0.053371806
217	0x3d810841	0.063004024
218	0xbd9036b8	-0.07041687
219	0xbd3521f7	-0.044221845
220	0xbd1dc197	-0.0385147
221	0xbe119615	-0.14217408
222	0xbc9d5173	-0.019203877
223	0xbd95bb77	-0.07311147
224	0x3c5349ac	0.012895983
225	0xbd4719dd	-0.04860865
226	0xbd6ffdf4	-0.058591798
227	0xbdbc30f4	-0.091890246
228	0x3d0a9360	0.033831954
229	0xbdf16c3b	-0.117882214
230	0x3d659758	0.056052536
231	0xbd947b6e	-0.07250105
232	0x3dc012b5	0.09378568
233	0xbb609e1e	-0.0034273933
234	0xbd976d40	-0.07393885
235	0x3c92eced	0.01793524
236	0xbcb1f0ea	-0.021721322
237	0x3dce4b78	0.10072988
238	0x3d1d65c9	0.038427148
239	0x3cbdd19a	0.023171235
240	0x3d83bdbc	0.06432673
241	0x3ca3ceed	0.01999613
242	0xbdb43c3f	-0.088005535
243	0x3dc1d366	0.09464149
244	0x3da12df3	0.07870092
245	0xbd002c97	-0.031292524
246	0xbd82c10c	-0.06384477
247	0xbd5877df	-0.052848693
248	0xbd37756c	-0.044789717
249	0x3d76f887	0.060295608
250	0x3c727be5	0.014800047
251	0xbdcb097d	-0.09913919
252	0x3d643b5b	0.05572067
253	0x3baffa95	0.005370448
254	0xbdf45252	-0.11929764
255	0xbd8add8c	-0.06780538

0.features.0.1.weight f4 [16]
0	0x3f7adb68	0.9799104
1	0x3f854bac	1.0413718
2	0x3f821ca2	1.0164988
3	0x3f7cddfd	0.9877623
4	0x3f7c9c27	0.9867577
5	0x3f80a242	1.0049517
6	0x3f7a6ae1	0.97819334
7	0x3f84bd39	1.0370246
8	0x3f7b09c1	0.9806176
9	0x3f805464	1.0025754
10	0x3f6934e2	0.9109632
11	0x3f7ef925	0.99598914
12	0x3f82b145	1.0210348
13	0x3f7e9e0c	0.9945991
14	0x3f7c7115	0.9861005
15	0x3f74001e	0.9531268

0.features.0.1.bias f4 [16]
0	0x3d91d833	0.07121315
1	0x3d8d4fa3	0.06899955
2	0x3e333850	0.1750195
3	0x3dae7636	0.08518641
4	0x3e68173e	0.22665116
5	0x3e03690d	0.12833042
6	0x3d07c779	0.033149216
7	0x3dab948c	0.083779424
8	0x3e7d3d98	0.24730527
9	0x3d5c0337	0.053714003
10	0x3e1e75f0	0.15474677
11	0x3e352ca5	0.17692812
12	0x3db9b239	0.090671964
13	0x3d4e19d0	0.050317585
14	0x3d0bc2b6	0.034121238
15	0x3e04ab3b	0.12955944

0.features.0.1.running_mean f4 [16]
0	0xbd0603ed	-0.032718588
1	0x3d061880	0.03273821
2	0xbd1c4204	-0.038148895
3	0x3ce7e94a	0.028309483
4	0xbc884351	-0.016633661
5	0x3cd5d232	0.026101205
6	0x3d59bbbf	0.053157564
7	0x3d991c04	0.07476047
8	0xbd18c57c	-0.03729771
9	0x3d05cdf7	0.032667127
10	0xbca5d603	-0.02024365
11	0xbcaed4d0	-0.021341711
12	0xbd6618c8	-0.056175977
13	0xbd5475e7	-0.051870253
14	0x3c9de5b6	0.019274574
15	0x3ca01a86	0.019543897

0.features.0.1.running_var f4 [16]
0	0x3f29d74e	0.66344154
1	0x3eedfe48	0.46483064
2	0x3f312d16	0.6920942
3	0x3ed115a6	0.4083683
4	0x3e9e7b1e	0.30953306
5	0x3eee2aac	0.4651693
6	0x3f7ca7db	0.9869363
7	0x3fdb9157	1.7153729
8	0x3eed90d4	0.46399558
9	0x3efcd4a1	0.49380973
10	0x3e9127d7	0.28350708
11	0x3edd443b	0.43216118
12	0x3f73850d	0.95124894
13	0x3f8be159	1.0928146
14	0x3ec0eab5	0.37679067
15	0x3e7756f0	0.24154258

0.features.1.0.block.0.0.weight f4 [16, 16, 3, 3]
0	0x3c305bbb	0.010764058
1	0x3e9b058d	0.30277672
2	0x3db50042	0.0883794
3	0x3ca78afa	0.020452011
4	0xbe1a2f70	-0.15057158
5	0xbdfd5ecb	-0.12371596
6	0x3d3fa789	0.046790633
7	0x3dcd47e6	0.10023479
8	0xbbace96f	-0.005276851
9	0x3d3e6b8a	0.046489276
10	0xbbed48c0	-0.0072413385
11	0xbc1a7af4	-0.009428728
12	0x3eaf8ef7	0.3428876
13	0x3e0a605f	0.13513325
14	0x3e2c28a3	0.16812377
15	0xbd510bbd	-0.051036585
16	0x3d7a13a0	0.061053872
17	0x3ce99152	0.028511677
18	0x3dbce679	0.09223647
19	0x3e2a309f	0.1662011
20	0x3e214e9c	0.15752643
21	0x3ca84bda	0.020543981
22	0xbccea4fe	-0.025225159
23	0x3dae67ff	0.085159294
24	0xbdc79c66	-0.097466275
25	0x3e009259	0.12555827
26	0x3dcf39d9	0.101184554
27	0x3ddee6c8	0.10883862
28	0xbd9656f8	-0.07340807
29	0xbe23970b	-0.15975587
30	0xbd2ad9e7	-0.041711714
31	0xbace6d9f	-0.0015749222
32	0x3bda9d7f	0.006671607
33	0x3e3c3e7c	0.18383211
34	0xbdc242c8	-0.09485394
35	0xbd72cde5	-0.059278388
36	0x3c69587c	0.014242288
37	0xbde966d6	-0.113965675
38	0xbe564156	-0.20923361
39	0xbd3622c4	-0.04446675
40	0x3e6b8d23	0.23003058
41	0xbdf9a406	-0.12189488
42	0x3d13bb43	0.03606726
43	0xbd4e41b1	-0.050355617
44	0x3d97319d	0.0738251
45	0x3e3db5b1	0.18526341
46	0x3c8a583c	0.016887777
47	0xbce372a6	-0.02776463
48	0xbd648d5f	-0.055798884
49	0xbcd1723d	-0.025567168
50	0xbd57ab6b	-0.05265371
51	0xbe12a4b7	-0.14320646
52	0xbdaeea93	-0.08540835
53	0xbdee6802	-0.11640932
54	0x3c0b2af0	0.008494124
55	0x3e4ad871	0.19809128
56	0x3d522962	0.051308997
57	0x3d2e185f	0.04250371
58	0x3b42c8c0	0.0029721707
59	0xbe017758	-0.12643182
60	0x3ca36b49	0.019948618
61	0x3db21cb6	0.086968824
62	0x3e310b1c	0.17289394
63	0xbd92a9fa	-0.07161327
64	0xba44bd1f	-0.0007504988
65	0x3e308b8e	0.17240736
66	0xbcd5458c	-0.02603414
67	0xbd03419b	-0.032044988
68	0xbd59f9b2	-0.053216644
69	0x3dad9c58	0.08477086
70	0x3d9386bf	0.07203435
71	0xbd197245	-0.03746249
72	0xbca1f450	-0.019769818
73	0xbe828eeb	-0.25499663
74	0xbd5a1cbb	-0.053250056
75	0xbdeab8f9	-0.11461062
76	0xbc05facf	-0.008177473
77	0xbe140c16	-0.14457735
78	0x3ce2790a	0.027645607
79	0xbe5ab038	-0.21356285
80	0x3e44b93d	0.19211288
81	0xbd7269c3	-0.059182893
82	0x3dca8b1e	0.09889816
83	0xbe0ec003	-0.13940434
84	0x3dd59096	0.10427968
85	0x3dae47a3	0.08509757
86	0x3d0f9486	0.035053752
87	0x3cf41a19	0.0297976
88	0xbd1041e4	-0.03521909
89	0xbd859625	-0.065227784
90	0x3e0ce291	0.13758303
91	0xbd0744a8	-0.03302446
92	0xbdd452ce	-0.10367356
93	0x3e0fae45	0.14031322
94	0x3d37a5bf	0.044835802
95	0x3deccd13	0.11562552
96	0xbdbbe61e	-0.09174751
97	0xbe5042b0	-0.2033794
98	0xbe860663	-0.26176748
99	0xbec9150c	-0.3927387
100	0xbdb2b553	-0.08725991
101	0x3e06c9a7	0.13162862
102	0x3e83fb08	0.2577746
103	0xbe006e5d	-0.125421
104	0xbd214646	-0.03937366
105	0x3ccb08cd	0.02478447
106	0x3dec1153	0.11526742
107	0xbdaef56f	-0.085429065
108	0x3baba131	0.0052377214
109	0xbe406454	-0.18788272
110	0xbe75c217	-0.2399982
111	0x3d652f64	0.0559534
112	0xbd5cc622	-0.05389989
113	0xbe03546d	-0.12825175
114	0x3e36d888	0.17856038
115	0x3d9c1f99	0.07623214
116	0xbcdaae6a	-0.026694495
117	0xbddbc997	-0.107318096
118	0xbcadd23c	-0.021218412
119	0x3daaf900	0.08348274
120	0xbc9b9bf5	-0.018995265
121	0xbe856882	-0.26056296
122	0xbd3f4930	-0.046700656
123	0x3e436b78	0.19083965
124	0xbc76d4ee	-0.015065415
125	0x3e17f366	0.14838943
126	0x3dc93348	0.09824234
127	0x3d2c5e29	0.042081986
128	0x3de9600d	0.11395273
129	0x3acc8435	0.0015603366
130	0x3e17b2c8	0.14814293
131	0xbd65dd92	-0.05611951
132	0x3d4a4f35	0.049391944
133	0xbe0c2d13	-0.1368907
134	0x3dc3e775	0.09565631
135	0xbd9d5f0e	-0.07684146
136	0x3d10943d	0.03529762
137	0xbc1e4709	-0.009660491
138	0x3c8372d0	0.016045958
139	0x3e438857	0.19094978
140	0x3bbc60f8	0.0057488643
141	0x3e275f0a	0.16344848
142	0xbd41d546	-0.047322534
143	0xbca7b841	-0.020473601
144	0x3e402f3f	0.18768023
145	0xbc5d06eb	-0.013490419
146	0xbd306ce6	-0.043072604
147	0x3e09e231	0.13465191
148	0x3c0c4112	0.008560436
149	0x3d2ebaa5	0.042658467
150	0xbd8f8974	-0.07008639
151	0x3dd58d53	0.10427346
152	0xbdf9101e	-0.12161277
153	0xbe1fa4b1	-0.15590169
154	0x3d397d6c	0.045285627
155	0xbd3e9a43	-0.046533834
156	0xbdcd017d	-0.100100495
157	0xbe4bed53	-0.19914751
158	0x3c8a563d	0.016886825
159	0x3d17246b	0.036899965
160	0xbeca32e4	-0.3949195
161	0x3e2008e3	0.1562839
162	0xbdcd2aac	-0.10017905
163	0xbdbe3f64	-0.092894346
164	0x3df6f8eb	0.12059196
165	0xbe1473bb	-0.14497273
166	0x3d5812ff	0.05275249
167	0xbe0b58d1	-0.136081
168	0xbd5700ec	-0.052491114
169	0xbd7193f5	-0.058978993
170	0xbd82369b	-0.063580714
171	0x3e0a3271	0.13495804
172	0x3e399166	0.18121871
173	0x3d7ece4b	0.062208455
174	0x3e24730f	0.16059516
175	0x3d88116a	0.066439465
176	0x3c236817	0.009973547
177	0x3c5a6a6d	0.013331038
178	0x3dc83719	0.09776134
179	0x3e55b010	0.20867944
180	0x3da8c57d	0.08240793
181	0x3e0ab681	0.13546182
182	0x3ba3d404	0.0049996395
183	0xbda668c0	-0.08125448
184	0xbe523660	-0.20528555
185	0x3cbe29fa	0.023213375
186	0xbd5d01b5	-0.053956706
187	0xbe073330	-0.1320312
188	0x3d64d907	0.055871036
189	0x3d6a0831	0.05713672
190	0x3d7c3587	0.061574485
191	0x3e3edf11	0.1863978
192	0x3e00b1a3	0.12567763
193	0xbe03f4af	-0.12886308
194	0x3e333ef4	0.17504483
195	0xbddd1640	-0.107952595
196	0x3d9d0d61	0.076685674
197	0xbd68e9b6	-0.05686351
198	0xbc6b5fb5	-0.01436608
199	0xbdd013a9	-0.1016
200	0x3dabffa9	0.08398373
201	0xbd42e24f	-0.047579106
202	0xbd398cef	-0.04530042
203	0xbd1ecf80	-0.038772106
204	0x3e26ba99	0.16282119
205	0x3d8c2ef0	0.0684489
206	0xbd1de40c	-0.03854756
207	0x3bbedea7	0.005824882
208	0xbd3d440e	-0.04620748
209	0x3d1ed802	0.03878022
210	0x3b8d18e4	0.0043059457
211	0xbd1eb733	-0.03874893
212	0x3deecf5e	0.11660646
213	0xbd35f848	-0.044426233
214	0xbe368cbd	-0.17827125
215	0x3cbc631c	0.022996478
216	0xbd617f1a	-0.055052854
217	0x3e3e42a2	0.18580106
218	0x3dc93287	0.098240905
219	0x3d577047	0.05259731
220	0xbe12c3df	-0.14332531
221	0x3d4dc9af	0.05024117
222	0x3e3c3fec	0.1838376
223	0x3d4a049c	0.049320802
224	0xbd50d661	-0.050985698
225	0xbca7f5e8	-0.020503
226	0xbe39f6ca	-0.18160549
227	0xbdb6e17a	-0.08929725
228	0xbd0399d0	-0.03212911
229	0x3e039af6	0.12852082
230	0xbe121a83	-0.14267926
231	0xbe402620	-0.18764544
232	0xbe7d9a1f	-0.24765824
233	0xbdf6590a	-0.120287016
234	0x3b55a8df	0.0032601876
235	0x3c91fdbe	0.017821189
236	0xbd8c1d27	-0.06841498
237	0x3e6de15c	0.23230499
238	0x3e2572c4	0.16157061
239	0xbccb322d	-0.0248042
240	0xbe1f7be2	-0.15574601
241	0x3d53d17a	0.051713444
242	0x3db5247e	0.08844851
243	0x3cbad5f3	0.022807097
244	0xbcd57030	-0.026054472
245	0x3d56b3e3	0.052417647
246	0x3e31bf13	0.17358045
247	0xbd442a25	-0.047891755
248	0xbe47a39f	-0.1949601
249	0xbcbc819e	-0.023011025
250	0xbca59dba	-0.020216811
251	0x3c37d8c8	0.011221118
252	0xbe2c3b2e	-0.1681945
253	0x3d1750e1	0.036942367
254	0x3e1b28c1	0.15152265
255	0xbda6dc13	-0.081474446

0.features.1.0.block.0.1.weight f4 [16]
0	0x3f7073e8	0.9392686
1	0x3f73edd8	0.95284796
2	0x3f75cab6	0.9601244
3	0x3f8c0cd8	1.094142
4	0x3f7301c6	0.9492458
5	0x3f719ac9	0.9437681
6	0x3f71d868	0.94470835
7	0x3f7e9272	0.9944221
8	0x3f717781	0.94322973
9	0x3f72e5ff	0.94882196
10	0x3f6d1cf2	0.9262229
11	0x3f6a9cbb	0.916454
12	0x3f74fcc2	0.9569818
13	0x3f77e9b7	0.96840996
14	0x3f7477eb	0.9549548
15	0x3f732e98	0.9499297

0.features.1.0.block.0.1.bias f4 [16]
0	0xbc3919f8	-0.011297695
1	0x3e533d1c	0.2062878
2	0x3d72be1d	0.059263337
3	0x3d5d59b9	0.054040644
4	0x3d8f2786	0.0698996
5	0x3d5a5077	0.053299394
6	0x3b3dd69e	0.0028967033
7	0x3c7fb024	0.01560596
8	0x3d923a53	0.07140031
9	0x3df445f0	0.11927402
10	0xba03484a	-0.00050080253
11	0xbc7f049c	-0.015565064
12	0x3dbfc0c1	0.09362937
13	0x3d961522	0.073282495
14	0x3b52fb6b	0.0032193314
15	0x3cd25a1d	0.025677735

0.features.1.0.block.0.1.running_mean f4 [16]
0	0x3e03b735	0.12862857
1	0x3d92c199	0.07165832
2	0xbccb2a93	-0.024800574
3	0xbfbce396	-1.4756954
4	0x3e169f88	0.14709294
5	0x3e4bce05	0.19902809
6	0xbe816805	-0.25274673
7	0xbe10c041	-0.14135839
8	0xbf7c500e	-0.98559654
9	0x3f10863b	0.5645482
10	0xbdb83278	-0.08994001
11	0xbe183378	-0.14863384
12	0x3f136dc5	0.5758937
13	0x3e9d5983	0.30732355
14	0xbeefc48a	-0.46829635
15	0x3e8d73bd	0.27627364

0.features.1.0.block.0.1.running_var f4 [16]
0	0x3f868f2c	1.0512443
1	0x3f31525c	0.69266295
2	0x3f86eea9	1.0541583
3	0x3ffd2cac	1.9779258
4	0x4055b2a9	3.3390296
5	0x3fecf6fe	1.8512876
6	0x40692c7f	3.6433408
7	0x3ff72293	1.9307426
8	0x40326075	2.7871373
9	0x4008b4da	2.1360383
10	0x3fd74785	1.6818701
11	0x40225c48	2.5368824
12	0x4052e1db	3.2950351
13	0x3fe89afe	1.81723
14	0x3fd04057	1.6269635
15	0x40071b53	2.1110427

0.features.1.1.block.0.0.weight f4 [16, 16, 3, 3]
0	0x3e36957e	0.17830464
1	0x3e00d3ae	0.1258075
2	0xbdce1b8c	-0.10063848
3	0x3e2fbc23	0.17161612
4	0x3dc027b0	0.0938257
5	0x3c8d4b4e	0.017247822
6	0xbdefa597	-0.11701506
7	0xbd219401	-0.03944779
8	0xbd86ef95	-0.065886654
9	0xbd6ec5c9	-0.05829409
10	0xbcb92601	-0.02260113
11	0x3db949ec	0.090473026
12	0xbc6abc62	-0.0143271405
13	0x3d8ddf35	0.06927339
14	0xbe1bb1fd	-0.15204616
15	0xbe472a0a	-0.1944963
16	0x3dc9b79e	0.09849475
17	0xbd17c48e	-0.037052684
18	0x3d93d832	0.0721897
19	0xbd3e843c	-0.046512827
20	0xbdccf4a2	-0.100075975
21	0xbe6839eb	-0.22678344
22	0xbd730974	-0.059335187
23	0xbd6fc715	-0.05853947
24	0x3cde21f9	0.027115809
25	0xbdb0e924	-0.08638218
26	0x3e8251b8	0.2545297
27	0xbe27e764	-0.16396862
28	0xbd480467	-0.048832323
29	0xbd147a6e	-0.03624957
30	0x3d1c63d7	0.038181152
31	0xbd3d8e4a	-0.046278276
32	0xbdb7b1a2	-0.08969428
33	0x3c08f215	0.008358498
34	0x3ca379cf	0.019955544
35	0x3dacb225	0.08432416
36	0x3d00802b	0.03137223
37	0x3b8d675d	0.0043153004
38	0xbe816b08	-0.2527697
39	0xbd131ba9	-0.03591505
40	0xbe01f70d	-0.12691899
41	0x3d38c55d	0.045110095
42	0xbdf8a61b	-0.12141057
43	0xbd35bb2e	-0.04436796
44	0x3d13a04d	0.036041547
45	0xbd8fa1df	-0.07013296
46	0xbe0b38bf	-0.13595866
47	0x3d94173e	0.072309956
48	0xbdefd4e5	-0.11710528
49	0xba775a3d	-0.0009435749
50	0xbd3754e9	-0.04475871
51	0x3e120d81	0.14262964
52	0xbd90961f	-0.07059883
53	0xbda7b391	-0.081885464
54	0x3e175d6a	0.14781728
55	0xbdc0d5b6	-0.09415762
56	0x3bf6f9de	0.0075371107
57	0x3e1aeb07	0.15128718
58	0x3c8fe280	0.017564058
59	0x3d8b80df	0.068116896
60	0x3e217806	0.15768442
61	0xbb601f5e	-0.0034198384
62	0x3cce356d	0.02517196
63	0x3dd800a0	0.10546994
64	0xbdbaa00c	-0.09112558
65	0xbda1e108	-0.079042494
66	0xbe2a2e01	-0.16619112
67	0x3e02c3b7	0.12769972
68	0xbc9384df	-0.018007694
69	0xbbf63c42	-0.0075145075
70	0x3d845d5b	0.06463119
71	0xbdd9690b	-0.106157385
72	0xbc204ebe	-0.009784399
73	0xbdcf3cfb	-0.10119053
74	0x3c883ae2	0.01662964
75	0xbe3038fa	-0.17209235
76	0xbea5cd87	-0.32383367
77	0x3dc004fb	0.0937595
78	0xbcce8b71	-0.025212975
79	0xbdd6f042	-0.10495044
80	0x3dde90cf	0.10867464
81	0xbe006af6	-0.12540802
82	0x3d3e54c2	0.04646755
83	0x3d19753d	0.037465323
84	0x3d676d10	0.056500494
85	0x3e5dc163	0.21655802
86	0x3d22db7a	0.03976009
87	0xbde5671f	-0.112013094
88	0x3d8fc019	0.070190616
89	0xbdac545c	-0.08414528
90	0xbe49af6b	-0.19695823
91	0x3dbbae30	0.09164083
92	0x3dafd486	0.085854575
93	0xbe1d84cc	-0.15382689
94	0x3d301fb9	0.042999003
95	0xbe609109	-0.21930327
96	0x3d82cd27	0.06386786
97	0xbe38c5c8	-0.18044198
98	0x3d2761ed	0.040864874
99	0x3e0417d6	0.12899718
100	0xbd46070a	-0.048346557
101	0xbe1d7245	-0.15375622
102	0x3e1dc5f0	0.15407538
103	0x3c37c3c6	0.01121611
104	0x3df724f0	0.12067592
105	0xbd21a0ec	-0.039460108
106	0xbc550ff9	-0.013004296
107	0x3e0de77f	0.1385784
108	0xbdaec042	-0.08532764
109	0xbe3979ac	-0.1811282
110	0x3d87b714	0.06626716
111	0xbd93bea2	-0.07214095
112	0x3d81cb19	0.06337566
113	0xbe0d0401	-0.13771059
114	0x3e112e81	0.14177896
115	0xbd099127	-0.033585694
116	0xbdc894ef	-0.09794032
117	0xbd987ce7	-0.07445698
118	0xbd7c4baf	-0.061595615
119	0xbd46e56b	-0.048558634
120	0x3dd2e44a	0.10297449
121	0x3d6c114a	0.057633676
122	0x3e6e87d2	0.23293999
123	0xbda7cb25	-0.081930436
124	0xbdcc44e0	-0.09974074
125	0xbe41c2a0	-0.189219
126	0xbc00966d	-0.007848364
127	0xbd95e008	-0.07318121
128	0xbd874bfb	-0.06606289
129	0x3da5a163	0.08087423
130	0xbc75113d	-0.014957723
131	0x3d217ae0	0.039423823
132	0x3d2b55cf	0.04182988
133	0xbd0408c4	-0.032234922
134	0xbcb21976	-0.021740656
135	0xbd1f36f2	-0.03887076
136	0xbcf0deef	-0.029403178
137	0x3d1d2064	0.03836097
138	0x3d009a1f	0.03139698
139	0x3e2bc345	0.16773708
140	0x3e4879bc	0.19577688
141	0xbba4c09a	-0.0050278427
142	0x3ba80fde	0.0051288446
143	0x3d69e808	0.057106048
144	0x3da5a502	0.08088113
145	0xbd544bfd	-0.05183028
146	0xbea71bb4	-0.32638323
147	0xbe31ba7c	-0.17356294
148	0xbc5bbefc	-0.013412233
149	0xbdb6b34b	-0.08920916
150	0x3e0f253b	0.13979046
151	0xbe240c2a	-0.16020265
152	0xbd2df46e	-0.042469434
153	0x3d0530d7	0.03251728
154	0x3c005b22	0.007834228
155	0xbe39abde	-0.18131968
156	0xbe08448c	-0.13307399
157	0xbd4abfcd	-0.04949932
158	0xbe09b9aa	-0.13449731
159	0xbe0365aa	-0.1283175
160	0xbdabdf23	-0.08392169
161	0xbcf7eb1c	-0.030263476
162	0x3ca10b0e	0.019658592
163	0xbcf22d52	-0.029562626
164	0x3e05673f	0.13027667
165	0x3cbccd8d	0.023047233
166	0xbdd347ac	-0.10316405
167	0x3d03d10b	0.03218178
168	0xbda5bd5b	-0.08092757
169	0xbd72e2ce	-0.05929833
170	0x3e67ddd4	0.22643214
171	0xbd7b6ba2	-0.061381944
172	0x3e2cde26	0.16881618
173	0xbd825fad	-0.06365905
174	0x3aab9545	0.001309075
175	0xbd66d3ec	-0.05635445
176	0xbe6e5b34	-0.23276979
177	0xbd9b185e	-0.07573007
178	0xbd1d42f3	-0.038393926
179	0xbd90c752	-0.07069267
180	0x3e42c368	0.19019854
181	0xbc5220be	-0.012825189
182	0xbbf858b0	-0.0075789317
183	0x3babf499	0.005247664
184	0x3d29c015	0.04144295
185	0xbe7bd677	-0.2459353
186	0xbcc2b252	-0.02376667
187	0xbe65de77	-0.22448145
188	0xbdf834f2	-0.121194735
189	0xbdb3797a	-0.08763404
190	0x3d57197e	0.052514546
191	0x3e36be67	0.1784607
192	0x3de7fbd1	0.11327327
193	0x3d8710db	0.06595012
194	0xbd67a84e	-0.056556992
195	0x3dc39b01	0.09551049
196	0x3d9aa49b	0.07550927
197	0x3e2ea137	0.17053686
198	0x3e062ce4	0.13103062
199	0x3e37fffd	0.17968746
200	0x3d3b1fbc	0.04568456
201	0x3e4f55c8	0.20247567
202	0x3ea8cc53	0.32968387
203	0xbd726a34	-0.059183314
204	0x3e388ee6	0.18023261
205	0xbc3e179b	-0.011602308
206	0x3df41588	0.11918169
207	0xbd7b28a2	-0.061318047
208	0x3d12e2f8	0.035860986
209	0x3d1caf56	0.03825315
210	0x3e28b293	0.1647437
211	0x3d6ee924	0.05832781
212	0xbded1d1a	-0.11577816
213	0xbd0d6d4d	-0.034528065
214	0xbdede172	-0.11615266
215	0x3c32100b	0.010868083
216	0xbd830527	-0.06397467
217	0x3e91732a	0.28408176
218	0xbe11cb41	-0.14237691
219	0x3dc5b878	0.09654325
220	0x3d46c206	0.04852488
221	0x3d4c313d	0.049851645
222	0x3de57972	0.112048045
223	0x3dde0d57	0.10842388
224	0x3d616535	0.05502816
225	0xbdbee0f9	-0.09320254
226	0xbd9d181a	-0.07670613
227	0x3df6127f	0.120152466
228	0x3d69572f	0.05696791
229	0x3dc44793	0.09583964
230	0xbd13edbc	-0.036115393
231	0x3d3fef2f	0.046858963
232	0xbd925793	-0.0714561
233	0x3e089aab	0.13340251
234	0x3e0046a8	0.12526953
235	0x3ce90314	0.02844385
236	0x3dd7dc2a	0.1054004
237	0x3dfad22e	0.1224712
238	0xbd8b8d46	-0.06814055
239	0x3d821505	0.063516654
240	0x3c8f8bd6	0.017522734
241	0xbe687cf1	-0.22703911
242	0x3d4c543b	0.049885016
243	0x3e27b48e	0.1637747
244	0xbd5e5a28	-0.0542852
245	0x3d292afa	0.04130075
246	0xbc016f76	-0.0079001095
247	0x3d418cc0	0.04725337
248	0xbd1630f7	-0.03666779
249	0x3dfc3e1a	0.123165324
250	0x3ce2a87c	0.02766823
251	0x3d8599cf	0.06523477
252	0x3cc6e498	0.024278924
253	0xbe16659d	-0.146872
254	0x3d1b1ce0	0.037869334
255	0x3e23989e	0.15976188

0.features.1.1.block.0.1.weight f4 [16]
0	0x3f7bfb3b	0.9843022
1	0x3f6bccf1	0.9210959
2	0x3f696ddd	0.91183263
3	0x3f81b015	1.0131861
4	0x3f66fb28	0.90226984
5	0x3f724876	0.94641817
6	0x3f90fae8	1.132657
7	0x3f72df6e	0.94872177
8	0x3f77e360	0.9683132
9	0x3f68b347	0.90898556
10	0x3f68b4bd	0.90900785
11	0x3f60b3b6	0.8777422
12	0x3f6455f2	0.8919364
13	0x3f6a4ec6	0.9152645
14	0x3f80c849	1.0061122
15	0x3f71e9a5	0.9449714

0.features.1.1.block.0.1.bias f4 [16]
0	0x3d0eca8e	0.03486114
1	0xbbefb5d5	-0.0073153772
2	0x3dbfed60	0.093714476
3	0xbdc656d3	-0.09684529
4	0xbd3bccf4	-0.045849755
5	0xbca6c0ba	-0.020355571
6	0xbda7c59e	-0.08191989
7	0xbd02cf0d	-0.03193574
8	0xbdf1bc70	-0.1180352
9	0x3d23766d	0.03990786
10	0xbdc76bc1	-0.09737349
11	0xbd450e50	-0.048109353
12	0x3c91eab9	0.01781212
13	0xbbe95c36	-0.007121588
14	0xbdb724e8	-0.08942586
15	0x3bdaf675	0.006682212

0.features.1.1.block.0.1.running_mean f4 [16]
0	0xbf4f0147	-0.80861324
1	0x3eb0095d	0.34382144
2	0x3ee90d02	0.45517737
3	0xbf9e2f61	-1.2358209
4	0xbec2e37a	-0.38064176
5	0x3e1bbe34	0.15209275
6	0xbe884e55	-0.26622263
7	0x3f7c51d8	0.98562384
8	0xbf89686b	-1.0734991
9	0x3fd89d83	1.6923069
10	0x3f32c565	0.6983245
11	0xbfae0b6a	-1.3597233
12	0x3fa5348a	1.2906659
13	0xbedc5d61	-0.43039992
14	0xbf8f1b10	-1.1180134
15	0x3f41efd8	0.757566

0.features.1.1.block.0.1.running_var f4 [16]
0	0x407af911	3.9214518
1	0x404a9655	3.1654255
2	0x40c96838	6.293972
3	0x410a4475	8.641713
4	0x40a48ba5	5.1420465
5	0x407df348	3.9679737
6	0x3f4b120e	0.79324424
7	0x40c76238	6.2307396
8	0x4091ad6d	4.55242
9	0x409893b4	4.76803
10	0x40fd241d	7.9106584
11	0x40b3b64a	5.616002
12	0x40bb2ca2	5.8491983
13	0x40c6c843	6.211946
14	0x41546fd0	13.277298
15	0x40a8ac89	5.2710614

0.features.2.0.block.0.0.weight f4 [64, 16, 3, 3]
0	0xbbe4c62d	-0.006981632
1	0x3d88d0a1	0.06680418
2	0x3d219eda	0.039458133
3	0x3c9e7c18	0.019346282
4	0x3ba3a1c1	0.004993648
5	0xb914a5d2	-0.00014176153
6	0x3db83cbb	0.089959584
7	0xbd673602	-0.05644799
8	0x3c77a236	0.015114358
9	0x3dae5c74	0.08513728
10	0x3cdbaa64	0.026814647
11	0x3d82913c	0.063753575
12	0xbce4a81a	-0.027912188
13	0xbd9431ce	-0.07236062
14	0xbc2c3289	-0.010510095
15	0xbd94c94a	-0.07264955
16	0x3df5b28a	0.11996944
17	0x3c518f2e	0.012790484
18	0xbdab6212	-0.08368315
19	0xbcf9f746	-0.030513417
20	0xbc93d9f2	-0.01804826
21	0xbe1d0a03	-0.1533585
22	0xbdc3ac24	-0.095543176
23	0xbd054103	-0.032532703
24	0xbdbf23c0	-0.09332991
25	0xbcfa7919	-0.030575322
26	0xbdc02d2a	-0.09383614
27	0xbda42725	-0.08015279
28	0xbbe010af	-0.0068379263
29	0x3de378c4	0.111070186
30	0xbd4d9b73	-0.050197076
31	0xbd570cc9	-0.052502427
32	0xbd86ee56	-0.06588428
33	0x3d238e6d	0.03993075
34	0x3b614301	0.0034372213
35	0xbd8e0a95	-0.06935612
36	0x3daca8f3	0.08430662
37	0xbd2d0455	-0.04224046
38	0x3e088ffd	0.13336177
39	0xbd83c8c3	-0.06434777
40	0xbd48f02f	-0.049057182
41	0xbd8805ba	-0.06641717
42	0xbd5e670d	-0.054297496
43	0x3c51491d	0.012773779
44	0xbd1bbae9	-0.03802005
45	0xbcaabb5c	-0.020841293
46	0x3d6e84f7	0.058232274
47	0xbce80af8	-0.028325543
48	0x3df6af9d	0.12045214
49	0x3daf635e	0.08563875
50	0xbda1145d	-0.07865212
51	0xbd824e54	-0.06362596
52	0x3d9b4d59	0.07583112
53	0xbcb3ea85	-0.021962414
54	0x3daf8f51	0.08572257
55	0xbc428a41	-0.011873783
56	0xbd06d26d	-0.03291552
57	0xbdbb66bf	-0.09150457
58	0x3d4f2dbd	0.05058073
59	0xbdb916a7	-0.09037524
60	0x3dc6d6f5	0.097089685
61	0x3d8867ec	0.066604465
62	0x3d96405a	0.07336493
63	0xbd92876d	-0.07154737
64	0x3d84a17c	0.06476113
65	0xbc9afe3c	-0.018920057
66	0x3d07c344	0.033145204
67	0x3cbb5ee0	0.022872388
68	0xbce23f98	-0.027618214
69	0x3d581a85	0.052759666
70	0xbcbce022	-0.023056094
71	0x3d89bcbb	0.067254506
72	0xbd65b49a	-0.05608044
73	0x3b5afe3e	0.00334157
74	0xbd32b7cc	-0.043632314
75	0x3d4b0818	0.049568266
76	0xbdb09871	-0.08622826
77	0x3c313a1d	0.010817078
78	0xbd60a7eb	-0.05484764
79	0xbdc17726	-0.09446554
80	0xbd9a5dd8	-0.075374305
81	0xbd170599	-0.036870573
82	0x3d5ba3b2	0.05362291
83	0x3dcb501a	0.099273875
84	0x3d2cd57f	0.042195793
85	0xbca323ea	-0.019914586
86	0x3d72cacb	0.05927543
87	0x3cf3fdae	0.02978405
88	0xbd8f2c7b	-0.06990906
89	0x3b5454a8	0.0032399092
90	0x3d7c515a	0.06160102
91	0xbd3ea68e	-0.046545558
92	0xbd02959e	-0.031880967
93	0xbd632f42	-0.05546499
94	0x3cc91b29	0.024549084
95	0x3cd49a2e	0.025952425
96	0xbcf9fdbf	-0.030516503
97	0xbd4bf809	-0.04979709
98	0x3cedada0	0.029013455
99	0xbcd65fb8	-0.02616869
100	0x3d7fa321	0.06241143
101	0x3b974a78	0.0046170317
102	0x3dfdd0c2	0.12393333
103	0x3c625ccb	0.013816069
104	0xbd1e9657	-0.038717594
105	0x3cb1b2d4	0.021691717
106	0x3d20f92f	0.03930014
107	0x3ccb0503	0.024782663
108	0xbd056f3c	-0.032576784
109	0xbd42d55f	-0.047566768
110	0xbdd355a9	-0.10319073
111	0xbd5b1feb	-0.053497236
112	0xbd3a0e4f	-0.045423802
113	0xbc1096bc	-0.008825
114	0xbd6838b6	-0.05669471
115	0xbd776064	-0.06039466
116	0x3d376fa4	0.044784203
117	0x3c080d0f	0.008303895
118	0xbd829428	-0.06375915
119	0xbdafb41c	-0.08579275
120	0x3c362cdd	0.011119095
121	0xbdb22f63	-0.087004445
122	0xbc05d2de	-0.00816795
123	0xbd3ce66c	-0.046118185
124	0xbd627b8a	-0.055293597
125	0xbd0748dd	-0.033028472
126	0xbd02a706	-0.031897567
127	0xbb8b2337	-0.0042461413
128	0xbd9d010c	-0.07666215
129	0xbd56fa65	-0.05248489
130	0xbbc45df2	-0.0059926445
131	0x3d7cf751	0.061759297
132	0x3c06228c	0.008186948
133	0xbde53fa6	-0.111937806
134	0xb9b0e702	-0.0003374145
135	0xbe021ea9	-0.12707008
136	0x3db7af6a	0.089690045
137	0x3bb17118	0.005415093
138	0x3dcd30df	0.10019087
139	0xbdf689c4	-0.120379955
140	0x3bcadf5f	0.0061911787
141	0x3db985c7	0.09058719
142	0x3e04b932	0.12961271
143	0xbd8f9947	-0.07011657
144	0x3de8714a	0.11349733
145	0x3b0912b7	0.0020915696
146	0x3ca13e65	0.019683072
147	0x3d467680	0.048452854
148	0x3c8c5a27	0.017132832
149	0x3d243107	0.04008582
150	0x3d8d2fa8	0.06893855
151	0x3d30a6ac	0.0431277
152	0x3dd6a553	0.10480752
153	0x3d06249e	0.032749765
154	0x3d7bf236	0.061510287
155	0xbdc66c67	-0.09688645
156	0xbcd0cdb9	-0.025488721
157	0xbded015c	-0.11572525
158	0x3d6a5fd3	0.05722029
159	0x3cd30fb7	0.02576433
160	0x3dbcb6e3	0.092145704
161	0x3c794c56	0.015215954
162	0x3ca7fc25	0.020505974
163	0x3c8f3d64	0.017485328
164	0xbd673b17	-0.056452837
165	0xbca21f1c	-0.019790225
166	0x3e3a1470	0.18171859
167	0x3d98cc1f	0.07460808
168	0xbb2d5a56	-0.002645155
169	0xbab7c2c0	-0.0014019832
170	0x3bf4d315	0.007471452
171	0x3c83dcc5	0.016096482
172	0x3cbef88a	0.023311872
173	0xbd876c1b	-0.06612416
174	0xbd554e12	-0.052076407
175	0xbd258e75	-0.04041906
176	0xbd8e8034	-0.069580466
177	0x3dab948c	0.083779424
178	0xbe0d9dac	-0.13829678
179	0xba9bca41	-0.0011885838
180	0xbe011ce7	-0.12608682
181	0xbd38381f	-0.044975396
182	0xbc218e14	-0.009860534
183	0xbce561a3	-0.028000658
184	0xbd4cdb0e	-0.050013594
185	0xbd41a66d	-0.047277857
186	0x3bd65e16	0.0065419776
187	0x3cae7be8	0.021299317
188	0xbd2f1dd5	-0.04275306
189	0xbdaef341	-0.08542491
190	0xbc5c1e3b	-0.013434942
191	0x3b55253b	0.0032523412
192	0xbdcd5148	-0.10025269
193	0xbd36b5d7	-0.04460701
194	0xbdc2473a	-0.09486242
195	0xbcb2a396	-0.02180652
196	0xbd64906a	-0.055801786
197	0x3d0ac821	0.033882264
198	0x3d7679d4	0.060174778
199	0xbc81008f	-0.015747337
200	0xbd0ec9b3	-0.034860324
201	0x3ca1256f	0.01967117
202	0xbd68aa77	-0.056803193
203	0xbcf1e169	-0.02952643
204	0xbc47ccef	-0.012194856
205	0x3db5a470	0.088692546
206	0xbdc05cbc	-0.09392688
207	0x3c55ba0a	0.013044843
208	0x3c1af2b4	0.009457279
209	0x3d619a9d	0.05507909
210	0x3d3f399b	0.046685796
211	0x3a23ae36	0.0006243916
212	0xbdef478a	-0.11683567
213	0xbd5f71ee	-0.05455201
214	0x3d5ceaee	0.053934984
215	0x3bd21832	0.0064115757
216	0x3ced5d09	0.028975027
217	0xbb83c901	-0.0040217643
218	0xbc067c69	-0.008208373
219	0x3ce73560	0.028223693
220	0xbdb201ee	-0.08691774
221	0x3cae6fba	0.02129351
222	0xbdbd28b8	-0.09236282
223	0xbd85e414	-0.06537643
224	0xbd8785d0	-0.066173196
225	0xbd96eba3	-0.07369163
226	0x3d692b0e	0.056925826
227	0xbd87d555	-0.06632487
228	0x3d9dd676	0.07706921
229	0x3d2a660f	0.041601237
230	0x3d72cece	0.059279256
231	0x3c2df642	0.0106177945
232	0x3ceeac06	0.029134762
233	0x3d300805	0.042976398
234	0xbcbe00b3	-0.023193693
235	0x3bf4d557	0.007471721
236	0x3dd767a5	0.105178155
237	0xbde0a14c	-0.10968265
238	0xbd80fc50	-0.06298125
239	0xbde14e2f	-0.110012405
240	0xba91581d	-0.0011088882
241	0xbe16c05b	-0.14721815
242	0xbe05baf4	-0.13059598
243	0xbc002649	-0.007821628
244	0x3cb8ce52	0.022559319
245	0xbcc9419d	-0.02456742
246	0x3cd4e839	0.025989639
247	0xbd1e9b04	-0.038722053
248	0x3cdd409f	0.027008353
249	0x3c3e27b1	0.011606143
250	0xbd0acf06	-0.03388884
251	0xbe3f9d45	-0.18712337
252	0xbb30b55b	-0.0026963565
253	0xbdaa3baa	-0.08312161
254	0xbdfab124	-0.12240818
255	0xbd588363	-0.052859675

0.features.2.0.block.0.1.weight f4 [64]
0	0x3f7145d4	0.94247174
1	0x3f7fdaf9	0.999435
2	0x3f81f3a1	1.0152475
3	0x3f828e3b	1.0199655
4	0x3f84d13b	1.0376352
5	0x3f84f9bf	1.0388716
6	0x3f81cd14	1.014071
7	0x3f6edaca	0.93302596
8	0x3f74a080	0.95557404
9	0x3f792d99	0.973352
10	0x3f79e1bc	0.9761007
11	0x3f800886	1.0002601
12	0x3f837c45	1.0272299
13	0x3f7f70b4	0.99781346
14	0x3f794b01	0.9738007
15	0x3f78b461	0.97150236
16	0x3f8521b8	1.0400915
17	0x3f6fddca	0.936978
18	0x3f821865	1.0163695
19	0x3f736fa0	0.950922
20	0x3f761905	0.96131927
21	0x3f6ca146	0.92433584
22	0x3f6b54c2	0.91926205
23	0x3f7b8d8e	0.9826287
24	0x3f731d22	0.9496633
25	0x3f818159	1.0117599
26	0x3f827a5b	1.019359
27	0x3f80b805	1.0056158
28	0x3f7f53b7	0.99737114
29	0x3f88f924	1.0701032
30	0x3f81ffd9	1.0156204
31	0x3f7c4ad3	0.9855167
32	0x3f75e028	0.9604516
33	0x3f78a76c	0.97130466
34	0x3f723e44	0.9462626
35	0x3f9ab37e	1.2086027
36	0x3f859650	1.0436497
37	0x3f87a7c8	1.0598078
38	0x3f712afb	0.9420621
39	0x3f7c4620	0.985445
40	0x3f6446a2	0.8917028
41	0x3f71fa1b	0.94522256
42	0x3f7a0b52	0.97673523
43	0x3f7a0db4	0.9767716
44	0x3f7ecd6e	0.9953221
45	0x3f7b4606	0.9815372
46	0x3f83828b	1.0274214
47	0x3f71666d	0.94296914
48	0x3f77781d	0.96667653
49	0x3f6b51fb	0.9192197
50	0x3f703995	0.93837863
51	0x3f7981be	0.97463596
52	0x3f775848	0.9661908
53	0x3f60f2ed	0.87870675
54	0x3f803639	1.0016547
55	0x3f7f8b2b	0.9982173
56	0x3f8a5414	1.0806909
57	0x3f7bfd13	0.98433036
58	0x3f71d8e9	0.94471604
59	0x3f81a74e	1.0129182
60	0x3f7440f5	0.95411617
61	0x3f70886e	0.93958175
62	0x3f737e49	0.9511457
63	0x3f71bf35	0.94432384

0.features.2.0.block.0.1.bias f4 [64]
0	0xbbdedec4	-0.006801458
1	0x3c88418c	0.016632818
2	0x3e1cd903	0.15317158
3	0x3d1dbfd9	0.03851304
4	0x3d672ccf	0.056439217
5	0x3aece442	0.0018073397
6	0x3d7c4d5d	0.061597217
7	0xbc8b6940	-0.01701796
8	0x3d32a5ba	0.04361508
9	0xbd676123	-0.05648912
10	0x3de979c8	0.11400181
11	0x3e30da68	0.17270815
12	0x3cc03e70	0.023467273
13	0x3c7c4594	0.015397448
14	0xbd18eb99	-0.03733406
15	0x3e043c7f	0.12913702
16	0x3b803401	0.0039124493
17	0xbcffd32e	-0.031228628
18	0x3e057899	0.13034286
19	0xbc5723aa	-0.013131062
20	0x3af6e1ec	0.001883564
21	0x3d214a0a	0.03937725
22	0x3db6b1d3	0.08920636
23	0x3d0d4ed7	0.034499016
24	0xbd29c8e9	-0.04145137
25	0x3d8e7115	0.069551624
26	0x3cd63d36	0.026152235
27	0x3db7082d	0.08937106
28	0x3d76f14a	0.060288705
29	0x3d810eed	0.06301675
30	0x3d74df4a	0.059783258
31	0x3d488955	0.048959095
32	0x3d4ab126	0.04948535
33	0x3d3fdce0	0.046841502
34	0x3ae41f90	0.0017404426
35	0xbd38e1ae	-0.0451371
36	0x3cc691a7	0.024239374
37	0x3d0ce47d	0.03439759
38	0x3ca93967	0.020657254
39	0x3c67bb0e	0.014143718
40	0x3d2e7724	0.04259409
41	0xbbbf49f4	-0.0058376733
42	0x3d942921	0.07234407
43	0x3cb7075f	0.022342382
44	0x3cd757f5	0.026287058
45	0x3caf6289	0.02140929
46	0xbd8d751d	-0.06907103
47	0x3d70acfa	0.058758713
48	0x3d236a8d	0.039896537
49	0x3d0e3bbe	0.034724943
50	0x3b6eac83	0.0036418743
51	0x3d981631	0.07426108
52	0xbd0c9276	-0.034319364
53	0x3d3894f1	0.045063917
54	0x3d6d27cd	0.057899285
55	0x3dbcbd64	0.09215811
56	0x3cd95a5a	0.02653234
57	0x3dbc8700	0.09205437
58	0x3d8d08c6	0.06886439
59	0x3dd2b527	0.10288458
60	0x3ddb3932	0.107042685
61	0x3cbbf451	0.022943648
62	0xbd456492	-0.048191614
63	0xbd1223bf	-0.03567862

0.features.2.0.block.0.1.running_mean f4 [64]
0	0xbf31ea54	-0.6949818
1	0xbef5ecd0	-0.48032236
2	0x3db456e2	0.08805634
3	0x3e02bfcd	0.12768479
4	0x3f414800	0.7550049
5	0xbeccd953	-0.40009555
6	0xbe81480d	-0.25250283
7	0x3ea34b9c	0.31893623
8	0xbf111c7c	-0.5668409
9	0xbf84c575	-1.0372759
10	0x3eb56a94	0.35432875
11	0x3f21ab40	0.6315193
12	0xbeb6203b	-0.35571465
13	0x3ead080a	0.33795196
14	0xbe9347ef	-0.28765818
15	0x3f75162c	0.95736957
16	0x3e626c9e	0.22111747
17	0xbfc68a9a	-1.5511048
18	0x3e771e34	0.24132615
19	0xbf895c76	-1.0731342
20	0xbf96f5e5	-1.1793791
21	0xbd7a8a23	-0.061166894
22	0xbf5cf3e0	-0.86309624
23	0x3d667078	0.056259602
24	0xbee2fd4c	-0.44333875
25	0xbe46d5f7	-0.19417559
26	0xbe07f063	-0.13275294
27	0x3f21522b	0.63016003
28	0x3ea5e5ed	0.32401982
29	0xbe17ff07	-0.14843379
30	0x3f525428	0.8215966
31	0x3ee87e1e	0.4540872
32	0xbd8be593	-0.06830897
33	0xbc94f011	-0.018180879
34	0xbe847a0c	-0.25874364
35	0x3f17a1dd	0.5923136
36	0xbeb5b0e0	-0.35486507
37	0xbdceed43	-0.10103848
38	0x3f0a02e5	0.53910667
39	0xbe198d7d	-0.1499538
40	0x3eb2ce1b	0.3492287
41	0x3f54a2c1	0.8306084
42	0xbecf2b3f	-0.40462682
43	0xbfb7d72b	-1.4362539
44	0xbf3e2f11	-0.7429057
45	0x3f37de41	0.7182351
46	0xbf6a3f2d	-0.9150265
47	0x3ebe867e	0.37211984
48	0xbd1f1ab9	-0.038843844
49	0x3d6594da	0.05605016
50	0xbf731ee9	-0.9496904
51	0xbe9b038e	-0.3027615
52	0xbf41f7ed	-0.7576893
53	0xbf7becf0	-0.9840841
54	0x3ebd9990	0.3703122
55	0x3e51976b	0.20467918
56	0x3eb5da37	0.35518047
57	0x3f18217e	0.59426105
58	0x3e869a67	0.26289675
59	0xbe3049c4	-0.1721564
60	0x3efa751d	0.48917475
61	0x3c206f50	0.009792164
62	0xbae404b4	-0.0017396421
63	0xbea65bf8	-0.32492042

0.features.2.0.block.0.1.running_var f4 [64]
0	0x4055fb0b	3.3434474
1	0x3f4d491e	0.8018969
2	0x402daf5e	2.7138286
3	0x4018048f	2.3752782
4	0x400fdce6	2.2478576
5	0x3fd4baf9	1.661956
6	0x408f1591	4.4713826
7	0x3fc04b1f	1.5022925
8	0x400a7d29	2.1638892
9	0x40853fe7	4.1640506
10	0x3fa7dbc5	1.3113943
11	0x400ce268	2.2013187
12	0x3fae1b86	1.360215
13	0x407ef5b9	3.9837477
14	0x404b50ed	3.1768143
15	0x404b0e7b	3.1727588
16	0x3f6bffa9	0.9218698
17	0x40949c0f	4.64405
18	0x402adc9c	2.669715
19	0x404f2998	3.2369137
20	0x4078570c	3.880313
21	0x3f85c1b5	1.044974
22	0x4014d05b	2.325217
23	0x403f10b3	2.9853942
24	0x4015cb8c	2.3405485
25	0x3fd2ca01	1.6467897
26	0x3fa02095	1.2509943
27	0x409bc7cd	4.8681397
28	0x40070710	2.109806
29	0x3f9cd4bf	1.2252425
30	0x407851cc	3.8799925
31	0x40265991	2.5992167
32	0x400272fd	2.0382683
33	0x40759f9d	3.837867
34	0x3f77b454	0.96759534
35	0x3f2fb160	0.6863003
36	0x3ff111f2	1.8833601
37	0x3f680f14	0.9064801
38	0x4037c36f	2.8713033
39	0x401bf1b2	2.436627
40	0x3f83c316	1.029391
41	0x4051dcd8	3.2791042
42	0x3fe27720	1.7692604
43	0x4043a21a	3.056769
44	0x407d6a40	3.95961
45	0x40135b7e	2.3024592
46	0x404c34bc	3.1907187
47	0x3fe8df63	1.8193172
48	0x3fb01d97	1.375903
49	0x3fcdc896	1.6076839
50	0x3fec4307	1.8457955
51	0x3f9287bf	1.1447676
52	0x409a270a	4.8172655
53	0x3ff47749	1.9098903
54	0x40ce259d	6.4420915
55	0x4004961c	2.071662
56	0x401157bf	2.2709806
57	0x402cf0d8	2.7022
58	0x407aa421	3.9162676
59	0x3fde5473	1.7369522
60	0x4005394f	2.0816228
61	0x3fc5a207	1.5440072
62	0x3f8960bc	1.0732646
63	0x3f81c9bc	1.013969

0.features.2.0.block.1.0.weight f4 [32, 64, 1, 1]
0	0xbdb3219b	-0.08746644
1	0xbdb3d2d8	-0.0878045
2	0x3e877d4e	0.26462787
3	0xbeb3dd2e	-0.35129684
4	0x3dc36ed8	0.09542626
5	0xbc452229	-0.01203207
6	0x3dee59fb	0.11638256
7	0x3e2dc66d	0.16970225
8	0x3e77787e	0.24167058
9	0x3da5aa3b	0.080891095
10	0x3d880186	0.066409156
11	0xbcc213ae	-0.023691025
12	0xbcaa03a4	-0.02075369
13	0xbd180915	-0.037118036
14	0x3ef4203d	0.47680846
15	0xbe0e1989	-0.13876928
16	0x3e898287	0.26857397
17	0xbcbb328b	-0.02285125
18	0x3f2e8349	0.68169075
19	0x3df60b40	0.120138645
20	0x3e5034aa	0.2033259
21	0x3d44c52e	0.048039608
22	0xbe4d6405	-0.20057686
23	0x3f1aa7d3	0.6041233
24	0x3e25bb18	0.16184652
25	0x3d8418bb	0.064500295
26	0xbe18af41	-0.14910604
27	0x3e08a4e5	0.13344152
28	0x3d4bb6c9	0.049734864
29	0xbe8881ca	-0.2666152
30	0xbe9de4d8	-0.30838656
31	0x3cad9c24	0.021192618
32	0xbdc21411	-0.094764836
33	0x3f07d7a6	0.5306343
34	0xbeb99ddb	-0.36253247
35	0xbe483f44	-0.19555384
36	0x3e8de23a	0.2771166
37	0x3ede1a2d	0.43379346
38	0x3e4343c1	0.19068815
39	0xbe522fc2	-0.2052603
40	0xbe14e30a	-0.14539734
41	0x3ecab001	0.39587405
42	0xbe77c556	-0.24196371
43	0xbe27da71	-0.16391923
44	0xbe520f07	-0.20513545
45	0xbde4764a	-0.11155374
46	0xbe3766b6	-0.17910275
47	0x3e450139	0.19238748
48	0xbe702b2c	-0.23453969
49	0x3df3aa43	0.11897709
50	0x3e00597e	0.12534139
51	0x3d3f2192	0.046662875
52	0x3ca7aa38	0.020466909
53	0x3e89589c	0.26825416
54	0xbe3f5b70	-0.18687224
55	0xbd079652	-0.03310234
56	0xbde5d8a7	-0.11222964
57	0xbdd52bd3	-0.104087494
58	0x3e00f628	0.12593901
59	0x3eab4c49	0.33456638
60	0x3e83b671	0.2572513
61	0xba0e8fb2	-0.00054382824
62	0x3e057abb	0.13035099
63	0x3e345a64	0.17612606
64	0x3d30a83f	0.043129202
65	0xbea792f8	-0.32729316
66	0x3d0bf63c	0.034170374
67	0x3be0fac0	0.006865829
68	0x3dd430ac	0.10360846
69	0xbeb37acb	-0.3505462
70	0xbdc2b179	-0.095065065
71	0x3eb55101	0.35413364
72	0x3de8de7d	0.11370561
73	0xbe462792	-0.19351032
74	0x3ddd2094	0.107972294
75	0xbeb6e541	-0.35721782
76	0xbe840064	-0.25781548
77	0xbde7816e	-0.11303984
78	0xbb945bde	-0.004527553
79	0x3e04d287	0.12970935
80	0xbbcdc709	-0.0062798304
81	0xbd688808	-0.056770355
82	0xbe52344f	-0.20527767
83	0x3c798c2d	0.015231174
84	0xbd9881e9	-0.074466534
85	0x3d5e4216	0.054262243
86	0xbd759214	-0.059953764
87	0x3ea27591	0.3173032
88	0xbe6579f2	-0.224098
89	0x3ee7f186	0.45301455
90	0x3d8eafbe	0.06967114
91	0x3df50c19	0.11965198
92	0xbd1123ee	-0.035434656
93	0x3d838dad	0.06423507
94	0xbc9ebc9d	-0.019377047
95	0xbe844023	-0.25830182
96	0xbe43f9a1	-0.19138195
97	0xbc2dbaaa	-0.010603586
98	0x3dbbc042	0.0916753
99	0xbf47ba30	-0.78018475
100	0xbe958b74	-0.29207957
101	0xbe2fef87	-0.17181216
102	0x3f18979a	0.59606326
103	0xbea1019c	-0.3144654
104	0xbbd59c59	-0.0065188822
105	0x3a3fa874	0.0007311173
106	0xbe46bc27	-0.19407712
107	0xbd485bc6	-0.048915647
108	0x3d6a1d15	0.05715664
109	0x3e733007	0.2374879
110	0xbebb53cb	-0.36587366
111	0xbe40df5f	-0.1883521
112	0x3d4dfa0a	0.050287284
113	0x3e9df20d	0.30848733
114	0x3ef69d42	0.48166853
115	0xbdd88c43	-0.10573628
116	0xbdcc2dfa	-0.09969707
117	0xbdf9779e	-0.12181018
118	0xbdd509de	-0.10402273
119	0x3c8742e3	0.016511386
120	0xbedb461a	-0.4282692
121	0x3f0c59c3	0.54824466
122	0x3e7dc24e	0.24781153
123	0xbd2ac8d3	-0.041695427
124	0xbdce2db0	-0.10067308
125	0xbe1d8a73	-0.15384845
126	0xbed0c720	-0.4077692
127	0xbd475d28	-0.048672825
128	0x3de1be7e	0.110226616
129	0x3e7cbee3	0.24682193
130	0x3bb1cbd0	0.0054259077
131	0xbdbde66a	-0.092724636
132	0xbf1fc8d7	-0.6241583
133	0xbd7c0b0b	-0.06153397
134	0x3d98a9f7	0.07454293
135	0x3e79a874	0.24380666
136	0x3ed20c25	0.4102489
137	0xbeea25b1	-0.4573188
138	0xbe50b98d	-0.20383282
139	0x3def836c	0.116949886
140	0xbd84c7d6	-0.06483428
141	0xbecd364f	-0.40080497
142	0x3e046d2f	0.12932275
143	0x3d1f9740	0.038962603
144	0x3d386d83	0.045026314
145	0x3dcebdb0	0.10094774
146	0xbe4fc79b	-0.20290987
147	0x3e50b72a	0.20382372
148	0xbeabe736	-0.33574837
149	0x3e80f306	0.25185412
150	0x3edb2acf	0.42806098
151	0x3d99c387	0.07507997
152	0xbe8c5183	-0.27405939
153	0x3ed1e5d9	0.40995672
154	0x3f016bf3	0.5055534
155	0xbe92aca7	-0.28647348
156	0x3ed173cb	0.40908656
157	0x3e12b662	0.14327386
158	0xbef387b9	-0.47564486
159	0x3e124c3e	0.14286897
160	0x3e4b0c90	0.19829011
161	0x3e12c811	0.14334132
162	0x3d584b74	0.052806333
163	0x3d101f91	0.035186354
164	0x3be60ad3	0.0070203333
165	0xbe5904ae	-0.21193191
166	0xbe7a4bd5	-0.2444299
167	0x3d12cabb	0.03583787
168	0x3da92d02	0.08260538
169	0xbdbf9e54	-0.093563706
170	0x3e63c0c7	0.22241507
171	0xbde2a548	-0.11066681
172	0xbd6bd4b0	-0.05757588
173	0x3d94f5cc	0.072734445
174	0xbe8fa023	-0.28051862
175	0xbe0acabd	-0.13553901
176	0xbeade9e9	-0.33967522
177	0x3e5b9196	0.21442255
178	0xbe8c7e31	-0.27440026
179	0x3d4225f0	0.04739946
180	0x3ed734ae	0.4203238
181	0xbe5144a7	-0.20436345
182	0xbbf3421f	-0.0074236537
183	0xbe09fc80	-0.13475227
184	0x3e3c1bb9	0.1836995
185	0xbe86728a	-0.2625926
186	0x3e000f85	0.1250592
187	0xbcaa4103	-0.020782953
188	0x3e968c97	0.29404137
189	0x3e5b2b8c	0.2140333
190	0xbd4ea58a	-0.05045084
191	0x3e85bce3	0.26120672
192	0x3de3d3cf	0.11124384
193	0xbe9a8962	-0.3018294
194	0xbf0ecd3b	-0.55781907
195	0x3e8d3337	0.27578136
196	0xbe65f181	-0.22455408
197	0x3df2791d	0.11839507
198	0xbe1f16ac	-0.15535992
199	0xbd961070	-0.07327354
200	0xbeaef351	-0.3417001
201	0x3e3119da	0.17295018
202	0x3c4db4f8	0.012555353
203	0x3ec36aa0	0.38167286
204	0x3e084c9d	0.13310476
205	0x3ef7c23b	0.48390374
206	0xbe18a1c1	-0.14905454
207	0x3e38d03d	0.18048187
208	0x3e2cf794	0.16891319
209	0x3ccdde45	0.0251304
210	0x3cdf27a8	0.02724059
211	0x3d23dbef	0.040004667
212	0x3e0c68f8	0.13711917
213	0x3e8a6feb	0.27038512
214	0xbe961482	-0.2931252
215	0x3dfb418c	0.122683614
216	0xbe53a3e9	-0.20667996
217	0xbde081bd	-0.109622456
218	0x3ec65106	0.3873369
219	0x3dd0829e	0.10181163
220	0x3e8ade93	0.27122936
221	0x3cf0187b	0.029308548
222	0x3d0b9df2	0.034086175
223	0xbde51aec	-0.111867756
224	0x3d417c23	0.047237527
225	0x3ec66f25	0.38756672
226	0x3e8034c9	0.25040272
227	0x3ef2458a	0.4731868
228	0x3f1010ba	0.5627552
229	0xbecd8482	-0.40140158
230	0x3d8d5dfa	0.0690269
231	0xbd5ede70	-0.05441135
232	0xbd0bd8b4	-0.03414221
233	0x3e84b48a	0.2591899
234	0xbea5f955	-0.32416788
235	0xbb47ee08	-0.0030506868
236	0x3dad24b9	0.0845427
237	0xbe83a880	-0.25714493
238	0x3eb36248	0.3503592
239	0xbe1a6dc2	-0.15080932
240	0x3d9781a5	0.073977746
241	0x3e8e09dd	0.277419
242	0xbef568e4	-0.47931588
243	0x3d81889e	0.06324886
244	0x3ef6b6fa	0.48186475
245	0xbe8de6de	-0.277152
246	0xbce51210	-0.027962714
247	0x3e914803	0.28375253
248	0x3eb0ecc6	0.34555644
249	0x3e380be8	0.17973292
250	0x3c64154f	0.013921096
251	0xbe1af249	-0.15131487
252	0xbcf6b7cc	-0.030116938
253	0xbd7753c0	-0.060382605
254	0xbdfd184d	-0.12358151
255	0xbdf30870	-0.11866844

0.features.2.0.block.1.1.weight f4 [32]
0	0x3f7ac07f	0.97949976
1	0x3f82feba	1.0233986
2	0x3f78d153	0.97194403
3	0x3f84c20e	1.0371721
4	0x3f7fd60e	0.99935997
5	0x3f833a22	1.0252116
6	0x3f882b49	1.063821
7	0x3f7fd1ef	0.9992971
8	0x3f6c58ac	0.923228
9	0x3f80366c	1.0016608
10	0x3f853ade	1.040859
11	0x3f73bcf5	0.952102
12	0x3f7ac800	0.97961426
13	0x3f7f21d1	0.99660975
14	0x3f7b0fad	0.98070794
15	0x3f7d37c2	0.98913205
16	0x3f86805d	1.0507923
17	0x3f78dedb	0.9721505
18	0x3f71fbd2	0.9452487
19	0x3f748f14	0.9553082
20	0x3f7ff4fa	0.9998318
21	0x3f77a658	0.96738195
22	0x3f7f4d97	0.9972777
23	0x3f7398d9	0.951551
24	0x3f805c97	1.0028256
25	0x3f7635f3	0.9617607
26	0x3f826fea	1.0190403
27	0x3f7f0bf1	0.99627596
28	0x3f7ceeb3	0.98801726
29	0x3f815479	1.0103904
30	0x3f7a647b	0.9780957
31	0x3f705f27	0.9389519

0.features.2.0.block.1.1.bias f4 [32]
0	0x39b6197b	0.0003473273
1	0xbcb1a348	-0.021684304
2	0x3ceb8706	0.028750908
3	0x3bbe00f0	0.0057984516
4	0x3bea8d36	0.007157947
5	0xbc8bbf4b	-0.017058989
6	0xbcd600d4	-0.026123442
7	0x3ce7e771	0.028308602
8	0xbd23bd7e	-0.039975636
9	0x3c1b526e	0.009480102
10	0xbd3895bb	-0.04506467
11	0x3c3f27d3	0.01166721
12	0xbcc04354	-0.023469605
13	0xbd057562	-0.032582648
14	0xbb05c6dc	-0.002041272
15	0xbc92317f	-0.017845867
16	0x3d1d9d50	0.038480103
17	0x3c5703d2	0.013123469
18	0x3b3c0e12	0.002869491
19	0x3cffbdf0	0.031218499
20	0x3c75fac1	0.015013398
21	0x3af5fc03	0.0018767122
22	0xbc66271d	-0.014047411
23	0x3ce02fe9	0.027366595
24	0xbbfca590	-0.0077101663
25	0x3d072ad6	0.032999836
26	0xbc966282	-0.018357519
27	0x3d08fe07	0.033445384
28	0x3cd9639d	0.026536757
29	0x3ce5823a	0.028016198
30	0x3ca326d4	0.019915976
31	0x3c657eb2	0.014007257

0.features.2.0.block.1.1.running_mean f4 [32]
0	0x3f1856c2	0.5950738
1	0xbf0067f5	-0.50158626
2	0x3e2dd307	0.16975032
3	0x3f07eeea	0.5309893
4	0xbec52e14	-0.38511717
5	0xbe0af33c	-0.13569349
6	0xbe3f0ed7	-0.18658005
7	0xbd876296	-0.06610601
8	0xbf4bdb50	-0.7963152
9	0x3d87c9c8	0.066302836
10	0xbeaab74f	-0.33342978
11	0xbc856a1c	-0.016285948
12	0x3e165650	0.14681363
13	0xbe05a598	-0.1305145
14	0x3f5214f3	0.82063216
15	0x3e232ec8	0.15935814
16	0xbf03e9c8	-0.51528597
17	0x3f875ba3	1.057484
18	0x3eb70ed1	0.35753492
19	0xbeeb432d	-0.4594969
20	0x3e0e574f	0.13900493
21	0x3f3eec37	0.74579185
22	0x3e6fabfc	0.2340545
23	0xbc8a8860	-0.016910732
24	0x3ea6c234	0.3257004
25	0x3d21a2c3	0.039461862
26	0x3e03fb7e	0.12888905
27	0x3e1efeb4	0.15526849
28	0xbe4465a1	-0.19179393
29	0x3ebf0c9a	0.37314302
30	0xbedba7a4	-0.42901337
31	0xbda5eb11	-0.08101476

0.features.2.0.block.1.1.running_var f4 [32]
0	0x402e0bec	2.7194777
1	0x3f6d7226	0.927523
2	0x3ff6a586	1.9269264
3	0x3fc01084	1.500504
4	0x403687bd	2.8520348
5	0x3fe88246	1.8164756
6	0x4023bcf6	2.5584083
7	0x4001f515	2.0305836
8	0x404cd489	3.200472
9	0x400ffd29	2.2498267
10	0x403dd294	2.9659777
11	0x402a89dc	2.6646643
12	0x3fd3888e	1.6526048
13	0x3ff02ed9	1.8764297
14	0x3fd12354	1.6338906
15	0x4047c93a	3.121657
16	0x3fb2fbea	1.3983128
17	0x4085a90f	4.176887
18	0x407c4059	3.9414275
19	0x40032654	2.0492144
20	0x403a4777	2.9106119
21	0x40a88ff6	5.2675734
22	0x405cf788	3.452608
23	0x40135ab3	2.3024108
24	0x40b147f3	5.540033
25	0x405a4b56	3.4108481
26	0x40165a41	2.3492587
27	0x40078e4e	2.1180606
28	0x409125d8	4.5358696
29	0x402c0917	2.6880548
30	0x3fb9ea55	1.4524637
31	0x3fecbe83	1.849564
