code/modeling/ckpt/AutoencoderConfig([1, 1, 1], flip=False, rotate=False)/autoencoder_1600.pth (torch, 346586 bytes, 68 tensors)

0.features.0.0.weight f4 [16, 8, 3, 3]
000000 af d0 85 bd a3 b7 13 3c 3a 9c 68 3c 70 8f db bc
       -0.06533944 0.00901595 0.014197404 -0.026801795
000010 ac 6b c5 3d 73 2e 04 3d 87 77 d8 3d ea ad d4 bc
       0.096396774 0.03227086 0.10569673 -0.025961835
000020 c4 bc ef 3b c6 55 0b bd ff 95 b8 3d d8 dd 86 3c
       0.007316204 -0.034017347 0.090129845 0.016463205
000030 a7 6d 79 bc 51 d7 05 3c 0d 5e 6e 3d 10 2a 9d bc
       -0.015223897 0.008169011 0.058195163 -0.019185096
000040 05 0d 15 bd c5 d6 af bd 42 c8 94 3d e2 1c 32 bd
       -0.03638937 -0.08585886 0.07264759 -0.043484576
000050 e4 5a 9d 3c 84 79 f8 bd 32 33 58 bd 10 9b 5c bd
       0.01920838 -0.12132552 -0.0527832 -0.053858817
000060 67 cc a2 bc 88 25 96 3d 64 a8 7e 3d 71 53 89 bd
       -0.019872857 0.07331377 0.06217231 -0.06705368
000070 38 c8 3d 3e 24 47 0f bd 26 01 83 bd d4 bb c2 3e
       0.18533409 -0.034979954 -0.063967034 0.38033926
000080 f6 12 6b 3e 8f ee 17 be 7b 25 ae 3e b0 d0 af bd
       0.22956452 -0.14837097 0.3401297 -0.08584726
000090 a2 aa b3 bd 5f 45 8b 3d 75 25 a3 3c ce 5e 71 3d
       -0.0877278 0.06800341 0.019915322 0.058928303
0000a0 37 d4 37 3e b6 9f d6 3d 95 20 60 3d 6a 89 38 3d
       0.17952047 0.10479681 0.054718573 0.045052923
0000b0 38 07 62 bd f6 e3 24 3d 33 cc 3c bd ee bb ba 3d
       -0.055182666 0.040256463 -0.046093177 0.09117876
0000c0 48 71 14 3d 69 5d b3 3c 77 b2 01 bb 94 a4 dc 3d
       0.036240846 0.021895127 -0.0019790211 0.10773578
0000d0 d2 a7 bb 3b d8 2d a3 bd 9b 14 ca bd 85 d9 c2 3d
       0.005726793 -0.079677284 -0.098672114 0.09514145
0000e0 6b 32 b1 3c e7 27 db 3c a8 49 c1 3d 82 88 63 3d
       0.021630486 0.026752425 0.09437877 0.055550106
0000f0 06 a8 42 bc e7 67 1b bd c4 f8 49 3d 0b 66 a5 3c
       -0.01188088 -0.037940886 0.049309507 0.02019026
000100 65 8a 27 3c 4a 84 b5 bd ac 2c 33 3d cf ad ad 3d
       0.010225867 -0.08863123 0.043743774 0.08480417
000110 3d d8 32 bd 2a d9 d0 bd a3 e5 15 bd a1 dd fa 3d
       -0.043663252 -0.10197671 -0.03659595 0.122493036
000120 b5 c7 5d 3c 20 f3 63 bd 61 36 7c 3d ac 37 2c 3c
       0.013536383 -0.055651784 0.061575297 0.01051132
000130 39 cc b7 bd e7 ab ee 3c fb ec c3 bb 1b b4 93 bd
       -0.08974499 0.029134704 -0.005979178 -0.07212087
000140 db c5 6d bd 67 cf a6 bd 18 f3 25 be 95 18 73 bd
       -0.058050018 -0.081450276 -0.16206014 -0.059349615
000150 4d 78 0e be 57 73 e9 bd f8 2d 98 bd 7e 8d 48 be
       -0.13913079 -0.113989525 -0.07430643 -0.19585225
000160 37 8c 6c bd 40 7c 02 be 94 56 00 bd cb ae 81 bd
       -0.057750907 -0.1274271 -0.031332567 -0.06332167
000170 3c 41 7c 3d 58 c4 ec 3c bd 34 fb bd 36 7b 0a 3d
       0.06158565 0.028902218 -0.122659184 0.03380891
000180 f8 0d 25 3d 70 8b 6b 3c 98 e5 ab bd 01 c1 9c 3d
       0.040296525 0.014376506 -0.08393401 0.07654
000190 61 39 81 bd a6 88 cf bd bc 14 bf bd 80 93 49 3c
       -0.06309772 -0.101334855 -0.09330127 0.012303233
0001a0 98 d0 a0 bd 2f 1e 9c ba 98 be a3 3d ca 85 84 3a
       -0.07852286 -0.0011910851 0.07995337 0.0010110673
0001b0 49 61 33 bd 3b 32 c1 bb 1c f0 87 3d 62 41 c0 3d
       -0.04379395 -0.0058958805 0.06637594 0.09387471
0001c0 8b 7c c8 bd 50 fc b0 3b 6f 03 57 bd f4 59 fe 3c
       -0.0978938 0.0054011717 -0.05249351 0.031048752
0001d0 65 2d 39 3d 14 67 af 3c 82 44 a6 bc 55 f0 47 3c
       0.045209307 0.021411456 -0.020296339 0.012203296
0001e0 85 58 8b 3a 28 63 2b 3c 9e b3 dc 3c 2c 06 b9 3d
       0.0010631239 0.010460652 0.026941117 0.0903438
0001f0 5a 8a cb b8 e6 b1 39 bd e7 9f 6c bd 7c 10 5f 3d
       -9.705564e-05 -0.045335673 -0.057769682 0.05445908
000200 fb 54 91 3c eb e0 99 bd ef 09 8e bd 00 37 26 3d
       0.017740717 -0.07513603 -0.069354884 0.040579796
000210 d5 53 08 bd 0f 2d d8 3d 23 b4 84 3d 61 9e 2e 3c
       -0.033283073 0.10555469 0.06479671 0.010657878
000220 60 12 b7 3d a3 8b 55 3c f3 45 35 3d e7 6d 83 bd
       0.08939052 0.01303378 0.044256162 -0.064174466
000230 e9 1f b8 3c d5 06 ab bd 49 5b 9b 3d d2 68 a7 3d
       0.022476153 -0.083509125 0.07585771 0.0817429
000240 a3 db 55 3d e9 6e 9d 3d c2 e9 b1 3d 2d 9f 87 3d
       0.052211415 0.0768717 0.08687164 0.06622157
000250 b1 96 00 3e b3 60 97 3d 88 47 83 bd 76 33 d4 bc
       0.12557484 0.07391491 -0.06410128 -0.025903445
000260 bd c7 40 bd e8 a9 22 bc d5 a5 f5 3c 46 bc a0 bd
       -0.047065485 -0.009928204 0.029986301 -0.0784841
000270 85 a2 b9 3d 9f 38 3d 3e 6c e6 9b 3d e4 9b ea 3b
       0.09064201 0.1847863 0.07612309 0.007159697
000280 7a 51 07 3e 09 90 a2 3c 0b 15 c1 bd e7 54 17 bd
       0.13214675 0.019844072 -0.09427842 -0.036946204
000290 c7 10 87 bd 41 b3 01 be 0f 5c d4 bd 33 14 f5 bd
       -0.06594997 -0.12666036 -0.10369121 -0.11966743
0002a0 26 f8 02 bd 9f 08 c1 bd 51 cf 63 3d 02 4c c6 3d
       -0.031974934 -0.094254725 0.055617634 0.09682466
0002b0 6e a2 c8 3d a8 63 0f bd 5a 7d 80 bd 92 09 a2 bd
       0.09796606 -0.03500715 -0.06273909 -0.07911982
0002c0 0d d4 0a 3e cf 95 76 3d b8 87 3e bd ce e4 9e bc
       0.13557453 0.060201462 -0.04651615 -0.019396212
0002d0 a4 48 b3 3b eb fd 99 bd 70 8d e8 3c 2f c9 1f bd
       0.005471306 -0.07519134 0.028387755 -0.039010223
0002e0 e8 d8 03 bb 8c 25 3c bd 7d c0 2e bd bc b1 08 bd
       -0.00201183 -0.045934245 -0.04266404 -0.033372626
0002f0 e2 96 93 3d 63 63 80 bd b0 0c c8 3a 33 c4 a5 bd
       0.07206513 -0.062689565 0.001526257 -0.08094063
000300 76 96 77 bd c1 5b 81 3d 6b a7 f2 bc 8c 69 3b bd
       -0.060446225 0.06316329 -0.029620847 -0.045754954
000310 8c e5 8a bd 10 3f 5a bd 5c a1 5c 3c 2c c5 19 bd
       -0.06782064 -0.053282797 0.013466205 -0.037541553
000320 3a d3 0b 3c 87 6d 0a be 16 12 da bc be 71 49 bd
       0.008534247 -0.13518344 -0.026619952 -0.04918074
000330 0c bf bc 3d fc 9c 1e bd 15 2f b5 3d 77 79 44 3d
       0.09216127 -0.03872393 0.08846871 0.0479674
000340 03 27 8f bd 25 e2 af 3d f3 6d 3d bd 74 c6 76 3c
       -0.06989863 0.085880555 -0.046247434 0.015061963
000350 8a 71 38 bd 48 e0 d7 bd 57 88 2d bd d0 3f 8c 3d
       -0.045030154 -0.10540825 -0.042366352 0.06848109
000360 3b f8 10 bc 7c 4f b0 3d 54 ec 67 bd e7 3b c2 3b
       -0.008848245 0.086089104 -0.056621864 0.005927551
000370 ee 90 2b bd 8a c9 de bc 6e 2e 9b bc 23 e5 bd 3c
       -0.041886263 -0.02719571 -0.018943038 0.02318055
000380 86 62 db bd 18 f0 a3 bc ea d2 86 bc c4 aa 07 bc
       -0.10712151 -0.020011947 -0.016457994 -0.00828046
000390 90 23 ae bc b6 7b fe bb 30 92 c6 3d 58 13 03 be
       -0.021257192 -0.0077662123 0.09695852 -0.12800348
0003a0 b7 06 a5 bd 13 6f b8 3d 00 be 63 bc 2b 9f 41 3d
       -0.080579214 0.09005561 -0.01390028 0.047270935
0003b0 73 b2 6a bd f4 72 9b 3d 2d ef 53 3d 85 a6 53 3d
       -0.05729909 0.07590285 0.051741768 0.051672477
0003c0 89 88 07 3e f4 ea 23 3e 32 4e d0 bc ab 43 c5 bd
       0.13235678 0.16007596 -0.025427911 -0.09632047
0003d0 2c e7 f1 bd 9c 19 d4 3c 8a 60 54 ba ef a7 1b bd
       -0.11811671 0.025891118 -0.00081015436 -0.03800195
0003e0 a6 47 86 bd 13 15 78 3d c5 ca c8 bd da e4 6e bc
       -0.065566346 0.060566973 -0.098043 -0.01458093
0003f0 d7 b3 6b 3d fe f6 3f bc 43 4b b9 bd fa c6 a9 3d
       0.057544556 -0.011716602 -0.09047558 0.08289905

0.features.0.1.weight f4 [16]
000000 e0 ef 83 3f 0a b5 88 3f f0 f6 5a 3f f7 8e 4f 3f
       1.0307579 1.0680249 0.85533047 0.8107752
000010 cd e9 7f 3f 21 61 4b 3f ab 5c 75 3f 8f 73 4c 3f
       0.99966127 0.7944508 0.95844525 0.7986383
000020 3c 90 81 3f ea 92 55 3f 36 ee 6e 3f fe 99 6d 3f
       1.0122142 0.834273 0.9333223 0.928131
000030 20 8e 60 3f 79 8e 70 3f 0b 08 61 3f a2 b8 75 3f
       0.87716866 0.93967396 0.879029 0.9598485

0.features.0.1.bias f4 [16]
000000 e4 80 1e 3e f9 34 c6 3d 90 ae 62 3e a0 d9 43 3e
       0.15478855 0.096780725 0.22136903 0.19125986
000010 ea 82 29 3e d9 38 5a 3e 67 45 8e 3e 9d 0d bd 3e
       0.16553846 0.21310748 0.27787325 0.3692445
000020 66 f7 a5 3e a7 63 be 3e dc 56 d5 3d ad 13 6a 3e
       0.32415313 0.37185404 0.10416958 0.22859068
000030 c4 2b b7 3d 60 5e 14 3e b3 e5 22 3e da 85 3d 3e
       0.089438945 0.14489126 0.15907936 0.18508092

0.features.0.1.running_mean f4 [16]
000000 95 b7 3f 3a e6 5a 7d 3a e3 38 43 39 08 3d bc b9
       0.00073134276 0.0009664729 0.00018617841 -0.00035903626
000010 5c d7 84 ba 86 e1 ae 39 f1 5d a4 3a 4b 65 a7 ba
       -0.0010134983 0.00033355894 0.0012540204 -0.0012771277
000020 2f d8 f3 b9 8f 39 72 b8 91 c1 c2 39 85 e5 bf ba
       -0.0004650964 -5.77509e-05 0.00037146782 -0.0014640546
000030 39 d1 50 34 11 e4 c8 b8 16 02 ae 39 df 0f e0 b9
       1.9447624e-07 -9.579224e-05 0.0003318942 -0.00042736434

0.features.0.1.running_var f4 [16]
000000 53 f1 d4 3f 85 af 7b 3f a7 51 5f 3f b9 7f b7 3e
       1.6636146 0.98314697 0.87233967 0.35839632
000010 40 30 14 3f 10 9e f1 3e 0d 66 f9 3e 39 55 fa 3e
       0.57886124 0.47190905 0.4871067 0.48893145
000020 bb af c9 3f b1 2b 02 3e 6f 22 94 3f af 3b 2b 3f
       1.5756754 0.1271198 1.1573008 0.66887945
000030 18 02 44 3e ed c4 85 3f b7 03 9e 3f 65 f7 00 40
       0.19141424 1.0450722 1.2344884 2.0150998

0.features.1.0.block.0.0.weight f4 [16, 16, 3, 3]
000000 2f fc b6 bd 53 f3 bb bd 43 e2 48 3d a1 29 68 3d
       -0.08934819 -0.0917727 0.049043905 0.056680325
000010 e9 a4 53 bc 9d ba 54 be 0a 16 e1 3c f3 28 2b 3c
       -0.012917736 -0.20774312 0.02747633 0.010446775
000020 49 98 94 3d 33 6c 96 3b 4b 39 dd bd 4b de b7 3c
       0.072556086 0.004590535 -0.108019434 0.022444865
000030 a9 b3 bf 3d 5b 09 b7 3c d7 56 52 3d 1e f4 df 3d
       0.09360439 0.022343328 0.05135235 0.109352335
000040 5f 01 57 be fa 4d b0 bc 4e d4 eb bd 0e 4b 0c 3d
       -0.20996617 -0.021521557 -0.11515103 0.034251265
000050 e7 87 c8 3c 16 f3 ac 3d 92 2b 16 be 1a b2 8a bd
       0.024478866 0.084448025 -0.14665058 -0.067722514
000060 74 26 1b 3d 58 19 c7 3d 3e c5 47 bd db a2 12 3e
       0.03787847 0.09721631 -0.04877209 0.14319937
000070 d1 5a 46 3b fb 86 23 3e 7a 21 a8 bd 85 73 a1 bd
       0.0030266533 0.1596946 -0.0820951 -0.07883362
000080 0e 8e 8e 3d 20 3d d0 3d 7f fc 89 bd df 00 0e bd
       0.069606885 0.10167909 -0.06737613 -0.0346688
000090 f3 5c 99 be ba b1 72 3d 2b 3d e0 3b 3d 94 ba bd
       -0.29953727 0.059251525 0.0068432293 -0.091103055
0000a0 57 80 16 be fe d5 0b be be 30 b1 bc 99 ff d1 bb
       -0.14697395 -0.1365585 -0.021629687 -0.0064086434
0000b0 31 3e b4 bd 1c 83 8f bd a6 fb 4f bc 79 8c dc bd
       -0.088009246 -0.07007429 -0.012694275 -0.107689805
0000c0 b7 df 42 3e e3 26 50 be 09 d1 a9 3c d4 09 da bd
       0.19030653 -0.20327334 0.020729559 -0.10646406
0000d0 85 05 9a 3b fd 9c c9 3c 94 45 26 3d 99 72 62 bb
       0.004700365 0.02461099 0.0405937 -0.0034553169
0000e0 dc d6 2b 3d 8e 82 43 3e 8c 71 27 3e c3 6f d5 3d
       0.041952953 0.19092771 0.16351908 0.104217075
0000f0 22 53 f3 3d 8a 37 83 3e bd 24 9c 3e 6a f6 b2 3d
       0.11881091 0.2562831 0.3049678 0.08738406
000100 96 2f 9b 3e 4f 11 97 3d 87 71 a3 bd 1b 60 0b be
       0.30309743 0.07376348 -0.07980638 -0.1361088
000110 0f 58 2c 3c 91 a8 6b 3d 78 b1 20 3d 43 19 b0 3d
       0.010519042 0.057533804 0.039231747 0.08598568
000120 af bd b2 3d 57 54 1e 3e 29 00 2e 3c 24 99 52 3d
       0.087275855 0.1546186 0.010620155 0.051415578
000130 24 2f 2e 3e 12 82 bd 3d 1d 7d 2d 3e 2c 14 9b bd
       0.1701017 0.092533246 0.16942258 -0.07572207
000140 01 ce 5d 3e d7 61 4d 3c 87 30 69 bd bc 0d 58 3d
       0.21660616 0.012535534 -0.056931045 0.052747473
000150 d5 18 9c 3d 08 43 ac bc 18 33 db 3c 3c bf bc bb
       0.07621924 -0.021028057 0.026757762 -0.0057601016
000160 62 cf 09 3e 03 7a 57 bd 27 c9 39 3d 9c 38 80 bd
       0.13458017 -0.052606594 0.04535785 -0.062607974
000170 65 07 8a 3d 44 26 46 3d 2e 33 01 bd 11 96 d2 3d
       0.06739692 0.048376337 -0.03154295 0.10282529
000180 b8 29 0c bc 32 b2 74 3c 0e b0 9c be df b9 10 3d
       -0.008554868 0.014935063 -0.3060307 0.03533351
000190 cd c2 af bb 55 9a a2 bc aa 7e 1d bc 42 4a 41 3e
       -0.0053637982 -0.019848982 -0.009612719 0.18875983
0001a0 10 37 fc bd 20 9c 1b be 81 88 9e 3c 4a 8a ab ba
       -0.1231519 -0.15196276 0.0193522 -0.0013087478
0001b0 32 20 0e 3d 0f 45 25 3d b5 52 7b bb d2 ec 0f be
       0.034698673 0.040349063 -0.0038348858 -0.14055184
0001c0 45 c5 5e 3d be 42 b9 bc d0 f5 11 bc 49 af bf 3d
       0.05438735 -0.022614833 -0.008908704 0.09359605
0001d0 6f ba a0 3d 7a 2e d3 3d 42 97 a4 be d2 40 d8 3c
       0.078480594 0.10311599 -0.3214665 0.026398096
0001e0 76 86 01 3d d8 77 0d be 63 3f 20 3e 8f f6 a1 3d
       0.031622373 -0.13815248 0.1564918 0.079083554
0001f0 cf 10 f2 3d 6b 31 53 bd ac 63 5d 3c 1d e7 ed bc
       0.11819612 -0.0515608 0.013512533 -0.029040867
000200 d9 6a 1b be 96 8e 50 3e af 46 30 be af 95 8d be
       -0.15177478 0.20366892 -0.17214464 -0.27653262
000210 b4 13 96 3d 91 f4 b8 bb b3 8a 82 3c cd 6b 05 be
       0.07327977 -0.005644389 0.015935278 -0.13029404
000220 95 5f d5 bd 6a a3 41 bb 21 e1 e2 bc 88 9a 17 be
       -0.104186215 -0.0029546865 -0.02769524 -0.14805043
000230 89 7a 73 3e 88 69 d7 3d 02 37 23 3d 57 97 df bc
       0.23777212 0.10518175 0.03984738 -0.027293844
000240 bc df 4d be 94 e5 b8 bd 11 e5 8c bd 2e 85 47 be
       -0.20104879 -0.090281636 -0.068796284 -0.19484398
000250 f8 c8 a9 be 05 94 08 be 9e 64 b8 3d bb 13 09 bb
       -0.3316114 -0.13337715 0.09003566 -0.0020916301
000260 4e 1e ef bd bd 59 9c 3d 93 89 86 3e cf 9e fc 3d
       -0.11675702 0.07634304 0.26276836 0.12334978
000270 e9 c2 39 3e 4d e9 cb 3d 58 d6 55 3e 46 10 27 3d
       0.18140759 0.09956608 0.20882547 0.040787004
000280 49 bd 39 3e dc 19 3a 3e 7e fc e5 3c 7e 05 36 3d
       0.18138613 0.18173927 0.0280745 0.04443883
000290 79 8d e0 3c eb 3d c9 3c b6 92 9b bd d3 8e 18 bd
       0.02741121 0.024565658 -0.07596342 -0.037245583
0002a0 74 19 3f 3e d7 e8 b0 bd 4f 19 d1 bd fc e8 af 3c
       0.18662053 -0.08638161 -0.10209905 0.0214734
0002b0 e9 b6 02 bd ff c7 a7 3d a9 0b cc bd 66 04 38 bd
       -0.031912718 0.08192443 -0.099631615 -0.04492607
0002c0 b0 7d 00 3d b6 dd a1 3d 78 ba 66 3e 85 ea 83 bc
       0.031369865 0.07903616 0.2253207 -0.016103039
0002d0 1f ce 83 3e f2 2d c8 3d fd d0 53 3d ff b3 a4 bc
       0.25743195 0.097743884 0.05171298 -0.02010536
0002e0 22 bb 30 3d ce 03 28 bd 06 8b bf bb b0 5a 56 3e
       0.043147214 -0.041019253 -0.0058454303 0.20933032
0002f0 b9 af 1d 3e 03 51 10 bd 4f 0e fd bd 82 4c 81 3d
       0.15399064 -0.03523351 -0.12356245 0.06313421
000300 f4 f6 1d 3d 41 13 8d 3b ce 03 92 3d cc 66 d6 3b
       0.03856559 0.0043052738 0.07129632 0.006543016
000310 86 55 27 bd 43 17 83 bd 4d 6e 26 be cc 8e f5 bc
       -0.040853046 -0.06400921 -0.16253014 -0.029975317
000320 d0 77 6c bd 43 c5 15 bc 2b b7 11 3d a5 da ce bd
       -0.05773145 -0.009141269 0.035575073 -0.10100297
000330 7f 0f 0b 3e 76 8c 70 bd c7 fc 16 bd 8c 45 29 be
       0.1358013 -0.058727704 -0.03686216 -0.16530436
000340 bb 41 54 be b3 91 e5 3d 9d c7 9b 3d ca c0 d6 bd
       -0.20728199 0.112094305 0.076064326 -0.1048599
000350 f0 0e 04 be 10 c9 2a 3c 9a 95 0c be 68 a4 50 be
       -0.12896323 0.010423914 -0.13728943 -0.20375216
000360 b9 11 14 3d 33 73 40 3e 4d 4c 02 be f5 ff 11 bd
       0.036149714 0.18793945 -0.12724419 -0.03564449
000370 35 c5 44 bd eb 3d e6 3c 92 6f d7 bd 59 a2 24 39
       -0.048039634 0.028105697 -0.10519327 0.00015700738
000380 19 0f 22 3d 96 ac b8 bd ea 28 23 3d ba 7d b7 bd
       0.03956518 -0.09017293 0.03983394 -0.08959527
000390 0d 53 8b 3d 3e 1b b9 bd e1 9e 29 3c 1e 6f 52 3d
       0.0680295 -0.09038399 0.010352821 0.0513755
0003a0 10 e7 96 bd e1 9b 0d bd 3f 0d 5a bd 1d e5 2c 3d
       -0.073682904 -0.034572486 -0.05323529 0.042210687
0003b0 9f 6b 07 bd 50 60 dd 3d 48 9b 4f be 0c 02 a7 bd
       -0.03306162 0.10809386 -0.20274079 -0.08154687
0003c0 df 59 21 3e 0c 96 3e bc 00 3e e7 bc a9 29 31 3e
       0.1575694 -0.011632454 -0.028227806 0.17301048
0003d0 f4 75 63 bd 1b 95 42 3d 7f 11 eb 3c 8e 0d c9 bc
       -0.05553241 0.04750548 0.028694866 -0.024542596
0003e0 55 e3 8d 3d a8 ed 9a 3c 8d 88 fd 3d d6 08 39 3d
       0.06928126 0.018912151 0.123795606 0.045174442
0003f0 cb 58 68 bd 4e de e9 3d 5f 72 9f bc c7 65 f2 bd
       -0.056725305 0.114193544 -0.019463716 -0.11835819

0.features.1.0.block.0.1.weight f4 [16]
000000 82 e9 72 3f a5 0b 91 3f 42 10 65 3f 9a 9d 68 3f
       0.94887555 1.1331679 0.8947793 0.9086548
000010 e3 4b 6e 3f 39 13 7b 3f 9f 74 a3 3f 12 92 52 3f
       0.93084544 0.98076206 1.2769965 0.82254136
000020 8f ce 5c 3f 76 44 54 3f 0a fa 5e 3f 4a da 82 3f
       0.86252683 0.82916963 0.8710028 1.0222867
000030 6b fa 62 3f aa 5b 77 3f b7 2d 56 3f e1 fd 54 3f
       0.8866336 0.96624243 0.83663505 0.8319989

0.features.1.0.block.0.1.bias f4 [16]
000000 92 ce d4 3d bd b6 a0 3b d4 c6 27 3d 58 95 3c 3e
       0.10390963 0.0049045966 0.0409611 0.18416345
000010 fe 3f c7 3d f6 83 ca bb c0 2e 1c bf c9 b4 c4 bb
       0.097290024 -0.0061802818 -0.61008835 -0.0060029966
000020 85 c9 21 3d 29 14 36 3d 7d 29 9e 3e fb 6b 03 3e
       0.039498825 0.04445282 0.30891028 0.1283416
000030 99 56 f9 3d 8c a2 5b 3e e1 49 72 3d db 1b 0a 3d
       0.1217472 0.21448725 0.059152488 0.03371797

0.features.1.0.block.0.1.running_mean f4 [16]
000000 7e b6 ff 3e 45 7b cd bd aa 07 41 bf 4b a3 a0 be
       0.49943918 -0.100332774 -0.7540232 -0.31374583
000010 93 f8 e5 be a4 c2 0b 3f 91 f3 c0 bf c2 4b 63 3d
       -0.4491621 0.54593873 -1.507433 0.05549217
000020 56 12 96 bd 59 29 66 3e f2 0c aa bd 89 af 7b bf
       -0.07327716 0.2247671 -0.0830325 -0.9831472
000030 b0 c8 b4 3e 88 c2 dc 3e 12 35 96 3e de 64 f7 be
       0.35309362 0.43117166 0.29337364 -0.48319143

0.features.1.0.block.0.1.running_var f4 [16]
000000 59 0e 3e 40 4b bb 01 40 2d db 5a 40 46 6d 86 40
       2.9696257 2.0270565 3.4196274 4.200839
000010 a2 69 74 40 3a 11 c8 3f 9b ae e8 3e 1b 4d 82 40
       3.8189473 1.5630257 0.45445713 4.0719123
000020 79 47 7c 40 62 73 12 40 1c b1 a6 3f a0 c2 86 40
       3.9418623 2.2882924 1.30228 4.211258
000030 1c 48 a1 3f cd 47 a1 40 ff 69 1a 40 3c bd cb 3f
       1.2600131 5.0400147 2.4127195 1.5917125

0.features.2.0.block.0.0.weight f4 [64, 16, 3, 3]
000000 dc a9 a9 3d 9a 53 61 3d 75 2c fa 3d d7 88 67 bc
       0.08284351 0.05501137 0.12215511 -0.014131746
000010 54 b2 9d 3b 15 96 51 3d 17 34 38 bd 36 4a ae 3c
       0.004812518 0.05116852 -0.04497155 0.02127562
000020 83 d5 dd bd 69 45 af bd a5 30 9a bb 91 36 11 be
       -0.1083174 -0.08558161 -0.004705506 -0.14180972
000030 c6 4a 26 bd 37 e1 3c 3d a8 43 a6 3d df d4 1f be
       -0.040598653 0.04611322 0.08118373 -0.15608548
000040 8c 45 0e be 9c 77 ac bd b0 b0 04 bd ef 28 00 3b
       -0.13893718 -0.08421251 -0.032395065 0.0019555648
000050 f1 ab 03 3d 89 ab 08 bb 88 40 a2 3d 82 8a 1c 3d
       0.032146398 -0.0020854196 0.079224646 0.03821803
000060 65 8c 1d 3e 19 f5 74 bd 10 cd da 3d 5c 29 1c be
       0.15385588 -0.059804056 0.10683644 -0.15250152
000070 5d 50 04 bd 2d 54 99 bb a7 08 a2 bd ac 91 98 3c
       -0.032303203 -0.004679224 -0.079118066 0.01862415
000080 80 ac 98 bc 22 89 86 bd 47 6c 98 3d ee 30 d0 3c
       -0.018636942 -0.06569125 0.07442527 0.025413956
000090 7e fc 4e bd c3 87 3e 3c 23 81 8a 3d 32 98 37 3c
       -0.050533764 0.011629048 0.06762912 0.01120572
0000a0 76 b9 4c bd e3 16 31 3d 4a 5f f0 bc 23 92 1e 3d
       -0.049981557 0.043234717 -0.029342312 0.038713586
0000b0 03 4c 11 bd bf 4c 2f bd b9 f3 c9 3c 45 0c d8 38
       -0.03547288 -0.0427978 0.024652349 0.00010301968
0000c0 f9 95 51 3d cd 96 e3 3d 5f 9c b8 3d a7 64 f6 3c
       0.051168416 0.11112747 0.090142004 0.030077292
0000d0 14 ce f5 3d 3a 46 25 bd d9 38 cc bb 64 be 40 bc
       0.12002197 -0.040350176 -0.0062323627 -0.011764143
0000e0 76 4e 6b 3d c2 52 56 3c 57 ae 4a 3b 39 7c 2d 3d
       0.057447873 0.013081254 0.0030926669 0.042354796
0000f0 a5 d7 e2 3b 9e 40 50 bd a4 55 7b 3b b4 c8 d8 3c
       0.0069226795 -0.050842874 0.0038350606 0.02646289
000100 10 02 1b 3d 60 92 ff 3a e6 2e 8a bd 4d 6f 1d be
       0.037843764 0.0019498579 -0.067472264 -0.15374489
000110 84 03 1f be 1b 50 55 3d 06 f8 88 3d b8 f0 1c 3d
       -0.15528685 0.052078348 0.06687932 0.038315505
000120 46 3f ae 3d c4 a0 b9 3d 32 9d 3d 3d 49 c7 a1 bc
       0.08508162 0.09063867 0.04629249 -0.019748347
000130 52 29 0b 3e 73 e0 84 3d 68 eb 07 bd eb 18 26 bc
       0.13589981 0.06488123 -0.033183485 -0.010137777
000140 bd b7 af bd fa 89 24 bd 6f 6e 71 3c e7 53 7f bd
       -0.08579967 -0.040170647 0.014735802 -0.062335875
000150 71 05 8b bd 2a eb 01 3d a4 52 4a 3d 24 7d 64 3c
       -0.06788147 0.03171841 0.04939522 0.0139458515
000160 6d 00 ab bd ca 7c 35 bb d3 85 23 bd 13 c1 54 bd
       -0.083496906 -0.0027692788 -0.039922547 -0.051941942
000170 93 84 a2 bc cf 7a c2 bc 21 ae 38 3d d6 2f 8b bd
       -0.019838607 -0.0237402 0.045087937 -0.06796233
000180 83 29 8d bc d0 7f 69 3c 73 ea 9a bd 1e 07 32 bb
       -0.017231708 0.014251664 -0.07564249 -0.0027164887
000190 e2 d5 9b bd f8 1a 50 bd ee d1 37 bd b0 69 ca bd
       -0.07609154 -0.05080697 -0.04487794 -0.098834395
0001a0 3a 18 0d bd 1e 72 1e 3d 66 e8 73 bd c3 6d bd 3b
       -0.034446932 0.03868305 -0.059547804 0.005780907
0001b0 be 74 2e bd 98 f6 73 3c 7e c2 53 bc 6b bf 8e 3c
       -0.042591803 0.0148903355 -0.0129247885 0.01742526
0001c0 6f ef 2b bc 8c e4 24 bd 1e 72 8f 3a 9c 76 d8 3d
       -0.010494097 -0.04025702 0.0010944044 0.10569498
0001d0 08 ff 4b bc 46 b9 c2 3c 18 c2 9d 3d 88 b3 58 bd
       -0.012450941 0.023769986 0.07703036 -0.05290559
0001e0 ac c9 12 3b 40 04 8e bd 25 ee 2a bc 1a 06 1a 3d
       0.0022398038 -0.069344044 -0.010432755 0.037603475
0001f0 44 2c 97 3d c6 5d ff 3c 45 ef eb bb 7b be 3d bd
       0.0738149 0.031172644 -0.007200154 -0.046324234
000200 ad 2a 5f bc 2f d2 a0 3d 2c 73 05 3e 29 2a 49 bd
       -0.013621015 0.07852589 0.13032216 -0.049112473
000210 06 d7 ae 3c c2 94 c5 bc 8a ef fc 3d c3 a5 b2 3c
       0.021342766 -0.024118785 0.12350376 0.021807557
000220 d3 5f be bd c3 07 32 be 31 82 4c bd b6 e6 eb 3c
       -0.09295621 -0.17385773 -0.049928848 0.028796535
000230 16 19 76 bc 89 14 b4 bd 96 90 01 bd 55 72 fe 3c
       -0.015020629 -0.08792979 -0.03163203 0.031060377
000240 c8 0a 44 bc e0 21 ae bb 5e 50 54 bd 73 9d 84 bc
       -0.011965461 -0.005314097 -0.051834457 -0.016188359
000250 3d ad ce 3d 9e ec 2e bd 6d de 6d 3c d6 13 b0 38
       0.10091636 -0.042706124 0.0145183625 8.396029e-05
000260 2f 14 05 3d d3 85 9a 3d 06 4c 43 bc 1a fb a5 3d
       0.03248995 0.07545056 -0.011919981 0.081045344
000270 16 ce 1f 3d 7d ba 97 bd 69 e9 c0 3d 18 db c7 bd
       0.0390149 -0.07408617 0.094195195 -0.09758586
000280 4c 5c c5 bd 22 bf c9 bd 86 a3 9c 3d 65 f7 86 bd
       -0.09636745 -0.09850909 0.07648377 -0.065901555
000290 f0 b0 0f bd a8 a6 3c 3c 2a 72 19 3d 67 a1 95 bb
       -0.03508085 0.011514343 0.03746239 -0.00456636
0002a0 2c 95 5b bd d2 6d ab 3d ee a2 2a 3d 7c 3d 5a 3d
       -0.05360906 0.08370556 0.041659288 0.053281292
0002b0 19 47 8f 3d 6e 89 9a 3d 97 80 16 bd 5d c4 9e 3d
       0.06995983 0.07545744 -0.036743727 0.07752297
0002c0 d5 49 e0 3d c4 56 09 3e 59 ef c7 3c 75 36 80 bb
       0.10951582 0.13412005 0.024406122 -0.003912742
0002d0 65 66 2f 3d 04 80 1d 3c f2 64 af 3d 27 3c cb 3b
       0.04282226 0.009613041 0.08564176 0.006202239
0002e0 72 a5 ec bd 6f aa 54 bd 0f 95 a3 3d 9e 40 4f bc
       -0.11554994 -0.05192035 0.07987415 -0.012649683
0002f0 18 88 a5 bd 6e 4a f2 bd 21 31 60 bd 9c 63 31 bd
       -0.080825984 -0.118306026 -0.054734353 -0.043307886
000300 91 cd 0d be 88 dc b5 bc f6 cb c4 bb 7f 24 cb bd
       -0.13847949 -0.022199884 -0.0060057594 -0.099190705
000310 d3 74 d4 bd 2b a3 30 bd dc 53 09 bd c1 5a 3d 3d
       -0.10373845 -0.04312436 -0.03352724 0.046229128
000320 fa 8d 1e bd ba 67 13 bd 2f a2 39 bb d3 f0 f6 3c
       -0.03870962 -0.035987593 -0.0028325429 0.03014413
000330 fb d8 43 bd 19 77 2f bd 8c b8 4f bd a6 cf 61 3d
       -0.04781435 -0.04283819 -0.050713107 0.05512967
000340 f3 7f fa 3c 3b 16 7e 3c 9b f0 f0 bc 78 8f 60 bd
       0.030578589 0.01550823 -0.029411605 -0.054824322
000350 10 08 e2 bd 4f b8 70 3d 91 59 0e 3e 84 cf c0 bc
       -0.11036694 0.05876952 0.13901354 -0.023536451
000360 41 df a0 bd a3 d2 5b bd 2f 84 86 3c 75 66 23 3d
       -0.07855082 -0.053667676 0.016420452 0.039892633
000370 e1 ff 88 bc 0d c3 6b bd 8f 6e 41 bc 3c 69 8d 3d
       -0.016723575 -0.05755906 -0.011806144 0.069048375
000380 62 e1 9c bd cf 4c 6a 3c 4a bd 05 bd 38 62 bf 3d
       -0.07660176 0.014300539 -0.032651223 0.093449056
000390 8d 1e 9e bb bc 02 70 3d 5f 68 3b bd d7 0b 14 ba
       -0.0048254193 0.058596358 -0.045753833 -0.0005647516
0003a0 f1 30 7d bc da 39 9f bc 4b ce 04 3c cb 7e b0 3b
       -0.015453563 -0.019436765 0.008105825 0.0053862086
0003b0 81 cc cd 3c d2 0d 66 3d 85 47 2a 3d 1e 05 e3 3c
       0.02512193 0.056165524 0.041572113 0.027712401
0003c0 24 10 ea 3c 9b df 0b bc 41 05 df 3d ae 52 0b 3b
       0.02857215 -0.008537198 0.10889674 0.0021258998
0003d0 50 06 d0 bd 18 33 5b 3d 01 dd 47 3c a2 68 66 be
       -0.10157454 0.053515524 0.0121986875 -0.22500852
0003e0 b4 a1 1b be 4e fd 65 3d b8 aa e2 bd 3e 20 b2 3a
       -0.15198404 0.056149773 -0.11067718 0.0013589931
0003f0 7f be 39 bd f5 28 b7 bc 04 95 86 bc f5 b7 b6 bc
       -0.045347687 -0.022358397 -0.016428478 -0.022304514

0.features.2.0.block.0.1.weight f4 [64]
000000 29 bb 62 3f 3f db 4d 3f a2 e6 8c 3f 5c 9b 73 3f
       0.88566834 0.8041267 1.1007884 0.95158935
000010 92 75 6d 3f 69 5b 65 3f ab e8 6b 3f da 23 68 3f
       0.92757523 0.89592606 0.921519 0.90679705
000020 66 5d 6a 3f fa b7 69 3f 43 8d 6c 3f 90 17 7f 3f
       0.91548765 0.9129635 0.9240305 0.9964533
000030 29 e3 80 3f 26 14 74 3f 24 c4 63 3f 01 24 a7 3f
       1.0069324 0.95343244 0.8897116 1.3057863
000040 29 ca 84 3f f8 f8 78 3f 86 69 68 3f 50 d9 7b 3f
       1.0374194 0.97254896 0.90786016 0.9837847
000050 a8 09 59 3f ac 58 77 3f 23 08 64 3f 5b 0a 66 3f
       0.8478036 0.9661968 0.89074916 0.8985955
000060 74 27 80 3f 16 e9 6c 3f ad b0 83 3f 25 05 69 3f
       1.001204 0.9254316 1.0288292 0.91023475
000070 a0 a3 78 3f 86 22 68 3f 57 57 8c 3f 93 9b 76 3f
       0.9712467 0.9067768 1.0964154 0.9633114
000080 3d 2d 74 3f 1b 54 70 3f 3b ff 80 3f 83 d5 7c 3f
       0.9538153 0.93878335 1.007789 0.98763293
000090 90 4d 78 3f f8 b9 64 3f 6d 23 7b 3f b8 61 80 3f
       0.9699335 0.89346266 0.9810093 1.0029821
0000a0 9f e7 63 3f 04 22 5c 3f 4a 99 59 3f dc ef 60 3f
       0.890253 0.85989404 0.84999526 0.87865996
0000b0 4c c0 65 3f d8 7e 7e 3f e5 58 6c 3f aa 30 72 3f
       0.89746547 0.994123 0.9232314 0.94605505
0000c0 fb f3 56 3f cd fc 79 3f 27 bd 5b 3f 65 22 69 3f
       0.83966035 0.9765137 0.858355 0.91068107
0000d0 d0 c2 6f 3f af 90 6c 3f c9 e3 7d 3f ed c7 70 3f
       0.93656635 0.9240827 0.991757 0.9405506
0000e0 43 00 7a 3f 74 11 82 3f b9 6e 7a 3f 4c 30 6c 3f
       0.9765665 1.0161576 0.978252 0.92261195
0000f0 68 c2 85 3f 40 a9 7e 3f 65 ab 59 3f 80 93 57 3f
       1.0449953 0.99477005 0.8502715 0.8420944

0.features.2.0.block.0.1.bias f4 [64]
000000 54 6a 46 3e bb 94 0c 3d 57 60 41 3c 31 89 88 3e
       0.19376498 0.034321528 0.011802754 0.2666717
000010 34 2e 93 3d 7b 90 ec 3c 67 31 69 3e 62 ad d5 3d
       0.07186547 0.028877487 0.22772752 0.10433461
000020 7a b6 d9 3b 79 52 8b 3d 3c c5 00 3d 93 62 3c 3e
       0.0066440674 0.0680284 0.031438097 0.18396978
000030 b2 a2 0b bb d3 04 43 3d ab 40 d9 3d 41 ff 20 bf
       -0.002130669 0.047612023 0.106080376 -0.62889487
000040 ad c1 6c 3d 03 e8 46 3e e6 96 da 3d b3 ea 8b be
       0.05780189 0.19424443 0.10673313 -0.273275
000050 2e 41 52 3d ea 11 a6 3d b2 fc 2b 3d 91 9d 9c 3d
       0.05133169 0.081088856 0.041989036 0.07647241
000060 8e e2 b6 3d e1 0f 93 3d 35 c8 0a 3e 64 2c 77 3e
       0.089299306 0.07180763 0.13552935 0.24138027
000070 8d 1c 02 3e 65 02 03 3e 58 a8 42 3c d0 59 d8 3d
       0.12706204 0.12793882 0.011880957 0.105640054
000080 a2 39 16 3d 09 25 69 3e 1a f6 c7 3d 9a bd be 3d
       0.036676057 0.22768034 0.09763737 0.093135074
000090 1d b4 ec 3d 55 9b 64 3e 09 ca b9 3d e3 ba 89 3e
       0.115577914 0.2232488 0.09071738 0.26900396
0000a0 e0 56 2d bb d0 57 43 bc ac fb 66 3d 62 fa 5a 3e
       -0.0026449487 -0.011922792 0.056392357 0.21384576
0000b0 91 7b c8 3d 6c cb df 3d 94 c5 f9 3d 60 5f 35 3e
       0.097891934 0.109274715 0.12195888 0.17712164
0000c0 a3 2f 48 3d 67 1e d9 3d dc 45 10 3d a8 44 43 3e
       0.048873555 0.10601502 0.035222873 0.19069159
0000d0 5e b1 76 3e bd 73 89 3d bc 18 4d 3d e3 d8 07 3c
       0.24091098 0.067115285 0.050072417 0.008291456
0000e0 b1 f0 04 3e ba d5 97 3d 25 f5 c7 3d c3 ce 4a 3d
       0.12982441 0.07413812 0.097635545 0.04951359
0000f0 01 ec c2 3d e7 1c 33 3d 31 20 2a 3e 84 5b da 3d
       0.095176704 0.043728735 0.16613843 0.106619865

0.features.2.0.block.0.1.running_mean f4 [64]
000000 f9 8f 9c be a2 ec fb be 06 8a a2 3e 9a e0 89 3e
       -0.30578592 -0.49203974 0.3174593 0.2692917
000010 6b 41 21 be ba 07 8d 3e 9e 6e e7 3d ed 3b 9c be
       -0.15747611 0.27544957 0.113003954 -0.3051447
000020 25 2b ff bd df 8d 72 be c8 c3 a5 3d 13 9f 20 bf
       -0.12459401 -0.23686932 0.08093983 -0.6274273
000030 1b f0 81 3e f4 6e 96 3e e3 45 4b bc 7d 17 43 3e
       0.25378498 0.29381526 -0.012406799 0.19051929
000040 64 ed 44 3e 87 83 97 3e ec 86 1f be 14 84 14 be
       0.19231182 0.29592535 -0.15578812 -0.14503509
000050 03 3a 45 bf 27 48 3f be ce e6 aa be 81 68 b0 bd
       -0.77041644 -0.18679868 -0.33379215 -0.086136825
000060 aa e9 43 3f 98 8f 6f be be 66 86 3e aa 10 ed 3d
       0.7652842 -0.2339462 0.2625026 0.11575444
000070 f3 6a 93 3e e4 b7 04 3f a5 15 6e 3e b7 32 fa 3d
       0.28792533 0.51843095 0.23250444 0.12216704
000080 51 71 67 bc 0a 6c f9 3e ec 6e 25 bd fe d8 2c be
       -0.014126138 0.4871524 -0.040388986 -0.16879651
000090 92 1d 41 3d cf a1 fb 3e d9 67 2e 3e 13 14 c2 be
       0.04714734 0.49146888 0.17031802 -0.3790594
0000a0 66 9a ec be 9e 1b 3a bf cb b8 39 be 35 c4 0d bf
       -0.46211547 -0.7269839 -0.18136899 -0.55377513
0000b0 7f b2 95 3d de 7f b1 3e 3f 8b 42 3d 53 05 03 3f
       0.07309436 0.34667867 0.047496077 0.5118
0000c0 26 dd d3 be 8d 39 8a 3e 0e bd 86 be 11 58 92 3d
       -0.4137966 0.26997033 -0.26316112 0.071457036
0000d0 bf 8e ac be 82 e4 57 3e db 09 00 3f 55 95 8a 3f
       -0.33702657 0.21083263 0.5001504 1.0826823
0000e0 78 51 34 3e 48 5c 95 3e 30 90 cc bd 9b 5f f6 3c
       0.17609203 0.29171968 -0.09988439 0.030074885
0000f0 fd 08 74 3d 02 38 32 3e f2 27 82 3e d9 53 37 bf
       0.059578884 0.17404178 0.254211 -0.71612316

0.features.2.0.block.0.1.running_var f4 [64]
000000 74 6e ff 3f 0a 2e 42 3f f6 33 1f 40 8d 1c b0 3f
       1.9955583 0.758515 2.4875464 1.3758713
000010 c8 2a a7 3f 91 3e 08 40 47 48 2d 3f af b9 49 40
       1.3059931 2.1288188 0.6768841 3.1519582
000020 ae ef 8c 40 4a 58 1d 40 1c 8a 00 40 16 eb e0 3f
       4.404258 2.4585137 2.0084295 1.7571743
000030 e5 7c 54 40 36 f2 93 3f c5 f5 23 40 d5 92 81 3e
       3.320123 1.1558292 2.5618756 0.25307336
000040 ce a5 b6 3f e9 2d 6a 40 e0 ed 97 3f b6 02 fe 3e
       1.426935 3.6590521 1.1869469 0.49611443
000050 b0 1c df 3f 4c 83 e5 3f 7d ef 18 40 61 04 16 40
       1.743063 1.7930694 2.3896172 2.3440173
000060 70 95 ee 3f 11 2e 01 40 5c 1b 59 40 e0 2a 40 40
       1.8639355 2.0184367 3.392295 3.002617
000070 f3 69 53 40 11 6c 89 3f d1 08 8a 3f 05 ce 3c 40
       3.3033416 1.0736104 1.078394 2.9500744
000080 e9 16 8a 3f 05 b2 11 40 aa d0 a7 3f c1 fe 87 3f
       1.0788242 2.2764904 1.3110554 1.062462
000090 a0 48 27 40 2a 4c 48 3f b0 f2 37 40 14 f9 8e 3f
       2.6138077 0.7824122 2.8741875 1.1169763
0000a0 09 a8 22 3f 43 95 14 40 e2 3b 1b 40 ec e9 f6 3f
       0.6353765 2.3216102 2.42553 1.9290137
0000b0 6d 73 74 3f 0d 66 40 40 29 74 87 3f 06 44 97 3f
       0.95488626 3.0062287 1.0582324 1.1817634
0000c0 e4 02 d4 3f a5 91 15 40 67 68 90 3f 8b 4f 64 40
       1.6563382 2.3370144 1.1281861 3.567355
0000d0 1f 1b a8 3f 14 32 e8 3f 60 94 1b 40 dd cf 69 40
       1.3133277 1.8140283 2.430931 3.653312
0000e0 90 84 21 3f d1 fe 08 40 d1 18 ef 3f 10 f5 17 40
       0.630929 2.1405528 1.8679448 2.3743324
0000f0 7e cd 75 3f cf 25 63 3f 91 b6 c5 3f 21 6f 8b 3f
       0.9601668 0.88729566 1.544634 1.0893289

0.features.2.0.block.1.0.weight f4 [32, 64, 1, 1]
000000 5d 91 22 be 3e b4 79 3d a3 37 2c 3e 87 f5 d6 be
       -0.15875764 0.060962908 0.16818099 -0.41984197
000010 0e 4b 8b 3e c0 18 24 be bd de db bd d2 ab a1 3e
       0.272057 -0.16025066 -0.10735843 0.315764
000020 20 57 36 be 3d 1f c5 3e 39 9d 77 be 04 92 9c bd
       -0.17806673 0.38500395 -0.2418107 -0.07645038
000030 c4 5f c9 3c bf 86 23 be 58 09 25 3d 4d 89 de 3e
       0.024581797 -0.1596937 0.040292114 0.43464127
000040 55 43 23 bc 1e 16 5d 3e 4a b8 0b bf d0 78 cb 3d
       -0.009964784 0.21590468 -0.5457808 0.099351525
000050 28 35 6c 3d da 36 07 3f 05 d6 e7 3e 5d 25 9b be
       0.05766788 0.5281807 0.4528047 -0.30301943
000060 52 ca c4 3e fa ed a1 be 2a d0 cd bb 38 18 d0 be
       0.38435608 -0.31626874 -0.0062809186 -0.40643477
000070 5e 1f 13 3d c9 35 9a bd 38 92 e8 3e e8 c6 80 3e
       0.035918586 -0.0752979 0.45424056 0.25151753
000080 4d 75 50 bd bd 77 a6 be 78 45 1c 3e 3f 85 86 3e
       -0.050893117 -0.32513228 0.15260875 0.26273534
000090 7a 40 f6 bc 6b d5 08 3e 69 4b 11 bd e1 1b 84 be
       -0.030060042 0.13362662 -0.035472307 -0.2580252
0000a0 95 28 e9 be c0 6e 55 3d 82 1e 57 3e ea 25 7a be
       -0.45538774 0.052107573 0.21007732 -0.24428526
0000b0 c4 89 80 ba ca c0 9e bd 93 14 14 bd a1 38 6c bc
       -0.0009806682 -0.07751615 -0.036152434 -0.014417798
0000c0 b7 13 9b 3e 21 23 9e be b9 53 08 3f 86 b5 83 be
       0.3028848 -0.30886176 0.5325275 -0.2572443
0000d0 97 25 28 bd ce 1f 6e be be 2d dd 3e f2 9c 54 3d
       -0.041051473 -0.2325432 0.4319896 0.051907487
0000e0 f9 e3 bf 3e 0b 6c 4f 3e 0c 5f 09 bf 23 e4 1a bd
       0.37478617 0.20256059 -0.53660655 -0.037815224
0000f0 2c 5b f0 3e 6e 6c f2 3e a2 51 c6 bc 2f 4a 1d 3e
       0.4694456 0.4734835 -0.024208847 0.1536033
000100 57 47 c9 bd e7 26 d5 3d 1d d8 e2 3b fe 54 28 3e
       -0.0982806 0.10407811 0.0069227354 0.16438672
000110 83 a5 af be 12 f3 90 3d fa 3a 91 bd a2 70 36 3e
       -0.34305963 0.07077612 -0.07091327 0.17816404
000120 8c ad 3e 3e 2f 71 b5 bd dd d2 df 3e 9a 8c a0 3e
       0.1862089 -0.08859479 0.43715563 0.3135727
000130 ed 25 44 3e c4 ca 78 3e 92 b0 16 3e e6 d2 05 bf
       0.19155093 0.24296099 0.14715794 -0.5227493
000140 f2 66 ce 3e ba 6b ea 3e e2 6f 52 3d 5e 49 d7 bd
       0.40312916 0.45785314 0.05137623 -0.105120406
000150 70 0f 90 be 7e 70 eb bd 1e 98 29 ba 27 3f 11 be
       -0.28136778 -0.114960656 -0.00064695056 -0.14184247
000160 fb e5 12 3e 25 c0 14 3f d0 b2 53 3e a7 23 93 3d
       0.14345543 0.5810569 0.2067368 0.071845345
000170 04 43 bc 3d 5e 2a 1e be c4 57 d4 3c 4d fb cc 3e
       0.0919247 -0.1544585 0.025920756 0.40035477
000180 32 f9 40 3e ac df 92 bd 9d 1e f5 bd 78 d5 f0 3d
       0.1884506 -0.07171568 -0.1196873 0.11759466
000190 a0 1d b9 3d e0 df cd bd e5 40 f4 3d 74 11 02 3f
       0.09038854 -0.100524664 0.1192644 0.5080788
0001a0 4c 93 2a 3f 46 12 ce bd 8a ef 01 3f 1a 1c a1 bd
       0.6663101 -0.10062079 0.5075613 -0.07866688
0001b0 65 03 82 3e 1a 2a 16 3e 5c e3 a1 bb e7 e8 a2 be
       0.25393215 0.14664498 -0.0049404334 -0.31818315
0001c0 2a 79 82 be bd 74 b0 bc 3e f5 70 be 12 f9 25 bf
       -0.25483066 -0.02154004 -0.23531052 -0.64833176
0001d0 57 da 05 3d 82 88 a9 bb 3d 98 b9 be 75 04 56 be
       0.03267893 -0.0051737437 -0.3624896 -0.20900138
0001e0 d1 9f 60 bc aa e0 27 3e 9d f4 a6 3c bf cd af be
       -0.013709978 0.16394296 0.020380313 -0.3433666
0001f0 03 26 91 be 86 29 5a 3c 85 8b 87 bd a0 73 f3 3d
       -0.28349313 0.013315564 -0.06618408 0.11887288
000200 f7 32 9e ba fa 9e 0e 3e e9 29 5c 3e 92 46 10 be
       -0.0012069632 0.13927832 0.21500362 -0.1408942
000210 11 8f 0a be 00 08 29 3e 40 4c 49 bd 8b 13 a7 3e
       -0.13531138 0.16506958 -0.049144983 0.32632098
000220 4a 43 8c be 3a f2 c6 3d 67 6c 1b 3e 8b 62 00 be
       -0.27395087 0.0971417 0.15178071 -0.12537591
000230 a0 f6 52 3e 28 26 96 3e 08 2d bc 3e 98 93 3f 3e
       0.20601892 0.29325986 0.36753106 0.18708646
000240 d0 08 91 be ad 76 a9 3d 87 52 aa 3d 2c f6 10 3d
       -0.28327036 0.08274589 0.08316522 0.035391018
000250 33 a6 2d bd 2c 1c 09 bd c3 28 69 be 01 6d 08 bd
       -0.042394828 -0.033474132 -0.22769456 -0.03330708
000260 2e bd 94 bd 1a 97 05 3e 95 d9 1d be 0e 95 0d be
       -0.07262646 0.13045922 -0.15415032 -0.13826391
000270 98 eb b7 3e 7d 16 c2 be 02 24 a3 3e 00 9d 02 bd
       0.3592193 -0.37907782 0.3186341 -0.031888008
000280 81 d3 84 3c 52 3e d2 bd 0d 76 80 be b7 72 9e be
       0.016214134 -0.10265793 -0.25090066 -0.30946895
000290 5e d7 5c bd 8d 48 3b bd 8b a4 0f 3d 7c 37 48 be
       -0.053916328 -0.045723487 0.03506903 -0.19552416
0002a0 67 3e 86 bc c1 4e 49 be b1 a3 1d be 9e 2a d5 3c
       -0.016387178 -0.19658948 -0.15394475 0.026021298
0002b0 cb 17 83 3e c8 ef 9a bd 09 bb 19 3e f2 0f 93 3e
       0.2560409 -0.07565266 0.15012754 0.28723103
0002c0 77 96 b8 bd 5f 72 9a bd 9d 54 73 bc a4 5a c5 be
       -0.09013074 -0.07541346 -0.014851716 -0.38545716
0002d0 8f 0b fc 3d 01 68 9b bd 92 58 73 3c 50 bd 8d bd
       0.12306892 -0.075881965 0.01485266 -0.06920874
0002e0 f6 d6 b8 be c9 25 08 be 37 35 0a 3d ed 29 2e be
       -0.36101502 -0.13295664 0.033742156 -0.17008181
0002f0 89 f6 8a 3d 72 28 d9 3d 7c 65 9c 3d 80 1b 1b be
       0.06785304 0.106034175 0.07636544 -0.15147209
000300 ef 1f 96 be a5 52 bf 3e 48 ca e7 be 39 bb 90 be
       -0.29321238 0.3736774 -0.45271516 -0.2826784
000310 80 21 06 bd 4c d3 a1 3e 4f f4 c2 3e 58 26 06 be
       -0.03274679 0.3160652 0.38077018 -0.13100564
000320 8a 67 3b 3e 6d 60 f7 bd 03 2a 78 be c7 d7 86 3e
       0.18301216 -0.12078939 -0.24234776 0.263365
000330 f3 89 b3 3e f2 df f3 be 59 b3 9b be 8e e8 f6 bd
       0.35066184 -0.47631794 -0.3041027 -0.12056075
000340 65 64 21 be 7a cf bb bd 68 f8 87 be cd bb 4d be
       -0.15760954 -0.091704324 -0.26556706 -0.20091172
000350 18 18 19 3e b4 5e 55 3e d5 63 a1 bd 34 4e bc 3c
       0.14950597 0.20836908 -0.078803696 0.022986509
000360 75 50 dd 3c 58 3c 5c 3e f3 a6 66 3e 54 db 9e 3e
       0.027015904 0.21507394 0.22524624 0.3102671
000370 e8 70 e0 bd 15 87 9a be 52 ea 93 bd 46 18 11 3e
       -0.10959035 -0.30181184 -0.072224274 0.14169416
000380 46 c8 8c be d7 e2 18 3e b8 e1 39 be 7a 8f 84 be
       -0.27496547 0.14930283 -0.18152511 -0.25890714
000390 79 37 40 bc 1c e9 75 3e 06 2a 7f 3e fa a9 d0 3c
       -0.011731976 0.24014705 0.24918374 0.025471676
0003a0 f5 b3 1e be c6 39 ac 3e 12 67 1a 3f 34 cd 41 be
       -0.15498336 0.33637828 0.6031352 -0.18925935
0003b0 31 12 69 bd e6 ed d6 bd 4d 62 52 3e 6f 00 2f 3e
       -0.056902114 -0.10494594 0.20545311 0.17090009
0003c0 24 f8 6f 3c 8d d5 10 3e b2 c3 3d 3e 56 bc 62 3e
       0.014646564 0.14143963 0.18531683 0.22142157
0003d0 2f 0b 66 bf 54 f4 bf 3d a1 39 ad 3e 45 25 f8 be
       -0.89860815 0.09372774 0.3383303 -0.48465934
0003e0 de 98 02 3f 8a c7 9f bd e0 d9 20 3e 00 4c ba 3e
       0.51014507 -0.07801731 0.15708113 0.36386108
0003f0 41 af b8 bd 5f 2e 14 be a8 84 53 3e a5 9e db bc
       -0.09017802 -0.14470814 0.20656073 -0.026809046

0.features.2.0.block.1.1.weight f4 [32]
000000 7b 4c 86 3f 3b e3 6c 3f 1b dd 80 3f b5 d9 80 3f
       1.049209 0.92534226 1.0067476 1.0066439
000010 46 f6 76 3f e5 b7 7a 3f 58 fc 7a 3f 37 e5 6f 3f
       0.96469533 0.9793685 0.98041296 0.9370913
000020 2c 45 6d 3f fd be 79 3f 87 6a 81 3f 7e e9 7a 3f
       0.9268367 0.9755705 1.0110635 0.9801253
000030 79 a1 6d 3f 70 e7 81 3f 32 5a 85 3f 81 e2 7b 3f
       0.9282451 1.0148754 1.041815 0.9839249
000040 dc ae 59 3f 1f 57 73 3f d4 2e 84 3f ea e1 76 3f
       0.8503244 0.9505481 1.0326791 0.9643847
000050 77 8a 82 3f 69 a2 7c 3f 01 a4 80 3f 70 e9 81 3f
       1.0198506 0.9868532 1.005005 1.0149364
000060 a1 16 87 3f 65 2d 7b 3f 14 05 84 3f fc 67 83 3f
       1.0553781 0.9811614 1.031405 1.0266109
000070 ad 9b 6c 3f 23 9d 81 3f 75 a5 77 3f 7c 7e 73 3f
       0.9242504 1.0126079 0.9673684 0.95114875

0.features.2.0.block.1.1.bias f4 [32]
000000 d5 dc 43 bc 55 af 84 3a 26 ce e6 bc 01 46 da 3d
       -0.011954506 0.0010123054 -0.028174471 0.106578834
000010 3a e1 36 3d b3 31 df bc 04 52 19 bc 79 2e 7b bd
       0.044648387 -0.027245378 -0.009357933 -0.061323617
000020 ab a6 a2 3c 30 a7 32 3d 56 23 5a 3c de 1b 1c 3d
       0.019854864 0.043616474 0.013314089 0.038112514
000030 f9 21 a7 bc 82 e1 d4 3c 0b 8a 15 3c f9 39 15 3c
       -0.020401942 0.025986437 0.00912715 0.00910806
000040 44 bd 52 bd 23 18 c9 bb 86 a1 c0 bc 01 11 86 3d
       -0.05145003 -0.0061369105 -0.02351452 0.06546212
000050 6e d8 94 bc f5 95 54 3d c9 55 a5 bb d0 58 31 3d
       -0.018169608 0.051900823 -0.005045627 0.04329759
000060 39 4a d0 bc 68 94 09 3c 39 96 74 3d 71 84 17 3d
       -0.025426017 0.008397199 0.059713576 0.03699154
000070 f4 5c 93 3c c4 b2 86 bd 8b 79 79 3b 9d 68 15 3d
       0.01798866 -0.065770656 0.003806683 0.03647672

0.features.2.0.block.1.1.running_mean f4 [32]
000000 91 30 7c 3e 71 6c 1f 3f 9b 58 72 be dc dd b4 3d
       0.24627902 0.62274843 -0.23666613 0.08831379
000010 a0 d1 29 3e d0 5e 16 be 83 11 73 3e 45 46 32 be
       0.16583872 -0.14684606 0.23737149 -0.17409618
000020 96 9b 3d bf 3a 11 d8 be e5 dc ae bd 91 46 68 be
       -0.7406553 -0.42200643 -0.08538226 -0.22683169
000030 0b 04 99 3e e5 e1 0c 3d c8 c9 32 3d e2 ce 1c 3f
       0.29885897 0.034395117 0.043649465 0.6125318
000040 c6 04 43 3f 55 df e6 be 7e 0c a0 be b9 ed a5 3d
       0.7617916 -0.45092264 -0.3125953 0.081019826
000050 20 9f 96 3e 84 05 0d bf d5 ce b9 be 5a f3 cf bd
       0.29418278 -0.5508654 -0.36290613 -0.101538375
000060 3d 9a b4 be a4 dd b7 3d 89 10 ac bd 31 fc 1d bf
       -0.35273924 0.089778215 -0.08401591 -0.6171294
000070 db 39 8d bd 18 27 2b 3e 33 25 a7 bf 59 2e 2f be
       -0.06895801 0.16714132 -1.3058227 -0.17107524

0.features.2.0.block.1.1.running_var f4 [32]
000000 fa 6b eb 40 0b ec e8 3f 11 dc 81 3f d7 f1 93 3f
       7.3569307 1.8197035 1.0145284 1.1558179
000010 5c 94 cf 3f 08 71 d5 40 07 f4 00 41 05 8f ab 3f
       1.6217151 6.6700478 8.059577 1.3403021
000020 54 83 ec 3f 15 0c 19 3f 99 79 3f 40 46 45 ed 3f
       1.8477578 0.5978406 2.9917967 1.8536766
000030 3f 9a 08 40 5f 50 b0 3f 95 85 7e 40 4c ad 0b 40
       2.1344144 1.3774527 3.9769032 2.1824522
000040 2f 2a 11 40 6f fe a6 40 6c 90 c2 40 26 f7 85 3f
       2.2681997 5.218559 6.0801296 1.0466049
000050 f5 21 a3 3f 40 cc 31 40 e0 77 49 3f f2 bf 53 40
       1.2744738 2.7780914 0.7869854 3.3085904
000060 b2 d3 44 3f c8 a8 1c 40 dc 9e 81 40 c5 ca 3e 40
       0.7688552 2.4478016 4.050642 2.981126
000070 3d 38 f3 3f 69 29 76 40 97 85 5f 40 43 a1 93 40
       1.9001538 3.8462775 3.4925287 4.6134353

0.features.3.0.block.0.0.weight f4 [128, 32, 1, 1]
000000 3b 12 0c 3e 39 69 2c 3e f3 d8 14 3d e8 3d 42 bd
       0.1367883 0.16837014 0.03633971 -0.04742232
000010 e9 e2 f0 bd 71 ad 16 be 34 39 89 3d 3a c0 97 3e
       -0.1176203 -0.147146 0.06700364 0.29638845
000020 d7 6d 1b bd e9 a6 33 be dd c4 58 bd ee 8f 99 3c
       -0.03794655 -0.1754414 -0.05292212 0.018745389
000030 da c0 c6 bd e2 f9 9b 3d 8e 81 a6 3d 92 97 25 3e
       -0.09704752 0.07616021 0.08130179 0.161711
000040 66 28 c5 3d c1 1e 15 3e 3f 60 85 be ba 55 f7 bc
       0.09626846 0.14562513 -0.26049992 -0.030192245
000050 4b a9 b8 bc 5c 90 35 be 76 37 e4 bc 1b 3d 9e 3c
       -0.022541663 -0.1773085 -0.027858477 0.019316247
000060 a6 61 f9 3d cf 5f f7 3c d8 e5 bd 3d d0 69 60 3e
       0.12176828 0.030197052 0.09272355 0.21915364
000070 c1 6c ff 3d e3 73 9d 3d c0 d8 24 3d f4 ce f2 bd
       0.12471915 0.07688119 0.04024577 -0.118558794
000080 f9 9c 22 be d2 3a ba bd bc b3 55 3d 70 7f 36 3e
       -0.15880193 -0.0909325 0.05217336 0.17822051
000090 78 2e 3d be a0 dc ce 3d 89 e9 94 bc a7 50 1b 3e
       -0.18474758 0.10100675 -0.018177764 0.15167485
0000a0 1d 24 44 3e c4 00 ae bd 58 29 ff bc 80 22 78 3b
       0.19154401 -0.0849624 -0.031147644 0.003786236
0000b0 62 59 05 3e 02 ea 94 3c d7 45 39 be 6e db 98 3d
       0.13022378 0.01817799 -0.18093048 0.07463728
0000c0 5e ff a9 bd eb 1d 08 3c 07 ff 0e 3d 68 7a 43 3c
       -0.083006606 0.008307914 0.03491118 0.011931039
0000d0 03 7a a8 bc ea ff 76 be a0 9c 06 be 9c 70 13 3c
       -0.020565992 -0.24121061 -0.13145685 0.008999016
0000e0 d6 a4 07 3e 61 55 fd bd 33 01 18 3d 6b 54 08 bd
       0.13246474 -0.123698 0.03711052 -0.033283632
0000f0 cb 0f c8 bd 53 b7 d4 3c 1a 9c f9 ba ba 34 06 bd
       -0.09768637 0.025966322 -0.0019043714 -0.032765128
000100 21 9a e9 bd 3e bb 02 be ea e9 07 3c 70 2b 88 bd
       -0.11406351 -0.1276674 0.008295516 -0.0664891
000110 48 c5 3f be f5 08 f3 3d 53 4c 7a be 42 f0 2e 3e
       -0.187276 0.11866943 -0.24443178 0.17083839
000120 9d f1 82 bd 64 d1 ea 3d 8a cb 7b 3e c4 28 24 bc
       -0.0639374 0.11465719 0.24589363 -0.010019485
000130 be 8e 23 be d8 66 de 3d b6 7b c5 3d 1e 39 8c bd
       -0.1597242 0.1085946 0.096427366 -0.06846832
000140 3f 29 12 3e 82 d1 43 3d b2 bc 1f 3e c6 37 79 3b
       0.14273547 0.047807224 0.15599325 0.0038027628
000150 fc 55 13 3e 3c 68 e7 3d b8 ad 47 be 1a 52 7f bd
       0.14388269 0.11299178 -0.19499862 -0.062334158
000160 fc 25 63 3e fa 71 06 be 5a ff 23 be 50 51 1f 3e
       0.22182459 -0.13129416 -0.16015378 0.15558362
000170 82 0b a6 3d d1 07 42 3c cc 7f 99 bb 51 e2 21 be
       0.08107664 0.011842684 -0.004684424 -0.15808989
000180 62 67 04 3e 0a 89 43 be 4c e8 1f 3e 8f 11 91 bd
       0.12930062 -0.19095245 0.15615958 -0.07083427
000190 8e bf 69 be 0d 48 fd bd b1 c0 0a be b1 84 0e be
       -0.22826979 -0.12367258 -0.13550068 -0.13917805
0001a0 dc 4c 33 be 12 0e 63 be f9 4e cb bd 75 a2 c9 bd
       -0.17509788 -0.22173336 -0.09927172 -0.09845439
0001b0 89 9a 66 be 58 da ca bd ff 2e d7 3d 3c e9 14 3e
       -0.22519888 -0.09904927 0.10507011 0.14542097
0001c0 7a c0 1d 3e 53 4f 31 3d bf ed d4 bd 49 cf 3c 3e
       0.15405455 0.04328854 -0.10396909 0.18438448
0001d0 e6 f1 1b 3e bf cb 0c bd c3 5f 81 be fe 80 5a 3d
       0.15228996 -0.034373995 -0.25268373 0.053345673
0001e0 fd 55 4b bd 8f 6b 90 bd 19 c3 d7 3c c2 c5 89 bd
       -0.04964255 -0.07051765 0.026338147 -0.067271724
0001f0 4e ee 7c be 35 cb c3 3d f1 fe 70 3e 45 73 09 bc
       -0.24700281 0.09560243 0.23534752 -0.008389299
000200 55 6b 7e 3d e3 5d 87 bd a5 27 94 ba ff 2b 08 3e
       0.06211408 -0.06609704 -0.0011303319 0.13298033
000210 11 27 fe 3c 42 ae 93 bd 36 7f bf 3d 7a e3 2f bd
       0.031024488 -0.072109714 0.093504354 -0.042941548
000220 dc 93 bd bd aa f5 d8 3d 8d 59 60 bc 4b 02 bc 3c
       -0.092567176 0.10593732 -0.013693226 0.022950312
000230 41 99 80 bd b6 06 9d 3d 83 b9 f7 3d b3 73 0c 3b
       -0.06279231 0.07667296 0.120959304 0.0021431267
000240 bb dd b1 bd da bf cf bc 8b 13 48 be 70 e3 53 bb
       -0.0868487 -0.025360037 -0.19538705 -0.0032331608
000250 bf 9e 13 be 40 15 00 be 59 bb 0f be 84 b2 47 3e
       -0.14416026 -0.12508106 -0.14036311 0.19501692
000260 43 bc 1d bd ff 12 39 3c f9 3c a8 bd 25 95 84 bc
       -0.03850962 0.011296033 -0.082147546 -0.016184399
000270 d4 cf 4c 3e c2 0e f2 3d 71 6f 9f 3e c8 c7 c9 bd
       0.20001155 0.11819221 0.3113971 -0.098525584
000280 16 37 63 3e 7d 08 79 be 34 22 91 bd 46 8a e8 bc
       0.22188982 -0.24319644 -0.07086602 -0.028386246
000290 4d 09 5d 3e 21 74 58 bd 85 9d 77 3d 18 d2 47 bd
       0.21585579 -0.052845124 0.060452957 -0.048784345
0002a0 b0 ab 17 3e dc e6 f7 bd 92 3f e9 3c ff 9b a2 3e
       0.14811587 -0.1210458 0.028472695 0.3175964
0002b0 1e 9c 04 be 84 2e 9a bd 7a d9 12 3c 2f b4 1f be
       -0.12950179 -0.075284034 0.008962983 -0.15596078
0002c0 0d 34 2c be 2e 79 94 3c 57 0b 1a 3d 02 68 95 3e
       -0.16816731 0.01812419 0.03760847 0.29180914
0002d0 e7 07 8a 3e 1d 25 9a be 01 6a 56 3e d8 a1 85 3c
       0.26959154 -0.3010644 0.20938875 0.016312525
0002e0 e7 7e f0 3c 3c 75 b3 bd 19 82 a0 bd 8b fc 9f be
       0.029357387 -0.08762595 -0.07837314 -0.31247362
0002f0 a5 a2 b6 bd 5f 4f 5b 3e 91 62 42 3e c9 e6 4b bd
       -0.08917741 0.21416996 0.18982913 -0.04978064
000300 4b f1 b4 3d 1f f9 b1 bd e6 34 44 3d 66 c2 0c 3e
       0.088350855 -0.08690094 0.04790201 0.13746032
000310 3b c6 60 3c e7 26 6e bc e0 21 dc bc 19 d7 3c 3b
       0.013719137 -0.014535642 -0.026871622 0.0028814732
000320 f0 15 bc 3d 86 09 f7 bd 55 1a bc bc 79 b2 5b bd
       0.09183872 -0.12062363 -0.022961775 -0.053637
000330 f6 94 be 3d f9 ca 2d 3c f8 c9 59 bc 52 8c 21 3e
       0.09305756 0.0106074745 -0.013292782 0.15776184
000340 12 06 3e 3d b8 a1 10 be b2 8a e7 bd c9 b0 0a 3e
       0.046392508 -0.14124191 -0.11305751 0.13544
000350 1a 05 67 3d 16 d9 1d bc 58 a3 f4 bd 76 9f 3c bd
       0.05640135 -0.009634277 -0.11945218 -0.04605051
000360 c4 3b 78 bd 02 1a 29 be ce 68 d7 3d 24 4a 25 be
       -0.060603872 -0.16513827 0.10518037 -0.16141564
000370 14 c4 2d be 42 33 13 bd 26 f6 25 3e 27 04 54 3e
       -0.16969329 -0.035937555 0.1620718 0.20704709
000380 50 61 88 bd 0a 4c 1f be 15 ab 70 bd ac e2 02 3e
       -0.06659186 -0.1555635 -0.058756907 0.12781781
000390 10 bd 95 bd fb b1 38 3e 0b 86 03 be c0 c2 6b 3d
       -0.073114514 0.18036644 -0.12844102 0.057558775
0003a0 76 dd f9 bd 72 66 fc 3c 9d 3a d9 3c cb 5f 07 3e
       -0.122004434 0.030810568 0.026517207 0.13220136
0003b0 a3 f3 1c 3d ac ef 83 bd ef cd 0b 3e 36 26 8e bc
       0.038318288 -0.06442198 0.13652776 -0.017352205
0003c0 f0 40 0e be 09 9f 2f bc 20 5e 3c bd 90 20 f9 bb
       -0.13891959 -0.010719069 -0.045988202 -0.0076027587
0003d0 96 5b 9c 3d b4 d1 bf bd d7 a8 52 be dc 99 15 bd
       0.07634656 -0.093661696 -0.2057222 -0.036523685
0003e0 c4 b3 45 bd c6 11 75 3d 66 98 18 3e 7b f6 89 3c
       -0.04826714 0.059831403 0.14901885 0.016841164
0003f0 6f b8 6e be 08 74 64 bd a1 95 ce bd 09 8b 6c 3d
       -0.23312543 -0.05577472 -0.10087133 0.05774978
