code/modeling/ckpt/AutoencoderConfig([1, 1, 1], flip=False, rotate=False)/autoencoder_30000.pth (torch, 346670 bytes, 68 tensors)

0.features.0.0.weight f4 [16, 8, 3, 3]
-0.07595234 0.012422132 -0.06630791 0.015178913 0.13558775 -0.012577412 0.07529584 0.059432212
-0.011892663 0.003755027 -0.056815136 -0.0020331363 0.020355936 0.0030305672 -0.03244211 -0.0873224
-0.13634384 -0.18954462 0.039106686 -0.067910045 -0.0061350963 -0.037175916 -0.045819286 -0.02888009
0.004556144 -0.045519833 -0.03485139 -0.11639351 0.13159585 -0.10525679 0.026550477 0.35242984
0.16118458 -0.12650752 0.34571564 -0.08818294 -0.15665339 0.051342767 -0.08910045 0.051465623
0.092217065 -0.019155482 0.0028881968 0.15545288 -0.019926934 -0.071474746 0.07079173 -0.017643955
0.010936287 0.068477355 0.001859779 0.037570115 0.079162076 -0.00090292894 -0.030016623 0.08147609
-0.0011540639 0.004041052 0.0418624 -0.010728326 -0.0043217815 0.034790486 0.03544481 0.042807303
0.021201007 0.011657169 0.014494831 -0.019240106 -0.050078366 -0.032750487 -0.08523714 0.06958616
0.0126784295 -0.043309666 0.078158796 0.03932208 -0.11409818 0.0071785743 0.050261047 -0.06616049
-0.0027040998 -0.002019991 -0.15854283 -0.0408506 -0.11137484 -0.28319734 -0.20640473 -0.053165898
-0.052829742 -0.12881656 0.005601311 -0.08383356 -0.045153078 0.017082589 -0.1481103 -0.029900692
0.0150972055 0.012102729 -0.046123285 0.060088784 -0.02603662 -0.06641761 -0.050562076 0.025093896
-0.06517155 0.035546046 0.08314308 -0.0047989585 -0.010777988 0.026102517 0.035204865 0.05218409
-0.065008834 -0.016405415 -0.07268593 0.01742229 0.0021913685 0.043436885 0.00042708672 -0.019212259
0.011080952 0.022476748 0.0066939215 0.06663553 0.0068774074 -0.04310561 -0.06275188 0.051342987
-0.024762025 -0.06189206 -0.03959865 0.011659691 -0.04236308 0.083092816 0.019466285 0.027814418
0.11884285 0.02754261 0.07182011 0.0016924839 0.03241163 -0.048044775 0.0875869 0.042357333
-0.12263897 0.037204083 -0.045946527 0.092110835 0.19154131 0.044780046 -0.124609075 -0.07114215
-0.025106352 -0.037568536 0.019693835 -0.03282771 0.034640078 0.24243326 0.08019738 -0.024813768
0.06433877 -0.007990218 -0.008187985 -0.0075717447 -0.00012877294 -0.013332878 -0.042658754 0.010885579
0.00026823083 0.016669825 -0.01560548 0.030265436 0.04113458 0.021988995 -0.050853383 0.036702275
0.12733711 -0.010999311 -0.05445507 0.011014445 0.014110496 -0.035335016 -0.027585736 -0.09071133
-0.0775156 -0.009605005 -0.031944327 -0.029175488 0.015577732 0.009843025 -0.119573005 -0.023640247
-0.09456511 -0.11686284 -0.010428933 0.03456686 -0.071387455 -0.026377067 -0.028588258 -0.0034066376
0.047729187 -0.1431285 -0.06224515 0.036050636 -0.009042719 -0.0034825301 0.04943915 0.11744027
0.028939107 0.017619975 0.003270496 -0.00941275 -0.048922233 0.07286597 0.03403371 0.019718835
-0.0813416 0.06487664 -0.115219235 0.0029642514 -0.058555994 0.12040044 0.016524868 -0.0093112495
-0.07868342 0.023439204 0.0006664639 -0.025695538 -0.013153295 -0.0043498995 0.05220009 -0.016908145
0.0218739 -0.013786484 0.038903315 -0.017908635 0.018182829 0.03021528 0.08950144 0.037861127
0.04877528 0.08988758 0.03101411 0.021241797 -0.072461665 -0.024023546 -0.034389593 0.036782112
-0.08199941 -0.048249107 -0.114481516 -0.0010329532 0.009970455 0.029724395 -0.019444475 0.014333721
00000000: e78c 9bbd 3386 4b3c 71cc 87bd fab0 783c
00000010: 84d7 0a3e 7d11 4ebc b534 9a3d 316f 733d
00000020: 72d9 42bc e616 763b fdb6 68bd 5e3e 05bb
00000030: 7ec1 a63c 7b9c 463b 05e2 04bd 16d6 b2bd
00000040: b89d 0bbe fc17 42be 552e 203d 6c14 8bbd
00000050: eb08 c9bb c645 18bd 01ad 3bbd f095 ecbc
00000060: b54b 953b 0173 3abd 55c0 0ebd b85f eebd
00000070: 10c1 063e df90 d7bd 6380 d93c af71 b43e
00000080: 920d 253e 308b 01be a401 b13e 4299 b4bd
00000090: bf69 20be cb4c 523d 4c7a b6bd 9ecd 523d
000000a0: 4ddc bc3d f5eb 9cbc e747 3d3b 0a2f 1f3e
000000b0: cf3d a3bc 5a61 92bd 41fb 903d 0e8a 90bc
000000c0: 1d2e 333c db3d 8c3d d4c3 f33a 1fe3 193d
000000d0: ba1f a23d 89b2 6cba 6ce5 f5bc f0dc a63d
000000e0: f543 97ba cd6a 843b e877 2b3d dcc5 2fbc
000000f0: bb9d 8dbb 7880 0e3d 942e 113d b656 2f3d
00000100: bcad ad3c b6fd 3e3c ba7b 6d3c 6d9d 9dbc
00000110: f91e 4dbd 6025 06bd cf90 aebd 3083 8e3d
00000120: 30b9 4f3c 7a65 31bd b811 a03d 3010 213d
00000130: 4eac e9bd 3f3a eb3b 87de 4d3d 277f 87bd
00000140: 4437 31bb d361 04bb 0d59 22be f552 27bd
00000150: 7e18 e4bd 3eff 90be c35b 53be 7cc4 59bd
00000160: 0064 58bd 7de8 03be 348b b73b eeb0 abbd
00000170: 6ff2 38bd c9f0 8b3c 3aaa 17be 4cf2 f4bc
00000180: 455a 773c 864a 463c c5eb 3cbd a81f 763d
00000190: c04a d5bc f505 88bd 2e1a 4fbd b791 cd3c
000001a0: a978 85bd bb98 113d eb46 aa3d 9540 9dbb
000001b0: 2896 30bc f2d4 d53c fa32 103d fcbe 553d
000001c0: 5a23 85bd a664 86bc 5cdc 94bd 31b9 8e3c
000001d0: 109d 0f3b e0ea 313d 9cea df39 0763 9dbc
000001e0: e28c 353c 2821 b83c af58 db3b 3578 883d
000001f0: e05b e13b 828f 30bd 0f84 80bd 064d 523d
00000200: bbd9 cabc 8782 7dbd 3232 22bd 4a08 3f3c
00000210: e984 2dbd 912c aa3d c277 9f3c 10db e33c
00000220: e163 f33d 0aa1 e13c 6c16 933d 56d6 dd3a
00000230: 0fc2 043d 99ca 44bd c360 b33d e27e 2d3d
00000240: 242a fbbd 4f63 183d 6d32 3cbd 9ba4 bc3d
00000250: 6823 443e 486b 373d 0b33 ffbd fab2 91bd
00000260: d6ab cdbc 77e1 19bd f754 a13c 5976 06bd
00000270: c1e2 0d3d 6d40 783e 863e a43d 3e46 cbbc
00000280: 0cc4 833d 67e9 02bc e626 06bc 661c f8bb
00000290: 3907 07b9 2572 5abc f2ba 2ebd 6d59 323c
000002a0: 55a1 8c39 288f 883c 21ae 7fbc 38ef f73c
000002b0: bc7c 283d 4422 b43c a34b 50bd 2055 163d
000002c0: a964 023e 7436 34bc 480c 5fbd ee75 343c
000002d0: b62f 673c 73bb 10bd 7bfb e1bc ddc6 b9bd
000002e0: 80c0 9ebd 505e 1dbc 0ed8 02bd 6f01 efbc
000002f0: be39 7f3c a444 213c b1e2 f4bd 31a9 c1bc
00000300: 5aab c1bd c955 efbd 1ede 2abc fb95 0d3d
00000310: 9633 92bd b814 d8bc ec31 eabc e541 5fbb
00000320: ae7f 433d 4790 12be c5f4 7ebd d5a9 133d
00000330: ea27 14bc 293b 64bb b580 4a3d 8684 f03d
00000340: b511 ed3c c457 903c d155 563b ef37 1abc
00000350: ae62 48bd c13a 953d ee66 0b3d 6589 a13c
00000360: 6d96 a6bd 0bde 843d 10f8 ebbd e343 423b
00000370: 69d8 6fbd 8294 f63d 295f 873c 368e 18bc
00000380: c624 a1bd 9303 c03c a3b5 2e3a 737f d2bc
00000390: eb80 57bc 9a89 8ebb c3cf 553d f382 8abc
000003a0: e530 b33c b4e0 61bc 1559 1f3d 21b5 92bc
000003b0: 28f4 943c 0986 f73c 884c b73d 4514 1b3d
000003c0: 97c8 473d fb16 b83d 4e11 fe3c 4703 ae3c
000003d0: c866 94bd 07cd c4bc 1adc 0cbd d7a8 163d
000003e0: 4fef a7bd dba0 45bd 4975 eabd 2864 87ba
000003f0: 1f5b 233c 9380 f33c 054a 9fbc fcd7 6a3c

0.features.0.1.weight f4 [16]
0.48355442 0.6900554 0.37180603 0.28504112 0.4952251 0.51359403 0.52363056 0.48735017
0.5809801 0.7401905 0.60056245 0.55441356 0.96253973 0.5055409 0.19342975 0.3435724
00000000: 7294 f73e 78a7 303f 5c5d be3e e9f0 913e
00000010: 258e fd3e e67a 033f a70c 063f f685 f93e
00000020: 1dbb 143f 207d 3d3f 76be 193f 0cee 0d3f
00000030: 0169 763f 216b 013f 7312 463e b9e8 af3e

0.features.0.1.bias f4 [16]
0.097345516 -0.13490531 1.3174082 0.64929 0.04154679 0.043137807 0.4183831 0.46794167
0.9949176 1.0109276 0.012654803 0.62182426 -0.69437945 0.26745948 1.2874477 0.6811593
00000000: 165d c73d 9e24 0abe d5a0 a83f df37 263f
00000010: f82c 2a3d 45b1 303d 4f36 d63e 0d96 ef3e
00000020: ebb2 7e3f 1366 813f 1756 4f3c e02f 1f3f
00000030: dac2 31bf 73f0 883e 16cb a43f 7560 2e3f

0.features.0.1.running_mean f4 [16]
0.00025961568 0.0005022118 0.00044258882 -8.302271e-05 -0.0006135185 0.00039481596 0.0005393549 -0.00026823836
0.000106090374 0.00038178687 -0.00056518376 -0.00064461544 -0.00023908705 0.00030868762 0.00028714203 -0.00013576135
00000000: 071d 8839 dda6 033a 440b e839 7a1c aeb8
00000010: 88d4 20ba 4dff ce39 7f63 0d3a 58a2 8cb9
00000020: d67c de38 912a c839 d728 14ba 69fb 28ba
00000030: 71b3 7ab9 5ad7 a139 8d8b 9639 295b 0eb9

0.features.0.1.running_var f4 [16]
1.0982329 1.1576604 0.29605222 0.12916347 0.28353345 0.44680443 0.6167851 0.43532237
0.662636 0.6134698 0.56097436 1.2794067 0.3226961 0.7198758 0.24518417 1.1545086
00000000: e592 8c3f 372e 943f 2894 973e 6e43 043e
00000010: 4c2b 913e 8dc3 e43e a1e5 1d3f 93e2 de3e
00000020: 83a2 293f 5b0c 1d3f 049c 0f3f 99c3 a33f
00000030: 6c38 a53e c849 383f 8f11 7b3e f0c6 933f

0.features.1.0.block.0.0.weight f4 [16, 16, 3, 3]
-0.044723548 0.08786771 0.16240896 -0.041134097 -0.2721849 0.042501986 -0.14541738 -0.049042918
0.0570545 -0.0804642 -0.14715359 -0.09540861 -0.039612077 -0.021434026 -0.017329553 -0.010047836
-0.19535832 -0.11208634 -0.0368076 0.04000638 -0.052200682 0.105034836 -0.07441576 0.019392261
-0.040806368 0.030019898 0.065404646 -0.0050209584 0.06664383 0.082182445 0.015220345 -0.059784167
0.011728657 0.044617288 0.004330572 -0.02034389 -0.15346278 0.09273024 -0.08629866 -0.03238567
-0.103932954 0.011884338 -0.008939672 -0.06800945 -0.10285593 -0.11174756 -0.042192847 -0.16033585
0.13583931 -0.019171303 -0.10622227 -0.027158847 0.03291243 -0.14693573 -0.013322493 -0.12243252
0.14625187 0.19201395 0.2693149 0.28163737 -0.018438378 0.15811199 0.16308476 0.09246373
0.21206386 0.13016841 -0.032338746 -0.04897145 0.010808164 0.027356606 -0.048894003 0.111854166
-0.01564034 0.15825284 0.0216034 0.061617542 0.23892738 0.19992174 0.08620485 -0.10929425
0.032028116 -0.03417169 -0.04909596 -0.08177451 0.09280432 0.02048854 0.025615627 -0.013932196
0.060628783 -0.00026557533 -0.01264237 -0.00494739 0.03760713 0.06481734 -0.105988964 0.037728053
0.044736367 -0.06702347 -0.070789196 -0.022372684 -0.046950273 0.07575911 -0.054638833 0.14680585
-0.051653497 -0.09306922 -0.030129742 0.09826202 0.061530404 -0.04220531 0.07920286 -0.1050092
0.12771308 -0.09795979 0.12831225 -0.1632536 0.0032945264 0.16082463 -0.21432814 -0.10146473
0.08926862 -0.16210099 0.035347614 0.0026793852 0.012420299 0.04262269 0.0502151 -0.116093166
-0.0562521 0.12962961 -0.16629782 -0.14827031 0.033971064 -0.010442231 0.1755291 -0.036247667
-0.13434345 -0.09499497 0.07839173 -0.09305283 0.22069435 0.122143924 0.07329233 0.073547065
-0.18689384 -0.096448034 -0.0369911 -0.1631162 -0.27544355 -0.10062141 0.082955085 0.014983779
-0.073659725 0.09573685 0.098911375 -0.026697643 0.2312703 0.07244634 0.39563447 -0.036375046
0.28914756 0.26902512 -0.0073461016 0.08212283 0.038206607 -0.0062834197 -0.011052524 -0.0035896543
0.15834913 -0.062057372 -0.13274097 0.058139138 -0.018374173 0.068962105 -0.09232051 -0.035918817
0.028004484 -0.021273319 0.13429406 0.025403444 0.072983935 0.10160089 0.13463996 0.0630579
0.07607329 0.0010798357 0.18285489 0.18391076 0.27246255 -0.0012090009 0.026709495 0.10998432
0.107829444 0.092533305 0.15761627 0.089557186 0.069724895 0.13141297 -0.039952923 -0.02697201
-0.0537765 0.033576827 0.15369476 -0.064693116 0.11025844 0.16803111 0.082027316 -0.04911905
-0.038533833 -0.018393632 -0.046837326 0.021645997 -0.08783118 -0.08843053 -0.056533698 -0.08239242
-0.011079929 0.008450311 -0.16741742 -0.053280335 -0.11896223 -0.05967013 -0.04125384 -0.011288368
-0.009068357 -0.020778611 0.022645023 -0.083439834 0.052306443 -0.04415468 0.03686179 0.01710469
-0.019457154 -0.03147965 -0.052985974 0.10164663 -0.011425257 0.024270589 -0.09474782 -0.038501218
0.00050696585 0.024484776 -0.09496683 0.112407364 -0.053471945 0.03359571 0.02472609 -0.03618591
0.08211793 0.012525101 0.029832795 0.025055328 0.0235197 -0.08491889 0.072455235 -0.011686765
00000000: 0a30 37bd fcf3 b33d 894e 263e 3a7c 28bd
00000010: d25b 8bbe 9016 2e3d 4be8 14be 3ae1 48bd
00000020: fbb1 693d 6aca a4bd 6eaf 16be 9765 c3bd
00000030: 4640 22bd 6996 afbc b5f6 8dbc ae9f 24bc
00000040: 030c 48be 868d e5bd 91c3 16bd bbdd 233d
00000050: 62d0 55bd 811c d73d 4a67 98bd 85dc 9e3c
00000060: 9424 27bd 4aec f53c dff2 853d da86 a4bb
00000070: 8f7c 883d 454f a83d c15e 793c 3ee0 74bd
00000080: 8e29 403c 9ec0 363d 79e7 8d3b 3ba8 a6bc
00000090: 5925 1dbe 5ae9 bd3d 5abd b0bd d6a6 04bd
000000a0: cdda d4bd 87b6 423c b477 12bc 8a48 8bbd
000000b0: 21a6 d2bd e8db e4bd 68d2 2cbd 152f 24be
000000c0: 7619 0b3e 230d 9dbc 108b d9bd 3b7c debc
000000d0: 2fcf 063d 5276 16be 9646 5abc e7bd fabd
000000e0: 0dc3 153e 4e9f 443e a4e3 893e c632 903e
000000f0: 150c 97bc 1ce8 213e b1ff 263e a05d bd3d
00000100: 4527 593e de4a 053e a275 04bd 4a96 48bd
00000110: ba14 313c f61a e03c 1445 48bd cc13 e53d
00000120: 2c20 80bc 080d 223e 9df9 b03c ad62 7c3d
00000130: 61a9 743e 49b8 4c3e 2b8c b03d aad5 dfbd
00000140: ea2f 033d 9df7 0bbd d818 49bd 6579 a7bd
00000150: 3110 be3d 95d7 a73c ddd7 d13c de43 64bc
00000160: e355 783d eb3c 8bb9 f121 4fbc b71d a2bb
00000170: ef09 1a3d f4be 843d be10 d9bd bb88 1a3d
00000180: 7b3d 373d 9a43 89bd edf9 90bd eb46 b7bc
00000190: ee4e 40bd 9827 9b3d f8cc 5fbd 4654 163e
000001a0: 9e92 53bd 139b bebd a6d2 f6bc 993d c93d
000001b0: 4e07 7c3d 7adf 2cbd 1c35 a23d 100f d7bd
000001c0: 38c7 023e 249f c8bd 4964 033e f42b 27be
000001d0: fbe8 573b 36af 243e d678 5bbe becc cfbd
000001e0: 77d2 b63d cdfd 25be a9c8 103d a098 2f3b
000001f0: 837e 4b3c 2195 2e3d 59ae 4d3d 41c2 edbd
00000200: 9a68 66bd a0bd 043e fa49 2abe 2cd4 17be
00000210: 3e25 0b3d e415 2bbc e6bd 333e 6f78 14bd
00000220: 5491 09be b98c c2bd d88b a03d 7b92 bebd
00000230: b3fd 613e 9826 fa3d 4a1a 963d d89f 963d
00000240: 1961 3fbe 8c86 c5bd fb83 17bd ef07 27be
00000250: f006 8dbe 9912 cebd 5be4 a93d 867e 753c
00000260: e9da 96bd ae11 c43d 0c92 ca3d 04b5 dabc
00000270: 1fd2 6c3e bf5e 943d 9a90 ca3e 00fe 14bd
00000280: 260b 943e a9bd 893e 91b7 f0bb 0430 a83d
00000290: 887e 1c3d 25e5 cdbb a515 35bc 6840 6bbb
000002a0: 4626 223e df2f 7ebd 40ed 07be 4e23 6e3d
000002b0: 6f85 96bc 013c 8d3d 8912 bdbd 9c1f 13bd
000002c0: a969 e53c 6245 aebc 6284 093e e21a d03c
000002d0: 9a78 953d 2114 d03d 0fdf 093e 8024 813d
000002e0: 50cc 9b3d 4689 8d3a 503e 3b3e 1a53 3c3e
000002f0: 3680 8b3e 5777 9eba dfcd da3c 763f e13d
00000300: afd5 dc3d 1a82 bd3d 2966 213e c269 b73d
00000310: edcb 8e3d 1f91 063e ada5 23bd 68f4 dcbc
00000320: bf44 5cbd db87 093d 2962 1d3e d37d 84bd
00000330: 2dcf e13d 5910 2c3e f0fd a73d 0f31 49bd
00000340: a7d5 1dbd 3eae 96bc 7fd8 3fbd f252 b13c
00000350: d5e0 b3bd 111b b5bd e18f 67bd 5bbd a8bd
00000360: 9788 35bc 2c73 0a3c 796f 2bbe 7b3c 5abd
00000370: 78a2 f3bd ab68 74bd c9f9 28bd d9f2 38bc
00000380: 7293 14bc e837 aabc 0e82 b93c 81e2 aabd
00000390: 483f 563d 8adb 34bd 63fc 163d 231f 8c3c
000003a0: 9c64 9fbc cef0 00bd d207 59bd 1c2c d03d
000003b0: 0031 3bbc 1dd3 c63c 250b c2bd 74b3 1dbd
000003c0: e7e5 043a 4c94 c83c f87d c2bd d535 e63d
000003d0: 6605 5bbd a89b 093d 5e8e ca3c ad37 14bd
000003e0: 722d a83d 1536 4d3c e863 f43c d540 cd3c
000003f0: 63ac c03c f4e9 adbd 6963 943d d879 3fbc

0.features.1.0.block.0.1.weight f4 [16]
0.7238907 0.8404242 0.46354422 0.50296074 0.47648343 0.6453137 2.0176914 0.4902976
0.4148122 0.44931415 0.6613315 0.6734788 0.9143934 0.72592026 0.491544 0.49873772
00000000: e750 393f 0a26 573f ab55 ed3e 09c2 003f
00000010: a3f5 f33e 4733 253f db21 0140 4908 fb3e
00000020: 4462 d43e 810c e63e 054d 293f 1b69 2c3f
00000030: b015 6a3f e9d5 393f a8ab fb3e 8d5a ff3e

0.features.1.0.block.0.1.bias f4 [16]
0.5142 -0.20569298 0.293573 0.47700706 0.59983206 -0.08431429 -1.7869104 0.32768473
0.009136789 0.40103787 1.2464867 0.3655445 -0.6092413 0.5899528 0.2911969 0.051337056
00000000: 9ca2 033f 2ea1 52be 334f 963e 453a f43e
00000010: 988e 193f f8ac acbd 7bb9 e4bf 4bc6 a73e
00000020: 78b2 153c d654 cd3e e08c 9f3f a628 bb3e
00000030: 3df7 1bbf 2607 173f c317 953e ce46 523d

0.features.1.0.block.0.1.running_mean f4 [16]
0.9773473 -0.39741263 -0.941171 -0.24338715 -1.0581541 -0.37742892 0.1513438 -0.16083428
1.4942949 -0.40750888 0.866499 -0.62125194 -0.3430512 0.85310054 0.16163388 -0.5081087
00000000: 6f33 7a3f ab79 cbbe 95f0 70bf 7b3a 79be
00000010: 9871 87bf 5d3e c1be def9 1a3e beb1 24be
00000020: 0e45 bf3f 01a5 d0be e1d2 5d3f 5e0a 1fbf
00000030: 68a4 afbe cc64 5a3f 5a83 253e 6913 02bf

0.features.1.0.block.0.1.running_var f4 [16]
1.3855081 0.5816093 0.6970127 0.3195609 0.32757652 0.9543472 0.013942035 0.43115678
0.431494 0.27631333 0.36414874 0.9080972 0.059162818 1.2359867 0.61707747 0.65867895
00000000: 5458 b13f 59e4 143f 6d6f 323f 7c9d a33e
00000010: 1cb8 a73e 1950 743f 226d 643c 95c0 dc3e
00000020: c8ec dc3e f178 8d3e b471 ba3e 0f79 683f
00000030: b654 723d d034 9e3f caf8 1d3f 2f9f 283f

0.features.2.0.block.0.0.weight f4 [64, 16, 3, 3]
0.057827514 -0.0072646323 0.046401635 0.040770683 -0.02979968 0.0010015686 0.003060509 0.06593245
0.01202291 -0.03973487 -0.07666086 -0.14356257 -0.055020407 -0.024453018 -0.020201983 -0.13980521
-0.1392131 -0.12010285 0.083294004 -0.023727566 0.07056654 0.053124934 0.19592494 -0.00808678
0.050490316 0.053606145 0.111356415 -0.08695281 -0.03659172 -0.1944148 0.012059581 -0.11988814
0.031822857 0.07614207 -0.073668875 -0.10920273 -0.03577244 0.015303639 -0.041472502 0.031818185
-0.16240354 -0.122857966 0.10466412 0.023980072 0.020567818 0.03984456 0.061466772 0.0576684
0.024501594 0.057518214 0.06812971 0.009683019 0.020151336 0.008933474 0.0015077967 -0.010253268
0.04699735 0.032964516 0.03215729 0.06906783 0.029032184 0.010265414 0.028412256 -0.01386787
-0.045884125 0.043734252 -0.066569634 -0.08910943 -0.18052025 -0.04891378 0.0077095013 0.057905868
0.09007666 0.062442362 0.03238611 0.06711303 0.11556771 -0.014500118 -0.061825763 0.048471004
-0.09944536 -0.06434072 0.031183954 -0.0392458 -0.026427863 0.0071596853 0.047835547 -0.04059188
-0.086906075 -0.07606607 -0.04021406 -0.09009687 -0.036382873 0.008268524 0.047256883 0.018880483
-0.026973203 0.00023668337 0.01289906 -0.05686321 -0.08052801 0.006079222 -0.06392823 -0.13327004
-0.06536203 -0.06277589 -0.10597441 -0.04071231 0.021081405 0.001013936 -0.01603111 0.020769898
0.026021631 -0.034968242 0.012043888 0.039954342 0.0063286303 0.00076449563 0.08232417 -0.01972515
-0.035944384 -0.08507981 -0.018880324 0.02240265 0.06749291 -0.002891329 -0.010657107 0.04374702
0.097953044 0.065060265 0.086116865 0.016280817 0.008880822 -0.06795096 0.09745914 -0.060649447
-0.11120122 -0.09435845 -0.09633137 -0.031048767 -0.026153442 -0.059516437 0.0006829921 0.03342358
0.03340944 -0.017008623 0.10117933 -0.013832856 0.02553841 0.031874757 -0.058036048 0.052063353
-0.0034817623 0.04837417 0.051928557 0.04410456 0.021149857 -0.026018951 0.10932204 -0.053700205
0.035203848 -0.029990187 0.051592983 -0.090085626 0.0036423618 -0.034734454 -0.04262794 0.015357436
-0.014817008 0.09105314 0.04197665 0.049571168 -0.17345616 -0.018210579 0.0113615515 0.1605711
0.0798677 -0.060798872 -0.12456744 -0.033669285 0.0031274655 0.01229756 0.059888393 0.13486147
-0.01614418 0.011762787 -0.041261826 0.04164858 0.03349013 0.037395317 -0.047174335 -0.03185294
-0.047618676 -0.054448042 -0.04859774 -0.024949664 -0.06621401 0.033945642 -0.0874912 0.049270436
0.012218609 -0.06937557 -0.0017681349 -0.12624781 -0.09292365 -0.032721516 -0.09955185 -0.029390927
-0.007932693 0.08958524 0.025807282 0.034922976 0.07728722 0.02960309 0.0010580897 -0.040507812
-0.032321416 -0.10075975 -0.07456456 0.0954903 0.008090221 -0.044125304 0.02168091 0.051516786
-0.023400052 0.007990274 0.04902602 0.06884728 0.05516794 0.02218609 -0.0017830137 -0.0062523047
0.058952894 -0.01293878 0.051922403 -0.023407895 -0.012797166 0.04992641 0.054403223 0.007994209
0.024770614 -0.0023234207 0.046781603 0.05710361 -0.03061526 0.06941873 -0.0834229 -0.13336185
-0.073071554 0.15114845 0.01755925 0.06463205 -0.007983703 0.009115077 -0.05243067 -0.0040544495
00000000: 8bdc 6c3d 270c eebb a40f 3e3d 29ff 263d
00000010: 751e f4bc 1147 833a d292 483b 9807 873d
00000020: bdfb 443c 08c1 22bd 5e00 9dbd 1102 13be
00000030: 145d 61bd b251 c8bc a17e a5bc 1929 0fbe
00000040: e18d 0ebe 7cf8 f5bd 0c96 aa3d 5060 c2bc
00000050: 3185 903d 8899 593d 8ca0 483e 6a7e 04bc
00000060: efce 4e3d 1e92 5b3d d50e e43d 5114 b2bd
00000070: 33e1 15bd ac14 47be 8c95 453c ea87 f5bd
00000080: af58 023d 60f0 9b3d b5df 96bd aea5 dfbd
00000090: 1f86 12bd 1dbc 7a3c 12df 29bd c953 023d
000000a0: 1d4d 26be f59c fbbd 245a d63d db71 c43c
000000b0: d77d a83c 0d34 233d 95c4 7b3d b335 6c3d
000000c0: 91b7 c83c 3898 6b3d 9787 8b3d 86a5 1e3c
000000d0: 6a14 a53c b55d 123c 43a1 c53a 53fd 27bc
000000e0: 4b80 403d cd05 073d 5db7 033d 6f73 8d3d
000000f0: e7d4 ed3c 4430 283c d2c0 e83c 1036 63bc
00000100: fef0 3bbd b022 333d a955 88bd 017f b6bd
00000110: 4dda 38be d159 48bd fc9f fc3b b42e 6d3d
00000120: 1d7a b83d 90c3 7f3d 4ca7 043d 8e72 893d
00000130: c3ae ec3d e791 6dbc 033d 7dbd 8889 463d
00000140: 02aa cbbd 11c5 83bd 7e75 ff3c 34c0 20bd
00000150: 3f7f d8bc cb9b ea3b 35ef 433d ac43 26bd
00000160: d0fb b1bd 87c8 9bbd 80b7 24bd b584 b8bd
00000170: 3506 15bd b478 073c 6f90 413d 3eab 9a3c
00000180: e8f6 dcbc 352e 7839 9456 533c 66e9 68bd
00000190: dfeb a4bd 3634 c73b ceec 82bd f177 08be
000001a0: 87dc 85bd a590 80bd 1d09 d9bd f3c1 26bd
000001b0: e9b2 ac3c 0ce6 843a ad53 83bc a225 aa3c
000001c0: 512b d53c dc3a 0fbd ba53 453c 2aa7 233d
000001d0: 6660 cf3b 6f68 483a 9399 a83d a396 a1bc
000001e0: 6b3a 13bd 533e aebd e9aa 9abc c385 b73c
000001f0: b939 8a3d 737c 3dbb 269b 2ebc 1330 333d
00000200: 9b9b c83d 513e 853d 0a5e b03d 595f 853c
00000210: de80 113c df29 8bbd a898 c73d 8e6b 78bd
00000220: 77bd e3bd 013f c1bd 6249 c5bd fc59 febc
00000230: be3f d6bc 82c7 73bd d30a 333a 2ae7 083d
00000240: 56d8 083d ab55 8bbc 1c37 cf3d 34a3 62bc
00000250: ed35 d13c 1b8f 023d 35b7 6dbd 6240 553d
00000260: 472e 64bb fe23 463d 0ab3 543d fca6 343d
00000270: 7742 ad3c b225 d5bc 3ce4 df3d bff4 5bbd
00000280: e931 103d fbad f5bc 2a53 533d d07e b8bd
00000290: b1b4 6e3b b745 0ebd a39a 2ebd c19d 7b3c
000002a0: 09c3 72bc 127a ba3d b5ef 2b3d 230b 4b3d
000002b0: 7e9e 31be 5a2e 95bc cd25 3a3c c06c 243e
000002c0: ad91 a33d 3d08 79bd 371d ffbd cee8 09bd
000002d0: 2af6 4c3b b57b 493c 884d 753d 2019 0a3e
000002e0: cd40 84bc b4b8 403c 2902 29bd b497 2a3d
000002f0: f22c 093d d52b 193d e039 41bd 3a78 02bd
00000300: cd0b 43bd e904 5fbd 6c0e 47bd 3d63 ccbc
00000310: 369b 87bd 960a 0b3d 962e b3bd cccf 493d
00000320: 9030 483c c714 8ebd c3c0 e7ba 1b47 01be
00000330: c14e bebd ff06 06bd d7e1 cbbd 3ec5 f0bc
00000340: 20f8 01bc 7778 b73d cb69 d33c 650b 0f3d
00000350: c348 9e3d 2e82 f23c 99af 8a3a 85eb 25bd
00000360: 7663 04bd 215b cebd 4eb5 98bd 6b90 c33d
00000370: d98c 043c bcbc 34bd 2a9c b13c 4403 533d
00000380: 77b1 bfbc a3e9 023c 82cf 483d ceff 8c3d
00000390: c7f7 613d 9abf b53c 03b4 e9ba 22e0 ccbb
000003a0: 9778 713d 2dfd 53bc 96ac 543d eac1 bfbc
000003b0: 34ab 51bc a37f 4c3d ead5 5e3d 25fa 023c
000003c0: beeb ca3c 8844 18bb 119e 3f3d 7ae5 693d
000003d0: dbcc fabc 682b 8e3d a0d9 aabd 0290 08be
000003e0: 8aa6 95bd a9c6 1a3e 6bd8 8f3c cf5d 843d
000003f0: 14ce 02bc 6757 153c 8bc1 56bd 30db 84bb

0.features.2.0.block.0.1.weight f4 [64]
0.72055393 0.5351187 0.67925084 0.77329135 0.6769702 0.5981028 0.7068764 0.71640384
0.74259585 0.69829583 0.6975811 0.67851406 0.6840996 0.6225299 0.6439094 1.541481
0.65859497 0.7040562 0.6297065 0.6541193 0.68849283 0.73046386 0.72406614 0.6752741
0.6756407 0.60712016 0.7692456 0.726408 0.7218664 0.43416777 0.806994 0.69771767
0.6671902 0.7455119 0.65678984 0.46145195 0.7346448 0.64251566 0.77234226 0.8103757
0.6295859 0.643707 0.5173061 0.71035177 0.6144908 0.7955238 0.6046175 0.71292454
0.6643486 0.7569971 0.70647144 0.7447945 0.7157408 0.6807938 0.6721279 0.74152565
0.6399273 0.69819254 0.7455989 0.75205725 0.7448678 0.66974956 0.6332285 0.42612338
00000000: 3976 383f 8afd 083f 62e3 2d3f 6cf6 453f
00000010: eb4d 2d3f 441d 193f daf5 343f 3e66 373f
00000020: c31a 3e3f 84c3 323f ad94 323f 19b3 2d3f
00000030: 2721 2f3f 1f5e 1f3f 3fd7 243f 404f c53f
00000040: ae99 283f 073d 343f 7234 213f 5d74 273f
00000050: 1141 303f aeff 3a3f 665c 393f c3de 2c3f
00000060: caf6 2c3f 3a6c 1b3f 48ed 443f e0f5 393f
00000070: 3dcc 383f 3d4b de3e 2997 4e3f a09d 323f
00000080: facc 2a3f ded9 3e3f 6123 283f 6e43 ec3e
00000090: ae11 3c3f e87b 243f 39b8 453f c874 4f3f
000000a0: 8b2c 213f fbc9 243f 2c6e 043f 9dd9 353f
000000b0: 454f 1d3f 73a7 4b3f 36c8 1a3f 3982 363f
000000c0: c012 2a3f 90ca 413f 50db 343f daaa 3e3f
000000d0: ca3a 373f 8148 2e3f 9310 2c3f a0d4 3d3f
000000e0: 47d2 233f bfbc 323f 92df 3e3f d386 403f
000000f0: a8af 3e3f b574 2b3f 431b 223f d82c da3e

0.features.2.0.block.0.1.bias f4 [64]
0.20017304 0.22556733 -0.045294385 0.3352428 0.60669345 -0.015763178 0.28216705 0.15296343
0.2236842 0.14995767 0.036598142 0.5595845 0.059950765 0.05580534 0.13892843 -1.4929862
-0.026886474 0.27990767 0.09678522 -0.18869616 -0.0672178 -0.035591826 0.023710836 0.057005435
0.26297978 0.11217863 0.10504507 0.37112582 0.021095043 -0.010082405 0.10458035 0.07338994
0.008124256 0.3299113 0.099524535 0.012026483 0.116208896 0.3527236 0.22580951 0.42865884
0.11588945 -0.0059281373 0.09786269 0.18294135 0.10983442 0.06763119 0.20494393 0.19987175
0.029402347 0.15572664 0.019438263 0.15602724 0.35448542 0.20638342 0.040298883 0.0332931
0.192969 0.08934183 0.08912329 0.012240035 0.07871908 -0.012289557 0.407299 -0.12653412
00000000: 29fa 4c3e 1ffb 663e 9b86 39bd f2a4 ab3e
00000010: 4350 1b3f c821 81bc 3378 903e 72a2 1c3e
00000020: 790d 653e 818e 193e efe7 153d ee40 0f3f
00000030: ef8e 753d 2494 643d 4143 0e3e 2c1a bfbf
00000040: 0641 dcbc 0f50 8f3e 5437 c63d 9139 41be
00000050: 7ca9 89bd bcc8 11bd 3a3d c23c 887e 693d
00000060: 49a5 863e e9bd e53d df21 d73d 3404 be3e
00000070: 83cf ac3c ac30 25bc 392e d63d 774d 963d
00000080: 991b 053c 22ea a83e 85d3 cb3d ba0a 453c
00000090: eefe ed3d 3098 b43e 9c3a 673e 2c79 db3e
000000a0: 7357 ed3d d240 c2bb 3c6c c83d fa54 3b3e
000000b0: def0 e03d 3982 8a3d d2dc 513e 2eab 4c3e
000000c0: 31dd f03c ce76 1f3e fe3c 9f3c 9bc5 1f3e
000000d0: 1d7f b53e 2d56 533e 7110 253d 585e 083d
000000e0: aa99 453e d9f8 b63d 4586 b63d 6e8a 483c
000000f0: 7837 a13d 235a 49bc 7f89 d03e 2992 01be

0.features.2.0.block.0.1.running_mean f4 [64]
-0.30317584 0.2659433 -0.34392616 0.5726905 -0.37705588 -0.36864382 0.4942325 -0.8823232
0.35535467 -0.15134567 -0.15196177 -0.6837418 -0.1283035 0.91859496 0.6312198 0.37355486
0.3276407 0.25037065 -0.0028228445 -0.6624537 -0.61185634 -0.6364654 0.40756935 -0.39460677
-0.17417765 -0.0647029 0.9284485 0.24695292 0.033701535 -0.45939162 0.16586833 -0.16600452
-0.4741203 0.22989263 -0.23063563 -0.31692517 -0.296735 -0.3578756 0.7259781 -0.77164733
-0.07573738 -0.6054369 0.7176218 -0.32731035 -0.0526526 -0.38955626 -0.36582854 0.20026079
-0.9922682 -0.29433274 -0.004822672 -0.010232583 0.47663653 -0.6255577 0.11743337 -0.4575657
-0.03492883 -0.26181135 0.12765576 -0.76671374 -0.07214567 -0.10443397 1.0584191 -0.35821408
00000000: dd39 9bbe b829 883e 1717 b0be d89b 123f
00000010: 780d c1be e2be bcbe 0b0c fd3e efdf 61bf
00000020: 0cf1 b53e 5cfa 1abe de9b 1bbe b409 2fbf
00000030: fe61 03be 0a29 6b3f 9f97 213f 9542 bf3e
00000040: 86c0 a73e 9530 803e 79ff 38bb 9196 29bf
00000050: 9ea2 1cbf 65ef 22bf eeac d03e e609 cabe
00000060: a05b 32be f482 84bd cdae 6d3f 3ae1 7c3e
00000070: 9f0a 0a3d 6135 ebbe 63d9 293e 17fd 29be
00000080: e5bf f2be f968 6b3e bf2b 6cbe 0444 a2be
00000090: a6ed 97be 783b b7be b3d9 393f ae8a 45bf
000000a0: 331c 9bbd eafd 1abf 10b6 373f 3995 a7be
000000b0: 41aa 57bd eb73 c7be e14d bbbe 2a11 4d3e
000000c0: 4a05 7ebf c8b2 96be 8107 9ebb 90a6 27bc
000000d0: b409 f43e 8d24 20bf e880 f03d 0d46 eabe
000000e0: 8811 0fbd 230c 86be 31b8 023e 5a47 44bf
000000f0: 1cc1 93bd 7ae1 d5bd 477a 873f d667 b7be

0.features.2.0.block.0.1.running_var f4 [64]
2.4843807 0.4171786 0.8890992 2.5784206 0.46911687 0.5675336 1.3909951 2.613921
1.4585851 1.23145 0.9790278 1.1407789 0.89882845 0.9314993 2.8262312 0.13141176
0.9607648 2.834804 0.79646343 0.4734289 1.5967022 1.1677165 1.4975917 1.4552443
0.6551682 0.5307676 2.3630788 2.1508648 1.9492277 0.14356956 1.1816986 0.86475766
0.8934133 1.9256274 0.8801365 0.14294362 1.9613694 1.1952409 2.0250144 1.4668067
0.6788407 1.5911447 0.7638784 2.6695848 0.64977175 1.5983101 0.68322206 2.9143672
1.2553412 1.4696472 1.2515421 1.4140738 1.8977164 1.4169573 0.79281175 0.9893619
0.5420396 0.8350763 1.748109 2.812236 0.5587666 0.7439226 0.6682439 0.6137659
00000000: 1800 1f40 6f98 d53e 019c 633f d804 2540
00000010: 1630 f03e e249 113f 210c b23f 7b4a 2740
00000020: ebb2 ba3f 27a0 9d3f 91a1 7a3f 0b05 923f
00000030: 9f19 663f bd76 6e3f f9e0 3440 ce90 063e
00000040: aff4 753f 6e6d 3540 07e5 4b3f 4665 f23e
00000050: bd60 cc3f bc77 953f 16b1 bf3f 7245 ba3f
00000060: 1ab9 273f 63e0 073f af3c 1740 c5a7 0940
00000070: 4b80 f93f e603 133e e641 973f c260 5d3f
00000080: bcb6 643f f57a f63f a050 613f d05f 123e
00000090: 270e fb3f a7fd 983f d699 0140 52c0 bb3f
000000a0: 81c8 2d3f a1aa cb3f 898d 433f 7ada 2a40
000000b0: 7157 263f 6d95 cc3f a4e7 2e3f fe84 3a40
000000c0: 05af a03f 661d bc3f 8832 a03f 5f00 b53f
000000d0: 5fe8 f23f db5e b53f b6f5 4a3f d246 7d3f
000000e0: 1bc3 0a3f 8fc7 553f 09c2 df3f adfb 3340
000000f0: 540b 0f3f b671 3e3f 0812 2b3f c31f 1d3f

0.features.2.0.block.1.0.weight f4 [32, 64, 1, 1]
-0.34168482 -0.2221678 0.25648487 -0.22921082 0.33986592 0.048170112 -0.09894622 0.1571972
0.011505363 0.2665078 -0.22913978 -0.025334181 0.09522996 -0.13778916 0.04756866 0.63584477
-0.064455464 0.020106733 -0.1908795 0.03390943 0.16573398 0.26304397 0.08078984 -0.3496949
0.24415272 -0.264035 -0.003921084 -0.287934 0.04847639 0.07809564 0.36004925 0.2947795
-0.09837537 -0.18388769 0.0533128 0.23698251 -0.027521834 0.13606356 0.060198445 -0.31295395
-0.3475201 0.23577386 -0.07074073 -0.07911777 -0.04195887 -0.15513828 -0.0842157 0.07618098
0.18519658 -0.2355239 0.13437352 -0.19336577 -0.026842369 -0.18907507 0.32691452 0.030368945
0.32082853 0.37618512 -0.5715395 0.05201645 0.2437792 0.35286835 -0.1193677 0.03346095
-0.071838215 0.04185181 -0.05102489 0.09898094 -0.24010651 -0.018186849 -0.004214762 0.19573952
0.07600639 -0.18708329 0.3564459 0.2579507 0.03774816 0.17995587 0.042785306 -0.4892592
0.28187728 0.3782283 0.050502688 0.034914654 -0.32757112 -0.16064209 -0.14496247 -0.21353659
0.114150755 0.48411116 0.13558348 0.03957355 0.03584247 -0.09510276 -0.056128636 0.316244
0.16808178 -0.012973155 -0.10662821 0.13348342 0.020146739 -0.10899064 0.05542368 0.42032334
0.6287397 -0.08379289 0.4146917 -0.09344711 0.10408237 0.112496406 0.06918455 -0.27410394
-0.1814065 -0.010155594 -0.2343883 -0.52477247 0.018329399 -0.11901753 -0.43963292 -0.18609148
-0.07289063 0.0949459 0.029138774 -0.24883422 -0.23268652 -0.089157335 -0.1365108 0.08319944
0.05613394 0.06842682 0.1434887 -0.13568498 0.12465725 0.15267763 -0.025796335 0.2969226
-0.17867273 0.046834577 0.1655836 0.12862042 0.17117475 0.20787358 0.28936797 0.1581762
-0.24437837 0.10139657 0.010773702 -0.048677817 0.07210237 -0.0024005945 -0.2126145 -0.043161366
-0.19560292 0.043369297 -0.10263506 -0.07028543 0.28853327 -0.1156209 0.2554642 -0.110970005
-0.026367258 -0.07925472 -0.31613076 -0.2019477 -0.18072133 -0.05744516 0.15124963 -0.1626343
-0.008551786 -0.10435164 -0.13148855 0.049390376 0.20499302 -0.011951017 0.15121485 0.28679618
-0.1459058 -0.08621354 -0.044047114 -0.36691695 0.045933194 -0.14309037 -0.021830063 -0.09356943
-0.2618993 -0.036534227 0.036276214 -0.21250543 0.045828477 0.15941188 0.13633062 -0.056252077
-0.21214472 0.3020078 -0.41075292 -0.2098613 -0.006374952 0.21327117 0.28318503 -0.10427847
0.15508981 -0.06765862 -0.25702217 0.2557332 0.26502517 -0.41765144 -0.20868538 -0.26268938
-0.06726051 -0.04132965 -0.2370864 -0.14643645 0.09261873 0.16319983 -0.002543706 -0.074293636
-0.06718481 0.19188324 0.1622536 0.25286368 -0.043425206 -0.25950685 -0.009543555 0.042783055
-0.18153396 0.11292409 -0.111895874 -0.23773788 0.0070317276 0.16821453 0.2089797 0.06642632
-0.14894024 0.33408415 0.4591109 -0.13978587 -0.12886685 -0.10923319 0.2373145 0.10071621
0.0013969344 0.12372592 0.13735065 0.17515388 -0.7570354 -0.027441435 0.33242074 -0.4217489
0.4618639 -0.10508804 0.13147154 0.31328818 -0.17030667 -0.10334126 0.19132482 -0.1494642
00000000: 50f1 aebe f57f 63be fc51 833e 3eb6 6abe
00000010: e802 ae3e 064e 453d 51a4 cabd 4ef8 203e
00000020: fd80 3c3c b673 883e 9ea3 6abe a189 cfbc
00000030: ed07 c33d 9a18 0dbe 5bd7 423d b9c6 223f
00000040: 3a01 84bd e0b6 a43c ea75 43be 9de4 0a3d
00000050: 2bb6 293e b3ad 863e 2575 a53d 360b b3be
00000060: 2c03 7a3e 982f 87be 707c 80bb 166c 93be
00000070: 2e8f 463d 9bf0 9f3d 6058 b83e 57ed 963e
00000080: 0779 c9bd 0e4d 3cbe 865e 5a3d 8bab 723e
00000090: 7875 e1bc 3f54 0b3e a592 763d 803b a0be
000000a0: 28ee b1be b46e 713e 84e0 90bd 7f08 a2bd
000000b0: 10dd 2bbd 92dc 1ebe 4879 acbd c604 9c3d
000000c0: 2ca4 3d3e 2d2d 71be 3699 093e ad01 46be
000000d0: 87e4 dbbc e59c 41be 5761 a73e 4bc8 f83c
000000e0: a343 a43e 569b c03e 6a50 12bf 330f 553d
000000f0: 41a1 793e 29ab b43e 0d77 f4bd 590e 093d
00000100: ea1f 93bd ce6c 2b3d 7aff 50bd 85b6 ca3d
00000110: 7bde 75be 96fc 94bc fc1b 8abb f16f 483e
00000120: 3da9 9b3d c392 3fbe 1480 b63e 1d12 843e
00000130: d19d 1a3d 5a46 383e a53f 2f3d 2f80 fabe
00000140: 3852 903e 24a7 c13e e8db 4e3d ab02 0f3d
00000150: 67b7 a7be 5c7f 24be 0b71 14be 56a9 5abe
00000160: dfc7 e93d 6bdd f73e 65d6 0a3e e017 223d
00000170: 8ecf 123d 3cc5 c2bd 24e7 65bd bcea a13e
00000180: a11d 2c3e 5b8d 54bc e45f dabd e1af 083e
00000190: c60a a53c 7c36 dfbd f103 633d 9f34 d73e
000001a0: 16f5 203f 9b9b abbd 7852 d43e 3361 bfbd
000001b0: 2329 d53d 8464 e63d a1b0 8d3d 5a57 8cbe
000001c0: a0c2 39be a663 26bc 7d03 70be 7d57 06bf
000001d0: 8927 963c 76bf f3bd 9117 e1be c48e 3ebe
000001e0: af47 95bd ff72 c23d 70b4 ee3c 66ce 7ebe
000001f0: 6045 6ebe 1f98 b6bd 7dc9 0bbe 7864 aa3d
00000200: b4ec 653d 5c23 8c3d b4ee 123e 01f1 0abe
00000210: 4d4c ff3d 8657 1c3e d652 d3bc 3d06 983e
00000220: fcf5 36be 9dd5 3f3d bf8e 293e 12b5 033e
00000230: 6f48 2f3e d0dc 543e 0a28 943e f1f8 213e
00000240: 533e 7abe 01a9 cf3d 2e84 303c 6462 47bd
00000250: 68aa 933d 4b53 1dbb 9eb7 59be f9c9 30bd
00000260: 224c 48be 01a4 313d 5532 d2bd cff1 8fbd
00000270: a2ba 933e a7ca ecbd 34cc 823e 3e44 e3bd
00000280: 2600 d8bc 4c50 a2bd e4db a1be 61cb 4ebe
00000290: 030f 39be 9e4b 6bbd 2fe1 1a3e 9b89 26be
000002a0: ca1c 0cbc 50b6 d5bd efa4 06be 904d 4a3d
000002b0: b1e9 513e 33ce 43bc 11d8 1a3e f3d6 923e
000002c0: 5468 15be b990 b0bd bf6a 34bd 8adc bbbe
000002d0: 7224 3c3d 4886 12be f6d4 b2bc 54a1 bfbd
000002e0: aa17 86be eaa4 15bd 5e96 143d 069b 59be
000002f0: a4b6 3b3d de3c 233e 419a 0b3e 9468 66bd
00000300: 773c 59be c4a0 9a3e 354e d2be e1e5 56be
00000310: f9e4 d0bb c263 5a3e a1fd 903e f38f d5bd
00000320: ddcf 1e3e 9a90 8abd 6998 83be 76ef 823e
00000330: 61b1 873e 69d6 d5be 9fb1 55be 397f 86be
00000340: e1bf 89bd 4749 29bd c7c6 72be 70f3 15be
00000350: e4ae bd3d db1d 273e 4eb4 26bb 4327 98bd
00000360: 3198 89bd 0a7d 443e cf25 263e 5977 813e
00000370: a1de 31bd 15de 84be 925c 1cbc 493d 2f3d
00000380: 0ae4 39be bf44 e73d aa29 e5bd 8f71 73be
00000390: 686a e63b 6e40 2c3e c6fe 553e 860a 883d
000003a0: ca83 18be 140d ab3e 9510 eb3e 0724 0fbe
000003b0: acf5 03be a7b5 dfbd 9302 733e 4d44 ce3d
000003c0: 5719 b73a 0464 fd3d a6a5 0c3e 8a5b 333e
000003d0: 12cd 41bf dccc e0bc 0d33 aa3e 79ef d7be
000003e0: 6d79 ec3e 6638 d7bd 7aa0 063e 4f67 a03e
000003f0: df64 2ebe 95a4 d3bd a7ea 433e 250d 19be

0.features.2.0.block.1.1.weight f4 [32]
0.8387704 0.73056066 0.8243226 0.8171485 0.76584995 0.84023887 0.8132497 0.79526514
0.7187876 0.97152 0.85236275 0.88266826 0.7476085 0.9003867 0.86924374 0.8175239
0.6589429 0.77282476 0.8487117 0.8326871 0.87537724 0.83023053 0.91239864 0.8576772
0.9193704 0.80741024 0.878161 0.87294084 0.75694036 0.84635234 0.7818664 0.80062526
00000000: a8b9 563f 0606 3b3f ce06 533f a530 513f
00000010: be0e 443f e519 573f 2231 503f 7f96 4b3f
00000020: 7702 383f 89b5 783f 7234 5a3f 8cf6 613f
00000030: 4563 3f3f be7f 663f c286 5e3f 3f49 513f
00000040: 7bb0 283f d8d7 453f 2c45 593f fb2a 553f
00000050: b918 603f fd89 543f f592 693f bc90 5b3f
00000060: dc5b 6b3f 70b2 4e3f 29cf 603f 0d79 5f3f
00000070: d8c6 413f 8caa 583f 6528 483f c7f5 4c3f

0.features.2.0.block.1.1.bias f4 [32]
0.033122018 -0.07918816 0.065030664 0.02235951 0.0740376 0.01268259 -0.051943284 -0.06228447
-0.017919358 -0.01751594 0.022662109 0.057250157 -0.09870333 0.011164899 0.050861202 -0.04624831
-0.053794112 -0.030465046 0.045304 0.07136912 -0.012263775 -0.011424621 0.00041244345 -0.046897393
-0.08558128 0.12313656 0.031230193 0.024418237 -0.01425667 -0.1279072 0.035822336 0.06341015
00000000: f4aa 073d 672d a2bd cc2e 853d 4b2b b73c
00000010: 06a1 973d a3ca 4f3c 7bc2 54bd 001e 7fbd
00000020: 9ecb 92bc 977d 8fbc e3a5 b93c 247f 6a3d
00000030: f924 cabd fbec 363c d653 503d de6e 3dbd
00000040: 3757 5cbd d591 f9bc b090 393d f929 923d
00000050: 00ee 48bc 552e 3bbc 393d d839 7b17 40bd
00000060: 3d45 afbd 052f fc3d 76d6 ff3c c108 c83c
00000070: cf94 69bc 1bfa 02be 71ba 123d 2edd 813d

0.features.2.0.block.1.1.running_mean f4 [32]
-0.10929502 0.18395908 0.015441466 0.2520476 -0.10464182 0.30645305 0.17750034 -0.08148707
-0.197188 -0.10269985 0.1577563 0.010601377 0.35402405 -0.0683744 -0.3654409 0.35113096
0.79904735 0.10412181 0.31836325 -0.14509743 -0.015215527 -0.0899208 -0.1539443 -0.3609867
-0.039479062 -0.017016066 -0.033101123 -0.14642787 0.083162874 -0.053317536 -0.47240692 -0.16710243
00000000: 11d6 dfbd c55f 3c3e 34fe 7c3c 620c 813e
00000010: 734e d6bd 6ae7 9c3e a6c2 353e b1e2 a6bd
00000020: a7eb 49be 4d54 d2bd de8a 213e 66b1 2d3c
00000030: a442 b53e e107 8cbd 121b bbbe 70c7 b33e
00000040: 5e8e 4c3f d13d d53d 8200 a33e 6c94 14be
00000050: 8c4a 79bc 6528 b8bd 93a3 1dbe 40d3 b8be
00000060: ccb4 21bd 4765 8bbc 0b95 07bd 30f1 15be
00000070: 4c51 aa3d 7d63 5abd 52df f1be e61c 2bbe

0.features.2.0.block.1.1.running_var f4 [32]
1.6625414 0.41432676 0.1596412 0.13703337 0.14933851 0.558827 2.847367 0.19726412
0.22812943 0.08824688 0.6136737 0.17438866 0.44467002 0.3624091 0.7162523 0.6455005
1.2389631 1.0579125 0.6594571 0.1790499 0.31792852 0.61780226 0.09980456 0.5635042
0.14217031 0.68361837 0.42994764 0.43433368 0.31095266 0.77312744 0.88553685 1.1725065
00000000: 28ce d43f a322 d43e fc78 233e 7a52 0c3e
00000010: 32ec 183e 490f 0f3f 433b 3640 9bff 493e
00000020: c39a 693e c8ba b43d b819 1d3f f192 323e
00000030: caab e33e b08d b93e 505c 373f 853f 253f
00000040: 5896 9e3f ad69 873f 2ed2 283f db58 373e
00000050: 87c7 a23e 4a28 1e3f 5566 cc3d d041 103f
00000060: 1895 113e 9d01 2f3f 1922 dc3e fc60 de3e
00000070: 3035 9f3e aeeb 453f 8bb2 623f b114 963f

0.features.3.0.block.0.0.weight f4 [128, 32, 1, 1]
0.07075376 0.14338031 0.113564394 0.022469964 0.082430884 -0.064285964 0.051948547 0.086458996
-0.050440352 -0.17629634 -0.03502673 -0.047459304 -0.20053433 0.1530421 0.023139335 0.068617426
-0.024200307 0.16404657 -0.19375148 0.12993972 -0.027215755 -0.14198585 -0.16365544 -0.043838672
-0.096369095 -0.037243914 0.065608874 0.2169017 -0.08067454 -0.04733858 0.047507223 -0.08392373
-0.19379553 -0.03457197 -0.034411214 0.17583074 -0.115128644 0.11849409 -0.031470936 0.12175914
0.2007802 0.040034253 -0.0065801106 -0.011200865 0.11161255 -0.018945524 -0.15877861 0.06553857
0.00041029652 0.05625922 0.0644753 -0.004424454 0.094504505 -0.117130496 -0.11159007 0.023196623
0.015689736 -0.04479707 0.14294104 -0.08196627 -0.17412876 0.09684076 -0.026182273 -0.04646578
-0.051850803 -0.012909658 0.0140087325 -0.0753822 -0.029835865 0.10098542 -0.162581 0.13470246
-0.041913033 0.14285097 0.18954828 0.06540805 -0.13225803 0.072451614 0.1746195 0.029415624
0.12637608 0.002180266 -0.0381912 0.006771444 0.06419351 0.07307032 -0.26467684 -0.1287605
0.14006808 0.0005089117 -0.03695693 0.19659078 0.19538105 -0.11335572 0.034290366 -0.10451703
0.03496291 0.01990455 0.12109404 -0.032839093 0.08080929 -0.10866621 -0.0764456 -0.05985765
-0.15411486 -0.14083211 0.034362886 -0.24242805 -0.19141859 -0.0985004 0.087860934 0.123091534
0.12580745 0.110222094 -0.1514907 0.14827171 0.35251367 -0.02906644 -0.27739438 0.007156367
-0.042379644 -0.043026272 0.14586526 -0.06898614 -0.11079594 -0.058999974 0.03611623 -0.06713909
0.09538422 0.024213336 0.03482571 0.09120699 0.0142061375 -0.16012634 0.04336435 0.1334563
-0.10213245 0.042903945 -0.00843642 -0.074595824 0.014657411 -0.019634813 0.122713946 0.1472788
-0.1487846 -0.084959485 -0.19944718 -0.03553755 0.084843524 -0.008807092 -0.13820434 0.2114852
0.0011173096 0.075424924 -0.050059635 -0.002686663 0.16779025 0.013802301 0.17381075 -0.06288615
0.18446253 -0.2562941 0.04211754 -0.10374093 0.11373613 -0.09511348 0.09343823 -0.061709065
0.036629666 -0.060501687 -0.104239926 0.1821178 -0.09756668 -0.018890535 0.018942896 -0.1440065
-0.10285126 -0.026579952 -0.02752738 0.2762078 0.3072605 -0.23570217 0.24377294 0.016679525
0.02487724 0.094593294 -0.14909457 -0.06702207 -0.13701914 0.08915165 0.028292442 0.06251297
0.05361342 -0.07190316 0.05056461 0.10276532 0.04412333 -0.017408498 -0.023253813 0.04297899
0.084559456 -0.07010743 -0.020276846 -0.09505081 0.048545998 0.04687222 -0.005283032 0.17377332
-0.0025874602 -0.10428232 -0.09493698 0.08936346 0.09631474 -0.02695258 -0.13739617 0.10300595
-0.17838843 -0.08040799 0.102966286 -0.106384754 -0.12407975 0.03067537 0.22722024 0.15153892
-0.071922205 -0.10634963 -0.02914415 0.07566164 -0.036215622 0.094111934 -0.1247201 0.021344554
-0.09934435 -0.061365012 0.06615263 0.0140210735 0.07418134 -0.1846355 0.08472301 0.026840264
-0.2423403 0.034892015 -0.008271086 -0.00893095 0.069786206 -0.026993718 -0.1515611 -0.019423416
-0.012685928 0.057872117 0.16300958 0.023019096 -0.16690633 -0.050503045 -0.09740296 0.0022442664
00000000: 59e7 903d 4ad2 123e 7394 e83d ee12 b83c
00000010: 86d1 a83d 5ca8 83bd 00c8 543d 6a11 b13d
00000020: 8b9a 4ebd 0787 34be 3078 0fbd b064 42bd
00000030: df58 4dbe 11b7 1c3e b48e bd3c 4b87 8c3d
00000040: b93f c6bc d3fb 273e ca66 46be eb0e 053e
00000050: 93f3 debc bd64 11be 4b95 27be 2e90 33bd
00000060: 295d c5bd 138d 18bd f25d 863d 7b1b 5e3e
00000070: b138 a5bd 19e6 41bd ef96 423d 34e0 abbd
00000080: 5672 46be 579b 0dbd c6f2 0cbd f90c 343e
00000090: 91c8 ebbd 08ad f23d abe7 00bd db5c f93d
000000a0: 5399 4d3e f5fa 233d f89d d7bb d583 37bc
000000b0: 1f95 e43d a533 9bbc dc96 22be 1639 863d
000000c0: 111d d739 1170 663d a00b 843d 03fb 90bb
000000d0: 948b c13d 1de2 efbd 5689 e4bd d806 be3c
000000e0: c387 803c 227d 37bd 235f 123e efdd a7bd
000000f0: cf4e 32be 7354 c63d 357c d6bc e752 3ebd
00000100: 8261 54bd 0883 53bc e284 653c fc61 9abd
00000110: 586a f4bc 72d1 ce3d a27b 26be 71ef 093e
00000120: 00ad 2bbd 8647 123e f218 423e a8f4 853d
00000130: a66e 07be 8361 943d 74cf 323e 09f9 f03c
00000140: bb68 013e cbe2 0e3b 606e 1cbd fde2 dd3b
00000150: e377 833d e4a5 953d b983 87be cbd9 03be
00000160: 026e 0f3e 7c68 053a 2660 17bd 184f 493e
00000170: f811 483e 0b27 e8bd 0e74 0c3d 060d d6bd
00000180: 4535 0f3d de0e a33c 2700 f83d 4982 06bd
00000190: 577f a53d 648c debd 838f 9cbd 4c2d 75bd
000001a0: 49d0 1dbe 4b36 10be 19c0 0c3d 0f3f 78be
000001b0: 3c03 44be 94ba c9bd 6ff0 b33d 6a17 fc3d
000001c0: abd3 003e 1fbc e13d 6120 1bbe 8ad4 173e
000001d0: ac7c b43e be1c eebc a306 8ebe f57f ea3b
000001e0: 4796 2dbd 513c 30bd b45d 153e 9b48 8dbd
000001f0: fbe8 e2bd f5a9 71bd 9dee 133d 3880 89bd
00000200: cd58 c33d 0c5b c63c 67a5 0e3d bbca ba3d
00000210: dcc0 683c 29f8 23be d19e 313d c5a8 083e
00000220: d12a d1bd 0cbc 2f3d e938 0abc b2c5 98bd
00000230: a325 703c 30d9 a0bc 7351 fb3d 41d0 163e
00000240: fd5a 18be 3dff adbd e23b 4cbe d28f 11bd
00000250: 71c2 ad3d 9f4b 10bc 7085 0dbe 948f 583e
00000260: b072 923a 6278 9a3d 550b 4dbd ba12 30bb
00000270: 35d1 2b3e 0c23 623c 72fb 313e 74ca 80bd
00000280: bfe3 3c3e fb38 83be 7183 2c3d 2076 d4bd
00000290: 7dee e83d dbca c2bd 8b5c bf3d a5c2 7cbd
000002a0: fd08 163d 9ed0 77bd be7b d5bd 177d 3a3e
000002b0: 0ad1 c7bd 53c0 9abc 222e 9b3c 7176 13be
000002c0: aea3 d2bd 33be d9bc 1a81 e1bc 1c6b 8d3e
000002d0: 4051 9d3e e95b 71be 9d9f 793e 80a3 883c
000002e0: 5bcb cb3c 21ba c13d 3fac 18be de42 89bd
000002f0: bf4e 0cbe 2495 b63d 8dc5 e73c cd06 803d
00000300: bf99 5b3d f741 93bd d61c 4f3d a076 d23d
00000310: aaba 343d 449c 8ebc c87e bebc bd0a 303d
00000320: 822d ad3d 7c94 8fbd a11b a6bc 00aa c2bd
00000330: 2bd8 463d 16fd 3f3d 491d adbb a2f1 313e
00000340: 6192 29bb f891 d5bd 526e c2bd 3104 b73d
00000350: aa40 c53d a8cb dcbc 95b1 0cbe c9f4 d23d
00000360: 75ab 36be f2ac a4bd fddf d23d 40e0 d9bd
00000370: 861d febd ea4a fb3c 6cac 683e 052d 1b3e
00000380: f34b 93bd d6cd d9bd b6bf eebc 7df4 9a3d
00000390: d556 14bd c2bd c03d 406d ffbd c6da ae3c
000003a0: 0d75 cbbd e159 7bbd 087b 873d a5b8 653c
000003b0: 63ec 973d 1711 3dbe 4283 ad3d 1de0 db3c
000003c0: 0e28 78be eeea 0e3d 7383 07bc 1f53 12bc
000003d0: 12ec 8e3d ee21 ddbc d532 1bbe db1d 9fbc
000003e0: a3d8 4fbc 500b 6d3d fceb 263e 8b92 bc3c
000003f0: 7ee9 2abe 48dc 4ebd 347b c7bd 8b14 133b

0.features.3.0.block.0.1.weight f4 [128]
0.07976036 0.23283535 0.0389964 0.24034224 0.2344489 0.090275295 0.24497151 0.50583386
0.042088635 0.034814212 0.15456446 0.31692588 0.2429096 0.07328445 0.053606667 0.022317605
0.035260987 0.11165866 0.14717625 0.1611887 0.12423324 0.014337741 0.20559558 0.28623083
0.054216813 0.048570022 0.08407769 0.02774545 0.16882442 0.17377993 0.5177806 0.71312106
0.06963003 0.012762532 0.3335126 0.3846881 0.012041701 0.029318374 0.0761439 0.3468785
1.1427847 0.23264408 0.06124852 0.14642298 0.23064797 0.37946257 0.18366139 0.15054168
0.38303223 0.161669 0.26962987 0.10738734 0.78159255 0.105131246 0.10627699 0.07434859
0.097250886 0.24234802 0.04339745 0.23819987 0.015492229 1.5078816 0.23280242 0.20805614
0.35700747 0.10143517 0.09662521 0.33678472 0.057984162 0.058591712 0.56934774 0.30627793
0.31948483 0.025030697 0.20632263 1.4394428 0.19408886 0.22483046 0.2210146 0.63492036
0.16521282 0.08600413 0.20806065 0.49071184 0.16324626 1.4166758 0.39899108 0.18901636
0.48429638 0.09573032 0.21673168 0.30306304 0.0959857 0.31000894 0.81143385 0.15920727
0.3527311 0.3041869 0.3255073 0.9271832 0.16711369 0.17184603 0.12921989 0.12527259
0.11298953 0.016919997 0.108150505 0.43149894 0.059629448 0.02872927 0.14107566 0.6849262
0.023022486 0.61048627 0.05140729 0.6771221 0.25196213 0.12953682 0.14919965 0.121672064
0.509947 0.17773235 1.2532797 0.012785623 0.27320507 0.017673794 0.31326574 0.17579874
00000000: 6659 a33d 646c 6e3e b0ba 1f3d 471c 763e
00000010: 5f13 703e 41e2 b83d d0d9 7a3e 547e 013f
00000020: 2265 2c3d 5999 0e3d 2546 1e3e 1c44 a23e
00000030: 4bbd 783e 2816 963d aa92 5b3d 69d3 b63c
00000040: d36d 103d 4cad e43d 5fb5 163e a70e 253e
00000050: ff6d fe3d d8e8 6a3c a687 523e d98c 923e
00000060: 7312 5e3d 5cf1 463d ed30 ac3d 6d4a e33c
00000070: 4fe0 2c3e 5ef3 313e 458d 043f 1a8f 363f
00000080: 309a 8e3d f019 513c 2ac2 aa3e d7f5 c43e
00000090: 8e4a 453c 162d f03c 55f1 9b3d 0f9a b13e
000000a0: c546 923f 403a 6e3e badf 7a3d e8ef 153e
000000b0: fb2e 6c3e eb48 c23e bb11 3c3e 9927 1a3e
000000c0: cd1c c43e 8f8c 253e ed0c 8a3e e5ed db3d
000000d0: 7316 483f 0d4f d73d c0a7 d93d 1344 983d
000000e0: 792b c73d 142a 783e 86c1 313d abea 733e
000000f0: 1ed3 7d3c 4402 c13f c263 6e3e ab0c 553e
00000100: afc9 b63e 3ebd cf3d 70e3 c53d 0c6f ac3e
00000110: cd80 6d3d ddfd 6f3d c6c0 113f 76d0 9c3e
00000120: 8493 a33e 2d0d cd3c 3d46 533e a93f b83f
00000130: 3bbf 463e f539 663e a751 623e 248a 223f
00000140: 8d2d 293e ef22 b03d da0d 553e 953e fb3e
00000150: 072a 273e a255 b53f 8f48 cc3e 818d 413e
00000160: b2f5 f73e 420e c43d e9ee 5d3e 142b 9b3e
00000170: 2794 c43d 7eb9 9e3e 21ba 4f3f 3b07 233e
00000180: 2c99 b43e 63be 9b3e e5a8 a63e e15b 6d3f
00000190: da1f 2b3e 68f8 2f3e 3852 043e 7547 003e
000001a0: 0e67 e73d ce9b 8a3c 037e dd3d 6eed dc3e
000001b0: 023e 743d a559 eb3c 2376 103e 5357 2f3f
000001c0: a799 bc3c d448 1c3f 7390 523d e057 2d3f
000001d0: 2e01 813e 4da5 043e cbc7 183e 342f f93d
000001e0: e38b 023f 78ff 353e 786b a03f ca7a 513c
000001f0: 89e1 8b3e a2c8 903c 5e64 a03e 9604 343e

0.features.3.0.block.0.1.bias f4 [128]
0.106400885 0.7256407 0.28710797 0.18514466 0.48965698 0.5204071 0.44884 0.24868664
0.13579807 0.25270516 0.17990446 0.57214266 0.24498965 0.7285019 0.18341613 0.12836803
0.2679091 0.62715894 1.1974059 0.35437006 0.45131487 0.10560911 0.4720629 0.27288514
0.33478564 0.07532927 0.17304562 0.2756352 0.5734497 0.4047793 0.1634788 0.09360911
0.520373 0.106201306 0.3544566 0.6723227 0.0829922 0.37379888 0.45091856 0.24068998
-0.59142 0.23185752 0.49544358 0.10038859 0.53539985 0.21705665 0.49066406 0.6001083
0.2803675 0.19709751 1.7461632 0.47385338 0.013776943 -0.037795514 0.23612256 -0.07904341
0.60628563 0.30897003 -0.13790748 0.862736 0.14549266 -0.82125914 -0.018454108 0.47654185
0.31203637 0.520279 0.20356926 0.32044634 0.25345227 0.13108605 0.22274426 0.25719562
0.2840909 0.0396761 0.29391122 -1.1563878 0.3694064 0.4079615 0.2520332 0.11470691
0.39770567 0.20782599 0.38208205 0.49023575 0.13375433 -0.8002998 0.39734516 0.5191061
0.36223602 0.1285265 0.25969064 0.56924254 0.19712421 0.54684514 -0.0783154 0.36243594
0.50582874 0.31000564 0.4410228 -0.5343643 0.35740185 0.37388635 -0.12906784 0.24054532
0.50447387 0.5515085 0.7981089 0.4835003 0.50908124 0.1983628 0.28921416 0.10978801
0.099667095 0.14232191 0.083669364 0.12716304 0.5987621 0.6017225 0.3936688 0.9613685
0.16250692 0.23872043 -0.72218055 0.069631584 0.4435922 0.28432304 0.5204003 0.24371311
00000000: b5e8 d93d 97c3 393f d1ff 923e 9096 3d3e
00000010: 52b4 fa3e 6639 053f 5bce e53e b6a7 7e3e
00000020: a60e 0b3e 9262 813e e038 383e f177 123f
00000030: 91de 7a3e 1a7f 3a3f 70d1 3b3e e972 033e
00000040: 622b 893e 7d8d 203f 9944 993f fe6f b53e
00000050: be12 e73e 9749 d83d 3ab2 f13e 9ab7 8b3e
00000060: 0669 ab3e 3b46 9a3d df32 313e 0f20 8d3e
00000070: 99cd 123f 3b3f cf3e fd66 273e 22b6 bf3d
00000080: 2a37 053f 1280 d93d 567b b53e 571d 2c3f
00000090: d1f7 a93d 9162 bf3e ccde e63e 6f77 763e
000000a0: 4d67 17bf 0f6c 6d3e c8aa fd3e 8898 cd3d
000000b0: f70f 093f 1944 5e3e 5238 fb3e b3a0 193f
000000c0: 548c 8f3e eed3 493e 4782 df3f e99c f23e
000000d0: b0b8 613c 78cf 1abd 1dca 713e 83e1 a1bd
000000e0: 8935 1b3f 5231 9e3e 9e37 0dbe 44dc 5c3f
000000f0: 07fc 143e 0a3e 52bf 122d 97bc 4bfd f33e
00000100: 3bc3 9f3e 0131 053f 7674 503e 8b11 a43e
00000110: 7fc4 813e 6c3b 063e 1217 643e 25af 833e
00000120: 5d74 913e 6883 223d 887b 963e 8404 94bf
00000130: d622 bd3e 54e0 d03e 7f0a 813e 75eb ea3d
00000140: 14a0 cb3e 56d0 543e 42a0 c33e 2e00 fb3e
00000150: e5f6 083e 73e0 4cbf d370 cb3e 23e4 043f
00000160: 0077 b93e 739c 033e 2cf6 843e e1b9 113f
00000170: eeda 493e 0bfe 0b3f d363 a0bd 3491 b93e
00000180: fe7d 013f 0fb9 9e3e becd e13e 19cc 08bf
00000190: 60fd b63e 086e bf3e 5c2a 04be 8351 763e
000001a0: 3325 013f a92f 0d3f dd50 4c3f 5a8d f73e
000001b0: 2653 023f 9e1f 4b3e e113 943e 89d8 e03d
000001c0: 431e cc3d d6bc 113e d85a ab3d 0737 023e
000001d0: 7948 193f 7c0a 1a3f f58e c93e 3f1c 763f
000001e0: 3768 263e 2173 743e d3e0 38bf 019b 8e3d
000001f0: 841e e33e ca92 913e f438 053f ee8f 793e
