code/modeling/ckpt/AutoencoderConfig([1, 1, 1], flip=True, rotate=False)/autoencoder_1600.pth (torch, 346586 bytes, 68 tensors)

0.features.0.0.weight f4 [16, 8, 3, 3]
0	0x3d80c90a	0.06288345
1	0x3d98478b	0.07435521
2	0xbd448603	-0.047979366
3	0x3dc01594	0.09379116
4	0x3cdda87b	0.027057877
5	0xbd130f7e	-0.035903446
6	0x3b994b72	0.0046781832
7	0x3e3bbf81	0.18334772
8	0x3da0dacc	0.07854232
9	0x3d56cf4f	0.0524438
10	0x3dadf396	0.08493726
11	0xbb82e3e7	-0.003994453
12	0x3c1690af	0.009189769
13	0x3d9f0154	0.07763925
14	0x3b245e62	0.002508067
15	0x3d207438	0.039173335
16	0xbd88964c	-0.06669292
17	0x3b0c95df	0.0021451635
18	0x3ce0c6e6	0.027438592
19	0xbca37897	-0.019954963
20	0x3da411cd	0.08011208
21	0x3d1cdc15	0.038295824
22	0xbd0f20cc	-0.034943387
23	0xbd8e3f35	-0.069456495
24	0xbd7029d2	-0.058633633
25	0x3af436b5	0.0018632027
26	0xbd8531f2	-0.06503667
27	0x3c26561e	0.010152368
28	0x3c897f14	0.016784228
29	0xbcd93918	-0.026516482
30	0xbd4972d7	-0.049181785
31	0x3ca22996	0.01979522
32	0xbdaf6828	-0.08564788
33	0xbd4e2471	-0.050327722
34	0x3d617f86	0.055053256
35	0xbdbef2aa	-0.09323628
36	0x3c8ebd00	0.017424107
37	0xbcfd1488	-0.03089358
38	0x3db56c6c	0.088585705
39	0xbd7de8bd	-0.061989535
40	0xbd02b036	-0.03190633
41	0xbdd742a4	-0.105107576
42	0xbd3ee765	-0.046607394
43	0x3bf1ac3d	0.0073752687
44	0xbddeb1b4	-0.10873738
45	0x3d2f2653	0.04276116
46	0xbd59d641	-0.053182844
47	0xba96320e	-0.0011459009
48	0x3a84eb92	0.0010141006
49	0xbe297557	-0.16548668
50	0x3c82a0f6	0.015945893
51	0xbe0394fe	-0.12849805
52	0xbb0955e8	-0.0020955745
53	0xbd8cf97c	-0.06883523
54	0xbc10decb	-0.0088421805
55	0xbd9f376c	-0.07774243
56	0x3d90b9fb	0.07066723
57	0x3d1bcb62	0.038035758
58	0xbd92b9e4	-0.07164362
59	0x3ce9e942	0.028553609
60	0xbdcdf6e7	-0.100568585
61	0xbe0f0bdc	-0.13969368
62	0xbdcf6b31	-0.10127867
63	0xbd82aba8	-0.06380397
64	0x3c118e1d	0.00888398
65	0xbd0b66a3	-0.03403343
66	0xbdcc34c6	-0.09971003
67	0xbd6fa18e	-0.05850368
68	0x3d1321ce	0.03592091
69	0xbd888c49	-0.06667382
70	0x3bdf87df	0.006821617
71	0xbd7a8b8c	-0.06116824
72	0xbd7cb7c9	-0.06169871
73	0x3e1bc00f	0.15209983
74	0xbbb6ac49	-0.005574737
75	0x3d974f51	0.07388175
76	0x3d892ee8	0.066984
77	0xbd145f9a	-0.036223985
78	0xbd38110f	-0.044938143
79	0x3dad72d6	0.08469169
80	0x3c1b268f	0.009469642
81	0xbd4f5450	-0.050617516
82	0xbcb755da	-0.022379804
83	0xbc6374f9	-0.013882869
84	0x3b579225	0.0032893505
85	0x3e6c7c3c	0.23094267
86	0xbd344fee	-0.04402154
87	0xbbff931c	-0.007799519
88	0x3e4160fd	0.18884654
89	0xba384029	-0.00070286036
90	0xbc371bff	-0.011176108
91	0xbd22abd2	-0.039714642
92	0xbdb8180e	-0.08988963
93	0x3d2bfeaa	0.041990913
94	0x3e48bff2	0.19604471
95	0x3dd8f4a8	0.105935395
96	0x3c189cc9	0.009314724
97	0x3e2fa231	0.17151715
98	0x3d586fd4	0.052841023
99	0xbc8baebf	-0.017051099
100	0xbad2d376	-0.0016084749
101	0x3c27e688	0.010247834
102	0x3dca4d03	0.0987797
103	0x3dfb3381	0.12265683
104	0x3d749234	0.059709743
105	0xbde397ee	-0.11112963
106	0x3c22dabc	0.009939846
107	0x3d23d59a	0.03999863
108	0x3ca132c6	0.019677531
109	0x3d4b44f5	0.04962631
110	0xbd2ca050	-0.042145073
111	0xbde75dfc	-0.11297223
112	0x3c998d3b	0.018744102
113	0x3d99f797	0.07517927
114	0x3ba104d9	0.004913908
115	0xbd39d404	-0.04536821
116	0x3d77b838	0.06047842
117	0xbd513cb4	-0.05108328
118	0xbc01cf53	-0.007922965
119	0xbd7cccc7	-0.06171873
120	0xbd15030e	-0.036379866
121	0xbd25ee78	-0.040510625
122	0x3daf9867	0.0857399
123	0x3c8111c1	0.015755536
124	0xbc6b8022	-0.014373811
125	0x3c2505d4	0.01007219
126	0x3cac0486	0.02099825
127	0xbcfc4f96	-0.030799668
128	0xbc569d26	-0.013098991
129	0xbd8cac4b	-0.068688
130	0x3bdd0511	0.0067449887
131	0xbc43d672	-0.011952983
132	0xbd8ee274	-0.06976786
133	0xbaabcf08	-0.0013107965
134	0x3c830a1f	0.015996037
135	0xbba49bd7	-0.0050234604
136	0xbdb62a1c	-0.088947505
137	0xbd43dc66	-0.04781761
138	0xbd8d5c63	-0.06902387
139	0x3d382715	0.044959147
140	0xbd02aa53	-0.031900715
141	0xbcf89a7e	-0.030347105
142	0xbd2caf4f	-0.042159375
143	0x3ddc0ba3	0.10744407
144	0x3cb3868b	0.021914741
145	0xbdb5d6ef	-0.08878886
146	0x3d878fc4	0.06619218
147	0xbdaa2547	-0.08307891
148	0xbe13496a	-0.14383474
149	0xbbec37d3	-0.007208803
150	0x3d08c447	0.03339031
151	0x3d977448	0.07395226
152	0xbaed917a	-0.001812502
153	0xbdaba6ac	-0.083813995
154	0x3daf9c00	0.085746765
155	0xbda064ef	-0.078317516
156	0x3e334aed	0.1750905
157	0x3e90aff6	0.28259248
158	0x3df2579c	0.118331164
159	0x3a863eee	0.0010242143
160	0x3e6c4df6	0.23076615
161	0x3d4f21ad	0.050569225
162	0x3c6b9131	0.014377878
163	0x3d9fe3cb	0.0780712
164	0x3bbb77b7	0.005721058
165	0xbd2f0734	-0.04273148
166	0x3d296c48	0.04136303
167	0xbdc78753	-0.09742608
168	0x3b37e1a1	0.002805807
169	0x3d85a915	0.065263905
170	0xbdb7fc30	-0.08983648
171	0xbd7731e2	-0.060350306
172	0x3d086473	0.03329892
173	0x3cf26756	0.02959029
174	0x3d364cfe	0.04450702
175	0xbdf9aa3d	-0.121906735
176	0xbce60ffd	-0.028083796
177	0xbd5d09cc	-0.05396442
178	0x3c3cb3b8	0.011517458
179	0xbdbeea91	-0.09322084
180	0x3d869fd9	0.06573457
181	0xbc316e2c	-0.01082949
182	0xbcada6eb	-0.021197757
183	0xbcb19a94	-0.021680154
184	0x3cf43b22	0.029813353
185	0xbd125ed0	-0.03573495
186	0x3da2548b	0.079262815
187	0xbd9ded03	-0.07711222
188	0x3a08c2f3	0.0005217038
189	0x3c059bc8	0.008154817
190	0x3cff6c48	0.031179562
191	0x3d0fa1a5	0.035066266
192	0x3d43962e	0.047750644
193	0x3d221701	0.03957272
194	0xbd8cdc25	-0.06877927
195	0xbc8d502b	-0.017250141
196	0xbd0970cf	-0.03355485
197	0xbce05dcd	-0.027388478
198	0x3cccc0d0	0.024994284
199	0xbd1392e3	-0.036028754
200	0x3d5b018e	0.05346828
201	0x3dd16416	0.10224168
202	0xbc4c3873	-0.01246463
203	0xbcb24b4b	-0.021764418
204	0xbd5487cd	-0.051887322
205	0xbce93715	-0.028468648
206	0xbd95aa2f	-0.073078506
207	0x3d7da062	0.06192053
208	0xbd819720	-0.06327653
209	0xbde237ac	-0.11045775
210	0x3db2fd7d	0.08739755
211	0x3c926bd9	0.017873691
212	0x3c75391e	0.014967231
213	0xbc8d8dcf	-0.017279534
214	0xbda6f27d	-0.0815172
215	0xbd61db51	-0.055140797
216	0xbc2de1e6	-0.01061294
217	0xbc58a6dc	-0.013223376
218	0xbd35f4b6	-0.044422828
219	0x3d1b3ac3	0.037897836
220	0x3b569a31	0.0032745714
221	0xbb067c14	-0.0020520734
222	0xbd103ea6	-0.035215996
223	0x3d3939fc	0.045221314
224	0xbd0c9b60	-0.034327865
225	0x3d1f9ebe	0.038969748
226	0xbcfd13a4	-0.030893154
227	0x3dc52240	0.09625673
228	0xbbe39e65	-0.0069463723
229	0xbcaaef62	-0.0208661
230	0xbd825d29	-0.06365425
231	0xbb88b558	-0.0041720085
232	0xbd2c0707	-0.04199889
233	0x3d98309d	0.07431147
234	0x3d138243	0.0360129
235	0x3b80a8ed	0.0039263875
236	0x3d308510	0.04309565
237	0xbb7a3b4a	-0.0038182312
238	0xbe84f7cc	-0.25970304
239	0xbe2d3921	-0.16916324
240	0x3d43c5a7	0.047795918
241	0xbd277136	-0.04087945
242	0x3dafe9f7	0.08589547
243	0xbb938005	-0.004501345
244	0x3c541633	0.012944746
245	0x3d25131e	0.040301435
246	0xbd03ea81	-0.032206062
247	0xbccd9d13	-0.025099313
248	0xbd8c92f0	-0.068639636
249	0x3d13b173	0.0360579
250	0xbd348263	-0.04406966
251	0xbd3d6bd2	-0.046245404
252	0x3d1cde5d	0.038298
253	0xbce1246d	-0.02748319
254	0x3c20b89a	0.009809637
255	0x3cbbd6f8	0.022929654

0.features.0.1.weight f4 [16]
0	0x3f6d24ab	0.92634076
1	0x3f58611f	0.84523195
2	0x3f68a9e3	0.90884227
3	0x3f489016	0.7834486
4	0x3f864793	1.0490593
5	0x3f48e372	0.78472054
6	0x3f831269	1.0239993
7	0x3f5c0164	0.8593962
8	0x3f6545ac	0.89559436
9	0x3f512a93	0.8170559
10	0x3f65bc84	0.89740777
11	0x3f76d2e5	0.9641555
12	0x3f7b1f13	0.9809429
13	0x3f6e2698	0.9302764
14	0x3f766458	0.9624686
15	0x3f41b414	0.756654

0.features.0.1.bias f4 [16]
0	0x3e15bd2f	0.14622949
1	0x3ec03fb6	0.37548608
2	0x3ef83038	0.48474288
3	0x3e64c0fd	0.22339244
4	0x3e7852a9	0.24250282
5	0x3e544806	0.207306
6	0x3e5adc7b	0.21373169
7	0x3ea1f157	0.3162944
8	0x3e53ca16	0.20682558
9	0xbc038c4c	-0.008029055
10	0x3e183302	0.14863208
11	0x3e915ddb	0.2839192
12	0x3e47f2dc	0.19526237
13	0x3e07aa63	0.13248591
14	0x3de14591	0.10999597
15	0x3ec0a354	0.3762461

0.features.0.1.running_mean f4 [16]
0	0xbac831c7	-0.0015273624
1	0xb8f88c0e	-0.00011851649
2	0xb9579da7	-0.00020562728
3	0xb9dd9a92	-0.0004226757
4	0x380b53da	3.3218275e-05
5	0xba64c2e3	-0.000872655
6	0x39e90e0c	0.0004445169
7	0xb89a2053	-7.349313e-05
8	0x393575ad	0.00017305343
9	0x39b5ec8c	0.0003469925
10	0xb9ce88be	-0.00039393263
11	0xba846fa4	-0.0010104072
12	0xba2ea62b	-0.0006662334
13	0x3a247c5c	0.00062746345
14	0x39f18d14	0.00046072213
15	0x39dcb6b6	0.000420978

0.features.0.1.running_var f4 [16]
0	0x4009f650	2.1556587
1	0x3ee9e066	0.45679015
2	0x3f22553c	0.6341131
3	0x3e851c93	0.25998363
4	0x3f05f7f9	0.523315
5	0x3f48c4b4	0.78425145
6	0x3f513fc1	0.81737906
7	0x3ee975eb	0.45597777
8	0x3f0f83a0	0.5606022
9	0x3e0a38ec	0.13498276
10	0x3f24fc01	0.6444703
11	0x3fb8d6c8	1.4440546
12	0x3f94cdf8	1.1625357
13	0x3f753ae6	0.95792997
14	0x3f23271d	0.6373156
15	0x3e91b8f3	0.28461418

0.features.1.0.block.0.0.weight f4 [16, 16, 3, 3]
0	0xbc86fd92	-0.016478334
1	0x3e5204ec	0.2050969
2	0x3dcf32b3	0.10117092
3	0x3e5d4cb8	0.21611297
4	0xbaef52c3	-0.0018258918
5	0x3d638510	0.05554682
6	0x3e2a69a9	0.16641869
7	0x3e8a7451	0.27041867
8	0xbde5515b	-0.11197158
9	0xbe3931a5	-0.18085344
10	0xbe175b68	-0.14780962
11	0xbbe47ddf	-0.006973013
12	0x3cdcecf4	0.026968457
13	0x3d9e5884	0.07731727
14	0x3dbd2a2c	0.09236559
15	0x3d696fc5	0.056991357
16	0x3e3c5446	0.18391523
17	0x3c790692	0.01519932
18	0xbdd98cae	-0.10622536
19	0xbe3a2918	-0.18179739
20	0x3e2d1388	0.16901982
21	0x3e46fb79	0.19431867
22	0xbdf24140	-0.11828852
23	0xbdeaeb5f	-0.11470675
24	0xbbca5977	-0.006175216
25	0xbcc4794f	-0.023983626
26	0xbddeb6a3	-0.10874679
27	0xbd147db9	-0.03625271
28	0x3cbb954e	0.022898342
29	0x3cfac83b	0.030613055
30	0xbda01cb7	-0.07817977
31	0x3b77fb63	0.0037839047
32	0xbe23b19f	-0.15985726
33	0xbd568891	-0.052376334
34	0xbdaff70d	-0.08592043
35	0x3e1bda14	0.15219909
36	0xbdc9f209	-0.09860618
37	0x3e0e765b	0.13912337
38	0xbe3690e3	-0.17828707
39	0x3d5dd097	0.054154005
40	0xbcda542a	-0.02665146
41	0xbdd45629	-0.10367996
42	0xbdf0c07f	-0.11755466
43	0xbd28aaf7	-0.04117867
44	0x3dbcab29	0.09212334
45	0xbe816053	-0.25268802
46	0xbc9e9902	-0.01936007
47	0xbe4054b4	-0.18782312
48	0xbcb59870	-0.022167414
49	0xbe3e9e1b	-0.18615
50	0x3d77214b	0.060334485
51	0xbd52172a	-0.051291622
52	0x3d63a439	0.055576537
53	0xbd8c276e	-0.06843458
54	0x3e234832	0.15945509
55	0xbd4ee330	-0.05050963
56	0xbd69534b	-0.0569642
57	0xbe0073e6	-0.12544212
58	0xbe87372e	-0.26409286
59	0xbe53b628	-0.20674956
60	0xbea8c2c2	-0.32961088
61	0xbde72748	-0.11286789
62	0x3e43b101	0.1911049
63	0x3dc2c00d	0.09509287
64	0x3d816f69	0.06320078
65	0xbc187d04	-0.00930715
66	0xbbcf06b5	-0.006317938
67	0xbd8e41b0	-0.06946123
68	0x3d650da3	0.055921208
69	0x3e298c69	0.16557468
70	0x3da08c6d	0.07839284
71	0xbcd400ec	-0.025879346
72	0x3e636c3f	0.22209261
73	0xbd892c50	-0.06697905
74	0xbdbb192b	-0.0913566
75	0xbe2343bf	-0.15943812
76	0xbdc0203f	-0.093811505
77	0xbda56fd7	-0.080779724
78	0xbd9dbd43	-0.077021144
79	0xbe4a322f	-0.19745706
80	0x3ddfe2ef	0.10931956
81	0xbd1481d0	-0.03625661
82	0xbe1a6bfb	-0.15080254
83	0xbe2bc721	-0.1677518
84	0xbe1ee871	-0.15518357
85	0x3c4a7a5e	0.012358276
86	0x3bdaecb3	0.006681049
87	0xbe074111	-0.13208415
88	0xbe0f4247	-0.13990127
89	0xbd291336	-0.041278087
90	0x3d2c11f2	0.0420093
91	0x3e1d969f	0.15389489
92	0xbdd6246c	-0.10456166
93	0xbdb2b899	-0.087266155
94	0x3d637ec3	0.05554081
95	0x3c8bb303	0.017053133
96	0x3d0097f0	0.0313949
97	0x3c2e4e5b	0.010638799
98	0x3c94642c	0.018114172
99	0xbd50c572	-0.05096955
100	0x3d3ebb8d	0.04656558
101	0x3bcb2cee	0.0062004244
102	0x3c873726	0.016505789
103	0xbe3b39bb	-0.18283741
104	0x3d876ef2	0.06612958
105	0x3e582b63	0.211103
106	0x3dd6555d	0.104655005
107	0x3e46e26e	0.19422314
108	0xbd84c7c5	-0.064834155
109	0x3d49ac0e	0.04923635
110	0xbc70a976	-0.01468884
111	0xbd60eae8	-0.054911524
112	0x3ccbe258	0.024888203
113	0x3dd16ad9	0.10225458
114	0x3dbe6f6f	0.09298598
115	0x3d11de74	0.03561254
116	0x3d9c309e	0.076264605
117	0x3e0a4935	0.13504489
118	0x3d1028d4	0.035195187
119	0xbcc3814f	-0.02386537
120	0xbd7a43e6	-0.06109991
121	0xbe4bd5fd	-0.19905849
122	0xbd380c50	-0.044933617
123	0x3d3e4625	0.046453614
124	0xbe61b4f7	-0.22041689
125	0x3dcd39aa	0.10020764
126	0x3db8be96	0.090207264
127	0xbe031681	-0.12801553
128	0x3d3f68a4	0.046730652
129	0xbd48a887	-0.048988845
130	0xbd19ee2d	-0.037580658
131	0xbd978f11	-0.074003346
132	0xbeb68dfa	-0.35655195
133	0xbe8f39b9	-0.27973726
134	0xbe8794fd	-0.26480857
135	0x3c97cc86	0.018530142
136	0x3db635e4	0.088969976
137	0xbe17d009	-0.14825453
138	0xbc090eca	-0.008365342
139	0x3dbabfca	0.09118612
140	0x3d388492	0.045048304
141	0x3dfac638	0.122448385
142	0xbc006a95	-0.007837911
143	0x3db3288a	0.087479666
144	0x3d04241e	0.032261007
145	0xbde06bd0	-0.109580636
146	0xbdc1f0f3	-0.094697855
147	0xbe429d06	-0.19005212
148	0x3e00a200	0.12561798
149	0x3d3dddcc	0.0463541
150	0x3ddceb24	0.10787037
151	0x3dddf4c4	0.10837701
152	0xbe2e8f7a	-0.1704692
153	0x3d5d1d62	0.0539831
154	0xbdcc2393	-0.09967723
155	0xbd84e54b	-0.06489047
156	0x3da642e1	0.08118225
157	0xbd0338d9	-0.032036636
158	0xbdbad7d7	-0.091231994
159	0xbd372db3	-0.044721317
160	0x3dd3175b	0.10307189
161	0xbe5eea6d	-0.21769114
162	0xbcc88ada	-0.024480272
163	0xbcab20a8	-0.020889595
164	0xbcc00033	-0.023437595
165	0x3ddba973	0.10725679
166	0xbe0bf7ea	-0.1366879
167	0xbdd92940	-0.10603571
168	0x3e7108bf	0.23538493
169	0xbe0069dd	-0.12540384
170	0xbe26792b	-0.1625716
171	0xbd49d1b0	-0.04927224
172	0x3ca555a8	0.020182446
173	0x3dd47d7a	0.10375495
174	0xbe31ff53	-0.17382555
175	0xbbf09527	-0.007341999
176	0xbcf3f042	-0.02977765
177	0x3d17121d	0.03688251
178	0x3d24026e	0.04004138
179	0xbd99ceb4	-0.075101286
180	0xbdafe70b	-0.0858899
181	0x3dcf49b7	0.10121482
182	0x3c7c3d55	0.015395482
183	0x3e85d35a	0.2613781
184	0x3dfccf81	0.12344266
185	0x3cb8af29	0.02254446
186	0xbe07f4e5	-0.13277014
187	0x3ac6e1f4	0.001517354
188	0x3df1e7bc	0.11811778
189	0x3d01eb60	0.03171861
190	0x3cfd293a	0.030903447
191	0xbdbd51d8	-0.09244126
192	0x3cb0b066	0.021568488
193	0xbd963bf3	-0.07335653
194	0x3e576b14	0.21036941
195	0x3d80cc9a	0.06289025
196	0xbc651ac3	-0.013983431
197	0xbdfcbcc6	-0.12340693
198	0xbd538298	-0.051638216
199	0x3daf111a	0.08548184
200	0xbd970703	-0.07374384
201	0x3cf4631d	0.029832417
202	0x3e37d828	0.17953551
203	0x3e206a6d	0.15665598
204	0x3e3cb115	0.18426926
205	0x3e0f8df2	0.14018992
206	0xbcbbd247	-0.022927416
207	0xbe2c43b2	-0.16822699
208	0x3ccfe8ab	0.0253795
209	0x3e6a60d7	0.22888504
210	0xbda7da8a	-0.0819598
211	0xbd93b0e8	-0.072114766
212	0xbcd123dc	-0.025529794
213	0x3dc587a4	0.09645012
214	0xbdbdf743	-0.09275677
215	0x3ebdf0db	0.3709782
216	0xbd9ee766	-0.077589795
217	0xbd2597b0	-0.040427864
218	0x3cfeb521	0.031092228
219	0xbe2d0b79	-0.16898908
220	0x3d21cbb7	0.03950092
221	0x3dbcad58	0.0921275
222	0xbd5bffef	-0.053710874
223	0xbd625373	-0.055255365
224	0x3cf64ade	0.030064996
225	0xbe1a2ec2	-0.15056899
226	0xbe11ef2b	-0.14251392
227	0xbd99bd72	-0.07506837
228	0xbda61f3e	-0.08111428
229	0xbca4a8a7	-0.020099951
230	0xbe102f3d	-0.1408052
231	0x3d93d5f7	0.07218545
232	0x3e46a94c	0.19400519
233	0x3e52d52a	0.20589128
234	0xbd9f5b7b	-0.077811204
235	0x3bb3a301	0.005482078
236	0x3e142140	0.14465809
237	0xbe164f25	-0.14678629
238	0xbd1ab9d7	-0.037774887
239	0x3d75a362	0.059970267
240	0x3c9b3d57	0.018950148
241	0x3d800f18	0.06252879
242	0xbc5c3141	-0.013439477
243	0x3b96bcfa	0.0046001645
244	0x3b4535ca	0.0030091875
245	0xbd8b8827	-0.068130784
246	0xbe39dedd	-0.18151422
247	0xbd99cf9c	-0.075103015
248	0x3cd7e267	0.026353074
249	0x3c4dc3ae	0.012558861
250	0xbe1d4847	-0.15359603
251	0xbd5fe0a0	-0.05465758
252	0xbd95d389	-0.07315738
253	0xbd826a97	-0.06367987
254	0xbda4303b	-0.08017012
255	0xbd87c6c5	-0.06629709

0.features.1.0.block.0.1.weight f4 [16]
0	0x3f5b9978	0.8578105
1	0x3f6620ed	0.8989399
2	0x3f67e82e	0.90588653
3	0x3f6155eb	0.88021725
4	0x3fa68bed	1.3011452
5	0x3f706e69	0.9391847
6	0x3f897305	1.0738226
7	0x3f67272a	0.90294135
8	0x3f6c0ebe	0.92209995
9	0x3f7466d8	0.9546943
10	0x3f7053cb	0.9387786
11	0x3f5bb5d4	0.8582432
12	0x3f2b43a8	0.6690011
13	0x3f8194f0	1.0123577
14	0x3f7fa941	0.99867636
15	0x3f4e054f	0.8047685

0.features.1.0.block.0.1.bias f4 [16]
0	0x3ddbd2f4	0.107335955
1	0xbc9401d8	-0.018067285
2	0x3df8cf6a	0.12148936
3	0x3e0a2022	0.1348882
4	0xbf26b081	-0.65113074
5	0x3d482692	0.04886491
6	0x3b2bf5d5	0.0026239057
7	0x3d9aa35b	0.07550689
8	0x3e28b61b	0.16475718
9	0x3ddd24ee	0.107980594
10	0x3d097b79	0.03356502
11	0x3e98e5ca	0.29862815
12	0x3d3cc6a0	0.04608786
13	0x3d133646	0.03594043
14	0x3d3433aa	0.043994583
15	0x3e0425c1	0.12905027

0.features.1.0.block.0.1.running_mean f4 [16]
0	0xbf045dc1	-0.5170556
1	0xbd9c865e	-0.07642816
2	0x3ee9802d	0.45605603
3	0x3e948b47	0.2901251
4	0xbfc78452	-1.5587256
5	0xbf27f5d7	-0.65609497
6	0xbd84799f	-0.0646851
7	0x3e4d397f	0.20041464
8	0x3ee15379	0.44008997
9	0x3ed26022	0.4108897
10	0xbfd57c9f	-1.6678656
11	0xbe578542	-0.21046928
12	0x3f4df3f9	0.804504
13	0xbda7473f	-0.08167886
14	0xbefa5c30	-0.48898458
15	0xbe4da535	-0.20082553

0.features.1.0.block.0.1.running_var f4 [16]
0	0x4049406f	3.1445577
1	0x403577fd	2.8354485
2	0x406a6f1a	3.663031
3	0x408a1b64	4.3158436
4	0x3ee42ee1	0.44567016
5	0x40147cc8	2.320116
6	0x4031cef8	2.7782574
7	0x402866d0	2.6312752
8	0x4061a4b6	3.5256782
9	0x3faaabae	1.3333642
10	0x4071d53a	3.7786393
11	0x405ac5fc	3.418334
12	0x3f9586b2	1.1681731
13	0x409839aa	4.757039
14	0x402eae57	2.7293909
15	0x40219194	2.5245104

0.features.2.0.block.0.0.weight f4 [64, 16, 3, 3]
0	0xbb8a78db	-0.004225833
1	0xbc5ca3c6	-0.013466781
2	0x3c4b1f1d	0.012397555
3	0x3d7e1833	0.062034797
4	0x3dc90652	0.09815659
5	0x3d242b8f	0.040080603
6	0x3d7883fa	0.060672738
7	0xbd1047fb	-0.035224896
8	0xbca256f9	-0.019816862
9	0x3d5f8ac0	0.05457568
10	0xbd2da8d0	-0.04239732
11	0xbdc11a90	-0.094288945
12	0xbcefbc12	-0.029264484
13	0xbd87de63	-0.06634214
14	0xbd9bd76c	-0.07609448
15	0xbd15f930	-0.036614597
16	0xbd334131	-0.043763343
17	0x3dcaea3c	0.09907958
18	0xbd03bbfc	-0.032161698
19	0x3cb66d39	0.022268878
20	0xbd32e389	-0.043674026
21	0x3dff9d79	0.124812074
22	0xbd0c77fc	-0.034294114
23	0x3ab4ba84	0.0013788496
24	0x3d6152c6	0.05501058
25	0xbcf31692	-0.029673848
26	0xbe0695f9	-0.13143148
27	0x3c40d273	0.011768925
28	0x3d615089	0.055008445
29	0x3cdc6172	0.026901934
30	0x3bab7457	0.0052323746
31	0x3e0df155	0.13861592
32	0x3da4b08e	0.08041488
33	0xbd81f342	-0.06345226
34	0x3d84c058	0.06481999
35	0xbb151bd6	-0.0022752187
36	0xbb67ab4e	-0.0035349908
37	0xbcbeb9f6	-0.023282032
38	0xbd920036	-0.071289465
39	0x3c49a01c	0.012306239
40	0x3c77b572	0.0151189435
41	0x3cd1e1e5	0.02562041
42	0xbc30a81d	-0.010782269
43	0x3d955e55	0.07293383
44	0xbd173f73	-0.036925744
45	0x3cf4d721	0.029887738
46	0x3ca939b0	0.02065739
47	0x3d6e4b24	0.05817713
48	0xbc7a6ec9	-0.015285202
49	0xbc263049	-0.010143348
50	0x3c84426a	0.01614495
51	0xbd3c2f12	-0.045943327
52	0x3dc0dbb9	0.09416909
53	0xbcd1dcdc	-0.02561801
54	0xbd20d3cb	-0.03926448
55	0xbd23f039	-0.040024016
56	0xbd444a78	-0.04792258
57	0x3c9e1019	0.019294785
58	0x3ca80373	0.020509457
59	0xbd8b4df5	-0.068019785
60	0x3dd0f701	0.10203362
61	0xbbbaf816	-0.0057058437
62	0xbd4e2988	-0.050332576
63	0x3c4bc3e9	0.012436845
64	0xbe1dad8c	-0.15398234
65	0xbd9ead7a	-0.07747932
66	0xbdb7696d	-0.08955655
67	0xbd3dca63	-0.04633559
68	0xbc46d499	-0.012135648
69	0x3bfdd667	0.007746506
70	0xbb5a492a	-0.003330777
71	0x3d14fe8d	0.03637557
72	0xbd7fc7a8	-0.062446266
73	0x3e09d4c7	0.13460074
74	0x3cbe37ce	0.02321997
75	0x3d83b941	0.06431819
76	0x3d2c4959	0.042062137
77	0x3de3fc2a	0.11132081
78	0x3d1fd8f8	0.039025277
79	0x3dc146c9	0.09437329
80	0xbd67aadb	-0.056559425
81	0xbbedc58a	-0.0072562145
82	0x3d195a0b	0.037439387
83	0xbcb4f651	-0.022090109
84	0x3cd0fb25	0.02551038
85	0x3ddeb406	0.108741805
86	0xbb2f976d	-0.0026793138
87	0x3ce51657	0.027964754
88	0xbdddef2b	-0.10836633
89	0xbd631136	-0.055436336
90	0x3bdff747	0.0068348977
91	0x3da603cf	0.08106195
92	0x3c6ea202	0.014564993
93	0x3dabfeb2	0.08398189
94	0x3dd28c58	0.10280675
95	0x3c26a0e7	0.010170198
96	0xbc538af8	-0.012911551
97	0xbd85bd72	-0.065302745
98	0x3cdf2ab1	0.027242037
99	0xbd3c7c71	-0.046017114
100	0x3db3efd1	0.08785976
101	0xbd9d39c8	-0.076770365
102	0xbcc39abf	-0.0238775
103	0x3e2f8f2f	0.17144464
104	0x3dde2ce0	0.10848403
105	0xbdb0a7e1	-0.0862577
106	0x3d3db733	0.04631729
107	0x3d0f8df8	0.0350475
108	0x3e104963	0.14090495
109	0x3cce84fd	0.025209898
110	0x3d98a5bf	0.074534886
111	0xbc4b9e83	-0.012427929
112	0x3d86587b	0.06559845
113	0x3d923927	0.07139807
114	0x3d40e6f5	0.047095258
115	0xbae486f7	-0.0017435242
116	0x3cd9d5ed	0.026591266
117	0x3cbd4466	0.023103904
118	0xbd9239e3	-0.07139947
119	0xbdc45ca4	-0.09587982
120	0x3d1111de	0.03541743
121	0xbd31ba0d	-0.043390322
122	0xbd6589d4	-0.056039646
123	0x3d33b4b0	0.04387349
124	0xbd288874	-0.041145757
125	0x3d28835a	0.04114089
126	0x3b3cf569	0.00288328
127	0x3cd37f1f	0.025817452
128	0x3d948243	0.07251408
129	0x3d924467	0.07141953
130	0x3e01b5d7	0.12667023
131	0x3d056fea	0.032577433
132	0xbd2e1f5b	-0.04251037
133	0x3d3b307e	0.045700543
134	0xbdc93ea5	-0.098264016
135	0x3d85e1e9	0.065372296
136	0xbc92ea53	-0.017934
137	0xbc75aa04	-0.014994148
138	0xbd7fb23b	-0.062425833
139	0x3d0e947d	0.03480958
140	0x3d105e05	0.035245914
141	0x3d6b9f12	0.05752475
142	0xbde4b807	-0.11167913
143	0xbc709e5f	-0.014686196
144	0x3da8acd6	0.08236091
145	0xbc839d40	-0.016066194
146	0xbda518bb	-0.080613576
147	0x3dd13441	0.10215045
148	0xbc6e3f73	-0.014541495
149	0xbdc44ee5	-0.095853604
150	0xbd5686cf	-0.052374657
151	0x3c9ae6af	0.018908827
152	0xbdb87530	-0.09006727
153	0xbd6ff526	-0.0585834
154	0xbd57a564	-0.052647963
155	0x3bc991c6	0.0061514108
156	0xbdc421bc	-0.09576747
157	0x3d54e789	0.05197862
158	0xbe168768	-0.14700091
159	0x3c94740a	0.018121738
160	0xbd6d21eb	-0.057893675
161	0xbcdc826c	-0.026917659
162	0xbb21b6b4	-0.002467555
163	0x3bbf36e1	0.0058353995
164	0x3da67e53	0.08129563
165	0xbcbccc4d	-0.023046637
166	0x3d572f81	0.052535538
167	0x3db55b35	0.08855287
168	0x3bd67abc	0.006545393
169	0x3db7123c	0.08939025
170	0x3bc9aa3a	0.006154326
171	0x3be5e069	0.007015277
172	0x3d2ad647	0.041708257
173	0x3d76c967	0.060250666
174	0x3da7be22	0.08190562
175	0x3d6b26f2	0.057410188
176	0xbccd159a	-0.025034714
177	0xbc6e4f66	-0.014545297
178	0x3d8cf398	0.06882399
179	0x3dd98393	0.10620799
180	0x3d2f85c4	0.04285218
181	0x3ca9f6c6	0.020747554
182	0x3d09b4f5	0.03361984
183	0xbd3b8b3e	-0.04578709
184	0x3c9eecb8	0.019399986
185	0x3c044737	0.00807362
186	0xbd8051a7	-0.06265574
187	0xbdfc36e4	-0.12315157
188	0xbd1e5904	-0.03865911
189	0x3cec561f	0.02884966
190	0x3dbd30ab	0.09237798
191	0xbd9cb9f9	-0.07652659
192	0x3db732b7	0.0894522
193	0x3dcb07a3	0.09913566
194	0x3d955c8f	0.07293045
195	0xbd8ac2ff	-0.06775474
196	0x3cd14741	0.025546672
197	0x3dabbe1e	0.08385871
198	0xbd5a6abf	-0.053324457
199	0x3c25889f	0.010103374
200	0x3d833996	0.06407468
201	0xbc9c0ac2	-0.019048098
202	0x3d60bab7	0.054865565
203	0xbca00774	-0.019534804
204	0x3d8433db	0.06455203
205	0x3da0a8cd	0.07844696
206	0xbd81ccb0	-0.06337869
207	0xbe236c05	-0.15959175
208	0xbe507286	-0.20356187
209	0x3caee5e3	0.021349853
210	0x3b34e4bf	0.0027602164
211	0xbd443f42	-0.04791189
212	0xbd1e74fc	-0.038685784
213	0xbd67a88a	-0.056557216
214	0x3d051b1d	0.03249656
215	0xbde6b234	-0.11264458
216	0x3cc29c41	0.023756148
217	0x3cb95c66	0.022627067
218	0x3da80fce	0.082061395
219	0x3d9232ef	0.07138621
220	0x3b75546a	0.0037434348
221	0xbcc2cf49	-0.023780482
222	0x3de305cc	0.1108509
223	0x3d7211a6	0.059098862
224	0x3d8e5a77	0.069508485
225	0xbdb39504	-0.08768657
226	0xbd0d87d0	-0.03455335
227	0x3c1fd4c1	0.009755314
228	0x3db85b95	0.09001843
229	0x3cafecf9	0.021475302
230	0x3d51f8b2	0.051262565
231	0xbd1766f5	-0.03696342
232	0x3adfd6ea	0.0017077599
233	0xbd100043	-0.0351565
234	0x3c447627	0.01199106
235	0x3bcd26aa	0.0062607126
236	0xbd94e903	-0.07271006
237	0xbcec8c8d	-0.028875614
238	0x3d81b858	0.06333989
239	0x3dc3e167	0.095644765
240	0xbd9991a2	-0.074984804
241	0x3d50ef14	0.051009253
242	0x3d0642e4	0.032778636
243	0x3ba3c543	0.0049978807
244	0x3d6373d1	0.055530373
245	0x3ca31105	0.019905576
246	0xbbedd5a6	-0.007258135
247	0x3e044c65	0.12919767
248	0x3d44a659	0.048010204
249	0xbd5ba613	-0.053625178
250	0x3e2819d2	0.164161
251	0x3d5b4fc5	0.05354287
252	0xbd3e7de0	-0.046506763
253	0x3c8b3a13	0.016995465
254	0x3a1026a2	0.0005498921
255	0x3d178d53	0.03700001

0.features.2.0.block.0.1.weight f4 [64]
0	0x3f725660	0.9466305
1	0x3f6b5a28	0.9193444
2	0x3f860455	1.0470072
3	0x3f800ac5	1.0003287
4	0x3f80e87d	1.007095
5	0x3f74880c	0.9552009
6	0x3f66aba6	0.90105665
7	0x3f7d0abc	0.98844504
8	0x3f6bb7dc	0.9207742
9	0x3f91f180	1.1401825
10	0x3f6f1544	0.93391824
11	0x3f71abd0	0.9440279
12	0x3f6a0e6b	0.9142825
13	0x3f72c8c1	0.94837576
14	0x3f6d4f46	0.92699087
15	0x3f72d819	0.9486099
16	0x3f634bea	0.8878771
17	0x3f7d41c0	0.9892845
18	0x3f668967	0.9005341
19	0x3f6e9d37	0.9320864
20	0x3f8523c9	1.0401546
21	0x3f7b88c4	0.9825556
22	0x3f6f1c09	0.93402153
23	0x3f55c972	0.83510506
24	0x3f7caf95	0.98705417
25	0x3f5522c9	0.832562
26	0x3f812b45	1.009133
27	0x3f561443	0.83624667
28	0x3f5561a7	0.8335213
29	0x3f72f1db	0.9490029
30	0x3f728595	0.9473508
31	0x3fa9d9a6	1.3269546
32	0x3f754c18	0.95819235
33	0x3f6aecc4	0.91767526
34	0x3f698124	0.9121268
35	0x3f72ae8a	0.94797575
36	0x3f76d0c0	0.9641228
37	0x3f5e5355	0.86845905
38	0x3f6e2578	0.9302592
39	0x3f796c85	0.9743121
40	0x3f829b1f	1.0203589
41	0x3f6b85a1	0.92000777
42	0x3f751aff	0.9574432
43	0x3f736de9	0.95089585
44	0x3f840cc7	1.0316399
45	0x3f78d679	0.9720226
46	0x3f60c04d	0.8779343
47	0x3f75121f	0.95730776
48	0x3f707094	0.9392178
49	0x3f7f8e33	0.99826354
50	0x3f4a9b19	0.7914291
51	0x3f84c365	1.037213
52	0x3f5fd90a	0.8744055
53	0x3f66f619	0.90219265
54	0x3f84e530	1.0382442
55	0x3f752b04	0.9576876
56	0x3f7af319	0.9802719
57	0x3f6d124c	0.92606044
58	0x3f77842f	0.9668607
59	0x3f76de77	0.96433204
60	0x3f809dba	1.0048134
61	0x3f71cd79	0.9445415
62	0x3f6e06eb	0.92979306
63	0x3f688d81	0.9084092

0.features.2.0.block.0.1.bias f4 [64]
0	0x3d8ee86a	0.06977923
1	0x3c9ba77b	0.01900076
2	0x3d3cf7d5	0.04613479
3	0x3cb2bae1	0.021817626
4	0x3dc5df0f	0.09661686
5	0x3e10df30	0.1414764
6	0x3e3e2856	0.18570074
7	0x3d84a46f	0.06476676
8	0x3d927ceb	0.071527325
9	0xbedceb27	-0.43148157
10	0x3dc8e2bf	0.098088734
11	0x3dacd640	0.084393024
12	0x3eacba64	0.33735955
13	0x3e56b3d5	0.20967038
14	0x3d44398d	0.047906447
15	0x3d4157cf	0.04720288
16	0x3e072b7b	0.1320018
17	0x3c230cb8	0.009951763
18	0x3e2c21e3	0.16809802
19	0x3e09949f	0.134356
20	0x3e051225	0.12995203
21	0x3df9e18b	0.12201222
22	0x3db54531	0.08851088
23	0x3d8a77b6	0.06761114
24	0x3e441592	0.19148853
25	0xbdfa4c75	-0.12221614
26	0x3cdebd7c	0.027189963
27	0x3e5e46dd	0.2170672
28	0x3d33a9d9	0.04386315
29	0x3de17d53	0.11010232
30	0x3e161416	0.146561
31	0xbef68a95	-0.48152605
32	0x3daa4d01	0.083154686
33	0x3e52a225	0.20569666
34	0x3d65cfa7	0.056106236
35	0x3e2a5743	0.1663485
36	0x3df01ef1	0.117246516
37	0x3e185dcc	0.1487953
38	0x3d44d768	0.04805699
39	0x3dc56f77	0.09640401
40	0x3dc0b149	0.094088145
41	0x3df0d84b	0.117600046
42	0x3de7bf32	0.113157645
43	0xbc26fcfb	-0.010192151
44	0x3d4922ee	0.049105577
45	0x3d3403a2	0.043948777
46	0x3dc56b0c	0.09639558
47	0x3e027ffe	0.12744138
48	0x3e5b35a3	0.2140718
49	0x3e97ffa6	0.29687232
50	0x3e5a9fca	0.21350017
51	0x3e81131d	0.25209895
52	0x3d9fe4f1	0.07807339
53	0x3ce3a2ff	0.027787684
54	0x3daebe8c	0.08532438
55	0x3d793f96	0.060851656
56	0x3d1b2cd2	0.03788454
57	0x3db68db7	0.08913749
58	0x3e02d7cc	0.12777632
59	0x3db15f32	0.08660735
60	0x3df1164b	0.1177183
61	0x3d0c15ee	0.0342006
62	0x3d212ba7	0.03934827
63	0x3ce60fb0	0.028083652

0.features.2.0.block.0.1.running_mean f4 [64]
0	0x3f06347f	0.5242385
1	0x3e953971	0.29145387
2	0xbd8c5d53	-0.06853738
3	0xbd347936	-0.04406091
4	0x3edb0bf8	0.4278257
5	0x3e4d1350	0.20026898
6	0xbf37bf2b	-0.71776074
7	0xbef35159	-0.47523
8	0x3e0019ae	0.12509796
9	0x3f01c5db	0.5069253
10	0x3e82bae2	0.25533205
11	0xbe852614	-0.26005614
12	0x3efbbef0	0.4916911
13	0xbd344e28	-0.044019848
14	0x3df79024	0.120880395
15	0x3e1e1521	0.15437748
16	0xbe57b530	-0.21065211
17	0xbe21eff2	-0.15814188
18	0x3f311dcc	0.6918609
19	0x3cbd65f8	0.023119912
20	0x3e3de84e	0.18545648
21	0x3d865f66	0.065611646
22	0xbe90c990	-0.2827878
23	0xbe074247	-0.13208877
24	0x3e531e28	0.20616972
25	0x3dbfe7d3	0.09370389
26	0xbf6ce81c	-0.9254167
27	0x3f07603c	0.52881217
28	0x3ef664c0	0.4812374
29	0x3f1abed1	0.6044741
30	0x3f679a52	0.9046985
31	0x3f0fcc67	0.5617127
32	0x3ea5356a	0.32267314
33	0x3f1e9b47	0.61955684
34	0x3f467edb	0.77537316
35	0x3d24f8a1	0.040276174
36	0x3ed9df14	0.42553008
37	0x3f4d241b	0.8013322
38	0xbf339e83	-0.70163745
39	0x3d309768	0.043113142
40	0x3ec2154b	0.3790687
41	0xbf13c090	-0.577157
42	0xbf3d81f8	-0.7402644
43	0xbd784fea	-0.060623087
44	0xbeb01561	-0.3439131
45	0x3d944d90	0.072413564
46	0xbe4e1513	-0.20125227
47	0x3e970ddf	0.2950277
48	0x3f43c22f	0.76468176
49	0xbea53601	-0.32267764
50	0xbe88a3b7	-0.26687405
51	0x3d7f72e9	0.062365446
52	0xbe58ddc7	-0.21178351
53	0xbed4fac8	-0.4159758
54	0xbf23bd10	-0.6396036
55	0x3e20c555	0.15700276
56	0x3caf7101	0.02141619
57	0xbead8718	-0.3389213
58	0x3e0b8816	0.13626131
59	0xbc7e7581	-0.015530945
60	0x3f1a709e	0.6032809
61	0x3ec7a0d2	0.38989884
62	0xbee310f1	-0.44348863
63	0x3f484abd	0.7823904

0.features.2.0.block.0.1.running_var f4 [64]
0	0x3fe883b1	1.8165189
1	0x403994a3	2.899697
2	0x3fe06af4	1.753264
3	0x401c357e	2.440765
4	0x3f878cd0	1.0589848
5	0x4091ac23	4.552263
6	0x3fe9914e	1.8247468
7	0x3f8bc9a3	1.092091
8	0x3fd33d06	1.6502998
9	0x3ea8f7aa	0.33001453
10	0x4000cd98	2.0125484
11	0x3f751556	0.9573568
12	0x3fb4c2f1	1.4121991
13	0x3f5110ec	0.81666446
14	0x4022cb60	2.543663
15	0x3fe3f5ed	1.7809426
16	0x3f14cdd3	0.5812656
17	0x40583d7c	3.3787527
18	0x3fce113f	1.6099013
19	0x400e2c21	2.2214434
20	0x3f6e0fed	0.9299305
21	0x4065a785	3.5883496
22	0x3ff22ec5	1.8920523
23	0x3fe6c9cf	1.8030337
24	0x40375d40	2.8650665
25	0x3f39f9e3	0.7264692
26	0x3fddb1e0	1.7319908
27	0x3f8c12d6	1.0943248
28	0x3fea5021	1.8305703
29	0x4092d888	4.588932
30	0x404fcac2	3.2467504
31	0x3e9139f8	0.2836454
32	0x40ba38d3	5.8194366
33	0x3fb6cd56	1.4281414
34	0x402636a0	2.597084
35	0x3f598e4a	0.8498274
36	0x409182ba	4.547208
37	0x3fcfe6c1	1.6242296
38	0x400b97d1	2.1811411
39	0x3fba903a	1.4575264
40	0x3fd0edd2	1.6322577
41	0x4028fb10	2.6403236
42	0x3fa0e408	1.256959
43	0x3fe81c29	1.8133594
44	0x3ffaeab9	1.9602882
45	0x4058410b	3.37897
46	0x3fcfa914	1.6223474
47	0x403a68aa	2.9126382
48	0x3ff17631	1.8864194
49	0x401e1ccc	2.4705076
50	0x3f74a1ed	0.9555958
51	0x3f267aab	0.65030926
52	0x4006ffa3	2.1093528
53	0x4047aa59	3.1197722
54	0x40a31758	5.0965996
55	0x404f7c3e	3.2419581
56	0x40125bed	2.2868607
57	0x3f8fd8eb	1.1238073
58	0x40237f4a	2.554644
59	0x3fd99439	1.6998359
60	0x4004f6a2	2.0775533
61	0x3f7c0142	0.9843942
62	0x404a20d6	3.1582541
63	0x406a312f	3.659252

0.features.2.0.block.1.0.weight f4 [32, 64, 1, 1]
0	0x3d5c743a	0.05382178
1	0xbf06c97d	-0.52651197
2	0x3e36a6f7	0.1783713
3	0xbc24a7a3	-0.010049733
4	0xbe2f67e5	-0.17129476
5	0xbe0c196f	-0.13681577
6	0x3d03edf1	0.03220934
7	0x3de62f6a	0.11239512
8	0xbe03a65e	-0.12856433
9	0xbd6af25c	-0.05736004
10	0x3f1c2cf8	0.61006117
11	0x3e83b7d0	0.25726175
12	0x3ea7d479	0.3277929
13	0x3db61e17	0.08892458
14	0xbd79c3b5	-0.060977656
15	0x3d06b8e7	0.03289118
16	0x3cb5c85f	0.022190271
17	0x3ebbdcf3	0.36692008
18	0xbda84ddf	-0.08217978
19	0x3e440a1f	0.19144486
20	0xbe739c0d	-0.23789997
21	0xbe421eca	-0.18957058
22	0x3e006bc6	0.12541112
23	0x3dc36f56	0.0954272
24	0x3ecd55f2	0.40104634
25	0xbdca8cbd	-0.09890125
26	0xbe1d5daa	-0.15367761
27	0x3cfa6386	0.030565035
28	0xbd3ebed7	-0.046568718
29	0x3cc02178	0.02345346
30	0xbd9bb4e2	-0.0760286
31	0xbe75e1a8	-0.24011862
32	0xbd97043b	-0.07373854
33	0xbeca6c63	-0.39535818
34	0xbe288a4a	-0.16459003
35	0xbec75f80	-0.38940048
36	0xbea4d940	-0.32197
37	0x3e95d3bd	0.29263106
38	0xbc084333	-0.008316803
39	0xbe6b842d	-0.2299964
40	0xbde701a5	-0.112796105
41	0x3e18d231	0.14923932
42	0xbe68c597	-0.22731625
43	0x3e8bda51	0.27315
44	0xbcdba882	-0.02681375
45	0x3eb0de59	0.34544638
46	0x3f08120e	0.5315255
47	0xbeb1c6dc	-0.3472203
48	0x3db4d815	0.08830277
49	0x3e9a3cd1	0.30124524
50	0x3d9e67b9	0.07734627
51	0x3dd0688d	0.101761915
52	0x3e75de15	0.24010499
53	0xbd51e6f9	-0.051245663
54	0xbdfa6ddc	-0.12227985
55	0x3d20638f	0.039157446
56	0x3e130660	0.143579
57	0x3cb49d3b	0.02204763
58	0xbe7065ce	-0.23476335
59	0xbba2e4f6	-0.004971142
60	0xbd9f0636	-0.077648565
61	0xbe55818b	-0.20850198
62	0x3e32d911	0.17465617
63	0x3e05bf88	0.13061345
64	0x3edb48e1	0.4282904
65	0xbe7ee5ba	-0.24892321
66	0xbdce62b9	-0.100774236
67	0xbc32eb3b	-0.010920341
68	0x3e60c98e	0.21951887
69	0x3edbd94b	0.4293922
70	0xbe0506fc	-0.12990946
71	0xbe5f97a5	-0.21835192
72	0x3e460641	0.19338323
73	0xbe9a206d	-0.30102864
74	0x3cd5af6a	0.02608462
75	0x3e89b265	0.26893917
76	0xbdd4e180	-0.10394573
77	0x3e478847	0.1948558
78	0xbd8c0132	-0.068361655
79	0xbe917073	-0.28406104
80	0xbe65217c	-0.22376055
81	0x3e61d206	0.22052774
82	0x3e939310	0.28823137
83	0xbe2b1f7c	-0.16711229
84	0xbda586e1	-0.08082367
85	0x3e197b4e	0.14988443
86	0xbe191534	-0.14949495
87	0xbd29d084	-0.04145862
88	0x3e6ccae4	0.23124272
89	0x3eec9f2b	0.46215186
90	0x3d3c5e03	0.045988094
91	0x3e578601	0.21047212
92	0x3dcefafa	0.10106464
93	0x3e04cf79	0.1296977
94	0xbd774f40	-0.060378313
95	0xbf1186b2	-0.56846154
96	0xbe6175ba	-0.22017565
97	0x3e5644e4	0.20924717
98	0x3e8f2a5d	0.27962008
99	0xbe9fb80e	-0.3119511
100	0x3d5cb2e5	0.053881545
101	0xbe32dd02	-0.1746712
102	0x3ef1a432	0.47195584
103	0xbe275ec4	-0.16344744
104	0x3ee6cc48	0.4507773
105	0x3e50b8cd	0.20382996
106	0xbec44de1	-0.38340667
107	0xbed192aa	-0.40932208
108	0xbe9f586f	-0.31122157
109	0xbd6163d4	-0.055026844
110	0xbd50c8cb	-0.05097274
111	0xbed21378	-0.41030478
112	0x3e377637	0.17916189
113	0x3e17fe41	0.14843084
114	0x3e47df75	0.19518836
115	0xbe1db012	-0.15399197
116	0xbd96400b	-0.07336434
117	0x3bd9eee9	0.0066507948
118	0xbedbea91	-0.42952397
119	0x3e1e1f41	0.1544161
120	0xbe2b2e6a	-0.16716924
121	0x3e677148	0.22601807
122	0x3e9360f5	0.2878491
123	0xbe2adfc8	-0.16686928
124	0x3da5d4c7	0.08097225
125	0xbebbcbeb	-0.36679015
126	0x3e85071d	0.2598199
127	0x3d2310e7	0.03981104
128	0xbcf89665	-0.030345151
129	0x3e0ea5b0	0.13930392
130	0xbe2ae282	-0.16687968
131	0xbead9a41	-0.3390675
132	0xbe86c0ae	-0.26318878
133	0x3d137d61	0.036008243
134	0x3e11e525	0.14247568
135	0xbe9d4de1	-0.3072348
136	0xbe5ca720	-0.21548128
137	0x3e606479	0.21913327
138	0xbde5a71c	-0.11213514
139	0x3e919742	0.28435713
140	0x3e8bbc3c	0.2729205
141	0xbef4222e	-0.47682327
142	0xbc920eee	-0.017829385
143	0x3a92284b	0.0011150924
144	0xbcc7b22b	-0.02437695
145	0xbef3e682	-0.476368
146	0xbefcefb2	-0.49401623
147	0xbd8a42d4	-0.06751028
148	0xbe57a794	-0.2106002
149	0x3e604acb	0.21903531
150	0xbdd05a38	-0.10173458
151	0xbec8aa12	-0.39192253
152	0x3e1a2d32	0.15056303
153	0xbe291151	-0.16510512
154	0xbe2e29a5	-0.17008074
155	0xbe6fe6b8	-0.23427856
156	0x3efbc0ef	0.49170634
157	0x3db77bf0	0.08959186
158	0xbd6acc67	-0.05732384
159	0xbee9bbcc	-0.4565109
160	0xbe025716	-0.12728533
161	0x3d7fee75	0.06248327
162	0xbe7e0035	-0.24804766
163	0xbd735af8	-0.059412926
164	0x3e5bd3dc	0.21467537
165	0x3e930fdf	0.28723046
166	0x3e3b9ac7	0.18320762
167	0x3e238363	0.15968089
168	0x3eccae75	0.3997685
169	0x3e8027fa	0.250305
170	0x3eb75f83	0.35815057
171	0x3e93ffe9	0.2890618
172	0xbc1a22f8	-0.009407751
173	0xbe7c4626	-0.24636135
174	0xbe886d2c	-0.26645792
175	0x3ecda2be	0.40163225
176	0x3e07a4c7	0.13246451
177	0xbda1bc92	-0.07897295
178	0x3e86653b	0.26249108
179	0x3f32b080	0.6980057
180	0x3e24bde9	0.1608807
181	0xbe6332a1	-0.22187282
182	0xbed48665	-0.41508785
183	0xbed95587	-0.42448065
184	0xbe78b096	-0.24286112
185	0x3ddb0264	0.10693815
186	0x3e2b6371	0.16737153
187	0xbdc9e3eb	-0.09857925
188	0x3f1481e1	0.5801068
189	0x3eac6bec	0.33676088
190	0x3ea299d4	0.31757987
191	0xbf0be5b3	-0.5464737
192	0x3f135f01	0.5756684
193	0x3d25ca4d	0.040476132
194	0x3dc79609	0.09745414
195	0x3e252d6d	0.1613061
196	0x3ecdbbb2	0.40182263
197	0x3ed1e174	0.4099232
198	0xbcab63ad	-0.020921553
199	0x3ce0512a	0.027382452
200	0xbe7a2cd2	-0.2443116
201	0xbe75e5cc	-0.24013442
202	0x3d5a3349	0.053271566
203	0x3e067ee3	0.13134341
204	0xbe9fbd4d	-0.31199113
205	0xbe807798	-0.25091243
206	0xbf07fb05	-0.531174
207	0xbd62d695	-0.055380423
208	0x3df64987	0.12025743
209	0xbd20ba05	-0.039239902
210	0xbe250244	-0.16114146
211	0x3edd30f6	0.43201417
212	0xbe6b337e	-0.22968861
213	0xbe252365	-0.16126783
214	0xbed4e098	-0.415776
215	0xbf059084	-0.5217364
216	0xbe718f7a	-0.23589888
217	0xbd75f9bb	-0.060052615
218	0xbda6c841	-0.08143664
219	0x3e19f69b	0.15035479
220	0x3cb7f8de	0.022457536
221	0xbea0ffcc	-0.31445158
222	0xbe5a106c	-0.21295327
223	0x3e939ec7	0.28832075
224	0x3e5312b5	0.20612605
225	0xbea0b6af	-0.31389377
226	0xbdc1a0f2	-0.09454526
227	0x3e4ddf92	0.20104817
228	0xbe5ea67e	-0.21743199
229	0x3e03417a	0.12817946
230	0xbf016b6c	-0.5055454
231	0x3cc11664	0.023570247
232	0xbdfc334c	-0.123144716
233	0x3e0e9f3b	0.13927929
234	0x3e48ded2	0.19616249
235	0x3ea20ff1	0.31652787
236	0xbd3e1eff	-0.04641628
237	0x3e57ef92	0.21087483
238	0xbe0fb38a	-0.14033332
239	0xbe7e5960	-0.24838781
240	0x3d48c1f9	0.04901311
241	0xbe917d2a	-0.28415805
242	0xbef95741	-0.48699382
243	0xbe937f17	-0.288079
244	0x3deb82ae	0.114995345
245	0xbe828367	-0.25490877
246	0x3d8bf0b9	0.068330236
247	0x3eb6949a	0.3566025
248	0x3f20bbe7	0.62786716
249	0xbe6ba389	-0.23011602
250	0x3e98b8ab	0.2982839
251	0xbda8b7ae	-0.08238159
252	0xbe34a7d1	-0.17642142
253	0x3d7c5a16	0.06160935
254	0xbf103552	-0.5633136
255	0xbe8883d8	-0.2666309

0.features.2.0.block.1.1.weight f4 [32]
0	0x3f7600be	0.9609488
1	0x3f835a05	1.0261847
2	0x3f72abf3	0.94793624
3	0x3f75ae46	0.95969045
4	0x3f7ab7b1	0.9793654
5	0x3f77874d	0.9669083
6	0x3f819e65	1.0126463
7	0x3f6e10af	0.9299421
8	0x3f7a5c60	0.97797203
9	0x3f7a7a32	0.97842705
10	0x3f88ed45	1.0697409
11	0x3f74f8e0	0.95692253
12	0x3f7ce72d	0.98790246
13	0x3f834c8e	1.0257738
14	0x3f7f5fe2	0.9975568
15	0x3f8020f7	1.001006
16	0x3f7227a5	0.9459174
17	0x3f854123	1.0410503
18	0x3f77f98b	0.9686515
19	0x3f811779	1.0085288
20	0x3f772346	0.965382
21	0x3f80461f	1.0021399
22	0x3f822acb	1.0169309
23	0x3f81d065	1.0141722
24	0x3f77d91f	0.96815675
25	0x3f800c74	1.00038
26	0x3f8280b6	1.019553
27	0x3f741680	0.9534683
28	0x3f7270d2	0.947034
29	0x3f684f12	0.9074565
30	0x3f78cf29	0.971911
31	0x3f8302a5	1.0235182

0.features.2.0.block.1.1.bias f4 [32]
0	0xbabb5d23	-0.0014294725
1	0x3cad4103	0.021149164
2	0xbc9ec517	-0.01938109
3	0xbbae0e7c	-0.0053117853
4	0xbbef66ab	-0.00730594
5	0x3b48305b	0.00305464
6	0x3c3c0ed7	0.0114781475
7	0x3ad04625	0.0015890045
8	0xbcbc3dd0	-0.022978693
9	0xbcd4c94d	-0.025974894
10	0xbc6704ad	-0.014100236
11	0xb9b8f530	-0.00035277894
12	0xbd14f804	-0.03636934
13	0xbbd783a7	-0.0065769735
14	0xbbd232a2	-0.0064147273
15	0x3d314d9e	0.043286912
16	0xbd0b7b84	-0.03405334
17	0xbd08151d	-0.03322326
18	0x3c04e11b	0.00811031
19	0xbcd28a5a	-0.025700737
20	0xbd85d44d	-0.06534634
21	0xbb34843c	-0.0027544638
22	0x3c4eb55b	0.012616481
23	0x3d085cbd	0.033291567
24	0xbcbc132e	-0.022958364
25	0x3d0e0df5	0.03468128
26	0x3d088893	0.033333372
27	0x3c921428	0.017831877
28	0x3adfbe20	0.0017070211
29	0x3be110b0	0.0068684444
30	0xbb8ff52f	-0.004393242
31	0xbb9305e0	-0.0044867843

0.features.2.0.block.1.1.running_mean f4 [32]
0	0x3e5f5917	0.21811329
1	0x3d8481e3	0.064700864
2	0x3da4001d	0.08007834
3	0xbf1ecfb1	-0.6203566
4	0x3e85994f	0.26093528
5	0x3e4bb05a	0.19891492
6	0xbe4d0831	-0.20022656
7	0xbe083b19	-0.13303794
8	0x3e35b652	0.17745331
9	0x3cb3e8d2	0.021961603
10	0xbf223c98	-0.6337371
11	0x3e0c47a1	0.136992
12	0xbec40cfa	-0.3829115
13	0xbf2958a3	-0.66150874
14	0xbf4e90e4	-0.80689836
15	0xbeb418f7	-0.35175297
16	0x3e82e9a4	0.2556888
17	0xbed0d6ed	-0.40788975
18	0x3ee8b611	0.45451406
19	0x3e35f23d	0.17768188
20	0xbf2f380f	-0.68444914
21	0xbea5c1d4	-0.32374442
22	0xbe201876	-0.15634331
23	0xbe5fca76	-0.21854576
24	0x3e357457	0.17720161
25	0xbecef962	-0.4042464
26	0x3d733ede	0.059386127
27	0xbef7c240	-0.48390388
28	0x3e623d23	0.22093634
29	0xbec9fb92	-0.39449745
30	0xbf0327e5	-0.5123275
31	0x3f114073	0.56738967

0.features.2.0.block.1.1.running_var f4 [32]
0	0x3f1fcc9a	0.6242157
1	0x407079e2	3.7574391
2	0x3ffc9a26	1.9734542
3	0x3fd210ab	1.6411337
4	0x3fd36b20	1.6517067
5	0x402f0926	2.7349334
6	0x4034212a	2.8145242
7	0x4004fec9	2.0780509
8	0x4010f0fb	2.2647083
9	0x4112a302	9.164797
10	0x3fcef23e	1.6167676
11	0x3f722863	0.94592875
12	0x3f7bc1ef	0.98342794
13	0x4103a0cd	8.226758
14	0x40118d33	2.274243
15	0x3f4b7f65	0.79491264
16	0x3ffacef2	1.9594405
17	0x4023e755	2.5609944
18	0x40ada68d	5.426581
19	0x404b3064	3.1748285
20	0x411431b0	9.262131
21	0x401f8456	2.4924521
22	0x3fe6830e	1.8008745
23	0x3f307d95	0.6894162
24	0x402f3839	2.7378066
25	0x3fb6b2f6	1.4273365
26	0x407f70b0	3.991253
27	0x3f948779	1.1603843
28	0x3f7d351c	0.98909163
29	0x3f567c24	0.83783174
30	0x40612458	3.5178432
31	0x3f548748	0.8301892

0.features.3.0.block.0.0.weight f4 [128, 32, 1, 1]
0	0x3d43a2f2	0.04776282
1	0xbd8b41a8	-0.06799632
2	0x3df6c776	0.12049763
3	0xbdaffcdd	-0.08593152
4	0x3e132f93	0.14373617
5	0xbd4c6ea3	-0.0499102
6	0x3cfea808	0.031085983
7	0x3dba816f	0.09106719
8	0x3e864b2d	0.2622923
9	0x3dae641b	0.08515187
10	0xbaf72eea	-0.0018858586
11	0x3dbcf02b	0.09225496
12	0xbe1f829c	-0.15577167
13	0x3ceb3359	0.028711008
14	0x3e6d21f1	0.23157479
15	0x3dfc4cd9	0.12319345
16	0x3e37db60	0.17954779
17	0xbd5ed000	-0.054397583
18	0x3ce2de27	0.027693821
19	0xbbeec001	-0.0072860722
20	0xbdd1ec70	-0.10250175
21	0x3d1864bd	0.037205447
22	0xbe29e3f1	-0.16590859
23	0x3daab12e	0.083345756
24	0xbe252e04	-0.16130835
25	0x3d84e131	0.06488264
26	0x3d53cc3e	0.051708452
27	0xbe7f2cb6	-0.249194
28	0x3cdbc739	0.026828395
29	0xbe76865a	-0.24074689
30	0xbd97e977	-0.07417577
31	0xbdff5825	-0.12467984
32	0x3b36fcbc	0.0027921638
33	0x3d77318d	0.06034999
34	0xbe2ff18e	-0.1718199
35	0x3c4ad71b	0.012380387
36	0xbe327fc0	-0.17431545
37	0xbd761b24	-0.060084477
38	0x3d923a54	0.071400315
39	0x3e1b890a	0.15188995
40	0x3ddfbc87	0.109246306
41	0x3e1d7c7f	0.15379523
42	0x3e67f735	0.22652896
43	0xbe066787	-0.1312543
44	0xbddd8fab	-0.10818418
45	0x3e3626a1	0.17788173
46	0xbdf29022	-0.118438974
47	0x3e9326f7	0.28740665
48	0x3d0772e3	0.03306855
49	0xbe748d45	-0.23882015
50	0xbe127a6c	-0.14304513
51	0xbd6213df	-0.05519473
52	0x3d903b99	0.07042617
53	0x3d8713b4	0.06595555
54	0xbd973dd9	-0.073848434
55	0xbe1bf9b2	-0.1523197
56	0x3d5c6d33	0.053815078
57	0xbd3946f7	-0.045233693
58	0xbcb8babf	-0.022549985
59	0xbc17a972	-0.0092567075
60	0x3e2f1756	0.17098746
61	0xbd956f92	-0.07296671
62	0xbea6c2d3	-0.32570514
63	0x3dc85366	0.09781532
64	0xbe2573bb	-0.16157429
65	0x3d84b8bd	0.064805485
66	0x3dbff2ee	0.09372507
67	0x3e236448	0.15956223
68	0x3e0e6525	0.13905771
69	0x3db62970	0.08894622
70	0x3a817794	0.0009877556
71	0xba8b2565	-0.0010616003
72	0x3e608d29	0.21928848
73	0x3e341119	0.17584647
74	0xbd0b7526	-0.03404727
75	0x3e6cd2c1	0.23127271
76	0xbd216060	-0.03939855
77	0xbd2d90eb	-0.042374533
78	0x3e702347	0.23450957
79	0x3dfecba6	0.124411866
80	0x3e2d8aa7	0.16947423
81	0x3b390bcc	0.0028235791
82	0xbdb34bbd	-0.0875468
83	0xbdaa1d89	-0.08306415
84	0x3d74666c	0.05966799
85	0x3e317847	0.17331038
86	0x3e79d754	0.24398547
87	0xbe4f6910	-0.20254922
88	0x3e009fb4	0.12560922
89	0xbd8c3967	-0.06846886
90	0x3d40ccbc	0.04707025
91	0xbe445f60	-0.19177008
92	0x3c5e7062	0.013576599
93	0x3dcf08fc	0.101091355
94	0x3dfd6a04	0.123737365
95	0xbe3d6051	-0.18493773
96	0x3dd67fbb	0.104735814
97	0xbdf41257	-0.119175605
98	0x3d2c2246	0.042024873
99	0xbd74412f	-0.059632476
100	0xbd0b0caa	-0.033947624
101	0xbe2120e5	-0.15735205
102	0x3d47f842	0.04882074
103	0xbdd17d0e	-0.102289304
104	0xbd0a753b	-0.033803206
105	0x3e2768fb	0.1634864
106	0x3d00a9b4	0.03141184
107	0xbbe61a66	-0.00702219
108	0xbe5b4757	-0.21413933
109	0x3e31137b	0.17292587
110	0x3e503cc6	0.20335683
111	0x3ce3034a	0.02771153
112	0x3dafbe27	0.085811906
113	0x3de90036	0.11376993
114	0xbd9a96b4	-0.075482756
115	0x3d33bf07	0.04388335
116	0x3d7905e7	0.060796645
117	0x3dcb7dfe	0.099361405
118	0x3e54176d	0.20712061
119	0x3da51dfb	0.08062359
120	0xbc45bf2c	-0.012069505
121	0x3de3c437	0.111214094
122	0xbd584c7d	-0.05280732
123	0xbbf3e90b	-0.0074435524
124	0xbd4a2f6e	-0.04936164
125	0xbda2831f	-0.079351656
126	0xbcd1a06a	-0.025589187
127	0x3cb6eefc	0.022330754
128	0xbdb95c53	-0.090508126
129	0xbe6a90f3	-0.22906856
130	0xbd896e98	-0.06710547
131	0x3c9c7a2b	0.019101223
132	0xbd953e35	-0.07287256
133	0x3e972583	0.29520807
134	0x3db2f04c	0.08737239
135	0xbdb03839	-0.086044736
136	0xbe88e229	-0.26735047
137	0x3db0db53	0.08635583
138	0xbeeafa0c	-0.45893896
139	0x3d12669f	0.0357424
140	0xbd8a160b	-0.067424856
141	0x3d4b535a	0.049640037
142	0xbd6c5510	-0.05769831
143	0xbeb6ef2e	-0.35729355
144	0x3dde990a	0.10869034
145	0x3d40b3c3	0.047046434
146	0x3dc77ff4	0.09741202
147	0xbd4ce867	-0.050026324
148	0xbc1c43b0	-0.009537622
149	0x3da19968	0.07890588
150	0xbd708e33	-0.05872936
151	0x3e01663d	0.12636657
152	0x3d6d0166	0.05786266
153	0xbe0f53f4	-0.1399687
154	0xbe071761	-0.13192512
155	0xbe11db45	-0.14243801
156	0xbe3032db	-0.172069
157	0x3e365cab	0.17808788
158	0xbdda88a1	-0.10670591
159	0x3c0722c6	0.008248037
160	0x3c782038	0.0151444
161	0xba724008	-0.0009241109
162	0x3d103df9	0.03521535
163	0xbe25ccf2	-0.16191462
164	0x3e0ff542	0.14058402
165	0x3cf227e1	0.029560031
166	0x3c463870	0.012098417
167	0xbd33da35	-0.04390927
168	0x3d8c644a	0.06855066
169	0xbe064bb6	-0.13114819
170	0x3de403ac	0.11133513
171	0xbd207e70	-0.03918308
172	0xbe36c41e	-0.1784825
173	0xbdcd3794	-0.10020366
174	0x3da73f80	0.081664085
175	0xbdc845a0	-0.09778905
176	0x3de7dae8	0.1132105
177	0xbde5ee15	-0.11227051
178	0xbd62bc06	-0.055355094
179	0x3df7a00a	0.12091072
180	0x3e9986dc	0.29985702
181	0x3e229bf2	0.15879801
182	0x3c996bc7	0.01872815
183	0xbad942d0	-0.0016575698
184	0x3d40d841	0.047081236
185	0xbd3e65ec	-0.04648392
186	0x3dfdfdce	0.12401925
187	0xbe7e2cf2	-0.24821833
188	0xbe849205	-0.25892654
189	0x3e2f7ef8	0.17138278
190	0x3e01b24f	0.12665676
191	0xbe16bde5	-0.14720877
192	0x3d9a1fb8	0.07525581
193	0xbca85d84	-0.020552404
194	0xbdf0c186	-0.11755662
195	0xbd1cc422	-0.038272984
196	0xbd0194ba	-0.031635977
197	0xbe3a44c9	-0.18190302
198	0xbdca7337	-0.09885257
199	0xbc2aa02e	-0.010414166
200	0x3e059f7a	0.13049117
201	0xbd0d50f4	-0.03450103
202	0xbd140060	-0.03613317
203	0xbe2701d6	-0.16309294
204	0xbdaac22a	-0.08337815
205	0x3ccdc9cc	0.025120638
206	0x3d1ace40	0.03779435
207	0xbb9dbb1b	-0.0048135645
208	0xbd08f9ab	-0.033441227
209	0x3e17f128	0.14838088
210	0xba8e8b1e	-0.00108752
211	0xbdefce73	-0.11709299
212	0x3e2806f5	0.16408904
213	0xbd8e409f	-0.06945919
214	0x3d7ab04d	0.06120329
215	0x3d9b2cfb	0.07576939
216	0xbd2a8ac4	-0.041636243
217	0x3d511847	0.051048543
218	0xbe1bc621	-0.15212299
219	0x3cb1e0e8	0.021713689
220	0x3d9f5419	0.07779712
221	0xbd6d777c	-0.057975277
222	0xbd952781	-0.072829254
223	0xbe2dc3f2	-0.16969278
224	0xbe21f47e	-0.15815923
225	0xbcdce72b	-0.026965698
226	0x3d368a6d	0.044565607
227	0xbd0ba6e3	-0.034094702
228	0x3e265b8e	0.16245863
229	0xbdd68d0e	-0.10476123
230	0x3e683d8e	0.22679731
231	0x3d31b569	0.043385897
232	0x3d926771	0.07148636
233	0xbd8f3935	-0.06993333
234	0x3d7871e8	0.060655504
235	0x3d999565	0.07499198
236	0xbdadb915	-0.08482567
237	0xb949c0ae	-0.00019240633
238	0x3e751a74	0.23935872
239	0xbe22a915	-0.15884812
240	0x3dc082c7	0.09399944
241	0xbeb724df	-0.35770318
242	0xbe1bd809	-0.1521913
243	0x3db3403d	0.08752487
244	0x3d068d77	0.032849755
245	0x3d2bd623	0.041952264
246	0xbe25e74c	-0.16201514
247	0x3d8bb02b	0.06820711
248	0x3e5ee4d8	0.21766984
249	0xbdb7b186	-0.08969407
250	0xbe325f31	-0.17419125
251	0xbe04af9a	-0.12957612
252	0xbd2697a3	-0.040671956
253	0xbdfc1955	-0.12309519
254	0xbde0ee98	-0.10983008
255	0xbe11613c	-0.14197248

0.features.3.0.block.0.1.weight f4 [128]
0	0x3f35d398	0.7102599
1	0x3fb1cbe3	1.3890346
2	0x3e5889cd	0.21146317
3	0x3f60fe09	0.87887627
4	0x3e90f4fe	0.28311914
5	0x3f3c263f	0.7349586
6	0x3f70103b	0.93774766
7	0x3f400faa	0.750239
8	0x3f5be165	0.858908
9	0x3f0787e7	0.52941746
10	0x3f4de609	0.8042913
11	0x3f04c557	0.51863617
12	0x3f21459d	0.62996846
13	0x3dbba1af	0.09161698
14	0x3f24c86f	0.6436834
15	0x3e5f960a	0.21834579
16	0x3f048620	0.5176716
17	0x3ed291ad	0.41126767
18	0x3f4d5295	0.80204135
19	0x3f19359d	0.5984743
20	0x3e71f972	0.23630312
21	0x3ee6eab4	0.4510094
22	0x3f1a9f68	0.60399485
23	0x3f7c1a8e	0.9847802
24	0x3eececee	0.46274513
25	0x3f4d5781	0.80211645
26	0x3f1e96fd	0.6194914
27	0x3dac9778	0.08427328
28	0x3ebc7c96	0.36813802
29	0x3eea8fe5	0.45812908
30	0x3f638b8e	0.8888482
31	0x3f1df9d2	0.6170932
32	0x3f391995	0.7230466
33	0x3f387843	0.72058505
34	0x3f4b0e8d	0.7931908
35	0x3f1e9e16	0.6195997
36	0x3ee48afd	0.4463729
37	0x3f06fd0b	0.5272986
38	0x3f04406f	0.5166082
39	0x3edac639	0.42729357
40	0x3f5c2c60	0.8600521
41	0x3f2fd087	0.6867756
42	0x3e5d4f65	0.21612318
43	0x3f0a0b62	0.5392362
44	0x3f15ac61	0.58466154
45	0x3f686911	0.9078532
46	0x3f272cd7	0.65302795
47	0x3f5cef54	0.86302686
48	0x3eb25385	0.34829345
49	0x3ecba895	0.39777055
50	0x3f46373b	0.77428025
51	0x3eb34b01	0.3501816
52	0x3f84b76f	1.036848
53	0x3e7fdbe3	0.24986224
54	0x3f007cc3	0.5019037
55	0x3f563479	0.83673817
56	0x3f1affb6	0.60546434
57	0x3f507018	0.8142104
58	0x3f53748e	0.82599723
59	0x3f4b0e7e	0.7931899
60	0x3f372e9f	0.71555513
61	0x3f3dce56	0.7414297
62	0x3ec6ce17	0.3882911
63	0x3e4951b8	0.1966008
64	0x3ef6a320	0.4817133
65	0x3db407e5	0.08790568
66	0x3f538304	0.8262179
67	0x3ea1f678	0.31633353
68	0x3ee315e0	0.44352627
69	0x3f5ca169	0.8618379
70	0x3f30f3ad	0.6912182
71	0x3f3a3a49	0.72745186
72	0x3ebdb8b3	0.37054977
73	0x3f3089f4	0.689605
74	0x3f5ce703	0.86289996
75	0x3ee0b7ca	0.4389022
76	0x3eadb9d3	0.33930835
77	0x3f2f8562	0.685629
78	0x3e94b408	0.29043603
79	0x3f663e33	0.8993866
80	0x3eac8df3	0.3370205
81	0x3f38a00d	0.7211922
82	0x3f378e71	0.71701723
83	0x3f10c6b2	0.56553185
84	0x3eb02433	0.34402618
85	0x3f48f7b4	0.78502965
86	0x3f222c61	0.63348967
87	0x3e61bafc	0.22043985
88	0x3f2c4c00	0.67303467
89	0x3f0e01ec	0.5547168
90	0x3efaaf16	0.48961705
91	0x3f20b827	0.62780994
92	0x3ebcb9d0	0.36860514
93	0x3f2d98ed	0.6781147
94	0x3f46ee7a	0.77707636
95	0x3f57f4be	0.8435782
96	0x3f4bef5d	0.79662114
97	0x3f24bb95	0.6434873
98	0x3f07db7d	0.5306929
99	0x3f51c893	0.81946677
100	0x3f1be7b5	0.6090043
101	0x3dd66e79	0.1047029
102	0x3f676a7c	0.9039686
103	0x3f5b7b96	0.8573545
104	0x3f5c349a	0.86017764
105	0x3eb46a57	0.3523738
106	0x3ef1fd36	0.47263497
107	0x3f19988a	0.5999838
108	0x3f49931c	0.78740096
109	0x3f2070a8	0.626719
110	0x3f3d6e18	0.73996115
111	0x3f057ed0	0.52146626
112	0x3f1e8883	0.6192705
113	0x3f44b7af	0.7684278
114	0x3f9242d6	1.1426647
115	0x3eba55e0	0.36393642
116	0x3f760821	0.96106154
117	0x3f40230d	0.75053483
118	0x3eecbed0	0.46239328
119	0x3f0d744c	0.5525558
120	0x3f4c414f	0.79787153
121	0x3ed827f6	0.42217988
122	0x3f3ecc9e	0.7453097
123	0x3f8127af	1.0090235
124	0x3efd97cd	0.49529877
125	0x3e540436	0.20704731
126	0x3e9f7bec	0.31149232
127	0x3f4234b4	0.7586167
