code/modeling/ckpt/AutoencoderConfig([2, 2, 2], flip=True, rotate=False)/autoencoder_100.pth (torch, 720610 bytes, 102 tensors)

0.features.0.0.weight f4 [16, 8, 3, 3]
00000000: bbdc ccbc e01d a9bd 0651 84bd 1ff7 9d3d
00000010: c37b 8e3c d660 84bc 5977 72bd 6972 43bc
00000020: d2d9 b73d 4c04 b03d bdc5 d33d 3c39 c73d
00000030: 0bb3 bd3d c0a4 583d 42a9 90bc 57fe ee3d
00000040: 05c3 e43d c643 003e 2dea d0bb 8bf6 b4bc
00000050: 78b5 b5bd 9068 e23d f840 09bd 3b08 ad3d
00000060: 653c cd3d 30c9 ce3d 3ee6 0c3d 52b1 f23d
00000070: fc4b 213d 0398 833c 956c 393d 9537 f1bd
00000080: c282 16bc 1720 e4bd af6b 54bd 9a4c 4fbd
00000090: a9ad d2bd eb6e 5e3d 1ea6 1a3d ede6 9f3c
000000a0: f796 f63c 29b1 7fbd 389a f8bc 899f d5bc
000000b0: 7558 01bc 840c a93d 9841 c5bd 4a84 c3bc
000000c0: b8a6 b6bd 7993 39bd ba69 9c3c 6457 d43d
000000d0: 068a 423c b886 b7bd 6042 22bd 5ca2 c53d
000000e0: 40f9 da3b 6dc7 08bd 11aa 073c c17f a93d
000000f0: e347 8abd bbe6 a63d f886 89bd 9de4 81bd
00000100: 2e61 a4bd ae23 bb3d 1e1a 473d ba1e 9d3d
00000110: 7d56 2bbd 5f0a f4bb 3737 503d f1a7 96bd
00000120: d7ed de3d 5516 d53d 86c8 10bc a6b5 94bd
00000130: 5114 993d 432c 6d3d d023 77ba f8c3 583d
00000140: 00bc a8bd 5dc1 fd3c a9f5 603d d961 c2bd
00000150: da36 cabd 8d36 c13b dff8 033e 4f2d d7ba
00000160: 8987 4cbd a056 95bb 41e8 e53d b776 ce3d
00000170: c07f cdbd 4457 b13d 8e16 b0bc 5cf5 493d
00000180: 0808 e53c 1215 a33a b10d a43d 43a2 3a3c
00000190: e71f c83d 6d5a 57bb a69e a3bd 08b0 6e3c
000001a0: 42c8 bbbd 18f7 8dbd 42b9 ce3c 5126 843d
000001b0: 99c2 a43b 5bc2 b7bd efb0 2c3d 2e84 efbc
000001c0: 225e ec3c 856d a23b 5b90 b9bd 3926 b13c
000001d0: db6f 923c 5bc6 b03d 9bd6 e7bd df51 703d
000001e0: 92c8 16ba c44a 97bd aee2 0d3d 0e2a 713d
000001f0: f00f ecbd 578e bfbc d9ae 63bd 0dc7 513d
00000200: 369e 93bd 5003 5b3c b428 c7bd 8e13 5bbd
00000210: 014d 8abd 0d32 7c3d c399 e4bd dcbc 2bbc
00000220: c497 c9bd e997 a63d d1ce 95bd 28df d1bc
00000230: 8173 893d 9ff7 ecbd cd2d 07be eda7 9dbc
00000240: 48e0 2fbd 1ff8 513d b3d2 e43d 6c07 743d
00000250: 63a8 ac3d 4bbe d53d 1ac7 e53b 1f18 efbb
00000260: ec4c 42bd b329 66bd 0a8c 24bd 9a56 e5bc
00000270: e594 3f3d 2266 d53d 6c17 f73c 78b4 513d
00000280: 09d5 663d e8a2 a73d 9de6 adbd f4ac 22bc
00000290: ea83 b2bd 1d66 e5bd 9be5 febd 600b 853d
000002a0: f151 13bd f9b3 a7bc 6f07 06be 3f7b 303d
000002b0: d444 883c 88d0 533c 5410 3c3d 476d b83d
000002c0: d425 4d3c 0560 02bd 8648 cc3d ac40 a3bd
000002d0: b2e2 303d 3300 c33d df5f e63c 08ec ee3c
000002e0: ff94 a43d 83f3 68bc aaa2 103d b1e7 8dbd
000002f0: e052 c0bc 4a8d 9b3c 041e 0f3d 44d2 cebd
00000300: 134a abbd 41ba 3bbd 527c 31bd 5245 b73c
00000310: 0003 093d d57b 3fbd 8edc c7bd 419d d93c
00000320: 687c f0bc 29e0 813d 86bd cebd 6daa f7bd
00000330: f8cc a3bd 7662 c63c 9684 583d b3ca bcbb
00000340: 6feb 653c bf14 c03d fe11 08be cc83 76bc
00000350: dce8 8c3d 3540 bf3d 92e0 8c3d 32d2 633d
00000360: b373 d6bd a35a 41bd 8b93 49bd 9c1c 19bd
00000370: f08d b2bd c759 e53d 11a2 c6bd 20c5 b73d
00000380: c6f5 3e3d 4511 c3bd 430c 563d db25 b9bd
00000390: 3e24 113d d329 bebd c092 c7bd d484 413b
000003a0: 128b d2bd 922c e83c 1bb3 8e3d 5502 08be
000003b0: 9e69 9dbc 100a d8bc 71b8 b23d f79e d93d
000003c0: e168 33bc 7b1d 83bd 2e2f 01be 8678 92bc
000003d0: 3b40 6b3d e26f ba3c 8e9c 4dbc 613a c33b
000003e0: 6f36 be3d bbfe 8ebc ded9 27bb c4a1 d7bd
000003f0: 3ad3 8cbd 58da 01be 37bb a2bc 0f29 cd3a
-0.025007596 -0.08257651 -0.064607665 0.0771315 0.017392999 -0.016159456 -0.05919585 -0.011929133
0.08977093 0.085945696 0.1034045 0.097277135 0.09262665 0.052891493 -0.017658833 0.11669605
0.111700095 0.12525854 -0.006375572 -0.022090217 -0.08872503 0.110551 -0.033509225 0.084488355
0.10021285 0.10096967 0.034399264 0.118502274 0.039379105 0.016063696 0.045269568 -0.117781796
-0.0091864485 -0.11138933 -0.051860508 -0.050610162 -0.10287029 0.054305 0.037756078 0.019519294
0.030101283 -0.062424812 -0.030346975 -0.026077049 -0.007894625 0.0825434 -0.09631652 -0.023866791
-0.08918518 -0.045306657 0.019093383 0.10368231 0.011873728 -0.089612424 -0.03961408 0.09650108
0.006682545 -0.033393312 0.008280293 0.0827632 -0.067519926 0.08149477 -0.06715196 -0.06342433
-0.08026348 0.09137665 0.04860889 0.07671876 -0.04183053 -0.0074475254 0.050833907 -0.07356251
0.10885208 0.1040465 -0.008836871 -0.07261209 0.07474578 0.05790354 -0.0009427639 0.052921265
-0.08238983 0.030975992 0.05492178 -0.09491319 -0.09873743 0.0058963955 0.12887906 -0.0016416701
-0.049933944 -0.0045574456 0.112259395 0.10081237 -0.10034132 0.08659223 -0.02149513 0.04930626
0.027957931 0.0012442193 0.08010424 0.011391225 0.0977171 -0.0032860294 -0.07989244 0.014568336
-0.091690555 -0.06931895 0.025234822 0.06452621 0.0050280807 -0.08972617 0.042160925 -0.029237833
0.02885348 0.0049569034 -0.09060737 0.021624671 0.017875602 0.08631583 -0.113202296 0.05867183
-0.0005751933 -0.07387307 0.034640007 0.058877997 -0.11526477 -0.023383303 -0.05558667 0.05121522
-0.07207911 0.013367489 -0.097245604 -0.053485446 -0.067529686 0.06157117 -0.1116214 -0.010482039
-0.098434 0.08134443 -0.07314838 -0.025619105 0.06711484 -0.115706675 -0.13201065 -0.019245112
-0.0429385 0.051262017 0.11173 0.05957739 0.08430555 0.10436686 0.00701226 -0.0072965766
-0.04743664 -0.05619211 -0.040172614 -0.027995396 0.046772856 0.10419871 0.030162536 0.0511975
0.05635551 0.08185369 -0.084912516 -0.009928931 -0.08716567 -0.11201117 -0.124461375 0.0649631
-0.035966817 -0.02047156 -0.13088773 0.043086287 0.016634382 0.012928136 0.04591401 0.09005218
0.012521226 -0.031829853 0.0997477 -0.079713196 0.043184943 0.095215224 0.028121887 0.029165283
0.08036231 -0.014218214 0.03531138 -0.06928957 -0.023477018 0.01898827 0.034940735 -0.10098699
-0.08363738 -0.045831922 -0.04333145 0.022371922 0.033450127 -0.046748955 -0.09758864 0.026564242
-0.029356197 0.06341583 -0.100947425 -0.12093053 -0.07998079 0.024216872 0.05286082 -0.0057614683
0.0140331825 0.09378957 -0.13288113 -0.015046071 0.06880352 0.093384184 0.06878771 0.05562038
-0.104712866 -0.04720558 -0.049212974 -0.0373808 -0.08718479 0.11198764 -0.096988805 0.089731455
0.046621107 -0.09524778 0.052257787 -0.090404235 0.035434954 -0.09285321 -0.09744787 0.0029528635
-0.10280432 0.028341565 0.069677554 -0.1328214 -0.019215401 -0.026371986 0.08726586 0.10626023
-0.010950298 -0.06402107 -0.12615654 -0.017879736 0.0574343 0.022758428 -0.012549533 0.005957887
0.09287726 -0.01745545 -0.0025612037 -0.10528901 -0.06876226 -0.12680948 -0.019864662 0.0015652495

0.features.0.1.weight f4 [16]
00000000: 50d1 813f 3bdb 813f a3c3 7c3f 3790 7e3f
00000010: d146 7c3f 3ced 783f dd10 803f 5cad 813f
00000020: 2b99 803f bd37 803f d92e 823f 4db3 813f
00000030: c18d 813f cee4 803f 7e1d 823f 37b2 803f
1.0142002 1.0145029 0.9873602 0.99438804 0.9854556 0.9723699 1.0005146 1.013103
1.0046743 1.001701 1.0170547 1.0132843 1.0121385 1.0069826 1.016525 1.0054387

0.features.0.1.bias f4 [16]
00000000: 20fe 663d a6f3 143d 0cde 003d 9f02 b23c
00000010: 6343 253d c385 cf3c 0118 6c3c ca60 0f3d
00000020: 6565 e63c c42c 5f3d cca0 1e3d 58e9 283d
00000030: 3319 6c3c 702f 863c 6da1 db3c d256 cf3c
0.056394696 0.036365174 0.03146176 0.021729765 0.040347468 0.025332337 0.01441002 0.035004415
0.02812452 0.05448605 0.038727567 0.04123816 0.014410305 0.016380042 0.026810372 0.025309954

0.features.0.1.running_mean f4 [16]
00000000: 2b5c 83ba 0fdc 22ba 971e deb9 b729 fa38
00000010: 7e70 6639 41a3 6937 884d b939 686a cbb9
00000020: d867 bb3a 21be fa39 199d 46ba 31b5 a0ba
00000030: 35d3 db3a fbf2 2f39 b8c4 47ba 0520 6d3a
-0.0010021975 -0.0006212601 -0.0004236593 0.00011928699 0.00021976416 1.3925893e-05 0.00035343715 -0.00038798456
0.0014297916 0.00047825373 -0.000757651 -0.001226103 0.0016771319 0.00016779818 -0.0007620561 0.0009045604

0.features.0.1.running_var f4 [16]
00000000: 5114 2b3f 9157 573f b015 f03e 4cbe 683e
00000010: 0e00 b13e 4cd5 7d3e ef9f a53e 495a 823e
00000020: f8ad dd3e bf6a 313e e6b1 f03e 0fd1 7e3f
00000030: 4b7f 2040 8476 143e dbcd 513f 3446 233f
0.66827875 0.8411799 0.46891546 0.22728842 0.34570354 0.24788398 0.32348582 0.25459507
0.4329679 0.17325877 0.47010726 0.9953775 2.5077693 0.14498335 0.81954736 0.63778996

0.features.1.0.block.0.0.weight f4 [16, 16, 3, 3]
00000000: 27dc 5dbe 04eb 793d f1a2 833e 0f3f c1bd
00000010: 4c71 323e c9d1 903c 8524 763d 2af8 be3d
00000020: 1bbb a7bd f752 0c3e 3cdc 943d 8b59 e4bd
00000030: 1800 163e f275 8e3e 3187 193e 02fc 02be
00000040: fce8 a1bc c3b8 cc3d 1bd7 edbd e7ff adbc
00000050: b72b a5bd 62c5 62bd 1cbe 8cbd eea3 cc3d
00000060: fea9 b03d 5615 533e 3cb3 343e cd8a 1cba
00000070: 5f94 b43c 22ac 113e ccfa 21bd a617 5e3e
00000080: 234c ddbc 9a77 4e3d a562 d9bd 8562 4bbd
00000090: 4748 a83c fa33 ecbb 42f5 11bd 5f21 0f3e
000000a0: af4c cf3a f818 a33d 4d1e ec3d cde4 25be
000000b0: b7bf 6b3c d06d 163d df92 383e f2fa 37be
000000c0: 5217 013e 8444 393d b797 0bbe aa52 6dbd
000000d0: 593a 0e3e cd9a ad3c 35b6 db3d b056 f03d
000000e0: ae46 0dbd 3fd8 58bc 5dc7 073c a059 2e3e
000000f0: dad8 49be 7633 51bd 39da 613d e84b 1abe
00000100: dca2 19bb f18f f33d 32a8 883d d859 ccbe
00000110: 92db 173c 4e93 67be cf36 0cbe 0b8a ff3d
00000120: 924a d23d 02b2 1e3e b2ba 633d 3499 febd
00000130: adb5 113d 463e 3c3c 6ec7 063c 196a 1dbe
00000140: abc5 02be c21e 0b3d e79c 0d3c 57b7 543e
00000150: 325b b8bd c3fd 0f3d f505 403c b079 b4be
00000160: 8b0c c2bd af26 d03d 4c99 46bd 8a27 a53c
00000170: 774c d8bd 7f11 ae3d 2c0d 793e 5b5d ab3d
00000180: 5ba1 1ebd 6e9c a5bd 949f 823e 1c4d 93bd
00000190: 57ce 5f3e e9ac 36be 612d f9bd dfc6 533d
000001a0: e195 b53d 478b 783e f541 863d 6c86 0abd
000001b0: 5a38 2ebd fa69 26be bc50 453d 4554 01bd
000001c0: 54c4 c43d 0def 26bd 71ff 6f3e ab68 193d
000001d0: a41e 043d ddd2 27bc b238 d23d b4f7 dfbd
000001e0: 3803 89bd f2cd 363e 5308 8fbd 8b2d 6abd
000001f0: e44c 5abe 4274 823d 3ef1 653e 814f 59bc
00000200: 11d7 bebc b138 c03c 6b76 763b bde1 003d
00000210: 2b4c 543c b81e 493e 5acb 623e 3a2c 5abe
00000220: 6f9a 373c 2a9b 6c3d 0190 28bd 9593 833d
00000230: aa61 06be e385 07be 1146 4fbd 6833 7e3d
00000240: e4de c63d bdde 073e b265 9abd 8e66 d93d
00000250: 30f2 ee3c 06a8 02be 720d f63d 3ae9 963d
00000260: 1c8f c8bd a391 373e 0ced f03d 3dbb 043e
00000270: ed78 c1bd 6f6f 8abe 33df 40be 3dc2 b13d
00000280: b4eb 763a 4285 0f3e b075 853d 93ff e83d
00000290: db69 51be c865 993d 38a7 413e 59c4 053e
000002a0: e27d fbbd 0b85 8fbd 2288 0fbd 7d35 283e
000002b0: 4f9c b23d 40ff b9bd 8ae9 07bd 778a 743c
000002c0: dba3 1cbe 4f73 e33c 9409 82be 5bd8 e93d
000002d0: 378f 673d aa22 9cbc eb21 eabd bff5 4b3b
000002e0: 5747 43be f059 36bd d1cc ce3a a2cd d9bc
000002f0: b35c 75bd da59 cebd 3d01 153d 3820 11be
00000300: 2f63 1d3e b07e 033e d6cf 5a3e 1821 bc3d
00000310: 99af 163e d567 61bd 2144 823d c64e 493e
00000320: 6fe1 94bd 2c5c bbbd c0d4 183d 501d 2f3d
00000330: e287 53be 66ab cf3d 0d22 ef3b e83b 7b3d
00000340: 6c38 9a3d 7b2e 7a3d 657c 903c ef02 e93d
00000350: 01d1 de3d c83f 023e 5eb4 e8bc d74d 6abd
00000360: 3087 863d 096e 83be e05e d6bd 93a9 55bd
00000370: 71e8 e63d 78ac 063e ca71 0a3e 6c0f 953d
00000380: ea22 ba3d 66c4 193e 351e 083e dd72 c1bd
00000390: 6bad 3bbe d320 56bd da1c 4fbe 09b9 d03d
000003a0: 1508 12be 3ed4 c73a 0f56 4a3e 1a11 65bd
000003b0: 4293 9cbd ef62 ecbb 296d eb3d 6903 493e
000003c0: 5505 333e 9ad1 8bbc 837d dbbd ecb8 19be
000003d0: 5619 643c 6bc6 49bd 4a4f b8bd fa7c b73d
000003e0: 6e94 2abe 90b8 a73e 88df b8bc 2e6e 8ebe
000003f0: afa4 b73c 66cc 8bbd 89de 763e 6b95 23be
-0.21666013 0.061015144 0.25710252 -0.094358556 0.17426032 0.017678158 0.06009342 0.09324677
-0.081899844 0.13703524 0.07268569 -0.111498915 0.14648473 0.2782436 0.14992978 -0.12791446
-0.019764416 0.09996178 -0.11613294 -0.021240188 -0.080649786 -0.05536402 -0.06872198 0.099922046
0.086261734 0.20613608 0.17646497 -0.00059716107 0.022043405 0.1422582 -0.03954582 0.21688709
-0.027013844 0.05040703 -0.10614518 -0.049654502 0.020542277 -0.0072083445 -0.035634287 0.13977574
0.00158157 0.07963747 0.11529217 -0.16200562 0.01438897 0.03672582 0.18024777 -0.17966822
0.12606552 0.045231357 -0.13632093 -0.057940163 0.13889445 0.021191979 0.107281126 0.11735284
-0.034491234 -0.013235151 0.008287278 0.17026377 -0.19711629 -0.051074468 0.055139754 -0.15068018
-0.002344302 0.11892689 0.06672706 -0.39912295 0.009268658 -0.22614786 -0.13692783 0.124775015
0.102681294 0.15497592 0.05559797 -0.12431565 0.03557365 0.0114894565 0.008226259 -0.15372504
-0.12770717 0.03396488 0.008643365 0.20773064 -0.09001769 0.035154115 0.01172017 -0.3524909
-0.09475049 0.10163628 -0.04848604 0.020160455 -0.105614595 0.08499431 0.24321431 0.083674155
-0.0387281 -0.08086477 0.25512373 -0.07192442 0.21856056 -0.17839397 -0.121668585 0.05170333
0.08866478 0.2427188 0.06555549 -0.0338196 -0.04253421 -0.16251364 0.048172697 -0.031574506
0.09607759 -0.04075532 0.23437287 0.037453335 0.032255784 -0.010243145 0.1026472 -0.109359175
-0.06690067 0.17852 -0.069840096 -0.05717234 -0.21318394 0.06369831 0.22455308 -0.013263584
-0.023295911 0.023464533 0.0037607204 0.03146528 0.012957613 0.19640625 0.22147885 -0.21305934
0.011206253 0.057765163 -0.041152958 0.064246334 -0.13123193 -0.13234667 -0.05060393 0.062060744
0.09710482 0.13268562 -0.07538928 0.10615264 0.029168218 -0.12759408 0.12014283 0.07368703
-0.09792921 0.1792665 0.11763963 0.1296205 -0.09446893 -0.27038142 -0.18835144 0.08679626
0.0009419278 0.14015678 0.06516588 0.11376872 -0.20450537 0.07490116 0.18911445 0.13063182
-0.122798696 -0.07007798 -0.035041936 0.16426654 0.0872122 -0.09081888 -0.033181705 0.014925591
-0.15296881 0.027764944 -0.25397933 0.1141822 0.056533065 -0.019059498 -0.114322506 0.0031121818
-0.19070183 -0.044519365 0.0015777593 -0.026587311 -0.059902858 -0.100757316 0.036378134 -0.14172447
0.15369867 0.12841296 0.21368346 0.09186 0.14715423 -0.055030663 0.06360651 0.19658956
-0.072695605 -0.0914844 0.03731227 0.042752564 -0.20657304 0.101401135 0.0072977603 0.061336428
0.07530293 0.061079483 0.017637441 0.11377513 0.10879708 0.12719643 -0.028406318 -0.05720314
0.06568754 -0.25669888 -0.10467315 -0.05216367 0.112748034 0.13151729 0.1351997 0.07278332
0.090886906 0.15016326 0.13292773 -0.094457366 -0.18327872 -0.052277397 -0.2022585 0.10191543
-0.14260896 0.0015245748 0.19759391 -0.055924512 -0.07645275 -0.0072139422 0.1149543 0.19630207
0.17482503 -0.01706772 -0.10717299 -0.15011948 0.013922056 -0.04926149 -0.08999498 0.08959384
-0.16658184 0.32757998 -0.022567526 -0.27818435 0.022417394 -0.06826095 0.24108328 -0.15974967

0.features.1.0.block.0.1.weight f4 [16]
00000000: bd7c 743f 696a 823f 82a2 7d3f 7db8 783f
00000010: 72ea 803f 58a7 843f f459 7a3f a91b 7d3f
00000020: 1e5c 813f 92ae 7b3f 7c0c 7e3f 8b75 7e3f
00000030: cf48 7e3f 6d6d 7d3f e870 803f 41b5 7f3f
0.95502836 1.0188724 0.9907609 0.97156507 1.0071547 1.0363569 0.9779351 0.9887033
1.0106237 0.9831325 0.992378 0.99398106 0.9932985 0.98995095 1.0034456 0.99885947

0.features.1.0.block.0.1.bias f4 [16]
00000000: e3f5 40bc ef0a 973c b1cb c93b 36f2 bb39
00000010: b284 053d 3e9e 113d e82e b9bc 8662 0c3c
00000020: c648 f93c 943f 073c 35b7 333d bca5 ea3c
00000030: be8c 07bc 1787 f5bb 0845 3d3d 064d 1d3c
-0.011777374 0.01843783 0.006158315 0.0003584788 0.03259725 0.035551302 -0.022605374 0.008568412
0.030430209 0.008254904 0.04387589 0.028643481 -0.008273302 -0.0074929106 0.04620841 0.009600883

0.features.1.0.block.0.1.running_mean f4 [16]
00000000: 6061 d43e b781 d23c 47a0 eebd 7c66 04bf
00000010: 3d22 b03e a339 38bf 2248 a6be 97bc ecbd
00000020: 551f 2f3e c6f1 cebd c0d6 ae3d 7091 a4be
00000030: cddd b1bc fba2 f3bd 8050 c13d b762 0a3e
0.4148054 0.025696618 -0.11651664 -0.5171888 0.34401122 -0.71962947 -0.32476908 -0.11559408
0.17101796 -0.101047084 0.08537054 -0.3214221 -0.021712208 -0.118963204 0.09439182 0.13514219

0.features.1.0.block.0.1.running_var f4 [16]
00000000: 5869 d13f 5808 803f 7ab4 e83e 7bde 503f
00000010: c887 733f f7c1 cf3f 7e46 af3f 5fd9 f23f
00000020: e590 433f 340c 293f 635a 013f 39fe c43f
00000030: 8298 6c3e 77c8 8e3f 1efe 883f 44f3 403f
1.6360273 1.0002546 0.45450193 0.8158948 0.9512906 1.6231068 1.3693388 1.8972586
0.76392967 0.66034245 0.50528544 1.5390083 0.23105052 1.1154927 1.070255 0.75371194

0.features.1.1.block.0.0.weight f4 [16, 16, 3, 3]
00000000: c430 2c3e e048 5d3d 7fb1 f5bd c6b5 ef3d
00000010: 3561 07be 94cb 163c 537a 6f3d 6722 913b
00000020: 1a19 4fbd 8cf8 28be 7f0e f5bd ffaf bf3d
00000030: ecb7 1ebe de57 04be 6860 6abd cd2d 09be
00000040: a182 b83d a8bd ba3c e3d5 9e3d 835b a63c
00000050: 1340 943d 90dd 073e 7f90 293d 2b77 cdbd
00000060: fb23 e7bc c79c 2bbd 6b14 1b3d fc8b 28be
00000070: 9e7a 023d 05e5 b63d 92bb 7c3e f1ec d33d
00000080: a396 213d b497 283b 8c9a 42be f17e e93d
00000090: 91fa 39bc 7ebf d23d 6d2c 69bc ad16 69be
000000a0: 7902 5f3d 4ad6 693d 4548 273d 5ab6 cebd
000000b0: 3844 8cbd b276 4cbd 4104 8dbc 29b5 9fbd
000000c0: afab a8bc d616 8e3d 9042 88bd 9d10 7dbd
000000d0: 4a72 abbd be54 203e 8b33 78bd 0b2a c0bd
000000e0: 49e1 80bd 1131 d53d ebfc 43bd 129c 6abe
000000f0: 5d6c dbbd 37d4 5dbe e762 9cbd 2767 b9bd
00000100: 9781 773d 5c56 44be 4d02 b33d 7945 10be
00000110: d835 ad3d 9db2 48bc 4266 c5bd 6fe4 8e3d
00000120: c732 7bbc 22f3 c2bd 4dbd b0bc d9b7 d93c
00000130: e149 18bc 29ac 42bd d656 243e 565e 743c
00000140: 83ef 3a3d fcd1 51bd 4b90 bebd 915f 17bc
00000150: 603e 24bd 0415 19bc ae12 8dbd 1b2e d7bb
00000160: e491 8ebc 808a c3bd ca1f ddbd 2941 55bd
00000170: 9122 db3d dca3 78be df7b 873d a23a dabd
00000180: 9f79 323b f31d 933c 0224 843c e20f c9bc
00000190: 5243 2bbe 7057 ef3d fdc1 8c3d 0c7f a1bd
000001a0: 8cfb 743c 53ff 803d 82a7 46bd e504 023e
000001b0: 1712 ce3c b006 a23d e053 d73c 4804 963d
000001c0: 509f 0a3e 8472 a8bc 0d4e d53c b8f3 f73d
000001d0: afe2 98bd e074 96bd 1def 2abd bbaf 8dbd
000001e0: e470 10be 0253 1c3d bf18 43bd d4dc 8ebe
000001f0: 0a73 673e 814e 683d 7afe ee3d 4da2 193a
00000200: d0a6 65be a7f8 0ebe 16a6 23be 35c2 21be
00000210: 9584 a93d 7204 8d3d 1825 fdbd 79a9 d3bd
00000220: 2375 8dbd 3a74 c13d bc61 37be 7fd2 523d
00000230: 9604 d23d e407 a53d cd38 d8bd b157 1fbd
00000240: 8fe4 653d 0e6e 51be da57 353e 0061 1a3d
00000250: 1d5a a9bd c972 c23c 2c4d 9ebd 6834 7b3d
00000260: 43e7 003e 9a56 bcbb bc88 673d eb73 14bd
00000270: c25a c73d 246a 163e bf65 503d 8d6e 37be
00000280: d992 5fbd a633 6fbe 5361 debd 1c77 8d3d
00000290: b927 25bc 7334 8d3d a3b9 66bc 6840 ee3d
000002a0: d4ec db3d 23e6 d93d f370 d43c 4f02 063e
000002b0: 1fea 7d3d 043b 33bd 81f6 23bb 200a 09bd
000002c0: 6f18 46be 2fa5 c43d 5c86 d3bd f4fa 83bd
000002d0: 6735 ca3d f82d 84bc f0c6 3b3e 8795 d6bd
000002e0: 4905 c5bd c4df 943d fcab f13c d881 163d
000002f0: 37bb 103c eb80 803d 399b b5bd 8e66 2abe
00000300: 1a24 36bc 3c2d 25be ae58 d6bd 72af eebb
00000310: cd8f c43d 5837 47bc 1a3d 8d3e de49 fd3d
00000320: 8c20 13be 4632 f1bd 15ae 8b3d 493f 1bbe
00000330: 1b4e 19be 1a45 e43c 831a 41be e942 21be
00000340: 3ee3 29bd 46b2 043e 727f 1abd 6746 303d
00000350: d72a 1ebe 3941 273d 1281 8ebd 365f 303e
00000360: 00a5 2f3c d9c1 cebc 4567 efbc 3f1f ab3d
00000370: 17bc c43b b794 733d 6637 283e 3e3f 27bb
00000380: d1ed 213e b78a fdbd 7e80 403e cc57 373d
00000390: c1bf b23c 6ded 0e3e f2aa c3bd 074e 083e
000003a0: fe96 483e f308 30bd b939 cd3d ad70 efbd
000003b0: d0d8 3c3e 3f6d 923d 7870 0f3d b694 a43d
000003c0: 33b2 e23c 36ef 423e 2252 c13c f71b 19bd
000003d0: 462f 97bc 2530 0ebe 444f 8dbd 7ba3 f53c
000003e0: 0c95 063e c1c6 32bd 579e adbd 71b1 c53d
000003f0: 4369 c9ba 7649 1d3d 41a6 89bd 034d 023d
0.16815478 0.054024577 -0.11996745 0.117045924 -0.13220675 0.00920381 0.058466267 0.00442915
-0.050561048 -0.16501063 -0.119656555 0.093597405 -0.15499848 -0.12924144 -0.057220846 -0.13396378
0.090092905 0.022795513 0.077556394 0.020307308 0.07238784 0.13268113 0.041397568 -0.10032495
-0.028215399 -0.04189756 0.03786127 -0.1645965 0.031855218 0.08930401 0.24680927 0.10347927
0.0394503 0.0025725188 -0.19004267 0.11401165 -0.011351244 0.102904305 -0.014231783 -0.22762556
0.054445717 0.057089128 0.040840406 -0.100933746 -0.06848949 -0.049917884 -0.017213942 -0.077982254
-0.020589678 0.06937949 -0.06653321 -0.06178342 -0.08371408 0.15657327 -0.06059603 -0.09383019
-0.0629297 0.10409749 -0.047848623 -0.22911099 -0.10714028 -0.21662985 -0.076360516 -0.09052878
0.06042632 -0.19173568 0.08740673 -0.14089002 0.084575355 -0.012249616 -0.09638645 0.06977164
-0.0153319305 -0.0951903 -0.02157464 0.026576923 -0.009294958 -0.047527466 0.1604875 0.01491507
0.045638572 -0.051225647 -0.093048654 -0.009239093 -0.040098548 -0.009343389 -0.068883285 -0.0065667755
-0.01740355 -0.09547901 -0.10797079 -0.052064095 0.106999524 -0.24281257 0.066154234 -0.106557146
0.0027233136 0.017958617 0.016130451 -0.024543706 -0.167249 0.11686599 0.06872938 -0.078855604
0.014952552 0.06298699 -0.04849959 0.1269718 0.02515511 0.07911432 0.026285112 0.07325035
0.13537335 -0.020562418 0.026038194 0.121070325 -0.074651115 -0.07346511 -0.041731942 -0.069182836
-0.14105564 0.0381651 -0.04763102 -0.27902853 0.22602478 0.056715492 0.11669631 0.00058606715
-0.22426915 -0.13962041 -0.15981326 -0.1579674 0.08277241 0.068856135 -0.12360591 -0.10335059
-0.06907108 0.094459966 -0.17908376 0.051470276 0.10254781 0.08058146 -0.10557709 -0.03890199
0.056126174 -0.20452139 0.17709294 0.037690163 -0.08269141 0.023736374 -0.07729563 0.061329275
0.1258822 -0.0057476284 0.056526884 -0.03624336 0.097341076 0.14688927 0.050878283 -0.17913266
-0.054583404 -0.23359546 -0.10858407 0.06907484 -0.010080271 0.068947695 -0.014082345 0.11633378
0.10738531 0.10639598 0.025932765 0.13086818 0.061990853 -0.043757454 -0.0025018754 -0.03345692
-0.19345258 0.09601819 -0.103283614 -0.0644435 0.09873467 -0.0161352 0.18337607 -0.10477739
-0.09620149 0.072692424 0.029500954 0.036744922 0.008833698 0.06274589 -0.08867497 -0.16640684
-0.011117006 -0.16130537 -0.10466133 -0.0072840983 0.0959774 -0.012159191 0.2758568 0.12367605
-0.14367884 -0.11777167 0.06820313 -0.1516086 -0.14971201 0.027864981 -0.1885777 -0.1574818
-0.04147648 0.12958631 -0.037719198 0.04303589 -0.1544603 0.040833686 -0.06958212 0.1722382
0.010720491 -0.025238918 -0.029224047 0.08355569 0.0060038674 0.059467997 0.16427383 -0.0025519873
0.15813376 -0.123799734 0.18799016 0.044761464 0.021819951 0.13957758 -0.095540896 0.13311015
0.19588849 -0.042977285 0.10020775 -0.11691413 0.18442082 0.07149743 0.035019368 0.08036177
0.027672863 0.19036564 0.023598734 -0.037380185 -0.018455159 -0.13885553 -0.06899884 0.02998518
0.13142794 -0.043646578 -0.084774666 0.09652985 -0.0015366453 0.038400136 -0.067211635 0.031811725

0.features.1.1.block.0.1.weight f4 [16]
00000000: d59c 813f d1b5 733f ac3d 7f3f 7b7c 7b3f
00000010: 4cd1 7d3f 6587 863f f677 803f 4e77 7b3f
00000020: e283 7a3f f29e 7c3f 64ec 753f 138e 7d3f
00000030: 99ca 7e3f d2cc 773f 4d66 793f 4cf5 763f
1.0125986 0.95199305 0.9970348 0.9823682 0.99147487 1.0510069 1.0036609 0.9822892
0.9785749 0.9868003 0.9606383 0.99044913 0.9952789 0.96796906 0.97421724 0.96468043

0.features.1.1.block.0.1.bias f4 [16]
00000000: 098f f23c 20d3 52b9 ccbd e63b a7f5 6f3c
00000010: 27dd 85bc c2f7 7d3c f02f 693c e86e 04bd
00000020: fb1b 0d3c 096f abbc 6a97 04bd cd12 cc3c
00000030: 5cd3 973c c6fe 08bd b568 85bc 87eb 34bd
0.02960922 -0.00020105811 0.0070416685 0.01464597 -0.016340805 0.015500965 0.014232621 -0.03233233
0.008612628 -0.02092697 -0.032370962 0.024911309 0.018533401 -0.033446096 -0.01628528 -0.04416993

0.features.1.1.block.0.1.running_mean f4 [16]
00000000: 2c37 81bf a4bc 373f 4ee4 f73e b52d 233f
00000010: 1d88 acbe 7018 b6bf a249 873e c6fb ab3b
00000020: 2986 383f 6b28 55bf aef5 7bbf a61c 213e
00000030: 11bc 013f e987 27bf 5b8b 50be b69a 26bf
-1.0094962 0.7177222 0.4841637 0.6374162 -0.33697596 -1.4226208 0.26423365 0.0052485196
0.7207971 -0.832648 -0.9842175 0.15733585 0.5067759 -0.6544176 -0.2036566 -0.6507982

0.features.1.1.block.0.1.running_var f4 [16]
00000000: 7c37 e93f 0522 6840 3f0e 0341 3ef3 6140
00000010: 8c78 8240 5981 1340 141c 5640 bce5 2e40
00000020: 6b6c 4740 828b fa3f e8cb 8240 dcdf 2a40
00000030: 20ca 7b40 b167 a940 cad3 0540 8b54 1340
1.8220057 3.6270764 8.190978 3.5304713 4.077215 2.3047698 3.3454638 2.7327719
3.1159923 1.9573824 4.087391 2.6699133 3.9342117 5.2939076 2.0910516 2.302035

0.features.2.0.block.0.0.weight f4 [64, 16, 3, 3]
00000000: 030f 40bd 42bb 78bd 2390 613c 4c52 24bd
00000010: d598 9abd 79ac bebb 4aee 853d cee0 a53d
00000020: 8180 afbc 7bce bfbc b5b1 3abd 0a51 c3bd
00000030: 49f1 12bc 6e75 2c3d db2d 30bd d67e 7f3d
00000040: 73a8 423d c35d 67bc 168e 0f3e 39bd 79bd
00000050: 5c5e 4cbc 6525 65bd 7f13 763d 1b3c b53d
00000060: 185c 923c 92fd be3b da76 60bd d774 bb3c
00000070: a9b7 03bd 6af5 55bd 8876 693d ca97 8dbc
00000080: d990 d7bd c153 db3c 971c 2ebd ee28 9ebc
00000090: 6fd2 503c da83 33be 0ff3 24be f623 9bbb
000000a0: fabf 1bbb f7ea 38be d59f 00be aeb5 82bd
000000b0: fca3 86bd 24f4 babd cac2 fa3c 6537 03bd
000000c0: a2ad ea3c 8b1d ea3d 755b 6dbc dbc9 3c3d
000000d0: a63b 0f3d 1883 0a3d ed6c 40bd 0a00 17be
000000e0: bd3c b5bc 7eba 2a3c 60da 21bd 7e47 313d
000000f0: 416b 273d e45e a73c b8eb 223d c708 a93d
00000100: b6b4 84bc 6836 debd cf9e b83d 677f 4fbd
00000110: 306b 3c3d 4341 5a3d 6819 cabb d103 ac3d
00000120: 891a ffbd 7a0e 6fbc df64 61bd a09e 2b3d
00000130: 340f d6bd 3cc5 a1bc 0143 d9bd 170b c5bd
00000140: 4814 2b3b 983b fb3c ce79 1c3d 175e 87bc
00000150: 594b 7c3d 19a9 35bd 9d10 4ebd f594 403c
00000160: 1671 d5bd d20d e13c 59af 593d 0cc6 6b3d
00000170: 4730 6b3d 7e4c 4fbd 2baf 383d 951e 223d
00000180: 25b5 40bc 166b 8ebc 8025 2abd ca98 0abb
00000190: 5e6e 0e3d e19c dfbc 4488 d5bd e8c3 583d
000001a0: 8191 e43c f488 a63d 329b 813d d406 e03a
000001b0: 81a1 f3bd 48e9 86bc c19a f8bd ba84 943c
000001c0: ac14 fe3c 15ae 16bc 654e eb3c 447f e9bc
000001d0: 8c20 07be 104d 8fbd 70b1 d5bb 8909 853d
000001e0: e68f 21bd 9698 89bd bfff cabc acee afba
000001f0: d92d 51bc 04ef 5c3c f3fb 953d 5ced 903d
00000200: 6477 023c 30e1 24bd 6e99 60bd 7453 2bbd
00000210: 2441 073d cb23 38bb 2525 2abc c7ce c9ba
00000220: 7ab9 4fbc 045d 293d ea29 913c 5ec0 37bc
00000230: f3ee 873d 112c 4e3d e7d5 d53b c841 7fbd
00000240: 8322 793c 061f 1f3e 008e 843d 16b7 b63c
00000250: 6f65 913d 0fef 613e 74f6 153c e946 d23d
00000260: cd39 653d 24d6 ad3c 6be0 0a3e dc70 af3d
00000270: 65dd eabc d85a b13d 7d34 98bc 67a7 d8bc
00000280: eee9 863b 2cc6 d83d a6b8 373d 6f4e 3fbc
00000290: 5833 2a3c faed 873c 8d88 9bbd 5657 a5bd
000002a0: 51be acbb 0b2e 07bd 158d 103c efe7 503d
000002b0: 4968 c5ba c941 05bc 5b7b e63b d854 85bd
000002c0: a562 2a3d 5dca 083d c97f a83d 2695 5b3c
000002d0: 11d0 81bd a40a b03c 8d0f ccbd 37bc 6f3c
000002e0: 3360 cbbc 3bb3 81bd 9e9f 2ebd 13b5 d9bc
000002f0: c947 583d a30f 443d 02a3 5bbc 8221 2e3d
00000300: f36a c3bd f6d9 01bb f6ae 343d 3a29 9d3d
00000310: ddcf debc dc8c f6bb 0e1f d63d f902 47bd
00000320: a60c 55bc 7e28 013b 5fe6 6ebd b2d0 3fbd
00000330: b731 ebbd a04b 06bd a450 12bd 856f c2bd
00000340: e8b6 a33b e91f 843c 34e2 4abd 205e 213c
00000350: 9d8e cd3c d1c5 77bd 886a d83d c26d 92bb
00000360: 4530 a53c 3fd9 d2bc 2589 8cbd fe0f b6bc
00000370: 2dc4 353d 7abb abbd d665 adbc b30e 1cbd
00000380: 3b0d 233d a2bd 99bd 61f7 15bd b120 abbc
00000390: 7240 05bc f2c5 0c3d 6026 c53c 63b3 9fbd
000003a0: bc6a 1ebc a754 40bd 5267 00bd 033b b9bd
000003b0: 9d5a fcbc 3d40 d13c b3e9 43bd cc40 733d
000003c0: 0e20 a1bd 3237 57bd 1be4 953d 4270 5e3c
000003d0: 13f5 4dbd b6c0 8dbc 9ea4 61bd bda9 b9bd
000003e0: 035b 69bd e500 7439 0d1d f93d 2e24 93bd
000003f0: dcbb 053e b511 283d 5ec5 b73d 0dbf 9cbc
-0.046889316 -0.060725458 0.013767275 -0.040117547 -0.07548682 -0.0058189 0.06539591 0.08099519
-0.02142358 -0.023413887 -0.04557963 -0.09536941 -0.00896866 0.042104177 -0.04301248 0.06237682
0.047523927 -0.014121476 0.14019045 -0.060971472 -0.012473669 -0.055943865 0.060077187 0.08849355
0.01786618 0.005828568 -0.054800846 0.022882862 -0.032157574 -0.052236 0.056997806 -0.017284293
-0.105256744 0.026773335 -0.042507734 -0.019306626 0.012745484 -0.17530766 -0.16108344 -0.0047345115
-0.002376555 -0.18058382 -0.12560971 -0.06382309 -0.06574246 -0.091285974 0.03061046 -0.03203525
0.028647248 0.11431416 -0.014487137 0.046090942 0.034968995 0.033816427 -0.04697888 -0.14746109
-0.022123689 0.01042044 -0.0395149 0.04328107 0.04087377 0.02043099 0.03977558 0.08253627
-0.016199451 -0.10850221 0.09014665 -0.05065861 0.04600066 0.053284895 -0.0061675794 0.083991654
-0.12456233 -0.014590854 -0.05502784 0.041899323 -0.104521185 -0.019747369 -0.10608483 -0.09621256
0.0026104618 0.030668065 0.0382021 -0.016524358 0.061595295 -0.044350717 -0.050308812 0.011754264
-0.1042196 0.02747241 0.05314574 0.05756192 0.057419088 -0.050610058 0.04508893 0.039579947
-0.011761938 -0.017385047 -0.04153967 -0.0021148198 0.034773223 -0.027296485 -0.10426381 0.052921206
0.027901413 0.081315905 0.06328429 0.0017091879 -0.11896039 -0.016468659 -0.12138892 0.018129695
0.031015716 -0.009196778 0.028723905 -0.028503068 -0.1319601 -0.069971204 -0.0065213963 0.06495959
-0.039443873 -0.067185566 -0.024780152 -0.001342257 -0.012767279 0.01348472 0.07323446 0.07076523
0.007963035 -0.040253818 -0.054833822 -0.041827634 0.033021107 -0.0028097506 -0.0103848325 -0.0015396707
-0.012678498 0.041348472 0.017720181 -0.0112152975 0.06637373 0.050334994 0.0065257433 -0.062318593
0.015205982 0.15539178 0.06472397 0.022304099 0.07099425 0.2206385 0.009152997 0.10267431
0.055963326 0.021220274 0.13562171 0.08566448 -0.028670022 0.08659905 -0.018579716 -0.026447011
0.004117242 0.10584673 0.04485383 -0.011676415 0.010388218 0.016592968 -0.07594404 -0.08073299
-0.005271711 -0.033002894 0.008822699 0.05100244 -0.0015060987 -0.00813336 0.007033748 -0.06510323
0.04159798 0.033396114 0.08227498 0.013402259 -0.06338514 0.021489449 -0.099639036 0.014632276
-0.024826145 -0.063330136 -0.04263269 -0.0265756 0.052802835 0.047866475 -0.013405563 0.042512424
-0.09541883 -0.0019813753 0.04411217 0.07673879 -0.027198726 -0.007524116 0.10455142 -0.04858682
-0.013003504 0.0019707973 -0.058325168 -0.046829887 -0.11484092 -0.032786965 -0.035721436 -0.09493927
0.0049961694 0.016128497 -0.04953213 0.009849101 0.025092417 -0.060491387 0.10567194 -0.0044686506
0.020164618 -0.025738357 -0.06862096 -0.022224423 0.04437654 -0.08385368 -0.021166723 -0.038099956
0.03980754 -0.07506873 -0.036612872 -0.020889612 -0.008133041 0.034368463 0.02406615 -0.07797887
-0.009669002 -0.04695573 -0.031348534 -0.09044459 -0.030804927 0.025543327 -0.047830295 0.059387967
-0.07867442 -0.052542873 0.07318898 0.013576569 -0.05028255 -0.017303806 -0.05508863 -0.09065578
-0.05697156 0.00023269987 0.12163744 -0.07184635 0.13059944 0.04103251 0.08973192 -0.019134069

0.features.2.0.block.0.1.weight f4 [64]
00000000: 74cc 7c3f bda7 813f 546b 7f3f bc98 823f
00000010: 3470 813f ea8c 7b3f 038b 7a3f c4e2 7d3f
00000020: 83c2 7a3f b056 773f 5333 7f3f 1fbc 7c3f
00000030: 5e5b 7e3f d9e0 823f bc82 793f 1249 813f
00000040: f54b 7c3f ef5c 793f 4d37 7b3f 3f93 823f
00000050: cb2d 7f3f fe20 7d3f 0e65 7e3f f0c8 7b3f
00000060: a94f 7d3f 3225 833f 1c0b 7e3f af2c 843f
00000070: 9378 823f 3f4d 803f 765d 813f 3689 833f
00000080: fe3b 7f3f 84a3 7d3f 6c15 803f 1296 7f3f
00000090: 3780 7e3f 7691 803f 2ff8 813f 4451 813f
000000a0: 26f1 7c3f 603a 823f 1540 813f 0285 7d3f
000000b0: dec4 823f 60bb 7f3f c139 7c3f c63f 823f
000000c0: 4f1a 7c3f 09f6 813f eb27 853f 0a18 833f
000000d0: 90b2 803f 6ba5 7b3f 1d00 813f 0b87 793f
000000e0: 107a 803f c883 853f 4587 803f 85a2 7e3f
000000f0: d37c 783f 9d6c 813f 2082 7e3f 78b9 7a3f
0.9874947 1.0129315 0.99773145 1.0202861 1.0112367 0.9826189 0.97868365 0.9917414
0.9795305 0.9661665 0.9968769 0.9872455 0.99358165 1.0224868 0.9746511 1.0100424
0.985534 0.9740743 0.9813126 1.0201186 0.9967925 0.9887847 0.9937295 0.9835348
0.98949677 1.0245726 0.992357 1.0326136 1.0193046 1.0023574 1.0106647 1.0276248
0.99700916 0.9907763 1.0006537 0.99838364 0.9941439 1.0044391 1.0153865 1.0102925
0.98805463 1.0174065 1.0097681 0.9903108 1.0216329 0.99895287 0.98525625 1.0175712
0.98477644 1.0153209 1.0402807 1.0241711 1.0054493 0.9829928 1.007816 0.97471684
1.003725 1.0430841 1.0041281 0.99466735 0.97065467 1.0111271 0.99417305 0.9793925

0.features.2.0.block.0.1.bias f4 [64]
00000000: 1859 f83b b965 2e3d 32f2 d53b 7f99 833b
00000010: b668 2f3d cfed 88bc d53d 0e3d 3e1f 143c
00000020: a983 04bc 5fc6 c6bb 8bec 123c 0af8 bcba
00000030: ab3b 90bb 1bde 233d 1d51 80bc ee27 d93b
00000040: 95e0 b33c 9df3 edbc 2c16 f3bb 08f1 c33c
00000050: 834e 163a 581c 47bc 3f1b 743c 4ceb a83c
00000060: ad40 b33c c70e 9b3c f676 3c3d 63b4 013d
00000070: d08d 183d 0a96 9e3c 9438 433d d909 973c
00000080: 39af 483c fb2c ae3c 35c4 0f3d 8658 ac3c
00000090: dc35 6f3c 7b9a e73c 0ff9 f9ba 3316 203d
000000a0: 5466 4d3c b640 b6bb 1b7e fb3b f20e 22bb
000000b0: 40c1 533c 1c42 293d b30e 0c3d ec55 09ba
000000c0: 3352 3b3b 6af8 4a3c ad68 393c 966f 8a3c
000000d0: 6bc2 7abb acea 02bc 5449 a8b9 bd67 d93c
000000e0: 718b c33c 3b97 003d 521d 073c 8ec2 683c
000000f0: 688d 8ebc 38bf 883c d34e d73c f934 35bc
0.00757898 0.04257748 0.006529116 0.004016101 0.04282447 -0.016714958 0.034726936 0.009040652
-0.008088031 -0.006066128 0.008967529 -0.0014417183 -0.004401644 0.04000674 -0.015663678 0.0066270744
0.021957675 -0.029046828 -0.0074184146 0.023918644 0.0005733745 -0.012152754 0.014899074 0.02062001
0.021881426 0.018927945 0.046011887 0.03166617 0.037244618 0.019358654 0.04766138 0.018437313
0.012248808 0.021261683 0.035099227 0.021038305 0.014600243 0.028271904 -0.0019071418 0.03908367
0.012536604 -0.0055619134 0.007674945 -0.0024728146 0.012924492 0.041322812 0.034193706 -0.00052389386
0.002858293 0.012388328 0.011316461 0.016898911 -0.0038262855 -0.00799052 -0.0003209809 0.026538724
0.023870202 0.031394225 0.008246737 0.014206542 -0.017401412 0.016692743 0.026282704 -0.011059993

0.features.2.0.block.0.1.running_mean f4 [64]
00000000: 4a63 49bf ea82 3bbd 7642 cc3d 27f7 2ebf
00000010: f353 2cbe 33d1 91bf 1c89 07bf 0f1b af3e
00000020: 480f 643e d2e2 153f 3240 23bf 13cb 1b3f
00000030: dc65 5bbf 13df e53e f296 0bbf 2b84 ac3c
00000040: 4c8f 283e 5270 d4be 6f2c 99bd c740 71be
00000050: 8cd2 ab3d a656 19bf b6dc bc3f ab9b 923f
00000060: 2b20 5c3f 0c3d 29be 9dc5 153f c49e 35bf
00000070: 344b 013e b7e7 2a3e f14f d5bd 7a43 56be
00000080: 2b47 61be 3a9e 483f 92ec f5bd f99b 49be
00000090: 2ea4 e63e 92a0 533e b805 11bf 661d 30be
000000a0: ccab 253f 8067 33bf 6789 26bc 99d1 e4be
000000b0: 3955 fbbe 327d 813e 65a9 bd3e 37fd dabe
000000c0: c640 fe3e b5fd 983c 048a e3be 080f b3be
000000d0: 506b 81bf a9fd 4b3e 8d4c 853b 01ed 9f3d
000000e0: 846e 3d3f 7f92 f0be 6808 e3bd 91ec 333f
000000f0: 0742 a33e 1b47 b53e 6d4c 05be a339 09be
-0.7866713 -0.045779146 0.09973614 -0.68345875 -0.16828899 -1.1391968 -0.5294359 0.34200332
0.22271454 0.58549225 -0.6376983 0.6085674 -0.857023 0.44896755 -0.545272 0.021059116
0.16460913 -0.41491944 -0.07479178 -0.23559867 0.08389768 -0.5989784 1.4754856 1.1453756
0.85986584 -0.16527194 0.5850466 -0.7094538 0.12626344 0.16689955 -0.10415638 -0.20924178
-0.21999805 0.78366435 -0.12008013 -0.19688405 0.45047134 0.20666721 -0.5664935 -0.17198715
0.64715266 -0.70079803 -0.010164595 -0.4469116 -0.49088457 0.2529083 0.370433 -0.42771313
0.49658793 0.018675664 -0.44441235 -0.34972405 -1.0110874 0.19920982 0.0040679635 0.07808877
0.7399676 -0.46986768 -0.11085588 0.70282847 0.31886312 0.35405812 -0.13017435 -0.13400893

0.features.2.0.block.0.1.running_var f4 [64]
00000000: ab95 3e40 b31f d03f 8b7e a23f 6807 0940
00000010: 5237 ae3f fb8b 7b3f d860 423f d507 0b40
00000020: 1594 b53f 371e f73f 5cda 3e3e bebb 0b40
00000030: f6e5 6b40 6d0f 0340 8b65 6040 6b5f e43f
00000040: f7e8 a53f 7b19 3640 a0f8 9c3f 4a06 943f
00000050: 4336 6c3f 971a cb3f a2fb 4840 5304 6e40
00000060: 2b50 5140 774b 4b3f a5a8 2740 b7d5 1f40
00000070: c3e6 cc3f 4e70 4e40 f40e 3840 dada 7440
00000080: d079 1940 4b0f 0b40 7bd6 0440 2b48 e63f
00000090: 8313 4b40 80c5 2640 901d b13f f086 a73f
000000a0: 6507 883f bfad 1540 4e06 0540 1398 583f
000000b0: e230 863f e4f8 953f 9b11 133f eab4 cb3f
000000c0: df4b 883f 8d3d 0240 e510 ca3f 4422 af3f
000000d0: a4e0 2940 309c 963f 9cf4 7c3f 5cf8 9b3f
000000e0: f529 4240 3baa 2640 62c8 883f 80dd 783f
000000f0: c828 573f ef04 9e3f 4ba5 673f 9d0d ac3f
2.977885 1.6259674 1.2694868 2.141077 1.3610632 0.9826047 0.7592902 2.172353
1.4185816 1.9306096 0.18637985 2.1833339 3.6859107 2.0478165 3.5061977 1.7841619
1.296172 2.8453052 1.2263374 1.1564419 0.92270297 1.586749 3.1403584 3.719014
3.270518 0.79412025 2.6196682 2.497419 1.6007923 3.2256045 2.8759127 3.8258576
2.3980598 2.1728084 2.0755908 1.7990774 3.173066 2.6058044 1.3837147 1.3088055
1.0627257 2.3387296 2.0785098 0.84607047 1.0483668 1.171658 0.5744874 1.5914586
1.0648154 2.0350068 1.5786406 1.3682332 2.654336 1.1766415 0.98810744 1.2185168
3.0338109 2.60414 1.0686152 0.9721298 0.840466 1.2345256 0.9048659 1.3441654

0.features.2.0.block.1.0.weight f4 [32, 64, 1, 1]
00000000: c086 99be f371 6fbe 590c 633e 5fd7 3b3f
00000010: e563 d73d fd12 543e 362c 063f 745b 0b3e
00000020: 5b97 81be e1b6 08bf fc95 a0bd cadb 36be
00000030: 1d49 84bc 59c7 adbd c3eb 2a3e b7e8 b7be
00000040: a5fa 0e3f 14bb 47be f8bd ccbd f130 53be
00000050: 56a0 5c3d addc 003f 7bcc 493e 34ed 6dbe
00000060: a088 203e f68a 413e 7780 3e3e 0885 14bc
00000070: 0e8f 38be 29ca bb3d 282a f8bd 129b 83be
00000080: 0ff2 d1bd 8169 0b3e e4fb 64bd 007f 2a3c
00000090: 9c4a aa3d 8026 81bd a8cc a23e 1eaa 8b3e
000000a0: 562f 673e b763 d13e 4df7 523e 5de6 563d
000000b0: 5ffe 0d3e b169 c8bd af0e b9bd ed82 d23e
000000c0: d0d7 d5bd 440b 2d3e 4fd4 403e 274a 573e
000000d0: 9f01 4d3e 8320 5a3e 8d6c e9bd 41c1 2bbe
000000e0: 4de5 513e 2c6c 1d3e d963 4e3e a9bf 0d3e
000000f0: 4fdb 0c3e e2e4 443f 5d3b 64be a8cc 623e
00000100: 5ac8 09be e01f e63e 27fc c33c aede c2be
00000110: 7d6f 0bbd 7ada 3bbe f2b6 953e 135f 14be
00000120: a75a 923e 2d3f 31bd 68ab 8d3e 7a87 a4be
00000130: b0c6 cdbc b2b5 9fbc a67f 4b3c b568 82be
00000140: b7b7 4ebd 4868 7d3d 60b0 3f3d 0812 cdbe
00000150: d291 793e 346d fdbe cecd 9dbe 5f50 aebe
00000160: b7b8 a03e b73c cebd 81c3 213e 0824 ecbd
00000170: a137 d9bd 05a3 b33d 8454 d73e 7e63 d7be
00000180: b48e e53d 0d08 943d 6905 9c3d 9091 923e
00000190: 0cb6 0d3e 9cd3 6e3e e566 f8bd fefd 203e
000001a0: b9a2 08bd 7026 8a3d 69d2 113f c9a0 f23d
000001b0: 7c46 803c b283 3bbd 8daf 03be 8cdc 4a3e
000001c0: 8a5f 003e 03ac a63d 02cb aa3d 11b6 993d
000001d0: 0a39 013e 8795 c83d 6283 183f fdd8 64bd
000001e0: 1497 11be 9887 2bbe 9203 73be b7fd df3e
000001f0: 71da ddbe ad57 1b3e 2156 7abe 917b f8bd
00000200: dec4 dbbe 0fa5 19be aea1 15be 8820 963e
00000210: 5950 7bbe 44ff 323e 2e5e dc3c 2374 adbe
00000220: 4583 443e 6f54 a4be edef 2c3d 7034 43be
00000230: be63 ca3d d060 5bbd 5b31 a3bc dbc7 963e
00000240: e77d 88bb 4420 63be 6c62 5b3d e65f e23e
00000250: 00f3 54be d6d8 39be 7435 20bd 0adc 2cbe
00000260: 2016 14be c950 5abd ef24 3b3e 836b b9be
00000270: 2d68 e9be 1222 d8bd 2ff6 b03e b87c 0abe
00000280: e6fe 8c3e 674f b43e 2352 a3be 690f aebc
00000290: 14fe 163d 8dc4 533e d1af 20be 1300 9c3e
000002a0: a1df c4be dc32 27be 339d 4c3e 1912 7dbe
000002b0: 6700 8bbe 54d8 bd3c edb9 ec3e ff98 e8bb
000002c0: 0188 34be 3c5e efbe aed1 a9bc d62a 8bbe
000002d0: 10ae d43e 352d febd 13e0 99bd 5298 a13d
000002e0: bd80 ef3d 4e3f b2be 3964 a03e 6b9f 163c
000002f0: 4bc1 84be 07cb 873e 1712 8ebe e6e7 7d3e
00000300: 0b62 f43d 5829 52bd 8c83 b5be 7c87 c93e
00000310: 231a 063e c388 043f 6d36 94be 7224 bebd
00000320: 9f4e fbbe 1805 083f c5eb 9c3e 6e99 2bbe
00000330: 217e 03be e81e 883d 7b83 d2be 8355 a6bd
00000340: 234c cb3e 3b39 ab3e bb63 f7be 0956 44bd
00000350: 5972 3b3d eb72 a03d 0db4 393e 943d 6fbd
00000360: 8197 df3d 8d9c 80be ddc8 a43e 2bec 00be
00000370: 7219 71bc 0fd6 6c3e 451b 133e 5695 8dbd
00000380: e999 f53d 10ee 61be abc6 813e ec15 38bf
00000390: b687 1f3d 8df0 443e d16a 7fbe 4ed5 0e3e
000003a0: bd7c 223e 9e9d f1bd 63c3 653e 0265 21bf
000003b0: 9c32 b23e 4433 8b3e 2804 4c3e 58dd a63c
000003c0: 0901 523e b707 c2be 302b cb3d d853 79be
000003d0: 069e c23d 2373 4cbe 1497 62be 5f39 0c3b
000003e0: 73fd 4ebf 083d c43d f698 ff3d e4da 7fbd
000003f0: 29a5 92be 4226 cabe 84b0 eebd 99df 4b3e
-0.2998562 -0.23383312 0.22172679 0.73375505 0.105171 0.20710368 0.5241121 0.13609105
-0.25310788 -0.5340405 -0.07841107 -0.1785728 -0.016148144 -0.08485288 0.16691498 -0.35919735
0.55851203 -0.19504958 -0.09997171 -0.20624138 0.053863846 0.50336725 0.1970691 -0.23235017
0.15677118 0.18900666 0.18603693 -0.00906492 -0.18023321 0.09169418 -0.12117416 -0.25704247
-0.10251247 0.13614465 -0.055904284 0.010406256 0.08315012 -0.063061714 0.31796765 0.27278227
0.22576651 0.4089639 0.2060215 0.052465785 0.13866566 -0.09785784 -0.09036004 0.41115513
-0.104415536 0.16898829 0.1883099 0.2102438 0.2002015 0.21301465 -0.113976575 -0.1677294
0.20497628 0.15373296 0.20155276 0.13842644 0.13755535 0.7691175 -0.2228827 0.22148383
-0.13455334 0.44946194 0.023923947 -0.38060516 -0.03404187 -0.18345061 0.2924114 -0.14489393
0.28584787 -0.04327314 0.27669835 -0.3213461 -0.025119156 -0.019495819 0.0124205705 -0.2547051
-0.050468173 0.06186703 0.046799064 -0.4005282 0.24372032 -0.49497378 -0.3082108 -0.34045693
0.31390926 -0.10070174 0.15797235 -0.1153031 -0.106063135 0.08771328 0.42056668 -0.42068094
0.11208859 0.07228098 0.076182194 0.2862668 0.13838977 0.2332291 -0.121290006 0.1572189
-0.03335831 0.067456126 0.56961685 0.118470736 0.01565861 -0.04577989 -0.12859936 0.19810694
0.12536445 0.081382774 0.08339502 0.075054295 0.12619415 0.09794145 0.59575474 -0.055871
-0.14217788 -0.16750944 -0.2373183 0.43748257 -0.4333072 0.15170164 -0.24446918 -0.121329434
-0.42923635 -0.15004371 -0.14612457 0.29321694 -0.24542369 0.17480189 0.026900377 -0.33877668
0.191907 -0.32095668 0.042221 -0.19062972 0.098823056 -0.053559124 -0.019920995 0.29449353
-0.0041653994 -0.22180277 0.05356066 0.4421379 -0.20795822 -0.18149123 -0.039113477 -0.16880813
-0.14461565 -0.0532997 0.18275808 -0.36214837 -0.45587292 -0.105533734 0.34562823 -0.13524139
0.27538222 0.3521683 -0.31898603 -0.021247583 0.0368634 0.20680447 -0.15692069 0.30468807
-0.38451865 -0.16327995 0.19981842 -0.24713935 -0.27148744 0.023174442 0.462356 -0.0070983167
-0.17630006 -0.46751583 -0.020729866 -0.2718112 0.4153905 -0.12410966 -0.07513442 0.07890381
0.11694477 -0.34813923 0.31326464 0.009193282 -0.2592872 0.26522085 -0.27748176 0.24795493
0.11932763 -0.05130896 -0.35451925 0.3936118 0.13095908 0.5177118 -0.28947774 -0.09284295
-0.4908342 0.5313277 0.30648628 -0.16757748 -0.12841083 0.0664652 -0.41115937 -0.08121779
0.39706525 0.334421 -0.48318276 -0.047933612 0.045763347 0.07834419 0.1813509 -0.058408335
0.10917569 -0.2511944 0.32184497 -0.12590091 -0.014715539 0.23128532 0.14365871 -0.06913249
0.11992247 -0.2206347 0.25346884 -0.7190845 0.038947783 0.19232388 -0.24943091 0.13948557
0.15867896 -0.11797641 0.22437815 -0.6304475 0.34804237 0.2718755 0.1992346 0.020369217
0.20508207 -0.3789651 0.09920347 -0.2434839 0.09502797 -0.19965796 -0.22127944 0.00213965
-0.8085548 0.09581953 0.12480347 -0.06246461 -0.28641632 -0.39482313 -0.116547614 0.19909514

0.features.2.0.block.1.1.weight f4 [32]
00000000: 7d10 823f c75e 813f 3479 803f 0909 823f
00000010: 113f 823f 65aa 813f 8b3c 833f 6a06 813f
00000020: cd34 793f 7ea9 7a3f 2857 813f 5b33 803f
00000030: 4155 803f 3c9d 7f3f 4acf 813f 9748 833f
00000040: 3e35 813f 4a6d 813f 2b69 7b3f fa41 7f3f
00000050: a126 803f 47f8 7f3f e115 763f 4207 843f
00000060: 5ff4 7f3f e702 843f 3c1f 7b3f 02c7 843f
00000070: 42d6 7f3f 5385 773f e926 813f 5e70 7e3f
1.0161282 1.0107049 1.0036988 1.0159007 1.0175496 1.0130125 1.0252851 1.0080082
0.9734619 0.97914875 1.0104723 1.0015672 1.0026017 0.99849296 1.0141385 1.0256528
1.0094373 1.0111477 0.9820735 0.9971005 1.0011789 0.99988216 0.96127135 1.0314715
0.99982256 1.0313386 0.98094535 1.0373232 0.99936306 0.9668781 1.009 0.9939021

0.features.2.0.block.1.1.bias f4 [32]
00000000: 9686 74bd 6a3c d63c 02b3 fc3c 26b7 013d
00000010: a534 4abd 6cfc f2bc f4df 9bbc 869d a1bc
00000020: 1cbf a9bc e090 b83c d9bd 29bd 961b 0e3d
00000030: e5e5 343d 285a 7dbd 8b0a c83c 7d58 4fbc
00000040: 2e99 6e3d 6b2c 493d dd2a 643c a19e 493d
00000050: 6165 4e3a b8d5 84bd 70bd 7b3c 661a dabc
00000060: 4965 41bd a4f9 a63d 1ef3 7a3d a942 81bc
00000070: ed02 c7bc feae 083d 7f7b 28bd 5e92 7ebd
-0.059698664 0.026151855 0.030847076 0.031668805 -0.049366612 -0.02966138 -0.019027688 -0.019728433
-0.02072101 0.02253002 -0.04144082 0.034694277 0.044164557 -0.061853558 0.02441909 -0.012655375
0.058251552 0.049114626 0.013926235 0.049223546 0.0007873383 -0.06486076 0.01536499 -0.026623916
-0.047215734 0.08153084 0.06126701 -0.015778856 -0.024293387 0.03337001 -0.0411334 -0.062151305

0.features.2.0.block.1.1.running_mean f4 [32]
00000000: 2e60 693f 8ccd 5f3e d830 bfbe 940c 56be
00000010: 0f28 80be 66fb f03e 527f 28bf 9e82 e2bd
00000020: 7960 03bf a281 6dbe e8b3 07bf ae38 97be
00000030: 5861 493e af79 23bf ce8c 1b3f fa6a fb3d
00000040: 6987 9d3f d3bf a23e 620f b8bc 5cd4 1d3f
00000050: 7189 33be 5cd6 2ebe 2bc7 2f3f 78f9 f8be
00000060: fd09 823e 148f 9e3d 6db0 073d 74ef a3be
00000070: adbb 273c c33c 1cbe 63f7 1e3b c735 a7be
0.91162384 0.21855754 -0.37341952 -0.20903236 -0.25030562 0.47066802 -0.65819275 -0.110600695
-0.5131908 -0.23193982 -0.5300889 -0.2953543 0.1966604 -0.6385755 0.60761726 0.122762635
1.2306949 0.31786975 -0.022468273 0.6165216 -0.17532898 -0.17073959 0.6866328 -0.4862783
0.25398245 0.07742134 0.033127237 -0.32018626 0.0102376165 -0.15257554 0.002425634 -0.32658216

0.features.2.0.block.1.1.running_var f4 [32]
00000000: e4f4 b63f 9bee aa3f 3827 bd3f 610d 5240
00000010: aaef f33f ca5d 243f d81f bf3f 746f 0940
00000020: 1bf6 4a3f 1cac 7b3f 5539 dd3f c3bb cc3f
00000030: dd16 ea3f 45c3 863f 5a79 663f b232 5d3f
00000040: 2e68 0740 56ef dd3f e680 c53f cc0b 2240
00000050: 84f2 4f40 befd 6d40 e8b6 1d40 8698 0040
00000060: 46b1 fc3f abc8 3d40 0fb6 723f 6b53 bf3f
00000070: 5993 3340 649d 893f e31e 2e3f 0e91 e740
1.4293485 1.3354067 1.4777594 3.2820666 1.9057515 0.6420561 1.4931593 2.1474276
0.7928178 0.98309493 1.7283121 1.59948 1.8288227 1.0528342 0.9002892 0.8640548
2.1157336 1.7338665 1.5429962 2.53197 3.249177 3.7186122 2.4642887 2.0093093
1.97416 2.9653728 0.9480905 1.4947332 2.8058684 1.0751157 0.6801588 7.236457
