code/modeling/ckpt/AutoencoderConfig([2, 2, 2], flip=True, rotate=False)/autoencoder_6400.pth (torch, 720734 bytes, 102 tensors)

0.features.0.0.weight f4 [16, 8, 3, 3]
-0.0106114475 -0.025192343 0.028068721 -0.020686349 0.006366761 -0.026856495 -0.019812837 -0.04114252
-0.027962685 0.031404205 -0.0806917 0.018158015 -0.0847765 0.22434287 -0.0830832 0.019146308
0.61253744 0.024337094 0.03746771 -0.031435948 0.026307564 -0.043389603 0.10373605 -0.032051504
0.050240885 0.23727094 0.041667413 0.04363423 0.0365526 0.012819147 0.004229987 -0.06902283
0.05189308 -0.010266731 0.005839358 -0.0064512524 -0.028821334 -0.00093615963 0.00668285 -0.020854203
-0.03456815 -0.049955748 -0.02175219 -0.027739307 0.00040218906 0.025797743 -0.013876587 0.0017144976
-0.06778037 0.0095142 -0.0059669954 0.0034095198 0.010662874 -0.029749777 -0.014525679 0.06210483
-0.01698394 0.016106104 -0.029702736 0.03715654 -0.018088408 0.040637042 -0.008075346 -0.02474324
-0.029566828 0.0332469 0.03284421 0.048316643 -0.03679334 0.008585837 0.0068106665 -0.009434894
-0.010688025 0.057178594 -0.05220683 -0.04828313 0.16553295 0.046852008 -0.040651724 0.030180942
-0.13048595 -0.008510412 0.042692695 -0.013693677 0.06521313 0.1628569 0.09929367 -0.0032753986
0.04408372 0.011735116 -0.009793264 0.08768209 -0.050363183 0.11355455 0.2262763 0.08632245
-0.012137239 0.08092167 0.01826703 -0.05872896 0.042048324 -0.010219558 -0.058999915 -0.006938655
-0.037716255 -0.024297355 0.0024624784 0.042019952 0.09078733 -0.012991567 0.048992887 0.015315091
-0.013378244 0.029072534 -0.0032816103 0.004065695 0.013686257 0.07604825 -0.049069807 0.0405396
-0.017409062 -0.07777419 0.024262104 0.027859237 -0.05846858 0.06467856 -0.0077169775 -0.0005366677
-0.03171527 0.021691784 -0.20339218 0.011293067 -0.013608847 0.009643918 0.042893227 0.045802027
-0.07730884 0.058257148 -0.02467026 -0.1303134 0.06879275 0.024074782 -0.10104583 0.056621715
-0.060249463 0.043387856 -0.045204327 0.086026266 0.21882753 0.021404117 -0.01795866 0.029147
-0.08469373 0.036763184 0.007547439 0.02987501 0.06105144 0.206833 0.012794447 0.048208527
0.12673129 0.0232033 0.032734245 -0.042979814 0.03674946 -0.027577054 -0.26115328 0.01119053
0.03823215 -0.066998504 -0.004714515 -0.009775867 0.00560918 -0.028455174 0.010950302 0.050031852
-0.018975731 -0.04462304 0.027187988 -0.080385506 0.032529466 0.06895563 0.00951003 0.009391985
0.06750889 0.004224207 0.026390344 -0.03702381 -0.0134042995 0.032545395 0.055777226 -0.00518797
-0.06420794 -0.04924946 0.019869298 0.042799838 -0.016786685 -0.05117598 -0.035290424 0.033391185
0.008967041 0.02999751 -0.1181753 -0.045452517 -0.029734917 0.0025541536 0.017067876 0.02208132
-0.010997856 0.030783422 -0.13057202 -0.12282463 -0.00024245965 0.08549349 -0.016977057 0.041361224
-0.03535627 -0.050517034 -0.07736335 -0.067370914 -0.052981548 0.12791777 -0.09037 0.11489931
0.10361599 0.020330494 0.05451067 -0.009516033 -0.0025837 -0.08391962 -0.085212134 0.054247472
-0.023210559 7.0461785e-05 0.12780268 -0.09369011 -0.013485574 -0.03944744 0.030889614 0.050462145
0.025388647 -0.01878672 -0.112518825 -0.046372212 -0.0974065 -0.08482072 -0.034329504 -0.10847649
-0.024754696 -0.015276402 -0.076511376 -0.14017487 -0.018819276 -0.1285701 -0.014643744 0.03256441
00000000: a3db 2dbc 2c60 cebc 60f0 e53c 6b76 a9bc
00000010: 43a0 d03b 2702 dcbc 884e a2bc 0f85 28bd
00000020: 0012 e5bc b2a1 003d b141 a5bd 1ec0 943c
00000030: 4d9f adbd 23ba 653e 8627 aabd b8d8 9c3c
00000040: 41cf 1c3f 965e c73c be77 193d fbc2 00bd
00000050: f682 d73c 4cb9 31bd 9173 d43d 7048 03bd
00000060: 63c9 4d3d 27f7 723e 73ab 2a3d ceb9 323d
00000070: 2eb8 153d 6607 523c b49b 8a3b d75b 8dbd
00000080: d78d 543d ca35 28bc 1658 bf3b 0765 d3bb
00000090: b81a ecbc 9c68 75ba cffb da3b 6fd6 aabc
000000a0: 5597 0dbd 669e 4cbd a631 b2bc 8b3d e3bc
000000b0: e7dc d239 ca55 d33c a05a 63bc feb8 e03a
000000c0: 6fd0 8abd 72e1 1b3c c986 c3bb 4072 5f3b
000000d0: 56b3 2e3c ceb5 f3bc 1dfd 6dbc a261 7e3d
000000e0: e721 8bbc f3f0 833c 2753 f3bc 7531 183d
000000f0: 242e 94bc 0773 263d 754e 04bc 56b2 cabc
00000100: 2236 f2bc e72d 083d a687 063d ace7 453d
00000110: 9db4 16bd 9cab 0c3c 032c df3b d094 1abc
00000120: d31c 2fbc 1a34 6a3d d4d6 55bd 88c4 45bd
00000130: 7881 293e e4e7 3f3d 6c82 26bd 063e f73c
00000140: 1c9e 05be 416f 0bbc 89de 2e3d 725b 60bc
00000150: 768e 853d f6c3 263e 7b5a cb3d 12a8 56bb
00000160: 2191 343d a544 403c ed73 20bc ab92 b33d
00000170: a049 4ebd 4a8f e83d f9b4 673e d3c9 b03d
00000180: 45db 46bc 43ba a53d bda4 953c c78d 70bd
00000190: dd3a 2c3d ef6f 27bc e5a9 71bd a85d e3bb
000001a0: 5c7c 1abd 3f0b c7bc 8861 213b 1d1d 2c3d
000001b0: b5ee b93d 95da 54bc c4ac 483d 26ec 7a3c
000001c0: 6c30 5bbc 8629 ee3c 4910 57bb 8639 853b
000001d0: 533c 603c 2fbf 9b3d 6cfd 48bd da0c 263d
000001e0: 739d 8ebc 1348 9fbd 52c1 c63c 0e39 e43c
000001f0: c07c 6fbd 3176 843d b3de fcbb 29af 0cba
00000200: dfe7 01bd f8b2 b13c 0a46 50be 8e06 393c
00000210: a4f7 5ebc 8601 1e3c cfb0 2f3d e89a 3b3d
00000220: 1954 9ebd 0c9f 6e3d 4919 cabc e070 05be
00000230: 37e3 8c3d 7a38 c53c 1ef1 cebd 2cec 673d
00000240: 24c8 76bd 77b7 313d 2c28 39bd 8a2e b03d
00000250: 5314 603e b057 af3c 0a1e 93bc b0c5 ee3c
00000260: e873 adbd fe94 163d 8250 f73b 70bc f43c
00000270: 1311 7a3d 08cc 533e cd9f 513c 4e76 453d
00000280: d9c5 013e d914 be3c 5814 063d 9a0b 30bd
00000290: 9a86 163d 46e9 e1bc e2b5 85be 7c58 373c
000002a0: 5199 1c3d 8336 89bd 387c 9abb f52a 20bc
000002b0: 36cd b73b d31a e9bc e568 333c 33ee 4c3d
000002c0: fe72 9bbc a6c6 36bd 58b9 de3c 28a1 a4bd
000002d0: 9e3d 053d 9c38 8d3d f5cf 1b3c d7e0 193c
000002e0: 1a42 8a3d 376b 8a3b 9030 d83c 47a6 17bd
000002f0: b59d 5bbc 524e 053d a976 643d d9ff a9bb
00000300: 747f 83bd cdb9 49bd f0c4 a23c e24e 2f3d
00000310: 3b84 89bc e89d 51bd b18c 10bd 32c5 083d
00000320: 7fea 123c 57bd f53c e405 f2bd 6b2c 3abd
00000330: a496 f3bc 9663 273b eed1 8b3c e2e3 b43c
00000340: 5a30 34bc 842d fc3c acb4 05be 7b8b fbbd
00000350: c43c 7eb9 3617 af3d 7813 8bbc 636a 293d
00000360: bcd1 10bd f3ea 4ebd ad70 9ebd c3f9 89bd
00000370: 2e03 59bd e0fc 023e e813 b9bd 5450 eb3d
00000380: 9f34 d43d 238c a63c 9546 5f3d 23e9 1bbc
00000390: 4b53 29bb 0dde abbd b383 aebd 9932 5e3d
000003a0: 1224 bebc e2c4 9338 b5de 023e 9ae0 bfbd
000003b0: 99f2 5cbc a493 21bd 370c fd3c 65b1 4e3d
000003c0: dafb cf3c 9be6 99bc 4570 e6bd caf0 3dbd
000003d0: 0f7d c7bd 7cb6 adbd 189d 0cbd ec28 debd
000003e0: 5cca cabc e049 7abc ffb1 9cbd 008a 0fbe
000003f0: e22a 9abc e1a7 03be 50ec 6fbc 4262 053d

0.features.0.1.weight f4 [16]
0.9531663 0.87065816 0.78494143 0.79012877 0.78282714 0.84319925 0.88717645 0.7935476
0.8540076 0.82572246 0.7996471 0.8530652 0.9785118 0.8277482 0.9435544 0.97443986
00000000: b502 743f 74e3 5e3f ecf1 483f e145 4a3f
00000010: 5c67 483f e8db 573f ff1d 633f ef25 4b3f
00000020: 3ea0 5a3f 8c62 533f acb5 4c3f 7b62 5a3f
00000030: c07f 7a3f 4ee7 533f c88c 713f e474 793f

0.features.0.1.bias f4 [16]
0.37569284 0.4461011 0.45060724 0.16796511 0.2742494 0.18844329 0.10986014 0.05531147
0.1217012 0.43756908 0.33547089 0.31978258 0.13393955 0.41812897 0.24647301 0.26331562
00000000: d05a c03e 5d67 e43e feb5 e63e 0cff 2b3e
00000010: 6b6a 8c3e 47f7 403e 5afe e03d 488e 623d
00000020: 7b3e f93d 0e09 e03e d7c2 ab3e 8bba a33e
00000030: 7327 093e 0015 d63e 6c63 7c3e 4ed1 863e

0.features.0.1.running_mean f4 [16]
-1.8003604e-05 0.0007912958 -0.0002905021 -0.00043162474 0.0010060115 0.0011899006 0.0003496786 -0.00039832309
0.0009017497 0.00012364943 -0.00042425457 -0.0007603936 -4.897127e-05 0.00031679127 0.00018638499 0.00059004105
00000000: 7206 97b7 f66e 4f3a 884e 98b9 b14b e2b9
00000010: 25dc 833a 70f6 9b3a 1155 b739 05d6 d0b9
00000020: 6663 6c3a e4a7 0139 7c6e deb9 2755 47ba
00000030: 8066 4db8 0117 a639 5770 4339 fcac 1a3a

0.features.0.1.running_var f4 [16]
0.61062825 0.44552916 0.40849024 2.1086838 1.0812906 1.4835631 0.5343291 0.38910308
1.1028379 0.3509346 0.9298116 1.5028124 1.3872077 0.33952758 1.096482 1.242725
00000000: 2252 1c3f 661c e43e a225 d13e adf4 0640
00000010: bb67 8a3f 65e5 bd3f cbc9 083f 8538 c73e
00000020: cb29 8d3f b3ad b33e 2208 6e3f 285c c03f
00000030: 0690 b13f 8fd6 ad3e 8659 8c3f 9d11 9f3f

0.features.1.0.block.0.0.weight f4 [16, 16, 3, 3]
-0.23046759 0.023240859 0.12659933 -0.07045139 0.21908224 0.03674661 -0.09037968 0.004711048
-0.1959626 0.13000353 0.01568506 0.0021974563 0.14987923 0.276788 0.12483041 -0.09142389
0.042363003 -0.0019170383 -0.020778548 0.040472027 -0.055492304 0.01318788 -0.039506394 0.1093596
0.10467656 0.20479058 0.1060217 0.04166991 -0.055139445 0.14239877 -0.035130724 0.16309935
-7.891209e-05 0.13735345 -0.029925808 0.075455554 -0.0817691 -0.09101619 0.00044636265 0.043586772
-0.0370729 0.10714103 0.07974264 -0.1620582 0.038761828 -0.030503238 0.14091894 -0.16753797
0.043685794 0.030696144 -0.13267253 -0.16474748 0.07906523 -0.0035845912 0.031688634 0.026556958
-0.08277235 -0.0114860935 -0.04117434 0.10772391 -0.17094353 -0.13765664 -0.037178103 -0.0065915757
0.032323044 0.13258517 0.058628235 -0.36054626 0.021670502 -0.17054376 -0.15631945 0.030070676
-0.032589838 0.02894709 0.03857839 -0.15609871 0.0018543426 -0.08122095 -0.00020620115 -0.13820966
-0.1796155 0.003442654 -0.08063839 0.11030182 -0.046685092 -0.11412061 0.0076599126 -0.24195978
-0.20748632 0.03147106 -0.039070092 0.01818471 -0.054791342 0.06018827 0.25951615 0.06603221
0.035989672 0.055298604 0.24236883 -0.05559966 0.22937694 -0.11032735 -0.08252365 0.11001805
0.14739591 0.25676325 0.16323854 0.04924652 -0.09774576 -0.14873226 0.021247521 -0.119350664
0.067829244 -0.054020084 0.08470955 -0.012523235 0.037229147 0.15373133 0.061648425 0.046081245
-0.032653913 -0.052641254 -0.026300168 0.018909665 -0.22170609 0.13777897 0.08518251 -0.103642546
-0.023810169 -0.010491179 -0.01739374 -0.04714196 -0.00213788 0.2165951 0.21894775 -0.22932056
-0.07735365 0.02366188 -0.13943563 -0.11160497 -0.20519161 -0.24205188 -0.2316263 -0.04825565
0.046103448 0.27471083 -0.09180851 0.04960771 0.113544084 -0.11297063 0.05130481 0.03346408
-0.073143065 0.014810997 -0.025315944 0.040543552 -0.009840025 -0.16208066 -0.013217397 -0.037549097
0.13737796 0.09726873 -0.049917985 0.115062945 -0.18040176 0.07505659 0.23012923 0.1535061
-0.059411712 0.005781603 -0.052252598 0.16008896 0.13416141 -0.047811374 0.014528503 0.10234719
-0.11850992 0.019706199 -0.19370571 0.11338676 0.06140338 0.08250929 -0.04607629 -0.02219251
-0.095562436 0.044018123 -0.13727495 -0.07267649 -0.07867425 -0.14728738 0.01382933 -0.12173369
0.16032846 0.23402758 0.24872729 0.031439055 0.180345 -0.08804533 0.07990619 0.03533477
-0.10400023 9.10497e-05 -0.1577654 -0.11194424 -0.06029321 0.082953215 0.0011275455 0.04804221
0.14775546 0.16375887 -0.022902898 0.2568721 0.19703291 0.1461227 -0.00094933575 0.022178104
0.0594889 -0.2008491 -0.16750951 -0.040047582 0.30447322 0.040652975 0.006228861 0.12383616
-0.019679716 0.12021618 -0.081953585 -0.01471715 -0.072718345 -0.2617072 -0.20967393 0.057024397
-0.13928808 0.0064758034 0.018918848 -0.09284493 -0.09713145 -0.073430546 0.13671808 0.19433679
0.0714626 -0.018961668 -0.1250013 -0.048270613 0.122262225 0.11866476 -0.0472453 0.044253074
-0.12111969 0.3177671 0.008306572 -0.23083223 -0.03495974 -0.10408556 0.084653415 -0.17392504
00000000: b2ff 6bbe 9d63 be3c 41a3 013e d248 90bd
00000010: 1857 603e 9d83 163d fb18 b9bd 235f 9a3b
00000020: 6baa 48be a51f 053e f47d 803c 3303 103b
00000030: f179 193e 28b7 8d3e 16a7 ff3d 733c bbbd
00000040: d484 2d3d 2245 fbba c637 aabc ffc5 253d
00000050: e64b 63bd fa11 583c 75d1 21bd edf7 df3d
00000060: aa60 d63d 9fb4 513e e821 d93d 11ae 2a3d
00000070: e6d9 61bd fcd0 113e 3ce5 0fbd 8403 273e
00000080: 9b7d a5b8 62a6 0c3e f826 f5bc 7188 9a3d
00000090: 8f76 a7bd b266 babd c805 ea39 0b88 323d
000000a0: c1d9 17bd c26c db3d 1c50 a33d 96f2 25be
000000b0: b9c4 1e3d ede1 f9bc 0e4d 103e 138f 2bbe
000000c0: e0ef 323d 7b76 fb3c 4fdb 07be 90b3 28be
000000d0: f4ec a13d 76eb 6abb f1cb 013d fa8d d93c
000000e0: 8d84 a9bd 2b30 3cbc 6da6 28bd 5a9e dc3d
000000f0: d20b 2fbe ddf5 0cbe 1148 18bd 25fe d7bb
00000100: 2b65 043d 68c4 073e 2924 703d 8599 b8be
00000110: 5686 b13c 06a3 2ebe 3512 20be c756 f63c
00000120: ec7c 05bd 7322 ed3c 6004 1e3d 57d8 1fbe
00000130: 6a0d f33a 2b57 a6bd b337 58b9 d586 0dbe
00000140: 20ed 37be 269e 613b bd25 a5bd ece5 e13d
00000150: de38 3fbd 11b8 e9bd 0100 fb3b 4ec4 77be
00000160: 4b77 54be cce7 003d f607 20bd 1af8 943c
00000170: e36c 60bd fa87 763d 4ddf 843e e53b 873d
00000180: e869 133d ca80 623d 892f 783e 78bc 63bd
00000190: cae1 6a3e 4ef3 e1bd 2902 a9bd 2551 e13d
000001a0: f4ee 163e 7976 833e 0128 273e b8b6 493d
000001b0: ee2e c8bd 454d 18be 480f ae3c 1f6e f4bd
000001c0: 0fea 8a3d 2a44 5dbd 337c ad3d 412e 4dbc
000001d0: 977d 183d bf6b 1d3e 0f83 7c3d b0bf 3c3d
000001e0: 1cc0 05bd 5b9e 57bd 7373 d7bc 71e8 9a3c
000001f0: ec06 63be ee15 0d3e 2b74 ae3d 8b42 d4bd
00000200: 8b0d c3bc 32e3 2bbc 517d 8ebc ee17 41bd
00000210: ad1b 0cbb 1bcb 5d3e d733 603e 02d3 6abe
00000220: 976b 9ebd 8fd6 c13c 37c8 0ebe 2691 e4bd
00000230: c01d 52be 73dc 77be 722f 6dbe b7a7 45bd
00000240: f8d6 3c3d e6a6 8c3e 1a06 bcbd 7431 4b3d
00000250: cd89 e83d 255d e7bd fe24 523d a211 093d
00000260: 08cc 95bd d3a9 723c 6263 cfbc ff10 263d
00000270: 0e38 21bc 79f8 25be c88d 58bc 15cd 19bd
00000280: cfac 0c3e d434 c73d cd76 4cbd 1fa6 eb3d
00000290: 3dbb 38be 45b7 993d ffa6 6b3e b430 1d3e
000002a0: b259 73bd 9a73 bd3b d206 56bd 5cee 233e
000002b0: 9c61 093e dcd5 43bd f508 6e3c 679b d13d
000002c0: 54b5 f2bd e56e a13c ca5a 46be 5137 e83d
000002d0: 1c82 7b3d a1fa a83d 7eba 3cbd 11cd b5bc
000002e0: 3db6 c3bd 594c 343d ce91 0cbe 69d7 94bd
000002f0: f71f a1bd 81d2 16be 6a94 623c 834f f9bd
00000300: 252d 243e eda4 6f3e 5eb2 7e3e 3dc6 003d
00000310: 5cac 383e 1c51 b4bd dba5 a33d 31bb 103d
00000320: 13fe d4bd eff1 be38 418d 21be 0643 e5bd
00000330: 03f6 76bd 60e3 a93d 26ca 933a e9c7 443d
00000340: 354d 173e 68b0 273e dc9e bbbc bd84 833e
00000350: ffc2 493e 30a1 153e d8dc 78ba dbae b53c
00000360: a2aa 733d 63ab 4dbe 9d87 2bbe ef08 24bd
00000370: eae3 9b3e bc83 263d 791b cc3b d09d fd3d
00000380: 5b37 a1bc e733 f63d 48d7 a7bd 3320 71bc
00000390: 5bed 94bd 7cfe 85be c3b4 56be 6a92 693d
000003a0: 89a1 0ebe fa32 d43b b3fb 9a3c 7c25 bebd
000003b0: dbec c6bd c162 96bd d3ff 0b3e 3900 473e
000003c0: fc5a 923d 8055 9bbc 5700 00be 68b7 45bd
000003d0: 9e64 fa3d 8206 f33d 4a84 41bd b642 353d
000003e0: 9a0d f8bd 5fb2 a23e 4a18 083c 495f 6cbe
000003f0: f231 0fbd cf2a d5bd c55e ad3d 6819 32be

0.features.1.0.block.0.1.weight f4 [16]
0.82126427 0.95171946 0.80005234 0.76097643 0.8513374 1.1226597 0.6750035 0.80877626
0.85870165 0.73819846 0.80528134 0.6442276 0.80597514 0.64557207 0.78953415 0.88139224
00000000: 603e 523f e3a3 733f 3bd0 4c3f 5acf 423f
00000010: 3ff1 593f 50b3 8f3f 08cd 2c3f f60b 4f3f
00000020: dfd3 5b3f 93fa 3c3f eb26 4e3f 1aec 243f
00000030: 6354 4e3f 3644 253f e91e 4a3f eca2 613f

0.features.1.0.block.0.1.bias f4 [16]
0.13062656 0.33040047 0.038510848 0.03216858 0.059784286 -0.43348727 -0.011060536 0.06716635
0.376715 0.12510292 0.35785723 0.05253968 0.18332568 0.002381298 0.4168152 -0.06758672
00000000: f8c2 053e 402a a93e 8dbd 1d3d 33c3 033d
00000010: 5ee0 743d 0bf2 ddbe 4037 35bc 838e 893d
00000020: cae0 c03e fb1a 003e 1039 b73e d933 573d
00000030: bab9 3b3e 8d0f 1c3b cd68 d53e e86a 8abd

0.features.1.0.block.0.1.running_mean f4 [16]
0.004385744 -0.015683029 -0.3169672 -0.6243889 0.56269246 -1.2043225 0.2801105 0.43309575
0.5346361 0.5539737 0.28921765 -0.34570423 -0.17764753 -0.3408105 0.56130755 0.65108716
00000000: 4ab6 8f3b b279 80bc 8649 a2be f3d7 1fbf
00000010: 9d0c 103f 3d27 9abf a56a 8f3e babe dd3e
00000020: e9dd 083f 38d1 0d3f 5614 943e 2500 b1be
00000030: 3ce9 35be b77e aebe dab1 0f3f a6ad 263f

0.features.1.0.block.0.1.running_var f4 [16]
6.160297 2.6048784 4.300532 4.845226 3.9519787 0.3826485 0.60513335 2.328202
1.9354017 3.1818216 1.4703591 3.8350117 1.4075845 1.0386871 4.3209395 1.8595504
00000000: 2721 c540 54b6 2640 f59d 8940 170c 9b40
00000010: 38ed 7c40 81ea c33e 05ea 1a3f 4301 1540
00000020: 3ebb f73f f7a2 4b40 ba34 bc3f d570 7540
00000030: bb2b b43f b3f3 843f 2345 8a40 bf05 ee3f

0.features.1.1.block.0.0.weight f4 [16, 16, 3, 3]
0.028705059 -0.026550822 -0.15385015 0.06480252 -0.19710626 0.020337643 0.00035224884 -0.025994573
-0.09803702 -0.01632382 -0.07554878 0.11926284 -0.11085011 -0.1553299 -0.13304684 -0.20969279
-0.08853999 -0.13339846 0.022066278 0.024615811 0.0409067 0.10183042 -0.02345202 -0.09833743
0.015319976 -0.051987194 -0.010812779 -0.18015943 -0.015898539 0.060621537 0.20300418 0.05162045
-0.007647877 0.020753818 -0.20194387 0.09281074 -0.011831574 0.07665685 -0.030854017 -0.22726355
0.038372055 0.046327148 0.054843694 -0.087909184 -0.047696162 -0.011087396 0.013689841 -0.0016971718
-0.00091074104 0.021214433 -0.03164293 -0.019048177 -0.086471975 0.16071999 0.05117649 -0.0041310578
0.04606849 0.13857864 0.047035 -0.16536751 -0.0962177 -0.16927347 -0.049007665 -0.057316575
-0.013706085 -0.21761715 0.05612882 -0.13719714 -0.016812103 -0.17734352 -0.20311382 -0.055798806
0.034981005 -0.09934515 -0.025859734 0.025551254 -0.024387887 -0.06437447 0.13726923 0.012603428
0.042524274 -0.0387471 -0.10795188 0.015233806 0.007803445 0.01913204 0.06624098 0.074514516
0.016971594 -0.024340026 -0.06582735 -0.063736476 0.010681765 -0.22924201 0.020211224 -0.16636308
-0.04610025 -0.020500753 -0.0344635 -0.030995179 -0.16808648 0.13757168 0.022219677 -0.14969417
-0.06683724 -0.040063087 -0.09316037 0.054473624 0.032825284 0.096603915 0.057818737 0.05756502
0.15772527 0.012157815 -0.021641139 0.10145343 -0.07759173 -0.014202947 0.041440185 -0.0488327
-0.03802877 0.043359533 -0.04852453 -0.19855899 0.21798472 -0.08493523 0.029618325 -0.055914953
-0.17677264 -0.20883279 -0.20911978 -0.15877464 -0.017560769 0.00018482281 -0.10076017 -0.050728943
-0.069831714 0.10452087 -0.13752757 0.036000703 0.08965824 0.09732368 -0.105878875 -0.04480759
-0.020300513 -0.173631 0.12359082 -0.0055316873 -0.09839719 -0.0058533726 -0.07341426 0.047210153
0.10079812 0.023816995 0.1260576 -0.050462812 0.11413301 0.17345612 0.030015336 -0.14678177
0.0038095724 -0.25971296 -0.074848674 0.15342356 -0.03314444 0.09114559 0.021182984 0.15363452
0.10715157 0.025090104 -0.087508425 0.24605434 0.159464 -0.01837134 0.1198975 0.103110306
-0.10610479 0.08678704 -0.037684653 -0.0019527173 0.058384668 -0.025223028 0.10798507 -0.11655227
-0.0751791 0.047062736 -0.038524218 -0.0005955112 -0.02636472 -0.088575736 -0.1657574 -0.14257847
-0.11082849 -0.15624343 -0.10137424 -0.108745344 0.059469946 -0.08196947 0.210174 0.2035128
-0.045500364 -0.10304967 0.14232263 -0.10038403 -0.11199521 0.084171295 -0.05853611 -0.14064853
-0.027086101 0.091823086 -0.03789329 0.0639283 -0.12964134 0.09240127 0.00032529276 0.24938983
0.022693265 0.027603507 0.0047854017 0.0502666 0.041179635 0.004749401 0.061724786 -0.054332472
0.045005884 -0.16587998 0.060770422 0.018430062 -0.017312506 0.0018964523 -0.17073826 -0.03850239
0.06731895 -0.05434251 0.003612575 0.029006775 0.16734634 0.051952735 0.050768003 -0.08103262
-0.15468621 0.1434514 -0.09747657 -0.024082944 -0.0008761623 -0.12508047 -0.07968631 -0.030956278
0.10622251 -0.053470816 -0.08742869 0.09285563 -0.146704 -0.074366584 -0.21267466 -0.10130161
00000000: df26 eb3c 1c81 d9bc e58a 1dbe 2fb7 843d
00000010: 39d6 49be 219b a63c 0aae b839 92f2 d4bc
00000020: a2c7 c8bd 88b9 85bc 52b9 9abd 1340 f43d
00000030: 6205 e3bd cd0e 1fbe 6e3d 08be b5b9 56be
00000040: 7454 b5bd 9b99 08be 57c4 b43c 19a7 c93c
00000050: c98d 273d 788c d03d 731e c0bc 2265 c9bd
00000060: a300 7b3c 86f0 54bd 1528 31bc b77b 38be
00000070: a73d 82bc 4a4e 783d 54e0 4f3e f76f 533d
00000080: 0b9b fabb e903 aa3c 60ca 4ebe 8f13 be3d
00000090: 38d9 41bc 44fe 9c3d 90c1 fcbc c7b7 68be
000000a0: 042c 1d3d 89c1 3d3d c8a3 603d bb09 b4bd
000000b0: 0d5d 43bd e9a7 35bc 5b4b 603c a373 deba
000000c0: ccbe 6eba e4c9 ad3c 049c 01bd ec0a 9cbc
000000d0: 3818 b1bd c893 243e 709e 513d d35d 87bb
000000e0: 50b2 3c3d 8fe7 0d3e c6a7 403d 1a56 29be
000000f0: c90d c5bd 0656 2dbe 43bc 48bd c9c4 6abd
00000100: 7d8f 60bc 08d7 5ebe 55e7 653d 687d 0cbe
00000110: 89b9 89bc 8a99 35be 12fd 4fbe 4a8d 64bd
00000120: 3e48 0f3d 7875 cbbd cbd7 d3bc dd50 d13c
00000130: 1bc9 c7bc c3d6 83bd 4e90 0c3e 9c7e 4e3c
00000140: ef2d 2e3d 47b5 1ebd e015 ddbd 3797 793c
00000150: 0bb4 ff3b ccba 9c3c 5aa9 873d 119b 983d
00000160: 0308 8b3c bc64 c7bc 7dd0 86bd 4588 82bd
00000170: 9202 2f3c 6bbe 6abe 0292 a53c 155b 2abe
00000180: 9ed3 3cbd 32f1 a7bc 9929 0dbd 9ae9 fdbc
00000190: dd1e 2cbe 97df 0c3e 0a06 b63c 6e49 19be
000001a0: f6e1 88bd 3119 24bd ddca bebd bc1f 5f3d
000001b0: ce73 063d 46d8 c53d 57d3 6c3d 4cc9 6b3d
000001c0: bc82 213e 9231 473c c248 b1bc d1c6 cf3d
000001d0: 6ae8 9ebd 7ab3 68bc 2fbd 293d cc04 48bd
000001e0: 0ec4 1bbd c499 313d a8c1 46bd 0c53 4bbe
000001f0: 6337 5f3e 86f2 adbd 21a2 f23c 1407 65bd
00000200: e303 35be 43d8 55be 7f23 56be d295 22be
00000210: 9adb 8fbc ffcc 4139 595b cebd 27c9 4fbd
00000220: ee03 8fbd 0a0f d63d 07d4 0cbe 7975 133d
00000230: bd9e b73d a351 c73d 06d7 d8bd 2a88 37bd
00000240: 434d a6bc 53cc 31be 2f1d fd3d 2843 b5bb
00000250: 7784 c9bd a6cd bfbb 375a 96bd 6f5f 413d
00000260: 3f6f ce3d dc1b c33c 3e15 013e 18b2 4ebd
00000270: 91be e93d 7b9e 313e b9e2 f53c f64d 16be
00000280: 05aa 793b 19f9 84be 434a 99bd 111b 1d3e
00000290: 77c2 07bd 8aaa ba3d f087 ad3c 5e52 1d3e
000002a0: 4872 db3d c389 cd3c 9e37 b3bd abf5 7b3e
000002b0: 884a 233e 7e7f 96bc d28c f53d 7f2b d33d
000002c0: 784d d9bd 67bd b13d 395b 1abd 52f2 ffba
000002d0: c324 6f3d 86a0 cebc 4727 dd3d f5b2 eebd
000002e0: 80f7 99bd dbc4 403d 92cb 1dbd 151c 1cba
000002f0: d3fa d7bc 3267 b5bd 4fbc 29be 1700 12be
00000300: 0cfa e2bd 47fe 1fbe 4c9d cfbd e1b5 debd
00000310: c296 733d 9cdf a7bd da37 573e a965 503e
00000320: 975e 3abd b50b d3bd 06bd 113e 2496 cdbd
00000330: bf5d e5bd 0062 ac3d 8fc3 6fbd 2b06 10be
00000340: ace3 ddbc be0d bc3d ff35 1bbd d7ec 823d
00000350: b3c0 04be e13c bd3d 0e8c aa39 0c60 7f3e
00000360: 3ae7 b93c c020 e23c dcce 9c3b 5ae4 4d3d
00000370: faab 283d dda0 9b3b 21d3 7c3d ba8b 5ebd
00000380: 1758 383d 71dc 29be 68ea 783d a4fa 963c
00000390: f5d2 8dbc 6192 f83a 03d6 2ebe afb4 1dbd
000003a0: 85de 893d 4096 5ebd f3c0 6c3b 9e9f ed3c
000003b0: d75c 2b3e 64cc 543d 1cf2 4f3d 6ef4 a5bd
000003c0: 1066 1ebe ece4 123e cca1 c7bd 9849 c5bc
000003d0: 42ae 65ba 1815 00be 9332 a3bd 0598 fdbc
000003e0: 308b d93d 3704 5bbd d00d b3bd 182b be3d
000003f0: 9339 16be 824d 98bd 63c7 59be 3877 cfbd

0.features.1.1.block.0.1.weight f4 [16]
0.8732053 0.6211093 0.8641007 0.84520507 0.7696268 1.6002973 0.9564431 0.69997776
0.8224505 0.6791025 0.8032745 0.6524129 0.6658914 0.88752466 0.7921411 0.74322075
00000000: 628a 5f3f 0501 1f3f b435 5d3f 5c5f 583f
00000010: 4306 453f 8bd6 cc3f 74d9 743f be31 333f
00000020: 1e8c 523f a9d9 2d3f 66a3 4d3f 8804 273f
00000030: dc77 2a3f d134 633f c2c9 4a3f b743 3e3f

0.features.1.1.block.0.1.bias f4 [16]
0.048277583 -0.13917518 0.0866205 0.0792046 -0.10127582 -1.0168121 0.23585871 -0.038595658
0.051238645 -0.19720845 -0.023611857 -0.033157945 -0.036958113 -0.045740467 -0.2827623 -0.11031721
00000000: b7be 453d f083 0ebe 1766 b13d 0536 a23d
00000010: b269 cfbd e626 82bf f284 713e 7b16 1ebd
00000020: 9ddf 513d 03f1 49be a76d c1bc a0d0 07bd
00000030: 6461 17bd 5b5a 3bbd 38c6 90be fded e1bd

0.features.1.1.block.0.1.running_mean f4 [16]
-2.181289 -0.03965351 0.29614604 1.051174 -1.6798627 0.06500127 0.21356876 -0.78006184
0.4972349 -2.2565713 -2.3958514 0.37383702 1.1142033 -2.3321128 -1.9041723 -1.2343004
00000000: 3d9a 0bc0 b86b 22bd 74a0 973e df8c 863f
00000010: be05 d7bf 631f 853d c5b1 5a3e 22b2 47bf
00000020: 9395 fe3e aa6b 10c0 a155 19c0 9167 bf3e
00000030: 379e 8e3f 5641 15c0 ebbb f3bf 8efd 9dbf

0.features.1.1.block.0.1.running_var f4 [16]
18.592487 8.952408 14.958729 15.027567 15.361025 0.37659767 7.070253 2.8982728
10.31804 14.648024 26.299793 16.109743 7.3889027 12.575707 6.9707766 9.708678
00000000: 6abd 9441 103d 0f41 f456 6f41 ea70 7041
00000010: c2c6 7541 69d1 c03e 833f e240 4d7d 3940
00000020: b116 2541 4e5e 6a41 fa65 d241 c1e0 8041
00000030: e471 ec40 1936 4941 9a10 df40 bf56 1b41

0.features.2.0.block.0.0.weight f4 [64, 16, 3, 3]
-0.02275657 -0.049338404 -0.06434102 -0.021818142 -0.06011275 -0.03174915 -0.007447746 -0.014211074
0.015025673 0.03086686 0.013042251 -0.038773026 -0.032789152 0.022794496 -0.027891176 0.018030772
-0.035317343 0.010730599 0.075280815 0.068249084 -0.055527825 -0.10185156 -0.027626622 -0.015019272
-0.034068026 -0.08505955 -0.09339471 -0.020253966 -0.036658876 -0.0055379393 -0.025217526 0.00660049
-0.040211197 0.005406686 -0.017703356 -0.005242526 0.037701547 -0.12826875 -0.07615827 0.024041388
0.0027280184 -0.14684543 -0.13804704 -0.11774802 -0.11974804 0.02762634 0.025316758 0.05145096
0.10864812 0.09938966 0.08389349 0.0902485 0.0982979 0.15129736 -0.055686925 -0.18376714
0.05653806 -0.0077384193 0.015882198 0.07211646 0.025842777 0.1551608 0.068257466 -0.012930578
0.03340977 -0.008071588 0.074383296 -0.0018743434 0.08585533 0.06445531 0.052382674 0.07640543
-0.022599801 0.023204543 -0.07665893 -0.002146712 -0.11529875 -0.021854522 -0.11318352 0.0007767023
-0.0024343329 0.011326161 -0.030745508 -0.031276792 -0.012941684 -0.042276386 -0.04340139 0.012024702
-0.00033227267 0.08399434 0.057148553 0.12172557 0.0612947 0.016715588 0.024605336 0.04013187
-0.015993716 -0.07536235 -0.018150192 0.072977036 0.07948628 0.05009237 -0.058282837 0.07758307
0.06651955 0.05084427 0.055242464 0.019902771 -0.08096257 -0.011530401 -0.016718574 -0.010062195
0.021575516 0.09737502 -0.026176957 0.017825074 -0.08125579 0.035876 0.09098493 0.11010792
-0.02321653 0.006837226 0.0020014634 0.014717971 0.07348745 0.022121072 0.07595642 -5.8696605e-05
-0.059929017 -0.059903283 -0.077219926 -0.059099242 -0.0002858388 -0.003275259 0.036736168 -0.01523761
0.0068646115 0.07725046 -0.01788743 0.03967226 0.082083 0.10493729 0.096640535 -0.04229055
0.011088904 0.31212866 0.029646719 0.022801312 0.24241093 0.122292265 0.017328402 -0.0542998
0.0069893077 -0.021484045 0.054733474 0.055436466 -0.0010244898 0.10520769 0.025340078 -0.01974087
-0.011644224 0.03511315 0.021122715 -0.03949549 -0.006187842 0.014085749 -0.06592429 -0.06805537
-0.0044893785 -0.0443387 -0.030260362 0.022387765 -0.00063882803 0.012855277 -0.005949665 -0.075790554
0.048207786 0.051346183 0.059348002 -0.027689524 -0.01836251 0.08094431 -0.05431916 0.07149375
0.042692546 -0.06209124 -0.050128836 -0.06663803 0.055384327 -0.0043468648 -0.0007690561 0.017720303
-0.09312208 0.06325659 -0.02626606 0.029237183 0.013938319 0.0091047585 0.03028104 -0.055148732
-0.04571749 -0.005127448 0.137421 0.06180475 -0.053556047 0.080753215 -0.006701329 0.006911633
0.046435528 0.037705198 0.011232053 0.059895802 0.034078207 -0.022851715 0.049399424 -0.04109583
0.06725794 0.04807718 -0.01669235 0.026103463 0.04104653 -0.0665237 0.0680935 -0.0028420298
-0.0073115295 0.009891221 -0.09789541 0.0011375218 0.015690831 -0.076090574 0.02171523 0.0043089073
-0.03344875 -0.049224492 -0.027004872 -0.09281473 0.01932586 -0.014661962 -0.03057597 0.11153948
-0.0545459 0.00088559056 0.10210925 -0.00956432 -0.018401057 -0.01159556 -0.09142935 -0.044456642
-0.018478487 -0.043572415 0.16440405 -0.011980283 0.050817914 0.055058718 0.0047642756 0.024248553
00000000: fc6b babc 1117 4abd 3ac5 83bd f6bb b2bc
00000010: c938 76bd 660b 02bd 390c f4bb 91d5 68bc
00000020: 3e2e 763c 7fdc fc3c 2aaf 553c 77d0 1ebd
00000030: eb4d 06bd 86bb ba3c 097c e4bc 45b5 933c
00000040: eba8 10bd 65cf 2f3c d42c 9a3d 2dc6 8b3d
00000050: 2571 63bd 8d97 d0bd 3a51 e2bc 6513 76bc
00000060: ea8a 0bbd b433 aebd ba45 bfbd a5eb a5bc
00000070: 9e27 16bd 9a77 b5bb fc94 cebc ec48 d83b
00000080: 7fb4 24bd 922a b13b a106 91bc 7fc9 abbb
00000090: f06c 1a3d e258 03be def8 9bbd 72f2 c43c
000000a0: 8ec8 323b a65e 16be 345c 0dbe e025 f1bd
000000b0: 763e f5bd a250 e23c 1765 cf3c 3ebe 523d
000000c0: e882 de3d ce8c cb3d 5ad0 ab3d 35d4 b83d
000000d0: 6950 c93d b2ed 1a3e f917 64bd 742d 3cbe
000000e0: 7494 673d 9192 fdbb 621b 823c cbb1 933d
000000f0: 3bb4 d33c 79e2 1e3e 92ca 8b3d c6da 53bc
00000100: afd8 083d b23e 04bc 4556 983d 87ac f5ba
00000110: ebd4 af3d 2501 843d 378f 563d 737a 9c3d
00000120: 3823 b9bc 7417 be3c 5bff 9cbd daaf 0cbb
00000130: c021 ecbd 4108 b3bc c3cc e7bd 9c9b 4b3a
00000140: 5489 1fbb 5d91 393c 01de fbbc 181c 00bd
00000150: 5b09 54bc 012a 2dbd a8c5 31bd 4103 453c
00000160: e234 aeb9 3905 ac3d 9a14 6a3d 414b f93d
00000170: 2710 7b3d 21ef 883c 2191 c93c 5161 243d
00000180: 4105 83bc 9357 9abd b6af 94bc fc74 953d
00000190: b4c9 a23d a82d 4d3d fcb9 6ebd dfe3 9e3d
000001a0: 673b 883d 1542 503d ec45 623d 230b a33c
000001b0: b4cf a5bd 02ea 3cbc 64f5 88bc e8db 24bc
000001c0: 23bf b03c 8e6c c73d 0f71 d6bc e405 923c
000001d0: 7069 a6bd b6f2 123d 4f56 ba3d 4380 e13d
000001e0: 9830 bebc cf0a e03b fc2a 033b a523 713c
000001f0: 9780 963d 4037 b53c 0a8f 9b3d 0031 76b8
00000200: 2178 75bd 255d 75bd 7b25 9ebd 0c12 72bd
00000210: a2dc 95b9 baa5 56bb aa78 163d 2ba7 79bc
00000220: 89f0 e03b 7d35 9e3d a988 92bc 617f 223d
00000230: 221b a83d 5de9 d63d 79eb c53d db38 2dbd
00000240: 3cae 353c 54cf 9f3e addd f23c d1c9 ba3c
00000250: 923a 783e 5e74 fa3d 4bf4 8d3c 7869 5ebd
00000260: 9006 e53b 4fff afbc 3530 603d 5911 633d
00000270: 2c48 86ba 2177 d73d ff95 cf3c 9bb7 a1bc
00000280: 6ac7 3ebc ced2 0f3d 8b09 ad3c 06c6 21bd
00000290: 62c3 cabb eac7 663c 5003 87bd 9d60 8bbd
000002a0: a31b 93bb 7f9c 35bd 94e4 f7bc 8c66 b73c
000002b0: 0677 27ba f19e 523c 68f5 c2bb 1438 9bbd
000002c0: 8775 453d 6050 523d e416 733d 24d5 e2bc
000002d0: f96c 96bc 21c6 a53d c47d 5ebd 516b 923d
000002e0: 61de 2e3d 6253 7ebd e553 4dbd 8579 88bd
000002f0: adda 623d 2570 8ebb 7b9a 49ba 2b2a 913c
00000300: cab6 bebd ac8c 813d ec2b d7bc d182 ef3c
00000310: 8c5d 643c 202c 153c f20f f83c a3e3 61bd
00000320: 4342 3bbd 2704 a8bb 17b8 0c3e fa26 7d3d
00000330: 965d 5bbd f161 a53d d296 dbbb fb7a e23b
00000340: 2e33 3e3d c470 1a3d a506 383c 4d55 753d
00000350: 9795 0b3d 8533 bbbc 0d57 4a3d 1a54 28bd
00000360: 88be 893d 94ec 443d 65be 88bc eed6 d53c
00000370: 6820 283d 943d 88bd 9b74 8b3d 5941 3abb
00000380: 8e95 efbb ca0e 223c 647d c8bd e618 953a
00000390: 0f8a 803c 60d5 9bbd 23e4 b13c bc31 8d3b
000003a0: 8e01 09bd 9f9f 49bd 5239 ddbc a615 bebd
000003b0: 4451 9e3c ba38 70bc 757a fabc d06e e43d
000003c0: 866b 5fbd fa26 683a a81e d13d aab3 1cbc
000003d0: d0bd 96bc 4efb 3dbc 503f bbbd 2b18 36bd
000003e0: 3260 97bc fd78 32bd 8959 283e f348 44bc
000003f0: 7226 503d 4085 613d a41d 9c3b e7a4 c63c

0.features.2.0.block.0.1.weight f4 [64]
0.6353345 0.9565551 0.8991811 0.92462426 0.8625551 0.779472 0.7059791 0.8927428
0.8811377 0.82686305 0.7584743 0.910584 0.8994731 0.925622 0.8442482 0.83869684
0.82304746 0.8181147 0.8424349 0.8479198 0.8296624 0.8162744 0.88468593 0.8972314
0.88943815 0.79972327 0.89020085 0.945362 0.78431594 0.830164 0.96979475 0.8480054
0.7382223 0.914079 0.9084941 0.85789585 0.93502 0.93442476 0.93912363 0.86372894
0.81067073 0.91376543 0.853714 0.84795755 0.7859593 0.9009678 0.8529929 1.3543572
0.85467887 0.8513291 1.2452438 0.87796634 0.8630554 0.88041157 0.7014153 0.7372389
0.85131824 0.94569 0.68983936 0.85621107 0.8792592 0.91601646 0.84108377 0.7784609
00000000: 48a5 223f cce0 743f bc30 663f 2db4 6c3f
00000010: 69d0 5c3f 7a8b 473f 0cbb 343f cb8a 643f
00000020: 3e92 613f 4cad 533f 5f2b 423f 081c 693f
00000030: de43 663f 90f5 6c3f a620 583f d6b4 563f
00000040: 3db3 523f f76f 513f d0a9 573f 4611 593f
00000050: c164 543f 5cf7 503f c77a 623f f5b0 653f
00000060: 38b2 633f aaba 4c3f 34e4 633f 3e03 723f
00000070: eec8 483f a185 543f 7844 783f e216 593f
00000080: 23fc 3c3f 1501 6a3f 1293 683f 109f 5b3f
00000090: 795d 6f3f 7636 6f3f 686a 703f 571d 5d3f
000000a0: 1e88 4f3f 88ec 693f 008d 5a3f bf13 593f
000000b0: a134 493f d3a5 663f be5d 5a3f 945b ad3f
000000c0: 3ccc 5a3f b4f0 593f 2664 9f3f 67c2 603f
000000d0: 33f1 5c3f a762 613f f48f 333f b0bb 3c3f
000000e0: feef 593f bd18 723f 5099 303f a630 5b3f
000000f0: 2217 613f 0e80 6a3f 4451 573f 3749 473f

0.features.2.0.block.0.1.bias f4 [64]
0.0824184 0.15598758 0.045663204 0.028176557 0.13765731 0.02674115 0.18310876 0.11507713
0.123895936 0.09301805 0.31637383 0.20732985 0.06870288 0.28184077 0.081746265 0.03928622
0.18208481 0.16742253 0.047060184 0.057951223 0.15353724 0.029589916 0.43102792 0.23455694
0.32663956 0.053141445 0.245415 0.17065333 0.0908968 0.03680341 0.25688607 0.24158858
0.10714451 0.1390495 0.20569967 0.020614905 0.15379526 0.2110131 -0.0024248492 0.055641633
0.10311705 0.04765238 0.18770593 0.0684374 0.11054705 0.28543544 0.16089812 -0.43673748
0.28908983 0.12657338 -0.4406129 0.082093954 0.06475425 0.087924846 0.15036236 0.26269138
0.18643928 0.07497714 0.034589477 0.16766569 0.12998506 -0.04874041 0.37988934 0.041567225
00000000: faca a83d 35bb 1f3e 5709 3b3d 86d2 e63c
00000010: 0af6 0c3e 4210 db3c dd80 3b3e 8fad eb3d
00000020: 27bd fd3d 3f80 be3d c0fb a13e 474e 543e
00000030: 18b4 8c3d 6f4d 903e 966a a73d 96ea 203d
00000040: 7174 3a3e d070 2b3e 2ec2 403d 435e 6d3d
00000050: de38 1d3e 8d66 f23c b1af dc3e b22f 703e
00000060: 4d3d a73e d8aa 593d 124e 7b3e bfbf 2e3e
00000070: 1a28 ba3d 2cbf 163d 9286 833e ff62 773e
00000080: 956e db3d fe62 0e3e efa2 523e 97e0 a83c
00000090: 817c 1d3e d113 583e 38ea 1ebb 7be8 633d
000000a0: 082f d33d 242f 433d fc35 403e e828 8c3d
000000b0: 7e66 e23d 9824 923e 7ac2 243e 0e9c dfbe
000000c0: 9503 943e 749c 013e 0498 e1be e020 a83d
000000d0: e09d 843d f111 b43d 97f8 193e 7c7f 863e
000000e0: f0e9 3e3e 9d8d 993d b2ad 0d3d 8eb0 2b3e
000000f0: ce1a 053e 06a4 47bd db80 c23e 6542 2a3d

0.features.2.0.block.0.1.running_mean f4 [64]
-0.00031040126 0.26786873 -0.20600599 -0.65433925 0.25870463 -0.4531462 -0.4977866 0.09944348
0.57595676 0.60580575 -0.30395022 0.29483786 -0.47573647 0.3244895 -0.47724694 -0.2660519
0.5179739 0.036221948 0.1255759 -0.45409295 -0.2130145 -0.33657423 0.6449783 1.1415143
0.78781086 -0.07298923 0.40454084 0.34912547 0.44339532 -0.5148417 0.6031094 -0.26300898
-0.15172213 0.062156588 0.6500992 0.121726386 0.25056988 -0.10064127 -0.3087514 0.2632302
0.15156955 -0.51459885 0.285192 -0.32535195 -0.03316087 0.3511035 -0.026026426 0.3225303
0.30872205 -0.00026126005 0.03975453 -0.15394054 -0.636935 -0.03218155 0.1651953 0.66726124
-0.076327994 -0.22781545 0.23024206 1.0233392 0.6501497 0.3135112 -0.17634322 -0.34683615
00000000: 5abd a2b9 1726 893e 3cf3 52be c782 27bf
00000010: ef74 843e c702 e8be e3dd febe 06a9 cb3d
00000020: e771 133f 1616 1b3f 5d9f 9bbe fdf4 963e
00000030: bb93 f3be 7d23 a63e b659 f4be f437 88be
00000040: f099 043f 775d 143d f896 003e df7e e8be
00000050: 7920 5abe 7553 acbe 4c1d 253f 241d 923f
00000060: f9ad 493f 617b 95bd fa1f cf3e 93c0 b23e
00000070: b604 e33e aacc 03bf 6165 1a3f 1da9 86be
00000080: 0c5d 1bbe e897 7e3d e76c 263f af4b f93d
00000090: b24a 803e 031d cebd aa14 9ebe 1cc6 863e
000000a0: 0c35 1b3e c0bc 03bf b004 923e 8894 a6be
000000b0: b1d3 07bd d7c3 b33e 5f35 d5bc b122 a53e
000000c0: d110 9e3e bbf9 88b9 a5d5 223d 97a2 1dbe
000000d0: 2c0e 23bf cdd0 03bd f528 293e a2d1 2a3f
000000e0: da51 9cbd 7448 69be 93c4 6b3e c7fc 823f
000000f0: 3670 263f 8a84 a03e 5193 34be 8294 b1be

0.features.2.0.block.0.1.running_var f4 [64]
1.0029775 2.8517644 4.231155 7.1745157 1.9057729 2.4151695 2.084897 4.197483
3.521197 4.827428 1.0255656 2.9491956 2.5062985 2.7310684 2.5389466 2.3833182
1.3366947 2.4020112 1.3489021 6.265113 2.935231 2.2552881 1.7063345 5.352519
11.4239645 1.3138382 2.0943036 2.158233 1.8062732 4.0247183 5.7370114 2.6325526
4.3062334 4.640818 5.6611996 4.613901 1.9353405 2.348197 4.861576 2.0607553
3.1602387 9.054397 3.7865484 1.9129652 1.6274977 4.8167377 3.1311293 0.92425054
1.8352227 1.6902417 1.0883553 3.3264856 2.8313568 5.512005 3.9241383 3.7624395
2.454838 1.6028559 1.0708904 2.6597083 2.9322379 2.688555 2.2403092 1.6037654
00000000: 9161 803f 4f83 3640 9f65 8740 a295 e540
00000010: 5ef0 f33f 2392 1a40 f46e 0540 c851 8640
00000020: 4b5b 6140 4a7a 9a40 bc45 833f 9fbf 3c40
00000030: 3267 2040 d3c9 2e40 1a7e 2240 4988 1840
00000040: d018 ab3f 8dba 1940 d3a8 ac3f ce7b c840
00000050: d3da 3b40 a456 1040 2b69 da3f d647 ab40
00000060: 8fc8 3641 da2b a83f 1209 0640 7d20 0a40
00000070: f633 e73f 7eca 8040 9995 b740 be7b 2840
00000080: aacc 8940 9581 9440 8c28 b540 14a5 9340
00000090: 3db9 f73f dc48 1640 0892 9b40 6ae3 0340
000000a0: 5a41 4a40 cfde 1041 cf56 7240 0bdc f43f
000000b0: d851 d03f b722 9a40 6c64 4840 af9b 6c3f
000000c0: 94e8 ea3f d759 d83f 3a4f 8b3f 24e5 5440
000000d0: f334 3540 5862 b040 1525 7b40 cfcb 7040
000000e0: 111c 1d40 622a cd3f f012 893f a938 2a40
000000f0: c9a9 3b40 4911 2c40 3a61 0f40 2f48 cd3f

0.features.2.0.block.1.0.weight f4 [32, 64, 1, 1]
-0.24384369 -0.18633002 0.24692775 0.6751167 0.15301797 0.17278562 0.4494862 0.080201834
-0.24035728 -0.52170885 -0.10882001 -0.16461653 -0.045827787 -0.10821625 0.23893976 -0.38062435
0.51358867 -0.20695166 -0.12639424 -0.1185059 0.09557923 0.3953686 0.21303666 -0.22400272
0.13836262 0.17569365 0.1346903 0.06387766 -0.19961289 0.03591692 -0.14559245 -0.23849554
-0.1177362 0.11882125 -0.074732214 0.019452164 0.06887777 -0.07761467 0.36349243 0.25266415
0.21034554 0.43741617 0.15746708 0.012825826 0.14852704 -0.12572631 -0.08410393 0.51760185
-0.053566646 0.1320915 0.31445885 0.18860066 0.14528994 0.21335216 -0.13000694 -0.13097554
0.201521 0.16819154 0.19816302 0.08596805 0.14730583 0.71512026 -0.16923144 0.17046346
-0.15040715 0.32625955 0.098131046 -0.31515107 -0.07398048 -0.15156563 0.26141793 -0.07987652
0.23136742 -0.050386626 0.4061443 -0.38690916 0.06840035 -0.1113901 -0.011108605 -0.13224337
-0.058849674 0.10777039 0.12312729 -0.4251362 0.2688778 -0.4294557 -0.36896202 -0.3352699
0.21994613 -0.083111 0.19510408 -0.24068765 -0.08797609 0.1203463 0.40667135 -0.45349917
0.10681712 -0.0033259988 0.07100091 0.27560946 0.17754471 0.119692184 -0.33084315 0.13416834
-0.13712907 0.07301185 0.44353202 0.1423715 0.089505605 -0.13595574 0.03085776 0.22758314
0.051467244 -0.046760485 0.034693845 0.17149805 0.11562629 -0.01956717 0.5018555 -0.07892548
-0.0876827 -0.13694903 -0.13836282 0.38954258 -0.47827047 0.14367236 -0.20417406 -0.06204918
-0.41246024 -0.0690839 -0.08729567 0.26291692 -0.18292108 0.1661752 0.051874638 -0.2885632
0.1930435 -0.27191007 0.017613461 -0.14766344 0.19223596 -0.017230537 -0.018019848 0.18464592
0.004973395 -0.26921457 0.068368234 0.30693373 -0.14714625 -0.10637818 -0.02138802 -0.15500665
-0.12415132 0.012922109 0.20246962 -0.27932546 -0.50069433 -0.08756314 0.3395395 -0.23279987
0.2653648 0.38110277 -0.3178797 -0.06265541 0.056269847 0.21431336 -0.23560947 0.36037263
-0.44012922 -0.038384628 0.22917354 -0.21051872 -0.17630237 0.06639361 0.3552306 0.051740076
-0.1271627 -0.44694042 -0.030527072 -0.26399446 0.349292 -0.115098424 -0.0892204 0.07178033
0.071403496 -0.2507973 0.31320745 0.03236556 -0.19931391 0.23047648 -0.25215992 0.2501518
0.14257666 -0.07362102 -0.3871305 0.37718794 0.24228409 0.4294625 -0.32774296 -0.14985074
-0.5016592 0.44825974 0.34731117 -0.11679445 -0.20408563 0.06435455 -0.42534897 -0.15811655
0.34035745 0.26584366 -0.51940423 0.03415827 0.05326113 0.072516575 0.18151315 -0.056251552
0.06201747 -0.2377945 0.21410432 -0.20307338 0.005238357 0.22396575 0.15480334 -0.18180744
0.0647534 -0.23109685 0.24219562 -0.5856346 0.061777577 0.117330804 -0.13342933 0.104999565
0.1900779 -0.063389 0.20222491 -0.5925375 0.22813815 0.22631513 0.15744998 0.14963742
0.17730391 -0.38658115 0.18036574 -0.19975126 0.100847766 -0.19751392 -0.22329831 -0.031452704
-0.7736823 -0.030394498 0.097178385 -0.07042489 -0.30025193 -0.36255458 -0.015408114 0.18683103
00000000: 29b2 79be 4ccd 3ebe a1da 7c3e 73d4 2c3f
00000010: beb0 1c3e b7ee 303e 0e23 e63e dc40 a43d
00000020: 3820 76be b68e 05bf 07dd debd 3c91 28be
00000030: ebb5 3bbd 7ba0 ddbd a0ac 743e 32e1 c2be
00000040: 8c7a 033f 23eb 53be 7e6d 01be 39b3 f2bd
00000050: 0bbf c33d c16d ca3e 4826 5a3e f860 65be
00000060: eeae 0d3e 09e9 333e 41ec 093e 4ad2 823d
00000070: 5267 4cbe 9f1d 133d 3016 15be 2d38 74be
00000080: ad1f f1bd 8e58 f33d 340d 99bd 255a 9f3c
00000090: ca0f 8d3d 71f4 9ebd ae1b ba3e 325d 813e
000000a0: d264 573e 03f5 df3e 0d3f 213e 6a23 523c
000000b0: 7917 183e 66be 00be ae3e acbd 8e81 043f
000000c0: b368 5bbd ff42 073e c000 a13e 8820 413e
000000d0: e3c6 143e fd78 5a3e 8a20 05be 741e 06be
000000e0: 855b 4e3e 673a 2c3e 3feb 4a3e 0410 b03d
000000f0: 57d7 163e 1f12 373f 024b 2dbe f98d 2e3e
00000100: 5504 1abe 7e0b a73e eef8 c83d 7b5b a1be
00000110: 1483 97bd 0534 1bbe 92d8 853e 4d96 a3bd
00000120: 95eb 6c3e 3562 4ebd 25f2 cf3e f518 c6be
00000130: 7c15 8c3d 7e20 e4bd de00 36bc ce6a 07be
00000140: 5b0c 71bd b9b6 dc3d 292a fc3d 74ab d9be
00000150: 5aaa 893e 9ee1 dbbe 97e8 bcbe 7fa8 abbe
00000160: 8f39 613e 1a36 aabd 5dc9 473e d376 76be
00000170: cf2c b4bd 1f78 f63d 3a37 d03e 0b31 e8be
00000180: efc2 da3d 00f9 59bb ed68 913d af1c 8d3e
00000190: 48ce 353e 2d21 f53d 4664 a9be 6d63 093e
000001a0: 906b 0cbe 3d87 953d a116 e33e d6c9 113e
000001b0: b74e b73d fb37 0bbe 6ac9 fc3c 8e0b 693e
000001c0: 51cf 523d ec87 3fbd 221b 0e3d 2f9d 2f3e
000001d0: 7acd ec3d 544b a0bc 9a79 003f afa3 a1bd
000001e0: fd92 b3bd 5e3c 0cbe fcae 0dbe 2072 c73e
000001f0: dedf f4be d91e 133e 0113 51be 4827 7ebd
00000200: fd2d d3be dc7b 8dbd 12c8 b2bd 0c9d 863e
00000210: aa4f 3bbe d529 2a3e 807a 543d 8ebe 93be
00000220: 32ad 453e cc37 8bbe 1b4a 903c 1635 17be
00000230: 81d9 443e 0e27 8dbc 5c9e 93bc d213 3d3e
00000240: dcf7 a23b 7ed6 89be a504 8c3d 6b26 9d3e
00000250: 82ad 16be cedc d9bd ee35 afbc 10ba 1ebe
00000260: 0c43 febd 41b7 533c 3254 4f3e bf03 8fbe
00000270: 812d 00bf 4e54 b3bd 1fd8 ad3e 1763 6ebe
00000280: e5dd 873e e71f c33e 21c1 a2be 7b51 80bd
00000290: 367b 663d f674 5b3e 9c43 71be c382 b83e
000002a0: 9e58 e1be 3339 1dbd 78ac 6a3e 3892 57be
000002b0: 9c88 34be 5ff9 873d c9e0 b53e 67ed 533d
000002c0: f036 02be 60d5 e4be e913 fabc 482a 87be
000002d0: 67d6 b23e b9b8 ebbd 2fb9 b6bd 9101 933d
000002e0: ff3b 923d 8168 80be ba5c a03e c091 043d
000002f0: f218 4cbe 0702 6c3e 1b1b 81be e613 803e
00000300: 9eff 113e 9ec6 96bd f835 c6be c71e c13e
00000310: 5219 783e 82e2 db3e edcd a7be 7972 19be
00000320: bd6c 00bf 4d82 e53e c5d2 b13e ee31 efbd
00000330: d3fb 50be 51cc 833d 57c7 d9be 4ee9 21be
00000340: 5543 ae3e a91c 883e adf7 04bf 8be9 0b3d
00000350: 5828 5a3d 9283 943d 95de 393e 0768 66bd
00000360: 0806 7e3d 6780 73be 2a3e 5b3e 78f2 4fbe
00000370: 86a6 ab3b 4757 653e c484 1e3e bb2b 3abe
00000380: 6e9d 843d a7a4 6cbe 2102 783e 26ec 15bf
00000390: 7c0a 7d3d 224b f03d b3a1 08be 030a d73d
000003a0: c8a3 423e 18d2 81bd 0c14 4f3e 8ab0 17bf
000003b0: 0c9d 693e 27bf 673e 913a 213e 8d3a 193e
000003c0: 288f 353e f7ed c5be ccb1 383e 988b 4cbe
000003d0: 4689 ce3d 1741 4abe 50a8 64be 8dd4 00bd
000003e0: 0b10 46bf e2fd f8bc 7605 c73d ed3a 90bd
000003f0: 9fba 99be c1a0 b9be 5072 7cbc a250 3f3e

0.features.2.0.block.1.1.weight f4 [32]
0.940256 0.9765154 0.8467185 0.8877631 0.88333803 0.9767996 0.9157891 1.0425892
0.90240943 0.85941267 0.95000744 0.9402021 0.7938094 0.8879903 1.0668308 0.9695789
0.85292774 0.9599008 0.89423186 0.8994178 1.0036469 0.84392333 0.89355594 0.89488363
0.8786668 0.97994125 0.8619166 0.93986005 0.93511695 0.81277764 0.92814726 0.90738106
00000000: 9eb4 703f eafc 793f 8bc2 583f 7144 633f
00000010: 7122 623f 8a0f 7a3f 2871 6a3f 9073 853f
00000020: 4e04 673f 7802 5c3f b033 733f 16b1 703f
00000030: 1837 4b3f 5553 633f e98d 883f 5336 783f
00000040: 7959 5a3f 0fbc 753f 61ec 643f 3f40 663f
00000050: 8077 803f 5c0b 583f 15c0 643f 1817 653f
00000060: 4ff0 603f 6edd 7a3f 91a6 5c3f ab9a 703f
00000070: d363 6f3f 3212 503f 0f9b 6d3f 204a 683f

0.features.2.0.block.1.1.bias f4 [32]
-0.8730651 0.7383674 -0.1499123 1.7237278 -0.9392915 -0.76987976 0.17341602 0.0026258044
-0.4810458 0.52539337 -0.97769994 1.0476526 1.0391623 1.2109932 -1.1017835 -1.5961901
-0.20243989 0.37259617 -0.7810191 0.36704633 0.009997957 -0.118518345 1.2574246 0.36593887
0.18801993 0.43269312 0.11980463 0.69815844 -1.4417232 0.96948016 0.59931284 -1.0636563
00000000: 3281 5fbf a505 3d3f 9c82 19be 1da3 dc3f
00000010: 6875 70bf d716 45bf f893 313e b015 2c3b
00000020: a34b f6be 2e80 063f 8b4a 7abf 7b19 863f
00000030: 4503 853f d301 9b3f 3e07 8dbf f54f ccbf
00000040: 674c 4fbe edc4 be3e def0 47bf 7fed bb3e
00000050: 79ce 233c bfb9 f2bd 4af3 a03f 575c bb3e
00000060: 4c88 403e f489 dd3e 215c f53d 83ba 323f
00000070: 638a b8bf da2f 783f 916c 193f e425 88bf

0.features.2.0.block.1.1.running_mean f4 [32]
0.75919753 0.062152114 -0.3841568 -0.22268128 -0.036190946 0.18695788 -0.45785707 0.24844395
-0.32779232 -0.16619693 -0.30080706 -0.39255834 0.17743874 -0.3760731 0.32938957 0.24842054
0.8672454 -0.067697465 0.06716438 0.5874512 -0.44343454 0.012137112 0.11809527 -0.17691784
0.19724187 0.024941461 0.13120323 -0.3765427 -0.06489914 -0.25034842 -0.03465704 -0.00775252
00000000: c55a 423f 3793 7e3d 33b0 c4be 9006 64be
00000010: f53c 14bd e371 3f3e 3e6c eabe 1768 7e3e
00000020: 65d4 a7be 872f 2abe 6203 9abe 68fd c8be
00000030: 80b2 353e a78c c0be c0a5 a83e f461 7e3e
00000040: cb03 5e3f f8a4 8abd 7a8d 893d 3463 163f
00000050: da09 e3be bdda 463c efdb f13d f329 35be
00000060: c6f9 493e 0952 cc3c 245a 063e 34ca c0be
00000070: d7e9 84bd ab2d 80be 8af4 0dbd da08 febb

0.features.2.0.block.1.1.running_var f4 [32]
1.7485996 0.7918878 0.7294533 3.381702 2.2745423 0.87220216 1.0340632 1.625865
0.96341324 0.56196225 0.94164574 2.0596795 0.9500436 0.5490831 0.49572548 0.6142243
2.7768898 0.8283784 1.8290863 3.580765 2.1917276 3.6578333 0.68142444 0.9308331
2.6076407 2.319072 0.47212774 2.3912594 1.8400147 1.2093045 0.7173855 3.148091
00000000: 1dd2 df3f 29b9 4a3f 74bd 3a3f ce6d 5840
00000010: 1a92 1140 a448 5f3f 2f5c 843f 581c d03f
00000020: 40a2 763f c2dc 0f3f b20f 713f cad1 0340
00000030: 0f36 733f b690 0c3f bbcf fd3e ce3d 1d3f
00000040: 90b8 3140 9b10 543f 801f ea3f 412b 6540
00000050: 4445 0c40 f119 6a40 d571 2e3f 144b 6e3f
00000060: 96e3 2640 ad6b 1440 baba f13e 650a 1940
00000070: 9a85 eb3f 7dca 9a3f 93a6 373f 537a 4940
