code/modeling/ckpt/AutoencoderConfig([2, 2, 2], flip=True, rotate=False)/autoencoder_20000.pth (torch, 720858 bytes, 102 tensors)

0.features.0.0.weight f4 [16, 8, 3, 3]
0	0x3c1294f7	0.008946649
1	0xbc11bb03	-0.008894685
2	0x3c112336	0.008858493
3	0xbce40b11	-0.027837308
4	0x3cbcab68	0.023030952
5	0xbbf409ff	-0.0074474807
6	0x3c839dae	0.016066398
7	0xbda48f3d	-0.08035133
8	0x3adade29	0.0016698289
9	0x3d1ea61b	0.03873263
10	0xbd2ae820	-0.041725278
11	0x3ccda25a	0.02510183
12	0xbd48684a	-0.048927583
13	0x3d8298db	0.06376811
14	0xbd1e4a8f	-0.038645323
15	0xbbd22032	-0.0064125294
16	0x3f200457	0.6250662
17	0xbc0bb3a6	-0.008526718
18	0x3cd9bfcf	0.02658072
19	0xbc867224	-0.016411848
20	0x3cddd5b5	0.027079443
21	0xbbc16a4d	-0.0059025646
22	0x3d670a17	0.056406107
23	0xbc2d3015	-0.010570546
24	0x3d2cb413	0.04216392
25	0x3e901dde	0.28147787
26	0x3d1d4076	0.038391553
27	0x3c5e28ed	0.013559562
28	0x3cbce930	0.023060411
29	0xbb4e9108	-0.003151955
30	0x3aaa533a	0.0012994774
31	0xbd492047	-0.049103048
32	0x3d1d19f4	0.03835483
33	0xbb620a9b	-0.0034491185
34	0x3c38e741	0.011285604
35	0x3a7988af	0.00095189636
36	0xbbd0fa6d	-0.0063775093
37	0xbc682d0f	-0.014170899
38	0xbc90af75	-0.01766179
39	0xbc87612e	-0.016525831
40	0xbd512d51	-0.051068608
41	0xbd048068	-0.03234902
42	0xbd0c0baf	-0.03419083
43	0xbc8cd5f0	-0.017191857
44	0xbd645fe9	-0.05575553
45	0x3c042290	0.008064881
46	0x39741168	0.00023276138
47	0x3c9f907c	0.019478075
48	0x3ab260da	0.0013609186
49	0x3b05dc73	0.0020425587
50	0x3c2fdf63	0.010734412
51	0xbbc9728d	-0.0061476887
52	0x3d1de2cf	0.03854638
53	0xbaeb003f	-0.001792915
54	0xbbaa3f3d	-0.005195527
55	0x3c988ac5	0.018620858
56	0x3bc38f84	0.005968036
57	0x3cff4509	0.031160848
58	0xbcad6168	-0.021164611
59	0x3d0b909e	0.034073465
60	0xbbc6487b	-0.006051121
61	0x3d6a9490	0.057270586
62	0x3a384186	0.0007028807
63	0xbc107792	-0.00881757
64	0xbcd8607a	-0.026413191
65	0x3c013b82	0.007887723
66	0xb9f71c1a	-0.00047132449
67	0x3caa6f86	0.020805132
68	0xbd24fc59	-0.04027972
69	0xbc077f57	-0.008270106
70	0x3cd7810f	0.026306657
71	0xbcc783f5	-0.024354914
72	0xb8fc4aed	-0.000120302524
73	0xbc3b24b1	-0.011422322
74	0xbcf2df8a	-0.029647607
75	0xbdc216b6	-0.09476988
76	0x3e4d653b	0.20058148
77	0xbcceba33	-0.025235271
78	0x3cae2014	0.02125553
79	0xbd36a0e1	-0.04458702
80	0xbd903c8a	-0.07042797
81	0x3c8208a0	0.015873253
82	0xbc47e5b6	-0.012200763
83	0xbc25342e	-0.010083241
84	0xbba9cdcd	-0.005182004
85	0x3e56f27f	0.20990942
86	0x3d951f0b	0.072813116
87	0x3d65b55c	0.05608116
88	0xbd429cbf	-0.047512766
89	0x3c8cbbd4	0.017179407
90	0x3c012832	0.007883118
91	0x3d2f9fea	0.042877115
92	0x3c4d187b	0.012518044
93	0x3d47a5c3	0.048742067
94	0x3e5a2040	0.21301365
95	0x3d8abcf8	0.06774324
96	0x3c5e0ce0	0.013552874
97	0x3d7ab304	0.06120588
98	0x3c9e8e12	0.019354854
99	0xbc36526e	-0.011128051
100	0x3cfc5638	0.030802831
101	0xbb98812f	-0.0046540718
102	0x3c351046	0.011051243
103	0xbddbad63	-0.1072643
104	0xbc1d68e0	-0.009607524
105	0xbcf9750e	-0.030451324
106	0xbc023f50	-0.007949665
107	0x3c8fe554	0.017565407
108	0x3d1915dc	0.037374362
109	0x3d04670a	0.03232483
110	0x3d3aa201	0.045564655
111	0x3d8c2024	0.06842068
112	0xbd8ca95e	-0.06868242
113	0x3d7bc7e2	0.06146992
114	0x3caa9d76	0.020827036
115	0xbc095693	-0.008382457
116	0x3d2505c9	0.04028872
117	0x3caad5dd	0.020853931
118	0xbc4af7a6	-0.012388146
119	0x3c9fd53e	0.019510861
120	0x3d1cacc4	0.0382507
121	0xbe129d17	-0.14317738
122	0xbc08390f	-0.008314385
123	0x3c456943	0.012049022
124	0xbce0ea9f	-0.027455626
125	0x3d4ca005	0.049957294
126	0xbccd2778	-0.025043234
127	0xbb650836	-0.003494752
128	0xbc5f08d9	-0.013612949
129	0x3d03c7cd	0.032172967
130	0xbe44d4be	-0.1922178
131	0xbba3b168	-0.0049955137
132	0xbc9f1815	-0.019420663
133	0x3c6bf3a4	0.01440135
134	0x3d11c954	0.035592392
135	0x3d19cf53	0.037551235
136	0xbc75bd49	-0.014998742
137	0x3d08c790	0.033393443
138	0x3cd002ae	0.025391903
139	0xbe04491f	-0.12918518
140	0x3d412e9c	0.04716359
141	0x3cb076d6	0.02154104
142	0xbd1cd3f5	-0.038288075
143	0x3d16822f	0.036745246
144	0xbd6d8a95	-0.05799349
145	0xbc8902da	-0.016724993
146	0xbcca1593	-0.02466849
147	0x3d2e6707	0.042578723
148	0x3e6f60ff	0.23376845
149	0x3b634df3	0.0034683913
150	0xbd34ad4c	-0.04411058
151	0x3d5b5f6e	0.053557806
152	0xbdb54bc0	-0.08852339
153	0xbc5b1ac7	-0.013373083
154	0x3d25879b	0.040412527
155	0xbcb0ee21	-0.021597924
156	0x3d20a98f	0.039224204
157	0x3e4f2765	0.20229872
158	0x3d197e44	0.037473932
159	0x3cb5b407	0.02218057
160	0x3ddd4ac0	0.10805273
161	0x3cdaa374	0.026689269
162	0x3a98d654	0.0011660554
163	0x3ca7c7c4	0.020480998
164	0x3bae2ea2	0.0053156177
165	0x3c83d691	0.016093524
166	0xbe807166	-0.25086516
167	0x3c050619	0.00811913
168	0x3cf08004	0.029357918
169	0xbd08e028	-0.033416897
170	0x3c8bdb11	0.017072232
171	0xbd6e926a	-0.0582451
172	0x3a653e18	0.00087449094
173	0xbd2289f8	-0.03968236
174	0x3b8858fb	0.004160998
175	0x3d8da2cb	0.06915816
176	0xbc7bb10e	-0.015362037
177	0xbd43f2b6	-0.04783889
178	0x3d472a8a	0.048624553
179	0xbdbe0413	-0.09278121
180	0x3cde077a	0.027103174
181	0x3db7096d	0.08937345
182	0x3cecd303	0.028909212
183	0x3c4bf651	0.012448863
184	0x3dcf56c0	0.10123968
185	0x3d2470bc	0.040146574
186	0x3cbcceb4	0.023047782
187	0x3d0a420f	0.033754405
188	0x3aef1954	0.0018241801
189	0x3bd536bf	0.0065067704
190	0x3d3045a3	0.04303516
191	0xbcbe0aaa	-0.023198444
192	0xbd6a6fc9	-0.057235513
193	0xbd7e5d3f	-0.062100645
194	0xbcabb147	-0.020958556
195	0x3c2f8157	0.010711989
196	0xbcb959a7	-0.022625757
197	0xbd69008c	-0.056885287
198	0xbc985637	-0.018595798
199	0x3cb010fd	0.021492476
200	0xbc4c1547	-0.012456245
201	0xbc806d7e	-0.01567721
202	0xbddf9399	-0.10916824
203	0xbd0182db	-0.031618934
204	0xbc36ca9e	-0.011156706
205	0xbc045ac3	-0.00807828
206	0xbcd864e3	-0.026415294
207	0x3d3c1951	0.04592258
208	0x3ca186be	0.01971757
209	0x3ce64bad	0.028112257
210	0xbd8b64c3	-0.06806328
211	0xbdd738f1	-0.105089076
212	0x3a182be6	0.0005804881
213	0x3d9d062d	0.076671936
214	0xbb8e7018	-0.0043468587
215	0x3d4c1ff0	0.049835145
216	0x3ce9a056	0.028518837
217	0xbd304dc3	-0.04304291
218	0xbd87d7f3	-0.06632986
219	0xbd8bb5a6	-0.06821756
220	0xbce94aa0	-0.028477967
221	0x3df521d1	0.119693406
222	0xbdb16c09	-0.08663184
223	0x3df33fae	0.1187738
224	0x3dcfbbfd	0.10143278
225	0x3d8c778a	0.06858738
226	0x3d246d6f	0.040143427
227	0x3c58c720	0.013231069
228	0xbc2549e9	-0.010088422
229	0xbc725a4e	-0.014792038
230	0xbd376775	-0.0447764
231	0x3d93b08a	0.072114065
232	0x3c90dc1e	0.017683085
233	0x3d323af0	0.04351324
234	0x3e004f47	0.12530242
235	0xbd0ade89	-0.033903632
236	0x3ba54959	0.005044144
237	0x3c147343	0.009060684
238	0x3d9f5d91	0.07781518
239	0x3d8424d1	0.06452335
240	0x3c76b2bf	0.015057265
241	0x3c0ebd0c	0.0087120645
242	0xbd75dd97	-0.060025778
243	0x3ce3894e	0.027775433
244	0xbe02ef40	-0.12786579
245	0xbdb8a273	-0.0901536
246	0xbba7d384	-0.00512165
247	0xbe18db12	-0.14927319
248	0xbd4bd919	-0.049767587
249	0xbc04b5c1	-0.008099974
250	0xbd8e8b70	-0.06960189
251	0xbdd46d66	-0.103724286
252	0x3d732488	0.05936101
253	0xbda9dd8e	-0.08294211
254	0x3dc9f697	0.098614864
255	0x3d96b468	0.073586285

0.features.0.1.weight f4 [16]
0	0x3f65e84f	0.898076
1	0x3f4fb80f	0.81140226
2	0x3f1cef73	0.6130287
3	0x3f25d578	0.6477885
4	0x3f16f01e	0.5896014
5	0x3f121e23	0.57077235
6	0x3f3ebc15	0.7450574
7	0x3f62012e	0.8828305
8	0x3f3c69cd	0.7359894
9	0x3f27d0de	0.6555308
10	0x3eb9f1a5	0.36317173
11	0x3f246627	0.6421837
12	0x3f52599a	0.8216797
13	0x3f574a1d	0.8409746
14	0x3f48119d	0.78151876
15	0x3f57aa14	0.84243894

0.features.0.1.bias f4 [16]
0	0x3eb07f13	0.3447195
1	0x3ed895ff	0.42301938
2	0x3f2d4eae	0.6769818
3	0x3e3708c3	0.17874436
4	0x3ea9eb07	0.33187124
5	0x3e7cd43e	0.24690339
6	0xbd50dc77	-0.0509915
7	0xbe3309aa	-0.17484155
8	0x3e2794e7	0.16365395
9	0x3f106513	0.56404227
10	0x3fc5aa86	1.5442665
11	0x3ea524e7	0.32254717
12	0x3dafacfa	0.085779145
13	0x3ef10f46	0.47081965
14	0x3ea160c0	0.31519127
15	0x3e5d47f0	0.21609473

0.features.0.1.running_mean f4 [16]
0	0xb8ea49be	-0.00011171725
1	0x3a54b09f	0.0008113477
2	0xb98bdeae	-0.00026678055
3	0xb7c2cf12	-2.3223027e-05
4	0x3a0595a5	0.0005095846
5	0x3a82c917	0.0009978142
6	0xb8de1796	-0.00010590178
7	0xb99079b3	-0.00027556493
8	0x395eaeeb	0.00021236732
9	0x391ea8f1	0.0001513099
10	0x3946be19	0.00018953568
11	0xb9730735	-0.0002317697
12	0xba048dd2	-0.0005056533
13	0x3901d4a4	0.00012381613
14	0x39ea2c82	0.0004466512
15	0x3939fb7e	0.00017736663

0.features.0.1.running_var f4 [16]
0	0x3f0dadf1	0.5534354
1	0x3e975abc	0.29561412
2	0x3e71623a	0.23572627
3	0x3fef663f	1.8703078
4	0x3f560052	0.8359424
5	0x3f5bd6b3	0.8587448
6	0x3e8cfff1	0.27539018
7	0x3eccc23e	0.39991945
8	0x3f5fae80	0.8737564
9	0x3ea459ee	0.3209986
10	0x3e39224e	0.18079492
11	0x3f80555d	1.0026051
12	0x3f801bc9	1.0008479
13	0x3ecd9aaa	0.40157062
14	0x3f2869e7	0.65786594
15	0x3f97c72e	1.185766

0.features.1.0.block.0.0.weight f4 [16, 16, 3, 3]
0	0xbdca6269	-0.098820515
1	0x3d6680d1	0.056275193
2	0x3e13e2d9	0.14442004
3	0xbd401750	-0.046897233
4	0x3e826c39	0.25473192
5	0x3d0dc6e3	0.0346135
6	0xbdb00e8b	-0.08596524
7	0xbd1d2c7d	-0.038372505
8	0xbdcb2dc3	-0.09920838
9	0x3d73392e	0.059380703
10	0x3d198e75	0.037489373
11	0xbd990066	-0.07470779
12	0x3df23750	0.11826956
13	0x3e9c14fe	0.30484766
14	0x3de400e6	0.11132984
15	0xbd8c6830	-0.0685581
16	0x3dcd33f3	0.10019674
17	0x3c025690	0.007955208
18	0xbb90bdba	-0.0044171484
19	0x3de1c42b	0.11023744
20	0xbda5e9ec	-0.08101258
21	0x3d376fea	0.044784464
22	0xbc375a13	-0.011190909
23	0x3d5256ce	0.051352315
24	0x3e1df49a	0.1542534
25	0x3e51d82e	0.20492622
26	0x3d91e438	0.071236074
27	0x3d947b86	0.07250123
28	0xbd39eec9	-0.04539374
29	0x3e138a56	0.1440824
30	0xbd3b6c14	-0.04575737
31	0x3e13912f	0.14410852
32	0xbce21000	-0.02759552
33	0x3e164c81	0.14677621
34	0xbc8b03cf	-0.01696959
35	0x3d8c52e4	0.06851748
36	0xbd398617	-0.045293894
37	0xbd6277cb	-0.055290025
38	0x3ccb79ad	0.024838293
39	0x3c318019	0.0108337635
40	0xbd8ce263	-0.06879117
41	0x3e094f1d	0.13409086
42	0x3de70958	0.11281079
43	0xbdfd61c6	-0.123721644
44	0x3d9be7a5	0.07612542
45	0xbe1ada25	-0.15122278
46	0x3e223176	0.1583918
47	0xbdf4dcc6	-0.11956172
48	0x3c9de5e7	0.019274665
49	0x3daba929	0.08381874
50	0xbd55ce0b	-0.05219845
51	0xbe544884	-0.20730788
52	0x3d6f33c9	0.058398996
53	0xbd8f3ae8	-0.06993657
54	0xbaae75a0	-0.0013310201
55	0xbd5331ef	-0.051561292
56	0xbd857691	-0.06516755
57	0x3cfda581	0.030962707
58	0xbdce6a87	-0.10078912
59	0x3d199641	0.03749681
60	0xbd9a31f1	-0.07529057
61	0xbe83f167	-0.25770113
62	0xbdbc5b58	-0.0919711
63	0x3b838806	0.004014018
64	0x3dd1a7a6	0.102370545
65	0x3d437866	0.047722243
66	0x3d8d89c3	0.069110416
67	0xbe8c76b8	-0.27434325
68	0x3d586e51	0.05283958
69	0xbe01e9f6	-0.12686905
70	0xbe9854c3	-0.29752168
71	0xbdcc564d	-0.09977398
72	0xbd0c0b62	-0.034190543
73	0xbc6ca663	-0.014443967
74	0xb9c0331a	-0.00036659167
75	0xbdc23d7d	-0.09484384
76	0x3d0b027a	0.03393791
77	0xbd08022c	-0.033205196
78	0x3c8377a4	0.01604826
79	0xbd7c9a6e	-0.061670713
80	0xbdfd77f5	-0.123763956
81	0xbd54d5a3	-0.051961552
82	0xbdce7e26	-0.10082655
83	0xbc9d28d5	-0.01918451
84	0xbce52b1c	-0.027974658
85	0xbd417045	-0.04722621
86	0xbc7039db	-0.014662231
87	0xbdcab57c	-0.09897897
88	0xbd8adfec	-0.06780991
89	0xbcffefd3	-0.031242287
90	0xbdc0e1cb	-0.094180666
91	0xbd9f5dbc	-0.0778155
92	0x3d8c1c37	0.06841319
93	0xbc252344	-0.010079209
94	0x3e9e956d	0.30973378
95	0x3e0a5c8e	0.1351187
96	0xbcaa2c7b	-0.020773163
97	0x3ddc5070	0.1075753
98	0x3e4468b9	0.19180574
99	0x3c97a3ab	0.01851066
100	0x3e28c850	0.16482663
101	0xbd9dc128	-0.07702857
102	0xbd2a4c74	-0.041576818
103	0x3dcdc0f3	0.10046568
104	0x3db1e235	0.08685724
105	0x3e6502fd	0.22364421
106	0x3e212eba	0.15740481
107	0x3c879480	0.016550303
108	0xbd15b66e	-0.03655093
109	0xbc3e4c91	-0.011614935
110	0x3d8d3304	0.06894496
111	0xbda2e2c5	-0.07953409
112	0x3d5b74c3	0.05357815
113	0xbda4352c	-0.08017954
114	0x3dafdfa0	0.08587575
115	0xbcb908a5	-0.02258713
116	0x3cf51724	0.02991826
117	0x3e4c4d22	0.19951299
118	0x3c8b3b1d	0.01699596
119	0x3e011d62	0.12608865
120	0x3a2ab238	0.0006511542
121	0xbd9cd2cb	-0.07657393
122	0x3d8389d7	0.06422775
123	0x3ce70bf5	0.028203944
124	0xbe60ad54	-0.2194112
125	0x3e0dd1f6	0.13849625
126	0x3c434ef2	0.0119206775
127	0xbdfcd3e4	-0.123451024
128	0xbc82c11f	-0.015961228
129	0xbc674d81	-0.014117599
130	0x3c4f447a	0.012650603
131	0xbda4d7b4	-0.080489546
132	0xbce3f959	-0.02782886
133	0x3e3d2a7c	0.18473238
134	0x3e20cd1a	0.1570324
135	0xbe1318d9	-0.14364947
136	0xbd1461d7	-0.03622612
137	0x3cc104a4	0.023561783
138	0xbe163d50	-0.14671826
139	0xbe2bab78	-0.16764629
140	0xbe275ed3	-0.16344766
141	0xbe34f152	-0.17670181
142	0xbe8865e0	-0.26640224
143	0xbd4cf788	-0.05004075
144	0x3b94da0f	0.004542596
145	0x3e96f5d4	0.29484427
146	0xbdef5bcf	-0.11687433
147	0x3d2da61a	0.042394735
148	0x3c08f318	0.008358739
149	0xbd1487ea	-0.03626243
150	0xba98b0d7	-0.0011649382
151	0x3d18dd3f	0.03732037
152	0x3b3913af	0.0028240492
153	0x3d19c5e5	0.037542243
154	0xbe1d38b9	-0.15353669
155	0x3e0300ce	0.12793276
156	0xbde38f31	-0.11111296
157	0xbdfe1783	-0.12406828
158	0xbdb0ff81	-0.086424835
159	0xbdfc855e	-0.12330125
160	0x3dbc65ff	0.09199142
161	0x3d06feab	0.032957714
162	0xbd90426d	-0.0704392
163	0x3d945071	0.072419055
164	0xbd91f86e	-0.07127462
165	0x3d7b967a	0.061422803
166	0x3e9229ee	0.28547615
167	0x3e1916c8	0.14950097
168	0xbda8efff	-0.082489006
169	0x3cc9ed4b	0.024649283
170	0xbdb1aed4	-0.08675924
171	0x3e1a6ad8	0.1507982
172	0x3e1e53ca	0.1546165
173	0xbd076a78	-0.03306052
174	0x3d024817	0.03180703
175	0x3da46407	0.08026891
176	0xbdde6f72	-0.108611
177	0x3ced1ff8	0.028945908
178	0xbe39b084	-0.18133742
179	0x3dc501db	0.096194945
180	0xbd69ff6f	-0.057128366
181	0x3da826df	0.08210539
182	0xbd91cd7c	-0.07119271
183	0xbdd00f50	-0.10159171
184	0xbc99649d	-0.018724734
185	0x3d6acc91	0.057323996
186	0xbe0a8c6a	-0.13530126
187	0xbcf5ea84	-0.030019052
188	0xbdd73638	-0.10508388
189	0xbe323d43	-0.17406182
190	0xbca7c817	-0.020481152
191	0xbe35be0a	-0.17748275
192	0x3d484faf	0.048904117
193	0x3e6aa97d	0.22916217
194	0x3e43b5b8	0.19112289
195	0xbc073378	-0.008252017
196	0x3dc1dcff	0.0946598
197	0xbe1bcfd9	-0.15216006
198	0x3daac79e	0.08338855
199	0xbd0487b1	-0.032355968
200	0x3d817002	0.06320192
201	0xbc2e52a2	-0.010639818
202	0xbed0972b	-0.40740332
203	0xbdeeb699	-0.116559215
204	0xbbd16cd5	-0.0063911476
205	0x3d1330db	0.035935264
206	0x3d0a31d0	0.03373891
207	0x3daa98c0	0.08329916
208	0xbd37c7c9	-0.044868264
209	0x3d85485d	0.06507943
210	0x3d27c03b	0.04095481
211	0x3e76b5d4	0.240928
212	0x3da22047	0.07916313
213	0x3e057c49	0.13035692
214	0x3d7b5564	0.06136073
215	0x3da2d2ae	0.0795034
216	0x3e183a15	0.14865907
217	0xbdb75218	-0.08951205
218	0xbdb75b7c	-0.08952996
219	0xbd80c2d6	-0.06287162
220	0x3eaef094	0.34167922
221	0x3d4672fb	0.048449498
222	0xbd22a7ca	-0.039710797
223	0x3dab3c0d	0.08361063
224	0xbc998897	-0.018741889
225	0x3d43f2f3	0.047839116
226	0xbb875380	-0.004129827
227	0x3c6a5c15	0.014304181
228	0x3cd85c30	0.026411146
229	0xbe9fbd7d	-0.31199256
230	0xbda1530c	-0.07877168
231	0xbd238b64	-0.039927855
232	0xbde245e4	-0.11048487
233	0xbcc67354	-0.024224915
234	0x3da035ca	0.078227594
235	0xbe0b3d90	-0.13597703
236	0xbdd073aa	-0.10178311
237	0xbd09b51a	-0.033619978
238	0x3d22ebef	0.039775785
239	0x3e15464e	0.145776
240	0x3de5fcc9	0.112298556
241	0xbe04c673	-0.12966327
242	0xbd97c35e	-0.0741031
243	0xbd9f9aa0	-0.07793164
244	0x3de61075	0.11233608
245	0x3de11010	0.10989392
246	0xbd11da89	-0.035608802
247	0xbd512c19	-0.051067445
248	0xbdb983af	-0.0905832
249	0x3e87e396	0.26540822
250	0xbb44640a	-0.0029966854
251	0xbe3ed480	-0.1863575
252	0xbd1635f9	-0.036672566
253	0xbd6ee7ad	-0.058326412
254	0x3d585ebd	0.052824724
255	0xbe04a3d4	-0.1295312

0.features.1.0.block.0.1.weight f4 [16]
0	0x3f298fea	0.6623522
1	0x3f435cde	0.7631358
2	0x3f19d3c8	0.6008878
3	0x3f24e7a7	0.64415973
4	0x3f38aa47	0.7213482
5	0x3fa800a5	1.3125197
6	0x3f6e792e	0.93153656
7	0x3f32325c	0.6960809
8	0x3f32a284	0.6977923
9	0x3f12903b	0.5725133
10	0x3f24fcf1	0.6444846
11	0x3ef92ff7	0.48669407
12	0x3f1eb9dd	0.62002355
13	0x3f276adb	0.65397424
14	0x3f23ee3b	0.64035386
15	0x3f426157	0.7592978

0.features.1.0.block.0.1.bias f4 [16]
0	0x3e937e50	0.28807306
1	0x3f0eeb80	0.55828094
2	0x3d215095	0.03938349
3	0xbbdd01de	-0.0067446074
4	0x3dd0cec0	0.101956844
5	0xbfa27327	-1.2691392
6	0xbea5fcc4	-0.32419407
7	0x3d865685	0.06559471
8	0x3f2ad6cc	0.66734004
9	0x3e550000	0.20800781
10	0x3f19b6a1	0.60044295
11	0x3dfd2f8d	0.12362585
12	0x3e17d965	0.14829023
13	0xbcdd889c	-0.02704268
14	0x3f07fe7f	0.53122705
15	0xbdd62d01	-0.104578026

0.features.1.0.block.0.1.running_mean f4 [16]
0	0x3f83d39e	1.0298955
1	0xbe90b4ab	-0.2826284
2	0x3ecd30c4	0.40076268
3	0x3d5dde84	0.054167286
4	0x3e992fde	0.29919332
5	0xbedd78d0	-0.43256235
6	0x3c84d719	0.016215848
7	0xbe65e757	-0.2245153
8	0x3f2541d5	0.64553577
9	0xbd1f5f0a	-0.038908996
10	0x3f03b5f6	0.51449525
11	0xbe923a35	-0.28560033
12	0xbde1cc60	-0.110253096
13	0xbec0ba3c	-0.37642086
14	0xbf110b70	-0.5665808
15	0x3c1e7c35	0.009673168

0.features.1.0.block.0.1.running_var f4 [16]
0	0x4037d116	2.8721366
1	0x3f520a00	0.8204651
2	0x403f72ca	2.9913812
3	0x40245dca	2.5682244
4	0x401c3bec	2.4411573
5	0x3e1acd70	0.1511743
6	0x3f20bf97	0.6279234
7	0x3ee999ae	0.4562506
8	0x3f96fc77	1.1795796
9	0x3fb18266	1.386792
10	0x3fb36003	1.4013675
11	0x3fbd07f5	1.4768053
12	0x3f80d312	1.0064414
13	0x3f175c67	0.5912537
14	0x4016624e	2.34975
15	0x3f7d3109	0.98902947

0.features.1.1.block.0.0.weight f4 [16, 16, 3, 3]
0	0xbd217e22	-0.03942693
1	0xbbf0d0fc	-0.0073491316
2	0xbd2a0064	-0.04150428
3	0x3d9471db	0.07248279
4	0xbe7c12b9	-0.24616517
5	0x3bd37337	0.0064529437
6	0x3c93d979	0.018048035
7	0xbcce27b6	-0.02516542
8	0xbd6ca016	-0.057769857
9	0x3cc9f81f	0.024654446
10	0xbda8ecd4	-0.082482964
11	0x3e1961a0	0.14978647
12	0xbd3a159a	-0.045430757
13	0xbdf4652d	-0.1193336
14	0xbd0e431d	-0.034731973
15	0xbded8bbc	-0.11598918
16	0xbe24697d	-0.16055866
17	0xbe097020	-0.13421679
18	0xbc90df46	-0.01768459
19	0x3c1c117d	0.009525654
20	0xbccc61b0	-0.024948925
21	0x3da7a6b1	0.08186091
22	0xbd961816	-0.07328813
23	0xbe17f144	-0.1483813
24	0x3d3cdbb1	0.04610795
25	0xbdd933d4	-0.106055886
26	0xbc13bef3	-0.009017694
27	0xbdf3b156	-0.118990585
28	0x3d66ec55	0.056377728
29	0x3e0c6c74	0.13713247
30	0x3e165701	0.14681627
31	0x3cf1fd26	0.029539656
32	0xbc8cb249	-0.017174857
33	0xbd3ac1d8	-0.04559502
34	0xbe549b51	-0.20762374
35	0x3d4d9aed	0.050196577
36	0x3ae27b96	0.0017279263
37	0x3d6b1696	0.057394587
38	0xbd1fbf0b	-0.039000552
39	0xbe536c40	-0.20646763
40	0xbc574c38	-0.013140731
41	0xbbba86b7	-0.005692329
42	0x3ddc6b2a	0.107626274
43	0xbda765d2	-0.081737176
44	0xbd00aaa0	-0.03141272
45	0x3c21af91	0.009868518
46	0x3d422539	0.04739878
47	0x3d211475	0.03932615
48	0xbbb57017	-0.005537044
49	0xbd5585ae	-0.05212944
50	0xbc7bd4cf	-0.015370562
51	0x3b2bd1a6	0.002621749
52	0xbd7dcff9	-0.061965916
53	0x3e42f8af	0.19040178
54	0x3d30acb5	0.043133456
55	0xbc9ba3c9	-0.018998997
56	0x3d354e58	0.044264168
57	0x3daace71	0.08340157
58	0x3db60756	0.08888118
59	0xbdfda89f	-0.123856775
60	0xbd84783c	-0.064682454
61	0xbd8bfd70	-0.06835449
62	0xbde9d51d	-0.11417601
63	0x3cf6c802	0.030124668
64	0xbba22d6e	-0.0049492633
65	0xbe1983ab	-0.14991634
66	0x3e29c5e2	0.16579393
67	0xbde4606b	-0.11151203
68	0xbb026f78	-0.0019902866
69	0xbe31a4fb	-0.17348091
70	0xbe834e26	-0.2564556
71	0xbe35e999	-0.17764892
72	0x3d6cb1f3	0.057786893
73	0xbdd1bccb	-0.102410875
74	0x3c3e58ec	0.01161788
75	0x3cb14436	0.02163897
76	0xbcfd590f	-0.030926256
77	0xbc8e6e28	-0.017386511
78	0x3e0d32ff	0.13788985
79	0x3cb5a6b4	0.022174217
80	0x3d973659	0.07383413
81	0xbd61a484	-0.055088535
82	0xbe0f80be	-0.14013955
83	0xbd002c72	-0.031292386
84	0xbd072a3b	-0.03299926
85	0x3c57a018	0.013160728
86	0x3d3a2590	0.04544598
87	0x3cada128	0.02119501
88	0x3c5a4b11	0.013323561
89	0xbd451df5	-0.048124272
90	0xbcfe6c6e	-0.031057563
91	0xbdbc469e	-0.09193157
92	0x3d213398	0.039355844
93	0xbe26a607	-0.16274272
94	0xbd184ba0	-0.037181497
95	0xbda7c6d7	-0.081922226
96	0xbd0e41d2	-0.03473074
97	0xbd7bb9b8	-0.061456412
98	0xbdd89208	-0.10574728
99	0xbcefc99d	-0.029270941
100	0xbe2a6285	-0.16639145
101	0x3dcc61d8	0.099796
102	0xbc857fe1	-0.016296329
103	0xbe4a2b38	-0.19743049
104	0xbdf20e06	-0.11819081
105	0xbe016508	-0.12636197
106	0xbdc134e4	-0.09433916
107	0xbb00df2d	-0.0019664273
108	0x3d4bf1e9	0.04979125
109	0x3dee7cf1	0.116449244
110	0x3d7f69f0	0.06235689
111	0x3d084212	0.033266135
112	0x3e1558ce	0.14584658
113	0x3ca3a95b	0.019978216
114	0xbd8016aa	-0.06254323
115	0x3dbe64b1	0.09296549
116	0xbd60e421	-0.05490506
117	0x3cd4118d	0.025887275
118	0x3c5b1d1d	0.01337364
119	0xbdc3ee3d	-0.09566925
120	0xbc9ec12e	-0.019379225
121	0x3c8a2f95	0.016868392
122	0xbd373778	-0.044730633
123	0xbde53b00	-0.11192894
124	0x3e08fe73	0.13378315
125	0xbdff4bfe	-0.12465666
126	0x3cbcccf7	0.023046954
127	0xbd66ee2d	-0.056379486
128	0xbd6a7d6c	-0.057248518
129	0xbe019816	-0.12655672
130	0xbe30bdcb	-0.172599
131	0xbe0ef1f7	-0.1395949
132	0xbcd98f65	-0.026557634
133	0x3dce85ef	0.100841396
134	0xbe210702	-0.1572533
135	0x3cbbda22	0.022931162
136	0xbd0c7b69	-0.03429738
137	0x3de6e37a	0.112738565
138	0xbddc2875	-0.10749904
139	0x3bef3605	0.007300141
140	0x3d9575d4	0.072978646
141	0x3debe1d4	0.11517683
142	0xbddffed8	-0.109372795
143	0xbca77f81	-0.02044654
144	0xbdae146c	-0.08499989
145	0xbe4c1de7	-0.19933282
146	0x3d073d16	0.03301724
147	0x3d8faedd	0.070157744
148	0xbe16fbc1	-0.14744474
149	0xbbfab32e	-0.0076507544
150	0xbdcb14e5	-0.09916095
151	0x3c84dd0c	0.016218685
152	0xbc0bf963	-0.008543345
153	0xbc4adc5c	-0.012381639
154	0xbdb2b6a5	-0.08726243
155	0xbd27fe58	-0.041014045
156	0x3d1c3dcf	0.038144883
157	0x3e195c13	0.1497653
158	0xbb33c764	-0.0027432078
159	0xbe3e9699	-0.18612136
160	0xbd8fc35e	-0.07019685
161	0xbe34c898	-0.17654645
162	0xbddea53d	-0.108713605
163	0x3d6056df	0.054770347
164	0xbc93d2df	-0.018044887
165	0x3d50bb1e	0.0509597
166	0x3d12f3ba	0.035876967
167	0x3e37369c	0.17891926
168	0x3dd859e7	0.105640225
169	0xbd3de9ad	-0.04636543
170	0xbd8482d1	-0.06470264
171	0x3e71ea73	0.23624592
172	0x3e399afb	0.18125527
173	0xbd19969f	-0.03749716
174	0x3d953a18	0.07286471
175	0x3dadf7cc	0.08494529
176	0xbd8b8ea3	-0.06814315
177	0x3d497894	0.049187258
178	0xbd87bcb3	-0.066277884
179	0xbcc5c695	-0.024142543
180	0x3cf98ba1	0.030462088
181	0xbc5525a4	-0.0130094625
182	0x3d4be344	0.049777284
183	0xbdebc64a	-0.1151243
184	0xbc9e5a9f	-0.01933032
185	0x3d6edc30	0.058315456
186	0xbd392c6a	-0.045208372
187	0xbc90858d	-0.017641807
188	0xbd66b9fa	-0.056329705
189	0xbe0dbff5	-0.13842757
190	0xbe48723e	-0.1957483
191	0xbd86a6be	-0.06574772
192	0xbe0c834e	-0.13721964
193	0xbdd8b985	-0.1058226
194	0xbc0a8a6b	-0.008455853
195	0xbde523fb	-0.11188503
196	0x3cfd7bfc	0.03094291
197	0xbd89ba4b	-0.06724986
198	0x3e539914	0.20663863
199	0x3e361135	0.17780001
200	0x3e0d77e8	0.13815272
201	0xbcb962d6	-0.022630136
202	0x3e93b993	0.2885252
203	0xbd358085	-0.04431202
204	0x3d60281c	0.05472575
205	0x3e651838	0.2237252
206	0x3cbae3bf	0.022813676
207	0xbd92b261	-0.07162929
208	0xbd82d078	-0.063874185
209	0x3e03a1ac	0.12854642
210	0x3d5f6228	0.05453697
211	0x3db290df	0.08719038
212	0xbdbf0ce0	-0.093286276
213	0x3e3ac7ea	0.18240324
214	0x3d314555	0.04327901
215	0x3e722c8d	0.23649807
216	0x3c902ea3	0.017600363
217	0x3d815145	0.06314329
218	0x3b460810	0.0030217208
219	0x3d875afd	0.066091515
220	0x3cd0156a	0.025400836
221	0x3ac5c911	0.001508983
222	0x3dabbc71	0.08385552
223	0xbd001db7	-0.03127834
224	0x3a474e23	0.0007602891
225	0xbe209b52	-0.1568425
226	0xbaf54ed1	-0.0018715506
227	0x3ad57748	0.0016286159
228	0x3b6876ac	0.0035471125
229	0xbd825237	-0.063633375
230	0xbe1a5851	-0.15072753
231	0xbde83f4b	-0.11340197
232	0xbcbf0475	-0.023317555
233	0xbd704188	-0.058656245
234	0xbd6c71b3	-0.05772562
235	0xbda68c47	-0.081322245
236	0x3e3f9497	0.18709026
237	0xbcba0c58	-0.022710964
238	0xbca36e4e	-0.019950058
239	0xbd9547e6	-0.07289104
240	0xbe67ad6a	-0.22624746
241	0x3df4d01f	0.119537584
242	0xbce7e4cb	-0.02830734
243	0xbcde3526	-0.027124953
244	0xbc81b272	-0.01583216
245	0xbdebd959	-0.11516065
246	0x3d027cea	0.03185741
247	0xbd808b1d	-0.06276534
248	0x3de3b777	0.111189775
249	0xbd36d8d3	-0.044640373
250	0xbc867cea	-0.016416986
251	0x3d943a5f	0.07237696
252	0xbd604058	-0.054748863
253	0x3d07aae4	0.03312196
254	0xbdf67626	-0.12034254
255	0xbdace3de	-0.084419

0.features.1.1.block.0.1.weight f4 [16]
0	0x3f40052e	0.75007904
1	0x3ec759a0	0.38935566
2	0x3f33b08f	0.7019128
3	0x3f37ce7f	0.71799463
4	0x3f15f6be	0.58579624
5	0x3ff879ff	1.941223
6	0x3f495040	0.78638077
7	0x3f3ece92	0.7453395
8	0x3f2a9e66	0.66647947
9	0x3f0606d0	0.52354145
10	0x3f09da93	0.5384914
11	0x3f081561	0.5315762
12	0x3f05124f	0.5198106
13	0x3f384555	0.7198079
14	0x3f26bbd6	0.65130365
15	0x3f1068bc	0.5640981

0.features.1.1.block.0.1.bias f4 [16]
0	0xbd09701c	-0.03355418
1	0xbe763dc8	-0.24047005
2	0x3e29f935	0.16598971
3	0x3dc00606	0.09376149
4	0xbdd1c87f	-0.1024332
5	0xbfc0472e	-1.5021722
6	0x3e42df7e	0.19030568
7	0x3d665a41	0.056238417
8	0x3d87ff40	0.06640482
9	0xbe527106	-0.20550928
10	0xbe27ac09	-0.1637422
11	0x3c657f90	0.014007464
12	0xbd8a27ab	-0.06745847
13	0xbdc45e1c	-0.095882624
14	0xbea39dad	-0.31956235
15	0xbd25884c	-0.040413186

0.features.1.1.block.0.1.running_mean f4 [16]
0	0xc0274e0a	-2.6141381
1	0xbf6d1ca4	-0.9262183
2	0x3f628b95	0.88494235
3	0x3ea265ff	0.31718442
4	0xc082f656	-4.0925703
5	0xbf6223a5	-0.8833564
6	0x3f4bed33	0.7965881
7	0xbf44ff5b	-0.7695214
8	0x3b22a191	0.002481554
9	0xc0245fa7	-2.5683382
10	0xbfde03a2	-1.7344859
11	0xbdf94432	-0.1217121
12	0x3ef3891a	0.47565538
13	0xc048a0e4	-3.13482
14	0xc0632979	-3.5494063
15	0xc00a02af	-2.1564138

0.features.1.1.block.0.1.running_var f4 [16]
0	0x412659ba	10.396906
1	0x3fa1bf44	1.2636495
2	0x40f3f550	7.6236954
3	0x41287448	10.528389
4	0x4165c9cd	14.361768
5	0x3e720caf	0.23637651
6	0x40a6ab2d	5.2083955
7	0x3f1d71f9	0.61502033
8	0x40e1bb66	7.054126
9	0x40cdc3e7	6.430164
10	0x4125b028	10.355507
11	0x40fe49d2	7.9465113
12	0x408a0245	4.312777
13	0x41217b02	10.092531
14	0x40f1345e	7.5376425
15	0x40b67e5b	5.7029243

0.features.2.0.block.0.0.weight f4 [64, 16, 3, 3]
0	0x3ca74b6d	0.020421708
1	0xbdb0b786	-0.08628754
2	0xbdc32ae9	-0.09529669
3	0xbb5a8244	-0.0033341805
4	0xbb726c33	-0.0036990761
5	0xbdb28e13	-0.08718505
6	0x3b8cd205	0.004297497
7	0x39d1f1a7	0.0004004363
8	0xbb8c6f27	-0.0042857113
9	0xbcc27906	-0.02373935
10	0x3d7f0283	0.062258255
11	0xbd5f8128	-0.054566532
12	0xbd7654bb	-0.0601394
13	0xbd284333	-0.04107971
14	0x3d0bcced	0.03413098
15	0xbccf40a0	-0.02529937
16	0xbd601570	-0.054707944
17	0xbccfb545	-0.02535499
18	0x3d576d28	0.052594334
19	0x3df6cab2	0.1205038
20	0xbd0c238c	-0.034213588
21	0x3b8aa8a5	0.00423153
22	0xbc9cf238	-0.019158468
23	0xbc143b89	-0.009047397
24	0xbd308045	-0.043091077
25	0xbd78b461	-0.060718898
26	0xbd5c7bd9	-0.053829048
27	0xbc1e7f69	-0.009673932
28	0xbd332b86	-0.04374268
29	0x3ac8905d	0.0015301813
30	0xbd42e450	-0.047581017
31	0x3c7620de	0.015022485
32	0xbcf313a4	-0.029672451
33	0x3c9d1bbe	0.019178268
34	0x3bc1f0f5	0.005918617
35	0x3c833461	0.016016187
36	0x3db629d7	0.08894699
37	0xbd79b9d4	-0.060968235
38	0xbc904f0d	-0.01761582
39	0x3d9b536d	0.075842716
40	0x3d2f27b1	0.042762462
41	0xbd8e01a6	-0.06933908
42	0xbd94f03e	-0.07272385
43	0xbe144ee5	-0.14483221
44	0xbd8e76d6	-0.0695626
45	0xbce54158	-0.02798526
46	0xb97285a9	-0.00023128711
47	0xbc683f68	-0.0141752735
48	0x3da42139	0.08014149
49	0xbc824fef	-0.015907256
50	0x3d775427	0.06038299
51	0x3e16e786	0.14736757
52	0x3e3c5ce6	0.18394813
53	0x3e55c71e	0.20876738
54	0xbcaba72d	-0.020953739
55	0xbd88f504	-0.06687358
56	0xbbce497b	-0.0062953806
57	0xbd8b9043	-0.06814625
58	0x3cd6d295	0.02622346
59	0x3d96bdad	0.073603965
60	0x3c8b22a1	0.016984286
61	0x3d8835b5	0.06650869
62	0xbd179146	-0.037003778
63	0x3ce41c81	0.027845623
64	0xbc47df27	-0.0121992
65	0x3d8043b7	0.062629156
66	0x3d5a7d22	0.053341992
67	0xbaed6975	-0.0018113094
68	0x3da58be7	0.08083325
69	0x3d5a6b7c	0.05332516
70	0x3dda272b	0.10652002
71	0x3d89b972	0.06724824
72	0xbd6aee74	-0.057356313
73	0x3c2173f7	0.009854308
74	0x3ddbe7cb	0.107375704
75	0xbde52d7b	-0.11190315
76	0xbdd38eb5	-0.103299536
77	0xbd7a0964	-0.06104411
78	0x3cb54b6f	0.022130696
79	0x3cd46c73	0.025930619
80	0xbd7b49aa	-0.06134955
81	0xbcde9850	-0.027172238
82	0xbd963c44	-0.073357135
83	0xbd738a5f	-0.059458133
84	0x3ccff642	0.02538598
85	0xbd96db64	-0.07366064
86	0xbdc8d9ca	-0.09807165
87	0xbc181076	-0.009281268
88	0xbc092dea	-0.008372763
89	0x3dd103fa	0.102058366
90	0xbd6289a0	-0.05530703
91	0xbc757121	-0.014980585
92	0x3c832bca	0.016012091
93	0x3dd37cbf	0.10326528
94	0xbd3298b9	-0.04360268
95	0xbc4a086d	-0.01233111
96	0xbc5de7eb	-0.013544063
97	0xbe02b236	-0.12763295
98	0xbd9ba256	-0.075993225
99	0x3d912db3	0.070887946
100	0x3d803688	0.06260401
101	0xbbbc2844	-0.0057421047
102	0xbdd2df1a	-0.102964595
103	0x3d9cd3c1	0.07657576
104	0x3d20cf64	0.039260283
105	0xbd6b92a4	-0.057512894
106	0x3da35f66	0.0797718
107	0x3ab8125f	0.0014043561
108	0xbd37f9e2	-0.04491604
109	0xbc3a21f7	-0.011360637
110	0xbcc0c9f7	-0.023533804
111	0xbd07fb28	-0.033198506
112	0xb9e8807c	-0.00044346217
113	0x3ce1b1e3	0.027550643
114	0xbca39fc6	-0.019973647
115	0x3d9b6c41	0.07589007
116	0xbd262704	-0.040564552
117	0x3b53423b	0.0032235521
118	0x3db27b71	0.08714951
119	0x3dd719e3	0.105029844
120	0xbd0a0cff	-0.0337038
121	0xbdc93eb1	-0.098264106
122	0x3d892723	0.06696918
123	0xbbbefc78	-0.0058284365
124	0x3d86f9bf	0.06590604
125	0x3d02983f	0.031883474
126	0x3d83a4f8	0.0642795
127	0x3d8921f6	0.06695931
128	0xbc52b9fb	-0.012861724
129	0xbd008f51	-0.031386677
130	0x3d355b9b	0.044276815
131	0x3d759d27	0.059964325
132	0xbd3eebe6	-0.04661169
133	0x3af7aad7	0.0018895519
134	0x3cd5fdb2	0.026121948
135	0x3bb1fa93	0.005431482
136	0x3badb788	0.0053014196
137	0x3ddd4b88	0.10805422
138	0xbd1a2c4c	-0.0376399
139	0x3cc87991	0.02447203
140	0x3dbf5e54	0.093441635
141	0x3dae21a5	0.08502511
142	0x3d98fd01	0.07470132
143	0x3b46e737	0.0030350217
144	0x3d05ce14	0.032667235
145	0x3e996709	0.29961422
146	0x3c3d973c	0.011571702
147	0x3c7a4d9f	0.015277295
148	0x3e61c7da	0.22048894
149	0x3dd9ab65	0.10628394
150	0xba770f70	-0.00094246026
151	0xbbacb6cd	-0.005270815
152	0x3c19dc67	0.009390927
153	0xbd9cf738	-0.07664341
154	0x3cd05c26	0.025434565
155	0xbbc6703f	-0.0060558612
156	0x3db73fd9	0.08947725
157	0x3d8ba91a	0.06819363
158	0x3d81f66a	0.06345828
159	0xbb5633ac	-0.0032684607
160	0xbcef725f	-0.029229341
161	0x3b66d0fe	0.0035219784
162	0xbcd70a1b	-0.026249936
163	0x3c87e03c	0.016586415
164	0x3c69ce02	0.0142703075
165	0x3cc71c67	0.024305535
166	0xbda1a04d	-0.07891903
167	0xbd2c8983	-0.04212333
168	0xbb41bf17	-0.0029563361
169	0xbd3a4af0	-0.045481622
170	0xbcf3f52c	-0.029779993
171	0xbb1b2084	-0.0023670504
172	0x3c008f88	0.0078467205
173	0x3bf4ec17	0.007474433
174	0x3c1ffa62	0.009764286
175	0xbd78bf79	-0.060729478
176	0x3cd005da	0.025393415
177	0x3c3ef2a8	0.011654533
178	0x3d623765	0.05522861
179	0xbbf4de44	-0.007472785
180	0xbd802e69	-0.06258852
181	0x3d15862a	0.036504902
182	0xbccc1926	-0.024914335
183	0x3d54444e	0.051822953
184	0x3da751d9	0.08169908
185	0xbc4b8e5e	-0.01242408
186	0xbd77bf14	-0.06048496
187	0xbd7b1c91	-0.06130654
188	0x3d7b3001	0.061325077
189	0xbd2a8de5	-0.041639227
190	0xbcfa0ebb	-0.030524602
191	0x3d35101a	0.04420481
192	0xbe0085cd	-0.12551041
193	0x3d422f30	0.047408283
194	0xbd0c67c4	-0.034278646
195	0xbc01f341	-0.007931531
196	0x3d26ec91	0.04075295
197	0x3cb71c20	0.022352278
198	0x3d6010bb	0.054703455
199	0xbd311427	-0.04323211
200	0xbc7b952f	-0.015355392
201	0xbc5c31dc	-0.013439622
202	0x3e127dba	0.14305773
203	0x3d7fb792	0.062430926
204	0xbdb9f698	-0.09080237
205	0x3d1dfe7c	0.038572773
206	0x3d4213bf	0.047382113
207	0x3d5778f7	0.052605595
208	0x3d8199cc	0.063281626
209	0x3d60914a	0.05482606
210	0x3d370698	0.044684023
211	0x3c4e99e5	0.0126099335
212	0x3d6c7648	0.05772999
213	0xbd1419d0	-0.03615743
214	0x3d100331	0.035159294
215	0xbadc606c	-0.0016813404
216	0xba4e2809	-0.0007864242
217	0x3c842cb6	0.016134601
218	0x3b2a9630	0.002602946
219	0x3dbc3ab5	0.09190885
220	0x3cdc82dc	0.026917867
221	0x3c4730b2	0.012157606
222	0x3da474aa	0.080300644
223	0xbd6c6609	-0.057714496
224	0x3d0e977b	0.03481243
225	0x3cf427ac	0.029804073
226	0xbd89f5fb	-0.0673637
227	0xbd0bc5ac	-0.03412406
228	0x3c426431	0.011864708
229	0xbd9463b2	-0.07245578
230	0x3cc58800	0.024112701
231	0x3c7bc807	0.015367514
232	0x3cae4696	0.021273892
233	0xbd9aaf43	-0.0755296
234	0xbc15c09d	-0.009140161
235	0xbd6e2d04	-0.0581484
236	0xbd10fac9	-0.035395417
237	0xbd0637cb	-0.032768052
238	0xbb8c3088	-0.0042782463
239	0x3d0631d1	0.032762352
240	0xbc27c341	-0.010239423
241	0xbcbd80b9	-0.023132669
242	0x3d6102db	0.054934364
243	0x3b60d867	0.0034308673
244	0xbcf82eb2	-0.030295704
245	0x3c772753	0.015085059
246	0xbde3013c	-0.1108422
247	0xbd5a3334	-0.053271487
248	0xbd10f792	-0.03539235
249	0xbce31881	-0.027721645
250	0x3e0acaf7	0.13553987
251	0xbc155492	-0.009114401
252	0x3ce45031	0.02787027
253	0xbce78c4a	-0.028265137
254	0x3d12316b	0.03569166
255	0x3d2c0b61	0.04200304

0.features.2.0.block.0.1.weight f4 [64]
0	0x3f08ed72	0.5348731
1	0x3f5297c2	0.82262814
2	0x3f4037ea	0.7508532
3	0x3f3f43b7	0.747127
4	0x3f3c0a75	0.73453456
5	0x3f28597f	0.6576156
6	0x3f1d08b1	0.6134139
7	0x3f45ca99	0.77262264
8	0x3f4e05f5	0.8047784
9	0x3f3bf5c3	0.7342188
10	0x3f2b083e	0.6680945
11	0x3f509311	0.81474406
12	0x3f469ca2	0.7758275
13	0x3f425b8e	0.7592095
14	0x3f2d68d9	0.6773811
15	0x3f338b98	0.7013488
16	0x3f3c865d	0.7364252
17	0x3f290605	0.6602481
18	0x3f2e03ce	0.67974555
19	0x3f36f87a	0.71472895
20	0x3f2229ac	0.63344836
21	0x3f343b41	0.70402914
22	0x3f4009fd	0.7501524
23	0x3f447d31	0.76753527
24	0x3f47d56e	0.7806004
25	0x3f2b9dff	0.6703796
26	0x3f4157b5	0.75524455
27	0x3f40cf34	0.75316167
28	0x3f1dc5cd	0.61629945
29	0x3f327a3b	0.6971776
30	0x3f5d2a27	0.86392444
31	0x3f2928f7	0.6607813
32	0x3f1e8df0	0.6193533
33	0x3f4c68de	0.79847515
34	0x3f519474	0.81867146
35	0x3f3f3633	0.74692076
36	0x3f530e73	0.8244392
37	0x3f5705ff	0.83993524
38	0x3f4c3795	0.7977231
39	0x3f490062	0.7851621
40	0x3f2decd3	0.6793949
41	0x3f41d1d3	0.7571079
42	0x3f4207f0	0.7579336
43	0x3f309799	0.6898132
44	0x3f2b5b14	0.6693585
45	0x3f477af9	0.77922016
46	0x3f3797a4	0.7171576
47	0x3fad9909	1.3562328
48	0x3f3ca6a7	0.7369179
49	0x3f377eef	0.7167806
50	0x3f9a6e83	1.2064976
51	0x3f47b65d	0.7801264
52	0x3f3b05de	0.7305583
53	0x3f4367e5	0.76330405
54	0x3f1d3aed	0.6141804
55	0x3f246290	0.64212894
56	0x3f309ae5	0.6898635
57	0x3f543b4e	0.8290299
58	0x3efc3663	0.49260244
59	0x3f43922e	0.7639493
60	0x3f49a93b	0.7877385
61	0x3f37eafc	0.7184293
62	0x3f3a73e2	0.72833073
63	0x3f22c528	0.63582087

0.features.2.0.block.0.1.bias f4 [64]
0	0x3d932db2	0.0718645
1	0x3e0965d8	0.13417757
2	0x3d6689c0	0.056283712
3	0x3c9676ee	0.018367257
4	0x3dfd0dc9	0.12356145
5	0x3cbbce1b	0.022925427
6	0x3ef9279f	0.4866304
7	0x3e30640b	0.17225663
8	0x3e19df7e	0.15026662
9	0x3e759d3a	0.23985758
10	0x3e899eb3	0.2687889
11	0x3e8ac6a1	0.27104667
12	0x3d8619f8	0.06547922
13	0x3ed1f88b	0.41009936
14	0x3e047102	0.12933734
15	0x3d4d8593	0.050176214
16	0x3e58a80f	0.2115786
17	0x3e6a65f8	0.2289046
18	0x3d5b2b45	0.053508062
19	0x3de0b27a	0.10971542
20	0x3e2dc84b	0.16970937
21	0x3d1aea99	0.037821386
22	0x3ef24e8b	0.4732555
23	0x3e8b2bbb	0.271818
24	0x3ea65df6	0.32493562
25	0x3e2778f2	0.1635473
26	0x3e78fe3e	0.24315736
27	0x3e152a90	0.14567018
28	0x3db735c7	0.08945804
29	0x3d9a41e1	0.07532097
30	0x3e8e9d9a	0.27854615
31	0x3e72b88a	0.23703209
32	0x3deacdbd	0.11465023
33	0x3e663104	0.22479635
34	0x3e6ca419	0.23109473
35	0xbdde93a8	-0.10868007
36	0x3e1f81bc	0.15576833
37	0x3ebd200d	0.36938515
38	0x3cccad69	0.024985032
39	0x3d94869e	0.07252239
40	0x3e07955f	0.13240574
41	0x3d0b995e	0.03408181
42	0x3e94b18e	0.29041713
43	0x3d368c89	0.04456762
44	0x3e2218bb	0.15829746
45	0x3ebcbd5c	0.3686322
46	0x3e95ac87	0.2923319
47	0xbf13f1f0	-0.5779104
48	0x3eb627cd	0.3557724
49	0x3df6650c	0.12030992
50	0xbebf85bb	-0.37406716
51	0x3e02dbee	0.12779209
52	0x3e05fa14	0.13083678
53	0x3dd36638	0.10322231
54	0x3ea0446b	0.313022
55	0x3ec17b7d	0.37789527
56	0x3e540334	0.20704347
57	0x3d87e0a8	0.06634647
58	0xbd386147	-0.045014646
59	0x3ea96d4b	0.33091196
60	0x3e871e56	0.26390332
61	0xbda7f5aa	-0.082011536
62	0x3ef63495	0.48086992
63	0x3e00dff9	0.12585439

0.features.2.0.block.0.1.running_mean f4 [64]
0	0xbeeb3593	-0.4593931
1	0x3d72a777	0.05924174
2	0xbf0f2b0f	-0.5592508
3	0xbf4ca25e	-0.7993525
4	0x3eee3798	0.4652679
5	0xbfd09a81	-1.6297151
6	0x3fa8ccef	1.3187541
7	0x3f872f0d	1.0561234
8	0x3ed3986e	0.41327232
9	0x3eed96be	0.4640407
10	0xbdb04361	-0.086066015
11	0x3f2f3052	0.68433106
12	0xbfbea8c8	-1.4895258
13	0x3fc27a44	1.5193563
14	0xbe9ba826	-0.30401725
15	0x3e5c098c	0.21488017
16	0x3e93b784	0.2885095
17	0xbe890f7d	-0.2676963
18	0xbe928789	-0.2861903
19	0xbf025b03	-0.5092012
20	0xbf08e2e2	-0.53471196
21	0x3deb3fb2	0.11486758
22	0x3f430a66	0.7618774
23	0x40019bd2	2.0251355
24	0x3fe30096	1.7734554
25	0xbfbd0b1f	-1.4769019
26	0x3e837070	0.2567172
27	0x3e8a6128	0.2702725
28	0x3f47bb58	0.7802024
29	0x3e23f9ed	0.16013308
30	0x3f9034b3	1.1266083
31	0xbd99895c	-0.07496902
32	0xbeaac3a6	-0.33352393
33	0x3de2b860	0.11070323
34	0x3fd8ef53	1.6948036
35	0xbee69737	-0.45037243
36	0xbd8babaa	-0.06819852
37	0x3da5c904	0.08094981
38	0xbcd22890	-0.025654107
39	0x3e26fa1b	0.16306345
40	0x3e3f3101	0.18671037
41	0xc01a97b0	-2.4155083
42	0xbe3ba0d8	-0.18323076
43	0xbecf308a	-0.4046672
44	0xbecb0def	-0.39659068
45	0x3f0fde2a	0.5619837
46	0x3ca69436	0.020334344
47	0x3a254f5e	0.0006306077
48	0x3f3198c3	0.6937372
49	0xbec5ca67	-0.38630983
50	0xbe476e37	-0.19475637
51	0x3c3ba8f6	0.011453858
52	0xbf4f7bc5	-0.8104823
53	0x3eb52889	0.35382488
54	0xbe0aeef7	-0.1356772
55	0x3f3ee138	0.74562407
56	0x3e607c35	0.21922381
57	0xbda30f2b	-0.079618774
58	0xbe043496	-0.12910685
59	0x3f28d2db	0.6594674
60	0x3f5bdad0	0.85880756
61	0xbf50e3b0	-0.81597424
62	0x3f12e890	0.5738611
63	0xbdee6348	-0.1164003

0.features.2.0.block.0.1.running_var f4 [64]
0	0x3f5b9011	0.857667
1	0x40264863	2.5981681
2	0x40767496	3.8508658
3	0x406ee5d3	3.7327774
4	0x3fe914f1	1.8209516
5	0x4007501e	2.114265
6	0x3f529272	0.8225471
7	0x4079dc85	3.9040844
8	0x403baaa5	2.9322903
9	0x4004528b	2.067538
10	0x3f89bcd7	1.0760754
11	0x4092c0fe	4.5860586
12	0x402f3c7a	2.7380662
13	0x4014d663	2.3255851
14	0x3fa21780	1.2663422
15	0x40001207	2.0011003
16	0x3fc51759	1.539775
17	0x401132d9	2.2687285
18	0x3fb16b84	1.3860936
19	0x403a8c29	2.9148047
20	0x3fef4cf9	1.8695365
21	0x3ff07d6b	1.8788275
22	0x40031450	2.0481148
23	0x409d5d3d	4.9176316
24	0x40e033b6	7.0063124
25	0x3f83e040	1.0302811
26	0x3fdf7bf5	1.7459704
27	0x400f6b4c	2.240924
28	0x40009701	2.0092165
29	0x4059f89f	3.4057996
30	0x40d10905	6.532351
31	0x40082aab	2.1276042
32	0x409160e2	4.5430765
33	0x40163583	2.347016
34	0x40bcf015	5.904307
35	0x40777d8d	3.867038
36	0x401910eb	2.3916576
37	0x3fbf500b	1.4946302
38	0x402ebd7d	2.7303154
39	0x4036f34c	2.8585997
40	0x4026ace5	2.6043026
41	0x41036796	8.21279
42	0x40249e17	2.572149
43	0x3f8239bc	1.0173869
44	0x3ff5ed8f	1.9213122
45	0x406fd9ab	3.7476604
46	0x3ffd265f	1.9777335
47	0x3f2d5f16	0.67723215
48	0x3fff9c39	1.996955
49	0x3fcc9774	1.598372
50	0x3f90d61d	1.1315342
51	0x3ff484c9	1.9103023
52	0x40055041	2.0830233
53	0x4095c1cf	4.6799083
54	0x3fe52461	1.7901727
55	0x4041ef2f	3.0302236
56	0x3fd74fd3	1.6821235
57	0x3f949657	1.160838
58	0x3eaa1844	0.33221638
59	0x3fd5c9e0	1.6702232
60	0x404bd26e	3.1847186
61	0x3ff8f429	1.9449512
62	0x3fc098a5	1.5046583
63	0x3f985562	1.1901057

0.features.2.0.block.1.0.weight f4 [32, 64, 1, 1]
0	0xbe7efaac	-0.24900311
1	0xbe0e3022	-0.13885549
2	0x3e59ff25	0.21288736
3	0x3f0f2d1b	0.559282
4	0x3e1b3264	0.15155941
5	0x3de74581	0.11292554
6	0x3ecdbdb4	0.40183794
7	0x3d9e20e2	0.07721116
8	0xbe595b69	-0.21226276
9	0xbefe9fd0	-0.49731302
10	0xbdbea27d	-0.09308336
11	0xbe21d1e8	-0.15802729
12	0xbd9c48d7	-0.076310806
13	0xbdf52d9d	-0.11971591
14	0x3e2b53a5	0.16731127
15	0xbeb91c60	-0.3615446
16	0x3eeda6f6	0.46416444
17	0xbe57d910	-0.21078897
18	0xbe282b9e	-0.16422889
19	0xbe26da49	-0.16294207
20	0x3cf4e82f	0.02989587
21	0x3e8eb0a0	0.2786913
22	0x3e3b629d	0.18299337
23	0xbe6c3932	-0.23068693
24	0x3e04ea93	0.12980108
25	0x3d8ae901	0.06782723
26	0x3dd4d5ed	0.103923656
27	0x3d883165	0.06650046
28	0xbe59feab	-0.21288554
29	0x3d45720b	0.048204463
30	0xbe126822	-0.14297536
31	0xbe3ff2c3	-0.1874495
32	0xbdcb0160	-0.09912372
33	0x3dca6acf	0.09883653
34	0xbd98bfc7	-0.074584536
35	0xbd26bd2b	-0.04070775
36	0x3d648eaa	0.055800118
37	0xbdbc7d2e	-0.09203564
38	0x3ec64c07	0.3872988
39	0x3e783bb5	0.24241526
40	0x3e534bb4	0.20634347
41	0x3eb22a9c	0.34798133
42	0x3dfda42b	0.12384828
43	0x3aefa34a	0.0018282917
44	0x3de5ed6d	0.11226926
45	0xbe024726	-0.12722453
46	0xbdbce4f9	-0.092233606
47	0x3f0fafdd	0.5612772
48	0xbd81968c	-0.06327543
49	0x3d32281d	0.043495286
50	0x3eb05975	0.3444325
51	0x3e0a2fd7	0.13494812
52	0x3d9f99d7	0.077930145
53	0x3e5e187e	0.2168903
54	0xbde2373b	-0.110456906
55	0xbdffe4f8	-0.12494844
56	0x3e0e4871	0.13894822
57	0x3e05dfd9	0.13073672
58	0x3de6cfb1	0.11270083
59	0x3d6f5355	0.05842908
60	0x3e03bf07	0.1286584
61	0x3f161771	0.5862952
62	0xbe129682	-0.14315227
63	0x3e3a428b	0.18189447
64	0xbe067b43	-0.13132958
65	0x3e77f344	0.24213892
66	0x3d3dac5d	0.046306957
67	0xbe9f8dab	-0.31162772
68	0xbda01ddb	-0.078181945
69	0xbdb45d09	-0.088068075
70	0x3e163c39	0.1467141
71	0xbc8305f0	-0.015994042
72	0x3e5afb06	0.2138482
73	0xbcd787c7	-0.02630986
74	0x3ea8a5b1	0.32938913
75	0xbeb46a76	-0.35237473
76	0x3dc85399	0.0978157
77	0xbe17b741	-0.14816
78	0xbc86c538	-0.016451463
79	0xbda71446	-0.08158164
80	0xbd74016d	-0.059571672
81	0x3ceb729b	0.028741172
82	0x3e34f616	0.17672
83	0xbee5bf81	-0.44872668
84	0x3e1fcfeb	0.15606658
85	0xbeb2a381	-0.3489037
86	0xbebf5025	-0.37365833
87	0xbe9b68c8	-0.3035338
88	0x3e5012f3	0.20319729
89	0xbd211c4b	-0.039333623
90	0x3e16b7d8	0.14718568
91	0xbe68adc3	-0.22722535
92	0xbd847c45	-0.06469015
93	0x3dc8b011	0.09799207
94	0x3ec35a3b	0.38154778
95	0xbeca1927	-0.39472315
96	0x3df7aed0	0.1209389
97	0xbc1620ef	-0.009163125
98	0x3db291f0	0.087192416
99	0x3e4292da	0.19001332
100	0x3e38a531	0.18031766
101	0x3d90c75b	0.07069274
102	0xbea03684	-0.31291592
103	0x3de9d111	0.114168294
104	0xbe36366b	-0.17794196
105	0x3dbe4e3f	0.09292268
106	0x3ec5db29	0.38643768
107	0x3de340e0	0.11096358
108	0x3e1832d6	0.14863142
109	0xbe054d24	-0.13017708
110	0x3d94c5ae	0.07264267
111	0x3e9299dc	0.2863301
112	0x3c85c053	0.016327059
113	0xbcd872e3	-0.02642197
114	0x3d0bd177	0.034135308
115	0x3e01d3cc	0.1267845
116	0x3e2b634d	0.16737099
117	0xbc4ba8c5	-0.0124303745
118	0x3ed5251b	0.41629872
119	0xbdafd51e	-0.08585571
120	0xbcd2f560	-0.02575177
121	0xbdd7a70b	-0.10529908
122	0xbe093b78	-0.13401592
123	0x3ebb1d19	0.36545637
124	0xbeefa7b5	-0.46807638
125	0x3e27a08b	0.16369836
126	0xbe3d573d	-0.1849031
127	0xbe32a682	-0.1744633
128	0xbebfe57c	-0.3747977
129	0xbd95549c	-0.072915286
130	0xbd8dcf62	-0.06924321
131	0x3e64e9cf	0.22354816
132	0xbe1b7caa	-0.15184274
133	0x3e631b53	0.22178392
134	0xba8f63e1	-0.00109398
135	0xbe8777ca	-0.2645858
136	0x3e37d48e	0.17952177
137	0xbe731a05	-0.23740394
138	0x3bedd290	0.007257767
139	0xbe1a7b94	-0.15086204
140	0x3e50168b	0.203211
141	0xbcbb5d78	-0.022871718
142	0x3aac7f33	0.0013160467
143	0x3df133cd	0.11777458
144	0xbbdd2f57	-0.006750028
145	0xbe8d518d	-0.2760128
146	0x3dc5f1bb	0.09665247
147	0x3e98d4ba	0.29849797
148	0xbe032b0e	-0.12809393
149	0xbe19a1fa	-0.15003195
150	0xbcb1ea9c	-0.021718316
151	0xbe1bfcb0	-0.15233111
152	0xbe044684	-0.12917525
153	0x3d66bd7a	0.056333043
154	0x3e45af27	0.19305097
155	0xbe668ecc	-0.2251541
156	0xbeea2610	-0.45732164
157	0xbda61059	-0.08108587
158	0x3e98a6ad	0.29814664
159	0xbe3ef5d6	-0.18648466
160	0x3e73aa78	0.23795497
161	0x3eb51f6d	0.35375538
162	0xbe99d220	-0.30043125
163	0xbd2399e5	-0.039941687
164	0x3d2f9df7	0.042875256
165	0x3e3c2d73	0.18376713
166	0xbe6cb63e	-0.23116395
167	0x3ead745a	0.33877832
168	0xbecb77c0	-0.397398
169	0xba6487ef	-0.00087177654
170	0x3e552b35	0.20817263
171	0xbe78695b	-0.2425894
172	0xbdcce076	-0.1000375
173	0x3d764962	0.060128577
174	0x3ea7e3f5	0.32791105
175	0x3d637670	0.055532873
176	0xbdf67676	-0.120343134
177	0xbe9de5f2	-0.30839497
178	0xbd82108d	-0.06350813
179	0xbe81a316	-0.25319737
180	0x3ea1fba0	0.31637287
181	0xbde31527	-0.11088019
182	0xbdba049b	-0.0908291
183	0x3d88627e	0.06659411
184	0x3d4d69e4	0.050149813
185	0xbdd206d0	-0.10255206
186	0x3e8b297d	0.2718009
187	0x3b453b36	0.0030095107
188	0xbe3fc6c2	-0.18728164
189	0x3e55ccfa	0.20878974
190	0xbe6228f3	-0.22085933
191	0x3e659f62	0.22424081
192	0x3e6ee364	0.2332893
193	0xbddced45	-0.10787443
194	0xbeb072b6	-0.34462517
195	0x3ec2cdbe	0.38047594
196	0x3e5c3f46	0.21508512
197	0x3e9f5ebd	0.31126967
198	0xbea1b667	-0.31584474
199	0xbe2a166b	-0.16610114
200	0xbef5e141	-0.48023418
201	0x3ea96ef4	0.33092463
202	0x3e7d0e5d	0.2471251
203	0xbdac6210	-0.084171414
204	0xbe43a33a	-0.19105235
205	0x3d6805c5	0.056646127
206	0xbe9a4a5f	-0.30134866
207	0xbdd957c9	-0.10612447
208	0x3e88e3dc	0.26736343
209	0x3edba7b8	0.42901397
210	0xbee3ca1c	-0.44490135
211	0x3d27734b	0.040881436
212	0x3d5f72b3	0.054552745
213	0x3ceb7b41	0.028745295
214	0x3dc66991	0.09688104
215	0xbd224943	-0.03962065
216	0x3d65d238	0.056108683
217	0x3c343ddc	0.011001077
218	0x3e1352bd	0.14387031
219	0xbe3700aa	-0.17871347
220	0x3e12b8ab	0.14328258
221	0x3e862f56	0.2620799
222	0x3e5a6c55	0.21330388
223	0xbe1e19e1	-0.1543956
224	0x3d0292ad	0.031878162
225	0xbe751999	-0.23935546
226	0x3e736c17	0.23771702
227	0xbf0a3d2d	-0.53999597
228	0x3e08c87c	0.13357729
229	0x3c23a0b7	0.009987048
230	0xbddb65db	-0.10712787
231	0x3d9a2cab	0.07528051
232	0x3e8779e6	0.2646019
233	0xbcc30953	-0.023808157
234	0x3e25ce18	0.161919
235	0xbed3e0b8	-0.41382384
236	0x3ea0b76b	0.31389937
237	0x3e57c140	0.21069813
238	0x3e5b1e7c	0.21398348
239	0x3e641363	0.2227302
240	0x3e03d255	0.12873204
241	0xbefd73e6	-0.49502486
242	0x3e872dc8	0.26402116
243	0xbdb4bfd0	-0.08825648
244	0x3e3146ea	0.17312208
245	0xbe3cf53a	-0.18452922
246	0xbe607e57	-0.21923195
247	0xbd54a6a2	-0.051916726
248	0xbf203dfa	-0.6259457
249	0xbd868a56	-0.06569354
250	0x3df1d51f	0.11808228
251	0xbd9abdf7	-0.07555764
252	0xbe9df2c2	-0.30849272
253	0xbe83cbfa	-0.2574156
254	0x3c6765b6	0.014123371
255	0x3db6fb3a	0.089346364

0.features.2.0.block.1.1.weight f4 [32]
0	0x3f51aed6	0.81907403
1	0x3f56ec4f	0.8395433
2	0x3f3f91f6	0.74832094
3	0x3f3dd23e	0.7414893
4	0x3f445aea	0.76701224
5	0x3f535a33	0.8255951
6	0x3f502905	0.8131259
7	0x3f8f7e19	1.1210357
8	0x3f5517ea	0.83239615
9	0x3f376a17	0.71646255
10	0x3f78ca32	0.97183526
11	0x3f5de261	0.8667355
12	0x3f2f4f79	0.6848064
13	0x3f483745	0.78209335
14	0x3f825922	1.0183451
15	0x3f52e8cc	0.8238647
16	0x3f4a5688	0.79038286
17	0x3f7b93ef	0.98272604
18	0x3f3e2d00	0.74287415
19	0x3f3d602e	0.73974884
20	0x3f807ef1	1.003874
21	0x3f2ef72f	0.6834592
22	0x3f5b5403	0.85675067
23	0x3f49facb	0.78898305
24	0x3f3ccb4f	0.73747724
25	0x3f591a27	0.8480553
26	0x3f3ed499	0.7454315
27	0x3f4d1e36	0.80124223
28	0x3f4df6a2	0.80454457
29	0x3f3b6fbc	0.7321737
30	0x3f492442	0.7857095
31	0x3f52a996	0.8229002

0.features.2.0.block.1.1.bias f4 [32]
0	0xbf60ba6e	-0.8778447
1	0x3f80a34e	1.0049837
2	0xbdf281bf	-0.11841153
3	0x3fed781c	1.855228
4	0xbfaba0d1	-1.3408452
5	0xbf7aff7b	-0.9804608
6	0x3ee3587d	0.4440345
7	0x3e208347	0.15675078
8	0xbf232eb4	-0.6374314
9	0x3f343988	0.70400286
10	0xbf6b4b13	-0.9191143
11	0x3fc974ae	1.5738733
12	0x3f96fd06	1.1795967
13	0x3fa7dd5d	1.311443
14	0xbf8f7bdc	-1.1209674
15	0xbffb6f7e	-1.96434
16	0xbd9b9f6d	-0.075987674
17	0x3f27ce82	0.6554948
18	0xbf63cda0	-0.88985634
19	0x3f1347e7	0.5753159
20	0xbd059d19	-0.032620523
21	0xbd24dece	-0.040251546
22	0x3fc52561	1.5402032
23	0x3f0c0923	0.5470144
24	0x3edfaf5d	0.4368848
25	0x3eab60ef	0.33472392
26	0x3b84f326	0.004057306
27	0x3f58a150	0.84621143
28	0xbfe1b629	-1.7633716
29	0x3fb734a3	1.4312938
30	0x3f2ac894	0.6671231
31	0xbfc44b0f	-1.5335406

0.features.2.0.block.1.1.running_mean f4 [32]
0	0x3ec81e46	0.39085597
1	0x3c8c3ae5	0.017117927
2	0xbe88ce1c	-0.2671975
3	0x3c43821b	0.011932875
4	0x3c92c1ba	0.017914642
5	0x3e3ecbff	0.18632506
6	0xbe92b567	-0.28654024
7	0x3e5b0f4c	0.21392554
8	0xbdcefea2	-0.10107161
9	0xbe6ab540	-0.22920704
10	0xbc88c27f	-0.016694305
11	0xbeb342b8	-0.3501184
12	0x3d2755b2	0.04085321
13	0xbe2f5730	-0.17123103
14	0x3e5de0f9	0.21667852
15	0x3d9c5673	0.076336764
16	0x3ecc6644	0.39921772
17	0xbd7f4eb1	-0.062330905
18	0xbde88894	-0.11354175
19	0x3edbfd19	0.42966536
20	0xbdec5bfb	-0.115409814
21	0x3e634bf0	0.22196937
22	0x3c74ce3c	0.014941748
23	0xbdbc807b	-0.09204193
24	0x3e11b079	0.14227475
25	0x3e601624	0.21883446
26	0x3d902d6e	0.07039915
27	0xbe80af57	-0.25133774
28	0xbd86f579	-0.06589789
29	0xbe295041	-0.1653452
30	0xbd8cc2ad	-0.06873069
31	0x3d9e86d1	0.07740558

0.features.2.0.block.1.1.running_var f4 [32]
0	0x3f538a50	0.82632923
1	0x3e8bb31d	0.2728509
2	0x3ea44a4b	0.3208793
3	0x3f45f268	0.7732301
4	0x3f87cdf3	1.0609726
5	0x3e9bdbb6	0.30441064
6	0x3efec9af	0.49763247
7	0x3f5e9d0f	0.869584
8	0x3e9f95bf	0.31168935
9	0x3e85780a	0.26068145
10	0x3f11843c	0.568424
11	0x3f8560aa	1.0420125
12	0x3ebb612d	0.36597577
13	0x3e455d02	0.19273761
14	0x3ec4ff00	0.384758
15	0x3e9b0f77	0.30285236
16	0x3f61d51a	0.8821579
17	0x3e49cea8	0.1970774
18	0x3f4e2815	0.8052991
19	0x402dc7e5	2.7153256
20	0x3f7abc2d	0.97943383
21	0x3fd839a8	1.6892595
22	0x3e41ac3e	0.18913361
23	0x3f0aabe3	0.5416853
24	0x3f1978cc	0.59949946
25	0x3f74f70d	0.9568947
26	0x3e43482b	0.19070499
27	0x3fd6de61	1.6786615
28	0x3ec005d6	0.37504452
29	0x3ea5b385	0.32363525
30	0x3eeb4341	0.45949748
31	0x3f89f102	1.0776675
