code/modeling/ckpt/AutoencoderConfig([2, 1, 2], flip=False, rotate=True)/autoencoder_800.pth (torch, 549850 bytes, 92 tensors)

0.features.0.0.weight f4 [16, 8, 3, 3]
00000000: 6aac c2ba e9cc ba3d ad3a 1c3d 6bb7 c6bd
00000010: e8e0 48bd 4c12 76bd e9f4 223d 70e3 3dbd
00000020: a353 93bd 3f4d 42bd 0c85 ac3d 57ad 5bbd
00000030: 9fe9 63bc 50e5 403e d4fa 113e 9960 aa3d
00000040: c741 0a3e 1a6d ba3d 7bad 713b d5d4 8fbd
00000050: b699 073d 763b aebb 3a62 383d 9e72 6a3d
00000060: 7ff9 afbd 3ce9 03ba 53ae 75bd 5556 96bc
00000070: 870a 92bd 205f 8ebc 8031 843b fdad ad3d
00000080: 34b4 97bd 6664 9abd a586 b1bd 55a8 c33c
00000090: 3fbb 263a a723 593d 5f53 b7bd 2910 1e3d
000000a0: c9dc fdbd 279a 9e3d 9f90 e53b 6ca4 51bd
000000b0: 8541 2f3d f6df 9ebc bca5 50bd 33ff 02bc
000000c0: 3eb0 bcbc 0186 8c3d b2fd 633b 1143 83bd
000000d0: 4925 26bd 3ab0 8dbd ee49 bfbc 7566 0abd
000000e0: 9ed6 6e3d 9ee2 7d3d cd21 5cbd acae 74bd
000000f0: 2fc0 1d3d ec0b 453d 00e5 ac3d 4ed2 e0bd
00000100: fc5b 573d e454 bf3b 5fa4 b03d e06e 873d
00000110: 2ab6 6fbd 213f d8bc 8382 afbd f96f 9abc
00000120: dcd1 c5bd d0f3 063d fa04 2d3d cbd8 a43c
00000130: b704 cabd e2e3 e43c b721 db3d 8a48 cfbd
00000140: e213 c43b 2944 1a3b a2fb a1bd edfb afbd
00000150: 00f3 e43b 627b 033d a8f7 bd3d 879b e83c
00000160: c411 8b3d 89c5 463c ef53 993d da87 04bd
00000170: a4b5 9d3d 26d4 e53c 6298 ee3d 736b ee3d
00000180: 7e83 fbbd fda3 0abc 2199 adbd a4a8 073c
00000190: af73 6f3d 6945 be3b 1b40 aabd bd67 df3d
000001a0: da10 a03d 45d4 973c d47a 813d cab7 ea3d
000001b0: c779 2dbd 6717 d03d 8eeb 923d f330 5f3d
000001c0: 9759 7f3d 6528 55bd c32c e5bd 9ebe 013e
000001d0: a0fa 7b3d 7697 a7bd cbdc 0bbd b193 663d
000001e0: 5ffd a4bd 8311 933d 9e77 973d 8b94 b73d
000001f0: 0a99 d03d 2564 cb3d 987e 873d 5717 c7bd
00000200: 9bfe c73d 3adc 3c3d 45d6 5f3d e642 7fbd
00000210: 2e50 cd3d f221 1ebd 1a62 963d 00ad c43b
00000220: 3de8 523d 0e7b 96bd 02ca 51bd 02a5 3cbd
00000230: e91c b03a dec0 6b3d 9198 23bc 10a4 983d
00000240: 0d24 f4bc b473 b4bd 54fa e03d 429c da3d
00000250: f9c4 54bd 3974 82bd b8a1 0b3c 01ba 5a3d
00000260: f580 9f3c bd0d ce3c 9ad9 ccbd 9df7 20be
00000270: 9e7c 2a3d cb72 f3bd b357 b0bd c09c 91bd
00000280: 3768 f9bd ecd8 f3bd 3775 cbbd 684d af3d
00000290: 8810 2ebd b2c2 3abb 888c 363d 26b3 893d
000002a0: 9983 ce3d 028f 503d ac2c bdbb cb43 f0bd
000002b0: b7dd be3d d140 7e3d 5dbd 9e3d 972a d63c
000002c0: 0736 eb3d 4f26 843d f155 d9bd 0ff1 513d
000002d0: 433e 513c c363 06bd 3382 773d d4cd 2dbd
000002e0: 589a 3d3d 3d39 06bd 5535 7abd 44c6 7c3d
000002f0: ef85 aa3d 720b b9bc c0df 60bd cf0a f53d
00000300: ea87 56bd 6d05 acbd d443 78bc 44bf 1d3d
00000310: 0c1e f33d ba1e 60bd d0f0 ce3d 71cb 4abd
00000320: f604 983d a427 8bbd 1752 65bd e367 9f3d
00000330: 46cf 293d 069f b83d 9aa5 c0bc 9aee a23d
00000340: 55c0 b8bd 0bbe 8e3d 7433 e53d 1fa1 a6bd
00000350: 8930 81bd f43a 9ebd 58b5 963c 29a9 4fbd
00000360: 0eaa a43d e8e3 70bd 275b afbd fb71 fe3c
00000370: 5092 2d3c 3e23 123d ec0f 6dbc 5034 42bd
00000380: d6d6 043d 74a5 2b3d 7765 60bc 6a09 85b6
00000390: 69ad a3bd 6f0c 58bc 4d19 c0bd 555b 30bb
000003a0: 1091 91bd fd3c a83d baf6 c5bd 1fc9 f83d
000003b0: 0a79 413d 0795 203c b9af f53d 17a0 e33c
000003c0: c266 1a3d dd6e e13c 18f7 adbd 8a0f b23d
000003d0: bbc6 91bd 3f9c f1bc 55ee ebbd 7e14 06bd
000003e0: 46c2 d0bd 215f fbbc c1cd 95bd 6f7d 5c3b
000003f0: 2675 b83d c711 d4bd 6e68 b1bd d0b8 8c3d
-0.0014852409 0.09121115 0.038141895 -0.09702953 -0.049042612 -0.060076043 0.039784346 -0.04635948
-0.07193687 -0.04743695 0.08423814 -0.053632107 -0.01391068 0.18837476 0.1425584 0.08319206
0.13501655 0.09102841 0.0036877084 -0.07023016 0.033105575 -0.005317147 0.04501555 0.057238214
-0.085925095 -0.0005032008 -0.0599807 -0.018351713 -0.07130914 -0.017379344 0.004034221 0.08480451
-0.07407418 -0.07538681 -0.086682595 0.023883978 0.00063602993 0.053012516 -0.08951449 0.03858963
-0.12395627 0.07744246 0.0070057656 -0.051182196 0.042787094 -0.019393902 -0.050939307 -0.007995415
-0.023033258 0.06861497 0.0034788665 -0.06409276 -0.0405629 -0.06918378 -0.023350682 -0.033789117
0.058310144 0.061983697 -0.053743172 -0.059736893 0.03851336 0.048107073 0.08442116 -0.109776124
0.052577958 0.005838977 0.08625101 0.066129446 -0.058523335 -0.02639729 -0.08569815 -0.01885222
-0.09659168 0.03294736 0.042241074 0.020122906 -0.098641805 0.027940694 0.1069979 -0.101212576
0.0059838155 0.0023539162 -0.07909323 -0.08592973 0.0069869757 0.03210009 0.09275752 0.028394474
0.06790498 0.012132057 0.07486712 -0.03235612 0.07700661 0.028055262 0.116501585 0.11641588
-0.122809395 -0.008461949 -0.08476473 0.008279953 0.058459934 0.005806614 -0.083130084 0.109084584
0.07815714 0.018533835 0.06322256 0.11460836 -0.042352464 0.10160714 0.07173835 0.05449004
0.0623413 -0.052040476 -0.11190178 0.12670371 0.06151831 -0.08183186 -0.03414611 0.056293193
-0.08056139 0.071810745 0.07395862 0.08963879 0.1018544 0.099312104 0.06615943 -0.097212486
0.09765359 0.046108462 0.054647703 -0.06231966 0.10025059 -0.03860659 0.0734293 0.0060020685
0.05149101 -0.073476896 -0.05121804 -0.0460558 0.001343635 0.05755698 -0.009985105 0.074531674
-0.029802347 -0.08811131 0.10985246 0.10674335 -0.05194566 -0.06369824 0.0085224435 0.053400043
0.019470671 0.025153035 -0.10002442 -0.15719457 0.04162275 -0.118871294 -0.08610477 -0.07109976
-0.121780805 -0.11906609 -0.09934466 0.08559686 -0.042496234 -0.0028497395 0.044567615 0.06723623
0.10083694 0.050917633 -0.0057731476 -0.117316805 0.093196325 0.062073532 0.07750962 0.026143355
0.11484914 0.06452619 -0.10612095 0.051255282 0.012771192 -0.032809984 0.060426902 -0.04243262
0.04628977 -0.03276943 -0.061086018 0.06171252 0.08326327 -0.022588465 -0.054900885 0.11964952
-0.05237571 -0.083994724 -0.01515289 0.038512483 0.11870965 -0.054716803 0.10104525 -0.049510423
0.07422821 -0.0679467 -0.05598649 0.07783487 0.041457437 0.09014706 -0.023516465 0.07955666
-0.090210594 0.069698416 0.111914545 -0.081362 -0.063080855 -0.07726088 0.018397018 -0.050698433
0.08040248 -0.0588111 -0.08562308 0.03106021 0.010593966 0.03567814 -0.014469128 -0.04741317
0.032431446 0.041905835 -0.013696066 -3.964805e-06 -0.0799206 -0.013186558 -0.09379826 -0.0026909907
-0.071077466 0.082147576 -0.096662 0.12147736 0.047234572 0.009801156 0.11996407 0.027786298
0.037695654 0.027518684 -0.08494395 0.0869437 -0.07117983 -0.02949345 -0.115200676 -0.032734387
-0.10193305 -0.03068501 -0.07314635 0.00336441 0.09006719 -0.10354953 -0.086624965 0.06871188

0.features.0.1.weight f4 [16]
00000000: 33d8 813f 63ef 813f 0f58 823f 8a1a 823f
00000010: a4e2 813f 8f1d 6c3f 0a6c 663f e0fb 663f
00000020: 6635 6b3f 1eb4 803f 37e5 843f 46ab 813f
00000030: 78d3 903f f76a 813f 43c9 753f 2480 893f
1.0144104 1.015118 1.0183123 1.0164349 1.014729 0.922326 0.90008605 0.9022808
0.91878355 1.0054967 1.0382451 1.0130394 1.1314535 1.0110768 0.96010226 1.074223

0.features.0.1.bias f4 [16]
00000000: 6e7a 623e 07eb 033e 7555 e73d 4421 523d
00000010: 3390 043e 2ebe e23d 8aa2 6f3d ea54 063e
00000020: 3962 d73d 18bd d03d d3a5 0d3e c0b1 f93d
00000030: a427 223e ad98 373d 02fe 3b3e 948a 4e3e
0.22117016 0.12882625 0.112955965 0.051301256 0.12945633 0.1107143 0.05850462 0.1311833
0.10516781 0.10192317 0.13832788 0.12192106 0.15835434 0.044823337 0.18358615 0.20170051

0.features.0.1.running_mean f4 [16]
00000000: 963f 06bd 923a 303d aba0 143d 4983 4bbd
00000010: 994d 27bd 757d cb3c 8dc9 20bc 828a 3e3b
00000020: 58ce df3c 77c5 0c3d 1303 043d 15f6 0abd
00000030: 72ad 103d 1268 2d3d 9b3f 883c 5b21 18bd
-0.032775484 0.043024607 0.036286037 -0.04968575 -0.040845487 0.024840096 -0.009813678 0.0029074256
0.027320072 0.034368005 0.032229494 -0.03392609 0.03532166 0.042335577 0.016631892 -0.037141185

0.features.0.1.running_var f4 [16]
00000000: 3172 ab3e 2c17 373f 966c c63e da74 813f
00000010: ff18 5e3f 989d 7c3e 8092 e63e 0068 353f
00000020: 464a e73e 8348 333f 717d 0f3f fb64 0b3f
00000030: a0f4 073f 08b4 5d3f e721 dd3e 7e89 363f
0.3348556 0.7151973 0.3875472 1.0113785 0.8675689 0.24669492 0.45033646 0.70861816
0.45173854 0.7003252 0.56050783 0.5445096 0.53107643 0.8660283 0.43189928 0.71303546

0.features.1.0.block.0.0.weight f4 [16, 16, 3, 3]
00000000: 9a78 9d3d d504 0c3d b87c 643d a3f3 843c
00000010: 3165 363e e960 003d cccf 883c 2fe1 48bd
00000020: 2a82 de3d f0b5 5a3d 817e 293e d5cf 253d
00000030: 0163 143d c780 bebd 8d77 933d 830c 5bbd
00000040: fd74 bc3d 12c3 0abe 3916 3e3d 5db9 86bb
00000050: d5e5 13be e78e cdbd d584 a1be 3cda a93c
00000060: 6223 a7be 314f 5abe 6add a63c 385b 21be
00000070: 624d fdbd 2a81 00be 5cac 8fbe a5d9 743d
00000080: 560b 113e e664 49bc 606b edbd c8da 373b
00000090: 3229 acbd 0905 283d c40b 19be bff2 04be
000000a0: 61b5 143d f8ba 653c 91a6 0ebd d4a1 dfbc
000000b0: cf3d 2fbc 5f5c 48bc 1586 33be e07e 9fbd
000000c0: 1e7e a43d 9807 4ebe 4dd1 1e3d 7682 febd
000000d0: f75f 403d e433 2e3e 0ad6 e33b c0c2 0fbd
000000e0: ca0f b4bd 2006 88bd 7159 4fbe 9c45 283e
000000f0: db57 6abd d8e4 163e cfec b13d 54b9 bf3d
00000100: 821b 233e 609a 22bd 04ba a2bb 9cc8 b83d
00000110: 8cf3 e13d 93d8 103e 7023 863e f2ec 08be
00000120: 46e6 48be 7190 7e3d 9fe7 7cbd 26d5 4e3d
00000130: d112 a7bd 82f1 48be b934 16be 5915 8fbd
00000140: 5994 dcbc b38a c13d 3fb8 55be 71b3 a33d
00000150: 6e00 3abe cd0d 4b3c 0fdd 223c 0e03 2fbd
00000160: dc27 b9bc 5122 333d 9df2 c3bc fb6e 8e3a
00000170: 30a1 013c b755 b4bd aea1 e7bd 07cf 063e
00000180: 4c53 d9bc 0f7e 2fbe f73a 65bd 1025 4dbd
00000190: 2aa8 8abd bb2d 8d3d 66f0 543e c475 773d
000001a0: 9885 903c d71e 22be 94b5 adbc 7e10 793e
000001b0: 2fcf 3c3d 79d8 4dbe 21c1 c6bd e634 8cbd
000001c0: 9d1a 42be c812 42be 66eb 11be 8919 94be
000001d0: 9b07 773d afd9 5e3d 261b f4bc 1835 b5bd
000001e0: c05f 90bc 036f 4e3d 86fe 35be e911 14bd
000001f0: 4746 243e d8a7 9c3d c6b0 b2bc c87d babd
00000200: 8c08 3abd ca7e f13b 020c e23d e76e 063e
00000210: dc14 6e3d 6f92 91bd facd a93d 550e cdbc
00000220: 37ca 333e 38f5 833d c93d 083e 23f3 8abd
00000230: fcf3 4c3d 3d9d 95bd e757 f53d 93d0 bf3c
00000240: 590e b3bd 2305 c83c 4a29 be3d df3e 1dbe
00000250: e7a3 9c3d 3c3d 71bc 531f 1a3e f1f6 42bd
00000260: 4cea 36be 18be 6ebd 8bb3 683c 8094 573e
00000270: 939e 90bd 863d 003e f186 09bc 3237 cfba
00000280: 6742 8dbc 32b6 9c3d 403f 02bd 636a c33c
00000290: be73 a63e 15de 19bd 89d4 943d bc94 573d
000002a0: 3e5e 353e b25b 953e 190a 4fbd 6482 763d
000002b0: 955f 0b3e ecd4 1cbe 1428 44be 5014 ef3d
000002c0: 19e8 1fbe 4967 41be ac37 073d d747 05bd
000002d0: 055a 813d 7f58 39be 1fb2 cbbd 345d b7bd
000002e0: a9f3 88bc 71df 7fbe 1525 e5bb bdf8 023e
000002f0: 7aa8 483c e436 713d c09c 973d 0342 1a3e
00000300: d2bd 7c3e 47d1 d7bd 4f6d 6f3d ab74 1d3c
00000310: df1a 023e 30bf 0bbe 44a8 92bd ded4 993c
00000320: 77a0 69bc f60e 50bd 2dfa a63c 26b7 b63c
00000330: c5ed c9bd a5f2 c7bc 42f7 0d3e 942a 323e
00000340: a9d4 c3bc 808c 0bbd 9741 323e 9712 6dbd
00000350: fc91 e4bc ccaf d03d 6b34 743e aace 54be
00000360: 4bfc e33d 5093 20be a0a6 d6bd 77f8 2d3d
00000370: d950 1c3d 93ef 4dbe 5b73 893c 4c27 183d
00000380: c308 9a3b 00d6 3dbd c6af cd3d a4c2 5c3e
00000390: c581 22be 92de 593e 4ebe ac3d 69e2 c83c
000003a0: d463 033e 830e b93d 64ce ba3d 391a dbbd
000003b0: 4c8d aebc 6afd 0e3e e0f9 55be 144f 86bc
000003c0: 16f2 c83d 5d9c b53d 6abb 1e3e ff5c 9dbd
000003d0: d904 793d bc6e 91bd af65 223d 3162 15be
000003e0: 07ab 7fbe d21c 343d 227d 5ebd 14d7 fa3d
000003f0: 0dbb 6cbc b44d 2dbb 3daf 34bb 7694 1d3e
0.076890185 0.034184296 0.055783004 0.016229456 0.17812039 0.03134242 0.016700648 -0.049042877
0.108646706 0.053396165 0.16552164 0.040481407 0.03622723 -0.09301906 0.07200537 -0.05347873
0.09202001 -0.13550976 0.046407912 -0.0041114525 -0.14443143 -0.10037022 -0.31546655 0.020733945
-0.32644182 -0.21319272 0.02036925 -0.15757453 -0.12368275 -0.12549272 -0.28061187 0.059777874
0.1416448 -0.0122921225 -0.11592746 0.0028053988 -0.08406295 0.041020427 -0.14945894 -0.12983225
0.03630579 0.014021628 -0.03482682 -0.027298845 -0.010695889 -0.012229054 -0.17531617 -0.07787871
0.080318674 -0.20120084 0.038773824 -0.12427227 0.04696652 0.17011982 0.0069530057 -0.035097837
-0.08792074 -0.06641793 -0.20248963 0.16432804 -0.05721269 0.14735734 0.08687746 0.093615204
0.15928462 -0.039698005 -0.0049660224 0.09022638 0.11032781 0.14145117 0.26198912 -0.13371637
-0.19619092 0.06214947 -0.06174433 0.050496243 -0.08157886 -0.19623378 -0.1466855 -0.069864936
-0.026926206 0.09450283 -0.20871066 0.0799321 -0.18164226 0.012393427 0.0099404 -0.042727523
-0.022602014 0.0437339 -0.023919398 0.0010866815 0.007911965 -0.08805411 -0.11310135 0.13164912
-0.026528977 -0.17137931 -0.055964436 -0.050084174 -0.06770356 0.06893488 0.2079483 0.060415044
0.017641827 -0.15832077 -0.021204747 0.24322698 0.046096023 -0.20102109 -0.09704805 -0.06846027
-0.18955465 -0.18952477 -0.14249954 -0.28925732 0.060309988 0.054406818 -0.029798102 -0.088480175
-0.017623782 0.050398838 -0.17772874 -0.036149893 0.16042434 0.07649201 -0.021812808 -0.09106022
-0.045418307 0.0073698508 0.110374466 0.13128243 0.05812536 -0.07108008 0.0829124 -0.025031248
0.17557608 0.06443256 0.13304819 -0.06784656 0.05003737 -0.073053814 0.11979657 0.023414886
-0.08742971 0.024416512 0.09285219 -0.15356015 0.076484494 -0.014724072 0.15051012 -0.047598783
-0.17862815 -0.058286756 0.014202963 0.21052742 -0.07061496 0.1252347 -0.008393989 -0.0015809296
-0.017243577 0.076519385 -0.0317986 0.02385444 0.3251018 -0.03756531 0.072671 0.05263208
0.17711732 0.2917152 -0.05054674 0.060182944 0.1361068 -0.15315598 -0.19155914 0.11673796
-0.15615882 -0.18887056 0.033012077 -0.032539215 0.06315998 -0.18100165 -0.09946083 -0.08953324
-0.016717749 -0.2498758 -0.006992946 0.12790199 0.012247199 0.05889024 0.074029446 0.15064244
0.24681786 -0.10537963 0.058453854 0.009610335 0.12705563 -0.13647151 -0.07161 0.01877826
-0.014259449 -0.050795518 0.020382965 0.022304129 -0.09859804 -0.024407694 0.13863853 0.17399055
-0.023905115 -0.034069538 0.17407833 -0.057879057 -0.027901642 0.101897806 0.23848121 -0.20781961
0.111321054 -0.15681195 -0.10481 0.042473283 0.03816304 -0.20110922 0.016778639 0.03714685
0.0047007515 -0.046346664 0.10043292 0.21558625 -0.15869816 0.2127631 0.08434735 0.024522023
0.1283105 0.09035971 0.09121397 -0.10698361 -0.02130761 0.13963857 -0.20896101 -0.01639513
0.09811799 0.088677146 0.1550118 -0.07683753 0.06079564 -0.07101199 0.039647754 -0.14588238
-0.24967586 0.043972798 -0.054318555 0.12248054 -0.014448893 -0.002644402 -0.002757027 0.15388665

0.features.1.0.block.0.1.weight f4 [16]
00000000: b363 713f 1ea7 823f b2f0 6f3f 6842 7d3f
00000010: 7b7e 6c3f 8df4 793f af50 7b3f 36c3 873f
00000020: b313 823f 03e3 703f 2ccb 7c3f c5c8 6d3f
00000030: 76b8 703f 2a54 713f 4987 663f 26ef 703f
0.94292754 1.020725 0.93726647 0.9892945 0.92380494 0.9763878 0.9816999 1.0606449
1.0162262 0.9409639 0.98747516 0.92884475 0.94031465 0.9426905 0.9005018 0.9411491

0.features.1.0.block.0.1.bias f4 [16]
00000000: c5b3 0d3e 401d d03d 35cd a73d 123f 4c3d
00000010: c8f9 cd3d 7955 bebb c5fe 803d f1c5 e6bc
00000020: 4829 d13d a79d 813d 7827 563d 948f b13d
00000030: 87f5 973d 5207 153e da1d 6d3d d0fb 163d
0.13838108 0.10161829 0.08193437 0.049864836 0.100574076 -0.005808529 0.062985934 -0.028170558
0.10212952 0.06328898 0.052283734 0.086699635 0.074198775 0.14553574 0.057889797 0.03686124

0.features.1.0.block.0.1.running_mean f4 [16]
00000000: cdec 0ebf 2507 cf3e 6085 443e e8ae 533e
00000010: e8b9 43bc 14ec 673e ff7b e13e 64f2 ffbf
00000020: 24fa 36bf e80a 86bd 804c b03e 3158 8dbe
00000030: 5a2e 62be eb1e 843e c423 ca3c b853 413e
-0.5583008 0.40435138 0.19191504 0.2067219 -0.011946179 0.2264865 0.44039914 -1.9995847
-0.71475434 -0.06545049 0.34433365 -0.27606347 -0.22087994 0.2580484 0.024675258 0.18879592

0.features.1.0.block.0.1.running_var f4 [16]
00000000: f525 2a40 2641 3b40 62a6 de3f 10b2 ce3f
00000010: 31e7 6a3f 20f0 c03f 1824 c73f 3c52 1440
00000020: 1e7c e03f 925f 2340 b9ff 3b40 8856 fd3f
00000030: adba 2a40 9114 a33f 31af ea3f 0223 dc3f
2.6585667 2.9258513 1.7394526 1.614809 0.9175902 1.507328 1.555789 2.3175192
1.7537878 2.5527081 2.937483 1.9792032 2.6676438 1.2740651 1.8334714 1.7198184

0.features.1.1.block.0.0.weight f4 [16, 16, 3, 3]
00000000: 05f3 54bd d25a 2d3c abf4 a7bd e029 653e
00000010: a24a 46bd 55c8 66bd 2f51 57bc 4fc6 81be
00000020: c277 a33c aa73 573d d7b8 993d 09f9 ad3d
00000030: 7985 3e3d e138 fe3d 9856 4c3e 5d6c 163e
00000040: d984 71bd b433 ebbd 93fa dabd 05ca 37bb
00000050: 412d 4d3d abbb a4bb f506 a5bd 57fd 253b
00000060: 73e6 a83d 779d 71bd e68d a9bc 128c 133e
00000070: c4eb aa3d d469 e0bc c9a3 203d 23fe ec3c
00000080: 0ab7 c3bc 6b11 aa3c dd71 313e 9e6e b9bc
00000090: 5069 093b eed5 8bbd eee0 e2bc 3ee9 93bd
000000a0: 640c e63c 57c2 273c 8c35 f6bd 70d0 96bd
000000b0: 8ce9 eb3b 9726 00be efec 1e3d c434 683c
000000c0: c23c e63d eac5 cd3c ff99 aebc 7c9c bbbd
000000d0: 7f39 d53d 9ffc 08bc ca99 91bd cc0e a53d
000000e0: 8603 dbbc a467 203c abb4 d0bd 453e 0abe
000000f0: 6515 783d 30a4 a4bd 4951 f63d 3564 6f3e
00000100: f6bc 213d 5133 f7bd 83d5 9abd 9651 84bd
00000110: e858 41be d6a8 d53d dd79 6bbc 81bb aebd
00000120: 6308 423d 97b4 8cbd 4af6 a63d 1983 a7bd
00000130: 236a 9dbe d82d efbd 97ca 853b 0b87 07be
00000140: e8f3 003e eba3 2f3d d6a8 c8b9 e176 97bd
00000150: e107 af3d 98c9 fd3d 86ec 16bd 3824 28b8
00000160: f4da 9b3d 23f3 03bd e444 ed3d c112 edbd
00000170: 62f0 68bb 4e2a adbc eb97 c9bc 5afa e0bc
00000180: 485b e93b 3d26 01bd b919 42be b854 18be
00000190: 81f1 30be 6f33 1ebe 16e4 2ebe 6d88 e3bc
000001a0: dbe9 2dbe 0bde 0cbd 5d2d a7bd 09e3 13bb
000001b0: 086b 173e 0218 6dbd f6d7 18bd 4da9 a9bd
000001c0: a191 20be d5c3 6ebe 3852 dcbd 2822 e13c
000001d0: ce54 2abd 6460 8b3d afb4 1cbe edff 4f3c
000001e0: 6774 5b3e 69aa f1bd c26e d13a cbb5 2bbe
000001f0: 9c93 2a3e 94cf 8e3d 56c7 bdbc e0f0 023c
00000200: a53c 843d 3bc9 da3c 30e2 493b 9848 4ebc
00000210: 54ab ac3d 85a2 adbd f537 353d cac2 363e
00000220: 832a 6cbc 631e 20be 00c9 13be a130 a83c
00000230: 8298 823d c214 6dbd a6df c9bd b85e 9ebd
00000240: f4c1 373e 98a4 da3d 97e8 67be d6b3 87bd
00000250: 0e9c 03be 5d7a 4cbd a420 4cbe f5f7 5dbd
00000260: 70e3 8a3c 2891 20be bff6 b8bd 10ac cd3c
00000270: 780a 10be 4ea9 43be 39bf 393a eed0 5dbb
00000280: 56ea c3bd 4328 1c3e f227 4c3e 4858 45bd
00000290: 9788 6cbb d2b5 2cbe ec39 afbd 63d4 db3d
000002a0: 5a6a d03d 190e fcbd aef5 3abe 0fbb 3f3d
000002b0: e548 b9be 6a33 00be 10f8 30be 211a 2a3e
000002c0: 8f22 fb3d c38e f43c 2a80 11bd 07f8 01be
000002d0: c622 1c3e 38aa 9d3d 9f2f 9dbd 8697 4ebe
000002e0: cebb 09be 4f3c 073e 5ab6 cbbd 7139 b5bd
000002f0: 66bd 32be b218 b3bd 7862 b2bc 2c0a 9dbc
00000300: ee4d 9a3d 2705 33bd 32b1 19bd 00a2 6fbc
00000310: ff22 633e 4df9 873d 8c20 24be ce61 273e
00000320: 57a3 e9bc 4fff c63d 8068 263e afea 3fbe
00000330: 01fd 1abe f303 32be 5ee1 743d 6353 573d
00000340: 3fa5 d1bd 761f 7fbe b78f 343d fcf8 193e
00000350: 4173 5ebe 4376 3abe 974d aa3d 53aa 353e
00000360: c939 6abe c7bd 90bd 77d7 aabd cf01 bebc
00000370: e4dd 44bd 6087 503e 1534 c7bd 0f62 643c
00000380: 06e1 413d 077f 4bbc 5521 ae3d 0e2b 5e3a
00000390: 3e52 a53a d63a 043b d3a5 be3d e751 aa3d
000003a0: f349 303e 1405 1f3e 21c4 c03d 0e01 34be
000003b0: 0ac3 6abd 708f 50bd e0c3 cebd a0cc 703d
000003c0: 5e1f 10bd 598d eebc 62b1 cb3d 395a a03d
000003d0: 3281 a1bb ab78 a1bd e7dd bc3c 0518 09be
000003e0: 33f4 983c d475 9abe c2fe a6bb 20ae 29be
000003f0: e205 00be 8fa8 e23b ec3f 613e d13a 40bc
-0.051989574 0.010580735 -0.082009636 0.22379255 -0.04841102 -0.056343395 -0.013141914 -0.2534661
0.019954566 0.05260054 0.075059585 0.08494765 0.04651401 0.124131925 0.19954908 0.14689775
-0.058964584 -0.11484471 -0.106923245 -0.0028043997 0.050091986 -0.0050272546 -0.080579676 0.0025328004
0.0824708 -0.05898806 -0.020697545 0.14408901 0.0834575 -0.027394213 0.039218698 0.028929776
-0.02389099 0.020760259 0.17328592 -0.022635754 0.0020967312 -0.06827913 -0.027695145 -0.07222222
0.02808208 0.010239205 -0.12021932 -0.07363975 0.007199472 -0.12514721 0.038800176 0.014172737
0.112420574 0.025118787 -0.021313665 -0.091607064 0.10411357 -0.008361011 -0.07109411 0.08059463
-0.026735079 0.009790335 -0.1019071 -0.13500316 0.06056728 -0.08039129 0.12027223 0.2337807
0.039486848 -0.12070335 -0.075602554 -0.06460874 -0.18881571 0.104325935 -0.014372316 -0.08531857
0.04737128 -0.06870382 0.08152445 -0.08179302 -0.30745038 -0.11678666 0.0040829885 -0.13235109
0.12593043 0.042880934 -0.00038272765 -0.07395721 0.08546425 0.123919666 -0.03684666 -4.0088053e-05
0.07610121 -0.032214295 0.115854055 -0.11575843 -0.003554367 -0.021138337 -0.024608573 -0.027463127
0.0071214773 -0.031530607 -0.18955125 -0.14876068 -0.17279626 -0.15449308 -0.17079195 -0.027775014
-0.1698374 -0.034391444 -0.08162949 -0.0022565743 0.14786923 -0.057884224 -0.03731533 -0.08284245
-0.15680553 -0.23316891 -0.107578695 0.027482107 -0.041584782 0.068054944 -0.153033 0.012695295
0.21431123 -0.11800081 0.0015978443 -0.16768567 0.16657871 0.06973186 -0.02316634 0.007991999
0.064568795 0.026707282 0.0030804984 -0.01259055 0.08431116 -0.08478264 0.044242818 0.17847744
-0.014414432 -0.15636592 -0.14432144 0.020531 0.06376745 -0.057881124 -0.09857111 -0.0773291
0.17945081 0.10675925 -0.2264732 -0.06626098 -0.12852499 -0.049921382 -0.19934326 -0.05419155
0.016954154 -0.15680373 -0.09031438 0.02510646 -0.14066494 -0.19107553 0.00070856843 -0.0033846456
-0.095661804 0.15249734 0.19937113 -0.048179895 -0.0036092156 -0.16866234 -0.085559696 0.10733869
0.10176535 -0.123073764 -0.18257782 0.046809252 -0.36188427 -0.12519613 -0.17282128 0.1661153
0.12262451 0.02985323 -0.035522617 -0.12692271 0.1524764 0.07698482 -0.07675099 -0.20174989
-0.13450548 0.132066 -0.0994689 -0.08848847 -0.17455062 -0.08744945 -0.02177547 -0.01916989
0.07534395 -0.043706086 -0.037522502 -0.014626026 0.22181319 0.06639347 -0.1602804 0.16345903
-0.02852027 0.09716665 0.16250801 -0.18741868 -0.15135576 -0.17384319 0.05978524 0.05256976
-0.10236596 -0.24914345 0.04408237 0.15036386 -0.21723653 -0.18209176 0.0831558 0.17740755
-0.22873606 -0.07067447 -0.08341878 -0.023194222 -0.048063174 0.20364141 -0.09726731 0.013939395
0.04733374 -0.012420422 0.08502451 0.00084750436 0.0012613011 0.002017667 0.09308972 0.08316403
0.1721571 0.15529281 0.094124086 -0.17578527 -0.05731491 -0.050918043 -0.10095954 0.058788896
-0.035186164 -0.029120134 0.099459425 0.078297086 -0.0049287314 -0.07884344 0.02305503 -0.13388069
0.01867113 -0.3016802 -0.0050962875 -0.1657033 -0.12502244 0.0069170664 0.2199704 -0.011732773

0.features.1.1.block.0.1.weight f4 [16]
00000000: 1100 6c3f fa5d 6a3f 017e 743f 3d9e 603f
00000010: 12ab 5d3f 5f43 6a3f d5a9 763f 9fe4 893f
00000020: 9e37 6d3f 2c1e 7a3f a8b5 4d3f e8ce 683f
00000030: 6c32 733f 1ffc 6d3f 90bd 743f 6d54 683f
0.921876 0.91549647 0.95504767 0.8774145 0.8658916 0.9150905 0.96352893 1.0772895
0.9266299 0.9770229 0.8035531 0.90940714 0.9499881 0.9296283 0.9560175 0.90753824

0.features.1.1.block.0.1.bias f4 [16]
00000000: 139b 80bc 6c0b 80bd 8e58 e43b 6619 3fbc
00000010: 957a ee3c 0b6c 42bd d8bb 89bc 06ce acbd
00000020: 0b7f 583d 146e 05bd 4f28 0ebe 99d4 e5bc
00000030: 7cd8 b23c 7ab1 8d3d de5c 01bd 265f 0dbd
-0.015698945 -0.062521785 0.0069685644 -0.01166377 0.029111186 -0.04746632 -0.016813204 -0.08437733
0.052855533 -0.03257568 -0.13882564 -0.028055476 0.021831743 0.069186166 -0.031582706 -0.03451457

0.features.1.1.block.0.1.running_mean f4 [16]
00000000: fa8e 82bf 1d33 c1bf 45af dbbc 1b64 f7bd
00000010: 74d0 80bf f074 4ebf 7e6b 2cbf 1201 1ebf
00000020: 5ed5 6c3e e24a b2bf 886e c0bf e8c9 2fbf
00000030: 90ba 82bf ebe6 17bf 5a6c a4be 6556 52bf
-1.0199883 -1.5093724 -0.026816973 -0.120796405 -1.0063615 -0.8064718 -0.6735152 -0.61720383
0.23128268 -1.3929102 -1.5033731 -0.6866746 -1.0213184 -0.5933673 -0.32113916 -0.8216308

0.features.1.1.block.0.1.running_var f4 [16]
00000000: c48f 7d40 9bee 3541 bb70 9d40 1a78 9040
00000010: 3748 8940 23a4 a440 57ef 0d41 0a07 0140
00000020: f4b5 8840 01a0 d140 7ded b640 6bf6 f040
00000030: 9712 e940 6fbf 5340 b144 7e40 aef8 8240
3.9618998 11.370753 4.920011 4.514661 4.2900653 5.145036 8.870933 2.0160546
4.272211 6.5507817 5.7164903 7.5300803 7.2835193 3.3085592 3.9729426 4.0928564

0.features.2.0.block.0.0.weight f4 [64, 16, 3, 3]
00000000: d6b2 d3bd e2ac 0cbd 7997 753d b2e7 c93c
00000010: 8f20 1a3d 749a bc3c 95f2 82bc a98e 863b
00000020: 8cd4 713c 531e abbd 85c3 1cbd f31b 9abd
00000030: 1bb1 8ebd 6f27 b7bd 4c53 3f3c dd19 713d
00000040: 9a8a adbd def6 aebd 3205 4dbd b316 d8bc
00000050: e985 bebd 92a2 83bd de2c a3bc b95a f13b
00000060: 65ae 4bbd 4b40 dcbd bc63 b638 1ae1 ef3c
00000070: e8e4 f13c 759e d53b 12e6 303d 0767 633d
00000080: a703 683c b637 583c 13d7 e6bb 48ec 903d
00000090: 1a7f a63c ad62 4e3c 9053 f03c 2c9d 8f3d
000000a0: 87aa 01be 55ff 1cbc 7bf1 01bd 6a21 b5bd
000000b0: 24c4 d13d a8ac 6f3d 8ea5 d3bc 8480 9dbd
000000c0: e854 553d d456 a7bc de9f 9cbd a09c 1a3d
000000d0: 7c78 443d 591b 4a3d 23ac 723d 3d52 f5bd
000000e0: 4e29 553c 3e94 e9bc 1d17 e8bd abff d6bc
000000f0: cca3 1abc 8681 ca3c 5888 2e3d aad5 3f3c
00000100: d416 c3bc 1ea9 89bd 2c05 0a3e 72be aabc
00000110: 17a2 eebc 7228 43bd e7ff 28bc e742 d9bb
00000120: 85da c23c 2033 15bc e82c 7b3d 7d1d 0ebd
00000130: 2733 543d 7679 2e3d 8f08 15bd c432 a4bd
00000140: 0718 68bd dc40 edbc d2e4 073d 5198 cbbb
00000150: 3d84 4a3c 7947 a8bd f9dd 883b 9525 eabd
00000160: ad94 ddbd f8e8 693d 6705 84bd 86b2 243d
00000170: 89d5 6bbc 3073 e63b 5da9 f1bd 510d 993c
00000180: d564 8d3d fef7 fd3c 6b17 ab3d 4913 633c
00000190: 0fc9 133b 1fa5 01be 41c0 423c 31d5 063d
000001a0: 10bf c23c 5793 b63c f161 193e 1608 2e3d
000001b0: 29ce 863d a117 2abd fb23 933c 5b7a 9fbd
000001c0: b287 623d 2849 4bba f6c2 5c3d 210a 24bd
000001d0: 81cd f43d a374 ed3b cbc0 42bd a549 e3bd
000001e0: 18d5 43bb a542 2b3d 0263 893b 49af 9abd
000001f0: 04d0 813d cbce 3bbd 2350 29bd 595c 3abc
00000200: d75d b73b abc4 4ebd 4611 d6bd 8f8b 95bc
00000210: 4693 32bd 0e42 6abc d1b3 0d3d 31fe 0ebd
00000220: f935 f13c 5350 45bd 5d43 503d 5663 a23d
00000230: fd58 72bd c40c 6abd a0b3 33bc 0532 7e3d
00000240: 0a95 5cbc a940 513c c7b5 813b 6486 b9bd
00000250: 4589 0ebd 5b89 d5bd 1047 603d 05c4 65bd
00000260: cc3a 0c3d 1b27 06bc d20d 0ebd 9090 42bd
00000270: 652e 06be 8a8e 31bc e10e e5bd e921 e2bc
00000280: db35 a83d 488a 63bc 71fe 89bd 8543 af3d
00000290: 7962 dbbc 1946 d33c 5f5c 2a3d eee6 183c
000002a0: aef8 71bc 32db 683d 308b 593b 0d7c 353d
000002b0: c07f 5b3d 233e 103d bfdb f4bb 6b30 e53c
000002c0: 7eea c5bd 604f 5b3d 77c0 5f3b 081c 6f3d
000002d0: 7441 963d 0d48 da3d 8fa8 ad3d 3706 51bd
000002e0: 32ca 123d 3068 48bd b656 89bd c412 1abd
000002f0: ebca 613d 5716 0dbd 1ef8 eebc 033d c03d
00000300: 7b67 ad3d 8f8d 2cbd 3c4d 84bd a744 093e
00000310: 4f4a 57bd 6423 f1bb 3c3d ac3d 3264 68bc
00000320: b8b1 013e 3cef e53c e5a7 c2ba 3328 be3c
00000330: 0c29 453c 7984 893c 4edf 23bc af4b 0b3d
00000340: 7179 2abd aeef dfbc 716b d03c a101 69bd
00000350: b06a 4abd 0904 30bd 5a96 cc3c 64fc 113d
00000360: 4e93 db3d d3e0 afbd 70c2 46bd 4eb0 17bd
00000370: 4713 7b3c 8185 0a3d a01d 6ebd 76e3 6d3c
00000380: 4598 583d a466 803d 48c7 38bd f05c 40ba
00000390: 5511 05be 1ac3 01be f0a1 393c 4bd0 e73d
000003a0: 594a 30bd 9117 bc3d a7ae 8f3d 3aa7 3abb
000003b0: c520 6ebc 5840 ca3d f5b2 75bd 8b31 813c
000003c0: 9493 8b3d 8fee d0bc 6e07 8abd 12d0 243d
000003d0: 8ac0 8fbd 79fe 293d 00e8 303c c0fc 173d
000003e0: 85ca 54bd 9a46 99bd 0c02 a03d 961e 623c
000003f0: 3ad2 5e3d c0ee a73d a46c adbd dbf2 23be
-0.103368446 -0.03434456 0.05995891 0.024646614 0.037628707 0.023022868 -0.015984813 0.004106362
0.014760148 -0.08355393 -0.0382724 -0.07524862 -0.06967374 -0.08943068 0.011677574 0.058862556
-0.08473702 -0.0854318 -0.050053783 -0.026378011 -0.09302885 -0.06427492 -0.019918855 0.0073655513
-0.049726862 -0.107544504 8.697013e-05 0.029282141 0.029528096 0.0065191337 0.043188162 0.055518176
0.014161027 0.013196876 -0.007044682 0.07076317 0.020324279 0.012596768 0.02933672 0.070124
-0.12662707 -0.00958236 -0.031724434 -0.08844264 0.10242489 0.058514267 -0.025835779 -0.07690528
0.052082926 -0.020427145 -0.0764768 0.037747025 0.047966465 0.049342487 0.059246194 -0.11978576
0.013010336 -0.02851307 -0.113325335 -0.026244959 -0.009438466 0.024719965 0.042610496 0.011708656
-0.023814596 -0.0672171 0.13478535 -0.020842765 -0.029130025 -0.047645994 -0.010314918 -0.00663029
0.023785839 -0.009106427 0.061322123 -0.03469609 0.051806595 0.042596303 -0.036385115 -0.08017495
-0.05666354 -0.028961591 0.033177204 -0.006213226 0.01236063 -0.08216757 0.004176852 -0.114329495
-0.10819373 0.057106942 -0.06446343 0.040209316 -0.0143941725 0.0070327744 -0.117998816 0.018683108
0.06903998 0.031002041 0.08354076 0.013859578 0.002255026 -0.12660645 0.011886657 0.03291816
0.023772746 0.022287054 0.14978768 0.04248818 0.06582291 -0.04152644 0.017961493 -0.07787009
0.05530519 -0.00077547366 0.053896867 -0.040048722 0.11953259 0.00724657 -0.047547143 -0.11098031
-0.0029881652 0.041811604 0.004192711 -0.07552964 0.06338504 -0.04585151 -0.04133619 -0.011374556
0.0055959034 -0.050480526 -0.104525134 -0.018255023 -0.043597482 -0.014297975 0.034595314 -0.034910385
0.029444681 -0.048172306 0.050845493 0.07929103 -0.059166897 -0.05714108 -0.010968119 0.06205942
-0.013463268 0.012771764 0.003958437 -0.09058836 -0.03479888 -0.10426589 0.05475527 -0.056095142
0.03423576 -0.008188034 -0.03468115 -0.047501147 -0.13103636 -0.010837207 -0.111844786 -0.02760406
0.08213397 -0.013887949 -0.06737984 0.085578 -0.026780354 0.025790261 0.041592 0.009332402
-0.0147687625 0.056849666 0.0033194534 0.044307757 0.05358863 0.03521551 -0.007472485 0.027977189
-0.096638665 0.053542495 0.0034141818 0.058376342 0.07336703 0.10658274 0.084794156 -0.051031318
0.03583736 -0.048927486 -0.06705992 -0.037615553 0.05512516 -0.034445133 -0.029171046 0.09386637
0.08467003 -0.04212719 -0.06460044 0.13405095 -0.0525611 -0.007358955 0.08410117 -0.014184045
0.1266545 0.028068177 -0.0014851062 0.023212528 0.012033712 0.0167868 -0.01000197 0.034007724
-0.04161972 -0.027335968 0.025441857 -0.05688632 -0.04941815 -0.0429726 0.024974037 0.03564109
0.107214555 -0.08587804 -0.048525274 -0.03703337 0.01532442 0.033818725 -0.05813372 0.014519563
0.05287959 0.06269577 -0.045111924 -0.00073380675 -0.12994893 -0.12672082 0.011330113 0.113190256
-0.043039653 0.091841824 0.07015734 -0.0028481022 -0.01453418 0.09875554 -0.05998512 0.015770694
0.06815258 -0.025504379 -0.06739698 0.040237494 -0.07019146 0.04150245 0.010797501 0.037106276
-0.05195095 -0.07484169 0.078128904 0.013801238 0.054399706 0.08199835 -0.08467987 -0.16010611

0.features.2.0.block.0.1.weight f4 [64]
00000000: fc5c 6b3f 5ba2 7b3f 3d5a 7b3f 0dfb 7c3f
00000010: e827 783f 510a 773f b40c 7a3f 23eb 7d3f
00000020: ff69 7f3f 55dc 813f 6277 7e3f cd1d 773f
00000030: b473 7c3f be47 6f3f fc17 733f 72c5 733f
00000040: f834 903f 90f4 783f b8de 7d3f 5f97 893f
00000050: aa3b 7a3f 08fe 563f 5623 893f 3544 833f
00000060: 06eb 7c3f 0498 693f cad1 803f 0c6d 833f
00000070: 46e8 763f 357d 763f 5ac9 6a3f 5085 793f
00000080: 1084 6a3f ce8f 753f c96a 7e3f 200e 703f
00000090: cb4d 7c3f 65c4 813f d137 7d3f 8c11 803f
000000a0: f2e1 813f 28aa 813f 2c1e 803f 96d0 733f
000000b0: 31b2 783f c89f 7f3f 8a6a 773f 30a5 783f
000000c0: 7c5c 5f3f 24f7 723f 737c 6b3f 262d 863f
000000d0: 00a1 863f a878 843f 55ed 693f 65fc 783f
000000e0: 5126 783f b79f 843f 4b18 843f 31c5 763f
000000f0: 61f9 823f 50b6 7b3f 3fea 773f c9a2 7d3f
0.9193876 0.9829461 0.9818457 0.98820573 0.9693589 0.96500117 0.97675633 0.99186915
0.9977111 1.0145365 0.99400914 0.9652985 0.9861405 0.93468845 0.9495847 0.9522315
1.1266165 0.9724817 0.99167967 1.074932 0.9774729 0.8398137 1.0713909 1.025519
0.9879612 0.9124758 1.0064023 1.0267653 0.9644817 0.962848 0.9171349 0.97469044
0.9160776 0.95922554 0.9938169 0.93771553 0.985562 1.013806 0.98913294 1.0005355
1.0147078 1.0130053 1.0009208 0.9524015 0.971469 0.9985318 0.9664694 0.97127056
0.87250495 0.94908357 0.9198677 1.0482528 1.0517883 1.0349321 0.91377765 0.97260123
0.96933466 1.0361241 1.0319914 0.9639464 1.0232354 0.9832506 0.96841806 0.99076515

0.features.2.0.block.0.1.bias f4 [64]
00000000: 52aa 59bc 9e09 9e3d 3dcf c83d 4b60 b63d
00000010: 1b3e 56bc 0982 f53c 060b 88bc 6c41 2c3d
00000020: ed89 7fbc 0fe7 283d f6d5 d53d f0dd 8d3d
00000030: 5373 9a3c 0da2 33bc 2261 743d 4708 123d
00000040: 71eb f73c c68c 163d 6728 a13d c5bd ac3d
00000050: dcb2 50bd f4e7 9c3c b09b b33c c779 c83d
00000060: d7f1 323c 09e1 bd3d 79e7 873c f347 eebb
00000070: 0839 1f3d a083 dc3d 169a c9bc 8f0a 023d
00000080: e852 283d 5f50 403d 1512 963c ab22 a83d
00000090: f02a e83c 0430 913d aa51 253c 57e0 743d
000000a0: 295a a53d 5f35 eb3d d6e5 063e 1f30 073e
000000b0: ba0e d23d c5c2 043e cece dcbb 9851 013e
000000c0: 42f3 ea3d 963b c43a df2f ef3d 456e 823d
000000d0: 67d2 d03d ea9c 12bd d1c4 b23c d099 dc3b
000000e0: 103d 903d db32 8b3d 064f 163d 8427 59bc
000000f0: 74cf 213d 61dc b43d bbd0 c73d 2650 753d
-0.013285236 0.07716678 0.098051526 0.08905085 -0.013076331 0.029969232 -0.016606819 0.04205458
-0.015596849 0.04123598 0.104412004 0.06927097 0.018853819 -0.010963929 0.059662946 0.035652425
0.030263634 0.036755346 0.07869034 0.08434633 -0.050951824 0.019153573 0.021924824 0.09788852
0.010921917 0.09271438 0.016589867 -0.0072717606 0.03887275 0.10767293 -0.024609607 0.03174835
0.04109469 0.046951648 0.018319169 0.082097374 0.028340787 0.070892364 0.010090271 0.05978426
0.08073837 0.11484789 0.13173613 0.1320195 0.10256715 0.12964924 -0.00673852 0.12628782
0.11472179 0.0014971371 0.116790526 0.063686885 0.10196381 -0.035794176 0.021822365 0.006732203
0.07042897 0.06796809 0.036696456 -0.01325405 0.039504483 0.088310964 0.09756609 0.05989089

0.features.2.0.block.0.1.running_mean f4 [64]
00000000: b869 2cbf 5e4a 1c3f 8e5a 313e bfd4 0c3f
00000010: 7570 43bf 3f07 46bf 65d7 d1be 4f5e 973d
00000020: 0ba0 b83d db34 283e 66c7 213e 6b4f 54be
00000030: 852e cbbe 2258 723e d3f6 463e 79ae 473d
00000040: 0a2c 273f 8407 1d3f 4f91 22bf 3000 b9bd
00000050: 7cec b3be c53c ecbd a293 f93d 1d56 b83e
00000060: bec4 5bbf 7b76 9b3e 5eca d3be 9051 2dbf
00000070: 43cf 77bf 6fa1 eb3e 51df dbbe 43dd 9cbe
00000080: 1b95 2d3f e238 153f c9ad 35be 3250 1f3f
00000090: 9357 60bf 22c3 1fbe 0aaa 28bf cff3 75be
000000a0: 08d8 493f bc6b 723e 4554 e6bd 1e1d c23d
000000b0: eeee a6be b714 3c3e da70 51bf ca88 bb3e
000000c0: ed55 113d f770 36bf 8fb2 e43e c453 17be
000000d0: 21d9 db3e 6b52 8bbe a1f4 ac3e 514c c8bf
000000e0: 1802 58be f023 5d3e f032 0b3e 320f 3d3e
000000f0: 2fc3 35be 268d 91bd f1a3 debe 43c4 a4be
-0.67348814 0.61050975 0.173197 0.55012125 -0.7634347 -0.77354807 -0.40984645 0.07391035
0.09014901 0.16426413 0.1579872 -0.2073342 -0.3968393 0.23666432 0.19430093 0.048750374
0.65301573 0.6133959 -0.63502973 -0.09033239 -0.3514136 -0.11535028 0.12186362 0.360032
-0.8584708 0.3036383 -0.4136533 -0.6770258 -0.9680063 0.46021602 -0.42943814 -0.3063756
0.6780564 0.5828992 -0.17742075 0.62231743 -0.8763363 -0.15601781 -0.6588446 -0.24018787
0.7884526 0.2367391 -0.11246542 0.0947821 -0.32604164 0.18367277 -0.8181282 0.366278
0.035482336 -0.7126612 0.4466748 -0.14778048 0.42939094 -0.27211317 0.33780387 -1.564829
-0.21094549 0.2159574 0.1359365 0.18462828 -0.17750238 -0.07107 -0.43484452 -0.32180986

0.features.2.0.block.0.1.running_var f4 [64]
00000000: 7c23 aa3f 0667 2e40 ef0e 9b3f b794 ff3f
00000010: f377 823f 41f4 9d3f 5856 1540 bbf5 e33f
00000020: f409 443f 1e5e 2740 e8f0 d93f d956 8f3f
00000030: 1081 673f 4017 d13f 1163 b53f d6dd 1340
00000040: bd8c eb3e b3d5 1a40 00cc c33f ba36 123f
00000050: 71bf 333f 76bd ca3f 9b5c 593f a692 0540
00000060: 15f0 e33f 4365 753f 0eae 843f 8064 e53f
00000070: 1f89 8240 f338 0640 f116 be3f af85 b43f
00000080: 91af f33f e45f 0940 acd4 a83f aca0 903f
00000090: d9bf 3040 acb2 693f ee5b a53f f7c5 c43f
000000a0: a5fc 0740 9fd9 af3f e2dd 3e3f 6984 bf3f
000000b0: 05fc a93f 6d0a 623f 9903 e43f fa19 bb3f
000000c0: 3c94 633f a335 3f40 f2bd dc3f 7332 e33f
000000d0: 1195 3540 52ea 7840 3f6f f63f 4600 e73f
000000e0: ebb1 ee3e bd2e 613f 142c 3940 a894 5d40
000000f0: b176 993f 64d0 3140 bd90 f03f 6dfb 2b40
1.3292079 2.725038 1.2113932 1.9967259 1.0192856 1.2340165 2.333395 1.7809366
0.7657769 2.6151195 1.7026644 1.1198379 0.9043131 1.633522 1.4170858 2.3104148
0.46005812 2.4192932 1.5296631 0.57114756 0.7021399 1.5839069 0.8490693 2.0870757
1.7807642 0.9585764 1.0365617 1.7921295 4.0792384 2.097226 1.4850751 1.4103297
1.9037954 2.1464777 1.3189902 1.1299033 2.7617095 0.91288257 1.291868 1.5372914
2.1247952 1.3738288 0.74557316 1.4962283 1.3280035 0.8829716 1.7813598 1.4617302
0.8889806 2.9876487 1.7245467 1.7749771 2.8372233 3.8893018 1.92527 1.8046958
0.46620116 0.8796194 2.8933153 3.4621983 1.1989347 2.7783442 1.8794171 2.6872208

0.features.2.0.block.1.0.weight f4 [32, 64, 1, 1]
00000000: 5d8a e13e 3bd0 e23d 97b6 a23d bdb3 babe
00000010: 20d3 40be ed60 5bbe 91ac 513e f84b 1f3e
00000020: dc44 663e 2735 23be ac30 383e 7cc0 833e
00000030: 969c a5be 2384 da3d ec91 823e 1e1e 553e
00000040: 1f12 9a3e dde3 32be ca69 633e 34c9 0bbd
00000050: 0f1f 80bd daab 043e 1a20 cfbd 7cf3 d8bd
00000060: acf3 f33d 3759 703e 3ec5 f9bd 0d1d 233e
00000070: 8668 053f 33b4 b7bd 51d2 963e aa53 33bf
00000080: 2450 a53c cef3 b23d e695 8a3e 91fa f2bd
00000090: a0ec 0dbe 36b6 0e3f 4228 07bc 2ee9 94bd
000000a0: 75ab 79bc d279 873e 6414 84be 1d14 053f
000000b0: 9ca6 14bd 5c7e 263b d935 823d 1a13 513e
000000c0: 5083 e8be 0c59 9b3e 9de3 4e3e 76ee 3dbe
000000d0: 280c 49bd 7c1c 47bd 9192 53be 20e9 3abe
000000e0: c862 073e 516b 69bc 1a64 9d3e 898f 263d
000000f0: c99e 3f3e 18ec a3be e8a7 ff3d 3454 b1be
00000100: 0d3c 063e 7401 c8bd 41c0 09be 381f 743f
00000110: 2441 85be 88a2 b63c 8821 2abe b5bb 77be
00000120: 99b0 27be 62de 1b3d 1176 cd3d a3b9 b7be
00000130: 5428 f13d 4f93 81be 929b e23d ae18 c5bd
00000140: 6c04 473d a063 43be e7bd e7bd 4782 9c3e
00000150: c151 24be ffe0 b53e edf2 ccbc 464b 11be
00000160: d8c9 223e 7f2f 3fbd 8295 283e a19e ab3d
00000170: 5807 463d 9f09 cc3d 04e2 803d 5274 1a3e
00000180: 5603 223d bb8d 873e 7aef d4be 4a45 88be
00000190: 2eb8 e93d d38a e8bc 1d99 073f cf05 89be
000001a0: f384 9bbe 7868 d1bb 549f dcbd e7dd 883e
000001b0: 2466 94bd 323a d63d 6271 45be 1d3c a23e
000001c0: 0525 c9bd 627e d43e f24c adbd 1b5d 42be
000001d0: 2ffb b13d a31e 80bd a610 9c3e 5350 7239
000001e0: cc5b 6abe a4c0 59be 448b 863e 10b5 ab3e
000001f0: 5c34 85be fd71 0abe 157a a13e 0006 c3be
00000200: f248 7e3e ee62 9b3c 4ace e73d 6f91 1a3e
00000210: a019 683e 0563 b43e 52b7 c6bd 9b47 d6bd
00000220: 5fda b0bb d89d ab3d 1366 c43e 6b4e 8dbd
00000230: 0e3b 0c3e ca3d 85be 9093 87be 6f49 1a3e
00000240: c156 b53e 2efb 3dbe 6167 373d d8a3 cb3c
00000250: b14f 2b3e 1961 f7bd 42dc bbbd b97b 843e
00000260: a89b 15bf 78ae 723d 6891 e6bd 0889 2f3f
00000270: 0f18 77be 1538 80be a949 f1bd 7e7f 023d
00000280: 53b8 07be 18ed 583e 0501 82be fe62 6e3d
00000290: d8e3 a03e 23d5 0dbe beed daba 469a 5e3d
000002a0: 8e96 26be d30d 82be 3afd 02be 511a 75bc
000002b0: a9c0 a83e a82b 0dbe 35ff 88bc 55a6 923e
000002c0: f83f c33c b2aa 7fbe 8a57 cabe 119e 533e
000002d0: cda6 b13c 1c3d 46be a78d 663e 2a6b 17be
000002e0: 3c08 99be 6a81 30bc 00ba 5c3e 1c09 97be
000002f0: a11e a8be 48b7 c0be 0a93 a43e 1cb3 913e
00000300: a930 17be 8d0d 47be cd0d e4bd feb6 6c3e
00000310: 3865 44bd 3e34 9dbe bb08 973e 03d0 27bd
00000320: 2ddf 103e ba89 a1be 8d1e acbe 0f8f 783e
00000330: 018c bcbe 615b 8f3e 3b89 85be be35 edbd
00000340: 6985 58bd 50d3 75be 3272 0bbe 89e4 b33d
00000350: b62d 74bd 1480 ecbd fabe df3e 6759 633e
00000360: c83f dabe d90d ce3d 4496 63bd ef2c 7b3e
00000370: ab73 333e 38df ffbe d206 14be 2008 033e
00000380: 10d1 b9bc 5778 623c 1fa9 b03b 0a00 023e
00000390: f91b 0cbe 26d2 923c 4431 b5be 93f1 293f
000003a0: f927 203e 2c45 eebd fd35 d7be 8a4a d2be
000003b0: 6dea 5abe 6fe6 82be c119 bd3d c417 1dbe
000003c0: 62f0 4cbe 19a5 10be 4686 b63e f0b8 163e
000003d0: 941e 253d 4f3c dbbc 1874 eebe 3eca 8e3d
000003e0: 9d6b ff3d 224f f43a e68e b63e 98de 82bb
000003f0: 662d c83e 72f3 c23d 5bda d53d 039e 06be
0.44050875 0.11074873 0.079449825 -0.36465254 -0.18830538 -0.21423693 0.20475985 0.15556324
0.22487205 -0.15938245 0.17987317 0.2573279 -0.32346028 0.10669734 0.25501955 0.2081227
0.3009195 -0.17469735 0.22208324 -0.03412743 -0.06255924 0.12956181 -0.10113545 -0.10593316
0.11911711 0.23471533 -0.12195824 0.1592905 0.52112615 -0.08969917 0.29457334 -0.70049536
0.020179816 0.08737908 0.27067488 -0.11864198 -0.13859797 0.5574678 -0.008249344 -0.07271038
-0.015238632 0.2646013 -0.25796807 0.51983815 -0.036291704 0.0025404906 0.06357927 0.20417443
-0.45412683 0.30341375 0.20204015 -0.18547997 -0.04908386 -0.04861115 -0.2066138 -0.18252993
0.13221276 -0.014246778 0.30740434 0.04066423 0.18712915 -0.32016063 0.124831975 -0.34634554
0.13108845 -0.09765902 -0.13452245 0.95360136 -0.2602626 0.022294298 -0.16614354 -0.24192698
-0.1637596 0.038053878 0.10032285 -0.35883817 0.1177527 -0.253077 0.11064829 -0.09623848
0.0485882 -0.19080973 -0.11315518 0.30568144 -0.16046812 0.3552322 -0.02501818 -0.14188871
0.1589731 -0.046676155 0.16463283 0.083798654 0.048346847 0.099627726 0.06293109 0.15083435
0.039553963 0.2647532 -0.41588956 -0.26615363 0.114120826 -0.028386509 0.5296801 -0.26762244
-0.3037487 -0.0063906275 -0.10772577 0.26731798 -0.07246044 0.104603186 -0.19281533 0.31686488
-0.09821514 0.41502672 -0.08461942 -0.1898083 0.086904876 -0.062558435 0.30481452 0.00023108842
-0.2288658 -0.21264893 0.26278126 0.33536577 -0.2601651 -0.13520046 0.31538454 -0.38090515
0.24832514 0.018968072 0.113186434 0.15094541 0.22666025 0.35231796 -0.09702934 -0.104628764
-0.0053971256 0.08379716 0.38359126 -0.06899723 0.13694403 -0.26023704 -0.2647977 0.15067075
0.3541775 -0.18552849 0.044776324 0.0248584 0.16729619 -0.12079067 -0.0917287 0.25875643
-0.5844064 0.059248418 -0.11258203 0.6856847 -0.24130271 -0.25042787 -0.11781628 0.031859867
-0.13253908 0.21184194 -0.25391403 0.058199875 0.3142383 -0.13850836 -0.0016702933 0.054346345
-0.1626837 -0.25401172 -0.12791911 -0.014959888 0.32959488 -0.13786185 -0.016723255 0.28642526
0.023834214 -0.24967459 -0.39519912 0.20665766 0.021685982 -0.19359249 0.22514974 -0.14786974
-0.29889095 -0.010773042 0.21555328 -0.29499137 -0.32835868 -0.37639832 0.32143432 0.28456962
-0.14764656 -0.19438763 -0.11135445 0.23116681 -0.047948092 -0.3070392 0.29498848 -0.04096986
0.14147635 -0.3155039 -0.33617058 0.24273323 -0.36825565 0.27999404 -0.2608126 -0.11582516
-0.052861605 -0.2400639 -0.13617781 0.08783824 -0.059613906 -0.115478665 0.4370039 0.22202073
-0.42626786 0.10061235 -0.055563226 0.2452886 0.17524593 -0.4997499 -0.14455727 0.12796068
-0.022682697 0.013822637 0.0053912546 0.12695327 -0.13682546 0.017922472 -0.3538915 0.6638424
0.15640248 -0.11634287 -0.42033377 -0.41072494 -0.21378489 -0.25566432 0.09233428 -0.15341097
-0.20013574 -0.1412548 0.35649318 0.14718986 0.040312365 -0.026762156 -0.46572948 0.069721684
0.124716975 0.0018639306 0.35655898 -0.0039938204 0.39097136 0.0951909 0.104420386 -0.13146214

0.features.2.0.block.1.1.weight f4 [32]
00000000: 8f6f 773f a4ed 823f b027 7c3f c5c2 7d3f
00000010: 3f54 813f 3ded 7c3f de9f 7a3f 9268 863f
00000020: 6bd1 653f 78f9 803f 1057 7a3f 019e 873f
00000030: 72b5 843f 7926 6c3f c5fb 843f 7480 863f
00000040: 9266 6b3f 7aa3 763f 23a3 773f 2efe 813f
00000050: d900 743f 254a 803f 0761 853f 6f02 813f
00000060: ee45 813f 3261 763f 0f5f 7c3f 41e9 7c3f
00000070: 8743 853f f6e5 713f 8689 6f3f 526c 803f
0.966546 1.0228772 0.9849806 0.9912532 1.0103835 0.98799497 0.9790019 1.0500662
0.8977267 1.0076132 0.97789097 1.0595094 1.0367873 0.92246205 1.0389334 1.0507951
0.91953385 0.96343195 0.967333 1.0155694 0.95313793 1.0022627 1.0420235 1.0078868
1.0099466 0.9624206 0.9858255 0.9879342 1.0411233 0.9449152 0.9356922 1.0033057

0.features.2.0.block.1.1.bias f4 [32]
00000000: 5bac c0bc 9c24 81bc 5689 8b3c 8fa3 473d
00000010: cc76 f03b 0f81 64bc 1d06 c1bc 248d c0bb
00000020: d385 cf3b 4ee5 ebbc 5b0c f5bc 8fff 25bd
00000030: 467f 6fbc 0c65 9ebb bf7b e63c 3252 86bb
00000040: 03c2 69bb 8bd6 89bc 6c43 5ebc 9c42 be39
00000050: 7c81 3d3b 99bb 7dbb ae2b a0bc 031c c7bc
00000060: e2b2 65bd 55be 95bc bd6a 6fbc dcf2 68bb
00000070: 77cc 7739 0a40 693c e304 96bc 6609 b3bb
-0.023519685 -0.015764527 0.01703326 0.048739966 0.0073383804 -0.013946786 -0.023562485 -0.0058762003
0.0063330918 -0.028795864 -0.029913118 -0.040526923 -0.014617747 -0.004833823 0.028135179 -0.004099154
-0.0035668619 -0.016825935 -0.013565879 0.00036289252 0.002891629 -0.0038716553 -0.019552078 -0.02430535
-0.0560788 -0.018279234 -0.014612851 -0.0035545146 0.00023631925 0.0142364595 -0.018312877 -0.005463767

0.features.2.0.block.1.1.running_mean f4 [32]
00000000: 3ee8 033f dee4 fa3d 39a0 783d 7726 b6be
00000010: 1cf5 a53e abde e83e 7521 673e 3dba a03e
00000020: a870 4e3f 5023 ab3d 629f ec3d ca4c 6c3e
00000030: c96b c0bd 5b63 a8be 1be3 b23d f067 ffbe
00000040: 94a2 37be 7b85 4abe ea83 b8be 5f03 83be
00000050: eb15 65bf 4aa5 1cbf 92df 84be 3795 193e
00000060: 8a03 b43d 427e abbe 0bb1 e6be d570 1f3e
00000070: 43d1 333d 661a 29bd a49b 54be b15f acbe
0.5152625 0.12250684 0.060699675 -0.3557622 0.32413566 0.45482382 0.22571357 0.3139209
0.8064065 0.08356345 0.11553837 0.23076168 -0.093955584 -0.32888302 0.08734723 -0.49883986
-0.17933112 -0.19777481 -0.36038142 -0.2558851 -0.8948657 -0.6118971 -0.2595182 0.14998327
0.087897375 -0.33494765 -0.45056948 0.15570386 0.04390074 -0.04128494 -0.20762497 -0.33666757

0.features.2.0.block.1.1.running_var f4 [32]
00000000: 3e8f a43f c170 2340 4b32 353f 11c0 a93f
00000010: 3d87 f93f 5b3a c53f 35d0 ea3f d059 ba3f
00000020: 45f3 6240 8c56 be40 5dc0 ef3f 83fa df40
00000030: e01e 5d3f ad69 3040 26f8 3340 47ac 2140
00000040: 1c1d 9b3f 8389 8340 6261 1a40 645e 2c40
00000050: edc2 713f 2a6a 3340 7b2a 1940 ba63 0840
00000060: 4651 2840 b8f4 d13f bbb2 3540 d829 0a40
00000070: 952f 0040 67c6 cf3f 5490 ec3f e3ad 863f
1.2856214 2.553757 0.70779866 1.3261739 1.9494396 1.5408434 1.834479 1.4558659
3.546098 5.948065 1.873058 6.99933 0.86375237 2.75645 2.8120208 2.52614
1.2118258 4.110536 2.4121938 2.6932611 0.9443806 2.8033547 2.3932178 2.1310868
2.6299605 1.6402807 2.8390338 2.158804 2.0029042 1.6232423 1.8481545 1.0521816
