code/modeling/ckpt/AutoencoderConfig([1, 1, 1], flip=False, rotate=True)/autoencoder_800.pth (torch, 346502 bytes, 68 tensors)

0.features.0.0.weight f4 [16, 8, 3, 3]
00000000: faba 893d ba96 c53c 0d05 94bd 87b1 84bd
00000010: ed12 01be 6b04 2b3d 9ffc 593d 71ea b9bd
00000020: 12e2 073c d10d 32bd fb23 123d 3d0f a93c
00000030: b481 2f3d 1e99 fb3c 7246 233d 90d4 3dbd
00000040: 7667 ebbd 3e09 1b3d 58df 8d3c 010d 713d
00000050: 2260 103e b1e7 233e 8fe6 e13d 613f a33c
00000060: e52a 593d 08bd cf3c 6656 13bd a3d4 7abd
00000070: 3c6f 673c c4a3 c1bd fde4 763d 13de 183d
00000080: 0543 d43d 8418 6b3d fb4f acbd b77f 553c
00000090: a2d5 803c fb84 1a3d a8e7 c9bc fd96 9bbd
000000a0: 9cee f73d 4fd6 93bc 4649 55bd 1596 ef3d
000000b0: ab30 23bd 8cd3 32bd ca26 a53d a2c8 91bd
000000c0: a42d 953d a3db 063e 4b36 123e 4789 7b3d
000000d0: 5689 d0bc b6e5 23bd c57f 45bd 4df2 f93c
000000e0: 308c d03c 7390 2c3d efcc 603d be72 d13d
000000f0: ce84 96bd 9aaf fd3c f3c8 7ebd f03d d03c
00000100: d977 bf3d 7ea5 ad3d ba98 513d 3687 923d
00000110: 5c06 a13d 8e4d b6bd 5439 82bc 0a5e 223c
00000120: 7d03 b7bd db96 933d f62a b23d 3eda a43d
00000130: 36e4 d6bc ea17 043e 0a0c f7bb 7539 fabc
00000140: fb7a b43d c444 493d c4bf e0bc 9ed8 793c
00000150: c3f3 eabc 4f22 15bd 571e 69bd 8244 25bd
00000160: a1fc 54bb fe38 103d 151e f73d 44b2 04bd
00000170: a951 2dbd c3d4 7abd 3f87 2dbe 6e7d 24be
00000180: 7f9a a73c fd6c c7bd d9b7 47be 9bcb 6dbd
00000190: 888f adbd 828e 44bd fb8c ca3b 1f84 afbd
000001a0: feff 3abd 8ae0 4c3d a0a0 92bd 6afe e63c
000001b0: 369a 2abb 00b1 25bb 313e 2bbb 0817 84bd
000001c0: 8b63 063d 7239 d6bd 1de1 80bd 739c 813d
000001d0: 6945 15bd 4a67 45bd 6ebd de3b 560c 713c
000001e0: 3321 ac3d c6e7 c9bc 7a38 ddbd b402 48bc
000001f0: 9309 87bd 4f3e 81bd 478d 053d a616 babd
00000200: 9130 12bc 73bb a43c 5d93 aabd cf8b c33c
00000210: 8e34 873d 5523 7abd 4fa0 7e3d 78d1 573d
00000220: 1f7f 923c 358f b5ba 6577 c63d f77a a6bd
00000230: 0628 ca3b 93ea 82bd 4cad 37bd 20c2 fc3c
00000240: 8ecc 42bd b3a9 8cbc 652f 4d3d 5a1c 8cbd
00000250: 9b5d 963d c322 11bd 129b 65bd 35da f3bc
00000260: 104d b53d 140c cdbc aa03 a93d ab69 983d
00000270: e2dd 6d3d 1faf 153b c7dd 1f3d b138 b4bc
00000280: ab78 003e c66d bcbc 3a36 4bbc 9b1d 82bd
00000290: b5e6 283d fec8 aebc 3073 1b3e e04c 123b
000002a0: 3b91 17bd 4e23 513d 8aa6 cd3d 455c 283d
000002b0: bbd6 d5bd 765c 4a3d c4b6 f13c 0813 41bd
000002c0: c2e1 dbbd 9f38 923c 0f7a 0c3b ab9a 473d
000002d0: f59a a6bd 7498 d2bd c6ef d23b 6b82 99bc
000002e0: d96b b6bd 6064 7f3d 8e7d 6abc 1ca5 86bc
000002f0: 8bc1 a2bd 9cfa 113e 868d 8cbc ac7b 0d3d
00000300: 5af4 5ebd 78e9 b1bd 03aa 03bd 3eea 943c
00000310: 2343 93bd 6794 833c ffdd 62bd a580 d83d
00000320: a296 03bd 5421 5fbd 9f46 17be 4285 aebd
00000330: 327a 1ebd f31a 103d f064 a5bd c669 fdbc
00000340: 1a6f 7d3d 6e02 babd 81f4 9dbd 8775 a3bd
00000350: 067b 4f3d c658 513b 6bb6 fcbd c35c 7b3d
00000360: 0154 d03c bcfa 84bd c325 ab3d d22b 0bbd
00000370: fbd9 abbd f498 5f3d 5376 ccbd c777 c9bc
00000380: 69ca c5bb 6346 a33d c2de d73d f064 26bd
00000390: 5778 533d aab2 6abc e80f 54bc c4b6 bebd
000003a0: 8bf4 d1bb 5b8a 963d aba9 e03c cc7b 533d
000003b0: acfb 80bc a383 e13c 6ebb 9d3c dd91 11be
000003c0: 1434 743a f832 8b3b e45a babd 6e81 2a3d
000003d0: 83db bb3d 87a0 923d f2ed b3bd cc94 0bbe
000003e0: b6c5 d7bd 32f9 f73b a920 f0bc 67a9 afbc
000003f0: fd0c 84bb bba5 033c 3356 e63c aa0d febc
0.06725116 0.024119724 -0.07227526 -0.06479173 -0.12604876 0.04175226 0.053219434 -0.09077919
0.008293645 -0.043470208 0.035678845 0.020637149 0.042848304 0.03071266 0.039862104 -0.046345294
-0.11494343 0.03785061 0.017318413 0.058850292 0.14099172 0.16006352 0.11030304 0.019927682
0.053019423 0.025358692 -0.035971068 -0.061237942 0.014125641 -0.09455064 0.060276974 0.03732116
0.103643455 0.057396427 -0.084136926 0.013030938 0.015726868 0.037724476 -0.024646595 -0.07597158
0.12106058 -0.018046526 -0.052071832 0.11698548 -0.039841335 -0.043658778 0.08064039 -0.07118346
0.07284096 0.13169722 0.14278524 0.061410215 -0.025456112 -0.04001399 -0.048217554 0.030511046
0.025457472 0.042129945 0.05488294 0.102269635 -0.07349549 0.030967522 -0.06220336 0.02542016
0.09349031 0.08478831 0.051171042 0.07154696 0.07862541 -0.08901511 -0.015896477 0.009910116
-0.08936212 0.07206508 0.086996004 0.08049439 -0.026231866 0.12899747 -0.007539277 -0.030544976
0.08812519 0.049137846 -0.027435191 0.0152493995 -0.028680688 -0.036409672 -0.0569137 -0.040348537
-0.0032499211 0.035210602 0.120662846 -0.03239657 -0.042314205 -0.06123806 -0.16946124 -0.16063473
0.020459412 -0.09737585 -0.19503726 -0.0580555 -0.08474642 -0.04798747 0.006181357 -0.08570122
-0.04565429 0.050018825 -0.07159543 0.028197486 -0.0026031858 -0.0025282502 -0.0026129598 -0.06449705
0.032809775 -0.104601756 -0.06292937 0.063286684 -0.036443148 -0.048194207 0.006797484 0.014712414
0.0840477 -0.024646651 -0.10801788 -0.012207676 -0.06593623 -0.063107125 0.032605436 -0.09086351
-0.008922712 0.020108914 -0.083288886 0.023870377 0.06601821 -0.06106885 0.0621646 0.05269
0.017882882 -0.0013851883 0.096907414 -0.081289224 0.006169322 -0.06392398 -0.044843003 0.030854285
-0.04755836 -0.017170763 0.050094027 -0.06841345 0.073420726 -0.035433542 -0.05605609 -0.029767135
0.08852589 -0.025030173 0.08252652 0.074420296 0.058072932 0.0022839976 0.039029863 -0.021999689
0.12546031 -0.023001563 -0.012403065 -0.06353303 0.041235644 -0.021336075 0.1518066 0.0022323653
-0.037003737 0.05105906 0.100415304 0.04110362 -0.10441347 0.049404584 0.029506095 -0.04713729
-0.10736419 0.017849265 0.0021435057 0.048731487 -0.081350245 -0.102829844 0.0064372746 -0.018738946
-0.08907289 0.062351584 -0.014312161 -0.016436152 -0.07947072 0.14255756 -0.017157327 0.03454177
-0.05443225 -0.08687109 -0.032144558 0.018178102 -0.0719054 0.016061975 -0.055387493 0.10571412
-0.032126077 -0.054475144 -0.14773034 -0.08521511 -0.038690753 0.03518195 -0.08075893 -0.030934226
0.061873533 -0.09082495 -0.07712651 -0.07981401 0.050654434 0.0031943782 -0.12339481 0.06136776
0.025430681 -0.06493136 0.08356812 -0.033977337 -0.08391186 0.054589227 -0.09983506 -0.024593247
-0.006036092 0.079724096 0.105405346 -0.040623605 0.051628437 -0.014324823 -0.0129432455 -0.093122035
-0.0064073256 0.07350608 0.027424654 0.051631734 -0.015745007 0.02752859 0.019254413 -0.14215799
0.00093156216 0.0042480193 -0.09099367 0.04162734 0.09172728 0.071595244 -0.08785619 -0.1363098
-0.10535757 0.007567548 -0.029312449 -0.021443082 -0.0040298686 0.008035119 0.028117275 -0.031012375

0.features.0.1.weight f4 [16]
00000000: b01d 883f 4bce 713f b19b 843f e659 7d3f
00000010: 18b0 673f a852 7d3f baa1 883f 94f8 813f
00000020: 2439 793f 8722 753f 55c2 873f 8cea 693f
00000030: 94da 843f 5112 713f 94fd 783f 06ab 7f3f
1.063406 0.94455403 1.0360013 0.989653 0.9050307 0.9895425 1.0674355 1.0153985
0.97352815 0.9575581 1.060618 0.91373515 1.0379205 0.94168574 0.9726193 0.99870336

0.features.0.1.bias f4 [16]
00000000: aded 0b3e de74 273e db99 c13d ad36 0c3e
00000010: 1ce7 243e 1f33 423e f645 023e 0fd3 953e
00000020: 17a5 243e 1caa 2e3e 716f cc3d 4bde 9e3d
00000030: 8d3b 253e 228d dc3d 92d0 b53d 9489 3a3d
0.13664885 0.16353175 0.09453174 0.13692732 0.16103786 0.18964814 0.12722 0.29262587
0.16078602 0.17057079 0.09982193 0.07757243 0.16135998 0.107691064 0.08877672 0.04554136

0.features.0.1.running_mean f4 [16]
00000000: 890d ef3c 8b1a b5bc 4e8c 54bd f196 26bd
00000010: f952 03bc 3a40 8e3c 6aa6 af3c 3064 17bd
00000020: 71d2 e0bc ab91 4bbc de28 613d cdf1 d73c
00000030: 3d44 2a3d bf86 be3b 0b33 45bd 4070 28bd
0.029181259 -0.022107383 -0.051891617 -0.040671293 -0.008015388 0.01736461 0.021441657 -0.03696078
-0.027444096 -0.012424867 0.054970615 0.026360417 0.041568983 0.005814403 -0.04814438 -0.041122675

0.features.0.1.running_var f4 [16]
00000000: fac5 113f b67c f03e aaff 4a3f 52a2 0b3f
00000010: 19bc 603f 2ee9 4b3f 2b24 b53e c92d 273f
00000020: f39d 173f 2393 4c3f c727 563f 20cb aa3e
00000030: c458 873f ce20 693e 6d19 a33f 36b8 a13f
0.56942713 0.46970147 0.7929636 0.54544556 0.87787014 0.7965268 0.35379156 0.6530424
0.59225386 0.7991201 0.83654445 0.33358097 1.0573964 0.2276642 1.2742134 1.2634342

0.features.1.0.block.0.0.weight f4 [16, 16, 3, 3]
00000000: 82cb 46be a147 de3d f9b1 babb 1d4d 3a3e
00000010: 4a76 cd3c 6399 80be 8446 0cbe 1280 dc3c
00000020: 1257 1fbe fe86 36bd 74fa a1bd 2886 013d
00000030: 645a 363b ba23 1ebe e910 56bd ae4a 63bd
00000040: f47c 95bc 96e1 d33d 9752 7e3d 8645 4ebe
00000050: 9437 023e b74b 5e3d cffb 09be 0a50 9ebb
00000060: 69b4 ce3c 8713 acbd 0e79 b63d a8b4 f8bd
00000070: 2d48 aebd 9bd7 633e 2a40 d3bc 31bd 82bc
00000080: 9fc9 333e bc87 6d3d f5f4 f33d 7940 ea3d
00000090: c67c df3d 650a 47be c7bf d9bd 7930 653d
000000a0: f9d4 053c 3297 79bc b6c1 173c dbb3 523c
000000b0: 8e63 b7bd 1fda 5abd bc38 013d 82da e8bd
000000c0: 6c07 a2bd ba3b b73c 87c2 adbd 729c d4bc
000000d0: 60b8 1fbd afba 12bd cb9a b83d a79c 8fbd
000000e0: 4ad4 87bd 9d19 78be 853b db3c 0f5d 04be
000000f0: 9af1 c1bc ada5 2dbe e38b 66bd d2e2 72bb
00000100: 56b5 193e e5c1 02bd 6e70 6f3d a1ec 8f3d
00000110: 0db7 bf3d fbba 8dbd 8b47 20bd 85ae 943d
00000120: 3421 8e3d 78aa 0abc 8557 c7bd b832 04be
00000130: 60cf 5b3c c0d3 f4bd 0c0b 283e 003f 663e
00000140: 6b90 fa3b 68da 67bd e7b4 383e 4cf1 0d3d
00000150: 1cc4 dbbc ea98 173e ffd0 b1bd d785 933c
00000160: 778b 853d b433 943d f188 eabd 72ab 933d
00000170: bc0a 10be d760 91bd 17fd d7bd 3013 8abe
00000180: a648 523d 00c2 a8bd 2234 e13d cb26 e83c
00000190: d29a c23c 7d24 3cbe a2f4 24be 129e 253e
000001a0: 0cc4 4f3c 3003 97bd 574f 81bd 0b5f 66be
000001b0: 2d30 d9bd 149e ce3d 4db4 c23d 5c0d 8abd
000001c0: 2145 64bd 9c5b 3bbe 626e 49be 4721 c13d
000001d0: 965c ea3a b08e 47be ff5f 8b3b dd6d cf3d
000001e0: b070 abbd 01d3 353e de29 b5bd fc27 fbbc
000001f0: 786c 28bc 9077 823d 329f a1bb c95c b5bd
00000200: 884f f2bd 0a23 b73d 65e3 b53d 0607 31be
00000210: 9093 78ba cc71 94bd 82b3 313e e295 363e
00000220: b670 f13d 2acb 5d3d 05e6 a53d eeb1 1abc
00000230: 9451 353e 8045 4dbd d1c9 253e 235b b23d
00000240: 76d8 6dbd 0075 1abd ace7 cf3d 5cab f03d
00000250: feb0 70be 6df4 1abe 56af 52be b242 45be
00000260: b8e5 7abe 6c74 4ebc 12a5 23bd 1f06 38be
00000270: b446 d33d 0071 513e a235 c03d 637e 103e
00000280: 9f29 c03e 58e2 15be 9404 e33c 337f 0cbe
00000290: 041b 9bbd 901f d9bd b7e0 edbd af85 1bbe
000002a0: 2021 0a3e 458f a8bd 16a0 d7bd 17c4 16be
000002b0: 14d2 ca3c 109c f03d e566 823c 2978 d03d
000002c0: 48e4 da3d ba9a 003e b456 0e3e 4325 573e
000002d0: 3ba4 3a3d 990f 2d3e cbb6 8d3d 63e0 20be
000002e0: 8f71 d43b 88a5 a43d d4c4 ebbd c21c 8bbc
000002f0: 0a86 d13c 1316 483c 147a e3ba 32ac 9e3d
00000300: 9685 64be 02af 82bc 5fab 563b 2b2d 3abe
00000310: fe15 b1bb 978f 1ebe f6fd b83d 9620 babb
00000320: 5a53 2c3e f0d1 82be 25c7 813c 17de e3bc
00000330: 4e29 b6bd 9458 c73d e9b1 503d 88c7 1cbe
00000340: 38eb a93d cc92 553d 9026 52bc 4b1a d8bc
00000350: fc12 a03c fa70 b0bd 29ca 363e 7ef0 643b
00000360: 98c5 edbd 7ca9 323e a874 2fbc 28cc 603d
00000370: d2ed 623e 58d1 9abd 6151 a43d f4c5 323d
00000380: d590 b6bc 855e e83d 2181 e7bc 2a54 f1bd
00000390: 6f0b 06be d435 d6bc c562 08bd 24b0 aa3d
000003a0: c8d7 b23e f6c0 62bc cd35 41be c8d4 96bd
000003b0: 63cd 8bbc ee0b 133d 3b60 83bd bba4 e8bc
000003c0: e807 2c3c fc6a 283e bba8 4fbe e933 e63a
000003d0: 101e 063e 17aa 89be 0dac 63be b148 8f3d
000003e0: 4f1a 8c3d aca9 ab3e 0f35 933e 16a8 00bd
000003f0: b94a 183d 2587 86be 5a1e 2bbe e33a 3cbe
-0.1941357 0.10853506 -0.0056974855 0.18193479 0.025080819 -0.25117025 -0.13698775 0.026916537
-0.15560558 -0.044562332 -0.07909098 0.031622082 0.0027824873 -0.15443316 -0.05226222 -0.055491142
-0.018248059 0.103457615 0.062090483 -0.20143709 0.12716514 0.054271426 -0.13474964 -0.0048313187
0.02523251 -0.08402162 0.08909808 -0.121438324 -0.0850986 0.22250216 -0.025787432 -0.015959354
0.17557381 0.057990775 0.11911956 0.114380784 0.109124705 -0.19437559 -0.10632282 0.05595443
0.008168452 -0.015233802 0.009262493 0.012860264 -0.089545354 -0.053430673 0.031548247 -0.11369802
-0.07911572 0.022367347 -0.08484369 -0.025953505 -0.038994193 -0.035822567 0.090138994 -0.07012301
-0.06632288 -0.2422852 0.02676178 -0.12926124 -0.023674775 -0.16957732 -0.05628575 -0.0037061465
0.1501058 -0.031923193 0.05845683 0.07027555 0.09361086 -0.06920429 -0.03913073 0.072598495
0.06939927 -0.0084634945 -0.0973349 -0.12909973 0.013416141 -0.119544506 0.16410464 0.2248497
0.0076466105 -0.056604773 0.18037759 0.034653947 -0.02682691 0.14804426 -0.08682441 0.018008156
0.065207414 0.07236424 -0.11451901 0.07210435 -0.14066595 -0.07098549 -0.1054632 -0.26967764
0.051338814 -0.082401276 0.10996272 0.02833881 0.023755465 -0.18373294 -0.16108945 0.1617358
0.012681019 -0.07373655 -0.06313961 -0.22497194 -0.10604892 0.10088745 0.09507046 -0.06740829
-0.05572999 -0.18296665 -0.19671014 0.09430175 0.0017880376 -0.19488025 0.004253387 0.10128377
-0.08371103 0.17756273 -0.08845876 -0.030658714 -0.010279767 0.06370461 -0.0049323076 -0.08855588
-0.11831576 0.0894223 0.08881263 -0.17287835 -0.0009482438 -0.072482675 0.17353633 0.17830613
0.11789076 0.05414883 0.08100513 -0.009441836 0.17706901 -0.05011511 0.16190268 0.08708789
-0.05806776 -0.037709236 0.1015161 0.11751434 -0.23505017 -0.15132304 -0.20574698 -0.19263723
-0.24501693 -0.012600999 -0.039952345 -0.17971085 0.1031622 0.20453262 0.0938523 0.14110713
0.37531754 -0.14637125 0.027712144 -0.13720398 -0.07573512 -0.10601723 -0.116151266 -0.15187715
0.13489199 -0.082304515 -0.10528581 -0.1472324 0.024758376 0.117485166 0.015918205 0.10179169
0.106880724 0.12559023 0.13900262 0.21010308 0.04556678 0.16900481 0.069196306 -0.15710597
0.006483264 0.08039385 -0.11512151 -0.016981486 0.02557661 0.012212294 -0.0017355108 0.077476874
-0.22316584 -0.01595259 0.0032755954 -0.18181293 -0.005404233 -0.15484463 0.09032814 -0.005680154
0.16828671 -0.25550795 0.01584203 -0.027815862 -0.08894597 0.09733692 0.05095092 -0.1531049
0.082968175 0.05214195 -0.012826577 -0.026379725 0.019540302 -0.086152986 0.17850555 0.0034933384
-0.11609954 0.17447466 -0.010708965 0.0548822 0.22161034 -0.075594604 0.08023334 0.043645814
-0.022285858 0.11346153 -0.028259816 -0.11783631 -0.13090299 -0.026148714 -0.03329732 0.083343774
0.34930253 -0.013839951 -0.1886818 -0.073648036 -0.01706571 0.03590005 -0.06414839 -0.028398862
0.010499932 0.16447061 -0.2027921 0.0017563078 0.13097405 -0.2688758 -0.22233601 0.06996287
0.068409555 0.33527887 0.28751418 -0.0314103 0.037180636 -0.26274982 -0.16710797 -0.18381839

0.features.1.0.block.0.1.weight f4 [16]
00000000: bb92 7b3f 7e9d 5a3f f66b 623f 8cb0 773f
00000010: ed2c 6b3f 1929 9a3f 659d 823f 8a2b 6d3f
00000020: 7beb 753f 7f49 933f 5b17 7f3f 98cc 6a3f
00000030: bd38 6d3f e703 813f b097 6c3f 7ddb 743f
0.9827077 0.85396564 0.88445985 0.96753764 0.91865426 1.2043792 1.0204283 0.9264456
0.9606244 1.1506804 0.9964501 0.91718435 0.926647 1.0079316 0.92418957 0.9564741

0.features.1.0.block.0.1.bias f4 [16]
00000000: 9210 8b3d fc78 953d 6c95 a83d d83d 66bc
00000010: fcd8 073e 362d 82bd 3944 863c f72d 703d
00000020: f5ff 3d3d 776b 6d3c a4a3 e43c 517f eb3d
00000030: 5ae3 a53d a563 173d e565 3dbd b158 823d
0.0679027 0.072984666 0.08231625 -0.014052831 0.13266367 -0.063562796 0.016389953 0.058637585
0.046386678 0.014490954 0.027910061 0.11498893 0.081000045 0.036960263 -0.046239752 0.06364573

0.features.1.0.block.0.1.running_mean f4 [16]
00000000: 6b67 ccbe 3796 edbd 6a87 18bf 25a8 6a3e
00000010: fe8b 65be b52b cdbf 33ae febe 2950 9d3e
00000020: 5136 13bb ae48 c2bf 486c ba3d 9a92 3c3e
00000030: a65a 7c3e c4a7 4c3e 840f 3cbf eabc 723e
-0.39922652 -0.11600917 -0.59581625 0.22915705 -0.22416684 -1.6028963 -0.49742278 0.3072522
-0.0022462795 -1.517843 0.09102684 0.18415299 0.24643955 0.19985873 -0.73461175 0.23704877

0.features.1.0.block.0.1.running_var f4 [16]
00000000: 6459 ff3f a394 1140 2a37 cd3f bd96 b93f
00000010: 3bcf fc3f 89eb a63f a916 3440 83f7 0a40
00000020: 345b dd3f 2574 a33f f21a 3840 44b5 0a40
00000030: b58e ed3f 5072 1b40 5cf3 5a40 3c6d 0740
1.9949155 2.274697 1.603246 1.4499127 1.9750742 1.304063 2.813883 2.171357
1.7293458 1.276982 2.8766446 2.1673136 1.8559176 2.428852 3.4211035 2.1160421

0.features.2.0.block.0.0.weight f4 [64, 16, 3, 3]
00000000: 195b bf3d 5d28 0a3d 300d db3c aeea f3bc
00000010: 6a92 4abd 7ac4 f43b dc5c 9dbc 88b1 08bd
00000020: bf94 e53c d839 38bd 1712 7e3d cec1 cf3c
00000030: 306b 51bd d86e fd3c bf37 7fbd 026b 10bd
00000040: 49c9 a83c 5e75 62bd 5117 063c 7386 bbbc
00000050: b588 dbbd 21a8 63bd 29eb 943c 83a9 57bd
00000060: 8173 3cbd f6f1 0ebe 414d a03d 866e b1bd
00000070: c366 8d3c 5fbf 04bd a46a a43a ec72 a9bc
00000080: 0a39 033d 525e 8f3c f72f afbd 108d b3bd
00000090: 147a 253d 3973 903d afe3 953d 8f8c c33c
000000a0: f504 043c 5626 ae3d 4551 74bd 4286 d73d
000000b0: d38e 16bd 04f7 1fbd b882 8cbd 9b95 09bd
000000c0: 8ef4 84bd fe91 98bd dac4 6b3b 503c 0d3d
000000d0: f062 6ebc 762f 7a3c e28f b1bc 3ba3 fc3b
000000e0: a24c 6f3c 7bff 983d a096 093e 5906 f73c
000000f0: 7402 9b3d 9d57 97bc 6d86 303d c48f 113d
00000100: 3409 bcbc dafb 8e3b 88f0 d0bd 1680 00be
00000110: 2313 e1bd 6ce0 90bc b892 1a3d db68 20be
00000120: bbf8 b23c 503f ed3b 581e e63c e248 05bd
00000130: 3a9b c33b 06ac b03c d2cc debc 0339 3f3d
00000140: 2bb0 ebbc 7862 693c 7313 c03c 2e46 c0bd
00000150: 10ff 673c d481 c23c b1b0 7b3a 0741 e138
00000160: c1be 713c afd9 1a3d 3ce2 903c dfea 483b
00000170: 160e db3c 9192 b33b cd5e 05bd 214f ed3b
00000180: 9ef2 95bc 2655 f93d cbea 4e3d 698f 39bc
00000190: 3e1f c6bb 72ff af3d 1917 f23c a458 053e
000001a0: 1534 ad3c b96b 41bb a3a3 823d 0004 47bd
000001b0: 35f5 103d a790 c03d 288f efbc d63b 8bbd
000001c0: 3542 85bd 99ad 92bd ba34 51bd 761c 393d
000001d0: 435b afbd 9ae7 83bc 9172 acbd a72a 57bd
000001e0: 89c0 d73d a608 7dbc e469 a23d ac32 ec3d
000001f0: 97bc 80bd 947b 6dbd 4ac1 8bbc 8a0e 23bd
00000200: db23 a1bd 2e39 823c 76ce 873c 09d7 be3d
00000210: 221d 3bbd f1f6 893d a3c5 35bd cf2d 34bd
00000220: 25ac 183c 0456 7abc 66fd 22bd bc76 a23c
00000230: 0ad8 a43d a5ba 9e3c 9c4b e1bd 9f03 60bd
00000240: 7185 96bd 6b64 36bc cdb8 0b3d 7be8 81bd
00000250: 9249 2f3c ce42 ce3c 6288 623b a32a b53c
00000260: fb19 c03b d517 0ebd 443f 94bd 1e76 693c
00000270: ec12 a4bd 0fd0 6fbd 48e9 a7bd 9c77 273d
00000280: afee c0bd 6f5b ffbb 61e8 b4bd c1fc 9b3d
00000290: a0a8 10bb 778f a0bd e2ca ecbc 13aa ee3c
000002a0: 98a0 de3c 617b 24bd a4eb 30bc f96f e9bc
000002b0: 5187 c43d 524e 803c 5b15 6c3d a9b5 2f3c
000002c0: c412 603a 9b4b ca3c c495 bc3d 7050 113c
000002d0: 0eef 913b 9cd0 d83c 6aea 19bd f28e c53d
000002e0: dcb4 0d3d 1087 c5bb ef3b bfbd eb01 d2bd
000002f0: 8579 bbbc 0680 0d3e 3abc 623d efc7 14bd
00000300: 623e 7d3d 9f81 c53d 8ea2 c93d abbe 283c
00000310: b02b 0f3d add5 833c 9846 30bd 6ec5 1e3b
00000320: 7c30 2bbb 2606 80bd 41a1 57bd d5be 3f3c
00000330: 6a79 063d f993 443d 40cd 82bd 5162 0dbd
00000340: c594 793d d7dd d0bd b751 f33c 9621 113d
00000350: b0b2 b43d b12d 053d 412c e0bc 988e f73d
00000360: 0ce1 80bd 0c8e d2bd cf35 51bc e989 7fbd
00000370: 2d2b 943d 8eb8 9b3d 6117 243c 62cc 14be
00000380: b5f4 dcbd ec51 a1bc 0bf4 b0bc b990 ea3c
00000390: 9fd4 02bd c100 49bd 2444 aebc 9a7d 86bd
000003a0: b545 53bd 1ad5 b7bd bdf9 cd3c ac0a 85bd
000003b0: 9e84 3d3e 9890 ab3b f86d 03bd 54e3 e43b
000003c0: 08b5 cbbc 4d89 963d acf2 2bbc 5cf3 c8bd
000003d0: e68c 9abb 2b04 533c cbc7 7b3c 8de0 aabc
000003e0: 37e1 a9bd ab4c 3cbd a839 c43c 7a5b 223d
000003f0: 814b 87bb 1b2e 4fbd 7874 3abe a866 a83d
0.093435474 0.0337299 0.026739687 -0.02977499 -0.049456038 0.007469711 -0.019209318 -0.033372432
0.02802503 -0.04497704 0.06202897 0.025360968 -0.051127613 0.030936643 -0.062309023 -0.0352583
0.020603793 -0.05528771 0.00818427 -0.022891259 -0.10719434 -0.055580262 0.01817854 -0.052651893
-0.04600859 -0.13959488 0.07827235 -0.08663659 0.017260915 -0.03240907 0.0012543988 -0.020684682
0.03203682 0.01750103 -0.085540704 -0.0876714 0.040399626 0.07053227 0.07318818 0.023870734
0.0080578225 0.08503406 -0.059647817 0.105236545 -0.0367573 -0.03905393 -0.0686087 -0.03358994
-0.064919576 -0.07449721 0.0035975487 0.034481347 -0.014549956 0.015270105 -0.021675054 0.0077098883
0.014605673 0.07470604 0.13436365 0.030154394 0.07568827 -0.018474394 0.04309695 0.035537496
-0.022953607 0.004363519 -0.10202128 -0.12548861 -0.10989978 -0.017685138 0.03773758 -0.15664999
0.02184712 0.0072402135 0.02809064 -0.03254021 0.005969432 0.021566402 -0.027197275 0.04668523
-0.028770527 0.014244668 0.023446774 -0.09388386 0.014159933 0.023743547 0.0009601219 0.00010740948
0.014754952 0.037805256 0.017686002 0.0030657572 0.026740115 0.0054801186 -0.032561112 0.007242099
-0.018304165 0.12174444 0.050516885 -0.011325696 -0.006046205 0.08593644 0.02955203 0.13022095
0.021142999 -0.002951367 0.063788675 -0.0485878 0.035390098 0.0940259 -0.029243067 -0.06798522
-0.065067686 -0.071620174 -0.051075675 0.045193158 -0.08562329 -0.016101647 -0.08420289 -0.05253091
0.1053477 -0.0154439565 0.07930353 0.115331024 -0.06285971 -0.05797918 -0.01705994 -0.039808787
-0.07868167 0.015896406 0.01657794 0.093183585 -0.04568208 0.067365535 -0.044377934 -0.043989
0.009318386 -0.015279297 -0.03979244 0.019832008 0.08049019 0.019376108 -0.110007495 -0.054690953
-0.07349671 -0.01113234 0.034111787 -0.0634317 0.010698693 0.02517834 0.0034566154 0.022115057
0.005862472 -0.034690697 -0.072386295 0.014249353 -0.080114216 -0.05854803 -0.08198792 0.040885553
-0.09420525 -0.007792882 -0.08833385 0.07616568 -0.0022073165 -0.07839864 -0.028905336 0.029133832
0.027176186 -0.040156726 -0.010798369 -0.028495776 0.09596122 0.015662346 0.057637554 0.0107244635
0.0008547718 0.024694255 0.09208253 0.008869275 0.0044535464 0.02646666 -0.03757707 0.09646405
0.03459631 -0.0060280636 -0.09337603 -0.10254272 -0.022885093 0.13818368 0.055355288 -0.036323484
0.06182707 0.09643864 0.09845458 0.010299365 0.034953773 0.0160931 -0.043036073 0.0024226564
-0.0026121428 -0.06251173 -0.052644018 0.011703213 0.032830633 0.04799268 -0.063868046 -0.03451759
0.060932893 -0.101985626 0.02970205 0.03543242 0.088231444 0.032514278 -0.027364852 0.120877445
-0.06292924 -0.102809995 -0.012769177 -0.06238738 0.072347976 0.076035604 0.01001534 -0.14531091
-0.10788862 -0.019692384 -0.021600744 0.028633462 -0.031941053 -0.049072985 -0.021272726 -0.06566925
-0.05158015 -0.08976193 0.025143499 -0.06496176 0.1850762 0.005235743 -0.032087296 0.0069851074
-0.024866596 0.07350407 -0.010494869 -0.09812042 -0.0047165034 0.012879412 0.015367459 -0.020859027
-0.082949094 -0.045971554 0.023953274 0.03963802 -0.004128874 -0.05058108 -0.18208492 0.08222705

0.features.2.0.block.0.1.weight f4 [64]
00000000: 02a3 803f c494 733f 152f 743f 9142 7c3f
00000010: 01ec 743f 25a2 aa3f 94ba 7c3f 0ef4 723f
00000020: 2464 773f ec91 8d3f d4e0 823f 7599 723f
00000030: a2ef 703f fd28 693f e65a 7d3f e805 793f
00000040: 2c91 743f 809a 8d3f 29ec 843f d4be 8a3f
00000050: 4718 723f ba56 723f 21a9 713f 324a 743f
00000060: 6e32 7c3f f418 7e3f 63dd 793f 29c5 763f
00000070: f776 793f e49a 803f 221f 733f 4c79 863f
00000080: 2c48 7f3f f9c2 703f 1b37 873f b755 863f
00000090: 8b99 7d3f 3461 9c3f 56bb 763f 59d2 793f
000000a0: ebcb 763f 4383 743f 9a5f 883f a652 803f
000000b0: c1d2 8c3f b9d6 713f 86b4 683f 2fea 7a3f
000000c0: 4bf4 7d3f 1d89 7e3f 4934 6c3f 2e85 723f
000000d0: f6ea 733f 1903 7b3f f418 803f be54 723f
000000e0: d9ab 803f 2ea8 773f 2cdd 823f f34a 8a3f
000000f0: 96f0 763f 880b 913f f0d8 7c3f 87d2 6f3f
1.0049746 0.95148873 0.9538434 0.9853907 0.95672613 1.3330733 0.98722196 0.9490365
0.9663718 1.1060157 1.0224862 0.94765407 0.9411565 0.9107817 0.98966825 0.9727464
0.95534015 1.1062775 1.038457 1.0839486 0.94568294 0.94663584 0.94398695 0.95425713
0.9851445 0.99256825 0.97603434 0.9639459 0.9744715 1.0047269 0.9496938 1.0505767
0.997195 0.94047505 1.0563692 1.0494908 0.9906241 1.2217164 0.963796 0.9758659
0.96404904 0.9551279 1.0654175 1.0025222 1.1001817 0.94468266 0.90900457 0.98013586
0.99200886 0.9942797 0.9226728 0.94734466 0.95280397 0.980516 1.0007615 0.94660556
1.0052444 0.96740997 1.0223746 1.0804123 0.96460855 1.1331644 0.9876852 0.93680614

0.features.2.0.block.0.1.bias f4 [64]
00000000: 280b c03d 7b24 5d3c 1acb a23d 482a 843d
00000010: d36e 293e 724a 11be 95ee 473d 9407 8d3d
00000020: e129 333c 237a 9abb 0319 cd3b a70d bd3d
00000030: d47f 973d 9c58 ce3c 33be 9b3d 0a3e d93d
00000040: 73f2 a83d 5ae6 2c3d 22d5 013d c2df ca3d
00000050: fbe5 853d 4985 b03d 2216 973d 6bed 363d
00000060: cc72 c43d 4601 ea3c 98c9 683d 5ae8 513d
00000070: 5371 af3d 0a6d 423d 94ec 963d 139c 8f3d
00000080: 6ff1 3f3c b511 503d d07e 6bbd 29d0 403d
00000090: 7105 513d ac4d 90bd 3680 523d 8c7c 9e3d
000000a0: 6637 183e d238 7a3d 5777 d33c 9cc3 893d
000000b0: ded4 b23d b68e a73d ab02 0d3d c36a 993d
000000c0: f592 ad3d dae5 ce3c c180 3f3d 5380 2fbd
000000d0: f0c2 ea3d 29c1 423d f9ab b93c d901 79bd
000000e0: d169 8a3d 2297 273e 08d3 803d 0ab3 c43c
000000f0: 7108 393d 5683 1d3e 4d4c da3d b282 a23b
0.09377128 0.013497467 0.07948895 0.06453377 0.16546182 -0.14188555 0.048811514 0.06886211
0.010935278 -0.004714267 0.006259085 0.092311196 0.07397428 0.025188737 0.07604637 0.10607536
0.082493685 0.042211868 0.0316974 0.0990596 0.06538006 0.08619172 0.073772684 0.044660013
0.09592208 0.02856506 0.05683288 0.05124698 0.08566537 0.04746727 0.073693424 0.07012191
0.011715277 0.050798137 -0.057493985 0.047073517 0.05103058 -0.07046065 0.051391803 0.07738599
0.14864883 0.061089344 0.025813742 0.06726763 0.087320074 0.08181517 0.034426372 0.07491066
0.084752955 0.025256086 0.04675365 -0.04284699 0.114629626 0.047547493 0.02266501 -0.060792778
0.06758464 0.16366246 0.06290251 0.024011154 0.045174066 0.15382132 0.106590845 0.0049594278

0.features.2.0.block.0.1.running_mean f4 [64]
00000000: 694f 7cbe 1612 a6be 8461 563e 0f40 12be
00000010: 5b10 f9ba 4ec4 0d3f fdfd a1bd 81ee 863e
00000020: 0a6b 96be 8ef1 6fbc bc7e e8be bdd1 513e
00000030: 0872 6f3e 51e4 dbbe 1d25 8ebe 1d7f adbc
00000040: a356 a23e ea57 d53b 2b5d e8bc cfb4 15be
00000050: 329f ad3d 682f b4bd 39f4 b43e e4c8 703e
00000060: e015 803e b92f 3c3b 9397 1abf b6c9 283f
00000070: 30fa 883e 28e4 4ebd f880 e8bd a530 a5be
00000080: 9dce 8b3e f0ca 7f3e 1c5d 23be cda4 40bf
00000090: f315 e53d e40c 8d3e 8787 42be 9e39 0cbd
000000a0: e182 743e 1e61 a7be 3c07 39bf 4fc9 653d
000000b0: 0dd8 cabe e760 48be 53bc 22be b826 a8be
000000c0: acdb 833f 6165 c8be 8d1e eb3c c25c ddbe
000000d0: 8bfe 66be 1726 243f 4f73 54bf 6daf 84bf
000000e0: 388e 5d3f 45fc 003f e379 f4be 12c4 803e
000000f0: 0233 d23d 75aa 973e 34cd c4be 649a 13bf
-0.24639668 -0.32435673 0.20935637 -0.14282249 -0.0019002067 0.5537766 -0.079097725 0.2635384
-0.2937854 -0.0146449935 -0.4540919 0.20490165 0.23383343 -0.4294763 -0.2776269 -0.021178776
0.31706724 0.0065107243 -0.028364738 -0.14619754 0.0847763 -0.087981045 0.35342577 0.23514134
0.2501669 0.0028714968 -0.60387534 0.65932786 0.26753378 -0.050510556 -0.11352724 -0.32263675
0.2730607 0.24979758 -0.15953487 -0.75251466 0.11185827 0.27548897 -0.18997012 -0.034234636
0.23878051 -0.32691282 -0.72276664 0.056100186 -0.3961796 -0.19568215 -0.15892152 -0.3284204
1.0301414 -0.39139846 0.028701091 -0.4323483 -0.22558038 0.6412062 -0.82988447 -1.0366036
0.86545134 0.5038493 -0.47749242 0.2514959 0.10263635 0.29622236 -0.38437808 -0.57657456

0.features.2.0.block.0.1.running_var f4 [64]
00000000: fbf0 8a3f 9d57 1640 f211 1940 0202 813f
00000010: ac13 4c3f 78b8 973e 650e f53e 6d1b 0840
00000020: 1406 cc3f b93f 8d3f e88d 953f 36f8 d13f
00000030: f74d f33f 0041 a53f 4dd4 803e 2502 0e3f
00000040: 0bf2 3e3f de75 353f 4656 7a3f bb2d 2a40
00000050: 4131 f13f 6ab0 aa3f a90b b83f dcb1 1240
00000060: d752 2540 d49f 883f 8df2 e03f a4d4 2240
00000070: 3976 2f3f 6dd1 513f 28fd 853f 0678 853f
00000080: 05b7 be3f 2b62 463f d3fd cb3f 7b89 d93f
00000090: 07a2 ce3f f9a3 ac3e f22f e53f 18c4 833f
000000a0: 4f06 423f f92f 0040 213c 903f 5d4f 843f
000000b0: f443 f53f 62b1 bb3f a67f b93f 6aac ca3f
000000c0: 1f1b 0d40 94a6 c03f 82d5 673f 7dc4 c73f
000000d0: c988 993f 478c b03f fd7e 883f 4475 2340
000000e0: 81db 7940 98c7 a13f 7325 0b40 1222 733f
000000f0: 798e 5b3f 99bd 5e3f d657 8a3f f30e 0f3f
1.0854791 2.3490975 2.3917203 1.0078738 0.79717517 0.29632926 0.47862545 2.126674
1.5939355 1.1035072 1.1683931 1.6403873 1.9008168 1.2910461 0.25161973 0.5547202
0.7458808 0.70882976 0.9778789 2.6590412 1.8843156 1.3335087 1.4378558 2.2921057
2.5831811 1.0673776 1.7574021 2.5442286 0.6853977 0.81960183 1.0467882 1.0427253
1.4899603 0.7749354 1.5936836 1.6995081 1.6143197 0.3371885 1.7905257 1.0294218
0.75790876 2.002928 1.126835 1.033672 1.9161363 1.4663508 1.449208 1.5833867
2.2047803 1.5050836 0.9056016 1.5606838 1.1994869 1.3792809 1.0663754 2.5540323
3.9040225 1.2639036 2.1741607 0.9497386 0.8576427 0.87008053 1.0808055 0.55882186

0.features.2.0.block.1.0.weight f4 [32, 64, 1, 1]
00000000: 3c0b a93d 42da 81be 5bcd cbbd 1343 0d3e
00000010: 5ee6 58be 10e9 803e 88f8 60be 40d9 afbe
00000020: 2282 c33e af01 f73b e2a3 a2bd 4ffe e33d
00000030: 0a3c 823e 201a 8bbe 9e34 43be 037c 6fbe
00000040: f126 a63d 676d d73e ec19 39bd a042 35be
00000050: 9194 733d aada 9fbd 3886 503b 72b4 81be
00000060: ab9e 56be d4c4 7a3e e2f1 173e 10f8 d9be
00000070: 9076 b7be 9828 c63e fed3 3a3e 89bf da3e
00000080: 7568 1f3e 72ae 943e 469b 0f3e 8bd1 093e
00000090: 2f4b 8cbe f1a0 31be 52fd cbbd ce97 283e
000000a0: 46b9 3b3d 5e23 1ebe 3f43 bb3e 8ae6 8c3e
000000b0: bcd8 2fbe d13e 18be f703 dc3e 63a5 e73c
000000c0: 43b0 363e d9f0 1cbe 2b36 39be a395 a2be
000000d0: 495d 72be baba 08be 6679 bbbe c4f3 1dbe
000000e0: 8f5d 1e3e 2b2a cdbe 4c18 7fbe f756 e43e
000000f0: 4885 70be f495 813e 44d6 aabe 3b81 433e
00000100: c730 84b9 b2de 1f3d 7765 acbd d600 4dbb
00000110: 898c 833c a0f3 823c 2b40 e53b 4878 bc3d
00000120: 7a2a 0e3e 6a6b 0a3f c09e 9f3d 7501 29be
00000130: 2fe7 463d d573 483e bbcd f8bd 4214 40be
00000140: de19 cabe 6a8f 823d d916 c4be 53a1 283e
00000150: 5ecf 893e 43d2 2e3e 4cc5 873e 5f98 dabc
00000160: 2b8e f1be c171 6a3d 136a a33d ddfc 9fbe
00000170: d6be 97be 0b93 48be 6119 1d3e 8f10 1c3e
00000180: 9e1a c83d c588 963e 3eeb 81be f564 7dbe
00000190: 19be 9a3e cb68 1cbe 0853 11be 7662 11be
000001a0: dd2d a63e 4ee5 30bd 5168 b23e f1db 8cbd
000001b0: 4895 263e 0600 d3be a358 4c3e 10d1 75bc
000001c0: 7f74 07be ba14 d0bd 3abe 8e3e bd11 143e
000001d0: fd8b 86bd 44e6 c03e 3299 c93e c6bb 51bb
000001e0: 33fc 1c3d 73c3 5abe 9502 b8be 790a 103e
000001f0: cad1 88be 4a41 cfbd 0eff f3bd 3567 7dbd
00000200: 54fa 5f3e 803e fa3e 96e0 a4bd 43b9 15be
00000210: abac 4bbe c4e7 cc3e f6f5 443e a1c6 d13d
00000220: 121e 483c 9b72 113e 7a82 c73e 216f 2b3e
00000230: 0126 54be 393c 81be 47f8 8bbe e768 1bbe
00000240: ea48 dd3d 22fc 7d3e 8e84 1abf e6a7 aa3e
00000250: bbf6 0b3d 7256 d8be cb87 e13d a84f a3bd
00000260: fdbf 013e 361d 9d3e 91f8 673d 6240 6fbe
00000270: cb81 b2be fc8b 2c3d 34dd 193e f5af 57bd
00000280: 9948 c53c 3f6b 1b3f ec3e 8e3e 8022 6b3c
00000290: 5ad9 683e 60f8 593d 6f91 8a3e 9be4 54be
000002a0: 4b6a 3bbc ba4b 8bbe db3e 81be 87d7 d93b
000002b0: dac3 dabe 31ca b5bd 24ad 123d 57c0 febd
000002c0: fe22 91be 110f 9abd 2d37 aabe f933 a53e
000002d0: 5f44 113d 9ccc 713e 2470 b53d b032 6e3d
000002e0: 705c db3c 2127 253f eaa9 323e 4c18 9a3d
000002f0: 8127 6c3e 8860 a63e a35e c2bd c8e7 3cbe
00000300: 813a 473d 9f68 ddbd 5fa9 183e 78ae 59be
00000310: 7f20 343e d041 203d 2379 3a3e 313a 683e
00000320: 2f36 4bbe baab c63d bc45 3a3e ad1b 11bc
00000330: 2c7f 373d e613 4b3d 90bb 103e 7adc 28be
00000340: 679d 16bc af3d aa3d 80f2 99be def6 d4be
00000350: 3f18 073e dc6f 423e b757 c1be 8c8d 113e
00000360: 0ca2 833c b474 183e 0208 fb3d 2e03 e23d
00000370: 0e08 f23d 63f5 f43e 560a 5f3e 57c3 253d
00000380: 3474 493d 3416 603d 53f8 f1bc 101e 03bf
00000390: b61b 68be 8874 1abe c718 733e 8a60 e13d
000003a0: da01 a3be fb40 ef3d 6eab 82be 8320 1a3c
000003b0: c668 3cbb 53e3 a73e 179a af3d cd83 383e
000003c0: 109e 6a3e 28ca 8bbd eb15 c9be 0a31 563e
000003d0: 99a7 d63e 768f 423e e808 7dbd 7042 8dbd
000003e0: 6419 fd3d 30b2 e73e bb10 5c3d 5cd0 04be
000003f0: 6995 87bd 8a9a 7e3e 29d0 25be 9aaf d83d
0.08254096 -0.2536183 -0.09951278 0.13795118 -0.21181628 0.25177813 -0.21969807 -0.34345436
0.3818522 0.0075380425 -0.079414144 0.1113249 0.2543643 -0.2716837 -0.1906304 -0.2338715
0.08112896 0.42075655 -0.045190737 -0.17701197 0.059467856 -0.07805379 0.0031818282 -0.2533298
-0.20958965 0.24489146 0.14838365 -0.4257207 -0.35832644 0.38702846 0.18244931 0.42724255
0.15567191 0.2903934 0.14024076 0.1345884 -0.2740111 -0.1734655 -0.099604264 0.16464159
0.045830987 -0.15443179 0.36574742 0.27519637 -0.17172521 -0.14867713 0.42971775 0.028277105
0.17840676 -0.15326251 -0.1808707 -0.3175479 -0.23668398 -0.1335248 -0.36616057 -0.1542502
0.15465377 -0.40071234 -0.24911612 0.445976 -0.23488343 0.25309718 -0.33366597 0.19092266
-0.00025213344 0.03903074 -0.084177904 -0.0031281016 0.016058223 0.01598531 0.006996175 0.09202629
0.13883391 0.5407015 0.07793951 -0.16504462 0.048560318 0.19575436 -0.12148615 -0.18757728
-0.3947286 0.0637501 -0.3829868 0.1646779 0.2691602 0.17072396 0.26517713 -0.026683984
-0.47178778 0.05723739 0.079792164 -0.31247607 -0.29637784 -0.19587342 0.15341713 0.15240692
0.09770702 0.29401222 -0.25374788 -0.24745543 0.30223158 -0.1527435 -0.1419183 -0.14197716
0.32456866 -0.043187432 0.34845212 -0.06877888 0.16267884 -0.41210955 0.19955687 -0.015003458
-0.13228033 -0.10160203 0.27879506 0.14459892 -0.065696694 0.3767568 0.3937469 -0.003200279
0.038326453 -0.2136362 -0.3593947 0.14066495 -0.26722556 -0.10119875 -0.11913882 -0.061866004
0.21872836 0.4887581 -0.08050649 -0.14621453 -0.19890086 0.40020573 0.19234452 0.102429636
0.012214201 0.14203875 0.38966733 0.16741611 -0.20717622 -0.2524126 -0.27337858 -0.15176736
0.10804923 0.24803212 -0.6035851 0.3333122 0.034170847 -0.42253453 0.110122286 -0.079741776
0.12670894 0.3068635 0.056633536 -0.23364404 -0.3486465 0.042125687 0.15025789 -0.05265804
0.024082469 0.6071052 0.2778238 0.014351487 0.22739163 0.053215384 0.27064082 -0.20790331
-0.011438916 -0.27206212 -0.25243267 0.0066480073 -0.42727548 -0.088764556 0.03580965 -0.1243903
-0.2834701 -0.07522405 -0.3324522 0.32266214 0.035465594 0.23613209 0.0885928 0.058153808
0.026777476 0.6451283 0.1744763 0.075241655 0.23061945 0.32495522 -0.09490707 -0.18447793
0.048639778 -0.108109705 0.1490836 -0.21257961 0.17590521 0.039125264 0.18210272 0.22678448
-0.19844888 0.09700723 0.18190664 -0.008856696 0.044799015 0.049579524 0.1413405 -0.16490355
-0.009192801 0.083125465 -0.30067825 -0.41594595 0.13192843 0.18987983 -0.37762234 0.14214152
0.01606848 0.14888269 0.12257387 0.11035763 0.118179426 0.47843465 0.21781287 0.040469494
0.049183086 0.054708675 -0.029537356 -0.51217747 -0.22666821 -0.15083516 0.2373992 0.110047415
-0.3183735 0.11682316 -0.25521415 0.009407165 -0.0028748973 0.32790622 0.08574312 0.18019028
0.22911859 -0.068256676 -0.39274535 0.20917144 0.41924742 0.19000039 -0.06177607 -0.068974376
0.123583585 0.45253134 0.053726893 -0.12970108 -0.066202946 0.2486364 -0.16192688 0.10580368

0.features.2.0.block.1.1.weight f4 [32]
00000000: f23d 813f affd 743f 7039 773f db52 793f
00000010: de59 803f dcf0 7f3f d6a5 813f cd80 783f
00000020: f929 853f fe39 7d3f c387 803f 4915 883f
00000030: 6f0b 703f 1b45 753f 3e14 763f fc34 7d3f
00000040: d2b9 743f 4406 723f 921b 7b3f a361 783f
00000050: 80af 7a3f 0ad2 833f 5a8c 803f d0a7 743f
00000060: 9e60 843f 182e 823f e777 883f d996 7a3f
00000070: 3e62 663f 2d58 813f b785 813f 5b59 833f
1.0097029 0.9569959 0.9657202 0.9739205 1.0027425 0.999769 1.0128734 0.97071534
1.0403434 0.98916614 1.0041431 1.0631496 0.93767446 0.9580857 0.9612464 0.9890897
0.9559604 0.9454081 0.98088944 0.9702398 0.9792404 1.0298474 1.0042832 0.9556856
1.0341985 1.0170317 1.0661591 0.97886425 0.89993656 1.0105034 1.0118932 1.0261644

0.features.2.0.block.1.1.bias f4 [32]
00000000: e705 ffbc 19a1 19bb 5835 12bd 7e14 e73b
00000010: cf07 6a3b 8548 013d a9be 933b 96f1 1e39
00000020: 4718 26bc 4976 883b 576c 483c b171 8abd
00000030: c49e ca3c ba1e 4bbd a6e0 553d e711 b1bc
00000040: 3a4a 053c 293b 94bc 4515 97bc fd71 27bd
00000050: 65bc 26bd e049 553c aa2d fe3c e2e1 c63b
00000060: 209b 46bd 0ea1 4e3d b946 913c 08ec 583c
00000070: 3fb2 b53c bde8 0bbc d793 eeb9 35f9 4bbc
-0.031130744 -0.002344197 -0.035695404 0.0070520034 0.003571022 0.0315633 0.0045088124 0.00015158052
-0.010137624 0.0041644913 0.0122328615 -0.06759966 0.024733908 -0.04958985 0.052216195 -0.021614982
0.008135373 -0.018094616 -0.01844276 -0.040880192 -0.04070701 0.013018101 0.031027634 0.006069408
-0.048487782 0.050446562 0.017733919 0.013239868 0.02217972 -0.008539376 -0.00045505047 -0.012449552

0.features.2.0.block.1.1.running_mean f4 [32]
00000000: 2503 e7bd 9e96 d6bc 90f2 043f e67d f33e
00000010: c7d5 a23e 84ea 3fbf 04fe 1fbd 8016 e3bd
00000020: 48a9 94bf aad4 61be 609c 1abe be96 ac3e
00000030: a4ba ab3d 8999 c83d 1a83 b53e e41d 113e
00000040: 9bf7 303f 4584 833d c478 1bbe d37e 13bf
00000050: ba62 833e d6a7 20be 6be3 adbe 68bd 00bf
00000060: a52c 90be 146d 24bf 4826 dbbe 0fcd 86bd
00000070: 23bb f13e db43 9f3e 0090 4ebe 46e1 e43e
-0.11279897 -0.026194867 0.5193262 0.4755699 0.31803724 -0.7496722 -0.039060608 -0.11088276
-1.161416 -0.22053781 -0.15098715 0.33708757 0.08385208 0.097949095 0.35451585 0.14171559
0.69127816 0.06421713 -0.15182787 -0.57615393 0.2566126 -0.15689024 -0.3396257 -0.5028901
-0.2815906 -0.6422894 -0.42802644 -0.065820806 0.47213086 0.31106457 -0.20172119 0.4470312

0.features.2.0.block.1.1.running_var f4 [32]
00000000: 2d6a 1f40 7081 ff3f 3dde 8e3f 0384 2f40
00000010: f7f6 0240 5898 0140 df16 2f40 5849 0c40
00000020: 65db 6940 3861 5640 ceb0 4140 91ac 1e40
00000030: 02b9 e53f 264e 983f e1f7 3640 8e2b b140
00000040: 6fb9 6940 de18 0240 c012 983f 0b8b 1340
00000050: 4665 2640 8940 1840 7990 473f 6d9b fb3f
00000060: 0116 2040 d034 733f 8479 1d40 20d5 4f40
00000070: 7a2b e33f fed2 2940 34fa 4c40 014e 7e3f
2.4908555 1.9961376 1.1161572 2.7424324 2.0463235 2.0249233 2.735771 2.1919765
3.6540158 3.3496838 3.0264163 2.4792826 1.7947085 1.1898849 2.8588793 5.5365667
3.651943 2.0327678 1.1880722 2.3053615 2.5999312 2.378939 0.7795482 1.9656807
2.501343 0.9500246 2.4605417 3.247383 1.7747643 2.653503 3.2027712 0.99337775

0.features.3.0.block.0.0.weight f4 [128, 32, 1, 1]
00000000: 8ef8 1dbd 0614 1e3e 443e 363d ed0e 8bbd
00000010: 3c43 b5bd 9945 26bd 0412 4ebd 2d5f 8d3d
00000020: 935a b33e c691 a23d 46c2 8dbc 9a5a 873d
00000030: 5473 9bbe bb55 bf3d 898e 993d c38f 923c
00000040: b594 65be 12dd bf3d b547 eabd 2045 d53d
00000050: a1fe d9bd 20b7 25be d53b 883d 21e8 8d3d
00000060: ed3e 50be 5cec 2d3e ce13 63bc caf2 edbd
00000070: 01ac 3e3e dcb7 a5bd b266 dc3c 7731 af3c
00000080: 63e6 373e 34bf 823d e650 d9bd ded1 1f3e
00000090: 1af9 85be 07e0 0c3e 7388 0e3e 6ffe b13d
000000a0: d46c 0cbb 93a3 2f3c dff0 54bc 9c63 55bd
000000b0: 5371 6c3d e690 5d3e 2c20 6ebd f621 aabc
000000c0: 872b 2e3b 1261 9ebd 495d d4bb bcd9 0d3e
000000d0: a66f ffbd 5142 de3d f0f8 10be ad4e d0bd
000000e0: 59c4 d73c 5570 703d e60f 8fbd 20f7 453d
000000f0: d9f4 30be acb4 343e 75c8 803c 569a 2b3d
00000100: c56f 543e 31c0 52bb b2bf 73bd 93f1 2fbc
00000110: 701e 203e c130 2fbd 0587 3f3e 2899 e33d
00000120: 63fc 76bd f397 01bd 7001 24be f7ec 01be
00000130: 612a c63d 4075 d9bd 27be 443c 2db7 d0bd
00000140: 9a29 ef3d aab1 173e 5ccd 13be 84e1 023e
00000150: 4f4e d1bb 791c 2d3d e44d 08bd cf45 8ebc
00000160: 9ddd 0c3e d523 b6bd 2ad0 993d d1eb 05be
00000170: 1b50 b13d 2cdd 793d c40f 1e3e af30 29be
00000180: 1784 a23d fc53 07bd fef8 f13d 5685 b2bd
00000190: 3684 153e 601b 86bd 086a 1d3e 443a 043c
000001a0: 574c 09be cb75 ca3d 52d3 0fbe 3521 c1bc
000001b0: 4827 27bd fd45 d43d 0996 cf3c 5fff 6abe
000001c0: 706b cebd 417d f6bd fbb8 eb3d d35e 4c3d
000001d0: b462 f9bd 4a5f 303d 458e bcbd 508d 9f3d
000001e0: 05b4 32be ce3f 4c3d 844a 7f3c 2f24 003c
000001f0: 9d0f 95bd 0129 083e 6bdc e2bd aace 5a3d
00000200: 61c7 933d 5b32 a13d a694 8bbd 9bfb 96bd
00000210: d99f 023e 0fa7 20be b9c8 2d3d 86b3 00bd
00000220: 4a0a f83d f22a 31be cf2c 6fbc b853 063d
00000230: 780c aabd 4c37 78bb 6012 4dbc 4ab5 2dba
00000240: 62c3 043c 508d 2c3e 7009 84be c34d 8f3e
00000250: 7d43 c53b 307c 07bc 758b cdbc 4b63 993d
00000260: 0193 fdbd 5755 45bd da3d 1ebe 883f d5bd
00000270: 8be2 943c b44b 993c 9b5c 163d 412a e03c
00000280: ed26 253c 16a3 cabd 5dc4 f53c daf6 efbd
00000290: fc1d dabd 0236 1c3e 6de2 c63d ddeb 803e
000002a0: f9fa 57be 2e83 be3c d1bb 183d dcf9 2dbe
000002b0: 9035 063e 0cfa 6b3e cb60 2bbe c8ce cb3c
000002c0: fd72 88be 606b cdbd 9fdc 233e c6d1 1f3e
000002d0: c014 79bb b5e1 7e3d 43eb 913d 0c15 41bd
000002e0: 4f3a 11bd e15b 923c cced 0cbe bdaa 2ebe
000002f0: de9b 573d 0768 6abd 6eb6 25be edc8 77bd
00000300: d2a7 1ebe aefa 363b c41e 0fbd f2ca 5dbe
00000310: 5c00 833d 6452 02be 6357 273e cdf5 91be
00000320: c6e0 3b3c e7b5 b23c 0997 7a3d 9812 733d
00000330: e16c b23d 5042 6abd e8e5 7dbe b22f 8abd
00000340: e17a 42ba 695a cf3d e128 2ebd 25aa 053c
00000350: 592a 03be b021 0a3e a982 94bd 23a0 b93b
00000360: 73e9 24bb e063 4bbc eebe 27bd 4740 bebd
00000370: cf28 dfbc 1df9 dabe 7c59 633e 848c d8bc
00000380: f391 2dbd 5405 1a3e b959 843d fb73 dabd
00000390: 6fb7 28be 216d 85be b4c5 113d ba08 51bd
000003a0: 326f 2e3c 960b f73d 23b8 a53c 3a70 313c
000003b0: d617 883c 41ee a03d a363 173d 7a4f 0abe
000003c0: fa75 9b3d c7cd 073e b55f 373e a908 243d
000003d0: 7637 e6bd 4ee5 0dbe de37 853d 2480 95be
000003e0: c30e f1bd 0bd4 8dbe 8a8b d93c 6468 2a3e
000003f0: 11b6 51be af54 b8bd 6dcc e4bd 34ca 48bd
-0.03856712 0.15437326 0.044492975 -0.06789956 -0.088507146 -0.040593717 -0.05031015 0.06902919
0.3503004 0.0793796 -0.01730455 0.06609078 -0.30361426 0.09342524 0.074978895 0.017890817
-0.22420008 0.09368338 -0.11439458 0.10413575 -0.1064427 -0.16183138 0.06652037 0.06929041
-0.20336504 0.16984695 -0.013859702 -0.11618574 0.18620302 -0.08091709 0.026904438 0.021385891
0.1795898 0.06384125 -0.10611133 0.15607402 -0.26166612 0.13757335 0.13919239 0.086911075
-0.0021427171 0.0107201515 -0.012996881 -0.052096948 0.057725262 0.21637306 -0.05813615 -0.020768147
0.0026576237 -0.077333584 -0.006480847 0.1385259 -0.12472467 0.108524926 -0.14157462 -0.10171256
0.026338743 0.05870088 -0.06985454 0.04833138 -0.17280902 0.17647046 0.015720585 0.041895233
0.20745762 -0.0032158012 -0.059508987 -0.010738748 0.15636611 -0.042771105 0.1870385 0.111131966
-0.06029929 -0.03163905 -0.16016173 -0.12688051 0.09676052 -0.10618067 0.0120082265 -0.10191188
0.11677857 0.14813867 -0.14433807 0.1278134 -0.006387509 0.04226348 -0.033277407 -0.017367272
0.13756414 -0.08893553 0.07510407 -0.13078238 0.08657857 0.06100194 0.15435702 -0.16522478
0.079353504 -0.033039078 0.118150696 -0.08716838 0.14601216 -0.0654819 0.15372479 0.008070532
-0.13408028 0.098857485 -0.14045456 -0.023575405 -0.040808946 0.10364912 0.025340097 -0.22948979
-0.10079086 -0.12035609 0.115098916 0.04989512 -0.12177029 0.043059625 -0.09206823 0.07790625
-0.17451485 0.049865536 0.015581731 0.007821127 -0.072783686 0.13296892 -0.11077198 0.053419746
0.07215763 0.07870933 -0.06815462 -0.07372209 0.1275629 -0.15688728 0.042427752 -0.031421207
0.121113375 -0.17301539 -0.014598086 0.032794684 -0.083031595 -0.0037874756 -0.012516588 -0.00066264404
0.0081032235 0.16850781 -0.2578845 0.27989015 0.006020008 -0.008269355 -0.025090912 0.07489642
-0.123815544 -0.04817709 -0.15453282 -0.10412508 0.01817443 0.018712856 0.03670941 0.027363898
0.010080081 -0.098943874 0.03000086 -0.11717005 -0.1065025 0.15254977 0.09711156 0.2517995
-0.21091832 0.02325591 0.03728849 -0.16989845 0.1310637 0.23044604 -0.16736142 0.024878874
-0.2665023 -0.10030246 0.16002129 0.15607366 -0.0038006753 0.06222697 0.07124951 -0.047139212
-0.035455998 0.017866077 -0.13762587 -0.17057319 0.05263888 -0.057228114 -0.16182873 -0.060494352
-0.15493706 0.0027920413 -0.03494145 -0.21659449 0.06396553 -0.12726742 0.16341929 -0.28507844
0.011467164 0.021815253 0.061179195 0.059343904 0.08712173 -0.057192147 -0.24794734 -0.067473784
-0.0007418823 0.10124666 -0.042519454 0.008158241 -0.12809123 0.13489413 -0.07251484 0.0056648417
-0.002516356 -0.012413949 -0.04095357 -0.09289604 -0.027241139 -0.42768183 0.22202104 -0.02643419
-0.042375516 0.15041095 0.06462426 -0.10666653 -0.16476224 -0.2605982 0.035588935 -0.051033713
0.010646628 0.12062757 0.020229405 0.01082998 0.016612928 0.07857943 0.036960255 -0.1350688
0.075908616 0.13262092 0.17907603 0.04004732 -0.11241047 -0.13857004 0.065047964 -0.29199326
-0.11770394 -0.27700838 0.026555795 0.16641384 -0.20479609 -0.09000527 -0.111718036 -0.04902096

0.features.3.0.block.0.1.weight f4 [128]
00000000: 9683 6b3f ed1c 123f 444d 473f 3bc7 683f
00000010: 745b 723f 359b 273f 8289 503f 27be 943f
00000020: 1183 923f 82ea 7d3f 54ae 7d3f 5482 793f
00000030: 210a 463f 8a38 713f 2584 723f 24b5 6b3f
00000040: bb10 4c3f 70ce 653f 17cd 9b3e 18f3 8e3e
00000050: bb6d 723f 4a95 6f3f 70df 343f d923 443f
00000060: 1a9f 793f 2328 773f cc5a 223f 6d3b 2b3f
00000070: 3b1a f13e f5c2 753f 7032 5b3f dbcf 233f
00000080: 97f7 813f d487 813f b065 5f3f 5bf7 713f
00000090: 268d 4c3f 3016 503f b40d 993f a90d 723f
000000a0: 39c9 7c3f 7fca 7a3f 4a9d 6c3f 617e 5a3f
000000b0: 16a4 623f e8ab 6c3f 366d 6a3f cac4 2a3f
000000c0: df6c 673f d7c3 603f 8f86 3a3f 4c4b 203f
000000d0: f72b 553f 3c3e 5d3f a054 7b3f 70db 7e3f
000000e0: 7a9e 683f fcae 6c3f 7e7b 593f 02ad 613f
000000f0: 5c58 593f c6a6 723f 204c 783f 59be 6a3f
00000100: bc58 6b3f 5802 163f 2eef 623f 37cc 6b3f
00000110: 3a09 7a3f eff3 4c3f d01b 753f d074 313f
00000120: 9ed1 703f 9a6e 6e3f 9337 533f 56e6 373f
00000130: d5a3 6f3f 273b 5b3f 9e13 513f 9f84 673f
00000140: cc32 663f d3c6 6c3f 9857 473f a882 343f
00000150: 2303 723f 07fe 7f3f 05dd 713f cc90 633f
00000160: 5184 5c3f f4fb 503f ec2d 663f 9dad 5a3f
00000170: 2da0 333f 2288 833f 5257 6d3f 3e0f 7c3f
00000180: 51dd 5a3f f4e5 373f 4029 6d3f cbbc 8b3f
00000190: 9e26 583f 18f7 3e3f a285 673f ac18 463f
000001a0: 6eee 763f 03e1 793f d5ec 7e3f 562f 3d3f
000001b0: 64e4 423f a680 843f 7e5b 633f 21c6 6e3f
000001c0: a10c 653f c4d2 503f e3bf 833f 64bd 5e3f
000001d0: 6a81 3b3f 87c9 703f 276c 803f e68a 7a3f
000001e0: 6075 543f 7eac 983f 0593 5d3f d7b7 283f
000001f0: 18bc 633f b269 6e3f d42d 213f db90 a13e
0.9199766 0.5707539 0.77852273 0.90929 0.94670796 0.654712 0.8145982 1.162053
1.1446248 0.99185956 0.9909413 0.9746449 0.77359205 0.94226897 0.94732887 0.92073274
0.7971303 0.89768124 0.3042991 0.2791984 0.94698685 0.9358717 0.7065344 0.766172
0.97508395 0.9654562 0.63419795 0.6688755 0.47090325 0.96000606 0.85623837 0.6398904
1.0153683 1.0119576 0.8726454 0.9451806 0.79902875 0.81283855 1.1957307 0.94552094
0.9874454 0.97965235 0.92427504 0.8534909 0.88531625 0.9244981 0.9157289 0.66706526
0.904005 0.8779883 0.7286157 0.62614894 0.8327021 0.8642309 0.98176 0.99553585
0.90866816 0.92454505 0.8495406 0.88154614 0.8490045 0.94785726 0.9699116 0.916967
0.9193227 0.58597326 0.8864621 0.9210848 0.9767033 0.80059713 0.95745564 0.69318867
0.9406985 0.93137515 0.82506675 0.7183584 0.9360936 0.85637134 0.8167056 0.9043674
0.8992126 0.9249088 0.7786803 0.70511866 0.94536036 0.9999699 0.94477874 0.8889282
0.861394 0.8163445 0.8991382 0.8542116 0.70166284 1.027592 0.92711365 0.9846076
0.8549395 0.71835256 0.9264107 1.091699 0.84433925 0.74595785 0.9043828 0.77381396
0.96457565 0.97608966 0.99580127 0.73900354 0.76129746 1.035176 0.8881148 0.9327107
0.89472395 0.815716 1.0292934 0.8700774 0.73244345 0.94057506 1.0033005 0.9786819
0.829916 1.192764 0.8655246 0.6590552 0.88958883 0.9313003 0.62960553 0.31555828

0.features.3.0.block.0.1.bias f4 [128]
00000000: 197e 9b3d 4ca4 ba3e 61fe 5b3e 5ece a33d
00000010: 1256 333d 7240 203e dd77 f83d 1f5f 2fbe
00000020: b0c6 84be 976f 3a3c 8dbd 303e a5c3 0dbd
00000030: d6c3 f83d c34e 593b 3cf2 093d eb6b dc3c
00000040: 7fc9 0e3e 5d01 2c3d c510 ba3e d23f a73e
00000050: 6e26 5f3d 7e94 5b3d cd07 bd3e 98b2 083e
00000060: ba10 f8bc 23b0 5d3d 42fa 5a3e e7d5 293e
00000070: 9af0 7e3e 8867 143d 6322 8d3e cade 343e
00000080: 864c 1c3c 8e19 b23d 8757 ff3d eae5 223d
00000090: 00a3 063e 20d4 743d 2712 8ebe e391 033e
000000a0: c173 30bd 1da7 80ba 8268 983d 7631 603d
000000b0: 95d2 a83d bfeb 393d a0c3 bc3d f5d5 6a3e
000000c0: 6dbb 3c3e 4083 de3d e2bf 743e 5825 da3e
000000d0: bce6 ec3d 9dd7 813d f416 373d ca9d 0c3d
000000e0: e558 963d 3467 633e 1ae2 f73d 1c13 fd3d
000000f0: 2e99 c83d 48c5 d43d a2d5 e33c 70f0 883d
00000100: 202d 103e f0d5 a03e 337b 623e 1a9b c53e
00000110: 9bc1 113d 910f f23e 4385 193d eca5 423e
00000120: 8d0e 463d 1497 113e 17d4 2a3e 558f 703e
00000130: d8d7 6e3d eae7 cd3d 85e3 f93d 1d2a e93d
00000140: a489 e43d 99d3 2b3e 800e 3b3e eae8 0c3e
00000150: 3510 96bb e8fb 9c3d 9154 c63d cefb 493d
00000160: ddeb d83d 371a 1b3e cbff c03c bc24 b23d
00000170: a598 653e 5d1c cabc cbae 1b3d bf07 16bc
00000180: 2c38 cc3e 451b af3e 12fa a53e 163d 9a3b
00000190: aadc 003e 12f7 243e 15cc d13d eba1 133e
000001a0: 7b77 953d ac5b 023d ced6 19bc b914 253e
000001b0: 225c 413e 8d3a 16bb f57d 4a3d 477b 723d
000001c0: f0b6 253d a5d7 373e 8496 18bc 7d96 e83d
000001d0: 6301 2a3e 965f 3b3d e6b1 40bc d190 333d
000001e0: 9032 d03d 6428 e0be f042 ce3d 8029 3a3e
000001f0: 39ec 8d3d 0676 193e da04 7c3e 72a1 403e
0.075924106 0.36453474 0.21483757 0.07998346 0.043783255 0.15649584 0.12132237 -0.1712613
-0.25932837 0.011379144 0.17259808 -0.03461041 0.12146728 0.0033158518 0.03367828 0.026906928
0.13944052 0.041993488 0.3634092 0.3266588 0.05448001 0.05360841 0.36920014 0.13349378
-0.030281413 0.054123055 0.21384528 0.16585504 0.2489647 0.036231548 0.27565297 0.17663112
0.009539729 0.086962804 0.124678664 0.039770044 0.13148117 0.05977261 -0.27748224 0.1284862
-0.04307914 -0.0009815429 0.07441808 0.05473467 0.0824329 0.04539084 0.09217 0.2293318
0.18430872 0.10864878 0.23901322 0.42606616 0.115674466 0.06339953 0.044699624 0.034330167
0.07341174 0.22207338 0.12103672 0.123571604 0.09794842 0.10389191 0.027811829 0.06686485
0.14079714 0.3141322 0.2211731 0.38594896 0.035585027 0.472775 0.037480604 0.19008607
0.04835372 0.14217788 0.16682468 0.23492177 0.058311313 0.10054 0.12201599 0.113849856
0.11159065 0.16779937 0.1826725 0.13760725 -0.0045795687 0.07665235 0.096840985 0.049312405
0.10591862 0.15146719 0.023559472 0.08698413 0.2242151 -0.024671728 0.038008492 -0.00915712
0.39886606 0.34200493 0.3241735 0.004706989 0.12584177 0.16109875 0.10244004 0.14417236
0.0729818 0.031825706 -0.009389592 0.16121186 0.18882802 -0.0022923083 0.04943653 0.059199598
0.040457666 0.17953356 -0.0093132295 0.11356828 0.16602091 0.045745455 -0.011761164 0.04383928
0.10165894 -0.43780816 0.10071361 0.18179893 0.069298215 0.14986429 0.24611226 0.18811586
