code/modeling/ckpt/AutoencoderConfig([1, 1, 2], flip=False, rotate=True)/autoencoder_100.pth (torch, 538038 bytes, 87 tensors)

0.features.0.0.weight f4 [16, 8, 3, 3]
000000 e2 a9 72 bb 78 b7 da 3d c0 84 1f 3d fd b4 90 3d
       -0.0037027528 0.10679525 0.03894496 0.07065771
000010 7e 9e 9b 3d 6e 2a 0c 3e 54 a8 8e 3d fc 07 0a 3e
       0.07598589 0.1368806 0.069657 0.13479608
000020 14 eb 10 bc f9 73 b0 bd 41 0f 3f bd 4a b8 9a 3d
       -0.0088451095 -0.0861587 -0.046645407 0.075546816
000030 1a 41 c6 bd 14 d5 03 bc f8 18 d3 bd 9f 81 5a bd
       -0.09680386 -0.008046407 -0.10307497 -0.053346273
000040 61 61 b7 3b bd 87 d6 bc 98 1b bb bd 39 92 89 bd
       0.0055963253 -0.026187772 -0.091361225 -0.06717343
000050 21 59 9a 3c fb cb 51 bd 54 8f 1b bd 83 70 4d bd
       0.018841328 -0.05121992 -0.037978485 -0.050156128
000060 a8 41 80 3d f2 2d 5f 3a 21 20 1b bd 6c ac 22 bc
       0.06262523 0.0008513621 -0.037872437 -0.009928804
000070 21 c0 ca 3c 3b 64 63 bc 3a 0d b4 bd 5a a8 bc 3d
       0.024749817 -0.013878877 -0.08791585 0.09211798
000080 e0 f8 e6 bc ec 81 9b 3d 02 de c1 3d 6d 81 e4 bc
       -0.028194845 0.0759314 0.09466173 -0.027893746
000090 ef bd b8 bd 82 1a b4 bd 3a e0 90 bd 86 b8 6f ba
       -0.09020602 -0.087941185 -0.07074018 -0.00091446226
0000a0 84 6a a3 bd b5 c8 b8 3d 16 ab b7 bd 23 de e0 3d
       -0.079793006 0.09022657 -0.08968179 0.10979869
0000b0 96 f2 43 bb d6 91 de 3d 37 13 55 bd 04 1b f8 bb
       -0.002989923 0.1086766 -0.052020278 -0.00757158
0000c0 3d 3d d1 bd cb 15 63 3c b8 1f a4 bd 51 78 0a bb
       -0.102167584 0.013860176 -0.08013862 -0.0021128843
0000d0 ea af db bd 9f 0d 0a 3d 3e 1b a5 bd 73 b9 f5 bc
       -0.10726912 0.033704396 -0.08061837 -0.029995656
0000e0 90 36 c6 bc 45 cc 66 bd f4 f4 ef bd 8a fd 88 bd
       -0.02419594 -0.05634715 -0.11716643 -0.06688984
0000f0 ba 9a 8e bd 62 a3 af 3d 0b 68 cb bd 48 61 2d bd
       -0.069631055 0.08576085 -0.09931954 -0.042329103
000100 fa ac ad bd 7a a0 86 3d 87 08 e0 bd 8b 24 2a 3d
       -0.08480258 0.06573577 -0.109391265 0.041538756
000110 08 d4 5f 3d c1 a9 d8 bd fd 4e c9 3d 5c 19 92 3c
       0.054645568 -0.10579253 0.09829519 0.017834358
000120 18 e4 29 3d d2 8f bf 3d ce 46 24 bc 68 e5 4a 3d
       0.041477293 0.093536034 -0.010026647 0.049535185
000130 b3 c9 af bd 70 20 86 bd 90 b4 4e 3d dc 4d 8e bd
       -0.08583393 -0.06549156 0.050465167 -0.06948444
000140 a3 5b 65 bd 5d f4 04 be 42 87 85 3c 49 36 dd bd
       -0.055995595 -0.12983842 0.016299848 -0.1080137
000150 0d 64 b8 3d db d1 4e 3d fc 21 78 bd 26 14 a6 3d
       0.09003458 0.050493103 -0.060579285 0.08109312
000160 f4 58 1b bd 84 61 45 3b e9 0e ae 3c 51 64 5d 3c
       -0.03792663 0.0030117938 0.021247344 0.013512687
000170 12 de b7 bd 79 c8 35 bd 9e 7d cd 3c aa 0e ad bd
       -0.089779034 -0.04438064 0.025084313 -0.084500626
000180 7a 01 37 bd 34 0b e2 bd fc cb 67 3c 6d 77 97 bd
       -0.044679143 -0.11037293 0.014147755 -0.073958255
000190 8f 88 86 bc 55 53 26 3d 76 2b 4c bd d0 32 96 3d
       -0.016422538 0.040606815 -0.049846135 0.073339105
0001a0 b7 4e a3 3d 10 60 0f 3d a7 45 26 bd 87 a9 92 bd
       0.07973998 0.03500372 -0.04059377 -0.07161241
0001b0 2b dd 6c 3d 97 d0 5d bb c4 41 0c bd 48 e4 6f 3d
       0.05782811 -0.0033846253 -0.034242406 0.058567315
0001c0 94 a4 c7 bd 67 88 50 bd 04 f4 4b bd 57 44 71 bc
       -0.09748188 -0.050911333 -0.04979326 -0.014725766
0001d0 16 5e 68 bd 31 5f 1b bd 70 44 e9 bd e9 29 a9 3c
       -0.056730352 -0.03793258 -0.113900065 0.020649867
0001e0 df 08 91 3d 28 dd 48 3d 6d 3c 76 bd 2b 0e e8 bb
       0.0708177 0.049039036 -0.06011622 -0.007081767
0001f0 f1 ea 3e 3d 3d c0 6d bd 74 49 30 bd e9 6a 51 3c
       0.046610776 -0.05804466 -0.0430388 0.012781837
000200 55 df b6 bc 4b 25 63 bd bf 1e 47 3d c9 ed 2b 3d
       -0.02232329 -0.055455487 0.048613306 0.041974816
000210 5d 15 22 bd db 2b 85 bd 52 0c 00 be d4 e5 9c bd
       -0.039571155 -0.065025054 -0.125047 -0.07661024
000220 c4 01 82 bd 26 6e 6a bd 8f a0 93 3c a6 68 c4 bd
       -0.06347993 -0.057233952 0.018020896 -0.095902726
000230 9e d3 cd 3d 89 7b 0c bc ea e5 d4 3c 46 90 53 bd
       0.100501284 -0.008574375 0.025988538 -0.05165126
000240 80 e3 f5 3d 37 b0 89 bd 01 1e 0d 3e 9a 23 9b 3d
       0.12006283 -0.067230634 0.13780977 0.0757515
000250 12 a8 70 bc 2e ed c1 bd 91 87 8e 3b e0 43 9d bc
       -0.014688509 -0.094690666 0.004349657 -0.019197404
000260 9d dc 62 bd da 94 27 bd 55 59 f0 3d 4b eb 89 bc
       -0.055386174 -0.04091344 0.11735789 -0.01683583
000270 ed ea b9 3c ee 08 f1 3d 15 3b 82 3d 14 ea d1 3c
       0.02269503 0.11769281 0.06358925 0.025624312
000280 43 3d e6 3d 28 b0 8c 3c 92 3b 26 3d b1 a2 b0 bc
       0.112421535 0.017173842 0.040584154 -0.021561952
000290 4a 1e 0e bd 09 df 81 3d b0 49 d4 3d 92 1b 2c 3d
       -0.034696855 0.06341369 0.10365617 0.04201848
0002a0 21 b4 d3 bc 77 bf 8a 3c de fe 7a 3c 78 2f f6 bd
       -0.025842728 0.016937 0.015319554 -0.12020773
0002b0 59 07 75 bd 60 f1 7d 3b b8 f8 2e 3d 91 b6 f8 bd
       -0.05982146 0.0038748607 0.042717665 -0.12144197
0002c0 ab 4c c2 3d 31 1e 8e bc 89 e1 96 3d f8 9a b0 3d
       0.094872795 -0.01734838 0.07367236 0.08623308
0002d0 12 a3 c0 3d 08 a8 f0 bb 93 89 e9 bd 6a 38 a3 3a
       0.09406103 -0.0073442496 -0.11403193 0.0012452726
0002e0 b1 2f 26 bd 69 a4 93 3d 02 4c 7b 3b 3d 67 ae bd
       -0.040572826 0.07209093 0.0038344865 -0.08515785
0002f0 ca 12 f5 bc f7 18 bf bd c4 ea 59 3c 41 e5 3b 3c
       -0.029916186 -0.093309335 0.013300601 0.011468233
000300 3f 95 dc 3d 8a e5 3a 3b c0 74 c7 bc 4d a0 8d 3c
       0.10770654 0.0028518164 -0.024347663 0.017288351
000310 17 f8 76 bd a8 08 74 bd bf 30 f6 3c 4b 2b ac bd
       -0.06029519 -0.059578568 0.03005254 -0.08406695
000320 cb b3 93 3c 2b 6e 01 be 91 79 12 bc 34 79 ba 3d
       0.018030068 -0.12639682 -0.0089401165 0.09105149
000330 03 3b a6 bd fc b4 bb bd eb d2 69 bd 14 a0 d1 3d
       -0.08116724 -0.091653794 -0.057085913 0.102356106
000340 14 91 13 3d da 52 11 bd 20 79 ff bd c7 96 8d 3d
       0.03602703 -0.035479404 -0.12474275 0.06913524
000350 cc d7 e2 bd ea ae 9e 3d 6d 70 8c 3d 69 e7 a5 bc
       -0.11076316 0.07748206 0.06857381 -0.020251947
000360 b6 dd 86 bb 35 89 90 bd 83 62 98 3d a1 2b 04 bd
       -0.0041157855 -0.0705742 0.074406646 -0.03226817
000370 43 38 38 3d e3 97 85 bd bc c3 be bd 0c 7d 87 bd
       0.04497553 -0.06523111 -0.09314677 -0.06615648
000380 35 64 29 bd 54 6b 5d bd 4a c1 a0 3c d7 ee e0 bc
       -0.04135533 -0.054057434 0.019623417 -0.027457638
000390 b6 c8 e2 bd 62 ba c1 bd 7b a6 bf bd 85 8f f5 bd
       -0.11073439 -0.09459378 -0.093579255 -0.11990265
0003a0 aa be 4b bd 6a c3 76 bc 2b c4 7e 3d da 78 2a bd
       -0.04974238 -0.015061239 0.0621988 -0.04161916
0003b0 4f 45 bd bd f0 a6 ef bb 3d 8e 5c bd e6 72 8e 3d
       -0.09241735 -0.0073136017 -0.053846586 0.06955509
0003c0 1d 12 a4 3d 11 00 bb 3d ff aa df bc 68 7a f7 3d
       0.08011267 0.09130872 -0.027303217 0.12083894
0003d0 dd a4 cf 3c a1 20 9c bd 8a dc af bb 0b 9a 01 bd
       0.025347168 -0.07623411 -0.0053668665 -0.031641047
0003e0 e1 76 cf 3d dd 40 62 3d 44 7a 9e bc 09 8e bd bc
       0.10130096 0.05523764 -0.01934541 -0.023139017
0003f0 50 ee 90 bd 5b dc ae 3d e5 b5 97 bd 43 46 ac bc
       -0.070767045 0.08538123 -0.074077405 -0.021029597

0.features.0.1.weight f4 [16]
000000 16 92 81 3f 91 4e 81 3f 57 8a 80 3f be e1 82 3f
       1.0122707 1.0102102 1.0042218 1.0225141
000010 b4 06 82 3f fb 74 84 3f 06 66 7c 3f 02 9f 7d 3f
       1.0158296 1.03482 0.98593175 0.9907075
000020 df 0d 81 3f b9 eb 7f 3f c7 7d 7e 3f 44 31 81 3f
       1.0082358 0.9996906 0.9941067 1.009316
000030 f0 00 82 3f 13 bb 7d 3f 32 de 80 3f e6 b8 80 3f
       1.0156536 0.9911358 1.0067809 1.0056427

0.features.0.1.bias f4 [16]
000000 22 b2 34 3d ef 4c 46 3d aa 78 1e 3d 7d 35 06 3d
       0.044115193 0.048413213 0.038689293 0.032765854
000010 56 87 19 3d 86 23 82 3d f3 e3 9b bc 1e e0 0a 3c
       0.037482582 0.06354432 -0.019029593 0.008476285
000020 30 4b c3 3c ac 34 38 3d f7 c3 13 3d 58 ed 2a 3d
       0.023839563 0.044972107 0.03607556 0.041730255
000030 8e 46 d9 3c 90 fd bf 3c 2e d6 de 3c 12 fa 49 3d
       0.0265229 0.023436338 0.027201738 0.04931075

0.features.0.1.running_mean f4 [16]
000000 02 ce cf bc de f8 b5 bc 6e 23 08 bd b4 5a ca 3c
       -0.025366787 -0.022213396 -0.033236913 0.024701454
000010 4e 96 91 bb 1b 39 0a 3b dc 35 5a 3d 67 c4 0e 3d
       -0.0044429665 0.0021091166 0.05327402 0.034855273
000020 7a bc c6 bb 90 07 42 3c e0 82 a3 bc 51 b7 81 3b
       -0.0060649486 0.011842623 -0.019959867 0.0039586206
000030 36 a6 8a 3c 40 88 13 3d 98 f3 af bc 42 2f e5 bc
       0.016924959 0.03601861 -0.02147846 -0.027976636

0.features.0.1.running_var f4 [16]
000000 81 6d 59 3f a3 87 97 3e 67 10 ad 3e ce 75 67 3e
       0.84932715 0.2959567 0.33801576 0.22603533
000010 70 bb 56 3e 95 35 b5 3e fd 0d 8c 3f 7e 46 32 3f
       0.20969939 0.35392442 1.0941769 0.6963881
000020 f8 1a e7 3d df 56 9d 3e 0d da 4b 3e d7 25 8b 3e
       0.11284441 0.3073034 0.19907399 0.27177307
000030 1a 62 a4 3e cf 78 eb 3e c4 bf 3d 3e 91 ce 81 3e
       0.32106096 0.45990607 0.18530184 0.2535291

0.features.1.0.block.0.0.weight f4 [16, 16, 3, 3]
000000 3e b0 db bd dd 75 13 3d fc ab f1 bd fc 18 3d 3e
       -0.10726975 0.036001075 -0.118003815 0.18466562
000010 fd f7 b9 bd dc 75 b8 bd d1 42 54 bd 4e 64 fa 3c
       -0.09080503 -0.09006855 -0.051821534 0.030565407
000020 78 b7 e3 bd 4e b6 84 3d 85 7c 82 bc d7 c4 19 bc
       -0.11118978 0.06480084 -0.015928516 -0.009385309
000030 c0 f7 c0 3d ad f5 40 3c 15 cc 10 bc 6d 8a e2 bc
       0.094222546 0.011777324 -0.008837719 -0.027653897
000040 59 1b 82 3e 2d a5 a0 bc b6 48 83 bd 4c 5f c6 3c
       0.2541149 -0.019610012 -0.06410353 0.024215363
000050 5c 5a 0c 3d ae f7 da 3b 3e c4 5c be 57 96 26 be
       0.03426586 0.0066823578 -0.21559235 -0.16268288
000060 d5 63 52 be 18 b1 1e 3c ab c3 24 3e 5e 79 db 3d
       -0.20545895 0.009685777 0.16090266 0.10716508
000070 32 81 32 be 2e 6b 5a be 4b c5 2b 3e 14 db 96 3d
       -0.17432097 -0.21329948 0.1677448 0.073660046
000080 93 d6 d9 bd e6 e6 94 3d 59 da 92 3b 8e c8 aa 3d
       -0.1063663 0.07270603 0.0044815955 0.08339034
000090 5d f9 19 be cd a4 fb 3b e0 c2 5e be 56 61 ff 3c
       -0.15036531 0.007679558 -0.21754026 0.031174343
0000a0 51 86 9e bb ee cc 9f bb 53 d8 49 bd c1 95 4c bd
       -0.004837789 -0.0048767244 -0.04927857 -0.049947504
0000b0 85 6e e9 bd 60 80 88 be c8 19 25 be 52 00 60 be
       -0.11398033 -0.26660442 -0.16123116 -0.21875122
0000c0 f7 88 3d 3e 47 4c 07 bd df c8 89 be 19 82 3e 3d
       0.18509279 -0.033031728 -0.26911065 0.04651079
0000d0 bb 13 09 3c d1 b9 91 bd 3a 11 3a be 11 2d 37 bd
       0.0083665205 -0.0711552 -0.18170634 -0.044720713
0000e0 b4 dc d5 bd ee 7d e4 bc c7 0f a1 bd 98 6a 68 bd
       -0.104424864 -0.02789208 -0.078643374 -0.05674228
0000f0 3a 8c 58 be 79 2d 4d 3d 79 c3 8b 3d d6 d0 86 3d
       -0.21147242 0.050092194 0.06824393 0.06582801
000100 cd ff 5a 3d 3a 0e 9c 3d 09 87 0f 3d 19 f2 58 3d
       0.053466607 0.07619901 0.03504089 0.052965257
000110 89 95 1e be 1a 32 2d be d3 56 cc bd bf 99 ec bd
       -0.1548673 -0.16913643 -0.09977498 -0.11552762
000120 b0 f5 87 3c 37 b5 45 be 91 5d d5 3d 26 9b 55 be
       0.016596645 -0.19307409 0.10418237 -0.20859966
000130 d4 5f d5 bd ca fc d0 bd 61 56 18 bd 30 94 32 bd
       -0.104186684 -0.10204466 -0.037191752 -0.043598354
000140 ae 43 09 be fc de 81 bb bd 26 b2 bd cd 29 1e be
       -0.13404724 -0.0039633494 -0.08698795 -0.15445633
000150 b4 9e 8c bc 0b 42 40 be 86 d0 e5 bc d3 c2 a3 3e
       -0.01716552 -0.18775193 -0.028053533 0.31984577
000160 94 02 20 bc c9 61 94 3d c1 80 42 3e ac ee 02 be
       -0.00976624 0.072452135 0.18994428 -0.12786359
000170 6d 8d f7 bd 8d c3 c2 bd 6a fe 72 bd e3 ae 66 3c
       -0.12087522 -0.095099546 -0.05932466 0.014079782
000180 c5 b5 31 be ec 1e ea bc 8d e3 9c 3d 1e 76 7c bd
       -0.17354496 -0.028579198 0.07660589 -0.061636083
000190 b1 5a f1 bd df 90 6a be bc 00 d0 be 99 79 85 3d
       -0.11784876 -0.22906826 -0.4062556 0.065173335
0001a0 6d 31 67 3d 7a a1 da 3d 2d a5 9b 3c 37 58 70 bd
       0.05644362 0.106753305 0.01899966 -0.05867788
0001b0 9b 27 55 3d 1b 9d 4c be e8 ba 8b 3c 81 aa 20 be
       0.052039724 -0.19981806 0.017056897 -0.15690042
0001c0 1e 47 67 3e a2 74 4f 3d a0 20 79 bd 76 da 00 bd
       0.22585723 0.05064834 -0.06082213 -0.03145834
0001d0 ed ae f8 3d e8 a5 02 be bf 18 06 3d 80 88 a5 be
       0.121427394 -0.127586 0.032738443 -0.32330704
0001e0 2e 4d e1 3d 60 09 99 3d cf 8b 1a 3e 7d 9a 0d be
       0.11001049 0.07472491 0.15092395 -0.13828464
0001f0 d6 a1 2f bc a6 02 4f bd 43 15 d8 3d 9a 54 91 bd
       -0.010719737 -0.050539635 0.1055093 -0.070962146
000200 c1 70 cf 3a b4 08 34 bd dc b7 82 be 29 23 2d 3e
       0.001582645 -0.043953612 -0.255309 0.16907944
000210 87 bb 2e be 63 fd 94 bd 14 71 4e bd 85 f9 37 3e
       -0.17063724 -0.07274892 -0.05040081 0.17966278
000220 93 ef 94 3d da 33 7e 3d 1b 4e 15 bd c1 3c dc bd
       0.07272258 0.06206117 -0.03645144 -0.107537754
000230 25 55 b1 bd 89 e9 2c 3d c9 0b 8c 3d 26 62 ab bd
       -0.08658818 0.042214904 0.06838185 -0.0836833
000240 fb 62 85 bd 4f b7 22 3d ad a1 4e 3e a6 61 0b 3d
       -0.0651302 0.039725598 0.20178862 0.03402867
000250 e6 45 13 bd 8a c4 16 be f9 6c 48 3d cc 3e 1a 3e
       -0.035955332 -0.14723411 0.04893205 0.15063018
000260 cf e2 04 3e 32 21 1c 3e c0 b8 80 bd a8 44 53 3d
       0.12977146 0.15247038 -0.06285238 0.051579148
000270 fe 26 4e 3d 9f db 1a 3e 34 60 18 be bb 5c 05 be
       0.050330155 0.15122841 -0.14880449 -0.13023655
000280 19 31 a9 3d ee 90 ef bb ab 55 4b 3d 04 e6 ce bd
       0.08261318 -0.007310978 0.049642246 -0.10102466
000290 ae a3 bc 3d e9 5f b4 bd a0 ff 5a bc 4f c2 f5 bd
       0.09210907 -0.08807356 -0.01336661 -0.11999952
0002a0 d9 61 23 3d ff 26 8c 3d a6 e6 64 3e 81 30 c6 bc
       0.039888237 0.068433754 0.2235361 -0.02419305
0002b0 4d 27 21 3d 9b 71 79 3d 00 42 fe 3d 18 f7 70 3d
       0.03934412 0.06089936 0.12414932 0.058829397
0002c0 7a 55 72 bc 94 df cf bc 94 3c d5 3c b7 e4 ac 3d
       -0.014790887 -0.025375165 0.026029862 0.084420614
0002d0 c5 6c c2 3c 73 8d 7c 3e 03 bb b7 3d a2 7b eb 3c
       0.023733506 0.24663334 0.089712165 0.028745476
0002e0 e5 d7 8b bc 36 1d 65 bc 0f 5c d9 3d 0d af f7 3d
       -0.01707072 -0.013984015 0.10613262 0.12093935
0002f0 32 61 9d be 10 47 98 3d 8b 0f f1 3c 2d 0d 76 3b
       -0.30738217 0.07435429 0.029426357 0.0037544474
000300 f2 97 97 3d 00 8e ae bc ca cd f0 3d 4d 01 46 3c
       0.07402028 -0.021307945 0.11758001 0.012085271
000310 19 db d9 bc 83 3c 13 3c 45 e0 37 3e 32 a4 13 3e
       -0.026593732 0.008986595 0.17956646 0.14418104
000320 e3 d0 39 bd d9 fc 2d bd b2 89 8d bb ef f7 d5 3a
       -0.045365226 -0.042477462 -0.004319393 0.00163245
000330 06 da 8a 3d b0 49 bf bd fb f0 84 3d db e3 f8 3c
       0.06779866 -0.09340227 0.06491276 0.030382087
000340 40 14 0a be 20 34 df 3d 0d ba 70 3d 38 d2 cf bd
       -0.13484287 0.10898614 0.05877118 -0.10147518
000350 e6 89 30 3e 7d 71 10 3e db 0c 13 3e 10 81 20 be
       0.17240104 0.14105792 0.14360373 -0.15674233
000360 e8 37 af 3d 1e e2 0d be 52 b3 b9 bd d0 08 17 3e
       0.08555585 -0.13855788 -0.09067406 0.14749455
000370 55 a0 1b be 05 5d b4 3c 7d 40 16 be 0a 5f 60 3e
       -0.1519788 0.022017011 -0.14673038 0.21911255
000380 b6 21 d2 3d 2b c0 78 bc 43 ed 7a bc b2 49 4a bd
       0.10260336 -0.015182535 -0.015315357 -0.049386688
000390 94 77 07 3e 36 a3 9d 3d d7 99 de 3c 51 c1 d2 bd
       0.13229209 0.07697146 0.027172966 -0.102907784
0003a0 88 b4 2e 3e 4b 9f 0b 3e a4 b2 fb 3d 0b ed 80 3d
       0.17061055 0.13634984 0.12289932 0.06295212
0003b0 2d 7a 74 3e 58 62 6d be b1 1a 8a 3d 73 64 6a be
       0.23874731 -0.23182046 0.06743372 -0.22889881
0003c0 71 1d f6 3b 7c ea a2 3d d7 c9 d2 3d 13 60 00 be
       0.007510834 0.079548806 0.10292404 -0.1253665
0003d0 39 2d 9c bc e5 21 01 3c f1 3a 54 3d ae e6 0e be
       -0.019064533 0.007881616 0.051814023 -0.13955185
0003e0 e5 c6 15 3e 79 1b 9a 3d 65 10 ff bd b1 c2 8b be
       0.14626653 0.07524771 -0.12454299 -0.27296975
0003f0 da 68 7d 3c 91 14 e1 bc 07 a1 5a 3d e8 58 05 3d
       0.015466893 -0.027475627 0.053376224 0.03255549

0.features.1.0.block.0.1.weight f4 [16]
000000 63 7a 82 3f 9f 12 7b 3f 82 0f 7b 3f 8e ac 7a 3f
       1.01936 0.9807529 0.9807054 0.9791955
000010 38 a5 7a 3f e7 3c 80 3f 0d b8 80 3f c6 0a 80 3f
       0.97908354 1.0018586 1.0056168 1.0003288
000020 00 dd 79 3f f4 2a 7f 3f af 20 7f 3f 4f a8 7b 3f
       0.97602844 0.99674916 0.99659246 0.98303694
000030 00 96 7a 3f dc 2a 7c 3f 62 ee 7c 3f 08 60 80 3f
       0.9788513 0.985029 0.98801243 1.0029306

0.features.1.0.block.0.1.bias f4 [16]
000000 a0 37 16 3c 20 11 4f 3d 3a 78 d0 3b 84 ec 3c bb
       0.0091685355 0.05055344 0.0063619884 -0.0028827498
000010 da 0d 92 bb 04 f3 8f 3c bf 56 14 3d 72 91 dd bb
       -0.0044572176 0.017571934 0.03621554 -0.006761723
000020 5c ea e2 39 70 b3 e7 bb 2b 78 10 3c 93 0a b6 bb
       0.0004328069 -0.007070951 0.008817713 -0.0055554598
000030 39 2d 2a 3a 91 c7 ff 3b b7 af 63 bc 4f ec 2c 3d
       0.0006491724 0.0078057726 -0.013896874 0.04221755

0.features.1.0.block.0.1.running_mean f4 [16]
000000 b1 0b 7c bf c5 68 b2 3e 95 a5 ae be f7 a1 1b 3d
       -0.9845534 0.34845558 -0.34110704 0.03799626
000010 30 09 61 3e 46 ed 86 be d0 42 dd 3d 78 19 93 be
       0.21976161 -0.263529 0.10803759 -0.2873037
000020 40 52 de 3e bd 45 09 be 5f b3 24 3f d6 e8 28 bd
       0.43422127 -0.1340551 0.643362 -0.041237675
000030 e4 f1 ba 3d b7 4c 34 be 3e 64 8a 3d b5 68 5b 3e
       0.09128168 -0.1760739 0.06757401 0.21426661

0.features.1.0.block.0.1.running_var f4 [16]
000000 2b 96 91 3f cc 94 86 3f 57 03 b5 3f 25 35 7f 3f
       1.1373953 1.0514159 1.4141644 0.9969047
000010 60 68 ab 3f a5 90 b0 3f f0 2d 14 3f 00 3a c6 3f
       1.3391228 1.3794142 0.57882595 1.548645
000020 b2 76 d7 3f c1 35 ab 3f c8 2b 19 40 60 6d 94 3f
       1.6833098 1.3375779 2.3932972 1.1595879
000030 3a dd aa 3e 2c a7 85 3f 3a 06 18 3f 62 a7 c2 3f
       0.33371907 1.0441642 0.593845 1.5207331

0.features.2.0.block.0.0.weight f4 [64, 16, 3, 3]
000000 da e0 c2 bc 3f b2 1a 3d 55 ab 5e 3d 33 a4 70 3d
       -0.023788858 0.037767645 0.054362614 0.058750343
000010 fa 7f d9 ba 8a 63 6c 3d bd 13 a3 bd 75 f8 b3 3c
       -0.0016593926 0.057712115 -0.07962749 0.02196906
000020 50 75 f3 3d c2 0c 13 3e 9a 17 24 3c b3 fb 0f 3d
       0.1188761 0.14360335 0.010015393 0.03515215
000030 be 64 c9 3c c6 f7 02 bd 5a 26 59 bd db 02 87 3c
       0.02458417 -0.031974576 -0.05301509 0.016480854
000040 f5 eb 82 bd 9e 14 36 3c 38 73 f1 bc f2 80 51 3d
       -0.063926615 0.011113314 -0.029473886 0.051148362
000050 47 02 7b bd f5 c0 83 bd 32 0c 93 bd 11 47 06 bd
       -0.06128147 -0.06433288 -0.071800604 -0.032782618
000060 9b 69 a7 bd 46 aa 33 bd 1a 06 ba bd 87 cc a8 3c
       -0.081744395 -0.043863557 -0.09083195 0.020605339
000070 b4 8b 3f bd 88 34 eb 3a f7 53 ad bc eb 71 4b 3b
       -0.04676409 0.0017944733 -0.021158202 0.0031043242
000080 a4 36 95 bd 22 98 a9 3d 1b 73 9f 3d 0a 69 43 3d
       -0.072858125 0.0828097 0.077856265 0.047707595
000090 e3 9b ac 3d 6f 34 18 bc 03 f8 26 bd 4a 08 1d be
       0.084281705 -0.009289845 -0.040763866 -0.15335193
0000a0 a1 e8 bd 3c 9b 62 f4 bc b9 3f 60 bc e9 a5 45 3b
       0.023182215 -0.029832175 -0.013687068 0.0030158705
0000b0 81 1e 42 3d 26 ec 19 bd f1 ce 67 3d e0 4a ac 3d
       0.047392372 -0.037578724 0.05659384 0.08412719
0000c0 5b 94 51 bd 51 ab 04 3e 5e 77 12 bd bf 69 29 3e
       -0.051166873 0.12955977 -0.03575837 0.16544245
0000d0 57 fe bf 3d 8f 43 e7 3c b1 be ab bd b3 85 7b 3c
       0.09374683 0.028230457 -0.08385981 0.015351701
0000e0 5e 1b 52 bd 0a 07 78 bb 99 63 ba bc 4b 85 1b 3c
       -0.05129563 -0.0037845992 -0.02275257 0.009492229
0000f0 40 43 92 bd 1a 7f de 3c 60 80 db 3d 0d 73 20 3d
       -0.07141733 0.027160216 0.10717845 0.03917222
000100 6e 67 52 3d 1e d3 ee bc d7 e3 91 3b b1 34 f7 bc
       0.05136817 -0.029153403 0.0044522095 -0.030176492
000110 89 ae 64 bd c5 ac dc bd 61 b0 3d 3d 11 79 da 3d
       -0.055830512 -0.10775141 0.046310786 0.10667623
000120 ef 6a 03 3d f0 aa 68 3b 4f 21 b2 3c 09 07 c6 3b
       0.0320844 0.0035502277 0.021744398 0.006043319
000130 59 25 60 3d 3e b6 02 be c5 fe dc 3d 73 ca d2 bd
       0.054723118 -0.12764832 0.10790781 -0.102925204
000140 31 89 6d 3d 07 36 6b 3d 35 92 c5 3d 7d 04 bf 3d
       0.057992164 0.05742457 0.096470274 0.09327028
000150 5a 5a 4d bd c7 b8 be bc 7d d4 67 bd 62 97 2c 3e
       -0.050134994 -0.023281468 -0.05659913 0.16854623
000160 e8 65 9f bc b4 dc c8 3b 6e 11 9b bc da cc 88 3d
       -0.019457772 0.0061298255 -0.01892921 0.06679697
000170 4b fa b4 bc 3c 1a 64 3d d4 9e 70 bc f1 d4 ac ba
       -0.022092005 0.05568908 -0.014686305 -0.001318602
000180 7a 6f 36 bc 14 d0 54 bc 68 a4 99 bb 24 90 26 3c
       -0.0111349765 -0.012989063 -0.004688788 0.010166202
000190 ae 6b 7b bd 98 34 e4 bd 4b 47 b0 bc d9 cd 81 3c
       -0.06138199 -0.11142844 -0.02151837 0.015845226
0001a0 ab c3 83 3c af 4b 7f bd 8e ea b3 3d 8f 9d e4 3b
       0.016084513 -0.062328037 0.08784972 0.0069767903
0001b0 4a 0e d9 3a 0b 30 98 3d f6 9d 97 bd e8 a5 8d 3c
       0.0016560045 0.074310385 -0.074031755 0.017291024
0001c0 aa 3c b6 3d 83 1a 08 bd e9 f8 8d 3c 6c b1 ea bc
       0.088982895 -0.03322841 0.017330604 -0.028649054
0001d0 83 c8 ec 3c 9f 0e 4f 3d 8f 34 02 3e 70 b4 20 3d
       0.028904205 0.050551053 0.12715362 0.03923458
0001e0 95 74 73 bc cc b3 42 bc a7 73 8c 3b 15 1e 36 bd
       -0.014859338 -0.011883687 0.004286248 -0.044462282
0001f0 8f 70 64 bc 6e ae 34 3d d8 e4 81 3c fd 87 a6 3d
       -0.013942852 0.04411166 0.015856192 0.081314065
000200 c9 74 93 3d 58 a7 26 3c 8d 2c 47 bd cf 5d 91 bd
       0.072000094 0.010171734 -0.04862647 -0.07097971
000210 65 2b 8d bd 39 1b 94 bd 05 82 f0 bc d0 42 92 3d
       -0.068930425 -0.07231755 -0.029358873 0.0714165
000220 af 37 08 bd 77 a9 17 bd de 35 26 bd 0a bb 0a bd
       -0.03325623 -0.03702685 -0.040578716 -0.03386978
000230 af c6 25 bd 51 41 98 bc b3 a0 85 bd 44 17 30 bc
       -0.040472683 -0.018585833 -0.065247916 -0.010747734
000240 f9 13 55 bc 14 0c fa bd 86 63 9c 3d e1 5b c4 3d
       -0.01300525 -0.12209335 0.0763617 0.09587837
000250 68 c6 aa bd d7 af bf bd fa 52 74 bd 5c 4a 25 bc
       -0.08338624 -0.09359711 -0.059649445 -0.010088529
000260 8e 38 b6 bc e7 10 2a 3d ed d9 8b bd e6 07 b2 3d
       -0.022243764 0.041520026 -0.068286754 0.08692913
000270 8e 77 45 bd f9 74 2e 3d a1 d8 03 3d 58 a3 40 ba
       -0.04820972 0.042592023 0.032189015 -0.0007348559
000280 31 d7 e3 bc cb 24 37 3d e9 ff 1b bd 12 ec 7d bd
       -0.027812572 0.044712823 -0.03808585 -0.061992712
000290 d4 bb 7d ba 67 b1 58 3d f9 c2 44 3d 5d 97 06 bd
       -0.00096791727 0.05290356 0.048037503 -0.032859195
0002a0 6a b3 aa 3b 6c dd 45 3d ba d4 fd 3c 08 00 3d 3d
       0.005209376 0.048306867 0.030985225 0.046142608
0002b0 16 fd a0 bc 44 05 ce 3d d3 e2 b3 3d df 6b 2c bc
       -0.01965193 0.10059598 0.08783498 -0.010523765
0002c0 a3 32 d1 3d a4 c2 e7 bb 60 f1 00 bc 89 dd a3 bd
       0.10214736 -0.0070727635 -0.007870048 -0.08001239
0002d0 45 f4 98 bb b6 e3 87 3c cf 1c 2a 3d 70 5b b7 3d
       -0.004667791 0.016588073 0.04153138 0.08952987
0002e0 c1 ec 84 3d 0d 9f bd 3c a2 1b 0d 3c 60 d1 04 be
       0.0649047 0.02314713 0.008612545 -0.12970495
0002f0 97 47 57 3d 94 69 cd bd b6 f4 46 bc b2 c6 04 bd
       0.052558508 -0.10029903 -0.012143305 -0.032416053
000300 1f 7e 4b bc b7 b5 22 bd 87 cb 12 be ed a3 9f bd
       -0.012420206 -0.039724078 -0.14335452 -0.07794938
000310 51 12 8d 3c 3f ed 01 3d cb d0 79 3d 83 b9 2d 3d
       0.017220648 0.031720396 0.060990136 0.042413246
000320 e9 93 9a bc 23 34 61 bc 21 2d 47 bd fe 62 e7 3c
       -0.018869357 -0.0137453405 -0.048627023 0.028245445
000330 19 57 b1 3d 0c bc c4 bc b5 5e 3d bc 07 24 4f 3d
       0.08659191 -0.024015449 -0.011558224 0.050571468
000340 1f 8e b3 bd df 12 1a bd 2c fd a3 3d 1b d4 e4 bb
       -0.08767342 -0.037615653 0.08007273 -0.0069832928
000350 e8 46 b9 3c 2d a9 12 bd d1 d6 fc 3c 3b d5 12 3d
       0.022616819 -0.03580587 0.030864151 0.035847884
000360 e2 9f 93 3d eb 29 a0 ba ec 17 c3 3c db 18 f0 3c
       0.072082296 -0.0012219524 0.023815118 0.029308727
000370 71 84 a6 3d 41 29 c1 bc 95 f1 45 3d ba 52 b2 3c
       0.0813073 -0.023579242 0.048326094 0.021767963
000380 6c 9d 81 3d fd b5 69 3d ff 2a 97 3c b6 6a cb bc
       0.06328854 0.057058323 0.01845312 -0.024831157
000390 d0 be 8d bd ae f5 8b 3d 0f 5e 4c bd df c4 39 3d
       -0.0692116 0.06833969 -0.04989439 0.045353767
0003a0 64 5a e5 bb f1 30 f5 39 e1 f0 24 bc e7 46 b4 bd
       -0.006999301 0.00046766506 -0.010067196 -0.08802586
0003b0 ab 98 99 bc 28 30 9b 3c 2b a9 04 be 38 3d 0b be
       -0.018749556 0.018943861 -0.12955157 -0.13597572
0003c0 b2 e2 9d bd df d7 07 bc 45 c0 ed bc c8 62 c3 3b
       -0.07709254 -0.008291214 -0.029022345 0.0059627034
0003d0 cd 81 a7 3c 9c 62 37 bd d6 1f 99 3d 7f c2 4f 3d
       0.020447636 -0.044771776 0.07476775 0.050722595
0003e0 05 d3 12 3d 6e 7e 8e 3d fd 02 59 3d 68 9c 04 bd
       0.035845775 0.06957708 0.052981365 -0.032375723
0003f0 4e 09 94 bc 66 b7 9c bd 17 dd 4e 3d 4f ca 42 bb
       -0.018070843 -0.07652168 0.050503816 -0.0029722636

0.features.2.0.block.0.1.weight f4 [64]
000000 cf 6f 80 3f e7 a7 80 3f 78 fb 7c 3f 8a 1f 7f 3f
       1.0034121 1.005124 0.9882121 0.996575
000010 0c b1 7a 3f bc 70 7b 3f 9e 90 7f 3f 08 33 7d 3f
       0.979264 0.98218894 0.99830043 0.9890599
000020 a4 08 7f 3f d5 29 81 3f 15 fd 7e 3f 0c 10 7d 3f
       0.9962256 1.0090891 0.9960492 0.9885261
000030 8e c2 83 3f 87 8b 7f 3f d8 e9 83 3f 0f b5 7a 3f
       1.0293748 0.99822277 1.0305738 0.97932523
000040 97 18 7e 3f 27 8e 79 3f e5 ac 82 3f 3a 78 7d 3f
       0.9925627 0.9748253 1.0209013 0.99011576
000050 db 33 7d 3f 92 ea 7b 3f d1 92 7d 3f 3d a0 7c 3f
       0.9890725 0.984048 0.9905215 0.98682004
000060 ff f1 80 3f da 31 7e 3f 6d bb 7f 3f bf ee 83 3f
       1.0073851 0.9929482 0.99895364 1.0307235
000070 5f 8b 81 3f 3b fd 7c 3f 1e 6c 7f 3f ab c7 7c 3f
       1.0120658 0.988239 0.9977435 0.9874217
000080 24 28 7b 3f 91 c5 83 3f de ff 81 3f 8c 2f 80 3f
       0.98108125 1.0294667 1.015621 1.001451
000090 9e 4b 83 3f 7e 0e 7c 3f be 11 81 3f 1b ce 7d 3f
       1.0257452 0.98459613 1.008354 0.99142617
0000a0 3a 75 83 3f 1b b4 79 3f 77 e4 7c 3f 79 78 7b 3f
       1.027015 0.97540444 0.9878611 0.982307
0000b0 19 c6 79 3f 34 87 80 3f 4b 6b 82 3f 50 3c 82 3f
       0.975679 1.0041261 1.0188993 1.0174656
0000c0 9b 63 81 3f 97 d5 7c 3f 8c ff 7e 3f e8 57 7f 3f
       1.0108522 0.9876341 0.99608684 0.9974351
0000d0 14 93 78 3f aa 62 81 3f 2c 45 81 3f 28 62 7b 3f
       0.97099423 1.0108235 1.0099235 0.9819665
0000e0 b4 2b 7f 3f d8 1f 81 3f 74 e4 78 3f 2b 2d 80 3f
       0.9967606 1.0087843 0.9722359 1.0013784
0000f0 ad b1 7b 3f 61 4d 84 3f 9a a6 7f 3f 86 42 81 3f
       0.98317987 1.0336114 0.9986359 1.0098426

0.features.2.0.block.0.1.bias f4 [64]
000000 c0 5b 8e b7 d4 22 7c 3b 4e b1 aa 3c 0b 12 e5 3c
       -1.6970444e-05 0.0038472908 0.020836499 0.027962705
000010 76 06 63 bc ac e2 74 bc 31 d5 0b 3d 5c 0d 91 3c
       -0.013856521 -0.014946621 0.034138862 0.017706566
000020 ec fe 6d 3c 97 45 2b 3d a2 f8 27 3c 44 26 f6 bb
       0.01452611 0.041814413 0.01025215 -0.007511886
000030 36 8f ad 3c b5 44 60 bc 64 96 84 3c 5d 01 74 3c
       0.021186452 -0.013688256 0.016184993 0.014892903
000040 ca af 76 3c 36 66 94 bb aa 3e 2a 3d a4 87 1a 3b
       0.01505656 -0.004528786 0.041563667 0.0023579383
000050 d6 8f 90 3c af 8f f8 bb 66 26 8d 3c b3 39 b8 bb
       0.017646711 -0.007585488 0.017230224 -0.0056221127
000060 62 c5 b0 3c 56 d5 63 3c 2c 81 dd 3c 59 2c 88 3b
       0.021578494 0.013905844 0.027039133 0.0041556773
000070 f2 4f da 3c 93 ac 42 3c 79 50 b5 3c a5 63 73 3c
       0.026649449 0.011881965 0.022133099 0.0148553
000080 8d cf 2f 3c 3c 8c bb 3c d8 b0 2b 3c e4 f0 a4 3c
       0.010730636 0.022894017 0.010479175 0.020134397
000090 86 9a 16 3d a1 e3 61 3c a5 bc 09 3d 39 25 40 bc
       0.03676846 0.013787181 0.03362717 -0.011727625
0000a0 29 b7 5a 3c 83 da a5 ba dc ed fa bb e3 33 c8 39
       0.013349333 -0.0012653623 -0.0076577496 0.0003818563
0000b0 6e 72 a6 bc 7e 35 93 3c 70 13 11 3d 4a 66 a9 3c
       -0.020318236 0.017969843 0.035418928 0.020678658
0000c0 ff b7 fe 3c 3a 6c 06 3c 8e 9a 27 3d a6 85 eb 3c
       0.031093596 0.008204514 0.04091888 0.028750252
0000d0 c5 9e 6a ba 66 55 7f 3c ea f9 03 3c d4 28 3b bc
       -0.000895005 0.015584325 0.00805519 -0.011423308
0000e0 a8 06 9b 3c ae 68 47 3b f7 c8 9d bc b3 05 de 3c
       0.018924072 0.0030427384 -0.019260867 0.027102327
0000f0 85 d8 50 ba be 8a bb 3c 16 8b ca 3c 76 be 8c 3c
       -0.0007966834 0.022893306 0.024724524 0.017180663

0.features.2.0.block.0.1.running_mean f4 [64]
000000 3e 44 41 3e 51 19 18 3d 20 4d 25 bf 6c bd 23 bf
       0.18873689 0.03713352 -0.6457081 -0.6396091
000010 8e 6e 18 be 06 8e 1e bf 2c 61 b2 3e 51 49 72 3f
       -0.14885923 -0.6193546 0.3483976 0.9464312
000020 71 2f cd be 7e 00 c2 bd 6e 1f ca 3e 6a 3f 46 bf
       -0.40075257 -0.0947275 0.39477104 -0.7744051
000030 20 3f 1a bf 2d 1f 92 bd 9b 33 24 bf d6 d7 74 3d
       -0.6025257 -0.071348526 -0.64141244 0.05977615
000040 58 c8 8f 3e c7 0b 2f bd 86 f0 e8 3d 60 a1 02 be
       0.28082538 -0.04273584 0.11374001 -0.12756872
000050 30 df 00 bf be 74 a2 bd 7e 28 38 3f ff b6 f6 3d
       -0.5034056 -0.07932423 0.71936786 0.120466225
000060 74 a6 ff be 89 48 08 bd 36 a3 0e bf e1 89 32 bf
       -0.4993168 -0.0332723 -0.5571779 -0.69741637
000070 d1 1f 44 be 39 fa 67 3e 47 c7 44 3e ba fd da b9
       -0.19152762 0.22654046 0.19216643 -0.0004176924
000080 63 f4 7a 3b 72 a0 98 bf 53 ea d3 3c 98 c5 80 be
       0.0038292638 -1.1923964 0.02586857 -0.25150752
000090 bc 4a 15 3f cd c9 aa 3e 00 0a 03 3b 13 a5 e7 b9
       0.5831716 0.33357087 0.0019994974 -0.00044182743
0000a0 8f 19 34 bf 0d 4d 75 bd e1 e8 df 3e 62 dc 7f bc
       -0.703515 -0.059887934 0.4373236 -0.015616508
0000b0 b4 14 97 be ad 4b c5 be 54 5f 38 bd 2d 65 cc be
       -0.29507983 -0.385343 -0.045012787 -0.3992094
0000c0 d2 4f 72 be 9d 14 8f be 79 67 2f 3e f0 0c cf 3e
       -0.23663262 -0.27945414 0.17129315 0.40439558
0000d0 aa 1b fa be fd de 6c be 77 b2 01 bf 3d 8a 50 bf
       -0.4884923 -0.23131938 -0.5066294 -0.81460935
0000e0 ef 03 1a 3d 56 94 61 bb e4 05 11 bf 52 76 ce be
       0.037601408 -0.003442069 -0.56649613 -0.40324646
0000f0 27 d4 65 be 55 d0 25 bf 1c 36 9d 3c a0 4d 6e be
       -0.22444211 -0.64771014 0.01919084 -0.23271799

0.features.2.0.block.0.1.running_var f4 [64]
000000 03 18 7b 3f f5 8c 91 3f bb 4e 75 3f e7 4f 99 3f
       0.98083514 1.1371142 0.9582326 1.1977509
000010 23 39 26 3f 1c 63 2c 3f 17 79 4d 3f 28 35 28 40
       0.64930934 0.6733873 0.80262893 2.6282444
000020 31 bf 40 3f 21 78 a1 3f a1 3b 12 3f 26 95 fc 3f
       0.75291735 1.2614785 0.57122236 1.9733016
000030 4a cc c9 3f 28 b4 99 3f 34 23 35 3f 24 a2 6d 3f
       1.5765469 1.2008104 0.7075684 0.9282553
000040 02 12 0c 3f c5 46 e4 3e 07 e6 29 3f 49 72 19 3f
       0.5471498 0.44585243 0.6636662 0.5994001
000050 d1 7b d5 3e fc a5 da 3e 0b 09 2e 3f d2 1c 44 3f
       0.41696027 0.4270476 0.6798255 0.76606476
000060 48 4a 0a 3f d1 04 36 3f 82 5e da 3f df 64 83 3f
       0.54019594 0.711011 1.7060091 1.0265158
000070 1e e2 47 3f d6 3a 86 3f f2 33 88 3f 2d ac 53 3f
       0.780794 1.0486705 1.0640852 0.82684594
000080 90 36 df 3f 1c 38 05 40 00 99 07 40 38 22 9a 3f
       1.7438526 2.0815496 2.1187134 1.2041693
000090 ed b4 cb 3f f5 7d 03 40 f7 82 15 3f 72 3e 44 3f
       1.5914589 2.0545628 0.5840296 0.76657784
0000a0 81 81 76 3f 45 43 ac 3f f0 41 38 3f 7f 1d 64 3f
       0.9629136 1.3458029 0.7197561 0.8910751
0000b0 05 54 a7 3e 2e d9 59 3f 8d a5 a5 3f 21 c9 3f 3f
       0.3268129 0.85097015 1.2941147 0.74916273
0000c0 27 5a 2b 3f 40 cd d5 3e 80 15 c6 3f 04 0c eb 3e
       0.66934437 0.41758156 1.5475311 0.45907605
0000d0 1b 91 1e 3f b0 63 2a 3f 47 35 8c 3f 5d eb 1b 40
       0.61940163 0.6655836 1.0953759 2.4362404
0000e0 8c e0 9c 3f c6 53 92 3f e4 7d 11 40 8b 74 d6 3f
       1.2256026 1.1431816 2.2733088 1.6754316
0000f0 82 2d cb 3f 69 0a 81 3f c0 f0 2c 3f de 08 12 3f
       1.5873263 1.0081302 0.67554855 0.5704478

0.features.2.0.block.1.0.weight f4 [32, 64, 1, 1]
000000 b3 27 87 be 9c cf e8 bd 34 24 a1 3e 1e c9 44 3e
       -0.26397476 -0.11367723 0.31472933 0.19217345
000010 ac 51 44 3e c2 f4 0b 3e 29 2e 93 bd 11 25 cc bd
       0.1917178 0.13667586 -0.07186539 -0.09968007
000020 83 f5 22 be 09 be da bd 26 a2 e2 bd 34 ee 45 bd
       -0.15913968 -0.106807776 -0.110660836 -0.04832287
000030 58 ca a8 be 88 4b 9b bd d4 12 22 3d dc e5 2a 3d
       -0.32966876 -0.07582766 0.039568737 0.041723117
000040 bc 1b 09 3f f5 4d 65 3e 48 c5 bc 3e 80 78 00 3e
       0.53557944 0.2239302 0.36869264 0.12545967
000050 e5 bc f4 bd 7f e1 5f 3d dd 75 dc be 91 db 7f be
       -0.11950091 0.05465841 -0.43058673 -0.24986102
000060 e5 c7 7b bd 49 44 1e bd b9 ac d2 3d 74 b0 88 be
       -0.06146993 -0.03863934 0.102868505 -0.26697123
000070 16 12 95 3d 6c c3 0d 3e 96 0b b1 3d 48 ce 5c 3e
       0.0727884 0.13844079 0.08644788 0.21563065
000080 2f b6 9d bd 72 47 da 3e 8c e7 52 be b3 45 1e 3e
       -0.077007644 0.42632633 -0.2059614 0.15456276
000090 06 71 87 3e cf 1c f6 be da 28 88 bd 0c ab 3e 3d
       0.26453418 -0.48068854 -0.06648417 0.04654984
0000a0 da c6 a7 3d cd 0b fd bd 86 c0 8a be 5c a7 5a 3e
       0.08192225 -0.123557664 -0.2710001 0.21352905
0000b0 6e 17 57 be 75 ca e4 3d a4 9f 24 be 89 a2 66 be
       -0.21005031 0.11171428 -0.16076523 -0.2252294
0000c0 0e 30 70 be b7 f4 96 3d d2 b8 3c 3e 1f 63 c0 3e
       -0.23455831 0.073708944 0.18429878 0.37575623
0000d0 fb 6e ae be d2 c6 ba be 32 12 34 3d 1b 8c 8d bc
       -0.34069046 -0.36479813 0.043962665 -0.017278722
0000e0 d4 03 91 3d b1 bd f9 3d 32 e2 23 3f 38 62 cd 3e
       0.07080808 0.12194384 0.6401702 0.40113997
0000f0 9c 13 bd be c3 f7 a7 bd a7 f0 81 be 37 ed 5c 3e
       -0.36929023 -0.08201554 -0.25378916 0.21574865
000100 94 96 a2 be 60 d9 b1 be 3a 3c b9 bd de 66 fe bd
       -0.31755507 -0.34736156 -0.090446904 -0.12421964
000110 ad ba 1f 3f 16 65 67 be 99 b5 ba bd 02 c2 a3 be
       0.6239422 -0.22597155 -0.09116668 -0.31983954
000120 bc 7c 41 3b b6 94 23 3f b0 fd 82 bd 89 0c 36 3e
       0.002952381 0.6389879 -0.06396043 0.1777822
000130 f4 bf f8 be c1 76 03 3d 34 16 77 be 00 9b 2f 3e
       -0.4858395 0.032095674 -0.24129564 0.17148972
000140 3a 44 a2 be 47 f8 7d be ea 28 3d 3e 6c 48 a9 3e
       -0.31692678 -0.24801742 0.18472639 0.33063066
000150 75 ae 32 3e 56 fd 38 3e 5e d6 5b be e3 66 ce 3e
       0.17449363 0.1806539 -0.21468493 0.4031287
000160 47 61 2f 3f 27 7c 8f 3e 1c d2 1b bf 2a f8 d1 bd
       0.6850781 0.28024408 -0.60867476 -0.10252412
000170 ac b2 73 3e 23 a7 28 bc e2 c3 65 3d 90 58 7c 3e
       0.23798627 -0.010293755 0.05609501 0.24643159
000180 26 5e e0 3e 80 eb 45 3c 26 65 66 be fe d4 a3 be
       0.4382183 0.012080073 -0.22499523 -0.31998438
000190 0f 8d 04 bd fa c4 a5 bd d5 f4 60 3e c2 1a 57 be
       -0.032361086 -0.08094211 0.21968396 -0.21006301
0001a0 e3 13 13 bc f4 db 33 bd 28 8d 18 3b bf 37 0b 3e
       -0.008976909 -0.043910936 0.0023277495 0.13595484
0001b0 d4 81 82 3e c4 5f 9f 3d 12 44 c3 3e 48 9c f5 3b
       0.25489676 0.07781938 0.3813787 0.007495437
0001c0 44 31 05 3f a7 be 62 3e 39 a9 8e 3e a0 f7 52 be
       0.520283 0.2214304 0.27863482 -0.20602274
0001d0 e1 64 6b 3e ee 8a 89 be 0c 0d a1 bd 2a df 98 be
       0.22987701 -0.26863807 -0.078638166 -0.2985776
0001e0 06 c4 03 be 5f bd 00 be 99 08 e2 bc 84 90 b3 be
       -0.12867746 -0.1257224 -0.02759199 -0.35071194
0001f0 c6 b8 0c bf e8 b0 f4 bd 1d 69 ac ba 4f b1 1a 3e
       -0.5496944 -0.11947805 -0.0013153885 0.151067
000200 04 d1 6e bc e3 ae 8b 3e 29 a8 58 be d9 67 83 3e
       -0.0145762 0.27281865 -0.21157898 0.25665167
000210 23 9b 9e 3c 0e d1 25 be df 48 d9 3d 43 f9 7a 3c
       0.019361084 -0.1619303 0.10609602 0.015318218
000220 6e 05 8d 3d 43 e7 a6 bd 7d 84 7d bd 73 e3 9e bd
       0.06885801 -0.081495784 -0.06189393 -0.07758226
000230 25 8a a6 be 29 cf 01 be ca f7 1a be b1 9f ca 3d
       -0.3252727 -0.12676682 -0.15133587 0.0989374
000240 a4 6e 44 be 4b a2 00 be 1f 58 76 3e af e0 4e 3e
       -0.19182831 -0.1256191 0.24057053 0.20202897
000250 25 2d c8 3d 5e 74 83 be ab 08 be be a2 65 d4 be
       0.09774236 -0.2567472 -0.37115988 -0.4148379
000260 86 c1 6a 3e bf 45 5f 3e d2 d0 5c 3e a7 1f 9d be
       0.22925386 0.2180395 0.21564034 -0.3068821
000270 c9 17 df 3e 30 b9 78 be f8 d0 d1 3d 1b b6 6d be
       0.43572834 -0.24289393 0.10244936 -0.23213999
000280 e0 5a a1 3d ab da 10 be 68 e7 f1 3d 81 ad ba be
       0.07878661 -0.14145915 0.11811715 -0.36460498
000290 2e 85 69 bd f2 26 1b 3f 7a 03 0a 3e 5f c4 be be
       -0.057011776 0.606063 0.13477889 -0.37259194
0002a0 fb a4 92 3e d2 8b 85 be 06 ab 7b be 00 35 9b 3e
       0.28641495 -0.26083237 -0.24576959 0.30313873
0002b0 0f b3 07 bf 50 a4 40 be 25 48 c9 bc e8 ef 91 bd
       -0.53007597 -0.1881268 -0.024570534 -0.071258366
0002c0 2c fa ef 3c 28 63 19 3e b7 da fd be cd cb 38 3e
       0.029294096 0.14979231 -0.4958093 0.18046494
0002d0 b6 12 ef be c8 eb 07 3a 7b 0c 06 3b 8c 06 7c 3e
       -0.46693963 0.00051849755 0.0020454216 0.24611872
0002e0 f9 c3 51 bc 9c 7f c6 3c 42 a4 60 3e e0 4e c2 bd
       -0.012803071 0.02423077 0.2193766 -0.094877005
0002f0 ee ca bf 3e b6 0f de bc ff f2 4e be ba af 85 3d
       0.3745951 -0.027107101 -0.20209883 0.06527658
000300 b6 e4 4e be d4 25 0d be 0f cb a5 3e 63 fa 14 3e
       -0.20204434 -0.13783962 0.32381484 0.1454864
000310 f3 b7 c8 be e5 fa 56 3d ba dc fd bd aa 45 90 bd
       -0.39202842 0.052485365 -0.12395616 -0.07044537
000320 2f d7 39 be be d2 ba 3e 95 c9 b3 bd a4 4f ac 3d
       -0.18148492 0.3648891 -0.08778683 0.08413628
000330 03 ff 53 3e 13 a3 12 3f 59 e0 06 3d dd 23 bd be
       0.20702748 0.5728008 0.0329288 -0.36941424
000340 11 10 ae 3e 77 c5 80 3e e4 9a 3c 3e b6 b9 62 3e
       0.33996633 0.25150654 0.18418461 0.22141156
000350 c5 9e 8e be dc 57 00 3e 90 05 91 3d 13 6e 02 bf
       -0.27855507 0.12533516 0.07081139 -0.5094921
000360 c7 fa 6c be 77 05 fc 3d c2 d9 0a 3d b7 c0 91 bd
       -0.23142539 0.1230573 0.033899076 -0.071168356
000370 00 79 1f 3e 86 2b f8 be 1b 7f 8c bd 16 c7 13 be
       0.15573502 -0.48470706 -0.06860181 -0.14431414
000380 76 18 d5 bc 26 38 ed bd de 88 95 bd 19 e6 0d bd
       -0.02601264 -0.11582975 -0.07301496 -0.034643266
000390 ae 5a 5b 3e d6 7d 16 3e 65 4a 10 be a4 19 7c be
       0.2142131 0.1469644 -0.1409088 -0.24619156
0003a0 6b 20 50 3d d9 09 a9 3e 9f 92 5b 3e 28 38 55 3e
       0.050812166 0.33015326 0.2144265 0.20822203
0003b0 2d ed 08 3d 46 09 06 be 36 2d 34 be 9e e1 ac bc
       0.033429313 -0.13089475 -0.17595372 -0.021103676
0003c0 9c 12 b6 be d1 52 91 be 88 15 38 3d 34 ac 7b bd
       -0.35561073 -0.28383496 0.04494241 -0.061443523
0003d0 2a 8e a7 3d 78 77 32 be da e1 6c bd 68 9b df be
       0.081814125 -0.17428386 -0.057832576 -0.43673253
0003e0 ba a3 ce 3d 18 c3 b7 3e 0f 81 15 3f f9 94 9f 3e
       0.10089822 0.35891032 0.5840005 0.31168345
0003f0 d8 20 65 be 7c 5c 84 3d 47 3d e7 bd aa 1e 6b 3e
       -0.2237581 0.064629525 -0.112909846 0.22960916

0.features.2.0.block.1.1.weight f4 [32]
000000 66 88 7a 3f b3 b0 7e 3f 51 46 80 3f 2d 7d 80 3f
       0.9786438 0.9948837 1.0021459 1.0038201
000010 f7 a6 7f 3f 99 a5 77 3f c9 62 7c 3f f1 31 82 3f
       0.99864143 0.96737057 0.98588234 1.0171491
000020 5f 3e 80 3f 60 c2 78 3f ae f4 7c 3f 22 2b 7e 3f
       1.0019034 0.9717159 0.9881085 0.99284565
000030 a3 c9 80 3f 71 0a 82 3f 80 f5 7d 3f ff 35 83 3f
       1.0061535 1.0159436 0.9920273 1.0250853
000040 16 c1 7a 3f 7b ac 7f 3f ba 00 78 3f 8f 29 7f 3f
       0.97950876 0.9987256 0.9687611 0.9967279
000050 33 66 7c 3f 27 8f 81 3f 24 8f 7c 3f 77 0a 80 3f
       0.98593444 1.0121812 0.98655915 1.0003194
000060 0a e2 83 3f 18 1a 81 3f f9 20 81 3f 9d 4e 82 3f
       1.0303357 1.0086088 1.0088187 1.0180241
000070 f8 6c 81 3f 17 9f 80 3f 30 48 7f 3f 4c f2 80 3f
       1.011138 1.004855 0.99719524 1.0073943

0.features.2.0.block.1.1.bias f4 [32]
000000 9a 6a 2e 3c 3e 7d 14 bb ed c5 e4 bb 66 de cb 3c
       0.010645533 -0.0022657658 -0.0069816024 0.024886321
000010 d0 a0 77 3c be 05 77 3b 2c ea b2 39 fc c6 69 3b
       0.015114024 0.0037692632 0.00034125277 0.0035671582
000020 b4 b5 30 3a e5 cc 4d 3b c6 db e8 3b 19 c6 43 3c
       0.0006740943 0.0031402644 0.007106277 0.011949086
000030 dd 55 ed 3b 53 94 8c bc 8d bf 02 3c b3 eb b2 3b
       0.0072429017 -0.01716057 0.00798024 0.0054602264
000040 ca 7e 45 bc a6 e0 8e b8 1b 69 1c 3c f5 c0 96 bb
       -0.012054155 -6.812932e-05 0.0095465435 -0.004600639
000050 06 80 9c 3b 05 50 1a 3c 92 7f 3c bb 72 de ca bb
       0.004776004 0.009418492 -0.0028762561 -0.0061910683
000060 ed f0 8c bb 9e 8e 13 bb b1 f7 c0 3b c9 ff 01 3b
       -0.0043011815 -0.0022515426 0.005888902 0.0019836298
000070 0f 73 98 39 1a 30 89 bb cc 8b 6a bc 7f 1f e8 bb
       0.00029077425 -0.0041866424 -0.014315557 -0.0070838328

0.features.2.0.block.1.1.running_mean f4 [32]
000000 59 6d 87 3c 15 c7 ed 3d ed 68 99 be d7 58 b7 3c
       0.016531633 0.116102375 -0.29962865 0.02238123
000010 c6 59 b5 3c 12 34 aa 3e 4d a8 05 3e f6 b9 46 bf
       0.022137534 0.33242851 0.13052483 -0.77627504
000020 6d 07 df 3e 8a 69 90 be 94 44 da 3e fb d8 60 3e
       0.43560353 -0.2820552 0.42630446 0.21957771
000030 66 fb 0a 3e 7e 5c 97 3e 78 0e f5 3d cc 39 b8 3d
       0.13572463 0.29562753 0.1196565 0.08995399
000040 26 e8 b2 be 9f db 48 3e 4d 8d c6 3e 43 86 c1 bd
       -0.3494274 0.19615029 0.3877968 -0.094494365
000050 87 f7 94 be a0 c9 4a bd dc a7 af 3e 9d 07 d8 bd
       -0.29095098 -0.04950869 0.34307754 -0.10548327
000060 40 90 57 be c2 bb 7a bd 0c 26 34 3e 17 51 3e be
       -0.21051121 -0.061214216 0.17592639 -0.18585621
000070 46 25 2a be 1b 15 df 3e 31 1f 59 be 74 11 a6 bd
       -0.16615781 0.4357079 -0.21203305 -0.08108798

0.features.2.0.block.1.1.running_var f4 [32]
000000 af d9 8e 3f f2 75 bc 3f 5b b6 d8 3f a7 30 fd 3f
       1.1160182 1.4723494 1.693065 1.9780473
000010 4f ec 0d 40 4e 36 38 40 22 1a e3 3f 31 63 61 40
       2.2175481 2.8783145 1.774235 3.5216792
000020 7f e4 60 3f fb 19 04 40 ac a6 0b 40 23 b5 fa 3f
       0.8784866 2.0640857 2.1820478 1.9586529
000030 40 71 3d 40 5d bf 0e 40 3a f7 7d 3f d6 d9 b5 3f
       2.9600372 2.23043 0.9920536 1.4207103
000040 02 c3 0b 40 ae 76 02 40 12 33 26 40 95 bc 6d 40
       2.1837773 2.0384936 2.596867 3.7146351
000050 a9 72 47 40 46 e3 12 40 94 ff 81 3f e1 99 1f 40
       3.1163733 2.2951217 1.0156121 2.493767
000060 19 c6 af 3f 7d 60 b1 3f ae 27 89 40 56 39 f3 3f
       1.373233 1.3857571 4.2860937 1.9001873
000070 07 c6 20 40 c8 91 30 40 a1 a6 23 40 43 b7 36 40
       2.5120866 2.7588978 2.5570452 2.8549354

0.features.3.0.block.0.0.weight f4 [128, 32, 1, 1]
000000 82 a7 06 3d cc 2d ae bd 5c 25 3d 3e ee 5c e5 bd
       0.03287459 -0.08504829 0.18471283 -0.111993656
000010 5f 14 3c be 43 8f 78 3e 29 b7 5a bd f7 7c a5 3e
       -0.18367146 0.242734 -0.05339733 0.32321903
000020 14 92 66 3a 72 06 88 3d 12 7b db bd 01 1d c1 bd
       0.0008795571 0.06641854 -0.10716833 -0.0942936
000030 63 c4 c8 bd 9d a0 20 3d 4c 67 81 3d 7f 47 b7 3c
       -0.09803083 0.039215673 0.063185304 0.02237296
000040 e3 69 28 3e 14 53 5f be 2b 1d 20 be 95 01 4c be
       0.16446643 -0.21809036 -0.15636127 -0.19922478
000050 86 f1 3f 3d c5 4a 19 be 03 11 10 be 1f a0 cd bd
       0.046861194 -0.14969929 -0.1406899 -0.10040306
000060 1a 10 c8 3d 65 3c e6 bd bb 26 2a bd bf 62 01 3e
       0.09768696 -0.11241988 -0.041540843 0.12635325
000070 9f a3 34 bd c0 5c 9e bd 96 65 0d 3d 95 04 8c bd
       -0.044101354 -0.077325344 0.034520708 -0.068368115
000080 75 f6 00 3c c0 43 15 3e bf 32 4b 3e 32 82 08 3d
       0.00787126 0.14576626 0.19843577 0.03332729
000090 52 fe fe 3b 7b ce fe 3d 2c 0d 72 3e 59 2c 05 3d
       0.007781782 0.12441727 0.23637837 0.032512996
0000a0 47 2c 46 3d 68 0f 83 bd 4a 5d 30 3e 43 1e 71 bd
       0.04838207 -0.06399423 0.17223087 -0.05886675
0000b0 2b bc 71 be 5c 29 b9 bd 2b a0 d9 3d 71 96 89 bd
       -0.23606937 -0.09041092 0.10626253 -0.067181475
0000c0 f6 b6 2b 3d 80 f8 b9 3d 28 55 5c bd 05 29 19 3e
       0.041922532 0.09080601 -0.05379215 0.14957054
0000d0 5d 77 5f bd 79 8f be bd 03 6b 40 bc 0f fc 7a bd
       -0.054557193 -0.09304709 -0.011744264 -0.061275538
0000e0 8b 73 64 3e 3f 33 4d bd 59 f2 62 3c fc 27 be bd
       0.22309701 -0.0500977 0.0138517255 -0.0928497
0000f0 88 bb 57 bd fc 28 cb 3d 14 53 ba 3d ec ee be 3d
       -0.052669078 0.099199265 0.09097877 0.093229145
000100 a7 cb 8e 3d ff 96 53 3d b7 3b 52 3c 2d b5 61 3d
       0.06972437 0.051657673 0.01283162 0.055104423
000110 82 38 32 bc 6f 1d 29 be 8c 58 29 be b6 2a 34 bd
       -0.01087773 -0.16515134 -0.16537684 -0.043986045
000120 12 2a 22 3e 06 21 fc 3d 35 70 35 3d 2f 2e 84 3c
       0.15836361 0.12310986 0.044296462 0.016135303
000130 6e b0 47 3e f6 2d 2b 3a 62 47 6e 3d 3e 00 50 3b
       0.19500896 0.0006529981 0.058173545 0.0031738426
000140 df 33 92 3d a7 a7 a0 3d 04 ca 15 be da 3f 58 3e
       0.071388 0.07844477 -0.14627844 0.21118107
000150 bb 17 97 3d c5 d8 58 be a5 76 7d bd f4 7d 0a be
       0.07377573 -0.21176441 -0.061880726 -0.1352461
000160 46 e9 b8 bd 5b ef 42 bc 6b 6c 38 3e 87 32 a7 3d
       -0.090288684 -0.011897887 0.18010108 0.08163934
000170 8a 2f 5b bd 6d 00 b5 be 70 37 87 be 3c c5 03 bd
       -0.053512134 -0.35351887 -0.26409483 -0.03217052
000180 83 40 5e 3d 9d 0a 3c 3e 1e 1e 21 bd 7e 67 7d 3c
       0.054260742 0.18363424 -0.039335363 0.015466569
000190 7b 47 91 3d 65 0d 01 be 29 46 82 3d a2 5d a6 bc
       0.07093712 -0.12602766 0.06361038 -0.02030832
0001a0 5a 98 0f bc 45 10 53 3c bb 22 99 3d 4a d2 03 3e
       -0.008764351 0.012882297 0.074773274 0.12873188
0001b0 b3 3a 48 bd e6 a0 9c be 12 32 39 be c9 3d c0 3d
       -0.048884105 -0.30591506 -0.18085507 0.093867846
0001c0 ad db fe bd bd c9 e6 3d 35 d2 2c 3e e5 19 03 bd
       -0.124442436 0.11268947 0.16877063 -0.032007117
0001d0 9c 70 08 3e c6 96 c3 bd 6f 2d 0a 3c 30 2e 0a be
       0.13324207 -0.09550242 0.008433684 -0.13494182
0001e0 aa bb d6 3c ea 7c a3 bc cf 5c 1c be 84 1b 0b 3e
       0.026212532 -0.019957025 -0.15269779 0.13584715
0001f0 ab 18 69 3a 4b 61 bb 3d 60 5b 2a 3d f5 f9 b0 3d
       0.00088919204 0.091494165 0.04159105 0.086414255
000200 e4 59 1c 3e 19 04 31 bc 07 46 c3 bc a6 13 37 be
       0.15268666 -0.0108042 -0.023837103 -0.17878589
000210 80 de 0c be 8e 02 13 3e e6 40 0b 3e a5 44 53 bd
       -0.13756752 0.14356443 0.13598976 -0.051579136
000220 6e 0f 24 bd 21 df 0a be 96 e9 9d bd 31 f4 82 3d
       -0.040053777 -0.1356168 -0.077105686 0.06394232
000230 48 be 6d be 57 3a d4 3c 56 db ab bd 3e 52 16 3e
       -0.23217118 0.025906725 -0.083914444 0.1467981
000240 47 21 2a 3e 61 e1 b9 be 2e 63 c0 3c 1e ff 97 3e
       0.16614257 -0.36304763 0.023484793 0.29686826
000250 ce 34 43 be 28 73 04 3e 47 88 0a bc a9 82 82 bd
       -0.19063112 0.12934554 -0.008455343 -0.06372578
000260 db 4b f6 bd 96 cf b0 3d 74 a9 42 3e c4 26 01 3d
       -0.12026187 0.08633344 0.19009954 0.03153111
000270 48 4d 1c 3e 15 2b 07 be 4b 8d c0 bc b1 26 08 bd
       0.15263855 -0.13200028 -0.023504874 -0.033240024
000280 ea 1d bd 3c 15 23 37 be b6 41 d6 3d 5f d6 c0 bd
       0.023085553 -0.17884476 0.10461752 -0.09415888
000290 9a cc eb bb 33 9a 02 bd e9 55 14 3d f2 b7 b7 be
       -0.0071960213 -0.031885337 0.036214743 -0.35882527
0002a0 b6 77 48 3d 1a 1c 44 bd 23 4b ef bd 40 8b 03 be
       0.04894229 -0.047878362 -0.11684253 -0.12846088
0002b0 df 0c a7 be 9c 25 cc 3c 3d 10 6e 3c fc ce 9d bd
       -0.32627007 0.024920277 0.014530239 -0.07705495
0002c0 8b 08 93 be 5b e0 63 bd ba f9 3e bd c5 81 d2 bd
       -0.28717455 -0.055633884 -0.046624877 -0.10278658
0002d0 01 e8 c3 bd 7e 81 8e 3d 54 9a 20 3e 3a ec 1b bd
       -0.095657356 0.069582924 0.15683872 -0.03806708
0002e0 04 0c c2 bd f0 f8 aa bd e0 f4 83 bd 0a a9 63 be
       -0.09474948 -0.08348262 -0.064431906 -0.22232452
0002f0 bc 5b 07 3e 14 62 44 3d 30 ab 5b 3a 61 85 44 3e
       0.13218588 0.047945097 0.0008379696 0.19191505
000300 58 dc d0 bd ab f6 66 3d 6d 4c 6a be 31 04 d5 bd
       -0.10198277 0.056387585 -0.22880717 -0.1040119
000310 8f b4 30 3e a6 d9 d7 3d 48 87 bc bc f6 1e bd bd
       0.17256378 0.1053956 -0.023013726 -0.09234421
000320 11 60 a4 3c 4e 9c 8a be d0 8b 18 3e c6 7b 85 be
       0.02006534 -0.27072376 0.14897084 -0.26070994
000330 35 2d ed 3b a9 f5 52 3a 6b 05 71 3d 92 99 39 3e
       0.007238055 0.00080474705 0.058843058 0.18124989
000340 f5 51 03 3e e6 6b e0 bd c2 43 69 3d 51 15 9f bd
       0.12824233 -0.1095808 0.056949385 -0.07767738
000350 1e fc f1 ba a9 a9 06 be b7 f5 03 be 67 a6 52 3c
       -0.0018461978 -0.13150658 -0.12886702 0.012857056
000360 70 17 5a 3d 25 19 8f 3d 7c 21 b5 3d ad af 9b bd
       0.053245008 0.06987218 0.08844277 -0.07601867
000370 fd c2 21 bd 8a 0d 1d be 9c 65 64 be ac 2f 5e 3e
       -0.039492596 -0.15337196 -0.22304386 0.21697873
000380 c2 36 a7 bd e0 e6 58 3d eb c3 38 3d 21 dc 5d be
       -0.08164741 0.052954555 0.045108717 -0.21666004
000390 ce 77 c9 3c 61 1e e7 bc 3c 9a f9 bd ab 3d 72 bd
       0.02459326 -0.028212728 -0.12187621 -0.059140842
0003a0 da 0c 0f bd 79 f1 19 3c e5 40 dd 3d 7e 01 25 3e
       -0.034924366 0.0093959505 0.10803393 0.1611385
0003b0 39 a7 9a bd ec 44 66 bc f8 44 1e bd 10 13 5a bd
       -0.075514264 -0.014054518 -0.038639992 -0.053240836
0003c0 87 02 b0 bd b2 f8 25 3d b9 10 37 3e 03 e6 1b bc
       -0.08594232 0.040520377 0.17877473 -0.009515288
0003d0 59 b4 0a be e1 84 cb bd 2d a7 a3 bc 77 0c 9a 3d
       -0.1354536 -0.09937454 -0.019977177 0.07521909
0003e0 57 80 a9 bd 4c 43 a0 3b 44 72 55 bd 50 de 74 3e
       -0.08276432 0.004890835 -0.052110925 0.2391293
0003f0 24 f0 81 be ae ef c3 3d b8 d2 ab bd 02 25 1e 3e
       -0.25378525 0.095672 -0.08389801 0.15443805
