code/modeling/ckpt/AutoencoderConfig([1, 1, 2], flip=False, rotate=True)/autoencoder_40000.pth (torch, 538250 bytes, 87 tensors)

0.features.0.0.weight f4 [16, 8, 3, 3]
00000000: 53d9 42bd c92f 953d 44fd c5bd a430 ee3d
00000010: 9a21 bf3d a51b 7c3d e0ef 863b 8195 213c
00000020: 4752 0cbe 7833 ae3b f120 c13c 3cfa 873d
00000030: 8cce 95bc fa67 97bd 8c79 c43d 95a4 bd3d
00000040: f719 263c 997d ddbb b0b9 793d 15bf d2bc
00000050: c76c ec3d 8033 6cbc 3f84 763d 5408 ccbc
00000060: e6a8 863d 52ab b2bb d8c1 b2bb 969c 77bc
00000070: f480 e13c 1379 1d3c cf9b 993b b8f0 393c
00000080: 3361 293d 4872 063d f330 02bd 1261 01bd
00000090: 4d0c 62bc 5696 6dbd 2a39 b23c 3bb6 1fbe
000000a0: 9693 7abe 995a 80bd 8e4e 07be 050e c1bd
000000b0: 4ff1 08bd 25ac 503b e340 8abd 05f8 733c
000000c0: 7dd8 82bb f3ea 4abd d9a5 a4bc deb1 ce3d
000000d0: 1862 d13d 1917 993d 4d22 973c 2896 acbb
000000e0: fae5 1e3d dbc1 7c3c 4b23 11bd e952 183b
000000f0: 0a66 ce3c b599 ba3d 0ec2 c33c b3b6 5c3d
00000100: e98e 6dbd 35ed 493d ff93 04bd 473b 93bd
00000110: 8cb6 b8bd 4233 9ebd 5489 0fbd 976b 22bd
00000120: 2a19 9e3d 2970 a43d a646 2a3d ae18 453d
00000130: cdc8 62bd 1130 dcbc 39fd 4d3d fd90 51bc
00000140: 974a fabb df5a 7bbc 2bab 373d 81bb f1bc
00000150: f4af 0b3d 8ca6 2a3d 08c2 4e3c aff4 253d
00000160: c9ef 15bc 1748 68bc 672f 3e3c 5d22 643c
00000170: a1ce 62bc 3e69 5a3c 1011 463c e3a6 e13c
00000180: b2c5 a73d 4d32 11bd 413d 5f3c 01d3 6b3d
00000190: 588e 46bc 2be1 d03d f398 cbbc 86b0 7abd
000001a0: a9c5 56bd 4cff ce3d 3150 563c 1d67 1a3c
000001b0: 9f5f a5bd d0a1 45be 6660 92bd 53d1 58be
000001c0: 873e babe d438 2fbe 7211 8abc a46d 10be
000001d0: 7a5b 4fbd f079 e23c 6dea e3bd 389f cc3b
000001e0: 6175 91bd 545d 50be c096 35be 061c eabb
000001f0: b69c 9fbd 1cb6 393c 722d c03b 9e38 6ebb
00000200: 7ade 8b3c bbc4 1bbc 159a 76bd c5e9 77bd
00000210: 9ec6 763c 2529 edbb 83f8 d8bb 5565 c9bb
00000220: ff4f 4e3d 09ad 1f3d 2e6c a5bb 2f2d b2bd
00000230: 9e5a 71bc d71f c4bc f639 293d 9004 49bc
00000240: fc34 043d d0db 043d aa91 a83b bb13 e33b
00000250: a077 993d fbc2 00bd 2fa9 813b 808e 0f3d
00000260: e562 ffbc 0ffc aabd 902c dc3d 81dc 51bd
00000270: c82d 3c3d bb15 0e3f 64c5 063e 41b9 c7bd
00000280: 68a5 2b3e d9a5 b3bd fd22 9f3c df19 2d3d
00000290: d6da 9fbc e004 613d 6eb0 f1bc 6eca 163d
000002a0: 566b 43bd 0690 9c3d 5b87 c2bb 7643 bbbd
000002b0: b6f2 7cbc b9bd cfbc d20c 843d 3e1b 40bd
000002c0: ace5 363d 9b8c 07bd 9d2c 61bc 311d e9bc
000002d0: 1fba 5ebd 6ea4 02bd 7226 0bbd 9a04 cebb
000002e0: 3a5d 2cbd 1de1 b7bc fed4 12bd 87d7 b6bd
000002f0: 4f0d 41bd bc62 033c 0ce3 8e3d 03cb e13c
00000300: 636f e63d 3be0 f83d 03b3 be3d a29a 703d
00000310: d744 7c3d 0463 913d f999 5b3c 0037 51bc
00000320: 03b7 4b3d 9faf fc3c bc5e d43c 4ddb 2a3d
00000330: 5baf 423d d5a3 0cb9 dfe3 7d3d 2f62 2fbd
00000340: 571e 97bd 51e9 00bd ea54 f3bd 746d e8bb
00000350: 728f 6cbd 3b5e e1bc 39d8 9fbd e646 c0bc
00000360: 7914 35bc 835c d0bc 9eb3 723d 960c 6dbc
00000370: 91b5 7a3c 3bbb 83bd 75cc ef3b c629 a7b7
00000380: 8070 203d 8949 8f3d a3d1 95be 376b 45be
00000390: 0f76 99bd 9a2f ecbe 2cad dcbe eee3 a53d
000003a0: 2c95 33be c105 d2bc 4551 7e3d fb62 7abd
000003b0: 7601 023d e109 d13d 5acd 41be 9ce4 08be
000003c0: 6cdc 52bd 62d4 173e bf6b f539 83ab 833d
000003d0: d7d8 ff3c ea18 a4bd cba4 07bd 03d9 d6bc
000003e0: 465f 143d f5ab 263c 9b30 11bd bb4a 023b
000003f0: 89e5 e3bb 2c83 2a3d c16b b3bd a092 40bc
-0.047570538 0.07284505 -0.09667447 0.11630371 0.09332581 0.0615498 0.004117951 0.009862305
-0.13703261 0.005316194 0.023575278 0.06639525 -0.018286966 -0.07392879 0.09593496 0.09259907
0.010138026 -0.006759357 0.0609681 -0.02572588 0.11544185 -0.014416575 0.060184713 -0.024906315
0.065751836 -0.005452552 -0.005455237 -0.015113017 0.02752731 0.009611386 0.0046877633 0.011348896
0.041352462 0.03282383 -0.031784963 -0.031586714 -0.013796878 -0.0580047 0.021755774 -0.15596859
-0.24470362 -0.0626728 -0.1321356 -0.09426502 -0.033433255 0.0031840887 -0.067506574 0.014890675
-0.0039930926 -0.04954047 -0.020098614 0.10092519 0.10223788 0.07475109 0.018448973 -0.0052669235
0.03879354 0.015427078 -0.03543405 0.0023242778 0.02519514 0.091113485 0.023896243 0.053885173
-0.057997618 0.049298484 -0.032367703 -0.07189041 -0.09019193 -0.077246204 -0.035043076 -0.039653387
0.077196434 0.08029205 0.04157128 0.04811924 -0.05536728 -0.026878389 0.05029032 -0.012790916
-0.0076382863 -0.01534149 0.044840973 -0.029508354 0.03410335 0.041662738 0.012619503 0.04051655
-0.0091514075 -0.014177344 0.011607981 0.0139242085 -0.0138432095 0.013330756 0.012089029 0.027545398
0.08192004 -0.03544836 0.013625444 0.057574276 -0.012118898 0.101991974 -0.024853205 -0.061203502
-0.052434597 0.10107288 0.013080643 0.009423998 -0.08074879 -0.19300008 -0.07147293 -0.21173601
-0.3637583 -0.17111522 -0.016854022 -0.14104325 -0.05062435 0.027646035 -0.111286975 0.0062445663
-0.071024664 -0.20348102 -0.17733288 -0.007144454 -0.07793562 0.011334922 0.0058647925 -0.0036349664
0.017073859 -0.009507353 -0.060205538 -0.060525674 0.015062002 -0.007237571 -0.006621422 -0.006146113
0.05036926 0.03898338 -0.0050482964 -0.08700024 -0.0147310775 -0.023940964 0.04131504 -0.012269154
0.032277092 0.032436192 0.0051443176 0.0069298423 0.0749352 -0.031435948 0.003956936 0.035048008
-0.031175086 -0.083488576 0.10750687 -0.05123568 0.045942098 0.5550191 0.13161236 -0.09752131
0.16762316 -0.08771867 0.019425863 0.042261 -0.019513529 0.05493629 -0.029503074 0.036814146
-0.047709785 0.07644658 -0.005936546 -0.091437265 -0.015438726 -0.025359021 0.06447758 -0.04690098
0.044652626 -0.033093076 -0.013743547 -0.028456302 -0.054376718 -0.031895094 -0.03397221 -0.0062871696
-0.042081095 -0.02244621 -0.035847656 -0.08927827 -0.047131833 0.008019146 0.069768995 0.027562624
0.11251714 0.121521436 0.093114875 0.05874122 0.06158909 0.07098964 0.013403409 -0.012769461
0.04973508 0.030845461 0.02592408 0.041713048 0.047530513 -0.00013412473 0.061984893 -0.042818245
-0.07378834 -0.031472508 -0.118814304 -0.007093126 -0.057753988 -0.027510753 -0.07804913 -0.023471307
-0.011052244 -0.025434738 0.059253328 -0.014468333 0.015302078 -0.06432196 0.0073180743 -1.9927404e-05
0.03916979 0.069964476 -0.29261503 -0.1927918 -0.07493221 -0.46130067 -0.4310087 0.08100115
-0.17537373 -0.02563751 0.062089223 -0.06112955 0.031739675 0.102069624 -0.18925992 -0.13368458
-0.051479742 0.14827111 0.0004681032 0.06429198 0.031231327 -0.080125645 -0.033116143 -0.026226526
0.036223672 0.010172834 -0.035446744 0.0019880969 -0.006954853 0.041629 -0.08760787 -0.011753708

0.features.0.1.weight f4 [16]
00000000: d756 f53e d7c6 2e3f 51e0 0f3f ce74 593f
00000010: cbcb 283f 0c81 203f df0b 273f 20dc 423f
00000020: c226 533f d78f 243f ec4c d73e 4965 2c3f
00000030: 7c89 363f 306b 2c3f 8496 083f 2776 2f3f
0.47917816 0.68272156 0.56201655 0.84943855 0.65935963 0.6269691 0.6525249 0.76117134
0.82481015 0.6428198 0.42050874 0.6734205 0.71303535 0.67351055 0.5335467 0.6853966

0.features.0.1.bias f4 [16]
00000000: 6b08 173f 6286 803e 4418 b23f 48ee a6bd
00000010: 803f 053d fd1b 833f a4c3 1d3e 354b 2e3e
00000020: 1262 2abf 312a 563e 3802 3b3f 67df febd
00000030: d85b ec3d 93fd 3f3e a6f1 383f a76d 9b3f
0.5899722 0.25102526 1.3913655 -0.08150917 0.03253126 1.0242916 0.15406662 0.17020877
-0.66555893 0.20914532 0.7305026 -0.12444954 0.11540955 0.18749075 0.72243726 1.2142838

0.features.0.1.running_mean f4 [16]
00000000: 9cb5 19bd 5742 aabd 778f e0bc 3107 513d
00000010: 666c 54bd fa6a b13c 54bb b03d 069f dc3d
00000020: 6e09 7abc 1f30 a2bc 139e afbc eec7 bd3c
00000030: 15ac 4f3d 3b9e 5b3d 9c17 28bd c4c8 f6bc
-0.03752671 -0.083134346 -0.02741216 0.05103225 -0.05186119 0.021657456 0.0862948 0.10772519
-0.015261037 -0.019798337 -0.02143768 0.023166623 0.05070122 0.053617697 -0.04103814 -0.03012503

0.features.0.1.running_var f4 [16]
00000000: 76af d93e a0af 1440 a667 ab3e 3f77 a63f
00000010: 0db0 913f cb1a 343f 6528 1140 ab36 6940
00000020: e253 bc3e 55c1 543f 6a27 2d3e d517 853f
00000030: 749e 843f ec0a 983f 4a91 1c3f affa e53e
0.4251668 2.3232193 0.33477515 1.3005141 1.1381851 0.7035338 2.2680905 3.6439617
0.36782748 0.831075 0.16909567 1.0397898 1.0360856 1.1878333 0.61159194 0.4491782

0.features.1.0.block.0.0.weight f4 [16, 16, 3, 3]
00000000: 3382 3f3d e724 173e b510 99bd 2c06 d13d
00000010: 1162 43be ae03 6ebd 024a 04bd 295b 983d
00000020: e58f 82bd aa2a fcbc b4b0 f7bc 2554 b63d
00000030: 8904 bfbd d680 febd f3fe 703d 99ba c6bd
00000040: cb1f 1d3d 09fe f83c 2049 74bd 07a7 023d
00000050: 7cb3 163c f014 e93d ebd2 b7bc 389f 913c
00000060: 72fb 0ebc 957e 45bc f650 af3c 130c c1bd
00000070: bbfa 0b3a 19d5 29be a9bc 25be 1bbd 38bd
00000080: 0c9a 37be abe4 dbbd 828e 0cbd abfb 74be
00000090: 5139 bf3d 2511 76bd fbc2 383d 8642 5b3d
000000a0: aff3 3cbc 4766 e93d 884a b5bd 27f2 88be
000000b0: b2a9 53be 932c 7fbd b2ea e6bc 41ca bfbd
000000c0: cdf0 a1bd 15b8 9abd 9919 efbd 3c62 79bd
000000d0: ef80 a7bc 47dd ccbd 9cba 89bc d90b 493d
000000e0: 3794 3e3c 50f2 2ebe 5e5d 89be c463 86be
000000f0: 0616 33bc b411 be3d f580 b63d c2d0 7bbd
00000100: cf19 07bd ada5 75bd 5597 1b3e 2662 8b3d
00000110: b6f2 4fbe 5cb9 7c3e 6adc 943e 2474 583e
00000120: fa7c 75bd d2d4 04be 4d0b 7bbe 8010 41be
00000130: 9c82 07be 216f 67be 7fea aebe 5486 47be
00000140: 26cb c8be 8aac 22bd c375 4c3c 32b7 5abd
00000150: 8f8a acba de6a b93d 7723 a83d 4ace 98bd
00000160: ff60 00be 1ccb eebd c8a9 613c 6f17 77bd
00000170: f868 653d ac9a b13d e2e4 923e 12b0 133e
00000180: 154f 323d 8917 f63c 0754 083a 863c 74bd
00000190: 9b5d cb3c ef79 4bbe 5946 57be d534 d93d
000001a0: b264 55bd 2709 03be 57a4 903d c66d 76be
000001b0: 011e 11be 37c4 54bc 1bfa c9bd fe6f 95be
000001c0: 40ba 553e a278 25be f39b 73bc 4aa1 a33d
000001d0: fb9a 2dbe b2dd ae3d 3f1d b53e b852 593e
000001e0: 061b 8b3d ee4e 483e 6218 5a3e 2c18 efbd
000001f0: 145f 3e3d 33a2 c3bc 3e58 c1bd 3530 863d
00000200: 915b a6bd 9b1f 823d b4fb 1abd 856e 363e
00000210: 57e5 09bd e7aa 163d 518d 003d 5a8c 23bc
00000220: 844a a93b dbba 15bd 032c dcbd 495b b33c
00000230: b350 52bd 8f82 22bd 6983 9a3c 1c6c eebd
00000240: 06a1 04be 94bc 913e cea6 243e 00af 5c3e
00000250: c435 bb3e b564 c63d 8fb5 d43d 3826 8c3e
00000260: 4937 863c 0636 84bc f6cb 42bd 2882 0ebd
00000270: 3b4c be3d 8349 8b3e aa45 7bbd e295 0bbe
00000280: 7fbe fa3d c067 39bd 6d9c 383c 2f4c 6abd
00000290: c116 013e fe7f c6bd 03bb a63c 84ba 4cbd
000002a0: fa33 bf3d 6017 d53d f2b3 1a3e 6fb2 303d
000002b0: 6298 d83c cd7a b7bc 3ae8 22bc 1257 8fbd
000002c0: d4fa dcbd 3ebe a7bd b7d0 2fbe b727 c6bd
000002d0: 07c9 143d d550 133e 01ab a7bc 6f9a c33d
000002e0: 360f 323d 8d58 f23c ce4a c93d b527 023e
000002f0: 07be 36be 5a21 803c 9ace 7e3c e352 5cbd
00000300: a34a 223d f556 27bd 3830 633d 049f 103d
00000310: e83b 9c3c 563c 43bd 7ec8 c33d 6049 d5bc
00000320: 2e39 e0bd a0d5 02be cc03 3dbe ad18 95bd
00000330: 9361 6f3c 3f09 24be 67ab f93c 02cd 783c
00000340: 7f73 1cbe cde6 603d 35c8 b1bd 1c61 6ebe
00000350: de29 963d 1bb2 e3bc 3bab 71bd 0e9a 4cbe
00000360: 07d1 323e 844a f23d 1b56 063d 7abe 113e
00000370: ee63 e3bd b7ae ff3d a8f0 4e3d 96e8 8f3d
00000380: 65f0 873d 5d0f 7b3d e540 823d bb9c 6cbc
00000390: e56e 1d3e 34ea bd3d 4c0e efbc d75f babd
000003a0: 485f 893d e482 5bbc f118 263e fe4b 563e
000003b0: 2f9f 3f3e 879a 07be 5d19 3b3e d31d 44be
000003c0: 09b3 5abd ce04 a73c 3acb 36bd ff52 22be
000003d0: bf90 f9bc 83ea e33a f52f 3a3b eccc 88bd
000003e0: 6ed3 233e 3d47 893d ed11 c6bc 2367 c9bd
000003f0: 2e11 0f3d 127b 7abd 5799 053d c6a3 c03c
0.046755027 0.14760171 -0.0747389 0.10206255 -0.19080378 -0.058108978 -0.03229714 0.074392624
-0.06375102 -0.030782063 -0.030235626 0.08902768 -0.09327037 -0.12426917 0.05883689 -0.097035594
0.0383604 0.03039457 -0.05964005 0.03189757 0.009198066 0.11380947 -0.02243944 0.017776117
-0.008726941 -0.012054105 0.02140091 -0.09426131 0.0005339791 -0.16585197 -0.1618525 -0.04510222
-0.17929858 -0.10736974 -0.034315594 -0.23924129 0.09337104 -0.060074944 0.045107823 0.05353024
-0.011532708 0.11396461 -0.08852106 -0.26747248 -0.20670202 -0.06229837 -0.028188083 -0.09364749
-0.07907257 -0.07554642 -0.11674804 -0.0608847 -0.020447223 -0.10003143 -0.016812615 0.049083564
0.011632017 -0.17084622 -0.26829046 -0.2624799 -0.010930544 0.0928072 0.08911315 -0.061478384
-0.032983597 -0.059972454 0.15194447 0.0680583 -0.2030743 0.24680084 0.29074413 0.21138054
-0.05993364 -0.1297181 -0.2451603 -0.1885395 -0.13233417 -0.22600986 -0.3416328 -0.19484836
-0.3921749 -0.039715327 0.012479248 -0.053397365 -0.0013163852 0.090535864 0.082098894 -0.074612215
-0.12537001 -0.11659834 0.013773389 -0.060325082 0.05600831 0.086720794 0.2869025 0.14422634
0.04353245 0.03004052 0.00052005093 -0.059628032 0.024824908 -0.19870733 -0.21022929 0.1060578
-0.052097984 -0.1279646 0.07062595 -0.24065313 -0.14171602 -0.012986234 -0.09862157 -0.29187006
0.2087183 -0.16159299 -0.014868724 0.07989748 -0.16953652 0.08538379 0.35373875 0.21222961
0.06792264 0.1956136 0.21298364 -0.11674532 0.046477392 -0.023881054 -0.09440659 0.065521635
-0.08122934 0.063536845 -0.0378377 0.17815597 -0.03366598 0.03678408 0.03138477 -0.009982193
0.0051663537 -0.036555152 -0.10750582 0.021894114 -0.051346492 -0.03967529 0.01886149 -0.11641714
-0.1295205 0.28464186 0.16079256 0.21551132 0.36564457 0.09687177 0.10386192 0.2737291
0.016383784 -0.016139042 -0.047557794 -0.034792095 0.092918836 0.27204522 -0.061345734 -0.13631395
0.122433655 -0.04526496 0.011267764 -0.05720156 0.12606336 -0.09692381 0.020352846 -0.049982563
0.093360856 0.10404849 0.15107706 0.043138918 0.02643985 -0.022397423 -0.009943062 -0.06999029
-0.10790029 -0.08190583 -0.17169462 -0.09675544 0.036324527 0.14386304 -0.020467283 0.0955094
0.043471538 0.02958324 0.09828721 0.1271046 -0.17845927 0.015640903 0.015552187 -0.053789984
0.03962196 -0.040854413 0.055465907 0.0353079 0.019071534 -0.047664963 0.09559725 -0.026035964
-0.10948406 -0.12776804 -0.1845848 -0.07280097 0.014610666 -0.16019152 0.030477239 0.015185596
-0.15278433 0.05490761 -0.086807646 -0.23279232 0.07332204 -0.027794888 -0.05900119 -0.19980642
0.1746255 0.11830619 0.03279696 0.14232817 -0.111030445 0.12484496 0.050522476 0.07026784
0.066376485 0.06129395 0.06360034 -0.014441664 0.15374334 0.09273186 -0.029181622 -0.09100311
0.067076266 -0.013397906 0.16220452 0.20927426 0.18713067 -0.13242541 0.18271394 -0.19152002
-0.053393397 0.020388033 -0.044627406 -0.15851973 -0.030464528 0.0017388616 0.0028409932 -0.06679711
0.15998623 0.06703041 -0.02417847 -0.09834125 0.034928493 -0.061152525 0.03261694 0.023515593

0.features.1.0.block.0.1.weight f4 [16]
00000000: 600d fc3f 4799 1a3f ef1d 0d3f 6d40 ff3e
00000010: 1830 303f 45fd e73e e2fa 183f f0e9 243f
00000020: 20ed 393f 2cdf 1d3f c2ec 1a3f 2578 163f
00000030: d3d1 283f 97bc 1e3f 76fc 173f fc1f 013f
1.9691582 0.6039013 0.551238 0.4985384 0.68823385 0.45310417 0.59757817 0.6441946
0.7262745 0.6166866 0.60517514 0.58777076 0.65945166 0.62006515 0.593696 0.5043943

0.features.1.0.block.0.1.bias f4 [16]
00000000: c459 d0bf 98d2 9c3e 776c 2e3e 18f5 8d3e
00000010: c0e8 27bd 2b91 393d 7c68 2c3f 96b4 583e
00000020: e9d2 b5be 2917 babd 0908 0b3f ccdf 2abd
00000030: 6d56 a83d 23e0 a03e 4a78 273e aeec f63e
-1.6277394 0.3062942 0.17033564 0.27726054 -0.040993452 0.04530446 0.6734693 0.21162638
-0.35512474 -0.09086449 0.54309136 -0.041717336 0.082196094 0.31421003 0.1635448 0.48227447

0.features.1.0.block.0.1.running_mean f4 [16]
00000000: deeb 66be d825 5c3f 0291 4b3f 2473 cd3e
00000010: beac afbf 8abc bbbf 8490 bd3e f3ce ebbe
00000020: 487e 61be ec88 b6bf 3240 e23e c16f bdbf
00000030: 1d84 a9bf c1c2 583f f074 3ebf efc5 a93e
-0.22550914 0.85995245 0.7951814 0.40126908 -1.3724592 -1.4666913 0.3702432 -0.46056327
-0.22020829 -1.4260535 0.44189602 -1.479973 -1.3243443 0.8467217 -0.7439718 0.33158824

0.features.1.0.block.0.1.running_var f4 [16]
00000000: aad4 2f3e 5213 4c40 ea92 f13f 025a 0e3f
00000010: ae6b bb3f 0280 8a3f 1f86 413f 09b0 c73f
00000020: e39c 943e 5efe 1a40 05a3 503f aeb4 5b40
00000030: 9d94 a53f eda8 c93f 8466 393f d02a c23f
0.17170969 3.1886792 1.887296 0.5560609 1.4642236 1.0820315 0.7559528 1.5600597
0.29025945 2.4217753 0.8149875 3.4329028 1.2935978 1.5754677 0.7242205 1.5169315

0.features.2.0.block.0.0.weight f4 [64, 16, 3, 3]
00000000: 9cdf 9dbb 864c 4e3c f347 113d d767 833c
00000010: d8f1 73bd b45b a83c 8cee 763d 071c e8bc
00000020: cfeb 973d 1e0d d4bc 64b5 55bd 57dd c2bc
00000030: 8dbe f4bc b630 62bc 7068 40bd 5e69 76ba
00000040: 8c65 92bc f647 e9bb e15c c03b f6bc 9c3c
00000050: 324a c13b e454 33bd 93af 0dbe 30b2 e9bc
00000060: a779 c6bd 3391 08bd bb79 cebc 073c 3cbd
00000070: 2bea a7bc 5051 b03c 5e3f c73d c66e ab3d
00000080: 1065 a43d b6a8 c73c 7574 403e 7e3c 1ebd
00000090: dcfd 4e3d 2cc7 17bd 413c 073d 445e 1c3c
000000a0: 9d7c bd3c b74d 213c 0c4c 063e d5f5 e93d
000000b0: e536 893c 01fd fc3c aab5 36bd e8db 2b3d
000000c0: 2538 ccbd 969a 713c 1537 8dbd b17b a93d
000000d0: 37a9 313e 3e0e 11bd eed5 e93d 92af 40bd
000000e0: 3932 8cbd 90d8 74bd 469f f7bd bd93 ce3d
000000f0: 811b 16be b098 a1bd cff5 983c 1457 0dbd
00000100: cc31 e83c fe3f 333d 2f9c 483d 53b1 05bc
00000110: e027 84bd 70c6 d2bb 327b 493d 58fa c33c
00000120: 158f 8ebd ed0f d73c b47a 2dbd 0788 a43d
00000130: 7c5f 5a3c 82eb 763d 67e0 503d 1a1d 82be
00000140: 5454 133d face 11bc 989d bd3d d94f d8bc
00000150: e56b 2b3d b504 923d bf60 aebd 97a2 7d3d
00000160: 6fcf 2fbc 0f1a b23c 44c4 aebc d725 193d
00000170: c1b2 173d 5d51 643d 9c59 10bd 46d8 b93c
00000180: 2e16 1b3d 40f9 2dbd 8212 9cbc 4092 3d3d
00000190: 6ac9 a3bd 064a e63b a4ee 0fbd cb3b b8bd
000001a0: 0af3 d93c 4aff 623c 849f 893d 019e f5bc
000001b0: af51 abbc fcbf 853d d7a4 b6bd 142f cfbc
000001c0: 84f2 b23c 0306 dbbc ff9b 903c fade 86bd
000001d0: 8087 943c 2bd1 42bd 7b1c 753d c372 c53d
000001e0: b89f c7bc cefb e7ba 74d5 91bd c484 a3bd
000001f0: 9202 133e f28b fc3c 8d1a 2dbc 288f 8b3b
00000200: 9582 d53c 83ee 17bc 9ca9 633e 3efe a53a
00000210: cde4 c93d c9ee 73be 0ece a93d 0692 1a3d
00000220: 3783 d13c c08d b8bc a011 62bd ea4a b4bc
00000230: bf34 bcbd 2c7c 99bd 61d1 f6bd d9b9 013d
00000240: d8df 2b3d 9f0a 3abd feae af3d 2ebe 883d
00000250: 7087 2e3a 0026 1d3d a186 43bd 53a3 823d
00000260: 8d7f c13d a277 db3c 770e 52bd 1c48 0cbd
00000270: 436a b2bd fbd9 573d 4437 4cbc a19a c3bc
00000280: b735 e6bc e38d 313c f32e 89bd 1ec7 5ebd
00000290: 90e7 a0bc aea1 6fbd b062 8fbd 6ac7 d4bd
000002a0: b517 44bd 5e67 98bd 2a0d c1bc bc14 2bbd
000002b0: 4f96 813d 8c53 c3bd 6cc9 953d f68f 113d
000002c0: b1f1 3b3e 1a7a c3bc c8cc 2d3e 164b 10bd
000002d0: 540e dc3b 2560 7a3d 597d 253d 3cc5 923d
000002e0: 93cf b33d 1433 da3d 6c75 763d 3cc5 0b3d
000002f0: 8bbe a93d 31dd 78ba c4bd 82bd e588 3dbc
00000300: afe8 5dbd 83e7 03be 8b9a 08be 9982 503c
00000310: 8556 9ebc b6ac 17be 95d1 783d cbd7 92bc
00000320: d4cd d0bc 3d72 dd3b c34f babd 7a20 263d
00000330: fbf9 363d f6f4 99ba b723 0cbd dace 01bb
00000340: 43b4 3ebd 60d4 e83c 9759 523d 1417 1abd
00000350: 7bc8 94bc 616d 973c 7f8e bcbb 6475 3fbd
00000360: 1874 c43c 5e7c 8f3d 77b1 8b3d 19ab 293d
00000370: 2680 333e a584 623d 922f 2b3d debc 7f3d
00000380: 9732 563e 9208 803b 64dc ea3c f4dd 873c
00000390: c891 90bd 637b 8b3c 9264 0c3c 34f6 89bb
000003a0: 5f5a b73c 800b 7f3c a2cf 03bd 335d 473c
000003b0: c1d5 cc3c 5e5a 423b e437 54bd ca92 d6bd
000003c0: f790 353c 6be7 2e3d a0d7 28bd a142 b13c
000003d0: 956e 2fbc 7a9a 683c e4bf 3c3c 01f9 f1bb
000003e0: 09c7 ac38 2238 083d c495 98bb b9b5 95ba
000003f0: 5d95 77bc eed8 c7bc 2768 81bc 58d5 08bc
-0.004817916 0.012591487 0.035469007 0.016040726 -0.059556812 0.02055154 0.06028609 -0.028333677
0.07418024 -0.025885161 -0.05217494 -0.023787184 -0.029876018 -0.013805559 -0.0469746 -0.0009399856
-0.017870687 -0.007119174 0.005870447 0.019133072 0.0058987373 -0.04378213 -0.13836507 -0.02852735
-0.09691172 -0.033341598 -0.02520453 -0.045955684 -0.020497402 0.021523148 0.09728883 0.08370738
0.08027089 0.02437244 0.18794425 -0.03863191 0.050535068 -0.03705518 0.033016447 0.009543959
0.02313071 0.009845189 0.13114947 0.11423842 0.016749809 0.03088236 -0.044606842 0.041957766
-0.09971646 0.014746329 -0.06895272 0.082755454 0.17349707 -0.035413973 0.11417757 -0.047042437
-0.06845517 -0.059776843 -0.12090926 0.100867726 -0.1465893 -0.07890451 0.018671898 -0.034506872
0.028344058 0.0437622 0.048977073 -0.008159953 -0.06452918 -0.006432347 0.049189754 0.023923084
-0.069608845 0.026252711 -0.042353347 0.08033758 0.013328429 0.06028319 0.050995257 -0.25412828
0.035969093 -0.008899445 0.09258574 -0.026405262 0.041850943 0.07129804 -0.085145466 0.061922636
-0.010730608 0.021740941 -0.021333821 0.037389603 0.037035707 0.055741657 -0.03524171 0.022686135
0.03786295 -0.04247403 -0.019051794 0.046282053 -0.07997401 0.0070278673 -0.035139695 -0.089957796
0.026605148 0.013854811 0.06719878 -0.029982569 -0.020912973 0.06530759 -0.089181595 -0.025291003
0.021844156 -0.026736265 0.01765251 -0.06585498 0.018131018 -0.04756276 0.059841614 0.0964103
-0.024368152 -0.0017698945 -0.07120791 -0.079843074 0.14356449 0.03082845 -0.010565412 0.004259009
0.026063243 -0.009273174 0.2223267 0.0012664271 0.098580934 -0.23821558 0.08291255 0.037736915
0.025575263 -0.02252853 -0.05519259 -0.022008378 -0.09189748 -0.07494387 -0.120516546 0.03167138
0.04196152 -0.045420285 0.08578299 0.06676899 0.0006657755 0.038366318 -0.047735814 0.06378808
0.094481565 0.026790444 -0.051283326 -0.034248456 -0.08711674 0.052698117 -0.012464348 -0.023877444
-0.028101785 0.010837051 -0.06698408 -0.05438911 -0.019641668 -0.0585038 -0.07001245 -0.10389598
-0.04787417 -0.07441591 -0.023565847 -0.04176782 0.06327497 -0.0953742 0.07313809 0.035537682
0.18353917 -0.023861933 0.16972649 -0.035227858 0.0067155752 0.061126847 0.040402744 0.07166526
0.08779826 0.10654274 0.060170576 0.034123644 0.08288296 -0.00094934093 -0.06383851 -0.011568283
-0.054176982 -0.12881283 -0.13340203 0.012726449 -0.019328365 -0.14811978 0.060746748 -0.017925164
-0.025488771 0.006758003 -0.090972446 0.040558316 0.044671994 -0.0011745978 -0.034213748 -0.001980713
-0.04655863 0.02842158 0.05135497 -0.037619665 -0.018162003 0.018484773 -0.0057542915 -0.04674281
0.023981139 0.07006143 0.06820958 0.041422937 0.17529353 0.05530228 0.041793413 0.062435977
0.20917736 0.0039072717 0.028669544 0.016585328 -0.070590556 0.017026609 0.0085689 -0.004210258
0.02238196 0.015566707 -0.032180436 0.0121682165 0.02500427 0.0029655914 -0.051811114 -0.104772165
0.011081926 0.042701166 -0.04122126 0.021638216 -0.010707517 0.014196986 0.01152036 -0.00738442
8.238672e-05 0.033256657 -0.0046565253 -0.0011421955 -0.015111295 -0.024395432 -0.015796734 -0.008351646

0.features.2.0.block.0.1.weight f4 [64]
00000000: 2e15 2e3f 7fb6 0f3f 9dfe f23e 314f 233f
00000010: ed19 163f 4499 3b3f 41fa 2f3f 489f 443f
00000020: 53a9 e63e 4b04 383f 721f 263f 604b 2d3f
00000030: 6aa4 c33f 00a3 213f decb 383f ec80 453f
00000040: 92c7 373f d9f8 1f3f 0a6f 3b3f 385c 303f
00000050: f07b 023f e4a8 373f 07a9 233f 0cdd 383f
00000060: aeaa 153f 752e 133f a170 3a3f ca84 263f
00000070: e754 343f 3156 423f 3801 423f c6bb 333f
00000080: 1fb9 423f 91a2 d53e e1c7 503f 62fd 393f
00000090: e8a1 363f 1b6b 363f 5398 143f 6511 383f
000000a0: a9c7 333f 2c12 363f 1f98 323f 6465 393f
000000b0: c546 213f df8f 1a3f 1831 433f deb6 393f
000000c0: de1a 403f ced8 1a3f c82a 3b3f 0de2 2d3f
000000d0: 2f76 da3e 6443 423f 4ae3 283f 49df 3f3f
000000e0: bca7 3b3f e174 233f ab40 233f a350 313f
000000f0: 237a 2c3f b985 393f 152b 3d3f 1e04 413f
0.6800107 0.5613784 0.4745988 0.6379271 0.5863331 0.7328074 0.6874123 0.76805544
0.4505106 0.7188155 0.6489173 0.6769314 1.528455 0.63139343 0.72186077 0.77149844
0.71788895 0.62489086 0.7321631 0.68890715 0.50970364 0.7174208 0.6392979 0.7221229
0.5846356 0.5749276 0.7282811 0.6504637 0.7044205 0.7591277 0.7578311 0.70208395
0.7606372 0.4172559 0.8155499 0.72652256 0.713408 0.7125718 0.5804493 0.7190154
0.7022653 0.7112148 0.6976337 0.72420335 0.6299861 0.6037578 0.76246786 0.7254466
0.75040996 0.6048707 0.73112154 0.6792305 0.42668292 0.7588408 0.65971816 0.7495008
0.7330282 0.6385022 0.6377055 0.69263667 0.67373866 0.7246967 0.7389386 0.7539691

0.features.2.0.block.0.1.bias f4 [64]
00000000: 13dc 753d 7807 15be 5da0 a2bc 4d96 25be
00000010: 24b0 263e 948e 42bd e1f0 a93e 79a0 023e
00000020: c107 533e f801 b63e 9119 d73d bafc 043e
00000030: 418a 8abf 4ba2 f43c c0be bf3d 7d2b cf3d
00000040: e651 803e 904d 7d3e bba1 443e 2b5e 0c3d
00000050: 21c4 7a3e 0d7d 0b3e 3db4 003f 7704 b3bc
00000060: e4c2 d53c 81bb d73d 7a09 ad3d 6349 2f3e
00000070: c62f f73c 2803 7e3e b1a3 a83e ae6c 223e
00000080: cdb8 2c3e ecae 0fbd a755 303e 95c8 a03e
00000090: f5a3 443e 5ac7 eb3e e238 883e d78e 023e
000000a0: aa6e 3d3e 0dda e53d b268 8b3e 5b8a 8e3e
000000b0: 0818 eebd d830 193d 2f59 943e 7366 313e
000000c0: 6991 b03d 510a 89bc 2e32 a03e 3428 813e
000000d0: 4790 d7bc fbe9 a63e bd37 fe3d 6c10 16be
000000e0: a7f4 3d3e 6e17 cb3d b5c8 083c 514d 3f3e
000000f0: 4bc9 6f3e ba02 f23d eb2b 7a3e 0eec acbc
0.060024332 -0.1455363 -0.019851858 -0.16170616 0.1627813 -0.047499254 0.3319159 0.12756528
0.20608427 0.35548377 0.10502923 0.12987033 -1.0823442 0.029862544 0.093625546 0.101157166
0.25062484 0.24736619 0.1920232 0.034269493 0.2448888 0.13621922 0.5027502 -0.021852715
0.026093908 0.105338104 0.08449073 0.17117839 0.030174147 0.24805892 0.32937387 0.1586177
0.16867371 -0.035078928 0.17220174 0.31403032 0.1920317 0.4605053 0.26605898 0.12749802
0.18499246 0.112232305 0.27228314 0.27839932 -0.11625677 0.037400097 0.28974292 0.17324238
0.08621485 -0.016728552 0.31288284 0.25225985 -0.026313914 0.32600388 0.12412975 -0.14654702
0.18550359 0.09916578 0.008348634 0.18681838 0.23416631 0.11816926 0.24430816 -0.021108653

0.features.2.0.block.0.1.running_mean f4 [64]
00000000: b9be 04bf 2ac2 c0bf 8974 6dbe fd4b ddbe
00000010: 32a2 a8bd b42d 78bf 5a98 cb3f eb47 f03e
00000020: becd b1be 0750 b23f 319c 68bd 906d 92bf
00000030: 55d1 8c3d 132c 5fbf 044a ca3e cc3c f53f
00000040: e9ee c93f c694 a23e 962a 703f a6c2 04bf
00000050: 3162 6dbe b199 a43e b8bd 983f 6598 82bc
00000060: 227a c5bf da0b b1bf d644 7fbf 29bf 42bf
00000070: a4b8 94bf a5b4 403f 8125 a13f 6f47 12be
00000080: f1f8 0b3d 555f 8bbf a2b7 c0be f134 d0be
00000090: 1df4 9f3f 3f46 b33e 62ba 063e 8372 1abf
000000a0: 8873 b9bd c185 2fbc c2bd a83f 5e39 763c
000000b0: 36a9 82bf 27da 14bf 7bc5 213f 568a 98be
000000c0: 9dc9 1f3f 8f90 50bf 6e67 d33e bde7 2d40
000000d0: 8bf9 40bf 4734 093e eeb8 3cbf f0f3 f1bd
000000e0: 756d de3d 9e45 5cbf ddcd 65bf 6893 163f
000000f0: 1ca0 b63d 53aa a4be 4d79 8f3f 719f 20bf
-0.5185352 -1.5059254 -0.23188986 -0.43222037 -0.08234061 -0.9694474 1.5905869 0.4692987
-0.3472728 1.3930672 -0.05678958 -1.1439686 0.068758644 -0.87176627 0.39509594 1.9159179
1.5776035 0.3175413 0.9381498 -0.5185951 -0.23181988 0.32148507 1.1932898 -0.015941808
-1.5427897 -1.3831742 -0.9971441 -0.7607294 -1.1618848 0.7527564 1.258957 -0.14285062
0.034172956 -1.0888468 -0.376401 -0.4066539 1.2496372 0.3501453 0.13157037 -0.6033098
-0.09055239 -0.010713042 1.318291 0.015028326 -1.0207889 -0.58145374 0.63191956 -0.29793042
0.6241701 -0.8147058 0.41289848 2.7172692 -0.7538077 0.13398848 -0.7371968 -0.118141055
0.10860721 -0.8604373 -0.8976725 0.58818674 0.08917257 -0.32161197 1.1208893 -0.6274329

0.features.2.0.block.0.1.running_var f4 [64]
00000000: dfb1 093f 4dd2 023f 7f9a 993e 8042 073f
00000010: 7ac5 7c3f 9e8d 3f3f 333f f03f 3f55 0540
00000020: 928a fc3e 0b5a 0840 23de 9b3f c831 ee3f
00000030: d148 f43d f955 5f3f c6e6 1140 6bcd 0640
00000040: e526 b73f 8c55 503f 66a6 f83f 3173 b93f
00000050: 1803 113f 7302 373f abf2 003f f2f4 1040
00000060: a946 493f 927b b13f 44d7 853f a194 b03f
00000070: 63d9 a33f 236d 6140 9e07 b73f f544 d43f
00000080: 5594 173f ca45 1b3f d779 5440 704d b63e
00000090: f40b 0d40 c380 583f 7442 9a3f dd78 1840
000000a0: 8713 b13f 2f92 bc3f 6e4c 8a3f be8c 1540
000000b0: e48b b83e b712 093f a01b 3540 7699 ea3e
000000c0: 2a6f c93f 6003 043f e9be d63f 481a fb3f
000000d0: 5b75 133f 779b 1640 9510 9f3f f4d9 483e
000000e0: 6124 b83f 1d12 613f ddb8 2840 ac9c dd3f
000000f0: bf8e aa3f 4157 ba3f b6d8 e93f ed8d 033f
0.53787035 0.51102144 0.30000684 0.52835846 0.98738825 0.74825466 1.8769287 2.083328
0.4932447 2.1304958 1.2177166 1.8608942 0.11927951 0.8724056 2.2797103 2.1062877
1.4308745 0.81380534 1.9425781 1.4488279 0.56645346 0.7148811 0.5037028 2.2649503
0.78623444 1.3865836 1.0456319 1.3795358 1.2800716 3.5222862 1.42992 1.6583544
0.5921071 0.60653365 3.3199365 0.35605955 2.2038546 0.84571475 1.205153 2.382377
1.3834084 1.4732112 1.0804574 2.3367152 0.36044228 0.5354418 2.829811 0.45820206
1.573705 0.5156765 1.6777011 1.9617395 0.57600945 2.3532388 1.2426935 0.19614393
1.4386102 0.87918264 2.6362832 1.7313437 1.3324813 1.4557878 1.826926 0.51388437

0.features.2.0.block.1.0.weight f4 [32, 64, 1, 1]
00000000: e582 45be d055 cfbd 76d9 8e3d c5fd 693e
00000010: 7628 b93d 6668 6e3e 1bef a5bd b8b3 d8bd
00000020: e0db 02be 7aae 8bbd cceb debd 1c61 0cbe
00000030: 8f3d 24be 4853 b9bd b3e0 14bd 6b9f 0abd
00000040: d25c c23e 4d37 4e3e 577c 8f3e a2d1 4f3e
00000050: ee2b 63be 5aa7 a83d 7400 85be 86c9 c9bd
00000060: 5bbd bcbd 370e f63d ebcd 213d 2efe ccbe
00000070: 0fc5 4dbe fa89 f93d 140a 7c3a 6bf8 6d3e
00000080: 871e 16bd 24d3 fe3e 0ea5 41be 2430 733d
00000090: 543e 713e 6fbe cabe f95d babc 179e 083c
000000a0: 7340 c73b 5627 01be 2bae 3fbe a3cf 6a3e
000000b0: f9c6 36be fff7 223e 26a2 18be ace5 10be
000000c0: 6a48 02be 2f64 94bc 41df cb3d 2811 8e3e
000000d0: 0506 9ebe 1d9b bbbe 7ffd 633e e55d 393e
000000e0: 00a2 803d 9e05 f93d 7879 f53e 7460 cf3e
000000f0: fcbd a4be af55 62bc 8161 92be 9450 443a
00000100: 1ea1 97be 6ae7 58be 58a4 86bd 45f7 0cbe
00000110: 5edd 053f 28a9 05bb 4788 d2bd fb86 81be
00000120: f454 cf3d 6fb0 f93e 2e58 7cbd 7c3e 233e
00000130: 1e12 09bf df9e adbc bdda 84be 9fdc aaba
00000140: 5597 8ebe 67de 9cbe 64e3 073e ceef 8e3e
00000150: 0254 bc3d 934c 6a3d f9b6 31bd ff2f 403e
00000160: f6ed ab3e b45f b53d 2cff 00bf 90e7 4ebb
00000170: 37db 193e f98f 0a3c 60bb 103d a368 6a3e
00000180: a59c e73e 3697 c8bd dfba 3fbe bd65 84be
00000190: 902b 223d b8d2 a2bd 9214 2f3e 216e 16be
000001a0: 070a 96bc 9a91 01be 8562 293e ae95 dd3d
000001b0: f574 003e a12d 9bbd 5bdb 9d3e 5b39 d53c
000001c0: f223 b33e 1e63 4b3e 4012 8a3e bafd 04be
000001d0: 1af4 153e 65ce 69be 76f6 10be 1499 74be
000001e0: b6d0 dcbd 6773 a9bd 5896 aebc e471 7cbe
000001f0: 9cb8 f9be 571b 70be 4d8c 9abd 4997 7f3e
00000200: af12 93bd 6dc4 db3d 29f6 8abc dd97 523e
00000210: 340f 03be 9aca 19be 0f9b da3d 9a17 5f3d
00000220: 9457 033e 795f 39bd 6146 7cbd ab90 243d
00000230: e152 96be 9a01 06be 468e cebd 00ef 913d
00000240: c78b 28be a7ab 20bd d13c 703e 801b 5d3e
00000250: bc57 b53d 84bc 4abe ec76 60be bb1a e5be
00000260: 2e91 773e 0a86 4e3e ba5c 373e 59d7 0dbe
00000270: add9 9c3e 562a 1fbe 163a ef3d 2902 12be
00000280: 0bca 623d 32bd a9bd c4ae 173e cffa babe
00000290: 1e11 2bbd 6bd7 063f d280 f93c b0b8 acbe
000002a0: 762e 9e3e af7e 28be 50da 47be 5bc4 943e
000002b0: 71f4 d4be e5e1 abbe a3e3 8d3c 9b0c 67be
000002c0: 2890 883c fc8e 2d3d 84a3 dabe b0e2 e33d
000002d0: 68af 41be 1835 37bc 76f8 09be 03b1 863e
000002e0: b238 793b f624 c8bd 96cb 393e 676f 05be
000002f0: 88f0 663e 7672 f9bc edcc 46be bdd9 843d
00000300: 2178 abbd 2f8e bf3a be6e 0a3e 7ae9 8b3d
00000310: 6cd7 aebe f529 d03d c358 bebd dfaa 03bd
00000320: 542f e1bd 2d8d 603e bd4c d2bd 391b 333e
00000330: 2c2e 613e afdf fc3e 4151 a63d 7fbe b4be
00000340: 0e5b 493e 7567 673e ebe2 363e a67b 703e
00000350: 052b 0ebe 447c c73d bc21 203d d893 d1be
00000360: 7f01 24be 1451 5d3e 8107 8c3d e185 a73c
00000370: 5633 f53d 26a5 b8be 40b7 ecbd e0f5 9ebd
00000380: 5e86 d5bc 22c8 e23d f696 93bd ca53 1bbd
00000390: a214 1c3e 9e3c ee3d 4a3d 25be 5671 65be
000003a0: db1d a93d 2f83 8b3e f479 043e c0dd 763e
000003b0: d35b bb3d 4a7a 03be 516f 3dbe f22f 8f3c
000003c0: fe2c 99be bbee 18be 0e38 123d 6398 bbbd
000003d0: 32d4 dd3d a311 48be ecc5 a83d 2179 aabe
000003e0: 548a de3d aa4b be3e 2375 f83e 3f95 923e
000003f0: c6bb 56be 17ad ec3d 59dd 45be 8441 473e
-0.19288214 -0.10123789 0.06975071 0.22850712 0.090409204 0.23282012 -0.081022464 -0.10581154
-0.12779188 -0.06820388 -0.108848184 -0.1370892 -0.16039108 -0.09049088 -0.036347102 -0.03384344
0.3796144 0.20138283 0.2802455 0.20294812 -0.22184727 0.08235045 -0.25976908 -0.09852891
-0.09215804 0.1201443 0.03950302 -0.40037674 -0.20094703 0.1218452 0.0009614539 0.23239295
-0.036650207 0.49770463 -0.1891062 0.059372082 0.23558933 -0.39598414 -0.022749888 0.008338473
0.006080681 -0.12612662 -0.18718784 0.2293077 -0.1784934 0.15914916 -0.14905605 -0.14150113
-0.12722936 -0.018114178 0.09954692 0.27747464 -0.30863968 -0.3664178 0.2226467 0.18102224
0.06280899 0.121592745 0.47944236 0.40503275 -0.32176197 -0.013814374 -0.28590015 0.0007488814
-0.2961511 -0.21182027 -0.06574315 -0.13766201 0.52290905 -0.0020395014 -0.10279899 -0.25298294
0.101236254 0.4876742 -0.061607532 0.15941805 -0.5354327 -0.02119392 -0.25948134 -0.0013035721
-0.27849832 -0.3063843 0.13270336 0.2791733 0.09195711 0.057201933 -0.043387387 0.18768309
0.33579987 0.088561445 -0.5038936 -0.0031571127 0.1502503 0.008457177 0.035334945 0.22891478
0.45236698 -0.09794466 -0.1872363 -0.2585887 0.039592326 -0.07950348 0.1709769 -0.14690448
-0.018315328 -0.12653199 0.16541488 0.10819565 0.12544616 -0.075770624 0.30831417 0.026028326
0.34988362 0.19862029 0.2696705 -0.12987414 0.14643899 -0.2283264 -0.14156517 -0.2388652
-0.10781996 -0.082739644 -0.021311924 -0.24652821 -0.48773658 -0.2344793 -0.075462915 0.24960054
-0.07181298 0.107308246 -0.016963081 0.20565744 -0.12798768 -0.15018693 0.10674106 0.054465868
0.12826377 -0.045257065 -0.061590556 0.04017703 -0.29360107 -0.13086548 -0.1008573 0.07125664
-0.16459571 -0.0392262 0.234607 0.21592522 0.08854625 -0.19798476 -0.21920365 -0.44746956
0.24176475 0.2016832 0.17906466 -0.1385168 0.30634823 -0.15543494 0.11681001 -0.14258637
0.055368464 -0.08288039 0.14812762 -0.36519477 -0.04176437 0.5267245 0.030456934 -0.33734655
0.30894822 -0.16454576 -0.19516873 0.29056057 -0.41592744 -0.3357078 0.01732046 -0.22563402
0.016670302 0.04237269 -0.42702878 0.111272216 -0.18914568 -0.011182092 -0.13473687 0.26306924
0.0038028178 -0.09772675 0.18144068 -0.13030778 0.22552693 -0.030450087 -0.1941411 0.06486843
-0.08372522 0.0014614518 0.13518807 0.068316415 -0.3414873 0.10164253 -0.09294274 -0.032145377
-0.10995355 0.21928854 -0.10268543 0.17490853 0.2199027 0.49389407 0.08120967 -0.35301587
0.19663641 0.2259806 0.1786 0.23484668 -0.13883598 0.09740499 0.03909467 -0.40933108
-0.16016196 0.2161296 0.06837369 0.02044958 0.11972682 -0.36063498 -0.1155839 -0.07761741
-0.026065048 0.110733286 -0.07206528 -0.037921704 0.15242246 0.116326556 -0.16136661 -0.22406515
0.082576476 0.27248523 0.12937146 0.24108028 0.091483735 -0.12839618 -0.18499495 0.017478917
-0.2991714 -0.14934818 0.03569799 -0.09159925 0.10831489 -0.19537978 0.082408756 -0.3329554
0.10866228 0.37167102 0.48526868 0.2862949 -0.20970067 0.11556452 -0.19322719 0.19458586

0.features.2.0.block.1.1.weight f4 [32]
00000000: 873c 473f 0cee 723f 7c5a 453f ed6c 5a3f
00000010: 4fd7 543f 5726 483f b6e2 473f e1b7 573f
00000020: f43a 573f 2bdd 573f bc17 463f 8d33 393f
00000030: bccd 5b3f e349 583f a9d8 533f d259 533f
00000040: ff1f 513f ac12 5e3f 01ea 433f bc89 4e3f
00000050: 7664 4b3f 5122 8b3f 6796 3f3f aa99 473f
00000060: 2e27 443f 3c65 5d3f 022b 543f 38fe 4b3f
00000070: 9e60 4c3f 0720 513f f6e6 4b3f 8493 4f3f
0.7782673 0.9489448 0.77091193 0.8532246 0.83141035 0.781835 0.7808031 0.8426495
0.8407433 0.8432185 0.77379966 0.72344285 0.858608 0.8448774 0.8275247 0.8255893
0.8168945 0.8674724 0.76528937 0.80678916 0.79450166 1.0869848 0.7483887 0.7796885
0.76622283 0.86482596 0.82878125 0.7968478 0.79834926 0.81689495 0.79649293 0.81084466

0.features.2.0.block.1.1.bias f4 [32]
00000000: 1a7b b0bc e3ad febb 1d39 98bd 6371 04bc
00000010: 95f3 b23d 1340 903d e243 043d a321 4d3d
00000020: 71a4 543b da29 2bbd 41c2 c5bd 8ab4 1fbc
00000030: 4325 b13b 426b 9bbc ff4b 373d 430c 053c
00000040: 8d50 ce3c 283f 593c 159c 96bc ad20 e5bb
00000050: b2a7 09bd cd48 b03c bb68 d2bb 1b5b d73a
00000060: 36fc 5c3c 9cf8 d1bc fd87 413c 3126 403c
00000070: 3c81 903b c4c1 8b3b 5153 62bc c561 f6bc
-0.021543074 -0.0077721938 -0.074327685 -0.008083674 0.08737866 0.07043471 0.0322913 0.050080907
0.0032446648 -0.04178796 -0.096561916 -0.009747634 0.0054060533 -0.018972043 0.04475021 0.008120599
0.025184894 0.0132596865 -0.018384973 -0.0069924206 -0.033607192 0.02151909 -0.0064211763 0.001643035
0.013487866 -0.025631242 0.011812207 0.011727856 0.004409937 0.004265042 -0.0138138095 -0.030075917

0.features.2.0.block.1.1.running_mean f4 [32]
00000000: 69af 82be d89d 9ebd c2d9 3ebe c438 ce3d
00000010: 2675 d5bd 1b55 183e 6adb 2dbe fb81 81be
00000020: 56b9 f1bc a130 a4bd b7d7 a2bd 396a 323e
00000030: eaa1 b83e 9e28 393e 4998 66bd 1da2 7bbc
00000040: 0955 94bd ca91 33bc 1bf3 353e e693 36bd
00000050: d4e3 f6bc b371 d63d d646 0f3e 864f 12be
00000060: a049 e7bd de46 f0bd 570e 0dbe a628 b83d
00000070: bcfe 0ebe 97a8 023e b8bf 483e 643c c93d
-0.25524452 -0.0774495 -0.18637756 0.10069421 -0.10422735 0.14876215 -0.16978231 -0.2529448
-0.02950732 -0.08017088 -0.079513006 0.17423333 0.3606103 0.180819 -0.056297574 -0.015358475
-0.07242782 -0.010960052 0.17768519 -0.04457464 -0.030137934 0.10470905 0.13991866 -0.14288148
-0.1129334 -0.11732267 -0.13775001 0.08992128 -0.13964361 0.12759624 0.19604385 0.09825972

0.features.2.0.block.1.1.running_var f4 [32]
00000000: a014 683e 5a1c 1f3e 0e4e d43e 1f4d cd3e
00000010: 9687 6f40 8778 3b40 f2f5 913f a166 0f40
00000020: f45d 823e f699 1f3f 3112 a73f b1a1 d23f
00000030: 06dd 2540 84e1 2640 68c0 153f c130 f73e
00000040: 3985 053f a0ac 703f b9a6 683f a771 3640
00000050: f34e 193f c61f 823e 170e 813e 5867 f23e
00000060: 7a52 e43e ce32 653f 2f45 5f3f 92fe c93f
00000070: fbd7 d33e 2c6f 973e b010 2a40 94fe 933f
0.22664118 0.15538159 0.414658 0.400979 3.7426505 2.9292314 1.1403182 2.240639
0.25462306 0.623443 1.3052427 1.6455594 2.5916152 2.6075144 0.58496714 0.48279384
0.52156407 0.94013405 0.908794 2.8506868 0.5988609 0.25414866 0.25206062 0.4734447
0.44594175 0.89530647 0.8721494 1.5780814 0.41375718 0.29577005 2.6572685 1.1562066

0.features.3.0.block.0.0.weight f4 [128, 32, 1, 1]
00000000: 8a8e e0bc e4ea 38bc 5911 87bd 6a8c 32be
00000010: fad7 a9bd 53ab 5b3e 406d 90bc 8cb9 953e
00000020: 85ca 713d 3e44 b03d a5d4 01be a772 a1bd
00000030: e689 1e3c 37a9 e43c 2362 153d ea1f 003d
00000040: bde3 783e 0edc 67be 9603 a1bd 743e 16be
00000050: ab3e a03d 2b8e 5dbd 7ce1 9e3b 9b07 d8bc
00000060: 62c4 a63d 1c27 c93b 7587 453d d3a2 3b3e
00000070: 83a1 f9bd fba3 f1bd 3ba4 c33c 24f4 823c
00000080: 15eb cd3d 1ff2 0a3e 7870 043e aa3b fc3d
00000090: 2f5a 0bbd e85e 063e 5849 f43d 6650 e0bb
000000a0: 7484 6fbb 63a1 9abd 40e4 ef3d 241b e5bc
000000b0: d37a 12be ad37 0cbd 09e2 253c eaa1 9fbd
000000c0: eae4 0bbe 3ea1 303d c56e 7dbd d518 ff3d
000000d0: 7af2 8ebd c4e8 69be d380 f2bc 5189 86bd
000000e0: a120 fe3d 3132 41bc 7491 54bd d704 08be
000000f0: c646 6fbd 9f91 3b3e 651d af3d fdde 913d
00000100: a573 ab3d 6ac0 f33d 2823 51bc 8717 0abb
00000110: c079 6bbc 97fe 0c3c 72ee f3bd d7ab 66be
00000120: 8f33 a93d 6cf0 1f3e f1fb a63d ad0b bf3d
00000130: 8a4d 993d c291 43bc fbec 8d3d 24d5 82be
00000140: bbfe ca3d 8f56 413e 0323 123c 0dc5 683d
00000150: 2863 7b3d ce28 d13d 81c6 94bd 1982 34bd
00000160: 0b04 2abe 086f 263c 8808 7f3e df1b 6a3d
00000170: 5f8f 4b3e 60c3 1fbe 527d b5bd 6aa3 81bb
00000180: 24d4 dc3c ef50 033e cbe0 e53d 816e 473e
00000190: 0f96 e2bd f998 a2bd 64dd 2b3d 8982 cabd
000001a0: c8a7 88bd 9f0c 313d 3dbb fe3d ad5b 303e
000001b0: 7a85 c8bd 3ba6 77be 04ea 783c 2f86 cf3d
000001c0: 5dfc dabd dbc4 b63c c8d1 733d df9c bd3a
000001d0: c37d cd3c a12a 47bd 651f 14bc 36fc c9bd
000001e0: 645e cfbd 8f97 913d 279f 34be 8047 6fbd
000001f0: 3de6 bebc 494c 3d3d ce9b b03c a665 b9bd
00000200: c5ff 163e 46a6 5bbe 99e3 f9bd 31d7 dfbd
00000210: 4fe1 21be f8cc 2b3e c3d9 353e 47b7 b2bd
00000220: deee 0dbd f64b e2bd 28ac fdbd a45b 833a
00000230: c5e3 3abe e4f3 b8bd 08f9 16be 48ad 783e
00000240: 1581 fdbc 865a 4bbe ec43 c83d cdd4 db3d
00000250: 7980 1fbe b767 963d 14a8 4e3d 4d42 a0bd
00000260: 2a25 04bd 989a 1b3d 955a 9f3d 5842 893d
00000270: dc6b 383e 52d5 29be 8e50 623d ca0e bbbd
00000280: 7bac 21bd 97bf 443e e801 593e 23d5 9c3c
00000290: 4758 a63d 0784 68bd 264f 59bd 5677 8cbe
000002a0: 4783 cebd 2a10 ddbc 0ae8 2f3d 132a 04be
000002b0: b3cf 41be f596 c73c 5150 08be e841 a9bd
000002c0: bdee 6ebe eff3 2bbd 50a0 f93b 5570 11bd
000002d0: b322 f2bd a4cf 15be 6eb8 af3d 7894 5bbd
000002e0: 863c eabd 454e 4cbd 53d6 53be 1213 01be
000002f0: 6f0d 8f3b 51c1 683d c6aa cfbc 4715 3c3e
00000300: fe58 fdbc 111d bf3d 9265 7dbd d9db 08be
00000310: d1b2 0f3e b22a 023e 5108 68bb 50d2 14bc
00000320: d39a bbbc 30e9 fcbd 9b0a d33d aa1a 96be
00000330: 4479 0f3e ac0f 6f3e ab55 37be 9823 d73c
00000340: 9a0e d33d f1d7 afbd 2918 60bd 62cf bd3d
00000350: 2d56 d13c 8eb5 573b 3ba9 0cbe 98c8 2a3b
00000360: 62dd 8bbd 9a06 823d 13c6 b5bb 8243 ca3b
00000370: 0332 6dbd 4017 2dbd 885c 28be 9d6e 843e
00000380: aed9 00be 73b2 713b 3ae2 dd3d b2c4 10be
00000390: 729f b2bb f612 0cbd 8093 d7bd 364a 6bbc
000003a0: 12c0 6ebd efaf 583d 6cd0 983d 477f 273e
000003b0: 4901 b8bd 0f9e c3bb 2aa7 5dbc 51cc 5ebd
000003c0: ec6e c1ba 0fd9 803c 3400 2e3e 2ddd aabc
000003d0: 3673 1dbe d11a 17be 7c32 9ebd b5de da3d
000003e0: 2eb9 09be a942 883c 9583 55bd a0c7 2a3e
000003f0: e048 65be de8e a33d 9b54 aebd 836a f33d
-0.027411718 -0.011286471 -0.06595106 -0.17436376 -0.082931474 0.21452074 -0.01763022 0.29243124
0.05903103 0.08606766 -0.12678774 -0.07883196 0.009676432 0.02791272 0.036470544 0.031280436
0.24305625 -0.22642538 -0.07862012 -0.14672261 0.07824453 -0.05409066 0.004848657 -0.026370814
0.08142926 0.0061386954 0.048224885 0.18323831 -0.12189009 -0.11798855 0.023882022 0.015985556
0.10054604 0.13568924 0.12933528 0.123160675 -0.034021553 0.13122141 0.11928052 -0.0068455217
-0.0036547454 -0.07550313 0.11713457 -0.027967043 -0.14304666 -0.034232784 0.010124692 -0.077945545
-0.13661543 0.043122523 -0.061873216 0.12455908 -0.069798425 -0.228427 -0.029602444 -0.0656916
0.12408567 -0.011791752 -0.051896527 -0.13283096 -0.058417104 0.18317269 0.085505284 0.0712261
0.08371667 0.119019344 -0.01276473 -0.0021071152 -0.014372289 0.008605621 -0.11910714 -0.22526489
0.08261787 0.15619057 0.08153523 0.09328399 0.074854925 -0.011936607 0.06929966 -0.25553238
0.09911867 0.18880676 0.00891948 0.056828547 0.06137386 0.10212861 -0.07264424 -0.044069383
-0.16603105 0.010158308 0.24905598 0.057155486 0.1987891 -0.15601873 -0.088617936 -0.003956248
0.026956625 0.12823842 0.112245165 0.19475748 -0.11063778 -0.079393335 0.04195918 -0.09888179
-0.06672627 0.043224927 0.124380566 0.17222472 -0.09791084 -0.24184506 0.015192512 0.10133015
-0.10692666 0.022310665 0.059526235 0.0014466307 0.025084382 -0.04862464 -0.009040688 -0.098625585
-0.101254255 0.07108986 -0.17638837 -0.058417797 -0.023303146 0.04621533 0.021558668 -0.09052591
0.14746006 -0.21450147 -0.12201614 -0.109297164 -0.15808605 0.16777408 0.17758851 -0.08726364
-0.03465163 -0.11049645 -0.12386352 0.0010021818 -0.1825095 -0.090308934 -0.14743435 0.24284852
-0.03094534 -0.1985875 0.0977858 0.10733948 -0.15576352 0.07344001 0.05045326 -0.07825146
-0.032262005 0.03798923 0.07780949 0.06702107 0.18009895 -0.16585281 0.055252604 -0.0913368
-0.03947113 0.1921371 0.21192133 0.0191446 0.08122306 -0.056766536 -0.053053997 -0.27434796
-0.10083633 -0.026985247 0.0429459 -0.12906675 -0.18926887 0.024363974 -0.13311888 -0.08264524
-0.23333259 -0.04198068 0.0076179877 -0.03550752 -0.118230246 -0.1462999 0.08580099 -0.053608388
-0.11437325 -0.04987933 -0.20687227 -0.12604931 0.004365615 0.056824986 -0.025349986 0.18367492
-0.030926224 0.09331716 -0.061864443 -0.13365115 0.14033057 0.127116 -0.0035405348 -0.0090833455
-0.022900974 -0.123491645 0.10304757 -0.29317218 0.14011103 0.23345822 -0.17903773 0.02626209
0.103055194 -0.085861094 -0.05471054 0.09268071 0.025553787 0.0032914612 -0.13736431 0.0026059505
-0.06829335 0.063489154 -0.005547294 0.0061725983 -0.057909023 -0.0422585 -0.16441548 0.2586564
-0.12583038 0.0036880046 0.10834165 -0.14137533 -0.0054511363 -0.03419777 -0.1052618 -0.014360955
-0.05828864 0.05290216 0.07461628 0.16357146 -0.0898462 -0.00596977 -0.013528625 -0.05439407
-0.0014757789 0.015728502 0.16992265 -0.020857418 -0.1537598 -0.14756323 -0.07724473 0.10687009
-0.13449547 0.016633349 -0.05212744 0.16677713 -0.22391081 0.07986234 -0.08512231 0.1188555

0.features.3.0.block.0.1.weight f4 [128]
00000000: f897 1e3e dd5a 483d d3f3 9c3e f1b1 133e
00000010: 5b3e 4d3d 59e9 573d 7f58 183f 2e0d ec3d
00000020: cc6e 953f 8d83 583f ebaf 573e 4e07 e53d
00000030: 0518 0d3e ae18 ca3d ee6f 113e 946a ea3c
00000040: 33f8 c03c da1e 013f 5408 8e3e 846f 3b3d
00000050: df1e c63d 1485 0d3d 57ac 0e3f a40d 2a3c
00000060: b9a8 033d 1755 0b3e 98fc e93d e6a1 033d
00000070: b4b5 183c 9fca a93c c35a 813d 641f 373d
00000080: e4ac ec3c 39d5 ba3e 4da9 923f 6163 6b3f
00000090: e7ba a33d 1f3f 233f 3732 373f f98d e33d
000000a0: 6467 033d b99f 163e eb52 1d3d 1db7 423c
000000b0: d81f eb3d ed2c 913c 0e5a 563d 8626 aa3d
000000c0: a7ea a23d 31af f13d a612 b33e ea74 cc3e
000000d0: 80d0 5c3e 548e be3d eb2f 713c 4af9 e53c
000000e0: e0c1 023e eb36 673d 0227 683e 1305 bb3d
000000f0: c158 d93d a505 8d3e 9eb7 1e3e f4d5 ab3c
00000100: 4b19 253e 88ae 913e 9e40 043f 5b1c a53e
00000110: b049 7e3e d340 aa3e c272 503e 2ee2 203e
00000120: 88e5 bc3d b358 f63b f96d 9e3d 5397 1b3d
00000130: 6116 503d 9bc7 ef3e 41f2 343f d4be 3c3f
00000140: 804b c03d 68c5 863d 0f2d 833e bf67 2a3e
00000150: f33e 0f3e 15b2 ba3e e85b 553e a1f0 573d
00000160: 9c77 8e3d 2dbe 843d d9c0 843f 7aa7 4a3e
00000170: 028e 803f 873a 323e 515e 983e df85 de3c
00000180: a605 3d3d 20d0 523d fe8c 4a3d 8db0 373d
00000190: 070b c33e 5039 ea3c fe8c 473d 7e1b 873d
000001a0: 105e 413e 186e c23d 8d90 893f 2a33 223f
000001b0: 14ac d53c e30c b23c 6bc8 013e 1b11 1e3d
000001c0: a953 8f3d ad7c 9c3e 2639 443e 7864 b23f
000001d0: 03e4 553e 0e5b 0c3d 148f 693e 1101 4b3d
000001e0: 394b 443e 8bec f03e 41e4 ec3d df58 273e
000001f0: 37ce 193d c90b 803c 96a6 0e3f 95fe c63c
0.15487659 0.04891478 0.30654773 0.14423348 0.050108295 0.052712772 0.59510034 0.11525951
1.1674438 0.8457573 0.21063201 0.11183034 0.13778694 0.098679885 0.14202854 0.028615274
0.02355585 0.504377 0.2774073 0.045760646 0.09673857 0.03455074 0.5573172 0.010379229
0.03214333 0.13606678 0.114251316 0.03213682 0.009320665 0.0207265 0.063161395 0.04470767
0.028891034 0.364908 1.1457916 0.91948515 0.07994633 0.6376819 0.71560997 0.111110635
0.032081023 0.14709367 0.038409155 0.011884478 0.11480683 0.017721618 0.052331977 0.08308129
0.07954913 0.11800993 0.34975165 0.39932948 0.21563911 0.09304491 0.014720897 0.028072972
0.1276927 0.05644886 0.2267113 0.09131827 0.106126316 0.2754337 0.15499732 0.020976044
0.1612293 0.2845347 0.516611 0.32248196 0.24832797 0.33252582 0.20356277 0.1571128
0.09223467 0.007517898 0.07735819 0.03798611 0.050802592 0.46831974 0.7068215 0.7372868
0.093894005 0.06580621 0.25620314 0.16641138 0.13988857 0.3646399 0.2083584 0.052719716
0.069564074 0.06481586 1.0371352 0.1979045 1.0043337 0.17405139 0.29759458 0.027163444
0.046147965 0.051468015 0.049450867 0.044846106 0.3809435 0.028591782 0.048718445 0.065970406
0.18883538 0.09493655 1.0747238 0.6335932 0.02608303 0.02173466 0.1267411 0.03859053
0.06998379 0.3056387 0.19162425 1.3936911 0.20887761 0.034266524 0.22808486 0.049561564
0.1916932 0.47055468 0.115669735 0.16342495 0.037550177 0.01563062 0.5572294 0.024291316

0.features.3.0.block.0.1.bias f4 [128]
00000000: 2665 b43e 174b c73d a177 21bc 3464 0f3f
00000010: 85b0 cc3e 89dc 5a3e 851c 2d3e 895d b23e
00000020: 446b 31bf 4c13 dbbc 1414 833e ba93 a83e
00000030: 57a1 273f 3ad3 de3e 02a1 f03e 3a9c bc3d
00000040: 4780 af3c f5b1 8e3e 7c71 983e 8ed0 993e
00000050: b04b 993e 8c05 d53d 3ddb 7d3e a1a7 8fbd
00000060: a13d 0a3e 6ff8 7e3e 887d 7c3e 54b9 2f3e
00000070: 81d9 ab3d eab7 cb3e 56c7 503e 0e07 7ebd
00000080: e011 303d ae20 be3e 87a2 39bf e117 8dbe
00000090: b886 e63e df0c 173e 26e5 9d3d 05db e23d
000000a0: f8e2 9e3d 1112 863e 733a ea3e 09ea 823c
000000b0: 12eb 23be b520 793e 4ae2 3d3e 4917 f43e
000000c0: 96d9 f33d 4951 02be b76c 283e 46f1 c63f
000000d0: c198 9b3e f110 693e ef37 82bd 2ae9 163e
000000e0: 2d51 f43e 81dc 683d 996d a23d 4fda d33e
000000f0: cea2 ea3d 45c3 b33e 4d7a c23e afa0 3f3d
00000100: 57a3 0e3f 35c4 a13e 52d3 5f3e 718b 963e
00000110: 91d1 8f3e b2ff c73e f5ca e73d d67a 023f
00000120: 14f5 d53d d76c 1c3d 0320 91bc e41e b73e
00000130: fd3e 95bd 99dc 823e 537a 38bf 7b48 d53d
00000140: 78a1 f83e a484 df3d dd8e 063e 17b8 94bd
00000150: 224d fd3e a243 d13e 3de0 523f 32b0 383e
00000160: 3218 2b3f 769b 7f3e 35ef 46be 8129 5f3e
00000170: 401e 99be b32b 0f3f d5c9 993e d4bf 383c
00000180: 5ea5 493f ab06 b63e 6892 8e3d 44c2 403e
00000190: 4a8d bc3e 1e03 353e d99a 873e 90f7 ff3e
000001a0: e4c9 8e3e 8a5d 5f3f 6519 bfbe d3c2 10be
000001b0: 677a 1e3e f932 213f 4fba b03e c141 babd
000001c0: 6dae c5bc a080 ad3e 7c5a a43e c8b3 2fbf
000001d0: 960a 6a3e 8e4a 82bd 9e8b 8f3e aaa7 0f3e
000001e0: c88b 783e 82ba a23e 0f02 e43e 2cbb e23e
000001f0: 1881 333e 880b a6bc 5943 f63d 3e2f b8bb
0.3523342 0.09731119 -0.009855182 0.5601227 0.39978424 0.2137319 0.1690541 0.34836987
-0.693043 -0.0267426 0.25601256 0.32925206 0.6548056 0.43520528 0.4699784 0.09209485
0.021423472 0.27870145 0.29774082 0.30041927 0.29940557 0.104014486 0.24790664 -0.070143946
0.13500072 0.24899457 0.24657261 0.17160541 0.08391095 0.39788753 0.2038854 -0.062018447
0.042985797 0.37134308 -0.7251362 -0.2755728 0.45024657 0.14751004 0.07709722 0.11076931
0.077581346 0.2618566 0.45747718 0.015980737 -0.16007641 0.24328883 0.18543354 0.47674015
0.119067356 -0.1272632 0.16447721 1.5542381 0.3038998 0.22760369 -0.06358325 0.14737383
0.47718182 0.056850914 0.0793106 0.41377494 0.11456834 0.35109916 0.37983933 0.0467841
0.55717987 0.31595007 0.21857956 0.2940326 0.28089574 0.39062268 0.11318008 0.5096868
0.104471356 0.038189735 -0.01771546 0.35765755 -0.07287405 0.25558928 -0.7206165 0.10414215
0.4856069 0.10913971 0.13140436 -0.07261675 0.4947291 0.40871912 0.8237341 0.18035963
0.66833794 0.24961647 -0.19427188 0.21793176 -0.2990589 0.55926055 0.30036798 0.011276204
0.78767955 0.35551962 0.069615185 0.18824106 0.36826545 0.1767697 0.26485327 0.49993563
0.27888405 0.87252104 -0.37324062 -0.1413682 0.1547638 0.62968403 0.34517142 -0.09094573
-0.024131024 0.33887196 0.32100284 -0.686337 0.228556 -0.063618764 0.28036207 0.14028803
0.24272072 0.3178292 0.4453282 0.44283426 0.17529714 -0.02026917 0.12024564 -0.005620866
