code/modeling/ckpt/AutoencoderConfig([2, 2, 2], flip=False, rotate=True)/autoencoder_15000.pth (torch, 720858 bytes, 102 tensors)

0.features.0.0.weight f4 [16, 8, 3, 3]
0	0x3d36c2eb	0.044619482
1	0xbc198888	-0.0093709305
2	0xbc1e799d	-0.00967255
3	0x3d44d44a	0.048054017
4	0x3d9dd693	0.077069424
5	0xbd345812	-0.044029303
6	0xbd6dd6e2	-0.058066256
7	0x3d8b1d11	0.06792653
8	0xbcd73f7e	-0.026275393
9	0x3d5b5968	0.05355206
10	0xbdb9eab4	-0.09077969
11	0xbd133249	-0.035936628
12	0xbd1929ee	-0.037393503
13	0xbd4443ae	-0.047916107
14	0xbd6f1d48	-0.058377534
15	0x3ce9b31f	0.028527794
16	0xbdf3feb7	-0.119138174
17	0xbca7f6e0	-0.020503461
18	0x3a24a19b	0.00062801846
19	0x3daa5a65	0.08318023
20	0x3d48a920	0.048989415
21	0x3d3680f6	0.04455658
22	0xbd3584c5	-0.044316072
23	0xbcb054f1	-0.021524878
24	0xbc23f321	-0.010006697
25	0xbcf55dd4	-0.029951967
26	0xbc201bd1	-0.009772257
27	0x3cb769db	0.022389343
28	0x3e11e1d5	0.14246304
29	0x3d7193d2	0.058978863
30	0x3a4284f3	0.00074203237
31	0x3e6bfff7	0.23046862
32	0x3e414c2a	0.1887671
33	0xbb86bcdf	-0.0041118707
34	0x3d8bddf1	0.06829441
35	0x3d98f9e2	0.07469536
36	0xbe38c3f5	-0.18043502
37	0x3d0ea612	0.034826346
38	0xbe3a71c1	-0.18207456
39	0x3c2095e4	0.009801362
40	0x3d9a70a4	0.07541016
41	0x3da6061a	0.081066325
42	0xbe217992	-0.15769032
43	0xbce79a96	-0.028271955
44	0xbe1abec0	-0.15111828
45	0xbdb38405	-0.08765415
46	0x3defb08c	0.117035955
47	0xbdf1ffeb	-0.118163906
48	0x3d049276	0.03236624
49	0x3de0a781	0.10969449
50	0x3e2df25c	0.16986984
51	0xbd8d88f0	-0.069108844
52	0x3dd02aef	0.10164439
53	0x3cf0a71b	0.029376557
54	0xbb701efb	-0.003663956
55	0x3cb93624	0.022608824
56	0xbd219ca5	-0.03945603
57	0x3b12da8a	0.0022408091
58	0x3e1bc416	0.1521152
59	0x3e1014c5	0.14070423
60	0xbc18a528	-0.00931672
61	0x3df942ea	0.12170966
62	0x3d08ef45	0.03343131
63	0x3ca10912	0.019657645
64	0xbd4fea3a	-0.050760485
65	0x3db4bf05	0.088254966
66	0x3d8d35a6	0.06894998
67	0x3b44165c	0.0029920554
68	0x3d7891a6	0.060685776
69	0xbc9e4b6c	-0.019323073
70	0x3d87ceda	0.06631251
71	0x3ce1703f	0.027519343
72	0xbc830bb5	-0.015996793
73	0xbe2607d7	-0.16213928
74	0xbdb11567	-0.0864666
75	0xbd890a12	-0.06691374
76	0xbe694f0c	-0.2278406
77	0xbdf3fc21	-0.11913324
78	0x3b9ebbbf	0.0048441584
79	0xbd1a0126	-0.03759875
80	0x3ce1fe8a	0.027587194
81	0xbd1caa32	-0.03824825
82	0x3c2a6877	0.010400883
83	0xbcabc21c	-0.020966582
84	0xbd5ada04	-0.053430572
85	0x3d2335fe	0.039846413
86	0x3e204a3a	0.15653315
87	0xbd37715d	-0.044785846
88	0xbcec3c8b	-0.028837463
89	0xbd148956	-0.036263786
90	0xbc14a50a	-0.0090725515
91	0x3cf673ec	0.030084573
92	0xbe0a3001	-0.13494875
93	0xbcb32d7e	-0.021872278
94	0xbd82ce75	-0.06387035
95	0x3d383f95	0.04498251
96	0xbd3607a8	-0.044440895
97	0xbd072dfa	-0.03300283
98	0xbbcf4959	-0.0063258824
99	0xbdd3d81a	-0.103439525
100	0x3d191aa7	0.037378933
101	0xbd4c9b10	-0.049952567
102	0x3cd37aaa	0.025815327
103	0xbd0b8870	-0.034065664
104	0xbb802028	-0.0039100833
105	0x3d4422b0	0.047884643
106	0x3b882401	0.0041546826
107	0x3dcdf306	0.10056119
108	0x3c502381	0.012703777
109	0xbd42c0e0	-0.04754722
110	0x3c72c4be	0.014817415
111	0xbdc9ed99	-0.09859771
112	0xbced119a	-0.028939057
113	0xbcf835e1	-0.030299129
114	0x3c59076d	0.013246399
115	0xbcd68365	-0.0261857
116	0xbd1e2977	-0.038613763
117	0x3cfcb8b4	0.030849792
118	0x3d8562bb	0.06512972
119	0x3dfdab9a	0.12386246
120	0x3c1143b9	0.008866244
121	0x3e25f406	0.16206369
122	0x3db3f445	0.08786825
123	0x3d120564	0.035649672
124	0xbc9a04b2	-0.018801067
125	0x3de0b76a	0.109724835
126	0xbc1acdaf	-0.009448453
127	0x3d2f903c	0.042862162
128	0x3d10ea20	0.03537953
129	0xbc89c1c0	-0.01681602
130	0x3e079371	0.13239838
131	0x3df1c05b	0.11804267
132	0x3d0b0f39	0.033950064
133	0x3cefb4c1	0.029260995
134	0x3d8153ab	0.063147865
135	0xbe01a8e0	-0.12662077
136	0xbc8a08e5	-0.016849944
137	0xbdaa5342	-0.083166614
138	0xbd2d1cc6	-0.04226377
139	0x3d9962cb	0.074895464
140	0x3d879d66	0.06621818
141	0xbd9f9479	-0.07791991
142	0xbc916dcb	-0.017752549
143	0xbdbd696c	-0.09248623
144	0xbb1572a7	-0.0022803934
145	0x3da814a3	0.08207061
146	0xbcd47a3f	-0.025937198
147	0x3d94154c	0.072306246
148	0x3e7c60ed	0.24646349
149	0x3dd2d1ae	0.102938995
150	0x3b9a4882	0.0047083506
151	0x3dd36af6	0.103231356
152	0xbd747b28	-0.059687763
153	0x3d290d95	0.04127272
154	0xbc38579a	-0.011251355
155	0x3d0c4a84	0.03425075
156	0x3d0c1732	0.03420181
157	0xbe06bb00	-0.13157272
158	0xbda08cb0	-0.07839334
159	0x3d9e4ed8	0.07729882
160	0xbcf6d95a	-0.030132938
161	0xbb807ff1	-0.003921502
162	0xbce95c90	-0.02848652
163	0x3d949946	0.07255797
164	0x3d6dccc7	0.05805662
165	0xbc22bb38	-0.009932332
166	0x3d606bf7	0.054790463
167	0x3d87eabd	0.0663657
168	0x3da8ad80	0.082362175
169	0x3d329341	0.043597464
170	0x3baea0ce	0.005329228
171	0x3d70d3df	0.058795806
172	0xbd0784eb	-0.033085745
173	0x3c0bc067	0.008529759
174	0x3dd3b354	0.103369385
175	0x3d4b2301	0.04959393
176	0x3cbc4d19	0.022985982
177	0xbda0ff82	-0.07861234
178	0x3c8a6c6f	0.016897408
179	0xbd960f35	-0.07327119
180	0x3c18aa26	0.00931791
181	0x3d46a329	0.048495445
182	0xbc6b317c	-0.01435506
183	0x3da88b89	0.08229739
184	0x3cd18bde	0.02557939
185	0x3d4dac79	0.05021331
186	0x3d672589	0.05643228
187	0x3d62a24f	0.05533057
188	0x3c8090fd	0.015694136
189	0xbcf0c04b	-0.029388567
190	0xbd9f6bf2	-0.07784261
191	0xbd0cb153	-0.034348797
192	0xbd14f8bc	-0.036370024
193	0xbdfd99c6	-0.123828456
194	0xbda4e147	-0.08050781
195	0xbd6cea1f	-0.057840463
196	0xbd884834	-0.06654397
197	0xbdb5c33d	-0.08875129
198	0xbc11421b	-0.008865858
199	0xbcd7f980	-0.026364088
200	0xbc6532cf	-0.0139891645
201	0xbd0c2ba2	-0.0342213
202	0xbe188af3	-0.14896755
203	0xbd26edab	-0.040754
204	0xbc90ec35	-0.017690757
205	0xbdd86579	-0.105662294
206	0xbd73425e	-0.059389465
207	0x3db1551e	0.08658813
208	0x3d339e70	0.04385227
209	0x3c2ae99d	0.010431674
210	0xbd0cc32c	-0.034365818
211	0xbc4560b2	-0.01204698
212	0x3c2cb551	0.010541276
213	0x3d8c68f2	0.06855954
214	0x3d1699dc	0.036767825
215	0x3c72f035	0.014827778
216	0x3c8e381b	0.017360738
217	0xbd95065d	-0.07276604
218	0x3c0a1a5a	0.008429134
219	0xbe13e0f3	-0.1444128
220	0xbe24ddf9	-0.16100301
221	0xbdc6c769	-0.09706003
222	0x3d6f7696	0.0584627
223	0xbe03daa2	-0.1287637
224	0xbcc8d075	-0.024513463
225	0xbd3ee07b	-0.0466008
226	0x3c9fc03e	0.019500848
227	0xbd190000	-0.037353516
228	0xbde543dc	-0.11194584
229	0xbc11f171	-0.008907662
230	0xbcad6353	-0.021165526
231	0xbdd5d765	-0.10441474
232	0xbc8a7bd9	-0.016904758
233	0xbb344cc7	-0.0027511583
234	0x3bfab75a	0.0076512517
235	0x3cea1f8b	0.028579494
236	0xbd094663	-0.03351439
237	0xbcbd3118	-0.023094699
238	0x3e47eaa3	0.195231
239	0x3de82c2b	0.11336549
240	0x3c249871	0.0100461105
241	0xbcab0c5f	-0.020879922
242	0x3d8edab2	0.069753066
243	0xbc29ef20	-0.010371953
244	0x3cf41ea6	0.02979977
245	0x3d0f69be	0.035012953
246	0x3d0c6ca6	0.034283303
247	0xbdcc1b9b	-0.09966203
248	0x3d827a1b	0.06370946
249	0xbc9bf7b0	-0.019039005
250	0xbd06b2fa	-0.03288553
251	0x3db3e344	0.08783582
252	0x3cae4c3f	0.021276591
253	0x3d836ec0	0.06417608
254	0x3d009fe6	0.03140249
255	0x3d2c5586	0.04207375

0.features.0.1.weight f4 [16]
0	0x3f6118dd	0.87928563
1	0x3f4f706f	0.81030935
2	0x3f1d4b15	0.6144269
3	0x3f432213	0.7622387
4	0x3f36aed6	0.7136053
5	0x3ee48c81	0.44638446
6	0x3f5a5489	0.8528524
7	0x3f62b787	0.8856129
8	0x3f6db55c	0.9285486
9	0x3f4d6cc5	0.80244094
10	0x3f35e8dd	0.71058446
11	0x3f1ed380	0.62041473
12	0x3f3fe0a8	0.74952173
13	0x3f33f163	0.702902
14	0x3f487175	0.7829812
15	0x3f581978	0.8441386

0.features.0.1.bias f4 [16]
0	0xbbe50831	-0.006989502
1	0x3e38e171	0.18054749
2	0x3e926a89	0.28596905
3	0x3d2fd151	0.04292423
4	0x3f531416	0.82452524
5	0x3f01d73a	0.50719035
6	0x3c5f9b7c	0.01364791
7	0x3ea01613	0.3126684
8	0x3e8b0a33	0.2715622
9	0x3ea70b3b	0.32625756
10	0x3e60a5ba	0.2193822
11	0x3f1ccb7a	0.6124798
12	0x3e28085b	0.16409437
13	0x3ef0c58e	0.47025722
14	0x3f8f2e99	1.1186095
15	0x3ea42b0c	0.32064092

0.features.0.1.running_mean f4 [16]
0	0x3d58540e	0.052814536
1	0x3d0344ec	0.03204815
2	0xbccf5f20	-0.025313914
3	0x3d1bb448	0.038013726
4	0xbd21a781	-0.039466385
5	0x3cbc58ee	0.022991624
6	0x3d153de2	0.03643597
7	0x3d966be6	0.07344799
8	0x3dca7555	0.098856606
9	0xbd5986de	-0.053107135
10	0xbcebb720	-0.028773844
11	0xbc9ca7b9	-0.019122945
12	0x3cbae3af	0.022813646
13	0x3cbafcb9	0.022825586
14	0xbcfa96b0	-0.030589432
15	0xbd5a0f44	-0.053237215

0.features.0.1.running_var f4 [16]
0	0x3f695f8a	0.91161406
1	0x3f25650a	0.646073
2	0x3f0194be	0.5061759
3	0x3f3ca690	0.73691654
4	0x3f6b781e	0.9198016
5	0x3ec8687a	0.3914221
6	0x3f6ff516	0.93733346
7	0x3fef2883	1.8684238
8	0x4045d045	3.0908368
9	0x3f8d559f	1.1041754
10	0x3eec930a	0.46205932
11	0x3e426f0e	0.18987677
12	0x3e769b2a	0.24082628
13	0x3e8aea38	0.2713182
14	0x3f185d1f	0.5951709
15	0x3f731873	0.9495918

0.features.1.0.block.0.0.weight f4 [16, 16, 3, 3]
0	0xbe5a5c9c	-0.2132439
1	0xbe1c85d3	-0.15285425
2	0xbe180080	-0.1484394
3	0xbd63ea5f	-0.055643436
4	0x3d1a8240	0.037721872
5	0x3bb021b5	0.005375112
6	0xbe573c58	-0.21019113
7	0x3d320fae	0.043471985
8	0xbde62107	-0.11236768
9	0x3e08a12a	0.13342729
10	0xbdb82be7	-0.08992749
11	0xbe058022	-0.1303716
12	0xbba4efe8	-0.005033482
13	0x3bddb0de	0.006765469
14	0xbc9c28f5	-0.019062499
15	0x3d82ec8e	0.063927755
16	0xbd7d7919	-0.061883066
17	0xbd7db9b7	-0.06194469
18	0xbd09afe9	-0.033615027
19	0x3d9eeaae	0.07759605
20	0xbe1bc270	-0.15210891
21	0xbdfe7648	-0.12424904
22	0x3d2d2ef8	0.04228112
23	0xbe5a8cbf	-0.21342753
24	0x3d81dc4e	0.06340848
25	0xbca1104e	-0.019661095
26	0xbe35bf4f	-0.1774876
27	0x3cba8b60	0.022771537
28	0xbd8288aa	-0.06373723
29	0xbde9d856	-0.11418216
30	0xbe0ca570	-0.13734984
31	0xbc5a47f3	-0.013322818
32	0x3defdf34	0.117124945
33	0xbe29a77d	-0.16567798
34	0x3e04040a	0.12892166
35	0xbdfdfe25	-0.1240199
36	0x3d8f99a5	0.07011727
37	0xbd86bd9a	-0.065791324
38	0xbe3643de	-0.17799327
39	0x3d7ab5c0	0.061208487
40	0xbd676be3	-0.056499373
41	0xbdb6220c	-0.08893213
42	0x3dde988c	0.1086894
43	0xbde66868	-0.11250383
44	0x3de74477	0.112923555
45	0xbe7554aa	-0.23958078
46	0x3dde10a6	0.10843019
47	0x3c279612	0.010228651
48	0xbd07ea29	-0.033182297
49	0xbb40251d	-0.0029318996
50	0xbdafecdb	-0.085900985
51	0xbc97c80c	-0.018528007
52	0xbe1b1bf2	-0.15147379
53	0x3c12fc4f	0.008971288
54	0x3d9872d5	0.074437775
55	0xbde9ce3e	-0.11416291
56	0xbdb134a8	-0.086526215
57	0x3c77ad90	0.015117064
58	0xbdc3bfcd	-0.095580675
59	0xbe084bcd	-0.13310166
60	0xbdaa41f3	-0.0831336
61	0xbe370101	-0.17871477
62	0xbd0f0673	-0.03491826
63	0xbe214140	-0.15747547
64	0xbd19474a	-0.037421502
65	0xbe0e6a85	-0.13907821
66	0xbd9f9ca1	-0.077935465
67	0xbe1290cb	-0.14313047
68	0xbdda70de	-0.10666059
69	0xbdf7954b	-0.12089022
70	0xbce292ef	-0.027657954
71	0xbdd860d0	-0.105653405
72	0xbd8d9625	-0.069134034
73	0x3e3f9071	0.18707444
74	0x3e458b1e	0.1929135
75	0xbc9b4e81	-0.018958332
76	0x3e4d857b	0.2007045
77	0x3de58e47	0.11208778
78	0x3cdcdcd1	0.026960762
79	0xbd7570a4	-0.059921876
80	0x3dfc6cc1	0.12325431
81	0xbd29e3a9	-0.04147688
82	0x3c28decf	0.010307028
83	0xbda3eeba	-0.08004518
84	0xbdd28e77	-0.10281079
85	0xbe5e359e	-0.21700141
86	0xbde73fb8	-0.1129145
87	0xbe221df3	-0.15831737
88	0x3c8e0434	0.017335989
89	0x3c4d1e3b	0.012519415
90	0xba9487a8	-0.0011331933
91	0xbe205253	-0.15656404
92	0xbda4abed	-0.08040605
93	0xbd81a00a	-0.06329353
94	0xbd84eea7	-0.06490832
95	0xbe230ea0	-0.15923548
96	0xbe412569	-0.18861927
97	0xbe7c6204	-0.24646765
98	0xbd808341	-0.06275035
99	0xbd83132c	-0.06400141
100	0x3e1c3b1a	0.1525692
101	0xbdabbede	-0.083860144
102	0xbe187d8f	-0.14891647
103	0xbdeadb10	-0.11467564
104	0x3dca0fbb	0.098662816
105	0x3ce966d7	0.02849142
106	0x3c5f8bbf	0.013644158
107	0xbe678dfe	-0.2261276
108	0xbe2fad61	-0.17155983
109	0x3d8892af	0.06668603
110	0xbe19e3f3	-0.15028362
111	0xbdb69045	-0.08914236
112	0x3d6519c2	0.055932768
113	0xbae27b66	-0.0017279207
114	0xbdf4561f	-0.11930489
115	0xbd30eab9	-0.0431926
116	0xbe1139c4	-0.14182192
117	0x3dcebd12	0.10094656
118	0xbd9aa476	-0.075509
119	0x3cee23d3	0.029069817
120	0xbda94f3a	-0.082670644
121	0xbdb4fa95	-0.08836857
122	0xbdc16c1a	-0.09444447
123	0x3dcc0b0c	0.099630445
124	0x3dc9bdb6	0.098506376
125	0xbdaecb86	-0.08534913
126	0xbcbe6f36	-0.023246389
127	0xbe654374	-0.22389013
128	0xbe0d4554	-0.13795978
129	0xbdd9e192	-0.10638727
130	0xbe1c4188	-0.15259373
131	0xbe4179f3	-0.18894176
132	0xbd80fb69	-0.06297953
133	0xbe2d3dc6	-0.16918096
134	0xbd7132f7	-0.058886494
135	0xbcc93293	-0.024560248
136	0xbdb94d60	-0.09047961
137	0x3ba1ff4b	0.0049437634
138	0xbdbe6838	-0.09297222
139	0xbbce6e27	-0.0062997523
140	0x3d34e68a	0.04416517
141	0xbd585e5e	-0.05282437
142	0x3d3d5146	0.046220087
143	0xbe11c9c6	-0.14237127
144	0xbdc270bd	-0.09494159
145	0x3d1f62dc	0.03891264
146	0xbd890d14	-0.066919476
147	0xbd737e2b	-0.059446495
148	0x3e2b2c28	0.16716063
149	0xbe10997c	-0.1412105
150	0x3db0d3a2	0.08634116
151	0x3d84e91e	0.06489776
152	0x3d860e5d	0.06545708
153	0x3cddf1b3	0.02709279
154	0xbc731770	-0.014837131
155	0x3d32022d	0.043459106
156	0xbdecff66	-0.11572151
157	0xbebc693e	-0.36799043
158	0x3c02a8a3	0.007974776
159	0xbd78bde0	-0.060727954
160	0xbe2f367f	-0.17110632
161	0xbd5d4482	-0.054020412
162	0xbd8b7441	-0.06809283
163	0xbe7b8ad9	-0.24564685
164	0xbe6ff140	-0.23431873
165	0x3e1b4356	0.15162405
166	0xbe813c62	-0.2524138
167	0xbeaa92ae	-0.33315033
168	0x3d75ccbc	0.060009703
169	0x3e81f03c	0.25378597
170	0x3e1ed5ac	0.15511197
171	0x3dfb5011	0.12271131
172	0xbe4e2550	-0.20131421
173	0xbde3a082	-0.11114599
174	0xbc8bf103	-0.017082697
175	0x3df94219	0.1217081
176	0xbd6a589f	-0.057213422
177	0x3cccbf32	0.024993513
178	0xbe351e8d	-0.17687435
179	0x3dfe2329	0.1240905
180	0xbc692226	-0.014229333
181	0x3d1960dd	0.03744589
182	0x3db49324	0.08817127
183	0x3db7e690	0.08979523
184	0x3db5a553	0.08869424
185	0x3df9f564	0.12205008
186	0x3e2b44e0	0.16725492
187	0x3e0d23c7	0.13783179
188	0x3d0e6aa6	0.034769677
189	0xbde6a594	-0.1126205
190	0x3e003e48	0.12523758
191	0x3d810dae	0.06301437
192	0x3e2f5e38	0.17125785
193	0x3d3247a6	0.04352536
194	0x3e01f82e	0.1269233
195	0xbb8c3c36	-0.0042796386
196	0xbd4e0ab1	-0.050303165
197	0x3d605baa	0.054774918
198	0xbd4fdc5f	-0.05074727
199	0xbd25fb9e	-0.040523164
200	0xbd21b56e	-0.039479665
201	0xbc2c1ac9	-0.010504433
202	0x3d6db284	0.058031574
203	0x3c3afe8b	0.011413227
204	0xbc8f1078	-0.017463908
205	0x3da704db	0.08155223
206	0xbd496b33	-0.0491745
207	0xbd97ccd2	-0.07412113
208	0x3de2df5f	0.11077761
209	0xbd15cce8	-0.036572367
210	0xbdc69ed0	-0.0969826
211	0x3d3fd71c	0.046836004
212	0x3e74d0bf	0.23907755
213	0xbd5d8ef7	-0.05409142
214	0x3d571c82	0.05251742
215	0xbd025f3a	-0.031829096
216	0x3cc19baf	0.023633806
217	0xbdc17191	-0.09445489
218	0xbe1eb1ae	-0.15497467
219	0xbe86899a	-0.26276857
220	0x3cc9d530	0.024637789
221	0xbe9dc1d6	-0.30811948
222	0xbc97bc0d	-0.018522287
223	0xbdc90f42	-0.09817363
224	0xbda3589b	-0.079758845
225	0x3cf8aba4	0.030355282
226	0x3dd94996	0.106097385
227	0x3d6a16d5	0.05715068
228	0x3e3efc3a	0.18650904
229	0xbc5a7373	-0.013333189
230	0xbcf6b07e	-0.030113455
231	0xbd87b33c	-0.06625983
232	0x3de275a8	0.110575974
233	0xbcc1689b	-0.02360945
234	0xbd8efef8	-0.06982225
235	0xbd16c102	-0.03680516
236	0xbc0079ca	-0.007841537
237	0xbe0a97cb	-0.13534467
238	0x3b1e6ec3	0.0024174906
239	0xbdabfc1d	-0.08397696
240	0xbcfa8d59	-0.030584978
241	0xbe08ffff	-0.13378905
242	0x3d976621	0.073925264
243	0x3d91f4d0	0.071267724
244	0xbdf70b10	-0.12062657
245	0x3e0aa146	0.13538083
246	0xbd306066	-0.043060683
247	0xbdbb8a46	-0.09157233
248	0x395bb956	0.0002095451
249	0xbb6a2d3a	-0.0035732524
250	0x3d4bd22b	0.04976098
251	0xbd4d7a67	-0.05016556
252	0x3da495d7	0.08036392
253	0xbcbf35f4	-0.023341157
254	0xbb113d54	-0.0022161799
255	0x3d642824	0.055702344

0.features.1.0.block.0.1.weight f4 [16]
0	0x3f47baa7	0.78019184
1	0x3f314197	0.6924071
2	0x3f3ebd6e	0.74507797
3	0x3f37f8c3	0.71863955
4	0x3f103d90	0.56343937
5	0x3f341e93	0.7035915
6	0x3f3b3028	0.73120356
7	0x3f195ab2	0.59904015
8	0x3f39b8d8	0.72547674
9	0x3f262931	0.64906603
10	0x3f209ad1	0.6273623
11	0x3f241d6c	0.64107394
12	0x3f264f88	0.64965105
13	0x3f4673de	0.7752055
14	0x3f3a22dd	0.7270945
15	0x3f1dee6c	0.6169193

0.features.1.0.block.0.1.bias f4 [16]
0	0x3e1fd7ac	0.15609616
1	0x3eaf7f4b	0.34276804
2	0x3e9a440f	0.3013005
3	0x3e773400	0.2414093
4	0x3ec82971	0.39094117
5	0x3e058692	0.13039616
6	0x3d750a87	0.059824493
7	0x3e8cb938	0.2748506
8	0x3d6da553	0.058018994
9	0x3dc05785	0.09391693
10	0x3dbfc6ec	0.09364113
11	0x3e83b675	0.2572514
12	0x3cd57cbc	0.026060455
13	0x3e0bfec4	0.13671404
14	0x3e077102	0.13226703
15	0x3e05d7f5	0.13070662

0.features.1.0.block.0.1.running_mean f4 [16]
0	0xc025a79c	-2.588355
1	0x3edd4f03	0.43224344
2	0x3f8ac0bf	1.0840071
3	0x3ebec127	0.3725674
4	0x3ec849e2	0.39118868
5	0xbe555144	-0.20831782
6	0x3e6e6332	0.23280028
7	0x3e1d8e33	0.15386276
8	0x3e687a8d	0.22703
9	0x3dae0314	0.08496681
10	0x3ef23198	0.47303462
11	0xbf3297bd	-0.69762784
12	0xbf0c570a	-0.5482031
13	0xbf7508d4	-0.95716596
14	0xbc7a7eda	-0.015289033
15	0x3e83c838	0.25738692

0.features.1.0.block.0.1.running_var f4 [16]
0	0x4007e200	2.123169
1	0x3f91beec	1.138639
2	0x4035f9ae	2.8433642
3	0x3fd5238e	1.6651475
4	0x3ff1c55b	1.8888353
5	0x400f3837	2.237806
6	0x3fb00570	1.3751659
7	0x3fa59d12	1.2938559
8	0x4012b900	2.2925415
9	0x40c46dbe	6.1383963
10	0x3f81e06d	1.0146614
11	0x3f924cd8	1.1429701
12	0x3fe6b306	1.8023384
13	0x4021422e	2.5196643
14	0x40ab2ec1	5.3494573
15	0x40542266	3.3145995

0.features.1.1.block.0.0.weight f4 [16, 16, 3, 3]
0	0x3be171d9	0.006880027
1	0x3ddbd718	0.10734385
2	0x3e8365f2	0.25663716
3	0x3e26e590	0.16298509
4	0xbd45084b	-0.048103612
5	0x3ea7d692	0.32780892
6	0x3e245598	0.16048276
7	0x3eb999c6	0.36250132
8	0x3eaaaf83	0.3333703
9	0xbe0d0134	-0.1376999
10	0xbcbb0757	-0.022830648
11	0xbe3158ad	-0.17318983
12	0x3e24e7b1	0.16104008
13	0xbe67cde3	-0.22637133
14	0xbdbad4e6	-0.091226384
15	0xbe181d74	-0.14854985
16	0xbdf1ec4b	-0.118126474
17	0xbda007ce	-0.078139886
18	0xbddf9991	-0.10917962
19	0xbd979c38	-0.07402843
20	0xbd2a8732	-0.04163284
21	0x3d92a8e7	0.07161122
22	0xbcc50ce8	-0.024054006
23	0x3e450255	0.19239171
24	0xbdc88b86	-0.09792237
25	0x3c8d203d	0.017227286
26	0xbdb797e7	-0.0896452
27	0x3d419134	0.047257617
28	0x3c17392a	0.009229938
29	0xbbd5da63	-0.006526278
30	0x3dd06c08	0.10176855
31	0x3ddc2980	0.10750103
32	0xbce2067d	-0.027590984
33	0xbd15b8b1	-0.03655309
34	0xbda63f02	-0.081174865
35	0xba9ddde2	-0.0012044276
36	0xbb4df43b	-0.003142609
37	0xbccc241d	-0.024919564
38	0xbc62d4c7	-0.013844675
39	0x3dbdf377	0.09274953
40	0xbd22da2a	-0.03975884
41	0xbcf17310	-0.029473811
42	0x3c84c83e	0.016208764
43	0x3cf99f44	0.030471452
44	0x3d767220	0.06016743
45	0xbe065b6d	-0.13120814
46	0x3ca702ac	0.020387016
47	0x3da3123f	0.079624645
48	0x3ccdac47	0.025106562
49	0x3e0273e5	0.12739523
50	0x3dcd3729	0.100202866
51	0x3d8477f9	0.064681955
52	0xbc8c1292	-0.017098699
53	0xbcb45296	-0.022012036
54	0x3dca63ef	0.09882342
55	0x3d14a7b5	0.03629275
56	0xbbed686e	-0.007245115
57	0xbe205d5c	-0.15660614
58	0x3c9058b2	0.017620418
59	0xbc90d2db	-0.017678669
60	0x3ca21861	0.019787015
61	0xbd68f9d6	-0.056878887
62	0xbd95892e	-0.073015556
63	0xbd8d9d3b	-0.06914755
64	0x3ce59d56	0.028029125
65	0x3d1a1316	0.037615858
66	0xbda81f00	-0.08209038
67	0x3c885b03	0.01664496
68	0x3c9f5d37	0.019453628
69	0xbcaac939	-0.020847904
70	0x3e089554	0.13338214
71	0x3d954567	0.07288628
72	0x3d7baef6	0.061446153
73	0xbce14ab3	-0.02750144
74	0xbdd2c17d	-0.10290811
75	0x3d8b2929	0.0679496
76	0x3e09faf9	0.13474645
77	0xbdba8d35	-0.09108964
78	0xbc1c1251	-0.009525851
79	0xbe2c1e29	-0.1680838
80	0x3d24ff0a	0.040282287
81	0xbd12380e	-0.03569799
82	0x3b633807	0.0034670846
83	0x3db8ad45	0.090174235
84	0x3d655f70	0.05599922
85	0x3e0aaf53	0.13543443
86	0xbd5e23e3	-0.054233443
87	0x3d961ee6	0.07330112
88	0x3e09ff18	0.13476217
89	0x3d406110	0.046967566
90	0xbe2c71ae	-0.1684024
91	0x3cf95d34	0.03043995
92	0xbcaca9c4	-0.021077044
93	0x3c8e89de	0.017399725
94	0x3e2bf9ff	0.16794585
95	0x3dd4b278	0.10385603
96	0xbd98aede	-0.07455228
97	0xbda0dd29	-0.07854683
98	0xbd047d17	-0.032345857
99	0xbdac2174	-0.08404818
100	0xbebd5caf	-0.36984774
101	0xbe72e64f	-0.23720668
102	0xbdb86823	-0.090042375
103	0xbe546885	-0.20742996
104	0xbe9312b5	-0.2872521
105	0xbd9032c6	-0.07040934
106	0xbe582e57	-0.21111427
107	0xbd2bcb9d	-0.041942228
108	0xbe248688	-0.16066945
109	0xbe1d5f8e	-0.15368482
110	0xbe9d0471	-0.3066745
111	0xbd966529	-0.073435135
112	0xbb2d1d38	-0.002641512
113	0xbd1c17ed	-0.038108755
114	0xbe0238f9	-0.12717046
115	0xbd22c0ab	-0.039734524
116	0xbdeda952	-0.11604561
117	0x3e2e46f3	0.17019252
118	0x3d79e746	0.061011575
119	0x3e79f5da	0.24410191
120	0x3dc0d727	0.09416037
121	0x3e641137	0.22272192
122	0x3c40add3	0.011760193
123	0x3e27ab1e	0.1637387
124	0x3d09ac3b	0.033611517
125	0x3e1af9ce	0.15134355
126	0x3d3e0d6e	0.046399526
127	0xba858201	-0.0010185839
128	0x3e0232d5	0.12714703
129	0xbcf9726d	-0.03045007
130	0xbcee355b	-0.029078176
131	0x3c58537c	0.013203498
132	0x3d609fda	0.054839946
133	0x3d1672df	0.036730643
134	0xbceeb49d	-0.029138857
135	0x3d24d975	0.040246446
136	0x3d51a9ef	0.051187452
137	0xbde030c7	-0.109468035
138	0xbdb8e15b	-0.09027358
139	0x3e61b339	0.22041024
140	0xbd90d45e	-0.07071756
141	0x3cff0009	0.031127946
142	0xbe1a8873	-0.15091114
143	0x3c53251d	0.012887266
144	0x3bbfdec1	0.0058554118
145	0xbe38bb56	-0.18040213
146	0xbd1e2650	-0.038610756
147	0x3e321b0c	0.1739313
148	0x3d6be8a3	0.057594907
149	0x3deb9060	0.11502147
150	0x3e1b76f6	0.15182099
151	0xbbe0c7a6	-0.0068597374
152	0x3d052c22	0.03251279
153	0x3c8e6b7a	0.017385233
154	0x3da82e18	0.08211917
155	0xbe8f29dd	-0.27961627
156	0xbd2ca462	-0.042148955
157	0x3d8cc227	0.06872969
158	0xbe316f8f	-0.17327712
159	0xbe0c9847	-0.13729964
160	0x3e582d04	0.21110922
161	0xbe49a3fa	-0.19691458
162	0x3c42075a	0.011842573
163	0xbe66feed	-0.22558184
164	0xbe5e9318	-0.217358
165	0x3e4ee8b2	0.20205954
166	0xbe18066f	-0.14846204
167	0xbd51ff13	-0.05126865
168	0xbe11e926	-0.14249095
169	0xbc778e5b	-0.015109624
170	0xbd062084	-0.032745853
171	0x3c7691aa	0.015049377
172	0x3e365e3f	0.1780939
173	0xbe0486d2	-0.12942055
174	0xbd773c36	-0.060360156
175	0x3e1b4072	0.15161303
176	0x3d883670	0.06651008
177	0xbccb060f	-0.024783162
178	0xbbedee1b	-0.0072610504
179	0xbe0996e6	-0.1343647
180	0x3e5c0831	0.214875
181	0xba0a4e2c	-0.0005275931
182	0x3d13f904	0.03612615
183	0x3e33d540	0.17561817
184	0xbe1af20e	-0.15131399
185	0x3d2f51bf	0.04280257
186	0x3e0868ee	0.13321277
187	0x3d59164d	0.052999783
188	0xbc828413	-0.015932119
189	0x3dd4c94c	0.10389957
190	0x3e1380ef	0.14404653
191	0x3dc32fbb	0.09530588
192	0xbc0d21a5	-0.0086139785
193	0xbcd6ab20	-0.026204646
194	0x3ddeb4a2	0.10874297
195	0xbd911550	-0.07084143
196	0xbd158059	-0.036499355
197	0x3d3578e8	0.04430476
198	0x3e4df013	0.20111112
199	0xbcfbd07a	-0.030739058
200	0xbe278610	-0.16359735
201	0xbdd0a94c	-0.10188541
202	0x3d66db31	0.05636138
203	0xbe229be8	-0.15879786
204	0x3d5837c7	0.05278757
205	0xbd96b90b	-0.07359513
206	0x3d53b705	0.051688213
207	0xbd1b1ae5	-0.037867445
208	0x3d7c0267	0.06152573
209	0xbc6c3e28	-0.014419116
210	0xbd788a13	-0.060678553
211	0x3e883ca1	0.26608756
212	0x3cb68ad7	0.022283
213	0xbe016a1c	-0.12638134
214	0xbe89fa36	-0.26948708
215	0xbdcd7ccd	-0.100335695
216	0xbc8d7a72	-0.0172703
217	0xbe19d00e	-0.15020773
218	0xbd0a94e3	-0.033833396
219	0x3ca22c25	0.01979644
220	0x3e023e0d	0.12718983
221	0x3cfaad3d	0.030600185
222	0xbdb1be06	-0.08678822
223	0xb9145193	-0.00014144769
224	0xbd79460d	-0.06085782
225	0x3b9a4561	0.0047079776
226	0xbd1b82d6	-0.03796657
227	0xbcd81314	-0.026376285
228	0xbe16785e	-0.14694354
229	0xbddbc72a	-0.10731347
230	0xbd03dfc6	-0.03219583
231	0x3e2ad5eb	0.16683166
232	0x3e0a4779	0.13503827
233	0xbdfb6690	-0.122754216
234	0xbd177bfc	-0.036983475
235	0xbe22971f	-0.1587796
236	0xbdcbff1e	-0.09960769
237	0xbd5b3732	-0.053519435
238	0xbc99c42c	-0.0187703
239	0xbd055a9b	-0.03255711
240	0x3cfa6bb3	0.030568933
241	0x3de30950	0.110857606
242	0xbe09f018	-0.13470495
243	0x3bbb6c31	0.0057196845
244	0x3e2c187d	0.16806217
245	0xbda40004	-0.080078155
246	0xbe5826bc	-0.21108526
247	0x3e1c28ad	0.15249892
248	0x3d9d6c47	0.07686668
249	0x3deee7fe	0.11665343
250	0xbdc4f202	-0.09616472
251	0xbd59597a	-0.053063847
252	0x3cd80445	0.026369223
253	0xbca4e746	-0.020129811
254	0x3e2209ef	0.15824102
255	0x3d0d86ca	0.034552373

0.features.1.1.block.0.1.weight f4 [16]
0	0x3fba6e28	1.4564867
1	0x3ee52219	0.44752577
2	0x3f3e9c40	0.7445717
3	0x3f32a18b	0.69777745
4	0x3f24d7e3	0.64391917
5	0x3f4e7a84	0.80655694
6	0x3f201c13	0.6254284
7	0x3edb832b	0.4287351
8	0x3f376d86	0.71651495
9	0x3f3a4ba3	0.7277166
10	0x3ebf6b90	0.3738675
11	0x3edafbb3	0.42770156
12	0x3f269a24	0.6507895
13	0x3f2393f5	0.6389764
14	0x3f18b73a	0.5965458
15	0x3f2777c7	0.6541714

0.features.1.1.block.0.1.bias f4 [16]
0	0xbf53bc6d	-0.8270939
1	0xbe33296c	-0.1749627
2	0x3d41259b	0.047155004
3	0xbe367dd7	-0.17821442
4	0xbd35524b	-0.044267934
5	0x3d9bc9a8	0.07606822
6	0xbd1cfe82	-0.038328655
7	0xbdd45cad	-0.10369239
8	0xbb4a7d9e	-0.0030897628
9	0xbf09cf3d	-0.53831846
10	0xbd90521c	-0.07046911
11	0xbe4c0a4c	-0.19925803
12	0xbd8f900a	-0.07009895
13	0x3e04ab8b	0.12956063
14	0xbdbe54f6	-0.09293549
15	0xbda962bc	-0.08270785

0.features.1.1.block.0.1.running_mean f4 [16]
0	0xbde5e221	-0.11224771
1	0xbf462b33	-0.77409667
2	0x3e35e02c	0.17761296
3	0xc00290c7	-2.0400865
4	0xbf1a68df	-0.6031627
5	0xbe2fe9f2	-0.17179087
6	0xbfd649cc	-1.6741271
7	0xbf8e18f1	-1.1101362
8	0xbebae7fb	-0.36505112
9	0xc02bfe68	-2.6874027
10	0xbd1ead5c	-0.038739547
11	0xbf112421	-0.56695753
12	0xc0338386	-2.8049026
13	0xbf43d9dd	-0.7650431
14	0xc012bc12	-2.292729
15	0xbeef56cc	-0.46745908

0.features.1.1.block.0.1.running_var f4 [16]
0	0x3e4c4cf2	0.19951227
1	0x3fddab3e	1.7317884
2	0x411e2ad0	9.885452
3	0x414841ec	12.516094
4	0x40b13427	5.5376163
5	0x41050013	8.312518
6	0x40a2aa8c	5.0833187
7	0x404171da	3.022574
8	0x41550573	13.31383
9	0x40599464	3.399682
10	0x3fd774ac	1.683248
11	0x3f4d3a53	0.8016712
12	0x415429e7	13.26023
13	0x401488eb	2.3208568
14	0x41270f93	10.441302
15	0x41151f27	9.320106

0.features.2.0.block.0.0.weight f4 [64, 16, 3, 3]
0	0xbb726a55	-0.0036989648
1	0x3df85260	0.12125087
2	0x3ddbdc76	0.10735409
3	0x3e055edf	0.13024472
4	0xbd56436e	-0.0523104
5	0x3d336d29	0.043805275
6	0xbbd1b627	-0.006399888
7	0xbc797a98	-0.0152269825
8	0x3bdc2354	0.0067180786
9	0xbd224bde	-0.039623134
10	0xbd171a25	-0.036890168
11	0x3d4f7e2f	0.050657447
12	0xbd60fa40	-0.054926157
13	0xbe389b77	-0.18028055
14	0xbd95bbe1	-0.07311226
15	0x3cec7e0d	0.0288687
16	0xbdb4f8e7	-0.08836537
17	0xbcc82890	-0.024433404
18	0xbdd4a1b9	-0.10382409
19	0x3cd82721	0.026385846
20	0xbcdd85b0	-0.027041286
21	0x3d9cf14d	0.07663212
22	0x3e924b5f	0.2857313
23	0xbc4a6abd	-0.01235455
24	0xbceea7d5	-0.029132763
25	0xbcdb93fe	-0.026803967
26	0xbcde8b24	-0.027165957
27	0x3c973fb4	0.018462993
28	0xbd1af9d0	-0.037835896
29	0x3dcd596a	0.1002682
30	0x3d2b4c23	0.041820657
31	0xbb64f153	-0.003493388
32	0x3d88c347	0.06677871
33	0x3dabe1c6	0.08392672
34	0x3db17d7c	0.08666512
35	0x3c7a34ba	0.01527136
36	0xbd9a9e00	-0.07549667
37	0xbd882614	-0.06647888
38	0xbbd407e1	-0.006470666
39	0xbc3f7a96	-0.011686942
40	0x3ca06c4f	0.019582896
41	0x3c49e87b	0.012323494
42	0xbdbbdb82	-0.09172727
43	0x3b6bed82	0.003599972
44	0xbda000e9	-0.078126736
45	0xbc061660	-0.008184046
46	0x3cecd243	0.028908854
47	0xbba67bba	-0.0050806673
48	0xbe0672cf	-0.13129734
49	0x3c4deb88	0.012568362
50	0x3d68e350	0.056857407
51	0x3c1dd516	0.009633323
52	0x38ba73c6	8.8907356e-05
53	0x3bb06a78	0.005383786
54	0x3c83dfcc	0.016097926
55	0xbd17ce5e	-0.03706204
56	0x3c9cc373	0.019136166
57	0xbd508b8d	-0.050914336
58	0xbca8ee46	-0.02062143
59	0xbc0d8fde	-0.008640258
60	0xba2a3b64	-0.0006493835
61	0xbd3e240d	-0.0464211
62	0xbd0024b4	-0.031285003
63	0x3daf9bc8	0.08574635
64	0x3b21ba8f	0.0024677848
65	0x3c587476	0.01321136
66	0xbd38ce18	-0.04511842
67	0xbe2fcdd0	-0.17168355
68	0xbd67fc87	-0.056637313
69	0x3d7a5696	0.06111773
70	0xbb018bfa	-0.001976727
71	0xbe05c05f	-0.13061665
72	0xbd1f8c89	-0.038952384
73	0x3dc240c6	0.09485011
74	0xbc25d861	-0.0101223895
75	0x3cea415a	0.028595615
76	0x3dc35cf9	0.095392175
77	0x3d4725c3	0.048619997
78	0x3c001f37	0.007819942
79	0x3d9b3555	0.07578532
80	0x3cb878d4	0.022518553
81	0xbd4eff24	-0.05053629
82	0xbcd2900e	-0.025703456
83	0xbdb66184	-0.089053184
84	0xbda64bed	-0.081199504
85	0x3ddf17be	0.108932
86	0x3d0dd1f9	0.034624074
87	0xbb9dee1b	-0.004819644
88	0x3d6ed8c1	0.05831218
89	0x3d429401	0.04750443
90	0xbcfe05d3	-0.031008637
91	0x3ca55f3d	0.020187015
92	0xbd3c30ab	-0.04594485
93	0x3d14ee6a	0.036360182
94	0xbd1e321d	-0.03862201
95	0x3d263778	0.040580243
96	0xbd406fb9	-0.046981547
97	0xbc1fc2e9	-0.00975106
98	0xbd492ef0	-0.04911703
99	0x3da56ecb	0.08077773
100	0x3d8a481f	0.06752037
101	0xbda9b51d	-0.08286498
102	0xbb393332	-0.0028259275
103	0x3e127522	0.14302495
104	0x3d13886d	0.036018778
105	0x3c719589	0.014745125
106	0x3dafce68	0.08584291
107	0x3d3a9ead	0.04556148
108	0x3d961538	0.07328266
109	0xbc990051	-0.018676909
110	0xbcd7e7bf	-0.026355622
111	0x39fa0ecc	0.0004769474
112	0x3cb1b1b4	0.02169118
113	0x3b354fcd	0.0027665973
114	0x3d77c765	0.06049289
115	0xbcb9f889	-0.022701519
116	0x3d2ee1dc	0.042695865
117	0xbde184c9	-0.11011655
118	0x3e18bbce	0.14915392
119	0xbddad3a0	-0.106848955
120	0x3de37e13	0.11108031
121	0x3da79623	0.08182933
122	0x3caf3e20	0.021391928
123	0xbdf1184c	-0.117722124
124	0x3df6ad9f	0.12044834
125	0xbdad9653	-0.08475938
126	0xbdc28242	-0.09497501
127	0x3d0cd05d	0.0343784
128	0x3d3c309f	0.045944806
129	0xbcdb91d8	-0.026802942
130	0x3d00050d	0.031254817
131	0x3c15375e	0.009107439
132	0x3bfc4110	0.0076981857
133	0x3ddaa17b	0.10675331
134	0x3ccee327	0.025254799
135	0xbc17eaf1	-0.009272323
136	0xbdcbdef4	-0.09954634
137	0xbd4240d1	-0.047425095
138	0xbe53bf74	-0.20678502
139	0xbde91384	-0.113806754
140	0xbdd16b78	-0.10225576
141	0xbe273a0b	-0.16330735
142	0xbd868eff	-0.06570243
143	0x3c1a0884	0.009401444
144	0x3d6042b4	0.054751113
145	0xbd1d5888	-0.038414508
146	0x3c8149c1	0.015782239
147	0xbdcf34aa	-0.10117467
148	0xbd22d6d2	-0.03975565
149	0x3cfe0071	0.03100607
150	0x3e293f54	0.16528064
151	0xbb608a42	-0.0034262096
152	0x3d923d2e	0.07140575
153	0xbbf513cc	-0.0074791666
154	0xbc976f7d	-0.018485779
155	0x3c0551f0	0.008137211
156	0x3d7aafc3	0.061202776
157	0x3ded70e7	0.115938
158	0x3cc8029d	0.024415309
159	0x3ce0a02a	0.027420122
160	0x3dcbeb57	0.09956997
161	0xbc753950	-0.014967278
162	0xbbd8c50f	-0.006615288
163	0xbd8d420c	-0.06897363
164	0x3c1d39f5	0.009596338
165	0xbc54db2d	-0.012991709
166	0xbdc3829b	-0.095463954
167	0x3d5042ef	0.050845083
168	0xbe143c2e	-0.14476082
169	0x3cf95c2a	0.030439455
170	0x3da7485f	0.081681006
171	0x3d5fed62	0.054669745
172	0x3e216336	0.15760502
173	0x3d96f05c	0.07370064
174	0x3d840c53	0.06447663
175	0xbb93db81	-0.004512251
176	0x3b7dded7	0.003873756
177	0x3d7d32fe	0.061816208
178	0x3cfa23fa	0.030534733
179	0x3da401a5	0.08008126
180	0xbb7f25a6	-0.0038932352
181	0xbc254fa4	-0.010089789
182	0xbb22f6f5	-0.0024866436
183	0xbda13070	-0.07870567
184	0xbcc77efd	-0.024352545
185	0xbd1287f2	-0.03577418
186	0xbc18a168	-0.009315826
187	0xbb9d7ce1	-0.0048061465
188	0xbb11d135	-0.0022249941
189	0xbc7b04cf	-0.015320971
190	0xbd2360e0	-0.03988731
191	0xbd973bbd	-0.07384441
192	0xbdf7d72d	-0.121015884
193	0xbd850adf	-0.06496214
194	0xbe281685	-0.1641484
195	0x3ada16bb	0.0016638854
196	0x3a8a3dc6	0.0010546974
197	0xbe02d7f8	-0.12777698
198	0x3cbe3f41	0.023223521
199	0xbd4930b0	-0.049118698
200	0x3d034777	0.032050576
201	0xbd321888	-0.043480426
202	0x3b910e49	0.0044267518
203	0x3c3facae	0.011698885
204	0x3d0932a9	0.03349558
205	0x3b9fb7de	0.0048742136
206	0xbc84ccb7	-0.016210897
207	0xbc8543bf	-0.016267655
208	0x3c7df8d8	0.0155012235
209	0x3d981835	0.07426492
210	0x3d533845	0.051567335
211	0x3da62539	0.081125684
212	0x3d84be54	0.06481615
213	0x3e1f11d7	0.15534149
214	0x3e32f202	0.17475131
215	0x3e2a831e	0.1665158
216	0xbda06718	-0.078321636
217	0xbd8c1075	-0.068390764
218	0x3c9611ab	0.018318972
219	0xbd4221fb	-0.047395688
220	0x3ce7ab07	0.028279794
221	0x3da02a71	0.07820595
222	0xbcbcf7c5	-0.023067364
223	0x3dbf6c1b	0.09346791
224	0x3d24b79e	0.040214173
225	0x3d4d11bb	0.050065737
226	0xbd8dc06f	-0.069214694
227	0x3c236599	0.009972953
228	0xbbbfeaf7	-0.0058568674
229	0xbd6f2076	-0.058380567
230	0xbdac2db4	-0.08407155
231	0x3c52254a	0.012826273
232	0xbdea58f4	-0.11442748
233	0x3cc6547e	0.02421021
234	0xbdb97b5f	-0.09056734
235	0xbccb690f	-0.02483037
236	0xbd1495be	-0.036275618
237	0x3cf7f8b9	0.030269967
238	0x3d7e859e	0.062139146
239	0xbd70b593	-0.058766913
240	0xbdc610a8	-0.09671146
241	0xbd01bb62	-0.031672843
242	0xbd8fe70e	-0.07026492
243	0x3d3a8c26	0.045543812
244	0xbcfaa0ac	-0.030594192
245	0x3d83152e	0.06400524
246	0x3c174f85	0.0092352675
247	0x3c8c5b5a	0.017133404
248	0xbd9ef465	-0.07761458
249	0xbc4e8640	-0.01260525
250	0xbd34bbb6	-0.044124328
251	0xbdecdec9	-0.115659304
252	0xbd35a1c8	-0.04434374
253	0x3c5e274c	0.013559174
254	0xbc9910b0	-0.018684715
255	0x3da60104	0.081056625

0.features.2.0.block.0.1.weight f4 [64]
0	0x3f33a0c9	0.70167214
1	0x3f45d462	0.77277195
2	0x3f409de3	0.75240916
3	0x3f462412	0.7739879
4	0x3f46e52f	0.77693456
5	0x3f53331e	0.82499874
6	0x3f3d32d4	0.7390568
7	0x3f1788c9	0.5919309
8	0x3fa6192f	1.2976435
9	0x3f063ba3	0.5243475
10	0x3f469105	0.7756503
11	0x3eeca5db	0.46220288
12	0x3f505853	0.8138477
13	0x3f389b79	0.7211223
14	0x3ede2331	0.43386224
15	0x3f3fd321	0.7493153
16	0x3f50c673	0.8155281
17	0x3f38ba02	0.72158825
18	0x3f41f4c6	0.7576412
19	0x3f4107c2	0.7540246
20	0x3f3af976	0.730369
21	0x3f4002c8	0.75004244
22	0x3f3b9b1e	0.73283565
23	0x3f530867	0.82434696
24	0x3f395750	0.72398853
25	0x3f45bad8	0.77238226
26	0x3fd2f032	1.6479552
27	0x3f26ae88	0.65110064
28	0x3f411331	0.7541991
29	0x3f4601d4	0.7734654
30	0x3f2dd74b	0.67906636
31	0x3f571e1a	0.84030306
32	0x3f4964be	0.78669345
33	0x3f34dcd2	0.70649445
34	0x3f0718ee	0.52772415
35	0x3f549cbd	0.83051664
36	0x3f4f4bc0	0.8097496
37	0x3f0ead7b	0.5573346
38	0x3f5a371e	0.8524035
39	0x3f44f2e4	0.7693312
40	0x3f57431a	0.84086764
41	0x3f3da80f	0.7408456
42	0x3f33c008	0.7021489
43	0x3f4d6760	0.8023586
44	0x3f397055	0.7243703
45	0x3f3e9562	0.7444669
46	0x3f1be952	0.60902894
47	0x3f479e28	0.779757
48	0x3f598ff0	0.84985256
49	0x3f474d47	0.7785229
50	0x3f1bf8d9	0.60926586
51	0x3f5b0c06	0.8556522
52	0x3f54b4e2	0.83088505
53	0x3f47f345	0.78105575
54	0x3f4ddaec	0.80412173
55	0x3f589782	0.8460618
56	0x3f4a5ba9	0.7904611
57	0x3f5262d2	0.8218204
58	0x3f3b5bcb	0.7318694
59	0x3f3162f2	0.69291604
60	0x3f35a7bd	0.70959073
61	0x3f377a4c	0.71670985
62	0x3f3e153d	0.7425116
63	0x3f5c6621	0.86093336

0.features.2.0.block.0.1.bias f4 [64]
0	0x3dfadcc3	0.12249138
1	0x3d955813	0.072921894
2	0x3e2f9950	0.17148328
3	0x3dcf4e56	0.10122363
4	0x3ddac25d	0.10681603
5	0x3e588492	0.21144322
6	0x3dd87cde	0.105706915
7	0x3e38c6c0	0.18044567
8	0xbf0f88e6	-0.56068265
9	0x3b8ca6cc	0.0042923447
10	0x3d60ec8e	0.054913096
11	0x3eb10c23	0.34579572
12	0x3e85d119	0.2613609
13	0xbd5f5666	-0.054525755
14	0x3d875f43	0.066099666
15	0x3e1e7304	0.15473562
16	0x3e2402a3	0.16016631
17	0xbdaad0f0	-0.08340633
18	0x3d62b8aa	0.05535189
19	0x3e74a50e	0.23891088
20	0x3cd6dc4f	0.026228098
21	0x3d1b7cdf	0.037960883
22	0x3dfa8f21	0.12234331
23	0x3ea45c66	0.32101744
24	0x3e5185e1	0.20461227
25	0x3e73c6a1	0.2380624
26	0xbf84ec75	-1.0384661
27	0x3e55cfdb	0.20880072
28	0x3d6ac4ee	0.057316713
29	0x3e411c24	0.18858391
30	0x3decab53	0.11556115
31	0x3e2dda3b	0.1697778
32	0x3e1876f3	0.14889126
33	0x3df00902	0.11720468
34	0x3d8f6988	0.0700255
35	0x3d9e4169	0.0772732
36	0x3f068873	0.52551955
37	0x3e035b74	0.12827855
38	0x3e101a3d	0.14072509
39	0x3e0fa838	0.14029014
40	0x3d0f1a99	0.034937475
41	0x3f074771	0.52843386
42	0x3ea7a7fc	0.3274535
43	0x3e2ffab4	0.1718548
44	0x3d57bb97	0.052669134
45	0x3e4d2517	0.2003368
46	0x3c5a2699	0.013314866
47	0x3daabad3	0.08336415
48	0x3e60b636	0.21944508
49	0x3ea09103	0.31360635
50	0x3c849966	0.016186427
51	0x3e378555	0.17921956
52	0x3e21def9	0.15807714
53	0x3e7e4a18	0.24832952
54	0x3e8fbe46	0.28074855
55	0x3db65f6b	0.08904918
56	0x3e5fc55a	0.21852627
57	0x3e764cec	0.24052781
58	0x3f0f5928	0.55995417
59	0x3db735a5	0.08945779
60	0x3d982d81	0.07430554
61	0x3e96f8bb	0.2948664
62	0x3dd2f713	0.10301032
63	0x3e183288	0.14863026

0.features.2.0.block.0.1.running_mean f4 [64]
0	0xbdc5d366	-0.09659462
1	0xbec42fd9	-0.38317755
2	0x3df11669	0.117718525
3	0xbeca982d	-0.39569226
4	0xbf84b491	-1.0367604
5	0xbf15f135	-0.5857118
6	0xbd7e3cb9	-0.06206963
7	0xbe853446	-0.26016444
8	0xbda2b710	-0.07945073
9	0xbf3a1747	-0.7269177
10	0xbe8cc39d	-0.2749299
11	0x3e181334	0.14851075
12	0x3d202ae5	0.039103407
13	0xbf77b007	-0.9675297
14	0x3d0b3351	0.033984486
15	0x3e8908a7	0.26764414
16	0x3e36f3e4	0.17866474
17	0xbfadd5ba	-1.3580849
18	0xbf8cb301	-1.0992128
19	0x3fa55453	1.2916359
20	0xbf3378f1	-0.70106417
21	0xbf61865e	-0.88095653
22	0x3f53cd9d	0.82735616
23	0x3f789d45	0.97114974
24	0x3f1bbf6c	0.6083896
25	0x3f866ca0	1.05019
26	0x3d880c14	0.06642929
27	0xbe0e90c9	-0.13922419
28	0xbf0dc1fd	-0.5537413
29	0x3eeb960e	0.4601292
30	0xbea7980a	-0.32733184
31	0x3f5eefc4	0.87084603
32	0xbcb1fb94	-0.021726407
33	0xbdaca277	-0.08429425
34	0xbe88ae79	-0.26695612
35	0x3e04d307	0.12971126
36	0x3e826aa1	0.25471976
37	0x3b871a83	0.0041230335
38	0xbe56261a	-0.20912972
39	0x3f55352b	0.8328425
40	0xbefb8e10	-0.49131823
41	0x3ef8d160	0.4859724
42	0x3e263b8d	0.16233654
43	0xbdfce3be	-0.12348126
44	0xbe398c27	-0.1811987
45	0xbe6a80cb	-0.22900693
46	0x3e8f3659	0.2797115
47	0xbecce439	-0.4001787
48	0x3f0d1101	0.5510407
49	0x3fadabd5	1.3568064
50	0xbf514957	-0.8175253
51	0x3db23e2f	0.08703267
52	0xbee1ca3d	-0.44099608
53	0x3f4080b4	0.75196385
54	0x3d216c2f	0.039409813
55	0x3b85330a	0.004064922
56	0x3f122a1e	0.57095516
57	0x3e9dae39	0.30796984
58	0x3fe8f457	1.8199567
59	0x3f205669	0.6263185
60	0x3efec651	0.49760678
61	0xbec6260f	-0.3870091
62	0x3e095029	0.13409485
63	0x3f0e919c	0.5569093

0.features.2.0.block.0.1.running_var f4 [64]
0	0x3fcd2da0	1.6029549
1	0x3fa44053	1.283213
2	0x3f8f603f	1.1201247
3	0x401d9169	2.4620001
4	0x4081f339	4.0609403
5	0x4041c0af	3.0273855
6	0x401f1f4b	2.486285
7	0x3fd608eb	1.6721472
8	0x3e87a01e	0.26489347
9	0x3f6e87de	0.93176067
10	0x4044b936	3.0738044
11	0x3e4ea5bd	0.20180412
12	0x4016b099	2.3545287
13	0x405bdf39	3.4354994
14	0x3f7c40af	0.985362
15	0x3fb0b41f	1.3804969
16	0x401a0fda	2.4072175
17	0x40696a5c	3.6471167
18	0x4010e530	2.2639885
19	0x3ff256a9	1.8932697
20	0x3fbc92d7	1.4732312
21	0x400dbb65	2.2145627
22	0x4030abaa	2.7604775
23	0x40135e7d	2.302642
24	0x40292295	2.6427357
25	0x4012c8d2	2.293507
26	0x3ef8735d	0.48525515
27	0x3f48f66e	0.7850102
28	0x3fa3a88e	1.2785814
29	0x4086059a	4.188184
30	0x3fb7cc3e	1.4359205
31	0x406c057d	3.687835
32	0x405849ce	3.3795047
33	0x3e9bd9ed	0.30439702
34	0x3f1c4551	0.6104327
35	0x3fa750ce	1.3071535
36	0x3faaba6c	1.3338141
37	0x3f6f7fa3	0.93554133
38	0x40361d6d	2.845546
39	0x403173c7	2.7726915
40	0x40007ddb	2.0076816
41	0x3f827800	1.0192871
42	0x3f818d26	1.01212
43	0x40077ea2	2.117104
44	0x3fc84733	1.5646728
45	0x3fe717ce	1.805414
46	0x3fc07efd	1.5038754
47	0x4017d96b	2.3726451
48	0x40457a85	3.085603
49	0x40a5de7e	5.1834097
50	0x3f68af01	0.90892035
51	0x40660dc5	3.5945904
52	0x3ffc7647	1.9723595
53	0x3ffe669f	1.9875067
54	0x4074180e	3.8139682
55	0x40a2f608	5.092533
56	0x4022ed8b	2.5457485
57	0x40c68c8b	6.204656
58	0x40097e37	2.1483285
59	0x403530ba	2.831099
60	0x3f9da89a	1.2317078
61	0x3f9bfe07	1.2186898
62	0x3fa388fd	1.277618
63	0x40b9c61b	5.805433

0.features.2.0.block.1.0.weight f4 [32, 64, 1, 1]
0	0x3d9d0539	0.07667012
1	0x3e2408cb	0.16018979
2	0x3d38acb6	0.045086585
3	0xbcf64b07	-0.030065073
4	0x3d9c69a2	0.07637335
5	0xbe1c60d7	-0.15271316
6	0xbd5f63df	-0.054538604
7	0xbdc1e7d9	-0.094680496
8	0xbdc1b729	-0.09458763
9	0xbd741283	-0.059587967
10	0x3e90121f	0.28138825
11	0x3eb04b88	0.34432626
12	0xbe7a4d01	-0.24443437
13	0x3d578baa	0.05262343
14	0x3e2c3488	0.16816914
15	0xbe9fb31f	-0.31191346
16	0xbe878e99	-0.2647598
17	0xbe7793b1	-0.24177434
18	0xbec00518	-0.37503886
19	0x3e019ceb	0.12657516
20	0x3d0c7ca8	0.03429857
21	0xbe76a2eb	-0.24085586
22	0x3df9b667	0.121929936
23	0x3d1c7c01	0.038204197
24	0x3eeb42eb	0.45949492
25	0xbe1926cc	-0.14956206
26	0xbf0683d7	-0.5254492
27	0xbe65aee2	-0.22429994
28	0xbeb706d0	-0.35747385
29	0xbe54efeb	-0.20794646
30	0x3d724a1a	0.0591527
31	0x3db237e1	0.08702064
32	0x3eab6c2e	0.33480972
33	0x3e154d3a	0.14580241
34	0xbe960744	-0.29302418
35	0xbe89d9a4	-0.2692386
36	0xbdb6ce1f	-0.08926033
37	0xbdb72fc0	-0.089446545
38	0xbe118389	-0.14210333
39	0xbe3857bf	-0.18002222
40	0xbead53fa	-0.33853132
41	0xbeabf668	-0.3358643
42	0x3c94002a	0.018066484
43	0xbd8e6d0c	-0.06954393
44	0x3da34ecd	0.079740144
45	0x3e96390e	0.29340404
46	0x3d5de499	0.054173086
47	0x3e6b965a	0.23006573
48	0x3e05a6df	0.13051938
49	0x3dd44d0b	0.10366257
50	0x3dd55492	0.10416521
51	0x3f03b23d	0.51443845
52	0x3e2f9f4c	0.1715061
53	0x3e1075f8	0.14107502
54	0xbe6b57b1	-0.2298267
55	0x3e296629	0.16542877
56	0xbcc5fd39	-0.024168598
57	0x3ecb3a4f	0.39692923
58	0x3e724e7d	0.23662753
59	0xbe7f8777	-0.2495402
60	0xbe0bc2c1	-0.13648511
61	0xbda25d9e	-0.07928012
62	0x3e866330	0.2624755
63	0xbe8ec811	-0.27887014
64	0xbd2b2bed	-0.041789938
65	0x3c1be307	0.009514577
66	0x3dc227f3	0.09480276
67	0x3ea3078b	0.31841692
68	0x3ddec2b0	0.108769774
69	0xbea076a0	-0.31340504
70	0x3d91ec0d	0.07125101
71	0xbdc8abf2	-0.09798421
72	0xbdf4646e	-0.11933218
73	0xbe4c4221	-0.19947101
74	0xbd213d1e	-0.039364927
75	0x3e43ca31	0.19120099
76	0x3c848ea1	0.016181292
77	0xbdbb5304	-0.09146693
78	0x3da8813f	0.08227777
79	0xbe8bfe73	-0.27342567
80	0xbdb3be70	-0.087765574
81	0xbe1192cd	-0.14216156
82	0x3dddb257	0.10825031
83	0x3d8b6b24	0.06807545
84	0xbe56b1b2	-0.20966223
85	0x3e208454	0.15675479
86	0xbeac1e5c	-0.33616912
87	0xbd64c2d3	-0.05584986
88	0x3ca480ba	0.020080913
89	0x3e20fc30	0.15721202
90	0xbef7603b	-0.48315606
91	0xbddd9cc2	-0.10820915
92	0xbeccfc20	-0.40036106
93	0x3ea276f4	0.3173138
94	0x3d88a8b4	0.066728026
95	0x3e64348d	0.22285672
96	0xbd1b8a87	-0.037973907
97	0xbdcaaa8e	-0.09895812
98	0x3bb79f6e	0.0056037223
99	0x3c62502e	0.013813062
100	0x3e2476e4	0.16060978
101	0x3e2f1e48	0.17101395
102	0x3e1c6c6b	0.15275733
103	0xbe837329	-0.25673798
104	0xb9b76c3a	-0.00034985115
105	0xbe7d74b1	-0.24751545
106	0xbd4ba451	-0.04971725
107	0x3eb81c44	0.35959065
108	0xbe8772ce	-0.26454777
109	0x3cc622e6	0.024186563
110	0xbd4c5b7a	-0.049891926
111	0xbd2f8a6a	-0.04285661
112	0xbd176c59	-0.036968563
113	0x3dc5f8ee	0.0966662
114	0x3e00c877	0.12576471
115	0x3dfe746a	0.12424548
116	0xbe5e0ef4	-0.21685392
117	0x3da954bf	0.08268117
118	0xbdb473ce	-0.088111505
119	0x3dac2875	0.08406154
120	0xbc969495	-0.018381396
121	0xbd5d6338	-0.0540497
122	0x3d97cdf2	0.07412328
123	0xbeb3073b	-0.34966454
124	0x3e8f64c0	0.28006554
125	0x3d9f3d23	0.07775333
126	0xbe393cdb	-0.18089621
127	0x3b42748b	0.0029671516
128	0xbd53900d	-0.05165105
129	0xbe880bd9	-0.2657154
130	0xbd5a75c1	-0.053334955
131	0x3c1979fc	0.009367462
132	0x3ec4e796	0.38457936
133	0xbe9d9b13	-0.30782375
134	0xbef57015	-0.47937074
135	0x3dcad940	0.099047184
136	0xbe288397	-0.16456448
137	0x3eb24ec1	0.3482571
138	0xbe43ac80	-0.19108772
139	0xbe263d76	-0.16234383
140	0x3dd8b449	0.10581262
141	0x3dbb79a4	0.091540605
142	0x3e4c9ba5	0.19981249
143	0xbdeaa269	-0.114567585
144	0x3e3e78f1	0.18600823
145	0xbdc389df	-0.09547781
146	0x3ba72d70	0.005101852
147	0xbed5db38	-0.41768813
148	0x3c4efd38	0.012633614
149	0x3e16c53f	0.14723681
150	0x3e087dd4	0.1332925
151	0xbbf4eab5	-0.0074742683
152	0x3d25464a	0.040350236
153	0xbe4ad94b	-0.19809453
154	0x3e468378	0.19386089
155	0xbdf73c18	-0.12072009
156	0xbd0e66a2	-0.034765847
157	0xbea8a0f0	-0.32935286
158	0x3e927072	0.28601414
159	0x3d356f69	0.044295702
160	0xbea9ed74	-0.33188975
161	0x3b9c77d1	0.0047750254
162	0xbe227630	-0.15865397
163	0xbcf7b154	-0.030235924
164	0x3dd8b7ab	0.10581907
165	0xbe464707	-0.19363032
166	0x3da2f59b	0.07957002
167	0x3f218874	0.63098836
168	0xbcf32dee	-0.029684987
169	0xbe821c1b	-0.25412068
170	0x3e5f727e	0.21821019
171	0x3e98d834	0.2985245
172	0x3c83093c	0.015995614
173	0x3ebf186b	0.37323317
174	0x3e82b775	0.25530592
175	0xbe92babc	-0.28658092
176	0x3eed94d4	0.4640261
177	0xbe732656	-0.23745093
178	0xbc30888a	-0.010774741
179	0x3cc35e01	0.023848535
180	0x3cdf317e	0.02724528
181	0xbd9858f3	-0.07438841
182	0x3dc0b7c9	0.09410054
183	0xbd5a4e1a	-0.05329714
184	0xbed8683d	-0.42267027
185	0x3d0db0cb	0.03459243
186	0xbe6dee94	-0.23235542
187	0x3c25780d	0.010099423
188	0xbda755d4	-0.08170667
189	0x3e833455	0.25625864
190	0xbd081932	-0.033227153
191	0x3eaeaff2	0.3411861
192	0xbe8226fe	-0.25420374
193	0x3d04c743	0.032416593
194	0x3e8667ef	0.2625117
195	0x3c478d15	0.012179633
196	0x3dfac8f0	0.12245357
197	0x3ea4cea4	0.32188904
198	0xbe1a266a	-0.15053716
199	0x3e1b2d47	0.1515399
200	0x3e26b4b0	0.16279864
201	0xbe4d0422	-0.20021108
202	0xbe13aff8	-0.14422596
203	0x3e420dc8	0.1895057
204	0xbde3d54d	-0.11124668
205	0x3e3d9db4	0.1851719
206	0xbe1d26e2	-0.15346864
207	0xbb94dabf	-0.004542678
208	0x3d9be3db	0.07611819
209	0xbea7d245	-0.3277761
210	0xbe94d2a8	-0.29066968
211	0x3ec67173	0.3875843
212	0x3c909820	0.017650664
213	0xbf32ce60	-0.69846153
214	0x3d6f5514	0.058430746
215	0xbe8bcbda	-0.27303964
216	0xbea10b2b	-0.31453833
217	0x3e0e5ab2	0.13901785
218	0xbf08cbe8	-0.53436136
219	0xbf02cb47	-0.51091427
220	0xbe948be0	-0.29012966
221	0x3e26a960	0.16275549
222	0xbbd0266a	-0.0063522356
223	0xbea5ac5a	-0.32358056
224	0xbe5d48ec	-0.21609849
225	0x3dd7e526	0.105417535
226	0xbe210105	-0.15723045
227	0x3e961c2e	0.29318374
228	0x3cff06ec	0.03113123
229	0xbe06c219	-0.1315998
230	0x3e3c15fe	0.18367764
231	0xbe0ac70f	-0.13552497
232	0x3f181f3f	0.5942268
233	0x3e49e293	0.19715337
234	0xbdf5c671	-0.1200074
235	0xbe7a745a	-0.24458447
236	0x3e31ee2b	0.1737601
237	0xbd1ed345	-0.0387757
238	0xbedb5765	-0.42840114
239	0xbe577a17	-0.21042667
240	0x3e0fa920	0.1402936
241	0xbebdd6fb	-0.3707808
242	0xbde411c8	-0.11136204
243	0x3e640189	0.2226621
244	0x3db0837b	0.08618828
245	0x3efe6a1f	0.4969034
246	0xbe5d8d80	-0.21636009
247	0x3db37eee	0.08764444
248	0xbe8aedef	-0.27134654
249	0xbeae3139	-0.3402193
250	0x3e2d0827	0.16897641
251	0x3ee5e3b7	0.44900295
252	0xbb21cd8d	-0.0024689168
253	0x3eb053d2	0.3443895
254	0x3c2cbc6e	0.010542972
255	0xbecdba66	-0.40181273

0.features.2.0.block.1.1.weight f4 [32]
0	0x3f71a308	0.9438939
1	0x3f63ce6b	0.88986844
2	0x3f6a09dd	0.914213
3	0x3f65e4d8	0.8980231
4	0x3f5ea9cf	0.8697786
5	0x3f68da48	0.9095807
6	0x3f39f772	0.72643197
7	0x3f728f16	0.9474958
8	0x3f580388	0.8438039
9	0x3f519aa3	0.8187658
10	0x3f440afb	0.76579255
11	0x3f5682a3	0.83793086
12	0x3f573203	0.84060687
13	0x3f480bd3	0.7814304
14	0x3f574c6c	0.84100986
15	0x3f4d6635	0.8023408
16	0x3f48214c	0.78175807
17	0x3f54218d	0.82863694
18	0x3f521ad9	0.82072216
19	0x3f5a7164	0.8532927
20	0x3f487474	0.78302693
21	0x3f526fd5	0.8220189
22	0x3f6b4e9b	0.9191682
23	0x3f27a9c5	0.6549342
24	0x3f578b47	0.84196895
25	0x3f519903	0.818741
26	0x3f54e27c	0.8315809
27	0x3f5f3b98	0.8720031
28	0x3f45b56a	0.7722994
29	0x3f5dfb02	0.8671113
30	0x3f566415	0.83746463
31	0x3f610dff	0.8791198

0.features.2.0.block.1.1.bias f4 [32]
0	0x3e047f6e	0.12939236
1	0xbce42ad3	-0.027852451
2	0x3fa414d8	1.2818861
3	0xbe16260f	-0.14662956
4	0xbe4b59e4	-0.1985851
5	0x3d980598	0.07422942
6	0xbebc5d10	-0.3678975
7	0x3eb7e154	0.359141
8	0x3d455297	0.048174467
9	0xbf6eb531	-0.93245226
10	0xbcace2b8	-0.021104202
11	0xbe81e5e4	-0.25370705
12	0x3f2c0321	0.67192274
13	0xbe3964ce	-0.1810486
14	0x3e95705f	0.29187295
15	0xbf706cd3	-0.9391605
16	0x3ea7b24f	0.32753226
17	0x3ddf9c43	0.109184764
18	0x3deb8985	0.11500839
19	0xbe548d20	-0.2075696
20	0xbe00a705	-0.12563713
21	0x400d2b58	2.2057705
22	0x3f004963	0.5011198
23	0xbe869c62	-0.26291186
24	0xbf33405c	-0.7002008
25	0xbc8f284b	-0.017475268
26	0xbfd991c7	-1.6997613
27	0x3e977b43	0.2958623
28	0x3ef2e3d1	0.47439435
29	0x3eda83c0	0.42678642
30	0xbf1dec71	-0.61688906
31	0xbee24aa9	-0.44197586

0.features.2.0.block.1.1.running_mean f4 [32]
0	0xbdb5d212	-0.08877958
1	0xbde8d0e0	-0.11367965
2	0xbdda8b39	-0.10671086
3	0xbe41bc51	-0.18919493
4	0x3ec13fa6	0.37743872
5	0xbdb53324	-0.08847645
6	0x3e218218	0.15772283
7	0xbea25531	-0.3170562
8	0xbe32142a	-0.17390504
9	0xbe49e48e	-0.19716093
10	0x3d984f81	0.07437039
11	0x3cd709cc	0.026249789
12	0xbd9d056b	-0.07667049
13	0x3d79c3ca	0.060977735
14	0xbe258e3b	-0.16167538
15	0xbd67afc0	-0.056564093
16	0xbed9fb83	-0.425747
17	0x3d4614a9	0.048359547
18	0xbdf28791	-0.118422635
19	0x3dc69f0d	0.09698305
20	0xbd8cb18e	-0.06869803
21	0x3dcc5a0a	0.09978111
22	0xbebc4925	-0.36774555
23	0x3d8ebf01	0.06970025
24	0x3e49755a	0.19673672
25	0xbd9c0be8	-0.076194584
26	0xbe83e6b9	-0.25761965
27	0x3d956e20	0.07296395
28	0x3d881f04	0.06646541
29	0x3d80cdf2	0.06289281
30	0x3e99dac1	0.30049708
31	0xbd20cdc8	-0.03925875

0.features.2.0.block.1.1.running_var f4 [32]
0	0x3fbe7c5c	1.4881701
1	0x3f0e6040	0.55615616
2	0x3faebe78	1.3651876
3	0x3f590e4c	0.8478744
4	0x3f9ea666	1.2394531
5	0x3f7c70d9	0.9860969
6	0x3f1941dd	0.59866124
7	0x3eeb6206	0.45973223
8	0x3e93855b	0.2881268
9	0x3f550ddd	0.8322428
10	0x3fb7183b	1.430427
11	0x3ec6fb88	0.38863778
12	0x3f2123f6	0.629455
13	0x405ef596	3.4837394
14	0x3ee8e1aa	0.45484668
15	0x3ed03100	0.40662384
16	0x3f8beec0	1.0932236
17	0x3f2368ea	0.6383196
18	0x3f28510a	0.65748656
19	0x3fc644d7	1.5489758
20	0x3f9c40ea	1.220731
21	0x3fd73265	1.6812254
22	0x3f038ae4	0.51383805
23	0x3f514b0c	0.8175514
24	0x3fe70e01	1.8051149
25	0x3f0c512d	0.54811364
26	0x40044776	2.0668616
27	0x3f9231a6	1.1421402
28	0x3fe0ab59	1.7552291
29	0x3f0d4971	0.5519019
30	0x3f729f9a	0.9477478
31	0x3fb8b51d	1.4430271
