code/modeling/ckpt/AutoencoderConfig([2, 2, 2], flip=True, rotate=True)/autoencoder_30000.pth (torch, 720858 bytes, 102 tensors)

0.features.0.0.weight f4 [16, 8, 3, 3]
000000 ff e8 99 3d 31 82 5b bd bc a0 7c 3d eb c2 2e 3d
       0.075151436 -0.053590957 0.061676726 0.042666357
000010 32 db 3b be 5b 3a 57 bc fd 6e 13 3d ea 8c 77 bd
       -0.18345335 -0.013136472 0.03599452 -0.06043712
000020 d4 69 f2 3c 49 fe da 3c d2 17 c1 bc 0d bc 6f 3d
       0.029591478 0.02673258 -0.023570929 0.05852895
000030 e7 2e 8e 3d 07 6c 52 bd a6 10 94 3b 83 05 08 bc
       0.0694254 -0.051372554 0.004518586 -0.008302095
000040 5c 57 d0 3d 72 9c 2c 3d 94 8c 5a 3d b8 b7 91 bc
       0.101729125 0.042141385 0.053356722 -0.0177878
000050 2a 66 06 3d e1 58 86 3c 5b 70 31 be d1 ee 21 be
       0.032812275 0.016399803 -0.17328016 -0.15813757
000060 a9 5f 61 3c 59 ec 0d 3c ab 7f 8c 3d 1d 82 a2 3a
       0.013755717 0.008662307 0.06860288 0.0012398396
000070 54 5d 0b be d0 af 85 bc 91 0b d1 bd 2e 00 22 be
       -0.1360982 -0.016319185 -0.10207284 -0.15820381
000080 cb b0 dc bd 82 e9 f0 3c 67 04 13 be 33 24 2c bd
       -0.10775908 0.02940822 -0.14357148 -0.04202671
000090 0c 4c 81 3d 3f c9 7a 3d f4 21 92 3d 3b c0 84 3d
       0.06313333 0.06122708 0.07135382 0.064819776
0000a0 3b d1 8b 3d 68 96 07 3e dd 9d 07 3d 27 34 bb 3c
       0.06827017 0.13240969 0.033109535 0.022852017
0000b0 c2 89 5e 3d f6 11 7d 3d 7d 17 10 3d 1c e3 f3 3c
       0.054330595 0.061784707 0.03517865 0.02977138
0000c0 69 ea b6 3c 82 56 74 3d fd 66 78 3d d3 3e 77 3d
       0.022328572 0.059652813 0.060645092 0.06036265
0000d0 71 fe 3b 3d 28 80 0c 3c 06 69 92 bc d3 67 26 bd
       0.04589695 0.008575477 -0.017872345 -0.04062636
0000e0 6c 71 15 bd 7f 5d 19 bd ec e8 22 3d a6 7f 7c bc
       -0.03648512 -0.03744268 0.039772913 -0.015411293
0000f0 a7 83 cc bc 30 17 5d 3c 71 8a 91 bd c8 90 be bd
       -0.02496512 0.013494298 -0.07106484 -0.093049586
000100 9a dd 51 bd fa 88 93 bd 1c 51 a5 bd 5a a0 75 3c
       -0.051236726 -0.072038606 -0.08072111 0.014991844
000110 51 1e 1f bd 97 22 89 bd dd 68 0f bd 67 bf ae bd
       -0.03884727 -0.066960506 -0.035012115 -0.08532601
000120 dc cd 49 bd 67 ff 7a 3a 80 66 96 bd 06 e1 c4 3d
       -0.04926859 0.0009574801 -0.07343769 0.09613232
000130 bd fa 5e 3e d9 88 5b 3d 81 18 97 bc 76 bd 42 3e
       0.21775337 0.053597305 -0.018444302 0.19017586
000140 01 c2 13 bd 48 ee 96 3b 31 50 2b 3b 85 13 22 3d
       -0.03607369 0.004606042 0.0026140327 0.039569397
000150 e9 4f b6 bc e4 a5 ec 3c 79 33 4b 3b af 9f 13 3d
       -0.022254901 0.028887697 0.0031006022 0.036040958
000160 29 d4 1d bc 74 e9 22 bd 27 06 0f bc ec 73 82 bc
       -0.009633102 -0.03977342 -0.008729494 -0.015924416
000170 3c 1d d0 3c ec bb 48 3d 65 f3 fb 3c 24 b1 2d bd
       0.025404565 0.04900734 0.030755708 -0.042405263
000180 47 ad 08 3d d6 9e af bc a4 23 86 3d ba 1f 17 3c
       0.033368375 -0.021438044 0.06549767 0.009223873
000190 10 cd 5d bd 3f 9d 98 3c 03 0d 36 3c 0f 45 e0 3c
       -0.05415064 0.018629668 0.011111501 0.02737668
0001a0 1c 6e 2a bd 06 cf 9d bd 7c d1 a4 bd b7 7c 84 bd
       -0.041608915 -0.07705502 -0.080477685 -0.064691
0001b0 ce d8 86 3c 66 9f ec bc 7a 65 3d 3d bb ba c5 bc
       0.016460802 -0.0288846 0.046239354 -0.024136892
0001c0 4a b3 06 be 70 b1 82 bd 5d 7b 9a 3b 66 8c ae bd
       -0.13154331 -0.063815 0.004714413 -0.085228726
0001d0 61 ac 94 bc 1f 1a 11 3d 0a e5 07 3d 1c 4d e6 3c
       -0.018148603 0.0354253 0.033177413 0.02811294
0001e0 83 6e 08 3d 3b ed 03 be ee 8f a1 3d 14 f4 92 3d
       0.033308517 -0.12883465 0.078887805 0.071754605
0001f0 53 90 95 3c 01 98 c1 3d 6d ab 09 3d 49 f7 85 3b
       0.018257296 0.094528206 0.03361075 0.0040883166
000200 0f 70 94 3d 59 ba 59 bc 2f b3 3a be e9 36 eb bc
       0.07247936 -0.013289058 -0.18232416 -0.028712707
000210 53 6a 79 3d c0 a1 46 bd 4a f9 8c 3d 3f b7 36 3d
       0.060892414 -0.0484941 0.068834856 0.04460835
000220 e4 2d 6d 3c b7 69 1f bc af e8 05 be c7 56 9d be
       0.014476273 -0.009729794 -0.13077043 -0.30730268
000230 8a 59 a6 bd cb b7 67 3d 9c 3d dd bd 41 8c 7e bc
       -0.08122547 0.056571763 -0.10802767 -0.015536369
000240 95 45 ed bc c1 e3 9a 3c 89 88 8c bc a3 3c e7 3c
       -0.028963843 0.01890743 -0.017154949 0.028227156
000250 ee 64 5a 3e ab e9 87 bc eb 4f 8b bd 7e a3 61 3d
       0.21327564 -0.016590914 -0.068023525 0.05508756
000260 97 ce a3 bd aa fd 04 3d 9c 2c 3c 3d 6a 5d 4d bc
       -0.07998388 0.032468475 0.04594098 -0.012534479
000270 50 b9 af bb 06 25 3b 3e f3 2e 71 bc f4 66 38 3d
       -0.005362667 0.18275842 -0.014720666 0.04502006
000280 18 d8 8d 3d 95 b4 5c 3d 18 32 a6 3c ab 99 97 3d
       0.06925982 0.053883154 0.020287558 0.07402357
000290 a6 2c ef bc 7f 05 56 3d 64 66 8f 3e 9d ac 87 3d
       -0.029196095 0.052251335 0.28007805 0.0662472
0002a0 b6 f3 e3 bc 4f a7 56 3d f9 0d 0f bc 9e b9 4c bd
       -0.027826171 0.05240565 -0.008731359 -0.049981706
0002b0 cd a7 36 bd 29 6c 30 bd 1c 37 0d 3c b1 41 a8 bd
       -0.04459362 -0.0430719 0.008619096 -0.08215655
0002c0 13 21 2d 3d 77 c7 c0 bc e6 a3 99 3c 9b 2a 5e bd
       0.04226787 -0.023532612 0.01875491 -0.05423985
0002d0 16 22 6e 3d 1b 27 1d 3d a2 55 32 3d 42 17 10 3d
       0.058137976 0.038367372 0.043538697 0.03517843
0002e0 ea cc 07 bd a0 0b ab 3d 26 c1 78 3d 91 38 3c 3d
       -0.033154406 0.08351827 0.060731076 0.045952383
0002f0 01 69 da 3c e7 e4 b7 3a fd ae 33 bc bc 50 a2 3c
       0.026661398 0.001403001 -0.010967013 0.019813888
000300 3e 9a 67 bd 5c 91 bf bd 8e 07 71 bd 6a c4 4f 3d
       -0.05654358 -0.09353897 -0.058845095 0.050724424
000310 a9 19 9f bd 8a c9 fc 3c 64 d5 87 3c 24 a3 db bc
       -0.07768566 0.03085782 0.016581245 -0.02681119
000320 27 38 03 3c 68 93 96 bd 0d 62 1a be 7b a4 fa 3a
       0.008008993 -0.07352334 -0.15076466 0.0019122505
000330 bb 69 cf 3c 92 16 8d bd dc ee cf 39 86 8c d2 3d
       0.02531897 -0.068890706 0.0003966008 0.10280709
000340 d9 94 36 bd 13 fb f0 3d 19 12 e7 bd 70 e6 33 bd
       -0.044575546 0.117666386 -0.11282749 -0.043920934
000350 a1 3b 7f bd 86 31 a0 3d 23 29 75 bd 02 24 e0 3d
       -0.062312726 0.07821946 -0.059853684 0.10944368
000360 df 21 5a 3c e7 5b 74 bc 57 bf 9f bb b4 4f c3 bb
       0.01331374 -0.014914489 -0.0048751044 -0.005960429
000370 f9 7c 84 bd 3b 2b 96 3c 89 e1 28 3d 53 3c 30 bd
       -0.06469149 0.01833116 0.041230712 -0.04302628
000380 a1 5c 33 3d 93 2d 09 3c e4 c0 53 bd 91 a8 58 bd
       0.04378951 0.008372682 -0.051697627 -0.052895132
000390 3f f5 94 bd 67 f6 10 3f 20 7f ff 3d 33 9d 7a bd
       -0.072733395 0.5662598 0.12475419 -0.061185073
0003a0 5f 96 11 3e d5 d7 20 bd b4 3c e5 bb c3 6f 8f 3d
       0.14217518 -0.039268333 -0.0069957618 0.07003739
0003b0 50 44 72 3c 78 38 68 3d ce b8 e2 3d ec ee 2a 3d
       0.014786795 0.056694478 0.11070405 0.04173176
0003c0 70 39 a5 3b 8b fa 65 3b 60 e6 f3 bc 21 cf f0 ba
       0.0050422475 0.0035091962 -0.029772937 -0.0018372276
0003d0 ce 8b 22 bc 11 f3 2a bd d6 dd 4c bd 94 a9 89 bc
       -0.009921027 -0.041735712 -0.050016247 -0.016804494
0003e0 b1 2b 32 3b 86 62 b8 bc 45 0d 50 bc c0 2e 2e bd
       0.0027186687 -0.022507917 -0.012698476 -0.042525053
0003f0 4d cc 3b 3c 8c 88 53 3c 2c 4e ea 3c d3 a6 71 bb
       0.011462283 0.012910973 0.028601728 -0.0036873117

0.features.0.1.weight f4 [16]
000000 1c f3 a8 3e a8 f2 2f 3f e6 e0 23 3f 5f 9e 24 3f
       0.32997978 0.6872964 0.6401504 0.64304155
000010 93 89 d3 3e af d0 1c 3f b4 2f 46 3f 45 c0 05 3f
       0.41315898 0.61255926 0.7741654 0.52246505
000020 82 cc 4d 3f 0b 85 31 3f 25 a0 25 3f 30 eb 36 3f
       0.8039018 0.6934363 0.64697486 0.7145262
000030 b0 cf 43 3f dd a1 2b 3f 47 75 3a 3f 99 f3 14 3f
       0.7648878 0.6704386 0.728352 0.581842

0.features.0.1.bias f4 [16]
000000 a2 cb 10 40 ef f2 0f 3f 06 d8 19 3f 63 2a 43 3f
       2.2624288 0.5623006 0.6009525 0.7623655
000010 2d 21 77 3f 8d e8 71 3f 88 c6 f6 3d 34 ec 42 3f
       0.96535 0.9449547 0.120495856 0.7614167
000020 b4 cf d9 3c 4e e5 38 3e 0e b4 60 3e ab 02 00 3f
       0.026588298 0.18056223 0.21943685 0.5000407
000030 4a bd 54 3e c0 f1 71 3e 98 da 09 3f 05 4c da bb
       0.20775333 0.23627377 0.5384917 -0.0066618943

0.features.0.1.running_mean f4 [16]
000000 34 c6 92 bc 79 2a 20 bd 3d 2e e0 bc 75 df a3 bc
       -0.017916776 -0.039103005 -0.027365798 -0.020004014
000010 e6 79 f2 3b 82 17 13 bd 8c 82 29 3d 53 94 27 bc
       0.0073997853 -0.03591109 0.041384265 -0.010228234
000020 83 6a 57 3d 50 89 11 3d f5 c0 bf 3c ae 72 91 3c
       0.052591812 0.035531342 0.023407439 0.017754879
000030 53 34 1d bd eb 31 74 3d be c7 8f 3d 0a 18 3e bc
       -0.03837998 0.059617918 0.0702052 -0.011602411

0.features.0.1.running_var f4 [16]
000000 48 4a f4 3d f1 59 11 3f f6 23 b6 3e de 0a 89 3e
       0.119282305 0.56777865 0.3557431 0.26766104
000010 be e4 29 3e 71 65 d1 3e 01 63 29 3f 5b dc 25 3f
       0.16591164 0.40897706 0.6616669 0.6478936
000020 e5 e4 7a 3f cd 3d dc 3e cb 71 b1 3e 04 d8 4f 3e
       0.98005515 0.430159 0.3465713 0.20297247
000030 77 98 20 3f 15 46 98 3f 1f 05 c0 3f dd c6 0f 3f
       0.6273264 1.1896387 1.5001563 0.56162816

0.features.1.0.block.0.0.weight f4 [16, 16, 3, 3]
000000 d3 55 9d bd 58 5e 74 3e 5d a5 84 3d d6 a7 73 3d
       -0.07682385 0.23864114 0.06476853 0.059486233
000010 fe 96 8a 3e f4 ed 49 3e fe 11 53 be 8e 98 ea 3d
       0.27068323 0.19719678 -0.20612332 0.11454879
000020 f0 93 5b 3d c4 18 c2 bd bf cf 56 bd ab 42 d1 bd
       0.05360788 -0.0947738 -0.052444216 -0.10217794
000030 92 59 ce bb be c3 0f be 8d aa 3d be d1 40 8d bd
       -0.0062972987 -0.14039513 -0.18522091 -0.068971284
000040 46 f1 3a bd bc a4 cb 3c 59 e5 5a bd 9c de 2a bd
       -0.045640253 0.024858825 -0.05344138 -0.041716203
000050 f5 00 86 3d 40 fe 28 3d 89 13 b0 bd e0 02 55 3c
       0.06543151 0.041258097 -0.08597476 0.013001174
000060 cd 39 ab 3c e9 fc df 3d 4a b9 7d bb d6 24 86 bc
       0.020901585 0.10936911 -0.0038715177 -0.016374987
000070 8c d3 cc bc f8 52 f9 bc 40 8c 0a 3b 16 f4 b6 bd
       -0.025003217 -0.03043507 0.0021140724 -0.089332744
000080 90 da f0 bc 33 86 24 bd d8 7d c6 3c 70 2d 1a 3d
       -0.029401094 -0.040167045 0.024229929 0.03764099
000090 00 2d 80 3c 66 5f ca 3d 3f 42 a4 bc 04 bf a8 bc
       0.015646458 0.09881477 -0.02005112 -0.020598896
0000a0 ba 68 f1 bc 2f d8 d8 bc 23 97 8e bd 7c 44 fc bd
       -0.029468883 -0.026470272 -0.06962421 -0.1231775
0000b0 db ae 9a bd 57 8e 6a bd 9a 28 b7 3d 3a 24 85 3d
       -0.07552882 -0.057264652 0.08943291 0.0650105
0000c0 12 47 d5 3c de 1b 48 be 88 50 f5 3d 1c 37 58 be
       0.026034866 -0.1954188 0.11978251 -0.21114773
0000d0 db 62 4e be 1c 59 32 be 8a 73 36 3d 1a 19 56 3e
       -0.20154898 -0.17416805 0.04454378 0.20908013
0000e0 59 fa df ba 42 ef 48 be 97 b2 d4 3c db ed f4 3d
       -0.0017088159 -0.1962252 0.025964065 0.1195943
0000f0 aa 81 d6 3d 3a 1b f2 3c 1a fa 2c bd a4 e3 bb bd
       0.1047395 0.029553998 -0.042230703 -0.091742784
000100 30 64 64 bd a0 8e 17 be 45 77 fa 3b 4a 11 08 be
       -0.05575961 -0.14800501 0.0076436126 -0.13287845
000110 0e 03 67 bd e8 2c c5 3d 14 c6 04 3e 40 f2 90 3d
       -0.056399398 0.09627706 0.12966186 0.070774555
000120 10 f3 41 bd 32 6f 37 bd 69 32 3f 3e 8c 98 37 3c
       -0.047350943 -0.04478378 0.18671574 0.011205804
000130 17 f2 91 3e cf 08 bb 3b 1f c7 12 be 4b 95 04 3d
       0.28505012 0.005707837 -0.14333771 0.03236894
000140 d7 89 b0 3d 36 74 95 bd 07 eb 09 3e cb 2e bd 3c
       0.08620041 -0.07297556 0.13468562 0.023093602
000150 7d 5b 83 3e 28 34 8b 3e e6 fd 02 3f 4d f3 9b bc
       0.25655738 0.2718823 0.5116867 -0.019036913
000160 27 34 75 3e d7 2a 87 3c a9 91 0f 3e 31 e7 10 3e
       0.23945676 0.01649992 0.14020409 0.14150693
000170 07 de 1c bd c8 1a ba 3b fa cd 21 be 1e 09 06 3e
       -0.03829768 0.005679462 -0.1580123 0.13089415
000180 bf 5f a8 3d 5f 31 c3 3d 8b 12 35 bc 06 66 6c 3d
       0.08221387 0.09530901 -0.011051784 0.057714485
000190 68 bc b4 bc 78 ce 3b bd f7 e3 87 3d a0 f6 05 3e
       -0.022062495 -0.0458512 0.06635278 0.13082361
0001a0 ee dc c8 3d d0 6f a5 bd a8 c7 c5 bc 7c 5b 0a 3e
       0.09807764 -0.08077967 -0.024143055 0.13511461
0001b0 00 b5 9c bc 87 0e 00 be ca 24 82 bd 9d a5 96 3c
       -0.019129276 -0.12505542 -0.06354673 0.018389517
0001c0 5f f7 a3 bd 74 a8 08 bd a4 af 8e 3c 27 db 77 3c
       -0.08006167 -0.033363774 0.017417736 0.015127934
0001d0 6a 8c d2 bd 25 26 78 be 5c d3 45 3b 2f e3 43 3d
       -0.10280688 -0.24233301 0.0030185794 0.04782408
0001e0 bb 61 e8 bd 85 a9 c1 3d 59 76 2a 3e 77 c7 04 be
       -0.113467656 0.094561614 0.16646709 -0.12966715
0001f0 4b 68 f6 bc ac 49 bd 3c ea f1 51 bd 04 b9 61 3e
       -0.030079028 0.023106419 -0.051256098 0.22043234
000200 47 69 f0 3d a2 96 32 3e 27 84 5b 3e 02 bc 7e 3e
       0.1173883 0.17440274 0.21437131 0.24876407
000210 fa 60 89 3d 4f cc 67 3e f8 fb 9d bc 62 38 b8 3d
       0.0670795 0.22636531 -0.019285187 0.08995129
000220 73 5a 89 3e cf c2 bd 3d 1f 9d e9 3d cc 2e 40 bd
       0.2682682 0.092656724 0.114069216 -0.04691963
000230 ce eb a4 3d a8 b4 1f bd 6f 39 37 3e 07 5b 4b bd
       0.08052789 -0.038990647 0.17893003 -0.049647357
000240 7b 74 03 3c c6 67 26 3c c7 51 60 bc 86 bd c8 bc
       0.008023377 0.010156577 -0.013691372 -0.024504434
000250 b3 80 82 be 45 24 d8 3d 45 14 13 bd 9f 3d 4d be
       -0.25488815 0.10553793 -0.035908002 -0.20043038
000260 1b 64 1d 3e 6a 3f c7 3d d9 3b 68 3e ec 96 4e bd
       0.15370218 0.09728892 0.2267908 -0.0504369
000270 27 44 19 3e 75 ad 62 3e 4a 56 4a 3e 9f d9 4b be
       0.14967404 0.22136481 0.19759479 -0.19907235
000280 a3 0c 98 3d 02 5a e9 bc b4 af 74 be 6d 60 f9 3d
       0.07424285 -0.028485302 -0.2389515 0.12176595
000290 53 76 ee bd 49 d5 b7 3d ee 78 bd 3c 2f 0c 34 3e
       -0.11643662 0.08976228 0.023128953 0.17582773
0002a0 fa ca f6 3d 98 21 f7 3a 68 f2 30 bd 5e 3b c3 3c
       0.120504335 0.0018854616 -0.043199927 0.02383202
0002b0 9c 8b 9d bd 3f 33 c9 3c 6f ac 96 bc e4 fc 21 be
       -0.07692644 0.024560569 -0.01839277 -0.15819126
0002c0 68 11 eb bd 2f a1 fe bd de 05 03 bd 54 34 8b bd
       -0.11477929 -0.12433087 -0.031988017 -0.0679709
0002d0 1d 6f 60 3d 69 8b 25 bd 1f 4b e2 3b 67 b0 7c bd
       0.054793466 -0.040416155 0.006905928 -0.061691668
0002e0 17 11 14 bd c8 3a 8d 3d 90 36 0a be 4b 16 5b ba
       -0.03614911 0.06895977 -0.13497376 -0.0008357509
0002f0 7b 15 bf bd c8 ee 15 be 48 d4 a1 bd 4e 3f 3f 3d
       -0.09330269 -0.14641869 -0.079018176 0.04669123
000300 fb 0a 01 3d 52 ca 8c bd d5 24 56 3c 45 49 86 bd
       0.031504612 -0.06874527 0.013070305 -0.06556944
000310 72 85 02 3e 6c e0 84 3d 39 7f 17 3d b6 0f 05 be
       0.12746218 0.064881176 0.036986563 -0.12994274
000320 09 bf 40 bd 2a f4 15 3e 37 b0 50 3e e1 26 c6 3c
       -0.047057185 0.14643922 0.2037972 0.02418846
000330 f9 b0 e9 bb 00 aa 13 3d 06 4d 99 bd 11 40 00 be
       -0.0071316925 0.036050797 -0.07485394 -0.1252444
000340 89 60 fc 3d a8 60 e0 bd fe 47 86 3d 55 27 94 3b
       0.123231 -0.10955936 0.065567 0.0045212903
000350 b9 45 0a be 83 e8 08 bd 10 55 cd bd 76 25 dd 3c
       -0.1350316 -0.033424865 -0.1002599 0.026995402
000360 7f 5d c9 3c ae cb 71 bd 6e ed 23 3e 3d 2c d4 bd
       0.024580715 -0.059032135 0.16008541 -0.1036
000370 91 af 7c be fb 59 73 bd 25 3f 21 bd e0 0f 6b 3e
       -0.24676348 -0.059411984 -0.03936686 0.22955275
000380 60 d5 35 3d 02 63 9f 3d af 9c e4 3d a2 25 5f 3e
       0.044392943 0.07782556 0.111626975 0.217917
000390 02 a4 38 3e d0 47 05 3e 08 c2 4e 3e d5 56 4f 3d
       0.18031314 0.13015676 0.20191205 0.05061992
0003a0 5f 24 8c 3d dc 3c 9b bb 76 02 57 be ac 28 a1 3c
       0.06842875 -0.0047374796 -0.20997033 0.019672714
0003b0 00 ce a4 bd 28 7c 3c 3e 20 22 c2 3e 89 2c a7 bd
       -0.08047104 0.18406737 0.3791666 -0.08162791
0003c0 71 e5 5d bd 18 80 9b 3d 28 bc be 3d 75 80 ef 3d
       -0.05417389 0.07592791 0.09313232 0.11694423
0003d0 04 32 59 3d a8 dd ea 3d 26 7a cb 3c 55 19 cb 3d
       0.053026214 0.11468059 0.024838518 0.09916941
0003e0 c2 72 9b 3d f5 4b 19 3e d2 c1 9c 3d 87 09 12 3e
       0.07590248 0.14970382 0.07654156 0.14261447
0003f0 bd a7 cd 3d b8 24 c0 3c a8 d9 d9 bb 66 12 97 bd
       0.10041759 0.023455009 -0.006648261 -0.07376556

0.features.1.0.block.0.1.weight f4 [16]
000000 8f e2 09 3f 7a b0 d1 3e 3e 92 11 3f 35 98 21 3f
       0.53861326 0.40954953 0.5686377 0.63122874
000010 7e 30 3b 3f 52 b1 ea 3e 50 06 19 3f b8 5d 29 3f
       0.7312087 0.4583841 0.5977526 0.6615863
000020 45 c7 2a 3f 28 4f 87 3f 5b 12 41 3f fc a0 16 3f
       0.6671031 1.0571032 0.75418633 0.5883939
000030 9e 28 12 3f a2 ee e1 3e 86 e5 41 3f a0 08 0a 3f
       0.57093227 0.44127375 0.7574085 0.5391941

0.features.1.0.block.0.1.bias f4 [16]
000000 50 80 e4 3d 36 8c 8b bc d4 af cf 3e 3d 50 ab 3e
       0.11157286 -0.017034631 0.40563834 0.33459654
000010 9b 63 1b 3e 38 5d 4a 3e 18 fe d8 3d d2 7c 35 3e
       0.15174715 0.19762123 0.105953395 0.17723396
000020 03 ed b6 3d 14 9f 8c be 8d 6f 2f 3e b0 13 f0 3d
       0.08931925 -0.27465117 0.17132397 0.11722505
000030 95 12 06 bd f0 49 7a 3d bf 15 11 3e 24 c0 06 be
       -0.032732565 0.06110567 0.14168452 -0.13159233

0.features.1.0.block.0.1.running_mean f4 [16]
000000 d3 8f bd 3f 97 43 85 be 06 f0 07 40 d2 4d 5c 3f
       1.4809517 -0.2602813 2.1240249 0.86056244
000010 a2 66 22 3f e4 be bd 3e 72 ba 16 bf a1 33 e9 3f
       0.63437855 0.370597 -0.5887824 1.8218881
000020 f9 14 c3 3e eb 21 d3 bd e0 86 a1 3e ce 55 dc be
       0.38101938 -0.10309204 0.31548214 -0.43034214
000030 66 69 d2 3d 75 6b b2 be 9b c2 ab bf 9d 81 d2 be
       0.102740094 -0.34847608 -1.3418764 -0.41114512

0.features.1.0.block.0.1.running_var f4 [16]
000000 dd ae 35 40 ce bd 5e 3f 32 8e b1 3f b4 1a 98 3f
       2.8387978 0.8700837 1.387152 1.1883149
000010 2b 14 09 40 a2 97 b4 3f 9f c8 a6 3f 23 8e 55 40
       2.141856 1.4108775 1.3029975 3.3368003
000020 37 97 aa 3f ee 87 0f 3f c6 fa f1 3f 68 cf 9c 3f
       1.3327397 0.5606679 1.8904655 1.2250795
000030 fd 67 a4 3f 07 15 2a 3e 5d 06 5d 40 2d ac 7d 3e
       1.2844235 0.16609584 3.4535134 0.24772711

0.features.1.1.block.0.0.weight f4 [16, 16, 3, 3]
000000 51 38 02 be 12 5e 97 3d 4b 7e 14 be 4c 93 66 bd
       -0.12716796 0.07390989 -0.14501302 -0.056292817
000010 78 98 44 3e 8b 77 46 3d 71 23 6b 3c 11 82 f1 3c
       0.19198787 0.04845385 0.014351712 0.029480966
000020 11 51 4e be d0 ac b4 3b 8a cc 4c 3d 8a 3d f2 3c
       -0.20148112 0.005513765 0.04999975 0.02957036
000030 0c 2f d0 3d d8 be 14 be c8 df ad bd f5 01 9a bd
       0.101652235 -0.14525926 -0.084899485 -0.075199045
000040 e3 20 ea bd f7 a3 da bb c3 71 45 3c 9b e0 c5 3c
       -0.11432054 -0.006672378 0.012051049 0.024154952
000050 1e 8a de bb cd 77 bc bb b4 25 16 be c0 7d a3 bd
       -0.006791367 -0.005751586 -0.1466282 -0.07982969
000060 77 e5 a4 bd 31 8e dd bb 32 44 2b bb 2e dc 38 bc
       -0.080515794 -0.0067613353 -0.0026133177 -0.011282964
000070 cb b5 86 bd 7a 40 e1 bd 52 cb 58 bd 78 2d f0 3b
       -0.06577643 -0.10998626 -0.052928276 0.007329639
000080 58 08 aa bc 9d 63 09 3a dc 01 4a bd c7 a7 85 bb
       -0.020755932 0.0005240979 -0.04931818 -0.0040788385
000090 fc ec f7 3d 06 3b 69 3d 49 6a 22 3e 56 1f e2 3d
       0.12105748 0.056941055 0.15860857 0.11041133
0000a0 9c 62 ea 3d 7d 17 df 3d b2 be 38 3e 17 f4 16 3e
       0.114445895 0.10893152 0.18041494 0.1474155
0000b0 27 b4 9e 3d b6 ef 48 3d f3 a5 56 bd 99 92 63 bd
       0.07749205 0.04905673 -0.052404355 -0.05555973
0000c0 55 28 80 bc e4 08 e5 bc eb d4 20 bd ed a1 af bd
       -0.015644232 -0.027958341 -0.039265554 -0.08575807
0000d0 fc 91 d9 bd 98 a4 d6 bc c3 2d 2e 3d 6c 0b 89 bd
       -0.106235474 -0.026201531 0.04252411 -0.06691632
0000e0 61 ef 93 bd 5b 2c 28 3c 03 d4 69 3b 1d 11 96 bd
       -0.07223392 0.010264481 0.0035679347 -0.07327483
0000f0 be fc 84 3d 5d 6d c5 3d d1 17 c5 bc e1 d9 ff bd
       0.06493519 0.0964 -0.024059208 -0.12492729
000100 9f f0 3a be 9b 88 c6 3c 0e 7b 1e 3d 62 19 1a be
       -0.18255852 0.02423506 0.038691573 -0.15048745
000110 a8 c8 03 be c0 1c 14 be eb 2e 55 be 66 3e aa 3d
       -0.12869513 -0.14464092 -0.20818679 0.08312683
000120 7a fe 2a be 4e 61 42 3e 2e 37 0c bd 84 d7 18 be
       -0.16698638 0.18982431 -0.03423231 -0.14925963
000130 36 05 50 3e ea a3 49 3d 06 d8 d1 3a 9a a7 fe bb
       0.20314488 0.049228586 0.0016009815 -0.0077714445
000140 50 45 b4 3d 01 b3 fa bd 2b 43 31 3c 40 d4 32 3e
       0.08802283 -0.122411735 0.010819237 0.1746378
000150 d6 50 87 3c 26 c2 cb 3d 30 51 f6 bd 47 7e e0 3d
       0.016518038 0.0994914 -0.12027204 0.109615855
000160 c0 d2 76 3d 3d f2 18 3e 4b e6 ad 3c ee 08 2b 3d
       0.06025958 0.14936157 0.021227976 0.041756563
000170 0e 68 2c 3d 16 8c 6b be f7 04 5e be f3 82 6d bd
       0.04209142 -0.23002657 -0.21681581 -0.05798621
000180 83 7a c5 3c 95 c7 07 3d 09 4e 96 bd 09 a5 7e 3c
       0.02410627 0.03314932 -0.07339103 0.015542277
000190 95 ba ea 3d 9f 11 cb bc 10 16 f8 3d 2b 43 84 3e
       0.11461369 -0.024788676 0.12113583 0.25832495
0001a0 00 24 db 3d 36 a0 12 bd 17 0f 9b bd 51 9b 1c 3e
       0.10700226 -0.03579732 -0.075712375 0.15293624
0001b0 19 f5 0a bd 3f b2 49 3c 95 9d f9 bd 13 1a a6 bc
       -0.03392515 0.012310564 -0.121882595 -0.020276105
0001c0 35 d4 4f 3d 8b e8 49 3e 73 70 a5 bd 92 1d 77 bc
       0.050739486 0.19717614 -0.080780886 -0.015082734
0001d0 54 5c 9c bd 9d ec 65 3d f4 f1 26 3a 43 23 63 be
       -0.07634798 0.056133855 0.0006368451 -0.2218142
0001e0 26 34 50 be fb d8 8f 3c 2f e8 51 3d 77 33 9e bd
       -0.20332393 0.017559519 0.05124682 -0.0772466
0001f0 55 73 23 bd fa fd dd bd bf de 95 3d 08 80 19 3d
       -0.03990491 -0.10839458 0.07317876 0.037475616
000200 de ab 60 3d 9b 48 a5 3c 80 6f 39 3e 8b 5c d8 3d
       0.054851405 0.020176223 0.1810894 0.10564526
000210 ba 41 8c 3e f9 8f a6 3e 34 c3 ab bd 38 df fe 3c
       0.27393895 0.32531717 -0.083868414 0.031112298
000220 40 09 6e be e1 f1 e5 3c 84 71 37 3b f3 ba 80 be
       -0.23245716 0.028069438 0.0027991245 -0.2514263
000230 f2 42 87 3d 51 53 87 bc 29 24 a0 bd 0d cd 79 3c
       0.06604566 -0.01651922 -0.07819397 0.015246642
000240 b5 3a 3a 3d fc 2b 7d bd 29 04 f9 bc 89 f1 d3 bc
       0.045466144 -0.061809525 -0.030397492 -0.025872009
000250 b8 f5 c0 3d 15 42 1b 3e 66 fe 8f bd b0 98 02 bb
       0.09421867 0.15161927 -0.070309445 -0.0019927435
000260 14 83 46 3d 9b 5e 1b be e0 7e 65 be e3 21 75 be
       0.04846485 -0.15172808 -0.2241168 -0.23938708
000270 99 f5 3a be 34 ff 8d bd bb 77 14 3d e0 d2 35 be
       -0.1825775 -0.06933442 0.036246996 -0.17756224
000280 c8 7d cb bd 2c 60 9a ba fd 49 3e bd 6e 7c fe 3d
       -0.099361 -0.0011777929 -0.04645728 0.12426077
000290 6a d0 dc bd 5d 56 9b bd be 09 39 3d 62 88 8d bd
       -0.10781939 -0.07584832 0.045175306 -0.069107786
0002a0 a0 06 f1 bc a4 99 39 bd 77 7d 5d 3c ae 65 fa bd
       -0.029422104 -0.04531254 0.013518683 -0.12226425
0002b0 9c 06 0d bd 3b a0 4a 3d b7 f6 0e 3d 5c ce ae bd
       -0.03443013 0.049469214 0.034903254 -0.08535454
0002c0 31 90 25 be 1c 97 b6 bd c9 0a 04 be 84 c4 e2 bd
       -0.16168286 -0.089155406 -0.12894739 -0.11072639
0002d0 57 ff 84 3d 4f be 48 3d 90 ee aa 3d cf 26 98 3c
       0.06494015 0.049009617 0.083462834 0.018573193
0002e0 e4 f0 9c 3d d2 b4 5a 3b 83 25 fc 3d 29 1f 12 3e
       0.07663134 0.0033371937 0.12311842 0.14269699
0002f0 8d 48 ac 3d 5b 4b 37 bc 45 fd 85 bb 66 05 8b bb
       0.084122755 -0.0111874 -0.00408903 -0.004242587
000300 7d 82 ed 3d c2 1f b4 bc 07 35 aa 3d d6 fc e0 3d
       0.11597154 -0.0219878 0.083108954 0.10985725
000310 1f fa e2 bd 54 76 ee 3d a4 8b 12 3e 02 7d f8 bd
       -0.11082863 0.11643663 0.14311081 -0.12133218
000320 aa fd 63 3d fc cf d2 3c 36 8a 84 3d 6f c2 93 3e
       0.055661835 0.02573394 0.06471674 0.2885928
000330 b3 5d 10 bd b6 e2 55 bd e6 f5 08 be b9 94 b7 3d
       -0.03524561 -0.05221816 -0.13375053 0.089639135
000340 bd 10 8d 3d d8 de 7f 3c dc 35 e4 bd 2c fd 69 3d
       0.06887958 0.015617095 -0.11143085 0.05712621
000350 48 37 42 bd 5c 36 00 3d da 86 3a 3e 7f ed 61 bd
       -0.047416 0.03130184 0.18215504 -0.055158135
000360 06 7d d9 3d f4 35 5d 3c 8a c5 33 3e d1 41 e5 3d
       0.106195495 0.013501633 0.17555824 0.11194194
000370 af a3 29 be 90 e8 2b be 12 b4 15 3e 53 47 ce 3d
       -0.16566347 -0.16787934 0.14619473 0.10072198
000380 8b e4 fd 3d 2d 4c f2 3c 50 5b 22 bd c1 16 c3 bc
       0.12397107 0.029577339 -0.039637864 -0.02381456
000390 cc 10 80 3c 8e c5 7b 3d 44 65 1d 3e 28 73 72 bc
       0.01563301 0.0614677 0.15370661 -0.014797963
0003a0 10 75 19 3e ef 65 bd 3d bd 4a c5 bd a6 ce ef bd
       0.14986062 0.09247958 -0.09633396 -0.11709337
0003b0 08 b3 0d 3e 98 0b 17 bd 11 e2 dd 3b 0d af a3 bc
       0.13837826 -0.03687629 0.006771334 -0.019980932
0003c0 ed 39 c9 bd 12 83 ad bd a7 4a 49 3c a7 ab 00 3d
       -0.098255016 -0.08472265 0.012285865 0.0314137
0003d0 56 07 a3 3d 4d e0 05 be 3a 44 c7 3d 16 2b 34 3d
       0.079603836 -0.13073845 0.0972981 0.043986402
0003e0 28 09 d2 3d 44 81 54 bd 9a 8a 82 bc df fe fd bc
       0.10255653 -0.05188109 -0.015935231 -0.031005321
0003f0 d3 19 09 3c e3 ae 25 be f1 3f a6 bd 1d a0 af bd
       0.008367973 -0.16179995 -0.081176646 -0.08575461

0.features.1.1.block.0.1.weight f4 [16]
000000 71 4f 01 3f 34 df 0f 3f 50 2e 21 3f cd 0a 13 3f
       0.5051184 0.56199956 0.6296129 0.57438356
000010 47 23 08 3f 0c ac 0f 3f bf 5f 27 3f 4f 89 0a 3f
       0.5317883 0.561219 0.6538047 0.54115766
000020 22 53 1c 3f 3a f3 13 3f 22 74 e1 3e 9a 20 2e 3f
       0.6106435 0.5779301 0.44033915 0.68018496
000030 60 f8 0c 3f c1 ae fc 3f 53 c4 21 3f 99 a9 1a 3f
       0.5506649 1.9740831 0.6319019 0.60415035

0.features.1.1.block.0.1.bias f4 [16]
000000 e6 67 e2 bd 7a 82 63 3d eb 7c 3e 3c ce 06 e9 bc
       -0.11054973 0.055544354 0.011626462 -0.028445628
000010 c2 3b ac bd 52 5d b9 bd 13 e3 6a bd d2 15 65 bd
       -0.084098354 -0.090510026 -0.05734546 -0.055929013
000020 c4 7c 8c 3d d8 62 0b 3d 64 d0 ac be b2 0f 47 3e
       0.06859735 0.03402981 -0.3375274 0.19439581
000030 c0 7f e3 bc 16 90 95 bf 44 72 bc bd e9 a4 89 3d
       -0.027770877 -1.1684597 -0.09201482 0.06720907

0.features.1.1.block.0.1.running_mean f4 [16]
000000 c7 10 17 be d3 04 04 3f dc ec 1d 3f 45 95 02 c0
       -0.14752494 0.5156986 0.61689544 -2.0403607
000010 41 86 aa 3f ab ec be be 8d 44 1e be 4d 3a 5a c0
       1.3322221 -0.37289938 -0.15455838 -3.4098084
000020 72 84 fa bd 1e 8c 29 bf 3d c5 af bf 71 16 87 bf
       -0.12232293 -0.66229427 -1.3732067 -1.0553724
000030 72 9f 4d 3f ef d1 85 bd 21 37 78 c0 7b 75 cd bf
       0.8032142 -0.06534182 -3.8783648 -1.6051477

0.features.1.1.block.0.1.running_var f4 [16]
000000 45 27 f8 40 11 34 ac 40 f1 ff 8b 40 04 b1 14 41
       7.7547936 5.381356 4.374993 9.293217
000010 12 68 91 40 7e 71 cf 40 02 1c cf 40 38 ca 22 41
       4.543954 6.482604 6.472169 10.17437
000020 0f dd 09 41 2d 5b 2b 40 d3 5a 85 3f 30 e0 eb 40
       8.616469 2.67744 1.0418342 7.3711166
000030 86 e7 64 40 a4 6e 71 3e 40 cd 06 41 f0 c5 23 40
       3.576631 0.23577362 8.42511 2.5589561

0.features.2.0.block.0.0.weight f4 [64, 16, 3, 3]
000000 44 92 b4 3b 50 fc b3 3b d6 66 14 3a cf b9 63 3c
       0.0055106003 0.0054927245 0.00056610757 0.013899281
000010 70 91 cf 3c 27 f2 ac bc 1a 0d 85 3d 2d 88 d1 3d
       0.025337905 -0.021111561 0.064966395 0.102310516
000020 30 74 36 3e de ab cc bd b5 b6 63 3c 1e d7 98 bd
       0.1781776 -0.099937186 0.013898541 -0.07462905
000030 5f 89 2c bd 27 37 41 be 78 6c 86 bd 4a 15 45 bd
       -0.042123195 -0.18868695 -0.065636575 -0.048116006
000040 61 e1 c1 bd 76 52 7d be 54 23 cc bc 8e 63 53 bd
       -0.09466816 -0.24738488 -0.02491919 -0.051608615
000050 7d 57 14 bc 56 77 d4 3c e3 e5 03 be c5 40 e1 bc
       -0.009054062 0.02593581 -0.12880664 -0.027496705
000060 b8 21 08 bb 35 27 e7 bd 64 cd b3 bc f2 32 7f 3d
       -0.002077205 -0.11286775 -0.021948524 0.062304445
000070 2a 7b e7 3c a9 70 d6 bc 55 c3 83 bd 73 fb 1f 3d
       0.028256971 -0.026176767 -0.06433741 0.03905816
000080 f9 10 ca 3d b7 3c fa 3c f1 f6 2c 3d 11 75 0d 3d
       0.098665185 0.03054653 0.04222769 0.03453547
000090 1c ae 02 3d 32 97 df 39 66 4a 36 3c a2 36 b1 bc
       0.031904325 0.00042646524 0.011126136 -0.021632496
0000a0 a0 0a b9 3d 4a 65 00 bd 91 d8 77 bd 76 c7 8c bc
       0.0903523 -0.031346597 -0.06050927 -0.017184954
0000b0 f2 84 8f 3b 9c 8f 2f 3a 06 6b 2e 3d de 8c 02 3d
       0.004379862 0.00066971197 0.042582534 0.031872623
0000c0 23 a6 98 3b 4c 97 6d 3d 59 b9 97 3d 50 4f 20 3c
       0.004658477 0.058005616 0.07408399 0.009784535
0000d0 17 09 7b 3d 06 25 5e 3d c6 a8 aa bc a9 1d 09 3a
       0.061287966 0.054234527 -0.02083243 0.0005230555
0000e0 a4 74 18 bd 8a 06 0a bd 86 c8 b5 bd 9f 15 02 bd
       -0.037220612 -0.033697642 -0.088761374 -0.0317589
0000f0 04 56 68 3d 06 09 83 bd 31 22 6b bd 96 cc 0d bd
       0.056722656 -0.063982055 -0.057405654 -0.034618936
000100 5e 97 82 bd d7 66 9d bd 16 c6 1a bd 29 e6 df bc
       -0.06376527 -0.07685631 -0.037786566 -0.027331429
000110 06 d8 e0 bd 44 0f 80 bd 82 01 86 bd 4b 7a 37 be
       -0.10978703 -0.06252912 -0.06543256 -0.17917745
000120 ee d7 81 3d 4e 00 40 3c 8d fb 08 bd 44 68 1d 3d
       0.063400134 0.011718823 -0.033443023 0.038429514
000130 69 e3 d3 3d dc 13 9d 3d 57 58 53 bc b4 7d 5c 3d
       0.103461094 0.076698035 -0.01289948 0.053830817
000140 bb 7d a0 3d f4 42 2b bd b6 a5 13 bd 71 27 b7 bc
       0.07836481 -0.0418119 -0.036046706 -0.022357674
000150 c6 1c 4d 3c 27 8e 8b 3d da 19 70 3c fc 03 23 3c
       0.012519067 0.06814223 0.014654601 0.00994968
000160 f4 ed c2 bb e9 dc 11 3d 90 96 e3 bc 59 53 91 bb
       -0.0059487764 0.035611067 -0.027781755 -0.0044349846
000170 0f d0 1c bd 8a 80 4a bd 08 f9 a3 bd 24 03 b9 bd
       -0.038284358 -0.04943899 -0.08006483 -0.09033802
000180 e9 5e 2a bd ef d9 16 be bf 7d 0e be fb 35 05 3d
       -0.04159442 -0.14731573 -0.13915156 0.032522183
000190 dd a5 7c 3c 5c db dd 3c f3 08 e1 3c 9b 73 a5 3b
       0.015420404 0.027082138 0.027470088 0.0050491816
0001a0 ce 5b 91 bd 76 af 15 3c d9 8e 80 3d ef ed af bd
       -0.070975885 0.009136071 0.06277246 -0.08590304
0001b0 20 7b 00 bd 92 5f 9d 3d 6a 19 2f bc 2f 53 7f 3d
       -0.03136742 0.07684244 -0.0106872115 0.06233519
0001c0 ee 01 a2 bd 26 e0 e8 3d a9 e2 2f 3d af d1 37 3d
       -0.07910524 0.11370878 0.04294077 0.044877704
0001d0 99 2a d3 3d 9c f4 d4 3d d3 ca aa 3d bb ed 1c 3e
       0.10310859 0.10398218 0.08339467 0.15325062
0001e0 62 82 34 3d 05 f6 c5 3d 85 f8 87 3d 03 9e 2c 3e
       0.044069655 0.09666065 0.06639198 0.16857152
0001f0 ef 77 31 3e 81 94 1e 3e 5c 8a 24 bd 99 b5 7f 3d
       0.17330907 0.15486337 -0.040171012 0.062429044
000200 df cd a1 3b 09 18 18 bd 42 ec b3 3c c2 af 51 bd
       0.004937872 -0.037132297 0.021963242 -0.051193006
000210 92 cb 31 bd b5 02 f9 3d 79 b6 14 3d 04 fb e5 bc
       -0.04340703 0.121587195 0.036306832 -0.028073795
000220 99 f1 b1 3b 94 67 93 bd d9 9b 8a 3c e9 49 03 bd
       0.005430412 -0.0719749 0.016920017 -0.032052908
000230 63 46 41 bd f7 84 4a bd c3 88 1c bc 37 df 26 3d
       -0.047186267 -0.04944321 -0.009554091 0.040740218
000240 5a 5e 86 bd 56 8a cd 3c b2 d2 63 bd 5c 3a 53 3d
       -0.06560965 0.025090378 -0.055620857 0.051569328
000250 22 75 1a 3d 63 bf 95 bc d2 2e 53 bc 16 e8 ab bd
       0.037709363 -0.018279737 -0.012889581 -0.08393876
000260 e9 e3 26 bc dd d8 99 bb 73 43 b7 bc 97 be 53 bc
       -0.010186174 -0.0046950416 -0.02237103 -0.012923858
000270 f3 ea f2 bc 8d 8f a7 3c 99 d4 23 3c eb 33 3c bd
       -0.029653048 0.020454193 0.009999418 -0.04594795
000280 ab 87 24 bd eb 1a b1 3d 17 92 da bc 67 8c c7 3c
       -0.040168446 0.08647712 -0.02668099 0.024358941
000290 2f 40 e0 3b 32 6f 9a 3c 5a 1d 43 bd 74 bd 47 bc
       0.006843589 0.01885185 -0.047635414 -0.012191165
0002a0 55 05 0e 3d ef b7 2b 3c 8e 10 ca bc 91 e3 1d 3d
       0.034673054 0.010480865 -0.024666097 0.038547102
0002b0 ba 7f 38 3d 30 78 91 bc 00 f6 87 bd 7f 7a b0 bd
       0.045043685 -0.017757505 -0.06638718 -0.08617114
0002c0 f1 bc 04 bd 7b 24 19 bd 73 40 b1 bb 85 b6 09 bd
       -0.03240675 -0.037388306 -0.0054092943 -0.03362133
0002d0 40 f6 2e bd 93 7b ab 3d 9f ea 71 3d 4d c2 aa 3d
       -0.04271531 0.08373179 0.059061643 0.08337841
0002e0 a5 cf 03 3e 94 56 c7 3d e8 c8 de 3d 97 01 d8 3d
       0.12872179 0.0973331 0.108781636 0.10547178
0002f0 dd 61 04 3e 20 11 81 bd 8b a9 c6 ba 18 ac 12 bd
       0.12927957 -0.063020945 -0.0015156729 -0.035808653
000300 f4 a5 24 bd ae a1 48 3c 8c 37 21 3b f9 00 aa bc
       -0.040197328 0.012245579 0.002459976 -0.020752417
000310 c7 f4 27 bd bf 40 3a bd be 5b 9e 3c 15 77 66 3c
       -0.041004922 -0.045471903 0.019330855 0.014066477
000320 4f 44 92 3d 99 fa be 3c 4c c6 38 bd ca 01 2d 3d
       0.07141935 0.023312854 -0.045110986 0.042238034
000330 b3 53 08 3d 39 dc c2 3d cb d9 32 3d fa d6 56 3d
       0.033282947 0.095146604 0.043664735 0.05245111
000340 79 05 05 3d 79 ff 6f 3c 3d 56 03 3e 04 6d 21 3e
       0.032475922 0.014648312 0.12825866 0.15764242
000350 30 69 8c 3d eb 5a 8b 3d 07 77 7d 3d 6e 1e c9 3b
       0.068560004 0.068044506 0.06188109 0.0061376607
000360 d3 30 10 3d 67 1e 7d 3d 04 5e ea 3b eb f2 26 3d
       0.035202812 0.061796572 0.007152321 0.04075901
000370 ff 9d bc bc 03 71 6f bd ae ce 15 3d 76 90 4a bd
       -0.023024557 -0.058457386 0.03657406 -0.049454175
000380 cd 4d 5d bb 97 86 8c bd 3e 3c e5 bb 65 b1 ce bc
       -0.0033768297 -0.068616085 -0.006995707 -0.025231073
000390 f8 6d 1e 3d bd 1d 39 be 95 21 5f bc a1 ca 9e 3c
       0.038679093 -0.1807775 -0.013618846 0.01938373
0003a0 0c 34 a9 bc 1d 38 bf bd 61 b8 3e bd 5a a5 a8 bc
       -0.0206547 -0.09336875 -0.046562556 -0.020586658
0003b0 da d1 88 3c ee 55 86 3d 43 db 66 3d d8 b8 e5 3c
       0.016701628 0.065593585 0.056361448 0.028042242
0003c0 86 3d d0 3b ea d4 0a 3e 35 26 75 3d 9e fa 99 3c
       0.0063549904 0.13557783 0.05985089 0.018796261
0003d0 70 68 41 3d 26 ae 0f 3d 11 49 03 3b c3 5d 6e 3e
       0.04721874 0.03507819 0.0020032565 0.23277955
0003e0 ba 93 1c bc c3 1a 8f bc cb 5f 97 3d 2b 5a e3 3d
       -0.009556705 -0.017468816 0.07391318 0.111011826
0003f0 eb 8f 35 bd 98 98 58 3c 0d 05 41 bd c5 82 bf bc
       -0.044326704 0.013219975 -0.047123957 -0.023377785

0.features.2.0.block.0.1.weight f4 [64]
000000 0f 9e 0b 3f b9 d3 1f 3f fb b0 52 3f 66 ff 18 3f
       0.54538053 0.6243244 0.823013 0.5976471
000010 b3 23 29 3f d6 2e 0c 3f b5 5f 20 3f 91 c0 3e 3f
       0.660701 0.54758966 0.6264604 0.74512583
000020 3e a6 2a 3f a3 59 1e 3f 3a 5a 8d 3f 72 a9 b7 3f
       0.66659915 0.61855525 1.104316 1.4348586
000030 8f 7b 32 3f 7a 00 24 3f b7 06 41 3f 97 7a 22 3f
       0.69719785 0.6406323 0.7540087 0.6346831
000040 ba 1d f5 3e c3 47 11 3f 5d a4 10 3f 22 3b 40 3f
       0.47874242 0.56750125 0.565008 0.7509023
000050 18 a0 33 3f 01 db 28 3f e3 97 30 3f 02 78 23 3f
       0.7016616 0.65959173 0.6898176 0.6385499
000060 5c a8 34 3f 8f 23 44 3f 93 a0 2d 3f d1 60 1b 3f
       0.70569396 0.7661676 0.6782314 0.60694605
000070 3a 7c 23 3f 91 8e 21 3f 3b 94 8b 3e fe 4e 41 3f
       0.6386143 0.63108164 0.27261528 0.7551116
000080 e5 69 fc 3e b3 05 4e 3f 90 f6 7d 3f f6 83 16 3f
       0.4929954 0.80477446 0.9920435 0.58795106
000090 9c 2f 2e 3f 18 a3 38 3f 73 a4 2f 3f a5 15 2c 3f
       0.68041396 0.7212386 0.68610305 0.67220527
0000a0 05 aa 07 3f 52 94 28 3f fa 3c 37 3f 01 2a 1d 3f
       0.52993804 0.6585132 0.7157742 0.6139222
0000b0 19 bc 16 3f 56 5c 3a 3f 4f 6e 1b 3f 66 70 25 3f
       0.58880764 0.72797143 0.6071519 0.6462463
0000c0 0a 7b 41 3f 5b c1 30 3f f7 cd 39 3f 6e 2d 22 3f
       0.7557837 0.6904504 0.725799 0.6335057
0000d0 5f 22 46 3f 5e ea 21 3f 7f 3e 21 3f 71 bc 41 3f
       0.77396196 0.6324824 0.62985986 0.75678164
0000e0 79 28 19 3f 08 2e 26 3f 61 19 50 3f 81 05 3c 3f
       0.5982738 0.6491399 0.81288725 0.734459
0000f0 d0 c9 66 3f 38 b3 3b 3f c9 1a 33 3f 59 4e 2c 3f
       0.9015169 0.7332034 0.69962746 0.6730705

0.features.2.0.block.0.1.bias f4 [64]
000000 0a 53 12 3d c3 f2 3d 3e d3 9d 2c be 30 3b 1b 3d
       0.035723723 0.18549637 -0.1685708 0.037898242
000010 3b 1d b9 3d 05 49 8f 3f df 6e 82 bc 4e cb 13 3e
       0.090387784 1.1194159 -0.015922008 0.14433023
000020 8f 66 39 3d ef 4c ed 3e 9d 31 97 be 86 5e 19 bf
       0.045263823 0.46347758 -0.2953004 -0.59909856
000030 93 d0 1c 3e fb 3d 51 3e ba a2 34 3e ef 4f 2a 3e
       0.1531394 0.204338 0.176402 0.16632055
000040 f3 3e d2 bb 1f e1 2d 3e 5e 6f 90 bd 21 03 aa 3d
       -0.0064161955 0.16980408 -0.070524916 0.08301378
000050 05 23 f3 3d b7 14 02 bd 9c 5f 07 3f 43 19 52 3e
       0.11871914 -0.031758036 0.52880263 0.20517449
000060 12 2f 9e 3e 8a a6 7f 3e 40 73 29 3e 8d 96 95 3d
       0.30895287 0.24965873 0.1654787 0.07304106
000070 2a bd 2f 3e 6b d6 73 3d ff e5 37 3f e4 5b de 3b
       0.17162004 0.059530657 0.7183532 0.0067858566
000080 9d 0a c7 3e 65 da 1b be a2 2e 90 bd 90 a1 1a 3e
       0.38875285 -0.1522003 -0.070401445 0.15100694
000090 21 60 52 3e ce cc cb 3e 29 2b 92 3d c7 d1 ad 3d
       0.20544483 0.3980469 0.071371384 0.084872775
0000a0 98 71 14 3d cf ad 08 3e 93 bc 60 3e e0 2b 96 3e
       0.036241144 0.13347553 0.21946935 0.2933035
0000b0 1b 3c 19 3f f5 03 5d 3f ce c9 ab 3e f4 e5 cc 3e
       0.5985734 0.8633416 0.33552402 0.4001919
0000c0 22 a2 f1 3d ed 40 0c 3e 04 dd de bc 88 3b 95 3d
       0.117985025 0.13696642 -0.027204998 0.07286745
0000d0 c5 92 42 3d 12 99 57 3e 20 d5 ea 3d cb ea 00 3e
       0.04750325 0.21054485 0.114664316 0.12589566
0000e0 93 6a 90 3e 3c ea 20 3e 72 64 db 3d 23 b7 92 3d
       0.2820631 0.15714353 0.10712518 0.07163837
0000f0 18 a6 10 be 49 fe 77 3d b8 da 44 3e 8f 1e 9a 3d
       -0.1412586 0.06054524 0.1922406 0.0752536

0.features.2.0.block.0.1.running_mean f4 [64]
000000 53 c9 13 3f a4 e4 82 3e e7 5a d1 3e 8a f1 56 3f
       0.5772907 0.25565064 0.40889665 0.8396231
000010 34 81 58 bf ff ba e1 3f 9c 94 43 3e 90 6b 8d bf
       -0.8457215 1.7635192 0.19099659 -1.104845
000020 83 6e 68 bf ac 9e d5 be ff ff 6c 3e 98 dd 09 3f
       -0.9079363 -0.4172262 0.2314453 0.5385375
000030 1a 96 58 3f 44 dc 04 be c4 34 90 bf bb bd ea 3e
       0.84604037 -0.1297465 -1.1266103 0.45847878
000040 36 59 bd bf bd 08 cb be cd 50 08 be 95 41 d8 bf
       -1.479285 -0.39655104 -0.13312073 -1.6895014
000050 c0 e5 45 3e 49 3c 9c 3e b6 70 e3 3f 53 3a 5b 3f
       0.19325924 0.30514744 1.7768772 0.8563587
000060 fd 8f 9d bd 4f 0c 35 bf a2 c6 cb be 04 6a 61 bf
       -0.07693479 -0.70721906 -0.39799982 -0.8805239
000070 36 b7 7a bf 9d 19 74 bf 22 e5 87 3f 12 52 a6 3e
       -0.9793581 -0.9535158 1.0616801 0.3248449
000080 c6 a2 78 bf fc a9 4c 3f fc e0 06 3f d6 5e 9d bf
       -0.9712337 0.79946876 0.5268705 -1.2294567
000090 40 ea 1f bf 09 46 47 3e 58 58 e9 bd 93 f3 15 bf
       -0.6246681 0.1946031 -0.11393803 -0.5857479
0000a0 42 fb 5f bd bc 15 08 bf 76 18 19 3f a1 2d a3 bf
       -0.054682977 -0.53158164 0.5980295 -1.27483
0000b0 af 5d 48 3f ed 71 a1 3e ce df e9 3f ec da af 3e
       0.7826795 0.3153223 1.8271425 0.34346712
0000c0 05 96 b8 3e 53 0b 25 bf 0b d6 0a be 8f c2 62 bf
       0.36051956 -0.64470404 -0.13558213 -0.8857812
0000d0 c4 7b 64 3f 50 4d 3d be 3c 53 d8 3d 63 34 59 3f
       0.8925135 -0.18486524 0.10562751 0.8484556
0000e0 88 a4 ff 3f 74 ca e2 be 90 0d 0d bf 6c f0 1d be
       1.9972086 -0.44295084 -0.5509882 -0.15423745
0000f0 e7 15 13 bf 0b 14 81 3e 70 c7 c8 be 4b 68 37 be
       -0.57455295 0.25210604 -0.3921466 -0.17910878

0.features.2.0.block.0.1.running_var f4 [64]
000000 b8 53 14 40 ac e0 fe 3f 14 85 e0 3f 72 45 92 40
       2.3176098 1.9912314 1.7540612 4.570977
000010 a1 47 27 40 6c df 91 3f f2 96 bd 3f e2 90 39 40
       2.613747 1.1396308 1.481169 2.899468
000020 6f 95 f1 3f 80 8b 1e 3f bc bd 80 3f b8 68 6d 3f
       1.8873729 0.6193161 1.0057902 0.92737913
000030 09 f8 3b 40 7f b9 a6 3f 80 1e 79 40 79 27 e8 3f
       2.9370139 1.3025359 3.8924866 1.8137046
000040 a8 b8 4d 3f ce a3 61 3f d4 7f 33 3f 89 40 13 40
       0.8035989 0.8814057 0.70116925 2.300814
000050 07 1a c8 3f 05 67 85 3f f4 71 bf 3f 64 ba 49 40
       1.5632943 1.0422064 1.4956651 3.1520014
000060 d4 0a 0e 40 9e be 3a 40 c2 c7 5e 40 d7 42 1d 40
       2.219411 2.9178843 3.4809422 2.4572046
000070 c7 b7 1a 40 63 c4 b4 3f ce 9e ac 3e 54 c9 ba 3f
       2.4174669 1.4122432 0.33714908 1.459269
000080 b7 6b f1 3e f7 59 9e 3f ae 3c bf 3f 47 e2 f4 3f
       0.47152492 1.2371205 1.4940393 1.9131554
000090 a4 47 0b 40 d4 8e ec 3f 70 90 89 3f 58 67 d4 3f
       2.1762476 1.8481088 1.0747204 1.6594038
0000a0 91 b3 39 3f 15 50 06 40 c3 a2 1c 40 2d 20 93 3f
       0.7253962 2.0986378 2.4474342 1.1494194
0000b0 09 43 40 3f d7 c5 1a 3f b9 92 e8 3f 88 11 80 3f
       0.7510229 0.6045813 1.8169776 1.000535
0000c0 27 41 0b 40 26 00 2f 40 e9 92 54 3f 2f fc e0 3f
       2.1758516 2.734384 0.8303667 1.757696
0000d0 2d e3 e1 3f d4 02 da 3f 86 dd 05 40 d0 1d 8d 40
       1.7647454 1.7032113 2.0916457 4.409889
0000e0 18 b8 1b 40 3f 1e 2a 40 1c 89 e7 3f 9e 70 7b 40
       2.4331112 2.658096 1.8088717 3.9287486
0000f0 a6 81 02 40 93 13 86 3f 47 3f d6 3f fe 41 a8 3f
       2.039163 1.0474724 1.6738061 1.3145139

0.features.2.0.block.1.0.weight f4 [32, 64, 1, 1]
000000 72 de 92 3e 26 13 ca 3d b8 ce c8 bc e9 82 76 bd
       0.28685337 0.098669335 -0.024512634 -0.06018344
000010 14 69 50 3e 13 96 4c 3e 2a 95 64 3e 9b 1c 52 be
       0.20352584 0.19979124 0.22322527 -0.20518725
000020 31 54 94 3c 6c 71 e2 bd 51 2f fe be 4f 57 fd be
       0.018106552 -0.1105679 -0.49645475 -0.49480674
000030 98 80 25 3e 56 15 0b 3f b8 04 9a 3e e2 a5 a0 3d
       0.16162336 0.5432943 0.30081725 0.0784414
000040 46 70 8e be 75 99 85 3e 19 f9 4f 3d 2b 6c 29 bf
       -0.27820033 0.2609364 0.050774667 -0.66180676
000050 2c 9d 89 3e 7a b8 87 3d f9 72 b5 3e 83 21 30 bc
       0.26877725 0.06626983 0.3543928 -0.010750177
000060 77 cf 4b 3e 05 cd ad be a8 8c 87 bd b7 9b 89 bd
       0.1990336 -0.3394548 -0.06618625 -0.067191534
000070 32 d4 87 3e 40 e0 4f 3e 95 e5 23 3e fa cd 6b be
       0.2652908 0.20300388 0.16005547 -0.23027793
000080 2d 06 34 be ce 30 eb 3d a9 f3 2c 3e 3d ce 8a 3d
       -0.17580481 0.11483918 0.16889824 0.06777618
000090 8e 05 94 be 6c 06 a9 be ea 7d fa 3b c6 59 a1 be
       -0.28910488 -0.33012712 0.0076444047 -0.31513804
0000a0 bd b0 16 bd 36 27 2f be 07 69 6d be c6 bc 7a be
       -0.036789645 -0.17104802 -0.23184596 -0.24486074
0000b0 5b 65 95 bd af 1b 81 3d e8 0c 34 bd e2 49 0d be
       -0.07294723 0.06304108 -0.04395762 -0.13797715
0000c0 3b 25 79 3e bc ed 88 be 3a c7 38 3e 11 b6 63 be
       0.24330609 -0.26743877 0.18044749 -0.22237422
0000d0 1b 52 3e 3e c7 02 04 3e 59 b5 68 3e 26 a9 22 be
       0.18586008 0.12891684 0.22725429 -0.15884838
0000e0 98 7f a3 3d f3 ff 0d 3e ce cd 95 be 37 e8 ba bd
       0.07983321 0.13867168 -0.2925858 -0.09126323
0000f0 98 60 0d bf 5a 6a a1 3e 3b 18 c1 bd 38 0f 62 be
       -0.55225515 0.31526452 -0.0942845 -0.22076118
000100 86 ba 9c 3d 7b a1 a1 3d 2c 59 97 bd 32 dc 48 3e
       0.07652764 0.07892128 -0.07390055 0.19615248
000110 e9 f8 cd be 7f a4 25 3d 94 28 4a be 44 e3 18 3e
       -0.40228966 0.04044008 -0.19742042 0.14930445
000120 f4 24 f3 3c 98 8b 66 be a9 ff ed 3e 8f bd 4b 3d
       0.029680707 -0.22514188 0.46484116 0.049741324
000130 b1 b1 ee 3d 11 73 2e bb 46 12 71 3e a4 e2 d4 be
       0.11654986 -0.0026618878 0.23542127 -0.41579163
000140 81 1a 21 bd 1d 22 f5 bd a5 48 10 be 8a fe 00 bd
       -0.039331917 -0.11969397 -0.14090212 -0.031492747
000150 12 b8 d9 bd 62 05 eb bc 7c 3f 7e 3e 90 d8 75 be
       -0.10630812 -0.02868909 0.24828905 -0.24008393
000160 98 05 9f be 67 93 be be 61 31 6e 3e 91 98 31 be
       -0.31058955 -0.37221834 0.23261024 -0.17343356
000170 ec 25 26 be 36 9d 89 be fc 35 88 3e 7c 9c 25 3e
       -0.16225404 -0.26877755 0.26603687 0.16172975
000180 a0 43 36 3e 39 dc ce 3e eb 90 66 3e b3 0c 38 3d
       0.17799234 0.40402392 0.2251622 0.044933986
000190 ea c5 94 be 1d 97 d6 bd 8a 1d 0d bb 8e 76 ef 3d
       -0.29057246 -0.10478041 -0.00215325 0.116925344
0001a0 54 75 7e 3d 22 ac 23 bd 56 85 9e bb cf 16 01 bd
       0.06212361 -0.03995908 -0.004837672 -0.031515893
0001b0 fc a4 97 3e 20 58 84 3e 45 c6 03 be 8c 38 26 bd
       0.2961806 0.25848484 -0.12868603 -0.04058127
0001c0 51 17 41 bd 1d 17 74 3e 8e e3 c3 3e 69 fc 8f 3e
       -0.047141377 0.23836942 0.38259548 0.2812226
0001d0 eb b2 f0 bd 9f 7c 45 be 9f 46 59 3e 45 3a d2 be
       -0.11752876 -0.1928582 0.21218346 -0.4106008
0001e0 41 0f bb 3d c1 5c 23 be 25 a9 fa 3d 9e 9a b5 bd
       0.09133769 -0.15953352 0.12239293 -0.088673815
0001f0 ac e1 a7 bd f3 a5 34 be 29 38 e6 3e 83 ae 4a be
       -0.0819734 -0.1764143 0.44964722 -0.19793133
000200 c9 4e d5 3d f2 0c 87 bd df d5 ca 3e d1 cc cf 3d
       0.10415418 -0.06594266 0.39616296 0.101464875
000210 5a 32 28 be 60 e2 a2 3e d9 60 91 3e 2d 07 fc 3e
       -0.16425458 0.31813335 0.283942 0.49224225
000220 c3 c5 22 be 9b 8b 4e 3d b6 20 f3 3d 5c 44 08 be
       -0.15895753 0.050426107 0.118714735 -0.13307327
000230 7e c9 1b be 51 bd 84 3e f8 24 98 3d 21 95 9f bd
       -0.15213582 0.25925687 0.07428926 -0.07792116
000240 68 e8 1a bc 33 e3 b4 be 8b 3c 94 be 90 16 54 3e
       -0.009454824 -0.3532959 -0.2895244 0.20711732
000250 6a 21 40 be b2 1a b0 bd a4 dd e4 3d 67 4a 00 3e
       -0.18762746 -0.08598842 0.11175087 0.12528382
000260 be e6 90 be f8 71 d6 3d 89 0a 8d be ba 93 1e 3e
       -0.28301042 0.104709566 -0.275471 0.1548604
000270 d8 39 3e 3e 85 cf b2 bd 86 70 83 be 6a a4 61 bd
       0.18576753 -0.087309875 -0.25671786 -0.055088438
000280 35 21 5e 3d ac 6e 9a 3e 6c 1d 93 3c 16 02 64 3d
       0.054230887 0.3016256 0.017958365 0.05566605
000290 96 54 ac 3e 8c 43 4d be 6a c3 68 3e 07 35 24 3d
       0.33658284 -0.20045298 0.22730795 0.040089633
0002a0 98 d3 25 3e c7 2c 75 be 2b 13 d3 bd e0 08 a2 3d
       0.16193998 -0.23942862 -0.103063904 0.07911849
0002b0 59 71 5f be ce 2a 8c 3e 7d db 84 3e 3a 03 e5 bd
       -0.21820582 0.27376407 0.25948706 -0.11182256
0002c0 e4 81 84 bd 2a 34 32 be e3 92 23 3e c4 e3 d2 be
       -0.06470087 -0.17402712 0.15974002 -0.41189396
0002d0 3a 9a c2 bd 33 78 7b be f2 3d 92 be 07 e0 0a bf
       -0.09502073 -0.24557571 -0.28562886 -0.5424809
0002e0 9a e8 92 3e b1 1b 00 be 10 bc 1e be a3 ab 87 be
       0.28693086 -0.12510563 -0.15501428 -0.26498136
0002f0 3a 99 8e 3e 7d 51 bc bd 6b bf a6 bc 24 67 c7 3d
       0.27851278 -0.0919523 -0.020354947 0.097364694
000300 c8 31 f2 3d a5 36 04 bd 59 3a 34 3e 9f f6 5a 3e
       0.11825901 -0.032278676 0.17600383 0.21383141
000310 4e 40 5b bd ea 81 3f be 95 de 6d be 7d 79 5b bd
       -0.053528123 -0.18701902 -0.2322944 -0.053582657
000320 7e fd 6e bd da c1 e1 be 27 be 82 3d 5b d8 28 be
       -0.058347218 -0.4409321 0.06383925 -0.16488783
000330 03 a3 65 3e a5 30 05 ba 64 ff 45 be bd 79 f2 3d
       0.22425465 -0.0005080796 -0.19335705 0.11839626
000340 b6 2c cd be 27 bb 0b bf 65 50 82 be 2a 6d b1 be
       -0.40073174 -0.54582447 -0.2545196 -0.34653598
000350 0d 20 c6 3d e4 2e 81 3d be 65 23 3e 34 e0 09 bf
       0.09674082 0.06307772 0.1595678 -0.5385773
000360 c2 43 f3 3d a1 2c 1d 3e 77 85 28 be fa b3 50 3e
       0.11878158 0.15349056 -0.16457163 0.20381156
000370 eb 35 50 bc d4 99 a8 be cd 5c 1f 3e 5b dd dd bd
       -0.012708168 -0.32929862 0.15562744 -0.10833236
000380 cf 1b 1b bc c1 29 67 bd 96 ff 5c bd fd 12 7e 3e
       -0.009467079 -0.056436304 -0.053954683 0.24811931
000390 f8 8e c9 be 77 af b6 3c 2a 3e 09 be 8d 1e 2b bd
       -0.3936689 0.022300465 -0.1340262 -0.041777182
0003a0 4b 7b 02 bc 4b 5c 2a 3e 29 31 79 bd 24 6a 3b 3e
       -0.007963966 0.1663677 -0.0608379 0.18302208
0003b0 d7 ce 15 bb 2a b9 9c be e7 97 b3 3e 3c 92 db 3d
       -0.0022858882 -0.3061002 0.3507683 0.10721251
0003c0 ce 75 e8 3c 45 94 2c 3e ae 70 c6 bd 6a e3 3b 3c
       0.028376486 0.16853435 -0.09689461 0.011467794
0003d0 0e b5 30 bd e0 31 4d be 3e 75 b5 bd 98 3f 25 3e
       -0.043141417 -0.20038557 -0.08860253 0.1613754
0003e0 a1 c6 a2 3e f8 4d 38 be e3 1b 22 3e b7 d9 ec bd
       0.31792167 -0.17998493 0.1583095 -0.11564963
0003f0 ea 9b be 3e e8 cd 11 3f b6 cb 5d be 69 97 b7 bd
       0.37228328 0.56954813 -0.21659741 -0.08964426

0.features.2.0.block.1.1.weight f4 [32]
000000 f6 50 7a 3f 75 29 49 3f e7 cf 58 3f b2 04 4a 3f
       0.97779787 0.78578883 0.84692234 0.78913414
000010 83 2c 4c 3f 1c 15 43 3f 95 40 5f 3f 69 46 40 3f
       0.7975542 0.76204085 0.8720792 0.7510744
000020 07 68 2c 3f 9e d5 41 3f 40 8b 54 3f 42 21 62 3f
       0.67346233 0.7571658 0.8302498 0.88332
000030 3a 69 75 3f af 3f 34 3f c8 db 48 3f 02 dd 4a 3f
       0.9586369 0.70409673 0.7846036 0.7924348
000040 e5 73 5f 3f 5a 8a 39 3f 12 43 45 3f 66 d9 03 3f
       0.87286216 0.7247673 0.77055466 0.515036
000050 03 f0 76 3f 5d e2 53 3f d8 1b 4d 3f 16 5d 5c 3f
       0.9645998 0.8276728 0.8012061 0.8607954
000060 da e8 4e 3f 42 44 29 3f 36 42 4a 3f 52 27 76 3f
       0.80824053 0.6611978 0.7900728 0.9615375
000070 6f ba 4a 3f 90 29 52 3f 84 e3 5a 3f 76 be 45 3f
       0.79190725 0.8209467 0.8550341 0.77243745

0.features.2.0.block.1.1.bias f4 [32]
000000 ce e3 05 be 24 b9 c2 bf 14 3e 8b 3e 4c f5 74 3f
       -0.13075182 -1.521275 0.271958 0.95686793
000010 9e 70 26 bf e1 4b 78 bc 66 4f 05 3d a8 3c 32 3f
       -0.6501559 -0.01515481 0.032546423 0.69623804
000020 b7 14 73 bf 42 44 eb be ef d7 e6 be cf 70 0f 3f
       -0.94953483 -0.45950514 -0.4508662 0.5603151
000030 e6 70 05 be 3d ae 26 be 57 61 1a bd 4e f4 90 3f
       -0.13031349 -0.16277404 -0.037690487 1.1324556
000040 a5 75 3e bd ab 0e 8b 3e 98 5c 3f 3e 7a 7b 64 40
       -0.046498913 0.27159628 0.18687665 3.5700364
000050 c6 69 02 bf 9c 46 9b bf 19 c3 37 3f 48 9b a2 bd
       -0.5094265 -1.2130923 0.7178207 -0.07939774
000060 e9 03 0d be 3d 92 1c 3f a7 47 50 bf 41 21 20 be
       -0.13771023 0.6116064 -0.8135933 -0.15637685
000070 21 fd 21 3f e8 77 4a bf e8 83 2d 3e 73 4f 43 be
       0.6327687 -0.7908921 0.1694485 -0.19073276

0.features.2.0.block.1.1.running_mean f4 [32]
000000 a4 cd 31 bd 85 d5 96 3e fb dd 02 3e 93 76 d5 be
       -0.043409005 0.29459777 0.12779991 -0.41692027
000010 d6 5f b4 bd 18 9a 9a 3e ad 5e dc 3c 03 e1 0f bc
       -0.08807342 0.3019569 0.026900614 -0.008781674
000020 17 c2 f8 3d 5d 99 b0 3e 16 c0 35 3e 3b 66 76 be
       0.12146395 0.34492007 0.17749056 -0.24062435
000030 9f eb c0 be c7 bb f8 3e 66 b7 15 3e 9d 08 8e 3e
       -0.37679765 0.48580763 0.14620742 0.27740946
000040 2a 5f 1d 3f 47 bd d8 bd 31 b6 31 bf 0c dc 72 be
       0.61473334 -0.10582977 -0.6941863 -0.23716754
000050 2d f8 fd bc 9d 10 bc 3e 39 ae 1c bf 80 17 99 bd
       -0.031002128 0.36731425 -0.6120334 -0.074751854
000060 7b 7e 9d 3e 84 04 75 3e f5 b3 f7 be 3d 22 7a be
       0.3076056 0.23927504 -0.48379484 -0.24427123
000070 ad c6 4a 3e cc f5 a8 bc 37 9e cf 3e 79 3a 86 be
       0.19802351 -0.020625018 0.40550396 -0.26216486
