code/modeling/ckpt/AutoencoderConfig([2, 2, 2], flip=True, rotate=True)/autoencoder_1600.pth (torch, 720734 bytes, 102 tensors)

0.features.0.0.weight f4 [16, 8, 3, 3]
0	0xbd9af9bf	-0.075671665
1	0xbd290913	-0.04126842
2	0xbc896f4b	-0.016776701
3	0x3d598fea	0.053115763
4	0xbdfbfef6	-0.12304489
5	0xbbdd3c38	-0.0067515634
6	0xbcf26b0b	-0.029592058
7	0x3c285248	0.010273524
8	0xbbc74c31	-0.006082081
9	0x3d05662d	0.032568146
10	0xbd95ceba	-0.073148206
11	0x3cb6c18a	0.022309083
12	0xbcc5120c	-0.024056457
13	0x3c1e915e	0.009678213
14	0xbd1b6a10	-0.037942946
15	0x3ccb5b69	0.024823861
16	0x3d9f8d4b	0.07790621
17	0xbd4e0f71	-0.050307695
18	0x3dcecabd	0.10097263
19	0xbe178bc9	-0.14799418
20	0xbe37c8f6	-0.17947754
21	0xbd1bd8ea	-0.038048662
22	0xbe578e4e	-0.21050379
23	0xbe3b3298	-0.18281019
24	0x3d58a640	0.052892923
25	0xbbc87113	-0.006116995
26	0x3d8eaee8	0.069669545
27	0xbd0e8668	-0.03479615
28	0xbcacbb75	-0.02108548
29	0xb9a3c02f	-0.0003123297
30	0xbd86914c	-0.06570682
31	0xbd24b6ba	-0.040213324
32	0xbde2208e	-0.110413656
33	0x3db7ca0a	0.08974083
34	0xbdedc3d9	-0.116096206
35	0x3a759ea2	0.00093696464
36	0xbca19966	-0.019726466
37	0x3d325d09	0.043545756
38	0x3c856e5a	0.016287971
39	0xbcbff92b	-0.023434242
40	0x3ca0096f	0.019535748
41	0xbd533fca	-0.051574506
42	0x3d003ffa	0.031311013
43	0xbd6d9266	-0.058000945
44	0xbc6a004b	-0.014282296
45	0xbd501a3c	-0.05080627
46	0x3ca6b093	0.020347869
47	0xbcec445a	-0.028841186
48	0xbcc9e98f	-0.024647502
49	0xbb0e2f96	-0.0021695844
50	0x38ce6196	9.841022e-05
51	0x3d1f3dd1	0.038877312
52	0xbd82e057	-0.06390446
53	0x3d984122	0.07434298
54	0x3da13e9c	0.0787327
55	0x3caab945	0.020840297
56	0xbc6a4075	-0.014297594
57	0x3c54c382	0.012986066
58	0x3da6aec8	0.08138806
59	0x3cab5276	0.020913344
60	0xbc2f8be9	-0.0107145095
61	0x3d2fa5e7	0.042882826
62	0x38cffaf8	9.917276e-05
63	0xbcf52d6c	-0.029928885
64	0xbd1e1d6e	-0.038602285
65	0x3cb64a92	0.022252355
66	0xbd13df0b	-0.036101382
67	0x3d0fae3e	0.03507828
68	0x3d92e433	0.07172432
69	0xbd15aa57	-0.0365394
70	0xbdaec4d7	-0.08533638
71	0x3dbcb754	0.092146546
72	0x3d832ea8	0.06405383
73	0xbd02b7d1	-0.031913582
74	0xbdce4737	-0.10072177
75	0x3d8af95d	0.067858435
76	0x3def4bef	0.11684405
77	0x3d596b68	0.053080946
78	0x3d2a09d4	0.04151328
79	0x3e28be2b	0.16478793
80	0xbd622541	-0.05521131
81	0xb959ac20	-0.00020758854
82	0xbb47e0f8	-0.0030499082
83	0x3da8c2de	0.08240293
84	0xbd7d3f3a	-0.061827876
85	0xbd7e5509	-0.062092815
86	0x3bb43c95	0.005500386
87	0x3daabdd3	0.08336987
88	0xbd725095	-0.05915888
89	0xbd3ca77c	-0.046058163
90	0xbdd212b8	-0.102574766
91	0xbd2cc373	-0.042178582
92	0xbd9d2348	-0.07672745
93	0x3d817159	0.063204475
94	0x3d67b02d	0.0565645
95	0xbe062ec8	-0.13103783
96	0x3d1eaa8a	0.038736857
97	0xbcbf915e	-0.023384746
98	0xbbdf0c5c	-0.0068068933
99	0x3d2fa446	0.042881273
100	0xbda275ba	-0.07932611
101	0x3d90f303	0.07077601
102	0x3d8ab215	0.06772248
103	0x3da9df4a	0.08294542
104	0x3d00a39b	0.031406026
105	0xbc6bf1ed	-0.014400941
106	0xbd866341	-0.065619
107	0xbd7dbefc	-0.061949715
108	0xbc1da2ca	-0.0096213315
109	0x3c4f7d51	0.012664155
110	0x3d91bcc6	0.07116084
111	0xbd8aa378	-0.067694604
112	0xbd4bb64c	-0.0497344
113	0xbd86ffb8	-0.06591743
114	0xbd8b92c6	-0.06815104
115	0xbd26d53f	-0.04073071
116	0xbd53bfb1	-0.051696483
117	0xbcfdb43e	-0.030969735
118	0x3cee041e	0.029054698
119	0xbd5a6e03	-0.05332757
120	0xbcab4c0b	-0.020910284
121	0xbe04068a	-0.1289312
122	0x3cb151d7	0.02164547
123	0x39dabf4e	0.00041722733
124	0xbaaadfaa	-0.0013036628
125	0xbd870da6	-0.065944
126	0xbc92a70d	-0.017901922
127	0xbd921c11	-0.071342595
128	0x3c9c5a69	0.01908608
129	0x3b056431	0.0020353908
130	0xbe409f1e	-0.18810698
131	0xbcbd6e94	-0.023124017
132	0xbcb55d69	-0.022139268
133	0x3c010936	0.007875731
134	0x3dbc6b38	0.09200138
135	0x3da5b8e0	0.08091903
136	0x3b66e7fb	0.0035233486
137	0xbdb93340	-0.09042978
138	0xbe125570	-0.14290404
139	0xbe31f24e	-0.17377588
140	0xbd202de5	-0.03910627
141	0xbde1c243	-0.110233806
142	0xbd936c8b	-0.07198437
143	0x3b5e26fd	0.003389775
144	0x3c72dcb7	0.01482313
145	0x3d4b0762	0.049567588
146	0x3cc11618	0.023570105
147	0xbb97dafe	-0.00463426
148	0x3e38de6c	0.18053597
149	0xbbdceaa1	-0.006741837
150	0x3d519999	0.051171873
151	0x3e051379	0.1299571
152	0xbd7898e0	-0.060692668
153	0x3d04e7a9	0.03244749
154	0x3d8f2160	0.06988788
155	0x3a8e73b3	0.0010868221
156	0xbd84f08a	-0.06491192
157	0xbc995455	-0.01871697
158	0xbc8b568a	-0.017009038
159	0x3d45277e	0.048133366
160	0x3da622d5	0.081121124
161	0x3db65dd0	0.08904612
162	0x3c02eb57	0.00799068
163	0x3e195ad0	0.14976048
164	0x3d6e3e15	0.058164675
165	0x3d3326dc	0.04373823
166	0x3e8a5550	0.27018213
167	0x3e0b9610	0.13631463
168	0xbd726fee	-0.059188776
169	0x3d41bae2	0.047297366
170	0x3c9ed630	0.019389242
171	0xbc6cc391	-0.014450924
172	0xbd5a0ad9	-0.053233
173	0xbcdc4313	-0.026887452
174	0x3d95dd38	0.07317585
175	0xbc67c8c6	-0.014146989
176	0x3de4225e	0.111393675
177	0x3cb61a90	0.022229463
178	0x3da81a49	0.082081385
179	0xbd68fc25	-0.05688109
180	0x3c3c8a2b	0.011507551
181	0x3d0ed594	0.034871653
182	0xbc93ffaf	-0.018066255
183	0xbd51c042	-0.051208742
184	0xbd92523e	-0.07144593
185	0x3c50d5b1	0.0127462605
186	0x3ce6ea22	0.028187815
187	0x3ce44ef4	0.027869679
188	0xbbf22001	-0.007389069
189	0xbd4139bb	-0.047174197
190	0x3c1594b4	0.009129692
191	0x3ce6e88d	0.02818706
192	0xbdd6232c	-0.10455927
193	0xbb260864	-0.002533459
194	0xbcd9c1d1	-0.026581677
195	0x3d889a71	0.06670082
196	0xbddad852	-0.10685791
197	0x3d1af5d3	0.037832092
198	0x3d829e33	0.0637783
199	0xbd183b7c	-0.037166104
200	0x3cd29b3a	0.025708783
201	0xbd9040e3	-0.07043626
202	0xbd8f1075	-0.06985561
203	0xbb3d1eb5	-0.0028857414
204	0xbbbb1729	-0.005709548
205	0xbd42c93f	-0.047555204
206	0xbc10d2b1	-0.008839295
207	0x3d9e6740	0.07734537
208	0xbddef757	-0.1088702
209	0x3deca3a3	0.11554649
210	0xbe246c71	-0.16056992
211	0x3c8c1886	0.017101537
212	0xbe04ee98	-0.12981641
213	0xbd025d60	-0.03182733
214	0xbdb586dd	-0.08863614
215	0x3d93e8b1	0.07222117
216	0xbdab0d13	-0.08352103
217	0x3cb858b6	0.022503238
218	0x3d4b22a8	0.049593598
219	0xbcfdd7ac	-0.03098663
220	0xba9997fb	-0.0011718267
221	0xbc33fc29	-0.010985413
222	0x3d34ba94	0.044123247
223	0x3d9cf57c	0.0766401
224	0x3d814a98	0.06313056
225	0xbd9a6464	-0.07538679
226	0x3da9d2c0	0.082921505
227	0xbd465aef	-0.048426565
228	0x3d1146bc	0.03546785
229	0x3e652a31	0.22379376
230	0x3e4bb49c	0.19893116
231	0x3cf209f3	0.02954576
232	0x3e0297c9	0.12753214
233	0x3defbee8	0.11706334
234	0x3d2c87fe	0.04212188
235	0x3d0f8bc6	0.035045408
236	0x3da45fdf	0.080260985
237	0xbd9b41a1	-0.07580877
238	0x3d5ccb68	0.05390492
239	0x3db5a4ae	0.08869301
240	0x3d017006	0.031600975
241	0xbcf262e8	-0.029588178
242	0xbe0ba6b9	-0.13637818
243	0x3d2dff30	0.042479694
244	0x3d315139	0.04329035
245	0xbd873f3a	-0.066038564
246	0xbd88899c	-0.06666872
247	0x3d2c67b4	0.042091087
248	0x3cea7e95	0.028624812
249	0xbdce0b64	-0.10060766
250	0x3d59e773	0.053199243
251	0xbc16041b	-0.009156252
252	0x3c179e0a	0.009253988
253	0x3cf2ecff	0.029654024
254	0x3cb56d07	0.022146715
255	0xbb4efaa1	-0.0031582492

0.features.0.1.weight f4 [16]
0	0x3f3e1361	0.7424832
1	0x3f7fe6f4	0.9996178
2	0x3f7eb38b	0.9949271
3	0x3f73b04f	0.951909
4	0x3f7c20b4	0.984874
5	0x3f7d7bea	0.990172
6	0x3f81474f	1.0099887
7	0x3f6ae4ae	0.9175519
8	0x3f819889	1.0124675
9	0x3f79c977	0.97573036
10	0x3f712b2e	0.9420651
11	0x3f68e68e	0.909768
12	0x3f806fd7	1.0034131
13	0x3f74c67a	0.9561535
14	0x3f82189d	1.0163761
15	0x3f7ee8c1	0.99573904

0.features.0.1.bias f4 [16]
0	0x3ed9e110	0.42554522
1	0x3e6f354c	0.23360175
2	0x3e5e0977	0.21683298
3	0x3e6e820d	0.23291798
4	0x3e358131	0.17725064
5	0x3e92228d	0.28541985
6	0x3e2d4efe	0.16924664
7	0x3e47e8f2	0.19522455
8	0x3e04baf8	0.12961948
9	0x3e59c235	0.2126549
10	0x3e320751	0.17385603
11	0x3e29de25	0.16588648
12	0x3e35f953	0.17770891
13	0x3da1194e	0.078661546
14	0x3e374f9d	0.17901464
15	0x3e390018	0.18066442

0.features.0.1.running_mean f4 [16]
0	0x3b8dfda9	0.004333217
1	0xbd3d0a3d	-0.046152342
2	0xbd18c476	-0.037296735
3	0xbb539cbc	-0.0032289466
4	0x3cc01d9b	0.023451617
5	0xbd6c1e75	-0.057646234
6	0x3d6adbb3	0.057338428
7	0xbb9047bb	-0.004403082
8	0x3d691a66	0.05690994
9	0x3d1b713a	0.03794978
10	0x3bf6b219	0.007528555
11	0x3d0483c8	0.03235224
12	0xbd79e0fe	-0.061005585
13	0x3d4b123b	0.049577933
14	0x3d86a8a0	0.065751314
15	0xbc172029	-0.009223976

0.features.0.1.running_var f4 [16]
0	0x3e62f076	0.22162041
1	0x3f861959	1.0476485
2	0x3f2e7e20	0.681612
3	0x3ea7d5ce	0.32780308
4	0x3f414ff3	0.7551262
5	0x3f6a98f3	0.9163963
6	0x3fb64e84	1.4242711
7	0x3f412f32	0.7546264
8	0x3f8e0ca3	1.1097606
9	0x3ee240bd	0.44190016
10	0x3ede0513	0.43363246
11	0x3efb93a4	0.49136078
12	0x3fc4e41c	1.5382113
13	0x3f2d8fe1	0.67797667
14	0x3fbaa7d8	1.4582472
15	0x3f197f1c	0.5995958

0.features.1.0.block.0.0.weight f4 [16, 16, 3, 3]
0	0xbbe38581	-0.006943405
1	0x3e0ef345	0.13959987
2	0x3db52fb0	0.08846986
3	0x3bc517d9	0.0060148058
4	0xbdd83473	-0.10556879
5	0x3dc76a97	0.09737127
6	0xbe5c361b	-0.21505015
7	0x3bfab568	0.00765102
8	0x3d2ac093	0.04168756
9	0xbd0b51c0	-0.03401351
10	0xbd398a9f	-0.045298215
11	0xbd6d4573	-0.05792756
12	0x3d944c66	0.07241134
13	0xbe139f39	-0.14416207
14	0xbe3cd2e9	-0.18439831
15	0xbe00b957	-0.12570702
16	0x3cd77d10	0.026304752
17	0x3d799134	0.060929492
18	0xbe34fd6b	-0.17674796
19	0xbe33abd4	-0.17546016
20	0xbe07719b	-0.13226931
21	0x3c0db30d	0.008648646
22	0xbd4e0718	-0.050299734
23	0xbdf386f7	-0.11890977
24	0x3c832ae3	0.01601166
25	0x3db2e0d3	0.08734288
26	0xbd33318d	-0.043748427
27	0x3b366478	0.002783088
28	0xbd6f127c	-0.058367237
29	0xbd45a483	-0.048252594
30	0xbdd87bbc	-0.105704755
31	0xbd7b1889	-0.061302695
32	0xbcb2b07b	-0.021812668
33	0xbd98ce67	-0.07461243
34	0xbc66946b	-0.014073472
35	0xbcf80169	-0.03027411
36	0x3d829e86	0.06377892
37	0x3e4ae3f3	0.19813518
38	0xbd4a945e	-0.0494579
39	0xbdec74a8	-0.11545688
40	0xbd4377d9	-0.047721718
41	0xbd41e283	-0.04733516
42	0xbe5b97de	-0.21444651
43	0xbe0cf476	-0.1376513
44	0xbe1b1be0	-0.15147352
45	0xbd6aad73	-0.05729432
46	0x3e0ae078	0.1356219
47	0x3ca701aa	0.020386536
48	0x3e3941ba	0.18091479
49	0xbd6959cb	-0.0569704
50	0x3e06f06f	0.13177656
51	0xbdfa5f4e	-0.12225209
52	0xbd159496	-0.036518656
53	0xbe8a854a	-0.27054816
54	0x3ce8becc	0.028411292
55	0x3ea27230	0.31727743
56	0x3dbdc30e	0.09265719
57	0xbe8db685	-0.27678314
58	0xbd20e279	-0.03927848
59	0x3e3984d1	0.18117072
60	0x3de6e31d	0.11273787
61	0x3c37fc5b	0.0112296
62	0xbca56c66	-0.02019329
63	0x3d00a299	0.031405065
64	0x3e208e1e	0.15679213
65	0xbd1f94e7	-0.038960364
66	0x3d9c6839	0.076370664
67	0xbd681204	-0.056657806
68	0xbc38290c	-0.011240255
69	0x3c018385	0.007904892
70	0x3e29a68a	0.16567436
71	0x3ddc9426	0.107704446
72	0xbdf70f87	-0.120635085
73	0xbe05fb8e	-0.13084242
74	0x3e967013	0.2938238
75	0x3dcc7754	0.099836975
76	0x3d9ed707	0.07755857
77	0x3d479f4a	0.048735894
78	0xbcb831cc	-0.022484683
79	0x3c8fa49b	0.017534545
80	0x3e1f7c5e	0.15574786
81	0x3e0d108f	0.13775848
82	0xbde3040b	-0.110847555
83	0x3d9a3793	0.07530131
84	0x3e9941a0	0.2993288
85	0xbe058159	-0.13037623
86	0x3e95c583	0.29252252
87	0xbcc5f7d3	-0.024166023
88	0x3e212354	0.15736133
89	0xbd0b78de	-0.034050815
90	0xbd526286	-0.05136349
91	0x3cc608ce	0.02417412
92	0xbe5375f6	-0.20650467
93	0x3e103bdb	0.14085333
94	0x3ca8397f	0.020535229
95	0x3e779dd1	0.24181296
96	0xbc72db44	-0.014822785
97	0x3d8e61c8	0.06952244
98	0xb9454fd9	-0.0001881713
99	0x3e064d29	0.13115372
100	0x3d9cd8be	0.07658528
101	0xbd128f53	-0.035781216
102	0xbd0d30c6	-0.034470342
103	0x3dfa7f93	0.12231364
104	0x3e0b0cc4	0.13579088
105	0xbe3bd1c1	-0.18341734
106	0x3cac7c16	0.021055263
107	0x3e73c4e2	0.23805574
108	0xbe01b212	-0.12665585
109	0xbe8c3254	-0.27382147
110	0xbd163992	-0.036675997
111	0xbd10127b	-0.035173874
112	0xbdbe946b	-0.09305652
113	0xbc8893bb	-0.016672006
114	0x3dbdf5d6	0.09275405
115	0x3d730b92	0.059337206
116	0xbdab88a0	-0.083756685
117	0xbe26ba7a	-0.16282073
118	0xbd941600	-0.07230759
119	0x3d5af2be	0.053454153
120	0x3e1724df	0.14760159
121	0x3da78108	0.08178908
122	0x3e1dfe3e	0.15429017
123	0x3ccbd62d	0.0248824
124	0xbda65017	-0.08120745
125	0x3ddf73a7	0.10910731
126	0xbe3ebaae	-0.186259
127	0x3e266bc4	0.16252047
128	0x3da8ef94	0.08248821
129	0x3c699603	0.014256957
130	0xbd0d9a31	-0.034570877
131	0x3e353cbd	0.17698951
132	0xbcadaa41	-0.021199347
133	0x3d79c797	0.06098136
134	0x3c3fef2e	0.01171474
135	0x3d26a2cd	0.040682603
136	0x3e612b51	0.2198918
137	0x3e1f3d71	0.15550782
138	0xbcbcdda6	-0.023054909
139	0xbe1bde94	-0.15221626
140	0x3df6af02	0.12045099
141	0xbe632624	-0.22182518
142	0x3e1743a1	0.14771892
143	0x3d8fc8e8	0.07020742
144	0xbd220dae	-0.039563827
145	0x3daab012	0.08334364
146	0x3d3d2a5b	0.04618297
147	0x3c88e3ea	0.01671024
148	0xbdeebe68	-0.11657411
149	0x3e4fa911	0.20279337
150	0xbd2b6c73	-0.041851472
151	0xbe230b13	-0.15922193
152	0x3dc45893	0.09587207
153	0x3e0b3fc3	0.13598542
154	0x3e3b26da	0.1827654
155	0x3d017932	0.03160972
156	0xb7b65de6	-2.1739816e-05
157	0xbde29c20	-0.11064935
158	0x3d590560	0.05298364
159	0xbe5e1499	-0.21687545
160	0xbdfea09a	-0.12432976
161	0xbb1dc22f	-0.0024072041
162	0xbe71c815	-0.23611481
163	0x3e58d7eb	0.21176116
164	0xbd48c019	-0.049011324
165	0x3d8aca5f	0.067768805
166	0xbe0d4bf5	-0.13798507
167	0x3e2124ca	0.1573669
168	0x3e7b7b38	0.24558723
169	0xbe23e7ff	-0.16006468
170	0x3dc190ae	0.094514236
171	0x3d015627	0.031576302
172	0x3bb58788	0.005539838
173	0x3da69723	0.08134296
174	0x3ca205a0	0.019778073
175	0xbdff94e4	-0.124795705
176	0xbd8ac6b5	-0.067761816
177	0xbe05ab27	-0.1305357
178	0x3d592f05	0.053023357
179	0xbb2fb25f	-0.0026809198
180	0x3d956109	0.072938986
181	0xbd97af4b	-0.07406481
182	0xbd402e1c	-0.046918973
183	0xbdb34111	-0.08752645
184	0xbd344507	-0.044011142
185	0x3d6bea73	0.057596635
186	0xbdf7724f	-0.120823495
187	0x3d43ec84	0.04783298
188	0xbd96d72f	-0.07365262
189	0xbe446ca2	-0.19182065
190	0xbd8e12ca	-0.069371775
191	0xbd1c9837	-0.0382311
192	0x3d16b053	0.03678925
193	0xbd8ae46d	-0.0678185
194	0x3c75b6a6	0.01499716
195	0xbc2d45b8	-0.010575704
196	0x3e570945	0.2099963
197	0x3e103643	0.14083199
198	0x3c2a9b2b	0.0104129715
199	0xbe8a1660	-0.26970196
200	0xbd389f67	-0.045073893
201	0x3dc3c002	0.09558107
202	0x3dfd173a	0.12357946
203	0x3d1a6f72	0.03770394
204	0xbe2c8817	-0.16848789
205	0xbd901b2e	-0.07036434
206	0x3c9d310e	0.01918843
207	0xbdb773a2	-0.08957602
208	0x3e3c2d19	0.18376578
209	0xbdca2b76	-0.09871571
210	0x3d97a899	0.07405204
211	0xbcc53724	-0.024074145
212	0xbe40dc0d	-0.18833943
213	0xbced52d9	-0.028970169
214	0xbdb92004	-0.090393096
215	0x3ceda775	0.029010514
216	0xbd1cb145	-0.038254995
217	0xbe33408b	-0.1750509
218	0x3e1c3fbf	0.15258692
219	0xbe868f6a	-0.2628129
220	0xbed1547d	-0.40884772
221	0xbe2ac32f	-0.16676019
222	0xbe33d20c	-0.17560595
223	0x3e25c025	0.16186579
224	0xbd0d3a01	-0.034479145
225	0xbdd61423	-0.104530595
226	0xbe440e49	-0.19146074
227	0x3e2fed85	0.1718045
228	0x3dd01fa5	0.10162286
229	0xbd1d8e75	-0.038465936
230	0x3c9768b3	0.018482542
231	0x3ddfaeb5	0.109219946
232	0xbe2c2f6b	-0.16814964
233	0x3c8195e9	0.015818553
234	0xbc00fa59	-0.0078721875
235	0x3e3f9c01	0.18711855
236	0xbdd2308e	-0.10263167
237	0x3e7bcec0	0.24590588
238	0x3eada232	0.33912808
239	0xbc6ad6c4	-0.014333431
240	0xbd0387c4	-0.032111898
241	0x3d022762	0.03177584
242	0x3e367326	0.17817363
243	0x3b990f2b	0.0046709976
244	0x3da1a437	0.078926496
245	0x3d8ac7c2	0.06776382
246	0xbddb4f3e	-0.107084736
247	0x3e0f992c	0.14023274
248	0x3dbeeb47	0.09322219
249	0xbc82dda5	-0.015974829
250	0x3e400f20	0.1875577
251	0xbd9f2582	-0.07770826
252	0x3d78b63c	0.060720667
253	0x3cf2ff45	0.029662738
254	0x3d68e336	0.05685731
255	0xbe3bbf66	-0.18334731

0.features.1.0.block.0.1.weight f4 [16]
0	0x3f73ed45	0.9528392
1	0x3f585787	0.84508556
2	0x3f773b62	0.96574986
3	0x3f6f0823	0.9337179
4	0x3f84f1ac	1.0386252
5	0x3f649cbd	0.89301664
6	0x3f6c28fa	0.92250025
7	0x3f7a7b5b	0.97844476
8	0x3f725399	0.9465881
9	0x3f787130	0.9704771
10	0x3f7ca1d5	0.98684436
11	0x3f732ace	0.9498719
12	0x3f7234f3	0.94612044
13	0x3f6dea76	0.92935884
14	0x3f7d89b8	0.9903827
15	0x3f5b0e94	0.8556912

0.features.1.0.block.0.1.bias f4 [16]
0	0x3ca68749	0.02032818
1	0x3c95842c	0.018251501
2	0x3e0f3ebd	0.13988777
3	0x3da55d6c	0.080744594
4	0x3db05924	0.08610752
5	0x3c6b642b	0.014367144
6	0x3de37363	0.11105993
7	0x3da11476	0.07865231
8	0x3d94abaa	0.07259305
9	0x3deb5837	0.11491435
10	0x3e10365b	0.14083235
11	0x3da4fd2b	0.080561005
12	0x3d6187b4	0.055061057
13	0x3d00127f	0.03126764
14	0x3d9b830d	0.07593355
15	0x3cbe83c2	0.023256186

0.features.1.0.block.0.1.running_mean f4 [16]
0	0x3e6be6ad	0.23037215
1	0xbe4288e7	-0.18997537
2	0x3e9de6f7	0.30840275
3	0x3c8b7864	0.01702518
4	0x3ed3beb7	0.4135644
5	0xbcc38de5	-0.023871372
6	0xbe8db2f9	-0.27675608
7	0x3cfd50f9	0.0309224
8	0x3e25ac9b	0.16179125
9	0x3e12b441	0.14326574
10	0x3e72c953	0.23709612
11	0x3d47daa3	0.048792493
12	0x3e71ddf4	0.23619825
13	0xbec5b8e3	-0.3861762
14	0x3c60050c	0.013673078
15	0x3d8e086f	0.06935202

0.features.1.0.block.0.1.running_var f4 [16]
0	0x402e216d	2.7207901
1	0x3f854cc6	1.0414054
2	0x402dd95e	2.716392
3	0x400b60c2	2.1777806
4	0x40318866	2.77395
5	0x405ba804	3.4321299
6	0x3ffaaf28	1.9584703
7	0x402057a8	2.50535
8	0x3fff784e	1.9958589
9	0x3f5dd33d	0.8665045
10	0x402bd71f	2.685005
11	0x3faae65b	1.3351549
12	0x404d4427	3.2072847
13	0x4033d450	2.8098335
14	0x4080ebac	4.0287685
15	0x3f631671	0.8870612

0.features.1.1.block.0.0.weight f4 [16, 16, 3, 3]
0	0xbe0e2684	-0.1388188
1	0xbd289d6e	-0.04116576
2	0xbd87cf7d	-0.06631372
3	0xbc9a9232	-0.01886854
4	0xbdac184b	-0.08403071
5	0x3c54bbb7	0.012984208
6	0x3e7f0a59	0.24906291
7	0x3d8f8f7c	0.07009789
8	0xbde10097	-0.10986441
9	0x3d6ffa8a	0.058588542
10	0x3da27d56	0.07934062
11	0x3ba692e2	0.0050834278
12	0x3db23962	0.08702351
13	0xbe167019	-0.146912
14	0xbdbe5b12	-0.09294714
15	0xbe27cacf	-0.16385959
16	0xbdcf6690	-0.10126984
17	0x3d549a6e	0.051905088
18	0x3e02389c	0.12716907
19	0x3c5b8aa7	0.0133997565
20	0xbdd4cf8e	-0.103911504
21	0x3d9b1946	0.0757318
22	0xbe1477ef	-0.14498876
23	0xbe4898bc	-0.19589514
24	0xbc0f2d9e	-0.008738903
25	0x3cac5b33	0.02103958
26	0x3be17b54	0.006881157
27	0xbcb1e61b	-0.021716168
28	0xbe09b848	-0.13449204
29	0xbe13af2b	-0.1442229
30	0xbd6bf6ca	-0.057608403
31	0x3dd4e053	0.10394349
32	0x3d4d6a2a	0.050150074
33	0x3e6cf5c2	0.23140624
34	0x3dc22cc3	0.09481194
35	0x3d580a76	0.05274435
36	0x3db5bc2d	0.08873782
37	0x3d90b09d	0.07064936
38	0x3de316cc	0.110883325
39	0x3d8a1ddb	0.06743976
40	0x3d7e7850	0.062126458
41	0x3b56ef96	0.0032796613
42	0x3e322fdd	0.17401071
43	0x3e334a3d	0.17508788
44	0xbd8ecab4	-0.06972256
45	0xbd7e11c7	-0.062028673
46	0xbe1e0704	-0.15432364
47	0xbe4e79ec	-0.20163697
48	0xbd0cfacc	-0.034418866
49	0xbb0ee72c	-0.002180527
50	0xbd94811e	-0.0725119
51	0xbd88686f	-0.06660544
52	0xbd442f74	-0.047896817
53	0xbd09ec3c	-0.033672556
54	0xbd2bdbb6	-0.04195758
55	0xbddf6979	-0.10908789
56	0xbe1ee181	-0.1551571
57	0x3d19f217	0.03758439
58	0x3c4ba1eb	0.012428741
59	0xbdecee57	-0.11568897
60	0x3dba64f6	0.09101288
61	0x3e11c130	0.14233851
62	0xbca78648	-0.020449772
63	0xbd6662ac	-0.056246445
64	0xbe31faf9	-0.17380895
65	0x3cbbb417	0.022913022
66	0x3e501508	0.20320523
67	0xbe03a716	-0.12856707
68	0xbe1c3f70	-0.15258574
69	0xbdabc7c7	-0.08387714
70	0xbe0f08ec	-0.13968247
71	0x3e714dc1	0.23564817
72	0xbe429ecc	-0.19005889
73	0x3dce1751	0.10063041
74	0xbc2024c8	-0.009774394
75	0xbe1e388b	-0.15451257
76	0xbc2ab8b7	-0.010420016
77	0xbb3479c7	-0.0027538405
78	0x3dfbd2ee	0.12296091
79	0xbd072343	-0.032992613
80	0x3e0c1e39	0.13683404
81	0xbce981cc	-0.028504275
82	0xbda37f55	-0.07983271
83	0x3e6306ae	0.22170517
84	0xbdc47c2a	-0.09593995
85	0x3e07ee09	0.13274397
86	0xbd8610fb	-0.065462075
87	0x3e113660	0.14180899
88	0xbc992b69	-0.018697457
89	0xbdb1a919	-0.08674831
90	0xbd79978e	-0.06093555
91	0x3b5b02c4	0.0033418396
92	0x3c52a771	0.012857304
93	0xbdc333f9	-0.09531397
94	0xbcdc19c1	-0.02686775
95	0x3d127a2c	0.035761043
96	0x3d20186b	0.039085787
97	0x3cda5c76	0.026655417
98	0xbdacd8cd	-0.08439789
99	0xb9f225c7	-0.00046185983
100	0x3e36800f	0.17822288
101	0xbb73588a	-0.003713163
102	0x3e04ff89	0.12988104
103	0x3e92fcba	0.2870844
104	0x3deec9cd	0.11659584
105	0xbcb000a5	-0.021484682
106	0xbdc60051	-0.09668029
107	0x3e45e09a	0.1932396
108	0x3c22e5b7	0.009942464
109	0x3b6155d0	0.0034383424
110	0xbdb1b79a	-0.08677597
111	0xbc57bcd5	-0.01316758
112	0x3db4337e	0.08798884
113	0x3ea66b72	0.3250385
114	0xbd691c47	-0.056911733
115	0x3d122f89	0.035689864
116	0x3d003ffe	0.031311028
117	0x3e3980e7	0.18115579
118	0x3be040d3	0.006843665
119	0xbe36cfc7	-0.17852698
120	0xbd606faa	-0.05479399
121	0x3e05b70d	0.1305811
122	0x3e561de0	0.20909834
123	0x3d1e4dca	0.038648404
124	0x3d1d181a	0.038353063
125	0x3c8ea9a0	0.017414868
126	0x3d8021af	0.06256425
127	0x3df2ea9d	0.11861155
128	0x3df6bb8d	0.12047491
129	0xbd64304c	-0.055710122
130	0x3d925919	0.071459
131	0x3de20d43	0.11037686
132	0x3ea4b115	0.32166353
133	0x3e49ec07	0.19718944
134	0xbe48f355	-0.19624074
135	0x3d94339d	0.07236407
136	0xbe79585e	-0.24350116
137	0x3d94be04	0.07262805
138	0xbbca5bee	-0.0061755097
139	0xbe65aca7	-0.22429143
140	0x3e4a2f1f	0.19744538
141	0xbd927695	-0.07151524
142	0xbdd15461	-0.10221172
143	0x3db84405	0.08997349
144	0x3e5c1bbb	0.21494953
145	0xbde91a18	-0.1138193
146	0xbd9bdf6b	-0.07610973
147	0x3e09e1a0	0.13464975
148	0x3e0f2447	0.13978682
149	0x3e33445f	0.1750655
150	0xbd19bace	-0.037531666
151	0xb9a4a29a	-0.00031401665
152	0x3d95d152	0.07315315
153	0x3ada713c	0.0016665827
154	0xbe0ebd74	-0.13939458
155	0xbe236363	-0.15955882
156	0xbe39b49a	-0.181353
157	0x3d095860	0.033531547
158	0x3d8aa0bf	0.06768941
159	0xbe6ca2f2	-0.23109034
160	0xbcae01f8	-0.021241173
161	0x3dd24a75	0.10268108
162	0xbcf5b301	-0.029992582
163	0x3e2bf9ed	0.16794558
164	0xbe11e61c	-0.14247936
165	0xbd56fd7d	-0.05248784
166	0x3d4bb803	0.049736034
167	0xbd8223b9	-0.0635447
168	0x3c9bd772	0.01902363
169	0x3ca68801	0.020328524
170	0x3e2b9901	0.16757585
171	0xbe02b3ea	-0.12763944
172	0xbd2adee2	-0.041716464
173	0x3dd402e9	0.103521176
174	0x3df5f270	0.12009132
175	0xbd311aa6	-0.043238305
176	0xbd882f86	-0.066496894
177	0xbca6adfb	-0.020346632
178	0xbdd0872d	-0.10182033
179	0xbd561cb4	-0.052273467
180	0x3c9a0b1b	0.018804124
181	0x3ce3629e	0.027756985
182	0x3d881318	0.06644267
183	0xbdb1dd17	-0.08684748
184	0x3d978e0a	0.07400139
185	0xbc169f0b	-0.009193192
186	0x3d9092a2	0.07059218
187	0x3de045ee	0.10950838
188	0x3e0b0f0f	0.13579963
189	0x3d1b19af	0.03786629
190	0x3d772725	0.060340066
191	0xbc87385a	-0.016506363
192	0x3e5445fe	0.20729825
193	0x3c51d294	0.012806553
194	0x3dbdf984	0.09276107
195	0x3e7745a2	0.24147657
196	0xbda90db2	-0.08254565
197	0x3e0ab0cc	0.13544005
198	0x3e152f59	0.14568843
199	0xbe207bb6	-0.15672192
200	0xbb839b82	-0.0040163407
201	0xbc018949	-0.0079062665
202	0x3d81eacf	0.06343614
203	0x3ea3cc81	0.31991962
204	0xbdf1b908	-0.1180287
205	0xbe037519	-0.12837638
206	0xbe40290f	-0.18765663
207	0x3e033cc5	0.1281615
208	0x3da50289	0.08057124
209	0x3d95793e	0.07298516
210	0xbe2148c1	-0.1575041
211	0x3d1ba545	0.03799941
212	0x3ce20919	0.027592229
213	0xbcc6ad73	-0.024252629
214	0x3e634ac8	0.22196496
215	0xbd84a27e	-0.064763054
216	0x3cfb440f	0.030672101
217	0xbc93067a	-0.017947424
218	0x3e14440a	0.1447908
219	0x3e4275d1	0.18990256
220	0xbc699f76	-0.01425921
221	0xbe12a3a1	-0.14320232
222	0x3dfb31c5	0.12265352
223	0x3df72a2f	0.12068593
224	0x3d660abc	0.05616258
225	0x3ceb469e	0.028720196
226	0xbe0c1021	-0.13678028
227	0xbe2d239f	-0.1690812
228	0xbda199be	-0.07890652
229	0xbd2468ab	-0.04013888
230	0x3e023896	0.12716898
231	0xba18f95c	-0.0005835497
232	0x3ddd393b	0.108019315
233	0x3da3250e	0.07966052
234	0xbd0860fa	-0.03329561
235	0xbbfea116	-0.007770668
236	0x3dd46cb9	0.103723
237	0xbd9f088e	-0.077653036
238	0x3cd94b45	0.02652515
239	0xbd7eaaf9	-0.06217477
240	0xbe8726f6	-0.26396912
241	0xbe530d79	-0.20610608
242	0xbdca8975	-0.09889499
243	0x3d24f105	0.040268917
244	0x3decff22	0.115721
245	0xbe775021	-0.2415166
246	0x3dc526d9	0.0962655
247	0xbcfe1ada	-0.031018663
248	0x3c25afaf	0.010112687
249	0xbd74e110	-0.05978495
250	0xbd6bcc6e	-0.057568006
251	0xbe0e640b	-0.13905351
252	0x3c8176bc	0.015803687
253	0xbe59fb9c	-0.21287388
254	0xbc620f40	-0.013797581
255	0xbcd0b319	-0.025476025

0.features.1.1.block.0.1.weight f4 [16]
0	0x3f68138a	0.90654814
1	0x3f552f6e	0.83275497
2	0x3f6c6330	0.9233885
3	0x3f66f2d5	0.9021428
4	0x3f5fd78a	0.8743826
5	0x3f66aefe	0.90110767
6	0x3f6fca40	0.93667984
7	0x3f61c1c8	0.8818631
8	0x3f634163	0.8877165
9	0x3f56f53b	0.8396794
10	0x3f48ec17	0.78485245
11	0x3f711e71	0.94187075
12	0x3f6497ad	0.8929394
13	0x3fb2b821	1.3962442
14	0x3f6ccdf1	0.9250174
15	0x3f623738	0.8836551

0.features.1.1.block.0.1.bias f4 [16]
0	0x3d3ff02c	0.046859905
1	0x3dbc3efd	0.091917016
2	0xbb1d818c	-0.0024033515
3	0xbd72a0e3	-0.059235465
4	0xbd3ecaae	-0.04658001
5	0xbc83b11f	-0.016075669
6	0x3d701abc	0.058619246
7	0x3cc3a6ec	0.023883305
8	0x3c6ed1c5	0.01457638
9	0xbcbdd616	-0.023173373
10	0xbd5381b1	-0.051637355
11	0x3dc8102f	0.09768712
12	0xbd47e78c	-0.048804805
13	0xbe2410aa	-0.16021982
14	0xbc69f4eb	-0.014279584
15	0xbd4f6b1d	-0.05063926

0.features.1.1.block.0.1.running_mean f4 [16]
0	0x3f12479b	0.5714051
1	0x3ec6022c	0.38673532
2	0x3e749423	0.23884635
3	0x3d95aad1	0.07307971
4	0x4001c7e9	2.0278265
5	0x3f4f4901	0.8097077
6	0xbf003fe5	-0.50097495
7	0xbf9d6d26	-1.2298934
8	0x3dd244b7	0.102670126
9	0x3f531126	0.8244804
10	0xbeb0b4d9	-0.34512976
11	0x3f283d61	0.65718657
12	0x3e18f5ef	0.14937566
13	0xc0091787	-2.142061
14	0xbf9369a1	-1.151661
15	0xbeb50fed	-0.35363713

0.features.1.1.block.0.1.running_var f4 [16]
0	0x40895e7e	4.2927847
1	0x402935d9	2.6439116
2	0x409a5c4d	4.823767
3	0x413be6a8	11.743813
4	0x4096fc36	4.7182875
5	0x40d9dac6	6.8079557
6	0x40b8c0fc	5.7735577
7	0x41124ba4	9.143467
8	0x409ea38c	4.957464
9	0x408bee00	4.3728027
10	0x4023fa7f	2.562164
11	0x40dab8db	6.8350654
12	0x408f5f48	4.480381
13	0x3fffa797	1.9973019
14	0x40ba63a6	5.824664
15	0x40e67406	7.201663

0.features.2.0.block.0.0.weight f4 [64, 16, 3, 3]
0	0x3caf6358	0.021409675
1	0x39a9973b	0.00032346867
2	0x3d9b2714	0.07575813
3	0xbc9851d4	-0.018593706
4	0x3d89f9a0	0.06737065
5	0x3ca575e5	0.020197818
6	0xbd0db266	-0.034593962
7	0xbd0448ea	-0.0322961
8	0x3cfeb5a6	0.031092476
9	0xbd8e96f6	-0.06962387
10	0x3d2fcebc	0.042921767
11	0xbd04495d	-0.032296527
12	0xbdba9d0f	-0.09111988
13	0xbe5e90e5	-0.2173496
14	0x3bc39261	0.0059683775
15	0xbce10328	-0.027467325
16	0xbd644b55	-0.055735905
17	0xbddea857	-0.10871952
18	0xbc83f861	-0.016109647
19	0xbc8f2fe3	-0.017478889
20	0xbc297a3e	-0.010344086
21	0x3c438e03	0.011935714
22	0xbddde40b	-0.10834511
23	0xbd5b8bd6	-0.053600155
24	0xbdb5803a	-0.08862348
25	0xbda19fa0	-0.07891774
26	0xbc0e7bf2	-0.008696543
27	0x3dbbd5e7	0.09171658
28	0xbcc52439	-0.024065124
29	0xbd831d9f	-0.06402134
30	0xbd9a659a	-0.0753891
31	0x3daa1e2b	0.08306535
32	0x3d3e7521	0.04649842
33	0x3c4d2060	0.012519926
34	0xbc681a93	-0.014166492
35	0x3bc16dd2	0.005902984
36	0xbd4a36b0	-0.04936856
37	0xbdf4c924	-0.11952427
38	0xbd05acba	-0.032635428
39	0xbe1ba55c	-0.15199798
40	0xbcd6d02e	-0.026222315
41	0xbe043052	-0.12909058
42	0xbd31e5b6	-0.04343196
43	0xbd4e6fd1	-0.050399605
44	0xbcac9d51	-0.021071108
45	0xbb161612	-0.0022901339
46	0x3cbfa566	0.023394298
47	0xbd8ae899	-0.06782646
48	0x3d389d84	0.045072094
49	0x3dbdc09b	0.09265252
50	0xbd24d27a	-0.04023979
51	0x3cc07f5a	0.023498226
52	0x3dbb51d3	0.09146466
53	0x3d91c461	0.071175344
54	0xbd363a8a	-0.04448942
55	0x3c5c37b8	0.013441019
56	0xbad673ab	-0.0016361376
57	0xbdc97dd3	-0.09838452
58	0xbe14f0a0	-0.14544916
59	0x3ce51fd8	0.027969286
60	0x3db87d78	0.09008306
61	0xbda68626	-0.081310555
62	0xbd68e97a	-0.056863286
63	0xbccb95fa	-0.024851788
64	0x3d0aba50	0.033869088
65	0xbcb61997	-0.022228999
66	0xbd623652	-0.055227585
67	0x3d84dc91	0.06487382
68	0xbd3762bd	-0.0447719
69	0x3c266edf	0.01015827
70	0xbd17da47	-0.0370734
71	0xbd9c5634	-0.076336294
72	0x3d622d65	0.055219073
73	0xbd75c307	-0.060000446
74	0xbdbca599	-0.09211273
75	0x3d30ce43	0.043165457
76	0x3c963704	0.01833678
77	0x3d9f637d	0.07782648
78	0x3d1d9590	0.038472712
79	0xbcf0615a	-0.029343296
80	0xbb3adfba	-0.00285147
81	0xbd025842	-0.03182245
82	0xbdd59eee	-0.10430704
83	0x3d598389	0.053103957
84	0x3d23da04	0.040002838
85	0x3a49e2f2	0.0007701359
86	0xbda4c1eb	-0.080447994
87	0xbd0ef55d	-0.034901965
88	0xbd0e4f1c	-0.034743413
89	0xbce1add8	-0.027548715
90	0xbb2e6949	-0.0026613048
91	0xbc43876a	-0.011934141
92	0x3c5721e6	0.013130641
93	0x3c9d185a	0.01917665
94	0xbd8ad633	-0.067791365
95	0xbd2adf2a	-0.041716732
96	0xbda88ffa	-0.08230586
97	0xbe124222	-0.1428304
98	0xbd347c20	-0.044063687
99	0xbc85df82	-0.016341928
100	0xbd5b6c38	-0.053570002
101	0x3d0b7bee	0.034053735
102	0xbd905afe	-0.070486054
103	0xbd28d638	-0.04121992
104	0x3cddba69	0.027066426
105	0xbc989cef	-0.01862952
106	0x3cf12391	0.029435905
107	0xbbcb436c	-0.0062031057
108	0xbd130372	-0.035891958
109	0x3e1381d7	0.14404999
110	0xbd7f300d	-0.062301684
111	0x3d9cd173	0.07657137
112	0xbd4c7159	-0.049912784
113	0x3db646f0	0.08900249
114	0x3cc07b03	0.023496157
115	0x3d3480f3	0.044068288
116	0x3ce279c0	0.027645946
117	0x3da7459f	0.08167576
118	0xbc2e32db	-0.010632242
119	0x3daebeb0	0.085324645
120	0x3d2ed7f1	0.042686407
121	0xbda8b9fb	-0.08238598
122	0xbdd19cdf	-0.10234999
123	0x3dca075e	0.098646864
124	0x3c95c68c	0.018283151
125	0x3d801635	0.06254236
126	0xbce22e70	-0.027610034
127	0x3d9dd13c	0.07705924
128	0x3be5cc3d	0.0070128725
129	0xbda8aa63	-0.08235624
130	0xbb4af2b6	-0.003096742
131	0x3d613afd	0.054987896
132	0xbdbf50db	-0.09341594
133	0x3d8628d1	0.06550754
134	0x3d964f1a	0.07339306
135	0xbd6ee36d	-0.05832236
136	0x3d8b3e76	0.06799023
137	0x3d6c7b93	0.057735037
138	0x3c5d960d	0.013524544
139	0x3b45bf7a	0.0030173943
140	0xbcbe73bf	-0.023248551
141	0xbd49fa28	-0.049310833
142	0x3d342a21	0.04398549
143	0x3d64bb8d	0.055842925
144	0x3d7dddfe	0.061979286
145	0x3d8b9c45	0.068169154
146	0xbb7843d0	-0.0037882216
147	0x3d5625a4	0.05228199
148	0xbcee6576	-0.029101115
149	0xbd0ae086	-0.03390553
150	0x3c78fd4d	0.01519711
151	0xbdee12e4	-0.11624697
152	0x3c076ece	0.008266164
153	0xbd938d99	-0.07204742
154	0xbd3d54c7	-0.046223428
155	0xbaffbbdf	-0.0019510946
156	0x3d30bf42	0.043151148
157	0x3d55b4d3	0.0521744
158	0x3c3f1c41	0.011664451
159	0x3c227edb	0.00991794
160	0xbce5f1a0	-0.028069317
161	0x3d832e12	0.064052716
162	0xbe029571	-0.1275232
163	0xbc0c36ae	-0.0085579585
164	0xbc0b04bd	-0.008485016
165	0x3d528239	0.05139372
166	0x3bb71f8b	0.005588477
167	0xbbc8fbe6	-0.0061335443
168	0xbb46e3ef	-0.0030348261
169	0xbba4681b	-0.005017293
170	0xbc1f7ea8	-0.009734787
171	0x3d58f2f0	0.05296606
172	0xbc04cc85	-0.008105402
173	0x3d4df655	0.05028375
174	0xbd22407d	-0.039612282
175	0xbdac3c56	-0.08409946
176	0xbca921eb	-0.020646056
177	0xbd1957ca	-0.037437238
178	0x399a8bad	0.00029477236
179	0x3b995b77	0.004680093
180	0xbd6528ee	-0.055947237
181	0x3cc76285	0.02433897
182	0x3d6c4671	0.057684366
183	0x3d55950e	0.052144103
184	0x3d77d5e3	0.060506713
185	0x3d28dfc0	0.04122901
186	0x3d8b3f4b	0.067991816
187	0x3d381e13	0.044950556
188	0x3d81db97	0.063407116
189	0x3b9db5c5	0.0048129284
190	0x3cb0bc7b	0.02157425
191	0xbd1419f5	-0.036157567
192	0xbbe4c014	-0.0069809053
193	0xbbe42cd5	-0.006963352
194	0xbc8fca8e	-0.01755264
195	0xbd892975	-0.066973604
196	0xbceeb191	-0.029137405
197	0xbcdb5651	-0.026774557
198	0x3daea113	0.08526816
199	0x3d3dcd61	0.046338443
200	0x3d3cb0e3	0.04606713
201	0x3da1e2d9	0.07904596
202	0xbd63003a	-0.055420138
203	0xbc91b36f	-0.017785756
204	0x3d6180bb	0.055054408
205	0x3e199e7e	0.15001866
206	0xbc81adce	-0.015829947
207	0xbca3c4b9	-0.019991266
208	0xbcff7195	-0.03118209
209	0x3bde490c	0.00678361
210	0x3d9cb070	0.0765084
211	0x3da89d5b	0.08233138
212	0x3dc63abc	0.096791714
213	0x3d572d9b	0.052533727
214	0xbc09cd2b	-0.008410732
215	0xbd907919	-0.070543475
216	0x3d9d8f80	0.07693386
217	0x3db4860b	0.08814629
218	0x3d005375	0.03132959
219	0x3d12956e	0.03578704
220	0xbd24be01	-0.040220264
221	0xbd929dbe	-0.07158993
222	0x3bd07541	0.006361634
223	0xbda195bc	-0.07889888
224	0xbc57d39d	-0.013173011
225	0xbdf8d886	-0.121506736
226	0x3c4a4502	0.012345554
227	0x3c8f0dad	0.017462576
228	0x3cef0067	0.029174997
229	0xbe05e9a5	-0.1307741
230	0xbd1e996f	-0.038720544
231	0x3d6a188a	0.05715231
232	0x3c7cf0fd	0.015438315
233	0xbdb77c0e	-0.089592084
234	0xbd5a1bd0	-0.05324918
235	0x3c5a7b9e	0.013335137
236	0x3c9982ac	0.018739067
237	0x3de21c27	0.11040526
238	0xbb8a384f	-0.0042181383
239	0x3ca340ae	0.019928303
240	0x3c7b0605	0.015321259
241	0x3e009048	0.12555039
242	0x3d4f391c	0.050591573
243	0xbcaa562d	-0.020793045
244	0x3d3cf7d5	0.04613479
245	0x3d12449a	0.035709955
246	0x3dc2a45a	0.09504004
247	0x3da995f2	0.08280553
248	0x3d23237f	0.039828774
249	0x3d7b88c6	0.061409734
250	0x3df52c9c	0.11971399
251	0x3dc15481	0.09439946
252	0x39d72cee	0.0004104147
253	0x3ce0dfc4	0.02745045
254	0x3cfa18dd	0.030529434
255	0x3cf26dd6	0.02959339

0.features.2.0.block.0.1.weight f4 [64]
0	0x3f71a439	0.9439121
1	0x3f61c3a3	0.8818914
2	0x3f8ab0a8	1.0835161
3	0x3f71886b	0.9434878
4	0x3f670991	0.9024897
5	0x3f65e349	0.89799935
6	0x3f7c0747	0.98448604
7	0x3f7ad0c9	0.9797483
8	0x3f861dfb	1.0477899
9	0x3f6676fb	0.900253
10	0x3f85b1d4	1.0444894
11	0x3f90ba8c	1.130693
12	0x3f7f8c4a	0.9982344
13	0x3f6b7cdb	0.9198739
14	0x3f7f744b	0.99786824
15	0x3f78ac63	0.9713804
16	0x3f5fc75b	0.8741357
17	0x3f68c03a	0.90918314
18	0x3f65b5f3	0.8973076
19	0x3f7cefdb	0.9880349
20	0x3f778cda	0.966993
21	0x3f820489	1.0157634
22	0x3f77a861	0.967413
23	0x3f740a82	0.95328534
24	0x3f65d652	0.8978015
25	0x3f72e08e	0.94873893
26	0x3f71bd9e	0.9442996
27	0x3f72b892	0.9481288
28	0x3f765591	0.96224314
29	0x3f6c824f	0.92386335
30	0x3f629bf1	0.885192
31	0x3f7841f0	0.9697561
32	0x3f64b60d	0.8934029
33	0x3f807dcc	1.003839
34	0x3f8256be	1.0182722
35	0x3f854491	1.041155
36	0x3f82de15	1.0224024
37	0x3f816bf8	1.0111074
38	0x3f68d4bf	0.90949625
39	0x3f6f9079	0.9357982
40	0x3f772016	0.96533334
41	0x3f62e67f	0.8863296
42	0x3f73768e	0.95102775
43	0x3f70bbf3	0.9403679
44	0x3f710cb3	0.9416
45	0x3f720570	0.94539547
46	0x3f77d74c	0.9681289
47	0x3f640811	0.8907481
48	0x3f74782d	0.95495874
49	0x3f69636e	0.9116734
50	0x3f6905f6	0.9102472
51	0x3f730b32	0.9493896
52	0x3f885779	1.0651695
53	0x3f73a3c5	0.9517177
54	0x3f7e6e58	0.9938712
55	0x3f6dd180	0.92897797
56	0x3f66c845	0.9014934
57	0x3f70dc21	0.9408589
58	0x3f7c8efa	0.98655665
59	0x3f79cf74	0.97582173
60	0x3f8a12ed	1.0787026
61	0x3f79a897	0.9752287
62	0x3f770a18	0.96499777
63	0x3f76b21e	0.96365535

0.features.2.0.block.0.1.bias f4 [64]
0	0x3d44ddc9	0.048063073
1	0x3d981cc8	0.074273646
2	0xbdc48623	-0.09595897
3	0x3cb0faae	0.021603908
4	0x3d044f51	0.032302205
5	0x3d74c0da	0.05975423
6	0x3d959bcd	0.07305107
7	0x3dcef7d8	0.10105866
8	0x3befee25	0.00732209
9	0xbc6e8306	-0.014557606
10	0xbdb37a76	-0.08763592
11	0xbd2b3020	-0.041793942
12	0x3e066605	0.13124855
13	0x3d8d0dd9	0.06887407
14	0x3d8c2ff2	0.06845082
15	0x3d832420	0.06403375
16	0xbd2b53b5	-0.041827876
17	0x3d6f12e0	0.05836761
18	0x3d8a6481	0.06757451
19	0xbbb210db	-0.0054341382
20	0x3c96a72d	0.018390262
21	0x3d1d2a0d	0.03837018
22	0x3daba26f	0.08380591
23	0x3dcd3cd3	0.10021367
24	0x3e499355	0.19685109
25	0x3dc12930	0.09431684
26	0x3e139692	0.14412907
27	0xbc50c4d0	-0.012742236
28	0x3d6d95b3	0.058004092
29	0x3da0bd6b	0.078486286
30	0x389b7c88	7.414172e-05
31	0x3d6ed517	0.058308687
32	0x3cda573e	0.026652928
33	0xbdcaa1e4	-0.098941594
34	0xbbf086b6	-0.0073402775
35	0x3d029ad7	0.031885948
36	0x3d915f23	0.07098224
37	0x3dc46234	0.09589043
38	0xbcf84df8	-0.030310616
39	0xbc8b7a22	-0.01702601
40	0xbc16d639	-0.009206348
41	0x3d56349d	0.05229627
42	0x3de930ba	0.11386247
43	0x3d837f04	0.06420711
44	0x3dd66884	0.104691535
45	0x3d9ab063	0.07553174
46	0x3e00c9b2	0.1257694
47	0x3d5d2d00	0.053997993
48	0x3d857307	0.0651608
49	0x3d80be6f	0.06286322
50	0x3d401495	0.04689463
51	0x3d1e0481	0.038578514
52	0x3d991f9a	0.07476731
53	0x3da7ec09	0.08199317
54	0x3d664d2f	0.05622595
55	0x3daea9eb	0.08528503
56	0x3e630881	0.22171213
57	0x3de80423	0.11328914
58	0x3cd7dd90	0.026350766
59	0x3cc39c5c	0.023878269
60	0x39d282a2	0.0004015165
61	0x3c65e1cc	0.014030885
62	0x3d8aed94	0.06783596
63	0x3d5c8f33	0.053847503

0.features.2.0.block.0.1.running_mean f4 [64]
0	0xbf8a1311	-1.0787069
1	0x3ebc6ce7	0.36801836
2	0xbe0cddae	-0.13756439
3	0xbe232def	-0.15935491
4	0xbd12a8f5	-0.03580566
5	0x3e4a40d0	0.19751287
6	0xbb641560	-0.003480278
7	0x3d135102	0.035965927
8	0xbf3747f3	-0.7159416
9	0xbefd866c	-0.49516618
10	0xbd3283cb	-0.04358272
11	0x3e208cf2	0.15678766
12	0xbdd654a8	-0.10465366
13	0xbf47ae73	-0.78000563
14	0xbdac52ea	-0.08414252
15	0x3c5ecbcb	0.013598393
16	0xbf567278	-0.83768415
17	0xbe23029b	-0.15918963
18	0x3d02ba0a	0.031915702
19	0xbf1e2746	-0.61778677
20	0x3e2c9222	0.1685262
21	0xbd7c0f23	-0.061537873
22	0x3f96ea04	1.1790166
23	0x3e91793e	0.28412813
24	0x3e076181	0.13220789
25	0xbf2d946b	-0.6780459
26	0x3eafe578	0.34354758
27	0xbf3995d9	-0.72494274
28	0xbf38e124	-0.7221854
29	0xbea48259	-0.32130697
30	0xbf98c95f	-1.1936454
31	0xbe1924f2	-0.149555
32	0xbf0cfd1e	-0.55073726
33	0x3ea0f069	0.31433418
34	0xbda254b7	-0.07926314
35	0xbf07c7f1	-0.5303946
36	0x3e84f67a	0.25969297
37	0x3eaabe82	0.3334847
38	0xbf3c06f2	-0.734481
39	0xbf3fd3d7	-0.74932617
40	0xbf6fce54	-0.93674207
41	0x3e184ee6	0.14873847
42	0x3c9e451d	0.019320065
43	0xbf61c66d	-0.881934
44	0x3ee5fb29	0.44918182
45	0x3fac9494	1.3482842
46	0x3f6bb07e	0.9206618
47	0x3f64f440	0.89435196
48	0x3fa3c57b	1.2794641
49	0x3f1f45ea	0.62216055
50	0xbebcaf8d	-0.36852685
51	0xbf436b7a	-0.7633587
52	0x3eb42466	0.3518402
53	0x3f9caa0d	1.2239395
54	0xbeda88ac	-0.42682397
55	0xbec964ea	-0.39334804
56	0x3f31cab8	0.6944995
57	0xbe9654b2	-0.29361492
58	0x3aaf653a	0.0013381608
59	0xbd8228b6	-0.06355421
60	0xbdcbe9de	-0.09956716
61	0xbef58657	-0.47954056
62	0xbd0be803	-0.03415681
63	0xbf14480a	-0.5792242

0.features.2.0.block.0.1.running_var f4 [64]
0	0x406ebc1c	3.7302313
1	0x4005583b	2.0835102
2	0x3f8f451e	1.1192968
3	0x40ceb0c0	6.459076
4	0x40421214	3.0323534
5	0x3f3fa0e3	0.7485487
6	0x3fc623d7	1.5479687
7	0x40823f7b	4.070249
8	0x3fdef7c3	1.7419361
9	0x4008ac28	2.1355076
10	0x3f506262	0.8140012
11	0x3f66205f	0.89893144
12	0x4045ff2c	3.0936995
13	0x4020398c	2.5035124
14	0x40556a73	3.3346221
15	0x40503a4a	3.2535577
16	0x4055664e	3.3343692
17	0x4022fbb3	2.5466125
18	0x3fba0dd7	1.4535474
19	0x3fb63c4b	1.423715
20	0x40634606	3.551149
21	0x3fabf422	1.3433878
22	0x4083399e	4.1007833
23	0x3ffabc82	1.9588778
24	0x3fe27b43	1.7693866
25	0x40a207af	5.063438
26	0x40097f7d	2.1484063
27	0x402d8bc2	2.7116551
28	0x406a73e2	3.663323
29	0x3fba7103	1.4565738
30	0x3fca4f78	1.5805502
31	0x3fc90e58	1.5707502
32	0x3fe183a0	1.7618294
33	0x3f9a9fd2	1.2080023
34	0x3fef23bb	1.8682779
35	0x400d15a5	2.204446
36	0x40599af7	3.4000833
37	0x4016532d	2.3488266
38	0x403b7517	2.9290216
39	0x40790bfe	3.891357
40	0x401b3d38	2.4256115
41	0x4069e0a2	3.6543355
42	0x3ff122fb	1.88388
43	0x404f9d15	3.2439625
44	0x3fa12681	1.2589875
45	0x404fd01b	3.2470767
46	0x4004f02a	2.0771585
47	0x3fc6d99e	1.5535161
48	0x4015eb4c	2.3424864
49	0x400280f5	2.039121
50	0x3fbca8d8	1.4739027
51	0x40220618	2.531622
52	0x40060fa5	2.0947049
53	0x4021a7de	2.5258708
54	0x403e91df	2.9776533
55	0x40844058	4.1328545
56	0x3fe617ff	1.7976073
57	0x3fe7bc65	1.8104368
58	0x405bccfc	3.4343863
59	0x4076e740	3.8578644
60	0x401eeb27	2.4831026
61	0x3fa60d51	1.2972814
62	0x402de684	2.7171946
63	0x4000fcf6	2.0154395

0.features.2.0.block.1.0.weight f4 [32, 64, 1, 1]
0	0x3f02d9ec	0.5111377
1	0x3db4fb26	0.08836965
2	0xbebf31b9	-0.37342623
3	0xbe33bc47	-0.17552291
4	0x3e6d0810	0.23147607
5	0x3ded7b6f	0.11595809
6	0x3e8c4876	0.27399033
7	0xbe7780db	-0.24170248
8	0xbd05cf9f	-0.032668706
9	0xbd904a8e	-0.0704547
10	0xbf06569f	-0.52475923
11	0xbeee858c	-0.46586263
12	0x3db6ea43	0.089314006
13	0x3f2ddcce	0.67915046
14	0x3ec9fc45	0.3945028
15	0x3c30a5f9	0.010781758
16	0xbe8a5c65	-0.27023616
17	0x3ec9adbb	0.39390358
18	0x3d26dc1b	0.040737253
19	0xbf239087	-0.63892406
20	0x3eb58256	0.35451
21	0x3dad251e	0.08454345
22	0x3eea92de	0.45815176
23	0xbd14b267	-0.03630295
24	0x3e824146	0.25440425
25	0xbe78a018	-0.24279821
26	0xbde59d56	-0.1121165
27	0xbdf7f402	-0.12107088
28	0x3e5773f6	0.2104033
29	0x3eb266a7	0.34843943
30	0x3d727cd7	0.059201088
31	0xbe988e52	-0.29796082
32	0xbe3a686d	-0.18203898
33	0xbd8bcf2e	-0.06826626
34	0x3e007d4b	0.12547795
35	0x3d5d8a19	0.05408678
36	0xbeddaabd	-0.43294325
37	0xbee3b7cf	-0.44476172
38	0xbc801046	-0.01563276
39	0xbed9b185	-0.4251825
40	0xbe973556	-0.2953288
41	0xbe768727	-0.24074994
42	0xbe9c202e	-0.304933
43	0xbe9bb8ad	-0.30414334
44	0xbe333c53	-0.1750348
45	0xbd2b9dad	-0.04189842
46	0xbd80ae09	-0.062831946
47	0xbe5eb0f6	-0.21747193
48	0x3e57a1a8	0.2105776
49	0xbe8401a9	-0.25782517
50	0x3e24e1c1	0.16101743
51	0xbe38d6ed	-0.18050738
52	0x3e4a00a6	0.1972681
53	0x3ea39fe1	0.31957915
54	0x3e983432	0.29727322
55	0xbe3cceaf	-0.18438219
56	0x3e11c1cf	0.14234088
57	0x3db1e092	0.086854115
58	0xbe828737	-0.25493786
59	0xbde5c634	-0.11219445
60	0xbf174e1b	-0.59103554
61	0x3e30b7cf	0.17257617
62	0xbe0de0d0	-0.1385529
63	0xbe44aca7	-0.19206487
64	0x3e30ac6e	0.17253277
65	0x3dbd9c64	0.09258345
66	0xbd30f532	-0.043202586
67	0x3e43dd2d	0.1912734
68	0xbec422ce	-0.38307804
69	0x3d9d2667	0.0767334
70	0xbe5faf31	-0.21844174
71	0x3e2cd07f	0.1687641
72	0x3d07dc45	0.03316905
73	0xbe4f6636	-0.20253834
74	0x3ee70507	0.45121023
75	0xbd47f3d2	-0.04881651
76	0x3d774209	0.06036571
77	0x3d638455	0.055546124
78	0x3e8d0688	0.27544045
79	0xbea52005	-0.3225099
80	0xbe254a26	-0.16141567
81	0xbdfeb69a	-0.12437172
82	0xbe40a3aa	-0.18812433
83	0x3d5ac006	0.053405784
84	0xbe08ffc1	-0.13378812
85	0x3d8387f8	0.06422418
86	0x3e8b6a7d	0.27229682
87	0xbeb85326	-0.36000937
88	0xbec0620c	-0.37574804
89	0xbece5de7	-0.40306017
90	0x3e8d3a20	0.27583408
91	0xbdf36fea	-0.1188658
92	0xbea75664	-0.32683098
93	0xbeed17d8	-0.46307254
94	0x3e1c5b29	0.1526915
95	0x3e4ea407	0.20179759
96	0x3e4ccc87	0.19999896
97	0x3e9d079c	0.30669868
98	0x3ded5e4b	0.115902506
99	0xbe49266b	-0.19643562
100	0xbec03583	-0.37540826
101	0xbdd8a717	-0.10578745
102	0xbd615750	-0.05501491
103	0x3e347e85	0.17626388
104	0x3d8e5b1b	0.06950971
105	0xbcb03e9c	-0.02151423
106	0xbd91f13d	-0.07126091
107	0xbcd45174	-0.025917746
108	0x3e6b2168	0.22961962
109	0x3eace015	0.3376471
110	0xbe5d76be	-0.21627328
111	0xbdaf9372	-0.08573045
112	0x3b880dd9	0.0041520414
113	0x3e74b23a	0.23896113
114	0x3ed4a51d	0.4153222
115	0x3e903772	0.281673
116	0xbe07572f	-0.13216852
117	0xbe8d9f46	-0.27660578
118	0x3e848cc3	0.25888643
119	0xbf1a2387	-0.6021046
120	0xbc321af3	-0.010870683
121	0xbe85466a	-0.26030284
122	0x3e34e85a	0.1766676
123	0xbe0eb3f7	-0.13935839
124	0xbe1217ec	-0.14266938
125	0xbe6f510e	-0.23370764
126	0x3f11813f	0.5683784
127	0xbe82c068	-0.2553742
128	0x3cb96de9	0.022635417
129	0xbd732534	-0.05936165
130	0x3ecc65e4	0.39921486
131	0x3dff9e64	0.124813825
132	0xbe9b4930	-0.30329275
133	0x3ed9ccf7	0.42539188
134	0x3eb9d44c	0.36294782
135	0x3f12c574	0.5733254
136	0xbe46ff6c	-0.19433373
137	0x3b0e0327	0.002166936
138	0x3dea6673	0.11445322
139	0xbe78986b	-0.24276893
140	0xbe3038a8	-0.17209113
141	0x3ea0a124	0.3137294
142	0x3dfbeca9	0.12300999
143	0xbe096d22	-0.13420537
144	0xbcb99fbe	-0.022659179
145	0xbebda65b	-0.37040982
146	0xbe9eed1c	-0.31040275
147	0x3e64efa1	0.22357036
148	0xbe83a8e9	-0.25714806
149	0xbe054c12	-0.130173
150	0x3e309dd9	0.17247714
151	0x3de2fd66	0.11083488
152	0xbea0e99b	-0.31428227
153	0x3e51e980	0.2049923
154	0xbeab5502	-0.33463293
155	0x3e65f03b	0.22454922
156	0x3e50cf91	0.2039168
157	0xbd7deafc	-0.061991677
158	0xbf0051a2	-0.5012456
159	0xbdea1fdd	-0.11431859
160	0x3db78174	0.08960238
161	0x3e8add0f	0.2712178
162	0xbc8de687	-0.017321838
163	0x3e2ba566	0.16762313
164	0x3eb547a3	0.35406217
165	0xbe331113	-0.17486982
166	0x3e2c01c3	0.16797547
167	0x3d8ba573	0.06818666
168	0x3e854211	0.26026967
169	0xbead6c4f	-0.33871695
170	0xbe3557fc	-0.17709345
171	0x3e05cf34	0.13067323
172	0xbe35597d	-0.17709918
173	0x3e8cd568	0.27506566
174	0x3e761c7d	0.24034305
175	0xbd88306f	-0.06649863
176	0xbe684025	-0.22680719
177	0xbe01f9c9	-0.12692942
178	0x3e543f3b	0.20727246
179	0xbef50d38	-0.47861648
180	0xbd7966f0	-0.060889184
181	0xbea0b882	-0.31390768
182	0xbe641937	-0.22275244
183	0xbf1ddf63	-0.61668986
184	0x3e979ea7	0.2961323
185	0xbe30c683	-0.17263226
186	0xbe328f10	-0.17437387
187	0xbea7ee0f	-0.32798812
188	0x3eabc56a	0.33549052
189	0xbdfded61	-0.12398792
190	0xbde1eec3	-0.11031868
191	0x3db13af0	0.086538196
192	0x3e3934a9	0.18086495
193	0x3c4c434c	0.012467217
194	0x3d9b7743	0.07591107
195	0x3e668487	0.22511493
196	0xbde5be8d	-0.11217985
197	0xbe5c6023	-0.21521048
198	0xbe9a98fe	-0.3019485
199	0xbd994904	-0.0748463
200	0x3bade446	0.0053067533
201	0xbeead9e3	-0.4586936
202	0x3d58df05	0.052947063
203	0xbe79c3d0	-0.24391103
204	0x3e74aa97	0.238932
205	0xbd6402b2	-0.055666633
206	0xbe80918e	-0.2511105
207	0x3e2acacb	0.16678922
208	0xbeb57873	-0.35443458
209	0xbf33f2a2	-0.70292103
210	0xbe759e3f	-0.23986147
211	0xbea4a6cb	-0.32158503
212	0x3d9432e1	0.07236267
213	0x3e203b30	0.15647578
214	0x3db5c248	0.08874947
215	0xbf31b4ea	-0.6941668
216	0x3db36a29	0.08760483
217	0x3e25521f	0.16144608
218	0xbe3ad37e	-0.1824474
219	0x3e15beac	0.14623517
220	0xbd19f50e	-0.037587218
221	0xbe8620ff	-0.2619705
222	0x3dfe66c0	0.12421942
223	0x3d51a120	0.05117905
224	0x3d29b0c5	0.041428346
225	0x3d6de440	0.058079004
226	0x3c795946	0.015219038
227	0x3e596bd0	0.21232533
228	0xbec7c8ed	-0.39020482
229	0x3d194994	0.037423685
230	0xbe105c71	-0.14097764
231	0xbdb2411f	-0.08703827
232	0x3e107851	0.14108397
233	0x3e73dc60	0.23814535
234	0xbdb95cf9	-0.09050936
235	0x3e395118	0.18097341
236	0x3ce9dbcf	0.028547196
237	0xbe987a3a	-0.2978075
238	0x3edce123	0.43140516
239	0x3df6546a	0.120278195
240	0xbc2c3787	-0.010511286
241	0x3e295cb1	0.16539265
242	0xbc9adb93	-0.01890353
243	0x3d8a50a5	0.06753663
244	0xbdedf457	-0.1161887
245	0xbe9d4511	-0.30716756
246	0xbe32bb36	-0.17454228
247	0x3e26d9f3	0.16294079
248	0x3edc7fe4	0.43066323
249	0xbe5a367b	-0.21309845
250	0x3e198ada	0.14994374
251	0xbe51a36b	-0.20472495
252	0x3f4bc321	0.7959462
253	0x3f13ef1a	0.57786715
254	0xbe8599ba	-0.26093847
255	0xbe406fed	-0.18792696

0.features.2.0.block.1.1.weight f4 [32]
0	0x3f820c18	1.0159941
1	0x3f74fe40	0.95700455
2	0x3f8156fd	1.0104672
3	0x3f744947	0.9542431
4	0x3f7f450d	0.9971474
5	0x3f774cc9	0.9660154
6	0x3f865992	1.0496085
7	0x3f733130	0.9499693
8	0x3f72e8be	0.94886386
9	0x3f6d56af	0.92710394
10	0x3f8059cc	1.0027404
11	0x3f65011d	0.89454824
12	0x3f8144c7	1.0099114
13	0x3f739e34	0.95163274
14	0x3f7c0878	0.9845042
15	0x3f806217	1.0029935
16	0x3f888864	1.0666623
17	0x3f74ee15	0.95675784
18	0x3f780abc	0.9689138
19	0x3f600799	0.87511593
20	0x3f834230	1.0254574
21	0x3f84c567	1.0372742
22	0x3f80b967	1.005658
23	0x3f8bca38	1.0921087
24	0x3f83869f	1.0275458
25	0x3f64c651	0.89365107
26	0x3f843549	1.0328761
27	0x3f8502dd	1.0391499
28	0x3f84a2d7	1.0362195
29	0x3f82ff9a	1.0234253
30	0x3f854434	1.0411439
31	0x3f7f64cd	0.99763185

0.features.2.0.block.1.1.bias f4 [32]
0	0x3de44b9b	0.11147233
1	0xbf2038af	-0.6258649
2	0xbf2387e6	-0.6387924
3	0x3e45d816	0.19320711
4	0xbe712af8	-0.23551548
5	0xbd3612ea	-0.04445163
6	0xbd82f330	-0.063940406
7	0x3e6e67b6	0.2328175
8	0xbe689778	-0.2271403
9	0xbe184a49	-0.14872088
10	0xbde24ef8	-0.11050218
11	0x3ec9bc10	0.39401293
12	0x3e483db3	0.19554786
13	0xbe817d1e	-0.2529077
14	0xbd69265b	-0.056921344
15	0x3e28c1c6	0.16480169
16	0xbe84a5f2	-0.25907856
17	0x3dc88cfd	0.097925164
18	0x3d2ae2b1	0.041720096
19	0x3f3061dc	0.6889932
20	0x3cacd190	0.021096021
21	0xbe8c32a1	-0.27382377
22	0x3f124890	0.5714197
23	0xbe1c6436	-0.15272602
24	0xbe108403	-0.14112858
25	0x3e5245de	0.20534465
26	0xbee5e9f5	-0.44905058
27	0xbe99ff0b	-0.30077395
28	0x3d0d5c9e	0.034512155
29	0xbe2d5d77	-0.16930185
30	0xbdd42136	-0.10357897
31	0x3d4011b8	0.046891898

0.features.2.0.block.1.1.running_mean f4 [32]
0	0xbede8435	-0.4346024
1	0xbea24d9c	-0.31699836
2	0xbe3e9522	-0.18611577
3	0xbe56e1ac	-0.20984524
4	0xbe6c6073	-0.23083667
5	0x3f099ba4	0.53753114
6	0x3f02ce8e	0.5109643
7	0xbe8d03ce	-0.27541965
8	0x3ee6d29f	0.45082566
9	0xbdafbd0d	-0.085809804
10	0x3e698bd5	0.22807248
11	0x3db602ef	0.08887278
12	0xbf1b82bb	-0.60746354
13	0x3f1f5c0e	0.6224984
14	0x3ef98a8d	0.48738518
15	0x3ca6a4df	0.020342289
16	0x3e9a6420	0.30154514
17	0xbf156be5	-0.5836776
18	0xbec8047c	-0.3906592
19	0x3d033f5d	0.03204285
20	0xbea5f68f	-0.32414672
21	0x3dd798bb	0.10527178
22	0xbe69cffa	-0.22833243
23	0xbe94bdce	-0.2905106
24	0x3d9ec8b0	0.07753122
25	0xbd24b4e4	-0.040211573
26	0x3c4700b2	0.012146162
27	0xbd201359	-0.03908095
28	0xbe122fb7	-0.14276014
29	0xbe166dc3	-0.14690308
30	0x3f462ea5	0.77414924
31	0xbedbfe12	-0.42967278

0.features.2.0.block.1.1.running_var f4 [32]
0	0x3f89427b	1.0723413
1	0x403c678b	2.9438198
2	0x3f70504f	0.9387254
3	0x3f9f05b6	1.2423618
4	0x3f825b02	1.0184023
5	0x3fa2775c	1.2692676
6	0x402f2eb5	2.7372258
7	0x40135cdf	2.3025434
8	0x40503903	3.2534797
9	0x40157983	2.3355415
10	0x3f8c6b0b	1.0970167
11	0x3fdea787	1.7394875
12	0x3fba9d38	1.4579229
13	0x4005be3d	2.0897362
14	0x3fc177c6	1.5114677
15	0x4016f6b1	2.3588068
16	0x4009dfaa	2.1542764
17	0x40276762	2.615685
18	0x40156f99	2.3349364
19	0x3fc876ec	1.5661292
20	0x407779fa	3.8668199
21	0x40756c0e	3.8347201
22	0x400f178c	2.2358122
23	0x400979e7	2.1480653
24	0x40491ba8	3.142313
25	0x4043302e	3.0498157
26	0x4003525c	2.0519018
27	0x3f920ae6	1.1409576
28	0x4051e5eb	3.279658
29	0x3fec2006	1.8447273
30	0x3f9d9865	1.2312132
31	0x3ffe7d91	1.988207
