code/modeling/ckpt/AutoencoderConfig([1, 2, 2], flip=False, rotate=True)/autoencoder_12800.pth (torch, 709098 bytes, 97 tensors)

0.features.0.0.weight f4 [16, 8, 3, 3]
00000000: 0673 5bbd 4595 a33d b204 e53b a9ea e63b
00000010: e19c b63d 48e9 1b3e b50f 49bc 35a5 263d
00000020: 5143 e93c a209 71bc 8382 0dbe f046 68bd
00000030: 32da 8dbd c8bc 2abe d938 12be eb1d c0bc
00000040: bf55 243c 269d 84bd 721c 333d fa49 5c3d
00000050: 9e0d 523d afed e7ba 3b59 dcbd 1019 9bbd
00000060: 33a8 ec3c 97d3 93bd d32d 843b b18b 8cbd
00000070: 31e8 f83c 3baf 7d3d b4e8 5a3d 4c8e 333e
00000080: b75d fd3d 9615 ecbc 48e1 6d3d dca9 18bd
00000090: 85f3 663d cd56 9f3d 9c6d d13d 48f8 103d
000000a0: 3629 7a3e 6c14 d43d d5b8 683b ee89 963c
000000b0: 437a 613d eb6a 283d afa1 0c3c ac06 5f3d
000000c0: fbde 2f3d 0dad 853d 7f2f 603c a473 403c
000000d0: 7e40 663d a1fd bc3c 7a11 713c 2aea 253d
000000e0: 08d3 32bd 6037 f6bc b3af 073d 0774 3fbd
000000f0: 3162 4e3c d343 5b3c 1168 fdbc 4884 d43c
00000100: 1c80 0b3d 5765 94bd 8afb 403c c5ef 92bc
00000110: 8475 96bd 2cb5 fabc 8070 94bd 11a3 63bd
00000120: e55c bbb9 492d 92bc d612 6b3d 4356 2abc
00000130: 95a7 863b 09bd 893b 32a8 ffbc f9c7 adbc
00000140: 4077 2b3d 77d2 16bd 64cf fa3d b28f 77bd
00000150: 05d6 2c3d fbc2 d13e 64e3 8e3d 2c6c 69bd
00000160: 2938 5c3d 59ca d7bd f4de c6bc b9f2 123d
00000170: 1ba1 a2bc d637 323d 86b5 463e 8d0f 23bb
00000180: 4839 a0bc ce9c cb3d 80e8 6cbd b84e b1bd
00000190: 691e 29bd 304d c2bc 6131 babd 1a0f f4bd
000001a0: db57 dbbc 825c 23bc c867 98bd 3db0 81bd
000001b0: 5fe1 a53c 09c8 c33d 245d 843d 1dad 483d
000001c0: a1d4 713d 6d5a 203d b664 903d 3c93 413d
000001d0: c2ce 953d bf1b b33c 3be8 343d 5622 863c
000001e0: b6bb 7e3c d020 b1bb 8c63 6b3d 540d a93c
000001f0: 8f10 1d3d b006 3abc 7e8b ebbb c8b8 80bd
00000200: 5471 623c a867 8ebc 8c16 28bc 32c1 4fbd
00000210: 500b 51bc a68c 3bbd baf2 ee3b ff51 b1bc
00000220: 3131 a8bd cfa5 22bc d608 d8bb 7b50 84bc
00000230: 788e 18bd 908c 8fbd f75a 52bd 7dae 4b3c
00000240: bad1 81bc add1 f13b f8ab a6b9 4796 9e3d
00000250: f309 f13d d46c 083c 3d16 f0bb b87f b93d
00000260: 9746 3239 0095 5cbc 711c 383d 423d d7ba
00000270: 2d73 0cbd f97c 99bd 695a b5bd 87ab 913c
00000280: 5420 20be be1b acbd 1823 9e3c b23e 5fbd
00000290: 3797 6cbd 62b2 b63c a7ff 6c3c fd60 a03d
000002a0: 0b23 173d 386b f0bc 3206 61bd a951 93bd
000002b0: 6e93 a9bd 3405 5e3d 46aa 91bd 4613 87bd
000002c0: ed6c 543d 2dbb 8abd c679 9cbd 402b 3fbd
000002d0: fc9b 61bd fd47 51bd 80ca f33c 3afb 94bd
000002e0: 4f6c 98bd 6485 233d d342 04bb 528e b0bd
000002f0: 046e 843d 1140 623b ecf0 6cbd e669 23bc
00000300: fff4 bf3c 3706 2fbe a8f4 d43b d040 cf39
00000310: 31e3 24be 5110 623d 3cb3 993b 845f 123c
00000320: 3a99 a93c 0460 eabc d6e8 48be 12d3 18bd
00000330: 078b 1e3d 8933 ccbc 1410 9c3c 4366 793d
00000340: e9b6 533c 54e7 cbbc 69cb 3cbd dfc1 14be
00000350: 7e0d 523b 69fd c9bc 7715 0bbd 1bfe 0f3d
00000360: 91ac 203a 77d3 56bd df59 e03c ca7c 59bc
00000370: c0ff 8d3d b350 143d 7cf4 cbbb 98b2 cfbc
00000380: 7fdb 173d ee24 013d 6479 e5bb bfa8 9e3c
00000390: 9300 32bc 86c7 83bd 0adf a1bd cf99 603d
000003a0: 7476 78bd 8442 eabc c3b0 c43c 06ad 9dbd
000003b0: 9c8a 093d c154 a13d 74c1 a0be 2e93 3abe
000003c0: ff63 233d f22e 353b 0166 233d 8f8f adbc
000003d0: 0546 0ebd 47eb 92bd 97fb 233d 6567 0cbe
000003e0: b50f 09bc 982e 3c3c c695 32bd 798c 77bc
000003f0: 3efa 38bc 5c3f 21bc 5b82 153c e970 ffbb
-0.05357649 0.07987455 0.006989085 0.0070470166 0.08916641 0.15225708 -0.012271811 0.040684897
0.028474482 -0.014711769 -0.13819318 -0.056708276 -0.06926383 -0.16673577 -0.14279498 -0.023451766
0.010030209 -0.06475286 0.0437283 0.053781487 0.051282518 -0.0017694737 -0.10759207 -0.0757314
0.028888797 -0.07218092 0.004033783 -0.068625815 0.030384155 0.06193469 0.05344458 0.1753475
0.1237139 -0.028818887 0.058076173 -0.037271366 0.056384582 0.07780228 0.102259845 0.03539303
0.24429783 0.10355458 0.003551056 0.018376317 0.05504824 0.04111759 0.00858347 0.054449722
0.04293726 0.065271474 0.013683199 0.011746321 0.05621385 0.023070158 0.014713639 0.04050652
-0.043658286 -0.030055702 0.033126544 -0.04674151 0.012596653 0.01338287 -0.030933412 0.025941983
0.03405772 -0.072458915 0.011778722 -0.017936597 -0.07346633 -0.030603968 -0.0724802 -0.055575434
-0.0003573663 -0.01784386 0.05739101 -0.010396543 0.004109333 0.004203443 -0.031208131 -0.021213518
0.041861773 -0.03682181 0.12246588 -0.060439773 0.042196292 0.4096907 0.06976965 -0.056987926
0.053764496 -0.10536642 -0.024276234 0.03587601 -0.019852212 0.04351028 0.19405183 -0.0024881095
-0.019558564 0.099420175 -0.057838917 -0.086575925 -0.041288767 -0.023718446 -0.090914495 -0.11916943
-0.026775291 -0.009970786 -0.0744167 -0.06332443 0.020249067 0.09559638 0.06463078 0.04899322
0.05904067 0.039148737 0.07050459 0.047259554 0.073148265 0.021863816 0.044166785 0.016373795
0.015547683 -0.005405523 0.057467982 0.020636238 0.03834587 -0.0113541335 -0.0071882596 -0.06285244
0.013820965 -0.017383412 -0.010259282 -0.050721355 -0.012759045 -0.04578843 0.007292119 -0.021645544
-0.082125075 -0.009927227 -0.00659285 -0.016151657 -0.037245244 -0.07009232 -0.051356282 0.012431738
-0.015847076 0.0073797316 -0.00031790114 0.07743507 0.11769476 0.008326728 -0.0073268698 0.090575635
0.000170017 -0.013463259 0.044949 -0.0016421454 -0.034289528 -0.0749454 -0.08855135 0.017781986
-0.15637332 -0.08403729 0.019303843 -0.05450315 -0.057761397 0.022301856 0.014465249 0.07830999
0.036898654 -0.029348 -0.05493755 -0.0719331 -0.08280073 0.05420418 -0.07112555 -0.06595473
0.051861692 -0.06773982 -0.07640414 -0.046672106 -0.0550804 -0.051094044 0.029759645 -0.0727448
-0.07442533 0.039922133 -0.0020181432 -0.086208954 0.06466296 0.003452305 -0.05784695 -0.009973979
0.023432253 -0.17092215 0.006498892 0.00039530406 -0.16102292 0.05519134 0.004690556 0.0089339055
0.020702947 -0.028610237 -0.1962007 -0.037310667 0.038706806 -0.024926918 0.019050635 0.06088854
0.012922027 -0.02489058 -0.046092425 -0.14527081 0.00320515 -0.024656968 -0.033956017 0.035154443
0.000612923 -0.052447762 0.027386604 -0.013274381 0.06933546 0.036209773 -0.006224213 -0.025353715
0.037074562 0.03152936 -0.0070029963 0.019367574 -0.010864395 -0.064345405 -0.079038695 0.054834183
-0.06065984 -0.02859617 0.024010068 -0.07699017 0.033579454 0.07877494 -0.31397593 -0.18220207
0.039890286 0.002764639 0.0398922 -0.021186618 -0.034734745 -0.07173782 0.040034857 -0.13711317
-0.008365561 0.011485718 -0.043599866 -0.015109175 -0.011290131 -0.009841766 0.009125317 -0.0077954424

0.features.0.1.weight f4 [16]
00000000: 89b7 653f b640 353f 64c9 283f 6d92 4b3f
00000010: f6ec 473f 059f 6b3f 10fa 3c3f 0d7e 483f
00000020: e3ab 5c3f caa9 0b3f 6892 333f b08b 573f
00000030: eb47 283f d0e0 323f 6642 3f3f 65f1 1a3f
0.8973318 0.70801866 0.659323 0.79520303 0.7809595 0.9203952 0.73819065 0.7831734
0.8619978 0.5455595 0.70145273 0.8419752 0.6573474 0.69874287 0.7471069 0.6052459

0.features.0.1.bias f4 [16]
00000000: cfd4 933d 6f04 373f 58dd c53d cccb 753d
00000010: 2425 853d 824e b33e f7b3 b23e 5f48 0d3e
00000020: dd1d 0e3e e8b3 1b3f 65d3 763e 2720 ad3e
00000030: ec19 3f3d dfee a03d e977 f13e 96e3 903f
0.072183244 0.7149114 0.096613586 0.06000881 0.06501225 0.35020834 0.34902927 0.13797139
0.1387858 0.6082139 0.24104078 0.33813593 0.04665558 0.07858061 0.47161797 1.1319454

0.features.0.1.running_mean f4 [16]
00000000: c81c 6d3d 567f ccbc 9fc6 16bd e329 f3bc
00000010: b2ba 253d 9f85 58bd 9b89 aa3d 15c2 16bd
00000020: 0b3e 443d 7ef7 30bd eff8 e23c 87fb 303d
00000030: e2db b03c c8c4 49bd 2cd6 fbbc 752f 13bd
0.057888776 -0.024963062 -0.036810514 -0.02968306 0.04046125 -0.052861806 0.083270274 -0.036806185
0.04791073 -0.043204777 0.027706591 0.043208625 0.021589223 -0.04925993 -0.030741774 -0.03593393

0.features.0.1.running_var f4 [16]
00000000: d53c 9f3f af8c 853e c66a 633f ac05 0d3f
00000010: d172 663f 7780 8e3f 6c6a 0540 3e56 1d3f
00000020: f2c3 9d3f 35d5 1f3f 17f4 8e3e a047 353f
00000030: 8f51 a53e 747a 863f 30b0 3b3f 8ef5 d83e
1.244044 0.26083896 0.888348 0.5508678 0.90018946 1.1132954 2.0846205 0.6145972
1.2325423 0.62434703 0.279206 0.70812416 0.32288787 1.050612 0.73315716 0.42374843

0.features.1.0.block.0.0.weight f4 [16, 16, 3, 3]
00000000: 6d47 4fbd 03f7 17be 08c6 8a3d 98f9 4d3e
00000010: 5bc9 023e 5554 853d c35e 24be 6b46 753d
00000020: 5aea 87bc edc4 06be 5f56 103e 5c8d fabd
00000030: dbb4 d6bc f915 31be 6a7e 4ebe f84e 1abc
00000040: e0a1 7abd eba5 603d 8ce8 dd3c 7728 d0bd
00000050: 8b97 d53d 29b4 093d 2571 f8bc 7af1 813d
00000060: 302f ef3d fb37 383d 5251 fb3d 8724 bb3d
00000070: b4d6 6ebd a15d cbbd 880c b2bc ec64 a93d
00000080: 0680 59bd ce40 2abd d2bb febd 80a6 d1bb
00000090: e2a6 b33c 3a68 653e 6ea2 5ebd 0172 08bd
000000a0: 5437 183e 102d adbc 3e3f 8a3d 4d8e e2bc
000000b0: bff1 d53d 543b 0e3c cd67 55be ae40 72bb
000000c0: 9ab5 14bd d6c4 aabe 2c5f 4bbd f841 293d
000000d0: 0c69 79be 3600 1d3d 023c c23d 0a39 093e
000000e0: 6639 c9bd 588f 983c 4d81 b6bd 63cb afbb
000000f0: b735 403d 6e82 e5bd dbbe 733d 544c 52be
00000100: cebd 19be 785b adbd c3d3 28bd 80ab 47bd
00000110: eaac 9abd 427a 94bd 87d7 70bd c59c 60bc
00000120: 87e9 0cbd c813 4dbd a75c 793d d96f dcbd
00000130: d540 013e b18b 163e ca8c 5dbd d847 80bd
00000140: 1ef2 1c3e 8515 3cbe 6275 f8bd 2bf7 23be
00000150: 8ea4 37be f1b3 d4bd 207b abbd fde9 82bd
00000160: 0624 8b3c 6349 32be 57c0 62bd fe58 fc3d
00000170: d4a9 6d3d d1d4 353d 9221 1fbd 0052 d13d
00000180: a1c2 edbd 2982 bcbb 2626 38be a036 293e
00000190: fd36 be3d b349 1d3e 6b34 6ebc a410 c3bc
000001a0: ae00 703c 67b3 a3bd 08f9 f53b 1080 393b
000001b0: 4329 ad3d 6b97 29be 64ea cfbd b10d 4ebd
000001c0: 47a9 703e b58c 07bd 1f92 0a3d 6d8c 233c
000001d0: 52d1 743d 9c6d f7bd a483 96bd 91b8 dfbd
000001e0: a37e 9a3d 489a 1f3e d10d 37bd 6b36 6cbd
000001f0: f77b a93d 9d25 53be c1a6 c9bd 7041 173d
00000200: f439 50bd 53bc 42bd c53d c43d 8cdd b5bd
00000210: e252 38be e38b 17bc dd7d d83d 6874 2bbd
00000220: 560d 25bd c444 f53a 6e88 973c e72f e23a
00000230: 3e87 acbc ca58 a4bd d1e8 e4bd 7bdc 11be
00000240: 446d 233b e3b3 c3bc 8bb6 b4bd bc95 a4bd
00000250: 12c3 bfbc 10bd c4bd 3ecd 38bd 9640 6d3d
00000260: 0d3d b3bd ba77 aa3c e064 c9bd ba45 1ebd
00000270: 895d 36bd 5449 52bd c002 7d3c 8dea f0bd
00000280: dba1 4dbc e4ec d3bd 5da0 05bd b2c6 a6bd
00000290: ddc8 153e ae02 29be 2bfc 7ebd 266e 19bd
000002a0: cab8 443e b3bf dbbd 2ed1 abbb 2b54 973d
000002b0: c671 2f3d 9520 06bc 327d 713d 5ad7 5abd
000002c0: c7ab e53c 1ad6 09bc 8f0e ad3d e60d c8bd
000002d0: ee97 92bc 2732 91bd 812e d7bd 907e 96bd
000002e0: e311 26be 4015 98be 355a b7ba 4c21 7bbe
000002f0: 0cd6 f5bd 4119 01bd 92c3 323e 416a 083e
00000300: c618 a13c 073c 383d 07a3 1dbd f184 003d
00000310: 289a e93b a1b1 d7bc 7d43 1dbe 87aa 4dbd
00000320: 95de 223d f942 89bd 052d 893a c62a 493e
00000330: add5 49be f048 c5bd 61e5 1e3c 156b 82bd
00000340: ac77 c0bd fe43 003c 7be7 68bd 900e e2bd
00000350: 4911 953d 9057 183d 0460 80bc 75a9 8a3c
00000360: fdd2 c2bc 2f88 c3bd 5df3 973d 0010 4fbe
00000370: f84b c83c ecee a1bd bbf3 95bd a736 2a3e
00000380: 9f05 f1bb ab6e db3c 36c4 9f3d 505d 14be
00000390: 65bd 0d3e b340 d93d ad29 0e3c 4606 c5bd
000003a0: 0410 7bbc 74c3 99bd 3b15 a93c fba8 26be
000003b0: 7978 3dbd ad66 41bd 1d87 13bf ce23 febd
000003c0: cc42 fd3d 3b1c f6bd 030c b23a 1b21 c6bd
000003d0: 589e edbd 975e 41be 6a13 00be e5a8 9d3d
000003e0: f1c4 13be 97ec c9bd d216 37bd ec5c 2abe
000003f0: ab4c 67bd 59a3 9fbd f82b a1bd 412e 45be
-0.050605226 -0.14840321 0.06776053 0.20114744 0.12772124 0.06510226 -0.16051774 0.05988161
-0.01659124 -0.13161059 0.14095448 -0.122339934 -0.026209285 -0.17293538 -0.2016541 -0.009418242
-0.061189532 0.05484573 0.027088426 -0.10163968 0.10429295 0.03361908 -0.030327389 0.06344886
0.11678922 0.044975262 0.1227137 0.091378264 -0.058310226 -0.09929968 -0.021734491 0.082712024
-0.05310061 -0.04156571 -0.12438168 -0.006398022 0.021930162 0.2240304 -0.054354124 -0.033311848
0.14864856 -0.021139652 0.06750344 -0.027655745 0.104465 0.008681137 -0.20840378 -0.0036964822
-0.036306 -0.333533 -0.04965131 0.04132268 -0.24356478 0.03833028 0.09484102 0.13400665
-0.09825401 0.01862304 -0.08911381 -0.0053648218 0.046926226 -0.11206518 0.059508186 -0.2053693
-0.15013811 -0.08464712 -0.041217577 -0.04874754 -0.07552512 -0.07249881 -0.058799293 -0.013709252
-0.034402397 -0.050067693 0.060879376 -0.10763521 0.12622388 0.14701726 -0.054089345 -0.06263703
0.15326735 -0.18367584 -0.12131764 -0.16012256 -0.17933866 -0.103858836 -0.083730936 -0.06392286
0.01698495 -0.17410807 -0.05535921 0.123216614 0.05802329 0.04439241 -0.038850375 0.102207184
-0.11609388 -0.005752821 -0.17983302 0.16524744 0.09287832 0.15360145 -0.014538865 -0.023811646
0.0146486 -0.07993203 0.0075064935 0.002830509 0.08455136 -0.16561668 -0.10152128 -0.050306026
0.23502074 -0.033093173 0.03383076 0.009982211 0.059769936 -0.12081453 -0.07349327 -0.10923875
0.07543685 0.15586197 -0.04469091 -0.057669085 0.082755975 -0.20619817 -0.09846259 0.03692764
-0.05083652 -0.04754288 0.09582094 -0.08880147 -0.18000367 -0.00924966 0.105708815 -0.04185906
-0.04029592 0.001871251 0.018497672 0.0017256708 -0.021060582 -0.08024748 -0.11177219 -0.14244263
0.0024936954 -0.023889488 -0.0882388 -0.08036372 -0.023408446 -0.09606373 -0.04511761 0.057922922
-0.08751879 0.020809043 -0.098336935 -0.038640715 -0.044522796 -0.051339462 0.01544255 -0.11763487
-0.012550796 -0.10347918 -0.032623637 -0.08143367 0.14627405 -0.16504928 -0.062252205 -0.03745856
0.19211116 -0.10729923 -0.005243442 0.07389101 0.042833112 -0.008186479 0.058957286 -0.05342803
0.028036011 -0.008412862 0.084500425 -0.09768276 -0.017894711 -0.07089644 -0.10506917 -0.07348359
-0.1621776 -0.29703712 -0.0013988676 -0.2452442 -0.12003717 -0.031518225 0.17457417 0.13321783
0.019665133 0.04497912 -0.038485553 0.031376783 0.0071289726 -0.026329817 -0.15357776 -0.050211456
0.039763052 -0.06702227 0.0010465687 0.19645223 -0.19710417 -0.09633052 0.009698243 -0.063680805
-0.093978256 0.007828711 -0.056861382 -0.11037934 0.072786875 0.03719288 -0.015670784 0.016926507
-0.023782248 -0.09547459 0.07419465 -0.20220947 0.024450287 -0.07906899 -0.073218785 0.1662241
-0.0073554064 0.026786169 0.07801096 -0.14488721 0.1384178 0.106080435 0.0086769285 -0.09620337
-0.015323643 -0.07507983 0.020640006 -0.16275398 -0.04625747 -0.04721706 -0.5762804 -0.12409173
0.12366256 -0.12017103 0.0013583902 -0.09674283 -0.11602467 -0.1888374 -0.12507406 0.0769823
-0.14430596 -0.09859579 -0.044699498 -0.1663701 -0.0564696 -0.07794828 -0.078697145 -0.19255926

0.features.1.0.block.0.1.weight f4 [16]
00000000: 2802 303f 8d77 f83e 432c 343f f445 2c3f
00000010: 1b5e 023f 83d8 153f 5b48 483f f45d 3a3f
00000020: 2969 403f 6acf 313f 409b 1d3f 6232 243f
00000030: edc4 283f bc69 b73f beae 093f 5051 303f
0.6875329 0.4852871 0.7038004 0.6729424 0.50924844 0.58533496 0.78235406 0.7279961
0.7516046 0.69457114 0.6156502 0.6413938 0.65925485 1.4329143 0.5378226 0.68874073

0.features.1.0.block.0.1.bias f4 [16]
00000000: 0fcb 14bd 264a 0dbe 3706 11be ccc8 053e
00000010: 27c9 08be a0c8 163d 5da3 9b3d 21df 553e
00000020: 1a78 1a3c 9adf 493d f941 d23e c05e 253e
00000030: 97b7 303f 3747 8bbf 19d8 963c 621f 9b3d
-0.036326464 -0.13797817 -0.14162527 0.13064879 -0.13357984 0.036812425 0.075995184 0.20885898
0.0094280485 0.04928551 0.41065958 0.16149426 0.69030136 -1.0881108 0.01841359 0.07574345

0.features.1.0.block.0.1.running_mean f4 [16]
00000000: a6f0 b4bf 583d a5bf f2d5 dfbf 084d d43f
00000010: 6a56 323f 6f27 a2bf d546 83be 1e9b 4fbd
00000020: bef4 00c0 9b92 c33e f41d 57bd 4c90 e6bd
00000030: 8fb2 a63f c38c 1bbe 0074 313e d80d c3bf
-1.413594 -1.2909346 -1.7487166 1.6586008 0.6966311 -1.2668284 -0.25639978 -0.05068504
-2.0149379 0.3819779 -0.0525188 -0.11257991 1.3023242 -0.15190415 0.17329407 -1.52386

0.features.1.0.block.0.1.running_var f4 [16]
00000000: ec26 9b40 1851 913f 90ae 3640 73de 6340
00000010: e484 9d3f 768a 4e40 1681 e63f 8fb1 3540
00000020: ca6d 8140 1a3d a740 9444 be3f af61 0540
00000030: f83c 8a3f 669f 373e d147 1040 a1a3 8840
4.848501 1.1352873 2.8544044 3.5604522 1.230618 3.227201 1.8008144 2.8389623
4.044652 5.2262087 1.4864678 2.0840871 1.0799856 0.179319 2.2543833 4.269974

0.features.2.0.block.0.0.weight f4 [64, 16, 3, 3]
00000000: 7859 cc3b a766 d4bc 35af 313d 7f13 9cbd
00000010: 46b2 2b3c 1aed 913d ede4 f03b 742d 0f3d
00000020: f70d 26bd 1f16 a0bc ad1f e53c bca1 a5bd
00000030: 6920 35bd 72f8 7e3d 3d67 89bd ab7a 84bd
00000040: da69 69bd 1c40 d8bd ff9e 03bd 0b8d 5c3b
00000050: 62b7 bf3c b119 c33d f4f6 f33d f5e9 373d
00000060: 8ff8 f7bc 0217 e53d 70f7 de3d b3cd 643d
00000070: 1116 3a3d 9f23 c33d 2767 3f3d 7fb7 7c3d
00000080: a459 233e 96f0 9c3d 3cbd ce3d b740 123c
00000090: 985a 73bd 0207 08bd 7554 ccbb 7d51 a63d
000000a0: 666c 163d 3a8d afbb b2c7 833d dcc4 87bd
000000b0: d567 48bd f700 323d 923a c4bc a876 acbd
000000c0: caf5 8c3c 5e31 89bd 2e83 93bd cbc5 ad3b
000000d0: 0bc1 0abb 0d6d 6e3c e2cf 1f3d 0942 3ebd
000000e0: e354 86bd 0982 7abd f00f cebb ec26 28bd
000000f0: d3ac 93bd bb78 133d 8e3c 0bbd c33d 733d
00000100: 46d9 62bd bf91 503d 4167 e43c 8a52 f43d
00000110: 84d6 d03d 2449 763d 1952 0d3e 5f47 873c
00000120: 2f14 af3c 2437 6bbd 3295 93bd 7050 2cbd
00000130: 6541 0abe 3594 16be b839 99bc 2356 32be
00000140: 0ccb 9dbd 8c28 e63c 42b2 853d 4c2b fb3c
00000150: fc3c d4bc 2426 ff3c aa17 803d e772 093c
00000160: a324 493c 81f3 323d 0911 c03b c9d7 523c
00000170: 24c1 58bc 71ba 383d 4d7f 063d 5f1c e23c
00000180: 0667 803b 61f8 1bbd b314 6a3d fc2d 7ebd
00000190: b588 16bd b9dc 4bbd 473a 26bd 0a76 e63b
000001a0: cbd4 323d 7126 16be f8b1 123d 70a0 013d
000001b0: aac5 4aba 7cf7 4c3c b7a7 c8bc ee9b 1ebc
000001c0: 7512 8c3d eec4 3abd 672f 21b9 3615 a4bc
000001d0: 688c 21bd f28a 20bc 7325 ae3d 9fe9 bbbc
000001e0: 9aeb 81ba 8408 463d 80b0 223c 862f 1ebd
000001f0: 85de e13d 31dd 823c eb76 12bd 2f70 26bc
00000200: cd3d 8a3c bf95 a7bb 7ee3 e2bb ac05 203c
00000210: 652a ce3b 9c15 2039 9bb7 0c3d 2af0 a9bd
00000220: d3c6 153d f18e e93d 4dca 12bd d3fa 333e
00000230: 1df8 523e 12a8 22bd 4e5b 053e 29fe f03d
00000240: 8619 4b3c 6445 cc3d 2e70 243d f077 833d
00000250: 2c7e 233e 11ef 12bd c9cc ac3d c0ee 013e
00000260: b324 8fbc f28c 09bd 23f2 8a3c d277 eabd
00000270: e23d 01bd 0515 debd 5e95 59bd 2756 57bc
00000280: 85ca 1dbe bed3 29be f709 80bc c855 fe3d
00000290: 5041 d63c bf58 f23c 9b77 143e 0d99 143e
000002a0: 5f8d 883d 2501 463e 53b0 4b3e 6fa6 223c
000002b0: e9e0 dbbc 03e2 5fbd 0e4b 333c 63bb 883c
000002c0: 8ba5 743c 01e2 b73b 662a fa3c 8248 443d
000002d0: 7dba bebc 8b5b ad3d 115b 983d 6dcd 833d
000002e0: 1f80 d13b 8164 303d fc9a e0bc fdc3 873d
000002f0: e280 6f3e c19c 533d fb6e e0bc c7ee 7abd
00000300: 8710 4cbd 20f2 0fbe fc94 36be 6bbc 863d
00000310: 932b 80bd 39b1 d8bc b65a 0ebd db54 093e
00000320: 39ab 233c 72f8 d33d 6837 8cbd d5a1 6f3d
00000330: 6274 d83d 573f 4d3d 5815 32bd edee 94bc
00000340: 0a1d 4abd 9065 333d ee72 e23a 60dd c93c
00000350: e48e b43b ee0b a4bc 19e5 2e3a 26fd 323c
00000360: 37a0 453c 7bf7 0b3d f6a0 3f3d c865 8ebd
00000370: d973 c7bd a7ae 6ebc 38ab c63d 0c76 05be
00000380: 6b97 aabd 0262 423d db43 c9bb 4fc6 633d
00000390: 90c5 d83a 0cc7 333d fa0e db3d 3e17 813c
000003a0: 3fbd a43b 581e 94bc f9f6 0ebd 2c88 a73d
000003b0: d5a9 99bd 3fe3 babc a2da 413d 2a32 6cbc
000003c0: 964e b83d 8c14 1c3b 176e 8b3c cca2 3abb
000003d0: 3aa9 39bd c837 eb3c bacc d9bb 7043 0b3a
000003e0: a2a2 2e3c 863e f7bc cd37 733c 192e bc3c
000003f0: 5e21 46bd e9c9 debc f790 1e3d 29d6 eb3b
0.0062362514 -0.025927855 0.04337998 -0.07620906 0.010479515 0.07125302 0.007351509 0.034955457
-0.04054066 -0.019541798 0.027969206 -0.08087489 -0.04422036 0.062248655 -0.06709144 -0.064687096
-0.056985714 -0.10559103 -0.032134052 0.0033653404 0.023402873 0.095263846 0.11912337 0.044900853
-0.03026989 0.11186029 0.10887039 0.055860233 0.0454312 0.095282786 0.046729233 0.061698433
0.15952164 0.076630756 0.10094687 0.008926562 -0.05941257 -0.03320981 -0.006235654 0.081210114
0.03672447 -0.0053574117 0.06434573 -0.06629345 -0.048927147 0.04345795 -0.02395371 -0.084210694
0.017207045 -0.06698869 -0.07202755 0.00530312 -0.0021172191 0.014552367 0.039016612 -0.046449695
-0.065591596 -0.061159167 -0.006288521 -0.041052744 -0.07210698 0.03600381 -0.033993296 0.059385072
-0.05538299 0.050920244 0.027881267 0.119298056 0.101971656 0.060128346 0.13800849 0.016513525
0.021371929 -0.057425633 -0.07206191 -0.0420689 -0.13501509 -0.14704974 -0.01870428 -0.17415671
-0.07704744 0.028095506 0.065281406 0.030660294 -0.025907986 0.031146117 0.062545136 0.008389211
0.012276801 0.043689255 0.0058614057 0.01286883 -0.013229642 0.04509968 0.032836247 0.027601419
0.0039185314 -0.03807867 0.057148647 -0.062055573 -0.036751468 -0.049771044 -0.04058292 0.0070331143
0.043659966 -0.14663102 0.035814255 0.031647146 -0.0007735143 0.012510177 -0.024494035 -0.009680731
0.06839458 -0.045597963 -0.00015371815 -0.020029645 -0.039440542 -0.009798752 0.085032366 -0.022938548
-0.0009912134 0.048347965 0.009929776 -0.03861954 0.1102877 0.015974613 -0.03575794 -0.010158583
0.016875172 -0.0051142867 -0.006924092 0.009766977 0.006291675 0.00015266839 0.034354787 -0.08297761
0.036566567 0.11404217 -0.03583746 0.1757615 0.2060246 -0.039711066 0.13023111 0.11767227
0.012396222 0.09974173 0.040146045 0.06419361 0.159661 -0.035872523 0.08437497 0.12688732
-0.017473554 -0.03358168 0.016961163 -0.11448635 -0.031553157 -0.10843853 -0.053120963 -0.013143099
-0.15409286 -0.1658468 -0.015629752 0.12418705 0.02615419 0.029583333 0.14498751 0.14511509
0.066675894 0.19336374 0.19891481 0.009927376 -0.026840644 -0.0546589 0.010943187 0.016690915
0.014932047 0.0056116586 0.030537795 0.04792071 -0.023282284 0.08464726 0.074392445 0.06435666
0.006393447 0.043064598 -0.027417652 0.06629179 0.23389009 0.051663164 -0.02739667 -0.061262872
-0.04982045 -0.14057207 -0.1783027 0.065789066 -0.06258311 -0.026451694 -0.034754477 0.13411276
0.009989553 0.103501216 -0.068465054 0.058503944 0.10569073 0.050109234 -0.043477386 -0.018180335
-0.0493441 0.04379803 0.0017276683 0.024641693 0.005510198 -0.02002522 0.00066717115 0.010924613
0.012062124 0.034171563 0.046784364 -0.06953007 -0.09738893 -0.014568008 0.09700626 -0.13033313
-0.08329662 0.04745675 -0.006142122 0.055609044 0.001653837 0.043890998 0.10696216 0.015758153
0.0050274427 -0.018080875 -0.0349035 0.081802696 -0.07503096 -0.022813438 0.047327645 -0.014416257
0.08999364 0.0023815958 0.017020268 -0.0028478382 -0.045327403 0.028713122 -0.0066467198 0.0005312478
0.010658892 -0.03018118 0.014844847 0.0229712 -0.048371665 -0.027195888 0.038712468 0.0071971607

0.features.2.0.block.0.1.weight f4 [64]
00000000: f7b6 613f b745 3b3f 6d74 463f 4fb7 513f
00000010: 1a15 3d3f b2ce 3e3f 7ac5 393f 6aed 5d3f
00000020: ecfa 243f 640e 4a3f ac08 5a3f e3f1 223f
00000030: 435c 5a3f ce5e 4b3f 8073 6b3f 435e 623f
00000040: a32e 523f e979 4c3f 6f57 4f3f 29d4 5a3f
00000050: 904e 463f 6b18 283f 5b81 4e3f d04e 4a3f
00000060: a795 443f e5df 073f c2cc 4c3f d61a 373f
00000070: 60f2 2f3f ae4a 5a3f 7835 323f 2803 483f
00000080: 9c29 2d3f a56e 343f 120b 563f 86fd 2c3f
00000090: fd36 4c3f e412 463f f37c 5b3f 1220 333f
000000a0: 9b6d 503f ad98 513f 7a8f 513f 3ba5 283f
000000b0: 2b6a 413f 49a7 4d3f d4f9 513f a78d 2a3f
000000c0: ee6b 4c3f bc83 4d3f 8192 4b3f 1fe2 4d3f
000000d0: 21e5 5f3f ee3f 3a3f c0ec d83f e562 1f3f
000000e0: 9ede 253f fa14 013f 2d63 403f 2c7b 4a3f
000000f0: dd93 5a3f 2ea7 3e3f 4dfe 573f 1d97 603f
0.8816981 0.7315325 0.775214 0.8192033 0.73860323 0.7453414 0.7256695 0.8669039
0.64445376 0.7892821 0.8516948 0.6365034 0.8529703 0.79441535 0.91973114 0.8842508
0.8210241 0.7987352 0.8099279 0.8547998 0.77463627 0.6566226 0.8066613 0.7902651
0.7679085 0.5307601 0.79999936 0.71525323 0.6872921 0.852702 0.69612837 0.78129816
0.67641616 0.7048133 0.8361064 0.67574346 0.79771405 0.77372575 0.8573753 0.6997081
0.81417245 0.8187359 0.8185955 0.6587712 0.75552624 0.8033338 0.8202183 0.66622394
0.7985219 0.80279136 0.7952042 0.8042316 0.87459 0.727538 1.694725 0.62260276
0.6479281 0.5042263 0.7515133 0.79094195 0.8538187 0.74473846 0.8437241 0.8773058

0.features.2.0.block.0.1.bias f4 [64]
00000000: 6473 a83e dbc7 c8bc ef50 04bd bb32 8abc
00000010: 801f 3abc c44f df3d 7a4b 1a3d e06d f63d
00000020: 5b24 c33c 597e 763e aadb b13c 0ba3 82be
00000030: 526d 623d bb54 9b3c 8d76 a13c f155 d13c
00000040: 10c8 013e 459f c93e 57e9 cf3d 5489 223e
00000050: c375 e13d 34ed 733e 0590 e43d 84b6 303d
00000060: 9445 4abc a805 713e aff3 9a3e 4d69 e53c
00000070: f1d7 3a3d 5391 9f3e 6394 9f3d 6ce0 fa3d
00000080: 0cf8 c03d 3595 183e 4f13 713e ca88 183d
00000090: b9b3 393e 1ced b83d 2600 cc3d 4658 913d
000000a0: 8c4b 3f3e 427e 9a3e 132b dc3d 4ba1 bf3e
000000b0: 7fd6 eb3d ca6b 3b3e d47a 6c3c 84fc 383e
000000c0: c431 893d 1d8c 1c3e dd58 6bbd 08ec ba3d
000000d0: df3d bb3e 8044 883d 1988 83bf 3a41 463d
000000e0: 9920 97bd 7c5b fe3d 7135 893d 4763 843d
000000f0: f378 993d 3836 873d 3dd5 8d3e 3570 983e
0.32900536 -0.024509361 -0.032303747 -0.016869893 -0.011360049 0.10903886 0.037669636 0.12032676
0.023821047 0.24071635 0.02171119 -0.25515017 0.055280037 0.018961301 0.01970985 0.025553675
0.12673974 0.39379326 0.10151928 0.15872699 0.110087894 0.23820955 0.11160282 0.04314281
-0.01234569 0.23537314 0.3026404 0.028004313 0.045616094 0.3116556 0.077919744 0.12249836
0.09422311 0.14900668 0.23542522 0.037239827 0.18134965 0.090296 0.09960966 0.07096915
0.18681163 0.30174452 0.10750403 0.37427744 0.11515521 0.18302837 0.014433581 0.18065077
0.06698945 0.15287824 -0.057457794 0.09127051 0.3657064 0.0665369 -1.0275909 0.04840205
-0.073792644 0.12419793 0.06699646 0.06464248 0.07493772 0.06602138 0.2770175 0.29773107

0.features.2.0.block.0.1.running_mean f4 [64]
00000000: 04a5 1b3f 3cd9 973d a09d 27bf b60c 983d
00000010: 286e e0be e916 e53e 4eec e93c 8bf1 d73e
00000020: 6293 3dbe d872 243f ea8b 073b 4798 f4bd
00000030: aee0 09bd 2d91 2ebf 7b83 c6be cc56 0dbf
00000040: 9fe2 be3e f584 b03e 7270 2cbf 8c90 543e
00000050: 3fda 30bf f59b 95be f44c 48be 00cb 77bc
00000060: a763 78be 55de 97be 8ff6 bc3e b525 27bf
00000070: e0f7 ec3d 4304 833f 0cf2 c63e 5b1b 463e
00000080: cbfe f43e db1b 02be 2f3c e13e abf7 27bf
00000090: 8541 d8be dce9 923e 4833 013f da11 9ebe
000000a0: 73e0 8d3d fb3c 033e 82d7 f5be 339a cebe
000000b0: 99bb 7c3e 3f71 e2bd 773a ad3e a4bf 82be
000000c0: 686d f2be b2c2 24be de06 67bf 7fd4 6abe
000000d0: 868b 4f3f 8be2 c0be 26cf 293e eb39 e33e
000000e0: 4460 c4be e9b2 0ebf 24bc 90be 51bd 1d3e
000000f0: eb68 21bf d89a c5be 004d 1f3f 6ced 1b3f
0.6079867 0.07414481 -0.6547489 0.074242994 -0.43834043 0.44744042 0.028555062 0.4217647
-0.18513253 0.6423774 0.002068276 -0.11943107 -0.033661537 -0.6819027 -0.38772187 -0.55210567
0.37282273 0.34476438 -0.6735908 0.20758265 -0.6908302 -0.29220548 -0.19560605 -0.015124083
-0.24256764 -0.29661813 0.3690686 -0.6529191 0.11570716 1.0235676 0.38856542 0.19346373
0.47850642 -0.12705939 0.4399123 -0.65612286 -0.42237487 0.28694046 0.50468874 -0.30872995
0.06927576 0.12816231 -0.48015982 -0.4035202 0.24680938 -0.11056756 0.33833668 -0.25536835
-0.47349095 -0.16089895 -0.90244853 -0.22932623 0.8107227 -0.3767284 0.16582927 0.44380125
-0.38354695 -0.55741745 -0.2826854 0.1540425 -0.6305072 -0.385947 0.6222687 0.6090915

0.features.2.0.block.0.1.running_var f4 [64]
00000000: d13b 5240 b749 9a3f 99b3 a03f 9dc3 553f
00000010: 8050 4f3f 96c9 fa3f 44f7 923f 4b6f c03f
00000020: 8213 863f 1610 d73f dfad ef3f 7934 a33e
00000030: c188 1140 1a68 dd3f 64a6 3d40 6ef8 8d3f
00000040: 28b4 0c40 b682 c23f d389 ee3f 7d1e 753f
00000050: b99c a43f e218 a53f 0e5a d23f 22ec 4e3f
00000060: 6e34 463f 3331 123f e621 9c3f c521 323f
00000070: dc17 873f c850 9e3f 3a99 b43f 9974 0940
00000080: 072f 873f 1ddb 743f c0c0 b93f 0378 853f
00000090: 5db7 1440 e0a5 553f 6e47 1240 eb9a 6b3f
000000a0: fe6e 3b3f 4f5f 733f 49ac f53f a217 0a3f
000000b0: 0417 9f3f 7eb1 363f cafe d03f 7c0c 1c3f
000000c0: b646 d53f bfca f33f 86e5 b23f a4ed ac3f
000000d0: 78dd 8f3f 96e4 573f f68b 293e 3909 c13e
000000e0: 78ee 223f f318 e63e 6deb 983f 9655 3c3f
000000f0: ef9a d83f ce2f f73f eb21 903f 2962 823f
3.284901 1.2053746 1.2554809 0.8350161 0.8098221 1.9592769 1.148171 1.5033964
1.0474703 1.6801784 1.8724936 0.3187597 2.2739718 1.7297394 2.9632807 1.109144
2.1984959 1.519614 1.8635811 0.95749646 1.2860328 1.2898219 1.6433733 0.8082906
0.7742375 0.5710632 1.2197845 0.6958278 1.0554156 1.2368402 1.4109261 2.1477416
1.0561227 0.9564684 1.4511948 1.042725 2.3236916 0.8345623 2.2856097 0.9203326
0.73216236 0.95067304 1.9193202 0.5394231 1.2428899 0.7136458 1.6327755 0.6095655
1.6662204 1.9046248 1.3976295 1.3510022 1.1239462 0.8433317 0.16557297 0.3770235
0.63645124 0.4494091 1.1946846 0.73568094 1.6922282 1.9311464 1.1260351 1.0186206

0.features.2.0.block.1.0.weight f4 [32, 64, 1, 1]
00000000: d41b 51be fa6d 95be 374b 56be 671c 253e
00000010: 663d ab3d 4a8a 30be fa1c ed3d 0ba8 c1be
00000020: 67b9 a23d a86f 85bd a663 5abe 4a8f d73d
00000030: 5862 4cbe f1c3 efbc 459e 8d3e 1289 0bbd
00000040: baa0 963e 2ee4 c13c 1c41 e2bd 92e4 5a3d
00000050: 18ec 8bbe 12d6 d23e 7415 a7bd 9b04 633e
00000060: 7ffc 433e 7f58 91bd 6b6a 9c3d d4e9 db3e
00000070: 67cd b63e 03b0 8fbe b934 2d3d 7359 0f3e
00000080: d4ae b2be 0ecf 0c3e c652 c1bc 3ad6 1cbd
00000090: 28c4 c83d 02ac 31be 6c68 4dbe 3438 2d3e
000000a0: afec 31be 9763 fbbd 07a5 8d3e 379a 863e
000000b0: 30f2 b23e ebe8 8cbe 087e ac3e ab38 953d
000000c0: d74a 913e 2a85 af3e ddb2 c6bd 86ff 8dbc
000000d0: 66c4 403e 7285 e3bd 67ed 4bbd 7361 5dbe
000000e0: 84ca 12bd add1 60be 09dc 1b3d f16c 5c3e
000000f0: c73b 2ebe 3317 71bc 8aa0 afbe 02c4 35bd
00000100: 56a9 5d3d 9ee5 393e ce01 cd3d 124d 5dbd
00000110: 8bdb da3d a7a8 a73e 2878 2a3d 4e97 de3b
00000120: e5b8 bcbe 7476 333e c6e0 b43c d665 133b
00000130: f5dd 653d da0f 343d 8a7d 183e a53d 063e
00000140: 29ae 17bf 4b8c a3be d8db 9c3e 2eae 47bc
00000150: 58ae 2fbe 1c88 d73e 372e dcbd 7c05 82be
00000160: bdff 763b edee 913e 452e f13b f46a 213e
00000170: f1c3 c43c 4134 babe 00cd 5e3d 9858 6e3e
00000180: 761b 183e a681 cb3c fdbb a8bd b0c5 82bc
00000190: 5177 b63e 1d69 6f3e 80b4 e23d 381a 1e3f
000001a0: f830 88be 93dc 103e 2f67 f33d 0c18 9f3e
000001b0: dbb4 d2bc a649 03be ab37 90be 485b 0e3d
000001c0: 8dbe 3a3e 2c66 233e 696e 913e 7a68 233e
000001d0: fc7e a2be 6e86 d83e 099f 633e 5426 cdbe
000001e0: 6816 9a3e 93cd 413e 444b 283d 91c0 28be
000001f0: 4f1e e03e 4792 923b 16f0 173e 8955 483d
00000200: 99c1 1d3d 6292 953e 8512 373e 825b 00bf
00000210: 8208 c6bd 37f6 1c3c 23b8 283e 2c5b 5cbe
00000220: 67ee 5ebc 6a07 20bf 114d 893d 59f8 283e
00000230: e202 22be 0fb4 91bc 5113 743c c9b1 f33e
00000240: d973 bc3c 7ced 33bf ec2c 2cbe 697d 86bb
00000250: 5b59 de3c 6b33 9abd e2cb 66bd 7ee7 623e
00000260: 417d 4dbe b160 c83d c432 db3d fecb 31bd
00000270: fdd1 c7bd 5e7f eabe bcdb 81be 031d a13e
00000280: 4035 b23e ea22 5dbe 41d0 45bb c21f 933d
00000290: 8102 28be 5a9c 66bd bd2b 1fbe 7035 433e
000002a0: 7aab 113e 4e12 fbbe e6bd b6bd 8713 19bd
000002b0: 9603 1f3e 4df9 613d c11a 603e f2f2 03bf
000002c0: 3d40 1ebc 0486 683e 1591 af3d d1e1 37bd
000002d0: 94f5 51be b175 1a3d 6a76 86be 511c 1fbd
000002e0: 21f0 a13e d0a7 553e 8c31 bcbe df24 2a3e
000002f0: 4be3 603e 6789 a1bd e391 073e f0d1 0cbe
00000300: dd27 d53e 489d 743e 20cb 123e a993 ff3e
00000310: daf9 053e f6d7 403e b68b 56be e489 cabe
00000320: bcee 133e 34cc 163e c324 b4bd 792d e1bd
00000330: 8c3a 9dbe 81ac 803e 7d7b dfbe ee8c 973d
00000340: 8d60 27be 442f 623e 019f 613e bb59 833e
00000350: e56d ba3d 4ed1 2dbe e060 913d 58bb 8e3e
00000360: 5586 643e b6b1 1a3e 2a32 8abc e03e 99bd
00000370: 4586 db3d 4100 b1bd ef06 92bd f9a0 04be
00000380: 2e4e e33d 60d3 8ebc 0bf0 5f3e ae95 11bc
00000390: b634 783d 0105 86be bfb0 9c3e b92e 0c3e
000003a0: 54ad 8b3e 6c75 4cbe 9493 a8be 8b54 80be
000003b0: 176d d8be 0a04 65be 8a9c 7f3e 9923 5a3e
000003c0: b1a6 6bbe ed97 593e 2e29 d83d 8c51 c33d
000003d0: e709 1ebe 544c 3fbd ff9a e93e e48c 57be
000003e0: 10ba 353e aa88 e9bd e6d3 c7be 9641 45bd
000003f0: ee43 663e d9c6 3dbe 78c6 4abe 87d4 8abe
-0.20420772 -0.29185468 -0.2092713 0.16124116 0.0836132 -0.17240253 0.115777925 -0.3782352
0.07945519 -0.06515437 -0.21327075 0.10525377 -0.1995939 -0.029268237 0.27659813 -0.034066267
0.294195 0.023668375 -0.11047575 0.053440638 -0.27328563 0.41178948 -0.08158389 0.22169726
0.19139288 -0.070969574 0.07637485 0.42951834 0.35703585 -0.28063974 0.04228661 0.13998966
-0.34899008 0.1375086 -0.02359904 -0.03829024 0.09803039 -0.17350772 -0.20059365 0.16915971
-0.17375444 -0.12274855 0.27664968 0.26289532 0.349504 -0.27521452 0.33689904 0.07286199
0.2837741 0.34281284 -0.09702084 -0.017333757 0.1882492 -0.11109437 -0.04978695 -0.21619205
-0.035837665 -0.21954985 0.03805164 0.21525933 -0.17014991 -0.014715004 -0.3430217 -0.04437638
0.05411657 0.18153998 0.1001011 -0.054028578 0.10686406 0.3274586 0.041618496 0.0067929393
-0.36859813 0.17525655 0.022079837 0.002249112 0.056119878 0.04396043 0.1489164 0.13109453
-0.5925012 -0.31942973 0.30636477 -0.012187524 -0.1715635 0.4209603 -0.10751002 -0.2539481
0.0037689053 0.28502598 0.007360252 0.15763456 0.024019213 -0.36367992 0.054394722 0.23275983
0.14854226 0.024842095 -0.08238981 -0.015963405 0.35637906 0.23379941 0.11069584 0.61758757
-0.2659986 0.14146642 0.11884915 0.31073034 -0.025721004 -0.12821063 -0.2816747 0.03475502
0.18236752 0.15956944 0.2840455 0.15957823 -0.31737506 0.42290062 0.22228636 -0.40068305
0.3009522 0.18926077 0.041087404 -0.16479708 0.43773124 0.004473004 0.1483768 0.048909698
0.038514707 0.29213244 0.17878158 -0.5013963 -0.096695915 0.009580187 0.16476493 -0.21519154
-0.013606644 -0.6251131 0.067041524 0.16500987 -0.15821412 -0.017786054 0.0148971835 0.47596577
0.02300446 -0.7028425 -0.16814011 -0.0041043055 0.027142217 -0.075293384 -0.05634678 0.2215862
-0.20067312 0.097840674 0.10703042 -0.043407433 -0.09756849 -0.45800298 -0.25362957 0.31467447
0.34806252 -0.2159535 -0.0030183943 0.07183792 -0.16407205 -0.056301452 -0.15544029 0.19063354
0.1422557 -0.49037403 -0.08922939 -0.03737214 0.15528712 0.055169392 0.21885206 -0.5154258
-0.00965887 0.22707373 0.08572594 -0.04489309 -0.20503837 0.037709896 -0.26262218 -0.038845364
0.31628516 0.20864797 -0.3675655 0.16615628 0.21961705 -0.078875355 0.13239245 -0.1375196
0.41631976 0.23888123 0.14335299 0.49917343 0.13083592 0.18832383 -0.20951733 -0.39558327
0.14446539 0.14726335 -0.08796074 -0.10995001 -0.3070873 0.2513161 -0.43648902 0.07399927
-0.16345425 0.22088343 0.22033311 0.25654396 0.09102992 -0.16974375 0.070985556 0.27877307
0.22316869 0.15106854 -0.016869623 -0.074826956 0.10718969 -0.086426266 -0.07130229 -0.12952031
0.11098896 -0.017434776 0.21868913 -0.008885784 0.060597144 -0.26175693 0.30603597 0.13689698
0.27280676 -0.19966668 -0.32925093 -0.250645 -0.4227073 -0.22364822 0.24962059 0.21302642
-0.23012806 0.21249361 0.105547294 0.09537038 -0.15433465 -0.04670365 0.45626065 -0.2104984
0.17746758 -0.1140302 -0.39028853 -0.04815825 0.2248685 -0.18532886 -0.19802272 -0.2711527

0.features.2.0.block.1.1.weight f4 [32]
00000000: ceca 623f cfef 4d3f 19c0 3e3f fde9 6d3f
00000010: 03f0 603f 4763 523f 043d 5d3f 82f8 723f
00000020: b0e9 6e3f 7b2f 623f d475 573f f7e4 5d3f
00000030: 8341 663f 5098 563f 6cc5 653f ec7b 6d3f
00000040: fb67 5d3f bb93 633f 9549 573f 1eb5 683f
00000050: c755 563f 49bd 6a3f 82c2 473f 2d93 613f
00000060: d0cc 313f d57d 4a3f 5f4b 5b3f fd4f 413f
00000070: dbc7 5e3f 9703 623f a648 6e3f 826e 663f
0.88590705 0.80444044 0.7451187 0.9293516 0.8786623 0.82182735 0.8642123 0.9491044
0.9332533 0.883537 0.84164166 0.866775 0.8994371 0.8382616 0.89754367 0.92767215
0.86486787 0.88897294 0.8409665 0.9090136 0.83724636 0.91695076 0.7803117 0.881152
0.69453144 0.79098254 0.8566188 0.7551268 0.87023705 0.8828673 0.930796 0.9001237

0.features.2.0.block.1.1.bias f4 [32]
00000000: 6cbb 6abf 0847 93bf 08ca 8e3f 52e9 24bf
00000010: cacf 553f 3e07 2d40 3787 7dbf 4135 4ebf
00000020: d7bf e7be 36ac 1cbe c93f a0be 25f2 4dbf
00000030: f501 653f 432e 853f 32bd 1a3e b76f 22bf
00000040: b717 74bf 12c8 75be cc09 d1be 91d2 883f
00000050: 76d6 11bf c9b3 ae3f 1eb6 0fbf 10bb 8abd
00000060: 37e7 943f 0b2d 1f3e 5233 0abe ce02 8ebd
00000070: d2bf bdbf d051 0f3f e3d9 3dbe 4bd8 2dbf
-0.91692233 -1.1506052 1.1155405 -0.6441852 0.83520186 2.703567 -0.99034446 -0.8055001
-0.4526355 -0.15300068 -0.31298664 -0.8044761 0.8945611 1.0404743 0.15111235 -0.63451713
-0.95348686 -0.24002102 -0.40827787 1.068926 -0.56967866 1.3648616 -0.56137264 -0.067739606
1.1633061 0.15544526 -0.1349614 -0.06934129 -1.4824164 0.5598421 -0.18540148 -0.6790816

0.features.2.0.block.1.1.running_mean f4 [32]
00000000: 2bc9 d63c 3c53 063f c09b 3ebf 26bb ac3d
00000010: b689 26be 6393 773e e08f 38bf 2ba6 c53d
00000020: f644 ca3b 3ebc 053d 7686 2f3e 142c ac3e
00000030: 6c35 f6bd 9d69 4ebe ecdb 6c3e d59f 05bd
00000040: f648 54be 6cef bebd 9092 c63c 3599 873e
00000050: 0af2 b6bd 7452 fc3c e9dd 7dbe 2b21 023d
00000060: cbe1 4abd 8eb2 aabd 8d42 063c 7355 993e
00000070: 5e1c 7f3e c95b 0d3d 6f06 b53e 5d40 01be
0.026218971 0.52470756 -0.74456406 0.08434133 -0.1626347 0.24177317 -0.72094536 0.09650835
0.0061727716 0.032650225 0.17141137 0.3362738 -0.12021908 -0.20157476 0.23130769 -0.03262313
-0.20730957 -0.0932301 0.024239808 0.26484075 -0.08932884 0.030801035 -0.24791683 0.031769913
-0.04953174 -0.08334838 0.008194578 0.29948005 0.24913165 0.03451136 0.3535647 -0.12622209

0.features.2.0.block.1.1.running_var f4 [32]
00000000: e954 893f 832f a63f 778d 2040 daed a23e
00000010: 79a5 a83e 26d7 333f a951 5b40 490a 443e
00000020: d23f 0c3f de02 3f3f 4142 a13e 8c8b 773f
00000030: 6994 1640 05ed 0a3f 39bd 923f 01e8 1140
00000040: c516 5b3f 8a06 8e3e c547 6d3f ec2c 883f
00000050: b901 8d3f 9fda ec3f aaed b03e 337c 1e3e
00000060: 5b3e d63e baae 103f 5deb 0f3f fada 483f
00000070: be61 3940 fea2 cb3f b197 8c3e 3a88 1040
1.0729038 1.298325 2.5086343 0.3182209 0.32938746 0.70250165 3.4268591 0.19144548
0.5478488 0.7461375 0.3149586 0.96697307 2.3528082 0.54267913 1.1463996 2.2797854
0.8558162 0.27739364 0.92687637 1.0638709 1.1016151 1.8504218 0.34556323 0.15477066
0.41844448 0.5651661 0.5621851 0.7845913 2.8965907 1.5909116 0.2745948 2.2583146

0.features.2.1.block.0.0.weight f4 [128, 32, 3, 3]
00000000: e227 8abb 9c45 50bc 6abf ce3c a131 de3b
00000010: 615e 92bd bd3c e63c 5b3e 873c 967d 55bd
00000020: 95e7 a83d ff93 753c 0aa1 243d fbba 183c
00000030: fd42 b9bd 5367 bebd 153d 4a3c 4f9b 0e3a
00000040: a388 5abd 22f4 afbc 252a dfbd f5a5 b7bd
00000050: 199f 6fbd 8f08 1cbd 0a06 08be 157a 9cbd
00000060: f011 4ebd 8615 5d3d a449 f7bc 6657 8dbd
00000070: 48a3 b7bd af4a 5ebd 4693 0fbd 7d21 e5bd
00000080: 1aa9 66bd 3fbf 25bd 721f e5bc 3013 203d
00000090: 01a0 4dbc 413d 8a3d e203 d8bc 3841 32bc
000000a0: 4e64 c4bb cacf 9abc 3d64 43bd 67d0 a93d
000000b0: d68e c33c c4eb 473d 8660 24bc dfb9 babc
000000c0: 7324 71bc 1643 8e3d cd26 cabc 6102 5c3b
000000d0: cc94 0c3d 9ccf e8bd a5df 9f3d 8670 cb3c
000000e0: 4a47 373c 0f91 663c 2c12 8a3c 5d29 0c3c
000000f0: 1b95 493d 9207 ca3b 7e88 a63c 8bf3 86bd
00000100: 37d5 1ebd 2723 283d 3655 82bd 08a6 4ebd
00000110: e282 b0bb 928a 4bbd e606 0bbd a2b4 933d
00000120: 210f 42bc 6aa2 3bbd e465 efbb 49b1 78bd
00000130: c181 5bbd 093d a83c e59d 5b3c e084 18bb
00000140: 4c7e 65bc 7f61 183d 8962 f43c 23d4 b93c
00000150: 0fee 673b 30fc 323c e719 3f3d 7291 09bd
00000160: 065c 373b 295c f43b 2e57 33bd b513 41bd
00000170: 9004 6abd dc33 12be 2416 1cbe 388a febd
00000180: 1bd7 f9bc 531a 83bd e1bb 50bd 5783 843d
00000190: 1ba6 323c a33e 353c 7af5 22bd d8d5 98bd
000001a0: 26cf 79bc f151 60bd 39f0 7fbc 2a1a a03c
000001b0: 6772 eebb 78df 3fbd 07be 403c a6cd 303b
000001c0: b551 243d 4af2 6bba 752c c1bd 7fa3 9a3d
000001d0: 9d32 b5bb 4b55 c83c 3171 e33c 4874 a03d
000001e0: 32df d8bc 5ae2 b93d ad0c c23d 0a8c e2bc
000001f0: f979 20bd 7067 503d b1e0 20bc 83f1 dfbc
00000200: 5b2a 163d f306 723d 0cb1 cc3d 25b4 e9bc
00000210: 95f2 293c f900 5bbd e474 0d3d 89e5 bdbc
00000220: ab62 ecbc 0564 8b3b 8689 a33c e453 c1bd
00000230: 13ad 933d 6a6c 643c 89c1 80bc d2f7 7ebc
00000240: 9970 073d eb73 1bbd 0ea2 a7bd 2c51 393c
00000250: d69a 4ebc 2027 fdbb bf4d 283d 0755 2f3d
00000260: ada9 9ebc 9392 f33c 6561 a43c df2a 593c
00000270: 246a 253d 9c75 eb3b 1e23 283d ba10 7d3c
00000280: 5c75 c33c d9ab c83d a9ea d63c 6559 acba
00000290: 74aa 943b 2926 6c3c 7c04 943b 7e84 6d3d
000002a0: a1d6 7e3c 7684 0cbd ab66 b63c 5646 bb3b
000002b0: 5520 d5bd 072b 56bd 71c5 8cbd 5045 8bbd
000002c0: 0f44 53bd 6854 83bd 0161 bebc c067 aabc
000002d0: d89b c1bc 5d8a ce3d 9a25 7dbc d552 2b3c
000002e0: 0977 0abd bc7d e439 c5e6 74bc 9da1 b63b
000002f0: ca3e 8b3c 33ec 503d 86cf c639 eed3 31bd
00000300: 8059 9fba fa9c 1fbc a31c fbbc b84c 733b
00000310: 2f8b c23a 808a 65bd 0ec6 263d f17f 0fbc
00000320: 571c 40bd 7f63 79bd 6fa1 863c 2efd 00bd
00000330: 745e 20bd 0566 dc3c 9841 eabc 8826 5f3d
00000340: 104f e4bc 62a7 9a3d dcc0 dabc 7554 54bc
00000350: ad13 1d3d a131 f8b9 475a ff3c 5d35 d13c
00000360: a59a 933c 3ab1 e6bc c92e 04be 6d94 93bd
00000370: 3086 c73a 2f1a 86bc e923 563b 8952 533d
00000380: 3538 9dbd eab4 cd3c 293d 00bd cf36 78bc
00000390: b4bd b53c b5a5 fc3d e7bc 963d 8063 9aba
000003a0: a23f 883d 416b 8ebc d5eb 853a 0e2a 643c
000003b0: d089 153c f2a1 8f3c 7131 ce3c bcb9 1e3d
000003c0: c7ea 1b3d 4571 93bc 0a19 00bd bde2 a83c
000003d0: 4c74 eb3d f061 5d3b 28c0 66bc 82eb 883d
000003e0: 9c39 3cbc c9ed 943d f01d 32bd f001 113d
000003f0: 6b7d 493c 16ce bf3c 7664 733d 0f81 c03c
-0.00421618 -0.012711909 0.025237758 0.0067808186 -0.071469076 0.028105134 0.016509226 -0.05212172
0.08247296 0.014988898 0.04019264 0.009321923 -0.0904598 -0.09297051 0.012343665 0.0005440013
-0.053352963 -0.021478716 -0.1089671 -0.08967201 -0.058501337 -0.0380941 -0.13283554 -0.07640473
-0.050310075 0.053975604 -0.030186482 -0.069014356 -0.0896669 -0.054270443 -0.03505256 -0.11188028
-0.05631361 -0.04046559 -0.027969096 0.0390808 -0.012550355 0.067499645 -0.026369039 -0.010879807
-0.0059934026 -0.01889791 -0.047703017 0.08291703 0.02387182 0.048808828 -0.010032779 -0.022793708
-0.014718163 0.069463894 -0.024676705 0.0033570754 0.03432159 -0.11367723 0.07806329 0.024833929
0.01118643 0.014072671 0.016854368 0.008554784 0.049214464 0.006165453 0.020328756 -0.06589421
-0.038777556 0.04104915 -0.06363909 -0.05045131 -0.005386696 -0.049692698 -0.033942126 0.07212187
-0.011844427 -0.045809187 -0.0073058475 -0.060715947 -0.05359054 0.020536916 0.013404344 -0.002327256
-0.014007162 0.037202355 0.029832141 0.022684162 0.0035389697 0.010924384 0.04665556 -0.033585973
0.0027978434 0.0074572754 -0.043784313 -0.047137935 -0.057133257 -0.14277595 -0.15242821 -0.12428707
-0.030498078 -0.06401505 -0.050960425 0.064703636 0.01090386 0.011062297 -0.039784886 -0.074626625
-0.015247142 -0.054765645 -0.015621238 0.019543726 -0.0072768214 -0.046843976 0.011764056 0.0026978045
0.040116984 -0.00090006425 -0.09432308 0.07550716 -0.005529715 0.024454733 0.027763935 0.07834679
-0.026473615 0.09076376 0.09475074 -0.027654666 -0.039178822 0.050879896 -0.009819196 -0.027336841
0.036661487 0.05908866 0.099947065 -0.028528282 0.0103727775 -0.053467724 0.034535304 -0.02318074
-0.028855642 0.0042538666 0.019963037 -0.09439829 0.07210746 0.013941864 -0.015717285 -0.015562015
0.033066366 -0.037952345 -0.08185206 0.011310857 -0.012610158 -0.0077256113 0.04108977 0.042805698
-0.019368017 0.029732978 0.020065973 0.01325485 0.040384427 0.007185651 0.041049115 0.015445882
0.023859672 0.09798402 0.026234942 -0.00131492 0.004536921 0.014413395 0.004517136 0.057987683
0.015554101 -0.034306012 0.022265753 0.005715172 -0.104065575 -0.052287128 -0.068735965 -0.0680033
-0.051578578 -0.064125836 -0.023239614 -0.020801425 -0.023633882 0.100849845 -0.015450859 0.01045676
-0.033804927 0.00043581228 -0.014947598 0.005573465 0.016997714 0.051006507 0.0003792012 -0.043415003
-0.001215741 -0.009742016 -0.030653303 0.0037124585 0.0014842505 -0.056040287 0.040716223 -0.008758531
-0.046902027 -0.060885902 0.0164344 -0.03149145 -0.039152578 0.026904115 -0.02859573 0.054480106
-0.027869731 0.07551457 -0.02670329 -0.012959589 0.038348842 -0.00047339223 0.031170977 0.02553814
0.018018076 -0.02816068 -0.12908472 -0.07206044 0.0015222486 -0.016369907 0.0032675213 0.051592384
-0.07676736 0.02511068 -0.031308327 -0.015149786 0.022185184 0.123362936 0.07360249 -0.0011778921
0.06652762 -0.017385127 0.0010217378 0.013926042 0.009127095 0.017533276 0.02517006 0.03875135
0.038065698 -0.017998347 -0.03127388 0.02061593 0.11496791 0.00337803 -0.0140839 0.066855446
-0.0114883445 0.072719164 -0.043485582 0.03540224 0.012297968 0.0234137 0.05942198 0.02349904

0.features.2.1.block.0.1.weight f4 [128]
00000000: f408 523f 89eb 593f 0ae3 543f ca6a 503f
00000010: 4792 9c3f 2932 9e3f a638 593f 4632 4a3f
00000020: dbb0 483f 65b9 493f 43a7 8b3f b679 943f
00000030: f8dd 5d3f fb59 433f c044 903f 7f64 613f
00000040: 2766 543f e62b 413f 9339 c83f bcda 523f
00000050: b1ea 703f e3aa 8d3f 5ad6 433f 4695 473f
00000060: 9327 4f3f 57e4 813f 3f3e 533f 409c 613f
00000070: d498 783f 788f 683f 20cc 603f 9521 3c3f
00000080: eea3 623f d4b6 483f 9543 5a3f dd21 4a3f
00000090: 2751 393f 1963 5c3f b349 643f 5f72 4c3f
000000a0: 8dff 583f cdb7 b03f 1978 633f b421 393f
000000b0: da85 583f f271 443f cc12 8f3f 1725 8e3f
000000c0: 1bbc 723f 1cce 4c3f bd61 2a3f 4517 513f
000000d0: 6885 653f c023 343f 4b49 3c3f 80fe 4e3f
000000e0: 463f 4e3f 41fd 593f 4e9b 553f 9e72 5f3f
000000f0: bd8a 513f e25f 2a3f 8ac1 913f 6c2d 5c3f
00000100: 2e96 2c3f 40e6 4c3f cc67 4f3f dca6 693f
00000110: 56b6 583f 0ef4 6f3f 4124 613f 960e 5b3f
00000120: e50a 9b3f 05a4 653f c812 5f3f dfaa 3c3f
00000130: 56b3 4d3f b108 593f 0b39 513f f75e 5a3f
00000140: ca0d b23f b233 873f 684f 553f 52a6 603f
00000150: d132 5f3f 780c 543f bbec 4b3f 918f 303f
00000160: c971 433f dce5 903f 109b 9d3f c3f2 4e3f
00000170: 44e4 833f d96b 503f 18bb 643f 051b 533f
00000180: 3bdb 5d3f fb27 663f f2ef 553f 115e 5b3f
00000190: a540 453f 7a2a 453f e2da 4a3f 41c9 893f
000001a0: 5b22 483f d0aa 733f 2641 9c3f 5e6e 693f
000001b0: 2acc 4a3f 0a63 5d3f 4518 8d3f bc2b 5a3f
000001c0: 363b 403f 2579 903f 3d92 543f 9cd9 4a3f
000001d0: c365 5a3f a4f5 a43f e106 4c3f c114 563f
000001e0: 4a35 5e3f 4cd7 ae3f 7337 803f 195f 613f
000001f0: 306b 633f 31d5 5a3f 6b08 6d3f 2869 593f
0.8204491 0.85125023 0.83158934 0.8141295 1.223214 1.2359058 0.84852064 0.7898296
0.7839486 0.78798515 1.0910419 1.1599643 0.8666682 0.76309174 1.1270981 0.8804397
0.8296837 0.7545761 1.564257 0.8236501 0.9410811 1.1067775 0.7649895 0.7796215
0.8091976 1.0147809 0.82516855 0.88129044 0.971082 0.90843916 0.8781147 0.7348874
0.88531387 0.78403974 0.8525937 0.7895792 0.72389454 0.8608871 0.89174956 0.79862016
0.8476494 1.3806092 0.8885513 0.7231705 0.8457924 0.76736367 1.1177611 1.1105069
0.94818276 0.80002 0.66555387 0.8167613 0.89656687 0.7036705 0.73549336 0.80857086
0.805653 0.8515206 0.834401 0.87284267 0.8185232 0.66552556 1.1387188 0.8600681
0.67416656 0.80038834 0.81017756 0.9127023 0.8465322 0.9373177 0.87945944 0.8556913
1.21127 0.897034 0.8713803 0.7369823 0.8035177 0.8477889 0.81727666 0.85301155
1.3910458 1.0562651 0.8332429 0.87753785 0.87186915 0.82831526 0.796581 0.68969065
0.763455 1.1320148 1.2312946 0.80839175 1.0304036 0.8141456 0.8934798 0.82463104
0.86662644 0.89904755 0.8356925 0.8569041 0.77051765 0.7701794 0.7924024 1.0764543
0.7817742 0.95182514 1.2207382 0.9118403 0.7921778 0.86479247 1.1023031 0.85222983
0.7509035 1.128697 0.8303564 0.79238296 0.85311526 1.2887464 0.79697996 0.8362542
0.8680006 1.3659453 1.0016922 0.8803573 0.8883543 0.85481554 0.9259097 0.8492608

0.features.2.1.block.0.1.bias f4 [128]
00000000: e3a2 8b3c 14cf 993c c98a 1f3c a8cf 323d
00000010: baa2 e1bd 45a9 4abe 2864 44be b0c6 a4bd
00000020: db80 98bd 2447 ac3d 727f fc3c 0058 a3bd
00000030: 5c61 573c d0d2 0e3d abd5 86bd 007f b73c
00000040: f8f2 b4bc 67c8 e1bb 4b6e b7be 4cd7 663d
00000050: 041e ef3d bf43 ebbd e1ef d4bd 21bb b8ba
00000060: 4162 65bd 21d6 303e 64cf cebd be02 1dbd
00000070: 07ce 8cbd 4106 4c3d 057e 86bc ee91 643d
00000080: 3d29 1ebc 4c03 523c dc6a f23c b46f 68bc
00000090: fbe1 4fbd 51b5 273d 04fd 003c c115 a6bd
000000a0: 79bb 06bd ccf2 ecbe 7a2a ddbc 795e 4ebd
000000b0: fe15 17bd d16e 963a a5d8 4abe 42a3 08be
000000c0: e542 3e3b 0909 63bd 510c 653c 5253 b1bd
000000d0: 24b0 b4bd 274a c5bd 1a85 d5bd d582 7dbc
000000e0: d348 f63c 37b1 8dbc 5f8e aebd 3927 9fbd
000000f0: b2e8 25bc c4ca 54bd 6bb2 00be 7a82 193d
00000100: ff0e 703d ad50 41bd a9cc 9bbb c9a0 0d3d
00000110: 9f90 7a3d 7459 b3bb a3f2 0bbd 53f5 8b3d
00000120: dacc 85be d796 ed3d 5b0c 63bd a712 c0bd
00000130: a2a0 9cbd b2fd 65bc 63ed 5d3d 04e3 6dbc
00000140: f64d fabd dd22 f7bd 0614 9ebc de7b c03c
00000150: 1264 cebc 5e8f b73d 7b0c 513d 591b 30bd
00000160: 9ef1 313e a9cf debd 56fe f6be 9421 5dbd
00000170: 88de 4cbd b8de 933d 0ba9 7dbd ec5c 74bc
00000180: 245c 9a3d d6f0 ab3d 58b1 2fbd f6b0 dc3b
00000190: bc4a 1abd 9747 a83c 67d6 ebbd 3454 49bb
000001a0: 619e 42bd 8ff9 533d dea3 b8be 3a5e 16be
000001b0: fb27 2dbd b4d4 923c d0cb 0fbd 02ae 6a3c
000001c0: 1db4 40bd b611 713d 8b29 07bc ea68 59bd
000001d0: 17a2 0cbd 3015 35be 348f a9bc 78f5 2c3c
000001e0: 88ce b03c 7ccc 9fbe 73a7 52bd 6e32 e83b
000001f0: ec1f 82be 4932 31bd 8a30 843d 8136 f63d
0.017045444 0.0187755 0.009737679 0.043655068 -0.11017366 -0.19791134 -0.19178832 -0.08045709
-0.07446452 0.084120065 0.03082249 -0.07975769 0.013145771 0.034869015 -0.06583723 0.022399426
-0.022088513 -0.006890345 -0.35826334 0.056357667 0.11675647 -0.11487531 -0.10397316 -0.0014093855
-0.056001905 0.17269184 -0.1009815 -0.038332693 -0.06875234 0.04981065 -0.016417513 0.055803232
-0.009653387 0.012818169 0.02959197 -0.014186788 -0.05075262 0.0409444 0.007872824 -0.08109618
-0.03289363 -0.4627899 -0.026997793 -0.050383065 -0.036886208 0.0011477118 -0.19809206 -0.13343528
0.0029031571 -0.05542854 0.013979987 -0.0865847 -0.08822659 -0.09633284 -0.10425778 -0.015473087
0.030064022 -0.017296417 -0.08523249 -0.07771153 -0.01012628 -0.051951185 -0.12568061 0.037477948
0.05860805 -0.04719608 -0.004754622 0.034577165 0.061173078 -0.00547331 -0.034166943 0.06833901
-0.26132852 0.11601036 -0.055431705 -0.09378558 -0.07647826 -0.014037536 0.054181468 -0.014519457
-0.12221901 -0.120671965 -0.019296657 0.023496564 -0.025194202 0.08962892 0.051037293 -0.04299483
0.17377326 -0.10879452 -0.48240918 -0.0539871 -0.05001691 0.072202146 -0.06192879 -0.014914732
0.07537106 0.08395545 -0.042893738 0.0067349626 -0.03766893 0.02054195 -0.115155034 -0.0030720355
-0.047514323 0.05175167 -0.3606252 -0.14684382 -0.042274456 0.01792369 -0.03510648 0.014323713
-0.04704677 0.05885478 -0.008249651 -0.05307857 -0.03433427 -0.17683864 -0.020698167 0.010556571
0.021582857 -0.31210697 -0.051429223 0.00708609 -0.2541498 -0.043260846 0.064545706 0.120221145
