code/modeling/ckpt/AutoencoderConfig([2, 2, 1], flip=True, rotate=True)/autoencoder_100.pth (torch, 529056 bytes, 83 tensors)

0.features.0.0.weight f4 [16, 8, 3, 3]
0	0x3cda4792	0.026645456
1	0xbd7b3ef2	-0.061339326
2	0xbc36d93a	-0.011160189
3	0x3d629f37	0.05532762
4	0x3d5eda9c	0.0544077
5	0x3dd60735	0.104505934
6	0xbddc5a35	-0.10759393
7	0x3dd2c0ec	0.10290703
8	0xbde3b688	-0.111187994
9	0x3d11d2fc	0.0356016
10	0x3cbbc3a8	0.022920445
11	0x3d348d4b	0.04408006
12	0xbd754af1	-0.059885923
13	0xbdae14e9	-0.08500082
14	0xbd5eea3f	-0.054422613
15	0xbdf6627e	-0.12030505
16	0xbd48239a	-0.048862077
17	0xbd54ca04	-0.05195047
18	0xbd9c1091	-0.07620347
19	0xbd72bbbf	-0.05926108
20	0x3d12f8a7	0.035881665
21	0xbdb4785f	-0.088120215
22	0xbd57d46a	-0.05269281
23	0x3c848116	0.016174834
24	0xbdda4cc1	-0.10659171
25	0x3d92fbd8	0.07176942
26	0xbca98803	-0.020694738
27	0xbd6fd6f1	-0.058554593
28	0xbda724b1	-0.08161295
29	0x3d81e9c2	0.06343414
30	0x3dc974d2	0.09836735
31	0xbd80237c	-0.06256768
32	0xbd8e72c2	-0.06955482
33	0x3ced9b1c	0.029004626
34	0x3d7794ce	0.060444646
35	0x3d112444	0.035434976
36	0xbd2626f7	-0.040564504
37	0xbc2d8a6f	-0.010592087
38	0x3c0b018f	0.008484258
39	0x3dbefe21	0.09325815
40	0x3d3e6f60	0.046492934
41	0xbdc0606c	-0.09393391
42	0xbda0951c	-0.0784094
43	0xbd5bb2f5	-0.053637464
44	0xbd993a2a	-0.07481797
45	0xbcd32623	-0.025775021
46	0xbda8d96a	-0.082445934
47	0xbce4f691	-0.027949603
48	0x3d9ee39b	0.07758256
49	0x3d297434	0.041370586
50	0x3cafc54e	0.021456387
51	0xbd321500	-0.04347706
52	0xbd55c936	-0.052193843
53	0x3cd962c3	0.026536351
54	0x3d03ee6d	0.032209802
55	0x3d3d0059	0.04614291
56	0xbaf59be7	-0.0018738479
57	0x3dd38bb6	0.10329382
58	0xbdf58cd6	-0.11989753
59	0xbd9027a9	-0.070388146
60	0x3dad45db	0.084605895
61	0xbdaaaae3	-0.08333375
62	0xbd82f1b2	-0.06393756
63	0xbd84238e	-0.06452094
64	0xbcedf652	-0.029048119
65	0x3df3559b	0.11881562
66	0xbc765899	-0.015035772
67	0xbdef49f7	-0.116840295
68	0xbdaa7e6c	-0.08324894
69	0x3d4fe076	0.050751172
70	0xbd943516	-0.07236688
71	0xbde706f8	-0.11280626
72	0xbd3ae846	-0.04563167
73	0xbd9a06fc	-0.075208634
74	0x3d38ad2e	0.045087032
75	0xbd8bbd49	-0.06823213
76	0xbd6f7a02	-0.058465965
77	0x3db424ec	0.08796105
78	0xbd6cb99d	-0.057794202
79	0x3de87c38	0.11351818
80	0x3b015121	0.0019732194
81	0xbde21d15	-0.11040703
82	0xbdd468ba	-0.103715375
83	0xbd6433da	-0.055713512
84	0xbcb1ff6b	-0.021728238
85	0x3d4693b4	0.048480704
86	0x3da25b97	0.079276256
87	0x3def7e8c	0.11694059
88	0x3da169ec	0.07881531
89	0x3cddc3df	0.027070938
90	0x3de9ae05	0.11410145
91	0x3db711ff	0.08938979
92	0x3deff25d	0.11716149
93	0x3da9a099	0.08282585
94	0xbda1f4a8	-0.079079926
95	0xbda13e19	-0.07873172
96	0x3debe438	0.11518139
97	0x3b1d6c15	0.002402072
98	0x3db07063	0.08615186
99	0x3dea0126	0.11426
100	0xbdfda886	-0.12385659
101	0x3db2e23c	0.08734557
102	0xbdd8c5c2	-0.10584594
103	0xbd8738b9	-0.06602616
104	0xbdfc0abf	-0.12306737
105	0xbd94b9a1	-0.072619684
106	0xbde404d0	-0.111337304
107	0x3d66dfb1	0.056365672
108	0x3dacd85e	0.08439706
109	0xbc7d2592	-0.015450852
110	0x3d1e6c49	0.038677488
111	0xbc0aa19e	-0.008461384
112	0x3dbe45e8	0.09290677
113	0xbdd2e2d6	-0.10297172
114	0x3d44478b	0.04791979
115	0xb9fa9880	-0.00047797337
116	0xbdecbf85	-0.11559967
117	0xbdb1198f	-0.08647453
118	0xbdd90624	-0.10596874
119	0x3dde547f	0.1085596
120	0xbd7dd282	-0.061968334
121	0xbdd271ec	-0.10275635
122	0xbda96978	-0.0827207
123	0xbc69a9c3	-0.014261666
124	0x3d834d99	0.06411285
125	0xbde10ba5	-0.10988549
126	0xbd7dd621	-0.061971787
127	0xbd70a95b	-0.05875526
128	0xbde7622b	-0.11298021
129	0x3de895e7	0.113567166
130	0x3d79db4a	0.061000146
131	0x3d8abb38	0.067739904
132	0xbc95df87	-0.018295063
133	0xbda47b90	-0.0803138
134	0x3dd70421	0.104988344
135	0x3dd4f713	0.10398688
136	0xbd7b442e	-0.061344318
137	0xbcb06d3f	-0.021536468
138	0x3c60eddd	0.013728586
139	0x3dba53e4	0.09098032
140	0x3d2222d0	0.03958398
141	0xbba00fe2	-0.004884706
142	0x3da0adc8	0.07845646
143	0xba9ce1ee	-0.0011969188
144	0x3ca55a1a	0.020184565
145	0x3d3c22e8	0.045931727
146	0xbda4497f	-0.08021831
147	0xbceb02da	-0.028687883
148	0xbda32a50	-0.07967055
149	0xbdbba689	-0.091626234
150	0x3d19cd1f	0.037549134
151	0xbbbfe11b	-0.005855692
152	0x3d5fc8fa	0.054635026
153	0xbdb308bf	-0.087419026
154	0xbc011ba0	-0.0078801215
155	0x3daa6d3f	0.08321618
156	0x3db300ed	0.08740411
157	0xbca9f22d	-0.020745361
158	0x3d66de36	0.05636426
159	0xbbb0d4b9	-0.0053964523
160	0xbd9c7d1e	-0.07641052
161	0x3dd46f7f	0.10372829
162	0x3c01a017	0.007911704
163	0x3def0a5d	0.116718985
164	0xbde176df	-0.11009001
165	0x3e055533	0.13020782
166	0x3d5c5759	0.05379424
167	0x3b3dd0e4	0.002896362
168	0x3dd53748	0.10410935
169	0x3bd430b7	0.006475534
170	0x3c492087	0.0122758215
171	0x3d725aac	0.059168503
172	0x3dd506c6	0.104016826
173	0x3de36336	0.11102907
174	0xbd7d7f90	-0.06188923
175	0xbde2355c	-0.11045334
176	0xbd1cb4a8	-0.038258225
177	0xbd5f167a	-0.054464795
178	0x3dcb8e8e	0.099392995
179	0xbd09cb5e	-0.03364121
180	0x3c6b4897	0.0143605685
181	0x3d300094	0.0429693
182	0x3cf904d7	0.030397816
183	0xbd33b936	-0.043877803
184	0xbcd7f49a	-0.026361752
185	0xbcdf283a	-0.027240861
186	0xbd919fdc	-0.07110569
187	0xbd1ad9e4	-0.037805453
188	0x3d006c1f	0.031353112
189	0x3d967ac4	0.073476344
190	0x3d8409dc	0.06447193
191	0xbcc7ed8e	-0.024405267
192	0xbd303905	-0.043023128
193	0x3d513554	0.05107625
194	0x3cb365f3	0.0218992
195	0xbdb77ec4	-0.089597255
196	0xbd32db67	-0.04366627
197	0x3d57277e	0.052527897
198	0x3d5b2ad1	0.05350763
199	0x3bbd97c3	0.0057859137
200	0xbddfa9e2	-0.109210745
201	0xbdf012ae	-0.11722313
202	0x3dc63a86	0.09679131
203	0x3dc759ad	0.09733901
204	0xbd3b6ec1	-0.04575992
205	0x3d87dc2b	0.066337906
206	0x3dceaf1a	0.10091992
207	0x3d19e310	0.03757006
208	0xbd919784	-0.071089774
209	0x3d9b34e6	0.07578449
210	0xbd91218f	-0.07086479
211	0xbdf0e00b	-0.11761483
212	0xbbbbb8ab	-0.0057288012
213	0x3b76a618	0.003763562
214	0x3cf20484	0.029543169
215	0xbcbd08c0	-0.023075461
216	0x3d442d77	0.04789492
217	0xbe02c8d3	-0.12771921
218	0x3d43bd56	0.047787987
219	0xbd488704	-0.048956886
220	0x3db452af	0.08804833
221	0x3da6044d	0.08106289
222	0xbe017b4d	-0.12644692
223	0xbdc5fc36	-0.09667246
224	0x3d48dcab	0.04903857
225	0xbd97637b	-0.07392021
226	0xbd515bbb	-0.05111287
227	0x3d00ad12	0.031415053
228	0x3d97758d	0.07395468
229	0xbd5dd7d5	-0.05416091
230	0x3d52988f	0.051415022
231	0xbcc210c8	-0.023689643
232	0xbcbd9cf0	-0.023146123
233	0x3dc16d44	0.09444669
234	0x3dc25fb2	0.09490909
235	0x3dbb0195	0.09131161
236	0xbdafb3d1	-0.08579219
237	0xbdd663ba	-0.1046824
238	0x3c3b90a5	0.01144806
239	0x3dc20ecf	0.09475481
240	0x3cbbbb0e	0.022916343
241	0xbd44fb1c	-0.04809104
242	0x3db7df53	0.089781426
243	0x3de7e26e	0.11322485
244	0x3d3fdb40	0.046839952
245	0xba2eb0fe	-0.0006663947
246	0xbc84ae8f	-0.016196517
247	0xbdb89161	-0.09012104
248	0xbd3e9708	-0.046530753
249	0xbddd3cf1	-0.10802639
250	0x3b14f926	0.0022731512
251	0xbd15b6c2	-0.036551245
252	0xbd2d4921	-0.04230607
253	0xba7463b8	-0.00093227206
254	0xbcd6a91c	-0.026203685
255	0x3d26b02c	0.040695354

0.features.0.1.weight f4 [16]
0	0x3f832ce5	1.0248076
1	0x3f82a99d	1.0208012
2	0x3f7ed658	0.9954581
3	0x3f7d272f	0.98887914
4	0x3f77eeed	0.96848947
5	0x3f817286	1.0113075
6	0x3f81917d	1.0122524
7	0x3f803450	1.0015965
8	0x3f80a91f	1.0051612
9	0x3f8135a1	1.0094491
10	0x3f7f98fc	0.9984281
11	0x3f8184b7	1.0118626
12	0x3f812212	1.0088522
13	0x3f825dd4	1.0184884
14	0x3f811898	1.008563
15	0x3f7dd92d	0.9915951

0.features.0.1.bias f4 [16]
0	0x3d34eff3	0.044174146
1	0x3d0e0c45	0.03467967
2	0x3c790359	0.015198552
3	0x3cb6c87e	0.022312399
4	0x3d0dce7a	0.03462074
5	0x3cebe60e	0.028796222
6	0x3d2081fc	0.039186463
7	0x3cbed632	0.023295496
8	0x3ccb0597	0.024782939
9	0x3c969cdb	0.018385341
10	0x3cadb05a	0.021202255
11	0x3c959235	0.018258194
12	0x3cb96f92	0.022636209
13	0x3d237ec9	0.039915834
14	0x3d110d0f	0.035412844
15	0x3d07bcb1	0.033138935

0.features.0.1.running_mean f4 [16]
0	0xbc5621aa	-0.01306955
1	0xbcb35cf1	-0.021894904
2	0xbb5eb3f7	-0.003398178
3	0x3c776f7f	0.015102266
4	0x3b91c7c6	0.0044488637
5	0x3c64a3a1	0.013955028
6	0xbce9814e	-0.02850404
7	0xbc212e7b	-0.009837742
8	0x3d134f2e	0.035964184
9	0x3ce15f0f	0.027511148
10	0xbd073cf2	-0.033017106
11	0x3d3152f2	0.043291993
12	0x3ce8e64d	0.028430128
13	0xbc8e2d82	-0.017355684
14	0xbcb49783	-0.022044903
15	0x3c188750	0.009309605

0.features.0.1.running_var f4 [16]
0	0x3e928f40	0.28624916
1	0x3eb12209	0.3459628
2	0x3dbc252f	0.0918678
3	0x3e2c3028	0.16815245
4	0x3e3433f7	0.17597948
5	0x3e6a8fc6	0.22906408
6	0x3ea0b177	0.31385395
7	0x3e17b573	0.14815311
8	0x3f5f33dd	0.8718851
9	0x3e8ac43e	0.27102846
10	0x3ec17222	0.3778239
11	0x3f24a2f5	0.6431115
12	0x3edb783e	0.42865175
13	0x3ed1af47	0.40954039
14	0x3e724880	0.23660469
15	0x3d819f94	0.06329265

0.features.1.0.block.0.0.weight f4 [16, 16, 3, 3]
0	0x3d931a77	0.07182782
1	0xbd80d66f	-0.062909
2	0xbc472693	-0.012155193
3	0xbe0e48a6	-0.138949
4	0x3d84100e	0.06448375
5	0x3e4546ec	0.19265336
6	0xbd441e23	-0.047880303
7	0x3e014fb9	0.12628068
8	0x3e749374	0.23884374
9	0x3e3328ea	0.17496076
10	0xbd0f79b0	-0.03502816
11	0x3e3f058d	0.18654461
12	0xbe4a5591	-0.19759203
13	0xbd2ce6ed	-0.042212415
14	0x3ea5e85f	0.32403848
15	0x3ca5efa8	0.020255879
16	0x3db6e2a3	0.08929946
17	0xbd003c63	-0.03130759
18	0xbdd57473	-0.104226016
19	0x3d244c43	0.04011179
20	0x3e314fad	0.1731555
21	0x3d8ec735	0.069715895
22	0x3d0b6ae3	0.034037482
23	0x3b8da6f9	0.004322883
24	0xbe10d07e	-0.14142033
25	0xbd416b67	-0.047221567
26	0xbe8939c9	-0.268019
27	0xbdabcf4e	-0.083891496
28	0xbe67769b	-0.22603838
29	0xbcc58f1b	-0.02411609
30	0x3e2e631f	0.17029999
31	0xbd7711e7	-0.060319807
32	0x3d9a1ec3	0.075253986
33	0xbd7bdea2	-0.061491616
34	0x3d5f573f	0.054526564
35	0xbdf5de21	-0.12005258
36	0xbd608eb5	-0.054823596
37	0xbdc0bdb6	-0.094111845
38	0xbdb9e6de	-0.090772375
39	0xbcf639b0	-0.030056804
40	0xbd649eef	-0.055815633
41	0xbd92d074	-0.071686655
42	0x3d069dc3	0.032865297
43	0xbd46cf10	-0.048537314
44	0x3e24961b	0.16072886
45	0xbdc11c93	-0.09429278
46	0x3e162a7b	0.14664643
47	0xbd8d40c9	-0.068971224
48	0x3e9b957c	0.30387485
49	0x3d9f4421	0.077766664
50	0x3d6988d9	0.057015274
51	0xbdd6ee21	-0.10494638
52	0x3cf27913	0.029598748
53	0xbdb9194a	-0.09038027
54	0x3a85c214	0.0010204935
55	0x3de9db17	0.11418741
56	0xbd89c720	-0.06727433
57	0xbd5bebc4	-0.05369164
58	0x3dcd328a	0.10019405
59	0x3d8d78eb	0.06907829
60	0xbdf6bf43	-0.12048199
61	0x3d4067d2	0.04697401
62	0xbe035d7c	-0.1282863
63	0x3d75083a	0.0598223
64	0xbe3e15fa	-0.18563071
65	0x3e81205a	0.25219995
66	0x3aed6659	0.0018112167
67	0xbdeae1df	-0.11468863
68	0xbcdb3146	-0.026756894
69	0x3e7f0d59	0.24907435
70	0xbd33087f	-0.043709274
71	0xbd10368b	-0.035208266
72	0xbd9179bc	-0.07103297
73	0xbd6c590b	-0.057702105
74	0x3cf095f3	0.029368376
75	0x3dfaf348	0.122534335
76	0xbc108d2e	-0.008822722
77	0xbe400679	-0.18752469
78	0x3e0bfa70	0.13669753
79	0x3e02273b	0.12710278
80	0xbdfd39a8	-0.12364513
81	0xbe1b62c1	-0.1517439
82	0x3da2d0c9	0.07949979
83	0xbe1e1112	-0.154362
84	0x3d372d96	0.04472121
85	0xbd096c56	-0.033550583
86	0x3e623396	0.22089991
87	0x3e1189c7	0.14212714
88	0xbd773fcd	-0.06036358
89	0xbc0c54a5	-0.008565103
90	0x3e7ceb14	0.2469905
91	0xbd910411	-0.07080854
92	0x3e00c808	0.12576306
93	0x3dc400dc	0.095704764
94	0xbccb9553	-0.024851477
95	0x3da4665b	0.08027335
96	0x3c822ba7	0.015889956
97	0xbd4f4e4b	-0.050611775
98	0xbe1fa32d	-0.1558959
99	0x3d16d0f0	0.036820352
100	0xbe2a4965	-0.1662956
101	0x3deb8920	0.11500764
102	0x3c36e8be	0.0111638885
103	0xbe764596	-0.24049982
104	0xbd338600	-0.043828964
105	0xbc87f977	-0.016598446
106	0x3d7d7388	0.061877757
107	0x3cfbb163	0.030724233
108	0xbd01633b	-0.031588774
109	0xbb04b75a	-0.0020250888
110	0xbd7ba041	-0.061432127
111	0x3d21a462	0.03946341
112	0x3ca5fb3c	0.0202614
113	0xbe2eca1f	-0.1706929
114	0xbe09787c	-0.13424867
115	0x3c34e032	0.01103978
116	0x3d8d9fe7	0.069152646
117	0x3e20fc60	0.15721273
118	0x3e08923c	0.13337034
119	0xbe1e7496	-0.15474162
120	0xbdaad471	-0.08341301
121	0x3d29a75d	0.041419376
122	0xbe074ee5	-0.1321369
123	0xbd93a722	-0.072096124
124	0xbe17d68a	-0.14827934
125	0xbdab5532	-0.08365859
126	0xbd2fe3fc	-0.042942032
127	0xbd978934	-0.07399216
128	0xbc815273	-0.015786385
129	0x3be15f1e	0.006877794
130	0xbd661ed6	-0.05618175
131	0x3e257a8c	0.16160029
132	0x3e23d8a3	0.16000609
133	0x3e0c8c7f	0.1372547
134	0xbaec5f0a	-0.0018033695
135	0x3df2de1b	0.118587695
136	0xbc158b0c	-0.00912739
137	0xbd8d0887	-0.06886392
138	0xbdde6179	-0.10858435
139	0xbd9290f8	-0.07156557
140	0xbdff9771	-0.12480057
141	0xbd8cfbf1	-0.068839915
142	0x3cb710d8	0.022346899
143	0x3e19f142	0.15033439
144	0xbdb14e98	-0.08657569
145	0xbe395788	-0.18099797
146	0xbc8c2108	-0.017105594
147	0xbd4b2baf	-0.049602207
148	0xbe788859	-0.24270763
149	0xbdbb9f1b	-0.09161206
150	0xbd6353be	-0.055499785
151	0xbce7bf16	-0.028289359
152	0x3db6c844	0.089249164
153	0x3ce294eb	0.0276589
154	0xbacd3f5a	-0.0015659139
155	0xbd1f542e	-0.03889864
156	0xbda55dd9	-0.08074541
157	0xbd77a12b	-0.060456436
158	0xbd10b9e6	-0.035333537
159	0x3eb26d97	0.34849235
160	0x3da0d316	0.078527614
161	0x3d5e08dd	0.05420767
162	0x3cbcbf54	0.023040451
163	0xbd99d4e4	-0.07511309
164	0x3c2af9a5	0.010435496
165	0xbdf11cff	-0.11773109
166	0xbd0955ce	-0.033529095
167	0x3e03ee73	0.1288393
168	0x3cc0eb43	0.023549682
169	0x3e01f90f	0.12692665
170	0xbd833cbe	-0.0640807
171	0x3e00a835	0.12564166
172	0x3bb8a400	0.0056347847
173	0xbe29fa0b	-0.1659929
174	0x3de19fe8	0.11016828
175	0x3e2eebcb	0.17082135
176	0x3c622783	0.013803366
177	0xbe4f7c0e	-0.20262167
178	0x3d8b593d	0.0680413
179	0xbe13a4c0	-0.14418316
180	0xbe000417	-0.1250156
181	0x3c835387	0.01603104
182	0xbe6107b6	-0.21975598
183	0x3d8ffb8b	0.070304
184	0x3c5db2fd	0.013531444
185	0xbe13365d	-0.14376207
186	0x3d42c343	0.047549497
187	0xbb4c3842	-0.0031161462
188	0xbd4496db	-0.04799543
189	0xbe1fdcbe	-0.1561155
190	0xbd3cd299	-0.04609928
191	0x3c6a314b	0.014293979
192	0x3d51d12d	0.051224876
193	0xbdde452f	-0.108530395
194	0x3dfb89f3	0.12282171
195	0x3d63d3d7	0.055621948
196	0x3d13f9f2	0.03612704
197	0xbe11b3e6	-0.14228782
198	0x3ca4237d	0.020036453
199	0xbe754fcd	-0.23956223
200	0xbe4fff34	-0.20312196
201	0xbac1b4f0	-0.0014778655
202	0xbe04e7ac	-0.12979001
203	0x3ccaf0bd	0.024772996
204	0x3c4c7225	0.012478386
205	0xbd246fa4	-0.04014553
206	0x3cd64300	0.026154995
207	0xbe2aefec	-0.16693085
208	0x3de65d6c	0.112482876
209	0xbd3f3183	-0.046678077
210	0x3ca713ba	0.020395149
211	0x3e53dbde	0.20689341
212	0x3cbc0f43	0.022956496
213	0x3d0dc697	0.03461322
214	0x3e09e370	0.13465667
215	0x3c9aa6a8	0.018878296
216	0xbdddadfd	-0.10824201
217	0x3c94e60c	0.018176101
218	0xbd192e5d	-0.03739773
219	0x3e54caa5	0.20780428
220	0x3b9d5696	0.0048015816
221	0x3e18f4d7	0.14937149
222	0xbd4d6664	-0.050146475
223	0x3dbcf3c6	0.092261836
224	0xbdfb3203	-0.12265398
225	0xbd1c69e5	-0.038186926
226	0xbd1a781f	-0.037712213
227	0xbe3cdf47	-0.18444549
228	0x3ce65ace	0.02811947
229	0x3d1f082d	0.038826156
230	0x3daf7324	0.08566883
231	0xbda81036	-0.08206217
232	0x3e0c9764	0.13729626
233	0xbdf464f6	-0.11933319
234	0x3c31ac27	0.010844267
235	0xbdc04592	-0.093882695
236	0xbdf6f296	-0.12057988
237	0xbdf7ee27	-0.12105971
238	0xbe008968	-0.12552416
239	0xbd82f6ea	-0.06394751
240	0x3d9293f3	0.07157125
241	0xbe214f10	-0.15752816
242	0xbd4fdf00	-0.05074978
243	0x3e0fd2cb	0.14045255
244	0xbd17bfdd	-0.03704821
245	0xbcbc6b33	-0.023000335
246	0xbabe8f95	-0.001453864
247	0x3e1c4446	0.15260419
248	0xbd5e210d	-0.05423074
249	0x3d08ac56	0.033367477
250	0xbd07a4da	-0.0331162
251	0x3d898b8d	0.0671607
252	0xbe116b85	-0.14201172
253	0xbd25126c	-0.04030077
254	0xbe434270	-0.19068313
255	0x3df0adcb	0.117518984

0.features.1.0.block.0.1.weight f4 [16]
0	0x3f7e00c1	0.992199
1	0x3f7a804d	0.9785202
2	0x3f7e9fa8	0.99462366
3	0x3f7f3812	0.9969493
4	0x3f78dba8	0.9721017
5	0x3f7abe99	0.9794708
6	0x3f7ddbf7	0.99163765
7	0x3f79dd6c	0.9760349
8	0x3f7f83af	0.9981031
9	0x3f80f008	1.0073252
10	0x3f7b7509	0.98225456
11	0x3f7e982b	0.9945094
12	0x3f810427	1.0079392
13	0x3f80602b	1.0029348
14	0x3f84abbc	1.0364909
15	0x3f81cf8a	1.0141461

0.features.1.0.block.0.1.bias f4 [16]
0	0x3d0b8e1e	0.03407108
1	0xbcc346c0	-0.023837447
2	0x3ce99996	0.028515618
3	0x3cb77c07	0.022398008
4	0x3d47ac69	0.048748408
5	0xbc948d74	-0.018133856
6	0x3bca2bc7	0.0061697694
7	0x3c047c82	0.008086326
8	0x3c97c42f	0.018526165
9	0x3c0095f5	0.007848253
10	0x3c4911e1	0.012272329
11	0xbbe3354f	-0.006933845
12	0x3c5ffc59	0.013671004
13	0x3cf0232b	0.029313644
14	0x3b5a303e	0.0033292915
15	0x3d400c92	0.046886988

0.features.1.0.block.0.1.running_mean f4 [16]
0	0x3d3418af	0.043968853
1	0xbedf31d0	-0.4359269
2	0x3e3bcbf4	0.1833952
3	0xbe57c8ee	-0.21072742
4	0x3cb99dc9	0.022658246
5	0x3d829997	0.06376951
6	0xbdc05b45	-0.09392408
7	0xbe7e62da	-0.24842396
8	0x3958d696	0.00020679305
9	0xbe69dcf5	-0.22838195
10	0xbca75725	-0.020427296
11	0x3f26d9e7	0.6517624
12	0xbe80e7f0	-0.25176954
13	0xbade9a46	-0.0016983233
14	0xbf5e21d5	-0.86770374
15	0xbc3c543d	-0.011494693

0.features.1.0.block.0.1.running_var f4 [16]
0	0x3f8eb844	1.1149983
1	0x3fa55faf	1.2919825
2	0x3f86451e	1.0489843
3	0x3f4aa2a8	0.79154444
4	0x3f330537	0.6992983
5	0x3f17ae8f	0.5925073
6	0x3f1915c8	0.5979886
7	0x3f55c3bc	0.8350179
8	0x3f9f86ab	1.2462972
9	0x3f62f44d	0.88654023
10	0x3fbce554	1.4757485
11	0x403361b6	2.8028388
12	0x3fd2d543	1.6471332
13	0x3fa8e0c0	1.3193588
14	0x3f793dd5	0.97359973
15	0x3f18189a	0.5941254

0.features.1.1.block.0.0.weight f4 [16, 16, 3, 3]
0	0x3c914922	0.017735068
1	0x3da8487e	0.08216952
2	0xbe056575	-0.13026984
3	0xbe2d8834	-0.16946489
4	0xbe17ec31	-0.14836194
5	0xbcb3f9be	-0.021969672
6	0xbda648fb	-0.08119389
7	0x3e051166	0.12994918
8	0x3e43338e	0.19062635
9	0x3d679da8	0.056546837
10	0x3ddcdfcd	0.10784874
11	0x3dcad8fb	0.09904667
12	0xbcc6f6f0	-0.02428767
13	0x3b9ddee2	0.0048178295
14	0xbdd1d04d	-0.10244808
15	0x3e0a5a19	0.13510932
16	0x3db7cf18	0.08975047
17	0x3eaea6fb	0.3411177
18	0xbdaf7415	-0.08567063
19	0xbe71bd75	-0.23607428
20	0xbdba8c48	-0.09108788
21	0xbdbaf8c0	-0.091294765
22	0xbd3d300d	-0.046188403
23	0xbc441fce	-0.011970473
24	0x3e457653	0.19283418
25	0xbdd304d9	-0.10303659
26	0x3c5099c1	0.01273197
27	0x3e95ce79	0.2925909
28	0x3db24a5b	0.087055884
29	0xbca1e40c	-0.019762062
30	0x3d212fa8	0.03935209
31	0x3d083ace	0.033259206
32	0xbdeaaeb0	-0.114591
33	0xbd008ffa	-0.031387307
34	0xbdab351b	-0.083597384
35	0x3d9b32b1	0.07578028
36	0x3e16d502	0.14729694
37	0xbc5c5b73	-0.013449538
38	0x3de3cdb8	0.11123222
39	0x3e83ba58	0.25728106
40	0xbdded3c3	-0.10880234
41	0x3d93fa21	0.07225443
42	0x3ddb6d21	0.10714174
43	0x3e409fa6	0.18810901
44	0xbdf2b670	-0.118512034
45	0x3d07ea03	0.033182155
46	0x3cf61bf4	0.030042626
47	0xbcf099bb	-0.02937018
48	0x3da32a82	0.07967092
49	0x3e3f72b0	0.18696094
50	0xbdd304bb	-0.10303637
51	0x3d122835	0.035682876
52	0xbab10c51	-0.0013507699
53	0x3e3181fa	0.17334738
54	0x3dd884c6	0.105721995
55	0xbd1dcb1d	-0.038523782
56	0x3de7c0a3	0.113160394
57	0x3c3a71a1	0.01137963
58	0xbcb6e993	-0.022328174
59	0x3d39a005	0.045318622
60	0x3d8b177d	0.067915894
61	0xbdc430da	-0.0957963
62	0x3da0edf5	0.07857887
63	0xbe6b83dc	-0.22999519
64	0xbc4866f3	-0.012231576
65	0xbd8c9413	-0.068641804
66	0x3c7e8ca3	0.01553646
67	0xbdce850e	-0.10083972
68	0xbe1eed8b	-0.15520303
69	0x3e265b48	0.16245759
70	0x3dee6621	0.11640573
71	0xbb275e1a	-0.0025538267
72	0xbc920302	-0.0178237
73	0x3c899824	0.01679618
74	0xbe03b3af	-0.12861513
75	0xbd4b46fe	-0.04962825
76	0x3cd0e999	0.025502013
77	0x3cc4e188	0.024033323
78	0x3d3b38f4	0.04570861
79	0xbb995642	-0.004679472
80	0xbe2f8d08	-0.17143643
81	0x3ddc463e	0.10755585
82	0x3e2f2705	0.17104729
83	0xbbb170ae	-0.005415044
84	0xbcf9c012	-0.030487094
85	0x3bae7608	0.005324129
86	0x3e1d4c6f	0.15361188
87	0xbdd05767	-0.10172921
88	0xbd0de709	-0.03464416
89	0x3d0e31f1	0.034715597
90	0xbd8c03f9	-0.06836695
91	0xbd9b4edc	-0.075834006
92	0xbd6ebd86	-0.058286212
93	0xbe1fc238	-0.15601432
94	0x3ddc028c	0.10742673
95	0xbda527e6	-0.08064251
96	0xbe33e994	-0.17569572
97	0xbd73804b	-0.05944852
98	0xbe0ccbca	-0.13749614
99	0x3d3dc39c	0.046329126
100	0xbb80df71	-0.0039328863
101	0x3da35066	0.07974319
102	0xbaa1407a	-0.0012302541
103	0x3d9daad1	0.07698596
104	0x3d8aa0c8	0.06768948
105	0xbe2037af	-0.15646242
106	0xbb40326a	-0.0029326924
107	0x3e25b0ea	0.16180769
108	0x3d7c6c28	0.061626583
109	0x3e5066eb	0.2035176
110	0x3dcc8278	0.099858224
111	0x3d88f686	0.066876456
112	0xbd38be61	-0.045103434
113	0x3e80153d	0.25016204
114	0x3ce1e1fe	0.027573582
115	0xbdb4e987	-0.08833604
116	0xbb858ac4	-0.00407538
117	0xbcf1dd58	-0.02952449
118	0x3c977473	0.018488145
119	0x3d5d9e88	0.054106265
120	0x3e17806d	0.14795084
121	0x3cf308f6	0.029667359
122	0x3dd420df	0.10357832
123	0xbcd69abe	-0.026196834
124	0xbe0ab603	-0.13545994
125	0xbbc77f0b	-0.0060881427
126	0x3b883618	0.004156839
127	0x3d68ea67	0.05686417
128	0x3caaa5fd	0.020831103
129	0x3e02e25e	0.12781665
130	0xbd9c6380	-0.076361656
131	0xbe4e9fa5	-0.20178087
132	0x3d80ea2c	0.06294665
133	0xbe232983	-0.15933804
134	0x3e49d6c2	0.1971083
135	0x3c817bc1	0.01580608
136	0xbba95ee7	-0.005168784
137	0xbd19cbfa	-0.037548043
138	0xbe0afe69	-0.13573612
139	0xbd55dcc0	-0.052212477
140	0xbdc99a98	-0.098439395
141	0xbdd2cc7c	-0.102929085
142	0x3ca18144	0.019714959
143	0xbc4c2f9f	-0.012462526
144	0xbdaa4c38	-0.08315319
145	0xbe584ce4	-0.21123081
146	0xbe08de2d	-0.13366003
147	0x3e36115e	0.17780063
148	0xbe1302f9	-0.14356603
149	0x3ab4082b	0.0013735344
150	0xbd942571	-0.07233704
151	0xbe5d654f	-0.21620677
152	0x3d0fb3a8	0.035083443
153	0xbe820293	-0.2539259
154	0xbd36b20f	-0.044603404
155	0x3e2231eb	0.15839355
156	0x3e4d0dc2	0.2002478
157	0xbd740a69	-0.05958024
158	0xbdcb8615	-0.099376835
159	0xbde8bcdc	-0.11364147
160	0x3dfc94be	0.12333058
161	0xbd95dd64	-0.073176175
162	0x3d793036	0.060836993
163	0x3cd0187d	0.025402302
164	0x3dc1bc99	0.094598
165	0xbb072403	-0.002062083
166	0x3e9fec0c	0.31234777
167	0x3e2abfd2	0.16674736
168	0x3d915908	0.070970595
169	0x3e31a42f	0.17347787
170	0x3e0d5003	0.13800053
171	0xbe069d51	-0.13145949
172	0x3da1df7a	0.07903953
173	0x3e13c87e	0.1443195
174	0x3d00de92	0.03146226
175	0xbd980885	-0.074235
176	0x3dd4935b	0.10379668
177	0xbd3f8aa7	-0.04676309
178	0xbea081c4	-0.31349003
179	0xbd634c3a	-0.055492617
180	0xbc87ccff	-0.016577242
181	0xbda6c71b	-0.08143445
182	0x3ddf3f5a	0.10900755
183	0xbcb45d51	-0.022017153
184	0xbc79a3c2	-0.015236797
185	0x3d7b11d3	0.061296295
186	0x3cb53a8a	0.02212264
187	0xbcbe893c	-0.023258798
188	0x3a842ca1	0.0010084101
189	0xbd8b35e5	-0.06797389
190	0xbc176c30	-0.0092421025
191	0xbd743b0a	-0.059626617
192	0x3bea93d6	0.0071587367
193	0xbc47e858	-0.012201391
194	0x3e092169	0.13391651
195	0xbd3319d1	-0.043725792
196	0xbd76b4e5	-0.06023111
197	0x3dcec776	0.10096638
198	0xbda440fe	-0.08020209
199	0xbdb17d11	-0.08666433
200	0xbe2563c4	-0.16151339
201	0xbdb2e759	-0.08735532
202	0x3bb9833a	0.0056613954
203	0xbde18c0b	-0.11013039
204	0xbd2103d8	-0.039310306
205	0x3d54b56d	0.051930834
206	0x3df8b56e	0.1214398
207	0xbe31efa6	-0.17376575
208	0x3cd1992e	0.025585737
209	0xbe0e32ed	-0.13886614
210	0x3e0053d1	0.12531973
211	0xbddf0dfd	-0.1089134
212	0x3e37d27a	0.17951384
213	0x3de54c97	0.11196249
214	0xbd43e8d6	-0.04782947
215	0x38209f94	3.829559e-05
216	0xbe64a51a	-0.22328606
217	0xbd311efe	-0.043242447
218	0x3e883c2d	0.2660841
219	0xbd60b647	-0.054861333
220	0xbd7a8cae	-0.06116932
221	0x3e001ded	0.12511416
222	0x3dab09e9	0.083514996
223	0x3c2050a1	0.009784848
224	0x3ca34783	0.01993156
225	0xbc9f8bde	-0.019475874
226	0x3cc08082	0.023498777
227	0xbd49e364	-0.049289122
228	0x3e464a1b	0.19364206
229	0x3e4cfe41	0.20018865
230	0x3e12260e	0.14272329
231	0x3d8d8a99	0.06911201
232	0x3bdbe325	0.0067104273
233	0xbcf3a8d1	-0.029743584
234	0xbe0aaea0	-0.13543177
235	0xbcfe98d1	-0.031078728
236	0xbd354748	-0.044257432
237	0xbd9228a1	-0.071366556
238	0xbe34b7c6	-0.17648229
239	0xbec9e45e	-0.39432043
240	0xbe4bd830	-0.19906688
241	0xbe251d9c	-0.16124576
242	0xbe33754d	-0.17525215
243	0x3e85b746	0.2611639
244	0xbda12835	-0.07868997
245	0xbca3e17a	-0.020004977
246	0x3d779b16	0.060450636
247	0x3d2c7237	0.04210111
248	0xbc4ea11e	-0.0126116555
249	0xbcaeae86	-0.021323454
250	0xbd0a145d	-0.033710826
251	0xbe6031b6	-0.21893963
252	0xbbd77e9e	-0.0065763732
253	0xbdb04ab5	-0.08607999
254	0xbc7c9416	-0.015416166
255	0x3d5a6500	0.053318977

0.features.1.1.block.0.1.weight f4 [16]
0	0x3f7a9a4c	0.9789169
1	0x3f7ad038	0.97973967
2	0x3f81db1e	1.0144994
3	0x3f7e1e8e	0.9926537
4	0x3f7991d3	0.97488135
5	0x3f7c2de8	0.9850755
6	0x3f79c7dc	0.97570586
7	0x3f79d28d	0.975869
8	0x3f809ebb	1.0048441
9	0x3f81a71b	1.0129122
10	0x3f7bd1a8	0.98366785
11	0x3f7afe94	0.98044705
12	0x3f7c24cc	0.9849365
13	0x3f79b8b0	0.97547436
14	0x3f789470	0.971015
15	0x3f780330	0.96879864

0.features.1.1.block.0.1.bias f4 [16]
0	0xbc2a767a	-0.010404224
1	0xbc71fc98	-0.014769696
2	0x3c9f0741	0.019412639
3	0xbb10bd8b	-0.0022085633
4	0xbba42c58	-0.005010169
5	0xbb97660f	-0.0046203206
6	0x3cfed976	0.031109553
7	0xbc8caf09	-0.017173307
8	0xbbf00d83	-0.0073258295
9	0xbb43eb13	-0.0029894754
10	0x3d050c88	0.032482654
11	0xbcdf2f65	-0.02724428
12	0xbc8d7c89	-0.017271297
13	0xbc47ca11	-0.0121941725
14	0x3b5ce7d6	0.003370752
15	0xbc30b76c	-0.010785919

0.features.1.1.block.0.1.running_mean f4 [16]
0	0x3f03ba91	0.5145655
1	0xbe8c6f2a	-0.2742856
2	0xbf686167	-0.90773624
3	0xbe21b152	-0.15790299
4	0x3f803f7b	1.0019373
5	0xbe63a862	-0.22232202
6	0xbd987bf8	-0.0744552
7	0xbe098a4d	-0.13431664
8	0xbf601f2a	-0.8754755
9	0xbd194c0d	-0.037426043
10	0xbeb38a30	-0.35066366
11	0x3e6bb2b4	0.23017389
12	0x3ee1279a	0.43975526
13	0xbf5f90f4	-0.87330556
14	0xbd8dffff	-0.06933593
15	0xbe310b91	-0.17289568

0.features.1.1.block.0.1.running_var f4 [16]
0	0x3f843190	1.0327625
1	0x4111c7b2	9.111254
2	0x405f3561	3.487633
3	0x3f8424c8	1.0323725
4	0x4008dcb3	2.1384704
5	0x407d7de2	3.9608083
6	0x3ffd9ab8	1.9812841
7	0x400f79fb	2.24182
8	0x3fecbfcb	1.849603
9	0x3f884124	1.0644879
10	0x3ff78560	1.9337578
11	0x3f79f26b	0.97635525
12	0x40900dd3	4.5016875
13	0x3f136647	0.5757794
14	0x3fb7a4c8	1.4347162
15	0x4036334c	2.846881

0.features.2.0.block.0.0.weight f4 [64, 16, 3, 3]
0	0x3dbf22dd	0.093328215
1	0x3b3a4f59	0.0028428643
2	0xbc28aa59	-0.01029452
3	0xbc3fac36	-0.011698773
4	0x3d873df9	0.06603617
5	0x3b80c386	0.003929558
6	0xbc8a3fd0	-0.016876131
7	0x3ddc38ac	0.10752997
8	0xbc5ef99f	-0.013609319
9	0x3c971cbb	0.018446317
10	0x3cc4bfb2	0.024017189
11	0x3c566d5b	0.013087596
12	0x3d5062b7	0.05087539
13	0x3d00f771	0.03148598
14	0xbcaa4287	-0.020783676
15	0x3d41d6b5	0.0473239
16	0xbb4a2aa0	-0.003084816
17	0x3c07dd7a	0.00829255
18	0x3d800859	0.06251592
19	0xbda57100	-0.08078194
20	0x3d4879f3	0.048944425
21	0xbd2da0e2	-0.042389758
22	0x3da05e28	0.07830459
23	0x3c9b6f0d	0.018973852
24	0x3d8647a1	0.06556631
25	0xbdac74e0	-0.0842073
26	0x3dd82e8d	0.10555754
27	0x3c649bae	0.013953133
28	0xbdc559cb	-0.09636267
29	0x3e032db8	0.12810409
30	0xbcb12069	-0.0216219
31	0x3bfa4c87	0.0076385173
32	0xbd440d89	-0.04786447
33	0x3c8d83ce	0.017274763
34	0x3dbb8899	0.09156913
35	0x3c9a753e	0.018854734
36	0x3c824738	0.0159031
37	0xbd1da7ef	-0.038490232
38	0xbe19dac8	-0.15024865
39	0xbc1138f2	-0.0088636745
40	0xbc58ec02	-0.013239862
41	0xbc0f14f1	-0.00873302
42	0x3d0050c3	0.03132702
43	0xbda1d70d	-0.07902346
44	0xbda59f6a	-0.080870464
45	0x3d625658	0.055258125
46	0x3d97e700	0.07417107
47	0x3d8d4c33	0.068992995
48	0x3cd8773c	0.026424043
49	0x3c1644f7	0.009171716
50	0xbc5089ba	-0.012728149
51	0xbbb494e4	-0.005510913
52	0xbd303153	-0.04301579
53	0xbd388aaa	-0.045054115
54	0x3db3acfa	0.08773227
55	0x3d9146e5	0.070936
56	0x3e204c03	0.15653996
57	0x3d09fed5	0.033690292
58	0x3c1f950b	0.009740124
59	0x3d9e6051	0.07733215
60	0xbda7614f	-0.08172857
61	0x3d211d93	0.039334845
62	0xbcd25d4e	-0.025679257
63	0x3d767ae8	0.060175806
64	0xbbfa74c6	-0.007643315
65	0x3ce1e527	0.027575089
66	0x3c7316a2	0.014836939
67	0xbdbf9305	-0.093542136
68	0xbd939d8a	-0.072077826
69	0x3c14494d	0.009050679
70	0x3d6098be	0.054833166
71	0x3b8cac2b	0.004292985
72	0xbc61c85a	-0.013780678
73	0xbd04f935	-0.032464225
74	0x3bc057d0	0.005869843
75	0xbd93d966	-0.072192
76	0xbcd9fbe9	-0.026609378
77	0xbcb4d8a6	-0.022075962
78	0xbb10a019	-0.0022068082
79	0xbd2e2771	-0.042518083
80	0xbd8268a8	-0.06367618
81	0x3d59b121	0.05314744
82	0x3dce852a	0.10083993
83	0xbda482ba	-0.080327466
84	0x3d63db26	0.055628918
85	0x3d05c1cb	0.03265552
86	0xbd4d1e84	-0.05007793
87	0x3cb389e3	0.021916335
88	0xbcd038cc	-0.025417708
89	0x3c713d75	0.014724125
90	0x3cc7110d	0.024300123
91	0xb98d0a8c	-0.00026901474
92	0xbbe333c2	-0.0069336602
93	0x3e148da6	0.1450716
94	0xbe1e2ff1	-0.15447976
95	0xbd48c186	-0.049012683
96	0xbd2af500	-0.041737556
97	0x3db799a6	0.08964853
98	0xbc0a0479	-0.008423918
99	0x3dc06aaf	0.09395348
100	0x3d71e933	0.059060287
101	0x3d2387f1	0.039924566
102	0x3d48814b	0.04895143
103	0x3cb47ca9	0.022032099
104	0xbcc2cbba	-0.023778785
105	0x3d52d448	0.05147198
106	0xbd18d539	-0.03731272
107	0x3d76e84a	0.060280122
108	0x3d20c192	0.039247103
109	0x3d072d23	0.03300203
110	0xbd987014	-0.07443252
111	0x3d62c65f	0.055364963
112	0xbd03e112	-0.032197066
113	0xbd7bc0d1	-0.06146318
114	0x3bda3dfb	0.0066602207
115	0xbd36f242	-0.04466463
116	0xbcf09ff1	-0.029373141
117	0x3e190a7f	0.1494541
118	0x3d959486	0.07303719
119	0xbd043037	-0.032272544
120	0xbc914096	-0.017730992
121	0x3d8b1d7f	0.06792735
122	0x3e35d127	0.17755567
123	0x3dbec5e3	0.09315088
124	0x3dd43a91	0.10362733
125	0x3d546c40	0.051861048
126	0x3cf0673d	0.029346103
127	0x3d1bf1e2	0.038072474
128	0x3e3413d7	0.17585693
129	0x3db43a7d	0.08800218
130	0xbd76c1ba	-0.060243346
131	0x3dcd3250	0.10019362
132	0x3c41ad64	0.011821125
133	0xbc85fa94	-0.016354837
134	0x3c4fea1e	0.012690095
135	0xbd9016a3	-0.070355676
136	0xbd478097	-0.048706617
137	0x3e23afe2	0.15985063
138	0xbd5c9124	-0.053849354
139	0x3d5adab6	0.053431235
140	0xbccf4e3c	-0.02530586
141	0x3d8f4a09	0.06996543
142	0xbb69f4cf	-0.0035698896
143	0xbd5772ec	-0.052599832
144	0xbd63cde2	-0.055616267
145	0x3e030d68	0.12798083
146	0x3c0b2f6a	0.008495191
147	0x3ba47c1e	0.0050196787
148	0x3c30591a	0.010763431
149	0xbde184a7	-0.110116296
150	0xbd460320	-0.048342824
151	0x3daf5443	0.085609935
152	0x3d2e9296	0.042620264
153	0x3ddb994a	0.10722597
154	0x3d280dfe	0.04102897
155	0x3c495eee	0.012290699
156	0xbcf7fa3b	-0.030270686
157	0x3c5e5606	0.013570314
158	0x3d8dcd03	0.069238685
159	0xbcc2bbb1	-0.023771139
160	0xbd994e13	-0.074855946
161	0xbcc60764	-0.024173446
162	0xbab0d129	-0.0013490069
163	0x3dd075fa	0.10178752
164	0xbb843507	-0.0040346417
165	0x3dd9c596	0.1063339
166	0x3d818cec	0.06325707
167	0x3dccfbcc	0.10008964
168	0x3ddf16d6	0.108930275
169	0x3cb08047	0.021545542
170	0x3e2b440c	0.16725177
171	0xba438cdc	-0.00074596494
172	0xbb87c036	-0.0041427864
173	0xbd83b062	-0.06430127
174	0x3d793923	0.060845505
175	0xbcf4c841	-0.029880645
176	0x3ddb87cf	0.10719263
177	0xbc70ffb5	-0.014709403
178	0xbb929f4c	-0.004474556
179	0x3d30132d	0.042987037
180	0x3d3728a5	0.044716496
181	0x3d6ef531	0.0583393
182	0x3b769f56	0.0037631593
183	0x3c816da1	0.015799345
184	0x3d3ab778	0.045585126
185	0xba60d90d	-0.0008577265
186	0xbd413518	-0.047169775
187	0x3d81728e	0.06320678
188	0x3de1ad1d	0.11019347
189	0xbcf87b53	-0.030332243
190	0x3c823318	0.015893504
191	0xbd7fe362	-0.06247271
192	0x3d90eec2	0.070767894
193	0xbcffda73	-0.031232094
194	0xbd13c68a	-0.036078013
195	0xbe16fe61	-0.14745475
196	0x3d03d58c	0.032186076
197	0xbb9ff6d7	-0.0048817205
198	0xbb495af2	-0.0030724374
199	0x3b67c5da	0.0035365731
200	0xbd000c02	-0.03126145
201	0x3d85d44e	0.065346345
202	0xbcc0ab65	-0.023519227
203	0xbda81c8d	-0.08208571
204	0xbd4d32bf	-0.050097223
205	0x3cbc5f3b	0.022994628
206	0x3d987a03	0.07445147
207	0x3d90de88	0.070736945
208	0x3d9571b4	0.07297078
209	0x3c930698	0.01794748
210	0xbd9d3bab	-0.076773964
211	0xbd71abe2	-0.05900181
212	0xbda3fda9	-0.08007366
213	0xba94cc15	-0.0011352325
214	0xbcd6b58e	-0.026209619
215	0xbd9713b1	-0.07376803
216	0xbc8486f2	-0.016177628
217	0x3da13923	0.07872226
218	0xbc8e8f6a	-0.01740237
219	0x3d0e8ab0	0.03480023
220	0xbd457876	-0.048210584
221	0x3b9b3147	0.004736099
222	0xbc324ebe	-0.010883031
223	0x3c9ce395	0.019151488
224	0x3e1d292f	0.15347742
225	0x3cec52f6	0.028848153
226	0xbb17e4f2	-0.0023177234
227	0x3ca951a6	0.020668816
228	0xbc6a5809	-0.014303216
229	0x3d33acdb	0.04386602
230	0xbcc1821c	-0.023621611
231	0x3c86e005	0.016464243
232	0xbe0b8c91	-0.1362784
233	0x3c74a80a	0.014932642
234	0xbdb3f7e4	-0.08787516
235	0xbcf20ca8	-0.02954705
236	0xbe172f47	-0.14764129
237	0xbc823501	-0.015894415
238	0xbd1f712f	-0.0389263
239	0x3ca156d0	0.019694716
240	0x3ca40de7	0.02002616
241	0x3d19c7e5	0.03754415
242	0x3c5e17c2	0.013555469
243	0x3d244619	0.040105913
244	0xbdaae59f	-0.08344578
245	0x3d1be112	0.03805644
246	0xbd662740	-0.056189775
247	0x3c86156d	0.016367638
248	0x3c13594f	0.008993461
249	0x3de14ecd	0.11001358
250	0x3cdfe726	0.0273319
251	0xbd454543	-0.048161756
252	0x3d133043	0.035934698
253	0x3cfb8f2e	0.030707922
254	0xbcabcbca	-0.020971198
255	0x3cdfbbf1	0.027311297

0.features.2.0.block.0.1.weight f4 [64]
0	0x3f7bebe1	0.984068
1	0x3f7fe4a3	0.99958247
2	0x3f78d6c4	0.97202706
3	0x3f815376	1.0103595
4	0x3f7b18c8	0.9808469
5	0x3f82fd88	1.0233622
6	0x3f7ec267	0.99515384
7	0x3f823fc0	1.0175705
8	0x3f7f55e9	0.99740463
9	0x3f7a6d94	0.9782345
10	0x3f7c269e	0.98496425
11	0x3f7d722f	0.99002355
12	0x3f80d6be	1.0065534
13	0x3f813aa0	1.0096016
14	0x3f807a02	1.0037234
15	0x3f7e9e95	0.99460727
16	0x3f7f2d58	0.99678564
17	0x3f8281ab	1.0195822
18	0x3f7ddaac	0.9916179
19	0x3f80f263	1.007397
20	0x3f83aee1	1.0287744
21	0x3f7d9c70	0.9906683
22	0x3f800022	1.000004
23	0x3f832f9a	1.0248902
24	0x3f7da6fd	0.9908293
25	0x3f79d592	0.9759151
26	0x3f8239bc	1.0173869
27	0x3f800fae	1.0004785
28	0x3f7f5177	0.9973368
29	0x3f7f9109	0.9983068
30	0x3f80accd	1.0052735
31	0x3f7c2893	0.9849941
32	0x3f7c412b	0.9853694
33	0x3f7c3f21	0.9853383
34	0x3f82a1e6	1.0205657
35	0x3f81ffa3	1.0156139
36	0x3f7a87f6	0.9786371
37	0x3f7e3bd3	0.99310035
38	0x3f7dba1d	0.9911211
39	0x3f817aa2	1.011555
40	0x3f7bc5df	0.983488
41	0x3f8007b5	1.0002352
42	0x3f835972	1.0261672
43	0x3f813b30	1.0096188
44	0x3f8046b8	1.0021582
45	0x3f7f4c1f	0.99725527
46	0x3f7ef184	0.99587274
47	0x3f7d9d8c	0.9906852
48	0x3f80401f	1.0019568
49	0x3f812075	1.008803
50	0x3f803d8c	1.0018783
51	0x3f8268eb	1.0188268
52	0x3f7b6193	0.9819576
53	0x3f808d74	1.0043168
54	0x3f80c60e	1.0060441
55	0x3f7d63a0	0.9898014
56	0x3f77f075	0.96851283
57	0x3f81a7d5	1.0129343
58	0x3f821a96	1.0164363
59	0x3f83bbc9	1.0291682
60	0x3f7dd1a4	0.9914801
61	0x3f80c52f	1.0060176
62	0x3f82885c	1.0197864
63	0x3f7d1e12	0.9887401

0.features.2.0.block.0.1.bias f4 [64]
0	0xbbb7d9ac	-0.0056106653
1	0x3c8490fb	0.016182413
2	0xbc506341	-0.0127189765
3	0x3cd710b6	0.026253086
4	0x3b914296	0.0044329865
5	0x3d1fe8bf	0.039040323
6	0xbb9f023f	-0.0048525627
7	0x3cf4849b	0.029848387
8	0x3d233b53	0.039851498
9	0x3c352cfc	0.011058088
10	0x3d5052e1	0.05086029
11	0x3c17425c	0.00923213
12	0x3cbee2e3	0.023301547
13	0x3d32ad3b	0.043622237
14	0x3b7c93f8	0.0038540345
15	0xbc24857b	-0.01004159
16	0x3d0a85d4	0.033819035
17	0x3c1421db	0.009041275
18	0x3c640e07	0.01391936
19	0x3c523ffc	0.012832638
20	0xbac54429	-0.001505022
21	0x3c953498	0.018213555
22	0x3bc56a48	0.0060246326
23	0x3d193e80	0.03741312
24	0x3bcb1d64	0.006198572
25	0x3c8b9834	0.01704035
26	0x3cdccfcf	0.02695456
27	0x3be8c835	0.0071039447
28	0x399908d5	0.00029189014
29	0x3c081023	0.008304629
30	0x3d2a8fcb	0.041641038
31	0xbbc0f1d1	-0.0058882018
32	0x3b2cb8d0	0.0026355274
33	0xbb5a3b74	-0.0033299597
34	0x3b3042bf	0.0026895253
35	0x3cf153c9	0.029458897
36	0x3ca9bd70	0.020720214
37	0x3ccde498	0.025133416
38	0xbba3e491	-0.0050016125
39	0x39feca18	0.00048597227
40	0xbaee42a6	-0.0018177822
41	0x3c2bd4f9	0.010487788
42	0x3ca574d5	0.020197311
43	0x3c2cbcc3	0.010543051
44	0x3c8c2f9a	0.017112542
45	0xbc9307bc	-0.017948024
46	0xbbb8010e	-0.00561536
47	0xbb0a9c86	-0.0021150424
48	0x3c7e4d12	0.015521305
49	0x3cf2bdf0	0.029631585
50	0xba91f39f	-0.0011135227
51	0x3cca411f	0.024689255
52	0x3c000cf0	0.007815585
53	0x3cf2dcef	0.029646365
54	0x3bde7704	0.00678909
55	0xbc6ce954	-0.014459927
56	0xbc370d67	-0.011172629
57	0x3c8975e0	0.01677984
58	0x3cc06bf5	0.023488978
59	0xbc4ce4b0	-0.012505695
60	0x3cbbd389	0.022928016
61	0x3d11520f	0.035478648
62	0x3c71e1d3	0.014763313
63	0x3b169d6d	0.0022982017

0.features.2.0.block.0.1.running_mean f4 [64]
0	0x3f8e8528	1.1134386
1	0x3ee745e0	0.45170498
2	0x3f783f8b	0.9697196
3	0xbf3f292f	-0.74672216
4	0x3f4a0ec3	0.78928775
5	0x3ce6c917	0.028172059
6	0xbe9e1859	-0.3087795
7	0xbbbbd817	-0.005732547
8	0xbdaf50ed	-0.08560357
9	0xbd6c09a1	-0.05762637
10	0xbe178d7f	-0.1480007
11	0xbc159018	-0.009128593
12	0xbf287000	-0.657959
13	0x3eb46ebc	0.35240734
14	0x3fa1c8ba	1.2639382
15	0xbec18253	-0.37794742
16	0x3dc1ed6a	0.09469111
17	0xbf434151	-0.7627154
18	0xbf4fff3e	-0.81248844
19	0x3f473bdf	0.7782573
20	0xbf416801	-0.7554932
21	0x3f2eabd1	0.6823092
22	0xbf15ac48	-0.58466005
23	0xbed2c07b	-0.41162476
24	0xbf1bd610	-0.6087351
25	0x3f94b04f	1.1616305
26	0xbe5ad2cc	-0.21369475
27	0x3fad8a2d	1.3557793
28	0xbf4a686a	-0.79065573
29	0xbf353ac5	-0.707928
30	0xbe25417d	-0.16138263
31	0x3e5d577a	0.21615401
32	0xbf2c2e5f	-0.67258257
33	0xbf50c483	-0.81549853
34	0xbf8e3f8f	-1.1113147
35	0x3ee90ff8	0.45519996
36	0xbedc488e	-0.43024105
37	0xbf878063	-1.0586056
38	0xbf6be02e	-0.92138946
39	0x3e089d08	0.13341153
40	0x3db9b625	0.090679444
41	0x3edb217d	0.42798987
42	0xbf8cc797	-1.099841
43	0xbf73ef44	-0.95286965
44	0x3ecb7eaf	0.3974509
45	0x3ff4e7cc	1.9133239
46	0xbd9b156a	-0.07572444
47	0x3d9ab42c	0.07553896
48	0xbf37eac7	-0.71842617
49	0x3ead5ad7	0.33858368
50	0xbf5a0324	-0.8516104
51	0x3d23f32a	0.04002682
52	0x3ecec13c	0.403818
53	0x3eea535c	0.45766723
54	0xbe8453f8	-0.25845313
55	0xbe0accf3	-0.13554744
56	0xbfa6a341	-1.3018571
57	0x3ec4e39b	0.384549
58	0x3e317ff5	0.17333968
59	0xbf282a4b	-0.65689534
60	0x3f25f5dd	0.6482828
61	0xbf02fa2e	-0.51162994
62	0x3c17f4f2	0.009274708
63	0xbe945bd0	-0.28976297

0.features.2.0.block.0.1.running_var f4 [64]
0	0x4043ffe0	3.0624924
1	0x3f9159bc	1.135551
2	0x40052d75	2.0808995
3	0x400bc196	2.1836905
4	0x404ad9ae	3.169536
5	0x3fc0149f	1.5006293
6	0x3e810ffb	0.25207505
7	0x3f473b07	0.77824444
8	0x3f4dc3c8	0.80376863
9	0x3f7e0fae	0.99242675
10	0x3f4eb7e0	0.8074932
11	0x3f09696b	0.5367648
12	0x4006b0e9	2.1045477
13	0x3f737507	0.95100445
14	0x400e5f2b	2.2245586
15	0x3f63dfec	0.8901355
16	0x3f8a50cf	1.0805911
17	0x3feaf784	1.8356786
18	0x3f94138d	1.1568466
19	0x3fe3dec7	1.7802361
20	0x4023a506	2.5569472
21	0x400353ac	2.051982
22	0x3f5f9a80	0.87345123
23	0x3f7812c8	0.9690366
24	0x3fa10b80	1.2581635
25	0x3fdaf11f	1.7104834
26	0x3fe972a7	1.8238114
27	0x3ff40042	1.9062579
28	0x3ff0da86	1.8816688
29	0x3f2034c9	0.62580544
30	0x3fe57c39	1.7928535
31	0x401fbada	2.4957795
32	0x3f33d533	0.7024719
33	0x3f81697e	1.0110319
34	0x4005248f	2.0803564
35	0x405a5ff0	3.4121056
36	0x3f63961a	0.8890091
37	0x3f86c07f	1.0527495
38	0x402b33e3	2.675042
39	0x4051c60e	3.2777133
40	0x3fccc132	1.5996459
41	0x3f4075ab	0.7517955
42	0x3fd040f4	1.6269822
43	0x4016e082	2.3574529
44	0x3f8a4a50	1.0803928
45	0x4089e3b1	4.3090444
46	0x3f89f66c	1.0778327
47	0x3f49f31b	0.78886575
48	0x40255725	2.5834439
49	0x3fd60cd5	1.6722666
50	0x3fc7f027	1.5620164
51	0x3f39565e	0.7239741
52	0x3f3f515b	0.74733514
53	0x3fc0c3c2	1.505974
54	0x3ebce1a4	0.368909
55	0x3f21779d	0.6307314
56	0x3fe2bcfa	1.7713921
57	0x3fae3a99	1.3611633
58	0x4001b2ea	2.026545
59	0x3f916ffb	1.1362299
60	0x3f8b1fa9	1.0869037
61	0x3edfb1ef	0.4369044
62	0x3eff5d36	0.49875802
63	0x3fbd5701	1.4792176

0.features.2.0.block.1.0.weight f4 [32, 64, 1, 1]
0	0xbd568432	-0.052372165
1	0x3d9486d5	0.0725228
2	0x3d2035b0	0.0391137
3	0xbcb13401	-0.021631243
4	0xbd8873ee	-0.06662737
5	0xbe222437	-0.15834127
6	0xbf0775a0	-0.52913857
7	0xbe963c9b	-0.29343113
8	0xbdcd3b88	-0.1002112
9	0x3cbdee3d	0.02318489
10	0xbd7c62be	-0.061617605
11	0xbec29760	-0.38006115
12	0xbe3bd70e	-0.18343756
13	0x3d9dceec	0.07705483
14	0xbef71500	-0.4825821
15	0xbeab4b11	-0.3345571
16	0x3e2d6802	0.16934207
17	0xbd309a11	-0.04311568
18	0x3ca627f2	0.02028272
19	0x3d9bb353	0.07602563
20	0xbc970ad6	-0.018437784
21	0xbe5a8f2e	-0.21343681
22	0xbe88b380	-0.26699448
23	0x3df5c7b4	0.12000981
24	0x3ea39329	0.31948212
25	0x3e228dc3	0.1587439
26	0xbdeed94e	-0.11662541
27	0xbd245550	-0.040120423
28	0xbdd93f29	-0.1060775
29	0x3ea15ec9	0.31517628
30	0x3ea70266	0.32619017
31	0x3ba54a9a	0.0050442936
32	0x3ed38944	0.41315663
33	0x3e54afa6	0.2077013
34	0x3e76dcc2	0.2410765
35	0xbea6fdd8	-0.32615542
36	0xbd872a36	-0.06599848
37	0x3ea83c6a	0.32858592
38	0x399aaf2a	0.00029503676
39	0xbea303b8	-0.31838775
40	0x3c249c9c	0.010047104
41	0x3e3576f1	0.17721154
42	0x3ebf93e7	0.37417528
43	0x3e26b2ec	0.16279191
44	0xbc0470b0	-0.008083507
45	0xbbf535ba	-0.0074832113
46	0xbe2dfbb5	-0.1699055
47	0x3b8b3016	0.0042476756
48	0x3ed1fb6f	0.4101214
49	0xbe921ccb	-0.28537592
50	0x3dd6f3a3	0.10495689
51	0xbe0972e0	-0.13422728
52	0x3e50ab21	0.2037778
53	0xbe46c5b0	-0.1941135
54	0xbe7a6a29	-0.2445456
55	0x3e110aa8	0.14164221
56	0x3e3901bb	0.18067066
57	0x3e6d4b88	0.23173344
58	0xbe3d8bc4	-0.18510348
59	0xbed7f40f	-0.4217839
60	0x3e19714c	0.14984626
61	0x3e192650	0.14956021
62	0xbe84a870	-0.25909758
63	0xbee31e34	-0.4435898
64	0x3dbcf3e3	0.09226205
65	0x3e8beb34	0.27327883
66	0x3da5dc8d	0.08098707
67	0x3e56e2a6	0.20984897
68	0xbee1328e	-0.43983883
69	0x3eb344da	0.35013467
70	0xbdbde498	-0.092721164
71	0xbe131889	-0.14364828
72	0xbe4c99be	-0.19980523
73	0xbbdb5337	-0.0066932696
74	0xbe68a45d	-0.2271895
75	0xbea608ee	-0.32428688
76	0xbda8fbed	-0.08251176
77	0x3e37e956	0.17960104
78	0xbd87dcc8	-0.066339076
79	0x3ecb7ef9	0.3974531
80	0xbe29b720	-0.16573763
81	0x3e88ec55	0.26742807
82	0x3d734f1c	0.059401616
83	0xbdfe515b	-0.12417861
84	0x3dddbe3d	0.10827301
85	0x3db6b08b	0.08920392
86	0xbd41df67	-0.047332194
87	0xbc1dd965	-0.00963435
88	0x3ebd41ae	0.36964172
89	0x3d756f25	0.05992045
90	0x3bd24fb6	0.0064181937
91	0x3ea48412	0.32132012
92	0xbd9f3ee9	-0.07775671
93	0xbd70b931	-0.058770362
94	0x3e41157c	0.18855852
95	0xbc04150a	-0.008061657
96	0x3e048ea8	0.12945044
97	0xbd96e061	-0.07367016
98	0x3edf0c46	0.4356405
99	0xbd999b76	-0.07500355
100	0x3e4d158d	0.20027752
101	0xbc240136	-0.010010054
102	0x3e7c4bcb	0.24638288
103	0x3c3e49b6	0.011614254
104	0x3d7a4f24	0.06111063
105	0xbea86b6f	-0.32894465
106	0xbc5a0223	-0.0133061735
107	0xbd249a8e	-0.040186457
108	0xbbfea4a4	-0.0077710915
109	0x3ef90c07	0.4864199
110	0xbecbcb34	-0.3980347
111	0x3d5a02fb	0.0532255
112	0xbe6df56d	-0.23238154
113	0xbdbb9936	-0.09160082
114	0xbd8f6a07	-0.07002645
115	0xbc8d872a	-0.017276365
116	0xbe0f0177	-0.13965403
117	0xbe35c31a	-0.17750207
118	0x3dd70d3e	0.105005726
119	0x3e5004f1	0.20314385
120	0xbef73f4f	-0.48290488
121	0x3dd0bb35	0.10191957
122	0xbcb2d267	-0.021828843
123	0x3e1ceba7	0.15324269
124	0xbe22805a	-0.15869275
125	0xbec5bb8c	-0.3861965
126	0xbd007b16	-0.031367384
127	0x3e353511	0.17696024
128	0x3ec152df	0.37758538
129	0x3c53befa	0.01292395
130	0xbe8636ff	-0.26213834
131	0x3ea75955	0.32685342
132	0xbe3388ca	-0.1753265
133	0x3d1a9efc	0.037749276
134	0xbe979418	-0.29605174
135	0x3e0c3b83	0.13694577
136	0x3e9551ed	0.29164067
137	0x3e2dc49e	0.16969535
138	0x3e14a6ac	0.14516705
139	0xbe451ded	-0.19249697
140	0xbe049a54	-0.12949497
141	0xbdb55e8d	-0.08855925
142	0x3e64491f	0.22293518
143	0x3dcbc785	0.09950165
144	0x3d399bb9	0.045314524
145	0x3d3deb5b	0.04636703
146	0xbc98f9b9	-0.018673765
147	0x3e984659	0.2974117
148	0x3e094208	0.13404095
149	0xbde0b62d	-0.10972247
150	0xbd385311	-0.045001093
151	0x3d58e648	0.05295399
152	0xbddc8d05	-0.10769085
153	0x3d553337	0.052050795
154	0x3ed58886	0.41705722
155	0x3eab745d	0.33487216
156	0xbdc61248	-0.096714556
157	0x3f1c6b67	0.6110138
158	0xbe522c4c	-0.2052471
159	0x3cfbbd9b	0.03073006
160	0x3d17c69e	0.03705465
161	0xbe9c2f99	-0.30505064
162	0xba22fa21	-0.00062170817
163	0xbf1abf44	-0.604481
164	0xbd93226e	-0.07184301
165	0x3eb07a6b	0.34468397
166	0x3eaad7a0	0.33367634
167	0xbd9b5394	-0.07584301
168	0xbe3feace	-0.18741915
169	0xbe2cb62e	-0.16866371
170	0xbd417e01	-0.047239307
171	0xbe8c3595	-0.2738463
172	0xbe752ca0	-0.23942804
173	0x3a91abd8	0.0011113835
174	0xbdf223d4	-0.1182324
175	0xbebb5e07	-0.36595175
176	0x3e9ec2da	0.31008035
177	0x3e996379	0.29958704
178	0x3e719de9	0.23595394
179	0xbe4b5879	-0.19857968
180	0xbe8a64ea	-0.27030116
181	0xbc8e512f	-0.017372696
182	0x3c4782fa	0.012177223
183	0xbe4d3879	-0.20041074
184	0xbe1d09f8	-0.15335834
185	0xbde36d61	-0.11104847
186	0x3f37bd84	0.7177355
187	0xbe7fc821	-0.24978687
188	0xbf142c6b	-0.57880276
189	0x3e90569f	0.28191087
190	0xbebed152	-0.37269074
191	0xbf1d95fe	-0.61556995
192	0x3e477de6	0.1948162
193	0xbe8f117d	-0.2794303
194	0xbea84917	-0.32868263
195	0xbe1bc1bc	-0.15210623
196	0xbf087987	-0.53310436
197	0x3e65aea9	0.22429909
198	0x3e0fc0be	0.14038369
199	0xbeb2071f	-0.34771058
200	0xbf056224	-0.52102876
201	0x3ddecbb3	0.10878696
202	0xbdf16cfc	-0.11788365
203	0x3d9261b8	0.071475446
204	0xbe8917b3	-0.26775894
205	0x3e4fd6f6	0.20296845
206	0xbd6e9921	-0.058251504
207	0xbe2a96af	-0.16659044
208	0xbccd6279	-0.02507137
209	0x3de60b5d	0.11232636
210	0xbe8d1576	-0.27555436
211	0x3e3b4efe	0.18291852
212	0x3dad6089	0.08465678
213	0x3d8ce576	0.06879704
214	0x3df50739	0.11964268
215	0xbe9ac764	-0.30230248
216	0xbe85d3f4	-0.2613827
217	0x3d4834dc	0.048878536
218	0x3e4f66e2	0.2025409
219	0x3e94f2c5	0.29091468
220	0xbf04ec08	-0.51922655
221	0x3e6c93f8	0.2310332
222	0x3cd6427e	0.026154753
223	0xbe152447	-0.1456462
224	0x3d132214	0.03592117
225	0x3dd5f666	0.104473874
226	0x3e09dace	0.13462374
227	0xbe4708cd	-0.19436951
228	0xbe0e374b	-0.1388828
229	0x3d568458	0.052372307
230	0x3b93851d	0.0045019523
231	0x3f06c6d6	0.5264715
232	0xbe803183	-0.25037774
233	0x3d89470f	0.067030065
234	0xbe21a0f8	-0.15784061
235	0xbe6f1b1c	-0.23350185
236	0xbdd7722a	-0.10519822
237	0x3e8fcbbe	0.2808513
238	0x3dc255f7	0.09489053
239	0x3e48ddce	0.19615862
240	0x3df8a035	0.12139932
241	0x3e027a4e	0.12741968
242	0x3f293103	0.6609041
243	0xbd7ae9c5	-0.061258096
244	0x3e173940	0.14767933
245	0x3e818901	0.25299838
246	0x3dcf6871	0.101273425
247	0x3dbd4b20	0.092428446
248	0xbeea307e	-0.45740122
249	0x3cd701fc	0.026246063
250	0x3e6d8570	0.23195434
251	0xbe82854f	-0.2549233
252	0xbe9b9171	-0.303844
253	0xbd24ed7a	-0.040265538
254	0x3ea31e9b	0.31859288
255	0xbdfb9f06	-0.12286191

0.features.2.0.block.1.1.weight f4 [32]
0	0x3f7fc9d5	0.99917346
1	0x3f7f00ac	0.996104
2	0x3f7e2b6d	0.9928501
3	0x3f801c9c	1.0008731
4	0x3f8100c9	1.0078365
5	0x3f7d2631	0.988864
6	0x3f826ed1	1.0190068
7	0x3f7c11ae	0.9846448
8	0x3f839c55	1.0282084
9	0x3f7c8460	0.9863949
10	0x3f841fc2	1.0322192
11	0x3f801c85	1.0008703
12	0x3f8319db	1.0242265
13	0x3f7ecab8	0.99528074
14	0x3f80ebfb	1.0072016
15	0x3f7c3426	0.9851707
16	0x3f7e96f5	0.9944909
17	0x3f800669	1.0001956
18	0x3f7c591d	0.98573476
19	0x3f83bbaf	1.0291651
20	0x3f7d5141	0.9895211
21	0x3f82aea9	1.0209552
22	0x3f816957	1.0110272
23	0x3f841f01	1.0321962
24	0x3f835315	1.025973
25	0x3f8048c6	1.0022209
26	0x3f81caa7	1.013997
27	0x3f7d8b34	0.9904053
28	0x3f81af73	1.0131668
29	0x3f7a890d	0.9786537
30	0x3f798358	0.9746604
31	0x3f7eea0a	0.99575865

0.features.2.0.block.1.1.bias f4 [32]
0	0xbd1112a6	-0.035418175
1	0x3b4c188e	0.0031142565
2	0x3b2c600b	0.0026302363
3	0x3b8a4206	0.0042192964
4	0xbbb89f45	-0.005634221
5	0xbcdadf08	-0.026717678
6	0x3d8b6ad3	0.068074845
7	0xbc9560e8	-0.018234685
8	0xbccd2d0e	-0.025045898
9	0x3d815079	0.06314177
10	0xbd6267c3	-0.055274736
11	0x3d28d746	0.041220926
12	0x3b32232c	0.0027181609
13	0xbd31d4da	-0.04341588
14	0xbb5ba5fb	-0.003351568
15	0xbd12a179	-0.035798524
16	0x3d11cf7f	0.035598274
17	0x3ca8b8ee	0.020595994
18	0xbd9179c1	-0.07103301
19	0x3bf579b5	0.0074913152
20	0x3d419c1d	0.04726802
21	0x3db7fe06	0.08983998
22	0xbd3a077d	-0.045417298
23	0xbd8af3a8	-0.06784755
24	0x3d265bc4	0.04061486
25	0x3cb3fc0b	0.02197077
26	0x3d2e922c	0.04261987
27	0x3ce84584	0.02835346
28	0x3d28ad90	0.041181147
29	0xbd09f873	-0.033684205
30	0x3d97c7f5	0.07411186
31	0x3d7ec24d	0.06219702

0.features.2.0.block.1.1.running_mean f4 [32]
0	0xbe7a3185	-0.24432953
1	0x3db0e959	0.086382575
2	0xbdfe4f03	-0.12417414
3	0xbe2cc73c	-0.16872877
4	0xbe4e930c	-0.20173281
5	0xbe8d9262	-0.27650744
6	0x3ea8ae5d	0.3294553
7	0x3c951859	0.018200086
8	0xbe979362	-0.29604632
9	0x3f294c9f	0.6613254
10	0xbf00daf1	-0.5033408
11	0xbe164bb7	-0.1467732
12	0x3e92aab2	0.28645855
13	0xbe206be0	-0.15666151
14	0xbf3f17af	-0.74645513
15	0xbf2d8eaf	-0.6779584
16	0xbe0e8267	-0.13916932
17	0x3dc7d5a8	0.097575486
18	0xbe470368	-0.19434893
19	0x3de59d27	0.11211615
20	0xbd6dd7b2	-0.05806703
21	0x3f374508	0.7158971
22	0x3df165af	0.11786973
23	0xbf5b3137	-0.8562197
24	0x3f1986c5	0.59971267
25	0x3f12c854	0.57336926
26	0x3e3284c7	0.17433463
27	0xbedb4c2e	-0.42831558
28	0x3eb28303	0.3486558
29	0xbec30f12	-0.38097435
30	0x3e1ce7ff	0.15322874
31	0x3dc97462	0.098366514

0.features.2.0.block.1.1.running_var f4 [32]
0	0x3feb5784	1.8386083
1	0x3f3300a5	0.6992286
2	0x3fb0ff36	1.3827884
3	0x3fc7bb92	1.5604117
4	0x401b6df9	2.4285872
5	0x3f40399f	0.7508792
6	0x3f9d899f	1.2307624
7	0x3fb15783	1.3854831
8	0x40222fbf	2.5341642
9	0x3fef945c	1.8717151
10	0x3f9f39c9	1.243951
11	0x40610dce	3.5164676
12	0x3fd1f883	1.6403965
13	0x3fcaa57d	1.5831753
14	0x408109b4	4.0324345
15	0x400452b4	2.0675478
16	0x3fca78bb	1.5818094
17	0x3fbd280a	1.4777844
18	0x3fbc3551	1.4703771
19	0x3ffabb39	1.9588386
20	0x4015e14e	2.3418765
21	0x400e2bd0	2.221424
22	0x3fbd709c	1.4799991
23	0x3fe5207c	1.7900538
24	0x40bcc39d	5.8988786
25	0x3f911df7	1.133727
26	0x3ffc389e	1.9704778
27	0x3fc4c078	1.5371237
28	0x3ff5236c	1.9151435
29	0x3faf4c40	1.3695145
30	0x404dc65e	3.2152324
31	0x407e59f7	3.974241
