code/modeling/ckpt/AutoencoderConfig([1, 2, 2], flip=True, rotate=True)/autoencoder_30000.pth (torch, 709098 bytes, 97 tensors)

0.features.0.0.weight f4 [16, 8, 3, 3]
000000 24 ee 11 be a0 e5 9f 3d 12 fd 2e be 55 20 92 3c
       -0.14251 0.07807469 -0.17088726 0.017837683
000010 df 0f c4 3e 37 1d 52 3e ab c1 12 be d1 06 95 3e
       0.3829336 0.20518957 -0.14331691 0.29106763
000020 6e a9 c8 bc 90 ff 71 3d 89 03 01 bd 03 ef 96 3c
       -0.024494853 0.059081614 -0.031497512 0.018424517
000030 9b ed e5 3a d2 0d 9e bd 8a 04 0b 3c 12 8e 9d 3b
       0.0017542125 -0.0771748 0.008484969 0.004808196
000040 ca 12 3a bc ab 1d a0 3d 49 71 e2 bb ab a2 aa 3c
       -0.011357019 0.07818159 -0.0069104773 0.02082952
000050 24 12 f4 3c 4f 2d 08 3d d8 06 cb 3c c4 1d 33 3d
       0.029793806 0.033246335 0.024783537 0.04372956
000060 b8 00 d0 bc 1a 50 19 3c 24 a4 22 3c 8b 23 4b bd
       -0.025390968 0.009357477 0.0099268295 -0.049594443
000070 d2 5a 55 bc 80 c4 2c bc 99 13 9a bd 25 3a 70 3d
       -0.0130221415 -0.010544896 -0.07523269 0.0586492
000080 66 60 87 3d 3d 41 53 bd 13 13 20 3d 7a c7 68 3d
       0.066101834 -0.051575888 0.03908069 0.05683086
000090 5f 40 27 3d 93 9b 16 3d 91 45 ea b8 c8 0a 16 3d
       0.040832873 0.03676946 -0.00011170947 0.036631376
0000a0 bc 9f ba 3c a5 61 99 3d 4b 5f 17 3d 24 ea ca 3b
       0.022781245 0.07489327 0.036956113 0.0061924625
0000b0 68 d3 5c bb e8 24 89 3c 74 1d 8b bb c1 ee f3 3b
       -0.0033695344 0.016741231 -0.0042454544 0.007444233
0000c0 19 76 28 bc ac 7d 9b bd 8e 00 82 bd 22 60 1d bb
       -0.010282063 -0.075923294 -0.06347762 -0.0024013598
0000d0 de d5 6d bd f8 38 10 bd 18 26 4d 3c d7 27 ce bc
       -0.058065288 -0.03521058 0.012521289 -0.025165481
0000e0 81 42 f5 3c 68 7a 0f bd 9c 00 f0 bd 13 ed 9d bd
       0.029938938 -0.035028845 -0.11718866 -0.07711234
0000f0 a9 56 2a bb 62 d5 a9 bd c1 d6 7a 39 a2 77 72 3c
       -0.0025991595 -0.08292653 0.0002392186 0.0147990305
000100 69 43 57 3c 2f a4 f5 3c 93 91 a7 3c c8 e6 f9 bd
       0.01313863 0.029985515 0.020455157 -0.12202221
000110 69 e9 c4 bc 3c 1f 63 bb 4b 39 f3 bc 3b 46 42 3d
       -0.02403708 -0.0034656068 -0.029690405 0.04743026
000120 ef b6 18 bd 24 5a b1 bb 6f b6 e4 3b 46 48 8a bd
       -0.037283834 -0.005412357 0.0069797556 -0.06752066
000130 c6 85 6f 3d 18 8d 23 3c 63 9c 90 bb b1 55 88 bd
       0.058477186 0.00998237 -0.004413174 -0.06656969
000140 af e1 78 bd a4 50 a3 bd 06 ea 08 3e 6d 7f b6 bc
       -0.060762104 -0.07974365 0.13370523 -0.022277558
000150 b7 f9 fe 3d 76 1c c4 3e bd e7 7f 3d d5 e6 5b bd
       0.12449973 0.38302964 0.062476862 -0.053686935
000160 b9 67 7d 3e cc b9 85 bb b8 87 07 bb 0c 5c 25 3c
       0.24746598 -0.0040809866 -0.002068026 0.0100927465
000170 e0 f7 53 3d 81 22 6d 3d 53 cf 23 bc 97 4a 14 bd
       0.051750064 0.057894234 -0.00999816 -0.036203947
000180 bf f9 84 bd ff 7d 66 3d 66 76 34 bc 51 c8 02 3d
       -0.06492948 0.056272503 -0.0110145565 0.031929318
000190 ce a0 08 bd ba 11 00 3c c0 40 51 3b 5d bc b2 3c
       -0.03335648 0.007816726 0.0031929463 0.021818334
0001a0 34 7d 9f bd 6c 00 02 3c bc fe 66 3c a2 8f 0e bc
       -0.077875525 0.007934671 0.014098819 -0.008701237
0001b0 0c 38 34 3c a0 f0 ec 3b ac 29 f0 bb eb a7 b8 3d
       0.010999691 0.007230833 -0.0073291864 0.09016403
0001c0 51 b5 ca 3d 35 d2 7c 3c 2d 1c 80 3d ea ef 2e 3c
       0.098978646 0.015430977 0.06255374 0.010677317
0001d0 8d d2 9c 3d d6 22 34 bd 76 6d 96 bd 82 cd 94 bd
       0.07657347 -0.043978535 -0.07345097 -0.0726576
0001e0 42 e3 e4 bc c8 0a 81 bd 73 1c e3 bd 81 06 af bd
       -0.027940396 -0.063008845 -0.11089411 -0.085461624
0001f0 ec 90 01 be 41 58 07 bd a3 15 1e bd 05 bd b4 3b
       -0.1265294 -0.03304315 -0.038594853 0.005515697
000200 36 61 85 bd 10 74 ce 3c 1d 84 7f bd cf 3a 8c bd
       -0.06512682 0.025201827 -0.062381852 -0.06847154
000210 33 86 87 bd 88 36 ad bc 93 0f 2a bc f0 0c 08 3d
       -0.06617393 -0.021144167 -0.01037969 0.033215463
000220 9a c3 c1 3d 85 bb 47 3d 22 d6 4b 3d 10 a0 5a bc
       0.09461136 0.048762817 0.04976476 -0.013343826
000230 23 55 d6 3a 33 c6 47 3d 79 4d 04 3d 62 5f 06 3e
       0.0016352277 0.048773002 0.032300446 0.13122323
000240 77 93 fb 3c 54 ff 50 3c 79 6e ae 3b ab 4d 3a bb
       0.030709965 0.0127561875 0.005323228 -0.0028427641
000250 04 57 8a bd ee b6 ac bc 8d 3a 49 3c 27 54 3a bc
       -0.06754878 -0.021083321 0.012282026 -0.011372603
000260 79 b1 b3 3c 79 d4 83 3d 7b 12 80 bd c1 f6 55 3d
       0.021935211 0.0643701 -0.06253525 0.052237276
000270 15 7f 17 bc e7 7e 91 be aa c5 8e be 7f 4b ed 3a
       -0.009246607 -0.2841713 -0.2788518 0.0018104165
000280 2c b3 98 be e6 c5 c1 be c4 c2 31 bd 78 38 5f 3d
       -0.29824197 -0.37846297 -0.043398634 0.054497212
000290 a2 62 04 3d c4 49 06 3d 0d af 90 3d 62 6d b2 bd
       0.032320626 0.032785192 0.07064638 -0.08712269
0002a0 4a 15 bf 3d b6 bc 5c be c4 3a 37 3c c8 00 38 bd
       0.093302324 -0.21556363 0.011183444 -0.04492262
0002b0 4e d4 0b 3d 54 d8 0a bd ae 72 42 bd 9e 5d c9 3d
       0.034138016 -0.033897713 -0.04747265 0.09832309
0002c0 94 b5 59 bb a0 23 13 bc 66 9d 82 3d a0 0f 9e bc
       -0.0033219801 -0.008980662 0.063776776 -0.01929456
0002d0 0a f5 cc 3c 74 f5 74 bd 3a 00 02 3d 6c 78 02 3d
       0.025019187 -0.059804395 0.031738497 0.031853124
0002e0 58 64 fa bc d2 2b 4b 3d 28 59 02 bc 43 0c 9c bd
       -0.030565426 0.049602337 -0.007955827 -0.07619526
0002f0 2c 37 72 bc fe 65 45 bd 0b b4 1a 3d 48 8b c1 bb
       -0.014783662 -0.04819297 0.03776936 -0.005906496
000300 31 73 9d 3d 68 46 10 bd 1f d7 b1 3d 28 76 91 3c
       0.07687987 -0.035223395 0.08683609 0.017756537
000310 a4 75 48 3d 34 ca c4 3c e2 14 66 3d e8 f4 42 bd
       0.048940316 0.0240222 0.05617226 -0.047596842
000320 c7 07 36 3d f2 84 28 3d 03 ab 18 bb 2f f5 a5 3c
       0.04444101 0.04114241 -0.002329529 0.020258514
000330 26 8d 6d bb 28 df 08 3d ee da a7 3c 06 af 41 bd
       -0.003624746 0.033415943 0.020490136 -0.047286056
000340 6d 60 58 3c 52 d1 9e bd 96 6d be bd 3f 1c b4 3b
       0.013206583 -0.077547684 -0.092982456 0.0054965313
000350 e1 59 a1 3b 7d 09 81 bd 4f 2f 89 bc b6 d8 8b 3c
       0.0049240445 -0.06300638 -0.016746191 0.01707111
000360 cf e4 1f bd e5 35 23 3d d7 10 0c 3d 01 78 ab bd
       -0.03903657 0.03984632 0.034195747 -0.08372498
000370 3f 37 a5 bc 66 13 59 3d 47 74 a7 bc 5c 41 16 3d
       -0.020167945 0.052997015 -0.020441188 0.036683425
000380 13 54 a0 3c 99 87 8d bc 92 da 13 3c b6 db 97 bd
       0.01957134 -0.017276572 0.009024279 -0.074149534
000390 76 35 85 bc c4 5c 12 bd cc d2 1e bd 1c d3 a3 3b
       -0.016260844 -0.035733 -0.03877525 0.0049995314
0003a0 d1 6f 7b 3c 87 3d c5 bb a2 bd 99 3c 23 d7 59 bd
       0.015346483 -0.0060192975 0.018767182 -0.053183686
0003b0 94 23 32 3c 71 c8 87 bb a8 1c 90 bd aa f9 0c bc
       0.01087274 -0.0041437675 -0.07036716 -0.008604446
0003c0 6d 7a 19 3d ea 3d cd bc 4e 81 e4 3c fc 3b dd 3c
       0.03747027 -0.025053937 0.027893689 0.027006142
0003d0 2d 97 d3 3d f1 7d 24 bd 33 99 ef 3d 55 40 85 3e
       0.10331569 -0.04015917 0.11699142 0.26025644
0003e0 4d 9e 90 3e a7 4f 45 3b b3 20 4a 3e 6e e4 0a 3e
       0.28245774 0.003010729 0.19739036 0.13563702
0003f0 7a 51 09 be 18 2c d6 bc 9c e2 97 bc e0 d8 20 bd
       -0.13409987 -0.026144072 -0.018540673 -0.039269328

0.features.0.1.weight f4 [16]
000000 02 25 35 3f ef da 1d 3f 13 2b 4c 3f ab f9 39 3f
       0.70759594 0.6166219 0.79753226 0.7264659
000010 33 55 34 3f 3f 28 62 3f 9b 68 2a 3f 3c 28 22 3f
       0.70442504 0.8834266 0.66565865 0.6334264
000020 74 c8 35 3f 45 1a 3f 3f e6 a1 36 3f 31 d1 21 3f
       0.7100899 0.7464946 0.7134079 0.63209826
000030 59 bf 00 3f b7 dc 19 3f 1a 98 fe 3e 09 3d 34 3f
       0.50291973 0.6010241 0.4972542 0.7040563

0.features.0.1.bias f4 [16]
000000 2c 19 68 3e 30 fa 97 3f f4 49 4e be 73 01 14 3e
       0.22665852 1.1873226 -0.20145398 0.14453678
000010 b1 99 72 3f 89 b2 32 bd 86 40 25 3f 62 d5 00 3f
       0.94765764 -0.043627296 0.6455158 0.50325596
000020 ea 43 aa 3e eb fe c5 3d b2 5d 47 be 51 08 50 3e
       0.3325494 0.09667762 -0.19469336 0.20315672
000030 e2 7b 60 3f e1 04 43 3f 32 ed 0e 3f da ea ca bd
       0.8768903 0.7617932 0.5583068 -0.09908076

0.features.0.1.running_mean f4 [16]
000000 bc 1c af bc fc 5a fb bc 5a 84 2e 3d c5 33 67 3d
       -0.021376006 -0.030683033 0.04260669 0.056445856
000010 cd 59 dc bc 24 2a 48 bc a1 6d 21 3d 42 a0 34 bd
       -0.02689829 -0.012217078 0.03941119 -0.044098146
000020 18 86 4f 3b 95 61 6b 3d a6 3c 1f bb 12 a0 3e bd
       0.003166562 0.05746611 -0.0024297624 -0.046539374
000030 d2 d3 10 bd 99 ca 73 3c b6 67 04 bd 50 8c d2 3c
       -0.035358258 0.014879846 -0.03232547 0.025701672

0.features.0.1.running_var f4 [16]
000000 5a c3 cc 3e 61 8c d1 3e 28 d4 56 3f d6 97 93 3f
       0.3999279 0.40927413 0.83917475 1.1530712
000010 99 2b c1 3e 72 96 45 3e 3d 5f 15 3f 7a b4 3c 3f
       0.37728575 0.19295672 0.5834845 0.73712885
000020 57 76 a4 3e 35 85 8c 3f ca de c4 3e bc e1 57 3f
       0.32121536 1.0978152 0.38451225 0.8432882
000030 65 f1 d5 3e 71 11 51 3e b0 29 b6 3e e0 7b 0e 3f
       0.41785732 0.2041681 0.3557868 0.5565777

0.features.1.0.block.0.0.weight f4 [16, 16, 3, 3]
000000 b1 29 86 bd 00 76 d8 3d 56 8c 8e bc 6e fa 98 bc
       -0.06550921 0.10569382 -0.017400902 -0.018674102
000010 09 fd 79 3e d1 5c 27 3e a5 78 92 be 65 cc a6 bd
       0.24412932 0.16344 -0.2860767 -0.08144454
000020 cf b4 b8 bd 52 d9 03 3e 24 bb 9f bd 71 d0 ff 3c
       -0.090188615 0.1287587 -0.07799366 0.031227322
000030 44 63 2a be 0e 89 d5 bd 13 9c 8a bd 35 0b 45 3c
       -0.1663943 -0.10426532 -0.0676805 0.012026598
000040 fe 42 d3 bc 4d 12 43 bc 8e 37 e9 3d 64 4f 04 3e
       -0.02578878 -0.011906219 0.11387549 0.1292091
000050 40 06 65 3d aa 00 b8 3d ae c8 6b 3e f1 47 83 bd
       0.055914164 0.08984502 0.23025772 -0.06410206
000060 eb f7 24 3e ae a2 0c 3e cb 54 fb 3d d7 b2 af bc
       0.16110198 0.13733932 0.12272032 -0.021447582
000070 c1 60 b7 3d 65 cf 89 bc f0 f0 b3 bd 06 b6 27 3e
       0.08954001 -0.016822526 -0.087861896 0.1637803
000080 63 66 cc bd 55 cd ee bc cc f7 c7 3d 8f 99 b0 bd
       -0.09980466 -0.029150644 0.097640604 -0.08623039
000090 0b 97 09 be 5e cd 89 bc ea 36 b3 bd a7 21 54 bd
       -0.13436525 -0.01682156 -0.087507084 -0.051789906
0000a0 80 4d 89 3d 7d 80 a8 bd 03 9d 3f bd 99 3c af 3c
       0.06704235 -0.08227632 -0.046780597 0.0213912
0000b0 3d c1 86 bd d4 ac 15 3e 81 a9 60 3d e3 96 ac bd
       -0.06579826 0.1461671 0.05484915 -0.08427217
0000c0 6b fe d3 bc 6b 5f 86 3d 55 d1 42 3e ba 9d b5 bd
       -0.025878152 0.06561168 0.19025166 -0.088679746
0000d0 f9 30 a2 bc 62 92 02 bc 5a 05 a5 3c 76 5b 4e bd
       -0.019798743 -0.007969471 0.020144153 -0.050380193
0000e0 9c b1 36 3e cb fd 1d bd 2b 0d 24 bd b5 aa eb bd
       0.1784119 -0.038572114 -0.04005162 -0.11507169
0000f0 8d d2 7d bc ca 3d e3 bd 00 d3 94 bc 79 40 55 be
       -0.015492094 -0.1109577 -0.018167019 -0.20825376
000100 78 48 f3 bd 08 f3 b8 3d 8b 61 78 be 09 ab cd bd
       -0.11879057 0.090307295 -0.2425596 -0.10042388
000110 c4 c3 90 bd 09 09 4c be 01 e2 49 3b 8d 28 2a be
       -0.07068589 -0.19925322 0.0030804875 -0.16617031
000120 5b 21 4e be 18 c2 58 3c ee 69 47 3c fd 86 04 3d
       -0.20129912 0.013229869 0.012171252 0.032355297
000130 88 14 9f bc d7 40 30 bd c4 0e c5 bd 51 01 34 3c
       -0.01941897 -0.043030586 -0.09621957 0.010986642
000140 22 bf 19 bd 89 01 c4 3d aa da 80 3d 54 79 0d be
       -0.037535794 0.09570605 0.06291707 -0.13815814
000150 c2 1f 8d 3d 72 65 13 3e 2f 0d ea 3d ef 06 30 3d
       0.06890823 0.14394167 0.11428296 0.042975362
000160 98 9f b1 3d 93 91 b6 3d 39 b2 36 3e 36 58 2d bc
       0.08673018 0.08914485 0.17841424 -0.010580113
000170 10 c8 c8 3b c7 f3 c7 3d 36 30 86 bd 46 0f c5 3d
       0.006127365 0.09763294 -0.06552164 0.09622054
000180 4d 0e 02 3e f9 1a 94 3d 38 22 50 bc 53 86 1b be
       0.12700768 0.07231707 -0.012703471 -0.1518796
000190 91 6a 9f bb cd 16 f6 bc d6 ff 0d be 3c e8 37 be
       -0.0048649986 -0.03004017 -0.13867125 -0.17959684
0001a0 2a de c7 bc 60 4c 5d bd f8 42 3c be f7 8b fa bd
       -0.024397928 -0.054027915 -0.18384922 -0.122337274
0001b0 fa e9 89 3c 6e 6d 57 be 16 bf 50 be a6 76 dd bd
       0.016835202 -0.21037838 -0.20385394 -0.10813646
0001c0 45 07 27 bd c8 41 0f bd 54 45 cb bc a5 5d 43 be
       -0.040778417 -0.034974843 -0.024813332 -0.19078691
0001d0 8a 88 17 be da 6f 51 3e 74 87 36 be fe eb 3c 3d
       -0.1479818 0.20452824 -0.17825109 0.046123497
0001e0 ad 05 85 bc a7 ba 14 3e 49 2f d0 bc e2 d1 8a 3d
       -0.016238058 0.14524327 -0.025413172 0.06778313
0001f0 bf 46 92 bd 5f 8d 40 3d 6f 97 dc bd 76 6f e6 bd
       -0.071424 0.047009822 -0.10771071 -0.11251728
000200 9c 29 7d be 82 83 0d be d5 1d 0b be 3c cc 34 bd
       -0.24722904 -0.13819697 -0.13585599 -0.044140086
000210 2e 68 84 bd cc de 07 3e 56 34 5d bd a2 f4 f2 3d
       -0.06465183 0.13268584 -0.05400499 0.11863066
000220 41 c8 0b bd 6c f7 a9 3d 97 eb 17 3d 5c bc 31 be
       -0.034126524 0.08299145 0.03708991 -0.1735701
000230 3b 71 84 bb eb b5 76 3e c7 04 b6 bc f9 0a 59 3e
       -0.0040418184 0.24092834 -0.022219075 0.21195592
000240 db ca ed bc 4f 55 7b bc 1f 86 0a be 9d e0 ef bc
       -0.029027393 -0.015340163 -0.13527726 -0.029281909
000250 a7 f1 94 3d ac fb 3f bd ac 93 ae bc 02 bf 08 be
       0.07272654 -0.046870872 -0.02131065 -0.13354114
000260 4d d1 dc 3d de 64 48 bd 83 d2 40 bd 7e 64 43 bd
       0.107821085 -0.04892432 -0.04707576 -0.04770326
000270 52 9e eb bc 8c 2a 1b 3e 24 c6 5e 3d fb b9 e7 3c
       -0.028762016 0.15152949 0.05438818 0.028286925
000280 22 64 1e 3d 08 ab 73 3d 6d ae a6 bd 4b 9a 91 bd
       0.038669713 0.05948928 -0.08138738 -0.07109507
000290 47 48 8c 3e de ae 28 bd 8c e9 0f be d4 6f 13 3e
       0.27398893 -0.04118239 -0.14053935 0.14398128
0002a0 1a 75 23 b9 d7 96 f7 3b 50 c0 b1 3d 16 e4 4e be
       -0.00015588515 0.0075558233 0.08679259 -0.20204195
0002b0 ee 58 4a 3d c7 9f a4 bd 48 5b 3d be 88 03 95 be
       0.049401216 -0.080382876 -0.18491852 -0.29104257
0002c0 1c 44 82 3d 3d db da bc 26 0b 4b bd d5 0a 5a 3d
       0.06360647 -0.02671587 -0.04957118 0.053232986
0002d0 0c 08 ea bc f7 37 c9 3c d4 d4 63 bd d6 3a 83 bd
       -0.02856829 0.024562819 -0.05562289 -0.064077064
0002e0 f4 eb 74 3d d2 9b b6 bd 23 ef e9 3a 04 03 d5 3d
       0.059795335 -0.08916439 0.0017847758 0.10400966
0002f0 9a ce 3b be 70 df 36 3d 66 49 84 bd e6 9f ca 3d
       -0.18340531 0.04464668 -0.06459312 0.098937795
000300 64 3b aa 3d 93 ac 53 bd 94 df 19 3e b0 30 42 bd
       0.08312109 -0.05167825 0.15026695 -0.047409713
000310 ea 08 4e 3d bb 71 90 bc dd 0a 72 bc 3e 70 18 be
       0.05030147 -0.017632356 -0.014773098 -0.14886567
000320 21 78 17 3b 69 55 4f bc 79 00 2b be c4 3e 37 be
       0.0023112374 -0.012654641 -0.16699399 -0.17895037
000330 4d ff 0d be a5 da 70 bd 9b 2f 95 bd 8e ff 43 bc
       -0.13866921 -0.058802266 -0.07284471 -0.011962784
000340 16 5a 48 3e 13 fd 53 bd 37 c4 a5 3d 4c c6 14 3e
       0.19565615 -0.051755022 0.08094066 0.14528769
000350 2b ce 80 bc 95 a3 b8 3d 42 06 de 3b 96 e6 f7 3d
       -0.015723309 0.09015576 0.0067756483 0.12104528
000360 8b 0e db bd 08 71 5f bd 1a 48 a3 bc b9 5a 6c bc
       -0.10696133 -0.054551154 -0.019931842 -0.014425927
000370 14 86 59 bd f3 30 56 bd 3e ec 67 be 4c 0c a4 3d
       -0.053106382 -0.052292775 -0.22648713 0.08010158
000380 92 78 01 be d0 f3 1e be 54 4e 0b be 9a 74 1b be
       -0.1264365 -0.15522695 -0.13604099 -0.15181199
000390 22 b6 9b bd b2 e9 ce bd 42 21 8f bb f5 12 d6 bd
       -0.076030985 -0.101031676 -0.0043679783 -0.104528345
0003a0 8e 4d 80 bd c5 85 ce 3d f7 05 1b 3e a4 d4 e1 3d
       -0.062647924 0.10084108 0.15138994 0.11026886
0003b0 a2 2f 26 3e 23 c3 05 3e 69 92 a9 3e db 35 7a 3d
       0.16229108 0.1306272 0.33119515 0.061086517
0003c0 da 1e 15 3e d8 e4 2d 3e a1 94 07 3e b6 6c 42 3d
       0.1456255 0.16981828 0.13240291 0.047466956
0003d0 9b 54 87 3b 13 19 fe bd 93 d9 d9 3c c4 be 27 3d
       0.004129959 -0.12407126 0.026593005 0.040953413
0003e0 01 bc e1 bd 32 4c b9 3d 10 42 27 3e 79 4f 71 3d
       -0.11022187 0.09047736 0.16333795 0.05891368
0003f0 98 bb 78 3c b1 f7 a0 bd 9f 19 df 3d 6e 85 b5 3d
       0.015181445 -0.078597434 0.10893559 0.0886334

0.features.1.0.block.0.1.weight f4 [16]
000000 66 3f 1f 3f 78 33 e6 3e 74 7b 19 3f 51 95 1d 3f
       0.62206113 0.44961143 0.59954 0.61555964
000010 9d 2b 12 3f ea e7 21 3f b9 e8 18 3f 94 a9 ba 3f
       0.570978 0.632445 0.59730107 1.4583001
000020 a4 d7 2d 3f cb 51 1c 3f 97 87 30 3f e7 4f 22 3f
       0.67907166 0.61062306 0.68956894 0.6340317
000030 3f a8 12 3f 24 64 0e 3f 5a 41 ea 3f 8d b3 1a 3f
       0.57287973 0.5562155 1.8301194 0.6043022

0.features.1.0.block.0.1.bias f4 [16]
000000 03 5e b0 3c 2f 10 c2 3c 1b 13 28 bd 7a 34 43 bd
       0.021529203 0.023689358 -0.041033845 -0.047657467
000010 eb d5 bc 3d 84 bd dc bc 61 12 af 3e dc 98 c4 bf
       0.09220489 -0.026945837 0.3419371 -1.5359149
000020 c6 6c d5 3d 50 37 91 3e 3d c1 ab bd 9d 4e 85 3d
       0.104211375 0.28362513 -0.08386467 0.06509135
000030 8d b9 00 3e 32 df 04 3f a9 99 b6 bf 91 95 c9 bb
       0.12570782 0.5190307 -1.4265643 -0.006151863

0.features.1.0.block.0.1.running_mean f4 [16]
000000 0f a4 f7 bf f2 02 2c bf 78 87 bb 3c 2f f3 8a bf
       -1.9346942 -0.67191994 0.022891745 -1.0855464
000010 84 3a 0d bf 72 fa c7 be 9e 1f 82 bf 6c e3 03 bf
       -0.5516741 -0.39058262 -1.0165899 -0.51518893
000020 c1 d9 a9 3f da be 92 3f 53 ca a3 bf 87 5e 8e 3f
       1.3269578 1.1464493 -1.279612 1.1122597
000030 ef e8 0c be fa 09 ad be fa 48 32 bf e1 57 11 c0
       -0.13760732 -0.33796674 -0.69642603 -2.2709887

0.features.1.0.block.0.1.running_var f4 [16]
000000 e3 09 86 40 b8 5e d4 3f 63 28 55 3f 02 8c 37 40
       4.188707 1.6591406 0.8326475 2.8679204
000010 61 f6 f0 3f 37 fa be 3f c8 07 cb 3f 6c fd 89 3e
       1.8825189 1.492011 1.586175 0.26951158
000020 f2 4a 6b 40 3f 64 52 40 83 c6 92 40 bc bc 52 40
       3.6764493 3.2873685 4.5867324 3.2927694
000030 0f f0 09 40 80 92 7b 3f ed e9 ad 3e 1e a4 c8 40
       2.155277 0.98270416 0.33967534 6.270034

0.features.2.0.block.0.0.weight f4 [64, 16, 3, 3]
000000 b7 46 65 3d 16 ca 5e 3d 7e 4c e1 bc 92 45 4e 3a
       0.055975642 0.054391943 -0.027502295 0.0007868643
000010 c3 33 05 3d 7b 56 a6 bd 26 9f bf 3c a1 53 75 bb
       0.032520067 -0.081219636 0.023391318 -0.003743388
000020 a7 b5 12 be b1 e6 fe bb a2 14 f0 3d f0 2c 65 3d
       -0.14327107 -0.0077789654 0.117226854 0.05595106
000030 12 13 89 39 c2 71 48 3e dd 19 6e 3e 43 03 f3 bc
       0.00026144885 0.19574645 0.23252054 -0.029664641
000040 7f 64 63 3c 86 de b8 3a 01 c0 af 3b 81 74 32 be
       0.013878941 0.0014104403 0.005363465 -0.17427255
000050 4f 42 7c bd f0 d3 a7 bd cf 09 9e bd 71 c9 06 be
       -0.061586674 -0.08194721 -0.077167146 -0.13162781
000060 fc 62 a4 3d 4a 65 3f bd 87 b7 d3 bb cb c4 87 bd
       0.08026692 -0.046727456 -0.006461087 -0.06629332
000070 5d 9f e0 3d c5 4b 11 bd 85 5d 6e 3d f7 21 fd 3d
       0.10967896 -0.03547265 0.058194656 0.12359994
000080 50 f2 6a 3d 45 29 67 bd e5 e8 8a bc 48 b2 ca bd
       0.057359993 -0.056435842 -0.016956756 -0.09897286
000090 c4 63 95 bd c4 32 a3 bb 0a 7d ba bc e9 13 92 3c
       -0.072944194 -0.004980417 -0.022764701 0.01783176
0000a0 9e 86 b3 3d d1 33 4a bc 8c a5 1f 3d c2 e5 20 3c
       0.087659106 -0.012341456 0.038976237 0.0098204035
0000b0 88 44 06 3d 83 e2 4d 3c 70 ed fc bb e9 3a a8 bd
       0.0327802 0.012566212 -0.0077187344 -0.08214361
0000c0 93 ee 7b bb bb 23 8c 3d 40 0b 62 bd ec 90 8c 3c
       -0.0038441762 0.068427525 -0.05518651 0.017158948
0000d0 3e 5b c2 bd bc 89 4d bd 26 e6 ba bb f9 0d 75 3d
       -0.09490059 -0.05018018 -0.0057037054 0.05982778
0000e0 5e ca 2a 3c 4f d5 c4 bd c7 8b fc bd d5 05 a4 bd
       0.010424225 -0.09610998 -0.12331348 -0.08008925
0000f0 07 fc 63 bc fc 57 f6 3d 42 14 bc 3b 15 ad f8 3c
       -0.0139150685 0.120285004 0.0057397196 0.03035597
000100 cd 91 a8 bc 7c dc b3 3a b6 7f 2c bd fa 58 0b 3c
       -0.020577336 0.0013722326 -0.042113982 0.0085051
000110 e3 12 af 3c bb 3a 8f 3c 70 9a 0b 3d ce b1 4a 3d
       0.02137131 0.01748406 0.03408283 0.049485974
000120 23 9a 5e bc 8d d1 91 3d d9 b5 fd 3d 69 7f 37 3d
       -0.013586554 0.07120047 0.123882 0.044799242
000130 2a cf e9 3d 2b bb 81 bb 6d f8 ef bc 42 1c 03 bd
       0.114164665 -0.0039590797 -0.029293263 -0.03200937
000140 d9 5d 13 3d 6d 5a a7 3b 12 d9 2c 3d d0 8b 9b bd
       0.035978172 0.005107215 0.042199202 -0.075950265
000150 fe 07 ad bd 95 ee 8a bc f8 bd 54 bc e6 ab 36 3d
       -0.0844879 -0.016959468 -0.012984745 0.04459753
000160 a0 6e fb bc 15 68 d8 bc fa c6 9e 3c d0 81 9a bd
       -0.030692399 -0.026416818 0.019381989 -0.07544291
000170 95 16 ee bd 76 2a 9c bd c3 be 09 be 0d 82 9b bd
       -0.11625401 -0.07625286 -0.13451676 -0.075931646
000180 0c 3b 30 3d b5 0d b6 bc 06 10 85 bc b6 22 38 3d
       0.04302506 -0.022223333 -0.016242992 0.044954978
000190 ac e4 68 bd a8 58 3f 3d 2f ee 1e bb ff 74 dd bd
       -0.056858703 0.04671541 -0.0024250855 -0.10813331
0001a0 24 05 16 bd f8 99 be 3c a9 c7 59 3d b6 3b 94 3d
       -0.036625996 0.023266777 0.053168926 0.072379515
0001b0 ca 3d 47 3c f9 ca 20 3c 55 e9 2f bc 11 c9 db bc
       0.012160728 0.009814017 -0.010736783 -0.026829274
0001c0 81 d7 17 3d e9 4d 23 3d 3d fe a6 3c ac db 94 3d
       0.037070755 0.039869223 0.020384902 0.072684616
0001d0 b0 8e 21 3c 34 c6 c8 3c 38 14 b4 bd e1 ce 0b bd
       0.0098606795 0.024508573 -0.08792919 -0.034132842
0001e0 a9 69 fb 3c 0a 66 70 be a1 af 38 bc f1 81 5d 3c
       0.030690031 -0.23476425 -0.011272342 0.01351975
0001f0 7a 98 0a 3d 08 e1 0b 3c bc 1c 60 bd 2e 0e 90 bc
       0.03383682 0.008537538 -0.054714903 -0.017584886
000200 65 f1 5b bc 72 3d ca bc c3 91 e5 bc 9f 3a 0f bd
       -0.013424252 -0.024687503 -0.028023606 -0.034968015
000210 2c de 58 bd 1b 0d 4f bb c3 bb 2f bd 32 f1 02 bd
       -0.052946255 -0.0031593505 -0.042903673 -0.031968303
000220 04 37 86 bd 02 05 11 3d 52 ac 2e bc 59 28 ed bc
       -0.06553462 0.035405166 -0.010661202 -0.028949903
000230 ef dd 12 3e 09 da 16 bd be 4d b4 3c b4 ed 12 3e
       0.14342473 -0.03682903 0.022009727 0.14348489
000240 10 68 f0 bc 7a 53 46 bd 5f 6d 01 bd 04 d8 71 bc
       -0.029346496 -0.048419453 -0.031598445 -0.014760975
000250 b5 df a8 3d f4 13 2f bd f7 b8 e4 3b 4b 32 88 3a
       0.08245794 -0.04274364 0.0069800573 0.0010390965
000260 f6 76 11 bb d8 4a 34 3c 13 19 4b 3d fb 8c 61 bd
       -0.002219615 0.011004172 0.04958446 -0.05506609
000270 c4 5b bb 3c de 50 0d bd 93 83 9e 3d 17 1c cf bc
       0.022870906 -0.03450095 0.077399395 -0.025281949
000280 d0 15 6d 3c 6b 5d c0 bc b6 51 d9 3c f2 01 3b bb
       0.014470533 -0.023482045 0.02652822 -0.0028535095
000290 91 d4 39 3c e3 af 43 bd fe 4a c1 3d 2b 86 d7 bc
       0.011342184 -0.04777516 0.09438132 -0.026309093
0002a0 d9 84 c7 bb 4a ac 0c bd d9 1c c5 ba af f7 ad 3d
       -0.0060888347 -0.034343995 -0.0015038504 0.084945075
0002b0 b7 d9 c9 39 88 44 64 3d ce 92 1e 3d 88 51 c3 bb
       0.00038499918 0.05572942 0.038714223 -0.005960647
0002c0 07 90 8f 39 2f a9 9c 3b 8a a5 25 bd 86 99 ae 3d
       0.00027382394 0.0047809104 -0.040441073 0.08525376
0002d0 be b8 25 bd b5 f0 da 3b c0 96 40 bc 2b e9 34 3d
       -0.040459387 0.0066815265 -0.011754692 0.04416768
0002e0 f2 a9 0d bd 91 40 6b 3c 6e 93 43 bd e6 97 07 b7
       -0.0345859 0.014358656 -0.04774802 -8.081994e-06
0002f0 14 37 3d 3c 9b ff 21 3c 64 16 62 bd 2f 24 35 3d
       0.011548776 0.009887601 -0.055197135 0.04422396
000300 f8 20 3c bd 3f b8 8a bb 9b 0a fc bc ec 97 8a 3c
       -0.04592988 -0.0042333896 -0.030766776 0.016918145
000310 62 a0 6f 3b 23 fb 36 bc 1d 2d 2d bd cd a4 3a 3d
       0.0036564101 -0.011168274 -0.04227935 0.045567323
000320 27 55 0f bd 9f 69 da 3c e1 bd a9 bd 77 2c a0 bc
       -0.034993317 0.026661692 -0.0828817 -0.019552452
000330 2b 3e e1 3c 1b 9d f3 3d be 46 b2 bd 0f 62 99 bd
       0.027495464 0.118952 -0.08704899 -0.07489406
000340 b5 b2 b2 3d 54 9c aa 3d fe d4 b0 3c 35 f8 5e bd
       0.08725492 0.083305985 0.021585938 -0.054435927
000350 c6 c7 1e 3e 1e fd 20 bc cd de ba 3d 3c 3a 83 3d
       0.15505895 -0.009825973 0.09124527 0.06407592
000360 7a 2d e3 bc 3a 0c a3 3d 32 d8 f9 3c ca 30 a8 3c
       -0.027731646 0.079613164 0.030498598 0.020531077
000370 b1 79 6a bd d5 9b 04 bd 11 fc 87 3c 3a 73 7c 3a
       -0.05724496 -0.032375176 0.016599687 0.0009630207
000380 c4 35 1f 3d 86 bb 61 bd 82 7f ab bc 08 46 20 3d
       0.038869634 -0.055110477 -0.020934824 0.039129287
000390 4c 35 36 bd 48 48 b6 3d 28 d2 da bd 50 b5 22 3d
       -0.04448442 0.08900505 -0.106846154 0.039723694
0003a0 38 1d 34 bd 98 b6 14 bd df 21 cc 3c c9 8d 97 bd
       -0.043973178 -0.036306947 0.024918495 -0.0740009
0003b0 bb 70 b6 3b d0 e4 56 bd 7b 31 01 3e a6 8a eb bc
       0.0055676377 -0.052464306 0.12616532 -0.028752636
0003c0 96 a8 05 bd dc 0d b3 3b 04 be be 3c f7 c3 dc bc
       -0.03263148 0.0054642987 0.023283966 -0.026948912
0003d0 f3 b7 fa bc bb 79 00 be 21 e0 22 bd 2e 0c 10 bd
       -0.030605292 -0.12546436 -0.039764527 -0.035167865
0003e0 92 77 e4 bd 3d 5d 31 bd cb 5b d5 3c b3 fc 80 bd
       -0.11155619 -0.04330181 0.026044747 -0.062981986
0003f0 0a 3f 3a 3d f1 23 0b 3d bc 96 21 bd d1 ea 21 bd
       0.045470275 0.033969823 -0.039450392 -0.03953058

0.features.2.0.block.0.1.weight f4 [64]
000000 9a c4 23 3f 82 53 89 3f 8d f4 38 3f a7 3c a5 3f
       0.63971865 1.072861 0.72248155 1.2909135
000010 63 09 3c 3f df 55 40 3f 03 93 2f 3f 10 8c 58 3f
       0.73451823 0.7513103 0.685837 0.8458872
000020 2f 56 3d 3f 54 3d 1a 3f ae ce 3d 3f e0 49 2e 3f
       0.7395963 0.6024983 0.74143493 0.68081474
000030 e7 d9 44 3f a3 b5 34 3f 82 34 2f 3f bd fb 46 3f
       0.7689499 0.70589656 0.68439496 0.7772787
000040 ce df f5 3e 1e a8 46 3f 33 58 23 3f 97 2d 19 3f
       0.48022312 0.77600276 0.63806456 0.5983519
000050 41 43 2e 3f 69 ce 2a 3f e9 c9 14 3f 42 42 49 3f
       0.6807137 0.66721207 0.5812059 0.78616726
000060 5a b0 35 3f 86 a1 38 3f cb 70 36 3f 61 58 49 3f
       0.70972216 0.72121465 0.7126586 0.7865048
000070 ef f8 23 3f fc ad 1a 3f 33 92 0b 3f 2e 25 87 3f
       0.6405172 0.6042173 0.5451996 1.0558221
000080 a8 f4 44 3f c7 bf 34 3f 44 a0 3c 3f 63 64 40 3f
       0.76935816 0.7060513 0.73682046 0.7515318
000090 34 3b 31 3f 23 20 1e 3f dd aa f5 3e 31 97 23 3f
       0.6923096 0.61767787 0.4798192 0.63902575
0000a0 49 da c5 3f d0 e4 3a 3f 35 09 59 3f 0c db 15 3f
       1.545724 0.7300539 0.84779674 0.58537364
0000b0 27 3b e0 3e 44 b5 27 3f 3b b4 2c 3f da ab 26 3f
       0.4379513 0.65510964 0.6746251 0.65105975
0000c0 5d 42 2d 3f f2 15 00 3f 4d e1 20 3f 3a a0 f9 3e
       0.6767939 0.50033486 0.6284378 0.48755056
0000d0 41 c5 27 3f 9b 93 36 3f a3 ef 23 3f 83 51 23 3f
       0.6553536 0.7131898 0.6403753 0.6379625
0000e0 4c d8 33 3f 85 6d 36 3f 34 ce ff 3e 6f f1 41 3f
       0.7025192 0.71260864 0.49962008 0.75759023
0000f0 f0 62 16 3f 7e 8b 2e 3f cb 5e 1e 3f 38 81 1c 3f
       0.58744717 0.681816 0.6186339 0.6113467

0.features.2.0.block.0.1.bias f4 [64]
000000 5c 3f 8a 3f ca 59 fd be f2 70 01 3e 0e 28 2b bf
       1.0800586 -0.49482566 0.12640741 -0.66857994
000010 a6 83 ae 3e 49 d7 14 bd 53 75 bc 3e 25 8e 69 3c
       0.34084815 -0.036338124 0.3680826 0.014255081
000020 01 44 93 3e cf d3 e3 3b 8e 8c b0 3e 7f 60 06 3f
       0.2876282 0.00695274 0.34482235 0.5249099
000030 4e 95 3c 3e 67 bc 79 3c 61 b5 b9 3d 58 d9 9b 3e
       0.1841633 0.0152426725 0.090677984 0.30439258
000040 04 f7 c9 3e 9d 9a 75 3e db 8e 1f 3e d0 f9 95 bd
       0.3944627 0.23984762 0.15581839 -0.073230386
000050 ae e6 b4 3a 9a 5e 8b 3d 52 50 d3 3c 75 a7 96 3e
       0.0013801658 0.06805153 0.025795136 0.29424635
000060 c4 c7 f7 3c 00 d9 a0 bc 81 0a d5 3d df 51 5f 3e
       0.030246623 -0.019634724 0.10402394 0.21808575
000070 72 58 32 3d 6e 49 71 3d f3 e9 cb 3d 74 aa 67 be
       0.04354138 0.05890792 0.09956732 -0.22623616
000080 e4 43 c2 3e 2a 15 98 3e dc 3a 8f 3e 10 d5 d2 3d
       0.3794242 0.29703647 0.27974594 0.10294545
000090 76 1d 06 3d 9e 34 63 bd 57 c0 1a 3e 24 7b 14 3e
       0.03274294 -0.0554701 0.15112434 0.145001
0000a0 6d ca 79 bf 4d 51 0d 3f 8a 35 12 3e 8a ab 1b 3d
       -0.975745 0.5520218 0.14278236 0.03800539
0000b0 10 45 8e 3d 0e 4f a2 3d 97 1e 6f 3e 5e 16 64 bc
       0.069467664 0.07925235 0.23351513 -0.013921348
0000c0 a5 8c bc bc 13 e6 1e 3f 55 a4 03 3e 93 01 2b 3e
       -0.023016283 0.62069815 0.12855656 0.1669982
0000d0 f6 96 46 3e b4 57 45 3b e0 08 49 3e 50 63 87 3e
       0.19393525 0.003011209 0.19632292 0.26442957
0000e0 28 8f bb 3d d3 a8 13 bc 91 9d 55 3d cf 3c 35 3e
       0.09158164 -0.009012419 0.05215222 0.17698978
0000f0 0e d2 56 3d 3b 46 d3 3c 91 33 0e 3e 4e ea 14 3e
       0.052446418 0.025790324 0.13886859 0.14542505

0.features.2.0.block.0.1.running_mean f4 [64]
000000 8e 19 aa 3e fc bc 41 bd 29 05 94 be 0e a6 00 bf
       0.33222622 -0.04729937 -0.28910187 -0.5025338
000010 88 f2 16 3f d6 d9 3c bf 13 12 96 3e 74 b8 88 bf
       0.58963823 -0.7376989 0.29310665 -1.0681291
000020 38 d1 5e 3f 04 ef 19 3f 71 03 41 3f 8f ed 80 3e
       0.8703799 0.60130334 0.75395876 0.25181243
000030 7d da 16 3f 33 38 8d bf 6d 5b 64 be ff e5 01 3f
       0.58927137 -1.1032776 -0.22300501 0.5074157
000040 c3 5e 1c 3f 7a e6 b4 3f 43 b0 5d 3f 1e 1a ca bd
       0.61082095 1.4132836 0.8659708 -0.09868263
000050 cc 06 8b 3d ee 7d e6 be bc 14 bb 3e f3 24 3c 3f
       0.06788406 -0.45017952 0.36539257 0.7349388
000060 30 7c 7e be db b6 09 be 70 3d a5 bd fe 65 96 3e
       -0.24852061 -0.1344866 -0.08068359 0.2937469
000070 e1 d0 e6 3d 2a d9 51 3e c3 5f 45 be 91 51 3b bd
       0.11270309 0.20492998 -0.19274811 -0.045732085
000080 78 ae 3d 3f 02 36 c5 bd 74 68 eb 3e 15 96 3d be
       0.74094343 -0.09629442 0.4597813 -0.18514283
000090 3a c5 60 be e7 74 95 be 32 b4 18 bf fb 39 0c bf
       -0.21950236 -0.29190752 -0.59649956 -0.5477597
0000a0 9f a4 a0 3d 73 fa de 3d 41 f4 9d 3e 1c 2c 96 be
       0.07843899 0.10887613 0.30850413 -0.29330528
0000b0 e4 de 0d bf b9 60 3c bf bf e6 4e bd 94 ac 1e bf
       -0.5541823 -0.7358509 -0.050513025 -0.61982083
0000c0 6b 22 a3 be 41 98 4a 3f f4 80 82 3d fe 14 d0 bd
       -0.31862196 0.7913857 0.06372252 -0.10160254
0000d0 12 33 9c 3e 66 87 37 bf 6a 77 56 3f cd a2 31 3f
       0.30507714 -0.71690977 0.8377596 0.6938904
0000e0 52 f6 99 bf 52 cc 8f bf b6 21 b1 3e 08 0e 11 be
       -1.2028296 -1.1234229 0.34596032 -0.14165509
0000f0 06 a4 20 3f 8b 22 00 bf db cf 09 3e 6f 5e f6 be
       0.6275028 -0.5005271 0.13458197 -0.48118922

0.features.2.0.block.0.1.running_var f4 [64]
000000 0f db 0e 3f 06 cf 12 3e 63 41 38 40 d6 92 6c 3e
       0.55803007 0.14336786 2.878991 0.23102888
000010 2c 26 af 3f f5 4f 05 40 31 c5 60 3f 89 56 d4 3f
       1.3683524 2.0830052 0.8780089 1.6588908
000020 0a 2c 3b 40 14 9e 6d 3f 3d 77 79 3f d5 2d 31 3f
       2.924563 0.92819333 0.9744757 0.6921056
000030 3b ba cd 3f c6 27 b3 3f 26 24 0a 40 d4 f2 7b 3f
       1.6072458 1.3996513 2.1584563 0.984174
000040 67 91 66 3f 11 7f c7 3f db 74 13 40 fd d0 0a 3f
       0.90065616 1.5585653 2.3040073 0.5422514
000050 83 c4 9c 3f ce 12 ac 3f 90 7f 5a 3f 11 b6 7d 3f
       1.2247471 1.3443239 0.85350895 0.99105936
000060 5b c7 de 3f 09 5a d1 3f 69 23 4a 3f 58 84 fd 3f
       1.7404588 1.6355602 0.7896028 1.9806013
000070 d7 3e 79 3f ea 2d 86 3f a3 e9 0f 3f 75 e1 58 3e
       0.9736151 1.0482762 0.56215876 0.21179755
000080 e6 d7 b6 3f cd a4 6e 3f 5f db 0a 40 91 3b 18 40
       1.4284637 0.93220216 2.1696393 2.3786356
000090 c5 1d b1 3f 24 6a 09 3f f3 c0 5b 3f c4 b7 e1 3f
       1.383721 0.5367758 0.8584129 1.7634206
0000a0 db 2d 7b 3e 38 57 d3 3f d6 8a f0 3f 11 f5 34 3f
       0.24529211 1.6510992 1.8792369 0.7068644
0000b0 24 52 18 3f ad 13 df 3f 2e 0d 03 40 a3 51 5b 3f
       0.59500337 1.742788 2.0476794 0.8567144
0000c0 f7 5e a7 3f 17 50 2c 3f 7d 90 0b 3f d9 d5 0f 3f
       1.3075856 0.6730971 0.54517347 0.5618568
0000d0 db e3 01 40 dd af ff 3f fc cd 9e 3f 94 fb cb 3f
       2.0295322 1.9975544 1.2406611 1.593615
0000e0 dc 23 a9 3f 4d 9b ef 3f 46 52 a6 3e 8c 83 18 40
       1.3214068 1.8719269 0.32484645 2.383029
0000f0 eb 44 5d 3f 26 04 64 3f b6 86 4c 3f 16 47 61 3f
       0.86433285 0.8906883 0.7989305 0.87999094

0.features.2.0.block.1.0.weight f4 [32, 64, 1, 1]
000000 29 f9 2d 3e 1f 08 e7 be aa 38 86 3d 11 46 61 3d
       0.16989578 -0.45123383 0.065537766 0.05499846
000010 c6 6c f8 bd c6 d4 10 3d 5e ce d6 bd 4f fb 6b bc
       -0.12130122 0.035359167 -0.1048858 -0.014403178
000020 41 fd 8a bd 1b 53 6d 3e 3e d1 1f bd dc a3 19 bd
       -0.067865856 0.23176233 -0.03901791 -0.037509784
000030 58 df 40 3d da 8d 95 be 4c ac b6 3e fe dc ba 3d
       0.047087997 -0.29209787 0.35678327 0.09124182
000040 10 a8 ad bc 4c cd ea 3d a9 74 ec 3b 2e 07 b3 be
       -0.021198303 0.114649385 0.0072160554 -0.34966415
000050 0e 39 8b bd 70 25 2a be c6 bb 79 bc 61 f4 02 3e
       -0.06797992 -0.16615844 -0.015242523 0.12788536
000060 2c f5 94 be 01 3c 3e 3d 95 8b cb 3e 63 c1 4d be
       -0.290933 0.046443943 0.3975493 -0.20093302
000070 43 93 b5 3e 37 ee 34 3f 31 ed 66 be 10 16 58 be
       0.35463914 0.70675987 -0.22551419 -0.21102166
000080 65 b4 23 3e f0 c6 7c be f7 9e a0 3e cf 74 c9 3c
       0.15986784 -0.24685264 0.3137128 0.024591831
000090 43 46 92 bd e0 f1 26 3e f4 93 5a be 33 bc bf be
       -0.071423076 0.16303205 -0.21345502 -0.37448272
0000a0 13 14 0f be 43 2b df be 28 fd 70 3e 22 52 f7 bd
       -0.13972501 -0.43587694 0.23534071 -0.120762125
0000b0 c4 50 6e be 7c 60 59 3d f4 cd d1 be 91 95 ae bd
       -0.23272997 0.05307053 -0.40977442 -0.08524621
0000c0 04 8c 9e 3c 30 3b d3 bd 47 e3 31 3e 9e 42 04 be
       0.019353874 -0.103140235 0.17371856 -0.12916037
0000d0 75 b7 8c be 7a ea 96 bd 65 84 8e bd f3 a8 1a 3e
       -0.27483717 -0.073689416 -0.06958846 0.15103512
0000e0 01 a9 f6 bd 34 3e 36 3e 8c b7 60 3c 3e e6 63 3d
       -0.12043954 0.17797166 0.013715636 0.055639498
0000f0 45 e9 ba 3d fb db 84 be 76 66 1e 3e 1e fa ff be
       0.09126524 -0.25949082 0.15468773 -0.49995512
000100 59 49 71 bd 25 5f e5 3e f1 61 53 3c af f7 0a be
       -0.05890784 0.44799152 0.012901769 -0.13571046
000110 bd 16 1a 3e 94 95 01 be a5 c7 b7 be d2 89 2b be
       0.15047736 -0.12654716 -0.35894504 -0.16751793
000120 fb 89 32 be df e6 c1 ba 9d 6a ed bc e5 30 80 3e
       -0.17435448 -0.0014793536 -0.028981501 0.25037304
000130 45 df d6 3d 35 74 42 3c e6 35 68 3e 52 04 d6 bd
       0.10491804 0.011868526 0.2267681 -0.10450043
000140 8e 55 01 be 1f 1c 01 bf b8 8b ea bd 9a 86 48 be
       -0.12630293 -0.50433534 -0.114524305 -0.19582596
000150 a1 78 e6 3d 16 4d d7 be 7e ec 93 bd e7 cc da 3e
       0.11253477 -0.42051 -0.07222842 0.42734453
000160 8d ca 50 3e 61 24 24 be d1 ac 16 3e 9a e6 fa 3c
       0.20389767 -0.16029502 0.14714362 0.030627538
000170 6e 30 bc be f3 07 54 be be 7c c0 bd e1 d7 c8 3e
       -0.367557 -0.20706157 -0.09398793 0.39227203
000180 25 34 ed bc 39 93 35 be 30 70 de bd a2 50 48 be
       -0.028955529 -0.17731942 -0.10861242 -0.19562009
000190 5b 66 bd 3d 73 8a 90 3d e7 21 1a 3e a7 68 26 be
       0.092480384 0.07057657 0.15051995 -0.16250859
0001a0 85 82 ee 3e c7 c0 39 3e 26 2b d2 bc 0e d2 18 3d
       0.46583953 0.18139945 -0.02565534 0.0373097
0001b0 1b 4d 28 be ce 91 d2 3c 95 9c 1b 3e f5 7c f3 3e
       -0.16435663 0.02570429 0.1519645 0.47556272
0001c0 e0 cd 13 bf d4 1c 8e bd 00 52 04 3e 3c f7 ff 3d
       -0.57736015 -0.06939092 0.12921906 0.12498328
0001d0 a3 96 2d be a6 5b 30 be 67 bf 41 3e 05 ed 11 be
       -0.16951995 -0.17222461 0.1892067 -0.14250572
0001e0 af e5 b9 3e 20 98 3d 3c 83 7e 2e 3e 2a be 8d 3e
       0.36308047 0.011571914 0.17040448 0.27684146
0001f0 fd b0 2d bd 4f 09 26 3b b4 1d c5 3e d3 eb eb bd
       -0.042405117 0.0025335138 0.38499224 -0.11519589
000200 a8 2f c3 3d b4 78 cd be e3 10 16 3d 1a 30 15 bd
       0.09530574 -0.40131152 0.0366372 -0.036422826
000210 84 6c 4b 3e b2 b3 ab 3d 2d 8b 22 3e 2d 60 8c 3c
       0.19865614 0.083838835 0.15873404 0.017135704
000220 f0 16 b9 3d 38 0d d0 bc 41 5f b8 3d 47 99 90 3d
       0.09037578 -0.025396928 0.09002543 0.07060485
000230 88 92 e8 bd 44 68 e1 3d 92 e0 09 bf 7f fd 33 be
       -0.113560736 0.11006215 -0.5385829 -0.1757717
000240 f4 9a 85 be 8b e7 a4 be 43 19 66 3c 2b fd 91 3e
       -0.26094782 -0.32207903 0.014044109 0.28513464
000250 e8 33 9d bd 1f c0 27 3e c5 ee 52 3d b6 9d 84 3c
       -0.07675916 0.16381882 0.05149724 0.016188484
000260 43 c8 68 be 8c 07 84 3e 18 cb aa 3d 3b 35 99 bd
       -0.22732644 0.25787008 0.08339518 -0.07480856
000270 85 b2 d5 3d fc 8f a6 bd 7e 50 c7 be 11 34 d2 3d
       0.104344405 -0.081329316 -0.38928598 0.10263837
000280 3e 8b bd 3e 49 fe 1c 3e fe 3f 12 3e 0d b4 c0 3e
       0.37020296 0.15331377 0.14282224 0.37637368
000290 b5 63 b0 3c 8a a8 a7 bd 46 27 67 3e 11 aa 7b 3d
       0.021531919 -0.08186443 0.22573575 0.061441485
0002a0 43 7f 9c be 48 53 aa 3e 5c f1 63 3e 1b fc 42 3e
       -0.30565843 0.33266664 0.2226004 0.19041483
0002b0 63 8d b4 be 3e 59 bd 3e 47 93 19 3f 49 4a 84 be
       -0.3526412 0.3698215 0.5999035 -0.25837925
0002c0 2f 4c 27 be 9a f0 98 bd 31 22 2b 3c f1 c3 18 3e
       -0.16337655 -0.07467766 0.010445164 0.14918496
0002d0 eb 4d 36 be 81 d5 49 be 36 a9 c9 3c 8c 1d 2a be
       -0.17803161 -0.19710352 0.024616819 -0.16612834
0002e0 f4 bc 5b be 46 ad 42 3e e8 c1 84 bc fb d7 c3 be
       -0.21458799 0.19011411 -0.016205743 -0.38250718
0002f0 23 3e 8a be 56 42 4e be 18 2b ea bc 1a 9d c7 3d
       -0.27000532 -0.20142493 -0.028585002 0.097467616
000300 4e d2 d7 bc 4f 66 df bd ab bb 9a 3e 6a df 07 3e
       -0.026345398 -0.10908186 0.30221304 0.1326882
000310 de ed 95 3d 55 1a ec bd 33 50 93 bd eb 0d a1 be
       0.0732076 -0.1152846 -0.07193031 -0.3145593
000320 ef b0 a7 be 99 9d c5 3c 00 2f e3 bd c7 15 3c be
       -0.32752177 0.024123 -0.11092949 -0.18367682
000330 6c 18 da 3d 92 2c 67 3e c9 4d ca 3c 40 4d 24 bd
       0.10649189 0.22575596 0.024695294 -0.040112734
000340 a3 8b 8f 3e fa ee b9 3e 82 ea 89 be 33 3b 48 3e
       0.28036222 0.36315137 -0.26936728 0.19553833
000350 12 95 0c be 21 97 59 be 46 71 a7 be ea 5a a8 3d
       -0.13728741 -0.21249057 -0.32703608 0.082204655
000360 83 bb 14 3f 6f 87 7d bd c5 f4 f7 3d bc 2c 42 bd
       0.5809862 -0.061896738 0.12107233 -0.047405943
000370 6a c6 4f 3e d2 7e 3a be 08 79 50 bd 18 11 35 3f
       0.20290533 -0.1821244 -0.050896674 0.7072921
000380 3e a8 0b 3e e5 ef 5c 3d 91 df 3b bd 0d 85 ae be
       0.13638398 0.05393972 -0.045867506 -0.34085885
000390 2e 0a a3 bc ae 6d 13 3e 2d 7d 30 be 13 4e b4 3d
       -0.019902315 0.14397308 -0.17235251 0.08803954
0003a0 0b bc 2a be 15 59 95 3e 81 e5 26 be 4f d5 1c 3e
       -0.16673295 0.29169527 -0.16298486 0.15315746
0003b0 8d 69 7f 3e b5 82 97 bd 5f de 5a be 06 83 43 be
       0.24942608 -0.07397977 -0.2137389 -0.1909295
0003c0 ee ae ed 3c 87 f9 4c 3d 2e 1a 54 3d e4 19 19 bd
       0.029014077 0.050042655 0.05178278 -0.037378207
0003d0 8c f5 c1 bd a0 38 93 bd cf 18 fd bd 73 68 48 3e
       -0.094706625 -0.07188535 -0.123582475 0.19571094
0003e0 97 63 20 be 2f ad 1b be 97 59 81 bd eb 0b c8 bd
       -0.1566299 -0.15202783 -0.06315916 -0.09767898
0003f0 2b 2e 2a bd d9 1a 88 be 72 66 29 3e 62 d1 a6 3e
       -0.041547935 -0.26582983 0.16542986 0.3258162

0.features.2.0.block.1.1.weight f4 [32]
000000 c0 48 4f 3f 85 e5 69 3f 04 77 36 3f 6a ad 3d 3f
       0.8097038 0.91365844 0.71275353 0.74092734
000010 52 14 3b 3f 99 5e 51 3f eb ce 35 3f 04 c3 6d 3f
       0.7307788 0.8178497 0.71018857 0.92875695
000020 36 3a 40 3f 53 c8 45 3f e7 9a 38 3f 20 be 4f 3f
       0.7508882 0.77258795 0.7211136 0.8114948
000030 83 2c 44 3f 49 52 4a 3f 08 73 51 3f 50 fa 3d 3f
       0.7663042 0.7903181 0.8181615 0.7421007
000040 b8 6a 7a 3f 2d 2e 4a 3f 24 23 53 3f 18 90 3c 3f
       0.9781909 0.7897671 0.82475495 0.7365737
000050 aa 99 31 3f cb 47 50 3f 10 eb 55 3f 17 e6 3b 3f
       0.693751 0.8135955 0.835618 0.73397964
000060 3c c8 56 3f de 6a 4d 3f 9b 30 56 3f e4 9c 4d 3f
       0.83899283 0.8024119 0.83667916 0.8031752
000070 64 9a 31 3f e7 5c 3d 3f 68 60 30 3f 72 ec 53 3f
       0.69376206 0.7396988 0.68897104 0.8278266

0.features.2.0.block.1.1.bias f4 [32]
000000 f7 da 51 bd 65 3a fd 3d c5 bc 8b be 20 3f b1 be
       -0.05123421 0.123646535 -0.27292457 -0.34618473
000010 bc 25 d2 bf 4b 41 a7 3f fb b7 1d 3f e0 0c c0 be
       -1.6417766 1.3066801 0.61608857 -0.37509823
000020 37 c1 ea bf 49 67 d1 bd 8c 5e 60 be 32 fa 35 3f
       -1.8340214 -0.10224778 -0.21911067 0.7108489
000030 bc d0 da 3c 2e ff 39 bf 47 ad 42 be c6 47 42 3f
       0.02671086 -0.72655 -0.19011413 0.7589077
000040 c3 37 e8 3e 82 10 7c bf 19 03 91 be 84 c7 4a be
       0.45355043 -0.9846269 -0.28322676 -0.19802672
000050 e0 23 1e 3f dd 26 31 be b0 f7 b6 3e 6d f2 3b 3d
       0.6177349 -0.17299981 0.35735846 0.045885492
000060 80 78 3e 3e f7 65 14 bf 36 98 86 bd 81 7d bd 3f
       0.18600655 -0.57968086 -0.06572001 1.4803926
000070 f9 7a 04 c0 75 05 73 3e 03 55 b9 3e 2b 36 20 3e
       -2.0700057 0.2373255 0.3619767 0.15645663

0.features.2.0.block.1.1.running_mean f4 [32]
000000 c8 33 8f be bf 0e 89 3c 00 d5 a2 3e 3b 90 c6 3d
       -0.27969193 0.016730664 0.3180313 0.096954785
000010 69 6b e3 3e 79 69 91 3e 2a 67 04 bf ad ba 8e be
       0.44417885 0.28400782 -0.51719916 -0.27876797
000020 f9 bd 92 3d 77 ee 50 be 64 69 b3 3e d7 8b d7 be
       0.07165141 -0.20403467 0.35041344 -0.42098877
000030 b6 a1 a6 bd cf 86 25 3d 3e cd a2 3e bc ea 01 3f
       -0.08136313 0.040411767 0.31797212 0.507488
000040 1d 2b 6e be 3c 26 6f 3e 3b 00 12 3d 33 37 25 be
       -0.23258634 0.23354429 0.03564475 -0.16134338
000050 86 0a e9 be 5e 4b 6b 3e 9e 69 36 3d c3 d3 3b be
       -0.4551584 0.22977969 0.04453432 -0.183425
000060 b6 3c 67 3c ae 87 7d 3e 0b 1d ab 3c a3 91 59 3e
       0.014113596 0.24758789 0.020887872 0.21246962
000070 7e b4 22 3d 1e e2 ea be d7 9c 91 3e b6 86 61 bf
       0.039722912 -0.4587564 0.28439972 -0.8809618

0.features.2.0.block.1.1.running_var f4 [32]
000000 d3 c5 ca 3e 30 44 51 3f 48 bf db 3f 44 36 43 3f
       0.39604053 0.8174467 1.716775 0.7625468
000010 2f 23 14 40 39 8d 1a 3f 40 df 96 3e f5 1c 04 3f
       2.3146474 0.6037174 0.294672 0.51606685
000020 6a 10 c7 3f 15 5a d6 3e e3 48 98 3f 33 6f 0b 40
       1.5551884 0.41865602 1.1897243 2.178662
000030 96 8e ac 3e 74 8f 53 3e 1f ec 01 3f 2d f1 9d 3f
       0.33702534 0.20660192 0.5075092 1.2339226
000040 b3 de 11 3f 05 9c c7 3e 6b e4 5d 3e fe 0e 3d 3f
       0.5698044 0.3898622 0.21669166 0.73851
000050 6d d7 46 3f 83 e4 88 3f 05 25 1c 3f f9 51 ba 3e
       0.77672464 1.0694736 0.6099399 0.36390665
000060 97 60 a6 3e e8 19 90 3e 10 1f 1d 3f ae 83 6b 3f
       0.32495567 0.28144765 0.6137552 0.919978
000070 62 0c 44 3f aa 89 62 3e 7e d5 07 40 01 7d f2 3f
       0.76581395 0.22122827 2.1224055 1.8944398

0.features.2.1.block.0.0.weight f4 [128, 32, 3, 3]
000000 48 05 5c 3d a5 fc 69 bd 59 c2 03 3d eb 94 2c bc
       0.053715974 -0.057125706 0.032167766 -0.010533552
000010 fb ba 9c bd 61 e1 cc bc 81 af 62 3b f6 19 c5 38
       -0.07652851 -0.025009813 0.0034589472 9.3985276e-05
000020 b9 09 d9 3c 86 44 cc 3d 7b f1 e8 3d 14 3c 25 bc
       0.026493894 0.09974007 0.11374184 -0.0100851245
000030 65 87 90 3d 82 04 3f 3c b3 cd 05 bd 9a 4d bd bc
       0.070570745 0.01165879 -0.032666873 -0.023108292
000040 20 98 de bd 27 a9 07 bd 71 1a ea 3c f3 df 80 bd
       -0.10868859 -0.0331203 0.028577061 -0.06292715
000050 e2 c3 d2 3c 93 5f 02 bd c6 8e 4e bd da 5f f8 bc
       0.02572817 -0.031829428 -0.050429128 -0.030319143
000060 0b e0 6e 3c ef d2 fe 3c cd 04 4b 3b 31 8f 5c bc
       0.014579783 0.03110644 0.0030978203 -0.013461874
000070 57 1a 3f bd 43 8e 6e bb 0a d4 e7 3c f3 32 0f be
       -0.04665598 -0.0036400713 0.02829935 -0.1398428
000080 78 4a 0d 3d 49 4a 5c bd 88 19 ae 3d 21 c4 63 bc
       0.034494847 -0.05378178 0.085009634 -0.013901741
000090 80 14 72 3d 7f 5d b2 3c ca 81 79 bc 3a bd 9a 3d
       0.05910158 0.021773098 -0.015228698 0.07555623
0000a0 79 1a e9 3c c8 a4 5b 3c 23 ad 6f 3d 9a c4 5f 3c
       0.028455006 0.013405986 0.058514725 0.013657713
0000b0 b8 d9 80 3d 37 60 0b 3c ad a7 ec bd 2c 86 9a 3c
       0.062915266 0.008506826 -0.11555419 0.018862806
0000c0 51 80 25 bd c0 a5 5f be 7a ea 2a bd d7 7b d4 bc
       -0.040405575 -0.21840572 -0.04172752 -0.025937958
0000d0 98 16 2e 3d 19 75 dd bc 01 e8 02 bd d1 f7 9e bc
       0.042502016 -0.027033376 -0.031959537 -0.019405277
0000e0 8d f5 6e bd 59 7d f8 bc 03 a6 c7 3d 55 62 08 3d
       -0.058339644 -0.030333208 0.09748461 0.0332969
0000f0 48 1a 85 bd 24 e8 b8 bd 32 57 a6 bd d8 fc 28 bd
       -0.064991534 -0.09028652 -0.081221 -0.041256756
000100 31 98 84 bc 7d a2 d9 3c 06 c9 b9 bd 79 06 96 bd
       -0.016185852 0.026566738 -0.09071545 -0.07325453
000110 81 19 e8 3d 97 aa 2c bc 5f 2c c9 3d 27 b6 96 3d
       0.113329895 -0.010538719 0.09822916 0.073589616
000120 0e 58 58 bc ac dd b0 3d e6 61 e5 bc 38 1e 4a bd
       -0.013204588 0.086360306 -0.028000783 -0.049345225
000130 56 98 14 3e a6 80 8e bd 2b 05 3d bd a3 a6 69 bb
       0.14511237 -0.069581315 -0.046147507 -0.0035652302
000140 5f b0 cf 3c 06 cd 42 bd 3f 5b 84 bd 32 c0 86 bd
       0.025352655 -0.047558807 -0.06462716 -0.06579627
000150 67 a8 70 bd 44 e7 14 bc b4 65 5c bd a8 e5 b0 bd
       -0.05875435 -0.009088341 -0.05380793 -0.086375535
000160 11 14 66 bc 43 6a 42 3c 4e ab 9c 3d 6f 04 e3 3d
       -0.01404287 0.011866155 0.07649861 0.1108483
000170 b0 0a 11 3d 0b 6e 26 3d a4 21 d0 3d f7 3d a2 3b
       0.035410583 0.04063229 0.101626664 0.0049512344
000180 a0 e3 a7 3c b2 1b 7e 3c e6 22 7e 3b f6 9a 6a bc
       0.020494282 0.015509533 0.0038778125 -0.014319172
000190 05 26 4a bd c2 ef 5d 3c 9f 83 af bd b6 18 57 bd
       -0.049352665 0.013545932 -0.085700266 -0.0525138
0001a0 ea 34 50 3d 7e 10 ff 3b 7a ff 8e bd e9 59 7a 3c
       0.050831713 0.0077839484 -0.06982322 0.015280225
0001b0 b5 0d 55 bd 5c 07 7b bd 63 c8 5e bd b0 3b 3a bc
       -0.052015025 -0.061286315 -0.054390322 -0.01136677
0001c0 88 de e8 3d cc b1 2d 3d f9 46 2d 3d 58 61 86 3d
       0.113705695 0.04240589 0.042304013 0.065615356
0001d0 7e d1 1f bd 93 dc 70 3d 51 9f 80 3d ba 49 75 3c
       -0.039018147 0.058804106 0.06280387 0.014971191
0001e0 22 9f b1 bc 5f a5 e0 bd c5 cf 2b bd 8e 84 1f 3d
       -0.021682326 -0.10969042 -0.04194619 0.038944773
0001f0 7f 0c a2 3d f5 b9 0b 3d 51 e4 46 3d 7b ce 58 3d
       0.0791254 0.03411289 0.048557583 0.05293129
000200 12 48 21 bd 9f ef 81 bc 52 ad 85 bc cb 6f b7 bb
       -0.039375372 -0.01586133 -0.016317997 -0.0055980436
000210 92 ec d0 bc 09 e7 f8 3a 7e 32 9d bc a4 de 8f bd
       -0.02550343 0.0018989752 -0.019189116 -0.07024887
000220 84 32 53 bd 4f bb cb bb 48 0b a9 3a b2 8e b6 bd
       -0.051561847 -0.0062173973 0.0012897039 -0.08913936
000230 c1 42 9f 3b 5c b9 29 bd e1 53 6e 3d c3 f7 02 bd
       0.0048602526 -0.041436538 0.058185462 -0.031974565
000240 20 f1 d9 bd 32 cb b6 bd 4c c9 df bd 6d 37 a7 bc
       -0.10641694 -0.08925475 -0.10927066 -0.020412171
000250 87 aa e6 bb f3 b3 cd 3d ab 3c 5e bd b6 0d 8c bc
       -0.0070393714 0.10044088 -0.054257076 -0.017096382
000260 18 4e 32 bd 40 e6 79 bb 4b 8c 81 3d 58 c4 fe 3c
       -0.043531507 -0.0038131624 0.06325587 0.031099483
000270 0b aa 0c bd 4e c2 9a bd 54 86 5e 3d 66 f3 70 3d
       -0.034341853 -0.07556592 0.054327324 0.058825873
000280 a1 18 c2 3d c7 f5 2d 3d de 52 71 bb 2e 0b cf bd
       0.09477354 0.04247072 -0.0036823074 -0.10109554
000290 95 18 b9 3b e9 7d 14 bd b1 25 13 3e ae 7d 5c ba
       0.0056486824 -0.03625289 0.14369847 -0.0008411062
0002a0 7c 64 d6 3c 61 bb 03 bd 1c 2d 91 3c e5 39 05 3d
       0.026170962 -0.03216112 0.017721705 0.032525916
0002b0 3e 70 0d bd bf fb da 3c b6 1d 39 3d af f4 a4 3d
       -0.03453087 0.02673137 0.04519435 0.08054482
0002c0 ca 00 38 3c 6f 7a 7e bd fc 8f 75 bd 35 ee 11 bc
       0.011230657 -0.06212848 -0.059951767 -0.008906891
0002d0 4d a8 6e 3c dc 8b a2 bd 01 15 cb bb 87 e7 0c 3d
       0.014566493 -0.07936832 -0.006197572 0.03440049
0002e0 27 dd a8 3d 9d c8 a2 3d 2c 8c 85 bb ac 52 5f bc
       0.082453065 0.0794842 -0.0040755477 -0.01363055
0002f0 e3 b2 18 bd 67 e7 44 3d 19 b7 29 3c c1 65 29 bc
       -0.037279975 0.048072245 0.010358595 -0.010339201
000300 24 01 7c 3c c3 e2 ad 3c d2 dd 9c bc d1 31 51 bd
       0.015381131 0.021226292 -0.01914874 -0.0510729
000310 00 be fb bc 2e 72 a4 bc 87 c7 7f bd 81 07 c5 bd
       -0.030730247 -0.020073976 -0.062446143 -0.09620572
000320 64 a9 9f bd 69 57 76 3d e7 a1 98 bd 3f 7a d5 3c
       -0.077959806 0.060141955 -0.074527554 0.026059268
000330 83 2d 7d bd 22 8c ae bc 5c f4 55 bc 30 ff 2d ba
       -0.06181098 -0.021307055 -0.013058748 -0.0006637452
000340 50 64 a6 bd 22 57 b5 bb 37 b0 3b 3d 65 fd e2 bb
       -0.08124602 -0.0055340687 0.04582235 -0.0069271796
000350 ce fb 31 3d f5 89 45 3c 26 10 0c bd d5 b1 38 bd
       0.04345303 0.012056817 -0.034195088 -0.04509147
000360 f9 ad e9 3c 52 da 65 bc e7 3e 45 3d b0 93 b2 3d
       0.02852534 -0.014029102 0.04815569 0.087195754
000370 5f 75 8d 3d 15 49 82 3d 60 9c b1 3c ea ad 19 3a
       0.069071524 0.063615955 0.02168101 0.0005862402
000380 b2 98 f8 3c e9 6d 60 bd f9 55 90 3d 18 11 0f 3d
       0.030346248 -0.05479232 0.07047648 0.03492841
000390 09 3d fc 3c 6d 76 ad 3d ef ea 48 3b b3 b2 fd bc
       0.030790823 0.084698536 0.003065761 -0.030969
0003a0 e1 96 c1 3b cd 3f 29 bc 75 ab 0c 3b ff 07 13 b8
       0.0059078787 -0.010330153 0.00214645 -3.5054978e-05
0003b0 21 43 01 3d e1 55 03 3e 7b cc cf 3d a2 29 41 3c
       0.03155816 0.12825729 0.101464234 0.011789711
0003c0 e3 35 10 3d a8 e2 a7 3c b0 4a a7 3c 3e 6a a7 bd
       0.03520764 0.02049382 0.020421356 -0.08174561
0003d0 d8 97 d5 bc f8 d2 59 bc f4 f3 e5 bc 40 99 42 3d
       -0.026073381 -0.013294928 -0.028070427 0.04750943
0003e0 14 a2 1a 3d be 36 bf 3c 62 75 77 bd ce 6a 9b 3c
       0.037752226 0.023341533 -0.06041468 0.018971827
0003f0 07 4a ba 3d 59 81 3d 3e 44 5c a2 3d eb e0 81 3b
       0.09096151 0.18506373 0.079277545 0.00396358
