code/modeling/ckpt/AutoencoderConfig([2, 2, 1], flip=False, rotate=False)/autoencoder_35000.pth (torch, 529260 bytes, 83 tensors)

0.features.0.0.weight f4 [16, 8, 3, 3]
-0.029187756 0.042412348 -0.034383576 -0.037050195 0.21818562 -0.037962828 -0.027809208 -0.0073931795
0.001840925 0.017247446 -0.093646385 0.02158743 -0.030926604 0.5844743 -0.048051912 -0.007312007
0.028584296 0.015305701 0.0018336631 0.044713207 0.0046342053 0.01727698 -0.08542736 -0.020346789
0.008579133 -0.00075529364 0.02846724 0.02278766 0.008135505 0.028891772 -0.002390486 -0.038062293
0.004960973 -0.0422674 0.041852184 0.038319163 0.05531961 -0.011870839 -0.028573386 0.019840822
-0.10894717 -0.05837311 0.023206355 -0.06274936 -0.049953222 0.028955825 0.015637988 0.057314355
-0.042252876 -0.009113416 0.03113534 -0.0003533151 0.010328106 0.03367164 0.052473795 0.009649411
0.013584738 0.043076828 -0.052707877 -0.0068335035 0.027158061 -0.0054249587 0.021075811 -0.012308131
-0.013229379 -0.014021837 -0.03318196 -0.044165697 0.013711294 0.014270218 -0.03603548 -6.4324355e-05
-0.020385414 -0.046555802 0.008924027 -0.01399336 0.01298257 0.031793814 -0.0023656867 0.052077983
-0.061661787 0.0092207715 0.066964835 0.013316357 0.027298737 0.19863947 0.06306718 -0.032094974
0.101085015 0.05613661 0.008734523 0.029571421 0.01615073 0.01552793 -0.05449886 0.019406522
0.017987529 0.025886212 0.03139952 0.05853271 -0.09583449 -0.027302751 -0.049793404 -0.17362253
-0.021514405 0.05573199 -0.040733524 -0.041306358 -0.0028024358 0.070074424 0.0793455 -0.09177538
-0.03403723 0.16353877 -0.02195028 0.10824422 0.07542027 0.07430533 0.026142191 -0.027239656
0.023306144 -0.040532894 -0.024925191 0.034668043 0.0016070652 -0.04792383 0.025429867 -0.023886517
-0.02204327 -0.03681076 -0.12099855 -0.021339644 0.016174868 -0.034126416 0.018690608 0.016783254
-0.01241966 0.012476782 -0.04923631 -0.16309725 0.041725844 0.00836763 -0.0118019665 -0.011561326
-0.01805856 -0.052670844 0.054098796 0.0029504856 -0.29336992 0.014236367 0.0373065 0.10746606
0.02319101 0.040502276 -0.033483144 0.00077730295 -0.008626206 0.3089676 -0.00043694294 0.0006779996
0.10995767 -0.030972978 0.018130597 -0.018346805 0.025728177 0.0194348 0.08559097 -0.004279549
-0.0040815417 0.06070031 0.00078471575 -0.0009821691 -0.01519615 0.044309042 3.7841335e-05 -0.08929683
0.033139594 -0.0042339065 0.03434956 0.023906864 0.0018113359 -0.067599185 0.024959397 -0.026613824
-0.102012835 -0.043615386 0.0045679826 -0.009627301 0.0032220706 -0.039088197 -0.078216545 -0.00021517742
-0.05570815 -0.017358711 -0.0037509627 0.011167236 -0.061346572 0.007503553 0.008499595 -0.00043786553
0.028613351 -0.035487495 0.06542284 0.008005217 -0.00624739 -0.014428265 0.012320359 0.019690938
0.03487504 -0.037248634 -0.018679703 0.11277846 -0.019047564 -0.0071425405 -0.035881754 -0.020081507
-0.02353387 0.03854789 -0.028986327 0.015385979 0.038260616 0.011755252 -0.015282153 0.004222455
-0.017663946 0.044412676 -0.08570027 0.052432586 -0.060916387 -0.5533793 -0.051770277 0.034271937
-0.06996079 0.04409435 0.017964076 0.016865538 0.035656534 0.025519235 -0.2093107 -0.021065447
0.04712111 -0.027915608 0.0781399 0.020870883 -0.0567004 0.051043823 0.0114061525 0.04813172
-0.066663995 -0.016112734 -0.028565023 0.031208254 0.012023194 -0.0048064 -0.003770774 0.027258843
00000000: 291b efbc 92b8 2d3d cbd5 0cbd f2c1 17bd
00000010: 0d6c 5f3e e97e 1bbd 23d0 e3bc 7c42 f2bb
00000020: 314b f13a 844a 8d3c adc9 bfbd 1fd8 b03c
00000030: ca59 fdbc 1ca0 153f 15d2 44bd 8f99 efbb
00000040: 9d29 ea3c c3c4 7a3c 8657 f03a 3225 373d
00000050: 88da 973b 7488 8d3c 8af4 aebd 4fae a6bc
00000060: 7e8f 0c3c e6fe 45ba 2134 e93c 30ad ba3c
00000070: c84a 053c 70ae ec3c b3a9 1cbb 35e7 1bbd
00000080: a88f a23b 9520 2dbd 326d 2b3d 8ef4 1c3d
00000090: d196 623d e87d 42bc bc12 eabc 3889 a23c
000000a0: b21f dfbd a418 6fbd 411b be3c bd82 80bd
000000b0: c09b 4cbd c434 ed3c 3d1b 803c 75c2 6a3d
000000c0: 5a11 2dbd 7050 15bc 8a0f ff3c 263d b9b9
000000d0: 3737 293c 46eb 093d c3ee 563d 9018 1e3c
000000e0: 8592 5e3c 5471 303d 37e4 57bd 95eb dfbb
000000f0: 957a de3c dac3 b1bb 2ea7 ac3c 0ba8 49bc
00000100: 0ac0 58bc d9bb 65bc cfe9 07bd 17e7 34bd
00000110: 56a5 603c a2cd 693c f199 13bd e0e5 86b8
00000120: 50ff a6bc 4cb1 3ebd 1536 123c 6844 65bc
00000130: d8b4 543c 3b3a 023d a309 1bbb b94f 553d
00000140: 1291 7cbd b812 173c dc24 893d d92c 5a3c
00000150: 9aa1 df3c 2568 4b3e 5e29 813d 0576 03bd
00000160: a905 cf3d 81ef 653d 3f1b 0f3c c43f f23c
00000170: 894e 843c dc68 7e3c 323a 5fbd 6dfa 9e3c
00000180: 955a 933c 520f d43c c89c 003d ffbf 6f3d
00000190: e044 c4bd 05aa dfbc 2bf4 4bbd 1bca 31be
000001a0: fa3e b0bc 3a47 643d 32d8 26bd db30 29bd
000001b0: 12a9 37bb 2e83 8f3d e57f a23d bbf4 bbbd
000001c0: 9f6a 0bbd b576 273e 13d1 b3bc 25af dd3d
000001d0: f175 9a3d 652d 983d 2628 d63c b325 dfbc
000001e0: 87ec be3c d205 26bd ea2f ccbc 1400 0e3d
000001f0: 29a4 d23a c74b 44bd 4c52 d03c a8ad c3bc
00000200: 1694 b4bc e1c6 16bd 16ce f7bd 7ad0 aebc
00000210: 2881 843c 24c8 0bbd 0c1d 993c 097d 893c
00000220: d47b 4bbc 6b6b 4c3c 03ac 49bd f702 27be
00000230: b8e8 2a3d 6218 093c 095d 41bc b76b 3dbc
00000240: 8cef 93bc 62bd 57bd b396 5d3d ef5c 413b
00000250: 9534 96be a73f 693c b3ce 183d 2a17 dc3d
00000260: 13fb bd3c b7e5 253d 9f25 09bd ebc3 4b3a
00000270: ee54 0dbc 0031 9e3e 7d15 e5b9 c8bb 313a
00000280: 7d31 e13d 0bbb fdbc 9e86 943c 0a4c 96bc
00000290: e6c3 d23c bb35 9f3c 524a af3d 753b 8cbb
000002a0: 74be 85bb e3a0 783d 62b5 4d3a 20bc 80ba
000002b0: 46f9 78bc 667d 353d d3b7 1e38 42e1 b6bd
000002c0: 62bd 073d 95bc 8abb 20b2 0c3d 54d8 c33c
000002d0: 596a ed3a 7171 8abd a677 cc3c 3c05 dabc
000002e0: 1bec d0bd 0ca6 32bd 04af 953b d4bb 1dbc
000002f0: 6029 533b f21a 20bd ff2f a0bd 40a1 61b9
00000300: 3b2e 64bd db33 8ebc b6d2 75bb c8f6 363c
00000310: 8b46 7bbd 5de0 f53b e341 0b3c 5191 e5b9
00000320: 8c66 ea3c 565b 11bd 69fc 853d 5028 033c
00000330: e8b6 ccbb 8864 6cbc 55db 493c e44e a13c
00000340: 21d9 0e3d 0692 18bd 2d06 99bc 65f8 e63d
00000350: a309 9cbc f90b eabb bff8 12bd f981 a4bc
00000360: 1aca c0bc 64e4 1d3d bc74 edbc 7915 7c3c
00000370: 2ab7 1c3d 1a99 403c ff61 7abc 855c 8a3b
00000380: fbb3 90bc 11ea 353d a083 afbd 8dc3 563d
00000390: 7683 79bd 44aa 0dbf 120d 54bd bb60 0c3d
000003a0: 9a47 8fbd 479c 343d 6629 933c 9929 8a3c
000003b0: 960c 123d b70d d13c 8b55 56be 7291 acbc
000003c0: 1102 413d 46af e4bc d007 a03d 6af9 aa3c
000003d0: ae3e 68bd 5413 513d dfe0 3a3c c425 453d
000003e0: 2287 88bd dafe 83bc 3201 eabc 74a8 ff3c
000003f0: eefc 443c 017f 9dbb 171f 77bb f04d df3c

0.features.0.1.weight f4 [16]
0.6992491 0.5721328 0.5473886 0.5825873 0.8478061 0.5642462 0.5784513 0.79111385
0.63517016 0.53435594 0.5233309 0.5642961 0.6833368 1.1739619 0.533036 0.68582165
00000000: fd01 333f 4c77 123f a921 0c3f 7124 153f
00000010: d209 593f 7072 103f 6215 143f 7086 4a3f
00000020: 839a 223f 8dcb 083f 04f9 053f b675 103f
00000030: 29ef 2e3f 6244 963f 0c75 083f 0292 2f3f

0.features.0.1.bias f4 [16]
2.0480332 1.5866977 0.9943973 0.07698003 0.780344 0.5096789 0.70144993 0.14130248
-0.09503655 0.41664347 0.6947978 0.29545388 0.23865785 -0.57334703 0.44008508 0.12941736
00000000: fa12 0340 e918 cb3f d290 7e3f b5a7 9d3d
00000010: a0c4 473f 517a 023f 3992 333f 99b1 103e
00000020: 86a2 c2bd 4b52 d53e 45de 313f bb45 973e
00000030: b962 743e dfc6 12bf d552 e13e fc85 043e

0.features.0.1.running_mean f4 [16]
0.00036064506 0.00017170659 4.6072728e-05 -6.667752e-05 0.000110947556 0.00020350507 -0.0003140684 -0.0009891822
0.00022019872 0.0002457828 0.0009170211 -0.00059008755 -0.00019290503 -6.344183e-05 -0.00038341482 0.00059556507
00000000: f614 bd39 230c 3439 373e 4138 39d5 8bb8
00000010: 84ac e838 fa63 5539 8ca9 a4b9 72a7 81ba
00000020: 25e5 6639 69dc 8039 3f64 703a 1bb0 1aba
00000030: 8d46 4ab9 130c 85b8 1105 c9b9 b21f 1c3a

0.features.0.1.running_var f4 [16]
0.2341536 0.33625725 0.31817308 0.35329095 0.47793573 0.70562905 0.4133897 1.0493894
0.69745785 0.48869792 0.40022644 0.35256076 1.0763602 0.46888718 0.62194306 1.2135539
00000000: f6c5 6f3e e929 ac3e 95e7 a23e 8de2 b43e
00000010: feb3 f43e 1ba4 343f d1a7 d33e 6452 863f
00000020: 998c 323f 9d36 fa3e 7bea cc3e d882 b43e
00000030: 2cc6 893f fb11 f03e a937 1f3f bc55 9b3f

0.features.1.0.block.0.0.weight f4 [16, 16, 3, 3]
-0.13205324 0.06745225 -0.1249685 0.043098703 0.26764923 0.07002466 -0.111346565 -0.012251362
-0.062390387 0.077798255 0.0021600332 0.10711727 0.054892786 -0.056803305 -0.11054033 0.011639458
0.13782683 0.032256674 0.00022645612 0.06452793 -0.12331863 -0.076577894 0.19180243 0.18961635
0.050650015 -0.0051329797 0.22100297 -0.032822788 -0.03453135 0.07209666 0.0025491528 -0.2997826
-0.14424877 0.07146308 -0.122455776 0.05945223 0.11057287 -0.058015984 0.05308906 -0.07363426
-0.11053896 0.0089098355 -0.005945807 0.055788826 -0.025102621 -0.03716731 -0.058159266 0.07222118
-0.0426116 0.30957758 -0.019978298 0.065560624 -0.043557387 -0.0063375286 -0.11338037 -0.025740119
0.085207745 0.115441136 0.28432956 0.1068625 -0.10697105 -0.057656784 -0.0976432 -0.0063781813
-0.10608207 -0.0008693841 0.124522604 0.038043108 -0.059769016 -0.008957111 -0.08768931 -0.075307734
0.013452755 -0.09841342 -0.072604135 -0.12325899 -0.30246228 -0.087984696 0.11893969 0.014252436
-0.023231808 -0.1195317 0.003236533 0.028852843 0.051963303 0.021344746 0.037897736 -0.078009926
0.05420944 -0.11948159 0.056074146 0.017014697 0.3060518 0.109826654 -0.021647597 -0.026397541
0.03615879 -0.0274566 -0.044754956 0.069743335 0.05958289 0.027060075 0.17967565 0.032775965
-0.016952015 0.16060771 -0.13700065 0.067150444 -0.013106488 0.16255267 -0.12927718 0.0758166
0.08392143 0.091143936 0.05236877 -0.03737881 0.026791174 0.040001944 0.07037647 0.082831144
0.04265506 -0.16238919 -0.059080336 0.067473635 -0.10019705 0.08267772 0.20556954 0.028210763
-0.026614383 -0.015143244 -0.0017142498 0.04032125 -0.02258366 -0.08158849 0.14488924 0.11343295
-0.089983314 0.14855975 -0.0051974845 -0.067572296 0.03783897 -0.084992826 0.15892424 0.10358018
0.01632855 -0.04672315 0.0148885315 -0.034322917 0.122352965 0.028288133 0.05819911 0.066424005
-0.005024678 -0.06619541 0.057948507 -0.07922606 -0.038447406 0.29202592 0.0796925 0.08708596
0.04101715 -0.05972755 -0.02996154 0.14613783 -0.18730217 0.07659493 -0.23739222 0.113348745
0.016402839 -0.13363466 0.09216506 -0.024504831 0.024685832 0.018169707 -0.10559015 -0.09751973
-0.14492637 0.07133689 -0.03694708 -0.07748232 0.04965869 -0.02861753 0.014090873 -0.020642903
-0.03092936 -0.040130876 0.0057760887 -0.11707207 0.09324807 0.2856863 -0.17435132 0.13045834
-0.07718513 0.26888567 -0.0076460177 0.052469917 0.04093876 -0.0031650113 0.09723578 -0.08122287
-0.008584447 -0.08969528 -0.009310174 0.051134408 0.0039666356 0.056582447 -0.0324465 -0.17312115
-0.0155633455 -0.077116735 -0.003982608 -0.1755815 0.09233875 0.026460376 -0.06312946 -0.011160925
-0.02250283 -0.1376395 0.011656715 0.12500988 0.04462051 -0.05565713 -0.102820106 -0.108074345
-0.11118822 -0.10146327 0.17586689 0.094317555 0.08400099 0.059408136 0.09348614 0.037314005
0.17459576 -0.16543563 -0.04781684 0.12769808 0.011760227 -0.14943232 0.11662403 0.07189661
0.2113898 -0.10168606 0.16290443 -0.042031724 -0.048174825 -0.15354122 -0.027226204 -0.066905245
0.03709918 -0.08992848 -0.20044082 -0.037610706 0.18782203 0.0149598345 0.03969722 0.026627684
00000000: f738 07be 6824 8a3d 7cef ffbd 4488 303d
00000010: 5209 893e 1769 8f3d ab09 e4bd f0b9 48bc
00000020: 108d 7fbd b154 9f3d 588f 0d3b 4d60 db3d
00000030: 42d7 603d 95aa 68bd f862 e2bd 6db3 3e3c
00000040: 7a22 0d3e 931f 043d da74 6d39 3827 843d
00000050: 7a8e fcbd dfd4 9cbd db67 443e ca2a 423e
00000060: 6476 4f3d 8e32 a8bb 9a4e 623e 3071 06bd
00000070: bf70 0dbd 6aa7 933d b00f 273b 1b7d 99be
00000080: f3b5 13be 3c5b 923d 18ca fabd 2e84 733d
00000090: 0774 e23d 2ba2 6dbd ea73 593d 8fcd 96bd
000000a0: 4062 e2bd 8ffa 113c 0bd5 c2bb d382 643d
000000b0: 03a4 cdbc c03c 18bd 6938 6ebd b3e8 933d
000000c0: 8089 2ebd f480 9e3e 87a9 a3bc a644 863d
000000d0: 3b69 32bd 0bab cfbb f833 e8bd f1dc d2bc
000000e0: 6681 ae3d 676c ec3d a593 913e bada da3d
000000f0: a313 dbbd 8529 6cbd 28f9 c7bd 1000 d1bb
00000100: 8e41 d9bd 61e7 63ba b505 ff3d 17d3 1b3d
00000110: 5bd0 74bd d9c0 12bc 7496 b3bd f13a 9abd
00000120: f268 5c3c fa8c c9bd 7ab1 94bd 366f fcbd
00000130: 56dc 9abe 5231 b4bd a796 f33d 0d83 693c
00000140: a250 bebc 09cd f4bd 031c 543b cc5c ec3c
00000150: 79d7 543d 2ddb ae3c a83a 1b3d abc3 9fbd
00000160: b80a 5e3d c4b2 f4bd 01ae 653d 6862 8b3c
00000170: d2b2 9c3e ccec e03d 4d56 b1bc a83f d8bc
00000180: 3d1b 143d aaec e0bc f950 37bd 98d5 8e3d
00000190: 300d 743d 17ad dd3c e5fc 373e 1740 063d
000001a0: f4de 8abc 5976 243e e649 0cbe 2c86 893d
000001b0: 98bc 56bc 3574 263e 3d61 04be bc45 9b3d
000001c0: 00df ab3d aca9 ba3d a380 563d 861a 19bd
000001d0: 2a79 db3c 14d9 233d 8a21 903d 60a3 a93d
000001e0: 12b7 2e3d 5a49 26be 39fe 71bd 9e2f 8a3d
000001f0: 1c34 cdbd f052 a93d d280 523e 421a e73c
00000200: 6806 dabc 5e1b 78bc aeb0 e0ba e527 253d
00000210: 5e01 b9bc de17 a7bd d85d 143e 894f e83d
00000220: 2c49 b8bd 0c20 183e a94f aabb 5863 8abd
00000230: 09fd 1a3d b810 aebd 09bd 223e d821 d43d
00000240: 74c3 853c c660 3fbd 07ef 733c 3096 0cbd
00000250: 3194 fa3d 84bc e73c 3162 6e3d 4f09 883d
00000260: 0ea6 a4bb 7691 87bd 6a5b 6d3d 4641 a2bd
00000270: 077b 1dbd 6c84 953e d235 a33d 205a b23d
00000280: 9901 283d e0a4 74bd e771 f5bc 28a5 153e
00000290: 24cc 3fbe cddd 9c3d f216 73be 6323 e83d
000002a0: 3f5f 863c 86d7 08be 09c1 bc3d 5bbe c8bc
000002b0: f139 ca3c a3d8 943c a63f d8bd 6db8 c7bd
000002c0: 9467 14be 1319 923d d255 17bd 0daf 9ebd
000002d0: e966 4b3d 4f6f eabc 68dd 663c 4e1b a9bc
000002e0: 925f fdbc 4660 24bd 5845 bd3b 7bc3 efbd
000002f0: d8f8 be3d 7a45 923e 2789 32be df96 053e
00000300: 3d13 9ebd 62ab 893e 728b fabb b2ea 563d
00000310: 67af 273d 146c 4fbb 8d23 c73d 2d58 a6bd
00000320: c8a5 0cbc 29b2 b7bd b389 18bc 5072 513d
00000330: 8dfa 813b ffc2 673d 9fe6 04bd ac46 31be
00000340: 67fd 7ebc 61ef 9dbd 8a80 82bb a3cb 33be
00000350: 191c bd3d 6ec3 d83c 054a 81bd 50dc 36bc
00000360: db57 b8bc 5ef1 0cbe cefb 3e3c 9702 003e
00000370: ffc3 363d bbf8 63bd 5993 d2bd 1556 ddbd
00000380: a6b6 e3bd facb cfbd 7316 343e 9029 c13d
00000390: b608 ac3d f255 733d a975 bf3d 92d6 183d
000003a0: 3bc9 323e f567 29be 97db 43bd 49c3 023e
000003b0: f8ad 403c c904 19be 94d8 ee3d 883e 933d
000003c0: 9176 583e c840 d0bd 6bd0 263e 7529 2cbd
000003d0: f752 45bd e939 1dbe 7d09 dfbc 9e05 89bd
000003e0: 4ff5 173d 6c2c b8bd 5c40 4dbe af0d 1abd
000003f0: 6b54 403e 181a 753c 8d99 223d 4d22 da3c

0.features.1.0.block.0.1.weight f4 [16]
0.50282925 0.55190927 0.6435007 0.6410842 0.55694747 0.6604611 0.6752145 0.70305943
0.53996074 0.5065732 0.45189312 2.2333007 0.4528437 1.0462104 0.705669 0.62454724
00000000: 6bb9 003f ed49 0d3f 76bc 243f 181e 243f
00000010: 1c94 0e3f fb13 293f dcda 2c3f b4fb 333f
00000020: de3a 0a3f c8ae 013f 895e e73e 66ee 0e40
00000030: 21db e73e 39ea 853f b9a6 343f 54e2 1f3f

0.features.1.0.block.0.1.bias f4 [16]
0.77024037 0.35841477 0.035821527 0.6848693 0.64007896 1.0792409 0.23369184 0.49454156
0.092971966 0.54631674 0.0627592 -2.0236003 0.28601795 -0.95425725 0.12568238 -0.017731387
00000000: 792e 453f 2482 b73e 98b9 123d 9853 2f3f
00000010: 37dc 233f 9124 8a3f ea4c 6f3e 8d34 fd3e
00000020: 1668 be3d 6adb 0b3f e587 803d ab82 01c0
00000030: f270 923e 344a 74bf e2b2 003e 6a41 91bc

0.features.1.0.block.0.1.running_mean f4 [16]
1.2817395 1.1099949 -0.52844334 0.70131004 -0.59451324 1.1543843 1.0080717 0.7223765
-1.0723374 -0.45181933 -0.8717257 0.37510288 3.038531 -0.53208745 -1.3173829 1.8697153
00000000: 0a10 a43f 5014 8e3f 1048 07bf 0e89 333f
00000010: 0532 18bf ddc2 933f 7e08 813f abed 383f
00000020: 5a42 89bf dd54 e7be 6a29 5fbf 7c0d c03e
00000030: 4b77 4240 e236 08bf 01a0 a8bf d552 ef3f

0.features.1.0.block.0.1.running_var f4 [16]
0.85940427 0.9350435 1.2101867 0.31705576 0.51375836 0.38820985 3.117948 0.7127456
0.45120963 0.39796248 0.5072477 0.050721586 1.1522208 0.18665524 1.0020583 3.1236715
00000000: eb01 5c3f 035f 6f3f 66e7 9a3f 2255 a23e
00000010: ab85 033f 71c3 c63e 768c 4740 7f76 363f
00000020: f304 e73e bdc1 cb3e fcda 013f 70c1 4f3d
00000030: f97b 933f 8d22 3f3e 7243 803f 3cea 4740

0.features.1.1.block.0.0.weight f4 [16, 16, 3, 3]
0.002673953 -0.026931435 -0.071310155 0.020781836 0.0648932 0.055110116 -0.12717094 0.094308026
-0.08693462 -0.06541458 -0.11143415 0.08323956 -0.030884411 -0.16012168 -0.071100764 -0.042519677
-0.18070455 0.07387822 -0.048209004 0.12743479 -0.0630933 0.13131194 0.02239084 0.05998864
0.01139669 0.22294936 -0.040944654 0.101934515 0.045479823 0.13093874 0.0772483 -0.30056417
0.024809591 -0.019688312 -0.022244152 0.15233687 -0.07772224 0.04252822 -0.099789895 -0.105300695
-0.13931635 -0.054733135 -0.035087097 -0.043634675 -0.020166304 -0.0022880817 0.12639578 -0.03298034
0.08057751 -0.059654295 0.03065127 -0.02302326 0.07572803 -0.13926888 -0.13655192 -0.05344817
0.0036128226 0.058315672 -0.0039465693 -0.074429475 0.09447524 0.0045617977 -0.06528635 0.10555322
-0.002524765 -0.02786444 -0.14020385 -0.03701232 -0.027896425 0.054670274 0.1181703 0.11847544
0.017772175 -0.20969787 0.11652065 0.15238918 -0.035810918 -0.014519196 0.12163418 0.10328325
0.22655155 -0.017339608 0.0046438975 0.059580047 -0.05879614 -0.12582739 -0.16718957 -0.101986974
-0.26532957 -0.026066383 0.07925124 0.09134953 -0.07005258 0.17038643 0.07630711 0.021647766
0.04353001 -0.096788436 0.19981885 0.26292655 0.10124953 0.4339938 0.2142961 0.1941474
0.17093718 0.2000009 0.29102352 0.19562769 -0.17527206 -0.0080808755 -0.076249525 -0.108724825
-0.27939972 -0.19946556 -0.016395539 -0.08745592 -0.13912807 -0.0072801276 -0.06662998 0.06678008
-0.07471463 -0.11296684 -0.11936104 0.041182615 -0.17566 0.06610502 -0.00900534 0.016214631
0.0663812 0.0047043595 0.03600571 -0.1908547 -0.046673752 0.18926424 -0.015983192 0.0584342
-0.016321419 0.10248452 -0.040439088 -0.13015553 0.0093273595 -0.064451106 0.0622078 0.030775532
-0.09911928 -0.2755821 -0.078999 -0.08474207 -0.29245016 -0.106313415 -0.10349198 -0.12320257
0.09206043 -0.32844177 0.011842592 -0.10900999 -0.04775698 -0.0080357995 -0.11794005 -0.05260258
0.11755439 -0.15723258 -0.02583775 0.06596994 -0.059210967 -0.06264302 -0.15840083 -0.063031934
0.08934971 0.016068969 0.13025056 -0.042062264 -0.0659856 0.2006979 0.047741503 0.16938381
0.14194441 -0.08709791 -0.0043883394 -0.09377219 -0.018105937 -0.022767663 -0.008433412 -0.08304643
0.07433222 0.06860621 -0.052384935 0.06351113 -0.078890696 0.14891337 0.11176053 0.08811562
-0.19513023 -0.2592042 -0.09199029 0.31068876 -0.08848283 0.08683974 -0.00396961 -0.040851764
0.002711226 0.0034748544 -0.040248245 0.07475075 -0.07817095 -0.04625155 -0.08000206 0.008003668
-0.012352863 -0.21970664 -0.1768907 -0.1706983 -0.049051955 -0.19384062 -0.18139446 -0.011918545
0.0062907236 0.003509225 0.05127879 0.11574576 0.1035273 0.04094393 0.046284862 0.11462643
0.07210682 -0.012230335 -0.068698935 0.053323124 -0.19977152 -0.0657749 -0.13021342 0.030088726
-0.08529678 0.07181019 -0.09828148 -0.11743628 0.20821524 0.04922041 -0.15720156 -0.0472945
-0.06245113 -0.02511605 0.013379314 0.09037584 0.17421328 0.14102606 0.15426254 0.07721017
0.13094342 -0.026123628 0.024171812 -0.082017176 0.079120345 -0.010389216 -0.026665363 0.06987018
00000000: 7d3d 2f3b 509f dcbc 0f0b 92bd ab3e aa3c
00000010: bae6 843d 25bb 613d 1939 02be 9124 c13d
00000020: c70a b2bd 14f8 85bd 9637 e4bd 8179 aa3d
00000030: 4e01 fdbc f0f6 23be 479d 91bd 1d29 2ebd
00000040: 9d0a 39be 774d 973d ce76 45bd 447e 023e
00000050: 0f37 81bd a376 063e ff6c b73c a6b6 753d
00000060: 2fb9 3a3c d64c 643e 95b5 27bd 0bc3 d03d
00000070: 0d49 3a3d ce14 063e 5b34 9e3d 8ce3 99be
00000080: 7c3d cb3c 6249 a1bc 5e39 b6bc 32fe 1b3e
00000090: d62c 9fbd 1232 2e3d a55e ccbd e4a7 d7bd
000000a0: f2a8 0ebe da2f 60bd 7db7 0fbd 46ba 32bd
000000b0: ce33 a5bc a4f3 15bb e56d 013e 6516 07bd
000000c0: d205 a53d 1058 74bd 5f18 fb3c 479b bcbc
000000d0: 4c17 9b3d 809c 0ebe 44d4 0bbe 78ec 5abd
000000e0: 1bc5 6c3b 6adc 6e3d 3952 81bb 7b6e 98bd
000000f0: 3c7c c13d 227b 953b dab4 85bd 492c d83d
00000100: 8776 25bb f743 e4bc 9991 0fbe 3b9a 17bd
00000110: 0b87 e4bc f0ed 5f3d 4503 f23d 40a3 f23d
00000120: f496 913c 0abb 56be 61a2 ee3d e90b 1c3e
00000130: 78ae 12bd ece1 6dbc 571b f93d 2b86 d33d
00000140: 21fd 673e cb0b 8ebc d62b 983b 350a 743d
00000150: 39d4 70bd e5d8 00be be33 2bbe 8cde d0bd
00000160: 47d9 87be 2b89 d5bc 794e a23d 7615 bb3d
00000170: ba77 8fbd c879 2e3e e746 9c3d a856 b13c
00000180: 864c 323d 0439 c6bd 509d 4c3e 4f9e 863e
00000190: ea5b cf3d 6f34 de3e 7070 5b3e 93ce 463e
000001a0: 280a 2f3e 09cd 4c3e 0901 953e a052 483e
000001b0: 857a 33be a665 04bc b628 9cbd 1fab debd
000001c0: 7b0d 8fbe b340 4cbe f04f 86bc 171c b3bd
000001d0: 9777 0ebe 238e eebb 4d75 88bd ffc3 883d
000001e0: fc03 99bd 295b e7bd 9073 f4bd 1aaf 283d
000001f0: 37e0 33be 1262 873d 228b 13bc 8cd4 843c
00000200: def2 873d 0727 9a3b b97a 133d 6a6f 43be
00000210: fa2c 3fbd 7cce 413e 2fef 82bc b358 6f3d
00000220: 7fb4 85bc 67e3 d13d 75a3 25bd 7e47 05be
00000230: c8d1 183c f1fe 83bd 9bcd 7e3d f81c fc3c
00000240: 0dff cabd 1919 8dbe 3aca a1bd 408d adbd
00000250: 07bc 95be d9ba d9bd 9af3 d3bd a151 fcbd
00000260: 2e8a bc3d 8529 a8be 6e07 423c a140 dfbd
00000270: d39c 43bd 96a8 03bc 8e8a f1bd ce75 57bd
00000280: 5bc0 f03d 9401 21be b0a9 d3bc 3f1b 873d
00000290: 3387 72bd fc4a 80bd d433 22be e316 81bd
000002a0: fbfc b63d 12a3 833c 6760 053e 7b49 2cbd
000002b0: 7523 87bd c083 4d3e 988c 433d f372 2d3e
000002c0: e059 113e 6460 b2bd 0fcc 8fbb a20b c0bd
000002d0: e752 94bc 4083 babc 4b2c 0abc 3f14 aabd
000002e0: 7e3b 983d 6a81 8c3d 9691 56bd 2012 823d
000002f0: 7291 a1bd bf7c 183e b4e2 e43d f675 b43d
00000300: 38d0 47be 6ab6 84be 6865 bcbd 9912 9f3e
00000310: 7c36 b5bd 09d9 b13d 8113 82bb 2e54 27bd
00000320: d3ae 313b 62ba 633b 58db 24bd ec16 993d
00000330: 1718 a0bd 4472 3dbd 1fd8 a3bd d121 033c
00000340: aa63 4abc c7fa 60be d622 35be 89cb 2ebe
00000350: b4ea 48bd 287e 46be 78bf 39be 0046 43bc
00000360: 6a22 ce3b 07fb 653b b509 523d 1d0c ed3d
00000370: 1f06 d43d d3b4 273d 3295 3d3d 43c1 ea3d
00000380: beac 933d be61 48bc 07b2 8cbd 5969 5a3d
00000390: e890 4cbe feb4 86bd ab56 05be a27c f63c
000003a0: 14b0 aebd 3911 933d cd47 c9bd 6f82 f0bd
000003b0: 6036 553e 579b 493d 72f9 20be e1b7 41bd
000003c0: c2cc 7fbd 2dc0 cdbc e934 5b3c f816 b93d
000003d0: f764 323e 2369 103e 00f7 1d3e 5e20 9e3d
000003e0: 0816 063e 3801 d6bc f703 c63c 9ff8 a7bd
000003f0: d909 a23d 8837 2abc 5271 dabc 1918 8f3d

0.features.1.1.block.0.1.weight f4 [16]
0.43303263 0.5607115 0.55639106 0.65816313 0.57091856 0.40285695 0.62653345 0.48528326
1.5053898 0.4141564 0.27668953 0.54040587 0.6126201 0.83149403 0.59773785 0.5545223
00000000: 74b6 dd3e ca8a 0f3f a56f 0e3f 617d 283f
00000010: b827 123f 4443 ce3e 7f64 203f 0c77 f83e
00000020: 9db0 c03f 4f0c d43e 40aa 8d3e 0a58 0a3f
00000030: acd4 1c3f cbdc 543f 5905 193f 2cf5 0d3f

0.features.1.1.block.0.1.bias f4 [16]
-0.52622265 -0.2314107 -0.12341239 -0.21163025 -0.012665066 -0.120185696 -0.078046165 0.16732427
-0.53498185 -0.012598197 -0.24050543 1.3142892 -0.07954235 -0.006161067 -0.25698307 -0.022456432
00000000: 87b6 06bf edf6 6cbe a3bf fcbd 9ab5 58be
00000010: 2381 4fbc eb23 f6bd abd6 9fbd 0e57 2b3e
00000020: 92f4 08bf ab68 4ebc 0e47 76be a13a a83f
00000030: 19e7 a2bd c7e2 c9bb 4993 83be 8df6 b7bc

0.features.1.1.block.0.1.running_mean f4 [16]
-1.246722 -4.0871634 -5.0178733 -0.5753532 -2.4255795 -1.893359 -7.8656454 -2.048036
-0.55514306 -2.4632816 -1.4822093 -0.3425846 -2.0769713 -1.6988795 -2.5740712 -4.8743324
00000000: 9694 9fbf 0bca 82c0 6b92 a0c0 594a 13bf
00000010: b23c 1bc0 9659 f2bf 5eb3 fbc0 0613 03c0
00000020: db1d 0ebf 68a6 1dc0 09b9 bdbf 4067 afbe
00000030: 19ed 04c0 e274 d9bf 95bd 24c0 88fa 9bc0

0.features.1.1.block.0.1.running_var f4 [16]
0.8757617 6.3674183 8.696034 0.900647 3.4511077 6.6148605 21.004587 3.5407226
0.5171082 3.1126308 0.8990189 0.3162304 4.166578 3.218621 4.4923425 7.1082397
00000000: eb31 603f e4c1 cb40 f522 0b41 cd90 663f
00000010: f3de 5c40 f0ac d340 6509 a841 339b 6240
00000020: 3461 043f 5835 4740 1a26 663f f3e8 a13e
00000030: 9b54 8540 e3fd 4d40 45c1 8f40 b376 e340

0.features.2.0.block.0.0.weight f4 [64, 16, 3, 3]
-0.028906766 -0.090007424 -0.07033576 -0.021113675 -0.12367733 -0.0868005 -0.057749633 0.029885618
-0.022545034 0.015872287 -0.014494473 -0.034631304 0.018854951 -0.09689667 -0.0072426405 0.031294223
-0.11392036 -0.0065966477 -0.0039496827 -0.0720284 -0.065233275 0.010946429 0.013972061 -0.047166128
-0.057455547 0.03163674 -0.09252465 0.023804588 -0.0846601 0.0036969474 0.016608078 0.053766225
0.08081343 -0.008743353 0.03532568 -0.0032109052 0.04469915 -0.0047853873 0.08535296 0.012416938
-0.14432476 0.14644925 0.043370765 0.010237838 0.08558228 0.017377865 0.016561082 -0.043223742
0.009075581 0.058907017 -0.029544821 -0.054792862 0.03935578 0.06824686 -0.027656345 0.0061774147
-0.06539863 0.107690014 -0.06506924 0.046718307 0.002395178 0.08006942 0.044240814 0.083588846
0.049126506 0.04718761 -0.046874437 0.049629975 -0.028080089 0.063742295 0.02248381 -0.119113885
0.105491154 0.18483216 0.17155026 0.058190603 0.06478378 0.21083246 0.085564755 -0.02171979
-0.031576533 0.02931033 0.0023434157 0.013535353 -0.03657536 -0.00813171 0.0021304535 0.051301945
-0.038659576 0.047218412 0.07684851 0.0020702623 0.027262822 0.047140382 -0.006698484 -0.01461473
0.020496493 0.025940506 -0.011228438 -0.07322916 0.011847299 0.012500868 -0.005204104 -0.0047896774
0.021711268 -0.0059173694 -0.017494293 0.034614343 -0.020570168 0.056616116 0.063850015 -0.08237083
0.041702516 0.03010681 0.030614357 -0.049069114 -0.013413078 -0.051918056 0.023831215 -0.018246612
-0.001041002 0.16453348 -0.045446366 -0.012858542 0.0044197002 -0.022162907 -0.010080196 0.06339957
-0.0066013844 -0.0008313894 0.11791906 0.023179896 0.03740976 0.0014686133 0.0597615 0.036674637
-0.08481552 -0.08989311 0.039659187 -0.071266316 -0.03658078 -0.03466033 0.022219816 -0.020428658
-0.029416258 -0.07001564 -0.03052613 -0.01812091 -0.002651389 0.061114777 0.009325032 -0.05414218
-0.038965136 0.0035699208 -0.03272362 0.017291896 0.060905743 0.12236894 0.0042357394 0.11927145
0.17003137 0.12510322 -0.10349002 -0.058951143 0.091426745 -0.061808042 -0.0136357285 0.10996288
-0.10003125 0.005347818 0.17924738 -0.008009364 0.02151896 0.06470396 -0.0013233821 -0.07400992
-0.11765995 -0.06911575 0.120601736 -0.033668287 0.017604413 0.055398062 0.0029811785 -0.05493873
-0.1927214 0.0023092525 0.03284641 0.006790206 0.07727847 0.051108822 0.04471212 0.012676608
0.008769308 -0.0058551594 -0.022567315 0.069572836 0.022066075 0.043687683 0.02964854 0.06054656
-0.0246567 0.10818193 0.00900173 -0.003144092 -0.01516215 -0.07368425 -0.029462196 -0.039702028
-0.011813913 0.03500466 -0.034973547 0.12690578 0.11758672 -0.059315186 -0.034447752 -0.018527783
-0.12389673 -0.12343948 -0.13950042 -0.100427 -0.075702384 -0.16127823 -0.12152267 -0.08474652
-0.09984877 0.03491549 0.06878129 -0.031812347 0.08914999 0.09970328 -0.024023237 0.06888585
-0.016516212 -0.055305373 0.037144646 0.009418048 0.044476997 -0.025437538 -0.004556278 -0.062297847
0.004651455 -0.058834556 -0.022849109 0.004025388 0.055306263 -0.0070883897 -0.060441524 -0.08331193
-0.047417838 -0.004721102 0.032302864 0.001711522 -0.012021679 -0.059537444 -0.020930631 -0.02551253
00000000: e2cd ecbc d055 b8bd 320c 90bd 96f6 acbc
00000010: 8a4a fdbd 76c4 b1bd e18a 6cbd afd2 f43c
00000020: 5db0 b8bc 9906 823c 3a7a 6dbc 8ed9 0dbd
00000030: b375 9a3c c371 c6bd ac53 edbb 5f2e 003d
00000040: 144f e9bd b128 d8bb 576c 81bb a083 93bd
00000050: 0699 85bd a758 333c 12eb 643c 4531 41bd
00000060: 8256 6bbd 8795 013d 907d bdbd d701 c33c
00000070: 4662 adbd 7c48 723b aa0d 883c f939 5c3d
00000080: 8381 a53d 4840 0fbc a9b1 103d 0d6e 52bb
00000090: 7516 373d bdce 9cbb 88cd ae3d 6a70 4b3c
000000a0: dfc9 13be cbf6 153e 8ba5 313d 9bbc 273c
000000b0: c345 af3d 065c 8e3c 1bab 873c 610b 31bd
000000c0: bfb1 143c 7c48 713d fb07 f2bc 7b6e 60bd
000000d0: 8733 213d 02c5 8b3d 8f8f e2bc e96b ca3b
000000e0: b8ef 85bd 958c dc3d 0643 85bd b25b 3f3d
000000f0: 6bf8 1c3b 70fb a33d db35 353d a130 ab3d
00000100: e038 493d cc47 413d 69ff 3fbd cd48 4b3d
00000110: 3708 e6bc 528b 823d f82f b83c fbf1 f3bd
00000120: bf0b d83d a444 3d3e dfaa 2f3e 4559 6e3d
00000130: 5cad 843d 77e4 573e 933c af3d b3ed b1bc
00000140: 6556 01bd 381c f03c fe93 193b 63c3 5d3c
00000150: 0bd0 15bd dd3a 05bc 149f 0b3b fd21 523d
00000160: 8159 1ebd 1868 413d c062 9d3d 3dad 073b
00000170: 4856 df3c 4616 413d f57e dbbb 9f72 6fbc
00000180: 43e8 a73c 2f81 d43c 7bf7 37bc 2bf9 95bd
00000190: 2c1b 423c 71d0 4c3c 3087 aabb baf2 9cbb
000001a0: d4db b13c 7ee6 c1bb 3150 8fbc c5c7 0d3d
000001b0: c582 a8bc 4de6 673d ccc3 823d 0ab2 a8bd
000001c0: 42d0 2a3d 8fa2 f63c f6ca fa3c b2fc 48bd
000001d0: 87c2 5bbc 07a8 54bd ae39 c33c eb79 95bc
000001e0: 3b72 88ba 777b 283e f825 3abd a2ac 52bc
000001f0: 22d3 903b fc8e b5bc 6827 25bc a2d7 813d
00000200: 6d50 d8bb 99f1 59ba 8c7f f13d c4e3 bd3c
00000210: fa3a 193d 7c7e c03a 7ac8 743d 2538 163d
00000220: c2b3 adbd e119 b8bd ac71 223d 13f4 91bd
00000230: bad5 15bd fdf7 0dbd 5506 b63c 005a a7bc
00000240: 5dfa f0bc 5c64 8fbd ef11 fabc 4d72 94bc
00000250: edc2 2dbb 7d53 7a3d 05c8 183c 31c4 5dbd
00000260: e899 1fbd 55f5 693b 3409 06bd bca7 8d3c
00000270: 4d78 793d 919c fa3d f5cb 8a3b 9744 f43d
00000280: b41c 2e3e 0f1b 003e 93f2 d3bd c176 71bd
00000290: f23d bb3d 6e2a 7dbd 6468 5fbc 3834 e13d
000002a0: 2fdd ccbd c03c af3b a08c 373e b539 03bc
000002b0: 8848 b03c 8383 843d 5675 adba 8392 97bd
000002c0: b3f7 f0bd 8f8c 8dbd 0bfe f63d c2e7 09bd
000002d0: 2137 903c 14e9 623d e05f 433b 6f07 61bd
000002e0: c258 45be d456 173b f589 063d 6080 de3b
000002f0: 2d44 9e3d 7c57 513d 0e24 373d 8cb1 4f3c
00000300: 25ad 0f3c a3dc bfbb 17df b8bc 347c 8e3d
00000310: eac3 b43c dbf1 323d 7fe1 f23c abff 773d
00000320: d9fc c9bc 7d8e dd3d fe7b 133c 1c0d 4ebb
00000330: ab6a 78bc c5e7 96bd b45a f1bc 989e 22bd
00000340: 248f 41bc 0c61 0f3d 6c40 0fbd 97f3 013e
00000350: 4ed1 f03d 7bf4 72bd 1619 0dbd 94c7 97bc
00000360: 92bd fdbd d7cd fcbd 33d9 0ebe acac cdbd
00000370: da09 9bbd 1f26 25be e1e0 f8bd 958f adbd
00000380: 837d ccbd 8b03 0f3d 34dd 8c3d aa4d 02bd
00000390: 4594 b63d 3c31 cc3d 61cc c4bc 0614 8d3d
000003a0: 024d 87bc e387 62bd fc24 183d 284e 1a3c
000003b0: 832d 363d 6262 d0bc d54c 95bb 072c 7fbd
000003c0: 3c6b 983b 81fc 70bd 0e2e bbbc 67e7 833b
000003d0: d288 623d b945 e8bb 8891 77bd 729f aabd
000003e0: 3539 42bd 79b3 9abb 0250 043d 2655 e03a
000003f0: 94f6 44bc 89dd 73bd b776 abbc a7ff d0bc

0.features.2.0.block.0.1.weight f4 [64]
0.5759946 0.7261633 0.57137173 0.48707622 0.7234636 0.66758615 0.6279919 0.6323889
0.51793426 0.6939854 0.8126457 0.7361896 0.5656469 0.9266438 0.65780675 0.6586521
0.68007696 0.52603436 0.71830755 0.7786814 0.55017614 0.69896644 0.56913733 0.61090225
0.7781714 1.0511891 0.5988012 0.7112618 0.6458727 0.69558084 0.6574489 0.7613223
0.7505014 0.62228876 0.71075207 0.637788 0.7299841 0.66268754 0.69697046 0.68237203
0.9592216 0.6590398 0.809104 0.6801293 0.72777396 0.7727743 0.73846984 0.6728095
0.7534617 0.54794633 0.7984948 0.6200953 0.7393467 1.2352326 0.6402929 0.71722174
0.78751284 0.6335767 0.7943339 0.6359171 0.7486767 0.49454844 0.7335755 0.88684875
00000000: 6274 133f d7e5 393f 6b45 123f 0e62 f93e
00000010: e934 393f ede6 2a3f 14c4 203f 3de4 213f
00000020: 5797 043f 07a9 313f 8c09 503f ec76 3c3f
00000030: 3cce 103f 8738 6d3f 0666 283f 6d9d 283f
00000040: 8619 2e3f 30aa 063f 01e3 373f aa57 473f
00000050: 58d8 0c3f 77ef 323f fcb2 113f 1764 1c3f
00000060: 3e36 473f 5d8d 863f 094b 193f 4115 363f
00000070: ea57 253f 9611 323f 924e 283f 05e6 423f
00000080: dc20 403f 514e 1f3f d9f3 353f 1346 233f
00000090: 3de0 3a3f e4a5 293f a86c 323f efaf 2e3f
000000a0: 8c8f 753f d5b6 283f 7121 4f3f f41c 2e3f
000000b0: 654f 3a3f 89d4 453f 5c0c 3d3f 3e3d 2c3f
000000c0: dee2 403f 3646 0c3f 286a 4c3f 91be 1e3f
000000d0: d345 3d3f 1a1c 9e3f 3cea 233f d89b 373f
000000e0: 719a 493f 1532 223f 7759 4b3f 77cb 223f
000000f0: 47a9 3f3f 7435 fd3e 9bcb 3b3f 8508 633f

0.features.2.0.block.0.1.bias f4 [64]
0.14042915 0.91592234 0.11045654 -0.018128045 0.29496393 0.23260051 0.09132999 0.1991065
0.18363869 0.6815435 0.3855078 0.14802597 0.08476596 -0.121915564 0.017891588 0.07892743
0.12861462 0.081922464 0.02635682 0.20510899 0.085558966 0.041796073 0.19963348 -0.010336895
0.16988267 -0.017746108 0.069301374 0.36675608 -0.01360437 0.5007008 0.12720948 0.21771067
0.2923015 0.77382 0.004586967 0.14084148 0.4526065 0.21814524 0.19739127 0.10756721
-0.14781253 0.029892564 0.36556002 0.020092526 0.09224649 0.53473574 0.4148528 0.10562409
0.28448617 -0.08896261 0.17918387 0.33033934 0.2093954 -0.49728042 0.061040085 0.2783339
0.29983988 0.15302032 0.22917283 0.058326956 0.37178767 0.33726323 0.28553596 0.11936568
00000000: a9cc 0f3e e379 6a3f 0a37 e23d 4481 94bc
00000010: 8305 973e d42e 6e3e 380b bb3d 93e2 4b3e
00000020: c80b 3c3e a379 2e3f 4761 c53e 1f94 173e
00000030: c799 ad3d deae f9bd 6191 923c b4a4 a13d
00000040: 8db3 033e f7c6 a73d 42ea d73c 1708 523e
00000050: 8a39 af3d 5c32 2b3d b86c 4c3e 145c 29bc
00000060: b9f5 2d3e 4960 91bc e1ed 8d3d 74c7 bb3e
00000070: dde4 5ebc ed2d 003f 3443 023e 8cef 5e3e
00000080: 8ba8 953e 1119 463f 454e 963b c038 103e
00000090: 0abc e73e 7761 5f3e f020 4a3e 334c dc3d
000000a0: 2b5c 17be 40e1 f43c af2a bb3e 1599 a43c
000000b0: baeb bc3d 71e4 083f 9667 d43e 7151 d83d
000000c0: 2ca8 913e 0732 b6bd fa7b 373e 3d22 a93e
000000d0: bf6b 563e 8a9b febe 2b05 7a3d c881 8e3e
000000e0: 9d84 993e 5cb1 1c3e 48ac 6a3e 3fe8 6e3d
000000f0: f45a be3e c4ad ac3e c531 923e fe75 f43d

0.features.2.0.block.0.1.running_mean f4 [64]
-0.41295424 0.41583395 -0.5150474 -1.2412581 -0.024489691 -0.3258125 -0.54804015 0.17938119
-0.1287073 0.47983474 -0.12761235 0.041106496 -0.5271633 0.0101884585 -0.9733082 0.30257183
0.14643615 -1.5807914 0.36526376 0.93405485 1.0242532 -0.34281197 0.35973507 -0.87687325
-0.43206838 0.42100963 -0.03177373 0.54299754 -0.051495895 -0.074581794 -0.064706355 0.44994894
0.08697817 -0.07112113 0.04563634 -0.7914755 0.77889407 0.33238846 -0.0707398 -0.20447445
-0.08364764 -0.06326871 0.017386936 -0.39766368 0.1306237 -0.032469008 0.90651035 -0.040048137
1.1389562 -0.77659476 0.5593329 -0.32925296 0.12329541 0.56386364 -0.9813533 1.1832569
0.51834905 -0.3586932 0.27894402 -0.2986098 1.6896701 1.0618348 1.9620595 -0.032317173
00000000: bd6e d3be 30e8 d43e 25da 03bf 8ce1 9ebf
00000010: 9b9e c8bc e5d0 a6be 5c4c 0cbf b4af 373e
00000020: d9cb 03be e6ac f53e d0ac 02be 495f 283d
00000030: 2df4 06bf 7eed 263c ba2a 79bf b2ea 9a3e
00000040: 5cf3 153e 5f57 cabf da03 bb3e 381e 6f3f
00000050: bb1a 833f 0d85 afbe 322f b83e c47a 60bf
00000060: 1138 ddbe 938e d73e 2c25 02bd e301 0b3f
00000070: 5ced 52bd 57be 98bd c484 84bd b55f e63e
00000080: 9c21 b23d f4a7 91bd 2ced 3a3d 239e 4abf
00000090: 9a65 473f d22e aa3e 07e0 90bd c061 51be
000000a0: 744f abbd 0793 81bd 0c6f 8e3c 939a cbbe
000000b0: 38c2 053e 39fe 04bd 1011 683f 8409 24bd
000000c0: 51c9 913f eace 46bf 7130 0f3f d893 a8be
000000d0: 4e82 fc3d 5e59 103f f839 7bbf f674 973f
000000e0: 86b2 043f a3a6 b7be c0d1 8e3e 62e3 98be
000000f0: 1c47 d83f 34ea 873f c424 fb3f 035f 04bd

0.features.2.0.block.0.1.running_var f4 [64]
2.0171418 2.1618414 1.7911347 3.0414083 1.7433258 1.9224343 2.6212795 1.2694067
1.1111192 1.0510223 2.2777355 2.4302025 1.7598689 2.6063025 2.8716195 2.0594897
2.2594254 1.5757811 2.9023135 4.790377 1.40004 2.4875329 1.377125 2.3097744
3.154132 1.9301006 1.8537539 4.4505773 1.2368813 1.6102874 2.310198 3.824729
3.2262595 1.2520096 2.9596448 3.5540397 3.1067984 2.793712 1.7310976 2.0996397
1.9509957 2.7796893 2.0072994 3.2561631 3.0507545 1.964512 2.640431 2.3102875
3.7025235 0.33083516 4.8583217 2.5634856 2.7430885 2.192345 2.2156425 3.4081533
2.5869277 1.3522025 3.43644 3.0639842 5.232365 1.5774357 3.828324 1.7148874
00000000: da18 0140 9c5b 0a40 e743 e53f 6fa6 4240
00000010: 4d25 df3f 5412 f63f 0bc3 2740 eb7b a23f
00000020: 2739 8e3f e687 863f 6bc6 1140 7088 1b40
00000030: 6243 e13f a9cd 2640 9dc8 3740 aece 0340
00000040: 6d9a 1040 32b3 c93f 81bf 3940 c54a 9940
00000050: 8334 b33f bd33 1f40 a245 b03f 58d3 1340
00000060: 4cdd 4940 890d f73f cf47 ed3f 216b 8e40
00000070: 2052 9e3f e61d ce3f 49da 1340 5cc8 7440
00000080: 097b 4e40 da41 a03f d26a 3d40 6375 6340
00000090: c9d5 4640 2dcc 3240 9b94 dd3f 7f60 0640
000000a0: 3aba f93f 6ee6 3140 9877 0040 fa64 5040
000000b0: 903f 4340 2175 fb3f d2fc 2840 c0db 1340
000000c0: 25f6 6c40 3a63 a93e 5f77 9b40 2610 2440
000000d0: c38e 2f40 614f 0c40 16cd 0d40 2f1f 5a40
000000e0: 3990 2540 f914 ad3f a2ee 5b40 5118 4440
000000f0: 896f a740 6ae9 c93f 4303 7540 6e81 db3f

0.features.2.0.block.1.0.weight f4 [32, 64, 1, 1]
0.18854477 -0.14518905 0.04963249 -0.042544764 0.05642243 -0.21361981 0.09725294 -0.21699297
-0.11286041 0.11185585 0.22613369 -0.1492121 0.25963005 -0.09934447 -0.22333102 -0.11292459
-0.09403502 -0.040254362 -0.09152729 -0.28265247 0.1247647 -0.25668126 -0.20803341 -0.068543695
-0.043349773 -0.3079301 0.30333164 0.38784406 0.07208451 -0.13934952 0.15168035 0.2875891
0.30171 -0.060872793 0.3175101 -0.5628633 0.27717224 -0.16493917 -0.084360324 0.38966292
-0.1058037 0.1769172 -0.20499142 -0.1484852 0.10309681 -0.1776954 -0.02220631 0.060303323
0.19528322 -0.10097898 0.115138635 -0.32825932 -0.15196073 -0.27565998 -0.12169542 0.0091715595
0.14367457 -0.44492573 -0.16651705 -0.24767807 -0.178998 -0.04816186 0.4521908 -0.1303541
-0.3610441 -0.095431544 0.17041536 0.43406877 0.069277704 0.07174368 0.30979127 0.0051308353
-0.17173198 -0.082665734 0.047203798 -0.4982094 0.24962439 -0.07935022 0.023963233 0.32288882
0.15419978 -0.1322794 -0.24400495 0.13127862 0.115747705 -0.118841015 -0.18529725 0.12270689
-0.07915241 -0.17508388 0.12804355 0.24000046 -0.11157963 0.4285722 0.26562098 0.18495212
0.021523414 -0.1293205 -0.058460664 -0.09227571 -0.02121822 -0.25572985 0.28163022 -0.10723862
-0.18320015 0.15283905 0.12310663 -0.32682553 -0.1380296 -0.10628805 -0.06759016 0.12449508
0.060429394 -0.14151028 -0.3640462 -0.01820869 0.13190678 0.36288926 0.17442146 0.022963023
-0.00926677 0.2502182 -0.28727087 0.09163018 0.26749903 -0.025050595 -0.060974594 -0.22410688
0.06449415 0.5042958 -0.32659563 0.30408186 -0.1142262 -0.1538008 -0.25292355 0.061560664
-0.11272566 -8.308678e-05 0.11164277 -0.006613572 -0.010959424 0.2620714 -0.17861283 0.115772545
-0.21307996 0.26076093 -0.04465775 0.13319731 0.14167751 0.2068581 0.052009534 -0.05789869
0.16557364 -0.0027348748 0.16388218 -0.22005181 0.21007715 0.0042543164 0.083905466 -0.20613675
-0.19244891 -0.073299676 -0.069384366 0.33223996 -0.006364168 -0.45329523 -0.124695614 0.014260776
0.2145934 0.23043041 0.13771056 0.11598158 0.10816866 -0.017038815 0.14869674 -0.14666793
0.15597892 0.19623363 -0.3519557 0.033348147 0.18058208 0.26995367 0.2278225 -0.14733289
0.0938428 -0.2895762 0.12367845 -0.06666446 -0.11826562 0.04971191 -0.15459093 0.23456503
0.0032078736 -0.19645143 -0.032715704 0.19883557 -0.056054123 -0.017268833 -0.19215263 0.19358923
0.08058039 0.010025052 -0.21549118 0.21236193 0.12733625 -0.3199919 -0.3174397 0.20063211
0.43591022 -0.37831134 -0.022530114 0.21773723 -0.35992265 -0.21268089 -0.19826154 0.21148571
-0.12338792 0.15378815 -0.32211635 -0.2507695 -0.106755085 -0.26944837 0.13958956 -0.0058065285
-0.28079408 0.34549424 -0.2082932 0.11823663 -0.12399201 0.10974931 0.19105105 0.359862
0.14436387 0.08208651 -0.2046002 -0.19456221 0.34648165 -0.07584791 -0.30452183 0.0656798
0.18019748 -0.16166669 -0.38735384 -0.096025355 0.117288776 -0.20890954 -0.02829251 0.017784517
0.113762796 0.36725852 0.15317339 -0.010982993 -0.08749464 0.06971655 0.114225395 -0.08804663
00000000: e111 413e 70ac 14be 704b 4b3d 6b43 2ebd
00000010: 351b 673d 27bf 5abe 8d2c c73d 6833 5ebe
00000020: 5c23 e7bd ae14 e53d 978f 673e 0fcb 18be
00000030: 3bee 843e 1d75 cbbd e3b0 64be 0245 e7bd
00000040: 6f95 c0bd c2e1 24bd a972 bbbd d3b7 90be
00000050: a384 ff3d ba6b 83be b606 55be a360 8cbd
00000060: 888f 31bd 04a9 9dbe 494e 9b3e 7f93 c63e
00000070: 0ba1 933d a4b1 0ebe 1852 1b3e e13e 933e
00000080: bc79 9a3e c055 79bd af90 a23e cf17 10bf
00000090: 85e9 8d3e d0e5 28be 1bc5 acbd e681 c73e
000000a0: 9caf d8bd c829 353e 45e9 51be 810c 18be
000000b0: 6c24 d33d c8f5 35be 02ea b5bc 9e00 773d
000000c0: 53f8 473e 11ce cebd cecd eb3d 9b11 a8be
000000d0: 989b 1bbe 4e23 8dbe 733b f9bd 4f44 163c
000000e0: 6d1f 133e 4ecd e3be 7283 2abe 529f 7dbe
000000f0: 404b 37be 5f45 45bd 8d85 e73e 8c7b 05be
00000100: c6da b8be 9d71 c3bd 5d81 2e3e 433e de3e
00000110: 78e1 8d3d 5aee 923d f69c 9e3e 9120 a83b
00000120: 82da 2fbe a74c a9bd c558 413d 4d15 ffbe
00000130: 899d 7f3e 5e82 a2bd 8b4e c43c af51 a53e
00000140: 8ce6 1d3e 4074 07be 6fdc 79be e76d 063e
00000150: 220d ed3d eb62 f3bd 90be 3dbe c04d fb3d
00000160: a91a a2bd 3049 33be d91d 033e aec2 753e
00000170: dc83 e4bd d16d db3e 79ff 873e 1764 3d3e
00000180: df51 b03c 986c 04be 7374 6fbd 0cfb bcbd
00000190: d5d1 adbc 06ef 82be d631 903e ec9f dbbd
000001a0: d298 3bbe d781 1c3e 541f fc3d ad55 a7be
000001b0: a257 0dbe 8dad d9bd b66c 8abd 47f7 fe3d
000001c0: d084 773d 12e8 10be 4364 babe 642a 95bc
000001d0: 9212 073e 9fcc b93e 8a9b 323e f31c bc3c
000001e0: a7d3 17bc 9a1c 803e 2b15 93be 9ba8 bb3d
000001f0: a2f5 883e e836 cdbc 7fc0 79bd 467c 65be
00000200: 8215 843d 8819 013f 8b37 a7be 9eb0 9b3e
00000210: 6def e9bd f57d 1dbe 327f 81be 0927 7c3d
00000220: b6dc e6bd e03e aeb8 f7a4 e43d aab6 d8bb
00000230: 288f 33bc 392e 863e 48e6 36be 281a ed3d
00000240: a231 5abe 7582 853e 0beb 36bd e064 083e
00000250: e913 113e 9cd2 533e f307 553d 2d27 6dbd
00000260: 238c 293e 963b 33bb bbd0 273e 4355 61be
00000270: 771e 573e cb67 8b3b a1d6 ab3d 8315 53be
00000280: 5411 45be 241e 96bd 6419 8ebd 5b1b aa3e
00000290: 838a d0bb 5016 e8be 6a60 ffbd 08a6 693c
000002a0: 5fbe 5b3e f3f5 6b3e ff03 0d3e c087 ed3d
000002b0: 8887 dd3d fc94 8bbc f543 183e 1e30 16be
000002c0: f0b8 1f3e 78f1 483e 8a33 b4be 1198 083d
000002d0: 82ea 383e 5e37 8a3e 4d4a 693e 6fde 16be
000002e0: a730 c03d 5543 94be 214b fd3d 6087 88bd
000002f0: 3f35 f2bd b79e 4b3d 164d 1ebe d131 703e
00000300: 303b 523b 902a 49be e700 06bd 8d9b 4b3e
00000310: 0299 65bd 5e77 8dbc a9c3 44be 413c 463e
00000320: 5507 a53d 1e40 243c b8a9 5cbe 6875 593e
00000330: 6f64 023e fad5 a3be 7587 a2be 8172 4d3e
00000340: a02f df3e 06b2 c1be 1391 b8bc 82f6 5e3e
00000350: c847 b8be 05c9 59be 1305 4bbe b68f 583e
00000360: ceb2 fcbd a47a 1d3e 6fec a4be dc64 80be
00000370: 69a2 dabd 23f5 89be 91f0 0e3e b144 bebb
00000380: 3ec4 8fbe 9fe4 b03e d04a 55be 0c26 f23d
00000390: 86ef fdbd 3fc4 e03d e3a2 433e d53f b83e
000003a0: 1fd4 133e f91c a83d b782 51be 513b 47be
000003b0: 0b66 b13e 2656 9bbd 49ea 9bbe 2283 863d
000003c0: b085 383e f48b 25be 3e53 c6be f1a8 c4bd
000003d0: 1935 f03d 62ec 55be b2c5 e7bc d6b0 913c
000003e0: 78fc e83d 4f09 bc3e 7cd9 1c3e 03f2 33bc
000003f0: 6430 b3bd 8dc7 8e3d 01ef e93d cb51 b4bd

0.features.2.0.block.1.1.weight f4 [32]
0.77623475 0.69010496 0.99617785 0.7476539 0.92837065 0.8385122 0.91354984 0.76455146
0.6842703 0.8492107 0.8183812 0.7618732 0.78738624 0.78141683 0.7534304 0.79051024
0.7091581 0.7959569 0.67581433 0.74522936 0.945747 0.776473 0.80841875 0.76215047
0.7607528 0.70670265 0.8242159 0.6694452 0.7041824 0.7115597 0.7013777 0.7971302
00000000: 52b7 463f b8aa 303f 8305 7f3f 3f66 3f3f
00000010: b3a9 6d3f bca8 563f 67de 693f a5b9 433f
00000020: 572c 2f3f df65 593f 6e81 513f 1f0a 433f
00000030: 2592 493f ef0a 483f d1e0 403f e15e 4a3f
00000040: 638b 353f d5c3 4b3f 2b02 2d3f 5ac7 3e3f
00000050: 7a1c 723f efc6 463f 88f4 4e3f 4b1c 433f
00000060: b2c0 423f 77ea 343f d0ff 523f c360 2b3f
00000070: 4c45 343f c728 363f 7d8d 333f ba10 4c3f

0.features.2.0.block.1.1.bias f4 [32]
-0.24873297 0.90052885 -0.3608879 0.19001214 -0.67487437 -0.5240877 0.728249 0.06940442
1.1880956 0.42726696 -0.13558394 0.38828233 1.0679628 -0.7767223 -0.8796707 0.14033377
2.556961 -0.60350025 0.20389463 -1.7732922 -2.5071485 0.60484123 -1.1642281 0.50816166
0.7776058 -0.5532703 -0.40928692 -0.19920288 0.38387206 0.25793213 1.4724692 0.2877971
00000000: dbb3 7ebe 0f89 663f 4dc6 b8be 8b92 423e
00000010: 91c4 2cbf 9d2a 06bf 876e 3a3f e823 8e3d
00000020: 8413 983f bcc2 da3e 84d6 0abe f1cc c63e
00000030: 01b3 883f 46d7 46bf 1932 61bf a8b3 0f3e
00000040: 40a5 2340 fe7e 1abf c1c9 503e 3dfb e2bf
00000050: 1f75 20c0 e0d6 1a3f 6d05 95bf e216 023f
00000060: 2c11 473f 1fa3 0dbf 0e8e d1be d7fb 4bbe
00000070: e18a c43e ae0f 843e df79 bc3f 245a 933e

0.features.2.0.block.1.1.running_mean f4 [32]
-0.32313633 0.010310581 0.35139862 -0.27686176 0.1251441 0.14057212 -0.21670972 -0.08505501
0.22760187 0.12529464 -0.23628381 0.062056717 0.13272135 -0.16732457 0.048348278 0.024366958
0.008551585 0.36581603 0.13099042 -0.34565875 -0.08282346 -0.23476514 0.2439077 -0.012942506
0.12629682 0.23892367 0.31809312 -0.073947795 -0.19201769 -0.18305051 0.35405454 -0.23243068
00000000: 2072 a5be b6ed 283c 85ea b33e d3c0 8dbe
00000010: c625 003e 23f2 0f3e 27e9 5dbe 5231 aebd
00000020: 7710 693e 3d4d 003e 62f4 71be 2f2f 7e3d
00000030: 1be8 073e 2257 2bbe d808 463d 379d c73c
00000040: f21b 0c3c 3d4c bb3e 5a22 063e 2ffa b0be
00000050: 599f a9bd 4666 70be f1c2 793e ce0c 54bc
00000060: f453 013e 68a8 743e 1add a23e f171 97bd
00000070: 49a0 44be 9871 3bbe a346 b53e 4f02 6ebe

0.features.2.0.block.1.1.running_var f4 [32]
1.0470495 0.2102135 0.2145809 0.26405948 0.2130923 0.7624942 0.64042854 0.14812952
0.37594947 1.4465231 0.31537208 0.29110113 1.7465725 0.28929588 0.22482884 0.5931823
0.28753883 0.37998796 0.27185178 0.78750503 0.7418474 0.110178 0.55610436 0.22570743
0.3748273 0.10793074 0.32414296 0.46327338 0.3091376 0.17576797 0.3446677 0.29722542
00000000: b805 863f 3542 573e 18bb 5b3e ce32 873e
00000010: de34 5a3e d232 433f 20f3 233f 44af 173e
00000020: 737c c03e ab27 b93f 7378 a13e 350b 953e
00000030: b08f df3f 971e 943e 8839 663e ccda 173f
00000040: 4a38 933e c88d c23e 2830 8b3e ee99 493f
00000050: b6e9 3d3f 01a5 e13d db5c 0e3f d91f 673e
00000060: 5de9 bf3e cb0a dd3d 11f6 a53e 2b32 ed3e
00000070: 4947 9e3e 85fc 333e 4978 b03e ee2d 983e
