code/modeling/ckpt/AutoencoderConfig([2, 2, 1], flip=False, rotate=False)/autoencoder_30000.pth (torch, 529260 bytes, 83 tensors)

0.features.0.0.weight f4 [16, 8, 3, 3]
0	0xbcec9938	-0.028881654
1	0x3d2da421	0.042392854
2	0xbd1480db	-0.0362557
3	0xbd1fb0f3	-0.03898711
4	0x3e632089	0.2218038
5	0xbd1b2774	-0.037879422
6	0xbce19105	-0.027534971
7	0xbbc3ef03	-0.00597942
8	0x3b0f5f15	0.0021876742
9	0x3c856a38	0.016286
10	0xbdc73b6f	-0.09728133
11	0x3cab7f48	0.020934716
12	0xbcd49536	-0.025950056
13	0x3f145510	0.57942295
14	0xbd3c07c0	-0.04590583
15	0xbc27c819	-0.010240578
16	0x3d01b619	0.031667802
17	0x3c40a01c	0.011756923
18	0x39c82417	0.00038173862
19	0x3d3ac0b0	0.045593917
20	0x3bc64dac	0.0060517397
21	0x3c84ecfe	0.016226288
22	0xbdaf9294	-0.085728794
23	0xbca531ee	-0.02016541
24	0x3c0135ed	0.007886392
25	0xbaa7cbc2	-0.0012801813
26	0x3ce02069	0.027359204
27	0x3ccb30cf	0.024803547
28	0x3c16a272	0.009194003
29	0x3cf06c9e	0.029348668
30	0xbb2f72af	-0.0026771238
31	0xbd24609b	-0.040131193
32	0x3bb8b918	0.0056372993
33	0xbd2d2c64	-0.042278662
34	0x3d360aa1	0.04444373
35	0x3d20b5b7	0.039235797
36	0x3d5cd508	0.0539141
37	0xbc337730	-0.0109537095
38	0xbcef553f	-0.029215453
39	0x3c9028ce	0.017597582
40	0xbde29969	-0.11064417
41	0xbd6bd5f7	-0.0575771
42	0x3c9d85b4	0.019228794
43	0xbd80b3c8	-0.062842906
44	0xbd5c61c8	-0.05380419
45	0x3d04693e	0.03232693
46	0x3c79012b	0.015198032
47	0x3d6c6883	0.057716858
48	0xbd2bdcd6	-0.041958652
49	0xbbf72442	-0.007542164
50	0x3cf5e565	0.03001661
51	0x39e02e66	0.0004275918
52	0x3c371774	0.011175025
53	0x3d0c44c8	0.034245282
54	0x3d5435cd	0.05180912
55	0x3c28a731	0.010293768
56	0x3c6c7d13	0.014434117
57	0x3d3243f2	0.04352183
58	0xbd4e1934	-0.050317004
59	0xbbd3befc	-0.006461976
60	0x3ce03f04	0.027373798
61	0xbbb27e3b	-0.0054471768
62	0x3c95ab8c	0.018270276
63	0xbc4839f7	-0.012220851
64	0xbc4db93b	-0.012556369
65	0xbc813066	-0.015770148
66	0xbd0d87b6	-0.034553252
67	0xbd2c75cf	-0.04210454
68	0x3c81255b	0.015764883
69	0x3c5250b3	0.012836623
70	0xbd109fcc	-0.035308644
71	0x3b36e77b	0.002790897
72	0xbca905a1	-0.020632567
73	0xbd3f1b59	-0.04665694
74	0x3c1a8722	0.009431632
75	0xbc4d22e7	-0.012520528
76	0x3c755be3	0.014975521
77	0x3d03590b	0.03206734
78	0xbaf47b98	-0.0018652556
79	0x3d576aff	0.052592274
80	0xbd80b47a	-0.06284423
81	0x3c07b0e0	0.008281916
82	0x3d8f0256	0.069828674
83	0x3c4a6524	0.012353215
84	0x3cdedf65	0.027206132
85	0x3e4ab131	0.19794156
86	0x3d8cd9c7	0.06877475
87	0xbd1118e8	-0.035424143
88	0x3dd74252	0.105106965
89	0x3d5cae27	0.053877022
90	0x3be2a92f	0.006917141
91	0x3ce6114c	0.02808442
92	0x3c8c36d7	0.017115993
93	0x3c535738	0.012899213
94	0xbd6859f0	-0.056726396
95	0x3c94274c	0.018085144
96	0x3c8e6fd6	0.017387312
97	0x3cb46256	0.022019546
98	0x3cf2f6f9	0.029658781
99	0x3d6ff099	0.05857906
100	0xbdc2f517	-0.095194034
101	0xbcc114d6	-0.023569506
102	0xbd51434c	-0.05108957
103	0xbe2ffb7a	-0.17185774
104	0xbc9b9d46	-0.018995892
105	0x3d6b073f	0.057379957
106	0xbd2e6fe6	-0.042587183
107	0xbd2bad77	-0.041913476
108	0x389447f3	7.0705915e-05
109	0x3d7ce898	0.061745256
110	0x3d9c1a28	0.076221764
111	0xbdb1f70f	-0.08689701
112	0xbd018c15	-0.031627733
113	0x3e2b4c53	0.16728334
114	0xbcc69242	-0.024239663
115	0x3ddc325d	0.107517935
116	0x3d9fc394	0.078009754
117	0x3d967fa5	0.07348565
118	0x3cbb441c	0.022859626
119	0xbcda20a3	-0.02662689
120	0x3ca4b232	0.020104501
121	0xbd1c5837	-0.038170066
122	0xbcdae420	-0.026720107
123	0x3d01bb58	0.031672806
124	0x3b85945e	0.0040765246
125	0xbd50e6f9	-0.051001523
126	0x3ceba79b	0.028766444
127	0xbcd27f54	-0.02569548
128	0xbca92a66	-0.0206501
129	0xbd1a85a9	-0.037725125
130	0xbdfcd9db	-0.1234624
131	0xbca950ff	-0.020668505
132	0x3c9aeb55	0.018911043
133	0xbd1accbb	-0.037792902
134	0x3cbf5c88	0.023359552
135	0x3c9e117e	0.01929545
136	0xbc4b7081	-0.01241696
137	0x3c6be37f	0.014397501
138	0xbd47aa8a	-0.048746623
139	0xbe2b5006	-0.16729745
140	0x3d21249f	0.039341565
141	0x3c1dbb72	0.00962721
142	0xbc31640c	-0.010827076
143	0xbc67bc8f	-0.014144077
144	0xbc501137	-0.012699417
145	0xbd7a1208	-0.061052352
146	0x3d52e6c7	0.051489618
147	0xbb8c50e0	-0.004282102
148	0xbe9487b5	-0.29009786
149	0x3c86e855	0.016468206
150	0x3d38c32c	0.045108005
151	0x3dd6db0e	0.10491
152	0x3cc766a7	0.02434094
153	0x3d2dbb84	0.042415157
154	0xbd17b6be	-0.03703951
155	0x3a93264d	0.0011226624
156	0xbbd90a0e	-0.006623513
157	0x3e9ec0b8	0.31006408
158	0xbab03670	-0.0013443958
159	0xbaa07fd9	-0.0012245133
160	0x3de9aa18	0.11409396
161	0xbd0dd289	-0.03462461
162	0x3c87e039	0.01658641
163	0xbc8681f2	-0.016419385
164	0x3cc62cd8	0.024191305
165	0x3ca5ee5f	0.020255266
166	0x3daa627b	0.08319565
167	0xbb916fc3	-0.004438372
168	0xbbe84766	-0.0070885895
169	0x3d74042b	0.059574287
170	0xbaf2b427	-0.0018516824
171	0xbb8959b4	-0.0041916016
172	0xbc7dd7fd	-0.01549339
173	0x3d341de8	0.043973833
174	0x3aaf1df2	0.0013360365
175	0xbdb36bb6	-0.087607786
176	0x3d175b46	0.03695228
177	0xbbaa167f	-0.00519067
178	0x3d193b22	0.03740991
179	0x3cc71cce	0.024305727
180	0x3a44b3cc	0.00075035985
181	0xbd8eb434	-0.06967965
182	0x3cbcffb8	0.023071155
183	0xbceafd6f	-0.0286853
184	0xbdcccb15	-0.09999672
185	0xbd399d84	-0.045316234
186	0x3b5032e4	0.0031768614
187	0xbc01c19f	-0.007919698
188	0x39794ffa	0.00023776284
189	0xbd2c6ea5	-0.042097706
190	0xbda3fd25	-0.08007268
191	0x3b140688	0.00225869
192	0xbd630df5	-0.055433232
193	0xbc7c7c9a	-0.015410567
194	0x3adb2adf	0.0016721151
195	0x3c359152	0.01108201
196	0xbd81f2cc	-0.06345138
197	0x3bb4ec2c	0.005521318
198	0x3bf60f52	0.0075091505
199	0xba0b8346	-0.00053219905
200	0x3ce477c1	0.027889134
201	0xbd10a800	-0.035316467
202	0x3d81bfbc	0.063353986
203	0x3bd5bf70	0.0065230653
204	0xbbad7299	-0.005293202
205	0xbc3e3fc6	-0.011611884
206	0x3c45b4b4	0.012067009
207	0x3c94f83e	0.018184777
208	0x3d1ad81b	0.03780375
209	0xbd299190	-0.041398585
210	0xbca54e89	-0.02017905
211	0x3deb3556	0.114847824
212	0xbc804594	-0.015658177
213	0xbb89a93b	-0.004201082
214	0xbd1e92f7	-0.038714375
215	0xbca75bc3	-0.020429498
216	0xbcbee516	-0.023302596
217	0x3d371175	0.044694383
218	0xbd08697a	-0.033303715
219	0x3c90650c	0.017626308
220	0x3d0524fa	0.032505967
221	0x3c646b99	0.013941669
222	0xbc94674a	-0.018115658
223	0x3c4505ff	0.012025355
224	0xbca5b562	-0.020228092
225	0x3d3a98a5	0.04555573
226	0xbdb9a50c	-0.09064683
227	0x3d631e39	0.055448744
228	0xbd79026f	-0.060793336
229	0xbf10c472	-0.5654975
230	0xbd56c3c9	-0.05243281
231	0x3d10e947	0.03537872
232	0xbd96991e	-0.073534235
233	0x3d2e133b	0.04249881
234	0x3c9223a4	0.01783926
235	0x3c439130	0.011936471
236	0x3d1fe8fd	0.039040554
237	0x3cb4dd87	0.022078289
238	0xbe44a014	-0.1920169
239	0xbcd2e27a	-0.025742758
240	0x3d48828c	0.048952624
241	0xbd15a64d	-0.03653555
242	0x3da3a95e	0.079912886
243	0x3cbdb507	0.02315761
244	0xbd6ee22f	-0.058321174
245	0x3d568659	0.052374218
246	0x3c1ad3cd	0.009449911
247	0x3d5dc259	0.054140422
248	0xbd8e3fed	-0.069457866
249	0xbca4c3c5	-0.020112881
250	0xbccb0772	-0.024783824
251	0x3cfc0f87	0.030769123
252	0x3c48c384	0.012253646
253	0xbb70c868	-0.0036740545
254	0xbb7d1f49	-0.0038623384
255	0x3ce09671	0.027415486

0.features.0.1.weight f4 [16]
0	0x3f353901	0.70790106
1	0x3f15f304	0.5857394
2	0x3f0e4481	0.5557328
3	0x3f1a415b	0.60255975
4	0x3f580931	0.84389025
5	0x3f13038d	0.57427293
6	0x3f17a32d	0.5923336
7	0x3f4ec40c	0.80767894
8	0x3f253ff9	0.6455074
9	0x3f0ac26b	0.5420291
10	0x3f0805d0	0.5313387
11	0x3f12bb37	0.5731692
12	0x3f30dbcf	0.690854
13	0x3f95d221	1.1704751
14	0x3f0bc2d6	0.5459417
15	0x3f32aa91	0.69791514

0.features.0.1.bias f4 [16]
0	0x4000c3b6	2.0119452
1	0x3fc1e5c2	1.5148242
2	0x3f776523	0.966387
3	0x3da399f7	0.07988351
4	0x3f439ad7	0.7640814
5	0x3f001958	0.5003867
6	0x3f303bc8	0.6884122
7	0x3e14cc14	0.14530975
8	0xbdae56a8	-0.08512622
9	0x3ed41376	0.41421098
10	0x3f30abf5	0.69012386
11	0x3e96493e	0.29352754
12	0x3e735f6f	0.23766874
13	0xbf0f2e25	-0.55929786
14	0x3edd4f54	0.43224585
15	0x3e0a635d	0.13514467

0.features.0.1.running_mean f4 [16]
0	0x39bfe2d9	0.00036599374
1	0x39461f4a	0.00018894408
2	0x385ef1c5	5.315409e-05
3	0xb8b2810f	-8.5117405e-05
4	0x38eab164	0.00011191031
5	0x39701ea1	0.00022899594
6	0xb9a5198c	-0.00031490286
7	0xba8264f6	-0.0009948302
8	0x3957c710	0.00020578154
9	0x396de9bd	0.00022689156
10	0x3a753f8c	0.00093554775
11	0xba1725c6	-0.00057658216
12	0xb95ddeeb	-0.00021159246
13	0xb849edf5	-4.814375e-05
14	0xb9be3ee2	-0.00036286475
15	0x3a1dbe35	0.0006017418

0.features.0.1.running_var f4 [16]
0	0x3e695b05	0.22788627
1	0x3eabf6b0	0.33586645
2	0x3ea1ef68	0.31627965
3	0x3ebd6369	0.36989906
4	0x3eecd7e2	0.46258456
5	0x3f3206a1	0.69541365
6	0x3ed1ac70	0.40951872
7	0x3f86265d	1.0480458
8	0x3f3017c0	0.6878624
9	0x3eed3ff6	0.4633786
10	0x3ecc8333	0.39943847
11	0x3eb393ce	0.35073704
12	0x3f85da75	1.0457293
13	0x3ee8a31d	0.45436946
14	0x3f20f6a3	0.6287634
15	0x3f954279	1.1660911

0.features.1.0.block.0.0.weight f4 [16, 16, 3, 3]
0	0xbe09c360	-0.13453436
1	0x3d8dae93	0.06918063
2	0xbe06d786	-0.13168153
3	0x3d29e01c	0.041473493
4	0x3e88e012	0.26733452
5	0x3d991bfd	0.074760415
6	0xbdee9edb	-0.11651393
7	0xbc2bc66b	-0.010484318
8	0xbd870cd5	-0.065942444
9	0x3d9d5866	0.07682876
10	0x3ab776e3	0.0013997223
11	0x3de5e6c3	0.11225655
12	0x3d8609e0	0.06544852
13	0xbd4fd33b	-0.050738554
14	0xbdd9cc4f	-0.10634672
15	0x3be40556	0.006958644
16	0x3e0bfb8d	0.13670178
17	0x3cbc38a1	0.022976222
18	0xbbcde72b	-0.006283661
19	0x3d846ef6	0.064664766
20	0xbdf03c2b	-0.11730226
21	0xbda65b68	-0.08122903
22	0x3e44ee54	0.1923154
23	0x3e415c11	0.18882777
24	0x3d25e8ff	0.040505406
25	0xbb640df2	-0.003479835
26	0x3e6827ca	0.22671428
27	0xbd1e935b	-0.038714748
28	0xbd02a23c	-0.031893
29	0x3d85be5b	0.06530448
30	0x3bc426d0	0.005986072
31	0xbe922077	-0.28540394
32	0xbe18a6ce	-0.14907381
33	0x3d8f9c4e	0.07012235
34	0xbdf7a885	-0.120926894
35	0x3d644141	0.055726293
36	0x3ded894f	0.11598455
37	0xbd661651	-0.056173626
38	0x3d5dab50	0.054118454
39	0xbd9799aa	-0.07402356
40	0xbde5fd08	-0.112299025
41	0x3c45fb64	0.012083862
42	0xbbab1e49	-0.005222116
43	0x3d5f9350	0.054583848
44	0xbcc85b68	-0.024457648
45	0xbd12451a	-0.03571043
46	0xbd617a81	-0.05504847
47	0x3d9a3939	0.075304456
48	0xbd29df8a	-0.04147295
49	0x3e9ee59b	0.3103455
50	0xbcc97848	-0.024593487
51	0x3d8aba91	0.06773866
52	0xbd42b9c1	-0.04754043
53	0xbbab5d09	-0.0052295965
54	0xbdef3944	-0.116808444
55	0xbcad678e	-0.021167543
56	0x3d9ae073	0.075623415
57	0x3dfae520	0.122507334
58	0x3e91c1f7	0.28468296
59	0x3ddf9570	0.10917175
60	0xbdc9a07e	-0.098450646
61	0xbd40b0fd	-0.04704379
62	0xbdc4ebb7	-0.096152715
63	0xbb60c77c	-0.003429859
64	0xbdd66206	-0.10467915
65	0x39af59a5	0.0003344539
66	0x3e04be76	0.1296328
67	0x3d2a84d5	0.041630585
68	0xbd796632	-0.060888477
69	0xbbe0751f	-0.0068498994
70	0xbdb157ff	-0.08659362
71	0xbd9f1d42	-0.07769252
72	0x3c6d2bdf	0.014475792
73	0xbdd0bf3a	-0.101927236
74	0xbd8fe959	-0.070269294
75	0xbdfd083b	-0.123550855
76	0xbe9c0e7b	-0.30479798
77	0xbdb3b3da	-0.08774538
78	0x3dec40fc	0.11535832
79	0x3c26b8f5	0.010175933
80	0xbd003ad6	-0.03130611
81	0xbdeb893e	-0.11500786
82	0x3aaeb0bf	0.0013327821
83	0x3cebd757	0.028789205
84	0x3d51e900	0.051247597
85	0x3c8cd05c	0.017189197
86	0x3d2ea312	0.042635985
87	0xbd9525f9	-0.07282633
88	0x3d6922cf	0.05691796
89	0xbdf6bf38	-0.12048191
90	0x3d630d61	0.05543268
91	0x3c0cdb4b	0.008597205
92	0x3e9ca980	0.30598068
93	0x3de05671	0.109539874
94	0xbcded5b1	-0.027201505
95	0xbd048e9d	-0.03236257
96	0x3d3c36f0	0.04595083
97	0xbd0532f2	-0.03251929
98	0xbd3419e9	-0.043970022
99	0x3d8757ba	0.066085294
100	0x3d80d337	0.06290286
101	0x3d00b551	0.031422917
102	0x3e36b7ff	0.17843626
103	0x3ce51b5e	0.027967151
104	0xbc7a1f14	-0.015266199
105	0x3e24e573	0.16103153
106	0xbe0a43b4	-0.13502389
107	0x3d9458f4	0.07243529
108	0xbbf15189	-0.007364456
109	0x3e28ea6c	0.16495675
110	0xbe061f09	-0.13097776
111	0x3da752c0	0.0817008
112	0x3da910a6	0.082551286
113	0x3db2c556	0.08729045
114	0x3d625014	0.05525215
115	0xbd1a2261	-0.037630443
116	0x3ca6de5c	0.020369701
117	0x3cc0119b	0.023445895
118	0x3d9ba6bf	0.07600164
119	0x3da7015a	0.08154555
120	0x3d3b0bf8	0.04566571
121	0xbe2c1c1b	-0.16807596
122	0xbd73ac9a	-0.059490778
123	0x3d79ec80	0.06101656
124	0xbdc1d893	-0.094651364
125	0x3da35dc2	0.07976867
126	0x3e516489	0.20448507
127	0x3cc9f412	0.024652515
128	0xbcf1a100	-0.029495716
129	0xbc448152	-0.011993723
130	0xbb82a70b	-0.003987198
131	0x3d30e41b	0.04318629
132	0xbc04d4b2	-0.008107351
133	0xbda22dfe	-0.079189286
134	0x3e154dc1	0.14580442
135	0x3de7574b	0.11295947
136	0xbdaddbce	-0.0848919
137	0x3e1a85b0	0.1509006
138	0xbb9804ba	-0.0046392353
139	0xbd814ba5	-0.06313256
140	0x3d1d502a	0.03840653
141	0xbdacb16e	-0.084322795
142	0x3e2736c1	0.1632948
143	0x3ddebae3	0.108754896
144	0x3cad92af	0.021188108
145	0xbd423fb7	-0.047424044
146	0x3c675382	0.014119031
147	0xbcfc586d	-0.030803883
148	0x3dfd7788	0.123763144
149	0x3cc6bcca	0.024259944
150	0x3d6b414a	0.05743531
151	0x3d8c50be	0.06851338
152	0xbc0f384c	-0.00874145
153	0xbd9655d8	-0.07340592
154	0x3d7661e9	0.06015197
155	0xbda72968	-0.081621945
156	0xbd2170ee	-0.03941434
157	0x3e962dbe	0.29331774
158	0x3d9941c0	0.07483244
159	0x3db18d6f	0.086695544
160	0x3d282f76	0.041060887
161	0xbd67ebf6	-0.056621514
162	0xbce2a3cc	-0.027665995
163	0x3e195cd8	0.14976823
164	0xbe4583ac	-0.1928851
165	0x3d9b1c72	0.07573785
166	0xbe793c23	-0.24339347
167	0x3decfb89	0.11571414
168	0x3cc5a6ce	0.02412739
169	0xbe0da95a	-0.13834134
170	0x3db704d8	0.08936471
171	0xbca697f5	-0.02033613
172	0x3cdbeedc	0.026847295
173	0x3d104e77	0.03523108
174	0xbdd5d69a	-0.104413226
175	0xbdd203d7	-0.10254639
176	0xbe19e90d	-0.15030308
177	0x3d90dcfd	0.070734
178	0xbd0838f2	-0.033257432
179	0xbda56ff9	-0.08077998
180	0x3d480c4d	0.048839856
181	0xbcd0d9ee	-0.025494542
182	0x3c819b7b	0.01582121
183	0xbca9ed24	-0.02074296
184	0xbcd60eee	-0.026130166
185	0xbd1fb810	-0.038993895
186	0x3bbfddf2	0.0058553154
187	0xbdfb6059	-0.12274236
188	0x3dc12eb5	0.09432737
189	0x3e91d9d4	0.28486502
190	0xbe2f0bf6	-0.17094406
191	0x3dfd1be4	0.12358835
192	0xbd91b813	-0.071151875
193	0x3e874fb2	0.2642799
194	0xba766e2f	-0.0009400574
195	0x3d739880	0.059471607
196	0x3d1de038	0.03854391
197	0xbb1ae574	-0.00236353
198	0x3dd91fbb	0.10601755
199	0xbdbe9ee6	-0.09307651
200	0xbb14357e	-0.0022614892
201	0xbdcec044	-0.100952655
202	0xba78c06a	-0.0009489121
203	0x3d3ed5c8	0.046590596
204	0x3c21d862	0.00987825
205	0x3d580647	0.05274036
206	0xbd0db470	-0.034595907
207	0xbe2e51a2	-0.17023328
208	0xbc8e3e05	-0.017363558
209	0xbd953de2	-0.07287194
210	0xbc12fc47	-0.00897128
211	0xbe32f08a	-0.17474571
212	0x3da7cc8d	0.08193312
213	0x3cba5a14	0.02274803
214	0xbd82c0e9	-0.06384451
215	0xbca2d584	-0.019877203
216	0xbc881784	-0.016612776
217	0xbe0c59cf	-0.13706134
218	0x3c8fe59e	0.017565545
219	0x3dfb1c98	0.12261313
220	0x3d43be20	0.04778874
221	0xbd5cc29b	-0.053896528
222	0xbdcb5790	-0.099288106
223	0xbdd83f04	-0.10558894
224	0xbdec1454	-0.11527315
225	0xbdc0442a	-0.09388001
226	0x3e343123	0.17596869
227	0x3dc0a06b	0.09405597
228	0x3db77eb1	0.08959711
229	0x3d762513	0.06009395
230	0x3db91d8f	0.09038841
231	0x3d08174a	0.033225335
232	0x3e33398c	0.17502421
233	0xbe243e22	-0.16039327
234	0xbd7e13fb	-0.062030774
235	0x3e0c0642	0.13674262
236	0x3c6597e1	0.0140132615
237	0xbe1b330b	-0.1515619
238	0x3dd84794	0.105605274
239	0x3da229d6	0.07918136
240	0x3e5645c8	0.20925057
241	0xbdc7e617	-0.09760683
242	0x3e28335d	0.16425844
243	0xbcf5da59	-0.030011343
244	0xbd452804	-0.048133865
245	0xbe1961a2	-0.1497865
246	0xbcb2deb4	-0.021834709
247	0xbd9b33d7	-0.07578247
248	0x3d0b313d	0.033982504
249	0xbd8f12a7	-0.069859795
250	0xbe50bcbf	-0.20384501
251	0xbd1205dd	-0.035650123
252	0x3e37c92c	0.17947835
253	0x3c331e0b	0.010932456
254	0x3d263384	0.040576473
255	0x3cde0124	0.027100153

0.features.1.0.block.0.1.weight f4 [16]
0	0x3f01cd5b	0.5070397
1	0x3f0e79d7	0.5565466
2	0x3f271224	0.65262055
3	0x3f2517a9	0.6448923
4	0x3f104330	0.5635252
5	0x3f2bcb4a	0.6710707
6	0x3f2e7bea	0.6815783
7	0x3f35249c	0.70758986
8	0x3f0c87de	0.54894817
9	0x3f037924	0.5135672
10	0x3eec1734	0.46111453
11	0x400d1faf	2.2050588
12	0x3eea2898	0.45734096
13	0x3f82a26f	1.0205821
14	0x3f38389e	0.7196139
15	0x3f22a37a	0.63530695

0.features.1.0.block.0.1.bias f4 [16]
0	0x3f40d074	0.75318074
1	0x3eaf83f9	0.34280375
2	0x3d027fc0	0.031860113
3	0x3f2689e8	0.6505418
4	0x3f22eafe	0.6363982
5	0x3f866d57	1.0502118
6	0x3e6ab2c6	0.22919759
7	0x3ef06d2c	0.46958292
8	0x3db07a3d	0.08617065
9	0x3f0a19ac	0.5394542
10	0x3d771ffe	0.060333245
11	0xbffff626	-1.9996994
12	0x3e916607	0.28398153
13	0xbf6a01f4	-0.9140923
14	0x3dfe7a07	0.124256186
15	0xbc3126ff	-0.01081252

0.features.1.0.block.0.1.running_mean f4 [16]
0	0x3fa090d7	1.2544202
1	0x3f8851d4	1.0649972
2	0xbf0c307a	-0.5476147
3	0x3f2596fa	0.64683497
4	0xbf19924a	-0.59988844
5	0x3f8adb21	1.0848123
6	0x3f74a732	0.9556762
7	0x3f357f0c	0.70896983
8	0xbf8e6bd1	-1.1126653
9	0xbeef4d39	-0.46738604
10	0xbf595271	-0.8489142
11	0x3eafc01c	0.34326255
12	0x4039cfa1	2.9032977
13	0xbef96bff	-0.48715207
14	0xbfae83dc	-1.363399
15	0x3fefc4f4	1.873198

0.features.1.0.block.0.1.running_var f4 [16]
0	0x3f5f944e	0.8733567
1	0x3f76428a	0.9619528
2	0x3fa03092	1.2514822
3	0x3ea565d7	0.3230426
4	0x3f079a7c	0.529701
5	0x3ecd2c72	0.40072972
6	0x404b8e5b	3.1805637
7	0x3f3e217f	0.7426986
8	0x3f024a35	0.5089448
9	0x3ecc2632	0.3987289
10	0x3f05a854	0.52209973
11	0x3d7106f6	0.05884453
12	0x3f97a1e9	1.1846286
13	0x3e3e8c71	0.18608262
14	0x3f8c17e0	1.0944786
15	0x404db411	3.2141154

0.features.1.1.block.0.0.weight f4 [16, 16, 3, 3]
0	0x3c0eafe9	0.008708932
1	0xbccf7c0f	-0.02532771
2	0xbd813db3	-0.06310596
3	0x3c63f373	0.013913023
4	0x3d865569	0.065592594
5	0x3d6f6761	0.0584482
6	0xbe00ef7c	-0.12591356
7	0x3dbba9f7	0.091632776
8	0xbdad30c0	-0.08456564
9	0xbd739294	-0.05946596
10	0xbddf4952	-0.109026566
11	0x3da2179c	0.079146594
12	0xbcdd79c8	-0.027035609
13	0xbe201caa	-0.15635934
14	0xbd9a292f	-0.075273864
15	0xbd21d802	-0.03951264
16	0xbe39d8cb	-0.18149106
17	0x3d8c8289	0.06860835
18	0xbd4e3a4c	-0.050348565
19	0x3e09c26b	0.13453071
20	0xbd824d6a	-0.06362422
21	0x3dfa6c60	0.12227702
22	0x3cb8d26a	0.02256127
23	0x3d6a5cb1	0.057217304
24	0x3c29e3ec	0.010369282
25	0x3e5d65f1	0.21620919
26	0xbd13b516	-0.03606137
27	0x3dc52ff7	0.09628289
28	0x3d2ce4f9	0.042210553
29	0x3e08ed31	0.13371731
30	0x3da1a9ec	0.07893738
31	0xbe95f4eb	-0.2928842
32	0x3d09ea54	0.03367074
33	0xbcc63465	-0.024194906
34	0xbc861bb9	-0.016370641
35	0x3e23e806	0.16006479
36	0xbd9beeca	-0.07613905
37	0x3d45e2ad	0.048311878
38	0xbdc9d0fc	-0.09854314
39	0xbddc8249	-0.107670374
40	0xbe0c8c89	-0.13725485
41	0xbd55017d	-0.052003372
42	0xbcea28a8	-0.02858384
43	0xbd1d0f48	-0.03834465
44	0xbcb0c2ff	-0.021577356
45	0xbb890664	-0.00418167
46	0x3dfe1d61	0.12407947
47	0xbd0bd29e	-0.034136407
48	0x3d9b8e66	0.0759552
49	0xbd7650db	-0.060135704
50	0x3d04ebb9	0.032451365
51	0xbcbd74a2	-0.023126904
52	0x3d997aaf	0.07494103
53	0xbe0f86a7	-0.1401621
54	0xbe0c9e10	-0.13732171
55	0xbd4e9ae8	-0.0504407
56	0x3ba0f796	0.004912327
57	0x3d72edeb	0.059308928
58	0x39029a85	0.00012455329
59	0xbd94d5ce	-0.072673425
60	0x3dc81261	0.097691305
61	0x3c312094	0.01081099
62	0xbd811756	-0.06303279
63	0x3dd47030	0.103729606
64	0xbc235272	-0.009968387
65	0xbcff888d	-0.031193042
66	0xbdfcd2c7	-0.1234489
67	0xbd3c0b98	-0.045909494
68	0xbced5802	-0.02897263
69	0x3d647a30	0.05578059
70	0x3de48709	0.111585684
71	0x3de7978e	0.11308204
72	0x3c8c04fe	0.017092224
73	0xbe5a7e15	-0.21337159
74	0x3de7ea2c	0.113239616
75	0x3e1acafd	0.15116496
76	0xbd16d18c	-0.036820933
77	0xbc94089e	-0.018070515
78	0x3df6d7f1	0.12052906
79	0x3dd08a39	0.10182614
80	0x3e6420b4	0.222781
81	0xbc9b957f	-0.018992184
82	0x3b328705	0.0027241122
83	0x3d6ebbd4	0.058284596
84	0xbd791036	-0.060806476
85	0xbe080f9b	-0.13287203
86	0xbe30e694	-0.17275459
87	0xbdda4dc5	-0.106593646
88	0xbe8c4897	-0.27399132
89	0xbcff92a0	-0.031197846
90	0x3da0cf3d	0.078520276
91	0x3dc1963a	0.094524816
92	0xbd9fdeb0	-0.07806146
93	0x3e2d0bb0	0.1689899
94	0x3da1b879	0.078965135
95	0x3c5fa951	0.013651208
96	0x3d567879	0.052360985
97	0xbdc6d89b	-0.09709283
98	0x3e47b952	0.19504288
99	0x3e889b05	0.2668077
100	0x3dd70c19	0.10500354
101	0x3ee35ca1	0.44406608
102	0x3e6a60d6	0.22888502
103	0x3e4d3e9b	0.20043413
104	0x3e3afd3c	0.18260664
105	0x3e55025b	0.2080168
106	0x3e9778d2	0.29584366
107	0x3e4d4975	0.20047553
108	0xbe323fa2	-0.17407086
109	0xbb00d0db	-0.0019655738
110	0xbd87b9a4	-0.06627205
111	0xbdd564da	-0.104196265
112	0xbe8da1ce	-0.2766251
113	0xbe4500ce	-0.19238588
114	0xbc991e7a	-0.01869129
115	0xbdace6be	-0.08442448
116	0xbe094fab	-0.13409297
117	0xbc343d2a	-0.011000911
118	0xbd8ac046	-0.067749545
119	0x3d8f0abf	0.069844715
120	0xbd9bc3c4	-0.07605699
121	0xbde767b2	-0.11299075
122	0xbdfb5b33	-0.12273254
123	0x3d404b35	0.046946723
124	0xbe2d9d24	-0.16954476
125	0x3d8e245b	0.06940528
126	0xbc413136	-0.011791518
127	0x3c6aff9c	0.014343169
128	0x3d87a811	0.06623853
129	0x3b856e0f	0.004071958
130	0x3d1bc139	0.03802607
131	0xbe4339f3	-0.19065075
132	0xbd2fb3c5	-0.04289605
133	0x3e465e28	0.19371855
134	0xbc71169f	-0.014714866
135	0x3d689979	0.056786988
136	0xbc754377	-0.014969698
137	0x3dd709f3	0.104999445
138	0xbd3b11ec	-0.04567139
139	0xbe0697ea	-0.13143888
140	0x3bcc852c	0.0062414613
141	0xbd902dd3	-0.0703999
142	0x3d69b295	0.057055075
143	0x3cc07b07	0.023496164
144	0xbdfb69c9	-0.12276036
145	0xbe8ef473	-0.27920875
146	0xbdcea70f	-0.10090458
147	0xbdbd12f7	-0.09232133
148	0xbe94b0c5	-0.29041114
149	0xbde36c28	-0.111046135
150	0xbdf94f9f	-0.1217339
151	0xbe0ab666	-0.13546142
152	0x3dca031d	0.09863875
153	0xbea5a8c1	-0.32355312
154	0x3c0f772f	0.008756443
155	0xbdd80327	-0.10547476
156	0xbd6da6c0	-0.058020353
157	0xbc78065b	-0.015138234
158	0xbde2fd96	-0.11083524
159	0xbd106405	-0.035251636
160	0x3dfe304a	0.12411554
161	0xbe1819cc	-0.1485359
162	0xbcf907dc	-0.030399255
163	0x3d7405bd	0.059575785
164	0xbd6c0020	-0.057617307
165	0xbd8990aa	-0.067170456
166	0xbe263fb5	-0.1623524
167	0xbd8aa036	-0.06768839
168	0x3db3fb2e	0.08788143
169	0x3c9003c6	0.017579924
170	0x3e006a67	0.1254059
171	0xbd32b0aa	-0.04362551
172	0xbd827313	-0.06369605
173	0x3e56ff35	0.20995791
174	0x3d4e40bc	0.050354704
175	0x3e1c0788	0.15237248
176	0x3e0ffffe	0.14062497
177	0xbd9b59e9	-0.075855084
178	0xbc51eb4f	-0.01281245
179	0xbde82668	-0.113354504
180	0xbcbc2594	-0.022967137
181	0xbcce0386	-0.025148164
182	0xbc428f81	-0.011875034
183	0xbdb49077	-0.08816617
184	0x3d9cc00b	0.07653817
185	0x3d93fcb2	0.07225932
186	0xbd694549	-0.05695084
187	0x3d84c0c1	0.064820774
188	0xbd9e2e62	-0.077236906
189	0x3e18f603	0.14937596
190	0x3dfbbc0a	0.12291725
191	0x3dca1f7c	0.098692864
192	0xbe48069a	-0.19533768
193	0xbe7ff14d	-0.24994393
194	0xbdbc5d1f	-0.09197449
195	0x3ea5b32a	0.32363254
196	0xbda4b069	-0.0804146
197	0x3da9f7fd	0.08299253
198	0xbbce48bb	-0.0062952912
199	0xbd191160	-0.037370086
200	0xbb83f822	-0.0040273825
201	0x3be838f3	0.007086867
202	0xbd315606	-0.04329493
203	0x3da87201	0.082248695
204	0xbda1ad3a	-0.078943685
205	0xbd5b907b	-0.053604584
206	0xbd99dce7	-0.07512837
207	0x3c29c3cf	0.010361626
208	0xbc77583c	-0.01509672
209	0xbe574d6d	-0.2102563
210	0xbe322304	-0.1739617
211	0xbe341f62	-0.17590097
212	0xbd36c351	-0.044619862
213	0xbe3d85a2	-0.18508008
214	0xbe3445ee	-0.17604801
215	0xbc679dc8	-0.014136739
216	0x3be3b5c0	0.0069491565
217	0x3b00fc69	0.0019681698
218	0x3d5a728e	0.053331904
219	0x3de7f93c	0.113268346
220	0x3dce7789	0.10081393
221	0x3d27f99a	0.041009523
222	0x3d3df411	0.046375338
223	0x3def0cdc	0.116723746
224	0x3d8fb336	0.07016604
225	0xbc2f7246	-0.010708397
226	0xbd8b8c7b	-0.06813904
227	0x3d542631	0.051794235
228	0xbe4ac188	-0.19800389
229	0xbd84592a	-0.06462319
230	0xbe017138	-0.12640846
231	0x3d11470e	0.035468154
232	0xbdb154ac	-0.08658728
233	0x3d9a74e1	0.07541824
234	0xbdd55a11	-0.104175694
235	0xbdf8e024	-0.121521264
236	0x3e51b31d	0.20478483
237	0x3d318b89	0.04334596
238	0xbe1efb07	-0.15525447
239	0xbd55a02f	-0.052154716
240	0xbd8b37ad	-0.06797729
241	0xbcce33a5	-0.02517111
242	0x3b435e7a	0.002981095
243	0x3db5971d	0.08866713
244	0x3e338d59	0.17534389
245	0x3e0fae2e	0.14031288
246	0x3e18e707	0.1493188
247	0x3d89c8c4	0.06727746
248	0x3e064420	0.13111925
249	0xbceddf9c	-0.02903729
250	0x3c14592c	0.009054463
251	0xbdc0bdff	-0.09411239
252	0x3d98fb39	0.07469792
253	0xbc7b5944	-0.015341107
254	0xbcedae51	-0.029013785
255	0x3d81827d	0.06323717

0.features.1.1.block.0.1.weight f4 [16]
0	0x3ee36260	0.44410992
1	0x3f11bc26	0.56927717
2	0x3f105687	0.5638203
3	0x3f27b7d2	0.6551486
4	0x3f13a795	0.57677585
5	0x3ed1e365	0.409938
6	0x3f228c84	0.6349566
7	0x3efe07c8	0.49615312
8	0x3fbf4014	1.494143
9	0x3edbdd56	0.42942303
10	0x3e910ed3	0.28331622
11	0x3f0a2a22	0.5397054
12	0x3f1f0c2b	0.6212794
13	0x3f531546	0.82454336
14	0x3f1a1805	0.601929
15	0x3f0f18d6	0.5589727

0.features.1.1.block.0.1.bias f4 [16]
0	0xbf038cfa	-0.5138699
1	0xbe64437b	-0.22291367
2	0xbdf1a56e	-0.11799131
3	0xbe5115ef	-0.20418523
4	0xbc3e74ca	-0.011624524
5	0xbdfe4be5	-0.124168195
6	0xbda6a913	-0.08137717
7	0x3e277415	0.16352876
8	0xbf062c36	-0.5241121
9	0xbcc68a57	-0.024235887
10	0xbe725307	-0.23664485
11	0x3fa29893	1.2702812
12	0xbdaaced6	-0.08340232
13	0x3ca27d26	0.019835066
14	0xbe83d95b	-0.25751767
15	0xbcab9a29	-0.020947533

0.features.1.1.block.0.1.running_mean f4 [16]
0	0xbf949ee1	-1.1610986
1	0xc083da73	-4.120416
2	0xc09d45bd	-4.914763
3	0xbf254cc1	-0.6457024
4	0xc01d855e	-2.461265
5	0xbff36084	-1.9013829
6	0xc0f94ef0	-7.790886
7	0xc004116c	-2.0635633
8	0xbf18c62d	-0.5967739
9	0xc01d3f2f	-2.4569814
10	0xbfa93be5	-1.3221403
11	0xbea14cd1	-0.3150392
12	0xc004a8d1	-2.0728037
13	0xbfd65089	-1.6743327
14	0xc021b147	-2.5264452
15	0xc09aac7b	-4.8335547

0.features.1.1.block.0.1.running_var f4 [16]
0	0x3f614257	0.8799185
1	0x40d543ad	6.664511
2	0x4109d3ea	8.614237
3	0x3f6dd72a	0.9290644
4	0x4080580b	4.0107474
5	0x40ce7ecd	6.4529786
6	0x41abfb0c	21.497581
7	0x40709cc8	3.7595692
8	0x3f032788	0.51232195
9	0x405401dc	3.3126135
10	0x3f7e7caf	0.99409
11	0x3ea312b3	0.31850204
12	0x408d92ab	4.424154
13	0x40630250	3.5470161
14	0x40999bb0	4.800255
15	0x40e4e71f	7.153213

0.features.2.0.block.0.0.weight f4 [64, 16, 3, 3]
0	0xbceaac1b	-0.02864652
1	0xbdb784ec	-0.089609
2	0xbd88d3ea	-0.066810444
3	0xbcaf8581	-0.021425964
4	0xbdfbd00d	-0.12295542
5	0xbdab3968	-0.08360559
6	0xbd6e42cf	-0.058169182
7	0x3cd11005	0.025520334
8	0xbcb2e505	-0.02183772
9	0x3c5e9b2a	0.013586799
10	0xbc8f3350	-0.017480522
11	0xbd276c4f	-0.040874775
12	0x3c9cd03c	0.019142263
13	0xbdb8b650	-0.09019148
14	0xbc3c5ad6	-0.011496266
15	0x3d13b2a0	0.036059022
16	0xbdea739c	-0.11447832
17	0xbb6144e1	-0.003437333
18	0xbbb7f2d5	-0.0056136646
19	0xbd94dc2a	-0.072685555
20	0xbd7eb878	-0.06218764
21	0x3c81ffba	0.01586901
22	0x3c4fc572	0.012681352
23	0xbd46b1a1	-0.048509244
24	0xbd75da25	-0.060022492
25	0x3d078b7e	0.033092014
26	0xbdbf10a3	-0.09329345
27	0x3cd088cc	0.025455855
28	0xbdae49a1	-0.08510137
29	0x3c2127b3	0.009836125
30	0x3ca1d7bc	0.01975619
31	0x3d3dd208	0.04634288
32	0x3d908ee0	0.07058501
33	0xbc1a7d1b	-0.0094292415
34	0x3d1ea880	0.038734913
35	0xbacca3f7	-0.001561283
36	0x3d35154c	0.044209763
37	0xbbb9fe22	-0.005676047
38	0x3dae7bf8	0.08519739
39	0x3c4a44ee	0.012345536
40	0xbe166ff4	-0.14691144
41	0x3e16fe03	0.14745335
42	0x3d2ebedb	0.042662483
43	0x3c0a2d7e	0.008433698
44	0x3db19911	0.08671773
45	0x3ca0f545	0.019648204
46	0x3ca9f6fc	0.020747654
47	0xbd259a34	-0.040430263
48	0x3c1cc99b	0.009569551
49	0x3d888fad	0.06668029
50	0xbcfaa3e8	-0.030595735
51	0xbd5d47d8	-0.054023594
52	0x3d21c525	0.039494652
53	0x3d94ecb0	0.07271707
54	0xbcb46191	-0.02201918
55	0x3c003efe	0.0078275185
56	0xbd91a828	-0.071121514
57	0x3dd9fdb4	0.10644093
58	0xbd834d08	-0.06411177
59	0x3d4823c0	0.04886222
60	0x3b574d92	0.0032852632
61	0x3da92682	0.08259298
62	0x3d30bc09	0.043148074
63	0x3d9ea336	0.07745974
64	0x3d41216c	0.047151014
65	0x3d488805	0.048957843
66	0xbd3e65d9	-0.04648385
67	0x3d4cef8f	0.05003315
68	0xbcdc7ba5	-0.026914427
69	0x3d7f0df8	0.06226918
70	0x3cd95a2b	0.026532253
71	0xbdef944b	-0.116982065
72	0x3dd6c501	0.10486794
73	0x3e3abb97	0.18235622
74	0x3e3031ed	0.17206545
75	0x3d70048f	0.058598097
76	0x3d82b3a0	0.06381917
77	0x3e590c63	0.21196131
78	0x3dac4ffa	0.08413692
79	0xbcbf65da	-0.023363996
80	0xbcfeb446	-0.03109182
81	0x3d05694c	0.032571122
82	0x3b7a9835	0.0038237695
83	0x3c1d4dd9	0.00960108
84	0xbd189fd2	-0.03726179
85	0xbb80556a	-0.003916432
86	0x3bfc99ee	0.0077087795
87	0x3d651630	0.055929363
88	0xbd281381	-0.041034225
89	0x3d48bda2	0.049008973
90	0x3da22a83	0.07918265
91	0x3aa754c2	0.0012766349
92	0x3cbc53f5	0.022989253
93	0x3d3e4ef6	0.04646202
94	0xbbe2541a	-0.0069069983
95	0xbc8ae1b9	-0.016953336
96	0x3c856782	0.016284708
97	0x3cc9191f	0.024548111
98	0xbc1ad39c	-0.009449866
99	0xbda359b9	-0.079760976
100	0x3c9a9b9e	0.018873032
101	0x3c055863	0.008138749
102	0xbb8a89f8	-0.004227873
103	0xbc2e5492	-0.01064028
104	0x3ce8a551	0.028399142
105	0xbc005966	-0.007833814
106	0xbc59f0e1	-0.013302059
107	0x3d16d173	0.03682084
108	0xbc91e16a	-0.017807681
109	0x3d5e32f9	0.05424783
110	0x3d839895	0.06425587
111	0xbdaed3f4	-0.085365206
112	0x3d279a7e	0.04091882
113	0x3cfaf6dd	0.030635292
114	0x3d059e8f	0.032621916
115	0xbd4ce8b9	-0.05002663
116	0xbc52128b	-0.012821804
117	0xbd4c616e	-0.049897604
118	0x3cc3069a	0.023806859
119	0xbc889f73	-0.016677594
120	0x3a49a2d5	0.00076918054
121	0x3e2c2193	0.16809683
122	0xbd460db4	-0.048352912
123	0xbc662dea	-0.014049033
124	0x3c3d1856	0.011541447
125	0xbcb03470	-0.02150938
126	0xbc2f3189	-0.010692962
127	0x3d83bf7c	0.06433007
128	0xbbe9be28	-0.007133264
129	0xbb4eb077	-0.0031538287
130	0x3df416a6	0.11918382
131	0x3cb38221	0.021912636
132	0x3d149198	0.03627166
133	0x37e877ee	2.7712402e-05
134	0x3d7935bf	0.060842272
135	0x3d202491	0.039097372
136	0xbdafb088	-0.085785925
137	0xbdbaaf1e	-0.09115432
138	0x3d1ba315	0.037997324
139	0xbd95f834	-0.073227316
140	0xbd15f583	-0.03661109
141	0xbd0e676b	-0.034766596
142	0x3ca56cb0	0.020193428
143	0xbccb08fc	-0.024784558
144	0xbcea9afd	-0.028638357
145	0xbd92d6bc	-0.071698636
146	0xbcdce0bf	-0.026962636
147	0xbcaf5bea	-0.021406133
148	0xbb17e61b	-0.0023177925
149	0x3d68f4d4	0.05687411
150	0x3c024f64	0.0079534985
151	0xbd6768ca	-0.05649642
152	0xbd31f1f7	-0.043443646
153	0x3b026e37	0.001990212
154	0xbd060385	-0.0327182
155	0x3c848bb1	0.016179891
156	0x3d75600a	0.059906043
157	0x3df12616	0.117748424
158	0x3bffe52a	0.007809301
159	0x3dfe3fe3	0.12414529
160	0x3e311d56	0.17296347
161	0x3e060ab0	0.13090014
162	0xbdd1e3ff	-0.10248565
163	0xbd663848	-0.056206018
164	0x3dbd1339	0.09232182
165	0xbd8599e4	-0.06523493
166	0xbc5f3840	-0.013624251
167	0x3de85948	0.11345154
168	0xbdcbe5ba	-0.09955926
169	0xbaed56f3	-0.0018107578
170	0x3e33b025	0.17547663
171	0xbbf2b418	-0.0074067228
172	0x3cb8fd5b	0.022581747
173	0x3d7ad300	0.06123638
174	0xbb81d286	-0.003961864
175	0xbd8f0c5e	-0.06984781
176	0xbded25c0	-0.11579466
177	0xbd91f9f5	-0.07127754
178	0x3dfd2271	0.12360085
179	0xbd27a8ce	-0.04093247
180	0x3c9710d1	0.018440636
181	0x3d61dcae	0.055142097
182	0x3bb9b878	0.0056677423
183	0xbd63f912	-0.055657454
184	0xbe44131c	-0.19147915
185	0x3a9ac017	0.0011806515
186	0x3d09bd48	0.03362778
187	0x3b429a9c	0.0029694205
188	0x3da66055	0.081238426
189	0x3d46003f	0.04834008
190	0x3d43705e	0.047714584
191	0x3c514d41	0.012774766
192	0x3c23142b	0.009953539
193	0xbc1472d5	-0.009060581
194	0xbcb897d6	-0.022533339
195	0x3d8da542	0.06916286
196	0x3cb56b63	0.022145933
197	0x3d21d9f2	0.03951449
198	0x3cd89d5e	0.026442226
199	0x3d7a0751	0.061042134
200	0xbcd7ffba	-0.026367057
201	0x3ddec0a3	0.10876586
202	0x3c414210	0.011795536
203	0xbc62fa07	-0.0138535565
204	0xbc9bb81f	-0.019008694
205	0xbd93edf5	-0.07223121
206	0xbccba1bd	-0.024857396
207	0xbd1ecf55	-0.038771946
208	0xbc382d3a	-0.011241252
209	0x3d0f7ad8	0.035029262
210	0xbd07cbae	-0.03315323
211	0x3e050971	0.12991883
212	0x3df3542e	0.118812904
213	0xbd5f82e8	-0.0545682
214	0xbd24e56f	-0.040257867
215	0xbc82afd8	-0.01595299
216	0xbdf9b545	-0.121927775
217	0xbdf918da	-0.12162943
218	0xbe09d5f4	-0.13460523
219	0xbdcc9635	-0.09989587
220	0xbda0a263	-0.07843473
221	0xbe22e12f	-0.15906213
222	0xbdf27ae2	-0.11839844
223	0xbdb42a58	-0.08797139
224	0xbdc52842	-0.09626819
225	0x3d0ba0fc	0.034089074
226	0x3d8bf276	0.06833355
227	0xbcfcc41d	-0.030855233
228	0x3db8df1b	0.09026929
229	0x3dcd616c	0.100283474
230	0xbcd65597	-0.02616386
231	0x3d923528	0.07139045
232	0xbc87c2c3	-0.016572362
233	0xbd4f3949	-0.05059174
234	0x3d180cbf	0.03712153
235	0x3b88279a	0.0041551115
236	0x3d2c3bdf	0.042049285
237	0xbccd7eca	-0.025084872
238	0xbc20c8dc	-0.009813514
239	0xbd78e1bb	-0.06076215
240	0x3ba12477	0.004917677
241	0xbd67ec90	-0.056622088
242	0xbcc284e3	-0.023745006
243	0x3b9789ba	0.0046245726
244	0x3d66c291	0.056337897
245	0xbbb03f90	-0.005378671
246	0xbd6f762b	-0.058462303
247	0xbda69670	-0.081341624
248	0xbd279be7	-0.040920164
249	0xbbd21f77	-0.0064124423
250	0x3cf12977	0.029438717
251	0xba111ca3	-0.0005535578
252	0xbc64487d	-0.013933298
253	0xbd7634f7	-0.060109105
254	0xbca3d026	-0.019996714
255	0xbce4fa67	-0.027951432

0.features.2.0.block.0.1.weight f4 [64]
0	0x3f14e51c	0.58162093
1	0x3f3b6f3a	0.73216593
2	0x3f1376c2	0.57603085
3	0x3efb9279	0.49135187
4	0x3f3a7f11	0.7285014
5	0x3f2c1592	0.67220414
6	0x3f2175c0	0.630703
7	0x3f222e6f	0.633521
8	0x3f0585b2	0.5215713
9	0x3f331beb	0.69964474
10	0x3f5161c8	0.8178983
11	0x3f3e1d18	0.74263144
12	0x3f12bb9d	0.57317525
13	0x3f6df83f	0.9295692
14	0x3f29d6cb	0.66343373
15	0x3f29b79d	0.66295797
16	0x3f2f60e2	0.68507206
17	0x3f086749	0.532826
18	0x3f38d2f2	0.72196877
19	0x3f490b2d	0.7853268
20	0x3f0e593f	0.5560493
21	0x3f344fca	0.7043425
22	0x3f132059	0.57471234
23	0x3f1dbf46	0.61619985
24	0x3f47997e	0.77968585
25	0x3f86d97e	1.0535123
26	0x3f19e1b1	0.6011
27	0x3f37d844	0.7181437
28	0x3f25fc7c	0.64838386
29	0x3f334fd5	0.7004369
30	0x3f287ec2	0.6581842
31	0x3f4466c2	0.76719296
32	0x3f41605f	0.75537676
33	0x3f1fab11	0.623704
34	0x3f367fa3	0.7128851
35	0x3f24cfa9	0.64379364
36	0x3f3c1d45	0.7348216
37	0x3f2b10c1	0.6682244
38	0x3f33b952	0.7020465
39	0x3f2ff072	0.68726265
40	0x3f761e9d	0.9614046
41	0x3f2a6562	0.6656095
42	0x3f502d25	0.81318885
43	0x3f2fc656	0.6866201
44	0x3f3b6795	0.7320493
45	0x3f46ec59	0.7770439
46	0x3f3e6159	0.7436729
47	0x3f2e74db	0.6814706
48	0x3f4274e5	0.75959617
49	0x3f0dd3d2	0.5540134
50	0x3f4dd51e	0.80403316
51	0x3f204a46	0.6261333
52	0x3f3eebf2	0.74578774
53	0x3f9e66b7	1.2375096
54	0x3f25955c	0.6468103
55	0x3f3922f4	0.7231896
56	0x3f4b02d4	0.7930119
57	0x3f232c13	0.63739127
58	0x3f4ccdfe	0.8000182
59	0x3f245d23	0.64204615
60	0x3f4133fc	0.75469947
61	0x3efeee0b	0.49790987
62	0x3f3d5b49	0.73967415
63	0x3f63a28b	0.88919896

0.features.2.0.block.0.1.bias f4 [64]
0	0x3e0e0e6e	0.13872692
1	0x3f696179	0.91164356
2	0x3ddd3d96	0.10802762
3	0xbc9337d4	-0.017970957
4	0x3e9561c7	0.2917616
5	0x3e69e71c	0.22842067
6	0x3dbeecd9	0.09322519
7	0x3e4a76e5	0.19771917
8	0x3e3c8de6	0.18413505
9	0x3f2a9f69	0.6664949
10	0x3ec6341a	0.38711625
11	0x3e181e12	0.14855221
12	0x3dae6f76	0.08517353
13	0xbe03a4cc	-0.12855834
14	0x3c952cae	0.018209781
15	0x3d9cbe50	0.07653487
16	0x3e05eb1d	0.1307797
17	0x3da92027	0.08258086
18	0x3cd3153f	0.025766967
19	0x3e52ce21	0.20586444
20	0x3da335d1	0.07969249
21	0x3d2b2dd5	0.041791756
22	0x3e4c8ed6	0.19976363
23	0xbc466fb6	-0.012111595
24	0x3e2fd13a	0.17169657
25	0xbc8c538a	-0.017129678
26	0x3d8c9346	0.06864028
27	0x3ebc6e55	0.36802927
28	0xbc4467b2	-0.0119876135
29	0x3efb91a6	0.49134558
30	0x3e01620e	0.12635061
31	0x3e609823	0.21933036
32	0x3e925cf5	0.28586546
33	0x3f435d62	0.76314366
34	0x3b8cb8be	0.004294484
35	0x3e0fe5b8	0.14052474
36	0x3ee639b7	0.44965908
37	0x3e5e842b	0.21730106
38	0x3e4736a6	0.1945444
39	0x3dd84189	0.10559375
40	0xbe18dce7	-0.14928018
41	0x3ce61d90	0.028090268
42	0x3eb88fdb	0.36047253
43	0x3ca82d34	0.020529367
44	0x3dbf4a46	0.093403384
45	0x3f0785bd	0.52938443
46	0x3ed58ff3	0.41711387
47	0x3dd828ae	0.10554634
48	0x3e917bc3	0.28414735
49	0xbda610e9	-0.08108694
50	0x3e3825ce	0.17983171
51	0x3ea80a1b	0.3282021
52	0x3e57c971	0.21072938
53	0xbefc5ec6	-0.49291056
54	0x3d780bd8	0.06055817
55	0x3e8e8674	0.27836955
56	0x3e9756c3	0.2955838
57	0x3e1b3c38	0.1515969
58	0x3e698f43	0.22808556
59	0x3d677a59	0.056513164
60	0x3ebd9414	0.37027037
61	0x3eaaf1ea	0.3338769
62	0x3e92d3d3	0.28677234
63	0x3df4db2a	0.11955865

0.features.2.0.block.0.1.running_mean f4 [64]
0	0xbeb1f9b2	-0.34760815
1	0x3eba09c0	0.36335564
2	0xbedf9dda	-0.4367512
3	0xbf9c2504	-1.2198796
4	0xbd00a975	-0.031411607
5	0xbeb6f7de	-0.35735983
6	0xbef5c5d2	-0.48002487
7	0x3e38cd85	0.1804715
8	0xbdcd307e	-0.10019015
9	0x3eecefed	0.462768
10	0xbdeb2a9f	-0.11482739
11	0x3affb3b9	0.0019508518
12	0xbf00d7e6	-0.50329435
13	0xbc4446ca	-0.011979768
14	0xbf75509c	-0.95826125
15	0x3eb8f3d7	0.36123535
16	0x3e5d89cd	0.21634598
17	0xbfc26ea0	-1.519001
18	0x3eab3e86	0.3344614
19	0x3f6bb1a1	0.92067915
20	0x3f7f3694	0.99692655
21	0xbeb59b9a	-0.35470277
22	0x3e9ca87c	0.30597293
23	0xbf5dc8d6	-0.86634576
24	0xbee0be41	-0.43895152
25	0x3ed66a1f	0.4187784
26	0xbc727841	-0.014799179
27	0x3efb896a	0.49128276
28	0xbdb3dcdf	-0.08782362
29	0xbda96931	-0.08272017
30	0x3ba2933c	0.0049613994
31	0x3edcb8cf	0.43109748
32	0x3d97815f	0.073977225
33	0xbd94f203	-0.072727226
34	0x3e0ed70a	0.13949218
35	0xbf399d13	-0.725053
36	0x3f442275	0.7661508
37	0x3ebe9087	0.3721964
38	0xbdd22fb0	-0.10263002
39	0xbe2f5547	-0.17122374
40	0xbd3b1f3c	-0.045684084
41	0xbdbed96d	-0.093188144
42	0x3cb596a4	0.022166558
43	0xbedbb3f6	-0.42910737
44	0x3dce7ebc	0.100827664
45	0xbdb02e24	-0.086025506
46	0x3f55e10d	0.83546525
47	0xbd606b66	-0.054789923
48	0x3f8bb600	1.0914917
49	0xbf3b36e9	-0.7313066
50	0x3f02956b	0.51009244
51	0xbe922c14	-0.28549254
52	0x3dacfd9c	0.0844681
53	0x3f074a31	0.5284758
54	0xbf638fad	-0.88891107
55	0x3f94ae43	1.161568
56	0x3f02da62	0.51114476
57	0xbeb59243	-0.3546315
58	0x3e7fb88a	0.2497274
59	0xbe679ffb	-0.22619621
60	0x3fd10613	1.6329979
61	0x3f88b630	1.0680599
62	0x3ff6f41d	1.9293247
63	0x3ca6b04a	0.020347733

0.features.2.0.block.0.1.running_var f4 [64]
0	0x3ff909e0	1.9456139
1	0x40087540	2.1321564
2	0x3fdf00eb	1.7422155
3	0x404056e0	3.0053024
4	0x3fdbf144	1.7183003
5	0x3ff7a871	1.9348279
6	0x4023f3eb	2.5617626
7	0x3f9d13da	1.2271683
8	0x3f879e5a	1.05952
9	0x3f822e68	1.0170412
10	0x400e85a9	2.226908
11	0x4017c1f4	2.371213
12	0x3fd99737	1.6999272
13	0x40245c3e	2.56813
14	0x40375bf8	2.8649883
15	0x40090a65	2.1412594
16	0x400a5508	2.16144
17	0x3fcb516e	1.5884225
18	0x403693c3	2.8527687
19	0x4097b046	4.7402678
20	0x3fb575e9	1.4176608
21	0x40200db0	2.5008354
22	0x3fb29452	1.3951514
23	0x400dcef1	2.2157557
24	0x4040d1f2	3.012814
25	0x3ff4affc	1.9116206
26	0x3fe264d8	1.7687025
27	0x408c12c5	4.377291
28	0x3fa87fbb	1.316398
29	0x3fc94465	1.5723997
30	0x400d1d2c	2.2049055
31	0x406fb2aa	3.7452798
32	0x404baebf	3.1825407
33	0x3f9b8ad2	1.215174
34	0x40390ee0	2.891533
35	0x405bb701	3.4330447
36	0x4047a7db	3.11962
37	0x40347242	2.8194737
38	0x3fdee14e	1.7412508
39	0x40027deb	2.0389354
40	0x3ffbfdf8	1.968688
41	0x40378ab4	2.8678408
42	0x3ffae498	1.9601011
43	0x4050d486	3.2629714
44	0x4040d490	3.0129738
45	0x3ff76dec	1.933042
46	0x402290ef	2.540096
47	0x4013c39f	2.3088148
48	0x406c199f	3.6890638
49	0x3eaacbdb	0.33358654
50	0x40999761	4.799729
51	0x4019fafb	2.4059436
52	0x4030a536	2.7600837
53	0x40061668	2.0951176
54	0x400befc0	2.1865082
55	0x4053f135	3.311597
56	0x40221181	2.5323184
57	0x3fa417fb	1.2819818
58	0x4056ee1f	3.3582838
59	0x4045b965	3.0894406
60	0x40a16ff7	5.0449176
61	0x3fc16faa	1.5112202
62	0x406c29e9	3.690058
63	0x3fd409ff	1.656555

0.features.2.0.block.1.0.weight f4 [32, 64, 1, 1]
0	0x3e42f21d	0.19037671
1	0xbe17c2a3	-0.14820342
2	0x3d44b7de	0.048026912
3	0xbd27c3ae	-0.0409581
4	0x3d6f5b47	0.05843666
5	0xbe5a5d26	-0.21324596
6	0x3dc5c937	0.09657519
7	0xbe608218	-0.21924627
8	0xbde8c438	-0.11365551
9	0x3de11ec2	0.10992195
10	0x3e68c604	0.22731787
11	0xbe194970	-0.1496942
12	0x3e85b501	0.26114658
13	0xbdca07ad	-0.09864745
14	0xbe68f635	-0.2275017
15	0xbde537ba	-0.111922696
16	0xbdc03ae7	-0.09386235
17	0xbd31e82a	-0.0434343
18	0xbdc1e199	-0.094668575
19	0xbe922cd1	-0.28549817
20	0x3dfd45d2	0.12366833
21	0xbe84be89	-0.25926617
22	0xbe54e74b	-0.20791356
23	0xbd8c7aba	-0.06859346
24	0xbd33176a	-0.0437235
25	0xbe9d0e6f	-0.30675074
26	0x3e9d8bf0	0.30770826
27	0x3ec7befd	0.390129
28	0x3d9352e1	0.07193542
29	0xbe1146fb	-0.14187233
30	0x3e1c3b63	0.15257029
31	0x3e9406d0	0.28911448
32	0x3e9b5843	0.30340776
33	0xbd78d2c2	-0.06074787
34	0x3ea32abc	0.3186854
35	0xbf10aa3a	-0.56509745
36	0x3e8e818c	0.2783321
37	0xbe28ee9f	-0.16497277
38	0xbdad8778	-0.08473104
39	0x3ec88d90	0.39170504
40	0xbdd4dcd9	-0.10393686
41	0x3e3a30a9	0.18182625
42	0xbe539151	-0.20660903
43	0xbe19d826	-0.1502386
44	0x3dd44c8d	0.103661634
45	0xbe3748ed	-0.17898913
46	0xbcbe1f2c	-0.023208223
47	0x3d779745	0.060446996
48	0x3e4754ee	0.19465992
49	0xbdd92827	-0.106033616
50	0x3deec3d3	0.11658444
51	0xbea7e76e	-0.32793754
52	0xbe1ba2cc	-0.15198821
53	0xbe8ce74d	-0.27520218
54	0xbdf70695	-0.12061802
55	0x3c0119e7	0.007879711
56	0x3e146f57	0.14495598
57	0xbee410cb	-0.44544062
58	0xbe2aa6d1	-0.16665198
59	0xbe7ea862	-0.2486892
60	0xbe3802f4	-0.17969877
61	0xbd45367f	-0.048147675
62	0x3ee7a3d2	0.45242172
63	0xbe049458	-0.12947214
64	0xbeba0570	-0.36332273
65	0xbdc626a4	-0.09675339
66	0x3e2fcae2	0.17167237
67	0x3edf70cd	0.43640748
68	0x3d8e6eb4	0.06954709
69	0x3d928120	0.07153535
70	0x3e9f6b91	0.31136754
71	0x3bdc1025	0.0067157918
72	0xbe303096	-0.17206034
73	0xbda94b99	-0.08266372
74	0x3d439303	0.047747623
75	0xbefffeda	-0.49999124
76	0x3e80903b	0.2511004
77	0xbd9d0b4a	-0.07668169
78	0x3cc7239b	0.02430897
79	0x3ea69782	0.32537466
80	0x3e1f8486	0.15577897
81	0xbe08134a	-0.13288608
82	0xbe79468a	-0.24343315
83	0x3e07753f	0.1322832
84	0x3df0adfd	0.11751936
85	0xbdf640ed	-0.12024102
86	0xbe3dce26	-0.1853567
87	0x3dfd0e4a	0.12356241
88	0xbd9d359c	-0.07676241
89	0xbe32f75c	-0.17477173
90	0x3e051463	0.12996058
91	0x3e7699a4	0.24082047
92	0xbde5a98a	-0.11213978
93	0x3edbfd8b	0.42966875
94	0x3e8856e5	0.26628795
95	0x3e3ebd01	0.18626787
96	0x3cab5243	0.020913249
97	0xbe04d145	-0.12970455
98	0xbd67ddfe	-0.056608193
99	0xbdbafd3e	-0.09130333
100	0xbcb320b8	-0.021866187
101	0xbe81ea9a	-0.253743
102	0x3e914149	0.2837012
103	0xbdd9f187	-0.10641771
104	0xbe385871	-0.18002488
105	0x3e1ec000	0.1550293
106	0x3dfde39f	0.12396931
107	0xbea87149	-0.3289893
108	0xbe0d7c5f	-0.13816975
109	0xbdd977b1	-0.106185324
110	0xbd8aba15	-0.067737736
111	0x3e00d0a7	0.12579595
112	0x3d781b0b	0.060572665
113	0xbe102869	-0.14077915
114	0xbebb49c0	-0.36579704
115	0xbc9230ae	-0.017845478
116	0x3e073c5d	0.1320662
117	0x3ebc5aba	0.3678797
118	0x3e34f455	0.1767133
119	0x3cc1af04	0.023643024
120	0xbc12f3fb	-0.008969302
121	0x3e80cd5a	0.2515667
122	0xbe93ea90	-0.28889894
123	0x3dba6968	0.09102136
124	0x3e89b6b1	0.26897195
125	0xbcc3d77f	-0.023906467
126	0xbd798460	-0.06091726
127	0xbe64f830	-0.22360301
128	0x3d866bb4	0.065635115
129	0x3f015117	0.5051436
130	0xbea73b61	-0.3266249
131	0x3e9c596e	0.3053698
132	0xbde956c0	-0.113934994
133	0xbe1c1f0b	-0.15246217
134	0xbe828779	-0.25493982
135	0x3d77ea47	0.06052616
136	0xbde7f270	-0.11325538
137	0xb9c76c60	-0.00038036983
138	0x3de8680b	0.113479696
139	0xbbd54593	-0.006508538
140	0xbc3a481e	-0.011369733
141	0x3e869444	0.26284993
142	0xbe377807	-0.1791688
143	0x3dedeb22	0.11617114
144	0xbe5c5290	-0.2151587
145	0x3e86c61e	0.26323026
146	0xbd330af5	-0.04371162
147	0x3e09099e	0.13382575
148	0x3e15544e	0.14582941
149	0x3e51ce30	0.2048881
150	0x3d4dcf7b	0.050246697
151	0xbd61dd73	-0.05514283
152	0x3e28911b	0.16461603
153	0x39a6e226	0.0003183048
154	0x3e267876	0.1625689
155	0xbe6348e4	-0.22195774
156	0x3e5a6833	0.21328811
157	0x3bb22206	0.005436185
158	0x3dad3caa	0.084588364
159	0xbe528df6	-0.20561966
160	0xbe450624	-0.19240624
161	0xbd99015d	-0.07470963
162	0xbd89ec9a	-0.06734581
163	0x3eac2951	0.33625272
164	0xbba106d3	-0.0049141436
165	0xbee8b52c	-0.45450723
166	0xbe00d940	-0.12582874
167	0x3c6e7904	0.01455522
168	0x3e5b8338	0.21436775
169	0x3e70d5af	0.23519014
170	0x3e0e3063	0.13885646
171	0x3df1e3c7	0.11811023
172	0x3ddd7645	0.10813574
173	0xbc9d7a16	-0.019223254
174	0x3e177de1	0.14794113
175	0xbe1acbd0	-0.15116811
176	0x3e1f711c	0.15570492
177	0x3e4a40a8	0.19751227
178	0xbeb55cb2	-0.35422283
179	0x3d058370	0.03259605
180	0x3e38f2d8	0.18061388
181	0x3e897b2d	0.26851788
182	0x3e67e3f5	0.22645552
183	0xbe183418	-0.14863622
184	0x3dc198a8	0.09452945
185	0xbe95e2db	-0.2927464
186	0x3dff9489	0.12479503
187	0xbd8c0213	-0.06836333
188	0xbdf54d2e	-0.119776115
189	0x3d448e5f	0.04798734
190	0xbe1fa837	-0.15591513
191	0x3e727851	0.2367871
192	0x3b88790a	0.0041648196
193	0xbe49b82a	-0.1969916
194	0xbd05f50b	-0.032704394
195	0x3e4ed625	0.20198877
196	0xbd662e1a	-0.05619631
197	0xbc9a11cc	-0.018807314
198	0xbe456b5b	-0.19279234
199	0x3e458fc2	0.1929312
200	0x3da3e667	0.0800293
201	0x3c3532d7	0.011059484
202	0xbe5d8c2f	-0.21635507
203	0x3e5d28df	0.21597622
204	0x3e03690b	0.1283304
205	0xbea3e568	-0.3201096
206	0xbea33c69	-0.31882027
207	0x3e4dd7f0	0.20101905
208	0x3ee01d10	0.43772173
209	0xbec44ae5	-0.3833839
210	0xbcb39f8e	-0.021926668
211	0x3e5fde13	0.21862058
212	0xbeb9209a	-0.36157686
213	0xbe5aa806	-0.21353158
214	0xbe4a5a5c	-0.19761032
215	0x3e57cdbd	0.21074577
216	0xbe007f8c	-0.12548655
217	0x3e1f0aa3	0.15531401
218	0xbea6a626	-0.32548636
219	0xbe803923	-0.25043592
220	0xbdd80959	-0.10548658
221	0xbe8b2bce	-0.27181858
222	0x3e0e7465	0.13911588
223	0xbb956176	-0.0045587374
224	0xbe90948c	-0.28238332
225	0x3eb1ab7d	0.34701148
226	0xbe555f2c	-0.20837086
227	0x3df2be14	0.11852661
228	0xbe001ac6	-0.12510213
229	0x3de1d4ea	0.11026938
230	0x3e433559	0.1906332
231	0x3eb8e5f3	0.36112937
232	0x3e14d19f	0.14533089
233	0x3da8aed0	0.08236468
234	0xbe526026	-0.2054449
235	0xbe488df4	-0.19585401
236	0x3eb29758	0.3488109
237	0xbd9e63cc	-0.077338785
238	0xbe9bc0af	-0.30420443
239	0x3d888e06	0.06667714
240	0x3e38df17	0.18053852
241	0xbe285ee1	-0.16442443
242	0xbec723a6	-0.38894385
243	0xbdc47c13	-0.09593978
244	0x3df35eda	0.11883326
245	0xbe559aee	-0.20859882
246	0xbcf572aa	-0.029961903
247	0x3c931014	0.017952003
248	0x3ded59b9	0.11589379
249	0x3ebc1191	0.36732152
250	0x3e1d7e47	0.15380202
251	0xbbc6d225	-0.0060675316
252	0xbdb0c027	-0.086304
253	0x3d8d4bdb	0.06899234
254	0x3debb767	0.115095906
255	0xbdb46af6	-0.08809464

0.features.2.0.block.1.1.weight f4 [32]
0	0x3f482661	0.7818356
1	0x3f327062	0.6970273
2	0x3f804480	1.0020905
3	0x3f407b73	0.7518837
4	0x3f6de769	0.9293123
5	0x3f569a25	0.83828956
6	0x3f69bb6d	0.91301614
7	0x3f444ee4	0.7668288
8	0x3f2fb0d0	0.6862917
9	0x3f59f86a	0.85144675
10	0x3f524900	0.8214264
11	0x3f449e99	0.768045
12	0x3f4a7e96	0.79099405
13	0x3f49303d	0.7858923
14	0x3f4214f1	0.75813204
15	0x3f4bc9ef	0.79605
16	0x3f3737bb	0.7156941
17	0x3f4d2ece	0.80149543
18	0x3f2e06f8	0.67979383
19	0x3f3fa01e	0.74853694
20	0x3f72e410	0.94879246
21	0x3f476d05	0.77900726
22	0x3f4fd155	0.8117879
23	0x3f441fa4	0.7661078
24	0x3f443ff0	0.7666006
25	0x3f36abe9	0.71356064
26	0x3f544ab8	0.8292651
27	0x3f2c516b	0.67311734
28	0x3f35ab61	0.7096463
29	0x3f3779b6	0.7167009
30	0x3f34f6e4	0.70689225
31	0x3f4d631f	0.8022937

0.features.2.0.block.1.1.bias f4 [32]
0	0xbe7c2bea	-0.24626127
1	0x3f682824	0.9068625
2	0xbebc39ad	-0.36762753
3	0x3e4b30e3	0.19842868
4	0xbf2d4b05	-0.67692596
5	0xbf08e894	-0.53479886
6	0x3f3ab20f	0.72927946
7	0x3d8a9acc	0.067678064
8	0x3f973110	1.1811848
9	0x3ede438d	0.43410912
10	0xbe0c4460	-0.13697958
11	0x3ec63730	0.3871398
12	0x3f8953d9	1.0728713
13	0xbf485303	-0.78251666
14	0xbf5e450a	-0.86824095
15	0x3e0f195a	0.13974515
16	0x4023c09b	2.5586307
17	0xbf1a8cb8	-0.6037097
18	0x3e60db99	0.2195877
19	0xbfe40ec2	-1.7817004
20	0xc020cf92	-2.512669
21	0x3f1b479f	0.6065616
22	0xbf95e269	-1.170972
23	0x3f01c151	0.506856
24	0x3f49668f	0.78672117
25	0xbf0f6cdb	-0.56025475
26	0xbed57ab9	-0.41695192
27	0xbe57f8a4	-0.21090943
28	0x3ec59b09	0.38594845
29	0x3e83ba33	0.25727996
30	0x3fbcd4b1	1.4752408
31	0x3e939732	0.2882629

0.features.2.0.block.1.1.running_mean f4 [32]
0	0xbea76fc6	-0.32702464
1	0x3c73629c	0.014855053
2	0x3eb3e425	0.35134998
3	0xbe8d8895	-0.27643266
4	0x3e0005bd	0.12502189
5	0x3e126e4a	0.14299884
6	0xbe57deba	-0.21081057
7	0xbdb07826	-0.086166665
8	0x3e680958	0.22659814
9	0x3e04dddd	0.12975259
10	0xbe6c083c	-0.23050016
11	0x3d657a66	0.05602493
12	0x3e106887	0.14102374
13	0xbe308438	-0.17237937
14	0x3d497d7a	0.04919193
15	0x3caa28b4	0.020771362
16	0x3baba816	0.0052385433
17	0x3eb745e7	0.3579552
18	0x3e07fec8	0.13280785
19	0xbeae207b	-0.34009156
20	0xbd906c71	-0.070519336
21	0xbe72384e	-0.23654291
22	0x3e7a4947	0.24442016
23	0xbc7f26dd	-0.015573231
24	0x3e008b1d	0.12553068
25	0x3e6f97ea	0.23397794
26	0x3ea35019	0.31897047
27	0xbdaae236	-0.083439276
28	0xbe3ec78b	-0.18630807
29	0xbe404bf4	-0.18778974
30	0x3eac8920	0.33698368
31	0xbe66a25b	-0.22522871

0.features.2.0.block.1.1.running_var f4 [32]
0	0x3f86333e	1.0484388
1	0x3e5d0a9c	0.21586078
2	0x3e5abde7	0.21361504
3	0x3e867d25	0.26267353
4	0x3e5f4d8b	0.21806924
5	0x3f4435ea	0.76644766
6	0x3f237391	0.63848215
7	0x3e1d783a	0.15377894
8	0x3ec10a55	0.37703195
9	0x3fbe5ea9	1.4872638
10	0x3ea6c184	0.32569516
11	0x3e97eee1	0.29674438
12	0x3fe1d7c0	1.7643967
13	0x3e939579	0.28824976
14	0x3e6a1f23	0.2286344
15	0x3f187e28	0.595675
16	0x3e9bc6df	0.30425164
17	0x3ec3f95e	0.3827619
18	0x3e914248	0.2837088
19	0x3f4903b9	0.78521305
20	0x3f40fa91	0.75382334
21	0x3de4dba7	0.11174708
22	0x3f0fc360	0.56157494
23	0x3e6ac456	0.22926459
24	0x3ec7ee02	0.39048773
25	0x3ddce352	0.107855454
26	0x3ea7e822	0.3279429
27	0x3efb7851	0.49115232
28	0x3ea25e0d	0.3171238
29	0x3e38fbb9	0.18064775
30	0x3eb3bb87	0.3510401
31	0x3e9ad25b	0.30238613
