code/modeling/ckpt/AutoencoderConfig([2, 2, 2], flip=False, rotate=False)/autoencoder_12800.pth (torch, 720858 bytes, 102 tensors)

0.features.0.0.weight f4 [16, 8, 3, 3]
-0.11552971 0.05537315 -0.033183355 0.011050616 0.1810658 0.08748364 0.022170391 -0.034883477
-0.09373094 0.0067061046 0.10579345 0.026140314 0.030986616 0.2704281 -0.031241693 -0.018978935
0.103299625 -0.01827315 0.020021535 0.049442664 -0.04061709 -0.021775058 0.046655424 0.0154622765
0.0394384 0.04343713 0.018362094 -0.11039162 0.024458073 0.057481393 0.026775341 0.06294103
-0.006976637 -0.01854954 -0.031644974 -0.052710775 -0.08024486 -0.0060614333 -0.024967954 -0.059210457
0.045988005 0.012836379 -0.06995086 -0.014889831 -0.055087928 0.023120984 0.035891183 0.071598485
0.0003895938 0.041938946 0.04376728 0.0043895347 0.043184478 -0.046992946 0.02236842 0.0022472148
0.023844171 0.015240832 -0.033566494 -0.031171802 0.008322856 0.098862715 0.037513234 -0.027953807
-0.09853352 -0.046392076 -0.14308065 -0.03509192 0.008732021 -0.044918638 -0.022551214 0.018140934
0.03228877 0.025122484 0.03607874 -0.16949503 -0.1916119 0.023025738 0.023363419 -0.13100798
0.07293783 -0.012649008 0.014081725 -0.059761893 -0.032743007 0.07229362 -0.095182426 0.017603682
-0.04026921 -0.061115734 0.040701486 0.003200095 0.048772395 -0.016403416 -0.044558864 -0.11082928
0.007994987 0.014087067 0.031405997 0.038738858 0.05564415 0.069335714 0.030680345 -0.05508815
0.010659129 0.07914942 -0.03019139 0.024631254 0.03576973 0.036066737 -0.11616488 0.010588992
0.0083751045 0.01939183 0.0009661963 0.018378496 -0.054398403 -0.043774776 0.016779263 0.03468015
0.09772646 0.11631483 0.021810433 -0.033631824 0.023200955 0.049228016 0.05777705 0.025048519
-0.043678753 0.0007654999 0.14942741 0.03595387 -0.08413828 -0.09027068 -0.1178157 0.004199324
0.0968975 -0.020452332 0.05843949 0.21965133 -0.14334185 0.018153975 0.064383745 0.05024164
0.060930893 -0.052808337 -0.0012327016 0.015288863 0.12357565 -0.027570222 -0.035310853 0.052844524
-0.031126255 -0.022278834 -0.38719666 -0.012412751 -0.040367905 -0.37652594 -0.084765 0.008431814
-0.052311584 0.023348764 0.02107938 -0.051799897 0.0470999 0.059403464 -0.15057011 -0.020206777
-0.022518355 0.06488718 -0.021010412 -0.00019847018 -0.025555307 -0.030679965 -0.029941378 -0.032934193
0.0050164545 0.0013409473 0.041646164 0.025305519 0.019673012 -0.07459722 -0.027401844 0.016951201
-0.111831136 0.015129699 -0.047364537 -0.01830559 -0.016630024 -0.017719358 0.056863867 0.009960814
0.008217114 -0.028666932 -0.04778755 0.108780846 -0.012921015 0.032290254 0.018476931 0.004752991
-0.0075406935 -0.02746883 0.008300904 0.0410993 -0.003851843 0.08270526 -0.017997328 0.0037875238
-0.045180835 0.03273837 -0.0026799953 -0.04196004 0.06845554 -0.059114583 0.023123784 -0.0012068739
0.0664942 0.01738167 0.020897543 -0.08305267 -0.085069485 0.021412205 0.011053029 -0.055592425
-0.022438906 0.058742017 0.1273404 0.09363057 -0.009749872 -0.08269369 0.014320262 0.05215613
0.069147766 0.023454167 -0.00831766 0.057925206 0.017746724 0.051151305 0.16714846 0.030273424
0.00081047264 0.05185051 0.014322051 -0.0040851077 0.039474137 -0.121618286 -0.01292304 0.115144625
-0.08984704 -0.033839 0.027567357 -0.06226867 0.06666236 0.062065475 0.012116557 0.094311364
00000000: d79a ecbd f5ce 623d 45eb 07bd a50d 353c
00000010: 5069 393e 9f2a b33d ae9e b53c fae1 0ebd
00000020: 02f6 bfbd e2be db3b 3caa d83d 3624 d63c
00000030: a5d7 fd3c 8d75 8a3e 94ee ffbc b679 9bbc
00000040: c18e d33d 93b1 95bc 3404 a43c 6484 4a3d
00000050: 1b5e 26bd 9b61 b2bc c219 3f3d 7d55 7d3c
00000060: 298a 213d 22eb 313d 1a6c 963c 0015 e2bd
00000070: 4c5c c83c 9c71 6b3d f657 db3c 3ae7 803d
00000080: 469c e4bb 34f5 97bc 299e 01bd 41e7 57bd
00000090: 6b57 a4bd fd9e c6bb 9889 ccbc aa86 72bd
000000a0: eb5d 3c3d ad4f 523c 6642 8fbd 7af4 73bc
000000b0: e1a3 61bd 3868 bd3c a202 133d 3aa2 923d
000000c0: 6542 cc39 2cc8 2b3d 5245 333d 16d6 8f3b
000000d0: 35e2 303d ad7b 40bd fa3d b73c 0246 133b
000000e0: da54 c33c afb4 793c 057d 09bd 025c ffbc
000000f0: 975c 083c 8978 ca3d 7aa7 193d 62ff e4bc
00000100: f1cb c9bd 9e05 3ebd bc83 12be 8cbc 0fbd
00000110: c010 0f3c 9bfc 37bd 53bd b8bc 4c9c 943c
00000120: 3b41 043d abcd cd3c 4dc7 133d 1b90 2dbe
00000130: e935 44be 79a0 bc3c a464 bf3c f526 06be
00000140: 6e60 953d c93d 4fbc 09b7 663c e3c8 74bd
00000150: 881d 06bd ad0e 943d 01ef c2bd 9935 903c
00000160: 54f1 24bd 7e54 7abd 9ab6 263d afb8 513b
00000170: 90c5 473d 7560 86bc 5b83 36bd 76fa e2bd
00000180: 68fd 023c 71cd 663c 93a3 003d a3ac 1e3d
00000190: 1feb 633d e2ff 8d3d 5955 fb3c 1da4 61bd
000001a0: a1a3 2e3c 1719 a23d ef53 f7bc 7cc7 c93c
000001b0: 4883 123d b7ba 133d dae7 edbd 747d 2d3c
000001c0: bc37 093c 9ddb 9e3c 5648 7d3a 808e 963c
000001d0: dcd0 5ebd 2e4d 33bd aa74 893c c60c 0e3d
000001e0: cf24 c83d 7836 ee3d cbab b23c 86c1 09bd
000001f0: ee0f be3c 51a3 493d a1a7 6c3d 8d32 cd3c
00000200: 7ee8 32bd d4ab 483a 8003 193e 5d44 133d
00000210: b150 acbd d6df b8bd 5c49 f1bd 7c9a 893b
00000220: 3272 c63d a68b a7bc 3f5e 6f3d 47ec 603e
00000230: 35c8 12be a5b7 943c a0db 833d 2eca 4d3d
00000240: ac92 793d 8e4d 58bd 9a92 a1ba 247e 7a3c
00000250: 3b15 fd3d f2da e1bc 1da2 10bd 8073 583d
00000260: 7dfc febc 1a82 b6bc a43e c6be da5e 4bbc
00000270: d158 25bd 02c8 c0be 4699 adbd 9725 0a3c
00000280: ac44 56bd e845 bf3c aaae ac3c 212c 54bd
00000290: d3eb 403d 0c51 733d 0d2f 1abe af88 a5bc
000002a0: 6a78 b8bc 92e3 843d 071e acbc 6f1c 50b9
000002b0: 5d59 d1bc 8d54 fbbc 9f47 f5bc 01e6 06bd
000002c0: 1261 a43b bac2 af3a 2b95 2a3d 854d cf3c
000002d0: 4c29 a13c 6dc6 98bd d579 e0bc 3fdd 8a3c
000002e0: b907 e5bd 8fe2 773c 5101 42bd 9bf5 95bc
000002f0: b03b 88bc 3028 91bc 16ea 683d af32 233c
00000300: 13a1 063c ead6 eabc e1bc 43bd 7ec8 de3d
00000310: aab2 53bc c942 043d ef5c 973c fabe 9b3b
00000320: ec17 f7bb 5006 e1bc 8400 083c bd57 283d
00000330: 346f 7cbb 6061 a93d 226f 93bc 1b38 783b
00000340: 8a0f 39bd ab18 063d dca2 2fbb 4ade 2bbd
00000350: 6b32 8c3d 2222 72bd 176e bd3c f82f 9eba
00000360: 1c2e 883d 0164 8e3c 5331 ab3c 8517 aabd
00000370: e938 aebd a668 af3c c417 353c e2b4 63bd
00000380: ccd1 b7bc 789b 703d 8665 023e 62c1 bf3d
00000390: edbd 1fbc 4f5b a9bd 889f 6a3c aba1 553d
000003a0: 589d 8d3d f422 c03c cb46 08bc fb42 6d3d
000003b0: 9461 913c 0884 513d f728 2b3e f9ff f73c
000003c0: e675 543a 3361 543d 09a7 6a3c 5edc 85bb
000003d0: a2af 213d 0213 f9bd 29bb 53bc f2d0 eb3d
000003e0: ba01 b8bd c39a 0abd f0d4 e13c 6f0d 7fbd
000003f0: 4786 883d 5e38 7e3d 8684 463c 5126 c13d

0.features.0.1.weight f4 [16]
0.6912069 0.5159987 0.66184676 0.52840567 0.73693514 0.89816517 0.69512707 0.5376023
0.7772175 0.60024965 1.123039 0.8614089 0.7774212 0.72622424 0.72177345 0.8472461
00000000: eff2 303f 7e18 043f ca6e 293f 9845 073f
00000010: c8a7 3c3f 27ee 653f d9f3 313f 4ea0 093f
00000020: baf7 463f f6a9 193f bebf 8f3f 4b85 5c3f
00000030: 1305 473f d5e9 393f 25c6 383f 1fe5 583f

0.features.0.1.bias f4 [16]
0.8618348 0.27783495 -0.06864043 0.8606573 0.8159462 -0.088170566 1.1287956 0.53998494
0.21082789 0.31721374 -0.52549404 0.08076383 0.23888204 0.31827804 0.26393408 0.33661264
00000000: 35a1 5c3f 6240 8e3e 5b93 8cbd 0954 5c3f
00000010: dae1 503f c592 b4bd 607c 903f 743c 0a3f
00000020: 44e3 573e d769 a23e c786 06bf 8267 a53d
00000030: 7e9d 743e 57f5 a23e 5e22 873e 7e58 ac3e

0.features.0.1.running_mean f4 [16]
0.0001494807 -0.000377369 0.00047280735 -0.0016273955 0.00013383888 -4.1955915e-05 -0.00012596192 -0.00013936777
0.00035812237 0.00034167536 -0.00038556955 -0.0008526191 1.818543e-05 -0.00042291603 -0.0008204673 0.00067345944
00000000: ebbd 1c39 9cd9 c5b9 21e3 f739 554e d5ba
00000010: 1a57 0c39 d2f9 2fb8 a514 04b9 4023 12b9
00000020: 5fc2 bb39 e422 b339 4526 cab9 4d82 5fba
00000030: ea8c 9837 d4ba ddb9 a114 57ba 198b 303a

0.features.0.1.running_var f4 [16]
0.3747471 0.6320436 0.6412518 0.30421537 0.49611774 0.5240128 0.5922539 0.5206247
0.73409253 0.7279901 0.29171038 0.6692314 0.74873203 0.54333603 1.3741684 0.48736683
00000000: dade bf3e 9ccd 213f 1429 243f 1ec2 9b3e
00000010: 2503 fe3e b425 063f f49d 173f a947 053f
00000020: 7ded 3b3f 8f5d 3a3f 105b 953e c052 2b3f
00000030: e7ac 3f3f 1218 0b3f c0e4 af3f 2588 f93e

0.features.1.0.block.0.0.weight f4 [16, 16, 3, 3]
0.037187986 0.10665149 0.06705157 0.052452426 -0.15814064 -0.011857059 0.083131485 -0.042043835
-0.055166226 0.046806388 -0.051871203 -0.077381626 -0.0566358 -0.18985748 -0.09972601 -0.12979062
0.120764665 -0.16326073 0.102667056 -0.0043351837 0.052609935 0.13779885 -0.08494347 -0.062424004
0.018670958 -0.02072853 0.102579236 -0.005972169 -0.17075834 -0.19738756 -0.03823639 -0.008081411
0.045680404 -0.07991371 -0.08123869 -0.11442135 -0.040395923 0.052728057 -0.15079236 0.050579485
0.111208074 -0.056714788 -0.13337494 0.015952416 -0.09955368 0.03174794 -0.11969578 -0.03520441
-0.00929381 -0.25533476 0.16401045 0.09361629 -0.0778317 0.26773852 -0.01672324 -0.090238824
-0.106726006 -0.036392346 0.10514352 0.12379299 -0.0060977824 -0.09361167 -0.05478779 -0.009769792
-0.21861257 -0.05605259 -0.16504307 0.103841595 -0.04938526 -0.014532289 0.07319183 -0.04480127
0.07694162 0.21425663 -0.12386577 0.12127125 0.28527257 0.105183646 -0.032391332 0.18474764
-0.13261122 0.09504239 -0.030999115 0.039422717 -0.03849152 -0.07104948 -0.082796045 0.041364476
-0.14903425 -0.0957404 0.014947891 0.03908017 0.0039114677 -0.021069959 -0.03679488 0.027016275
0.05853305 0.07305861 0.017907377 -0.01572019 0.0059406776 -0.038490802 0.08761414 0.056991298
0.30489975 -0.14639726 0.01380198 0.06195598 -0.046631698 -0.0026230495 -0.07582048 0.013892999
0.18249415 0.13803916 -0.08008247 0.13005151 0.11248129 -0.09178314 -0.026613194 0.13986924
-0.060631257 -0.11107176 -0.1105655 -0.020425487 0.04469818 -0.045002278 -0.102317154 -0.25840005
-0.025209643 0.11792699 0.017535923 -0.083345465 -0.093368016 -0.11103785 -0.11058158 -0.046597265
0.028821062 0.039270505 0.007121436 -0.07599024 -0.16301425 0.018338995 0.044565786 0.044682454
0.051081076 -0.083935305 -0.11054622 -0.060104616 0.06964631 -0.015869988 0.07065411 -0.103098504
-0.16606979 0.008607317 -0.09951244 -0.013781259 -0.2312651 0.031468417 0.16429497 -0.057960983
0.092754595 0.06968275 0.14981687 0.002863495 0.03463709 0.05315522 -0.28410703 -0.041131016
-0.16633658 -0.11765119 -0.19490322 0.050430365 0.10577071 0.01273804 -0.12029756 -0.12676303
0.121382035 -0.14968388 -0.17720912 0.058200423 -0.07787945 -0.012676794 0.027088279 0.084615044
-0.09183545 0.1379408 -0.0480112 0.050873958 -0.024889244 0.053751867 0.11612928 0.088936284
-0.049186144 0.19725707 0.18053886 0.11053804 -0.13297711 0.061272807 0.19773047 0.10338941
0.08844608 0.11648032 0.008715418 0.02423521 0.0017954805 0.059206758 0.018354684 -0.01167065
-0.0259315 0.026390377 0.022130443 -0.00013021872 -0.023730887 -0.22248617 0.089275666 0.15698521
-0.093314655 -0.15394284 0.0537461 -0.07494656 -0.10527188 0.021797292 0.25150424 0.021613486
0.104679324 -0.1377006 -0.010730805 -0.14172247 -0.18831417 -0.20678641 -0.12326294 -0.09230182
-0.0005899843 -0.19122098 -0.038114328 0.19068271 -0.0060961335 -0.052570593 -0.017218873 0.018643541
0.060211476 0.13207506 -0.05103101 0.14694159 0.1368907 0.016532078 0.19389977 0.29403812
0.13011491 -0.02907121 0.050705243 -0.12384189 0.14263715 0.122774705 0.00013912763 0.19518282
00000000: 6e52 183d 196c da3d 5552 893d 5bd8 563d
00000010: 9fef 21be 1c44 42bc d740 aa3d 2836 2cbd
00000020: fbf5 61bd 0eb8 3f3d e676 54bd 427a 9ebd
00000030: f1fa 67bd 006a 42be 263d ccbd d5e7 04be
00000040: 7753 f73d d22d 27be 1b43 d23d 280e 8ebb
00000050: 847d 573d 241b 0d3e d8f6 adbd 50b0 7fbd
00000060: d6f3 983c e1ce a9bc 1015 d23d 2fb2 c3bb
00000070: 46db 2ebe f71f 4abe c39d 1cbd e567 04bc
00000080: 601b 3b3d cda9 a3bd 7860 a6bd be55 eabd
00000090: 3276 25bd 60f9 573d 5069 1abe 6f2c 4f3d
000000a0: 0fc1 e33d c44d 68bd 7193 08be a4ae 823c
000000b0: cde2 cbbd 210a 023d 1023 f5bd 8032 10bd
000000c0: 1145 18bc 3dbb 82be 5bf2 273e e6b9 bf3d
000000d0: 3a66 9fbd 0615 893e 2dff 88bc 22cf b8bd
000000e0: 2a93 dabd 2410 15bd 7c55 d73d 2e87 fd3d
000000f0: e8cf c7bb 7ab7 bfbd 2969 60bd 7a11 20bc
00000100: f9db 5fbe 6797 65bd 0d01 29be e7aa d43d
00000110: 3348 4abd d618 6ebc 99e5 953d 8981 37bd
00000120: 9193 9d3d 1766 5b3e 56ad fdbd 105d f83d
00000130: 3f0f 923e 866a d73d c6ac 04bd 7c2e 3d3e
00000140: 3ccb 07be 96a5 c23d dbf1 fdbc b779 213d
00000150: 49a9 1dbd 6482 91bd f990 a9bd cc6d 293d
00000160: 6f9c 18be 8b13 c4bd 00e8 743c 8712 203d
00000170: c52b 803b e89a acbc 3ab6 16bd 3c51 dd3c
00000180: 5ac0 6f3d c19f 953d 7eb2 923c a1c7 80bc
00000190: 04aa c23b 88a8 1dbd 0b6f b33d b56f 693d
000001a0: d21b 9c3e 2ae9 15be b321 623c 8ec5 7d3d
000001b0: e100 3fbd 78e7 2bbb c547 9bbd 769f 633c
000001c0: bfdf 3a3e 235a 0d3e 4702 a4bd 392c 053e
000001d0: 975c e63d cdf8 bbbd ea03 dabc e239 0f3e
000001e0: 7b58 78bd 9779 e3bd 2a70 e2bd 5a53 a7bc
000001f0: 7015 373d 4f54 38bd a88b d1bd 034d 84be
00000200: 7484 cebc b583 f13d 7fa7 8f3c 07b1 aabd
00000210: bb37 bfbd d067 e3bd 9878 e2bd c6dc 3ebd
00000220: 261a ec3c 1cda 203d ef5a e93b c5a0 9bbd
00000230: 35ed 26be a93b 963c 9d8a 363d f304 373d
00000240: 643a 513d 46e6 abbd 0e66 e2bd 4230 76bd
00000250: b9a2 8e3d c701 82bc 1ab3 903d 4f25 d3bd
00000260: 330e 2abe b405 0d3c 2ecd cbbd caca 61bc
00000270: c2d0 6cbe 07e5 003d f13c 283e 7f68 6dbd
00000280: 1ff6 bd3d d4b5 8e3d 9869 193e 79a9 3b3b
00000290: 9fdf 0d3d 4ab9 593d 7a76 91be ff78 28bd
000002a0: 2354 2abe 1bf3 f0bd b694 47be 1290 4e3d
000002b0: 509e d83d 36b3 503c 915e f6bd 2bce 01be
000002c0: 2597 f83d bb46 19be 4f76 35be 9163 6e3d
000002d0: 437f 9fbd 54b2 4fbc 3de8 dd3c a74a ad3d
000002e0: 3914 bcbd 5a40 0d3e 64a7 44bd 3661 503d
000002f0: 87e4 cbbc eb2a 5c3d 30d5 ed3d 3a24 b63d
00000300: 6977 49bd c2fd 493e 2edf 383e c561 e23d
00000310: 272b 08be 32f9 7a3d db79 4a3e d4bd d33d
00000320: 3823 b53d 3c8d ee3d 1dcb 0e3c eb88 c63c
00000330: 5456 eb3a c982 723d 905c 963c 4136 3fbc
00000340: 4c6e d4bc a230 d83c e74a b53c 528b 08b9
00000350: 4767 c2bc 6ad3 63be 29d6 b63d bbc0 203e
00000360: c11b bfbd 31a3 1dbe df24 5c3d 957d 99bd
00000370: c998 d7bd 3c90 b23c 2ac5 803e c40e b13c
00000380: 1d62 d63d 6301 0dbe 42d0 2fbc b21f 11be
00000390: 6ed5 40be d1bf 53be 4871 fcbd bd08 bdbd
000003a0: 2da9 1aba 6fcf 43be c51d 1cbd 5442 433e
000003b0: 13c2 c7bb 4354 57bd 980e 8dbc 57ba 983c
000003c0: 4fa0 763d af3e 073e e405 51bd db77 163e
000003d0: 132d 0c3e 486e 873c a98d 463e 2a8c 963e
000003e0: d83c 053e bf26 eebc 4db0 4f3d d1a0 fdbd
000003f0: 790f 123e 4e71 fb3d cae2 1139 01de 473e

0.features.1.0.block.0.1.weight f4 [16]
0.6694501 0.7186584 0.6404791 0.72836524 0.7429823 0.7669853 0.7270457 0.6951413
0.8084288 0.68610173 0.7934477 0.75002974 0.79626757 0.9618174 0.6482857 0.5813493
00000000: 1561 2b3f fff9 373f 70f6 233f 2576 3a3f
00000010: 1734 3e3f 2659 443f ab1f 3a3f c8f4 313f
00000020: 31f5 4e3f 5da4 2f3f 631f 4b3f f301 403f
00000030: 31d8 4b3f aa39 763f 0df6 253f 4fd3 143f

0.features.1.0.block.0.1.bias f4 [16]
0.23406518 0.032071196 0.18892282 0.11832683 0.565879 0.58274376 0.101893194 0.0630323
0.21541262 0.61359876 0.2408319 -0.004938834 0.031590946 0.017981132 0.11600105 0.13434345
00000000: c8ae 6f3e 165d 033d fc74 413e 5655 f23d
00000010: 72dd 103f b22e 153f 61ad d03d 1417 813d
00000020: 2095 5c3e cf14 1d3f a39c 763e f1d5 a1bb
00000030: 8265 013d 2b4d 933c f591 ed3d 5491 093e

0.features.1.0.block.0.1.running_mean f4 [16]
-0.9638972 0.4027503 -0.86256486 -1.137186 0.7124377 0.17460251 -0.8507655 -0.19822162
0.83257943 0.28757527 0.36066198 -0.33286777 -0.6057453 -2.5446534 0.76096904 -0.12276453
00000000: f8c1 76bf 4a35 ce3e 0dd1 5cbf 508f 91bf
00000010: 5162 363f 00cb 323e c5cb 59bf 9cfa 4abe
00000020: ed23 553f 113d 933e b0a8 b83e a56d aabe
00000030: 2012 1bbf 9adb 22c0 dece 423f f86b fbbd

0.features.1.0.block.0.1.running_var f4 [16]
1.2148641 2.289243 0.7775676 1.1912948 1.3431154 0.5365509 3.3235645 0.5515204
1.7249364 0.7118998 2.155478 1.2761443 2.9381068 7.940151 2.6746106 2.908189
00000000: ab80 9b3f f582 1240 ac0e 473f 597c 983f
00000010: 35eb ab3f 665b 093f 48b5 5440 7130 0d3f
00000020: b7ca dc3f 113f 363f 5af3 0940 b258 a33f
00000030: f109 3c40 b815 fe40 d22c 2b40 c51f 3a40

0.features.1.1.block.0.0.weight f4 [16, 16, 3, 3]
-0.20673431 0.047349796 0.050338466 -0.028952768 -0.16547465 -0.33178955 -0.13922267 -0.08549491
0.027760994 0.024108205 0.08084356 0.08573584 -0.07554797 0.15620647 -0.05659672 0.03335358
0.045245726 -0.1100347 0.07781996 0.07290556 0.124794975 -0.13776752 -0.016258335 0.026080517
0.049953613 -0.039796196 0.14790802 -0.15610619 -0.046651863 -0.059570204 -0.102561615 -0.24669729
-0.15024805 0.04158594 -0.14600584 -0.13836053 -0.10681262 -0.060623236 -0.026092589 -0.14877182
-0.089033596 -0.04757192 -0.12571281 -0.04739002 -0.14761104 -0.08189567 -0.14506966 -0.07228175
0.06896065 -0.21940237 -0.1066238 -0.030134693 -0.034056727 0.14109348 0.04619984 -0.003202195
-0.046126097 -0.12879807 0.027909761 0.091242954 0.13519055 -0.090694465 -0.03661248 -0.09487988
0.059993178 -0.114156485 0.107493736 -0.035839543 -0.013859906 -0.06786021 -0.084492505 -0.06232265
-0.008606887 -0.01340204 -0.14891566 0.054430146 -0.09114251 0.031344343 0.05372132 0.05825935
-0.19920099 0.021210602 0.040478908 -0.0020341799 -0.0108409 -0.29982355 -0.026012102 0.05567808
0.08150221 0.08525841 0.07287152 -0.13221128 -0.14765052 0.035494283 0.11341807 -0.19015877
0.07255439 -0.06471071 -0.16729468 -0.15486175 -0.1911957 0.017935151 0.027013816 -0.120819986
0.053455014 0.03619373 0.05554311 -0.048896473 -0.019879304 -0.0055496553 0.0046273083 0.06213241
-0.14349827 -0.022212584 0.030076766 -0.036931742 -0.16139704 -0.056861244 -0.09770666 0.05101823
-0.053057086 -0.28263947 -0.08680827 0.09091144 0.06652194 0.0829656 -0.018309163 -0.025520293
-0.12889478 0.06016394 -0.0770073 0.051665336 -0.022524584 0.014412865 -0.05187525 -0.07770047
-0.073372714 0.019069282 0.101942606 0.02684914 -0.13201283 -0.015032938 -0.022333922 -0.12389767
-0.12044299 -0.19787613 -0.13352792 -0.016645985 0.084879115 -0.01774094 0.008153467 0.022789013
-0.15389259 -0.15945108 -0.029610537 0.07074091 0.008567493 0.033460625 -0.16219346 0.06443235
0.008549224 -0.010967652 -0.10557418 -0.16253304 0.14096852 -0.10977088 -0.24678718 -0.049162343
0.0312576 -0.0548396 0.09795768 0.105166614 -0.013533858 -0.07777756 0.1848939 -0.15179816
0.11380485 -0.037044533 -0.092445776 0.15501723 -0.038223777 0.041050673 -0.2365476 -0.0016970314
0.09239711 -0.016260147 -0.07446388 0.10277159 0.049175348 0.017506767 0.0018462404 -0.10143884
-0.090051234 0.15414521 -0.1327553 0.08041127 0.002496249 -0.014026965 0.040277056 0.16692118
-0.13822992 -0.038814887 -0.12177338 0.0647084 -0.010023888 -0.010716267 0.011627424 0.1264366
-0.07316596 -0.03111704 0.09136385 0.12707615 0.1551347 0.043056875 0.027590152 0.2719407
0.027170973 0.04872177 -0.045343414 -0.03636669 -0.17692746 0.13829282 -0.10681283 0.001951773
0.04700043 0.036830075 -0.06876169 -0.009406572 -0.26180747 -0.058015365 -0.08845792 0.034567773
-0.112207115 -0.074329294 -0.28201136 -0.16661914 -0.11900381 0.15458612 -0.03173856 -0.04139428
-0.20495395 -0.044648588 -0.016786462 0.09310779 0.07218485 0.005912818 -0.121726245 0.0834635
-0.007846563 0.103561774 0.05608734 -0.051584605 -0.050075736 0.013216211 -0.012830931 -0.1344593
00000000: 29b2 53be dcf1 413d b52f 4e3d 5b2e edbc
00000010: 3072 29be 52e0 a9be 6390 0ebe f517 afbd
00000020: 066b e33c 927e c53c 4f91 a53d 4696 af3d
00000030: e5b8 9abd 97f4 1f3e f6d1 67bd c39d 083d
00000040: 9553 393d df59 e1bd 1260 9f3d 834f 953d
00000050: 8294 ff3d ee12 0dbe 3330 85bc cfa6 d53c
00000060: 299c 4c3d 5601 23bd 3375 173e 4dda 1fbe
00000070: 0616 3fbd e3ff 73bd d30b d2bd 379e 7cbe
00000080: a0da 19be 0556 2a3d 8e82 15be 62ae 0dbe
00000090: 93c0 dabd 1250 78bd 20c0 d5bc a457 18be
000000a0: 3f57 b6bd c6da 42bd dcba 00be 0a1c 42bd
000000b0: 5927 17be ebb8 a7bd 248d 14be 7408 94bd
000000c0: 3e3b 8d3d 04ab 60be 945d dabd 08dd f6bc
000000d0: 117f 0bbd cf7a 103e 0b3c 3d3d ebdb 51bb
000000e0: b8ee 3cbd a4e3 03be 03a3 e43c 96dd ba3d
000000f0: 646f 0a3e 05be b9bd f8f6 15bd 6250 c2bd
00000100: 68bb 753d e0ca e9bd ad25 dc3d 7ccc 12bd
00000110: a914 63bc 4bfa 8abd 680a adbd 0946 7fbd
00000120: e703 0dbc 3b94 5bbc 597d 18be 25f2 5e3d
00000130: eda8 babd ed62 003d e30a 5c3d 5ba1 6e3d
00000140: 58fb 4bbe dbc1 ad3c 36cd 253d e04f 05bb
00000150: 089e 31bc 7982 99be 5517 d5bc b30e 643d
00000160: a1ea a63d f69b ae3d aa3d 953d 6562 07be
00000170: b331 17be 7462 113d bc47 e83d fbb8 42be
00000180: 6597 943d 0c87 84bd 4c4f 2bbe 1494 1ebe
00000190: cec8 43be bdec 923c 144c dd3c 7870 f7bd
000001a0: a5f3 5a3d e03f 143d 2c81 633d ab47 48bd
000001b0: ecd9 a2bc e2d9 b5bb ada0 973b 8e7e 7e3d
000001c0: 36f1 12be 2af7 b5bc 8d63 f63c bd45 17bd
000001d0: 4445 25be 56e7 68bd 6e1a c8bd 7ef8 503d
000001e0: 6352 59bd 1fb6 90be 89c8 b1bd c72f ba3d
000001f0: a83c 883d dee9 a93d 19fd 95bc ef0f d1bc
00000200: fefc 03be 776e 763d 01b6 9dbd 089f 533d
00000210: 7a85 b8bc f023 6c3c 247b 54bd 6d21 9fbd
00000220: 6f44 96bd 2f37 9c3c 49c7 d03d baf2 db3c
00000230: 5f2e 07be b64c 76bc a1f5 b6bc 10be fdbd
00000240: d0aa f6bd 0aa0 4abe 8bbb 08be 295d 88bc
00000250: 1ad5 ad3d 7355 91bc 1f96 053c 06b0 ba3c
00000260: 0596 1dbe 2547 23be cc91 f2bc 9ce0 903d
00000270: ac5e 0c3c 020e 093d 0b16 26be 1cf5 833d
00000280: 0b12 0c3c abb1 33bc 4737 d8bd 106f 26be
00000290: 0d5a 103e 8ecf e0bd c7b5 7cbe 745e 49bd
000002a0: f807 003d 7d9f 60bd 099e c83d 9861 d73d
000002b0: 1dbd 5dbc d749 9fbd d454 3d3e fa70 1bbe
000002c0: 8412 e93d 02bc 17bd 3654 bdbd d6bc 1e3e
000002d0: 8990 1cbd c024 283d 8939 72be ed6e deba
000002e0: b23a bd3d 0034 85bc 8580 98bd e979 d23d
000002f0: 176c 493d 5a6a 8f3c 8cfd f13a 2bbf cfbd
00000300: c86c b8bd 3ed8 1d3e 01f1 07be aaae a43d
00000310: 1c98 233b 5bd1 65bc 8ef9 243d 63ed 2a3e
00000320: 258c 0dbe 5cfc 1ebd 5264 f9bd d685 843d
00000330: 3c3b 24bc 4893 2fbc f380 3e3c 9978 013e
00000340: 09d8 95bd 2ae9 febc f81c bb3d 4020 023e
00000350: a1db 1e3e 685c 303d be04 e23c d03b 8b3e
00000360: a995 de3c 7b90 473d 04ba 39bd 3df5 14bd
00000370: 792c 35be a29c 0d3e afc0 dabd a2d2 ff3a
00000380: 8683 403d 22db 163d eed2 8cbd 061e 1abc
00000390: a10b 86be 85a1 6dbd 6d29 b5bd f096 0d3d
000003a0: d8cc e5bd f539 98bd cb63 90be 359e 2abe
000003b0: 45b8 f3bd d34b 1e3e 4b00 02bd 0c8d 29bd
000003c0: 73df 51be 70e1 36bd c383 89bc 4caf be3d
000003d0: a7d5 933d 50c0 c13b 9c4b f9bd e9ee aa3d
000003e0: df8e 00bc 3218 d43d d7bb 653d 614a 53bd
000003f0: 371c 4dbd cf88 583c d338 52bc b3af 09be

0.features.1.1.block.0.1.weight f4 [16]
0.63688684 0.7594044 1.5844929 0.7976937 0.71600014 0.6206322 0.6200943 0.69426477
0.8030078 0.6514925 0.6458884 0.8255375 0.66909987 0.7045577 0.7359645 0.77655643
00000000: 040b 233f 5468 423f aad0 ca3f a835 4c3f
00000010: c94b 373f c0e1 1e3f 80be 1e3f 56bb 313f
00000020: eb91 4d3f 36c8 263f f158 253f 6d56 533f
00000030: 214a 2b3f e55d 343f 2b68 3c3f 67cc 463f

0.features.1.1.block.0.1.bias f4 [16]
-0.102076106 -0.07246064 -1.2702669 0.013270513 0.03020785 -0.038563535 -0.111061655 0.09130905
-0.036647405 -0.082217954 -0.058005266 0.073056124 -0.031797644 -0.009822361 -0.05055432 0.07912384
00000000: 470d d1bd 3e66 94bd 1b98 a2bf 916c 593c
00000010: 7476 f73c ccf4 1dbd 4b74 e3bd 3d00 bb3d
00000020: 971b 16bd e361 a8bd ee96 6dbd 739e 953d
00000030: 3f3e 02bd f8ed 20bc 0c12 4fbd ae0b a23d

0.features.1.1.block.0.1.running_mean f4 [16]
-3.5348463 -1.2509711 -0.4669412 -0.5597985 -0.62387615 -0.7556618 -2.8762648 -0.25102657
-2.521343 -1.3684822 0.5275402 -0.4680504 -2.26901 -3.3046706 -2.493767 -0.5092367
00000000: ec3a 62c0 d21f a0bf eb12 efbe f44e 0fbf
00000010: 59b6 1fbf 0d73 41bf b914 38c0 8e86 80be
00000020: af5d 21c0 6d2a afbf e00c 073f 4da4 efbe
00000030: 7637 11c0 b97f 53c0 e199 1fc0 565d 02bf

0.features.1.1.block.0.1.running_var f4 [16]
6.752024 8.953411 0.102135085 10.567854 8.960747 5.0143304 16.37422 3.1201034
18.439524 13.067665 0.8228269 8.659681 5.9758687 10.590884 12.243668 8.6768055
00000000: 9510 d840 2c41 0f41 332c d13d ee15 2941
00000010: 385f 0f41 6575 a040 67fe 8241 c6af 4740
00000020: 2584 9341 2815 5141 c9a4 523f 0e8e 0a41
00000030: 513a bf40 4374 2941 10e6 4341 32d4 0a41

0.features.2.0.block.0.0.weight f4 [64, 16, 3, 3]
-0.047654923 0.050893616 0.022196092 -0.09927276 -0.014293013 0.052005026 0.028683558 0.14154676
-0.030004328 -0.044861104 0.06498981 0.012387594 -0.05991722 0.0685629 0.1298079 0.0024454142
0.020236911 0.030640287 -0.024009896 0.0039436454 0.043596692 0.04980911 0.0018873533 -0.098114975
0.010136361 0.026305543 0.034105677 0.011414308 -0.01329787 0.13565338 -0.011838494 -0.15687494
0.07517887 0.019970726 -0.030531956 -0.025468498 0.014485043 0.09186995 0.08190804 0.05855018
0.14572735 0.09390204 -0.04278011 0.03323372 0.0022496989 0.025049167 0.06168858 0.055937186
0.046920396 -0.052633476 0.04716796 0.056658566 -0.06539312 0.008437728 -0.0062513864 -0.056013677
0.037663426 -0.018103013 -0.10651007 0.040798273 0.029018847 -0.049423948 0.030811734 -0.048690595
-0.06386314 -0.018723065 0.022879979 0.01636487 0.03419604 -0.056865413 -0.011962171 0.014096078
0.10287862 -0.044906892 0.0094714435 0.040532198 -0.04074558 -0.07564115 -0.032973047 0.040263895
-0.02110793 0.026978306 0.05099063 -0.039143275 0.06932862 0.087542504 0.035385247 0.047053073
0.13710874 0.052554764 0.035135504 -0.0439873 -0.03537428 0.034236014 0.013705393 0.06761512
-8.4196094e-05 -0.025419869 0.043545786 -0.06515025 0.047227766 0.061292548 0.076749586 0.08095986
0.087627016 0.015024551 0.002582753 -0.0006046835 -0.018740045 -0.03149954 -0.037523247 0.022609059
0.04551858 0.09400633 -0.08478484 -0.0740352 -0.059970323 -0.120402746 0.0032420661 -0.002926618
0.050730668 -0.013152019 0.075520135 0.030953402 -0.044271946 -0.055242453 0.042063665 -0.036959074
-0.1250091 0.025456535 0.026624955 0.031619348 0.07315909 0.000381204 0.045491364 0.03178316
0.1206962 -0.089217216 0.01687701 -0.006479958 -0.14267062 0.027780652 0.096266076 0.026133535
0.05273432 -0.045899406 -0.076266944 -0.019159552 0.016843768 0.04869473 0.058876045 0.02816972
-0.037479613 -0.073720194 0.13929449 0.056589544 -0.0068087904 0.042585503 0.0209623 0.05413321
-0.012039901 0.021803867 0.041589353 0.027756548 -0.017890608 -0.043892335 0.061138406 -0.017877536
-0.020734845 0.09223052 0.014987889 0.001953929 0.05834305 0.025053557 0.006804213 0.041956965
0.0021514427 -0.072404526 0.028190222 -0.01661948 -0.06320859 0.1086011 0.007780239 -0.03676009
0.039280854 -0.05322666 0.018517865 -0.0865025 0.014790048 0.030074824 0.017704643 -0.023657095
-0.015999725 -0.012717209 0.09761546 -0.07219493 0.045075394 0.008544492 -0.05422191 -0.1194378
0.02389445 -0.0073004523 -0.052573513 0.05324238 -0.03879725 0.024526048 -0.07730375 -0.035993226
0.07007276 -0.017905083 -0.03310688 -0.13336495 0.008096041 0.021059964 0.062957354 0.08851484
-0.043274514 -0.030135453 0.062287502 0.014343994 0.10889571 -0.07647652 0.021183949 0.0028117467
0.014043561 0.048526056 -0.09703924 0.050003495 -0.04450148 -0.00061769824 -0.018292315 0.019686049
-0.0063052885 -0.038263224 -0.0016441796 -0.023080891 -0.019127643 -0.02512387 -0.034790527 0.023942862
-0.103659995 0.10607862 -0.0586206 0.057105895 0.00163477 0.0018089183 -0.040536143 0.07532894
-0.04866101 -0.05614268 -0.08861646 -0.017591653 0.11339055 0.17956272 0.055138398 0.04253131
00000000: cf31 43bd d375 503d 94d4 b53c 844f cbbd
00000010: 3e2d 6abc 3903 553d c8f9 ea3c a2f1 103e
00000020: a3cb f5bc 47c0 37bd 6119 853d 56f5 4a3c
00000030: c26b 75bd b56a 8c3d 5dec 043e 3e43 203b
00000040: e1c7 a53c 5701 fb3c 67b0 c4bc b239 813b
00000050: 7292 323d a304 4c3d 1161 f73a 81f0 c8bd
00000060: fb12 263c b97e d73c 65b2 0b3d 1403 3b3c
00000070: 4fdf 59bc b8e8 0a3e 3ef6 41bc d3a3 20be
00000080: 61f7 993d a699 a33c 271e fabc 50a3 d0bc
00000090: ac52 6d3c 5026 bc3d 67bf a73d 50d2 6f3d
000000a0: 8d39 153e b64f c03d 323a 2fbd 1520 083d
000000b0: af6f 133b e933 cd3c 2aad 7c3d 641e 653d
000000c0: 9a2f 403d 3396 57bd 3133 413d d012 683d
000000d0: d4ec 85bd 653e 0a3c 6ed8 ccbb 996e 65bd
000000e0: f744 1a3d c54c 94bc f421 dabd 171c 273d
000000f0: efb8 ed3c c470 4abd e468 fc3c ca6f 47bd
00000100: aeca 82bd 1d61 99bc cb6e bb3c 9f0f 863c
00000110: 2611 0c3d b5eb 68bd fbfc 43bc 3df3 663c
00000120: 07b2 d23d 4af0 37bd 1d2e 1b3c 1705 263d
00000130: d6e4 26bd bfe9 9abd bf0e 07bd c1eb 243d
00000140: 8aea acbc 9c01 dd3c 8ddb 503d b354 20bd
00000150: 2afc 8d3d 7c49 b33d 1ff0 103d b9ba 403d
00000160: 3c66 0c3e aa43 573d 3fea 0f3d 072c 34bd
00000170: 9fe4 10bd 103b 0c3d 968c 603c cc79 8a3d
00000180: 6f92 b0b8 543d d0bc 115d 323d 7f6d 85bd
00000190: e771 413d e50d 7b3d e32e 9d3d 48ce a53d
000001a0: cb75 b33d 8929 763c 6843 293b 9f83 1eba
000001b0: b984 99bc a905 01bd fab1 19bd a236 b93c
000001c0: b171 3a3d 6486 c03d ada3 adbd c49f 97bd
000001d0: 71a3 75bd b795 f6bd d878 543b 81cc 3fbb
000001e0: f6ca 4f3d 917b 57bc 4daa 9a3d fd91 fd3c
000001f0: 8056 35bd e945 62bd f34a 2c3d 6662 17bd
00000200: 6302 00be 398a d03c 941c da3c 4a83 013d
00000210: 6fd4 953d 56dc c739 2755 3a3d 0f2f 023d
00000220: 922f f73d 84b7 b6bd a841 8a3c d455 d4bb
00000230: 3f18 12be 4094 e33c 2627 c53d ff15 d63c
00000240: f1ff 573d 0401 3cbd d831 9cbd 7ef4 9cbc
00000250: f1fb 893c 2074 473d 0228 713d 2fc4 e63c
00000260: 3984 19bd 9dfa 96bd 37a3 0e3e 70ca 673d
00000270: 461c dfbb 236e 2e3d 21b9 ab3c c9ba 5d3d
00000280: 0143 45bc 069e b23c 9959 2a3d b361 e33c
00000290: 538f 92bc 73c8 33bd 446c 7a3d e973 92bc
000002a0: 1fdc a9bc 5be3 bc3d c38f 753c 7d0d 003b
000002b0: 1ff9 6e3d 1e3d cd3c e0f5 de3b 11db 2b3d
000002c0: 38ff 0c3b d348 94bd 2eef e63c 9325 88bc
000002d0: 8173 81bd 416a de3d 60f1 fe3b c091 16bd
000002e0: f6e4 203d 3304 5abd c7b2 973c 3928 b1bd
000002f0: f551 723c 7a5f f63c 5409 913c 86cc c1bc
00000300: db11 83bc d75b 50bc 9dea c73d efda 93bd
00000310: faa0 383d 32fe 0b3c cb17 5ebd ce9b f4bd
00000320: 4bbe c33c a238 efbb 5357 57bd af14 5a3d
00000330: dde9 1ebd daea c83c 6e51 9ebd a26d 13bd
00000340: 4f82 8f3d aead 92bc 149b 07bd d290 08be
00000350: 42a5 043c f285 ac3c c9ef 803d 4547 b53d
00000360: 9e40 31bd a0de f6bc 2e21 7f3d 1203 6b3c
00000370: b704 df3d b99f 9cbd f689 ad3c 4845 383b
00000380: f716 663c 42c3 463d 82bc c6bd 77d0 4c3d
00000390: 2f47 36bd 07ed 21ba c4d9 95bc a344 a13c
000003a0: 989c cebb e6b9 1cbd 8381 d7ba 2314 bdbc
000003b0: 93b1 9cbc 93d0 cdbc 8380 0ebd d223 c43c
000003c0: b14b d4bd bf3f d93d 271c 70bd dfe7 693d
000003d0: c745 d63a 3a19 ed3a 3a09 26bd 0f46 9a3d
000003e0: c450 47bd def5 65bd 8c7c b5bd 5f1c 90bc
000003f0: 4e39 e83d 4adf 373e cdd8 613d 5035 2e3d

0.features.2.0.block.0.1.weight f4 [64]
0.78198785 0.77980316 0.4790186 0.8013642 0.7261685 0.6634106 0.888514 0.7569487
0.58953494 0.8056149 0.6291544 0.7164814 0.76715624 0.7063098 0.6922669 0.85412073
0.7911777 0.8222108 0.79958165 0.6870976 0.78303206 0.8268359 0.7929235 0.7808982
0.73250645 0.6974003 0.7608331 0.7982767 0.78976583 0.814228 0.64736074 0.82723993
0.79289055 0.8187705 0.7807912 0.82152486 0.8009853 0.68213063 0.8216915 0.8118376
0.8481501 0.54961705 0.8390899 0.67139786 0.6957994 0.79141206 0.6878323 0.7101773
0.733558 0.6959807 0.7667347 0.766776 1.5748882 0.7993544 0.73203754 0.83134615
0.7962695 0.762778 0.7935976 0.8411811 0.74927056 0.79635376 0.7959478 0.8282159
00000000: 5b30 483f 2ea1 473f ed41 f53e 3426 4d3f
00000010: 2ee6 393f 47d5 293f a775 633f 64c7 413f
00000020: c3eb 163f c73c 4e3f 4310 213f 536b 373f
00000030: 5a64 443f b8d0 343f 6738 313f a8a7 5a3f
00000040: 9f8a 4a3f 687c 523f 62b1 4c3f a1e5 2f3f
00000050: ca74 483f 84ab 533f 09fd 4a3f f2e8 473f
00000060: 8b85 3b3f d388 323f f5c5 423f dd5b 4c3f
00000070: 182e 4a3f 3f71 503f 6fb9 253f ffc5 533f
00000080: e0fa 4a3f f29a 513f efe1 473f 744f 523f
00000090: 5f0d 4d3f 1da0 2e3f 605a 523f 97d4 4f3f
000000a0: 5d20 593f b4b3 0c3f 98ce 563f bbe0 2b3f
000000b0: e91f 323f fb99 4a3f c715 303f 2ece 353f
000000c0: 75ca 3b3f cb2b 323f ba48 443f 6f4b 443f
000000d0: f095 c93f 7da2 4c3f d066 3b3f 1ad3 543f
000000e0: 51d8 4b3f 6b45 433f 3629 4b3f a557 573f
000000f0: 32d0 3f3f d7dd 4b3f 3cc3 4b3f f505 543f

0.features.2.0.block.0.1.bias f4 [64]
0.24699178 0.14079791 0.22361186 0.17095803 0.17337708 0.15646258 0.0358636 0.13651994
-0.0034868766 0.15959342 0.056864172 0.119818546 0.19966432 0.39940307 0.119383685 0.24409318
0.5223341 0.0640289 0.15128748 0.019046156 0.05603315 0.03278242 0.20956796 0.2987125
0.20586509 0.21667191 0.2331517 0.16583411 0.038538173 0.20661624 0.040606376 0.11661955
0.08973665 0.15675282 0.06666668 0.14173573 0.30898616 0.07147435 0.27573818 0.15341838
0.23232265 0.061905347 0.23421513 0.21787468 -0.13099232 0.42056572 0.15412973 0.048962124
0.21696809 0.20226793 0.4029578 0.160983 -0.92269415 0.30751088 0.6049405 0.037293427
0.17510906 0.15134467 0.2142135 0.08940753 0.16609678 0.571794 0.09756428 0.19543304
00000000: 6aeb 7c3e 542d 103e 82fa 643e 9f0f 2f3e
00000010: c389 313e ba37 203e b6e5 123d e2cb 0b3e
00000020: 1584 64bb 756c 233e 68ea 683d 6d63 f53d
00000030: ce74 4c3e 8f7e cc3e 6f7f f43d 90f3 793e
00000040: b0b7 053f 9521 833d 1beb 1a3e af06 9c3c
00000050: 0483 653d dc46 063d fc98 563e d8f0 983e
00000060: 4cce 523e 3edf 5d3e 52bf 6e3e 6bd0 293e
00000070: 34da 1d3d 3593 533e df52 263d 3bd6 ee3d
00000080: d9c7 b73d d083 203e 8a88 883d 2c23 113e
00000090: 6f33 9e3e 2561 923d 8e2d 8d3e b519 1d3e
000000a0: fde5 6d3e 7690 7d3d 17d6 6f3e 8a1a 5f3e
000000b0: da22 06be 6454 d73e 2fd4 1d3e 828c 483d
000000c0: e22c 5e3e 531f 4f3e 7c50 ce3e bad8 243e
000000d0: af35 6cbf 1172 9d3e 61dd 1a3f fec0 183d
000000e0: ca4f 333e 19fa 1a3e c95a 5b3e 4c1b b73d
000000f0: 4615 2a3e 1761 123f c8cf c73d 991f 483e

0.features.2.0.block.0.1.running_mean f4 [64]
1.2087018 -0.20215578 0.61326087 0.23404503 -0.0062089856 -0.9422555 -0.16030005 -0.22336301
-0.21192895 -0.08667325 -0.13085014 -0.31185997 0.10065721 1.256916 -0.46290043 0.11820767
0.21495888 0.005387596 -0.28762218 -0.4832475 0.69331646 -0.23795561 0.31957924 -0.19094379
0.009902456 -0.055682484 0.095312044 -1.4057778 -0.24423255 0.29633826 0.34121335 -0.04395728
-0.21364458 -0.5141631 -0.6007633 0.45606178 1.3196385 -0.86307925 0.86603546 0.6563133
0.5956009 -0.09869525 0.3591021 -0.19720261 -0.25382075 0.29048425 -0.108652 -0.0015364444
-0.019838516 -0.4503312 -0.009972832 0.13848354 0.263831 0.47308913 0.94184065 -0.6034217
-0.009440205 -0.6115874 1.1398102 0.018285139 -0.5554502 0.22937195 -0.70428485 0.52154344
00000000: beb6 9a3f ed01 4fbe aafe 1c3f 80a9 6f3e
00000010: bf74 cbbb a837 71bf b225 24be 46b9 64be
00000020: e703 59be bf81 b1bd 94fd 05be 1cac 9fbe
00000030: 5e25 ce3d a0e2 a03f 4901 edbe dd16 f23d
00000040: 2e1e 5c3e 6e8a b03b 3743 93be 376c f7be
00000050: 307d 313f a3aa 73be e49f a33e c586 43be
00000060: e93d 223c 5113 64bd f632 c33d 87f0 b3bf
00000070: 1918 7abe a6b9 973e 84b3 ae3e 8d0c 34bd
00000080: a5c5 5abe 31a0 03bf a0cb 19bf ee80 e93e
00000090: eae9 a83f c3f2 5cbf 80b4 5d3f 2604 283f
000000a0: 4d79 183f bc20 cabd 3bdc b73e 7bef 49be
000000b0: cbf4 81be 5aba 943e f184 debd 8562 c9ba
000000c0: 6284 a2bc d091 e6be 1765 23bc a1ce 0d3e
000000d0: db14 873e bd38 f23e 781c 713f d879 1abf
000000e0: 17ab 1abc fe90 1cbf 4de5 913f b7ca 953c
000000f0: fc31 0ebf 7be0 6a3e 034c 34bf df83 053f

0.features.2.0.block.0.1.running_var f4 [64]
3.6916976 2.4749053 0.914655 6.3907895 1.419997 2.953113 6.2192016 2.7420163
0.60996616 3.2454937 2.4717433 2.9976711 2.0403929 4.208203 6.163119 5.1302786
1.6361578 5.648098 1.8685315 1.768702 3.7590935 2.890047 2.7270985 3.9421315
1.7823387 2.0726838 1.7978592 6.0625353 1.5891148 3.7345166 0.9940936 2.6519477
2.8713658 4.1964393 3.4126203 3.6204746 3.6365907 2.0743713 3.2368526 3.9101455
4.342405 1.01494 3.9861808 1.529683 0.2992776 1.4088281 2.908536 1.9034104
4.085476 1.9567127 2.3087227 2.756521 0.3767514 2.3494892 3.5995064 3.8790774
3.716264 3.6549978 5.1576247 3.3606436 3.581021 1.5036211 5.6811676 5.727764
00000000: c644 6c40 d964 1e40 d526 6a3f 5981 cc40
00000010: 76c2 b53f ceff 3c40 b303 c740 327d 2f40
00000020: be26 1c3f 2bb6 4f40 0b31 1e40 d8d9 3f40
00000030: cc95 0240 99a9 8640 4538 c540 3e2b a440
00000040: 9e6d d13f 38bd b440 0a2c ef3f d464 e23f
00000050: fd94 7040 88f6 3840 c888 2e40 e24b 7c40
00000060: ad23 e43f daa6 0440 4020 e63f 4a00 c240
00000070: 1d68 cb3f 5202 6f40 eb7c 7e3f 83b9 2940
00000080: 75c4 3740 3b49 8640 5f68 5a40 dbb5 6740
00000090: e7bd 6840 80c2 0440 9828 4f40 d33f 7a40
000000a0: fbf4 8a40 8ee9 813f 961d 7f40 a7cc c33f
000000b0: ea3a 993e 7b54 b43f 7425 3a40 f4a2 f33f
000000c0: 38bc 8240 9075 fa3f 1dc2 1340 d76a 3040
000000d0: 8fe5 c03e 085e 1640 505e 6640 ce42 7840
000000e0: 45d7 6d40 7ceb 6940 430b a540 c914 5740
000000f0: 732f 6540 a876 c03f 20cc b540 d849 b740

0.features.2.0.block.1.0.weight f4 [32, 64, 1, 1]
0.26703683 0.022422675 -0.037999462 0.16979541 -0.0006349678 0.4940823 -0.0788212 -0.26525038
-0.033674397 0.3159475 -0.17034471 0.018193247 -0.09921617 -0.36887634 -0.013508453 0.059307434
0.3197946 -0.43934584 0.20165722 -0.27115422 0.05964943 0.2507139 -0.28843382 0.06705102
0.29505804 0.44512898 -0.30953696 -0.13714194 0.02539143 0.15930353 0.0064111333 0.07901244
-0.03104393 -0.07360707 0.10580872 -0.04206664 -0.3497731 0.13867554 0.14668365 0.2215959
-0.24732818 -0.011536018 -0.10766414 -0.113391094 -0.15674508 0.15391642 -0.016687106 -0.2544162
-0.23423061 -0.2515725 -0.10141944 0.2711537 -0.35098726 -0.06532908 0.05244748 -0.41051063
-0.06967309 -0.4929493 0.13837267 -0.35640246 -0.2789103 -0.7568614 0.16203636 -0.24103625
-0.4274806 0.09190059 0.3331153 -0.22248961 -0.123170756 0.11943525 -0.2461495 0.23275988
-0.050253548 -0.006072143 -0.11382042 0.018210737 0.26889777 0.0687998 0.0093889525 0.2364359
-0.0709564 -0.37221867 0.09238763 -0.17056948 0.042704616 0.49357182 0.31693643 0.034819655
-0.25201702 0.034112133 0.5674606 -0.057473224 -0.05396084 0.08186337 0.090302534 -0.04507093
-0.31487593 0.23527119 0.43950438 -0.07138587 -0.102648675 -0.20565389 -0.008422773 0.13044539
-0.22040063 -0.09736725 -0.1675604 0.19745368 -0.2472824 0.16535671 0.22875209 -0.22408846
0.021865144 0.3206721 -0.110241674 0.15873507 -0.86741287 0.24145168 0.43760884 -0.33762583
0.115932174 -0.39137942 0.18503931 -0.5552298 0.02209355 -0.3266346 -0.2511409 -0.40771118
0.025908822 -0.28948405 -0.3240286 0.25531536 -0.18724722 -0.038093645 -0.031103978 -0.064998664
-0.17577511 0.024586307 -0.25580713 0.21533538 -0.0760987 -0.03917035 0.6133953 -0.0321889
0.015667543 0.047149528 -0.07424344 0.4189516 -0.2635832 -0.36275095 0.20715298 0.05743143
-0.09565141 0.28969845 -0.034361683 -0.18139113 0.28982332 0.31178227 0.28754783 -0.25695717
-0.2182759 -0.2427048 0.0059050587 0.06769016 -0.09493318 -0.15120491 0.35592943 0.056660336
-0.31581226 0.25619537 -0.10903064 -0.03001399 -0.10999041 0.07145926 -0.32624927 -0.35038537
-0.104646824 0.045407362 -0.42822447 -0.03535062 -0.3126671 0.06989212 -0.0252958 0.21468984
0.09884865 0.08276636 0.015627628 -0.2969167 -0.087650515 -0.16871014 0.2720612 0.5083902
0.055250037 -0.36997333 0.018851658 0.06516782 -0.11903381 -0.55737627 0.023626246 0.175184
-0.33036616 -0.05525618 0.25457487 0.30913845 -0.13881709 0.30307335 -0.4703881 -0.11637116
0.15683763 0.005087225 0.19790933 -0.026045522 0.38681856 -0.098262735 0.006042333 0.12395571
-0.0015608801 -0.098044105 -0.001993537 -0.03878169 0.023351835 -0.17280883 -0.026849914 -0.16442029
-0.08609867 0.10598507 -0.013016722 0.07478555 -0.06791657 0.022554265 -0.07673053 0.22318737
-0.17452507 0.16461225 0.20969379 -0.14082289 0.04210714 0.05431938 0.20391673 0.03250657
0.13106303 -0.0059348117 0.2761331 -0.11699735 -0.21942036 0.030024089 0.2498871 -0.27152243
0.20973937 0.2464321 0.22320405 0.37431836 -0.24798429 -0.51282746 -0.40035176 -0.34080842
00000000: 0db9 883e c2af b73c 53a5 1bbd d9de 2d3e
00000010: f873 26ba 5bf8 fc3e 026d a1bd e6ce 87be
00000020: 2aee 09bd dfc3 a13e d86e 2ebe 010a 953c
00000030: d931 cbbd 5cdd bcbe 8f52 5dbc 5aec 723d
00000040: 1ebc a33e f0f1 e0be 3b7f 4e3e bad4 8abe
00000050: f652 743d 935d 803e 99ad 93be 0c52 893d
00000060: d911 973e f2e7 e33e a17b 9ebe f06e 0cbe
00000070: b001 d03c 7720 233e 7c14 d23b 46d1 a13d
00000080: d74f febc 4ebf 96bd 3eb2 d83d 124e 2cbd
00000090: 7615 b3be f600 0e3e 3d34 163e 09ea 623e
000000a0: 9943 7dbe 9101 3dbc 047f dcbd 9739 e8bd
000000b0: c881 20be 449c 1d3e 66b3 88bc d742 82be
000000c0: 26da 6fbe 1cce 80be ffb4 cfbd a8d4 8a3e
000000d0: 9ab4 b3be 41cb 85bd 2bd3 563d 732e d2be
000000e0: c4b0 8ebd da63 fcbe 91b1 0d3e 627a b6be
000000f0: 55cd 8ebe abc1 41bf dcec 253e 35d2 76be
00000100: bdde dabe 6036 bc3d 178e aa3e 51d4 63be
00000110: f340 fcbd 789a f43d 9d0e 7cbe 9b58 6e3e
00000120: aad6 4dbd d4f8 c6bb ae1a e9bd af2e 953c
00000130: f8ac 893e e9e6 8c3d 1fd4 193c 411c 723e
00000140: 9751 91bd 7293 bebe ba35 bd3d c4a9 2ebe
00000150: 09eb 2e3d 72b5 fc3e 7e45 a23e 0e9f 0e3d
00000160: 6008 81be 2ab9 0b3d 1945 113f 0b69 6bbd
00000170: 0b06 5dbd fca7 a73d 89f0 b83d 4c9c 38bd
00000180: 6b37 a1be eeea 703e b806 e13e c132 92bd
00000190: 7839 d2bd ef96 52be acff 09bc 7a93 053e
000001a0: b4b0 61be 7b68 c7bd f494 2bbe 4c31 4a3e
000001b0: 9937 7dbe 4553 293e fd3d 6a3e 7277 65be
000001c0: 881e b33c 222f a43e 63c6 e1bd 728b 223e
000001d0: c50e 5ebf 1c3f 773e 440e e03e 4bdd acbe
000001e0: d96d ed3d e262 c8be f27a 3d3e 8a23 0ebf
000001f0: 88fd b43c a63c a7be 8a95 80be 85bf d0be
00000200: bd3e d43c 4137 94be 14e7 a5be b2b8 823e
00000210: bcbd 3fbe 1508 1cbd c5cd febc 051e 85bd
00000220: 64fe 33be 3969 c93c 27f9 82be e180 5c3e
00000230: a3d9 9bbd 1771 20bd 7907 1d3f 82d8 03bd
00000240: 3859 803c dd1f 413d f20c 98bd d380 d63e
00000250: 61f4 86be 7eba b9be e91f 543e 383d 6b3d
00000260: e3e4 c3bd 5b53 943e d6be 0cbd 99be 39be
00000270: b963 943e eda1 9f3e 7839 933e e48f 83be
00000280: b883 5fbe 9b87 78be 397f c13b 23a1 8a3d
00000290: 546c c2bd 76d5 1abe 623c b63e ab14 683d
000002a0: 25b2 a1be 0a2c 833e 754b dfbd e6df f5bc
000002b0: a742 e1bd 3c59 923d 250a a7be b665 b3be
000002c0: 1351 d6bd 12fd 393d 3d40 dbbe d0cb 10bd
000002d0: e715 a0be 9a23 8f3d 2339 cfbc a7d7 5b3e
000002e0: 2971 ca3d 6981 a93d 8305 803c 7705 98be
000002f0: 1d82 b3bd 5ac2 2cbe 9b4b 8b3e dc25 023f
00000300: dd4d 623d 256d bdbe cb6e 9a3c b576 853d
00000310: 00c8 f3bd 36b0 0ebf d48b c13c 6f63 333e
00000320: c125 a9be 4e54 62bd a357 823e 6547 9e3e
00000330: 1126 0ebe 6e2c 9b3e b6d6 f0be 0154 eebd
00000340: 0b9a 203e bdb2 a63b bea8 4a3e 6b5d d5bc
00000350: 150d c63e f93d c9bd c3fe c53b 7edc fd3d
00000360: 7296 ccba 59cb c8bd 00a6 02bb 8dd9 1ebd
00000370: 594c bf3c ccf4 30be 5af4 dbbc cb5d 28be
00000380: 8054 b0bd b30e d93d 1744 55bc 2b29 993d
00000390: d817 8bbd b9c3 b83c e524 9dbd 3b8b 643e
000003a0: b3b6 32be 1d90 283e f8b9 563e e033 10be
000003b0: 8978 2c3d 007e 5e3d 8ccf 503e 9c25 053d
000003c0: 6335 063e cf78 c2bb 5161 8d3e 4e9c efbd
000003d0: bbaf 60be 14f5 f53c 67e2 7f3e fd04 8bbe
000003e0: ebc5 563e b258 7c3e 9a8f 643e a8a6 bf3e
000003f0: 98ef 7dbe a948 03bf e8fa ccbe 717e aebe

0.features.2.0.block.1.1.weight f4 [32]
0.7898582 0.84630287 0.8732825 0.88306755 0.9495744 0.8125251 0.79620874 0.8456834
0.85431814 0.9071055 0.8795248 0.89294195 0.828016 0.868472 0.88926286 0.80090004
0.8427959 0.8122129 0.92065936 0.85989976 0.8304056 0.7731763 0.8242349 0.9124223
0.85471857 0.85115325 0.90026194 0.6762271 0.78408134 0.84390473 0.89496726 0.7735026
00000000: 2634 4a3f 4ea7 583f 718f 5f3f b710 623f
00000010: 4f17 733f a501 503f 56d4 4b3f b57e 583f
00000020: 98b4 5a3f 1138 683f 8a28 613f d897 643f
00000030: dbf8 533f 2e54 5e3f bba6 633f c907 4d3f
00000040: 79c1 573f 2fed 4f3f 55b0 6b3f 6422 5c3f
00000050: 7695 543f e2ee 453f 0f01 533f 8294 693f
00000060: d6ce 5a3f 2ee5 593f 9177 663f 381d 2d3f
00000070: 8eb9 483f 240a 583f 931c 653f 4404 463f

0.features.2.0.block.1.1.bias f4 [32]
-0.96147585 0.06319052 -1.0132151 1.4200308 -1.4628487 -0.3299803 1.6361667 -0.76412344
0.75961506 -0.36030895 0.0601579 1.7049327 0.70114017 -0.9802004 -0.3485526 -0.22937138
0.9502197 -0.7005116 -0.3891091 0.023693819 -0.37299997 0.5834626 -0.114622176 -0.6399311
-0.28509346 0.58792585 1.3232467 -0.81878984 0.3357359 -0.41441104 0.5958508 -0.16998795
00000000: 4823 76bf 086a 813d 08b1 81bf 92c3 b53f
00000010: a03e bbbf 2ef3 a8be e96d d13f 989d 43bf
00000020: 2276 423f 6a7a b8be 2168 763d 3c3b da3f
00000030: ec7d 333f 6aee 7abf 7d75 b2be 55e0 6abe
00000040: 9941 733f ba54 33bf 4f39 c7be 8a19 c23c
00000050: daf9 bebe ce5d 153f 08bf eabd 86d2 23bf
00000060: c5f7 91be 4f82 163f 2660 a93f 369c 51bf
00000070: 93e5 ab3e af2d d4be ae89 183f 5211 2ebe

0.features.2.0.block.1.1.running_mean f4 [32]
-0.66530687 -0.030662928 -0.27499324 -0.033032164 0.26362714 0.3207021 -0.11640605 0.007576497
0.17223316 0.013423582 0.09663373 -0.11172421 0.06447467 0.17048177 0.31230178 0.10086636
-0.13712871 0.29799804 0.3009386 -0.09173135 -0.069256514 -0.14385368 0.0030688941 0.112243146
0.12494622 -0.13110313 0.06311088 0.21268672 0.3218945 0.19896477 -0.009212884 -0.10878573
00000000: 8d51 2abf d230 fbbc eacb 8cbe bc4c 07bd
00000010: 23fa 863e 1133 a43e 4c66 eebd 4344 f83b
00000020: e45d 303e 95ee 5b3c e8e7 c53d aacf e4bd
00000030: 4c0b 843d c692 2e3e 05e6 9f3e 0693 ce3d
00000040: 786b 0cbe 3393 983e a014 9a3e a5dd bbbd
00000050: 5cd6 8dbd 614e 13be 801f 493b bcdf e53d
00000060: cee3 ff3d e63f 06be 4740 813d 8cca 593e
00000070: 5bcf a43e 6cbd 4b3e a3f1 16bc 0ecb debd

0.features.2.0.block.1.1.running_var f4 [32]
0.55652595 0.8649132 0.6604466 1.1725621 0.55420697 0.2800598 0.2490878 1.4092648
0.24005875 0.3881082 0.33006626 0.2720892 0.68930036 1.9409342 0.28535065 0.45739442
0.43883964 1.5504515 0.49346694 0.9296697 0.43217888 0.6252342 0.32405514 0.8641587
0.20227985 0.23659073 0.9556788 0.42823368 0.48109323 0.81736887 1.2259469 0.17609997
00000000: 7c78 0e3f f46a 5d3f 0713 293f 8416 963f
00000010: 82e0 0d3f 0064 8f3e df10 7f3e ca62 b43f
00000020: f6d1 753e 1eb6 c63e 72fe a83e 474f 8b3e
00000030: fd75 303f 8870 f83f 7b19 923e 9a2f ea3e
00000040: 97af e03e 3275 c63f b3a7 fc3e d5fe 6d3f
00000050: 8d46 dd3e 590f 203f 8eea a53e 8139 5d3f
00000060: 7322 4f3e d744 723e 5ea7 743f 7241 db3e
00000070: da51 f63e 163f 513f d4eb 9c3f 8d53 343e
