code/modeling/ckpt/AutoencoderConfig([2, 1, 2], flip=False, rotate=False)/autoencoder_1600.pth (torch, 549962 bytes, 92 tensors)

0.features.0.0.weight f4 [16, 8, 3, 3]
000000 80 ab b3 bb 26 99 95 bd 33 46 53 3c 22 82 e4 bd
       -0.005483091 -0.07304601 0.012895155 -0.11157633
000010 a7 8b 8f bb 73 9d 9d bc e2 4d c0 3c 20 f4 ad ba
       -0.0043806615 -0.019240117 0.023474637 -0.0013271607
000020 3a 58 81 3d 2f be db bc 6d d0 ab bd 75 16 0f 3c
       0.06315656 -0.026824085 -0.083893634 0.0087333815
000030 40 6a f4 3c a4 37 01 be b4 0f 2b bc 96 3e 07 bd
       0.02983582 -0.12618881 -0.010440756 -0.03301867
000040 57 e2 8c bd 15 7a 5b 3d bd 3d 09 3e 20 8b 40 3d
       -0.068791084 0.053583223 0.13402458 0.04700768
000050 f7 64 a9 3d 6c f4 ed bc 80 5a ee bd 7f 8f ad 3d
       0.08271211 -0.029047213 -0.11638355 0.08474635
000060 99 bc 2e 3c 7e cd dd bd 49 90 a4 3c 9b 20 20 3d
       0.010665082 -0.1083021 0.020088332 0.039093595
000070 6c af 16 be 2e 35 ea bc b6 b0 d4 bd 11 9f 97 bc
       -0.14715356 -0.028589811 -0.103852674 -0.018508466
000080 16 4d 2c 3d 7f e2 ff bd 6c 03 bd bd c3 96 34 3d
       0.042065702 -0.124943726 -0.09229168 0.04408909
000090 d9 9f c4 bc 03 15 c1 3d 95 17 dd 3b 4c 34 75 bd
       -0.024002003 0.09427836 0.006747196 -0.059864327
0000a0 1d d9 19 be 40 b3 03 be ed 39 90 3d 84 39 10 be
       -0.15024228 -0.12861347 0.070422985 -0.1408444
0000b0 5d 3a 90 3d 3d d8 e9 bc 3e 03 08 bd eb 52 21 3d
       0.07042382 -0.028545493 -0.033206217 0.039385717
0000c0 e5 9f 18 bd 5f 32 2f be b9 a7 89 3c 31 41 1f 3d
       -0.037261862 -0.17109059 0.01680361 0.03888053
0000d0 db b9 2a 3d ca e2 6b 3c 84 d4 86 3d 14 b7 a5 bd
       0.04168115 0.014397332 0.06583503 -0.0809156
0000e0 f2 6c 12 bd b5 cf ba bd 70 7f 10 be 04 57 bc 3b
       -0.03574843 -0.09121648 -0.14111114 0.0057476778
0000f0 61 87 74 3d 7e f1 0b be 48 60 5b 3d fa bb 8c bd
       0.05969942 -0.1366634 0.053558618 -0.06871791
000100 e8 e0 4d 3d 0e 43 15 3d fc 71 95 bd 3e a9 32 bd
       0.050263315 0.0364409 -0.072971314 -0.043618433
000110 87 36 41 bc 52 8c 85 3c 95 ed b2 bd 07 a3 a6 bc
       -0.0117927855 0.016302262 -0.087367214 -0.02034141
000120 cc c1 fa 3d 16 78 15 3e a9 57 06 bc b3 fe 13 3e
       0.12243995 0.1459659 -0.008199611 0.14452629
000130 f9 5a 76 3e c0 ef 7f bd 70 bd 87 bd 01 e7 bf 3a
       0.24058141 -0.062484503 -0.06627929 0.0014640988
000140 c0 9e 93 bd 12 23 5f bd 66 0b 2e 3c 3d de cf 3d
       -0.072080135 -0.054476805 0.010622835 0.101498105
000150 c7 78 29 3a 26 39 50 bc 75 da ce b9 82 25 4a 3d
       0.00064648356 -0.012708938 -0.00039454145 0.049352176
000160 ae 22 6e 3b fa 86 ad 3c a0 ee a6 bd 44 0b a3 3c
       0.0036336589 0.021182526 -0.08150983 0.019902833
000170 44 a6 fc 3c 73 00 c8 bc bc d2 07 be cc 92 31 3d
       0.030841 -0.024414277 -0.13263983 0.043352887
000180 f5 3c df 3d f9 8c 79 3d 58 f9 16 bd ee 16 8f bd
       0.109002985 0.060925458 -0.036858886 -0.06986795
000190 d5 0f d2 3c 15 5b 80 3d 41 56 25 3d 2b a3 16 3d
       0.025642315 0.062673725 0.04036546 0.036776703
0001a0 f6 59 2e bd cc df 88 ba 9a 6b 6c bd b5 0a 1b 3d
       -0.042566262 -0.0010442673 -0.057719804 0.037852008
0001b0 10 d6 a3 bd 4c e3 b2 3c 54 07 be bd 37 bc 8c bb
       -0.079998136 0.0218369 -0.092787415 -0.004294898
0001c0 cb 28 24 3d be d0 94 3c 26 03 40 bd e6 b8 01 bc
       0.040077966 0.018165942 -0.046878003 -0.007917618
0001d0 ff 1f 62 3d 9f 41 f6 bd 7a f7 04 bd ec b8 8c 3d
       0.055206295 -0.12024235 -0.032462575 0.068712085
0001e0 35 c9 58 bc b3 e9 1b be 8b fb 6f ba 2d 92 86 bc
       -0.013231565 -0.15225868 -0.0009154609 -0.016427124
0001f0 4a b6 99 bd e7 7f d5 3b 3f 81 82 bd b2 c6 1f be
       -0.07505472 0.0065154913 -0.06372308 -0.1560314
000200 41 35 6c 3d 62 29 1b be 28 16 03 3b 0e 07 96 bd
       0.057667974 -0.15152505 0.002000222 -0.07325564
000210 d2 7e 99 3d 9d b4 11 bd ba 7c 51 bc b1 82 ca bd
       0.07494892 -0.035572637 -0.012786085 -0.09888209
000220 b5 30 4a be 0d 79 ec 3d f1 bd f2 3c 4c a9 15 be
       -0.19745143 0.11546526 0.029631587 -0.14615363
000230 66 14 1a bd 3d d2 bf 3d 71 19 c9 3d 5e ed 89 3d
       -0.03761711 0.09366272 0.09819306 0.06734727
000240 da b5 ed bb ca ad 68 3d 4f bc ee bb 62 f3 8d bd
       -0.0072543444 0.056806363 -0.0072856317 -0.06931187
000250 62 3e 10 3d 0e 81 d6 3d e4 8f a1 bd 92 8a 04 bd
       0.035215743 0.10473834 -0.07888773 -0.032358713
000260 3d fa 81 bd e3 54 20 bc 58 e1 b8 bd 48 5b 47 bd
       -0.06346557 -0.009785864 -0.09027356 -0.048671037
000270 b2 8d f8 bd 49 4e cd bd d1 90 b4 bd c0 ca b1 bd
       -0.12136401 -0.10024697 -0.08816684 -0.086812496
000280 1d 6b 08 bd 99 a3 f3 bd 49 8e 46 3d 43 58 28 bd
       -0.033305276 -0.11896438 0.048475537 -0.041099798
000290 7c 07 7c bc ab a4 a0 bd 7c 6d 97 bd ce 4c 8b bd
       -0.015382644 -0.07843908 -0.07393929 -0.06801759
0002a0 05 f7 36 bd b2 2b ea bd 39 de 9b bc 9e 01 5b bd
       -0.04466917 -0.114341155 -0.019026862 -0.05346834
0002b0 58 ee 84 3b 24 b7 5c 3d 6a 8f a1 bb 85 07 5c bd
       0.004056733 0.053885594 -0.0049304264 -0.05371811
0002c0 8e e4 db bb 6e 0b 59 bd 33 a8 97 3d f0 32 8d bd
       -0.0067105955 -0.052989416 0.07405128 -0.06894481
0002d0 46 45 91 ba a2 de 16 3d 32 8c bb 3d e3 8f 9e bc
       -0.0011083267 0.036833413 0.091575995 -0.01935572
0002e0 aa 56 f8 bb 33 f6 cf bc d4 26 88 3d 4f 6e 7a 3d
       -0.0075786905 -0.025385952 0.06648031 0.061140355
0002f0 f9 98 a8 bd 60 f6 17 3d c2 c4 53 3d 48 dd 88 bd
       -0.08232302 0.037100196 0.051701315 -0.06682831
000300 5e 3c 65 3c 04 73 31 3d d4 35 d0 3d 1e ff 81 3d
       0.013991443 0.043322578 0.10166517 0.06347488
000310 5d 44 08 bd 51 77 85 3c 30 6d f2 3c f1 7f 38 3d
       -0.03326832 0.016292246 0.02959308 0.04504389
000320 b1 a3 47 3c 8a bb 89 3c 30 81 ca 3b a1 21 08 be
       0.012185023 0.016813058 0.006179951 -0.13294078
000330 63 e2 9e bd 39 e8 cb 3d f1 b3 ea bc fd 18 0a bc
       -0.077580236 0.09956402 -0.028650256 -0.008428809
000340 29 6a 8f 3d 13 e2 ad bd 48 f1 97 3d 09 01 23 bd
       0.0700267 -0.08490386 0.074190676 -0.03979591
000350 66 0b 93 3d 51 ae 81 3d f3 96 85 3c cd a2 0f 3d
       0.071799085 0.06332076 0.01630733 0.03506737
000360 37 59 9f bc 67 ef e0 bd 17 d4 21 bd 69 45 d4 bd
       -0.01945172 -0.109831624 -0.039508905 -0.103648014
000370 90 77 c5 bd 58 e8 87 bd 5e 7c 55 3d f6 6b b7 bc
       -0.09641945 -0.06636113 0.05212056 -0.022390347
000380 15 d3 c4 3d e8 d3 cd 3d 93 ae 74 bc 4e 87 a3 bd
       0.09610573 0.100501835 -0.0149342 -0.07984792
000390 22 f9 27 bc dd c5 00 3d e1 a4 ba 3d 9d 47 8c bd
       -0.010252269 0.031438697 0.091134794 -0.06849597
0003a0 48 11 15 3d af 1a 82 bc 9b 03 9e 3c e3 5f 15 bd
       0.036393434 -0.015881864 0.019288829 -0.036468398
0003b0 cc 9a a1 3d ec b1 fc 3d 30 ba d0 3d 9f 48 ae 3c
       0.07890853 0.123386234 0.101917624 0.021274863
0003c0 37 00 44 3d 38 49 30 bc 27 3b 67 3d 76 d8 a8 bd
       0.047851767 -0.010759644 0.056452896 -0.08244412
0003d0 e3 4c 2e be a9 cf ab bc 02 86 18 3c 04 c8 84 be
       -0.17021517 -0.020973044 0.009309294 -0.2593385
0003e0 2d db ef bd 51 62 72 3d 4d 10 7f 3d f8 ba d9 bb
       -0.11711726 0.059175793 0.062271405 -0.006644603
0003f0 eb ac 50 bb d9 14 13 be 6e 65 8c 3d 8d 3b e6 bd
       -0.0031841348 -0.14363421 0.06855284 -0.11241827

0.features.0.1.weight f4 [16]
000000 90 04 7a 3f 2a 7f 6a 3f 5e e4 6d 3f be 01 83 3f
       0.9766321 0.91600287 0.92926586 1.0234907
000010 65 e5 81 3f 7a ed 61 3f f8 2d 67 3f 33 bf 70 3f
       1.0148131 0.88252985 0.9030452 0.94041747
000020 69 4d 82 3f 7f e2 6f 3f 9f c1 78 3f a9 40 7c 3f
       1.0179874 0.9370498 0.9717044 0.98536164
000030 03 42 83 3f 8c 95 74 3f 70 1a 73 3f 32 4d 55 3f
       1.025452 0.9554069 0.94962215 0.83320916

0.features.0.1.bias f4 [16]
000000 32 b0 9e 3e 1a fd 10 3e 47 9d 4a 3e e7 e8 fd 3d
       0.309938 0.1415905 0.19786559 0.12397938
000010 bf 98 25 3e 44 95 71 3e 13 6e 4c 3e 6b 47 6b 3e
       0.1617155 0.23592097 0.19963865 0.22976463
000020 bf 85 3b 3e 9a c7 52 3e 0d c9 fb 3d e9 56 db 3d
       0.18312739 0.20583954 0.12294207 0.10709936
000030 ce c1 62 3e 49 87 18 3e 37 2f 46 3e f2 09 3e 3f
       0.22144243 0.14895357 0.19353949 0.74233925

0.features.0.1.running_mean f4 [16]
000000 d0 77 0c b7 a4 66 22 3a 8c b6 b4 38 38 71 50 ba
       -8.372546e-06 0.0006195104 8.617071e-05 -0.0007951441
000010 3d f2 29 3a fd e8 c5 38 a3 3f 3b ba 59 24 ea 38
       0.00064829347 9.4370895e-05 -0.00071429665 0.0001116476
000020 90 72 33 3a 6f c8 df 39 63 cc 9d 3a 3d 4d 42 39
       0.0006845379 0.0004268321 0.0012039061 0.00018530055
000030 81 65 8d ba 1f 2a f9 b5 c1 86 ba 39 87 79 e0 b9
       -0.0010787697 -1.8564205e-06 0.00035577084 -0.00042815154

0.features.0.1.running_var f4 [16]
000000 42 9a 89 3f f4 c1 7e 3f e7 54 51 3f 90 25 bb 3f
       1.0750201 0.995147 0.81770176 1.4620838
000010 29 09 91 3f 2f dd 50 3f 07 25 2c 3f 9a 97 3a 3f
       1.133092 0.815875 0.67244 0.72887576
000020 43 67 c2 3e d9 79 52 3f 0d 57 0d 3f 16 a8 06 40
       0.37969407 0.82217175 0.55210954 2.1040092
000030 b2 1b b5 3f d9 36 09 3f 03 ab 7d 3f a5 f2 27 3f
       1.4149077 0.53599316 0.9908907 0.6560462

0.features.1.0.block.0.0.weight f4 [16, 16, 3, 3]
000000 16 3c 26 be b8 bb 28 3c e5 8f 10 bc 8e 78 f3 3c
       -0.16233858 0.010298662 -0.00882337 0.02972057
000010 ac 8c 3e 3c 60 83 64 3e aa df dc 3c 52 80 13 bd
       0.0116302185 0.2231574 0.02696212 -0.036011048
000020 50 a1 fd 3b 18 c8 4b bc ba 21 da bc 3b 10 07 be
       0.007740177 -0.012437843 -0.02662741 -0.13189785
000030 d2 80 5f be e5 d1 46 3c 11 d7 29 3d d3 78 61 3e
       -0.21826485 0.012135004 0.04146487 0.22018747
000040 c8 77 33 be ea 9f d7 bd 01 b3 f6 3c e2 52 93 3e
       -0.17526162 -0.10528548 0.030114653 0.28774172
000050 d7 cc a8 3b 92 d4 e1 3d ea 7e 48 be a5 df 1f 3d
       0.005151372 0.11026873 -0.19579664 0.039031643
000060 52 24 63 bd 92 6d 03 3c 04 9f 74 bd 39 f6 86 bd
       -0.05545456 0.008021729 -0.05972196 -0.06589932
000070 1c 7f 9f 3d f6 cb 1f bd 4c 66 11 3e d2 f2 6f 3d
       0.07787916 -0.03901287 0.1419918 0.05858118
000080 62 d8 e1 3d 1d cf a8 bc 96 b3 a2 3a 65 c0 d4 3b
       0.110276 -0.020606572 0.001241314 0.006492662
000090 7b 60 7c 3c 9f 83 ef bd cb f9 2c bc f9 97 6a 3d
       0.015403862 -0.116950266 -0.010557602 0.05727384
0000a0 4c 17 8e 3d d5 9d 32 3e 7e 7d 14 be 1c 83 44 3d
       0.06938037 0.1744302 -0.14500996 0.0479766
0000b0 df 0d ba 3d e2 45 23 be 0a 47 bf bd 8b 43 27 be
       0.09084677 -0.15944627 -0.093397215 -0.1633436
0000c0 13 21 36 be 4a ca 8d 3d 0f 0e d4 bc 7d 3c 03 be
       -0.17786054 0.06923349 -0.02588561 -0.12816043
0000d0 31 5c 28 be 5e 24 f5 bd 6d 8c f8 3a 4a 34 43 bc
       -0.16441418 -0.11969827 0.0018962749 -0.011914322
0000e0 6d eb 13 be 5d c4 5e 3d f4 aa 2e be 7f 83 3e 3d
       -0.14445277 0.054386485 -0.17057401 0.046512123
0000f0 3e 36 cd ba 2f ff 54 3c 48 f2 ab 3d 9b e8 21 be
       -0.0015656424 0.013000294 0.08395821 -0.15811388
000100 2a 44 cc bd 56 57 5c bd 92 2d 4e bd 04 12 9c 3d
       -0.09973939 -0.053794228 -0.050336428 0.07620624
000110 e5 e3 fa bd f8 73 1b be b2 8e c6 bd 74 ee 11 be
       -0.12250499 -0.15180957 -0.09695186 -0.14251119
000120 b6 df 13 bd 6c c3 81 3d 21 80 0a 3d d7 50 6a 3c
       -0.03610202 0.06336102 0.0338136 0.0143015
000130 71 fb 54 be ac 96 09 3b ed bf 17 be fb 69 0d 3d
       -0.20799042 0.0020994348 -0.14819308 0.0345249
000140 aa 6a 8b bd a8 43 eb bd 76 f2 a1 bc ea e8 5b be
       -0.06807454 -0.11487514 -0.019768935 -0.21475568
000150 d2 c9 fe bd 7a 2e e6 3d 84 18 8b 3d dd 5d 92 bd
       -0.12440838 0.112393335 0.06791785 -0.07146809
000160 d7 29 82 bc 49 b4 26 3e 02 f9 91 bd 50 cb cd bd
       -0.015889091 0.16279711 -0.071275726 -0.100485444
000170 84 88 05 be fc 3a c1 bd b2 23 b2 bd 3d cd ca 3d
       -0.13040358 -0.094350785 -0.086982146 0.09902427
000180 1f 01 1c 3e e1 e9 1e bc 8f fb 8a be 2c 2e 2d be
       0.15234803 -0.009699316 -0.2714505 -0.16912144
000190 6f fe 8b bd b7 9a 21 be cd 9e 0e bd 92 10 6d bd
       -0.06835639 -0.15781675 -0.034819413 -0.05787713
0001a0 02 40 8d bd 92 40 55 be 90 89 da bd ba b4 f5 bc
       -0.06896974 -0.20825413 -0.10670769 -0.029993404
0001b0 83 a9 c1 3d eb 45 5c bc fe bd 97 bd 8f 50 c1 3b
       0.0945616 -0.013444404 -0.07409285 0.005899496
0001c0 0c 09 45 bc 58 d4 ed bc bd 2b 6e bd f2 2d c2 bd
       -0.012026083 -0.029031917 -0.05814718 -0.094814196
0001d0 8f cd b8 3d b0 cf d4 bd 11 54 80 bd 4d 0a 4f be
       0.09023582 -0.10391176 -0.062660344 -0.20218773
0001e0 e3 74 77 be a0 6b 1a 3e cc 97 17 be d5 79 45 be
       -0.24165682 0.15080118 -0.14804 -0.19284756
0001f0 8c 7a c9 bd 99 72 14 be 51 e8 14 be ff e9 83 be
       -0.09837827 -0.1449684 -0.14541747 -0.25764462
000200 87 86 07 3e f0 72 a4 39 72 ac 69 be 0b 31 44 bd
       0.13234912 0.00031366153 -0.22819689 -0.047898334
000210 e9 da 98 3d 33 64 82 3d d2 ba 9b 3c d5 21 21 be
       0.07463629 0.06366768 0.019009981 -0.15735562
000220 29 ae 2d bd 09 2d 83 bd 29 75 07 be cb 49 4c 3c
       -0.04240242 -0.06405074 -0.13228287 0.0124687655
000230 9f fb 61 bd 5e 5e 4b 3e a8 4d 51 be a5 43 0f 3e
       -0.055171605 0.19860217 -0.2043978 0.13990648
000240 12 34 91 3d 17 68 be 3d c5 be 9f 3d 5c a2 7f 3d
       0.0709001 0.09297197 0.07800058 0.062410697
000250 c7 b1 7f bc b7 97 88 bd e8 59 6d 3d df 5d 02 3e
       -0.01560635 -0.06669562 0.05794707 0.12731121
000260 7f 20 2a bd 00 70 f7 3b 86 8c 57 3d 96 c9 77 3d
       -0.041534897 0.0075511932 0.052624248 0.06049498
000270 82 95 0e be c7 dd 72 3e d3 c9 5a 3e 16 e3 03 be
       -0.1392422 0.23717414 0.21366052 -0.12879595
000280 dd b3 6a bb 99 46 f1 3b e6 b5 b9 bd 02 4f 09 3e
       -0.0035812773 0.007363152 -0.090678975 0.13409045
000290 39 11 04 be 8e 3c 52 3e dc f3 2f be 43 2f f7 bd
       -0.12897195 0.20530912 -0.17182869 -0.12069561
0002a0 b1 b4 82 3d a0 d3 68 be 2f 79 ed bd 2a 0b 3c 3e
       0.063821204 -0.22736979 -0.115953796 0.18363634
0002b0 b5 17 8d bd 47 53 80 3e 54 e8 e1 bd 7a c9 06 bc
       -0.068892874 0.25063536 -0.11030641 -0.008226747
0002c0 9a c0 26 3d ad 38 d3 bd a1 33 50 bc 04 b1 bb bd
       0.040711023 -0.103135444 -0.012707622 -0.091646224
0002d0 74 cd 57 3d 06 29 11 3e 51 5f 8e 3d 15 3e 69 3d
       0.05268617 0.14175805 0.06951774 0.05694397
0002e0 35 a6 a9 3c 3a 62 90 bc 80 6f 62 3d 0f 09 08 3e
       0.020709137 -0.017624963 0.055282116 0.13284706
0002f0 2f 33 9d 3d 7d dd a5 bb 46 e8 b0 bd eb f1 dc b9
       0.07675778 -0.005061804 -0.08638053 -0.00042141913
000300 c1 0d 27 3d a5 b1 85 3e 11 f7 80 bd ba 67 cb bd
       0.0407846 0.26112095 -0.06297124 -0.09931894
000310 64 d2 d1 bc 1f 78 4b 3d 53 9a 0f 3e 12 de 2e 3e
       -0.025613017 0.049675103 0.14023714 0.170769
000320 6c 2a 06 be 7a 31 c5 bd e8 09 93 bb e9 a9 2d bd
       -0.1310212 -0.096285775 -0.004487265 -0.042398367
000330 19 8c fa 3d fe 7d 1a 3e 8f 50 c4 bc 79 7c 46 3c
       0.12233753 0.15087125 -0.023964195 0.0121146375
000340 49 ad 37 be 74 d0 00 be 3b c7 12 be 0b e5 43 be
       -0.17937197 -0.12579519 -0.14333813 -0.19130342
000350 3c 7b 09 3e f0 3c 13 3e b0 41 8f bd ba 73 b0 bd
       0.13425916 0.14378715 -0.06994951 -0.08615823
000360 7b c0 0c be 15 45 d7 bd 44 65 d9 3d 65 db 98 3d
       -0.137453 -0.10511223 0.10615018 0.07463721
000370 2c ac ff 3d 04 53 01 3e f4 6e 04 3d 88 f5 a5 3d
       0.12484011 0.12629324 0.032332376 0.08103472
000380 d2 cf c4 bd 7a c0 16 be ea f8 9b 3d ef ce 4a bd
       -0.09609951 -0.14721861 0.07615836 -0.049513754
000390 98 a4 ea 3c 1f e4 9f bd ee 22 d4 3c 43 71 f5 3c
       0.028642938 -0.078071825 0.025895562 0.029961234
0003a0 5b 43 ae bc 9f 93 2f 3e 77 09 52 3e 70 c8 6d bc
       -0.021272352 0.17146157 0.20511423 -0.01451312
0003b0 55 3a 15 3d 95 30 35 bc 5d c6 c0 bd 19 33 39 bc
       0.036432583 -0.011058946 -0.09412835 -0.011303687
0003c0 79 72 9e 3c 7f e5 27 bd 7b b7 2d be 6a 52 a9 3c
       0.019341694 -0.04099035 -0.16964523 0.02066918
0003d0 96 7e 82 3e 53 e4 0b bd 5e 28 82 bd 87 90 b7 3e
       0.25487202 -0.034153294 -0.06355356 0.35852453
0003e0 bd ea 13 3e fc 58 9d bd 73 18 ef bc 4b 1f 96 3b
       0.14445014 -0.07682988 -0.029186463 0.004581367
0003f0 c4 f0 13 bb 44 0f 9c bd a6 7a 53 be be c4 3b 3d
       -0.0022573927 -0.07620099 -0.20652255 0.045841925

0.features.1.0.block.0.1.weight f4 [16]
000000 74 e0 55 3f 78 30 75 3f 22 9c 7c 3f 99 0e 6a 3f
       0.83545613 0.9577708 0.9867574 0.91428524
000010 54 a1 57 3f ea a3 62 3f 93 b3 65 3f 6c 31 55 3f
       0.8423054 0.88531363 0.89727134 0.83278537
000020 d2 a9 72 3f e7 82 68 3f 2b 28 6f 3f 6d c0 66 3f
       0.94790375 0.9082474 0.93420666 0.9013737
000030 e3 4f 4f 3f 94 d2 77 3f ac 33 84 3f c1 e6 71 3f
       0.8098127 0.9680569 1.0328269 0.9449273

0.features.1.0.block.0.1.bias f4 [16]
000000 0e 7c 89 3a 8f 4c 4a 3e da e6 49 3d 76 42 b3 3e
       0.0010489242 0.19755767 0.049292423 0.35011643
000010 69 4f 6a 3e 18 9a f0 3d dd 98 58 3d 14 32 d6 3c
       0.22881855 0.11748141 0.052880157 0.026146926
000020 4b b1 a1 3d 93 c8 d4 3e 07 fc 04 3e 05 90 bc 3d
       0.07895144 0.41559276 0.12986766 0.09207157
000030 74 43 05 3e 38 76 e5 3d f5 bd 17 3d 74 6a 2b 3d
       0.13014013 0.11204189 0.03704639 0.04184957

0.features.1.0.block.0.1.running_mean f4 [16]
000000 c4 b1 c1 bf 50 2b 2c 3f 39 6c 4b bb de 01 94 3e
       -1.5132375 0.6725359 -0.0031039848 0.28907675
000010 3d 1a 89 3e 42 fa 0f 3f 2e 54 6c 3e a5 fc 2d bd
       0.2677783 0.5624124 0.23078987 -0.04247727
000020 b1 a8 23 3f 2b b8 95 3e 88 52 24 be 64 fa 05 bf
       0.6392928 0.29242072 -0.16047108 -0.5233519
000030 f6 6b 03 be 90 93 1d 3d 04 2b 2a 3e b0 e4 b3 be
       -0.12834153 0.038470805 0.16617972 -0.35135412

0.features.1.0.block.0.1.running_var f4 [16]
000000 c2 c8 ed 3f d3 20 02 40 94 30 2d 40 a1 39 a0 3f
       1.8576891 2.0332534 2.70609 1.2517587
000010 f7 a2 24 3f 44 f2 5b 40 f0 75 73 3f 94 0e cd 3f
       0.64311165 3.4366617 0.95101833 1.6020074
000020 4e 71 a7 40 36 51 05 40 eb 19 7c 40 91 d3 b0 3f
       5.232581 2.0830817 3.939082 1.3814565
000030 53 8f 02 40 7f 7d ee 3f 1d a2 e6 3f 4b 1f 8b 40
       2.0399978 1.8632048 1.8018223 4.34757

0.features.1.1.block.0.0.weight f4 [16, 16, 3, 3]
000000 82 8c 20 be 76 38 8e 3d 1d 6a a1 3d 10 2c b4 3d
       -0.156786 0.06944363 0.078815676 0.08797467
000010 c3 8a 03 3d 76 e1 62 3e 97 e2 91 bd 55 92 35 3e
       0.032114755 0.22156319 -0.07123297 0.17731602
000020 24 56 72 3e e4 90 0d be 16 28 9f bd 97 0f dc bc
       0.23665673 -0.13824803 -0.07771318 -0.026862903
000030 14 ae b1 bd 3d 44 1f be e6 63 92 bd 40 b2 7e be
       -0.08675781 -0.15553375 -0.0714796 -0.24872684
000040 42 0d 8f 3d 8c d2 33 be 29 01 a3 bd 5e 07 8f 3e
       0.069849506 -0.17560786 -0.07959206 0.27935308
000050 19 a9 00 3c d5 9e 4f 3d ca 3b 44 3c c7 84 17 3e
       0.007852816 0.050688583 0.011977145 0.14796744
000060 48 ed 45 3d 8b d4 13 3d 7a b6 8c bd 5c ac dd bd
       0.048321992 0.03609137 -0.06870742 -0.108238906
000070 0b d8 47 bd 20 a5 2c be ea 3a 7b be 1b 8a 9d 3c
       -0.04879002 -0.16859865 -0.24534193 0.019230893
000080 99 2b 12 3d 5b 56 32 bd 06 11 fe bd 83 20 6e be
       0.03568611 -0.043539386 -0.12405591 -0.2325459
000090 53 15 9b bd bd 2b 76 be a1 78 c2 3c 8a 19 9d bd
       -0.07572427 -0.24040122 0.023739161 -0.07670887
0000a0 0c af a4 3d 52 70 56 be 8e 0c 6b be 4a b9 95 be
       0.080412 -0.20941284 -0.22954008 -0.29242927
0000b0 af 04 b1 bd d3 e0 44 bd 75 37 7f 3d f1 84 77 bc
       -0.086434714 -0.04806597 0.062308747 -0.015107379
0000c0 fd bd aa 3d c3 3f ff bd 8d ef 83 bb d8 f6 1f 3d
       0.08337019 -0.124633335 -0.0040263594 0.039053768
0000d0 32 fb 29 be 6b 57 19 3e 07 50 d4 3d aa 6f 26 3d
       -0.1659973 0.14974754 0.103668265 0.040633835
0000e0 b6 6b 37 be 71 b8 5c bd 1a 71 bc 3d 28 2d 06 be
       -0.17912182 -0.053886835 0.0920126 -0.13103163
0000f0 55 33 0b be 45 0b 3d 3d b4 22 b6 bd 86 74 bd 3c
       -0.135938 0.046153326 -0.08893338 0.023126852
000100 85 be 19 be 48 7f 7d be f4 52 aa 3d 6d 3e 98 bd
       -0.15014084 -0.24755585 0.08316603 -0.07433782
000110 e8 00 1e bc 03 03 c9 3d d4 c3 15 bd eb af c8 3d
       -0.009643771 0.098150276 -0.03656371 0.09799179
000120 5b b9 4b be 83 bd 26 be cc 67 84 be 9d 60 6b be
       -0.19894926 -0.1628323 -0.2586044 -0.22986074
000130 fa c9 08 3e 1a 40 68 bd 0a c1 b6 3d 48 f4 2b bd
       0.13358298 -0.056701757 0.08923538 -0.04198101
000140 b1 45 d3 3d 13 86 c7 bd ad b3 35 be 3f d2 f3 bd
       0.10316027 -0.097423695 -0.17744322 -0.11905336
000150 a7 cb 85 be 91 1c 01 be a5 0f 8d 3e 94 63 a4 3c
       -0.26131937 -0.12608553 0.27550998 0.020067014
000160 aa c5 f2 bd 36 c6 14 be 57 e3 86 bb b6 f3 e1 bd
       -0.11854108 -0.14528736 -0.0041164565 -0.11032812
000170 de 0b a4 3c 55 27 19 be f3 9e 02 be d6 fc 92 3d
       0.02002519 -0.1495641 -0.12755947 0.07177131
000180 88 c6 29 3e 07 a0 21 3e 2b 57 95 3d 87 29 97 3e
       0.1657964 0.15783702 0.072920166 0.2952387
000190 48 92 6b bd 92 3a 3c bd 21 de 0f 3c 8e 52 29 be
       -0.05751255 -0.045954295 0.008780987 -0.16535398
0001a0 83 9a 8f bd 63 c8 3f 3e e1 13 79 3c 2f ba 7c 3e
       -0.07011893 0.18728785 0.015202493 0.24680398
0001b0 84 b6 5c bd f2 39 19 3e 88 04 f8 3d b6 a5 cc bd
       -0.053884998 0.1496351 0.12110239 -0.09992544
0001c0 3b 07 a0 bc 65 76 d4 bd 19 bc 06 3d d8 f0 13 be
       -0.019534698 -0.103741445 0.032894228 -0.14447343
0001d0 1f 97 e0 3c 8c be 81 3d f5 f7 2a be 22 ce b8 3d
       0.02741581 0.06335172 -0.1669615 0.09023692
0001e0 3e 4a 02 be 2c f8 25 bd 63 c0 26 bc 59 e3 0c bb
       -0.12723634 -0.04051988 -0.0101777045 -0.0021497814
0001f0 8d e1 73 bc e8 14 7c bd 6d c6 4b 3b 8f e7 ee bc
       -0.014885318 -0.061543375 0.0031093613 -0.02916315
000200 5c 0f 0a be 9a 7f 28 3e a1 5b 2d be 35 54 3d bd
       -0.13482422 0.16454926 -0.16929485 -0.046222884
000210 da 6b 0e 3e d4 17 1f bd 5c 65 89 bd 1a 58 a2 39
       0.1390833 -0.038841084 -0.06708786 0.0003096469
000220 e3 1a 32 be 8f 77 51 bd 06 83 e1 3c 44 48 63 bd
       -0.17393069 -0.05113941 0.027528297 -0.05548884
000230 13 5a 03 be 86 04 0d bc 74 ce 71 bd cc d2 36 3d
       -0.1282733 -0.0086070355 -0.05903478 0.044634625
000240 4a ca 3c bd 36 5c 06 3c f4 2f 69 3d 4e 16 0a be
       -0.046091355 0.008200696 0.056930497 -0.13485071
000250 2c 61 5b be 6b 15 4f b9 c9 9a 84 bc 0a 69 68 3d
       -0.21423787 -0.00019749037 -0.016187089 0.056740798
000260 01 2b 80 3d 9a 10 f6 3d d1 ef 46 bd 8e 66 b5 be
       0.06258202 0.12014885 -0.04856855 -0.35429806
000270 4d 72 4f be ea 8d 21 3e 2f cc 2e 3b 90 55 c8 3c
       -0.20258446 0.15776792 0.0026671996 0.024454862
000280 d7 11 95 3b 68 ad 5d bd 48 55 7f 3d 81 75 e0 bd
       0.004549246 -0.05412045 0.06233719 -0.10959912
000290 2f 04 b3 bd 1d aa 41 be 39 29 35 be 9f 82 ec bc
       -0.08741032 -0.1891255 -0.17691506 -0.028870879
0002a0 99 73 9e bd 3f 4a 2c bd 31 0f 81 be 7b 48 80 bd
       -0.07736892 -0.042062994 -0.25206903 -0.062638246
0002b0 8a 85 22 3d f7 72 08 3d 44 ab 86 3d f4 99 92 bd
       0.039678134 0.033312764 0.06575635 -0.071582705
0002c0 33 65 24 3e 33 8c 07 bd 95 6b 8b 3d f1 93 4c 3e
       0.1605423 -0.03309269 0.06807629 0.1997831
0002d0 b5 4c 7b bd a0 ab d2 3d ed d3 0a 3e 33 a5 bf 3d
       -0.06135245 0.10286641 0.13557406 0.09357681
0002e0 14 26 de 3d 41 30 0c 3e 86 74 80 3d f1 ca 0c bd
       0.108471066 0.13690282 0.06272225 -0.034373228
0002f0 ae eb d3 3d 30 f8 23 3e 83 24 00 3e 27 5d f6 bd
       0.10347687 0.16012645 0.12513928 -0.12029486
000300 fd 58 be bd cd 77 3d 3d 66 0b 3a be cf b2 86 3a
       -0.09294317 0.04625683 -0.1816841 0.0010276678
000310 0c ae 49 3c c9 83 ca bc 1b 99 b3 ba 79 10 f3 3b
       0.012309562 -0.024721043 -0.0013702245 0.007417735
000320 9a 4b 03 3e b2 8e 28 bb 55 54 07 be 3c b5 a4 bc
       0.12821808 -0.0025719819 -0.13215764 -0.02010595
000330 61 18 d3 bd 07 25 19 3e e0 21 13 3d be 0c 08 3c
       -0.10307384 0.14955531 0.035920978 0.008303819
000340 83 d6 42 bd f3 a6 83 bd ae 17 24 be 40 a3 52 3e
       -0.047567856 -0.064283274 -0.16024658 0.20570087
000350 ec 5d 84 bd 01 50 21 be e9 ca 85 3e cc d8 20 bd
       -0.06463227 -0.15753175 0.2613137 -0.039269254
000360 44 c0 e8 bc d6 6b e5 3c 2f b8 39 be c1 ca 05 3d
       -0.028411992 0.028005522 -0.18136667 0.032664064
000370 ea 8f 39 bd 49 2d 95 3d 7b 96 45 bd 3f 84 35 3e
       -0.045303263 0.07284028 -0.048239212 0.17726229
000380 68 30 23 3e 6c e7 2a bd 0b d9 a6 3d b6 85 5d 3d
       0.15936434 -0.041724607 0.081468664 0.054082595
000390 0a d5 82 bd f4 97 49 be 6b 45 f8 3c 31 55 ae bd
       -0.0638829 -0.19686872 0.030306539 -0.08512343
0003a0 3c 67 86 bb 10 69 85 bd 90 25 1a be 48 ce 77 bd
       -0.004101662 -0.0651418 -0.15053391 -0.06049946
0003b0 30 3a 19 be a5 6a 9b bd 2f c1 27 bd 0a bd a6 bd
       -0.14963603 -0.075887 -0.04095572 -0.08141525
0003c0 4d d7 82 3d 22 06 08 be ff 07 b6 3c 00 22 c1 3d
       0.063887216 -0.1328359 0.02222061 0.09430313
0003d0 e3 ec b7 bd e4 c7 a7 bd 37 3d 96 3d ce 02 65 bb
       -0.089807294 -0.08192423 0.073358946 -0.0034944299
0003e0 e4 f3 c5 3d 67 cf a0 bd 2c 5b 1a be df 05 d4 3c
       0.09665659 -0.07852059 -0.15073842 0.025881706
0003f0 a1 5c 9b 3d cd e5 0d be cd 7e 9e be 86 6b 57 b9
       0.07586027 -0.13857193 -0.30956116 -0.00020544053

0.features.1.1.block.0.1.weight f4 [16]
000000 2e e5 98 3f d6 7f 53 3f 45 38 68 3f 14 5a 58 3f
       1.194494 0.8261694 0.9071086 0.8451245
000010 4c 95 5a 3f 5f 25 6e 3f 71 ab 6c 3f 53 4a 7b 3f
       0.8538406 0.93025774 0.924491 0.98160285
000020 c7 54 4e 3f b4 1c 47 3f c5 7a 66 3f ab f8 69 3f
       0.8059811 0.7777817 0.9003108 0.9139506
000030 99 6f 70 3f 5c 70 4f 3f 05 f6 79 3f a1 12 3f 3f
       0.93920285 0.8103082 0.9764102 0.746378

0.features.1.1.block.0.1.bias f4 [16]
000000 b8 f9 be 3c cb 64 96 3c 55 54 1e bd b7 1b 68 3d
       0.023312435 0.018358609 -0.038654644 0.056667056
000010 20 cc 3d bb 7c bb 57 3d ee 18 80 bc d3 25 df 3d
       -0.002896078 0.052669033 -0.015636887 0.10895886
000020 43 f8 fc bd ca d7 02 be c9 eb df ba 5d 01 f9 3c
       -0.1235204 -0.1277763 -0.0017083819 0.030396158
000030 ce 04 e8 bc 03 82 17 be 2a 4e b0 3d 9c 61 bc bd
       -0.028322604 -0.1479569 0.086086586 -0.09198305

0.features.1.1.block.0.1.running_mean f4 [16]
000000 0e b3 1e c0 75 92 d4 bf f2 d4 86 bf 92 5b 48 bf
       -2.4796786 -1.6607195 -1.0533736 -0.78264725
000010 bd c1 bc 3e c3 a8 3a c0 77 9e 81 bf 17 cb 87 be
       0.3686656 -2.9165504 -1.0126485 -0.26522133
000020 e9 0d 25 3f cf 89 e8 3d ff 76 8e bf 89 7a 80 3f
       0.6447435 0.1135441 -1.1130065 1.0037395
000030 4a 7e 84 bf 24 f6 05 c0 9f 6d d4 be 6e 25 b2 bf
       -1.035104 -2.0931482 -0.41489884 -1.3917673

0.features.1.1.block.0.1.running_var f4 [16]
000000 01 8c 0f 41 80 25 a5 40 cc b1 dd 40 af e7 01 40
       8.971681 5.1608276 6.9279537 2.0297658
000010 03 8b b2 40 fd 44 eb 40 05 2c 95 40 de a0 b1 40
       5.579469 7.3521714 4.6616235 5.550887
000020 38 5f 0a 41 75 3d d4 40 f7 39 a1 40 e7 2b 3b 41
       8.648247 6.632502 5.038326 11.698218
000030 28 e2 df 40 e0 9b a9 40 11 50 bd 40 db 8d 80 40
       6.996357 5.3002777 5.9160237 4.0173163

0.features.2.0.block.0.0.weight f4 [64, 16, 3, 3]
000000 86 0a 5c 3b 7e 3e 7f 3d b6 87 49 bd 4c 04 b9 bc
       0.0033575608 0.062315457 -0.04920169 -0.022585057
000010 a5 b2 4e 3c da 00 e6 3c e4 bc f6 3c 46 27 ab 3d
       0.012615834 0.028076578 0.030119367 0.083571
000020 68 12 4f bd 15 cf 31 3d b7 fc 33 3d 68 a2 20 3d
       -0.050554663 0.04341038 0.04394218 0.039217383
000030 3a 02 bd bd 68 21 2f 3b 7b 1e 07 3d 04 c4 ab bd
       -0.0922894 0.0026722793 0.032988053 -0.083869964
000040 a1 e2 88 bb 5b 53 28 3d 40 9a 0e bd 1e 4d 61 bc
       -0.004177407 0.04109512 -0.034815073 -0.013751296
000050 70 c2 ac bd 40 ef 0a 3d db 25 5a 3d 42 99 cc bd
       -0.084355235 0.033919573 0.053258758 -0.09990169
000060 29 7e a3 bd b8 da c6 3c ee 49 00 3d a4 6f c3 3d
       -0.079830475 0.024274215 0.031320505 0.09542778
000070 0c 75 d9 3b e1 1a 6e bd 33 bf f4 bc 75 f8 2d 3d
       0.0066362675 -0.058131102 -0.029876327 0.042473275
000080 3f e0 9b bc 98 40 2c bd d0 fe 1c 3d 10 ac 8c bd
       -0.019027827 -0.04205379 0.038328946 -0.06868756
000090 2d 5d 68 bd cd b8 94 bd 0d 51 f4 3b 92 de ad bb
       -0.056729484 -0.072618105 0.007455951 -0.0053060735
0000a0 a0 72 2f bb d2 b3 14 be 42 9d ae bc f4 1b 28 b9
       -0.0026771203 -0.14521721 -0.02131522 -0.00016032142
0000b0 17 d6 8d 3d de bc d9 bc 52 af d8 3d a3 0e 50 3c
       0.069256 -0.026579317 0.10580315 0.012698802
0000c0 af ab 48 bd 3d d8 ef bd 4e e6 03 3e c6 3f 0d 3d
       -0.048991855 -0.11711166 0.12880823 0.034484647
0000d0 0e eb 49 3d 50 62 28 bc 59 a7 35 3d 9e 52 a2 bb
       0.04929643 -0.010277346 0.04434905 -0.0049536964
0000e0 ba 62 a1 bd 8c 2a 6c 3c 98 73 8e ba a2 02 08 3b
       -0.07880159 0.014414441 -0.001086819 0.0020753522
0000f0 84 17 a8 3d ae 0d 7b bd b3 f2 9c 3d 36 6d ba bc
       0.0820761 -0.061292343 0.07663479 -0.022757154
000100 1f 4a 3d bd f0 d0 a2 bd bc 82 bf 3d 45 c1 83 3d
       -0.046213266 -0.07950008 0.093511075 0.064333476
000110 26 0d 8c 3d 95 64 0a be 0f 0a 70 bd cb a0 ce 3c
       0.06838445 -0.13514931 -0.058603343 0.025223156
000120 52 8a c3 3d 4e b7 34 3e 7b 79 c6 3d d3 5d b0 bd
       0.09547867 0.1764805 0.09691139 -0.086116455
000130 43 41 26 3d f8 1c 0a 3e c4 8c b3 bc dd e2 fc 3d
       0.040589582 0.13487613 -0.021917708 0.12347958
000140 48 c5 3d 3d 06 3e dd 3d 44 e7 1d bc c4 84 a0 bc
       0.04633072 0.10802846 -0.009637658 -0.019594558
000150 c2 99 c2 3d 30 09 93 bd c9 55 e6 bc e0 4f 19 3e
       0.09501983 -0.07179487 -0.028117077 0.14971876
000160 66 35 32 bc 69 92 b2 3c 78 b1 46 3d 5b 62 ed bd
       -0.010876989 0.02179833 0.04850909 -0.115910254
000170 5b 2a 64 3c 6f 62 bb 3d 60 39 e5 3d 62 5b e7 bb
       0.013926114 0.09149634 0.11192584 -0.007060454
000180 23 5b 4a bc 16 48 ee 3c a4 1a f4 3d 71 6a 49 3c
       -0.01235083 0.029087108 0.11919144 0.012293444
000190 4d fe a8 bd 5b e2 d0 bc 58 67 83 bd 20 9e 68 bc
       -0.08251629 -0.02549856 -0.06416196 -0.014197856
0001a0 ff 27 93 3d 53 90 38 3c ea a2 51 3d b4 55 1c 3c
       0.07185363 0.011264878 0.051180758 0.009541918
0001b0 1c 60 02 bd 18 8c 0a 3a 07 5e 3f 3c a8 de ca 3c
       -0.03182994 0.0005285158 0.011680133 0.024764374
0001c0 2b 65 c5 3c 52 ed 5e bc 68 24 ef 3d a8 b1 62 bc
       0.024096092 -0.013606386 0.11676866 -0.013836302
0001d0 40 15 1a bd c9 e2 23 bd 7f 08 7a bd 98 76 ee 3c
       -0.03761792 -0.0400112 -0.06104326 0.029109284
0001e0 e4 9c ca 3c a0 ed 3f 3d 59 b5 e0 bc d6 a9 9a 3d
       0.024733014 0.046857476 -0.027430223 0.07551925
0001f0 7d fe a4 bd d2 0f 34 be 88 a1 e9 bc 15 8e 8f 3c
       -0.08056352 -0.1758416 -0.028519407 0.017523805
000200 8c 44 b1 bc 1f b9 81 bd c2 16 9f 3d 94 d1 60 bc
       -0.021639131 -0.06334137 0.077680126 -0.013721842
000210 49 82 1d bd fc 12 d7 3d d6 41 6c bd 63 3e d4 bc
       -0.038454328 0.10501668 -0.057679974 -0.025908655
000220 9c 03 86 bd 12 d3 98 bd 27 22 14 3d 12 8c a0 bd
       -0.06543657 -0.074621335 0.036165383 -0.07839216
000230 cf 92 52 bd c6 b3 39 3c 09 be 06 be 86 fa 12 be
       -0.05140954 0.011334365 -0.1315843 -0.1435338
000240 5f 63 24 3d 04 1b 99 bd 76 8b 54 bd 0c 4e 70 3d
       0.04013383 -0.07475856 -0.051890813 0.05866818
000250 33 97 ef 3d 11 d6 ba 3d 20 ff 00 be 91 0d be 3d
       0.11698761 0.09122861 -0.12597322 0.09279931
000260 ea 62 82 bc 1f 53 95 3c 46 b2 8b bd 15 55 f5 bc
       -0.015916307 0.018228112 -0.06821112 -0.029947797
000270 e8 22 aa bc 04 cb 01 3d a7 e2 d8 3d 3b 05 ad bd
       -0.020768598 0.03168775 0.105901055 -0.08448263
000280 a3 98 90 3d d8 bf c6 3c 6d 3f c6 bc 8d fb 67 bc
       0.07060363 0.0242614 -0.024200166 -0.0141590955
000290 ee 36 12 3d d1 c6 80 3b c2 dc ee bc f6 c0 90 bd
       0.035696916 0.0039299508 -0.029158 -0.070680544
0002a0 5d 7a 5a 3c 24 7f a1 bd cd 44 24 bc 4c 69 e2 3c
       0.013334838 -0.07885578 -0.010026169 0.0276381
0002b0 77 9f af 3a d6 ce 44 bd 8d f4 07 3d 10 5d bc 3d
       0.0013398965 -0.048048817 0.033192206 0.09197438
0002c0 9b 57 06 3e 61 7d 73 3d 17 a5 80 3d 20 e3 5b bd
       0.13119356 0.059445743 0.062814884 -0.0536834
0002d0 a7 97 67 bc be 59 32 bc 18 bd 74 bd a0 25 51 bd
       -0.014135278 -0.010885654 -0.059750646 -0.051061273
0002e0 ed 8f 8b bd 86 8f 2a bd 58 2e 67 bd 70 05 15 3d
       -0.06814561 -0.04164078 -0.05644068 0.03638214
0002f0 fd 20 1c be ee 3f 26 bd fe dc 9c 3d 45 e2 b2 bd
       -0.15246959 -0.04058831 0.076593384 -0.08734564
000300 cf bc 8a bc 5c 0a 35 3d 1b a1 df bb cf 53 8d bd
       -0.016935734 0.044199333 -0.006824625 -0.06900751
000310 ed 06 ad bd 4a da ca bd 1e db 45 3d a6 29 96 3d
       -0.084485866 -0.099049166 0.04830467 0.073321626
000320 58 98 41 bd 31 f7 ac bc 5b d8 07 3d 74 cb e5 bd
       -0.047264427 -0.021113964 0.033165317 -0.11220446
000330 59 6c 99 bb 74 77 fd 3c ea 75 32 3c 43 79 7d 3d
       -0.0046821055 0.030940749 0.010892371 0.061883222
000340 07 69 12 3d 5e fe 36 3d 6b 44 aa bc 94 f8 15 3d
       0.035744693 0.044676177 -0.020784577 0.036614016
000350 dc 78 2a 3d 91 5d 34 bd 07 56 35 bd c0 f8 0e 3e
       0.041619167 -0.044034544 -0.044271495 0.13962078
000360 6d e1 58 3d 92 80 88 bd 16 88 dd 3b 84 58 db 3c
       0.052949358 -0.06665148 0.0067606075 0.026775606
000370 df dc dc 3d 3f b1 c5 3d c6 2c 54 bd 89 82 d9 3c
       0.10784315 0.09652948 -0.05180051 0.026551502
000380 87 f2 27 3c 49 8f c1 bc ca 17 2d bd 13 e1 cb 3c
       0.010250694 -0.023627894 -0.042259015 0.024887597
000390 b2 d7 65 3d b0 35 41 bc e6 98 79 3d 8b 30 16 3d
       0.056113906 -0.011792585 0.06093683 0.036667388
0003a0 39 2f b3 bc cb 79 a3 3c 82 1a af bd 0a 69 97 3c
       -0.021873103 0.019955536 -0.08549978 0.018482704
0003b0 a3 00 86 bd e2 39 24 bd 00 66 3a 3d 6f 37 7f 3d
       -0.0654309 -0.040094264 0.04550743 0.062308725
0003c0 62 67 87 bd d8 b4 04 3e 58 e4 a2 3d ab d6 01 bd
       -0.066115156 0.12959611 0.07953709 -0.031698864
0003d0 c6 b4 9d bd ef b8 4d 3c a5 3e 52 bc 8e 78 f7 3d
       -0.077004954 0.012556299 -0.012832318 0.12083541
0003e0 3e 92 82 3c 22 94 8c bc 45 3a d9 b9 3d 74 03 3b
       0.015938874 -0.017160479 -0.0004143288 0.0020058297
0003f0 ac 13 0d 3c a5 14 c3 3c ca 34 ca bd f2 fc f3 3d
       0.008610647 0.023813555 -0.0987335 0.1191348

0.features.2.0.block.0.1.weight f4 [64]
000000 79 27 80 3f 74 27 81 3f 1a 53 70 3f bc b7 6d 3f
       1.0012046 1.0090165 0.938768 0.9285848
000010 50 64 71 3f ac b2 6b 3f 4a 53 6b 3f db 7d 80 3f
       0.9429369 0.92069507 0.91923964 1.0038408
000020 89 d6 48 3f 96 96 63 3f 8b 1d 9e 3f b4 40 7e 3f
       0.78452355 0.8890165 1.2352766 0.9931748
000030 f1 47 6d 3f 5a 0a 74 3f 09 28 6c 3f 0f 6c 62 3f
       0.926879 0.95328295 0.9224859 0.88446134
000040 33 dd 69 3f 9c 11 70 3f 1f 8e 7b 3f 65 4f 6d 3f
       0.9135315 0.9377687 0.98263735 0.9269927
000050 64 83 5d 3f 95 68 7e 3f 0f 55 81 3f 0d 18 81 3f
       0.8652861 0.9937833 1.0104083 1.0085465
000060 71 43 72 3f 4b 78 81 3f 34 e7 7e 3f 64 03 6c 3f
       0.9463416 1.0114836 0.9957154 0.92192674
000070 db 4f 64 3f db 72 55 3f fb 1c 7a 3f 5c 1e 5a 3f
       0.8918435 0.8337838 0.9770047 0.85202575
000080 ad 9b 7d 3f 5d 36 6a 3f d0 3d 65 3f d8 ec 79 3f
       0.9906567 0.914892 0.89547443 0.9762702
000090 ff fe 6f 3f 3e b1 5d 3f 1e 64 5d 3f a0 d7 80 3f
       0.9374847 0.86598575 0.8648089 1.0065804
0000a0 df 3e 46 3f 6a ea 81 3f dc 80 7e 3f 5b b8 7e 3f
       0.77439684 1.0149662 0.99415374 0.99500054
0000b0 e1 13 4b 3f 10 32 67 3f 41 8c 76 3f 58 f6 72 3f
       0.7932721 0.90310764 0.9630776 0.9490714
0000c0 61 64 72 3f 88 14 75 3f c2 16 63 3f 5b 5a 86 3f
       0.94684416 0.95734453 0.887066 1.0496324
0000d0 82 ec 7e 3f b9 23 5e 3f 86 78 57 3f d8 f2 69 3f
       0.9957963 0.8677326 0.8416828 0.91386175
0000e0 87 5a 5f 3f 3e 6e 82 3f 01 32 69 3f 25 97 66 3f
       0.8724751 1.0189893 0.91091925 0.9007438
0000f0 a6 90 81 3f 7b e1 7f 3f f5 69 69 3f 43 70 6b 3f
       1.0122268 0.9995343 0.911773 0.9196817

0.features.2.0.block.0.1.bias f4 [64]
000000 e3 64 f9 3d e0 f2 81 3e 96 74 e1 3d f5 42 a9 3d
       0.12177446 0.2538061 0.11008565 0.08264724
000010 30 a2 67 3d a6 27 04 3e 9c a4 31 3d 04 44 ca 3d
       0.05655116 0.1290575 0.043369874 0.09876254
000020 f3 e0 88 3d 20 8f d1 3d ee f7 f2 be 67 38 b7 ba
       0.06683531 0.10232377 -0.4745478 -0.0013978601
000030 52 0c 81 3d 81 ad 96 3d 05 62 db 3d 47 52 bd 3d
       0.06301178 0.07357312 0.10712055 0.09244209
000040 ee 0d 0b 3e 10 16 4e 3c 47 da 9d 3d f7 18 60 bd
       0.13579533 0.012578502 0.07707649 -0.05471131
000050 04 6c 12 3d 48 ad cd 3c ce 23 5f 3e ad a2 4e 3e
       0.035747543 0.025107041 0.21791002 0.20179243
000060 b3 05 e7 3c 1c 30 a7 3d eb f4 98 3d 13 08 b0 3c
       0.02820096 0.08163473 0.074685894 0.021488225
000070 76 32 1c 3e 79 36 fe 3d ef ac e1 3d 64 42 30 3d
       0.15253624 0.124127336 0.110193126 0.043032065
000080 50 52 f5 3d e7 0a e6 3d 27 0a ad 3c 88 00 dd 3d
       0.119785905 0.11232548 0.021123005 0.10791117
000090 db 4f 01 3e df ea bf 3d bf e0 01 3e 7f e6 3a 3e
       0.12628119 0.0937097 0.1268339 0.1825199
0000a0 47 53 03 3e d2 30 e9 3d 71 6d 27 3e c1 97 11 3e
       0.12824737 0.11386265 0.16350342 0.14218046
0000b0 e2 db c5 3c c8 3f dc 3d 67 6b 0a 3e 7c 30 9a 3c
       0.0241527 0.10754353 0.13517533 0.018821947
0000c0 a7 6f f1 3d 2e 01 ce 3d 13 07 eb 3d 7f b0 d3 3d
       0.11788874 0.10058819 0.11475959 0.10336398
0000d0 e3 68 37 3e 0d b3 41 3d 37 c7 9a 3d 75 85 fe 3d
       0.17911105 0.047289897 0.075575285 0.12427799
0000e0 1f 26 e3 3d f9 55 4d 3d 0f 55 b8 3e 6f f0 0a 3d
       0.110912554 0.050130818 0.36002395 0.0339207
0000f0 4d de 2d 3e 7c 1c b7 3d 82 46 c7 3c cb ed 0a 3e
       0.16979332 0.0894098 0.024325613 0.13567273

0.features.2.0.block.0.1.running_mean f4 [64]
000000 8f d9 df 3c d9 75 99 bd 40 b5 5f 3e f4 36 47 3e
       0.02732542 -0.07493181 0.21846485 0.19454557
000010 d3 88 c5 3d 2d c1 33 be 4c 53 28 be 0e 41 f7 3e
       0.09645238 -0.1755416 -0.16438025 0.4829182
000020 cb 03 71 bf e3 36 6c 3f 8e a4 0e 3f c6 85 e6 3d
       -0.9414641 0.9227125 0.5571984 0.11255984
000030 ea 53 94 be ab 51 eb be 9a 82 4a be d0 ee f6 3e
       -0.2897027 -0.45960745 -0.19776383 0.48229074
000040 c7 d4 84 3e 8a fa 12 bf 72 31 44 3f c3 88 68 be
       0.25943586 -0.5741354 0.7663795 -0.2270842
000050 78 be 9d be 44 a0 a6 bd 9d 41 99 3f 9a 4b 50 3e
       -0.3080938 -0.08136037 1.1973149 0.2034134
000060 87 b8 36 3e d4 ca 7b be c3 1c de 3e a1 d6 0c be
       0.17843829 -0.24589092 0.43381318 -0.1375375
000070 0a ea fc 3e e3 9b 76 bd 56 18 be be 2b 84 b4 be
       0.49397308 -0.06020726 -0.37127942 -0.35257086
000080 c4 38 6f 3e d6 cf 24 bf 69 d0 0e bc 18 87 b1 bd
       0.23361498 -0.6437963 -0.008716681 -0.08668345
000090 36 63 53 3f 69 38 47 be 69 8a 44 bf 76 7e 47 bf
       0.8257326 -0.19455113 -0.767737 -0.7792734
0000a0 20 f0 a9 3f 1b 93 b6 3c d7 1e 83 be 37 da 13 be
       1.3276405 0.022286942 -0.25609466 -0.14438711
0000b0 58 63 c6 be 2a 55 41 bd 00 2f 17 3f 66 6b 01 3f
       -0.38747668 -0.04720036 0.5905609 0.505545
0000c0 49 cd 25 3f 72 0a 58 3f fe 39 c6 3e 68 30 17 bf
       0.64766365 0.8439094 0.3871612 -0.5905824
0000d0 7c 4d bc be f5 82 bf 3d 4b d5 24 bf 72 88 82 bd
       -0.36777866 0.0935115 -0.6438796 -0.06373681
0000e0 89 b7 c7 be 27 fb 1c 3f f6 a6 0c be 62 69 88 bf
       -0.39007214 0.6132073 -0.13735566 -1.065716
0000f0 69 0f 18 3e 34 bf 30 3e 8f 62 99 3e 4a 96 11 bf
       0.14849629 0.17260438 0.29958007 -0.5686995

0.features.2.0.block.0.1.running_var f4 [64]
000000 7d 4b d8 3f 08 df 68 3f 83 c3 a9 40 ee 2c 37 3f
       1.6898037 0.9096532 5.305116 0.7155293
000010 ca e7 50 40 eb 05 43 3f c6 d2 e9 3f 77 04 36 40
       3.2641473 0.76180905 1.8267448 2.8440225
000020 77 bf 09 40 69 80 da 3f 4b 12 87 3e f8 e4 8c 3f
       2.152311 1.7070438 0.26381144 1.1007376
000030 94 5e d4 3f e0 0a 9a 3f 36 94 64 3f 8a 0b c5 3f
       1.6591363 1.2034569 0.8928865 1.5394146
000040 e7 c1 95 3f 4b c9 7d 40 e3 34 c9 3f f6 5c 51 40
       1.1699799 3.965411 1.5719265 3.271299
000050 17 89 95 3f 02 c4 8e 3f d8 c2 71 40 0a ae b6 3f
       1.1682462 1.1153567 3.7775173 1.4271863
000060 cf 37 23 40 8d 81 80 3f 9d 2d 0d 40 a6 57 7f 3f
       2.5502813 1.0039536 2.205909 0.99743116
000070 b3 2d 74 40 98 bb c0 3f 71 9e 75 3f f7 5c 9a 3f
       3.8152893 1.5057249 0.9594489 1.2059621
000080 1f e0 f9 3f b1 85 97 3f e5 48 fb 3f 65 d8 d7 3f
       1.9521521 1.1837674 1.9631621 1.6862913
000090 a7 c0 26 40 0d 4a 97 3f 32 63 2c 40 c2 16 32 40
       2.6055086 1.1819474 2.6935544 2.782639
0000a0 8c cb 0d 40 1f 3b 76 40 c2 c4 bc 3f 3f 6d 81 3f
       2.2155485 3.8473585 1.4747546 1.0111464
0000b0 65 f8 ae 3f da 9f c4 3f 73 21 91 40 bd e8 5e 40
       1.3669554 1.5361283 4.535333 3.4829552
0000c0 07 70 1d 40 f0 8b d0 3f 0b 34 e1 3f 0b 60 0a 40
       2.4599626 1.6292706 1.7594007 2.162112
0000d0 ab f9 94 40 69 15 ee 3f 96 b2 61 3f cc 95 df 3f
       4.655477 1.8600284 0.88163126 1.7467589
0000e0 2c 4f b0 3f 64 ec 05 40 bb 82 aa 3f c5 e2 21 40
       1.3774161 2.0925531 1.3321146 2.529466
0000f0 24 b0 fd 3f 6c 30 88 40 37 18 47 40 a7 73 01 40
       1.9819379 4.255911 3.110853 2.0226839

0.features.2.0.block.1.0.weight f4 [32, 64, 1, 1]
000000 3d e9 95 3d 1b 8b 72 3d 97 bd 8b 3d 53 be e9 3e
       0.07319877 0.059214693 0.06823271 0.45653018
000010 a2 7d e3 bd 4e e9 67 3e b8 27 c9 3e 55 18 09 3e
       -0.11107947 0.22647592 0.39288116 0.13388188
000020 2b b9 35 3e 28 92 72 3d 3f 15 5c 3e cf 20 0f be
       0.17746417 0.059221417 0.2149248 -0.13977359
000030 54 ca 7a be 5d be 1c 3d 19 6f 3d be a8 e1 8d bd
       -0.24491245 0.038267482 -0.18499412 -0.06927806
000040 6a 91 84 3e fb 97 26 be f3 f3 8f be 0b 4b ad 3e
       0.25892192 -0.16268913 -0.28115806 0.33846316
000050 ac e9 69 3e 59 5e b5 3d 2a ef d2 be d7 51 8d 3d
       0.22843045 0.08855886 -0.41198093 0.06900375
000060 3e 7c 61 3e bf 78 9b be 33 0f 14 be 5d 18 a8 3d
       0.22020051 -0.3036556 -0.14458923 0.08207772
000070 c9 e8 9a 3d 3b d0 81 3e 46 4f f7 bd 72 0e 08 3e
       0.075639315 0.2535418 -0.12075667 0.1328676
000080 af 98 c2 3e 4c 5a 24 3d 6f e0 29 be a8 38 96 3e
       0.38007113 0.040125176 -0.16589521 0.293401
000090 c6 6e 2d be 53 c4 94 3e 83 ff 8a be 75 fd 59 3e
       -0.16936788 0.29056033 -0.27148065 0.21288092
0000a0 6b 11 d3 be 25 09 32 3e a8 11 b4 3e b8 e3 4f be
       -0.41224226 0.17386301 0.3516972 -0.20301712
0000b0 28 e5 ee bd b8 b5 65 be e4 62 cb 3d d4 6a 40 be
       -0.11664802 -0.22432601 0.09930971 -0.18790752
0000c0 64 7a 0c be 18 f3 57 bf 84 53 e1 3e de 01 35 3e
       -0.13718563 -0.84355307 0.4400903 0.17676494
0000d0 39 4f c3 bc 58 c2 44 be 9a 11 b6 3d f7 cd d2 3d
       -0.023841487 -0.19214761 0.08890076 0.10293191
0000e0 ee 5f d7 3e 3c f2 87 be cf 28 5f 3d a3 75 94 3e
       0.42065376 -0.26551998 0.054482277 0.28996
0000f0 b9 4f 22 3d 9a e5 11 be 0e e2 78 3e 2a 22 98 3e
       0.03962681 -0.14247742 0.24304983 0.29713565
000100 77 32 09 3e 48 ce 50 be 5d 14 a5 bc 64 e0 b7 be
       0.13398157 -0.2039119 -0.020151312 -0.35913384
000110 7e 47 b2 bc e6 f0 30 3f 4a cd b8 3e 8f 9f 0f be
       -0.021762606 0.6911758 0.36094123 -0.1402571
000120 3d 17 41 be ee 07 c6 3e c0 c4 a5 3e 14 d2 d8 3d
       -0.18856521 0.38677925 0.3237667 0.10586944
000130 8d 7c f5 3d 80 b9 9c 3d 13 d5 46 3e 05 f6 6e 3e
       0.11986647 0.07652569 0.19417219 0.23336037
000140 1b 2a 26 bf 48 87 bc bd 2f a9 fb 3d 8c 01 dc 3c
       -0.64908 -0.0920549 0.122881286 0.026856206
000150 74 bd 7d 3e 42 c5 3c be 78 57 12 3a 64 f9 a7 be
       0.24779302 -0.18434623 0.0005582492 -0.32807457
000160 57 70 b5 bd 96 d1 e8 3c c4 2e 16 3e 21 06 2d be
       -0.08859318 0.02842025 0.14666277 -0.16896869
000170 de bb f9 be 1e b9 c9 3c d4 8d 08 3d e8 c2 0f be
       -0.48776144 0.024624404 0.033338383 -0.14039195
000180 d4 45 f5 3e 4f 71 e4 bc 80 26 ad bd 75 c7 dc 3d
       0.47904837 -0.027886061 -0.08454609 0.10780231
000190 16 59 36 3d c6 12 8f 3e c7 c6 12 3e b4 1a 0e 3f
       0.044518553 0.2794401 0.1433364 0.55509496
0001a0 0a f3 21 be 7d 5f c2 bd 81 43 57 bc 15 18 70 3e
       -0.15815368 -0.09490869 -0.013138653 0.23446687
0001b0 24 10 06 be 33 7e ef 3d 2e 5b 82 3d 19 b6 b9 be
       -0.13092095 0.116939925 0.063650474 -0.36271742
0001c0 37 cd 81 3e a0 a6 09 3f ae d4 83 be a6 1e 95 3b
       0.2535188 0.53769875 -0.257482 0.0045507727
0001d0 fa f9 1a bc e9 f8 f8 3e 8b cb 9f bc bd 89 96 3c
       -0.009459013 0.48627403 -0.019506237 0.018376226
0001e0 c1 8c 43 3e 02 07 83 bd 23 57 8a 3d f7 eb 7a bd
       0.19096662 -0.06397821 0.06754901 -0.06126019
0001f0 41 15 4e be bc 30 7a be 01 88 72 be 0d c4 cc 3e
       -0.20125295 -0.24432653 -0.23684694 0.39993325
000200 74 fa 6b 3e c4 b7 c2 3e 53 2c 28 3e ae dc 5d 3e
       0.23044759 0.38030827 0.16423158 0.21666214
000210 57 59 a5 bd 6d cb b9 bd 7f 04 c4 3e 32 e0 f3 3d
       -0.08073681 -0.090720035 0.3828468 0.11907996
000220 c5 6b a8 3e 25 6d 60 3d b8 5c 2b 3f cb 58 2b bf
       0.32894722 0.05479159 0.6693835 -0.6693236
000230 ee d3 d8 3e b9 00 90 be be 90 36 be ef 51 c6 be
       0.4234919 -0.2812555 -0.17828652 -0.38734385
000240 ed 98 ed 3d 38 ad ba be 98 da 61 be 8c 56 bf 3d
       0.11601434 -0.3646028 -0.22056043 0.093426794
000250 1b bd d0 3d 09 a2 8b 3d 60 ce 20 3f fd c2 a4 be
       0.10192319 0.06818015 0.62814903 -0.32180014
000260 b6 d8 12 be e2 50 0a 3c 56 9b f8 3b 7a 58 4c be
       -0.14340481 0.0084421355 0.007586877 -0.19955626
000270 b8 88 82 be dc 54 ed 3d 16 b6 ab 3e ba 6a c0 3d
       -0.25494933 0.11588451 0.33537358 0.093953565
000280 c6 69 46 3e bd 92 81 be 2a 09 ab 3e 96 f5 a6 be
       0.19376287 -0.25307265 0.3340543 -0.32609242
000290 8a ff 94 3e 63 7e ae bd 16 b8 2c 3e 6b b0 0f bf
       0.2910121 -0.085202 0.16867098 -0.5612857
0002a0 52 10 14 3e 6f be 38 3e 50 7e e4 3e c4 47 c5 be
       0.1445935 0.18041395 0.4462762 -0.38531315
0002b0 81 8d 8e 3d af da 0b bf 0a 52 6f 3e f4 44 8f be
       0.069605835 -0.5463056 0.23371139 -0.27982295
0002c0 1f 46 b0 bd dc 03 30 3e e4 3a 88 be b1 71 2b 3d
       -0.086071245 0.17188972 -0.2660743 0.04185647
0002d0 9b 0e c9 be 9d 89 e2 bd f4 d6 15 be f2 b6 b4 be
       -0.39268956 -0.11061404 -0.1463278 -0.35295826
0002e0 74 63 e2 bd 6f 5c e4 3e d9 23 ef be 8d a8 d3 bd
       -0.110541254 0.4460177 -0.46707037 -0.10334883
0002f0 e3 c3 61 bd d3 7e e6 3d 82 73 01 3e 15 b5 67 bd
       -0.055118453 0.112546586 0.12641719 -0.056569178
000300 06 bc 46 be 11 72 0f 3e f8 83 c4 be f4 cb 94 bd
       -0.19407663 0.14008357 -0.38381934 -0.072654635
000310 38 65 42 be e3 71 60 3e b3 10 b4 3e 6d 76 0f 3e
       -0.18983924 0.21918444 0.3516899 0.1401002
000320 4e dc f7 be 76 51 83 3e bc 1a dd bc 6c 82 81 be
       -0.48410267 0.25648087 -0.026990287 -0.25294816
000330 5a 29 f7 bd 4b a9 5c be aa a4 cf 3e e3 53 81 3e
       -0.12068434 -0.21548955 0.40555316 0.25259313
000340 03 09 93 bd b4 25 ff be 45 62 d0 3d ca 27 7e be
       -0.07179453 -0.49833453 0.101749934 -0.24819866
000350 b9 9a fd be 72 8b c2 bd 87 3f b1 3e 2b 79 86 be
       -0.49532107 -0.09499253 0.3461878 -0.2626432
000360 64 c8 db 3e af 0a fa bc 45 5b 4b be a3 ba b0 bd
       0.42926323 -0.030522672 -0.19859035 -0.08629348
000370 1b 45 1a be db fc a2 3e d2 50 57 3e 83 74 91 3d
       -0.15065424 0.31833538 0.21026924 0.07102301
000380 ba 21 0f bf 8d 93 f1 3e 4f 4b 94 bc 56 51 f0 bd
       -0.5591084 0.47182885 -0.018102316 -0.117342636
000390 bc 2f c9 3e a0 08 53 be fa 39 da 3c 69 b3 29 3e
       0.3929423 -0.20608759 0.026638974 0.16572346
0003a0 4e e1 7f be 9f 4d b9 3d 59 5f 97 3e 0c 68 d6 be
       -0.2498829 0.09048008 0.29564932 -0.41876256
0003b0 b6 1e 6b 3e f0 e7 1d be 59 65 a5 3e 9e 00 c9 bd
       0.22960934 -0.15420508 0.32303885 -0.09814571
0003c0 35 85 c8 3d 58 10 72 bd 40 3f ff be f1 ab 9d be
       0.09791032 -0.059097618 -0.49852943 -0.30795243
0003d0 01 5c 3b 3d 31 21 a1 be 46 17 78 bd 32 85 06 3d
       0.04574204 -0.31470636 -0.06056907 0.03284187
0003e0 3d 68 a0 3d 19 bf 13 be 04 ac d4 3d 5a d0 41 3d
       0.07832382 -0.14428367 0.10384372 0.04731784
0003f0 89 83 9d 3d 4f 2e 99 be df 08 cf be 14 39 3a be
       0.07691104 -0.29918143 -0.40436456 -0.18185836

0.features.2.0.block.1.1.weight f4 [32]
000000 e4 34 7d 3f 4b f3 7b 3f 46 9e 72 3f bf 8f 85 3f
       0.9890883 0.9841811 0.94772756 1.0434493
000010 87 f1 80 3f 80 4d 8c 3f dc 81 6c 3f 8f a8 80 3f
       1.0073708 1.0961151 0.9238565 1.005144
000020 55 04 68 3f d1 90 70 3f 3a d6 82 3f 16 64 88 3f
       0.9063161 0.9397097 1.0221627 1.0655544
000030 36 96 6d 3f 70 2d 83 3f 0d 7e 7a 3f 75 ed 7a 3f
       0.9280733 1.0248241 0.9784859 0.9801858
000040 8f 14 8d 3f eb 88 68 3f 20 f5 60 3f 63 49 88 3f
       1.1021899 0.9083392 0.8787403 1.0647396
000050 df d1 86 3f f8 36 6a 3f 15 07 80 3f c5 d2 78 3f
       1.0532798 0.91490126 1.0002161 0.9719661
000060 ed 2a 78 3f ad d6 78 3f ef a3 8d 3f ca 9d 7d 3f
       0.969405 0.9720257 1.1065654 0.9906889
000070 3c a2 74 3f 49 75 67 3f c0 03 80 3f 53 ca 75 3f
       0.9556005 0.9041334 1.0001144 0.9601185

0.features.2.0.block.1.1.bias f4 [32]
000000 8e 0a 4f bc 8d 5e e7 3c ae f7 10 bd 76 e6 89 3d
       -0.012636794 0.028243328 -0.035392456 0.0673341
000010 8b a1 8a bc 73 3e 3c bb 02 9c 0e bc 91 d0 21 3d
       -0.016922733 -0.0028723746 -0.008704187 0.039505545
000020 23 77 cb bb 18 04 90 3c a1 3d 9a bc a6 e6 ad 3c
       -0.0062092706 0.017580077 -0.018828215 0.021228146
000030 d0 a3 b7 3c 32 a2 b7 3d ad 67 18 bc a1 2a cf bc
       0.02241698 0.08966483 -0.009302062 -0.025288882
000040 13 26 b3 3c 7c 23 f5 3c 36 32 9a 3b 92 b2 84 bc
       0.021868741 0.029924147 0.0047056926 -0.01619843
000050 40 96 29 3c 9a d7 48 3c d0 f2 ea bc dc f3 11 3c
       0.010350764 0.012258435 -0.028680235 0.008908238
000060 ac 4b 31 3c 94 bd 4c 3d 79 2c ab bb 2d 19 01 bb
       0.010821264 0.049985483 -0.0052238074 -0.0019698844
000070 1d 7d 34 bd 20 96 6f bb a1 29 c5 bb 17 5e 52 bc
       -0.04406463 -0.0036557987 -0.0060169254 -0.012839816

0.features.2.0.block.1.1.running_mean f4 [32]
000000 ca 4e d2 3e c1 be fb 3e 17 5c 4e be 23 49 c8 be
       0.41075736 0.4916897 -0.20152317 -0.391183
000010 5c c9 03 bf 23 11 04 bd 69 cf a0 3d d1 c6 2d bc
       -0.51479125 -0.032242905 0.0785206 -0.010606484
000020 0b 59 14 bf 4d 24 c3 3e e5 bd 12 bf ae c7 94 bc
       -0.5794837 0.38113633 -0.57321006 -0.018161621
000030 40 4c 85 3e 26 e5 f0 3e 37 b7 aa 3e c2 d3 a6 3e
       0.26034737 0.47049826 0.33342907 0.32583433
000040 bd 9e a4 3e 29 7d 77 3e fa 0d 3f 3e 0b cb a1 bd
       0.32152358 0.24168839 0.18657675 -0.079000555
000050 2b fd 7f be e2 a4 19 3e 3c ac 25 3f ef 32 ff be
       -0.2499892 0.15004304 0.64715934 -0.49843547
000060 28 27 d0 be 1b 15 57 3e 81 fc 84 3e 2c ac 40 3e
       -0.40654874 0.21004145 0.25973895 0.18815678
000070 92 3c 34 be f3 e5 96 be 1c 19 42 be 71 17 6c 3d
       -0.1760123 -0.29472312 -0.18954891 0.057639543
